weights_arm/104.pt (torch, 70926 bytes, 80 tensors)

A f4 [3, 9, 9]
00000000: 0000 003f 0000 0000 0000 0000 0000 0000
00000010: 0000 0000 0000 0000 0000 0000 0000 0000
00000020: 0000 0000 0000 0000 cdcc 4c3e 0000 0000
00000030: 0000 0000 0000 0000 0000 0000 0000 0000
00000040: 0000 0000 0000 0000 0000 0000 0000 0000
00000050: abaa aa3e 0000 0000 0000 0000 0000 0000
00000060: 0000 0000 0000 0000 0000 0000 0000 0000
00000070: 0000 0000 0000 0000 abaa aa3e 0000 0000
00000080: 0000 0000 0000 0000 0000 0000 0000 0000
00000090: 0000 0000 0000 0000 0000 0000 0000 0000
000000a0: 0000 003f 0000 0000 0000 0000 0000 0000
000000b0: 0000 0000 0000 0000 0000 0000 0000 0000
000000c0: 0000 0000 0000 0000 abaa aa3e 0000 0000
000000d0: 0000 0000 0000 0000 0000 0000 0000 0000
000000e0: 0000 0000 0000 0000 0000 0000 0000 0000
000000f0: abaa aa3e 0000 0000 0000 0000 0000 0000
00000100: 0000 0000 0000 0000 0000 0000 0000 0000
00000110: 0000 0000 0000 0000 0000 003f 0000 0000
00000120: 0000 0000 0000 0000 0000 0000 0000 0000
00000130: 0000 0000 0000 0000 0000 0000 0000 0000
00000140: 0000 003f 0000 0000 cdcc 4c3e 0000 0000
00000150: 0000 0000 0000 0000 0000 0000 0000 0000
00000160: 0000 0000 0000 0000 0000 0000 0000 0000
00000170: 0000 0000 0000 0000 0000 0000 0000 0000
00000180: 0000 0000 0000 0000 0000 0000 0000 0000
00000190: cdcc 4c3e 0000 0000 0000 0000 0000 0000
000001a0: 0000 0000 0000 0000 0000 0000 0000 0000
000001b0: 0000 0000 0000 0000 abaa aa3e 0000 0000
000001c0: 0000 003f 0000 0000 0000 0000 0000 0000
000001d0: 0000 0000 0000 0000 0000 0000 0000 0000
000001e0: abaa aa3e 0000 0000 0000 0000 0000 0000
000001f0: 0000 0000 0000 0000 0000 0000 cdcc 4c3e
00000200: 0000 0000 0000 0000 0000 0000 0000 0000
00000210: 0000 0000 0000 0000 0000 0000 0000 0000
00000220: 0000 0000 0000 0000 0000 0000 0000 0000
00000230: abaa aa3e 0000 0000 0000 003f 0000 0000
00000240: 0000 0000 0000 0000 0000 0000 0000 0000
00000250: 0000 0000 0000 0000 abaa aa3e 0000 0000
00000260: 0000 0000 0000 0000 cdcc 4c3e 0000 0000
00000270: 0000 0000 0000 0000 0000 0000 0000 0000
00000280: 0000 0000 0000 0000 0000 0000 0000 0000
00000290: 0000 0000 0000 0000 0000 0000 0000 0000
000002a0: 0000 0000 0000 0000 0000 0000 0000 003f
000002b0: 0000 0000 abaa aa3e 0000 0000 0000 0000
000002c0: abaa aa3e 0000 0000 0000 0000 0000 003f
000002d0: 0000 0000 0000 0000 0000 0000 abaa aa3e
000002e0: 0000 0000 0000 0000 0000 0000 0000 0000
000002f0: 0000 0000 0000 0000 0000 0000 0000 0000
00000300: 0000 0000 0000 0000 0000 0000 0000 0000
00000310: 0000 0000 0000 0000 0000 0000 0000 0000
00000320: 0000 0000 0000 0000 0000 0000 0000 0000
00000330: 0000 0000 0000 0000 0000 0000 0000 0000
00000340: 0000 0000 0000 0000 0000 0000 0000 0000
00000350: 0000 0000 abaa aa3e 0000 0000 0000 0000
00000360: 0000 0000 0000 0000 0000 0000 0000 0000
00000370: 0000 0000 0000 0000 0000 0000 0000 0000
00000380: 0000 0000 0000 0000 0000 0000 0000 0000
00000390: 0000 0000 0000 0000 0000 0000 0000 0000
000003a0: 0000 0000 0000 0000 0000 0000 0000 0000
000003b0: 0000 0000 0000 0000 0000 0000 0000 0000
000003c0: 0000 0000 0000 0000 0000 0000
0.5 0.0 0.0 0.0 0.0 0.0 0.0 0.0
0.0 0.0 0.2 0.0 0.0 0.0 0.0 0.0
0.0 0.0 0.0 0.0 0.33333334 0.0 0.0 0.0
0.0 0.0 0.0 0.0 0.0 0.0 0.33333334 0.0
0.0 0.0 0.0 0.0 0.0 0.0 0.0 0.0
0.5 0.0 0.0 0.0 0.0 0.0 0.0 0.0
0.0 0.0 0.33333334 0.0 0.0 0.0 0.0 0.0
0.0 0.0 0.0 0.0 0.33333334 0.0 0.0 0.0
0.0 0.0 0.0 0.0 0.0 0.0 0.5 0.0
0.0 0.0 0.0 0.0 0.0 0.0 0.0 0.0
0.5 0.0 0.2 0.0 0.0 0.0 0.0 0.0
0.0 0.0 0.0 0.0 0.0 0.0 0.0 0.0
0.0 0.0 0.0 0.0 0.2 0.0 0.0 0.0
0.0 0.0 0.0 0.0 0.0 0.0 0.33333334 0.0
0.5 0.0 0.0 0.0 0.0 0.0 0.0 0.0
0.33333334 0.0 0.0 0.0 0.0 0.0 0.0 0.2
0.0 0.0 0.0 0.0 0.0 0.0 0.0 0.0
0.0 0.0 0.0 0.0 0.33333334 0.0 0.5 0.0
0.0 0.0 0.0 0.0 0.0 0.0 0.33333334 0.0
0.0 0.0 0.2 0.0 0.0 0.0 0.0 0.0
0.0 0.0 0.0 0.0 0.0 0.0 0.0 0.0
0.0 0.0 0.0 0.5 0.0 0.33333334 0.0 0.0
0.33333334 0.0 0.0 0.5 0.0 0.0 0.0 0.33333334
0.0 0.0 0.0 0.0 0.0 0.0 0.0 0.0
0.0 0.0 0.0 0.0 0.0 0.0 0.0 0.0
0.0 0.0 0.0 0.0 0.0 0.0 0.0 0.0
0.0 0.0 0.0 0.0 0.0 0.33333334 0.0 0.0
0.0 0.0 0.0 0.0 0.0 0.0 0.0 0.0
0.0 0.0 0.0 0.0 0.0 0.0 0.0 0.0
0.0 0.0 0.0 0.0 0.0 0.0 0.0 0.0
0.0 0.0 0.0

data_bn.weight f4 [27]
00000000: 7fcf ce3d 5073 783d 67f0 913d e55f 853e
00000010: 7f59 b53d 1450 a83d 59bf 893e 0763 413e
00000020: d149 713e dead f23e a389 093f fa5b c23e
00000030: 3cb8 083f 6d3e 053f 77bc c63e bfd8 8e3e
00000040: d446 423e 635b 703e 9026 f83e 229c d43e
00000050: ba46 b53e 530f 033f ee3e df3e cb79 b63e
00000060: 4340 533e 1aba 1f3d c308 a93d
0.100981705 0.060656846 0.07125931 0.26049724 0.08854961 0.08218399 0.269038 0.18885432
0.23563315 0.47398275 0.5372564 0.37960798 0.5340612 0.5204838 0.38815662 0.2789974
0.18972331 0.23472361 0.4846692 0.4152537 0.35405523 0.5119526 0.436027 0.35639796
0.20629983 0.03899584 0.08253624

data_bn.bias f4 [27]
00000000: a8c7 91bb 5e39 873c 24be 51bc 3bae babc
00000010: d4c1 fabb 6d76 163b b237 3a3d 5539 1b3c
00000020: d266 55bc 6613 dbbc 87a1 d63a c08a 533c
00000030: b63b 363a abe4 f63a a84d 13bc ce00 e43c
00000040: acbe 2c3d 1e1c ff3c 53b6 813b 39ec e5bb
00000050: 1459 fcbb 037e d6bc 8af7 ccbc 47ef 683b
00000060: 3c32 7e3c 9a03 193c 2fd8 9e3b
-0.0044488497 0.016506847 -0.012801681 -0.022788158 -0.0076525006 0.002295877 0.04546327 0.009474118
-0.013025003 -0.026742648 0.0016375043 0.012911499 0.00069516466 0.0018836459 -0.008990683 0.027832415
0.042174026 0.031141337 0.0039585023 -0.0070166853 -0.0077010486 -0.026183134 -0.02502038 0.003554301
0.0155149065 0.009339238 0.0048475484

data_bn.running_mean f4 [27]
00000000: 548d bb42 42df 9f42 2490 be41 9b2d cd42
00000010: f633 ae42 7f2d cc41 d1b9 b842 6064 a442
00000020: d68b c341 450a d142 bd81 a842 1cca c541
00000030: 9f61 e042 2296 a342 2ee7 c041 8741 e142
00000040: 3902 b842 4c0c d541 ba7a 0643 7489 c642
00000050: b90b e141 6aa3 0543 49c8 bd42 058c d741
00000060: 6a6f de42 f5ff c442 004c e041
93.77603 79.93605 23.820381 102.58907 87.10149 25.522215 92.36292 82.196045
24.44328 104.52006 84.253395 24.723686 112.19067 81.79323 24.11288 112.62798
92.00434 26.631004 134.4794 99.26846 28.130724 133.63834 94.89118 26.943369
111.217606 98.499916 28.03711

data_bn.running_var f4 [27]
00000000: 9169 4646 a8c0 ac46 b86a f045 8512 4f46
00000010: 9a5b bd46 2228 0546 7917 2046 875c a546
00000020: 513c f145 8e21 5046 a5ef 9a46 2737 ea45
00000030: d3f3 6b46 4bc7 8e46 8138 dc45 ad20 8746
00000040: c48a d746 2bd0 1246 781f b446 9b15 e046
00000050: 33d8 1946 f531 ad46 33e5 c446 9575 0946
00000060: d4b9 8f46 c0b9 cb46 2aa2 1346
12698.392 22112.328 7693.34 13252.63 24237.8 8522.033 10245.868 21166.264
7719.5396 13320.389 19831.822 7494.894 15100.956 18275.646 7047.063 17296.338
27589.383 9396.042 23055.734 28682.803 9846.05 22168.979 25202.6 8797.3955
18396.914 26076.875 9448.541

st_gcn_networks.0.gcn.conv.weight f4 [24, 3, 1, 1]
00000000: dcb0 9bbd e640 ecbb 7160 883b 54f5 0d3e
00000010: c398 7bbd 2fd8 843d 001d ba3d d492 b43b
00000020: f161 4d3d c54e 22bd 8012 84bc fd4f 0f3e
00000030: dbbd f93c d36f c8bc 25f1 77be 2917 593e
00000040: 263d 9d3e 8358 953d 808d 6abe 738a 3b3e
00000050: c6ce a63d 0585 44be 6979 893d b0bd 0cbe
00000060: d5d1 41bd a4e5 6fbd 3e24 adbc af71 84be
00000070: cbf4 bcbd ef2a 333d 074e 2a3e 044e a7bc
00000080: 4038 9abc c3b8 10be ed18 0abe 6d94 1b3c
00000090: e602 77bb b72e 80bc 5e28 523e 4f0d 26bd
000000a0: 05f4 76be f950 05be b70f 523d 4735 8c3d
000000b0: b4f8 5f3d fe90 333e 2914 c8bd 3874 2c3e
000000c0: 8a9b 56bc f75d 2a3c 7fa1 c8bb 75e1 26bd
000000d0: ab28 c4bc afb7 29bd 79fb 243e 8655 8039
000000e0: d937 053d 97f1 37bd 1612 6ebc 18b0 613c
000000f0: 65ba 4ebe c0ee ad3b 8165 82bc 0809 3f3d
00000100: 30d2 48bd d34a fa3d 9fe8 593d 6a56 22bd
00000110: ebc2 7abc 6c08 dcbd 6e88 153e e71f 5a3d
-0.076020926 -0.007209885 0.0041618873 0.13863117 -0.06142498 0.06486546 0.090875626 0.0055106673
0.050142232 -0.0396259 -0.016122103 0.13995357 0.030486038 -0.024467384 -0.24213083 0.21200241
0.30710715 0.07292273 -0.2290554 0.18314533 0.08144908 -0.19191368 0.0671261 -0.13744235
-0.047319252 -0.05856861 -0.021135446 -0.25867984 -0.09226378 0.043742117 0.16631328 -0.020422943
-0.01882565 -0.14132981 -0.13486071 0.009495837 -0.0037690937 -0.015647275 0.20523211 -0.040540036
-0.24116524 -0.1301917 0.051284518 0.06846099 0.05468054 0.17535779 -0.0976947 0.16841209
-0.013098607 0.0103983795 -0.0061227675 -0.040742356 -0.023945173 -0.04143494 0.16111554 0.00024477782
0.032523964 -0.044908132 -0.014530679 0.013774894 -0.20188291 0.0053080022 -0.015917541 0.046639472
-0.049028575 0.12221303 0.05320036 -0.039633192 -0.015305261 -0.10743794 0.14602825 0.05325308

st_gcn_networks.0.gcn.conv.bias f4 [24]
00000000: 1e77 ae3c 081c 603d dc7a 833d bebb a23d
00000010: b9fc 8bbc 6b3f 3ebe 1836 b9bb 2ed8 023e
00000020: e847 a1bd 7b68 993c 1877 b33d 643e 0abd
00000030: c142 b13c 16da 113e 214a 313e 19bd 35bc
00000040: e3ab 9cbc 246a 2cbe 01f5 1b3d 28e3 84bd
00000050: 75fd 243d f5d2 d73c 2386 a7bc 9862 ab3b
0.021297034 0.054714233 0.06419918 0.07945965 -0.017088281 -0.1857888 -0.0056522004 0.12777779
-0.07875043 0.018726578 0.0876295 -0.033750907 0.021638276 0.1424335 0.17313434 -0.011092448
-0.01912493 -0.16837364 0.03807545 -0.06488639 0.040280778 0.02634571 -0.020449704 0.005230259

st_gcn_networks.0.tcn.0.weight f4 [8]
00000000: e3b1 393e f04d b23e 59cf cd3e 8df5 9f3e
00000010: a6a6 813e ed3c b73e d5ed b83e 40d5 ba3e
0.18134265 0.34825087 0.40197256 0.31242028 0.25322455 0.3578867 0.3611895 0.36490822

st_gcn_networks.0.tcn.0.bias f4 [8]
00000000: 334f e63c 221d 193d aa5f 173d 495a 8d3c
00000010: 048d e0bc d1d8 3f3d a1a6 ebbb 1100 1fbd
0.028113937 0.0373813 0.036956467 0.017254965 -0.027410991 0.04683763 -0.0071914946 -0.038818423

st_gcn_networks.0.tcn.0.running_mean f4 [8]
00000000: fc6d eebb 021d 9f3a c996 aa3c 2823 723b
00000010: 191d 183b 66e8 e7bb 2572 983c af08 863c
-0.0072762948 0.0012139382 0.020823853 0.0036947224 0.0023210703 -0.0070772646 0.018609116 0.016361563

st_gcn_networks.0.tcn.0.running_var f4 [8]
00000000: fefd 1639 881f 9c39 88f1 d739 2443 a939
00000010: ff34 dc37 07aa 9939 e69e 023a 87ab ac38
0.00014399734 0.0002977813 0.0004118795 0.00032284216 2.6250722e-05 0.00029309114 0.0004982784 8.2335486e-05

st_gcn_networks.0.tcn.2.weight f4 [8, 8, 9, 1]
00000000: 320e 18bc d5a3 a6bb 54b8 6f3b 67b4 c5bb
00000010: d9ec 1a3b 2dec bfbc 1b20 2f3b 6d12 f7bb
00000020: 16ef 363c 4def b03c a277 53bd fdf0 aabc
00000030: e64b f1bb d9d3 30bc d041 f33c 99dc 903c
00000040: 773f 873b 11ad 8dbc 6176 323d 47d0 6e3d
00000050: 01de f43c 768e 6a3d 036f 90bc b3f8 bf3d
00000060: bff6 6abd be73 043d c3fb 64bd 769a 973b
00000070: 2840 41bc e976 763d 0ded fcbb 2861 3b3c
00000080: b78d 193d fac2 f63c e07a 193d 9017 403c
00000090: cabc 3fbd d6b7 0dbd 727a ad3c 74c6 a1bc
000000a0: 37bf d3bc 4681 b43c 1e0f cc3c 08b7 13bd
000000b0: 0d6a d63b 7b2d 17bd 7125 033c 659d 6e3c
000000c0: c947 d83c d944 f43c c2ca 513c dc42 323c
000000d0: fbff 163c 813d b83c 8142 bb3c 576a 033d
000000e0: 6520 94b8 3374 2bbd aad7 02bd c8f6 42bc
000000f0: 5de2 04bd 1357 563d faee edbc 7b7e 10bd
00000100: ab50 c5bd f0e4 2fbb d5cd a1bd c875 7d3a
00000110: 6a61 8cbd 322b 2cbc 2ae5 bdbc 8b3b cf3b
00000120: 9a4f ab3c fe2d 5ebc 96bc a5ba 3fa0 c53b
00000130: 5a7c e03c 94dc ee3b 02a5 273d 46b8 183c
00000140: 6382 233a 2a34 de3c 3b22 803c 57ea 043d
00000150: c44e bdba aece 1ebc ae1d 1f3c 8e9d 033d
00000160: 88d7 06bc 507c f03c 8fde 033d a835 8f3d
00000170: adab 9c3d 9696 10b9 c2c3 99bc 1f36 60bd
00000180: 08c6 87bb d7b5 ed3c 74fe 12bc 714e 4b3d
00000190: cb4e 00bd 2ccd 8e3c 71ca 2a3c 9ac0 d73c
000001a0: 2816 8a3c f623 193d f78e cbbc 624d 20bc
000001b0: 1356 c53c 1947 03bc c116 e03c 21dd 853c
000001c0: a0ae a63c ff3c ffbc d7dc 213d 1322 823d
000001d0: a173 e93c 8ebd 7bbc 6189 f93c add0 363c
000001e0: 4726 22bd 60c9 9c3c 9f5b c8bc 7424 0fbd
000001f0: b3bf 82bc f1c4 c3bc 0f18 7dbd 5b6b 26bd
00000200: 4020 86bd 5868 50bd efd5 c3bc 90a0 073d
00000210: 363a e03c facc 2dbd 5154 513d 08f2 b43c
00000220: 9e5a 6dbd dfbb 9abc 64d4 b13a 68ea bb3c
00000230: 054f 25bd 0968 9e3c a3d3 e1bc 19fa cabc
00000240: 53e6 81bc 2b78 49bb 56fe 4bbc d031 203d
00000250: 605e 68bc a8e8 3fbc 075b 1b3c 475b bdbc
00000260: bf9b c3bc 22a2 dcba 6ff8 febb c09c 12bb
00000270: 5668 fe3c 2793 e8bc 9d96 313b c3b7 9c3c
00000280: 0b0b 14bd ef9a 4c3b bbb2 873d bbc1 cbbb
00000290: 4666 f53b de95 97bd 61a2 4a3d de45 83bb
000002a0: d3f5 403d 8e3e 89bd a00a 113d c4db e03c
000002b0: e3de 26bd f76d 0abd 2206 0a3d 40ee 9f3c
000002c0: 7799 14bd 54b8 dc3b 09a6 17bd 7810 a23c
000002d0: 629a 4db9 4454 fb3b 3bc9 3d3d 692c b93b
000002e0: 6637 80bd cb44 3dbc 2f05 dabc 7707 1bbc
000002f0: 888f e73b f78d 2bbd 5e4a 99bd 92e4 6e3d
00000300: 3a27 3bbd 5fc9 3fbd f616 8a3a 9c92 1a3d
00000310: 209a 20bd 328a 953d d261 ae3c c288 f8bc
00000320: 2135 9abd 1e12 463d 5365 b03d 6027 8f3c
00000330: 3c87 0ebd cdd4 013d eb72 4f3d 1139 60bd
00000340: adaf ccbc fced 97bd 76b0 ee3c c3f9 0539
00000350: cef7 5d3d b8a8 32bd 4619 12bd ac2b 3cbc
00000360: 0257 c3bb 4dbb 363b 631d 923c c4bd 0e3c
00000370: fd28 a13c 4d47 55bc fec0 ca3a deef 06bc
00000380: 86a6 523c 48d5 dbba 7ffd 943c 2200 a3bc
00000390: a3dd 19bc 0f74 2c3d 8209 ee3c 3c4e f93c
000003a0: 87b9 abbb fd8f f93c 7b8c 533c b7e3 183c
000003b0: ef6f 02bc 4967 4fbc b77f d1bb 9671 ccbb
000003c0: c96d 4d3c 1ae0 a93a 9987 36bd 8e9c 7a3c
000003d0: d370 0ebd fa85 20bd 02b4 40bd 143e 10bd
000003e0: 9fc2 58bc 89cd d3bc 7f2b c3bc f0d0 933c
000003f0: 8f75 0ebb 0902 11bd f371 073c f110 b33c
-0.009280728 -0.0050854483 0.0036578374 -0.0060334685 0.0023639707 -0.023428047 0.0026722017 -0.0075400383
0.011165401 0.021598483 -0.051627763 -0.020866865 -0.007363784 -0.010792696 0.029694468 0.017683314
0.0041274386 -0.017294439 0.043569926 0.058304098 0.029891016 0.057264768 -0.01763106 0.093736075
-0.05736422 0.032336943 -0.05590416 0.0046265675 -0.011795081 0.060171995 -0.0077186883 0.011436738
0.037488665 0.030122269 0.0374707 0.011724368 -0.046810903 -0.034599148 0.02117655 -0.01974795
-0.025848014 0.022034299 0.024909552 -0.036063224 0.006543404 -0.036908608 0.008004532 0.014563893
0.026401417 0.029817985 0.012804689 0.010880198 0.009216304 0.022490265 0.02285886 0.032083835
-7.063224e-05 -0.041858863 -0.031943955 -0.011899658 -0.03244244 0.052329134 -0.029044617 -0.03527687
-0.09634527 -0.0026839338 -0.079005875 0.0009668735 -0.06854518 -0.010508345 -0.023180563 0.0063242367
0.02091198 -0.01356077 -0.0012644704 0.0060310657 0.027403045 0.0072894786 0.040928848 0.009321278
0.00062373857 0.027124483 0.015641322 0.032450046 -0.001444303 -0.009692831 0.009711666 0.032132678
-0.008230098 0.029356152 0.03219467 0.06992656 0.07649932 -0.00013789008 -0.018770102 -0.054739114
-0.00414348 0.029017372 -0.008971799 0.049635354 -0.031325143 0.017431818 0.010424242 0.026336957
0.016856268 0.03738781 -0.024848444 -0.0097840745 0.024088895 -0.0080125565 0.0273546 0.016340794
0.02034694 -0.031157015 0.03951725 0.063541554 0.028497519 -0.015365018 0.030461015 0.011158151
-0.039587285 0.019138992 -0.02445775 -0.034946874 -0.01596055 -0.02389762 -0.061790522 -0.040629726
-0.0654912 -0.05088076 -0.023905722 0.03311211 0.027371507 -0.04243181 0.0511058 0.022088066
-0.057947747 -0.018888412 0.0013567326 0.022938922 -0.040358562 0.019336717 -0.027566737 -0.024777459
-0.015856897 -0.0030741792 -0.012450775 0.039110005 -0.014182657 -0.011713184 0.009482152 -0.023114813
-0.023877976 -0.0016832987 -0.0077810804 -0.0022371262 0.03105561 -0.02839048 0.002709783 0.019130593
-0.036143344 0.0031220277 0.06625887 -0.006218163 0.0074889986 -0.07401632 0.049471263 -0.0040061316
0.047109436 -0.067013845 0.035410523 0.027448542 -0.040739905 -0.033796277 0.033697255 0.019522786
-0.036279168 0.006735841 -0.037023578 0.019783244 -0.00019607836 0.0076699574 0.046334486 0.005651046
-0.062605664 -0.011552046 -0.0266138 -0.009462229 0.007066671 -0.041883435 -0.074848875 0.05832345
-0.045691706 -0.0468229 0.0010535407 0.037737474 -0.039209485 0.07301749 0.021286879 -0.030338649
-0.07529665 0.04835712 0.08613076 0.01747483 -0.03479694 0.031697083 0.050646704 -0.054741923
-0.024986112 -0.07418439 0.029136878 0.00012776912 0.054191403 -0.043617934 -0.035668634 -0.011485022
-0.0059613 0.0027882636 0.017836278 0.008712236 0.019672865 -0.013017488 0.0015468893 -0.0082359
0.012857085 -0.0016771937 0.018187283 -0.019897524 -0.009391221 0.04210287 0.029057268 0.030432813
-0.0052406224 0.030464167 0.012911911 0.009331635 -0.007961257 -0.012658902 -0.0063933986 -0.0062391264
0.012538382 0.0012960464 -0.04456291 0.015296115 -0.034775566 -0.03919027 -0.04704667 -0.035215452
-0.013229995 -0.025854843 -0.023824451 0.018043965 -0.002173755 -0.03540233 0.008266914 0.021858664

st_gcn_networks.0.tcn.2.bias f4 [8]
00000000: f736 1ab8 bdd6 0f37 0bc7 20b7 1b91 d9b7
00000010: ded2 0138 6f24 dc36 8915 93b8 30f3 c2b7
-3.676765e-05 8.573462e-06 -9.5830865e-06 -2.5935986e-05 3.0952382e-05 6.5607524e-06 -7.0135175e-05 -2.3239845e-05

st_gcn_networks.0.tcn.3.weight f4 [8]
00000000: 3317 b83e 581e a83e 108b 953e fc85 663e
00000010: 0af7 5f3e b8ca b33e d305 c23e f0d1 a33e
0.359552 0.3283565 0.2920766 0.22512048 0.21871582 0.351156 0.3789507 0.31996107

st_gcn_networks.0.tcn.3.bias f4 [8]
00000000: c364 2bbd 4976 193b ec2a 153d c120 903c
00000010: b632 8cbc 46ce 793c 7843 f53c 1c18 12bc
-0.04184414 0.002341645 0.036417887 0.017593743 -0.017114025 0.015246933 0.029939398 -0.008916881

st_gcn_networks.0.tcn.3.running_mean f4 [8]
00000000: d8cb 633c 2c30 9a3c 4e50 bdbc e913 ffbc
00000010: 7ca6 083d b5ef 313d 6bda 8fbc c35d 143c
0.013903581 0.018821798 -0.023109581 -0.031137424 0.033361897 0.043441493 -0.017560204 0.009055558

st_gcn_networks.0.tcn.3.running_var f4 [8]
00000000: a4c9 d03b 1aaa 893b 70b9 013b ed3f 5d3a
00000010: 42ba 013b d231 a93b 27e1 a53b 336b 713b
0.0063716937 0.004201186 0.0019794367 0.00084400066 0.0019794856 0.0051634097 0.0050622406 0.0036837577

st_gcn_networks.1.gcn.conv.weight f4 [24, 8, 1, 1]
00000000: 89f4 7cbc 0569 2cbd 30c9 603d d65f 593d
00000010: 7a7d 88bc fcb5 2b3b ae73 653b ce3d 253d
00000020: 24cc cfb9 6c4d 80bc 529e a43d 185f c9bc
00000030: 8559 f93c b0b1 03bd 967e 8d3d 2998 973c
00000040: 2164 893d 94ad 75bd 3389 09bd ff10 9a3d
00000050: 49ef 8f3d a7b2 9d3d 4719 f4bc 0d97 6bbc
00000060: 8d52 103c fb9c cfbc 5935 1ebd 140f 04bd
00000070: 8d59 8dbd baec c2bd ad26 083d 9ad1 c7bd
00000080: 3c98 f5bc 2421 6bba ef42 903d 3fa5 52bd
00000090: 7dea 9b3c 82c5 133c 0f8b 0d3d c052 c63b
000000a0: 660a 183c 236b babd 5b56 033d 9273 90bd
000000b0: 4c7b 14bc b465 543b 9c51 a3bd 0fb1 333c
000000c0: 1784 fbbc 97fe bdbc 08bd 6b3d e23c d43b
000000d0: 3c73 c53c cf94 8e3c 4a92 33bd 1718 b2bc
000000e0: 9ff1 81bc 6ae8 25bc efef 92bc f175 1ebd
000000f0: 22f3 4cbc bf3a 6e3d 6f20 1c3c df29 843d
00000100: a14d bcbc d677 8f3d c16a 323c e35b a5bc
00000110: ff27 58bd 820d 28bb 1d76 983d d7b9 d63d
00000120: 0f14 66bd 53b9 ffba fde4 57bd 8e02 32bd
00000130: 3a0c b5bb 013c d3bc 118d 5a3d a5c5 283a
00000140: dea1 133c ca9f e2bb a173 693d 875a 3fbd
00000150: b427 42bd d8ef cbbd be9a d43d 13b7 3cbd
00000160: e7de b0bc 70b9 053e f3fa 993d ee01 a13c
00000170: 188a 7fbd 58a8 913d 39e0 13bd 8217 c1bd
00000180: ac0b 15bd 8c47 efbc 3455 8f3d 84b0 163d
00000190: af65 dfb9 cf96 9c3c a765 cabc 17aa 2b3d
000001a0: 41ef b53d b554 44bd 67a9 d43a 7087 4dbd
000001b0: b05e fa3c 8775 acbd 9ee2 a43d 296b 623d
000001c0: 16e3 abbd 3edd eabd 75f4 203d f53c 533d
000001d0: ac34 acbd 7150 f1bc 021f 013d c66a 963d
000001e0: 2856 193d c0ce b33c b5d5 7bbc afca 0fbc
000001f0: bee3 8abb 2448 073c 0670 0a3d 1402 6cbb
00000200: c5c2 20bc 596d 2ebc 1fb4 6eb9 a980 503d
00000210: f263 f1bb 0471 373d 8ca1 77bd a1d3 4bbc
00000220: 4539 133d a4af 743c acf9 243c 0f6b 33bd
00000230: 1f3d d2bb d551 5a3d ffab 8c3d 6840 313d
00000240: 5832 66b9 4475 453c 80b6 7dbc 30ac 01bd
00000250: 219a e3ba b1fb 71bd 3bd5 913d ec5f c53c
00000260: b696 a63d 2f6e 9ebc 0b62 bfbc 98da 29bd
00000270: ce28 cebc 5d88 07bd ebf7 183e 41da 7eb8
00000280: 282b 703c d841 f2bc a101 1e3c 2ae4 36bd
00000290: 60df 253c 6b6b 843b f46d 143c e44b 17bc
000002a0: 5dc6 a5bc 033c 21bd 469e 15bd c227 973b
000002b0: 8a59 ddbc 1794 4ebd 7264 d9bc 5c5a 19bb
000002c0: 8947 923d 1218 d63c 66e5 d53c 1939 abbd
000002d0: 9014 173d 9eb2 3b3d c85b 09bc 9560 fbbc
000002e0: bf56 35ba 2e3f 10bd 20dd 293d 28f8 9dbb
000002f0: e647 6abc d1c6 18bd 3522 0fbc 5da0 a53d
-0.015439161 -0.042092342 0.054879367 0.053069912 -0.016661394 0.0026201 0.0035011577 0.040342145
-0.00039634213 -0.015661918 0.0803801 -0.024581477 0.030438194 -0.032151878 0.0690891 0.018505173
0.06708551 -0.05997999 -0.03357811 0.07522773 0.07028062 0.07700091 -0.02979721 -0.014379275
0.008808744 -0.025343409 -0.038625095 -0.032240942 -0.06901846 -0.09517808 0.03324001 -0.09756775
-0.029979818 -0.0008969477 0.070440166 -0.051427122 0.019032711 0.0090192575 0.034556445 0.006052345
0.009279823 -0.09102466 0.032064777 -0.07053293 -0.009062599 0.0032409253 -0.0797455 0.010967507
-0.030702634 -0.023192687 0.05755332 0.0064769844 0.0241028 0.017404942 -0.043840684 -0.021740003
-0.015862284 -0.010126213 -0.017936675 -0.038686696 -0.012509139 0.058161493 0.009529217 0.06453299
-0.022986235 0.07005279 0.01088971 -0.020185417 -0.05277252 -0.0025642817 0.07444403 0.10484665
-0.056171473 -0.0019510187 -0.052708615 -0.043459468 -0.005525139 -0.025785448 0.053357188 0.0006438143
0.00901076 -0.006916021 0.056995038 -0.046717193 -0.047401145 -0.09957856 0.10381077 -0.04607303
-0.021590663 0.1305902 0.07518568 0.01965424 -0.062387556 0.07112187 -0.036102507 -0.09428312
-0.036388084 -0.02920892 0.06998673 0.036789432 -0.00042609635 0.01911488 -0.024706675 0.041910257
0.08883525 -0.047932345 0.0016224802 -0.05017799 0.030562729 -0.08420854 0.08051036 0.055277977
-0.083929226 -0.1146798 0.039295632 0.051571805 -0.08408484 -0.029457303 0.031523712 0.07344584
0.03743568 0.021949172 -0.015370776 -0.008776351 -0.0042385748 0.008256946 0.03379824 -0.003601198
-0.009812062 -0.010646188 -0.00022764549 0.05090395 -0.0073666507 0.044785514 -0.060456797 -0.012440593
0.03594329 0.014934454 0.010069292 -0.04380327 -0.0064159776 0.053300697 0.06868743 0.043274313
-0.00021953264 0.012051884 -0.015485406 -0.03165835 -0.001736466 -0.059077922 0.071207486 0.02409359
0.081342146 -0.019339649 -0.02336218 -0.041468233 -0.025165942 -0.03308903 0.14938323 -6.0761584e-05
0.014658727 -0.029572412 0.009643943 -0.044651188 0.0101240575 0.0040411255 0.009059418 -0.009234402
-0.020236189 -0.039363872 -0.036527894 0.004612894 -0.027020235 -0.0504342 -0.026537154 -0.0023399806
0.071425505 0.026134524 0.026110362 -0.083605 0.036884844 0.04582464 -0.008383699 -0.030685702
-0.0006917528 -0.035216503 0.041470647 -0.0048208423 -0.0142993685 -0.03729898 -0.008736183 0.080872275

st_gcn_networks.1.gcn.conv.bias f4 [24]
00000000: 03f8 c33a c973 3c3c 897c 22bc 1ccb 233d
00000010: 804e 313c 4c42 d9bb 2d08 813b 20e1 7c3b
00000020: 54b1 99bd afaf 8ebb 58d9 3a3c ca1d 813b
00000030: a4cc 4abd 4567 503c 0ec4 613d 728b a63a
00000040: 6e95 37bc 689e 17bd 49b5 833b e4fa 843c
00000050: 536d 153c 6771 c2bc e0a4 983c 61ca 2abc
0.0014951233 0.011502215 -0.009917387 0.039988622 0.0108219385 -0.0066302177 0.003937742 0.0038586333
-0.07504526 -0.004354439 0.011404358 0.0039403187 -0.049511567 0.012719934 0.055118613 0.0012706353
-0.01120506 -0.037016302 0.0040194136 0.016232915 0.009120303 -0.023735715 0.018633306 -0.010424227

st_gcn_networks.1.tcn.0.weight f4 [8]
00000000: d96d 713e 5ff6 473e 1be5 973e 6355 a03e
00000010: 3a7a 273e daac 803e b0ba 933e 48db 743e
0.2357706 0.19527577 0.2966698 0.31315145 0.1635522 0.25131875 0.2885337 0.23911774

st_gcn_networks.1.tcn.0.bias f4 [8]
00000000: 739a c1bc 4588 9d3b 9602 9a3c 29f4 273c
00000010: eeaf 3bbc 22ce f9bb 401e 12bd ec92 80bc
-0.023633217 0.0048075044 0.018800061 0.010251083 -0.011455519 -0.00762345 -0.03567338 -0.015695058

st_gcn_networks.1.tcn.0.running_mean f4 [8]
00000000: dcd0 06bb d63e bf38 c38b b039 3ff2 de3a
00000010: 4268 b9ba e319 8fba 9c0f 2a3b d108 a53a
-0.0020571267 9.119294e-05 0.00033673467 0.0017009451 -0.0014145451 -0.0010917749 0.0025949245 0.0012591128

st_gcn_networks.1.tcn.0.running_var f4 [8]
00000000: c947 d036 999c b236 7079 9b37 a9fb 4d37
00000010: 35a2 f436 2096 ce36 8e4a a137 28a0 2637
6.20724e-06 5.3230438e-06 1.8533989e-05 1.2277546e-05 7.29065e-06 6.1567553e-06 1.9227413e-05 9.93166e-06

st_gcn_networks.1.tcn.2.weight f4 [8, 8, 9, 1]
00000000: 1c26 78bb 33c5 2abb a03e 3fba 3c1f f9bb
00000010: 37ae 5fbb ce68 c8bc 4896 013b af68 153c
00000020: 05af 2a3d 6c63 f9bc 29b3 a73a 79c9 c03c
00000030: 0c59 0f3c c709 1dbd b3ad 68bc 134d 573c
00000040: 84c5 ce3c e4b2 4bbc 0d7a 8c3c e271 17bc
00000050: c382 1b3d 9db8 89bc 01fb 0a3c 1510 12bc
00000060: 0159 253d 4c68 e7bc 6e68 2dbd 787a 763c
00000070: a03c 803c ce42 b23c 0d0a c13b 3b14 2c3c
00000080: 6017 193d 2cc6 36bd cd8f 2dbd e702 2bbd
00000090: 7520 7bbc 3164 4bbc 4219 2ebb a830 b8bb
000000a0: 1077 12bc b34d 153d 711b b13c f916 b93c
000000b0: 37be 103d 6c64 17bc 8dbf f9bc d2a9 003d
000000c0: 238d 633c d044 31bc 5e73 acbc 1ad3 cabb
000000d0: 90e3 a5bc 6ad2 aabb 3a04 77bc d225 11b9
000000e0: d7ce 873c 4cdf a2bc 85c0 c63c e5f5 ca3c
000000f0: 889f c63c f82f 823a 62f1 06bb 4051 9a3c
00000100: 3151 953b 9b09 33bd a22d 47bd 1431 743c
00000110: 7afb b3bc 60f1 4ebc a133 d33b da69 b3ba
00000120: c7db 1ebc 47e1 f5bc f46d 24bb 6080 b9bb
00000130: 3362 b6bc 50d0 11bd 2a5d d53b 931f 843c
00000140: 55f0 1abd d2a4 d7bc 6f64 a5bc c709 8dbb
00000150: 2460 63bd 297b ed3c db7c 4f3c c5d7 0d3d
00000160: e4a1 5e3c 2578 f73c 1731 c8bc 8818 80bc
00000170: 78e6 113c dd4d a1ba b5e1 ac3c bad1 1a3d
00000180: 6486 133c 420a 463d baca f83c 89e6 343c
00000190: e283 243d eb3a 103c c953 9e3c e396 0abc
000001a0: 9985 1e3d 8c42 963c 6303 f2bb fadf d43c
000001b0: 6d04 13bd eb8f fbba 945e 58bc bc2d e0bc
000001c0: aaa7 93ba 1998 abbb 7b32 613c d244 b5bc
000001d0: f08f c13c c842 5a3c fa9e 95bc fa45 49bb
000001e0: 7cd9 44bc a433 74bc 8cc3 683b 3adc e33b
000001f0: 2d60 013c 399a 133d 0edf 5ebc 0598 f43b
00000200: 02e2 f13c b9ae d8bc 6912 6e3c 58c7 3b3b
00000210: f139 ad3c 1d09 a3bc e6da 063d 67db 5fbc
00000220: 978a e7bc 7fde a8bc d385 5fbc 0d31 f0bc
00000230: f3a8 793c 5b23 1a3c a583 69bc 35e1 7d3b
00000240: ba7d fc3b ef95 7dbd b3d7 f4bc accf dbba
00000250: 90b9 2ebc 0f2e d4ba 7314 1dbc d294 26bd
00000260: 0257 1dbd 4b9f 3b3d bc47 9abc 6027 0ebc
00000270: ee9b c93b 1ea6 a5bb 8dcc c5bc fb07 acbc
00000280: c13c 5f3c 5cd3 86bb ae90 1e3d 7c78 11bd
00000290: 7921 5b3c e33a 353d 7076 23bd a623 b13c
000002a0: 200b 043d 4bc8 5a3c 6429 f93b 2108 e9bc
000002b0: 548d 043d 6056 1abd cbed 363c 9abb bfbc
000002c0: 79c6 b5bc a9ad 68bd 7b11 843c 4aae 86bb
000002d0: 2523 503b cb9b f23c 4adf a1bc 2432 013d
000002e0: 8095 16bc e6a3 783b f865 263c 2a70 d8bc
000002f0: 4b90 46bb 07ce 673c 5ab2 d6bc 1b23 1c3d
00000300: 01b2 0cbc 0bea 6dbb 3060 30bd 3ae3 df38
00000310: 505c 87bd 1a1a 2fbd 73cf f7bb c123 10bc
00000320: 96ef bb3c 712a 523d dc2d 1f3a ae96 26bc
00000330: 9251 313c 18e9 803c d9e2 523d c6b0 053c
00000340: e87a 103d aefe d63c 63d2 26bc ae75 f33b
00000350: a538 b9bc bf74 0f3b 3823 b6bb 17ac 04bc
00000360: 54da 10bb 648a 06bc f255 253d 574c bfbc
00000370: 20ee 18bd e2b8 45bb 1a51 0dbd b8cb 60bd
00000380: 73d7 e63c e140 4f3d e945 603a 693a bb3b
00000390: 44fc 943c fd74 173d 7348 633b 572d e7bc
000003a0: 059d 0cbd cc2d 733c d783 d93b 2940 3f3c
000003b0: 6fbb 003d 2fb8 c8bc 48df aa3c d66d 373b
000003c0: 3135 2b3c 2b8a d03b c05c 2d3d c1ee efbb
000003d0: 7acd 06bb 1e74 86bc bad1 f43c 41ac 1239
000003e0: a88a a3bc 685a 64bb 5d29 c83c f1ed 52bd
000003f0: 7f47 8a3b 32d6 50ba bcaa 27bc 9e07 11bd
-0.0037864512 -0.0026057481 -0.00072954036 -0.0076026004 -0.003413094 -0.024464037 0.0019773412 0.009119197
0.041670818 -0.030442916 0.0012794483 0.02353357 0.008749258 -0.038339403 -0.014201569 0.0131409345
0.025240667 -0.012432788 0.017148042 -0.00924346 0.0379665 -0.016811663 0.008482696 -0.008914967
0.040368084 -0.028247975 -0.04233592 0.015043847 0.015653908 0.02176037 0.0058910907 0.01050287
0.037375808 -0.044622585 -0.042373467 -0.041750815 -0.015327563 -0.012414024 -0.0026565348 -0.0056210347
-0.0089395195 0.036451053 0.02161953 0.022593962 0.035337653 -0.009240251 -0.030486846 0.031411953
0.01388863 -0.010819629 -0.021051105 -0.006189716 -0.020250112 -0.0052130716 -0.015076691 -0.00013842367
0.016578121 -0.019881867 0.024261722 0.024775455 0.024245992 0.0009932509 -0.0020590653 0.018837571
0.004556798 -0.043710332 -0.048627503 0.014904279 -0.0219705 -0.0126307905 0.0064453636 -0.0013688162
-0.009695954 -0.030014647 -0.0025089951 -0.0056610554 -0.022263622 -0.035599053 0.00651135 0.016128337
-0.037826855 -0.02632371 -0.020189492 -0.004304144 -0.05551161 0.028989391 0.012664045 0.034629602
0.013588402 0.030208657 -0.02443747 -0.015636697 0.008905046 -0.001230653 0.02110372 0.037797667
0.009004209 0.048349626 0.030370105 0.011041292 0.040164836 0.00880311 0.019327061 -0.008458826
0.038701627 0.018342279 -0.0073856576 0.025985707 -0.035892893 -0.0019192671 -0.013206143 -0.027365558
-0.0011265178 -0.0052366373 0.013744946 -0.022127543 0.023628205 0.013321586 -0.018264282 -0.0030711875
-0.012014743 -0.01490489 0.0035516946 0.0069537433 0.007896465 0.03603575 -0.013602985 0.007464411
0.029526714 -0.026450502 0.0145307565 0.0028652754 0.021145793 -0.019901806 0.0329236 -0.013663149
-0.028264327 -0.020613907 -0.013642746 -0.029320264 0.015238035 0.009407843 -0.014252578 0.003873897
0.0077054175 -0.061910566 -0.02988801 -0.0016770265 -0.010664359 -0.0016188043 -0.009587395 -0.04066927
-0.038413055 0.04580621 -0.018833034 -0.00867638 0.0061526215 -0.005055203 -0.024145389 -0.0209999
0.013625325 -0.0041145515 0.038712196 -0.035515293 0.01337468 0.044245612 -0.039907873 0.021623444
0.032237172 0.013353418 0.007603811 -0.028446259 0.032361344 -0.03768003 0.011165093 -0.023404885
-0.022189366 -0.05680624 0.016121617 -0.0041101323 0.003175923 0.029615304 -0.019759793 0.03154196
-0.009190917 0.0037939488 0.010156147 -0.026420671 -0.0030298408 0.014148242 -0.026208092 0.038119417
-0.008587361 -0.003630283 -0.04306048 0.00010675793 -0.06609404 -0.0427495 -0.0075625717 -0.008797587
0.022941392 0.051310007 0.0006072202 -0.010167761 0.0108226705 0.015736148 0.05148587 0.008159822
0.035273463 0.026244488 -0.010181996 0.0074298 -0.022610018 0.0021889654 -0.0055583976 -0.00809767
-0.002210279 -0.008211706 0.040365167 -0.023351831 -0.03733647 -0.0030170013 -0.034501173 -0.05488178
0.028178906 0.050598983 0.00085553393 0.00571375 0.018186696 0.036976803 0.0034680634 -0.028219862
-0.034329433 0.014842462 0.006638031 0.011673012 0.03142875 -0.024501888 0.020858422 0.0027989051
0.010449694 0.006364127 0.04232478 -0.007322163 -0.002056925 -0.01641279 0.029885162 0.00013987815
-0.019963577 -0.0034843925 0.024433786 -0.05149645 0.004219949 -0.0007966488 -0.010233577 -0.035407655

st_gcn_networks.1.tcn.2.bias f4 [8]
00000000: f163 8535 ec4e 62b7 6d89 6137 663f c9b7
00000010: 53bd 1238 988c 0fb8 c52c 90b6 0c9b b0b7
9.938359e-07 -1.3489025e-05 1.3443042e-05 -2.399059e-05 3.4985434e-05 -3.4224795e-05 -4.2967463e-06 -2.1053034e-05

st_gcn_networks.1.tcn.3.weight f4 [8]
00000000: 6b31 5f3e a7a9 833e 111e 9b3e 5903 953e
00000010: b0c6 5d3e d81d a73e 74a7 903e 2a62 3f3e
0.21796195 0.25715372 0.30296376 0.29104117 0.21657825 0.32639956 0.28252757 0.1868979

st_gcn_networks.1.tcn.3.bias f4 [8]
00000000: 3bde e63b 66ce 57bc dabe 9cbc fc16 b3bc
00000010: e79b e4bb 9ea6 52bb 2d93 a8bb 90a8 da3b
0.007045535 -0.013171768 -0.019133974 -0.021861546 -0.006976593 -0.0032142769 -0.005144498 0.0066729262

st_gcn_networks.1.tcn.3.running_mean f4 [8]
00000000: d699 87bb 84c7 533c 57bb 0abc 030c 913b
00000010: dcce 68bb 4226 423c 6ed0 65bc 53bf 1fbc
-0.0041382117 0.012925986 -0.008467517 0.0044264807 -0.0035523688 0.011849942 -0.014026744 -0.009750205

st_gcn_networks.1.tcn.3.running_var f4 [8]
00000000: aad1 b539 2ced b03a 7354 453a 8a03 123a
00000010: d0fe 8539 2335 ac3a 06a8 293a f3eb 373a
0.00034679222 0.0013498417 0.00075275375 0.00055699854 0.00025557587 0.0013138395 0.0006471876 0.0007016055

st_gcn_networks.1.residual.0.weight f4 [8, 8, 1, 1]
00000000: 7996 0cbd 00a4 6abd 0e41 dabd 3871 a5bc
00000010: 369c 7cbd 816b f23c 0cb8 603d c461 5dbc
00000020: a482 99bd 3827 30bd 38e3 80bc 525e 993b
00000030: e894 313b 74aa b23d 865d c73d 7076 c5bd
00000040: 2955 00be 102a 7a3b 3313 973d ad9c 8cba
00000050: 2222 05bd c0f8 5d3d cda2 d5bb e960 89bd
00000060: ddad 9e3d 4c78 8d3c 9d26 71bd 06da 523a
00000070: 1762 a1bc 9155 263b 7837 853d dae5 a73d
00000080: 3cec 5abd 6692 fc3c 501c abbd 6581 213c
00000090: d697 063d f74e 0cbd e705 c03d 7e68 7e3d
000000a0: cc89 f13d 7202 fd3c 8742 cc3d 9334 37bc
000000b0: 245a 76bd edf3 2abd eded 02bd 1c28 a8bd
000000c0: b5ca c23c 670e c13c e235 9fbd d203 db3c
000000d0: 8df2 89bc 1604 d4bc da7d 7cbd d320 813c
000000e0: 4dfa 4ebc 9ebb fa3c 2257 953d 9e80 433c
000000f0: 1709 7f3d 8dde b43d 870b abbd 4777 0bbd
-0.03432319 -0.05728531 -0.106569394 -0.020195588 -0.06167241 0.029592277 0.05486302 -0.013512079
-0.07495621 -0.043006152 -0.015733346 0.0046804333 0.0027096812 0.087239176 0.09734635 -0.09641731
-0.12532486 0.0038172044 0.07376709 -0.0010727845 -0.032503255 0.054192305 -0.0065196515 -0.06707937
0.077480055 0.017269276 -0.058874715 0.0008043352 -0.019700093 0.0025380591 0.065047204 0.081981376
-0.053447947 0.030831527 -0.083550096 0.00985751 0.032859646 -0.034254994 0.09376126 0.06211137
0.11793861 0.030884955 0.099736266 -0.011181968 -0.06014456 -0.041736532 -0.031965185 -0.08210775
0.023778299 0.023566438 -0.07773949 0.02673522 -0.01683929 -0.025880855 -0.06164346 0.015762722
-0.012632919 0.030607041 0.0729201 0.01193252 0.062264528 0.08831511 -0.08351808 -0.0340493

st_gcn_networks.1.residual.0.bias f4 [8]
00000000: a6b4 14b8 8250 70b8 d701 6fb7 222e adb7
00000010: c283 88b7 8ba7 85b7 6da4 1638 84b8 0135
-3.545419e-05 -5.7295438e-05 -1.42459385e-05 -2.064469e-05 -1.6273818e-05 -1.5932854e-05 3.591592e-05 4.832475e-07

st_gcn_networks.1.residual.1.weight f4 [8]
00000000: f223 643e ce7b 4f3e c48e 813e c7dd 6c3e
00000010: f6d8 523e 5a04 763e 65fd ac3e e5ff 153e
0.22279337 0.20262071 0.25304234 0.23131476 0.20590577 0.24025097 0.33787075 0.14648397

st_gcn_networks.1.residual.1.bias f4 [8]
00000000: 3bde e63b 66ce 57bc dabe 9cbc fc16 b3bc
00000010: e79b e4bb 9ea6 52bb 2d93 a8bb 90a8 da3b
0.007045535 -0.013171768 -0.019133974 -0.021861546 -0.006976593 -0.0032142769 -0.005144498 0.0066729262

st_gcn_networks.1.residual.1.running_mean f4 [8]
00000000: 3289 95bc ab67 cb3a 9521 dcbb daaa aa3c
00000010: 936e e33b 6a10 fd3a 5900 5ebc cec0 5e3c
-0.018253896 0.0015518566 -0.0067178705 0.020833421 0.0069406717 0.001930726 -0.013549888 0.013595773

st_gcn_networks.1.residual.1.running_var f4 [8]
00000000: dc86 273a ba2a a93a 22d6 583a 53ee 823a
00000010: b8f7 853a 9289 a63a 4e86 153a ba98 2c3a
0.000639064 0.001290641 0.00082716544 0.0009989239 0.0010220921 0.0012705794 0.0005703912 0.00065840373

st_gcn_networks.2.gcn.conv.weight f4 [48, 8, 1, 1]
00000000: 672f 6b3c 3493 65bd 979d 833c 04c2 2dbd
00000010: 31d6 683d a7dd 4b3c dd60 82bd ad2e 69bc
00000020: a4fa 7bbc 7d5e 84bc e661 58bb c4e7 15bd
00000030: 4cdb 04bc a603 7e3c 9a2d 833c 39fc fdbb
00000040: edfc b23c 3e53 85bc a1bb 2f3c c5cf 2bbd
00000050: c08d 95bc 8fb2 173c c25e 87bc f08a 063c
00000060: 6462 983b 16df 87ba f8d3 1fbc c0c4 d2bc
00000070: 47ad 853c 480c 29bd 6568 9ebc 2dcf 453c
00000080: a0b4 b43b 630b 413c 1bb8 e3bc b3b1 6d3c
00000090: 8946 0cbd 2805 1b3d 9cec 93bb aae6 c0bc
000000a0: bd1b 593d 6460 133a 433e 90bd 91eb 86bc
000000b0: 032a c53d f54c 7ebc e7e8 c9bd faa5 8bbc
000000c0: 1037 1dbd 6b25 98bd bc39 61bd 5f12 023b
000000d0: 2153 5ebd 330b 673d 374e a5bd f5db 953c
000000e0: 0da0 4cbc a23d 0abd e3d1 0c3d 902d 10bb
000000f0: 9bf0 30bb a54f dcbc 9e46 173c 0a7f 173b
00000100: 9ef4 8e3b d21e febc ff7b 1abd a6e3 093c
00000110: e8ea 59bd 6870 513d b627 d7bc 652a 20bd
00000120: ace5 01bc cf35 b8bc 5d9c 023d 76e1 a43c
00000130: c9b7 b33c 59c6 0abd c374 2f3c 230a 3e3c
00000140: 674e d939 42f2 e8bc a43d b53c c27b 963a
00000150: 6889 283d eb02 653d a953 2c3c 2a05 3bbc
00000160: ceee f53c 21fd 1fbd 6756 2cbd fd80 223d
00000170: 688b 7ebc 228b 89bc 836a 7e3c 319a d0bc
00000180: e7b7 f63c a882 24bd bf6d 5dbb a63a 963d
00000190: 9331 f6bc 1357 5e3c 847b 723c 0e3a 1dbb
000001a0: 8e0e 06bc f4eb 32bd 5cad 733d 7e30 6dbc
000001b0: 790f edbc d1bb 3d3b a240 e03b 1351 613c
000001c0: 2006 1bbd b0f3 9e3c 3bdc f53c 7404 1abd
000001d0: 3fcd fd3b 02a3 203d 252b 013d 1ed3 f03a
000001e0: 4a9e cebc 9249 473b 8c43 66bc c3b7 0fbd
000001f0: d6fd 19bd 9efe 913a 488e 30bb 6c2a 7ebb
00000200: 1b12 f23c d79a f5bc b2e3 c33c 48ec 5abd
00000210: 6509 323d 244e ad3d b939 b83d 4699 15bd
00000220: ba58 8abb 39ef 39bd e509 b7bc 70db fbbc
00000230: c850 43bc 7bd1 063d a00e 0b3d 3ca6 9d3c
00000240: adf3 5c3c 7e9a eeb9 2348 633d 5cfc 0cbc
00000250: 384e 363d 6f8a efbb 8781 a03c 2776 09bd
00000260: 4e23 fa3c 82f3 153d b468 dabb c740 dbbc
00000270: 3f31 073d 4785 39bd cb44 04bd 365d 17bd
00000280: ea14 81bb 2bff c9bc a434 b53c 8245 babc
00000290: 02e5 1bbb 15ba 203d 9c49 df3c 7e2b 4e3c
000002a0: 08fb d63c c0fd 333d 150c b0bc e224 21bd
000002b0: 4c0b ac3c 73ff d4bd e899 733c 29e6 dabb
000002c0: d7e2 563d fa96 233d f6ef 88bd f2ab f83c
000002d0: d91d 8f3d 4bd6 10bd 1515 2fbc ba6f 27bd
000002e0: 1927 90bc f5df 72bd 65be 1e3d a3bc e63c
000002f0: aa14 2abd f43d 1f3d 676d b0bb 761c 2a3d
00000300: 0756 1e3d b40e 553d 266b ddbc 2cf2 d63c
00000310: 8bea 5b3d 4b0a 223b 9cf6 5e3d 9163 73bc
00000320: 04cb a8bc ae9d 99bc efda bdbc f17a bb3c
00000330: 2749 26bd ce64 3d3d a99a f33c 2d25 0cbd
00000340: 18ed b8bb d4c9 4dbd 0dee 11bc af7f 1a3d
00000350: a00b 21bc ecea 07bb b73f 593a fc82 323d
00000360: fd80 543d 5b77 a63d 5b5d 3c3c 01c9 0c3c
00000370: 8dbb 59bd 593d 95bc eb8a bd3d 03fc 523d
00000380: fc63 bb3d d9e3 5abc fd36 0fbc 773c 52bd
00000390: 4f48 01bd 3995 01bc be59 f63c 4de6 7dbb
000003a0: a251 943c c799 3c3d e1cf 95bd 5f03 a03d
000003b0: 0108 0639 a872 80bd 6528 27bb 8ccb a53d
000003c0: 53e4 c2bb 788b a1bc 245c 9ebc 35a7 8fbc
000003d0: 0995 be3c e6c8 4f3c 7d66 ccbb 9eaa 88bc
000003e0: e445 a7bc 8d4e 39bc 94d9 d63c 5523 093d
000003f0: 0cc9 ab3c f854 903c b5ff 353d 1df5 daba
0.014354563 -0.056048587 0.016066356 -0.042421356 0.056844894 0.012442983 -0.063661315 -0.01423232
-0.015379582 -0.016158337 -0.0033017336 -0.036597982 -0.008108925 0.0155038 0.016012955 -0.0077510145
0.02184912 -0.016275045 0.010725887 -0.04194619 -0.018256068 0.00925888 -0.016524676 0.008211836
0.004650401 -0.0010366167 -0.009755127 -0.025728583 0.016317977 -0.041271478 -0.019336889 0.01207332
0.0055146962 0.0117825 -0.02779775 0.014507699 -0.034246955 0.037846714 -0.00451429 -0.02354749
0.05300497 0.00056219683 -0.070431255 -0.016469749 0.09627154 -0.015521278 -0.09858876 -0.017046917
-0.03838259 -0.07429012 -0.0549867 0.0019847376 -0.054278497 0.056407165 -0.08071559 0.01829336
-0.012489331 -0.033750184 0.03437985 -0.0021999814 -0.002699888 -0.026893446 0.009233145 0.0023116493
0.0043626567 -0.031020556 -0.03771591 0.008416092 -0.05320254 0.05113259 -0.026264053 -0.03910293
-0.007928293 -0.022486595 0.0318874 0.02012704 0.021938222 -0.033880565 0.0107089905 0.0115990965
0.0004144788 -0.02843583 0.02212412 0.0011480974 0.041146666 0.055910986 0.010517993 -0.011414805
0.030021098 -0.039059762 -0.042074587 0.039673794 -0.015536167 -0.016789977 0.015528324 -0.02546415
0.030116988 -0.040163666 -0.0033787338 0.07335405 -0.030052936 0.013570565 0.014799956 -0.0023990902
-0.008182181 -0.043682054 0.0594915 -0.0144768935 -0.028938042 0.0028951059 0.0068436423 0.01375224
-0.037847638 0.019403309 0.03001224 -0.037601903 0.0077454145 0.039217956 0.031535286 0.0018373465
-0.025221962 0.0030408842 -0.01405419 -0.03508736 -0.037595592 0.0011138504 -0.0026940275 -0.003878261
0.029549649 -0.02998106 0.023912285 -0.05344799 0.04346599 0.0846217 0.08995385 -0.036523126
-0.004222003 -0.045394156 -0.022343585 -0.030744284 -0.011921115 0.03291462 0.033949494 0.019244306
0.013485831 -0.00045510003 0.055488717 -0.008605089 0.04450819 -0.0073102037 0.019593013 -0.033559944
0.030534413 0.03660918 -0.0066653136 -0.026764287 0.03300595 -0.04529312 -0.03229217 -0.036954127
-0.0039392607 -0.024657806 0.022119828 -0.022738222 -0.0023787622 0.03923996 0.02725678 0.0125836115
0.026242748 0.043943167 -0.021490136 -0.039341815 0.02100148 -0.104002856 0.014868237 -0.0066802693
0.052462425 0.039938904 -0.06686394 0.030355427 0.06988115 -0.035360616 -0.010686179 -0.040878035
-0.017596768 -0.059295613 0.038755793 0.02816612 -0.041523613 0.038877442 -0.0053841355 0.04153105
0.03865626 0.052015975 -0.027028631 0.026238523 0.053690474 0.0024725373 0.054434404 -0.014855281
-0.020604618 -0.018751945 -0.023175685 0.022885771 -0.040597107 0.046238713 0.029736834 -0.03421514
-0.005643498 -0.050241306 -0.008906853 0.037719425 -0.009829432 -0.002073939 0.00082873873 0.043581948
0.051880825 0.08128234 0.011496867 0.008592845 -0.053157378 -0.01821773 0.09255012 0.05150987
0.0914993 -0.013359987 -0.008741138 -0.051327195 -0.0315631 -0.007909113 0.03007209 -0.0038742006
0.018105332 0.04604509 -0.073150404 0.07813143 0.00012782218 -0.06271869 -0.0025506255 0.08095464
-0.0059476285 -0.019719824 -0.019331045 -0.017535785 0.023264425 0.012682175 -0.0062378035 -0.01668292
-0.020419069 -0.011310232 0.026226796 0.03348096 0.02096989 0.017618641 0.044433314 -0.001670513

st_gcn_networks.2.gcn.conv.bias f4 [48]
00000000: d4e2 43bc 18c1 0e3c 876a 6abc 6cca 2d3c
00000010: bdaf 05ba 6f56 8abc 822d ec3c 3eb3 84bc
00000020: 711c 89bb 5688 8abc 1cee 8abc 47e3 a0bb
00000030: a19d 02bd 81fb 0ebc 9b5d 05bb bc45 673b
00000040: 7997 65bd cfa0 59bc 4c2e b6bb 3c9c 1a3c
00000050: 016f 163c 46fc 6dbc e095 32bc ae06 99bb
00000060: a070 48bd d0ad 37bc c6cf a3bc 98b7 45bd
00000070: 6696 b33c 1a2e 193c 2de8 02bc d0d6 40bc
00000080: b6b4 b53b 5dde 093c c2f3 0cbc 24d4 323b
00000090: 3fd5 acbc 5629 063c 1b5f b939 9746 06bb
000000a0: 5e3c a8bb 5331 da3b 9d06 14bb c4cd dbbc
000000b0: 15c0 e43c d434 78bc 7099 763c c829 553b
-0.0119559355 0.008713029 -0.014307625 0.010607343 -0.00050997344 -0.016886918 0.028830294 -0.01619875
-0.0041842987 -0.016910713 -0.016959243 -0.004909906 -0.031888608 -0.008726955 -0.0020349983 0.0035289368
-0.05605266 -0.013282969 -0.0055597182 0.009436663 0.009181739 -0.014525479 -0.010899991 -0.0046699857
-0.048935533 -0.011210874 -0.019996535 -0.04827079 0.021922302 0.00934937 -0.007989925 -0.011769965
0.005545224 0.008414832 -0.008603038 0.002728709 -0.021097777 0.008188566 0.0003535681 -0.0020488852
-0.0051341495 0.006658712 -0.002258695 -0.026831515 0.027923623 -0.015149314 0.015051231 0.0032526124

st_gcn_networks.2.tcn.0.weight f4 [16]
00000000: 3a1b 723e 51a1 f23d d063 2f3e bdc3 0c3e
00000010: fe10 863d 7ba2 7e3e ffba 3a3e 3ba9 3d3e
00000020: 226b 273e 31b7 fb3d ac24 0d3e da73 3e3e
00000030: f633 193e 9936 253e ac75 b63d 7219 c73d
0.23643199 0.11847175 0.17127919 0.13746543 0.0654621 0.24866669 0.18235396 0.18521588
0.16349462 0.122908 0.1378352 0.18598881 0.14961228 0.16134109 0.08909163 0.0972165

st_gcn_networks.2.tcn.0.bias f4 [16]
00000000: d103 aabc c4e8 0f3b bdcf 0dbd 0b97 c3bc
00000010: 9b37 203c 8354 07bd 09a0 9cbc 2f32 28bd
00000020: 423d 08bd 0f5a f0bc a4a2 27bd 10eb 05bd
00000030: 7ceb 19bd 96be 4dbd 35c5 15bc a610 0dbd
-0.020753773 0.0021958807 -0.034621943 -0.023875734 0.009778882 -0.03303958 -0.01911928 -0.041063484
-0.033261545 -0.029339818 -0.04092659 -0.032694876 -0.03757809 -0.050230585 -0.009141256 -0.034439705

st_gcn_networks.2.tcn.0.running_mean f4 [16]
00000000: 6549 e5ba 24ea 2aba 65db 32ba 2d5e 29ba
00000010: 9d70 a139 4e6e 4abb 680d 1aba d88b c0ba
00000020: fdda bdba a6a1 19ba aacb c6ba 9c2c 08bb
00000030: a5b4 253a b651 a3b9 b851 333a e39c 363a
-0.0017493187 -0.0006519875 -0.00068228535 -0.00064608717 0.00030792216 -0.00308885 -0.00058766315 -0.0014690114
-0.0014484819 -0.00058605743 -0.0015166898 -0.0020778542 0.00063211686 -0.00031150662 0.0006840485 0.0006966127

st_gcn_networks.2.tcn.0.running_var f4 [16]
00000000: 8977 ca36 35e5 8536 bb5e 5836 c73f f536
00000010: d9b2 7e36 ae8c b437 a637 9f36 80df 6f36
00000020: 25fc b036 6c71 3836 555a 2e36 611b 9236
00000030: 35c6 4736 c8a9 6436 3b1b d035 f4d0 3736
6.033985e-06 3.990392e-06 3.2241649e-06 7.3089936e-06 3.7953052e-06 2.1523181e-05 4.7450476e-06 3.574387e-06
5.274562e-06 2.7484157e-06 2.59806e-06 4.3543264e-06 2.9768682e-06 3.4073473e-06 1.5505133e-06 2.7390752e-06

st_gcn_networks.2.tcn.2.weight f4 [16, 16, 9, 1]
00000000: a7f8 d0bb 9bcf 12bc 2049 38bc 7f90 bfbb
00000010: 268e cabc d3ea 663c 9c5b 58bc bbb4 96bc
00000020: cd72 c2bc 0b04 d53b 1728 473c f45f 993c
00000030: 96b2 adbc adda 233c 342f e4bb f4af 8a3a
00000040: e806 333a e934 30bc 2d23 af3b 3665 143b
00000050: df81 8b3c 3370 3b3a 2a1b b93b e1f6 87bc
00000060: 7e7a 8b3b 5c0c 7bbb ea83 0c3b 5b85 d3bb
00000070: 4540 85bb 3838 163c 242b 13bc 2306 21b9
00000080: 52bb a23c 691f bdbb b5ff b73b 13d1 983c
00000090: f4a2 d73b 5318 8b3c 9e49 03bc 1c54 ccba
000000a0: d755 01bc 8370 71ba 441b cc3b 1af9 2dbc
000000b0: cacb 3dbc e05d f03c 6c5e 83bc e9bc 9d3c
000000c0: b9c7 25ba f57a 86bb a69e d43b 3b35 65bc
000000d0: 2b03 9d3a b24d b73c beaa 2a3c 993a 053c
000000e0: a5bb e53b e068 ce3c 9c4b cc3c 4076 003c
000000f0: 8613 833b d81f b13c 1e76 bb3c 9d13 f2ba
00000100: ef1d b5ba 5760 f1bb e43d 64bb f15a 40bb
00000110: f322 aabc 5727 243c ac8e 00bb 1c27 acbb
00000120: d641 5a3c 5b70 a63c 142b af3b 3014 723c
00000130: b58e 7e3a 9de4 59bc a708 4b3b 90a5 963c
00000140: 5850 0bbc b9a9 b3bc 34e7 af3c 316b 49bc
00000150: 2839 f33c 677f aaba ca47 cbbc 207b a13c
00000160: 94d7 163c a8d0 cbbc 022e e7bb e731 573c
00000170: 5064 52bc 8469 193c 9766 263c b327 98bc
00000180: 48cb 3b3c 7a54 ae3c 7594 a1bc 7ddf b73c
00000190: 35bb 34bb 7c10 a5bc 77f5 f1bc f123 83bc
000001a0: aa50 c3bb 0ec6 3ebd 852f 96bb a05a 043d
000001b0: 93e5 61bc 8e45 0f3c 7e4a 69bb e4b9 e4bc
000001c0: 37c1 983b 3b13 a8bc 2665 3cbc 1608 48bc
000001d0: 63e6 26bc 94dd 803c 1b10 04bc 2641 bfbc
000001e0: 9268 2a3c 7c0a d13b 5ece a63a c67d 7dbc
000001f0: d05f 1d3b bb26 0e3d 2a0e 9bbc 13ca 85bb
00000200: 03f0 5cbb 7448 78bc d843 8abc 0038 6cbc
00000210: dccb a2bb 8f7b 1bbc 8022 cfbc d051 323b
00000220: 2873 143c 4617 6bbb 1299 4d3b e37b d3bb
00000230: 7fce e1bc eeb0 823c b745 35bc 35d1 2dbc
00000240: eaa6 bdbb e898 11bc f7c7 a43c 0514 053c
00000250: 0a25 433c 3ac0 823c 68c2 b03c bf9f 57bb
00000260: 13a9 c63c 4082 aebc 1178 7e3c eb28 263b
00000270: c9f9 85bc 6dcd b3bc 419b 153b a088 f4bc
00000280: 7db0 e63b 0b9c 62bc be63 9eba 931b 253c
00000290: 108e bcbc adab 7a3c 99b7 55bc 164a fdbc
000002a0: 3df6 aeb9 478f 8bbc a11c 01bd 8d9d 9ebc
000002b0: 71e3 8fbc e261 b5bc faf0 4f3c 62c0 a9b9
000002c0: 52ce e7bb d252 6cbc 5b8d cabc 77b6 d0bc
000002d0: 1730 683c 80fb 02bd c636 5fbc fe31 b4bc
000002e0: 1693 54bb a466 b9bc a429 1cbc ed47 68ba
000002f0: 797e 143c 4128 6bbc 6a4c 63bc f211 37bc
00000300: 127e cebb 1632 a7bc c9a2 2abd 8f49 1ebd
00000310: ed47 71bd 5a04 bebc adaf 073b 4ad5 b53c
00000320: 4f53 e93c fd86 8a3c 8746 343d b9da 053c
00000330: 6692 e83c cdaa a8bc 851e dc3c 710d 8b3c
00000340: 5fc6 88bb a1b7 5bbc 57f0 c1ba 28f7 12bd
00000350: 3281 17bd 39ab 35bb 209f 11bc 4718 a0bc
00000360: 96c5 72bc 0fc0 e13b d4a1 8cba dc24 b5bc
00000370: cd8b ea3b 999d b2bc 3e67 eebc a987 adbc
00000380: 5c48 00bd 77ae 18bc 0184 93bc b13e adbc
00000390: 1bb7 d1bc 0776 1cbb a042 903c 1105 12bc
000003a0: cdfc 5cbc 44fb e2bb 8ad9 babc 6367 56ba
000003b0: 43ac abbc a8b0 89bc d2c2 bb3c b640 ddbc
000003c0: 041b 90bc eb45 18bd b4a5 41bd 86fc fb3a
000003d0: 5aaa 863c ead6 af3b e6fd 143d 7b1c 193c
000003e0: 1321 683c 80e0 663b 27d7 2bbb 4ab2 8a3c
000003f0: 7c8d 0a3c b871 b13c 3c77 223c 1712 e8b9
-0.006377298 -0.00896063 -0.011247903 -0.0058460827 -0.024725985 0.014094072 -0.013205435 -0.018396726
-0.023736382 0.006500726 0.012155554 0.018722512 -0.02120332 0.010000867 -0.006963635 0.0010581003
0.0006829337 -0.010754802 0.0053447695 0.0022643334 0.0170297 0.0007150203 0.00564899 -0.016597213
0.0042565456 -0.0038306927 0.0021440932 -0.006455106 -0.0040664994 0.009168677 -0.0089824535 -0.00015356443
0.019864712 -0.0057715666 0.0056151995 0.018654382 0.006580705 0.016979372 -0.008013157 -0.0015589031
-0.007894001 -0.0009210186 0.0062288363 -0.0106184725 -0.011584232 0.029341638 -0.016036235 0.019255118
-0.00063240115 -0.004104013 0.006488639 -0.013989742 0.0011979094 0.022375915 0.010416685 0.008131647
0.0070108944 0.025196493 0.024938397 0.007840693 0.00400013 0.02162163 0.022883471 -0.001846898
-0.0013818125 -0.007366221 -0.0034826929 -0.002935108 -0.020768618 0.010019145 -0.001961629 -0.0052536856
0.013321361 0.020317247 0.0053457115 0.014775321 0.0009710596 -0.013299135 0.00309805 0.018389493
-0.008503042 -0.021931516 0.02147255 -0.012293623 0.02969034 -0.001300794 -0.024814505 0.01971203
0.009206671 -0.024879768 -0.007055045 0.013134456 -0.012841299 0.009363536 0.010156295 -0.018573618
0.01146204 0.021280516 -0.01972411 0.022445435 -0.0027577404 -0.020149462 -0.029535992 -0.01600835
-0.0059605436 -0.0465756 -0.0045833015 0.03231299 -0.013787645 0.0087446105 -0.003559738 -0.02792067
0.004661705 -0.020516982 -0.011498725 -0.012208959 -0.010186764 0.015730657 -0.0080604805 -0.023346495
0.010400908 0.0063794237 0.0012726297 -0.015471881 0.0024013408 0.034704905 -0.018927652 -0.004082927
-0.0033712394 -0.015153993 -0.016878054 -0.014417648 -0.0049681496 -0.009489908 -0.025285006 0.0027209409
0.0090606585 -0.0035872026 0.0031371755 -0.0064539774 -0.027564285 0.015953507 -0.011063985 -0.010608961
-0.00578772 -0.008886553 0.020114882 0.008122449 0.011910686 0.015960801 0.021577075 -0.0032901613
0.024250543 -0.021302342 0.015531556 0.002535398 -0.016354458 -0.02194854 0.0022828134 -0.029850304
0.007040082 -0.013831149 -0.0012084169 0.010077375 -0.02301696 0.01529972 -0.013044261 -0.030919116
-0.00033371328 -0.017036093 -0.031521443 -0.019362235 -0.017564507 -0.0221414 0.012691731 -0.00032377528
-0.007074156 -0.014424043 -0.024725607 -0.025477631 0.014171622 -0.03197813 -0.013623899 -0.021996494
-0.0032436303 -0.02263195 -0.009531412 -0.00088608154 0.009063357 -0.014352859 -0.013873199 -0.011173712
-0.00630165 -0.020409625 -0.04165915 -0.03864437 -0.058906484 -0.023195434 0.0020704076 0.02219643
0.028482107 0.01691007 0.044012573 0.008169823 0.02839012 -0.020589257 0.026870022 0.016974183
-0.0041740383 -0.01341048 -0.0014796358 -0.035880238 -0.036988445 -0.0027720465 -0.008888036 -0.019542826
-0.014817616 0.0068893502 -0.0010729381 -0.022112302 0.007157779 -0.021803664 -0.029101964 -0.021182852
-0.031319007 -0.009318939 -0.01800728 -0.021148058 -0.025600007 -0.002387406 0.017609894 -0.008912341
-0.013488007 -0.006926926 -0.022808809 -0.0008178858 -0.020956164 -0.01680787 0.022920046 -0.027008396
-0.017591007 -0.037176054 -0.047277167 0.0019225038 0.016438652 0.005366196 0.03637495 0.009345169
0.014168042 0.0035229027 -0.002622077 0.016930718 0.008456584 0.02166067 0.009916123 -0.00044263966

st_gcn_networks.2.tcn.2.bias f4 [16]
00000000: 2b4d fbb7 9fb3 06b8 923c 32b6 16c7 dcb5
00000010: adc1 96b8 97fb ddb7 c562 62b8 bd6a fdb6
00000020: 1209 a2b7 7e12 e737 1f30 fbb7 71ca a236
00000030: 0431 8436 b9cf a3b6 c205 0f37 456d 342a
-2.9957466e-05 -3.2115375e-05 -2.6559323e-06 -1.6449219e-06 -7.188632e-05 -2.6462409e-05 -5.3974585e-05 -7.5524135e-06
-1.9316129e-05 2.7545957e-05 -2.994394e-05 4.8515435e-06 3.9396127e-06 -4.8819606e-06 8.524805e-06 1.6025122e-13

st_gcn_networks.2.tcn.3.weight f4 [16]
00000000: c3e7 103e 7ba7 583e 2655 0a3e 87c0 971e
00000010: d010 613e 36d3 2c3e b37d 4b3e 725d a63d
00000020: 2eaa e03d a4d5 e33d 657e 5d3e c8c0 b83d
00000030: 14ae 713e 41ac 1b3d f0b7 ad3d 8671 53aa
0.1415091 0.21157639 0.13509044 1.6067374e-20 0.2197907 0.16877446 0.19872169 0.08123292
0.10969959 0.11124733 0.21630247 0.09021145 0.23601562 0.03800607 0.08482349 -1.8779951e-13
