weights_arm/109.pt (torch, 70926 bytes, 80 tensors)

A f4 [3, 9, 9]
0.5 0.0 0.0 0.0 0.0 0.0 0.0 0.0
0.0 0.0 0.2 0.0 0.0 0.0 0.0 0.0
0.0 0.0 0.0 0.0 0.33333334 0.0 0.0 0.0
0.0 0.0 0.0 0.0 0.0 0.0 0.33333334 0.0
0.0 0.0 0.0 0.0 0.0 0.0 0.0 0.0
0.5 0.0 0.0 0.0 0.0 0.0 0.0 0.0
0.0 0.0 0.33333334 0.0 0.0 0.0 0.0 0.0
0.0 0.0 0.0 0.0 0.33333334 0.0 0.0 0.0
0.0 0.0 0.0 0.0 0.0 0.0 0.5 0.0
0.0 0.0 0.0 0.0 0.0 0.0 0.0 0.0
0.5 0.0 0.2 0.0 0.0 0.0 0.0 0.0
0.0 0.0 0.0 0.0 0.0 0.0 0.0 0.0
0.0 0.0 0.0 0.0 0.2 0.0 0.0 0.0
0.0 0.0 0.0 0.0 0.0 0.0 0.33333334 0.0
0.5 0.0 0.0 0.0 0.0 0.0 0.0 0.0
0.33333334 0.0 0.0 0.0 0.0 0.0 0.0 0.2
0.0 0.0 0.0 0.0 0.0 0.0 0.0 0.0
0.0 0.0 0.0 0.0 0.33333334 0.0 0.5 0.0
0.0 0.0 0.0 0.0 0.0 0.0 0.33333334 0.0
0.0 0.0 0.2 0.0 0.0 0.0 0.0 0.0
0.0 0.0 0.0 0.0 0.0 0.0 0.0 0.0
0.0 0.0 0.0 0.5 0.0 0.33333334 0.0 0.0
0.33333334 0.0 0.0 0.5 0.0 0.0 0.0 0.33333334
0.0 0.0 0.0 0.0 0.0 0.0 0.0 0.0
0.0 0.0 0.0 0.0 0.0 0.0 0.0 0.0
0.0 0.0 0.0 0.0 0.0 0.0 0.0 0.0
0.0 0.0 0.0 0.0 0.0 0.33333334 0.0 0.0
0.0 0.0 0.0 0.0 0.0 0.0 0.0 0.0
0.0 0.0 0.0 0.0 0.0 0.0 0.0 0.0
0.0 0.0 0.0 0.0 0.0 0.0 0.0 0.0
0.0 0.0 0.0
00000000: 0000 003f 0000 0000 0000 0000 0000 0000
00000010: 0000 0000 0000 0000 0000 0000 0000 0000
00000020: 0000 0000 0000 0000 cdcc 4c3e 0000 0000
00000030: 0000 0000 0000 0000 0000 0000 0000 0000
00000040: 0000 0000 0000 0000 0000 0000 0000 0000
00000050: abaa aa3e 0000 0000 0000 0000 0000 0000
00000060: 0000 0000 0000 0000 0000 0000 0000 0000
00000070: 0000 0000 0000 0000 abaa aa3e 0000 0000
00000080: 0000 0000 0000 0000 0000 0000 0000 0000
00000090: 0000 0000 0000 0000 0000 0000 0000 0000
000000a0: 0000 003f 0000 0000 0000 0000 0000 0000
000000b0: 0000 0000 0000 0000 0000 0000 0000 0000
000000c0: 0000 0000 0000 0000 abaa aa3e 0000 0000
000000d0: 0000 0000 0000 0000 0000 0000 0000 0000
000000e0: 0000 0000 0000 0000 0000 0000 0000 0000
000000f0: abaa aa3e 0000 0000 0000 0000 0000 0000
00000100: 0000 0000 0000 0000 0000 0000 0000 0000
00000110: 0000 0000 0000 0000 0000 003f 0000 0000
00000120: 0000 0000 0000 0000 0000 0000 0000 0000
00000130: 0000 0000 0000 0000 0000 0000 0000 0000
00000140: 0000 003f 0000 0000 cdcc 4c3e 0000 0000
00000150: 0000 0000 0000 0000 0000 0000 0000 0000
00000160: 0000 0000 0000 0000 0000 0000 0000 0000
00000170: 0000 0000 0000 0000 0000 0000 0000 0000
00000180: 0000 0000 0000 0000 0000 0000 0000 0000
00000190: cdcc 4c3e 0000 0000 0000 0000 0000 0000
000001a0: 0000 0000 0000 0000 0000 0000 0000 0000
000001b0: 0000 0000 0000 0000 abaa aa3e 0000 0000
000001c0: 0000 003f 0000 0000 0000 0000 0000 0000
000001d0: 0000 0000 0000 0000 0000 0000 0000 0000
000001e0: abaa aa3e 0000 0000 0000 0000 0000 0000
000001f0: 0000 0000 0000 0000 0000 0000 cdcc 4c3e
00000200: 0000 0000 0000 0000 0000 0000 0000 0000
00000210: 0000 0000 0000 0000 0000 0000 0000 0000
00000220: 0000 0000 0000 0000 0000 0000 0000 0000
00000230: abaa aa3e 0000 0000 0000 003f 0000 0000
00000240: 0000 0000 0000 0000 0000 0000 0000 0000
00000250: 0000 0000 0000 0000 abaa aa3e 0000 0000
00000260: 0000 0000 0000 0000 cdcc 4c3e 0000 0000
00000270: 0000 0000 0000 0000 0000 0000 0000 0000
00000280: 0000 0000 0000 0000 0000 0000 0000 0000
00000290: 0000 0000 0000 0000 0000 0000 0000 0000
000002a0: 0000 0000 0000 0000 0000 0000 0000 003f
000002b0: 0000 0000 abaa aa3e 0000 0000 0000 0000
000002c0: abaa aa3e 0000 0000 0000 0000 0000 003f
000002d0: 0000 0000 0000 0000 0000 0000 abaa aa3e
000002e0: 0000 0000 0000 0000 0000 0000 0000 0000
000002f0: 0000 0000 0000 0000 0000 0000 0000 0000
00000300: 0000 0000 0000 0000 0000 0000 0000 0000
00000310: 0000 0000 0000 0000 0000 0000 0000 0000
00000320: 0000 0000 0000 0000 0000 0000 0000 0000
00000330: 0000 0000 0000 0000 0000 0000 0000 0000
00000340: 0000 0000 0000 0000 0000 0000 0000 0000
00000350: 0000 0000 abaa aa3e 0000 0000 0000 0000
00000360: 0000 0000 0000 0000 0000 0000 0000 0000
00000370: 0000 0000 0000 0000 0000 0000 0000 0000
00000380: 0000 0000 0000 0000 0000 0000 0000 0000
00000390: 0000 0000 0000 0000 0000 0000 0000 0000
000003a0: 0000 0000 0000 0000 0000 0000 0000 0000
000003b0: 0000 0000 0000 0000 0000 0000 0000 0000
000003c0: 0000 0000 0000 0000 0000 0000

data_bn.weight f4 [27]
0.09850341 0.0556041 0.05998208 0.25797048 0.08274021 0.078812726 0.2690635 0.18788272
0.23375903 0.47209615 0.532895 0.37618938 0.5278074 0.5206437 0.38329953 0.27660328
0.18996441 0.230604 0.48625052 0.41029164 0.35202911 0.50760764 0.43230006 0.35348597
0.21191098 0.03556663 0.07296801
00000000: 28bc c93d 20c1 633d c5af 753d b514 843e
00000010: b373 a93d 9168 a13d b1c2 893e 5464 403e
00000020: 875e 6f3e 96b6 f13e cf6b 083f e59b c03e
00000030: 631e 073f e848 053f d63f c43e f29e 8d3e
00000040: 0886 423e 7423 6c3e d4f5 f83e bf11 d23e
00000050: 293d b43e 93f2 013f 6f56 dd3e 1dfc b43e
00000060: 31ff 583e 51ae 113d 4170 953d

data_bn.bias f4 [27]
-0.005843028 0.017640285 -0.0136231985 -0.020007197 -0.007857842 0.0023478793 0.043379832 0.0060844803
-0.010533798 -0.026294561 0.0021001915 0.009436133 0.0015792613 0.002585725 -0.0046680663 0.023377193
0.04209522 0.03139766 0.0062713274 -0.004924542 -0.008629778 -0.028370513 -0.02786506 0.0023704024
0.0148467515 0.009546698 0.004208408
00000000: df76 bfbb 5c82 903c d633 5fbc 22e6 a3bc
00000010: 2ebe 00bc e1de 193b 0daf 313d 5260 c73b
00000020: f395 2cbc b167 d7bc 5ea3 093b 039a 1a3c
00000030: 37ff ce3a 4475 293b 94f6 98bb 8781 bf3c
00000040: 0a6c 2c3d d59a 003d b57f cd3b 0d5e a1bb
00000050: ea63 0dbc 4769 e8bc 4445 e4bc c158 1b3b
00000060: ca3f 733c c169 1c3c afe6 893b

data_bn.running_mean f4 [27]
88.913925 76.13707 21.56809 97.92647 82.94472 23.206427 88.2066 78.41457
22.218607 98.75802 80.297295 22.505268 105.54475 77.89518 21.778978 107.49823
87.481285 24.194008 128.21187 92.975464 25.5778 128.36676 88.15453 24.519625
108.098015 93.448204 25.476978
00000000: eed3 b142 2e46 9842 738b ac41 5ada c342
00000010: b2e3 a542 c3a6 b941 c769 b042 43d4 9c42
00000020: b5bf b141 1b84 c542 3798 a042 ca0a b441
00000030: e916 d342 55ca 9b42 593b ae41 18ff d642
00000040: 6bf6 ae42 548d c141 3d36 0043 70f3 b942
00000050: 569f cc41 e45d 0043 1f4f b042 3128 c441
00000060: 2f32 d842 7be5 ba42 dad0 cb41

data_bn.running_var f4 [27]
12867.725 21246.977 6941.8467 13519.966 23435.316 7787.7837 10502.757 20565.33
7048.676 13103.03 19323.73 6890.063 14734.388 17648.21 6441.4243 17518.148
26548.494 8576.728 22940.645 27083.422 9085.58 22113.371 23605.842 8186.5034
18500.35 25012.602 8678.63
00000000: e60e 4946 f4fd a546 c6ee d845 dd3f 5346
00000010: a216 b746 455e f345 071b 2446 a9aa a046
00000020: 6845 dc45 1fbc 4c46 76f7 9646 8150 d745
00000030: 8d39 6646 6ce0 8946 654b c945 4cdc 8846
00000040: fd68 cf46 e902 0646 4a39 b346 d896 d346
00000050: 52f6 0d46 bec2 ac46 af6b b846 07d4 ff45
00000060: b388 9046 3469 c346 859a 0746

st_gcn_networks.0.gcn.conv.weight f4 [24, 3, 1, 1]
-0.07690732 -0.0067868014 0.006495754 0.13862489 -0.06078397 0.06437334 0.085081644 0.0062482203
0.05079051 -0.039405264 -0.015569696 0.13749214 0.0313215 -0.022551164 -0.23516247 0.2115053
0.30512515 0.07252609 -0.22983973 0.17948554 0.078132346 -0.19241336 0.068110526 -0.13756427
-0.04940139 -0.052574847 -0.018926842 -0.2581963 -0.09011773 0.043007255 0.16330747 -0.020867705
-0.017646689 -0.14211872 -0.13542633 0.0071257944 -0.0031955622 -0.016225193 0.20375885 -0.042668864
-0.2406457 -0.13014516 0.052102756 0.07102491 0.054869555 0.17470364 -0.09690657 0.16661002
-0.010492211 0.005015401 -0.0043061245 -0.039538328 -0.02582939 -0.04835886 0.15863831 -0.007560613
0.035508797 -0.04498198 -0.019189788 0.011449431 -0.20351185 0.0042716577 -0.017409554 0.04710531
-0.05199932 0.11790869 0.052320372 -0.04028922 -0.016864454 -0.10927528 0.14534938 0.05242995
00000000: 9681 9dbd d163 debb 55da d43b aff3 0d3e
00000010: 9df8 78bd 2bd6 833d 493f ae3d dfbd cc3b
00000020: b609 503d 6a67 21bd 0a18 7fbc bdca 0c3e
00000030: f94a 003d 38bd b8bc 6ece 70be d894 583e
00000040: 5d39 9c3e 8f88 943d 1b5b 6bbe 0fcb 373e
00000050: da03 a03d 0208 45be 887d 8b3d a6dd 0cbe
00000060: 1d59 4abd b958 57bd 770c 9bbc 4e32 84be
00000070: a58f b8bd 6028 303d 133a 273e c0f2 aabc
00000080: ca8f 90bc 9287 11be 33ad 0abe 7f7f e93b
00000090: a36c 51bb b2ea 84bc 29a6 503e 8cc5 2ebd
000000a0: d46b 76be c644 05be b369 553d 8275 913d
000000b0: e6be 603d 83e5 323e f476 c6bd d19b 2a3e
000000c0: 86e7 2bbc 3c58 a43b 641a 8dbb f1f2 21bd
000000d0: 2898 d3bc f113 46bd 1572 223e 05bf f7bb
000000e0: ac71 113d 063f 38bd e733 9dbc 6596 3b3c
000000f0: 6965 50be 43f9 8b3b 7b9e 8ebc 7ff1 403d
00000100: 3dfd 54bd 1c7a f13d e34d 563d 4f06 25bd
00000110: 5327 8abc b8cb dfbd 78d6 143e cac0 563d

st_gcn_networks.0.gcn.conv.bias f4 [24]
0.019969579 0.05322039 0.063658915 0.07683018 -0.016276976 -0.18449894 -0.005729167 0.12778161
-0.07798049 0.01711058 0.08951851 -0.0344888 0.021504007 0.14238155 0.1690118 -0.012064367
-0.016201774 -0.16543953 0.036462925 -0.062474947 0.04245877 0.026764447 -0.022199038 0.0055907527
00000000: 3e97 a33c a0fd 593d 9b5f 823d 2459 9d3d
00000010: 4b57 85bc 4aed 3cbe bcbb bbbb 2fd9 023e
00000020: 3cb4 9fbd 7d2b 8c3c 7b55 b73d 2144 0dbd
00000030: 2c29 b03c 78cc 113e 6e11 2d3e 9fa9 45bc
00000040: 95b9 84bc fb68 29be 265a 153d bbe5 7fbd
00000050: 3fe9 2d3d 1d41 db3c c2da b5bc a232 b73b

st_gcn_networks.0.tcn.0.weight f4 [8]
0.17780547 0.34302124 0.39704648 0.30621406 0.2554467 0.3557829 0.35676727 0.36096662
00000000: a312 363e 7ba0 af3e ad49 cb3e 17c8 9c3e
00000010: e9c9 823e 2d29 b63e 33aa b63e 9ed0 b83e

st_gcn_networks.0.tcn.0.bias f4 [8]
0.038368095 0.035427935 0.034553204 0.016708279 -0.026203038 0.048015583 -0.009652312 -0.039468054
00000000: dd27 1d3d e21c 113d a987 0d3d cddf 883c
00000010: c1a7 d6bc fdab 443d bb24 1ebc 41a9 21bd

st_gcn_networks.0.tcn.0.running_mean f4 [8]
-0.0071354304 0.0011007588 0.020681843 0.0033677302 0.0024443069 -0.006924171 0.017856373 0.016096342
00000000: 54d0 e9bb 5647 903a f86c a93c 23b5 5c3b
00000010: aa30 203b 28e4 e2bb 8747 923c 7adc 833c

st_gcn_networks.0.tcn.0.running_var f4 [8]
0.00013700587 0.00028250163 0.00038666264 0.00032302094 2.4253797e-05 0.0002771765 0.00047725174 7.730956e-05
00000000: 3ca9 0f39 ba1c 9439 fbb8 ca39 235b a939
00000010: a274 cb37 0052 9139 a537 fa39 4121 a238

st_gcn_networks.0.tcn.2.weight f4 [8, 8, 9, 1]
-0.008912035 -0.0032052468 0.007449038 -0.0040943287 0.0040206434 -0.021340128 0.0029706839 -0.006185663
0.011802257 0.023425994 -0.051711656 -0.02248044 -0.007668629 -0.012746407 0.026305037 0.01456685
0.0027072295 -0.018207194 0.044599324 0.058141135 0.026745306 0.056487437 -0.017238759 0.09307049
-0.05938269 0.028952714 -0.058104426 0.0071479236 -0.012827707 0.059157677 -0.006922657 0.010545865
0.034230154 0.026935617 0.036834873 0.011613147 -0.05063258 -0.036258798 0.020418705 -0.023276214
-0.029386105 0.021242788 0.021202667 -0.03859851 0.005236743 -0.033777423 0.010709067 0.01104174
0.026602574 0.031788804 0.011972449 0.008962872 0.009910318 0.021902028 0.025211679 0.031753793
0.0013916334 -0.040093444 -0.030466136 -0.013176234 -0.030285075 0.05325647 -0.02633369 -0.034707785
-0.099882804 -0.0039346265 -0.07811782 0.0005444631 -0.07087932 -0.013050675 -0.02711036 0.004331926
0.020018948 -0.014984507 -0.0036415101 0.0025531068 0.02463054 0.006798851 0.04262618 0.009631888
-0.0027580394 0.027480606 0.014878566 0.033433277 -0.00042767322 -0.011597798 0.008822998 0.032074478
-0.0073366 0.029971905 0.029601477 0.069301926 0.07625031 -0.00041729162 -0.020016499 -0.05649591
-0.007072189 0.024939718 -0.009095344 0.051296275 -0.031506576 0.017424785 0.009805162 0.025434904
0.016784668 0.038909156 -0.02340043 -0.012039947 0.024812268 -0.005136827 0.029172802 0.019711228
0.019648157 -0.028106757 0.046215374 0.06622733 0.027864885 -0.019017708 0.029035293 0.0100912135
-0.040554184 0.017348701 -0.028503202 -0.038201854 -0.019305548 -0.022191012 -0.06088036 -0.042182326
-0.06656638 -0.05082302 -0.022216832 0.035751462 0.03012548 -0.03928538 0.051419243 0.024198703
-0.058498364 -0.01863883 -0.0005533106 0.023676742 -0.038819432 0.020109307 -0.024123777 -0.025123898
-0.014559339 -0.0013630203 -0.011045022 0.042448338 -0.014672364 -0.011424156 0.010559359 -0.02385401
-0.025651988 -0.0013037111 -0.006676685 -0.002249842 0.031030377 -0.027981639 0.003368241 0.018898005
-0.03539331 0.004795805 0.06558038 -0.0066895057 0.00857107 -0.07520831 0.050742317 -0.0042055203
0.047463387 -0.06646089 0.03557129 0.027810905 -0.038015846 -0.03189501 0.032950364 0.018406233
-0.036074612 0.0033227212 -0.039220266 0.018716844 -0.0019716208 0.006580847 0.046021525 0.005087165
-0.063171916 -0.012385388 -0.027518762 -0.012729214 0.007238126 -0.042036604 -0.074388936 0.05954476
-0.04783272 -0.046796206 0.0014220503 0.0384221 -0.040852144 0.07443482 0.02099519 -0.02879863
-0.07244511 0.048483912 0.089157306 0.01932298 -0.035008002 0.030524872 0.049169883 -0.050641008
-0.024914643 -0.07190327 0.030620856 0.00051952753 0.057018153 -0.043763954 -0.035015076 -0.014509922
-0.008996951 -0.0009414079 0.013723827 0.007201417 0.017076705 -0.015714826 -0.002787255 -0.012257123
0.011725842 -0.0029413614 0.01832096 -0.019719888 -0.0077145007 0.042869937 0.030545326 0.029241214
-0.0023538908 0.03353173 0.013575585 0.009163129 -0.0045561865 -0.01199249 -0.006420055 -0.005251872
0.013870603 0.004190567 -0.045344245 0.013491526 -0.0354629 -0.040078353 -0.045591563 -0.035725825
-0.013628918 -0.027990017 -0.024847291 0.019262545 -0.0017936548 -0.0381128 0.007610797 0.02195938
00000000: c903 12bc 1e0f 52bb 0f17 f43b b829 86bb
00000010: 9abf 833b 7ed1 aebc ceaf 423b 1ab1 cabb
00000020: 415e 413c dfe7 bf3c 9acf 53bd e628 b8bc
00000030: 1f49 fbbb 4ed6 50bc a97d d73c cca9 6e3c
00000040: c66b 313b 4127 95bc c8ad 363d 6625 6e3d
00000050: f918 db3c 5f5f 673d 4c38 8dbc be9b be3d
00000060: 433b 73bd 3e2e ed3c e8fe 6dbd 2139 ea3b
00000070: 4e2b 52bc 524f 723d 75d7 e2bb 90c8 2c3c
00000080: eb34 0c3d 15a8 dc3c 2ae0 163d 1245 3e3c
00000090: 1c64 4fbd 1b84 14bd 2145 a73c c2ad bebc
000000a0: 21bb f0bc 5b05 ae3c 37b1 ad3c 7919 1ebd
000000b0: fc98 ab3b 325a 0abd 1575 2f3c 6ae8 343c
000000c0: a4ed d93c fa34 023d 1728 443c 03d9 123c
000000d0: e35e 223c e26b b33c b988 ce3c 4410 023d
000000e0: 7867 b63a 0639 24bd 1e94 f9bc 22e1 57bc
000000f0: 6818 f8bc 7523 5a3d c0b9 d7bc c029 0ebd
00000100: 5b8f ccbd 0aee 80bb 3cfc 9fbd 4dba 0e3a
00000110: 2d29 91bd 80d2 55bc 8c16 debc d4f2 8d3b
00000120: c7fe a33c 9481 75bc 67a6 6ebb 0652 273b
00000130: fcc5 c93c e5c8 de3b ca98 2e3d 11cf 1d3c
00000140: 39c0 34bb 021f e13c 3bc5 733c 55f1 083d
00000150: 5439 e0b9 b104 3ebc 568e 103c 8760 033d
00000160: dd67 f0bb a487 f53c cc7e f23c 2bee 8d3d
00000170: 1f29 9c3d efc7 dab9 a4f9 a3bc 4168 67bd
00000180: d2bd e7bb 614e cc3c a304 15bc 0b1c 523d
00000190: 0a0d 01bd 6cbe 8e3c d5a5 203c dc5c d03c
000001a0: 0080 893c 355f 1f3d 42b2 bfbc 3343 45bc
000001b0: 1943 cb3c d452 a8bb cdfb ee3c 7179 a13c
000001c0: 2cf5 a03c 2440 e6bc 554c 3d3d 32a2 873d
000001d0: e644 e43c 06cb 9bbc 6cdb ed3c 9e55 253c
000001e0: 251c 26bd dd1e 8e3c 8c7f e9bc 8c79 1cbd
000001f0: ab26 9ebc edc9 b5bc af5d 79bd 60c7 2cbd
00000200: f453 88bd cd2b 50bd 1300 b6bc 2070 123d
00000210: b6c9 f63c b5e9 20bd fc9c 523d 5c3c c63c
00000220: fb9b 6fbd 76b0 98bc 0c0c 11ba baf5 c13c
00000230: 2001 1fbd 46bc a43c 3a9f c5bc a2d0 cdbc
00000240: 4b8a 6ebc 5fa7 b2ba 2ef6 34bc 4fde 2d3d
00000250: 5b64 70bc 622c 3bbc 2901 2d3c 7c69 c3bc
00000260: 1e24 d2bc 49e1 aaba 18c8 dabb 1672 13bb
00000270: 6b33 fe3c c039 e5bc b5bd 5c3b fdcf 9a3c
00000280: 93f8 10bd 2126 9d3b 024f 863d a433 dbbb
00000290: ac6d 0c3c d006 9abd 2dd7 4f3d 76ce 89bb
000002a0: f868 423d a61c 88bd 33b3 113d b2d3 e33c
000002b0: 81b6 1bbd 58a4 02bd f6f6 063d abc8 963c
000002c0: f9c2 13bd 03c2 593b 6ea5 20bd 1154 993c
000002d0: 4f36 01bb 25a4 d73b 1181 3c3d 3cb2 a63b
000002e0: 4760 81bd 15ec 4abc 076f e1bc 318e 50bc
000002f0: cd2d ed3b 932e 2cbd 3a59 98bd 35e5 733d
00000300: 3eec 43bd 61ad 3fbd 1764 ba3a 7e60 1d3d
00000310: 9454 27bd 4871 983d 1bfe ab3c 1beb ebbc
00000320: 1a5e 94bd 1197 463d 1b98 b63d 3a4b 9e3c
00000330: 8d64 0fbd 4c0f fa3c 5c66 493d f26c 4fbd
00000340: cb19 ccbc 0642 93bd 97d8 fa3c e730 083a
00000350: de8b 693d d541 33bd f86b 0fbd 06bb 6dbc
00000360: f367 13bc d1c8 76ba e7d9 603c ddf9 eb3b
00000370: 72e4 8b3c 61bc 80bc 61aa 36bb 1ad2 48bc
00000380: bf1d 403c dbc3 40bb d715 963c 9a8b a1bc
00000390: ecc9 fcbb 6398 2f3d 313a fa3c 458b ef3c
000003a0: bc43 1abb 9158 093d 216c 5e3c f320 163c
000003b0: 104c 95bb 267c 44bc 535f d2bb e517 acbb
000003c0: 8741 633c 0651 893b e3ba 39bd 900b 5d3c
000003d0: 8c41 11bd 3329 24bd 38be 3abd 3e55 12bd
000003e0: d34b 5fbc 524b e5bc 8c8c cbbc 7ccc 9d3c
000003f0: 1119 ebba 2b1c 1cbd fe63 f93b 28e4 b33c

st_gcn_networks.0.tcn.2.bias f4 [8]
1.255641e-05 4.5783363e-05 4.6300338e-05 4.187929e-05 2.1771126e-05 -1.9116995e-05 -4.1433144e-05 -2.3595174e-05
00000000: 5fa9 5237 8307 4038 9c32 4238 8ca7 2f38
00000010: 23a1 b637 6f5d a0b7 80c8 2db8 40ee c5b7

st_gcn_networks.0.tcn.3.weight f4 [8]
0.35545287 0.32372168 0.28672576 0.22586372 0.21518739 0.34588653 0.3786383 0.31869525
00000000: ebfd b53e d9be a53e b8cd 923e d248 673e
00000010: 155a 5c3e 0a18 b13e e1dc c13e 062c a33e

st_gcn_networks.0.tcn.3.bias f4 [8]
-0.04522615 0.0016208066 0.042732622 0.019090023 -0.017968081 0.011464505 0.03239831 -0.00821997
00000000: 0e3f 39bd 3f71 d43a 6708 2f3d ae62 9c3c
00000010: cc31 93bc 9fd5 3b3c 17b4 043d 0ead 06bc

st_gcn_networks.0.tcn.3.running_mean f4 [8]
0.006502341 0.015653571 -0.02072947 -0.031560898 0.032442793 0.03864146 -0.008375995 0.009984285
00000000: 9711 d53b eb3b 803c d9d0 a9bc 0046 01bd
00000010: bce2 043d 8246 1e3d 783b 09bc 2095 233c

st_gcn_networks.0.tcn.3.running_var f4 [8]
0.0065596565 0.0042253765 0.0018347413 0.00078702054 0.0018398036 0.0051431754 0.005049344 0.0032778296
00000000: 63f2 d63b 0775 8a3b b47b f03a 0e50 4e3a
00000010: 9125 f13a 1588 a83b f874 a53b dbd0 563b

st_gcn_networks.1.gcn.conv.weight f4 [24, 8, 1, 1]
-0.018588064 -0.039775874 0.05321989 0.05669222 -0.014361804 0.0057610543 0.0030098355 0.043133065
-0.0039937594 -0.01873505 0.08267864 -0.027325397 0.029151654 -0.03151442 0.0681104 0.021584708
0.06745809 -0.0588756 -0.033233378 0.074901454 0.069883965 0.0739236 -0.033249624 -0.017604886
0.008726756 -0.02506723 -0.038415 -0.030607862 -0.067179956 -0.0961014 0.033457994 -0.100277536
-0.026705336 0.0014477135 0.07186565 -0.05859239 0.019803459 0.012266291 0.03405663 0.0022393903
0.009197071 -0.08917414 0.03240081 -0.07131195 -0.010194895 0.0043379213 -0.07912103 0.012725484
-0.033147622 -0.02497907 0.05611536 0.003932777 0.022787783 0.018680695 -0.041686166 -0.01753619
-0.017764337 -0.008186247 -0.01709733 -0.03602929 -0.014323619 0.058500204 0.009115669 0.06658365
-0.021462813 0.07130089 0.009327388 -0.023098463 -0.053883392 -5.879218e-05 0.07642031 0.10237586
-0.05542939 -0.0021926076 -0.051901445 -0.044499405 -0.0055950205 -0.025758903 0.05397509 0.0001530449
0.0112829525 -0.007568146 0.054114565 -0.04907184 -0.047942106 -0.09844215 0.104075804 -0.047853496
-0.021967443 0.12953024 0.07394053 0.01724012 -0.06206084 0.070488535 -0.03770446 -0.096580915
-0.037010495 -0.026174763 0.068179704 0.03831384 -0.00018172048 0.019298142 -0.023901632 0.042884383
0.088500515 -0.047528252 0.0020431452 -0.049151234 0.02929112 -0.08213715 0.08277882 0.05661465
-0.0823076 -0.11322689 0.040894967 0.04930434 -0.081045195 -0.036519814 0.030115517 0.07358246
0.035601776 0.020249318 -0.014521375 -0.00765017 -0.0043766988 0.009612123 0.03379674 -0.0049945232
-0.0085547855 -0.012122309 0.009269791 0.055148415 -0.009939441 0.046574686 -0.0603752 -0.0068837786
0.035038862 0.0138589125 0.017352145 -0.040362652 -0.009314629 0.05310924 0.06978567 0.042653505
0.001788474 0.014571578 -0.014122333 -0.038365826 0.0047433865 -0.056749493 0.07340267 0.021559224
0.07905686 -0.022191256 -0.023068601 -0.037591293 -0.02222663 -0.02860571 0.1488502 -0.0020575037
0.014591143 -0.021995524 0.006974538 -0.053470854 0.011151395 0.005147065 0.008348597 -0.0053505045
-0.023135774 -0.03786574 -0.03622891 0.004148552 -0.030366715 -0.051243115 -0.028400812 -0.0010284868
0.070348226 0.030910855 0.030324103 -0.086854845 0.04209167 0.041629236 -0.005638729 -0.026161624
1.961743e-05 -0.035326846 0.041161485 -0.002365526 -0.011524419 -0.03765029 -0.008085328 0.081403196
00000000: ff45 98bc 07ec 22bd 19fd 593d 1a36 683d
00000010: c64d 6bbc 3ac7 bc3b a940 453b 4cac 303d
00000020: 15de 82bb 3f7a 99bc 6b53 a93d 83d9 dfbc
00000030: 73cf ee3c 4415 01bd 777d 8b3d 6ad2 b03c
00000040: 7827 8a3d 8b27 71bd b91f 08bd ef65 993d
00000050: 531f 8f3d 4265 973d c230 08bd 1f38 90bc
00000060: abfa 0e3c cb59 cdbc 0c59 1dbd 57bd fabc
00000070: a595 89bd d0d0 c4bd 400b 093d 4f5e cdbd
00000080: 26c5 dabc 34c1 bd3a 4c2e 933d 93fe 6fbd
00000090: dd3a a23c 8ef8 483c f77e 0b3d bcc2 123b
000000a0: 50af 163c eea0 b6bd b6b6 043d 000c 92bd
000000b0: 7d08 27bc 1f25 8e3b 350a a2bd 8c7e 503c
000000c0: cdc5 07bd e8a0 ccbc 38d9 653d 86de 803b
000000d0: 72ad ba3c 4208 993c 1dbf 2abd 0ea8 8fbc
000000e0: 8486 91bc 9c1f 06bc b30f 8cbc 7393 13bd
000000f0: 9dad 6abc e99d 6f3d e359 153c 025d 883d
00000100: c8d2 afbc 3306 923d e7d1 183c fd38 bdbc
00000110: d5b4 5cbd 9f97 76b8 4082 9c3d 6faa d13d
00000120: ee09 63bd dab1 0fbb 9c96 54bd 0245 36bd
00000130: 6f56 b7bb 5604 d3bc fc14 5d3d ad7a 2039
00000140: 22dc 383c 36fe f7bb 3ca7 5d3d 8eff 48bd
00000150: f15e 44bd 0a9c c9bd b225 d53d 0702 44bd
00000160: 11f5 b3bc 93a3 043e 226e 973d 273b 8d3c
00000170: 8233 7ebd 4b5c 903d fe6f 1abd 37cc c5bd
00000180: 5198 17bd 756c d6bc cda1 8b3d f9ee 1c3d
00000190: 388c 3eb9 2317 9e3c 5bcd c3bc 89a7 2f3d
000001a0: c23f b53d fcac 42bd 4ae6 053b ce52 49bd
000001b0: eef3 ef3c 8637 a8bd f187 a93d c3e4 673d
000001c0: e390 a8bd 80e3 e7bd 7b81 273d 59f3 493d
000001d0: 06fb a5bd cd95 15bd d1b4 f63c 67b2 963d
000001e0: 2bd3 113d e6e1 a53c 10eb 6dbc 47ae fabb
000001f0: 696a 8fbb 2a7c 1d3c 736e 0a3d 19a9 a3bb
00000200: 5f29 0cbc a69c 46bc 52e0 173c 4ee3 613d
00000210: 0ad9 22bc 19c5 3e3d fc4b 77bd 5291 e1bb
00000220: e984 0f3d 7e10 633c 1626 8e3c 4f53 25bd
00000230: 639c 18bc 1389 593d caeb 8e3d 71b5 2e3d
00000240: 3b6b ea3a a1bd 6e3c 5c61 67bc 7c25 1dbd
00000250: 696e 9b3b 2872 68bd 2454 963d f89c b03c
00000260: 90e8 a13d 70ca b5bc 5dfa bcbc 54f9 19bd
00000270: 9f14 b6bc 8656 eabc 306c 183e 2fd7 06bb
00000280: b00f 6f3c f52f b4bc aa8a e43b 4104 5bbd
00000290: 57b4 363c b6a8 a83b 8ec8 083c 4953 afbb
000002a0: 3c87 bdbc 1b19 1bbd c464 14bd 94f0 873b
000002b0: 9ec3 f8bc 4de4 51bd d2a8 e8bc 4ace 86ba
000002c0: bb12 903d c338 fd3c 416a f83c f4e0 b1bd
000002d0: 5168 2c3d 6b83 2a3d 16c5 b8bb e750 d6bc
000002e0: 1c90 a437 e2b2 10bd f298 283d f106 1bbb
000002f0: ebd0 3cbc 3137 1abd 5378 04bc b8b6 a63d

st_gcn_networks.1.gcn.conv.bias f4 [24]
0.0014383461 0.011252258 -0.012329499 0.037820444 0.01116175 -0.006578856 0.0040155994 0.002222226
-0.07398409 -0.004109801 0.011688527 0.002200214 -0.050028153 0.011865702 0.054551262 -0.0020971769
-0.009084004 -0.036203027 0.0047567086 0.018306492 0.006945535 -0.024978217 0.02114766 -0.009342081
00000000: e386 bc3a 645b 383c ab01 4abc 9ce9 1a3d
00000010: c6df 363c 7293 d7bb 4a95 833b c4a2 113b
00000020: f884 97bd 82ab 86bb 3c81 3f3c 7731 103b
00000030: 52ea 4cbd 5d68 423c 2571 5f3d ca70 09bb
00000040: 13d5 14bc a049 14bd 2ade 9b3b 7ff7 953c
00000050: 5f97 e33b 1e9f ccbc dc3d ad3c 870f 19bc

st_gcn_networks.1.tcn.0.weight f4 [8]
0.23299028 0.1950023 0.29243544 0.30958474 0.16263929 0.24942116 0.2852176 0.23507626
00000000: 0195 6e3e afae 473e 19ba 953e e481 9e3e
00000010: ea8a 263e 4368 7f3e 0b08 923e d5b7 703e

st_gcn_networks.1.tcn.0.bias f4 [8]
-0.025439765 0.00778568 0.016771898 0.01036827 -0.01101154 -0.011019164 -0.033027716 -0.018647349
00000000: 0e67 d0bc 041f ff3b 3865 893c addf 293c
00000010: bf69 34bc b989 34bc 1248 07bd 53c2 98bc

st_gcn_networks.1.tcn.0.running_mean f4 [8]
-0.0016249156 0.00019565682 0.0001906728 0.0016535808 -0.0014727724 -0.0010417392 0.002650151 0.0009625949
00000000: 1ffb d4ba 3a29 4d39 57ef 4739 f7bc d83a
00000010: 0b0a c1ba f88a 88ba 28ae 2d3b a656 7c3a

st_gcn_networks.1.tcn.0.running_var f4 [8]
5.7315337e-06 6.072505e-06 1.758509e-05 1.1274956e-05 7.3068386e-06 6.50095e-06 1.8252003e-05 8.580723e-06
00000000: 8051 c036 6cc2 cb36 b183 9337 9129 3d37
00000010: 442d f536 bc22 da36 e11b 9937 edf5 0f37

st_gcn_networks.1.tcn.2.weight f4 [8, 8, 9, 1]
-0.006388568 -0.0015664776 -0.0008642306 -0.009320594 -0.0077011464 -0.027761446 0.0019079766 0.011481226
0.040659674 -0.036637127 0.0042562457 0.024116633 0.010890242 -0.042724743 -0.019301223 0.01359035
0.023107843 -0.0116862245 0.014408415 -0.012188199 0.040198844 -0.014309346 0.008936932 -0.0095835915
0.04230915 -0.027947763 -0.04245492 0.0144655015 0.01127721 0.02039433 0.0043646703 0.012191345
0.040616006 -0.043759648 -0.043866064 -0.040637754 -0.01604264 -0.011246828 -0.0025404757 -0.0026699128
-0.0053833793 0.03596932 0.018470494 0.025315799 0.03385278 -0.005920974 -0.032313816 0.034819264
0.014980726 -0.009616371 -0.019421076 -0.0032531987 -0.015987325 -0.0027454256 -0.015161898 -0.0008637356
0.015161093 -0.018219912 0.027148416 0.02480326 0.025177762 0.00335625 -0.00015885815 0.018224737
0.0047643334 -0.04455974 -0.04909173 0.017669043 -0.020616243 -0.0098251 0.0080174 -0.00037290732
-0.008269851 -0.034438193 -0.00037779866 -0.0068999515 -0.020609526 -0.04289511 0.005688953 0.014330972
-0.04263945 -0.028127301 -0.018369231 -0.0044378983 -0.057566874 0.026710385 0.0101000825 0.032894418
0.010214483 0.03061481 -0.02761829 -0.01729267 0.008113208 -0.0050345613 0.019169204 0.03808049
0.0077273073 0.04983484 0.027913127 0.012230987 0.04127678 0.0069845594 0.017288787 -0.008776328
0.036215615 0.016600527 -0.011217281 0.026629599 -0.034568388 -0.00040525175 -0.0128405485 -0.02696556
-0.0026621586 -0.003854917 0.013861093 -0.024357876 0.023788312 0.018207956 -0.0143547645 0.0007884001
-0.009614257 -0.014121213 0.0062604765 0.0077772588 0.008527231 0.0404269 -0.013314923 0.0056724628
0.030667594 -0.027310297 0.015445642 0.0014079009 0.023410022 -0.020204555 0.031874094 -0.014348609
-0.029996915 -0.020135542 -0.012602365 -0.030686656 0.016250037 0.010013586 -0.0147411125 0.006204738
0.0040523238 -0.061860327 -0.027369298 -0.004306046 -0.009874674 -0.005378095 -0.0064686914 -0.04330886
-0.04036751 0.04230394 -0.024432505 -0.011635776 0.0026755286 -0.0044799806 -0.023031594 -0.021892507
0.0126577495 -0.0028780752 0.03837333 -0.0378198 0.012742861 0.043018483 -0.04464706 0.021951072
0.03339705 0.014825867 0.011993222 -0.027475579 0.035307325 -0.037787944 0.011617874 -0.02021483
-0.02232575 -0.05244696 0.017011799 -0.006333714 0.0031442982 0.02819342 -0.019091599 0.030176338
-0.010350928 0.00036011217 0.01123771 -0.029033102 -0.005546012 0.010279519 -0.02618051 0.04060261
-0.011570071 -0.0062171547 -0.044661175 -0.0018799636 -0.06954739 -0.04234529 -0.008368071 -0.008849537
0.022498567 0.049745545 -0.0043409513 -0.010659282 0.010664086 0.01666233 0.052938268 0.0062721157
0.034844764 0.027173372 -0.010748232 0.00974733 -0.023863995 0.0015043746 -0.0040623373 -0.0074810754
-0.001933717 -0.005826522 0.043026377 -0.023433397 -0.033176754 -0.0032101546 -0.032650214 -0.05136094
0.029956697 0.04914574 0.0029639457 0.0071667107 0.01939378 0.039595716 0.0016467205 -0.026688006
-0.034519378 0.014513328 0.005773389 0.011131541 0.028671002 -0.026092999 0.018824141 0.0012460389
0.010300871 0.0052989996 0.041376192 -0.008112885 -0.0018147586 -0.018070256 0.02926316 -0.0017856434
-0.023420412 -0.005131708 0.024073394 -0.052746248 0.005983513 -0.0014026246 -0.009331254 -0.03400951
00000000: 3157 d1bb 4452 cdba 898d 62ba 68b5 18bc
00000010: e659 fcbb f96b e3bc 1215 fa3a c11b 3c3c
00000020: c28a 263d d010 16bd fa77 8b3b 3f90 c53c
00000030: fc6c 323c 2400 2fbd 991d 9ebc 0faa 5e3c
00000040: a94c bd3c 9477 3fbc 4611 6c3c 03b1 47bc
00000050: 8ba7 243d bf71 6abc 366c 123c 7f04 1dbc
00000060: 5c4c 2d3d b5f2 e4bc 36e5 2dbd b600 6d3c
00000070: 0cc4 383c 0312 a73c 8205 8f3b 35be 473c
00000080: f85c 263d 513d 33bd e7ac 33bd c673 26bd
00000090: db6b 83bc 9e44 38bc 1c7e 26bb b4f9 2ebb
000000a0: 0f67 b0bb 9154 133d 6f4f 973c 1463 cf3c
000000b0: 36a9 0a3d bb04 c2bb 7e5b 04bd a59e 0e3d
000000c0: b871 753c fc8d 1dbc f318 9fbc 9e33 55bb
000000d0: daf7 82bc 99ec 33bb 9c69 78bc 516c 62ba
000000e0: 3c66 783c ed41 95bc 5b66 de3c 3530 cb3c
000000f0: 9841 ce3c 88f4 5b3b 2993 26b9 0b4c 953c
00000100: 201e 9c3b 4684 36bd 6914 49bd abbe 903c
00000110: 65e3 a8bc 75f9 20bc 6a5b 033c c682 c3b9
00000120: 457e 07bc 100f 0dbd 4713 c6b9 fd18 e2bb
00000130: 4fd5 a8bc c8b2 2fbd 666a ba3b 74cc 6a3c
00000140: b4a6 2ebd 3a6b e6bc 127b 96bc ca6b 91bb
00000150: 3ecb 6bbd bdcf da3c d17a 253c 4cbc 063d
00000160: a65a 273c e9cb fa3c c13f e2bc 5ca9 8dbc
00000170: 43ed 043c f6f8 a4bb bc08 9d3c 4afa 1b3d
00000180: 5a35 fd3b 9e1f 4c3d 12aa e43c 7a64 483c
00000190: d711 293d bbde e43b 37a1 8d3c 96ca 0fbc
000001a0: d356 143d d4fd 873c b0c8 37bc 5126 da3c
000001b0: 9597 0dbd f877 d4b9 2a61 52bc e1e6 dcbc
000001c0: 9c77 2ebb c6a2 7cbb a319 633c 2b8a c7bc
000001d0: b5df c23c da28 953c 3f30 6bbc a3ac 4e3a
000001e0: 1e85 1dbc a95c 67bc af24 cd3b 60d8 fe3b
000001f0: cdb5 0b3c ad96 253d d626 5abc 11e0 b93b
00000200: 9b3a fb3c d8b9 dfbc b80f 7d3c 5189 b83a
00000210: 60c6 bf3c 0684 a5bc 698e 023d 6e16 6bbc
00000220: 17bc f5bc 4bf3 a4bc 267a 4ebc 9562 fbbc
00000230: cc1e 853c 0610 243c b584 71bc 1d51 cb3b
00000240: 5bc9 843b 4161 7dbd 9435 e0bc bb19 8dbb
00000250: 62c9 21bc bb3a b0bb 51f7 d3bb a264 31bd
00000260: 6758 25bd e546 2d3d ad26 c8bc fba3 3ebc
00000270: ec57 2f3b cdcc 92bb c1ac bcbc ea57 b3bc
00000280: 7362 4f3c 179e 3cbb 5a2d 1d3d efe8 1abd
00000290: 6fc7 503c 2634 303d d6df 36bd bcd2 b33c
000002a0: 58cb 083d 31e8 723c 387f 443c 7714 e1bc
000002b0: 6a9e 103d 88c7 1abd e558 3e3c 9299 a5bc
000002c0: 7ee4 b6bc a0d2 56bd 545c 8b3c 0b8b cfbb
000002d0: 9210 4e3b e3f5 e63c fc65 9cbc 5e34 f73c
000002e0: f096 29bc 70cd bc39 5f1e 383c d4d6 edbc
000002f0: 52bb b5bb 6d6b 283c 8278 d6bc ec4e 263d
00000300: 6590 3dbc 46b9 cbbb a3ee 36bd 1c69 f6ba
00000310: dd6e 8ebd 4172 2dbd 3c1a 09bc a6fd 10bc
00000320: ea4e b83c fcc1 4b3d 8a3e 8ebb 45a4 2ebc
00000330: 6bb8 2e3c 707f 883c ccd5 583d 5286 cd3b
00000340: 62b9 0e3d b19a de3c 5a19 30bc 44b3 1f3c
00000350: 6d7e c3bc 6f2e c53a 5b1d 85bb cf23 f5bb
00000360: c774 fdba 69ec bebb 6d3c 303d 65f7 bfbc
00000370: 59e4 07bd 7561 52bb 3bbc 05bd d95f 52bd
00000380: bf67 f53c 0b4d 493d c23e 423b bad6 ea3b
00000390: b4df 9e3c 1e2f 223d c5d6 d73a cea0 dabc
000003a0: 3164 0dbd 4fc9 6d3c b22e bd3b 1161 363c
000003b0: 73df ea3c fcc0 d5bc 1635 9a3c 2152 a33a
000003c0: fcc4 283c 3ba3 ad3b 157a 293d e8eb 04bc
000003d0: 32dd edba 1308 94bc 4bb9 ef3c 400c eaba
000003e0: 2adc bfbc e327 a8bb 9135 c53c 730c 58bd
000003f0: 5811 c43b 46d8 b7ba 1ee2 18bc 8e4d 0bbd

st_gcn_networks.1.tcn.2.bias f4 [8]
-3.825625e-05 -2.5584073e-05 2.8953194e-05 1.774014e-05 4.395185e-05 3.825583e-05 -3.625122e-06 -9.659111e-06
00000000: 5675 20b8 619d d6b7 83e0 f237 a9d0 9437
00000010: f158 3838 e274 2038 1f47 73b6 910d 22b7

st_gcn_networks.1.tcn.3.weight f4 [8]
0.21653873 0.25837702 0.3024737 0.28724036 0.21200424 0.3206115 0.2809053 0.18253936
00000000: 54bc 5d3e fe49 843e d5dd 9a3e 2b11 933e
00000010: a417 593e 3127 a43e d2d2 8f3e 99eb 3a3e

st_gcn_networks.1.tcn.3.bias f4 [8]
0.0050663133 -0.012472966 -0.0189558 -0.018495386 -0.0071404576 -0.0052565425 -0.006352066 0.0056861476
00000000: 5103 a63b 695b 4cbc 3249 9bbc a383 97bc
00000010: 80fa e9bb 133f acbb fe24 d0bb dd52 ba3b

st_gcn_networks.1.tcn.3.running_mean f4 [8]
-0.0035298828 0.010895287 -0.008602888 0.0037725456 -0.0045608217 0.009256367 -0.014148182 -0.006662503
00000000: 9b55 67bb 2582 323c 21f3 0cbc d03c 773b
00000010: f272 95bb 04a8 173c c7cd 67bc 2051 dabb

st_gcn_networks.1.tcn.3.running_var f4 [8]
0.00032723954 0.001127941 0.00063885265 0.00046732987 0.00030317312 0.0011311948 0.0006119567 0.00063762383
00000000: 5991 ab39 6bd7 933a ad78 273a f403 f539
00000010: 35f3 9e39 9944 943a b86b 203a 3626 273a

st_gcn_networks.1.residual.0.weight f4 [8, 8, 1, 1]
-0.029597016 -0.057233933 -0.10541168 -0.021253765 -0.06025961 0.030863542 0.056175668 -0.013291067
-0.07551275 -0.04164637 -0.016080594 0.0063279136 0.0025807712 0.08499005 0.096981466 -0.0954419
-0.12603632 0.006038279 0.072645344 -0.0047405884 -0.032965582 0.054683235 -0.0051947366 -0.062975906
0.078740224 0.015745426 -0.05708871 5.7154615e-05 -0.022588575 0.0026093384 0.067314886 0.078281485
-0.052052934 0.03426426 -0.08094312 0.012554553 0.036354523 -0.034358636 0.09188873 0.061923556
0.115720004 0.030747583 0.09933748 -0.0099863615 -0.060248267 -0.041774247 -0.032826744 -0.08155521
0.022613324 0.02322487 -0.07690076 0.026507502 -0.01769516 -0.026658578 -0.064122684 0.014456217
-0.008113574 0.031656675 0.07757979 0.013054669 0.05872607 0.085348755 -0.08058825 -0.034318548
00000000: 7175 f2bc 216e 6abd 14e2 d7bd 601c aebc
00000010: c8d2 76bd 8ad5 fc3c 7518 663d c7c2 59bc
00000020: 6ea6 9abd 6295 2abd 73bb 83bc 635a cf3b
00000030: 2822 293b 430f ae3d 389e c63d 0b77 c3bd
00000040: aa0f 01be c1dc c53b 15c7 943d f056 9bbb
00000050: eb06 07bd 87fb 5f3d 9c38 aabb 83f9 80bd
00000060: 8e42 a13d 8dfc 803c dad5 69bd 4db9 6f38
00000070: ad0b b9bc 6f01 2b3b 63dc 893d 0b52 a03d
00000080: 7535 55bd ae58 0c3d 82c5 a5bd 9db1 4d3c
00000090: 7be8 143d a4bb 0cbd 2930 bc3d 8ea3 7d3d
000000a0: 9cfe ec3d 5be2 fb3c 7371 cb3d d69d 23bc
000000b0: e3c6 76bd 791b 2bbd 5675 06bd 6b06 a7bd
000000c0: 943f b93c 1542 be3c 257e 9dbd 4326 d93c
000000d0: 71f5 90bc 1763 dabc c152 83bd c5d9 6c3c
000000e0: ccee 04bc 6eaa 013d 27e2 9e3d 40e3 553c
000000f0: bf8a 703d 54cb ae3d 740b a5bd 9b91 0cbd

st_gcn_networks.1.residual.0.bias f4 [8]
-3.718044e-05 -3.794909e-05 3.621421e-05 -2.7847094e-05 2.0701782e-05 3.3845783e-05 -4.1480066e-06 -5.9598788e-06
00000000: 32f2 1bb8 862b 1fb8 b6e4 1738 2e99 e9b7
00000010: bda8 ad37 a2f5 0d38 1b2f 8bb6 f8fa c7b6

st_gcn_networks.1.residual.1.weight f4 [8]
0.21953855 0.19747801 0.24547003 0.23075321 0.20371377 0.238462 0.33471313 0.14629072
00000000: b7ce 603e ad37 4a3e 7f5c 7b3e 924a 6c3e
00000010: 589a 503e 622f 743e 855f ab3e 3ccd 153e

st_gcn_networks.1.residual.1.bias f4 [8]
0.0050663133 -0.012472966 -0.0189558 -0.018495386 -0.0071404576 -0.0052565425 -0.006352066 0.0056861476
00000000: 5103 a63b 695b 4cbc 3249 9bbc a383 97bc
00000010: 80fa e9bb 133f acbb fe24 d0bb dd52 ba3b

st_gcn_networks.1.residual.1.running_mean f4 [8]
-0.017190557 0.0005323978 -0.0059275813 0.020286731 0.007461134 0.0022388957 -0.013761991 0.013962037
00000000: 36d3 8cbc 9d90 0b3a 283c c2bb 5c30 a63c
00000010: 877c f43b 70ba 123b f979 61bc 07c1 643c

st_gcn_networks.1.residual.1.running_var f4 [8]
0.00067632296 0.0013782884 0.00070905784 0.001010815 0.0010575466 0.0011910087 0.00071900943 0.00064493576
00000000: 444b 313a afa7 b43a 11e0 393a 537d 843a
00000010: 609d 8a3a 9f1b 9c3a e87b 3c3a e810 293a

st_gcn_networks.2.gcn.conv.weight f4 [48, 8, 1, 1]
0.013421643 -0.056556668 0.013685179 -0.044269625 0.057186503 0.012430817 -0.06052898 -0.017521665
-0.019542554 -0.018441899 -0.001386083 -0.036846794 -0.011346997 0.013235032 0.016649883 -0.012365163
0.021311881 -0.015445946 0.00859485 -0.043517087 -0.01443676 0.01156978 -0.019907452 6.585167e-05
0.006891364 0.0007214895 -0.0037754357 -0.022970647 0.013743721 -0.044111054 -0.019578261 0.013412183
0.005468939 0.009856581 -0.03037008 0.012147391 -0.03791993 0.03780901 -0.0023079782 -0.023920655
0.055759154 -0.0032480839 -0.06946291 -0.01980269 0.0942599 -0.016861146 -0.10067072 -0.019202985
-0.03669429 -0.078131974 -0.05182412 -0.0005437823 -0.05341749 0.053727522 -0.08098034 0.014969872
-0.012547323 -0.034211613 0.03609056 -0.0011941534 -0.004333567 -0.02872114 0.011086548 0.0027524808
0.005818123 -0.032823917 -0.03636831 0.006781157 -0.055427402 0.04900895 -0.024877053 -0.042608686
-0.005563443 -0.01976833 0.035815097 0.01984467 0.022660278 -0.0341598 0.010589052 0.011745692
0.008493693 -0.029191919 0.024295656 0.002770953 0.03975389 0.05639066 0.007879453 -0.015829839
0.030505452 -0.03782458 -0.042255484 0.038245436 -0.014714758 -0.015381188 0.018877124 -0.027432723
0.029212426 -0.038371608 -0.0028114473 0.07492855 -0.028410263 0.0133615695 0.015993139 -0.0016782485
-0.0017405981 -0.04629965 0.060257602 -0.013622518 -0.027786605 0.0045407694 0.0047155838 0.014462751
-0.03430756 0.019897705 0.028040882 -0.039431818 0.007543085 0.042245843 0.032402787 0.0016769345
-0.027042728 0.0053560915 -0.013178706 -0.03869465 -0.03703739 -0.0013101303 -0.0031807544 -0.00016462017
0.031036044 -0.031098885 0.023126652 -0.052258886 0.041856937 0.08425729 0.09088049 -0.03687277
-0.007597849 -0.04446812 -0.021554623 -0.03329058 -0.010993017 0.03387032 0.03168322 0.016181111
0.015886525 -0.0001394869 0.055296835 -0.008662822 0.042794846 -0.0062140548 0.021756273 -0.03596789
0.023328017 0.035020787 -0.00271458 -0.026285067 0.03441508 -0.04910634 -0.030821402 -0.036839772
0.00041640314 -0.027457243 0.021223385 -0.024226656 -0.0032158087 0.035981223 0.030897183 0.012911622
0.025221132 0.04155829 -0.019323712 -0.03927406 0.020155229 -0.104135275 0.015469391 -0.0071224933
0.05117357 0.040070895 -0.06475522 0.027532775 0.072819375 -0.03553919 -0.013806228 -0.044146437
-0.020538554 -0.058113635 0.0386635 0.028978067 -0.042840514 0.039181102 -0.008990015 0.04043392
0.03997745 0.051670387 -0.030233905 0.023165561 0.053684685 0.0025204066 0.056759395 -0.019012922
-0.015808424 -0.018302422 -0.028830685 0.022776457 -0.04491223 0.047552824 0.02938085 -0.035642732
-0.011943983 -0.052454423 -0.0096619325 0.0386522 -0.008342621 -0.0010100185 -0.0006385528 0.045177493
0.05327863 0.08207528 0.010894588 0.0091112815 -0.04996101 -0.018839937 0.09341862 0.05247723
0.09103913 -0.014848434 -0.0105111655 -0.05319066 -0.033512417 -0.0072664865 0.029178515 -0.0023354134
0.02245949 0.045822073 -0.07655968 0.07883217 0.0002512444 -0.057823285 -0.0075400895 0.07890892
-0.0031812093 -0.019406231 -0.022996338 -0.019180315 0.02430799 0.016106464 -0.0044863736 -0.014023242
-0.023778332 -0.009838659 0.029711617 0.03489822 0.019672368 0.017939767 0.046061464 0.0012351137
00000000: 73e6 5b3c f7a7 67bd cd37 603c 1154 35bd
00000010: 653c 6a3d a0aa 4b3c 3ced 77bd 9889 8fbc
00000020: b517 a0bc 7713 97bc 3aad b5ba aaec 16bd
00000030: c1e8 39bc bfd7 583c 5665 883c 4197 4abc
00000040: 4196 ae3c fe10 7dbc 6ad1 0c3c f93e 32bd
00000050: 2988 6cbc 2d8f 3d3c f414 a3bc d919 8a38
00000060: f4d0 e13b 5722 3d3a 4d6d 77bb f02c bcbc
00000070: 582d 613c cbad 34bd 9762 a0bc c6be 5b3c
00000080: c934 b33b 7f7d 213c adca f8bc da05 473c
00000090: ee51 1bbd 9fdd 1a3d 7341 17bb 40f5 c3bc
000000a0: b663 643d cedd 54bb 9242 8ebd 4039 a2bc
000000b0: 560b c13d 6320 8abc 732c cebd 944f 9dbc
000000c0: c04c 16bd a803 a0bd 8745 54bd 9d8c 0eba
000000d0: 4ccc 5abd 6411 5c3d 05d9 a5bd 3244 753c
000000e0: 4993 4dbc 7a21 0cbd b2d3 133d 2485 9cba
000000f0: 9800 8ebb 9948 ebbc 5aa4 353c f762 343b
00000100: f4a5 be3b 5f72 06bd f0f6 14bd 7834 de3b
00000110: d807 63bd 9cbd 483d f6ca cbbc 7286 2ebd
00000120: 8b4d b6bb 31f1 a1bc dab2 123d 4a91 a23c
00000130: 0ca2 b93c 25eb 0bbd b47d 2d3c 0171 403c
00000140: 2129 0b3c e423 efbc af07 c73c e198 353b
00000150: fad4 223d e5f9 663d d218 013c 94ad 81bc
00000160: 92e6 f93c f2ed 1abd 1614 2dbd 3fa7 1c3d
00000170: 2b16 71bc 6101 7cbc 33a4 9a3c 97ba e0bc
00000180: e64e ef3c 8c2b 1dbd 4240 38bb 2474 993d
00000190: a4bc e8bc 7cea 5a3c 0b04 833c adf8 dbba
000001a0: c824 e4ba b4a4 3dbd add0 763d fb30 5fbc
000001b0: bca0 e3bc bcca 943b 2f85 9a3b 2df5 6c3c
000001c0: 1686 0cbd 8300 a33c feb5 e53c 4283 21bd
000001d0: fc2b f73b fa09 2d3d c9b8 043d 96cc db3a
000001e0: b688 ddbc 2782 af3b 80eb 57bc 487e 1ebd
000001f0: 85b4 17bd aeb8 abba 3474 50bb e49d 2cb9
00000200: 4d3f fe3c 17c3 febc 1b74 bd3c 6a0d 56bd
00000210: 2e72 2b3d 168f ac3d 8d1f ba3d e707 17bd
00000220: 60f7 f8bb 3424 36bd 5293 b0bc b45b 08bd
00000230: 0e1c 34bc 9bbb 0a3d 44c6 013d 408e 843c
00000240: 7524 823c 3b43 12b9 ef7e 623d 82ee 0dbc
00000250: a649 2f3d 459f cbbb 363a b23c 1153 13bd
00000260: 661a bf3c f571 0f3d 18e7 31bb c853 d7bc
00000270: d4f6 0c3d bb23 49bd 2a7d fcbc 4de5 16bd
00000280: af50 da39 03ee e0bc aadc ad3c fb76 c6bc
00000290: 51c0 52bb 0c61 133d 171c fd3c 458b 533c
000002a0: 8c9c ce3c 0739 2a3d c34c 9ebc d6dd 20bd
000002b0: 941c a53c e044 d5bd 5473 7d3c ce63 e9bb
000002c0: 619b 513d 6121 243d 639e 84bd 6a8c e13c
000002d0: 5322 953d 8b91 11bd 8433 62bc e5d2 34bd
000002e0: 7840 a8bc 9008 6ebd 9e5d 1e3d 6963 ed3c
000002f0: 8979 2fbd 5d7c 203d db4a 13bc 0a9e 253d
00000300: 65bf 233d 54a4 533d 18ad f7bc b4c5 bd3c
00000310: 79e4 5b3d 682d 253b 8a7c 683d fdc0 9bbc
00000320: ab80 81bc f6ee 95bc 542e ecbc b195 ba3c
00000330: e3f5 37bd c0c6 423d 1cb0 f03c 1dfe 11bd
00000340: b2b0 43bc 73da 56bd 154d 1ebc c551 1e3d
00000350: 7daf 08bc 9962 84ba 8e64 27ba 090c 393d
00000360: b13a 5a3d 1617 a83d 377f 323c 7c47 153c
00000370: eba3 4cbd 3656 9abc 4352 bf3d 5df2 563d
00000380: b972 ba3d d946 73bc 0637 2cbc 73de 59bd
00000390: 5144 09bd b51b eebb c807 ef3c bc0d 19bb
000003a0: f7fc b73c edaf 3b3d 52cb 9cbd c372 a13d
000003b0: 74b9 8339 1cd8 6cbd db12 f7bb 009b a13d
000003c0: d67b 50bb d1f9 9ebc d162 bcbc 0920 9dbc
000003d0: 8d21 c73c b4f1 833c 6e02 93bb bdc1 65bc
000003e0: c7ca c2bc 5432 21bc c765 f33c 70f1 0e3d
000003f0: f227 a13c 6bf6 923c f2aa 3c3d 8ae3 a13a

st_gcn_networks.2.gcn.conv.bias f4 [48]
-0.0121059315 0.009344456 -0.010691718 0.011009168 -0.0008185327 -0.018275974 0.03046982 -0.016664281
-0.003103687 -0.012824294 -0.016565664 -0.0049891286 -0.031111982 -0.008153828 -0.0012985523 0.0031583176
-0.05562058 -0.013389413 -0.00312506 0.01250806 0.0064720577 -0.013745672 -0.010183843 -0.005448028
-0.047205564 -0.010516808 -0.019973386 -0.048733 0.02049838 0.011243332 -0.008633671 -0.013081022
0.005586656 0.011161139 -0.008579281 0.0066191973 -0.023652688 0.010657967 0.00051513256 -0.0037254686
-0.0066826995 0.0068781963 -0.0032434403 -0.028468024 0.027075592 -0.012754208 0.013420457 0.0031124211
00000000: f557 46bc 7d19 193c 512c 2fbc cc5f 343c
00000010: cd92 56ba 7fb7 95bc d89b f93c 8883 88bc
00000020: 3a67 4bbb fd1c 52bc b7b4 87bc d87b a3bb
00000030: 8ede febc a297 05bc 2f34 aaba c7fb 4e3b
00000040: 68d2 63bd 455f 5bbc cecd 4cbb 9bee 4c3c
00000050: 8e13 d43b 8735 61bc 22da 26bc 5f85 b2bb
00000060: 9f5a 41bd b14e 2cbc 3a9f a3bc 419c 47bd
00000070: 38ec a73c f435 383c 3e74 0dbc c851 56bc
00000080: 4410 b73b 36dd 363c 1d90 0cbc dae5 d83b
00000090: 48c3 c1bc c19e 2e3c f609 073a fe26 74bb
000000a0: 8cfa dabb 7e62 e13b e68f 54bb c635 e9bc
000000b0: a2cd dd3c 07f7 50bc 7ae1 5b3c c3f9 4b3b

st_gcn_networks.2.tcn.0.weight f4 [16]
0.2324704 0.115691625 0.16879497 0.13435212 0.0649606 0.2454501 0.18143263 0.18334016
0.1621226 0.12613048 0.1375433 0.18541625 0.14992198 0.16134869 0.09412055 0.09913276
00000000: b80c 6e3e bbef ec3d 97d8 2c3e 9a93 093e
00000010: 100a 853d 4557 7b3e 7ac9 393e 86bd 3b3e
00000020: 7803 263e 5928 013e 27d8 0c3e c2dd 3d3e
00000030: 2685 193e 9738 253e 46c2 c03d 1e06 cb3d

st_gcn_networks.2.tcn.0.bias f4 [16]
-0.021262545 0.0008807766 -0.033903606 -0.023711983 0.0057310075 -0.03235398 -0.016377272 -0.040466156
-0.037118744 -0.028202076 -0.041346963 -0.035982393 -0.039665747 -0.04509216 -0.010437726 -0.03576955
00000000: ca2e aebc ebe3 663a 82de 0abd a23f c2bc
00000010: 2dcb bb3b 9b85 04bd a129 86bc d7bf 25bd
00000020: d309 18bd 0a08 e7bc 6f5b 29bd 4662 13bd
00000030: 8d78 22bd 8fb2 38bd ff02 2bbc 1783 12bd

st_gcn_networks.2.tcn.0.running_mean f4 [16]
-0.0019582734 -0.0006631333 -0.00038959456 -0.0002177903 -6.633807e-05 -0.002950401 -0.0005173968 -0.0015451044
-0.0016069185 -0.000458185 -0.0015316283 -0.002178433 0.00050044275 -8.838904e-05 0.00061468227 0.0006051137
00000000: 6056 00bb 1fd6 2dba 7f42 ccb9 a35e 64b9
00000010: fb1e 8bb8 845b 41bb e9a1 07ba 1a85 caba
00000020: 3d9f d2ba 8d38 f0b9 ebc0 c8ba 0ac4 0ebb
00000030: 2530 033a 815d b9b8 a122 213a 7ea0 1e3a

st_gcn_networks.2.tcn.0.running_var f4 [16]
7.5549547e-06 4.228428e-06 2.8474492e-06 6.991563e-06 2.7690235e-06 2.13893e-05 4.7604094e-06 3.5943303e-06
4.804768e-06 3.1570466e-06 2.867516e-06 4.621984e-06 2.7127976e-06 3.3959723e-06 1.5544589e-06 2.4063834e-06
00000000: 9180 fd36 ece1 8d36 ce16 3f36 1299 ea36
00000010: 76d3 3936 2c6d b337 9bbb 9f36 2036 7136
00000020: a538 a136 a6dd 5336 8d6f 4036 8a16 9b36
00000030: 820d 3636 5ce6 6336 cda2 d035 5a7d 2136

st_gcn_networks.2.tcn.2.weight f4 [16, 16, 9, 1]
-0.009164183 -0.010358417 -0.0061631748 -0.0053801783 -0.020110909 0.014813564 -0.01572321 -0.019459818
-0.03269122 0.003558344 0.011304503 0.024341216 -0.024599744 0.008817399 -0.007869093 0.0009580772
0.002395018 -0.010416519 0.0029496357 0.00148689 0.018793646 0.0011008739 0.00671907 -0.020102955
0.0053106756 -0.0031510603 0.006307366 -0.0062310924 -0.0023320683 0.010092423 -0.011364984 0.00082113745
0.016235907 -0.007999855 0.004937054 0.019740019 0.0075722816 0.01661188 -0.005947203 -0.0031556296
-0.0072246003 -0.00077994115 0.007986025 -0.008306677 -0.0131213805 0.029387558 -0.01717488 0.018162856
-0.0014108068 -0.0041054217 0.0040740524 -0.01610497 0.0015852302 0.017891854 0.0064592217 0.00897609
0.00868976 0.024099132 0.02370326 0.0018663923 0.0047007846 0.019759672 0.015703289 1.748003e-05
-0.002422224 -0.007817381 -0.004054034 -0.005351269 -0.02581585 0.0067109684 -0.0010929909 -0.010258405
0.010199618 0.020966925 0.009631684 0.016433507 0.00038967858 -0.012818643 0.007044478 0.02129299
-0.01456275 -0.023778293 0.02776364 -0.015577682 0.031375412 -0.0023993491 -0.027129432 0.016905114
0.0041899853 -0.031077424 -0.00825573 0.009837564 -0.011244111 0.008750435 0.010906577 -0.020412775
0.00937555 0.022000963 -0.024519298 0.025796274 -0.0012622807 -0.023836486 -0.035211742 -0.0185663
-0.006437367 -0.05342527 -0.006636132 0.029584931 -0.010918799 0.011898794 -0.007232709 -0.031248026
0.005156194 -0.025291039 -0.01293988 -0.0105015095 -0.012293395 0.015768303 -0.0044616014 -0.021801319
0.01085719 0.009376718 0.00072653237 -0.018301617 0.0005339167 0.037612073 -0.020211477 -0.002629035
0.0029107747 -0.01578507 -0.014919725 -0.016806042 -0.0019289185 -0.006420553 -0.02041352 -0.00045382537
0.0080736615 -0.0019814435 0.0047167037 -0.005201877 -0.030166317 0.017012239 -0.014000882 -0.012712247
-0.006319382 -0.01343767 0.018518222 0.008969376 0.011999026 0.01729936 0.021726543 -0.00044930208
0.025594912 -0.02432814 0.013889349 0.0031616802 -0.017303668 -0.024776021 0.00088979537 -0.03608932
0.006687608 -0.018886875 -0.001191677 0.012686058 -0.021616375 0.014323643 -0.011183453 -0.032066453
0.001568433 -0.016786657 -0.030121518 -0.021028372 -0.016582452 -0.022514729 0.015756156 0.00010390281
-0.0037328228 -0.016184473 -0.02551877 -0.030335616 0.014153676 -0.035124883 -0.016927263 -0.020919783
-0.00448293 -0.022009687 -0.0124246925 -0.00086927455 0.008975278 -0.014772004 -0.012322351 -0.01132562
-0.0070832674 -0.02119179 -0.038654737 -0.039554972 -0.06396709 -0.023023106 0.00033679963 0.023195386
0.028347455 0.014616919 0.043110434 0.010538709 0.028007615 -0.021668516 0.02961603 0.018976983
-0.0051575657 -0.011283931 -0.0034963496 -0.035399888 -0.037612837 -0.00054116006 -0.009999493 -0.018587139
-0.01314079 0.007990771 -0.00036301895 -0.020476969 0.008377174 -0.019098924 -0.032110214 -0.019171856
-0.030244295 -0.010653485 -0.01919637 -0.028510839 -0.027362669 -0.007912444 0.020195957 -0.015627401
-0.012980706 -0.014385358 -0.023485992 0.0006277794 -0.021011766 -0.017577741 0.02374145 -0.026917148
-0.017393712 -0.041815348 -0.050187305 0.0006932793 0.016027648 0.00525216 0.035976782 0.007901434
0.012848218 0.0047254125 -0.0008813375 0.019229474 0.009169154 0.02077609 0.011529435 0.002716977
00000000: 5f25 16bc 5ab6 29bc 75f4 c9bb 354c b0bb
00000010: a2bf a4bc 97b4 723c f6cd 80bc 326a 9fbc
00000020: 3be7 05bd 1b33 693b 8636 393c 3b67 c73c
00000030: 6785 c9bc da76 103c 5eed 00bc 7927 7b3a
00000040: bcf5 1c3b 0caa 2abc ad4e 413b c0e3 c23a
00000050: 22f5 993c 334b 903a a52b dc3b f4ae a4bc
00000060: 2d05 ae3b 0582 4ebb 05ae ce3b 312e ccbb
00000070: 9dd5 18bb b15a 253c 3334 3abc 9a41 573a
00000080: 2a01 853c d311 03bc 03c7 a13b d2b5 a13c
00000090: e720 f83b a315 883c c1e0 c2bb aece 4ebb
000000a0: 57bc ecbb f774 4cba d1d7 023c bb18 08bc
000000b0: 0ffb 56bc 2dbe f03c 55b2 8cbc 45ca 943c
000000c0: d2ea b8ba c686 86bb a17f 853b 92ee 83bc
000000d0: 80c7 cf3a f091 923c e1a7 d33b 7310 133c
000000e0: 7f5f 0e3c 8b6b c53c 572d c23c bca1 f43a
000000f0: 0a09 9a3b 09df a13c 2fa4 803c 14a2 9237
00000100: 2dbe 1ebb 7914 00bc b4d7 84bb b359 afbb
00000110: c37b d3bc afe7 db3b b042 8fba de12 28bc
00000120: 4c1c 273c d4c2 ab3c 36ce 1d3c 909f 863c
00000130: c64d cc39 4905 52bc 5dd5 e63b a36e ae3c
00000140: 9a98 6ebc b2ca c2bc 9370 e33c 8939 7fbc
00000150: 8183 003d 663e 1dbb 8b3e debc 987c 8a3c
00000160: 254c 893b 1596 febc 0b43 07bc bc2d 213c
00000170: 3839 38bc fc5d 0f3c 80b1 323c b138 a7bc
00000180: e89b 193c 5d3b b43c b2dc c8bc b552 d33c
00000190: 1d73 a5ba bc44 c3bc 303a 10bd 5a18 98bc
000001a0: 8cf0 d2bb 75d4 5abd e973 d9bb 195c f23c
000001b0: c3e4 32bc 29f3 423c 5c00 edbb dcfb ffbc
000001c0: 4af5 a83b 272f cfbc ca01 54bc 860e 2cbc
000001d0: 3c6a 49bc 872c 813c a032 92bb ae98 b2bc
000001e0: 5be2 313c cea0 193c c374 3e3a 46ed 95bc
000001f0: 8bf6 0b3a 1e0f 1a3d 8a92 a5bc e34b 2cbb
00000200: b2c2 3e3b b14f 81bc dd71 74bc d3ac 89bc
00000210: c4d3 fcba 8163 d2bb 413a a7bc 69ef edb9
00000220: 6447 043c 1bdb 01bb 948e 9a3b 8274 aabb
00000230: 5a1f f7bc 405d 8b3c f563 65bc 0747 50bc
00000240: d212 cfbb ac29 5cbc 87b3 973c 4af4 123c
00000250: 9097 443c 63b7 8d3c ddfb b13c 4e90 ebb9
00000260: 6cac d13c cf4b c7bc 2790 633c 3134 4f3b
00000270: 6cc0 8dbc 15f7 cabc 2841 693a 65d2 13bd
00000280: b923 db3b a6b8 9abc 0b32 9cba 2fd9 4f3c
00000290: d314 b1bc b7ad 6a3c cd3a 37bc 1d58 03bd
000002a0: e193 cd3a 2c84 89bc 67c1 f6bc b143 acbc
000002b0: ecd7 87bc cf70 b8bc 0e13 813c 65e6 d938
000002c0: 60a2 74bb 4d95 84bc bd0c d1bc 6682 f8bc
000002d0: d2e4 673c 1cdf 0fbd 0bab 8abc f75f abbc
000002e0: 8be5 92bb a94d b4bc f090 4bbc 07e0 63ba
000002f0: 0b0d 133c 4706 72bc b0e3 49bc 188f 39bc
00000300: c11a e8bb 689a adbc 6e54 1ebd 6504 22bd
00000310: 2d01 83bd f49a bcbc 7b94 b039 4004 be3c
00000320: ec38 e83c cd7b 6f3c 9194 303d 8daa 2c3c
00000330: 3a70 e53c 2c82 b1bc 519d f23c 9e75 9b3c
00000340: cc00 a9bb 3de0 38bc 0323 65bb 79ff 10bd
00000350: eb0f 1abd a3dc 0dba ead4 23bc 0e44 98bc
00000360: 784c 57bc b9eb 023c 9453 beb9 51bf a7bc
00000370: 6a40 093c 5975 9cbc 0086 03bd 4c0e 9dbc
00000380: e2c2 f7bc f48b 2ebc b541 9dbc 908f e9bc
00000390: ad27 e0bc 32a3 01bc fe71 a53c 0905 80bc
000003a0: 07ad 54bc 91b0 6bbc b265 c0bc 9091 243a
000003b0: de20 acbc 32ff 8fbc 6e7d c23c 5a81 dcbc
000003c0: 427d 8ebc 9246 2bbd 3491 4dbd 30bd 353a
000003d0: 6a4c 833c 501a ac3b 645c 133d 0475 013c
000003e0: 5581 523c a2d7 9a3b 8f09 67ba 2187 9d3c
000003f0: 383a 163c 9e32 aa3c f5e5 3c3c 4f0f 323b

st_gcn_networks.2.tcn.2.bias f4 [16]
1.8079623e-05 -5.6421723e-06 1.2576603e-05 -5.5760907e-10 1.7013917e-05 -2.4276256e-05 8.401163e-05 2.7630082e-05
1.9898795e-05 1.439208e-05 -4.7556157e-05 1.0334952e-06 -3.7937225e-05 3.5311536e-05 4.282614e-05 4.4926836e-09
00000000: b2a9 9737 e451 bdb6 1900 5337 4046 19b0
00000010: 1cb9 8e37 dda4 cbb7 672f b038 26c7 e737
00000020: 56ec a637 8375 7137 0977 47b8 a0b6 8a35
00000030: c91e 1fb8 791b 1438 38a0 3338 105e 9a31

st_gcn_networks.2.tcn.3.weight f4 [16]
0.14504504 0.2112152 0.13587677 -6.719149e-31 0.22093867 0.16681653 0.19742697 0.08716482
0.10919562 0.11862343 0.2158094 0.09677878 0.23625411 0.054765787 0.09244791 0.0007765366
00000000: b086 143e cc48 583e 4823 0b3e 820c 5a8d
00000010: bf3d 623e f4d1 2a3e 4c2a 4a3e 7883 b23d
00000020: f4a1 df3d d7f0 f23d 24fd 5c3e f433 c63d
00000030: 99ec 713e 1752 603d 5455 bd3d 7d90 4b3a
