weights_arm/117.pt (torch, 70926 bytes, 80 tensors)

A f4 [3, 9, 9]
00000000: 0000 003f 0000 0000 0000 0000 0000 0000
00000010: 0000 0000 0000 0000 0000 0000 0000 0000
00000020: 0000 0000 0000 0000 cdcc 4c3e 0000 0000
00000030: 0000 0000 0000 0000 0000 0000 0000 0000
00000040: 0000 0000 0000 0000 0000 0000 0000 0000
00000050: abaa aa3e 0000 0000 0000 0000 0000 0000
00000060: 0000 0000 0000 0000 0000 0000 0000 0000
00000070: 0000 0000 0000 0000 abaa aa3e 0000 0000
00000080: 0000 0000 0000 0000 0000 0000 0000 0000
00000090: 0000 0000 0000 0000 0000 0000 0000 0000
000000a0: 0000 003f 0000 0000 0000 0000 0000 0000
000000b0: 0000 0000 0000 0000 0000 0000 0000 0000
000000c0: 0000 0000 0000 0000 abaa aa3e 0000 0000
000000d0: 0000 0000 0000 0000 0000 0000 0000 0000
000000e0: 0000 0000 0000 0000 0000 0000 0000 0000
000000f0: abaa aa3e 0000 0000 0000 0000 0000 0000
00000100: 0000 0000 0000 0000 0000 0000 0000 0000
00000110: 0000 0000 0000 0000 0000 003f 0000 0000
00000120: 0000 0000 0000 0000 0000 0000 0000 0000
00000130: 0000 0000 0000 0000 0000 0000 0000 0000
00000140: 0000 003f 0000 0000 cdcc 4c3e 0000 0000
00000150: 0000 0000 0000 0000 0000 0000 0000 0000
00000160: 0000 0000 0000 0000 0000 0000 0000 0000
00000170: 0000 0000 0000 0000 0000 0000 0000 0000
00000180: 0000 0000 0000 0000 0000 0000 0000 0000
00000190: cdcc 4c3e 0000 0000 0000 0000 0000 0000
000001a0: 0000 0000 0000 0000 0000 0000 0000 0000
000001b0: 0000 0000 0000 0000 abaa aa3e 0000 0000
000001c0: 0000 003f 0000 0000 0000 0000 0000 0000
000001d0: 0000 0000 0000 0000 0000 0000 0000 0000
000001e0: abaa aa3e 0000 0000 0000 0000 0000 0000
000001f0: 0000 0000 0000 0000 0000 0000 cdcc 4c3e
00000200: 0000 0000 0000 0000 0000 0000 0000 0000
00000210: 0000 0000 0000 0000 0000 0000 0000 0000
00000220: 0000 0000 0000 0000 0000 0000 0000 0000
00000230: abaa aa3e 0000 0000 0000 003f 0000 0000
00000240: 0000 0000 0000 0000 0000 0000 0000 0000
00000250: 0000 0000 0000 0000 abaa aa3e 0000 0000
00000260: 0000 0000 0000 0000 cdcc 4c3e 0000 0000
00000270: 0000 0000 0000 0000 0000 0000 0000 0000
00000280: 0000 0000 0000 0000 0000 0000 0000 0000
00000290: 0000 0000 0000 0000 0000 0000 0000 0000
000002a0: 0000 0000 0000 0000 0000 0000 0000 003f
000002b0: 0000 0000 abaa aa3e 0000 0000 0000 0000
000002c0: abaa aa3e 0000 0000 0000 0000 0000 003f
000002d0: 0000 0000 0000 0000 0000 0000 abaa aa3e
000002e0: 0000 0000 0000 0000 0000 0000 0000 0000
000002f0: 0000 0000 0000 0000 0000 0000 0000 0000
00000300: 0000 0000 0000 0000 0000 0000 0000 0000
00000310: 0000 0000 0000 0000 0000 0000 0000 0000
00000320: 0000 0000 0000 0000 0000 0000 0000 0000
00000330: 0000 0000 0000 0000 0000 0000 0000 0000
00000340: 0000 0000 0000 0000 0000 0000 0000 0000
00000350: 0000 0000 abaa aa3e 0000 0000 0000 0000
00000360: 0000 0000 0000 0000 0000 0000 0000 0000
00000370: 0000 0000 0000 0000 0000 0000 0000 0000
00000380: 0000 0000 0000 0000 0000 0000 0000 0000
00000390: 0000 0000 0000 0000 0000 0000 0000 0000
000003a0: 0000 0000 0000 0000 0000 0000 0000 0000
000003b0: 0000 0000 0000 0000 0000 0000 0000 0000
000003c0: 0000 0000 0000 0000 0000 0000
0.5 0.0 0.0 0.0 0.0 0.0 0.0 0.0
0.0 0.0 0.2 0.0 0.0 0.0 0.0 0.0
0.0 0.0 0.0 0.0 0.33333334 0.0 0.0 0.0
0.0 0.0 0.0 0.0 0.0 0.0 0.33333334 0.0
0.0 0.0 0.0 0.0 0.0 0.0 0.0 0.0
0.5 0.0 0.0 0.0 0.0 0.0 0.0 0.0
0.0 0.0 0.33333334 0.0 0.0 0.0 0.0 0.0
0.0 0.0 0.0 0.0 0.33333334 0.0 0.0 0.0
0.0 0.0 0.0 0.0 0.0 0.0 0.5 0.0
0.0 0.0 0.0 0.0 0.0 0.0 0.0 0.0
0.5 0.0 0.2 0.0 0.0 0.0 0.0 0.0
0.0 0.0 0.0 0.0 0.0 0.0 0.0 0.0
0.0 0.0 0.0 0.0 0.2 0.0 0.0 0.0
0.0 0.0 0.0 0.0 0.0 0.0 0.33333334 0.0
0.5 0.0 0.0 0.0 0.0 0.0 0.0 0.0
0.33333334 0.0 0.0 0.0 0.0 0.0 0.0 0.2
0.0 0.0 0.0 0.0 0.0 0.0 0.0 0.0
0.0 0.0 0.0 0.0 0.33333334 0.0 0.5 0.0
0.0 0.0 0.0 0.0 0.0 0.0 0.33333334 0.0
0.0 0.0 0.2 0.0 0.0 0.0 0.0 0.0
0.0 0.0 0.0 0.0 0.0 0.0 0.0 0.0
0.0 0.0 0.0 0.5 0.0 0.33333334 0.0 0.0
0.33333334 0.0 0.0 0.5 0.0 0.0 0.0 0.33333334
0.0 0.0 0.0 0.0 0.0 0.0 0.0 0.0
0.0 0.0 0.0 0.0 0.0 0.0 0.0 0.0
0.0 0.0 0.0 0.0 0.0 0.0 0.0 0.0
0.0 0.0 0.0 0.0 0.0 0.33333334 0.0 0.0
0.0 0.0 0.0 0.0 0.0 0.0 0.0 0.0
0.0 0.0 0.0 0.0 0.0 0.0 0.0 0.0
0.0 0.0 0.0 0.0 0.0 0.0 0.0 0.0
0.0 0.0 0.0

data_bn.weight f4 [27]
00000000: ebce bf3d 5824 5d3d 0068 6e3d ae8b 833e
00000010: a370 983d 6e48 9a3d 3b33 8b3e 535f 453e
00000020: 076b 673e 3545 ee3e d469 073f 7d25 c03e
00000030: 26a6 053f 705e 043f 7328 c13e 7cf2 8b3e
00000040: 0c71 363e b0f0 6e3e cf53 f53e 4a10 cf3e
00000050: 7661 b33e 626c 013f e261 db3e 8a9f b13e
00000060: 110a 5e3e ba74 153d 8d33 963d
0.09365638 0.05398974 0.05820465 0.25692505 0.07443359 0.07533346 0.27187523 0.19274645
0.22599421 0.46537176 0.52895856 0.375286 0.5220665 0.517066 0.37726173 0.27333438
0.17816561 0.23334002 0.47915503 0.40442115 0.35035294 0.50556004 0.42848116 0.3469203
0.21683528 0.036488272 0.07334051

data_bn.bias f4 [27]
00000000: eae9 10bc 078e 993c 1ca7 87bc 3e3c acbc
00000010: cae7 2fbc a0f9 973b 4f01 2f3d bcdb c53b
00000020: 29f2 cbbb f1d3 c1bc 75a2 993b 1592 3a3c
00000030: 899a e638 d115 723a 7c2c cabb 6032 d23c
00000040: a5af 3b3d 0f05 073d 040e 403b 74ac 17bc
00000050: 254f 3abc 1cd1 dcbc 32e6 d1bc ef70 7b3b
00000060: 6aeb 633c e3ff 4d3c fc73 af3b
-0.008844832 0.018744482 -0.016559176 -0.02102482 -0.010736415 0.004637912 0.042725857 0.0060381573
-0.006223936 -0.023660632 0.004688556 0.011387368 0.00010996039 0.0009234818 -0.0061698537 0.025658786
0.045821805 0.03296381 0.002930523 -0.009257425 -0.011371409 -0.02695518 -0.025622461 0.0038366874
0.013911108 0.012573215 0.0053544026

data_bn.running_mean f4 [27]
00000000: 4faa ac42 bbcf 9a42 8899 bd41 8fcc bb42
00000010: 6efb a842 879e cb41 4372 a942 d6d7 9f42
00000020: 3ef6 c241 fb35 bd42 aec2 a242 01c3 c541
00000030: f9c7 cb42 366a 9c42 36b2 bf41 68b1 cd42
00000040: fd2a b242 7750 d441 83dd f542 b332 bf42
00000050: 03df dd41 c67a f442 5098 b342 c861 d541
00000060: 3e42 c842 d4d5 be42 b55e e041
86.332634 77.40572 23.699966 93.89953 84.49107 25.452406 84.72317 79.921555
24.370235 94.60543 81.38023 24.720217 101.89057 78.20744 23.962017 102.8465
89.08396 26.53929 122.93264 95.59902 27.733892 122.23979 89.797485 26.672745
100.12938 95.41763 28.046244

data_bn.running_var f4 [27]
00000000: 0407 3f46 ea5c a646 1093 f245 b1ab 4646
00000010: 16fc b746 4dd6 0646 4016 1c46 0873 a146
00000020: 2ca0 f345 f5c3 4746 9577 9746 adf3 ed45
00000030: ef52 6346 60b3 8a46 97a6 df45 6526 7f46
00000040: 6b85 d046 98ba 1446 d67f aa46 de62 d646
00000050: f07f 1a46 1f50 a246 8b09 bb46 9389 0b46
00000060: b1c1 8646 9dea c446 0cf3 1546
12225.754 21294.457 7762.383 12714.923 23550.043 8629.575 9989.5625 20665.516
7796.0215 12784.989 19387.791 7614.4595 14548.733 17753.688 7156.8237 16329.599
26690.709 9518.648 21823.918 27441.434 9887.984 20776.06 23940.771 8930.394
17248.846 25205.307 9596.762

st_gcn_networks.0.gcn.conv.weight f4 [24, 3, 1, 1]
00000000: 2418 9dbd df8e 20bc e35b 873b 85dc 103e
00000010: 2dc2 5cbd 9b28 813d e656 a33d 26ad 7d3b
00000020: 9521 483d 54f4 18bd 9719 b9bc 2b9a 093e
00000030: 6ce9 ee3c d0ca a2bc e294 6abe b238 593e
00000040: 288b 9b3e 9880 9a3d 364a 69be 8c28 323e
00000050: c492 a03d a261 42be f8bf 8b3d a3c9 09be
00000060: 58b0 4cbd 2f78 4ebd bf7e a6bc 241b 82be
00000070: 3a11 adbd a399 223d e327 263e b524 b4bc
00000080: 2ecf 98bc 3178 0cbe a0c5 0cbe a475 a83b
00000090: 07a0 62bb 4fa6 9cbc fa49 4d3e 4b70 2abd
000000a0: 23b5 73be 87aa 03be f0a9 603d ccdb 903d
000000b0: 24d3 5f3d 42d8 343e d88f c6bd b9a2 2c3e
000000c0: 1303 78bb 23be 4738 596d 1fba 87dd 21bd
000000d0: 3a9c e0bc 2052 80bd 106c 243e eb1f 85bc
000000e0: 8e41 173d cf48 2ebd e0c2 d9bc bf58 d63b
000000f0: 88f9 54be 5cff 223c 23f1 96bc 22b6 3f3d
00000100: c420 5cbd f185 f23d 784d 5b3d a30d 2bbd
00000110: 5482 6ebc a124 d9bd ed19 153e 5094 553d
-0.0767062 -0.009799688 0.004130827 0.14146622 -0.053896118 0.06306573 0.07975559 0.003870794
0.04886015 -0.037342384 -0.02259521 0.13437717 0.029164039 -0.0198721 -0.22908357 0.21213034
0.30379605 0.075440586 -0.22782215 0.1739828 0.07840493 -0.18982556 0.068237245 -0.13455825
-0.049972862 -0.050407585 -0.02032411 -0.25411332 -0.08450551 0.0396973 0.16226153 -0.02199016
-0.018653478 -0.13717724 -0.13747263 0.005140977 -0.0034580247 -0.01912227 0.20047751 -0.041610997
-0.23799567 -0.1285802 0.054849565 0.07073173 0.05464472 0.17660621 -0.09695405 0.16858949
-0.003784363 4.7622376e-05 -0.0006081663 -0.039517906 -0.027418245 -0.06265664 0.16056848 -0.016250571
0.036927752 -0.042549904 -0.026582181 0.006541341 -0.20798314 0.009948578 -0.01842553 0.046804555
-0.053742185 0.118419535 0.053540677 -0.041761052 -0.01455744 -0.106026895 0.14560671 0.052143395

st_gcn_networks.0.gcn.conv.bias f4 [24]
00000000: d6fd be3c 52f2 593d 802a 733d fc9f a13d
00000010: f1b9 76bc a9e5 3abe 28d9 c9bb 7fac 003e
00000020: 31a4 99bd f38d a83c ca85 b73d d5c8 0bbd
00000030: 93b4 aa3c 4e0f 0f3e e38b 2b3e 709b 61bc
00000040: 35f3 81bc b90b 2bbe fce7 003d 93a0 82bd
00000050: dc93 2b3d b67b ec3c d3a0 b4bc a803 a83b
0.023314398 0.05320961 0.059366703 0.07891843 -0.01505898 -0.18251671 -0.0061599202 0.12565802
-0.0750202 0.0205755 0.08961065 -0.034127075 0.020838058 0.13970682 0.16752581 -0.013769969
-0.01586304 -0.1670369 0.031471238 -0.06378283 0.041889057 0.028867584 -0.022049343 0.005127389

st_gcn_networks.0.tcn.0.weight f4 [8]
00000000: 4484 303e 2446 ab3e d1a6 c83e 530e 993e
00000010: 2c41 833e 17f0 b23e 7eb7 b33e 9536 b63e
0.17237955 0.3345195 0.3918977 0.2989374 0.2563566 0.349488 0.3510093 0.35588518

st_gcn_networks.0.tcn.0.bias f4 [8]
00000000: af80 203d 486b 183d 7eaf 1c3d d16e 853c
00000010: c238 00bd a228 4f3d f4c4 0fbc cd69 1cbd
0.039185222 0.037211686 0.0382533 0.016288193 -0.03130413 0.05057586 -0.008774985 -0.038186837

st_gcn_networks.0.tcn.0.running_mean f4 [8]
00000000: d5b8 cebb 2fed af3a 1925 a13c 4c6f 693b
00000010: 2313 1e3b 1a33 dcbb 8211 8f3c 8f23 7c3c
-0.006308655 0.0013422127 0.01967101 0.0035619317 0.0024120293 -0.006719959 0.017464403 0.015389337

st_gcn_networks.0.tcn.0.running_var f4 [8]
00000000: c7f4 0a39 6114 8639 c778 b939 3224 a539
00000010: 24e9 be37 01ca 8e39 1528 df39 87bb 9638
0.00013251892 0.00025573655 0.00035375936 0.0003149822 2.275833e-05 0.00027234855 0.00042563738 7.187487e-05

st_gcn_networks.0.tcn.2.weight f4 [8, 8, 9, 1]
00000000: 4430 9fbc aef2 3cbc 1f4e c73b 4b27 fdbb
00000010: 9dd1 d53a 8b00 d1bc d51a 36ba 3fa8 3cbc
00000020: 558b e03b b0b9 d83c 46bc 58bd d8f5 c3bc
00000030: d07d d5bb 7791 57bc cca7 cc3c bacb 603c
00000040: fed6 9039 facc 82bc 02f5 2c3d 7f96 6a3d
00000050: a37d d63c a1bd 683d bcb3 7abc 7caf c13d
00000060: b690 74bd 4f0a f33c e482 67bd 9eb2 243c
00000070: 2c89 6dbc b9fd 773d 8cf7 2ebb f08b 5a3c
00000080: 56c4 0a3d e6bd d63c 7798 173d f557 723c
00000090: 66d8 5ebd bf34 09bd ccae ce3c fce2 a4bc
000000a0: 8a7c d1bc 0b17 c93c 702e bb3c 83e7 17bd
000000b0: a08a 473c 2eef 09bd 6f80 3b3c a9db 213c
000000c0: 57de d33c 3754 fd3c f230 3e3c 0c5f 493b
000000d0: b6a4 283c f618 993c cbe1 e03c a4d6 023d
000000e0: 94a4 803b af2e 21bd 8d10 f8bc ac83 57bc
000000f0: 88dc f8bc 021a 653d 579d b6bc 9fbd 05bd
00000100: ca9a d6bd 6d80 77bb 4ecb 94bd ca79 683b
00000110: 4840 91bd d461 75bc 3be2 ddbc b6ed 7e3b
00000120: 7286 923c 3b02 7dbc 267c cfbb db9f 753b
00000130: 35d1 bf3c f0c8 fd3b 8d18 353d a35b 113c
00000140: 4a8b 41bb fd0e d83c 403a 813c 3518 0d3d
00000150: abe8 403b 1a40 5cbc 5262 023c 638b fb3c
00000160: 437f febb 7103 f53c bd76 003d 4d42 913d
00000170: 9b29 a23d 9285 5aba 24e2 9cbc 73cb 6bbd
00000180: 8aa9 1fbc 8285 bc3c 8253 2dbc 0c59 4a3d
00000190: bd8b ecbc 1836 863c 9d68 5a3c 59e9 c63c
000001a0: f3c3 883c d7b8 1b3d 9174 c5bc 50a8 5cbc
000001b0: 79ee b83c b00c 18bc d4f0 f93c d6b6 8f3c
000001c0: 326c 973c b23b 0fbd b9a0 373d 9624 813d
000001d0: ceaa b63c abf3 9cbc fc3e f33c 2808 553c
000001e0: a692 25bd e9ea 943c 3cfa eabc 0663 23bd
000001f0: 0ffe 95bc 29a3 9cbc a0fa 83bd 40c5 29bd
00000200: 7f61 8fbd 9069 46bd 57af b6bc 051a 163d
00000210: b73b fe3c 9a51 1ebd 09b5 4c3d 5545 d23c
00000220: c7bf 64bd c288 9cbc a2cf d8b9 f911 ba3c
00000230: fedd 1dbd 34ab a53c c0e4 babc 7d27 dcbc
00000240: 635a 61bc 2abe 89ba 3cf1 2dbc 2179 463d
00000250: 1d84 58bc cd0d 18bc 4128 903c 6675 adbc
00000260: 75af c0bc 50cd deba 98e1 c5bb ff3a c0bb
00000270: 5bad e53c 44be e5bc b7ca af3b 55b5 8a3c
00000280: a16f 10bd 9676 643b 0a0b 8a3d 23fe 4cbb
00000290: 823a 3b3c 0535 97bd 077b 5b3d 767d c9ba
000002a0: aeae 393d db54 87bd e59a 133d 2476 e03c
000002b0: 403e 16bd 2d03 08bd 1e80 013d 33ae 903c
000002c0: 3de0 0fbd b77e 0c3b 1cde 1abd 7c81 a03c
000002d0: b7c5 2c3b 3a74 513c 663e 533d 78c6 313c
000002e0: 2a2b 7ebd cc18 5abc 93e8 d8bc d1ed 5fbc
000002f0: 5017 033c 5653 23bd 8ba6 8fbd a09d 803d
00000300: fcc6 48bd 372d 47bd 82e9 6d3b 1cc6 1b3d
00000310: 04c5 29bd 85f2 9f3d a881 a13c b33b febc
00000320: 178d 91bd 2c7f 433d 26b2 b93d 2145 ac3c
00000330: e5ef 0abd 9ada 043d dd56 493d 1c71 40bd
00000340: 357a cebc ceaa 94bd 9d9e 003d bac2 6c3b
00000350: 5752 6e3d 53bb 30bd ce1e 14bd 092c 9bbc
00000360: 7f58 0bbc b477 edba 2025 783c 4f04 453c
00000370: d65d 9b3c 5ca7 70bc 122b 14bb 9048 5cbc
00000380: 82b5 393c 6cf7 a8bb 72a9 8c3c 473d 95bc
00000390: 3890 e9bb 589a 263d cfa0 fd3c 4602 e53c
000003a0: f9ed 9fba 950a 0c3d a85b 773c 616b fe3b
000003b0: b724 7dbb 7821 62bc afee edbb 61f4 c4bb
000003c0: abe8 403c 1061 b33b bb92 4abd baf7 213c
000003d0: 8a5b 1dbd 555d 25bd cd6d 37bd d555 1bbd
000003e0: 0b19 80bc 7bf1 fcbc ac15 ecbc ee0e 873c
000003f0: aac4 73bb 45d5 38bd 34cb 9f3b 8bbb e23c
-0.019432195 -0.011532469 0.006082311 -0.0077256314 0.001631308 -0.025512954 -0.00069467473 -0.011514722
0.006852547 0.02645573 -0.052913927 -0.023920938 -0.006515242 -0.01315724 0.024982356 0.013720447
0.00027626002 -0.015966881 0.042225845 0.05727243 0.026182955 0.05682147 -0.015301641 0.09457299
-0.05970832 0.029668001 -0.05652131 0.010052351 -0.014498036 0.060544703 -0.0026697842 0.013339028
0.033878647 0.026213598 0.037010636 0.014791478 -0.054405592 -0.03349757 0.025229834 -0.020127766
-0.02557208 0.02454712 0.022849292 -0.03708602 0.012179047 -0.033675365 0.011444195 0.009879031
0.025862856 0.030923946 0.011608349 0.0030726818 0.010293176 0.01868866 0.027451416 0.03194298
0.0039258692 -0.03935116 -0.03028133 -0.013153952 -0.030378595 0.055933006 -0.022291822 -0.03265154
-0.104787424 -0.0037765757 -0.0726534 0.0035472983 -0.07092339 -0.014976937 -0.027085414 0.003889901
0.017886374 -0.015442426 -0.0063319383 0.0037479314 0.023415187 0.007744901 0.044212867 0.008871946
-0.0029532486 0.026374334 0.015774846 0.034446914 0.0029435556 -0.013443017 0.007958012 0.030706113
-0.0077666356 0.029908868 0.031363238 0.07092724 0.07918092 -0.00083359436 -0.019150801 -0.05756707
-0.009745011 0.02301288 -0.010578992 0.049401328 -0.028875226 0.016383216 0.013330606 0.02428119
0.016694998 0.038018074 -0.024103435 -0.013467863 0.02257465 -0.009280369 0.030510344 0.017543238
0.018484209 -0.03496904 0.04483101 0.06305806 0.022298243 -0.019159159 0.02969312 0.013002433
-0.040423058 0.01817842 -0.028683774 -0.039889358 -0.018309621 -0.01912077 -0.06444287 -0.041447878
-0.07001018 -0.048440516 -0.022300405 0.036645908 0.031034334 -0.03865204 0.049977336 0.025667826
-0.055846956 -0.01910818 -0.0004135343 0.022713648 -0.038541786 0.020223238 -0.022814155 -0.026874298
-0.01375446 -0.0010508944 -0.010616597 0.04845536 -0.013215092 -0.009280634 0.01759732 -0.021174144
-0.023521164 -0.0016998444 -0.0060388558 -0.005866408 0.028036764 -0.028044827 0.0053647417 0.016932169
-0.035262708 0.0034860722 0.06740387 -0.0031279407 0.011427524 -0.073831595 0.053584125 -0.0015372473
0.045332603 -0.06607982 0.03603639 0.027400084 -0.03668046 -0.033206154 0.031616323 0.01766119
-0.03512596 0.0021437833 -0.037809476 0.019592993 0.0026362964 0.012784058 0.05157318 0.010850541
-0.062052883 -0.013311576 -0.026478088 -0.01366754 0.008001164 -0.039874397 -0.070141874 0.062800646
-0.04901789 -0.048627105 0.0036302512 0.03803073 -0.041447654 0.07809929 0.019715145 -0.031034326
-0.07106989 0.047728702 0.09067182 0.021029057 -0.033920188 0.032435037 0.049155105 -0.04698287
-0.025204757 -0.07259141 0.031401265 0.0036126808 0.058183994 -0.043147396 -0.03616219 -0.018941896
-0.008504986 -0.0018117339 0.01514557 0.012024953 0.018965643 -0.014688339 -0.002260868 -0.013445035
0.011334779 -0.005156448 0.017170642 -0.018217696 -0.007127788 0.040674537 0.030960469 0.027955186
-0.0012201659 0.03418978 0.015097536 0.0077642654 -0.003862662 -0.013801925 -0.0072611193 -0.0060105775
0.011774222 0.0054742172 -0.04945634 0.009885723 -0.038417377 -0.04037221 -0.04478245 -0.037923653
-0.015636941 -0.030876866 -0.028818928 0.016486611 -0.0037196078 -0.045125265 0.0048765186 0.027677318

st_gcn_networks.0.tcn.2.bias f4 [8]
00000000: 2858 98b7 129c e3b7 79a2 1cb8 ce9a 55b7
00000010: 5553 3a38 7790 b136 648d 18b8 3c06 cab7
-1.8160863e-05 -2.7133185e-05 -3.7344613e-05 -1.2731833e-05 4.4423465e-05 5.291829e-06 -3.6371304e-05 -2.408318e-05

st_gcn_networks.0.tcn.3.weight f4 [8]
00000000: 990b b43e fabf a23e 317d 903e bd41 6a3e
00000010: 3954 573e 5850 ae3e 4f38 bf3e 75ec 9e3e
0.35165098 0.31787091 0.28220513 0.2287664 0.21028222 0.34045672 0.37347648 0.31039777

st_gcn_networks.0.tcn.3.bias f4 [8]
00000000: 2c7d 38bd bf9f 7c3a 9391 473d cbd8 9a3c
00000010: b85a 9fbc 6042 8c3c e165 f93c b4d5 4ebc
-0.04504125 0.0009636841 0.048722815 0.018902203 -0.019452438 0.017121494 0.030444087 -0.012624193

st_gcn_networks.0.tcn.3.running_mean f4 [8]
00000000: 3f2e f03b b0a3 693c d753 6ebc f011 0abd
00000010: cf73 063d 38d9 273d fa3f 14bc e563 1b3c
0.0073297317 0.014260218 -0.014546356 -0.033708513 0.032825287 0.04097864 -0.009048456 0.009484266

st_gcn_networks.0.tcn.3.running_var f4 [8]
00000000: aa80 cf3b 228c 813b 564f fc3a 8f1e 683a
00000010: 35d8 e33a c023 9f3b a0f0 af3b 5546 6d3b
0.0063324766 0.0039534727 0.0019249718 0.0008854651 0.001738316 0.0048565567 0.005369261 0.0036205251

st_gcn_networks.1.gcn.conv.weight f4 [24, 8, 1, 1]
00000000: 4b31 bbbc f98f 29bd 2544 6a3d 1596 603d
00000010: 883b 80bc 9150 093c 3441 5e3b 18ba 283d
00000020: c893 fdbb 785c 91bc 03e5 a53d 8f24 02bd
00000030: 9a4c fd3c 5ddd ddbc 9ac6 883d b801 a43c
00000040: dcda 8d3d 3614 6fbd 7054 04bd 249e 9b3d
00000050: fde0 8c3d c7fe 943d 457c 08bd 4af5 99bc
00000060: 9a3f a73b 5199 f6bc a683 0dbd 7d0d eebc
00000070: bb2e 8ebd df7a bfbd dcb6 1a3d 4132 c3bd
00000080: ba5b dbbc 8716 2a3a 7dc8 8e3d 43a9 65bd
00000090: 998f a33c 2ac0 383c 6d7e 123d 0403 39ba
000000a0: ab1a 013c 6aee b0bd b9ae fb3c 7cbe 93bd
000000b0: 9473 30bc 3ea2 833b e27a a4bd 87af d53b
000000c0: 5032 eebc ea92 c9bc 2927 5e3d 717b 253b
000000d0: 7050 9c3c 6091 a63c 1148 37bd 21cf 9cbc
000000e0: 6a53 93bc 8f9e f0bb 4ade 9dbc 0598 18bd
000000f0: 84bb 23bc f1b5 743d b8c2 e13b ceb2 8d3d
00000100: e99a c2bc 317d 903d 4b53 ee3b cc22 fabc
00000110: 7946 6abd 7804 6e39 809d 9c3d fb20 cf3d
00000120: 0f56 6bbd de7e 80bb 314e 6abd 9345 1bbd
00000130: 68c5 c4bb 5f49 fbbc 5a0d 5b3d 7328 6b3a
00000140: bc5e 413c 009e 2dbc 815b 6a3d 7c1a 38bd
00000150: 0a7d 40bd 7e8a c7bd 5a0a d33d f5cd 46bd
00000160: 3544 b2bc 35aa 033e 2b51 943d d8c0 853c
00000170: e697 6fbd 4440 933d cf61 15bd a3a0 c0bd
00000180: 9827 1bbd 4625 d6bc 4ac1 913d 1c89 2a3d
00000190: 6901 013b 3d53 6c3c 0b69 cfbc 6988 243d
000001a0: 45bd b03d 2409 41bd 65c1 d93a 84de 59bd
000001b0: f4e2 e33c 06c0 abbd bc22 aa3d 5e0e 5f3d
000001c0: 650c 9dbd 6f89 e1bd 8e52 263d 3e2a 543d
000001d0: de70 a0bd 829d 33bd d965 ea3c 3c4b 963d
000001e0: 3668 053d 1fb7 823c eced 84bc 437f ffbb
000001f0: dada 2bbb e80d 393c 1d11 0f3d 8e0d efbb
00000200: 7cd7 16bc 0af9 eabb 2b5b 653c f6a9 803d
00000210: b3d3 25bc 369c 413d 01d6 69bd 911f edbb
00000220: 7233 2b3d 81a9 133c 2a47 a03c 9ccc 04bd
00000230: b6f5 00bc 243a 533d d22e 9d3d ecfd 033d
00000240: 43e4 adb9 ec49 9f3c 1426 63bc 96b4 3bbd
00000250: 6110 a53a 9eb5 6fbd 7203 8d3d b4ce b13c
00000260: 9e12 a63d ee27 c3bc dd99 b6bc 5844 3cbd
00000270: 6173 b2bc 7daa e3bc 267f 1c3e 24e3 21ba
00000280: 97dd 4f3c 7bab 42bc 0559 603c 6c17 5fbd
00000290: f651 9b3c d04c 563b fed9 323c 98b2 543b
000002a0: 1f78 e9bc 600c 2dbd f306 03bd d928 673b
000002b0: 541b 1bbd f7ca 59bd c83b fbbc 033d 9339
000002c0: 7d22 8d3d 69ca fd3c 3b46 fc3c fb3f c6bd
000002d0: 3421 443d 62c2 2a3d 8ead b0bb c386 f6bc
000002e0: 48ea 7eba 98f0 f3bc 144e 1a3d 9f82 9dba
000002f0: bc42 a7bb ac38 19bd 82e1 d0bb d124 a53d
-0.022850653 -0.04139707 0.057193894 0.05483063 -0.015653387 0.008381025 0.0033913376 0.041193098
-0.007738564 -0.017744288 0.08100321 -0.031773146 0.030920316 -0.027083093 0.06678505 0.02002035
0.0692651 -0.058368884 -0.03230709 0.07598522 0.068788506 0.072751574 -0.033321638 -0.01879372
0.0051040174 -0.030102404 -0.034549378 -0.029059166 -0.06942507 -0.09349608 0.037772045 -0.095310695
-0.026777137 0.0006488342 0.06971834 -0.056069624 0.019965934 0.011276284 0.0357651 -0.00070576393
0.007879893 -0.08639224 0.030722963 -0.072140664 -0.0107697435 0.0040171435 -0.080312505 0.0065211686
-0.029076725 -0.024606187 0.054236565 0.0025250579 0.019081324 0.020332992 -0.044746462 -0.019141736
-0.01798411 -0.0073431204 -0.019271035 -0.037254352 -0.009993438 0.059743825 0.0068896674 0.0691887
-0.023755508 0.07055128 0.007273113 -0.03053417 -0.057196114 0.00022699113 0.07647228 0.101137124
-0.05745512 -0.0039213737 -0.057203475 -0.037908148 -0.006004978 -0.030674635 0.05347953 0.0008970566
0.011802372 -0.010596752 0.05721617 -0.044947132 -0.046994247 -0.09743212 0.10304709 -0.04853626
-0.02176104 0.12857898 0.07242044 0.016327307 -0.05849447 0.07189992 -0.03647023 -0.09405639
-0.037879556 -0.02614082 0.07116945 0.041634664 0.0019684678 0.014424142 -0.025318643 0.040169153
0.0862985 -0.047127858 0.0016613422 -0.053190723 0.02781818 -0.08386235 0.08307406 0.05445706
-0.0766838 -0.110125415 0.040606074 0.051798098 -0.07834028 -0.043851383 0.028613018 0.073385686
0.032570086 0.01595646 -0.016226731 -0.007797153 -0.0026222975 0.011294819 0.03492843 -0.007295317
-0.009206649 -0.007170801 0.013998787 0.062824175 -0.010121274 0.047268115 -0.057088856 -0.007236429
0.04179711 0.009012581 0.019565184 -0.032421693 -0.007871082 0.05156912 0.07674946 0.03222458
-0.000331672 0.019444428 -0.013864059 -0.045826517 0.0012593382 -0.058522813 0.06885423 0.021705009
0.0810902 -0.02382275 -0.022290165 -0.045963615 -0.021783533 -0.027791256 0.15282878 -0.0006175509
0.0126871085 -0.011881704 0.013693099 -0.054465696 0.01895998 0.0032699592 0.010916231 0.0032455083
-0.028499661 -0.04224813 -0.03198905 0.003527215 -0.03786786 -0.053172078 -0.030668154 0.00028083482
0.06891344 0.030980306 0.030795207 -0.09680172 0.047883227 0.041689284 -0.005391783 -0.030093556
-0.00097242417 -0.02977781 0.037672117 -0.0012017078 -0.005104391 -0.037407562 -0.006374539 0.08063663

st_gcn_networks.1.gcn.conv.bias f4 [24]
00000000: d173 b0b8 29f3 4b3c e5cf 5bbc c196 193d
00000010: 473e 053c 539b e3bb 50a8 b33b 7a0f 143b
00000020: 01fc 93bd 5db9 dfba c502 4c3c d836 ff3a
00000030: 28b6 53bd ddcd 4a3c beae 5e3d 5287 7ebb
00000040: f8b2 01bc c5a7 19bd 2bb5 713b ac54 873c
00000050: c5b3 2b3c c26d c3bc 7bdb a73c f977 2dbc
-8.4139065e-05 0.012448111 -0.013416265 0.037497286 0.008132524 -0.0069460063 0.005482711 0.0022592233
-0.072258 -0.0017068792 0.012451832 0.0019471301 -0.05168739 0.012378183 0.054365866 -0.0038837981
-0.007916205 -0.037513513 0.0036881666 0.016519867 0.010479872 -0.023856048 0.020490399 -0.010587686

st_gcn_networks.1.tcn.0.weight f4 [8]
00000000: c9a3 6c3e b114 463e ac61 943e bc63 9b3e
00000010: 1a20 253e b98d 793e 5a98 8f3e 409a 6a3e
0.23109354 0.1934383 0.28980768 0.3034953 0.16125527 0.24370469 0.28045923 0.22910404

st_gcn_networks.1.tcn.0.bias f4 [8]
00000000: 2c7e e0bc b792 b13b 12ca 8c3c 33b5 ee3b
00000010: e6b8 73bc 258c 21bc b3d5 04bd 78bc aebc
-0.027403913 0.005419101 0.017186198 0.007284784 -0.014875626 -0.009860073 -0.032430362 -0.021330103

st_gcn_networks.1.tcn.0.running_mean f4 [8]
00000000: 0669 d2ba 510b 3339 c27d 0139 b190 d43a
00000010: 95ac d4ba c860 92ba fdc2 233b 419f 353a
-0.0016053028 0.00017074986 0.00012349247 0.0016217438 -0.001622575 -0.0011167759 0.0024988048 0.0006928333

st_gcn_networks.1.tcn.0.running_var f4 [8]
00000000: 6170 ba36 016b bf36 d263 9637 aacd 3437
00000010: f580 f136 4a45 c636 721f 8137 707e f536
5.5563146e-06 5.7047005e-06 1.7927876e-05 1.0776721e-05 7.1973723e-06 5.908926e-06 1.5392641e-05 7.3162882e-06

st_gcn_networks.1.tcn.2.weight f4 [8, 8, 9, 1]
00000000: b4e6 18bc 50e4 1c3a 6145 273b ff2c 47bc
00000010: df36 48bc 0156 01bd 9b34 3239 0cd4 0f3c
00000020: 4d6b 303d 1195 1ebd d7d8 f63b 2019 fe3c
00000030: eee9 513c 3cb2 2ebd 51ca 99bc 3e9d 863c
00000040: 6928 e23c 4a01 27bc cb76 2b3c 9173 6abc
00000050: 8f85 353d 2f16 27bc 9c4b 023c fb0a bbbb
00000060: 9690 303d f982 dcbc a838 35bd 048e 793c
00000070: f12c 3c3c 2a77 af3c f867 063b 3d44 6f3c
00000080: c065 1e3d 9b87 3abd 8c88 33bd 0c28 2ebd
00000090: fb50 26bc 5f3f 0fbc 3a5f 3bbb 2e96 cabb
000000a0: 4e2f 2abb 1f2c 183d 45e5 713c 02c7 bd3c
000000b0: e9d1 143d 458e 87bb ae67 20bd 2d41 123d
000000c0: e276 773c 65cf 39bc 0e27 95bc d188 bcbb
000000d0: a756 68bc 2634 c0bb 546b 52bc edee ec39
000000e0: 7a95 6b3c fea5 8ebc 5c6d e73c fa06 c03c
000000f0: 8e70 c83c 35fb 0b3a 2c2c d337 dd86 773c
00000100: 8189 123b f60a 45bd 17d0 48bd d27f ae3c
00000110: 557d abbc 2768 25bc 17c7 c23b 3606 63bb
00000120: f35d f4bb 6cc7 0cbd 7e17 6b3b 83f4 33bb
00000130: 5149 98bc 03e9 23bd b387 e73b 1544 853c
00000140: 89eb 2abd cdf9 0bbd 5307 82bc 14dd afbb
00000150: b4ee 84bd 07bf bd3c 1016 b23b 0bb8 0b3d
00000160: ecee 1d3c 871e 053d b874 ffbc 7989 76bc
00000170: 8bb1 233c 1b74 bcbb 26f2 a03c aafa 233d
00000180: a4f2 d73b a43a 513d 6c23 d83c f33e 543c
00000190: c1f8 2e3d 7540 db3b 6737 8a3c e935 17bc
000001a0: 37f0 063d 7f1c 863c 9bf8 4dbc 5f55 d93c
000001b0: bf09 0abd 0e6b 9d3b 2bfd 2dbc 3f3a d4bc
000001c0: f415 98ba 5082 033b 1279 913c 2188 c1bc
000001d0: 93ba c73c e4c7 893c d742 6cbc 3a1e d5ba
000001e0: 2720 49bc e9c4 7dbc 307c 853b 52cb bd3b
000001f0: 0fe3 da3b e5ca 2c3d fc13 8cbc 7670 813b
00000200: 5e80 ff3c 84b5 f3bc 65be 6c3c f677 1cbb
00000210: a548 d13c 5468 b2bc 3825 f43c 4216 84bc
00000220: 3a8d 00bd e7d5 9ebc a1bd 5ebc 6bc1 05bd
00000230: ecbb 9b3c eb81 123c 524f 81bc 8a5c ff3b
00000240: a73f fc3a 2c5f 81bd e3da f2bc d1b1 13bb
00000250: 198b c0bb 4c75 c9bb 6c98 a3bb c2b7 3abd
00000260: ecde 44bd 1e40 163d b628 fcbc 9eba 76bc
00000270: ffe5 0b3b f57d 0ab9 52b7 a1bc 4535 babc
00000280: 9b5e 3c3c 9a44 f7ba d243 273d 2876 13bd
00000290: 9ab9 573c 23ec 353d 6ca4 47bd a400 bd3c
000002a0: e0d6 053d 1595 853c 81ec 253c d612 d8bc
000002b0: 2074 153d 0094 21bd 1e3c 1a3c c52c a3bc
000002c0: 0ae1 b0bc 204e 4bbd 0d01 733c 058a 2fbc
000002d0: 2d58 bf3b 6427 ca3c 0af6 8fbc 70ec 163d
000002e0: 5faf e4bb 9e62 37bb a16a 603c 3221 07bd
000002f0: 2901 06bc db54 283c f57a bebc b548 3b3d
00000300: 644d c7bb 4180 063b 6128 26bd d235 9a3a
00000310: 25ac 8cbd d730 27bd be4f 0fbc d24b e5bb
00000320: 7cd3 b43c 5198 5d3d 90b0 c6bb 7e5f 0bbc
00000330: 93e5 313c c291 963c 7915 673d ceb8 d03b
00000340: 2cfd 063d 32eb c23c de2c 4abc da7c 213c
00000350: 5b4b c5bc 69e8 1e3b 3302 66bb 638d 1dbc
00000360: 8e8f 01bc bd18 30bc 7113 323d 2b32 c6bc
00000370: 2fbf 0abd 2c5a b9bb cc94 04bd 83e0 5abd
00000380: 41c6 c83c f083 453d cad7 603b e40e ca3b
00000390: f2c5 903c bef9 113d 3e60 46bb ba6a fdbc
000003a0: 8ea5 12bd 5e24 203c a508 f83b 2bf5 2d3c
000003b0: 8a1f fd3c d3bc eabc 28a6 a03c dc4a 1e3b
000003c0: 74f9 143c 301a a73b 117c 233d 9735 f2bb
000003d0: bdc3 95ba 995b b7bc ff71 df3c 9e9e 85bb
000003e0: c513 ccbc 8441 4dbb 72ef ad3c 855d 56bd
000003f0: 112b 2d3c d362 42bb 2d9c 5ebc 851b 0fbd
-0.009332348 0.0005984949 0.002552353 -0.012156724 -0.012220114 -0.03157616 0.00016995 0.008778583
0.04307108 -0.03871638 0.0075331735 0.03101784 0.012812121 -0.042650446 -0.01877323 0.0164324
0.02760716 -0.010193178 0.010465334 -0.01430978 0.044316825 -0.01019816 0.007952597 -0.005708096
0.043106638 -0.026917921 -0.044243485 0.015231613 0.011485324 0.021419127 0.0020508748 0.014603672
0.038671255 -0.04553948 -0.043831393 -0.04251866 -0.010151143 -0.008743136 -0.0028590695 -0.0061824536
-0.0025968137 0.037151452 0.014764135 0.023166183 0.036333 -0.004136833 -0.039161377 0.035706688
0.015104027 -0.011340951 -0.0182071 -0.0057536145 -0.014180816 -0.0058655916 -0.012842972 0.0004519144
0.0143789 -0.017413136 0.028250389 0.023440827 0.024467733 0.0005339862 2.517373e-05 0.0151078375
0.002235979 -0.048106156 -0.049026575 0.021301184 -0.020933786 -0.010095633 0.0059441435 -0.0034641153
-0.0074574887 -0.03436987 0.0035872157 -0.0027458973 -0.018589647 -0.04001714 0.007065737 0.016267816
-0.04172853 -0.034173775 -0.015872633 -0.0053669307 -0.064908415 0.023162378 0.005434759 0.034111064
0.009639483 0.032499816 -0.031183586 -0.0150474245 0.00999106 -0.0057511455 0.019646715 0.040033974
0.0065902043 0.051081315 0.026384078 0.012954461 0.0427177 0.0066910335 0.016872121 -0.009229162
0.03294393 0.01637101 -0.012571479 0.026529966 -0.0337007 0.0048040217 -0.010619442 -0.02590668
-0.0011603222 0.0020066686 0.017757926 -0.023624482 0.024380958 0.016818948 -0.014420233 -0.0016259619
-0.012275732 -0.015488842 0.004073642 0.00579206 0.0066798995 0.042185683 -0.017099373 0.003950174
0.03118914 -0.02974964 0.0144496905 -0.0023875213 0.025547335 -0.021778263 0.029802904 -0.016123895
-0.031384684 -0.019389106 -0.013595016 -0.03265516 0.019010507 0.008942108 -0.015784893 0.007793014
0.0019245044 -0.06316981 -0.029645389 -0.0022536407 -0.0058759567 -0.006148016 -0.0049925353 -0.0455854
-0.048064157 0.03668224 -0.030781131 -0.015059141 0.0021346805 -0.00013207628 -0.019740734 -0.022730479
0.011497165 -0.0018865049 0.040836163 -0.036001354 0.013166809 0.04441465 -0.04874079 0.023071595
0.032675624 0.01630644 0.010127188 -0.02637617 0.0364877 -0.039447784 0.009413747 -0.019918809
-0.021591682 -0.049635053 0.0148317935 -0.010714059 0.005839369 0.024676986 -0.017573375 0.036846578
-0.0069789137 -0.0027982364 0.013697297 -0.032990642 -0.008178988 0.010274137 -0.02325199 0.045723636
-0.0060822237 0.0020523223 -0.040565852 0.0011765307 -0.068687715 -0.04081806 -0.008747039 -0.006997564
0.0220735 0.05410034 -0.0060635284 -0.008506654 0.010857957 0.01838005 0.056416962 0.0063696867
0.032956287 0.02379379 -0.012339799 0.009856427 -0.024083784 0.0024247414 -0.0035096526 -0.009616229
-0.007907761 -0.010748086 0.043475572 -0.024193844 -0.033873733 -0.0056565013 -0.032368466 -0.053436767
0.024508597 0.04822153 0.0034308308 0.006166326 0.017672513 0.035638563 -0.0030269767 -0.03093468
-0.035802417 0.009774296 0.00756939 0.010617535 0.030898828 -0.028654492 0.01961048 0.0024153506
0.009092677 0.0050995573 0.03991324 -0.0073916423 -0.0011426132 -0.022382544 0.027276037 -0.0040777465
-0.02491177 -0.0031319568 0.02123234 -0.05233528 0.01056935 -0.0029660955 -0.01358704 -0.034938354

st_gcn_networks.1.tcn.2.bias f4 [8]
00000000: fae0 29b8 d3b1 2238 c812 77b8 654e 29b8
00000010: 0293 2db7 5197 d937 5269 e837 4c3c ff37
-4.0502266e-05 3.878942e-05 -5.890688e-05 -4.036575e-05 -1.03458315e-05 2.5938878e-05 2.7705599e-05 3.0426447e-05

st_gcn_networks.1.tcn.3.weight f4 [8]
00000000: 0244 593e 0ace 823e c5e6 963e 0dae 8e3e
00000010: 6a3a 5a3e 9e61 9f3e fb9b 8e3e 823f 3d3e
0.21217349 0.2554782 0.29472938 0.27867165 0.21311346 0.31129164 0.2785338 0.18481258

st_gcn_networks.1.tcn.3.bias f4 [8]
00000000: 846f f83b 1111 78bc 2337 98bc c007 acbc
00000010: 4241 bebb 6e4e bebb 4d5a 86bb 140e f13b
0.007581653 -0.015140788 -0.018580979 -0.02099979 -0.005806119 -0.0058076894 -0.00410012 0.0073564146

st_gcn_networks.1.tcn.3.running_mean f4 [8]
00000000: ad29 2fbb 2702 303c e76c 00bc a3b3 ca3a
00000010: a409 d6ba 3814 373c 852e 69bc 706b 2abc
-0.0026727722 0.010742701 -0.007838464 0.0015464913 -0.0016329777 0.011174254 -0.0142322825 -0.010401592

st_gcn_networks.1.tcn.3.running_var f4 [8]
00000000: faa6 9739 0dd8 843a c7b5 293a 9610 e839
00000010: 000c 8a39 a2e7 963a 19dc 203a 7727 203a
0.00028925372 0.0010135189 0.00064739253 0.00044262846 0.00026330352 0.0011513124 0.0006136313 0.00061093963

st_gcn_networks.1.residual.0.weight f4 [8, 8, 1, 1]
00000000: f760 fabc dd68 67bd ea99 dbbd 4185 8bbc
00000010: d6f1 64bd 919c f23c 621f 663d bf87 3bbc
00000020: 8e06 a2bd 5f15 24bd 700b a3bc f863 d43b
00000030: c001 aa3b 6c04 a73d 462e c43d cfa3 b9bd
00000040: 6fc3 ffbd 9612 713a dbfb 983d efb1 ffbb
00000050: c6be 04bd fb94 573d 9a10 11bb da96 7ebd
00000060: a8b9 a63d aacf 9d3c 5c86 65bd fb7f 02b8
00000070: c847 abbc be3e 363b 8abf 813d a3f3 9c3d
00000080: 673d 73bd 6b23 153d a069 a0bd 5556 2d3c
00000090: 7418 263d 03a5 11bd 05cf af3d a5f4 7b3d
000000a0: 0e5a eb3d 0a5a 023d 9e99 c83d 6335 43bc
000000b0: aa4e 70bd af88 24bd af71 fcbc 2e60 a7bd
000000c0: 4234 b83c 6ffd bc3c 6e42 99bd e7e9 ca3c
000000d0: 87ad 89bc 5c57 ddbc a6f7 8cbd 02eb 793c
000000e0: ac0d ecbb 78c6 0e3d 6bdc 9e3d 6bee 1c3c
000000f0: 0170 803d 424e a63d 34eb 9ebd c606 08bd
-0.030563815 -0.05649649 -0.10722716 -0.017031314 -0.055894695 0.029615672 0.056182273 -0.011445939
-0.079114065 -0.040059444 -0.019902915 0.0064816438 0.005188197 0.0815514 0.095791385 -0.09064447
-0.12488448 0.000919619 0.074699126 -0.0078031938 -0.0324085 0.052632313 -0.002213514 -0.062155582
0.0814088 0.019264061 -0.05603634 -3.1113606e-05 -0.020908251 0.0027808393 0.06335361 0.076636575
-0.05938473 0.03641073 -0.07832646 0.010579665 0.040550664 -0.035557758 0.08584408 0.061512608
0.11491786 0.03182415 0.09794925 -0.011914584 -0.05866877 -0.040169414 -0.030815927 -0.08172642
0.022485856 0.023070065 -0.074833736 0.024769736 -0.016806377 -0.027019195 -0.06883173 0.015253784
-0.0072037783 0.034857243 0.07756885 0.009578328 0.06271363 0.08120395 -0.07759705 -0.033209585

st_gcn_networks.1.residual.0.bias f4 [8]
00000000: 6f5f eeb7 626e 2138 9014 2036 36ca 10b7
00000010: 93da ad37 a52f 4f35 8d0d 51b7 2383 98b7
-2.841625e-05 3.8488193e-05 2.3853827e-06 -8.63015e-06 2.0724989e-05 7.718284e-07 -1.2460526e-05 -1.8180877e-05

st_gcn_networks.1.residual.1.weight f4 [8]
00000000: a955 603e cdd8 453e 4749 773e 9b26 6a3e
00000010: 280c 4b3e ceed 703e 7d0d aa3e e7b4 143e
0.21907677 0.19320984 0.24149047 0.2286629 0.19828856 0.23528215 0.33213416 0.14522134

st_gcn_networks.1.residual.1.bias f4 [8]
00000000: 846f f83b 1111 78bc 2337 98bc c007 acbc
00000010: 4241 bebb 6e4e bebb 4d5a 86bb 140e f13b
0.007581653 -0.015140788 -0.018580979 -0.02099979 -0.005806119 -0.0058076894 -0.00410012 0.0073564146

st_gcn_networks.1.residual.1.running_mean f4 [8]
00000000: ad1a 85bc e705 483a 1585 c2bb 8718 a43c
00000010: 3609 bb3b 726a 2a3b a326 69bc eb60 693c
-0.016248072 0.0007630274 -0.005936275 0.020031227 0.005707885 0.0026003388 -0.014230403 0.014244298

st_gcn_networks.1.residual.1.running_var f4 [8]
00000000: d38f 2a3a 6610 993a 765b 283a 37d7 653a
00000010: 0029 823a 8c77 9e3a 721b 493a 2051 273a
0.0006506417 0.0011677861 0.000642232 0.0008767726 0.0009930432 0.0012090071 0.0007671631 0.0006382633

st_gcn_networks.2.gcn.conv.weight f4 [48, 8, 1, 1]
00000000: 35cc 733c 2fc3 6fbd c258 743c df0d 38bd
00000010: 30f8 693d 1479 513c 7ce7 7abd 522d 97bc
00000020: bd18 9bbc 9d6e b6bc f3a3 463a cf11 0ebd
00000030: 6e40 3ebc e910 523c 437b a93c 0406 57bc
00000040: 0eb8 b93c d4af 6dbc 1bbc 553c 351d 3fbd
00000050: 5fbe a3bc 0b2f 103c 2613 ebbc 52c7 0bbb
00000060: 37a1 543c 141f 923a b0b5 23bb cc60 debc
00000070: 8dee 473c 4fd1 2abd d48e a7bc f6b8 313c
00000080: 8695 193c 66f4 533c 0626 04bd 9833 4a3c
00000090: 511d 2dbd 2308 213d 035b e2bb 9d2b b4bc
000000a0: bffd 743d fb88 8bbb 297d 84bd d176 aebc
000000b0: cadd c03d fced 8cbc 4d44 cabd 8129 abbc
000000c0: f2d3 2bbd 1398 abbd 1424 5abd 8e45 48bb
000000d0: 3e47 68bd 0847 573d caa1 acbd a01e 083c
000000e0: 8330 61bc e8ed 0dbd bd8d 0c3d 6527 cabb
000000f0: e7bc d8bb 66b8 dbbc ce34 813c 1b94 b3bb
00000100: ae02 993a d02e fdbc 5d34 1abd 7fb0 f73b
00000110: ce27 58bd 9eab 3e3d c5a5 eabc e351 27bd
00000120: f364 803b 9752 83bc aebd 173d 89ea a43c
00000130: 2bc6 c23c 9636 09bd 65f6 5e3c 4dac a63b
00000140: add2 013c cdf0 f5bc 46d1 c73c d45b 203b
00000150: f0ad 273d 4e66 653d f02c e13b 27c9 94bc
00000160: 91f6 053d 4bb5 21bd 7aff 25bd d293 0b3d
00000170: f8f0 89bc 735e 6dbc b6ec bb3c 8a50 02bd
00000180: 3208 d73c 3ae5 14bd 7138 a1bb fdb3 9a3d
00000190: 74de f9bc eb70 6a3c 0796 8a3c c1c3 c8ba
000001a0: a79c 9a39 d88d 56bd b622 773d 08a3 83bc
000001b0: d0d4 c6bc ab97 f8b8 369a d5ba 204b 443c
000001c0: ab66 13bd a6b0 913c 79e4 f73c 9e70 24bd
000001d0: b171 ab3b 7a10 303d d46f 0a3d 3a64 6dbb
000001e0: 701e c9bc d392 333c 1e5b 67bc 174d 1abd
000001f0: 3828 35bd 17c7 b4bb b023 88bb 91c4 7b3b
00000200: 8ca9 043d 1ba7 03bd d612 af3c d4b4 54bd
00000210: 6160 2d3d 4081 ab3d 95b0 b73d 5c2e 1fbd
00000220: 7389 72bb 696f 2fbd a338 bfbc 20b6 05bd
00000230: f2a5 01bc 879d 1a3d 587a df3c 1d05 8a3c
00000240: 4c79 843c fb9d e3b9 ccf5 603d 5e28 29bc
00000250: f159 263d 1190 14bc 1326 9e3c b890 20bd
00000260: 8acf 9f3c f9a9 043d 5dc5 d7bb 38ba dcbc
00000270: f1d7 223d 48ba 3abd 1029 ffbc 6c28 24bd
00000280: 2435 6c3a 0a0c eebc 2cf5 ac3c 1b6d c2bc
00000290: 3baf 5eba b937 103d 3f92 0e3d e9a1 523c
000002a0: 3029 f43c f056 253d 9e04 aebc e9ed 21bd
000002b0: 88a8 a63c 541a cfbd 963a 883c 6711 18bc
000002c0: 715b 3f3d 3727 233d b45f 81bd 40da e63c
000002d0: 8c9f 903d 1546 03bd 2bb5 6abc d00f 2abd
000002e0: aff0 77bc 63f1 61bd 58ae 233d 0d8b f83c
000002f0: 9ec3 2cbd a69f 283d fcd5 57bc 65d5 323d
00000300: a83d 2d3d 7e25 593d bb2a ccbc a7d3 c33c
00000310: ca7b 5e3d 693e 35ba f660 7f3d 4027 a5bc
00000320: ccb6 99bc 9d15 a3bc 78f8 ebbc 228d c83c
00000330: 7f18 4ebd b5a4 513d ffc2 f63c 8f6f 0abd
00000340: 3174 04bc 5ff6 5abd f474 6abc 5abf 1c3d
00000350: eca6 56bb afd3 fcb9 5202 99b9 b5f8 3d3d
00000360: 6894 4f3d 06e7 a53d 6af4 393c a3b9 193c
00000370: e625 41bd 1454 a1bc 408d c33d ebc7 613d
00000380: fe3f bd3d ab8b 8fbc 3e6c 0fbc b177 5cbd
00000390: c8ad 0bbd a4d4 c3bb aedc 093d ff44 84bb
000003a0: c980 e23c 7a76 2f3d b533 a4bd dc6c 963d
000003b0: 2ad8 f63a 6d18 67bd 824b 3bbc fcc2 a13d
000003c0: 24ff 3bbc 9eab a1bc a5e1 c8bc 3194 aebc
000003d0: adf5 e93c 5890 663c ef18 d6ba a30e 04bc
000003e0: 157e d7bc 16a5 22bc 5710 ee3c 8409 103d
000003f0: aca8 913c 28f6 943c 0782 503d 25a4 693b
0.01488023 -0.05853575 0.01491374 -0.044935104 0.057121456 0.012785215 -0.061255917 -0.018454228
-0.018932695 -0.022269541 0.0007577531 -0.034684952 -0.011612041 0.0128214145 0.020688659 -0.013123993
0.022670772 -0.014507253 0.013045336 -0.046658713 -0.019988237 0.008800278 -0.028695654 -0.002132852
0.01297789 0.0011148178 -0.002498012 -0.027145766 0.012202871 -0.04170352 -0.020453848 0.010847321
0.009374028 0.012936687 -0.032262824 0.0123414025 -0.042264286 0.0393144 -0.006907822 -0.021993453
0.059812304 -0.0042582727 -0.06469185 -0.02129689 0.09417303 -0.017203324 -0.098763086 -0.020893814
-0.041950174 -0.08378615 -0.053257063 -0.0030559036 -0.056708567 0.052557975 -0.08429296 0.008308083
-0.013744476 -0.034650713 0.03431486 -0.006169247 -0.006614316 -0.026821326 0.01577225 -0.005480302
0.0011673772 -0.030906111 -0.037647594 0.007558882 -0.052772336 0.046550386 -0.028643498 -0.040849578
0.003918284 -0.016030593 0.037046127 0.020131366 0.023776134 -0.033499323 0.01360855 0.005086458
0.007923764 -0.03002205 0.024391782 0.0024468796 0.040937364 0.05600577 0.006871812 -0.018162323
0.032705847 -0.039479535 -0.040526845 0.03407652 -0.016838536 -0.0144878505 0.022940021 -0.03181509
0.026249025 -0.03635142 -0.0049200584 0.07553861 -0.030501582 0.014309148 0.016917242 -0.0015317128
0.00029489884 -0.052381366 0.060335837 -0.01606895 -0.024271399 -0.00011853812 -0.0016296569 0.011980802
-0.035986584 0.017784428 0.030260311 -0.040146463 0.005232059 0.042984463 0.033798054 -0.003622307
-0.024550647 0.010960299 -0.014120845 -0.037671175 -0.04422781 -0.0055168974 -0.004154645 0.0038416723
0.032388255 -0.032141786 0.021371286 -0.051930264 0.042328242 0.08374262 0.08969227 -0.03886257
-0.0037008196 -0.04283086 -0.023342436 -0.03264439 -0.0079131 0.037747886 0.027280018 0.016848141
0.01617112 -0.0004341452 0.05492191 -0.010324566 0.04061312 -0.009067551 0.019305265 -0.039200515
0.019508142 0.03238866 -0.006584807 -0.026944265 0.03975672 -0.045587808 -0.03114751 -0.04007761
0.0009010604 -0.029058475 0.021113 -0.023733666 -0.00084947393 0.03520939 0.03480744 0.012855985
0.029804796 0.040366113 -0.021242436 -0.03953353 0.020344034 -0.101124436 0.016629498 -0.009281493
0.046718065 0.03983232 -0.06317082 0.028180242 0.07061681 -0.032049257 -0.01432542 -0.041518986
-0.015133067 -0.055161845 0.03996119 0.030339742 -0.042178743 0.041167878 -0.013173576 0.04366054
0.042295128 0.05301427 -0.02492272 0.023904635 0.054317273 -0.0006913902 0.06234833 -0.020160317
-0.018763922 -0.019907767 -0.028805003 0.02448136 -0.05031633 0.051182467 0.030122278 -0.033797797
-0.008084343 -0.053457614 -0.01431011 0.038268425 -0.0032753302 -0.00048222902 -0.00029184163 0.046379764
0.05067864 0.08100705 0.011349777 0.009382638 -0.047155283 -0.019693412 0.09548426 0.055122297
0.09240721 -0.017522654 -0.008753834 -0.053825084 -0.034101278 -0.0059762765 0.033657722 -0.0040365453
0.0276493 0.042837597 -0.08017675 0.07344982 0.0018832732 -0.05641978 -0.011431577 0.078985184
-0.0114744045 -0.019735154 -0.024521658 -0.021310898 0.02855953 0.0140725 -0.0016334335 -0.00806013
-0.026305238 -0.009927055 0.029060526 0.035165325 0.017780624 0.018183783 0.050905254 0.0035650816

st_gcn_networks.2.gcn.conv.bias f4 [48]
00000000: 17a3 47bc 261c 173c 281b 46bc 3b5c 0b3c
00000010: 0716 253b a1ea 88bc 198a f43c 3912 8bbc
00000020: 92a4 c5bb 1157 31bc e928 64bc de80 96bb
00000030: f1a8 03bd b00d 50bc 734c 9cbb ff52 803b
00000040: e516 5cbd 436c 3cbc 58cf b8ba a14f 363c
00000050: 8cfc e43b 2b93 74bc d264 27bc b92b e0bb
00000060: e657 3dbd 30d3 3fbc 30c9 99bc 7cb7 45bd
00000070: 837b 9a3c 8986 0a3c 747e 11bc fcf8 48bc
00000080: 3e42 073c c2cd 823c 5261 dabb 5265 013c
00000090: c9f6 d7bc 40a9 1e3c 9c5a 2a3a 417e cdbb
000000a0: adcd 90bb e1ee b03b 7bb3 e8bb b31e f6bc
000000b0: 6728 e43c ce69 89bc 7aab 6c3c 1ecd 9b3b
-0.01218488 0.00922302 -0.0120914355 0.008505876 0.0025190131 -0.016713442 0.029851006 -0.016976463
-0.006031581 -0.010823981 -0.013925769 -0.004592999 -0.032143537 -0.012698576 -0.0047698556 0.003916144
-0.05373277 -0.011500421 -0.0014099879 0.011127383 0.0069881137 -0.014927666 -0.0102169085 -0.0068411496
-0.046226405 -0.011708066 -0.018772691 -0.048270687 0.018857723 0.008454927 -0.008880246 -0.012266394
0.008255539 0.015967254 -0.0066644335 0.007897692 -0.026362794 0.009683907 0.0006498487 -0.006271154
-0.0044190497 0.0053995703 -0.007101474 -0.030043935 0.027851297 -0.016774084 0.01444518 0.0047546765

st_gcn_networks.2.tcn.0.weight f4 [16]
00000000: ffa2 683e ae74 ec3d 1221 2b3e 8848 073e
00000010: 5fbc 8a3d e129 773e 5afd 333e 3028 3a3e
00000020: 6081 233e cea0 063e e17f 093e 01ec 3c3e
00000030: 1145 1a3e 2f74 223e 45ce c03d 7bdc cd3d
0.22718428 0.115456924 0.16711834 0.13211262 0.0677421 0.2413707 0.17577115 0.18179393
0.15967321 0.1314728 0.13427688 0.18449403 0.15065409 0.15864633 0.09414343 0.10051819

st_gcn_networks.2.tcn.0.bias f4 [16]
00000000: c349 b6bc 13a9 b13a 77bb 01bd 3784 d4bc
00000010: 0769 c83b 8c17 05bd a5a9 b6bc 7b9a 25bd
00000020: d1a2 13bd 145f e9bc 6f4d 2abd 2ef0 18bd
00000030: 1622 27bd 30fa 3abd eaf1 3abc aca0 12bd
-0.02225197 0.0013554416 -0.03167292 -0.025941951 0.006116036 -0.03249316 -0.02229769 -0.040430527
-0.036043946 -0.02848772 -0.041577753 -0.03733843 -0.04080399 -0.045648754 -0.011410216 -0.03579776

st_gcn_networks.2.tcn.0.running_mean f4 [16]
00000000: 33d8 ddba 79df 98b9 5442 fcb9 ad3e f4b9
00000010: d513 b937 6a91 4dbb 5fa4 46ba 583c ccba
00000020: 4819 c5ba 572f 91b9 d1c5 b7ba acb5 00bb
00000030: 5ae7 133a 3f17 4eba 68bf 023a 6587 453a
-0.0016925394 -0.000291582 -0.00048114604 -0.00046586004 2.2062954e-05 -0.003136719 -0.0007577594 -0.0015581949
-0.0015037442 -0.00027691826 -0.0014020746 -0.0019639535 0.0005642079 -0.00078617403 0.0004987628 0.0007535129

st_gcn_networks.2.tcn.0.running_var f4 [16]
00000000: fb68 c836 fa82 7f36 1e52 6536 b0b8 e136
00000010: 4ede 4836 d102 ab37 15fa a836 79e2 6b36
00000020: 6f31 9d36 99a1 4d36 ed94 2136 78d8 9d36
00000030: 25d3 4036 d939 6436 89a5 c535 8401 3336
5.972686e-06 3.80742e-06 3.4171458e-06 6.727023e-06 2.993172e-06 2.03861e-05 5.0359035e-06 3.5149553e-06
4.6847194e-06 3.0641443e-06 2.4077556e-06 4.704165e-06 2.8733132e-06 3.400832e-06 1.4725821e-06 2.667396e-06

st_gcn_networks.2.tcn.2.weight f4 [16, 16, 9, 1]
00000000: 9452 58bc 2fd8 1bbc 32ee 88bb 2d6a d7bb
00000010: 97fd acbc ddc1 8d3c 9f53 94bc d491 99bc
00000020: 931a 13bd c231 8f3a bf96 6b3c 3e12 083d
00000030: 59e2 efbc 578c b03b 36c4 7eba 50dc b93b
00000040: f3ac 863b 3cba 91bb ee8e a33b 0cbc db3b
00000050: 8423 ac3c 5bb5 9f3b 8cfd 963b 3251 a9bc
00000060: 4300 cb3b e5d9 6cbb d3d0 003c cc84 4abc
00000070: 08ca b4bb 5f2a 163c 1f3c 55bc fae5 82bb
00000080: 0cb4 303c 9daa 40bc 4e88 033b 00d1 793c
00000090: f5e5 293c 5ea7 ac3c 006a 7ebb 359d 94bb
000000a0: 7975 b5bb 9d10 46bb c3de d03b f2a1 d2bb
000000b0: 43b1 6bbc d7d5 003d 43cc 6abc 6c49 943c
000000c0: f8c6 5a39 e249 dabb e3b6 093c 204c 88bc
000000d0: c6dc d9b9 c1d1 783c 46d8 593b c29c 3d3c
000000e0: ea57 ef3b 8fbc c43c fd01 a03c e4a5 023b
000000f0: 6f66 6a3b 8336 c43c fd4f 2b3c ea85 473b
00000100: 0b05 bbbb c389 08bc d636 0a3a d1d3 1a3b
00000110: 58a5 f4bc cad2 e03b 8307 983b 86e9 eabb
00000120: cf69 9b3b d6e3 ca3c 88f2 273c a96b 893c
00000130: c0af d0b8 e800 1cbc 8079 3c3c 7632 c13c
00000140: 3a42 3abc d13c efbc f9fb 083d 5c65 74bc
00000150: 99c5 0e3d 9b08 42bc a163 eabc 719a c13c
00000160: 5566 c93b ac66 06bd a156 36bb 74ba 193c
00000170: eebd 37bc 6987 f03b 28a6 163c 6711 c2bc
00000180: 91e5 b33b 9c3e c43c 87f5 e9bc 6abe c63c
00000190: 9f55 0dbb ba63 ebbc ad9d 2bbd 94c8 b1bc
000001a0: 99f6 c5bb 38ab 6bbd 4f80 1abb 8aeb 093d
000001b0: f86f 39bc 6d0f 163c 599c c3bb f2ef f0bc
000001c0: 3cbf b53b 30c2 ffbc bfd1 4abc 5e49 18bc
000001d0: b20b 6ebc a6d3 883c 9f22 97bb 64bc c4bc
000001e0: 051a 203c 516b 463c 3d77 153b 7a59 babc
000001f0: 2cda 513b d6fe 1f3d c14b 9bbc bacc c6ba
00000200: b99a fb3b 9106 56bc 7451 74bc 99e1 46bc
00000210: 1911 12ba 64a7 85bb d193 96bc 372f a63a
00000220: c072 613c 3b3c 8f3a 51e0 d63b 4ede 7239
00000230: e7d2 cabc 8201 993c 599b 64bc c4b8 56bc
00000240: 86d2 86bb c9e8 52bc b8cf 853c cd46 173c
00000250: 2ab6 493c c25b a73c 32e9 b83c 6c5d c0ba
00000260: 841f 053d 0b2d cfbc 996d 643c 5268 803b
00000270: 925a b0bc 04c5 c7bc 597f 47bb 099e 27bd
00000280: c737 bd3b f60b 90bc ef63 94b9 4824 443c
00000290: f2f5 85bc 1676 743c f40c a2bb ef36 0abd
000002a0: 8dd1 0b3b d8c3 9dbc 1d62 05bd 270e c1bc
000002b0: 0a06 a5bc 5b3d d2bc 7a20 aa3c 15bc 163a
000002c0: 4220 77bb 495e 82bc 098e bebc 9624 1bbd
000002d0: f695 8a3c 4922 22bd d0c0 acbc d75a debc
000002e0: 5384 91bb 7c41 c3bc 922a 6bbc bc4f 23ba
000002f0: 6c1c 3f3c dc10 2dbc 05ef 5bbc e1a1 4cbc
00000300: 6bbe 02bc e228 abbc d24b 28bd e92e 21bd
00000310: ae06 8bbd a2ac dfbc 99c0 f8ba 4198 cc3c
00000320: ea4f d93c 7e45 4b3c 8ad4 1e3d 203a 213c
00000330: adee 043d a9bf e2bc e1b9 f93c 8f92 a23c
00000340: f32f cdbb f2c7 52bc d672 afbb bf0c 1bbd
00000350: f8ef 16bd 8cbb 80bb f6ba 34bc 7ae0 a5bc
00000360: 549d 49bc 72a1 d23b 2bd3 f8ba 54b1 acbc
00000370: 72d2 2a3c 6e7e a1bc 80a3 febc c304 7ebc
00000380: 6a88 ddbc dd06 f9bb f11a aebc fd42 0bbd
00000390: d1a3 08bd 8bb9 22bc 454e 9e3c 4b90 8cbc
000003a0: 8c20 9dbc 2937 70bc a1dd abbc 909d a93b
000003b0: 7e20 afbc f7e6 48bc b159 ae3c aa96 dcbc
000003c0: da93 9dbc 949e 34bd 39de 44bd 42ae 81ba
000003d0: 4631 473c 1527 923b 9722 123d 7df8 ee3b
000003e0: 6f6d 343c cc81 1f3b 96e2 5cbb a4c6 943c
000003f0: a6af 163c bf29 923c a2f4 883b fa3d 3ab6
-0.013203282 -0.009511991 -0.0041787857 -0.0065739364 -0.021117015 0.017304355 -0.01810628 -0.018746294
-0.035914015 0.0010924863 0.014379202 0.033220522 -0.029282736 0.0053878236 -0.0009718569 0.0056720152
0.0041099726 -0.0044472497 0.004991404 0.0067057665 0.021013029 0.004873914 0.004607862 -0.0206686
0.0061950996 -0.0036140617 0.007862288 -0.012360763 -0.005517248 0.0091653755 -0.013014822 -0.0039947005
0.010785114 -0.011759427 0.0020070258 0.015247583 0.010369767 0.0210759 -0.0038820505 -0.004535342
-0.0055376855 -0.0030222305 0.0063742115 -0.006427997 -0.014385524 0.031453934 -0.014330926 0.018101417
0.00020864222 -0.0066616395 0.00840542 -0.016637862 -0.00041553954 0.015186728 0.0033240481 0.0115730185
0.0073041813 0.024015693 0.019532198 0.0019935304 0.0035766622 0.023951774 0.010456082 0.003044481
-0.0057073883 -0.008333626 0.00052724534 0.0023624788 -0.029863998 0.0068610655 0.0046395673 -0.0071689514
0.004742838 0.024766844 0.010250695 0.01677497 -9.950949e-05 -0.0095217 0.011503577 0.023583632
-0.011368329 -0.029203804 0.033443425 -0.014916744 0.034856413 -0.011842872 -0.02861196 0.023633214
0.006146232 -0.03281276 -0.002782263 0.009382833 -0.011214716 0.007340361 0.009194888 -0.023689939
0.005490013 0.023955636 -0.02855946 0.024260718 -0.0021565927 -0.028734077 -0.04189842 -0.021702088
-0.0060413596 -0.057536334 -0.0023575013 0.033671893 -0.011318199 0.009158951 -0.005969566 -0.02941129
0.0055464786 -0.031220526 -0.012379109 -0.009294836 -0.014529156 0.016702484 -0.0046122815 -0.024015613
0.009771829 0.012110547 0.0022806667 -0.022747744 0.003202091 0.03906139 -0.01895702 -0.0015167214
0.0076783565 -0.013063089 -0.014911998 -0.012138748 -0.0005572006 -0.0040787924 -0.018381031 0.0012678866
0.013760269 0.0010927984 0.0065575023 0.00023161733 -0.02475877 0.018677477 -0.013953053 -0.013105575
-0.004114452 -0.012872883 0.0163344 0.009233189 0.012311498 0.020429496 0.022572134 -0.0014676279
0.03250076 -0.025290033 0.013942146 0.003918686 -0.021527562 -0.024385937 -0.0030440895 -0.0409222
0.0057744714 -0.017583828 -0.00028303216 0.011971541 -0.016352627 0.014920732 -0.004945392 -0.033743795
0.0021334619 -0.019258425 -0.03256427 -0.023566319 -0.020144481 -0.025664022 0.02076744 0.00057500723
-0.0037708436 -0.0159141 -0.023261087 -0.037876688 0.01691721 -0.039583478 -0.021088034 -0.027142925
-0.004440823 -0.023834936 -0.014353411 -0.0006229838 0.011664491 -0.010563102 -0.013423686 -0.012489767
-0.0079799695 -0.020893518 -0.041087933 -0.039351378 -0.067883834 -0.027303997 -0.0018978297 0.024974944
0.026527364 0.012406705 0.03877691 0.009840518 0.03245418 -0.027679281 0.030484142 0.019845275
-0.0062618195 -0.0128650535 -0.0053542657 -0.037853952 -0.036849946 -0.0039286073 -0.011030903 -0.02024864
-0.012305576 0.006427937 -0.0018983831 -0.02108065 0.010426151 -0.019713607 -0.031083822 -0.015504065
-0.027042586 -0.007599695 -0.021253081 -0.033999432 -0.033359352 -0.009931932 0.019324431 -0.017158648
-0.019180559 -0.014661589 -0.020979704 0.0051762536 -0.021377798 -0.012262098 0.021283003 -0.026927311
-0.01923554 -0.044096544 -0.04806349 -0.0009893852 0.012157744 0.0044602253 0.03567752 0.0072928057
0.011012419 0.002433884 -0.0033704392 0.018161125 0.009197151 0.017842172 0.004179553 -2.7752235e-06

st_gcn_networks.2.tcn.2.bias f4 [16]
00000000: 0fc8 8f37 a7a9 0138 a3fc a1b8 5b1b bfaf
00000010: 489b ce38 b7a7 6236 578e fc37 da1f 62b7
00000020: 71c4 5038 ceb4 f336 482d 14b8 c1e0 7637
00000030: 3186 46b8 5829 2eb6 4fbd 0138 e87c 74b5
1.7140088e-05 3.0913998e-05 -7.7241355e-05 -3.4762135e-10 9.851769e-05 3.3774247e-06 3.0107023e-05 -1.3478066e-05
4.9774015e-05 7.263013e-06 -3.532812e-05 1.4715072e-05 -4.7331854e-05 -2.5952086e-06 3.0932304e-05 -9.1078846e-07

st_gcn_networks.2.tcn.3.weight f4 [16]
00000000: acd4 183e ba9f 543e 733d 0b3e 1c04 022c
00000010: cdb6 603e c418 283e ae64 4a3e 1efd cc3d
00000020: a63c e23d 5036 033e 2436 5a3e a474 d93d
00000030: a62a 6d3e 98e7 933d e948 c83d ed0a ab36
0.14924878 0.20764056 0.1359766 1.8476392e-12 0.21944733 0.16415697 0.19764969 0.10009216
0.11046724 0.12813687 0.21309716 0.106179506 0.231608 0.072219074 0.097795315 5.097469e-06
