weights_arm/124.pt (torch, 70926 bytes, 80 tensors)

A f4 [3, 9, 9]
0	0x3f000000	0.5
1	0x00000000	0.0
2	0x00000000	0.0
3	0x00000000	0.0
4	0x00000000	0.0
5	0x00000000	0.0
6	0x00000000	0.0
7	0x00000000	0.0
8	0x00000000	0.0
9	0x00000000	0.0
10	0x3e4ccccd	0.2
11	0x00000000	0.0
12	0x00000000	0.0
13	0x00000000	0.0
14	0x00000000	0.0
15	0x00000000	0.0
16	0x00000000	0.0
17	0x00000000	0.0
18	0x00000000	0.0
19	0x00000000	0.0
20	0x3eaaaaab	0.33333334
21	0x00000000	0.0
22	0x00000000	0.0
23	0x00000000	0.0
24	0x00000000	0.0
25	0x00000000	0.0
26	0x00000000	0.0
27	0x00000000	0.0
28	0x00000000	0.0
29	0x00000000	0.0
30	0x3eaaaaab	0.33333334
31	0x00000000	0.0
32	0x00000000	0.0
33	0x00000000	0.0
34	0x00000000	0.0
35	0x00000000	0.0
36	0x00000000	0.0
37	0x00000000	0.0
38	0x00000000	0.0
39	0x00000000	0.0
40	0x3f000000	0.5
41	0x00000000	0.0
42	0x00000000	0.0
43	0x00000000	0.0
44	0x00000000	0.0
45	0x00000000	0.0
46	0x00000000	0.0
47	0x00000000	0.0
48	0x00000000	0.0
49	0x00000000	0.0
50	0x3eaaaaab	0.33333334
51	0x00000000	0.0
52	0x00000000	0.0
53	0x00000000	0.0
54	0x00000000	0.0
55	0x00000000	0.0
56	0x00000000	0.0
57	0x00000000	0.0
58	0x00000000	0.0
59	0x00000000	0.0
60	0x3eaaaaab	0.33333334
61	0x00000000	0.0
62	0x00000000	0.0
63	0x00000000	0.0
64	0x00000000	0.0
65	0x00000000	0.0
66	0x00000000	0.0
67	0x00000000	0.0
68	0x00000000	0.0
69	0x00000000	0.0
70	0x3f000000	0.5
71	0x00000000	0.0
72	0x00000000	0.0
73	0x00000000	0.0
74	0x00000000	0.0
75	0x00000000	0.0
76	0x00000000	0.0
77	0x00000000	0.0
78	0x00000000	0.0
79	0x00000000	0.0
80	0x3f000000	0.5
81	0x00000000	0.0
82	0x3e4ccccd	0.2
83	0x00000000	0.0
84	0x00000000	0.0
85	0x00000000	0.0
86	0x00000000	0.0
87	0x00000000	0.0
88	0x00000000	0.0
89	0x00000000	0.0
90	0x00000000	0.0
91	0x00000000	0.0
92	0x00000000	0.0
93	0x00000000	0.0
94	0x00000000	0.0
95	0x00000000	0.0
96	0x00000000	0.0
97	0x00000000	0.0
98	0x00000000	0.0
99	0x00000000	0.0
100	0x3e4ccccd	0.2
101	0x00000000	0.0
102	0x00000000	0.0
103	0x00000000	0.0
104	0x00000000	0.0
105	0x00000000	0.0
106	0x00000000	0.0
107	0x00000000	0.0
108	0x00000000	0.0
109	0x00000000	0.0
110	0x3eaaaaab	0.33333334
111	0x00000000	0.0
112	0x3f000000	0.5
113	0x00000000	0.0
114	0x00000000	0.0
115	0x00000000	0.0
116	0x00000000	0.0
117	0x00000000	0.0
118	0x00000000	0.0
119	0x00000000	0.0
120	0x3eaaaaab	0.33333334
121	0x00000000	0.0
122	0x00000000	0.0
123	0x00000000	0.0
124	0x00000000	0.0
125	0x00000000	0.0
126	0x00000000	0.0
127	0x3e4ccccd	0.2
128	0x00000000	0.0
129	0x00000000	0.0
130	0x00000000	0.0
131	0x00000000	0.0
132	0x00000000	0.0
133	0x00000000	0.0
134	0x00000000	0.0
135	0x00000000	0.0
136	0x00000000	0.0
137	0x00000000	0.0
138	0x00000000	0.0
139	0x00000000	0.0
140	0x3eaaaaab	0.33333334
141	0x00000000	0.0
142	0x3f000000	0.5
143	0x00000000	0.0
144	0x00000000	0.0
145	0x00000000	0.0
146	0x00000000	0.0
147	0x00000000	0.0
148	0x00000000	0.0
149	0x00000000	0.0
150	0x3eaaaaab	0.33333334
151	0x00000000	0.0
152	0x00000000	0.0
153	0x00000000	0.0
154	0x3e4ccccd	0.2
155	0x00000000	0.0
156	0x00000000	0.0
157	0x00000000	0.0
158	0x00000000	0.0
159	0x00000000	0.0
160	0x00000000	0.0
161	0x00000000	0.0
162	0x00000000	0.0
163	0x00000000	0.0
164	0x00000000	0.0
165	0x00000000	0.0
166	0x00000000	0.0
167	0x00000000	0.0
168	0x00000000	0.0
169	0x00000000	0.0
170	0x00000000	0.0
171	0x3f000000	0.5
172	0x00000000	0.0
173	0x3eaaaaab	0.33333334
174	0x00000000	0.0
175	0x00000000	0.0
176	0x3eaaaaab	0.33333334
177	0x00000000	0.0
178	0x00000000	0.0
179	0x3f000000	0.5
180	0x00000000	0.0
181	0x00000000	0.0
182	0x00000000	0.0
183	0x3eaaaaab	0.33333334
184	0x00000000	0.0
185	0x00000000	0.0
186	0x00000000	0.0
187	0x00000000	0.0
188	0x00000000	0.0
189	0x00000000	0.0
190	0x00000000	0.0
191	0x00000000	0.0
192	0x00000000	0.0
193	0x00000000	0.0
194	0x00000000	0.0
195	0x00000000	0.0
196	0x00000000	0.0
197	0x00000000	0.0
198	0x00000000	0.0
199	0x00000000	0.0
200	0x00000000	0.0
201	0x00000000	0.0
202	0x00000000	0.0
203	0x00000000	0.0
204	0x00000000	0.0
205	0x00000000	0.0
206	0x00000000	0.0
207	0x00000000	0.0
208	0x00000000	0.0
209	0x00000000	0.0
210	0x00000000	0.0
211	0x00000000	0.0
212	0x00000000	0.0
213	0x3eaaaaab	0.33333334
214	0x00000000	0.0
215	0x00000000	0.0
216	0x00000000	0.0
217	0x00000000	0.0
218	0x00000000	0.0
219	0x00000000	0.0
220	0x00000000	0.0
221	0x00000000	0.0
222	0x00000000	0.0
223	0x00000000	0.0
224	0x00000000	0.0
225	0x00000000	0.0
226	0x00000000	0.0
227	0x00000000	0.0
228	0x00000000	0.0
229	0x00000000	0.0
230	0x00000000	0.0
231	0x00000000	0.0
232	0x00000000	0.0
233	0x00000000	0.0
234	0x00000000	0.0
235	0x00000000	0.0
236	0x00000000	0.0
237	0x00000000	0.0
238	0x00000000	0.0
239	0x00000000	0.0
240	0x00000000	0.0
241	0x00000000	0.0
242	0x00000000	0.0

data_bn.weight f4 [27]
0	0x3dbbbf01	0.091672905
1	0x3d517da1	0.0511452
2	0x3d463dc2	0.04839874
3	0x3e83bf83	0.2573205
4	0x3d92b0e5	0.07162646
5	0x3d90e3dc	0.07074711
6	0x3e8cee22	0.2752543
7	0x3e4d003d	0.20019622
8	0x3e5c18fd	0.21493907
9	0x3eeb0239	0.45900133
10	0x3f05bc8a	0.5224081
11	0x3ebd32c5	0.36952797
12	0x3f0475ac	0.51742053
13	0x3f04936d	0.51787454
14	0x3ec07ea2	0.37596613
15	0x3e8b8377	0.27248737
16	0x3e3136ad	0.17306013
17	0x3e6e8133	0.23291473
18	0x3ef35811	0.47528127
19	0x3eceeaf6	0.40413636
20	0x3eb37a03	0.35054025
21	0x3f01599d	0.50527364
22	0x3ed6d886	0.4196207
23	0x3eafe073	0.3435093
24	0x3e5e69b2	0.21720007
25	0x3d155e60	0.036466956
26	0x3d80c120	0.06286836

data_bn.bias f4 [27]
0	0xbc1d5c49	-0.009604522
1	0x3ca4c25a	0.020112205
2	0xbc947449	-0.018121855
3	0xbca49c91	-0.020094188
4	0xbc360c81	-0.01111138
5	0x3bb6774b	0.00556842
6	0x3d3839bd	0.04497694
7	0x3c30fa0d	0.010801804
8	0xbbf78e84	-0.007554831
9	0xbcad8787	-0.021182789
10	0x3b62e81a	0.0034623207
11	0x3c3b158d	0.011418712
12	0xbb87448f	-0.004128046
13	0x3b4e8024	0.0031509483
14	0xbba3b119	-0.004995477
15	0x3cc0fc83	0.023557907
16	0x3d364b87	0.044505622
17	0x3d1dc71c	0.038519964
18	0x3b31d67f	0.0027135906
19	0xbc1b15a2	-0.009465607
20	0xbc549081	-0.012973906
21	0xbccfa3f8	-0.025346741
22	0xbce5c84c	-0.02804961
23	0x3b2f9b2d	0.0026795373
24	0x3c6ffaa0	0.014647156
25	0x3c80d359	0.015725778
26	0x3b84f263	0.004057215

data_bn.running_mean f4 [27]
0	0x42b8bba8	92.366516
1	0x42930b93	73.522606
2	0x41ae80ab	21.812826
3	0x42cb3f7f	101.624016
4	0x42a00548	80.010315
5	0x41bad6db	23.35491
6	0x42b60ad4	91.02115
7	0x429740ef	75.62682
8	0x41b2bd3a	22.342396
9	0x42ccce99	102.40351
10	0x429b73ea	77.726395
11	0x41b3c51f	22.47125
12	0x42dc760f	110.23058
13	0x42977708	75.73248
14	0x41ae4798	21.784958
15	0x42e0054a	112.01033
16	0x42a8e6cc	84.450775
17	0x41c2f16c	24.367882
18	0x4305c2cf	133.76097
19	0x42b5618b	90.69051
20	0x41cec26b	25.84493
21	0x43057b35	133.48128
22	0x42acbbaf	86.36657
23	0x41c61399	24.75957
24	0x42d5a10f	106.81457
25	0x42b516e1	90.544685
26	0x41cd414d	25.656885

data_bn.running_var f4 [27]
0	0x464c798f	13086.39
1	0x46a15c38	20654.11
2	0x45ddc996	7097.198
3	0x46553d51	13647.329
4	0x46b0f46a	22650.207
5	0x45f4eff3	7837.9937
6	0x4623255e	10441.342
7	0x469b1304	19849.508
8	0x45dd73d0	7086.4766
9	0x4650150c	13317.262
10	0x46929d13	18766.537
11	0x45d5f3b4	6846.463
12	0x466fed04	15355.254
13	0x46874bef	17317.967
14	0x45c7f4a9	6398.5825
15	0x468c273d	17939.62
16	0x46c90301	25729.502
17	0x46071788	8645.883
18	0x46b827e5	23571.947
19	0x46cf5ff8	26543.984
20	0x460f27f9	9161.993
21	0x46b0d449	22634.143
22	0x46b6a01f	23376.06
23	0x4600e053	8248.081
24	0x468f1a6d	18317.213
25	0x46bf149e	24458.309
26	0x460792c9	8676.696

st_gcn_networks.0.gcn.conv.weight f4 [24, 3, 1, 1]
0	0xbd97e5dc	-0.07416889
1	0xbca113df	-0.019662796
2	0x3ae4dc6d	0.0017460712
3	0x3e137ebd	0.14403816
4	0xbd616fc4	-0.05503823
5	0x3d893df1	0.067012675
6	0x3da09e33	0.07842674
7	0x3b16ef37	0.0023030767
8	0x3d4553d5	0.04817565
9	0xbd152dbc	-0.03642057
10	0xbcacd5e8	-0.021098092
11	0x3e082900	0.1329689
12	0x3cecf66b	0.028926095
13	0xbc77a2e9	-0.015114524
14	0xbe67da02	-0.22641757
15	0x3e59a24b	0.21253316
16	0x3e99ac0a	0.30014068
17	0x3d96c21e	0.07361244
18	0xbe6928c1	-0.22769453
19	0x3e2bfd79	0.16795911
20	0x3da04aa3	0.07826736
21	0xbe42720a	-0.18988815
22	0x3d88e30a	0.06683929
23	0xbe0a48d3	-0.13504343
24	0xbd3f886e	-0.04676097
25	0xbd721aa2	-0.05910743
26	0xbcaf5a68	-0.021405414
27	0xbe8091a3	-0.25111112
28	0xbdb00c03	-0.08596041
29	0x3d257c26	0.0404016
30	0x3e26441b	0.16236918
31	0xbcb527dd	-0.022113735
32	0xbc8ea6d7	-0.01741354
33	0xbe0c7bef	-0.13719152
34	0xbe0ad53e	-0.13557908
35	0x3ba9606b	0.0051689646
36	0xba2ff508	-0.0006712233
37	0xbc85d5f0	-0.016337365
38	0x3e487c05	0.1957856
39	0xbd2b49f8	-0.04181859
40	0xbe7363a0	-0.23768473
41	0xbe077a71	-0.13230301
42	0x3d69f580	0.057118893
43	0x3d899979	0.06718726
44	0x3d5e840b	0.054325145
45	0x3e34398f	0.17600082
46	0xbdca43f1	-0.0987624
47	0x3e2aa9dd	0.1666636
48	0xbba65e88	-0.005077187
49	0xbc1b9d53	-0.009497958
50	0x3b5e4636	0.003391636
51	0xbd19f7d1	-0.03758985
52	0xbcfd5845	-0.03092588
53	0xbd8d6eb5	-0.06905881
54	0x3e267fdc	0.16259712
55	0xbca4ea70	-0.02013132
56	0x3d11f07c	0.035629734
57	0xbd2bb353	-0.041919064
58	0xbcc6f60c	-0.024287246
59	0x3bdadf6e	0.006679467
60	0xbe58ae4a	-0.21160236
61	0x3c86f345	0.016473422
62	0xbc848409	-0.01617624
63	0x3d39f007	0.045394924
64	0xbd6822b1	-0.05667371
65	0x3de8de00	0.11370468
66	0x3d5875a0	0.05284655
67	0xbd4d05b3	-0.050054263
68	0xbc2bc433	-0.010483789
69	0xbddafc24	-0.10692623
70	0x3e183631	0.14864422
71	0x3d4e39ad	0.050347973

st_gcn_networks.0.gcn.conv.bias f4 [24]
0	0x3cce54b6	0.025186878
1	0x3d5377e6	0.051628016
2	0x3d64c9e9	0.05585662
3	0x3da1c8da	0.078996375
4	0xbc511e2c	-0.012763541
5	0xbe385f2e	-0.18005058
6	0xbc09044d	-0.008362842
7	0x3e002949	0.12515749
8	0xbd9327f6	-0.07185356
9	0x3c994171	0.018707963
10	0x3db3a586	0.087718055
11	0xbcf90c97	-0.030401511
12	0x3cba30f5	0.022728423
13	0x3e0edd22	0.13951543
14	0x3e2ad3e0	0.16682386
15	0xbc724704	-0.014787439
16	0xbc4e4ff8	-0.012592308
17	0xbe240345	-0.16016872
18	0x3ce50c3e	0.02795994
19	0xbd84a264	-0.06476286
20	0x3d2599c2	0.040429838
21	0x3ce7cdf2	0.028296445
22	0xbcccd085	-0.025001774
23	0x3ba9f925	0.005187171

st_gcn_networks.0.tcn.0.weight f4 [8]
0	0x3e285387	0.16438113
1	0x3ea7d032	0.32776028
2	0x3ec8174d	0.39080277
3	0x3e95c2a3	0.2925006
4	0x3e82117f	0.25403973
5	0x3eaee156	0.34156293
6	0x3eb0682a	0.3445447
7	0x3eb5393f	0.35395238

st_gcn_networks.0.tcn.0.bias f4 [8]
0	0x3d3aeda5	0.04563679
1	0x3d258a3b	0.04041503
2	0x3d28cb07	0.041209247
3	0x3ca969cf	0.020680336
4	0xbd09b6cf	-0.033621605
5	0x3d51b849	0.05120114
6	0xbc04be43	-0.008102003
7	0xbd272df2	-0.0408153

st_gcn_networks.0.tcn.0.running_mean f4 [8]
0	0xbbb18c69	-0.0054183495
1	0x3aa27160	0.0012393408
2	0x3c982dc0	0.018576503
3	0x3b80d08d	0.003931111
4	0x3b38fb51	0.0028225968
5	0xbbceac47	-0.006307158
6	0x3c8a2d9a	0.016867448
7	0x3c76bccf	0.015059664

st_gcn_networks.0.tcn.0.running_var f4 [8]
0	0x390ea5e4	0.00013603974
1	0x39752823	0.00023379973
2	0x39b12134	0.0003378481
3	0x399a4eac	0.00029431784
4	0x37a643f9	1.9820394e-05
5	0x3983ed65	0.0002516314
6	0x39df91e4	0.00042642571
7	0x38937a3f	7.032276e-05

st_gcn_networks.0.tcn.2.weight f4 [8, 8, 9, 1]
0	0xbcb58c5c	-0.022161655
1	0xbc565504	-0.013081793
2	0x3c1dd6ca	0.009633729
3	0xbbe4bf0a	-0.0069807814
4	0x3b93e572	0.004513436
5	0xbccf0213	-0.025269544
6	0x3a6a799a	0.00089445116
7	0xbc09af9e	-0.008403687
8	0x3c2e669b	0.01064458
9	0x3ce3565e	0.027751144
10	0xbd5a6cee	-0.05332654
11	0xbccf423e	-0.025300141
12	0xbbb452de	-0.0055030426
13	0xbc42854b	-0.0118726
14	0x3cc2907f	0.023750542
15	0x3c7281fd	0.014801499
16	0xb9977b73	-0.0002889294
17	0xbc7944f1	-0.015214191
18	0x3d36523c	0.04451202
19	0x3d732c36	0.059368335
20	0x3cd0bc86	0.02548052
21	0x3d70f089	0.058823142
22	0xbc838c8b	-0.016058227
23	0x3dbf72b4	0.0934805
24	0xbd77fe45	-0.060545225
25	0x3cdc7212	0.026909862
26	0xbd6e5f74	-0.0581965
27	0x3c11860d	0.008882058
28	0xbc9ab671	-0.018885823
29	0x3d6a6771	0.057227556
30	0xbb60fa6b	-0.0034328948
31	0x3c479b25	0.012182985
32	0x3cdb6c26	0.026784968
33	0x3cb74eec	0.0223765
34	0x3d14b641	0.036306623
35	0x3c87a902	0.016560081
36	0xbd70e447	-0.058811452
37	0xbd02efd0	-0.031966984
38	0x3cca22fb	0.024674883
39	0xbcbf55d1	-0.02335635
40	0xbcf6a9d7	-0.030110283
41	0x3caf8af0	0.021428555
42	0x3cae72c4	0.021294959
43	0xbd2a4ac9	-0.041575227
44	0x3c54d8f8	0.0129911825
45	0xbcf47981	-0.029843094
46	0x3c2e8bb0	0.010653421
47	0x3c2e96b8	0.010656051
48	0x3cc9045a	0.024538208
49	0x3ce520ee	0.027969804
50	0x3c518899	0.012788915
51	0x3ad58af2	0.0016292019
52	0x3c434207	0.011917598
53	0x3c9746b2	0.018466327
54	0x3cdf3ffb	0.027252188
55	0x3cf6e17c	0.030136816
56	0x3bc186ea	0.0059059756
57	0xbd20d293	-0.03926332
58	0xbcf24ca4	-0.02957756
59	0xbc63f762	-0.013913961
60	0xbcfcd175	-0.030861596
61	0x3d6a89fd	0.057260502
62	0xbc979f4a	-0.018508572
63	0xbcfa8fac	-0.030586086
64	0xbdde42cd	-0.10852585
65	0xbb323151	-0.002719004
66	0xbd8c3661	-0.068463095
67	0x3b18e612	0.0023330492
68	0xbd9770d9	-0.07394571
69	0xbc7e5214	-0.015522499
70	0xbccc2030	-0.024917692
71	0x3b47d4e7	0.003049189
72	0x3c9aef8c	0.018913053
73	0xbc70e6ab	-0.014703433
74	0xbbb700ba	-0.0055848034
75	0x3b0c9c27	0.0021455379
76	0x3cbfeba0	0.023427784
77	0x3c199da0	0.00937596
78	0x3d38d2e0	0.04512298
79	0x3bec5ffc	0.0072135907
80	0xbb80ad20	-0.003926888
81	0x3ccec39f	0.025239764
82	0x3c6507ba	0.013978893
83	0x3d139a50	0.036035836
84	0x3b47fe03	0.0030516393
85	0xbc8a1a69	-0.016858296
86	0x3bccd4d9	0.0062509594
87	0x3cf34627	0.029696537
88	0xbc0e88bf	-0.008699595
89	0x3cf82769	0.03029223
90	0x3d009cab	0.03139941
91	0x3d967e37	0.07348292
92	0x3da3b540	0.07993555
93	0x3a0b4674	0.00053129275
94	0xbca0d26e	-0.01963159
95	0xbd6c21b9	-0.057649348
96	0xbc271a7e	-0.010199187
97	0x3cab7fd8	0.020934984
98	0xbc2b35a1	-0.010449798
99	0x3d4ddf51	0.0502618
100	0xbcec897f	-0.028874157
101	0x3c936774	0.017993666
102	0x3c5bae29	0.013408222
103	0x3cc0d76c	0.023540221
104	0x3c89b974	0.016812064
105	0x3d20cfca	0.039260663
106	0xbcd09134	-0.025459863
107	0xbc41d594	-0.011830706
108	0x3ca9da8e	0.020734098
109	0xbc21a06b	-0.009864907
110	0x3ceb5244	0.02872575
111	0x3c849d63	0.01618833
112	0x3ca710fc	0.020393841
113	0xbcea6bbc	-0.028615825
114	0x3d39b487	0.04533818
115	0x3d7912ff	0.06080913
116	0x3c9accc8	0.018896475
117	0xbca7cec6	-0.02048434
118	0x3d00337a	0.031299092
119	0x3c6c7aeb	0.014433603
120	0xbd1b5773	-0.037925195
121	0x3c905502	0.01761866
122	0xbcf884ab	-0.030336699
123	0xbd2bfcf0	-0.041989267
124	0xbc9f694f	-0.019459395
125	0xbc923702	-0.017848495
126	0xbd840e84	-0.06448081
127	0xbd2b2db9	-0.04179165
128	0xbd8eec56	-0.06978671
129	0xbd3b57ed	-0.04573815
130	0xbcae2641	-0.021258475
131	0x3d1cfca5	0.038326878
132	0x3d061dcd	0.032743264
133	0xbd1b8407	-0.037967708
134	0x3d56efff	0.05247497
135	0x3ce69373	0.028146481
136	0xbd5fa061	-0.05459631
137	0xbc9bbd9b	-0.01901131
138	0xbab92bf9	-0.0014127485
139	0x3cb930d5	0.022606293
140	0xbd259633	-0.040426444
141	0x3c9e0f28	0.019294336
142	0xbccc50a3	-0.024940794
143	0xbcdba2cf	-0.026811032
144	0xbc812244	-0.01576341
145	0xbb6ccb9a	-0.0036132098
146	0xbc2640ec	-0.0101473145
147	0x3d51af48	0.05119255
148	0xbc82381d	-0.015895898
149	0xbbfc7d9e	-0.0077054044
150	0x3c9c21fd	0.019059176
151	0xbcb66c68	-0.022268489
152	0xbcab538c	-0.020913862
153	0xbb82f602	-0.0039966116
154	0xbbebd664	-0.007197188
155	0xbc1b8745	-0.0094927
156	0x3cd97515	0.026545087
157	0xbce95b9b	-0.028486064
158	0x3bb69857	0.0055723595
159	0x3c88f4d0	0.016718298
160	0xbd0ed175	-0.034867723
161	0x3bc8493a	0.006112245
162	0x3d87e831	0.06636084
163	0xbb9fc993	-0.0048763244
164	0x3c16d239	0.009205394
165	0xbd9d3438	-0.076759756
166	0x3d587b6e	0.052852087
167	0xbb830ea5	-0.0039995485
168	0x3d379f6c	0.04482977
169	0xbd894bff	-0.06703948
170	0x3d0f8bce	0.035045438
171	0x3cd395ed	0.025828326
172	0xbd173d32	-0.036923595
173	0xbd0b7500	-0.034047127
174	0x3cf4c0e1	0.029877128
175	0x3c65444b	0.013993333
176	0xbd1336b4	-0.03594084
177	0x3ab6278f	0.0013897287
178	0xbd1b6fd7	-0.037948456
179	0x3cb67577	0.022272808
180	0xbab3e67c	-0.0013725306
181	0x3c3de444	0.011590067
182	0x3d3e69b9	0.046487544
183	0x3c2320e3	0.009956571
184	0xbd841ddb	-0.06451007
185	0xbc6e82eb	-0.01455758
186	0xbce5bf66	-0.028045367
187	0xbc7a20c5	-0.015266602
188	0x3b8269ee	0.003979913
189	0xbd26992d	-0.040673424
190	0xbd8ba883	-0.068192504
191	0x3d8393ad	0.06424651
192	0xbd45475a	-0.04816375
193	0xbd4bdadd	-0.04976927
194	0x3bb1d7cc	0.0054273363
195	0x3d21c9f8	0.039499253
196	0xbd2ef0c9	-0.0427101
197	0x3da2bc42	0.079460636
198	0x3c76a724	0.015054498
199	0xbd03a3c5	-0.032138605
200	0xbd8c8300	-0.06860924
201	0x3d4a3ee5	0.049376387
202	0x3dbb9d6c	0.09160885
203	0x3ca00bb0	0.019536823
204	0xbd0f6cfc	-0.035016045
205	0x3d0818fb	0.03322695
206	0x3d43d326	0.04780879
207	0xbd428d16	-0.04749783
208	0xbcd37cee	-0.025816407
209	0xbd9a364d	-0.07529888
210	0x3d0d3305	0.034472484
211	0x3b29a9df	0.0025888605
212	0x3d695aa5	0.05697121
213	0xbd325b8e	-0.043544345
214	0xbd0af535	-0.033925254
215	0xbcabd6c7	-0.020976437
216	0xbb98317b	-0.0046445704
217	0xba43ecf5	-0.0007473969
218	0x3c6d987c	0.014501687
219	0x3c568a52	0.013094502
220	0x3c9ee17e	0.019394632
221	0xbc596b7b	-0.013270254
222	0xbb88aa04	-0.004170658
223	0xbc4e2d17	-0.012583992
224	0x3c48e576	0.012261739
225	0xbb9cd782	-0.0047864327
226	0x3c8956c1	0.016765
227	0xbc9b4f02	-0.018958572
228	0xbc1f255d	-0.009713498
229	0x3d19713e	0.03746151
230	0x3d0666af	0.03281277
231	0x3cd44ff0	0.025917023
232	0xb89356c7	-7.02567e-05
233	0x3d0d663e	0.034521334
234	0x3c5e293e	0.013559638
235	0x3bfac96d	0.0076534064
236	0xba84b131	-0.0010123608
237	0xbc52cdf1	-0.012866483
238	0xbbc6f6b2	-0.006071889
239	0xbbdd0d57	-0.006745975
240	0x3c5327e5	0.01288793
241	0x3baad736	0.0052136434
242	0xbd4de876	-0.05027052
243	0x3c2ce2db	0.010552133
244	0xbd1c1f31	-0.038115684
245	0xbd27084b	-0.040779393
246	0xbd3b3dd5	-0.045713264
247	0xbd20add8	-0.03922829
248	0xbc74c0f5	-0.014938583
249	0xbd0d041c	-0.034427747
250	0xbd05e116	-0.03268536
251	0x3c777af2	0.015104996
252	0xbb2c0c6c	-0.0026252521
253	0xbd3d933f	-0.046283003
254	0x3bb33ae2	0.005469666
255	0x3cef99d4	0.029248156

st_gcn_networks.0.tcn.2.bias f4 [8]
0	0x381965ab	3.657273e-05
1	0x37b5f28c	2.1689826e-05
2	0x3755c9b1	1.2742749e-05
3	0x3786839d	1.6035332e-05
4	0xb773f5f1	-1.4541191e-05
5	0x37d8bc20	2.5836809e-05
6	0x38a3e979	7.815933e-05
7	0x36c15fd7	5.7630054e-06

st_gcn_networks.0.tcn.3.weight f4 [8]
0	0x3eb1dbd8	0.3473804
1	0x3e9f8450	0.31155634
2	0x3e8eb5d1	0.2787309
3	0x3e6a92b4	0.22907525
4	0x3e5409bc	0.20706838
5	0x3eaa9a35	0.33320776
6	0x3ebd37fc	0.36956775
7	0x3e9f4bc3	0.3111249

st_gcn_networks.0.tcn.3.bias f4 [8]
0	0xbd363e41	-0.044492964
1	0xbb1acb44	-0.002361969
2	0x3d478ad4	0.04871638
3	0x3c941e6b	0.01808091
4	0xbc924b7a	-0.017858256
5	0x3c7faaaa	0.015604654
6	0x3ce9ff28	0.02856405
7	0xbc61a0ac	-0.013771217

st_gcn_networks.0.tcn.3.running_mean f4 [8]
0	0x3b9706f2	0.0046089822
1	0x3c76cf02	0.015064003
2	0xbc8c8498	-0.01715307
3	0xbd1834fc	-0.037159905
4	0x3cec3afe	0.028836723
5	0x3d16f76d	0.036857057
6	0xbbf3b3d6	-0.0074372096
7	0x3c259bee	0.010107977

st_gcn_networks.0.tcn.3.running_var f4 [8]
0	0x3bcf16a3	0.006319837
1	0x3b697775	0.003562418
2	0x3afdb6dc	0.0019356865
3	0x3a85f2d1	0.001021946
4	0x3ad8d1f1	0.001654206
5	0x3b835ca9	0.0040088487
6	0x3ba83f55	0.005134503
7	0x3b640db4	0.0034798207

st_gcn_networks.1.gcn.conv.weight f4 [24, 8, 1, 1]
0	0xbcc6fddd	-0.024290973
1	0xbd285ecc	-0.04110603
2	0x3d6e6143	0.058198225
3	0x3d6650ec	0.056229517
4	0xbc6d0cea	-0.014468411
5	0x3c2ffcb0	0.010741398
6	0x3be8bfef	0.0071029584
7	0x3d291f0f	0.041289385
8	0xbbd7c3ec	-0.006584635
9	0xbca54cd3	-0.020178234
10	0x3dad93d3	0.08475461
11	0xbd0850b4	-0.03328009
12	0x3cf16739	0.029468166
13	0xbcbdb6e0	-0.02315849
14	0x3d8aa68d	0.06770048
15	0x3cac4ae0	0.021031797
16	0x3d8aee3f	0.06783723
17	0xbd6b8efc	-0.057509407
18	0xbcfcb3a1	-0.030847372
19	0x3da43504	0.080179244
20	0x3d89abd5	0.067222275
21	0x3d942965	0.07234458
22	0xbd01e5b1	-0.03171319
23	0xbc9c8cce	-0.01911011
24	0x3bf1c7fe	0.0073785773
25	0xbd01d07c	-0.031692967
26	0xbd09f74d	-0.03368311
27	0xbcda5a6f	-0.02665445
28	0xbd8f63e8	-0.070014775
29	0xbdbfc653	-0.09363999
30	0x3d298fe7	0.041397
31	0xbdc87c50	-0.09789336
32	0xbce4edf2	-0.027945492
33	0x3bc6017f	0.006042659
34	0x3d9acc1a	0.075584605
35	0xbd5dbe20	-0.054136395
36	0x3ca0c2db	0.019624164
37	0x3c7394e1	0.0148670385
38	0x3d0addf3	0.033903074
39	0xba53bc98	-0.0008077114
40	0x3c0e579b	0.008687879
41	0xbdb459bd	-0.08806179
42	0x3cff35a7	0.031153513
43	0xbd8bea63	-0.06831815
44	0xbc1fbba1	-0.009749324
45	0x3b80d2b1	0.0039313664
46	0xbda44d8d	-0.08022604
47	0x3c04a55a	0.0080960635
48	0xbcfbe61b	-0.030749371
49	0xbc94d99a	-0.018170167
50	0x3d57b2c4	0.05266072
51	0x3b053813	0.0020327612
52	0x3ca657c6	0.020305526
53	0x3ca24727	0.019809319
54	0xbd39bc12	-0.045345373
55	0xbcb48e51	-0.022040518
56	0xbcae1f2f	-0.021255104
57	0xbbf95b39	-0.0076097515
58	0xbc8fd90c	-0.01755955
59	0xbd0a050e	-0.033696227
60	0xbc28b8f6	-0.010298004
61	0x3d72f68f	0.059317168
62	0x3baeb8bc	0.0053320806
63	0x3d999adb	0.075002395
64	0xbcc91e95	-0.024550715
65	0x3d8d380a	0.06895454
66	0x3be77448	0.0070634224
67	0xbd17baa3	-0.037043225
68	0xbd749be1	-0.05971897
69	0x3b583aff	0.0032994149
70	0x3d9b90f5	0.07596008
71	0x3dcddd7e	0.10052012
72	0xbd643d51	-0.05572254
73	0xbbad3526	-0.005285877
74	0xbd69de23	-0.05709661
75	0xbcfdc1bd	-0.03097617
76	0xbbdbe619	-0.0067107794
77	0xbcf06d6b	-0.02934905
78	0x3d57903a	0.05262778
79	0x3ac68b40	0.0015147701
80	0x3c4bbbce	0.012434913
81	0xbc2c36c0	-0.0105111
82	0x3d5b9fb9	0.05361912
83	0xbd463f67	-0.04840031
84	0xbd4a15e9	-0.0493373
85	0xbdc50d14	-0.09621635
86	0x3dd68935	0.10475389
87	0xbd496f3c	-0.049178347
88	0xbca7e1e3	-0.020493453
89	0x3dffa0de	0.12481855
90	0x3d9478e0	0.072496176
91	0x3c905c6f	0.0176222
92	0xbd705327	-0.05867305
93	0x3d8d28f4	0.06892577
94	0xbd1f3329	-0.03886715
95	0xbdc70809	-0.097183295
96	0xbd17fc02	-0.037105568
97	0xbccff77e	-0.025386568
98	0x3d925470	0.071450114
99	0x3d20becc	0.039244458
100	0x3ae212af	0.0017248
101	0x3c84651a	0.01616149
102	0xbcd3ae6c	-0.025840007
103	0x3d195744	0.03743674
104	0x3daf181e	0.08549522
105	0xbd433d88	-0.047666103
106	0x39138752	0.00014069423
107	0xbd65bbcb	-0.056087296
108	0x3ce19957	0.027538938
109	0xbda8eacc	-0.08247909
110	0x3da6905a	0.081330016
111	0x3d63d6e7	0.05562487
112	0xbd987117	-0.07443445
113	0xbddea04a	-0.108704165
114	0x3d2af64d	0.041738797
115	0x3d3c0899	0.045906637
116	0xbd92eec4	-0.07174447
117	0xbd448c0b	-0.047985118
118	0x3ce6f962	0.028195087
119	0x3d99a110	0.07501423
120	0x3cef7b9b	0.029233744
121	0x3c677f77	0.014129511
122	0xbc56d7cc	-0.013112973
123	0xbc1b602e	-0.00948338
124	0x3a9fd6d8	0.0012194766
125	0x3c491225	0.012272392
126	0x3d098269	0.033571634
127	0xbbe4332f	-0.0069641094
128	0xbc365ed8	-0.011131011
129	0xbc42bc88	-0.01188577
130	0x3c8a8729	0.016910153
131	0x3d8c3356	0.06845729
132	0xbc43c3c5	-0.011948531
133	0x3d370c1b	0.04468928
134	0xbd65e769	-0.056128893
135	0xbc053cf6	-0.00813221
136	0x3d4c71b8	0.04991314
137	0x3c31822e	0.01083426
138	0x3cbce622	0.023058955
139	0xbce6cbf7	-0.02817343
140	0xbb5f6eca	-0.0034093135
141	0x3d4baf3d	0.049727667
142	0x3da628b9	0.08113236
143	0x3d01f9af	0.031732257
144	0x3a0b77d9	0.0005320288
145	0x3ccfc66d	0.025363171
146	0xbc9879c0	-0.018612742
147	0xbd540ac1	-0.05176807
148	0x3ae5d8ce	0.0017535926
149	0xbd60cdc1	-0.054883722
150	0x3d86c6a3	0.06580856
151	0x3cd2851a	0.025698233
152	0x3d9b32a8	0.07578021
153	0xbcdab192	-0.026696
154	0xbca63d3b	-0.020292869
155	0xbd45504e	-0.048172288
156	0xbca31c9b	-0.019911101
157	0xbce7dec5	-0.028304467
158	0x3e1b586a	0.15170446
159	0xba75b703	-0.0009373279
160	0x3c0edba6	0.00871936
161	0xbbc286ba	-0.005936471
162	0x3c9f28f3	0.019428706
163	0xbd634f09	-0.055495296
164	0x3ca11a42	0.019665841
165	0xbb5c01b6	-0.0033570356
166	0x3c257728	0.01009921
167	0xbb273ef5	-0.0025519703
168	0xbd0991a4	-0.03358616
169	0xbd1b6727	-0.03794017
170	0xbcdb5ff6	-0.026779156
171	0x3afca70d	0.0019275859
172	0xbd58b7a7	-0.05290952
173	0xbd6ab7bd	-0.057304133
174	0xbd0b427a	-0.033998944
175	0x3b659b3f	0.003503516
176	0x3d908142	0.07055904
177	0x3d1b9373	0.037982415
178	0x3d0dbb0c	0.03460221
179	0xbdcbdfca	-0.09954794
180	0x3d6fdade	0.058558337
181	0x3d24412a	0.040101208
182	0xbb5885fe	-0.003303885
183	0xbcc73a6d	-0.024319852
184	0xbb650833	-0.0034947514
185	0xbcf9e3cf	-0.030504135
186	0x3d204fb2	0.039138503
187	0x3b3d35c7	0.0028871165
188	0xbb4f3163	-0.003161513
189	0xbd17f0e4	-0.037094966
190	0xbb8a2615	-0.0042159655
191	0x3d9ec1ba	0.07751794

st_gcn_networks.1.gcn.conv.bias f4 [24]
0	0xb85aaba5	-5.2135107e-05
1	0x3c3e8dfd	0.011630532
2	0xbc64464b	-0.013932775
3	0x3d21502f	0.03938311
4	0x3c0c3820	0.008558303
5	0xbb95793a	-0.0045615705
6	0x3b0ff69d	0.0021967061
7	0x3a602271	0.0008550054
8	0xbd95cb3d	-0.07314155
9	0xbad72e06	-0.0016416914
10	0x3c6a0889	0.0142842615
11	0x3aec0c1d	0.0018008981
12	0xbd54168c	-0.051779315
13	0x3c577264	0.013149831
14	0x3d5732d1	0.052538697
15	0xbbaf1c85	-0.005343976
16	0xbc155c7b	-0.009116287
17	0xbd1b5bcc	-0.03792934
18	0x3b836ae3	0.0040105446
19	0x3c8315d2	0.016001616
20	0x3c278d3b	0.010226543
21	0xbcc4b2c8	-0.02401103
22	0x3cc39f94	0.023879804
23	0xbc13002f	-0.008972212

st_gcn_networks.1.tcn.0.weight f4 [8]
0	0x3e6b7677	0.2299441
1	0x3e45b104	0.19305807
2	0x3e919771	0.28435853
3	0x3e99f316	0.30068272
4	0x3e25876f	0.16164945
5	0x3e75536d	0.23957606
6	0x3e8d141a	0.275544
7	0x3e651f85	0.22375305

st_gcn_networks.1.tcn.0.bias f4 [8]
0	0xbd01124b	-0.031511586
1	0x3b98297a	0.0046436163
2	0x3ca4c7c0	0.02011478
3	0x3c20b12b	0.009807865
4	0xbc88a55e	-0.016680416
5	0xbc38bbb3	-0.01127522
6	0xbd098867	-0.03357735
7	0xbcb486c0	-0.02203691

st_gcn_networks.1.tcn.0.running_mean f4 [8]
0	0xbae16053	-0.0017194845
1	0x398550a0	0.00025427807
2	0x395f77e8	0.00021311606
3	0x3ac9d44c	0.0015398352
4	0xbac93184	-0.001534984
5	0xba8ab21f	-0.0010581649
6	0x3b23a286	0.0024968698
7	0x3a1b8e61	0.0005933997

st_gcn_networks.1.tcn.0.running_var f4 [8]
0	0x36b8ff8c	5.513377e-06
1	0x36ba8a75	5.5593505e-06
2	0x378dc138	1.6898484e-05
3	0x37347fbf	1.0758579e-05
4	0x36f1c56b	7.205342e-06
5	0x36cc1dde	6.0831508e-06
6	0x37797f83	1.4871245e-05
7	0x36cbf07d	6.077868e-06

st_gcn_networks.1.tcn.2.weight f4 [8, 8, 9, 1]
0	0xbc257bc9	-0.010100313
1	0xbb0d1d5d	-0.0021532394
2	0x3bd66443	0.006542714
3	0xbc4de84c	-0.012567591
4	0xbc72c4b5	-0.014817406
5	0xbd0a6f19	-0.033797357
6	0xbad65a94	-0.0016353899
7	0x3c182a00	0.009287357
8	0x3d25385f	0.040336963
9	0xbd3b6683	-0.04575206
10	0x3c0586ec	0.008149844
11	0x3d05965e	0.032614104
12	0x3c2086f6	0.009797802
13	0xbd257143	-0.040391218
14	0xbcbb57f3	-0.022869086
15	0x3c915060	0.017738521
16	0x3cc67aa5	0.024228403
17	0xbc4e4ce9	-0.012591579
18	0x3c15305b	0.009105767
19	0xbc77c770	-0.015123233
20	0x3d38b8f5	0.045098264
21	0xbc48d623	-0.012258085
22	0x3bf0adba	0.0073449286
23	0xbbf1afe7	-0.0073757055
24	0x3d31782e	0.043327503
25	0xbcf07fe2	-0.029357854
26	0xbd3c416d	-0.045960832
27	0x3c6e032c	0.014527123
28	0x3c68a7f0	0.014200196
29	0x3cbcd871	0.023052426
30	0x3b6d34b5	0.0036194746
31	0x3ca03f67	0.019561483
32	0x3d2ef60c	0.042715117
33	0xbd2eee09	-0.042707477
34	0xbd2ecbd2	-0.042674847
35	0xbd29f46a	-0.041492857
36	0xbbf702f4	-0.007538194
37	0xbbece2f4	-0.0072292034
38	0xbaf10566	-0.001838845
39	0xbbb96451	-0.0056577106
40	0x3a16dde7	0.0005755112
41	0x3d2610cd	0.040543366
42	0x3c831918	0.016003177
43	0x3cace643	0.021105891
44	0x3d111f2e	0.035430126
45	0xbb863e9a	-0.004096818
46	0xbd299ea0	-0.041411042
47	0x3cf2f7fa	0.02965926
48	0x3c7f226c	0.015572172
49	0xbc85ea30	-0.01634702
50	0xbca9888a	-0.02069499
51	0xbba8006d	-0.005127004
52	0xbc85a8ea	-0.016315896
53	0xbbf298f8	-0.007403489
54	0xbc4895de	-0.012242762
55	0x3ac2aa4e	0.001485178
56	0x3c30cff2	0.0107917655
57	0xbc8c5b9e	-0.01713353
58	0x3cf1a8d5	0.02949945
59	0x3cc231e2	0.023705427
60	0x3cc7f773	0.024409985
61	0xb9b821d2	-0.00035120413
62	0x3b5131b7	0.0031920501
63	0x3c6f66db	0.014611925
64	0x3aac4456	0.0013142924
65	0xbd519a5d	-0.051172603
66	0xbd4de190	-0.05026394
67	0x3cd61bb3	0.026136255
68	0xbca91c1a	-0.020643283
69	0xbc2c22f2	-0.0105063785
70	0x3bdfe8f9	0.0068331924
71	0xbb570538	-0.0032809507
72	0xbb9f3b42	-0.004859359
73	0xbd0afecc	-0.0339344
74	0x3b8857bb	0.004160849
75	0xbb5fd6d1	-0.003415514
76	0xbc7ac2a4	-0.015305195
77	0xbd2e3672	-0.04253239
78	0x3bab124c	0.005220687
79	0x3c973cd8	0.01846163
80	0xbd3a837b	-0.045535546
81	0xbd1462cd	-0.036227036
82	0xbc41f491	-0.011838094
83	0xbbdca1db	-0.006733162
84	0xbd89cf56	-0.06728999
85	0x3cbdeda3	0.023184603
86	0x3bb3b71d	0.0054844753
87	0x3d1771a8	0.036973625
88	0x3bf05688	0.007334534
89	0x3d26a8e3	0.040688407
90	0xbcf96dc3	-0.030447846
91	0xbc2df016	-0.010616323
92	0x3c2f73f0	0.010708794
93	0xbbed4b10	-0.007241614
94	0x3cae1dc0	0.02125442
95	0x3d1f9c9c	0.038967714
96	0x3bd8dc9c	0.0066180956
97	0x3d4ec95a	0.050484993
98	0x3cd4c285	0.02597166
99	0x3c6ba521	0.0143826315
100	0x3d3a678b	0.045508903
101	0x3bc9df52	0.006160655
102	0x3c8d3bc6	0.017240416
103	0xbbebaa8f	-0.007191963
104	0x3d08dda8	0.033414513
105	0x3c8ba721	0.017047467
106	0xbc5e4ede	-0.013568608
107	0x3cd33925	0.025784085
108	0xbce47d14	-0.027891673
109	0x3bb349e0	0.005471453
110	0xbc3be2d1	-0.011467651
111	0xbcde4115	-0.027130643
112	0x39ae5233	0.0003324911
113	0x3bec0768	0.0072030313
114	0x3caabf9f	0.020843325
115	0xbcd24386	-0.025666963
116	0x3cbc4693	0.022982871
117	0x3c9a7afb	0.01885747
118	0xbc18942a	-0.009312669
119	0x3a945364	0.0011316356
120	0xbc16c7fd	-0.009202954
121	0xbc5dff68	-0.013549663
122	0x3ba9eb7a	0.0051855417
123	0x3baa216c	0.0051919725
124	0x3bb0c7c1	0.0053949063
125	0x3d420eae	0.04737728
126	0xbc67c99c	-0.0141471885
127	0x3ba040c1	0.0048905318
128	0x3d0e13c7	0.03468683
129	0xbce157b0	-0.027507633
130	0x3ca2ff09	0.019897
131	0xbb29ed69	-0.002592886
132	0x3cd8c439	0.026460754
133	0xbcaeee15	-0.02135376
134	0x3cef4a70	0.0292103
135	0xbc89132d	-0.016732777
136	0xbd08903e	-0.033340685
137	0xbc9b4843	-0.018955356
138	0xbc869d0d	-0.01643231
139	0xbd028367	-0.031863596
140	0x3ca38968	0.019962981
141	0x3c0c8811	0.008577363
142	0xbc6cb249	-0.014446803
143	0x3c26253a	0.010140711
144	0x3a0d7098	0.0005395501
145	0xbd75116b	-0.059831064
146	0xbcd45e54	-0.025923885
147	0xbb3c29d6	-0.002871146
148	0xbb887f9c	-0.004165603
149	0xbb1dc2c7	-0.0024072395
150	0x3b143a63	0.002261781
151	0xbd285401	-0.041095737
152	0xbd50a011	-0.0509339
153	0x3d0dcdd7	0.034620132
154	0xbd02ff7b	-0.031981926
155	0xbc8f0f04	-0.017463215
156	0x3a97300a	0.0011534702
157	0xba1a405c	-0.0005884224
158	0xbc8f43d4	-0.017488398
159	0xbca92b23	-0.020650452
160	0x3c3b804c	0.011444163
161	0xba6869a4	-0.00088658393
162	0x3d2102f8	0.03930947
163	0xbd1ad73c	-0.03780292
164	0x3c51639c	0.012780096
165	0x3d3b5256	0.04573282
166	0xbd555140	-0.05207944
167	0x3cb70109	0.02233936
168	0x3d0b620f	0.034029063
169	0x3c8db207	0.017296804
170	0x3c204a10	0.009783283
171	0xbcd6be08	-0.02621366
172	0x3d1a3b74	0.037654355
173	0xbd2d2685	-0.042273063
174	0x3c1fb255	0.0097471075
175	0xbc9f48f0	-0.019443959
176	0xbcbef0f2	-0.023308251
177	0xbd4510bf	-0.048111673
178	0x3c9ceb1e	0.019155081
179	0xbc1593bb	-0.00912946
180	0x3bb6d5b7	0.005579676
181	0x3cce36f5	0.02517269
182	0xbc6cce41	-0.014453472
183	0x3d34e780	0.044166088
184	0xbc3b4404	-0.01142979
185	0xbc4b618f	-0.0124133965
186	0x3c697e9c	0.014251377
187	0xbce9faa7	-0.028561903
188	0xbc498034	-0.012298632
189	0x3c2753ac	0.01021282
190	0xbc9f6e0e	-0.019461658
191	0x3d3c10d5	0.04591449
192	0xbbcec33d	-0.0063098953
193	0x3b4c56fe	0.003117978
194	0xbd25be43	-0.04046465
195	0x3ab88ac5	0.0014079442
196	0xbd898dd6	-0.06716506
197	0xbd35bc4d	-0.04436903
198	0xbc145bf7	-0.009055129
199	0xbbba5cb6	-0.0056873215
200	0x3cbbaaf0	0.022908658
201	0x3d5f348d	0.054493476
202	0xbc0732f0	-0.008251891
203	0xbc2c923b	-0.010532911
204	0x3c35fadc	0.011107173
205	0x3ca787fe	0.020450588
206	0x3d6c7306	0.057726882
207	0x3bc4711d	0.0059949295
208	0x3d06dbce	0.032924466
209	0x3cc83417	0.0244389
210	0xbc481d87	-0.012214071
211	0x3c608437	0.0137033975
212	0xbcb62f4e	-0.022239354
213	0x3b813337	0.003942873
214	0xbb68cdfe	-0.0035523172
215	0xbc4bb143	-0.012432399
216	0xbc290da7	-0.010318196
217	0xbc4848c7	-0.012224383
218	0x3d38d955	0.04512914
219	0xbcca1965	-0.024670312
220	0xbd067fe3	-0.032836806
221	0xbaad3f60	-0.001321774
222	0xbd0d2bff	-0.034465786
223	0xbd796518	-0.060887426
224	0x3cdf50ff	0.027260302
225	0x3d434710	0.047675192
226	0x3bc74562	0.006081269
227	0x3c0f6ef8	0.008754484
228	0x3c8adb66	0.01695032
229	0x3d16e18e	0.0368362
230	0xbad4d105	-0.0016236609
231	0xbd035e03	-0.03207208
232	0xbd0eff76	-0.034911595
233	0x3c2f3541	0.010693849
234	0x3c06be2b	0.0082240505
235	0x3bcc9bcd	0.006244159
236	0x3ce1b48d	0.027551914
237	0xbcec6b07	-0.028859628
238	0x3c94fe1b	0.018187573
239	0xba5939be	-0.00082864973
240	0x3bf789c2	0.007554264
241	0x3b526a51	0.0032106827
242	0x3d27fb0d	0.041010905
243	0xbc048a85	-0.008089666
244	0xbb125ce8	-0.0022333208
245	0xbcc58494	-0.02411107
246	0x3cd930a7	0.026512457
247	0xbb88163e	-0.004153042
248	0xbcdf17d4	-0.027233042
249	0xbb715155	-0.003682216
250	0x3cb25cd5	0.021772781
251	0xbd5a5ce0	-0.05331123
252	0x3c743077	0.014904133
253	0xbaca352a	-0.0015427221
254	0xbc48fce5	-0.012267326
255	0xbcfec082	-0.031097654

st_gcn_networks.1.tcn.2.bias f4 [8]
0	0x38824af4	6.212844e-05
1	0x385f8806	5.3294025e-05
2	0xb6f36bb8	-7.2545045e-06
3	0xb85da6c3	-5.2845815e-05
4	0xb644210a	-2.9225507e-06
5	0x37b1bee2	2.1188931e-05
6	0x382bbad0	4.094356e-05
7	0xb80aa5ff	-3.305636e-05

st_gcn_networks.1.tcn.3.weight f4 [8]
0	0x3e572d62	0.21013406
1	0x3e8331e8	0.25624013
2	0x3e954f5e	0.29162115
3	0x3e8d483b	0.2759417
4	0x3e54ca7a	0.20780364
5	0x3e9c1734	0.30486453
6	0x3e8c92b0	0.27455664
7	0x3e41a3b1	0.189101

st_gcn_networks.1.tcn.3.bias f4 [8]
0	0x3c0a211b	0.0084307445
1	0xbc30439c	-0.010758307
2	0xbca71ef6	-0.020400506
3	0xbc9c4b8d	-0.019078994
4	0xbba929ee	-0.005162469
5	0xbba73ec2	-0.005103917
6	0xbbd725eb	-0.0065657995
7	0x3c11e3b2	0.008904384

st_gcn_networks.1.tcn.3.running_mean f4 [8]
0	0xbb503f1c	-0.0031775897
1	0x3c676f5c	0.014125671
2	0xbbc216c7	-0.0059231254
3	0x39ad238d	0.0003302362
4	0xbb428185	-0.002967925
5	0x3bfb5b43	0.0076707914
6	0xbc58750c	-0.0132115
7	0xbc3b92f4	-0.011448611

st_gcn_networks.1.tcn.3.running_var f4 [8]
0	0x39a22576	0.00030926958
1	0x3a93357a	0.0011231147
2	0x3a1698fe	0.00057448435
3	0x39c27d50	0.0003709593
4	0x39941143	0.0002824162
5	0x3a727515	0.0009249014
6	0x3a0973b9	0.0005243379
7	0x3a195a2b	0.0005849923

st_gcn_networks.1.residual.0.weight f4 [8, 8, 1, 1]
0	0xbcf65f96	-0.030074876
1	0xbd6767c5	-0.056495447
2	0xbddaed55	-0.10689799
3	0xbc873a1b	-0.016507199
4	0xbd5ab7dd	-0.053398002
5	0x3cf433e7	0.029809905
6	0x3d67e495	0.056614477
7	0xbc1155d6	-0.008870563
8	0xbd9ecc18	-0.077537715
9	0xbd282371	-0.041049425
10	0xbca57a01	-0.020199778
11	0x3b50f82f	0.003188621
12	0x3c09cff4	0.008411396
13	0x3d9eebe1	0.07759834
14	0x3dc56def	0.09640109
15	0xbdbbfa5d	-0.091786124
16	0xbe002be8	-0.12516749
17	0x3b0cf486	0.0021508052
18	0x3d8f1804	0.069870025
19	0xbc078657	-0.008271775
20	0xbd0bebc5	-0.034160394
21	0x3d663fae	0.056213073
22	0xbb122bad	-0.0022303865
23	0xbd74410b	-0.059632342
24	0x3da8830f	0.082281224
25	0x3cae1d2f	0.02125415
26	0xbd59571a	-0.053061582
27	0x388010c9	6.106642e-05
28	0xbc98594e	-0.018597271
29	0x3b709f74	0.0036716135
30	0x3d83c8d1	0.06434787
31	0x3d9b543d	0.075844266
32	0xbd74eece	-0.059798054
33	0x3d144f49	0.036208425
34	0xbd99b7b6	-0.07505743
35	0x3c7df427	0.015500105
36	0x3d263122	0.0405742
37	0xbd1c78a3	-0.038200986
38	0x3dad9e6c	0.08477482
39	0x3d78bb65	0.06072559
40	0x3deb6577	0.11493962
41	0x3d00c0a8	0.03143373
42	0x3dc36939	0.09541554
43	0xbc6cba9f	-0.014448791
44	0xbd74a485	-0.05972721
45	0xbd21b37d	-0.039477814
46	0xbceaf0b0	-0.028679222
47	0xbda5ec86	-0.08101754
48	0x3cc365f4	0.023852326
49	0x3cc6d753	0.024272596
50	0xbd9889df	-0.07448172
51	0x3cc2b105	0.02376605
52	0xbc8a9d4a	-0.016920704
53	0xbcde9585	-0.027170906
54	0xbd8d0d48	-0.06887299
55	0x3c73cb43	0.014880004
56	0xbbca01b5	-0.0061647543
57	0x3d1a8d70	0.03773254
58	0x3da687f6	0.08131401
59	0x3c25160a	0.010076055
60	0x3d7e0d55	0.062024433
61	0x3d9a90d8	0.07547158
62	0xbd9b63bd	-0.07587383
63	0xbd067a69	-0.032831583

st_gcn_networks.1.residual.0.bias f4 [8]
0	0x3836a941	4.354981e-05
1	0x370f85f9	8.554657e-06
2	0x385d8703	5.2816245e-05
3	0x370e4d1d	8.481814e-06
4	0xb834a769	-4.3071257e-05
5	0x3804f669	3.170074e-05
6	0x3828274b	4.0090916e-05
7	0x3718342a	9.072051e-06

st_gcn_networks.1.residual.1.weight f4 [8]
0	0x3e5df585	0.2167569
1	0x3e43cff3	0.19122295
2	0x3e71db8b	0.23618905
3	0x3e667d32	0.22508696
4	0x3e478f9f	0.19488381
5	0x3e6de5b4	0.23232156
6	0x3ea78ddc	0.32725418
7	0x3e137c0c	0.14402789

st_gcn_networks.1.residual.1.bias f4 [8]
0	0x3c0a211b	0.0084307445
1	0xbc30439c	-0.010758307
2	0xbca71ef6	-0.020400506
3	0xbc9c4b8d	-0.019078994
4	0xbba929ee	-0.005162469
5	0xbba73ec2	-0.005103917
6	0xbbd725eb	-0.0065657995
7	0x3c11e3b2	0.008904384

st_gcn_networks.1.residual.1.running_mean f4 [8]
0	0xbc83251d	-0.016008908
1	0xb9e76ad1	-0.00044139338
2	0xbbbab9b4	-0.005698407
3	0x3ca70bb7	0.020391328
4	0x3badf7c9	0.0053090793
5	0x3b3b253e	0.0028556134
6	0xbc62afce	-0.01383586
7	0x3c715e24	0.0147319175

st_gcn_networks.1.residual.1.running_var f4 [8]
0	0x3a1c9efd	0.0005974619
1	0x3a900f62	0.0010990913
2	0x3a21ab65	0.00061672024
3	0x3a73755b	0.00092872017
4	0x3a7b8688	0.0009594937
5	0x3a952f76	0.0011381942
6	0x3a335db3	0.00068422704
7	0x3a1a7ac5	0.0005892928

st_gcn_networks.2.gcn.conv.weight f4 [48, 8, 1, 1]
0	0x3ca6eae8	0.020375684
1	0xbd773b2e	-0.060359173
2	0x3c69a2d0	0.014260009
3	0xbd3c9c3f	-0.046047445
4	0x3d66986f	0.056297716
5	0x3c386c6e	0.01125632
6	0xbd80924a	-0.062779024
7	0xbc9aaa25	-0.01887996
8	0xbc8680d9	-0.016418861
9	0xbcb0bc90	-0.021574289
10	0xbb16d207	-0.002301337
11	0xbd1568da	-0.036476947
12	0xbc679352	-0.014134245
13	0x3c114aca	0.008867929
14	0x3cc8ee94	0.024527825
15	0xbc8d182c	-0.01722344
16	0x3cae447f	0.021272896
17	0xbc8966bf	-0.016772626
18	0x3c4a1047	0.012332982
19	0xbd3ad3d8	-0.045612186
20	0xbc9a9967	-0.018871976
21	0x3c10b2ae	0.008831663
22	0xbd0891f3	-0.033342313
23	0xbbaa0225	-0.005188244
24	0x3c80afb3	0.01570878
25	0xba1f64e8	-0.0006080405
26	0xbaaef14d	-0.001334706
27	0xbceb9bbe	-0.028760787
28	0x3bc5694f	0.0060245167
29	0xbd2a26cf	-0.041540917
30	0xbcb508aa	-0.022098858
31	0x3c00696b	0.007837634
32	0x3c3fc44d	0.011704517
33	0x3c47ce3c	0.012195166
34	0xbd0a9af4	-0.03383918
35	0x3c19b1d2	0.009380775
36	0xbd447f1c	-0.047972783
37	0x3d244e66	0.04011383
38	0xbc19b892	-0.009382384
39	0xbcc140e6	-0.023590516
40	0x3d7a1e37	0.06106397
41	0xbb9a8c85	-0.0047164583
42	0xbd8a4f06	-0.06753354
43	0xbcb8a0fb	-0.022537699
44	0x3dbb99d4	0.091602
45	0xbc99b9b7	-0.018765314
46	0xbdcab43d	-0.09897659
47	0xbcd08d47	-0.025457991
48	0xbd2809eb	-0.041025084
49	0xbda9b934	-0.08287278
50	0xbd4fcb6a	-0.0507311
51	0xbb8fd68b	-0.004389589
52	0xbd75d1e9	-0.06001464
53	0x3d5acf83	0.053420555
54	0xbda74d2a	-0.08169015
55	0x3b85d429	0.0040841294
56	0xbc10cd92	-0.008838074
57	0xbd0d4e32	-0.0344984
58	0x3d11379f	0.035453435
59	0xbb92c150	-0.004478611
60	0xbbfe1be4	-0.0077547897
61	0xbccfadda	-0.025351454
62	0x3c89b9cf	0.016812233
63	0xbbd69b7d	-0.0065492974
64	0x3b2d7408	0.0026466865
65	0xbce68e82	-0.028144125
66	0xbd19f204	-0.03758432
67	0x3c2b5ac9	0.010458657
68	0xbd5c65e1	-0.053808097
69	0x3d387996	0.04503783
70	0xbcef4961	-0.029209794
71	0xbd2032f6	-0.0391111
72	0x3a9cb17d	0.0011954751
73	0xbc600fdc	-0.013675656
74	0x3d1ebf67	0.038756754
75	0x3cb41853	0.021984255
76	0x3cd776ae	0.026301708
77	0xbd148777	-0.036262
78	0x3c870f67	0.016486837
79	0x3bb86c50	0.005628146
80	0x3c2b54ad	0.0104572
81	0xbcf5a39d	-0.029985243
82	0x3c9c7d02	0.019102577
83	0x39e54eb0	0.0004373691
84	0x3d221a97	0.03957614
85	0x3d66abc6	0.05631616
86	0x3bbfd21b	0.005853904
87	0xbca2ce41	-0.01987374
88	0x3d04b83c	0.032402262
89	0xbd1d1ab2	-0.038355537
90	0xbd2ab22b	-0.04167382
91	0x3d062423	0.032749306
92	0xbca06d3c	-0.019583337
93	0xbc495b25	-0.012289797
94	0x3cc01930	0.02344951
95	0xbd20f001	-0.039291386
96	0x3cb00d93	0.021490848
97	0xbd190ff4	-0.03736873
98	0xbbd11454	-0.006380597
99	0x3d9aa932	0.07551803
100	0xbcefcdd8	-0.029272959
101	0x3c85d9a8	0.016339138
102	0x3c9bf751	0.019038828
103	0xbb3d784f	-0.002891082
104	0x3a58ff0f	0.0008277753
105	0xbd61b8ff	-0.055108067
106	0x3d77f477	0.060535874
107	0xbc8c1f27	-0.017104698
108	0xbcc4a385	-0.024003753
109	0x3b485690	0.0030569173
110	0xbbfeda73	-0.007777506
111	0x3c082047	0.008308477
112	0xbd1068dc	-0.03525625
113	0x3ca83db6	0.020537239
114	0x3d09529a	0.03352604
115	0xbd124302	-0.035708435
116	0x3bb4febc	0.0055235308
117	0x3d38b684	0.045095935
118	0x3d0abc89	0.033871207
119	0xbbc7af1b	-0.0060938722
120	0xbcadbe40	-0.021208882
121	0x3c6cf404	0.014462475
122	0xbc86e80c	-0.01646807
123	0xbd0421e4	-0.032258883
124	0xbd44d661	-0.04805601
125	0xbbb17e8f	-0.0054166983
126	0xbb2611f3	-0.0025340288
127	0xbb125972	-0.0022331146
128	0x3d09f016	0.03367623
129	0xbd04813d	-0.032349814
130	0x3ca933a3	0.020654505
131	0xbd53e4b3	-0.051731776
132	0x3d3041f6	0.043031655
133	0x3dac327d	0.084080674
134	0x3db3a3ee	0.087715015
135	0xbd1e78cd	-0.038689423
136	0xbbfb7a93	-0.007674524
137	0xbd3855f9	-0.045003865
138	0xbccca5d0	-0.02498141
139	0xbd054930	-0.0325405
140	0xbc081980	-0.008306861
141	0x3d2213fb	0.039569836
142	0x3cd590a7	0.026069952
143	0x3c88560e	0.016642597
144	0x3ca59bc4	0.020215876
145	0x3b0bf329	0.0021354652
146	0x3d5e1b9e	0.054225557
147	0xbc4cbc06	-0.012496
148	0x3d2be3c6	0.04196527
149	0xbbc4aa44	-0.0060017426
150	0x3ca30590	0.019900113
151	0xbd2f9759	-0.042868946
152	0x3cbba30b	0.022904893
153	0x3cfcd95d	0.030865366
154	0xbbbd2c60	-0.005773112
155	0xbcd512b2	-0.026009891
156	0x3d32ff1f	0.043700334
157	0xbd3d059b	-0.046147924
158	0xbce95d5c	-0.0284869
159	0xbd2a3a05	-0.041559238
160	0x3b8d3066	0.004308748
161	0xbce48985	-0.027897606
162	0x3cc3aa28	0.023884848
163	0xbca37289	-0.019952076
164	0xbac91e04	-0.0015344028
165	0x3d0c7ba7	0.03429761
166	0x3d0d9cdf	0.034573432
167	0x3c806b89	0.015676277
168	0x3ce5e698	0.028064057
169	0x3d2050f6	0.03913971
170	0xbcabc2e4	-0.020966955
171	0xbd2fd1bd	-0.04292463
172	0x3c91b74e	0.017787602
173	0xbdc9b158	-0.09848279
174	0x3c9bd871	0.019024106
175	0xbbf0477e	-0.0073327413
176	0x3d406d80	0.046979427
177	0x3d20b23c	0.039232478
178	0xbd871302	-0.06595422
179	0x3cf1e3a5	0.029527495
180	0x3d89520a	0.06705101
181	0xbd048b26	-0.032359265
182	0xbc85ebe6	-0.016347837
183	0xbd36cd86	-0.044629596
184	0xbc5cc7e7	-0.013475395
185	0xbd6a54b3	-0.05720968
186	0x3d257caa	0.040402092
187	0x3cf94aa4	0.0304311
188	0xbd2fdd6e	-0.04293578
189	0x3d265df8	0.04061696
190	0xbc86af6d	-0.016441071
191	0x3d2b9e42	0.041898973
192	0x3d2fb362	0.042895682
193	0x3d610401	0.05493546
194	0xbccbfc01	-0.024900438
195	0x3cc1b739	0.023646938
196	0x3d5e2564	0.054234877
197	0xba497d14	-0.00076861796
198	0x3d84eb7e	0.06490229
199	0xbc9ecda8	-0.019385174
200	0xbca4c62c	-0.020114027
201	0xbc91da5f	-0.017804323
202	0xbce64122	-0.02810723
203	0x3cc15674	0.023600794
204	0xbd60d161	-0.05488718
205	0x3d51bcbd	0.051205385
206	0x3cf8db72	0.030378077
207	0xbd0973e3	-0.033557784
208	0xbc3a7ec0	-0.011382759
209	0xbd66bed0	-0.056334317
210	0xbc80929f	-0.015694914
211	0x3d23ce4c	0.039991662
212	0xbb848218	-0.0040438287
213	0x3a4a4c8a	0.00077170937
214	0x3b154bab	0.0022780697
215	0x3d4a3938	0.049370974
216	0x3d4d69cc	0.050149724
217	0x3daa4f4a	0.083159044
218	0x3c4b420a	0.012405882
219	0x3c379a1d	0.011206177
220	0xbd31e5cb	-0.04343204
221	0xbc9e9881	-0.019359829
222	0x3dc34c8f	0.09536087
223	0x3d654863	0.055977236
224	0x3dc2b42d	0.09507022
225	0xbc9e0d56	-0.019293468
226	0xbc388c25	-0.011263882
227	0xbd589127	-0.052872803
228	0xbd13622e	-0.035982303
229	0xbb8de272	-0.004329973
230	0x3d04564c	0.03230886
231	0xbbe9049b	-0.0071111447
232	0x3cf630ce	0.030052569
233	0x3d363c32	0.044491
234	0xbda603e2	-0.08106209
235	0x3d972765	0.07380561
236	0xb9d6b656	-0.00040953112
237	0xbd5968a8	-0.053078324
238	0xbc49c0d8	-0.012314044
239	0x3da8d79a	0.08244248
240	0xbc92307d	-0.017845387
241	0xbc7c02a5	-0.01538149
242	0xbcf0db7f	-0.029401539
243	0xbcb5949c	-0.022165589
244	0x3cf1b137	0.029503448
245	0x3c82af6c	0.015952788
246	0xbbafd0d5	-0.005365471
247	0xbc3baace	-0.011454297
248	0xbced9fb0	-0.029006809
249	0xbbf86848	-0.0075807907
250	0x3ce88ed8	0.028388426
251	0x3d16be8b	0.03680281
252	0x3cac9a22	0.02106959
253	0x3c995790	0.01871851
254	0x3d520411	0.05127341
255	0x3acd9014	0.0015683197

st_gcn_networks.2.gcn.conv.bias f4 [48]
0	0xbc4cc0f1	-0.012497173
1	0x3c41e68b	0.011834751
2	0xbc3150b5	-0.010822465
3	0x3bac4b39	0.0052579907
4	0x3b39b9b7	0.0028339454
5	0xbc998b2f	-0.018743126
6	0x3d02a0e1	0.031891707
7	0xbc8ec300	-0.017426968
8	0xbbe99ed0	-0.0071295276
9	0xbc077483	-0.008267525
10	0xbc6fcb22	-0.014635833
11	0xbb8b45a4	-0.004250245
12	0xbd043a00	-0.032281876
13	0xbc7c23c0	-0.015389383
14	0xbb1ac3bd	-0.0023615204
15	0x3bf0b419	0.007345688
16	0xbd58fb14	-0.05297382
17	0xbc2f6493	-0.010705131
18	0x392ff1ae	0.00016779333
19	0x3c351294	0.011051793
20	0x3b9e384a	0.0048284875
21	0xbc6f6a70	-0.014612779
22	0xbc11b669	-0.008893588
23	0xbbfd897e	-0.0077373376
24	0xbd39e31a	-0.045382597
25	0xbc64843f	-0.013947546
26	0xbc95aeac	-0.018271767
27	0xbd39b7a5	-0.045341153
28	0x3c8ddf36	0.01731835
29	0x3bc3283e	0.005955725
30	0xbbd69c82	-0.006549419
31	0xbc57c50f	-0.013169541
32	0x3c36fc5a	0.011168564
33	0x3c6d9e96	0.014503142
34	0xbbc64e71	-0.0060518314
35	0x3bf1e107	0.0073815617
36	0xbcf14c37	-0.029455287
37	0x3c509765	0.012731408
38	0x3983636b	0.0002506034
39	0xbbc67374	-0.0060562436
40	0xbbb20395	-0.005432556
41	0x3b994565	0.004677462
42	0xbbbf9dc7	-0.005847666
43	0xbd01c03b	-0.031677466
44	0x3cddb066	0.027061652
45	0xbc890701	-0.016726973
46	0x3c7aea0d	0.015314591
47	0x3b95d951	0.0045730253

st_gcn_networks.2.tcn.0.weight f4 [16]
0	0x3e64fbb7	0.22361647
1	0x3ded7c77	0.115960054
2	0x3e2797dd	0.16366525
3	0x3e04f38a	0.12983528
4	0x3d8beaf5	0.06831924
5	0x3e73b8d8	0.23800981
6	0x3e33489b	0.17508166
7	0x3e36b6bc	0.17843145
8	0x3e22c16c	0.15894097
9	0x3e0956ab	0.13411967
10	0x3e09425d	0.13404222
11	0x3e3b9a6e	0.18320629
12	0x3e1a0e2e	0.15044472
13	0x3e2578c2	0.16159347
14	0x3dc69151	0.09695686
15	0x3dcb0496	0.09912984

st_gcn_networks.2.tcn.0.bias f4 [16]
0	0xbcb35f8a	-0.021896143
1	0x3b04d3f2	0.002026793
2	0xbd092f53	-0.033492398
3	0xbcd89851	-0.026439818
4	0x3b42f7bc	0.0029749712
5	0xbd0334ac	-0.032032654
6	0xbcbb6c13	-0.022878682
7	0xbd27b2cb	-0.040941995
8	0xbd167072	-0.03672833
9	0xbcfdb2fa	-0.030969132
10	0xbd2c322f	-0.042040046
11	0xbd0b988c	-0.034081027
12	0xbd295f51	-0.041350666
13	0xbd3cbb14	-0.04607685
14	0xbc1842d7	-0.00929328
15	0xbd1739a4	-0.036920205

st_gcn_networks.2.tcn.0.running_mean f4 [16]
0	0xbadd8887	-0.001690165
1	0xb9c7cde5	-0.0003810964
2	0xb9b27f58	-0.00034045684
3	0xba0121a4	-0.00049259723
4	0xb982a0c4	-0.00024915312
5	0xbb423ae5	-0.0029637155
6	0xba24ba3c	-0.00062838546
7	0xbad94809	-0.0016577254
8	0xbab28df9	-0.0013622633
9	0xb98b1bea	-0.00026532944
10	0xbaafbb95	-0.0013407344
11	0xbaf7d2c7	-0.0018907421
12	0x39bbb27f	0.0003580041
13	0xba88a559	-0.0010425254
14	0x3a2f7a82	0.00066939753
15	0x3a4c3d91	0.00077911565

st_gcn_networks.2.tcn.0.running_var f4 [16]
0	0x36ce1743	6.1419864e-06
1	0x3683f78d	3.932923e-06
2	0x364b5527	3.0298922e-06
3	0x36cf08d6	6.1701094e-06
4	0x3650dec7	3.1124089e-06
5	0x379b334c	1.8501327e-05
6	0x368a3551	4.1189273e-06
7	0x366f5b00	3.5666744e-06
8	0x3690670b	4.30353e-06
9	0x364443be	2.9245707e-06
10	0x3623cfdf	2.440989e-06
11	0x368ceca8	4.1998755e-06
12	0x363896ac	2.750584e-06
13	0x365376d9	3.1510629e-06
14	0x35d82baa	1.6105962e-06
15	0x3628af31	2.5135926e-06
