weights_arm/132.pt (torch, 70926 bytes, 80 tensors)

A f4 [3, 9, 9]
00000000: 0000 003f 0000 0000 0000 0000 0000 0000
00000010: 0000 0000 0000 0000 0000 0000 0000 0000
00000020: 0000 0000 0000 0000 cdcc 4c3e 0000 0000
00000030: 0000 0000 0000 0000 0000 0000 0000 0000
00000040: 0000 0000 0000 0000 0000 0000 0000 0000
00000050: abaa aa3e 0000 0000 0000 0000 0000 0000
00000060: 0000 0000 0000 0000 0000 0000 0000 0000
00000070: 0000 0000 0000 0000 abaa aa3e 0000 0000
00000080: 0000 0000 0000 0000 0000 0000 0000 0000
00000090: 0000 0000 0000 0000 0000 0000 0000 0000
000000a0: 0000 003f 0000 0000 0000 0000 0000 0000
000000b0: 0000 0000 0000 0000 0000 0000 0000 0000
000000c0: 0000 0000 0000 0000 abaa aa3e 0000 0000
000000d0: 0000 0000 0000 0000 0000 0000 0000 0000
000000e0: 0000 0000 0000 0000 0000 0000 0000 0000
000000f0: abaa aa3e 0000 0000 0000 0000 0000 0000
00000100: 0000 0000 0000 0000 0000 0000 0000 0000
00000110: 0000 0000 0000 0000 0000 003f 0000 0000
00000120: 0000 0000 0000 0000 0000 0000 0000 0000
00000130: 0000 0000 0000 0000 0000 0000 0000 0000
00000140: 0000 003f 0000 0000 cdcc 4c3e 0000 0000
00000150: 0000 0000 0000 0000 0000 0000 0000 0000
00000160: 0000 0000 0000 0000 0000 0000 0000 0000
00000170: 0000 0000 0000 0000 0000 0000 0000 0000
00000180: 0000 0000 0000 0000 0000 0000 0000 0000
00000190: cdcc 4c3e 0000 0000 0000 0000 0000 0000
000001a0: 0000 0000 0000 0000 0000 0000 0000 0000
000001b0: 0000 0000 0000 0000 abaa aa3e 0000 0000
000001c0: 0000 003f 0000 0000 0000 0000 0000 0000
000001d0: 0000 0000 0000 0000 0000 0000 0000 0000
000001e0: abaa aa3e 0000 0000 0000 0000 0000 0000
000001f0: 0000 0000 0000 0000 0000 0000 cdcc 4c3e
00000200: 0000 0000 0000 0000 0000 0000 0000 0000
00000210: 0000 0000 0000 0000 0000 0000 0000 0000
00000220: 0000 0000 0000 0000 0000 0000 0000 0000
00000230: abaa aa3e 0000 0000 0000 003f 0000 0000
00000240: 0000 0000 0000 0000 0000 0000 0000 0000
00000250: 0000 0000 0000 0000 abaa aa3e 0000 0000
00000260: 0000 0000 0000 0000 cdcc 4c3e 0000 0000
00000270: 0000 0000 0000 0000 0000 0000 0000 0000
00000280: 0000 0000 0000 0000 0000 0000 0000 0000
00000290: 0000 0000 0000 0000 0000 0000 0000 0000
000002a0: 0000 0000 0000 0000 0000 0000 0000 003f
000002b0: 0000 0000 abaa aa3e 0000 0000 0000 0000
000002c0: abaa aa3e 0000 0000 0000 0000 0000 003f
000002d0: 0000 0000 0000 0000 0000 0000 abaa aa3e
000002e0: 0000 0000 0000 0000 0000 0000 0000 0000
000002f0: 0000 0000 0000 0000 0000 0000 0000 0000
00000300: 0000 0000 0000 0000 0000 0000 0000 0000
00000310: 0000 0000 0000 0000 0000 0000 0000 0000
00000320: 0000 0000 0000 0000 0000 0000 0000 0000
00000330: 0000 0000 0000 0000 0000 0000 0000 0000
00000340: 0000 0000 0000 0000 0000 0000 0000 0000
00000350: 0000 0000 abaa aa3e 0000 0000 0000 0000
00000360: 0000 0000 0000 0000 0000 0000 0000 0000
00000370: 0000 0000 0000 0000 0000 0000 0000 0000
00000380: 0000 0000 0000 0000 0000 0000 0000 0000
00000390: 0000 0000 0000 0000 0000 0000 0000 0000
000003a0: 0000 0000 0000 0000 0000 0000 0000 0000
000003b0: 0000 0000 0000 0000 0000 0000 0000 0000
000003c0: 0000 0000 0000 0000 0000 0000
0.5 0.0 0.0 0.0 0.0 0.0 0.0 0.0
0.0 0.0 0.2 0.0 0.0 0.0 0.0 0.0
0.0 0.0 0.0 0.0 0.33333334 0.0 0.0 0.0
0.0 0.0 0.0 0.0 0.0 0.0 0.33333334 0.0
0.0 0.0 0.0 0.0 0.0 0.0 0.0 0.0
0.5 0.0 0.0 0.0 0.0 0.0 0.0 0.0
0.0 0.0 0.33333334 0.0 0.0 0.0 0.0 0.0
0.0 0.0 0.0 0.0 0.33333334 0.0 0.0 0.0
0.0 0.0 0.0 0.0 0.0 0.0 0.5 0.0
0.0 0.0 0.0 0.0 0.0 0.0 0.0 0.0
0.5 0.0 0.2 0.0 0.0 0.0 0.0 0.0
0.0 0.0 0.0 0.0 0.0 0.0 0.0 0.0
0.0 0.0 0.0 0.0 0.2 0.0 0.0 0.0
0.0 0.0 0.0 0.0 0.0 0.0 0.33333334 0.0
0.5 0.0 0.0 0.0 0.0 0.0 0.0 0.0
0.33333334 0.0 0.0 0.0 0.0 0.0 0.0 0.2
0.0 0.0 0.0 0.0 0.0 0.0 0.0 0.0
0.0 0.0 0.0 0.0 0.33333334 0.0 0.5 0.0
0.0 0.0 0.0 0.0 0.0 0.0 0.33333334 0.0
0.0 0.0 0.2 0.0 0.0 0.0 0.0 0.0
0.0 0.0 0.0 0.0 0.0 0.0 0.0 0.0
0.0 0.0 0.0 0.5 0.0 0.33333334 0.0 0.0
0.33333334 0.0 0.0 0.5 0.0 0.0 0.0 0.33333334
0.0 0.0 0.0 0.0 0.0 0.0 0.0 0.0
0.0 0.0 0.0 0.0 0.0 0.0 0.0 0.0
0.0 0.0 0.0 0.0 0.0 0.0 0.0 0.0
0.0 0.0 0.0 0.0 0.0 0.33333334 0.0 0.0
0.0 0.0 0.0 0.0 0.0 0.0 0.0 0.0
0.0 0.0 0.0 0.0 0.0 0.0 0.0 0.0
0.0 0.0 0.0 0.0 0.0 0.0 0.0 0.0
0.0 0.0 0.0

data_bn.weight f4 [27]
00000000: 5f16 ba3d 7b4f 463d 5b93 4a3d 7e0a 823e
00000010: 0c21 7e3d 8fd0 7d3d 542c 8d3e e5bd 493e
00000020: 6fea 593e 4584 e83e 3d24 053f 6517 bc3e
00000030: f856 033f 67da 033f 0586 bc3e 9d09 893e
00000040: 97f2 2b3e df20 703e d5a3 f23e 4457 cc3e
00000050: a41d b23e f1e7 ff3e 7a40 d63e 40da ae3e
00000060: 5881 5e3e 0f28 113d b1ed 843d
0.09086298 0.048415642 0.049456935 0.2539863 0.062043235 0.061966475 0.27572882 0.19701345
0.21280836 0.45413414 0.5200842 0.367366 0.5130458 0.5150513 0.36821 0.26765147
0.1679176 0.2345004 0.4739062 0.39910328 0.3478824 0.49981645 0.41846067 0.34150887
0.21729028 0.035438593 0.064906485

data_bn.bias f4 [27]
00000000: 2a1c 04bc fa18 a53c 98c0 81bc f565 8dbc
00000010: 7abf 46bc 9af3 333b 3606 2e3d bd14 153c
00000020: 995a 35ba e274 c3bc 7cd9 683b 759d 3f3c
00000030: 48f1 67bb 7600 493b d9a3 60bb b777 bc3c
00000040: 86be 373d 236b 123d cc4b e43b 9926 35bc
00000050: ef8f 78bc 1cb1 e2bc 9742 d2bc 58da ee3a
00000060: 0c56 7d3c 69ec 5d3c 17e0 c43b
-0.008063355 0.020153511 -0.015838906 -0.017260531 -0.0121306125 0.002745843 0.042486392 0.009099183
-0.0006918102 -0.023859445 0.0035530021 0.0116952555 -0.0035391618 0.003067044 -0.0034277348 0.023006303
0.04485943 0.035746705 0.0069670435 -0.011056566 -0.015171035 -0.027672343 -0.025666518 0.001822303
0.01546241 0.013545134 0.006008159

data_bn.running_mean f4 [27]
00000000: 9ad6 bc42 b8e4 a542 7a85 cc41 6420 ce42
00000010: 3821 b442 9582 db41 ce56 b942 5171 aa42
00000020: da52 d241 f65c cf42 9448 ae42 66d3 d441
00000030: e43d e042 71fc a742 59f3 c741 fd64 e242
00000040: 4fe7 bd42 8cb9 e441 5e01 0743 771b cb42
00000050: 31c6 f141 10de 0543 f4d6 c142 551c e741
00000060: 2257 e142 83c1 ca42 eddc f141
94.41914 82.94672 25.565174 103.06326 90.06488 27.43876 92.66954 85.22132
26.290455 103.681564 87.141754 26.603222 112.12088 83.99305 24.993822 113.19724
94.951775 28.5906 135.00534 101.55364 30.221773 133.86743 96.91983 28.888834
112.67018 101.37795 30.232874

data_bn.running_var f4 [27]
00000000: 7bf7 4246 300e ae46 42dc 0146 d168 4b46
00000010: b9f2 be46 295c 1046 d094 1d46 4bd5 a746
00000020: c79a 0246 6a2b 4a46 7bf9 9d46 d756 fe45
00000030: 8bd9 6546 5ab4 9046 3bf6 e545 458a 8446
00000040: a326 d846 6308 1f46 5611 b046 8dad de46
00000050: 0bc8 2746 631b a746 f911 c446 18ec 1646
00000060: 0016 8f46 b77d cb46 9f0f 2146
12477.87 22279.094 8311.064 13018.204 24441.361 9239.04 10085.203 21482.646
8358.694 12938.854 20220.74 8138.855 14710.386 18522.176 7358.779 16965.135
27667.318 10178.097 22536.668 28502.775 10738.011 21389.693 25096.986 9659.023
18315.0 26046.857 10307.905

st_gcn_networks.0.gcn.conv.weight f4 [24, 3, 1, 1]
00000000: 8e8d 91bd 783d 7bbc 287e 46bb 2d31 133e
00000010: b241 6abd 8f9c 853d 9c24 a03d 0820 b5b8
00000020: c33b 4e3d eae3 0abd e774 afbc 4cbb 063e
00000030: a9fa ec3c 515b 7bbc edf1 62be ec13 593e
00000040: 651d 983e e234 9b3d 78c1 66be 6242 2b3e
00000050: d18b 9a3d 9cd8 42be 52bf 8c3d 3464 09be
00000060: 28a3 35bd 5126 63bd 973d bebc 08aa 7fbe
00000070: 7ea0 b4bd a84e 183d d1d1 263e fb97 adbc
00000080: 575f 86bc 4bce 0bbe da6d 0abe d43f bb3b
00000090: 4098 bd39 dd0f 98bc 1210 463e fc56 2abd
000000a0: 6bfb 72be f360 07be ae4f 6c3d 53e5 8d3d
000000b0: a1d5 573d 902c 343e 2841 cabd 90d6 293e
000000c0: d6d5 7abb 14b5 05bc 5884 bcba 085e 12bd
000000d0: 282b f8bc ddde 9abd 2b4e 203e 4a8e c1bc
000000e0: a423 1f3d b128 17bd 80a2 b7bc 7d54 503c
000000f0: df84 58be bec7 8b3c 5253 57bc 22f8 383d
00000100: b215 66bd 4740 e63d 1aa4 4f3d 29a9 59bd
00000110: dd66 22bc b170 d8bd 2811 123e 4eec 443d
-0.071070775 -0.0153344795 -0.0030287597 0.14374228 -0.05719156 0.06524002 0.07819483 -8.636719e-05
0.050349962 -0.033908762 -0.021418048 0.13157386 0.028928118 -0.015341596 -0.221626 0.21199006
0.29709926 0.07578446 -0.2253474 0.16724542 0.07546199 -0.19027942 0.06872429 -0.1341713
-0.04434505 -0.055456463 -0.023222728 -0.24967206 -0.08819674 0.037184387 0.16290976 -0.021190634
-0.016402883 -0.13652913 -0.13518468 0.005714396 0.00036162324 -0.018562252 0.19342068 -0.04158686
-0.23728721 -0.13220577 0.057693176 0.06928506 0.052693967 0.17595124 -0.09875709 0.16585755
-0.0038274429 -0.008160848 -0.0014382703 -0.035734206 -0.030294016 -0.07562039 0.15654819 -0.023627419
0.03885235 -0.03690404 -0.022416353 0.012715456 -0.21144436 0.017063018 -0.013142424 0.045158513
-0.056173034 0.11242729 0.05069361 -0.05313984 -0.00991222 -0.10568369 0.14264357 0.04807692

st_gcn_networks.0.gcn.conv.bias f4 [24]
00000000: 0dfd ed3c 74c0 473d 9a2b 583d 9253 9e3d
00000010: 164a 54bc 489c 36be c881 09bc c6ea fc3d
00000020: 0572 90bd b6c3 883c 5ff1 b13d b58f ffbc
00000030: 9529 bf3c 321b 0e3e 4c9d 273e 6fc8 7dbc
00000040: e526 8bbc 4cc7 21be c040 cb3c 45a7 78bd
00000050: 2c9d 243d efd2 e33c 55e1 ccbc fe61 7f3b
0.029051328 0.048767522 0.052775957 0.077307835 -0.012957117 -0.17833054 -0.008392759 0.12349467
-0.070529975 0.016694885 0.08688616 -0.031196455 0.023335258 0.13877562 0.16368598 -0.015489682
-0.01698632 -0.15798682 0.024811149 -0.060706396 0.040188953 0.027810542 -0.02500979 0.003896832

st_gcn_networks.0.tcn.0.weight f4 [8]
00000000: aecc 223e 45ea a43e d76c c63e 5a48 913e
00000010: 46c6 813e 7411 ae3e 76d3 ac3e 48f0 b23e
0.15898392 0.32209983 0.38754913 0.28375512 0.25346583 0.3399769 0.33755082 0.34948945

st_gcn_networks.0.tcn.0.bias f4 [8]
00000000: ab0a 353d 2118 103d 390d 363d a623 c23c
00000010: d733 17bd 6de1 483d 63cc 07bc 7db0 2bbd
0.044199627 0.03517926 0.044446204 0.02369864 -0.036914673 0.049043108 -0.008288476 -0.04191636

st_gcn_networks.0.tcn.0.running_mean f4 [8]
00000000: cd34 a0bb a5af 713a 9f57 913c 8859 7c3b
00000010: e0d3 333b 9b41 c8bb 14eb 853c bf35 6e3c
-0.004889107 0.00092195935 0.017741976 0.0038505513 0.002743952 -0.0061113364 0.016347446 0.014539181

st_gcn_networks.0.tcn.0.running_var f4 [8]
00000000: 5c72 fd38 ed97 6a39 008c aa39 3fe1 9039
00000010: a5d2 b137 6385 7f39 71a5 cf39 3e23 8d38
0.00012085281 0.00022372576 0.00032529235 0.00027633642 2.1198133e-05 0.00024368385 0.0003960538 6.729968e-05

st_gcn_networks.0.tcn.2.weight f4 [8, 8, 9, 1]
00000000: 1272 adbc 1b12 29bc 33b4 573c 80c1 a0bb
00000010: 578d ba3b 9e7a b3bc 487f c539 d0b3 10bc
00000020: 8e92 633c 1a16 043d 9b6a 50bd c467 c9bc
00000030: 703f 70bb 5472 29bc 2fd4 d33c b1ce 883c
00000040: e169 35ba 53fa 53bc a2da 383d 80f2 773d
00000050: 856b eb3c d42f 7e3d 092b 5abc 6954 c13d
00000060: f56d 6fbd 66cd d43c 046d 73bd af18 2e3c
00000070: d70a a0bc 1467 6b3d cc5f 1bbb e79c 3b3c
00000080: 753b ce3c 5e9e 9f3c 14f7 0e3d 545e 9d3c
00000090: d6a2 76bd 3295 dbbc cdda ea3c 6830 babc
000000a0: f442 f0bc 8ae7 ae3c 11b4 a43c 935b 32bd
000000b0: 0e3f 7d3c fca7 ecbc ca31 263c e83c 4d3c
000000c0: f8e6 da3c a75d f73c 4b50 603c 873e 04ba
000000d0: 5cd6 2b3c ed7b 753c 1292 dd3c 5fc5 d73c
000000e0: 2235 c33b e45a 24bd 7741 ebbc a151 87bc
000000f0: 4716 04bd f6de 693d aead 8bbc 8c9d e6bc
00000100: bfca e6bd 86f9 81ba 9419 81bd 3dfa 7e3b
00000110: 1e59 94bd 62e9 6abc 3deb c4bc 7876 823b
00000120: f71e a03c 47d1 55bc 48da 85bb edf1 023b
00000130: 7f01 ab3c 4b98 323c 1423 423d de30 e63b
00000140: bad9 a8bb 8208 e33c ecdc 7b3c 50a3 223d
00000150: debe e83b 17b0 9fbc e6cf 8d3b 1849 f13c
00000160: 92cf d9bb 1e4d 003d 1896 ff3c c7c5 983d
00000170: ac62 a53d ec4c 43b8 5986 92bc 987b 70bd
00000180: 701a 3bbc b98d a63c aea0 26bc 4192 4e3d
00000190: eb40 ebbc b9ed a43c 9ae0 653c f0f4 a03c
000001a0: 71d1 643c 9313 203d 6a28 d7bc 84a3 69bc
000001b0: 0645 a43c a5b4 8bbb b9d0 fc3c 3f64 8b3c
000001c0: 63b0 9e3c 27ea 05bd b34c 423d 4968 6f3d
000001d0: 1333 843c 01ae 9bbc 0dcf 0f3d b213 a23c
000001e0: 8967 14bd cb47 a73c c7db edbc bde5 34bd
000001f0: 2a67 9cbc a2bf 6dbc c6a0 7fbd b5a9 2cbd
00000200: 6ec3 8ebd 7c31 3abd 0541 b8bc a337 1b3d
00000210: de3f ff3c 0758 1dbd cf29 5c3d 9612 f73c
00000220: 5b96 5cbd d7e2 a0bc 6c9c f6ba 53b5 be3c
00000230: af4f 23bd 4389 a83c 41f1 c6bc a219 dbbc
00000240: 6638 88bc 5dfb b2bb e2ba 35bc 975a 5c3d
00000250: 2d48 8cbc 7ee5 1dbc 7672 a53c f72e bebc
00000260: c6af 99bc 38e6 54bb d8cd f6bb 8152 27bc
00000270: 8ded cc3c 3074 e7bc b05e c43b 9fed 783c
00000280: 1a81 0bbd 2d05 c13b a162 853d 36ba a4bb
00000290: cbb6 0d3c 5aaa a0bd 71a6 613d cf9b 6ebb
000002a0: c63b 453d 2051 88bd 062e 133d 5c0c ee3c
000002b0: 658b 0dbd fa96 01bd 40fa f13c 7a35 613c
000002c0: b49e 14bd c674 973a 8cbf 14bd da4f c03c
000002d0: bda5 61bb 47d6 4b3c 1c04 423d a084 1a3c
000002e0: 79da 7dbd 57d8 92bc 525f dfbc 396f 51bc
000002f0: 1364 bf3b 84bc 31bd 8187 89bd 79f1 7e3d
00000300: 5b3c 46bd 67a5 58bd 6636 cd3b 8336 253d
00000310: 9206 34bd 9d14 a43d 7d89 443c f140 01bd
00000320: f9d0 8abd 929b 4e3d df87 bb3d fe2a b23c
00000330: a359 09bd 0625 093d e0f0 3a3d e433 3dbd
00000340: 04b1 d3bc cc56 9fbd beaf 103d 097f c63a
00000350: 3bec 663d 1437 30bd 6f59 16bd bdb9 b4bc
00000360: 68ec debb 4d9c 8dbb 4524 643c 2ca9 3a3c
00000370: df9c 963c ac88 6abc b74d b0bb 858d 72bc
00000380: 523f 383c 0f88 13bb e1ae 973c 685d 86bc
00000390: 4e24 3bbc 6f0c 0b3d ac4c 093d c06f ce3c
000003a0: 4742 153b ef13 113d f388 483c 637d 163c
000003b0: 6971 edba 8de1 69bc 8010 f8bb fd14 f1bb
000003c0: aed1 323c 21d7 943b 3747 56bd 8b12 4d3c
000003d0: 43c7 18bd afeb 10bd f4a2 3bbd 4c5d 24bd
000003e0: 6cde 4fbc b104 08bd 7691 05bd 72f9 893c
000003f0: 30b3 6cbb b707 46bd 9579 413b df5b 063d
-0.021172557 -0.010319258 0.013165521 -0.0049058795 0.0056931186 -0.021909054 0.000376696 -0.008831933
0.013889922 0.03224764 -0.050882917 -0.024585612 -0.0036658905 -0.010342199 0.025858013 0.01670012
-0.0006920379 -0.0129381 0.04513038 0.060534 0.028737793 0.06205733 -0.013315924 0.09439928
-0.058454473 0.025976848 -0.059430137 0.010626002 -0.019536419 0.05747135 -0.0023708222 0.011450983
0.025174836 0.019484695 0.0349036 0.019210018 -0.060213886 -0.02680454 0.028668785 -0.02272816
-0.0293288 0.02135064 0.020105394 -0.043544363 0.015456928 -0.028888695 0.010143707 0.012526728
0.026721463 0.030196024 0.013691018 -0.00050447177 0.010488119 0.0149831595 0.02704719 0.026339231
0.0059572617 -0.040125743 -0.02871774 -0.016518416 -0.032247808 0.057097398 -0.01705059 -0.028151296
-0.112691395 -0.0009916283 -0.06303707 0.0038906478 -0.0724356 -0.014337869 -0.024037952 0.0039814077
0.019546015 -0.013050384 -0.004084859 0.0019980625 0.020874737 0.010900567 0.047396734 0.0070248684
-0.005152908 0.027714018 0.015372496 0.03970653 0.0071028313 -0.019493146 0.004327762 0.0294538
-0.0066470588 0.031323545 0.0311995 0.07459598 0.08075461 -4.6563262e-05 -0.017886328 -0.05871162
-0.011419877 0.02033125 -0.010170145 0.050432447 -0.028717479 0.020132886 0.0140306 0.019648045
0.01396595 0.039081167 -0.026264388 -0.014260177 0.020052444 -0.004263478 0.030861245 0.017015574
0.019371217 -0.03269401 0.047436427 0.058449063 0.016137635 -0.01900387 0.03510957 0.019784782
-0.03623155 0.020419976 -0.029035462 -0.044164408 -0.019092161 -0.014511021 -0.062409185 -0.042154033
-0.06970869 -0.04545735 -0.022491941 0.037894856 0.031158384 -0.038414028 0.05375081 0.03016023
-0.053854328 -0.019639416 -0.0018814928 0.023279822 -0.039870914 0.020573264 -0.02428496 -0.026745621
-0.016628455 -0.0054620937 -0.01109192 0.05379733 -0.01712426 -0.009637235 0.02019618 -0.023215754
-0.018760573 -0.0032485854 -0.0075318627 -0.010212542 0.025015617 -0.028253645 0.005992733 0.015193372
-0.034058668 0.0058905096 0.065129526 -0.005027081 0.008649538 -0.07844992 0.05509037 -0.0036408787
0.048152708 -0.06656098 0.035932563 0.029058628 -0.034556765 -0.031638123 0.029538274 0.01374566
-0.036284164 0.0011555187 -0.036315486 0.023475576 -0.0034431063 0.012441224 0.0473672 0.009431034
-0.06197593 -0.017925425 -0.027267132 -0.012782865 0.005840787 -0.043392673 -0.067152984 0.062242005
-0.048397403 -0.052892115 0.0062625883 0.04033519 -0.04395158 0.08011744 0.01199567 -0.031556074
-0.067781396 0.050441332 0.09156775 0.021749016 -0.03353275 0.033482574 0.045639873 -0.046192065
-0.025841244 -0.07780227 0.03532385 0.0015144061 0.05637763 -0.043021277 -0.036706384 -0.022061223
-0.006803084 -0.004321611 0.013924663 0.011392873 0.018385349 -0.014314812 -0.005380358 -0.014804249
0.0112455655 -0.0022511517 0.018516006 -0.016401961 -0.01142223 0.033947404 0.033520386 0.02519977
0.00227751 0.0354194 0.0122396825 0.009185168 -0.0018115464 -0.014274967 -0.0075703263 -0.0073572383
0.010914249 0.004542247 -0.05231401 0.012516628 -0.037299406 -0.035381015 -0.0458097 -0.040128037
-0.012687307 -0.0332076 -0.032609425 0.016842578 -0.0036117546 -0.0483472 0.0029521931 0.03280246

st_gcn_networks.0.tcn.2.bias f4 [8]
00000000: 36ac 8237 fcb9 f438 2ecf b738 e9d3 eab7
00000010: 2adc 1737 a490 8cb7 c009 b5b8 2f44 4638
1.55774e-05 0.00011669469 8.76471e-05 -2.7993652e-05 9.051562e-06 -1.6756654e-05 -8.632569e-05 4.727038e-05

st_gcn_networks.0.tcn.3.weight f4 [8]
00000000: d43c b03e f0fd 9d3e 5953 8d3e b5e6 6f3e
00000010: 1e4b 513e d8c6 a63e b70b ba3e 860a 9d3e
0.34421408 0.308578 0.27602652 0.23427851 0.20438811 0.3257358 0.36337063 0.3067209

st_gcn_networks.0.tcn.3.bias f4 [8]
00000000: c630 40bd c050 27bb 7829 5e3d 2504 ae3c
00000010: ff05 a1bc bd2b 903c 1ab2 ed3c c6fa 8fbc
-0.046921514 -0.0025530308 0.054238766 0.02124221 -0.01965618 0.017598981 0.02901559 -0.017575633

st_gcn_networks.0.tcn.3.running_mean f4 [8]
00000000: 2c02 5f3c 9f45 913c d6a6 93bc dc80 1bbd
00000010: cf87 fb3c 65e8 1a3d d287 93bb f6fa 243c
0.013611358 0.017733393 -0.01802389 -0.037964687 0.030704407 0.037819285 -0.004502275 0.010069599

st_gcn_networks.0.tcn.3.running_var f4 [8]
00000000: d6bc c63b fa8e 5b3b 6f50 f33a 5963 8f3a
00000010: f617 b63a deaa 8f3b 1d07 9f3b ae6d 643b
0.0060649915 0.0033501969 0.00185634 0.0010939642 0.0013892639 0.0043843826 0.004853143 0.0034855413

st_gcn_networks.1.gcn.conv.weight f4 [24, 8, 1, 1]
00000000: e99b c4bc bd90 1fbd d375 693d 6881 6d3d
00000010: 3cf0 7abc 8813 703c 204c 313c c7d3 2c3d
00000020: 9b44 b4bb 9d0d a1bc f679 a83d d2cf 14bd
00000030: 786a e83c 39b8 bdbc 25b6 8a3d 4255 9d3c
00000040: 10e0 8c3d 36bc 6fbd bdef e0bc 7082 a23d
00000050: 8f20 8c3d d922 8c3d f7c3 09bd 1c7e a6bc
00000060: b312 d43b 2014 09bd 6220 05bd 8b89 edbc
00000070: 1318 8abd e5f7 bfbd 362e 333d 2d5e c4bd
00000080: 6a78 d6bc 4005 9a3b 994a 9e3d b657 57bd
00000090: c18b 983c 34ac 843c d1c2 0f3d cedf 57bb
000000a0: 15a3 183c 1549 b5bd 4714 f53c 442b 86bd
000000b0: 4310 1abc 1f21 813b 6468 a3bd 1425 0f3c
000000c0: 54c3 f3bc f21d 84bc b2e5 593d 5d82 5e39
000000d0: 7cf6 b43c 47cb ac3c 3a18 40bd 042b e2bc
000000e0: 0ee6 c2bc dc2c cabb 5e88 c5bc e50f 07bd
000000f0: 8b5f f0bb fa56 693d 468e 9c3b 00a4 993d
00000100: ca88 d4bc bac6 8c3d 065f 183c e895 0ebd
00000110: 2819 83bd 4e49 d23b 1143 9c3d a975 cc3d
00000120: 1415 66bd fca2 1abc 9427 76bd 77e1 e5bc
00000130: c677 0abc 264a f5bc b147 623d d3e3 b3ba
00000140: af6d 693c 2778 1cbc 5932 623d b744 3ebd
00000150: 378c 4ebd 3c48 c8bd 27b0 d33d 1d80 47bd
00000160: 0f2c a1bc 3a51 003e 7875 923d e6a8 9a3c
00000170: 92cc 60bd 3793 893d 5943 1fbd f66c c3bd
00000180: 7ec9 23bd acd4 ccbc bafd 963d 1137 333d
00000190: ad01 463b 8335 723c 33db dfbc 6712 143d
000001a0: d492 b03d 0e64 3bbd 2e2b 25ba e79f 7ebd
000001b0: c2e6 013d f2cf a3bd 513c a63d 5523 703d
000001c0: d5e1 91bd 0f2f e0bd e811 2a3d 3035 4a3d
000001d0: d0e4 8cbd 9c90 44bd 0138 ef3c 6127 943d
000001e0: 975c e93c 47f9 5d3c d1c1 6cbc cae7 a7bb
000001f0: 7a6e 193b 104f 723c b2e4 0e3d 4aac 25bc
00000200: 5f7b 3cbc c51c 23bc 2274 b23c e766 8e3d
00000210: 42e1 4cbc f883 3a3d 5b2b 57bd 3870 0ebb
00000220: e98f 643d 88eb d93b 9041 cf3c 83fc e5bc
00000230: 948f 883b daf9 573d 1ca2 af3d 2031 c23c
00000240: ad2e 0ebb b218 c63c 22f0 d3bc 6d95 76bd
00000250: 4624 bebb a9c0 5cbd 3a06 7c3d fff5 b53c
00000260: 72c4 9b3d 899d e0bc ea22 d6bc 24d6 67bd
00000270: 9e0d 29bc 8ad4 e4bc c764 1b3e b5eb bdb9
00000280: 6df9 a33b ed5b 283b 2c2a 9d3c d79d 7bbd
00000290: 2a01 d33c 859c c6bb 9d68 293c 1882 0dba
000002a0: 46ef d6bc d8ec 1cbd 2d30 9ebc 5622 d73b
000002b0: 1d1e 77bd 24eb 79bd dd60 fbbc 6c09 52b9
000002c0: 63f7 8b3d af75 173d 9db3 fb3c ab04 d5bd
000002d0: ab33 723d 69a6 1e3d d75c a8bb c480 bebc
000002e0: c5f9 6fbb e384 babc a860 163d 85f8 b93b
000002f0: 8efb db39 cb6a 11bd 502d 2bbb d802 9a3d
-0.024000125 -0.038956393 0.05699713 0.05798474 -0.015316065 0.014653094 0.010821372 0.042194154
-0.0055013425 -0.019659812 0.08226387 -0.036331005 0.02837108 -0.023159133 0.067730226 0.019205693
0.06878674 -0.0585291 -0.027458066 0.07935035 0.068421476 0.06842584 -0.033634152 -0.020323806
0.0064719557 -0.03346646 -0.032501586 -0.02899625 -0.06742873 -0.09373454 0.043745242 -0.09588275
-0.026180465 0.004700333 0.07729072 -0.052573882 0.018621327 0.016195394 0.0350979 -0.0032939794
0.009316226 -0.0885183 0.029916896 -0.06551221 -0.009403291 0.003940716 -0.07978895 0.008736867
-0.029756226 -0.01612756 0.05319757 0.00021220134 0.02209019 0.021093024 -0.046898104 -0.027608402
-0.02379134 -0.0061698984 -0.024112877 -0.032974143 -0.0073356084 0.056967713 0.0047777025 0.07501984
-0.025944132 0.068738416 0.009299999 -0.03481093 -0.064012825 0.00641743 0.076299794 0.099833794
-0.056172445 -0.009438273 -0.06009634 -0.028061612 -0.008451408 -0.029942583 0.05524415 -0.0013724513
0.014247342 -0.009550131 0.055223797 -0.04645225 -0.050426688 -0.097794026 0.10336333 -0.048706163
-0.01967433 0.12530985 0.07151312 0.018879365 -0.054882593 0.06717532 -0.038882587 -0.09542267
-0.03998708 -0.025003754 0.07372613 0.043753687 0.0030213401 0.014783266 -0.027326202 0.036150362
0.08621755 -0.045749716 -0.0006300685 -0.062164214 0.03171421 -0.07998647 0.08116973 0.058627445
-0.07123152 -0.10946476 0.041520983 0.04936713 -0.0687958 -0.047989473 0.02920151 0.072340734
0.028486533 0.013548202 -0.014450506 -0.005124067 0.0023411796 0.014789358 0.03488607 -0.010111878
-0.011504023 -0.00995559 0.021783892 0.06953221 -0.0125048775 0.04553601 -0.05253158 -0.0021734368
0.055801306 0.006650392 0.025299817 -0.028074509 0.0041675065 0.05272851 0.08575842 0.023705065
-0.0021695301 0.024181698 -0.02587134 -0.060201097 -0.005802664 -0.053894673 0.061529376 0.022212027
0.07605828 -0.027418869 -0.026139695 -0.056600705 -0.010318188 -0.027933378 0.15175162 -0.00036224505
0.005004099 0.0025689558 0.019185148 -0.061429825 0.025757391 -0.006061139 0.010339883 -0.00053981086
-0.026237141 -0.03831181 -0.019310081 0.0065653725 -0.060331453 -0.061015263 -0.030685836 -0.0002003067
0.06834295 0.036977466 0.030725295 -0.10401281 0.059131306 0.03873292 -0.0051380205 -0.02325476
-0.003661738 -0.022768443 0.036713272 0.005675378 0.00041958358 -0.035502236 -0.0026119538 0.07520074

st_gcn_networks.1.gcn.conv.bias f4 [24]
00000000: a689 a5b9 b93f 213c 2acf 81bc 87a1 1c3d
00000010: 7aeb 1e3c 67cf 8fbb 9729 6c3b deea f6b9
00000020: f806 93bd b856 f0bb 3a29 5e3c bcc0 283a
00000030: c442 55bd f61a 5c3c 0681 563d 04dc d6bb
00000040: c80f f3bb e45c 20bd bc4f 3e3b 3517 763c
00000050: ae64 303c 043a 96bc 460d b43c 59d0 02bc
-0.00031573809 0.009841853 -0.015845854 0.038239982 0.009699697 -0.004388738 0.0036035532 -0.00047095766
-0.071790636 -0.0073345564 0.013559634 0.0006437411 -0.052065626 0.013434162 0.05236914 -0.0065569896
-0.0074176528 -0.039151087 0.0029039225 0.015020181 0.010766191 -0.01833821 0.021978986 -0.007984244

st_gcn_networks.1.tcn.0.weight f4 [8]
00000000: 35e5 673e b488 453e 5d07 903e f0e8 973e
00000010: 1ef8 273e c5a1 713e f2a5 8a3e f044 5e3e
0.2264603 0.1929043 0.28130618 0.29669905 0.16403243 0.23596866 0.2707973 0.21705985

st_gcn_networks.1.tcn.0.bias f4 [8]
00000000: d405 00bd d101 653b 4294 9f3c 41ae b03b
00000010: 6823 6cbc b6b5 ffbb e8f0 0cbd 8712 bebc
-0.031255558 0.003494371 0.019479875 0.0053918664 -0.014412738 -0.007803644 -0.034409434 -0.023202194

st_gcn_networks.1.tcn.0.running_mean f4 [8]
00000000: 7a23 b8ba 8f30 91b9 892b d0b8 c7b9 b03a
00000010: 902d d2ba 565c 39ba 8960 173b 1d85 fe39
-0.0014048659 -0.00027692734 -9.926322e-05 0.00134831 -0.0016035307 -0.0007070949 0.002309831 0.00048545832

st_gcn_networks.1.tcn.0.running_var f4 [8]
00000000: 24ac b136 2e91 a736 be84 8337 c406 2237
00000010: 6c89 ea36 e049 b936 b962 7637 5b1c c936
5.295051e-06 4.993889e-06 1.567823e-05 9.657528e-06 6.9897415e-06 5.52203e-06 1.4685728e-05 5.993568e-06

st_gcn_networks.1.tcn.2.weight f4 [8, 8, 9, 1]
00000000: 545f 32bc 7a12 f83a 8de2 5e3c b902 39bc
00000010: 4142 47bc e919 13bd 087f 54bb 191b 3a3c
00000020: bc33 263d 08ea 31bd cd59 ed3b f696 1a3d
00000030: 7259 243c 12e6 21bd cd7a d3bc af02 bd3c
00000040: b725 cc3c 1a3d 56bc 5ad0 173c a0b1 90bc
00000050: fa33 413d 3a09 45bc faad f83b 41a6 5ebb
00000060: b55b 363d 0a01 01bd 7cbd 42bd 80e9 363c
00000070: 044d 523c 62c1 d13c 2968 78b9 0278 a53c
00000080: ea96 283d 23f7 37bd b4ee 36bd caa4 2ebd
00000090: 7296 8dbb 09cd 24bc f546 35bb 43c8 7ebb
000000a0: 7af5 1c3b 02af 233d 6c3a 843c 57aa b53c
000000b0: 7104 0f3d ab87 173b d65c 22bd e308 fa3c
000000c0: 13ca a93c d221 91bc 6b5b 81bc a25a dcbb
000000d0: 02fa 47bc fb33 3abc 3aba 2cbc 1d80 213b
000000e0: 942b 1c3c ef9c 95bc d7ad f93c d8bf c13c
000000f0: ff0c d93c 46e8 303a f334 003c adaa 6b3c
00000100: 5424 0bbb cbf2 5bbd c568 4bbd e228 ea3c
00000110: 66c9 9dbc c2ba 19bc c3fc 133c 8a00 e3ba
00000120: 37c9 dcbb 62e0 0bbd cd85 6d3b 28d9 3cba
00000130: 27f9 5abc 2726 30bd ecc8 df3b 4c57 7a3c
00000140: 3821 40bd 4a89 27bd 7bac e1bb 9bcb 3fbc
00000150: 35c2 92bd 2231 b13c cdf5 c63b 61c1 1f3d
00000160: 848a 093c 8bfd 223d a1ec 09bd 3282 47bc
00000170: 476a 233c bcea 04bc ac58 b93c 36b5 213d
00000180: 5824 a13b 154c 4c3d cb2c a83c 420d 8e3c
00000190: 0ff8 403d 19c2 e53b 3a29 b53c 2bb5 d0bb
000001a0: 12f0 023d 80c1 8b3c 0986 7fbc aba6 eb3c
000001b0: 808e e4bc 900c 093c 72f6 87bc 7634 cebc
000001c0: 9b1b e3ba 60d7 1c3c 0632 b63c 2100 cdbc
000001d0: 17a9 b83c 366a ae3c dca5 ecbb 3947 a837
000001e0: d678 3abc ac71 56bc 789c 883b cf1b 993b
000001f0: 33cd e03b e85c 503d e19b 72bc 8bfe a73b
00000200: 58ff 0f3d 7b14 edbc b38a 9e3c deed 9dbb
00000210: b4c6 e63c cbe3 a2bc 4ef8 003d 60a0 65bc
00000220: 4790 05bd 2f85 9ebc 9037 85bc bda3 f1bc
00000230: 36a6 a73c 88cd fd3b afbe 50bc e8fd 0e3c
00000240: de48 283a c518 7dbd a419 bbbc eadb b7bb
00000250: 757b 8e3a 2794 803a ce30 81ba 575c 29bd
00000260: a0c5 5ebd b81e 103d 8361 10bd feba a4bc
00000270: 260b 01bb 9317 633b 4fd0 27bc 37e9 a3bc
00000280: fcf1 383c 321a e5b7 c01a 2c3d 47cb 1bbd
00000290: 5d38 583c 7c83 413d ec34 5fbd 90e2 b13c
000002a0: 657f 0e3d 32b9 ac3c 23c3 203c 9e37 dcbc
000002b0: c632 193d 1958 33bd 9bda 073c cf4d 79bc
000002c0: 9058 bdbc 2ba7 33bd 566c a73c 4ba2 4ebc
000002d0: b3fd ba3b b873 c13c a45a 5cbc b2ce 4d3d
000002e0: 02c3 3bbc 5a47 47bc c9d2 7c3c ea9a ffbc
000002f0: 7dec 8bbc 3b3a ee3b 478b 89bc 1d76 413d
00000300: 89a1 2fbc 8582 d33b bc98 20bd 418e dc3a
00000310: 23b0 89bd 5ea2 35bd 9718 19bc 408c 97bb
00000320: a3ac bf3c 3433 693d ff6f 18bc 8b3a 02bc
00000330: 0d5b 013c a9f9 913c 6541 683d 4d81 9f3b
00000340: 7a9c 093d b016 c63c 000a 78bc 4cba 7e3c
00000350: 3e4c a7bc b637 e93b 56fd 2abb 7630 76bc
00000360: d4c9 64bc 2ae3 6ebc 3ea9 3d3d 499c eabc
00000370: 315e febc b057 e2ba ac62 07bd f992 69bd
00000380: 64e2 ce3c 2b82 3e3d d0c8 083c d125 f83b
00000390: 0384 933c 1c80 0d3d b620 b6ba a1b1 05bd
000003a0: 6b14 12bd c8fa 103c 9b57 483c b2bc 063c
000003b0: 75a0 e83c 35ad d1bc 3482 983c 6bc9 97bb
000003c0: 8306 e83b cfa5 843a e428 313d c16b ffbb
000003d0: 8ab3 10ba 87e3 b5bc d9cc d33c 3ff7 6fbb
000003e0: 001b e1bc 7354 83bb 837b ac3c 8448 63bd
000003f0: a801 783c 09bd 513a 2ce9 81bc e3b5 15bd
-0.010886986 0.0018926405 0.013603819 -0.011292153 -0.012161792 -0.03591338 -0.003242435 0.011359
0.04057668 -0.04343608 0.007243371 0.037741624 0.010031091 -0.039526053 -0.025815392 0.023072569
0.024920328 -0.013076091 0.0092659835 -0.017662823 0.04716871 -0.012026126 0.007589099 -0.0033973607
0.044521052 -0.03149513 -0.047543988 0.011164069 0.012835745 0.025604907 -0.00023689926 0.020198826
0.041159548 -0.044913422 -0.04466124 -0.042637624 -0.004320913 -0.01005865 -0.0027660702 -0.003887669
0.0023950026 0.039961822 0.016141139 0.02217595 0.034916345 0.0023121636 -0.039639316 0.030521816
0.02072624 -0.017716322 -0.015790662 -0.0067246715 -0.012205603 -0.011364932 -0.010542447 0.0024643012
0.009531874 -0.018263308 0.030478401 0.023651049 0.026495455 0.00067484786 0.007825124 0.014383954
-0.002123137 -0.053698342 -0.049660463 0.028583948 -0.019261073 -0.009382905 0.009032431 -0.0017318886
-0.006737854 -0.034149535 0.0036243082 -0.00072039897 -0.013365067 -0.043005135 0.0068293717 0.015279602
-0.04690668 -0.040902413 -0.0068870164 -0.011706258 -0.07165948 0.021629874 0.006071782 0.03900278
0.008394841 0.03979258 -0.033672933 -0.012177037 0.009974069 -0.008112606 0.02262529 0.039479457
0.0049176626 0.049877245 0.020529171 0.017340306 0.047111567 0.0070116636 0.022114385 -0.006369253
0.03196723 0.017060041 -0.015595921 0.028765997 -0.02789998 0.008364812 -0.016597006 -0.0251715
-0.0017326953 0.009572834 0.02224065 -0.025024476 0.022541566 0.02129088 -0.0072219204 2.0060326e-05
-0.011381349 -0.013088625 0.004169043 0.0046725045 0.006860399 0.050869852 -0.014807672 0.0051267794
0.035155624 -0.02894043 0.019353246 -0.0048196157 0.02817092 -0.01988401 0.0314868 -0.014015287
-0.032608297 -0.019350616 -0.016261846 -0.029497022 0.020464998 0.0077454485 -0.012740775 0.008727528
0.00064195495 -0.0617912 -0.022839375 -0.0056109326 0.0010870533 0.0009809778 -0.0009856464 -0.041347828
-0.05438769 0.035185546 -0.035249244 -0.020108696 -0.0019690483 0.0034651503 -0.010242536 -0.020008666
0.011288162 -2.7311125e-05 0.0420177 -0.038035657 0.013197032 0.047244534 -0.05449383 0.021714479
0.03478946 0.021084402 0.009812149 -0.02688199 0.037401937 -0.04378519 0.008291866 -0.015216305
-0.023113519 -0.043860596 0.0204374 -0.012611936 0.005706513 0.02361475 -0.013449345 0.050245948
-0.011460068 -0.012163008 0.0154311145 -0.031201798 -0.01708054 0.007270125 -0.016790045 0.047231782
-0.010719665 0.006454768 -0.03920816 0.0016827063 -0.067230485 -0.0443443 -0.009344242 -0.0046248734
0.02339775 0.056933597 -0.009304046 -0.007948528 0.007895243 0.017819243 0.05670299 0.004867709
0.033596493 0.02418074 -0.015139103 0.015547346 -0.020422097 0.007117237 -0.0026090941 -0.015026202
-0.013964135 -0.014580527 0.04630398 -0.028638976 -0.031050773 -0.0017268565 -0.033053085 -0.05702493
0.025254436 0.046510857 0.008348659 0.0075728674 0.018007284 0.034546003 -0.0013895247 -0.032640103
-0.035664003 0.008848853 0.012227918 0.008223699 0.028396824 -0.025595287 0.018616773 -0.004632165
0.0070808544 0.0010120216 0.043251887 -0.0077948277 -0.00055199175 -0.02220322 0.025854515 -0.0036615876
-0.027478695 -0.00400787 0.021054989 -0.05548908 0.015137114 0.0008000886 -0.015858255 -0.036550414

st_gcn_networks.1.tcn.2.bias f4 [8]
00000000: b07a 54b8 2ab6 7eb8 48dd 2238 dab6 19b8
00000010: 1abd 37b7 a060 c9b7 13b5 ed38 5b70 52b8
-5.0659e-05 -6.0727973e-05 3.8829894e-05 -3.6648336e-05 -1.0951679e-05 -2.4006062e-05 0.00011334768 -5.017254e-05

st_gcn_networks.1.tcn.3.weight f4 [8]
00000000: 8ea4 573e 4940 813e 042c 923e ad89 8a3e
00000010: b4b5 553e 35d5 993e 3592 893e 0e1c 403e
0.21058866 0.25244358 0.28549206 0.27058163 0.20870095 0.30045477 0.2686936 0.18760702

st_gcn_networks.1.tcn.3.bias f4 [8]
00000000: 1505 fb3b c89d 89bc c846 a5bc cf63 80bc
00000010: 19bd 1d3b 92de 94bb 92f8 1bbc 2a8f a53b
0.007660518 -0.016798869 -0.020175353 -0.015672592 0.002406901 -0.004543134 -0.009519713 0.005052467

st_gcn_networks.1.tcn.3.running_mean f4 [8]
00000000: 4b31 abba d9e4 5e3c e7e5 aabb 1407 be3a
00000010: 3c97 24bb 8075 123c ea44 4abc 50c4 e3bb
-0.0013060955 0.013604366 -0.005215395 0.0014497959 -0.0025114557 0.008939147 -0.012345532 -0.0069508925

st_gcn_networks.1.tcn.3.running_var f4 [8]
00000000: 6f33 9539 0bad 8a3a f6c5 123a f844 d639
00000010: cc0b 8839 d70b 643a f137 fd39 2352 173a
0.00028457816 0.0010580135 0.00055989565 0.00040868646 0.0002594873 0.0008699274 0.000482976 0.0005772432

st_gcn_networks.1.residual.0.weight f4 [8, 8, 1, 1]
00000000: f529 03bd 8231 6ebd b4d9 ddbd b6bd 9cbc
00000010: d7a9 46bd 8b4e eb3c 04e5 603d 8d9a c0bb
00000020: cd93 9abd b390 38bd d67e c6bc bfd8 603b
00000030: 1ae1 273c e411 9c3d 81ed bf3d d21b babd
00000040: 6a9e ffbd 776a 9e3b 897d 933d 0eea c1bb
00000050: af7e 0cbd 4481 5c3d 169d b2ba 033e 6abd
00000060: 627f b13d 6295 b23c 0ff4 56bd 86ca ad3b
00000070: 9be8 bbbc 4a8a a53b c30b 6d3d dd50 963d
00000080: 9ca7 78bd bceb 193d 5c31 93bd b496 883c
00000090: b179 283d 6067 21bd 9ca2 a53d 9463 833d
000000a0: c347 e93d c361 f43c e490 c13d bc74 92bc
000000b0: 13cb 76bd 545b 15bd 06b0 d6bc fbe9 a9bd
000000c0: 8b3d b73c 5e3d bc3c 0fe3 96bd c201 be3c
000000d0: 2a85 96bc 6ef1 f3bc 5c47 91bd 08d3 753c
000000e0: 0017 4aba 4ef7 1b3d fc7f a73d 0812 883c
000000f0: d67a 703d 9570 963d 2166 9bbd 53c0 07bd
-0.032022435 -0.058152683 -0.10832539 -0.01913343 -0.048501816 0.028723976 0.054905906 -0.005877799
-0.07547722 -0.04505987 -0.024230402 0.0034308878 0.0102465395 0.076206 0.09371472 -0.090873376
-0.12481387 0.004834469 0.07201678 -0.005917794 -0.034300502 0.053834215 -0.0013627138 -0.057188045
0.086668745 0.021799747 -0.052478846 0.0053036837 -0.022938063 0.0050518857 0.057872545 0.07339642
-0.06070672 0.03757833 -0.07187149 0.016673423 0.04113168 -0.039405227 0.08087656 0.064154774
0.113906406 0.029831773 0.09451464 -0.017877929 -0.06025226 -0.03646405 -0.026206981 -0.08296581
0.022368213 0.02297848 -0.07367527 0.023194198 -0.018374044 -0.029778209 -0.07093689 0.015003927
-0.0007709116 0.038077645 0.08178708 0.01661016 0.058710895 0.07345692 -0.07587839 -0.0331424

st_gcn_networks.1.residual.0.bias f4 [8]
00000000: e094 ba37 d475 3c37 94cc 2238 6262 a5b7
00000010: 59c2 7237 1ce4 b3b7 fde0 9738 8afa bcb7
2.2242253e-05 1.1233107e-05 3.8814338e-05 -1.9715346e-05 1.4469574e-05 -2.1444685e-05 7.2421484e-05 -2.2528013e-05

st_gcn_networks.1.residual.1.weight f4 [8]
00000000: 5f26 5f3e 9006 3f3e 2b3c 6e3e 3e46 663e
00000010: db05 433e bbc2 663e 72d2 a53e d193 143e
0.21791981 0.18654847 0.2326514 0.22487733 0.19045202 0.22535221 0.3238712 0.14509512

st_gcn_networks.1.residual.1.bias f4 [8]
00000000: 1505 fb3b c89d 89bc c846 a5bc cf63 80bc
00000010: 19bd 1d3b 92de 94bb 92f8 1bbc 2a8f a53b
0.007660518 -0.016798869 -0.020175353 -0.015672592 0.002406901 -0.004543134 -0.009519713 0.005052467

st_gcn_networks.1.residual.1.running_mean f4 [8]
00000000: f3d7 8bbc b9c1 a0ba 5afe 88bb aea8 a03c
00000010: 2a15 a43b 8738 4f3b 428a 75bc 8de9 833c
-0.017070746 -0.0012264765 -0.0041807117 0.019611683 0.0050074058 0.0031619386 -0.0149865765 0.016102577

st_gcn_networks.1.residual.1.running_var f4 [8]
00000000: 1824 143a 412f 8b3a a737 283a 7853 773a
00000010: 83e3 7b3a 2048 963a 2643 363a 656d 103a
0.00056511303 0.0010618941 0.0006416984 0.000943474 0.0009608792 0.0011465587 0.0006952755 0.0005509465

st_gcn_networks.2.gcn.conv.weight f4 [48, 8, 1, 1]
00000000: 10e3 c43c 180d 81bd 842e 593c 88a3 42bd
00000010: 269e 603d 9912 353c c7c3 7ebd 2aac bdbc
00000020: a6df 95bc 2279 d3bc fb41 3d38 4006 17bd
00000030: 0c81 58bc 8118 d53b 10c8 ae3c b198 bbbc
00000040: 932e bc3c 7f55 a0bc ad7e 383c c6cd 21bd
00000050: 378d a8bc fe02 263c fb4a 1abd bf39 d8bb
00000060: b065 ae3c 7f10 2a3a 6bee 353b 3373 e5bc
00000070: f9b1 0ebb 3b2e 42bd 0543 b9bc 0351 9d3b
00000080: 5eef 913c e383 423c 33d3 0cbd ca52 1c3c
00000090: 3eed 4fbd 4040 203d 26ad 06bc b27d bebc
000000a0: 61c0 823d b019 b2bb 4c65 8ebd 2e3c bcbc
000000b0: 133b bf3d b149 a1bc d02f c7bd 0c2b bfbc
000000c0: 4ebb 28bd 32d3 aabd e9c0 54bd d7ac d8ba
000000d0: 2efb 6bbd fece 553d e507 b2bd 05a7 80b9
000000e0: 4d56 bbbb 60a6 f5bc 1d4f 103d 9477 f9bb
000000f0: ec37 3cbc 7671 b7bc f2e0 ac3c 9862 01bc
00000100: 8481 0e3b 9416 debc bb62 17bd 2ca9 793c
00000110: c21f 4fbd 1713 373d 16f0 fbbc c428 1ebd
00000120: 1c59 abba e7e2 8cbc 7ea9 2d3d 55ec b13c
00000130: d5cb c53c 709d 1abd 9bbc 863c 02f2 e13b
00000140: 9763 563c 986f 04bd 38d7 aa3c 15d7 46b8
00000150: 7d0a 253d 2448 673d 720f 363b 68fc a3bc
00000160: 4c73 123d 57d5 11bd bcaf 17bd 6efa ec3c
00000170: a0f7 aabc 4522 4fbc e088 cd3c be1e 28bd
00000180: 7150 cd3c acb7 0ebd d8b4 8abb 0e64 983d
00000190: 8912 d9bc b5a5 913c 0dae a53c 97e2 ceba
000001a0: aa08 b73b c3e4 6bbd 2773 743d 18cc 91bc
000001b0: 23f3 a6bc c251 a53a d3b8 efbb c3d9 e93b
000001c0: 7697 08bd 7722 b03c 5ce8 043d abc8 14bd
000001d0: 2104 f03b dbc7 343d 2884 103d 6667 55bc
000001e0: 9f48 86bc d7c2 953c 26b0 a3bc 39f4 14bd
000001f0: 3e23 59bd 43b2 00bc 63b7 82bb 8ce6 a1bb
00000200: ff5a 003d b361 05bd c9e4 a83c eb25 61bd
00000210: 7a51 293d da1e a93d b819 b53d 6178 1cbd
00000220: f8ce 09bc 057c 22bd 7236 ffbc d403 13bd
00000230: 3be2 96bb 02b8 273d ae8c b73c 78d5 743c
00000240: 8a78 973c 4dc7 803b 3f77 633d 418c 20bc
00000250: ac1e 293d 4b9d e9bb 4077 a43c 19ce 31bd
00000260: 75f4 8e3c 5f29 f43c 1fa6 d9ba 69d6 bbbc
00000270: f21b 423d 7f85 3bbd ce4d f1bc d3bb 21bd
00000280: ecee bf3b 9864 e5bc dbb7 cf3c 5e6b 93bc
00000290: 8bd6 58bb 5cca 013d 55be 143d ffd0 423c
000002a0: 5872 db3c 57cb 1c3d 0cf7 a0bc 538a 29bd
000002b0: 81e2 853c 2222 ccbd 3602 a63c 0181 fcbb
000002c0: 1dba 4c3d 57b7 1d3d e665 89bd ff54 dd3c
000002d0: 95a4 8b3d eca0 0dbd 1cc3 8abc 3fcd 40bd
000002e0: 35a6 82bc d8ca 6abd d93d 233d 6440 023d
000002f0: 43ee 39bd 6fa1 2d3d eef2 8bbc bb1a 3d3d
00000300: 86c1 243d d207 683d 92cd c5bc dad6 e23c
00000310: 0042 5d3d c88f e2b9 45ce 833d ea02 b8bc
00000320: 1f6b 65bc e33b 91bc 2626 f1bc 9e11 e33c
00000330: 167b 7cbd 9758 4f3d 2d9f fb3c 8d6d 02bd
00000340: f5de 64bc dde9 65bd 1ede 88bc d6e0 2f3d
00000350: c78f 4ebb a751 953a 22d9 843a 6d30 4b3d
00000360: 3d95 623d cfe7 aa3d 7ae8 5f3c 87de 443c
00000370: 9723 40bd f936 97bc 5733 c33d 34fa 683d
00000380: 9943 cb3d 18f3 97bc bb0b efbb ceda 59bd
00000390: e001 1cbd 7dbf babb 23c1 033d a46e f2bb
000003a0: da6f 053d c196 2f3d 792a 9fbd ff53 933d
000003b0: b602 b0ba 1817 5cbd f8c9 01bc 5ceb aa3d
000003c0: 8998 9cbc 5416 8abc 88f8 0dbd d2e4 acbc
000003d0: 26ae ee3c 7789 793c 7f45 d4bb 125a febb
000003e0: 6a86 debc 2cc8 f3bb 65c4 d03c 6fb8 143d
000003f0: c7c3 b43c e16f 933c 9d56 5c3d 6e75 783b
0.024034053 -0.063013256 0.013255719 -0.047519237 0.054838322 0.011051797 -0.062198427 -0.023153383
-0.01829512 -0.025814597 4.512256e-05 -0.036871195 -0.013214361 0.0065031652 0.021335632 -0.022899957
0.022971427 -0.019572018 0.011260671 -0.03950288 -0.020575149 0.010132549 -0.037669163 -0.0065986807
0.021288723 0.00064874435 0.0027760516 -0.028009033 -0.002177356 -0.04740737 -0.022614965 0.004800917
0.017814334 0.011872265 -0.034381103 0.009541223 -0.05076336 0.039123774 -0.008219993 -0.023253296
0.063843496 -0.005435191 -0.069529146 -0.022977915 0.093374394 -0.01968846 -0.097259164 -0.023335956
-0.041194253 -0.083410636 -0.051941786 -0.0016531002 -0.05761259 0.052199356 -0.08692912 -0.00024538502
-0.005717075 -0.02998656 0.0352317 -0.007613132 -0.011487942 -0.02239297 0.021103356 -0.007897042
0.0021744678 -0.027110375 -0.03695939 0.015238088 -0.050567396 0.04469594 -0.03075413 -0.038613096
-0.0013072821 -0.01719804 0.04239797 0.021719137 0.024145046 -0.0377478 0.016447356 0.0068953047
0.0130852675 -0.032332987 0.020854577 -4.740719e-05 0.040293206 0.056465283 0.0027780202 -0.020017818
0.035754487 -0.035603847 -0.037032828 0.028928008 -0.02087003 -0.012642448 0.025089681 -0.041044943
0.025062772 -0.034843132 -0.004232984 0.07440959 -0.026498096 0.01777921 0.020224595 -0.0015784082
0.0055857496 -0.05759121 0.05968013 -0.017797515 -0.020379608 0.0012612867 -0.007315734 0.007136555
-0.03334757 0.02150081 0.032448158 -0.036324184 0.007324711 0.04413591 0.035282284 -0.01302514
-0.01639205 0.018281383 -0.019981455 -0.03636572 -0.053012125 -0.007855001 -0.0039891466 -0.0049408134
0.03133678 -0.032563876 0.020616906 -0.054967802 0.041337468 0.082578376 0.08842796 -0.03820074
-0.008411162 -0.039669055 -0.031153891 -0.035892323 -0.0046046055 0.040946968 0.022405948 0.014943473
0.018490095 0.0039300085 0.055533644 -0.009799064 0.041289017 -0.0071293465 0.020076394 -0.04340944
0.01745055 0.029804884 -0.0016605294 -0.022929387 0.047389932 -0.04578161 -0.029456045 -0.039485764
0.005857339 -0.028002068 0.025356224 -0.017995533 -0.0033086862 0.031687126 0.036314327 0.011890649
0.026787922 0.038279857 -0.019649051 -0.041391682 0.016343357 -0.09967448 0.020264726 -0.007705808
0.04998218 0.038504925 -0.06708889 0.027018068 0.06818501 -0.034577295 -0.016938739 -0.047070738
-0.015948394 -0.057322353 0.039853904 0.03179969 -0.04539324 0.042390283 -0.017083611 0.04616807
0.04022362 0.056648083 -0.024145875 0.02769034 0.05401802 -0.00043213204 0.06435827 -0.022462327
-0.01400259 -0.017728752 -0.029437136 0.027718361 -0.06164082 0.050621595 0.03071555 -0.031842757
-0.013969173 -0.056131233 -0.016707476 0.04293903 -0.0031518803 0.0011392132 0.0010135511 0.04960673
0.055318106 0.08344995 0.013666267 0.012015945 -0.04690894 -0.01845883 0.09531277 0.056879237
0.099250026 -0.018548533 -0.0072950996 -0.053187184 -0.038087726 -0.0056990967 0.03216661 -0.0073984433
0.032577373 0.04286838 -0.07771773 0.07193755 -0.0013428542 -0.05373296 -0.007921688 0.083456725
-0.019115703 -0.01685635 -0.034660846 -0.021105204 0.029135775 0.015230528 -0.006478011 -0.007762202
-0.027163703 -0.007439634 0.025484273 0.036308702 0.02206601 0.017997684 0.05379354 0.003791179

st_gcn_networks.2.gcn.conv.bias f4 [48]
00000000: 3897 4bbc 6fca 183c ec84 61bc 321d b93b
00000010: a006 083b f62a 87bc 0611 053d 20e0 88bc
00000020: f7b8 12bc 7707 02bc b1e1 34bc 74ee fcbb
00000030: 8a18 ffbc 33b3 2dbc a97b 30bb 01dc eb3b
00000040: f9b1 53bd eb12 35bc 5a74 dcba 5c55 593c
00000050: 0f00 4a3b 28f6 79bc 5631 f4bb e0b1 0cbc
00000060: 4f2d 3bbd 3f21 49bc fa8f 86bc 7de3 34bd
00000070: fe42 8e3c c0d6 e93b 9cbb 00bc 2f36 60bc
00000080: 026e 383c 368e 683c 22c1 d6bb 52ee f63b
00000090: 0fb8 02bd 357b 3e3c 5eb1 fb3a 4d9e ebbb
000000a0: addd 2ebb ec71 b43b d6c1 eebb 4d47 01bd
000000b0: 22e1 db3c 2eed 91bc 90e8 713c 35fd c53b
-0.01242619 0.009325608 -0.013764601 0.0056492323 0.0020755902 -0.016499978 0.032486938 -0.016708434
-0.008955232 -0.00793635 -0.011040137 -0.0077188555 -0.03113963 -0.010601806 -0.0026929176 0.0071978574
-0.0516834 -0.011051874 -0.0016819343 0.01326498 0.0030822789 -0.015256442 -0.0074521704 -0.008587331
-0.045697507 -0.012275993 -0.016426075 -0.044162262 0.017365929 0.007136196 -0.00785723 -0.013684793
0.011256697 0.014194062 -0.006553785 0.007535734 -0.031913813 0.0116260545 0.001920264 -0.007190502
-0.0026682422 0.0055067446 -0.0072862906 -0.03156214 0.02684075 -0.017813291 0.01476492 0.0060421475

st_gcn_networks.2.tcn.0.weight f4 [16]
00000000: 4aa5 5f3e 4ec7 ea3d ad5a 253e 1116 053e
00000010: 71b0 873d 2d6a 703e 8383 323e 9d04 353e
00000020: 1b57 233e e5ab 0d3e c90e 093e 042c 3b3e
00000030: 673b 1a3e ad6e 1e3e 371d c83d 8a46 ca3d
0.21840397 0.114637956 0.16147871 0.12996699 0.066254504 0.23478003 0.1743298 0.17677541
0.15951197 0.13835104 0.13384546 0.1827851 0.15061723 0.15471907 0.09771197 0.098767355

st_gcn_networks.2.tcn.0.bias f4 [16]
00000000: 2259 a7bc c92a e43a 7e71 1cbd 95b2 b9bc
00000010: 3fc6 b83a 694e 03bd 1c64 dbbc ec0d 25bd
00000020: cfad 1bbd ad33 08bd 1716 2bbd 5e41 1abd
00000030: 163b 2dbd ba9c 33bd 6f4f 32bc 4519 1cbd
-0.020428244 0.001740777 -0.038194172 -0.022668162 0.0014097168 -0.0320572 -0.026781134 -0.04029648
-0.038007554 -0.033252407 -0.041769113 -0.037659995 -0.042292677 -0.043850638 -0.010883196 -0.038110036

st_gcn_networks.2.tcn.0.running_mean f4 [16]
00000000: c298 d8ba b82d 11ba 13d3 10ba 9596 97b9
00000010: bad5 08ba 84dd 36bb 787b fbb9 58b5 d0ba
00000020: 63ee a3ba e50a b5b9 7b2d 89ba dac1 03bb
00000030: ed35 cc39 9aca 5bba 8ca5 033a 7465 3d3a
-0.0016525018 -0.00055381237 -0.00055246166 -0.00028913157 -0.0005219836 -0.002790303 -0.00047966442 -0.0015923185
-0.0012506958 -0.00034531127 -0.0010465825 -0.0020104558 0.0003895009 -0.0008384377 0.0005021922 0.00072248955

st_gcn_networks.2.tcn.0.running_var f4 [16]
00000000: f877 d436 365b 6c36 c467 3e36 0141 e536
00000010: 41a2 3336 4aff 9737 3438 7c36 b6e4 6136
00000020: bc21 8936 9f90 3936 9aa0 3936 3e66 8436
00000030: 943d 3636 2c74 3636 7c50 c735 e4f5 3136
6.3320585e-06 3.5219832e-06 2.8372606e-06 6.8322993e-06 2.6767523e-06 1.8119481e-05 3.758364e-06 3.366074e-06
4.0868454e-06 2.7651329e-06 2.766063e-06 3.945809e-06 2.7155957e-06 2.7187734e-06 1.4850079e-06 2.6518182e-06

st_gcn_networks.2.tcn.2.weight f4 [16, 16, 9, 1]
00000000: f51e 92bc e52f 52bc b5d4 fcbb 109d 88bc
00000010: 3647 73bc 49d3 a73c 836c a1bc 09e7 c8bc
00000020: 1ade 3abd cb21 da3a 0b29 4a3c 7bd3 213d
00000030: c2c6 19bd fa21 a83a fea6 ba3b 675d a03b
00000040: 3ba5 7e3b c5ee e63a a229 8139 538a 2e3c
00000050: e0b2 a63c 9dd3 243a 29b4 3f3a 5ada fdbc
00000060: 64cf a13b 5e1e 4eba abc9 003c 5479 19bc
00000070: c1c8 8abb 8783 643c a326 3cbc d9a6 6cbb
00000080: 23f5 cc3b 0679 93bc 4b1d 14bc df0c 563c
00000090: ea0d ac3c 9ed8 b63c 6ffa 27bb a75a 02bc
000000a0: 7e52 9fba 7009 bcbb 5c6d ab3b 8a44 9cbb
000000b0: eba2 8dbc 0c2f 333d 51a6 6ebc dfbc 8d3c
000000c0: f928 53bb 869a babb 4663 673c 092f 28bc
000000d0: 9034 df3a 6caf a13c 5bf6 51bb e5be 933c
000000e0: 05f6 163c 44e3 c63c b1f2 833c eb30 45bb
000000f0: 088c 983a 7cf5 bd3c dfee 2f3c cdee 003c
00000100: c2a9 f2bb b3ad 40bc f53a 8a3b e5c6 753b
00000110: 34fc dabc d83d d83b e9dd ed3b 6bdb 43bc
00000120: 1ece e0bb d1d3 cb3c c474 923c 0f8e 853c
00000130: 8bb6 1bba 4074 61bc 026f a93c d38f b63c
00000140: 03d2 37bc c258 11bd f06e fa3c dec4 b8bc
00000150: ff35 fd3c d47c f7bc 7ba2 e2bc 52ac ca3c
00000160: a1f1 bbbb 064b 1dbd 6cd5 63bb 0a88 383c
00000170: d330 44bc 552a 183c 4561 fa3b 5a3a abbc
00000180: bbd3 3c3c 98aa b23c 70f5 26bd d1f4 bd3c
00000190: 7960 eebb 02c2 33bc 9910 2dbd 82a9 f9bc
000001a0: 0720 91bb b94a 87bd 2c55 01bc d382 223d
000001b0: 5b81 adbb a3ba fb3b 97a3 b5bb a50f 99bc
000001c0: 6a25 f63b d67d 22bd 2e44 29bc 1770 533b
000001d0: 3e43 0fbc 09f5 2b3c 5ae1 893a a743 debc
000001e0: 2545 533c 6397 3e3c c26c 933a d6a3 fcbc
000001f0: 4616 ad3b 3297 1a3d f2d0 afbc 83d1 22bc
00000200: 6cfc 4a3b c308 42bc fe99 0ebc 687d 1fbc
00000210: 6149 e53a a8f7 99bb c574 81bc e475 7c3b
00000220: a14b 833c 3bf3 893b c901 8a3b 50e1 0b3c
00000230: 79dc 9abc 1fc9 9d3c cf09 90bc 2c42 2bbc
00000240: 889a 00bb 04cd 5dbc c4d8 803c 8573 103c
00000250: 7cf7 863c 58f9 c63c 52b2 f83c 2968 203b
00000260: 5ba3 263d 0ea4 ccbc 206a 303c 37e3 283c
00000270: d7cb d4bc b989 95bc ba54 46bb 37c4 3abd
00000280: 67a0 ce3b cf65 89bc 7516 22bb 4462 773c
00000290: faf9 69bc dc17 863c 1f93 c13a b314 03bd
000002a0: 1da7 f93a 805e cdbc 9e02 0bbd 7c52 ddbc
000002b0: 7a65 ccbc 48db f2bc 837d 093d aaac 9e3a
000002c0: a392 173b 1ebb 55bc 31fa 4ebc 3705 34bd
000002d0: 99b7 953c 57ae 37bd a021 cbbc 9c7d dbbc
000002e0: e19a 8b3a c5e9 d7bc 95ed 23bc 48a0 103c
000002f0: d6ab 933c 127d 9438 13de 41bc 768b 1abc
00000300: 59ad d9bb 0a43 a5bc 27c2 25bd c2f5 1cbd
00000310: 39b5 97bd d9bc ffbc a320 db3a cf70 ec3c
00000320: 2dee b03c a506 3e3c d22a 183d c8fb 483c
00000330: 042f 113d c030 fcbc 3fb6 033d d14e 823c
00000340: c0ae f0bb 9b85 5dbc 2061 1dbc 42a7 0fbd
00000350: ee03 fcbc 4e9a e2bb b859 2cbc 5694 b6bc
00000360: cc77 81bc 0cf2 3539 4e48 37ba d711 97bc
00000370: 2fdf 6e3c 49f5 d3bc 5cb8 16bd 6d1d aebb
00000380: e736 05bd c70d daba cfc0 d2bc ccab 20bd
00000390: 9c4c e0bc b4d0 7fbc 0b5f a13c 5ea7 4abc
000003a0: 76a5 b7bc c02f abbc 9cd9 b1bc 09fd 283c
000003b0: f03f 80bc 1c58 2fbc f92f b53c 762c d0bc
000003c0: 1ac4 cdbc b934 42bd c1a2 4abd c3e5 6c3b
000003d0: fb5a 0b3c 1b37 193c 56d8 1a3d eb51 a03b
000003e0: d158 2a3c 32c2 39b9 9b38 4abb e0b5 c03c
000003f0: 2d11 5c3c ad41 463c 66c1 0fbc 1b67 083c
-0.017837027 -0.012828802 -0.0077157863 -0.016676456 -0.014848521 0.02048649 -0.019705063 -0.024524229
-0.04562197 0.0016642151 0.012338887 0.039508324 -0.037543066 0.0012827509 0.0056961766 0.004893947
0.003885581 0.0017618766 0.00024635816 0.010653096 0.020348966 0.00062876364 0.0007312918 -0.030987907
0.004938053 -0.00078628014 0.007860581 -0.009367306 -0.0042353575 0.013947374 -0.011483821 -0.003611019
0.0062548085 -0.018002044 -0.009040187 0.013064592 0.021002728 0.022320088 -0.0025631448 -0.0079561835
-0.0012155322 -0.0057384297 0.0052315425 -0.0047689127 -0.0172896 0.04374604 -0.01456602 0.017301975
-0.0032220467 -0.00569469 0.01412279 -0.01026512 0.0017029215 0.019736968 -0.0032037708 0.018035362
0.009213929 0.02427829 0.016106935 -0.0030088972 0.0011638412 0.023188345 0.010738104 0.007869435
-0.0074054906 -0.011760163 0.004218454 0.0037502584 -0.026731588 0.006599169 0.00725912 -0.011954169
-0.0068605086 0.024881275 0.017877944 0.01630309 -0.0005939982 -0.013760626 0.020682815 0.022285378
-0.011219504 -0.035485037 0.030570477 -0.022554811 0.030909536 -0.03021089 -0.027665367 0.024740372
-0.0057355915 -0.038401626 -0.003476466 0.011262903 -0.011974531 0.0092874365 0.00764099 -0.020901848
0.01152509 0.021809861 -0.04076141 0.023188027 -0.007274684 -0.010971548 -0.042252157 -0.030476335
-0.004428867 -0.06606049 -0.007893842 0.039675545 -0.0052949614 0.007682161 -0.005543183 -0.018684218
0.0075117843 -0.039670788 -0.010331197 0.0032262856 -0.008744059 0.010495433 0.001051943 -0.027131869
0.012894903 0.011632773 0.0011247622 -0.030839842 0.005282196 0.037741847 -0.021461938 -0.009937647
0.003097321 -0.011842909 -0.008703707 -0.009734489 0.0017493182 -0.0046987124 -0.01580275 0.0038522417
0.016027274 0.0042099035 0.0042116386 0.008537605 -0.018903958 0.019260941 -0.017582802 -0.010452788
-0.0019623358 -0.013537649 0.015728362 0.0088166045 0.016475432 0.024288818 0.030358467 0.0024476147
0.04068313 -0.024980571 0.01076749 0.0103080785 -0.025976105 -0.018254148 -0.0030262903 -0.04559728
0.0063057425 -0.016772179 -0.0024732624 0.015099112 -0.01428079 0.016368799 0.0014768577 -0.032002162
0.0019046996 -0.025069475 -0.033938043 -0.02701687 -0.024950732 -0.029645577 0.033566963 0.0012105901
0.0023128174 -0.0130451005 -0.0126328925 -0.043950286 0.018276023 -0.044843998 -0.024796307 -0.026793294
0.0010651016 -0.026356587 -0.010005374 0.0088272765 0.018026274 7.080486e-05 -0.011832732 -0.009432664
-0.006642979 -0.020173568 -0.04046836 -0.03832031 -0.07407612 -0.03121798 0.00167181 0.028862385
0.021597946 0.011598264 0.03715021 0.012267061 0.03544523 -0.030784965 0.032156225 0.015906723
-0.0073450506 -0.013520624 -0.009605676 -0.03507162 -0.030763593 -0.006915367 -0.0105194375 -0.022287529
-0.015804194 0.00017351675 -0.000699167 -0.018441124 0.014579578 -0.025873797 -0.036796913 -0.0053135664
-0.032523062 -0.0016636186 -0.025726704 -0.03922634 -0.02738028 -0.015613724 0.01969864 -0.012369005
-0.022417765 -0.020896792 -0.02171021 0.0103142345 -0.015655488 -0.010702159 0.022117602 -0.025411826
-0.025117923 -0.04741356 -0.04947162 0.003614769 0.008505578 0.009351517 0.03780397 0.004892578
0.010397152 -0.00017715318 -0.0030856493 0.023524225 0.013431829 0.012100619 -0.008774137 0.0083253635

st_gcn_networks.2.tcn.2.bias f4 [16]
00000000: 295e f737 b3a5 67b7 c59d 2c38 a183 5f27
00000010: 0cca 6037 d0c1 db37 a9c4 0bb8 0ea1 6eb6
00000020: 7b83 9637 d258 90b6 a246 0b38 8ac5 54b8
00000030: 8a8d 9bb4 81cb 52b7 4004 8d38 556a 95b4
2.9488541e-05 -1.3807253e-05 4.115493e-05 3.1018823e-15 1.3398483e-05 2.6197085e-05 -3.3323337e-05 -3.555851e-06
1.7942619e-05 -4.3018745e-06 3.3205964e-05 -5.072871e-05 -2.8973983e-07 -1.2564357e-05 6.7241956e-05 -2.783078e-07

st_gcn_networks.2.tcn.3.weight f4 [16]
00000000: 9818 203e dd3a 4f3e 9ffa 0b3e 6f3c 5c1d
00000010: 5119 603e 93ea 233e 4f7b 4b3e 366c e63d
00000020: 3b67 e73d dd08 113e 5cd9 573e 6096 eb3d
00000030: ac0e 693e f256 c03d 608a e43d 7863 189d
0.15634382 0.20237298 0.13669823 2.9148e-21 0.21884657 0.16007452 0.19871257 0.11251108
0.112989865 0.14163537 0.2107901 0.11503291 0.22759503 0.093915835 0.111592054 -2.0168457e-21
