weights_arm/136.pt (torch, 70926 bytes, 80 tensors)

A f4 [3, 9, 9]
000000 00 00 00 3f 00 00 00 00 00 00 00 00 00 00 00 00
       0.5 0.0 0.0 0.0
000010 00 00 00 00 00 00 00 00 00 00 00 00 00 00 00 00
       0.0 0.0 0.0 0.0
000020 00 00 00 00 00 00 00 00 cd cc 4c 3e 00 00 00 00
       0.0 0.0 0.2 0.0
000030 00 00 00 00 00 00 00 00 00 00 00 00 00 00 00 00
       0.0 0.0 0.0 0.0
000040 00 00 00 00 00 00 00 00 00 00 00 00 00 00 00 00
       0.0 0.0 0.0 0.0
000050 ab aa aa 3e 00 00 00 00 00 00 00 00 00 00 00 00
       0.33333334 0.0 0.0 0.0
000060 00 00 00 00 00 00 00 00 00 00 00 00 00 00 00 00
       0.0 0.0 0.0 0.0
000070 00 00 00 00 00 00 00 00 ab aa aa 3e 00 00 00 00
       0.0 0.0 0.33333334 0.0
000080 00 00 00 00 00 00 00 00 00 00 00 00 00 00 00 00
       0.0 0.0 0.0 0.0
000090 00 00 00 00 00 00 00 00 00 00 00 00 00 00 00 00
       0.0 0.0 0.0 0.0
0000a0 00 00 00 3f 00 00 00 00 00 00 00 00 00 00 00 00
       0.5 0.0 0.0 0.0
0000b0 00 00 00 00 00 00 00 00 00 00 00 00 00 00 00 00
       0.0 0.0 0.0 0.0
0000c0 00 00 00 00 00 00 00 00 ab aa aa 3e 00 00 00 00
       0.0 0.0 0.33333334 0.0
0000d0 00 00 00 00 00 00 00 00 00 00 00 00 00 00 00 00
       0.0 0.0 0.0 0.0
0000e0 00 00 00 00 00 00 00 00 00 00 00 00 00 00 00 00
       0.0 0.0 0.0 0.0
0000f0 ab aa aa 3e 00 00 00 00 00 00 00 00 00 00 00 00
       0.33333334 0.0 0.0 0.0
000100 00 00 00 00 00 00 00 00 00 00 00 00 00 00 00 00
       0.0 0.0 0.0 0.0
000110 00 00 00 00 00 00 00 00 00 00 00 3f 00 00 00 00
       0.0 0.0 0.5 0.0
000120 00 00 00 00 00 00 00 00 00 00 00 00 00 00 00 00
       0.0 0.0 0.0 0.0
000130 00 00 00 00 00 00 00 00 00 00 00 00 00 00 00 00
       0.0 0.0 0.0 0.0
000140 00 00 00 3f 00 00 00 00 cd cc 4c 3e 00 00 00 00
       0.5 0.0 0.2 0.0
000150 00 00 00 00 00 00 00 00 00 00 00 00 00 00 00 00
       0.0 0.0 0.0 0.0
000160 00 00 00 00 00 00 00 00 00 00 00 00 00 00 00 00
       0.0 0.0 0.0 0.0
000170 00 00 00 00 00 00 00 00 00 00 00 00 00 00 00 00
       0.0 0.0 0.0 0.0
000180 00 00 00 00 00 00 00 00 00 00 00 00 00 00 00 00
       0.0 0.0 0.0 0.0
000190 cd cc 4c 3e 00 00 00 00 00 00 00 00 00 00 00 00
       0.2 0.0 0.0 0.0
0001a0 00 00 00 00 00 00 00 00 00 00 00 00 00 00 00 00
       0.0 0.0 0.0 0.0
0001b0 00 00 00 00 00 00 00 00 ab aa aa 3e 00 00 00 00
       0.0 0.0 0.33333334 0.0
0001c0 00 00 00 3f 00 00 00 00 00 00 00 00 00 00 00 00
       0.5 0.0 0.0 0.0
0001d0 00 00 00 00 00 00 00 00 00 00 00 00 00 00 00 00
       0.0 0.0 0.0 0.0
0001e0 ab aa aa 3e 00 00 00 00 00 00 00 00 00 00 00 00
       0.33333334 0.0 0.0 0.0
0001f0 00 00 00 00 00 00 00 00 00 00 00 00 cd cc 4c 3e
       0.0 0.0 0.0 0.2
000200 00 00 00 00 00 00 00 00 00 00 00 00 00 00 00 00
       0.0 0.0 0.0 0.0
000210 00 00 00 00 00 00 00 00 00 00 00 00 00 00 00 00
       0.0 0.0 0.0 0.0
000220 00 00 00 00 00 00 00 00 00 00 00 00 00 00 00 00
       0.0 0.0 0.0 0.0
000230 ab aa aa 3e 00 00 00 00 00 00 00 3f 00 00 00 00
       0.33333334 0.0 0.5 0.0
000240 00 00 00 00 00 00 00 00 00 00 00 00 00 00 00 00
       0.0 0.0 0.0 0.0
000250 00 00 00 00 00 00 00 00 ab aa aa 3e 00 00 00 00
       0.0 0.0 0.33333334 0.0
000260 00 00 00 00 00 00 00 00 cd cc 4c 3e 00 00 00 00
       0.0 0.0 0.2 0.0
000270 00 00 00 00 00 00 00 00 00 00 00 00 00 00 00 00
       0.0 0.0 0.0 0.0
000280 00 00 00 00 00 00 00 00 00 00 00 00 00 00 00 00
       0.0 0.0 0.0 0.0
000290 00 00 00 00 00 00 00 00 00 00 00 00 00 00 00 00
       0.0 0.0 0.0 0.0
0002a0 00 00 00 00 00 00 00 00 00 00 00 00 00 00 00 3f
       0.0 0.0 0.0 0.5
0002b0 00 00 00 00 ab aa aa 3e 00 00 00 00 00 00 00 00
       0.0 0.33333334 0.0 0.0
0002c0 ab aa aa 3e 00 00 00 00 00 00 00 00 00 00 00 3f
       0.33333334 0.0 0.0 0.5
0002d0 00 00 00 00 00 00 00 00 00 00 00 00 ab aa aa 3e
       0.0 0.0 0.0 0.33333334
0002e0 00 00 00 00 00 00 00 00 00 00 00 00 00 00 00 00
       0.0 0.0 0.0 0.0
0002f0 00 00 00 00 00 00 00 00 00 00 00 00 00 00 00 00
       0.0 0.0 0.0 0.0
000300 00 00 00 00 00 00 00 00 00 00 00 00 00 00 00 00
       0.0 0.0 0.0 0.0
000310 00 00 00 00 00 00 00 00 00 00 00 00 00 00 00 00
       0.0 0.0 0.0 0.0
000320 00 00 00 00 00 00 00 00 00 00 00 00 00 00 00 00
       0.0 0.0 0.0 0.0
000330 00 00 00 00 00 00 00 00 00 00 00 00 00 00 00 00
       0.0 0.0 0.0 0.0
000340 00 00 00 00 00 00 00 00 00 00 00 00 00 00 00 00
       0.0 0.0 0.0 0.0
000350 00 00 00 00 ab aa aa 3e 00 00 00 00 00 00 00 00
       0.0 0.33333334 0.0 0.0
000360 00 00 00 00 00 00 00 00 00 00 00 00 00 00 00 00
       0.0 0.0 0.0 0.0
000370 00 00 00 00 00 00 00 00 00 00 00 00 00 00 00 00
       0.0 0.0 0.0 0.0
000380 00 00 00 00 00 00 00 00 00 00 00 00 00 00 00 00
       0.0 0.0 0.0 0.0
000390 00 00 00 00 00 00 00 00 00 00 00 00 00 00 00 00
       0.0 0.0 0.0 0.0
0003a0 00 00 00 00 00 00 00 00 00 00 00 00 00 00 00 00
       0.0 0.0 0.0 0.0
0003b0 00 00 00 00 00 00 00 00 00 00 00 00 00 00 00 00
       0.0 0.0 0.0 0.0
0003c0 00 00 00 00 00 00 00 00 00 00 00 00
       0.0 0.0 0.0

data_bn.weight f4 [27]
000000 53 f8 bb 3d ee fc 3b 3d e3 90 3f 3d 66 65 81 3e
       0.091782235 0.04589551 0.046769034 0.25272673
000010 ae 9d 6c 3d 1d 00 79 3d 36 b0 8d 3e f5 40 48 3e
       0.057767563 0.060791124 0.276735 0.19556029
000020 c2 85 59 3e 8e 22 e8 3e 89 b3 04 3f 10 b1 ba 3e
       0.21242431 0.45338863 0.5183645 0.36463213
000030 56 76 02 3f 31 5e 03 3f 69 a3 bb 3e 51 4d 8a 3e
       0.50961816 0.513156 0.3664811 0.27012113
000040 36 bc 29 3e de 08 6d 3e 64 6e f1 3e 0b cd ca 3e
       0.16575703 0.23147914 0.47154534 0.3960956
000050 af 07 b0 3e af a5 ff 3e b6 84 d6 3e 07 57 af 3e
       0.34380862 0.49931094 0.41898125 0.34246084
000060 ac 2f 64 3e 63 f8 15 3d b1 66 81 3d
       0.2228381 0.036613833 0.06318415

data_bn.bias f4 [27]
000000 9c 9d 2f bc 78 56 bd 3c 41 fe 80 bc c2 3f 8a bc
       -0.010718729 0.02311252 -0.015746238 -0.016876105
000010 3f 82 53 bc 8f 34 c6 3a 48 05 33 3d 73 41 16 3c
       -0.012909471 0.0015121865 0.04370621 0.009170878
000020 c1 71 87 ba 77 e8 b6 bc 7f 7e 1f 3b 31 d4 71 3c
       -0.0010333584 -0.022327645 0.0024336872 0.014760063
000030 11 ca dc bb a1 32 50 3b 16 66 9d bb 6a eb c3 3c
       -0.0067379554 0.0031768458 -0.0048034294 0.023915965
000040 f2 42 3e 3d 68 fe 1e 3d 58 f4 0a 3c 06 5a 5b bc
       0.046450563 0.03881684 0.008481108 -0.0133881625
000050 bd af 8e bc f2 cf df bc 27 ad bc bc 30 c6 d9 3a
       -0.017417783 -0.027320836 -0.023031784 0.0016614851
000060 ad 05 7c 3c c3 73 88 3c c7 08 fe 3b
       0.015382213 0.016656762 0.007752511

data_bn.running_mean f4 [27]
000000 08 b0 b3 42 15 3c 90 42 62 d2 96 41 d0 64 c5 42
       89.84381 72.11735 18.852726 98.6969
000010 18 0b 9d 42 2a 82 a1 41 1a 44 b1 42 f8 44 94 42
       78.52167 20.188557 88.63301 74.134705
000020 63 a7 9a 41 f6 e4 c5 42 39 bb 97 42 5c cc 9c 41
       19.331732 98.94719 75.86567 19.599785
000030 8d 93 d4 42 06 42 91 42 9e c7 97 41 2b 18 d9 42
       106.288185 72.62895 18.97247 108.5472
000040 e4 df a5 42 a5 57 a8 41 b0 11 02 43 0a bd b1 42
       82.93729 21.042795 130.06909 88.86922
000050 e2 7b b1 41 db 51 00 43 e5 88 a8 42 2e 63 aa 41
       22.18549 128.31975 84.26737 21.298428
000060 2b a7 d0 42 c0 9a b1 42 8d 89 b1 41
       104.3265 88.802246 22.192163

data_bn.running_var f4 [27]
000000 80 cf 46 46 00 d0 9d 46 9d ab c2 45 eb bd 50 46
       12723.875 20200.0 6229.4517 13359.4795
000010 15 c1 ad 46 f5 ed d7 45 1b 4b 20 46 d7 04 98 46
       22240.541 6909.7446 10258.776 19458.42
000020 c4 51 c3 45 7b 30 4a 46 e6 3a 8f 46 d3 3c be 45
       6250.2207 12940.12 18333.45 6087.603
000030 c9 03 63 46 e9 c9 81 46 d3 e9 b1 45 56 78 88 46
       14528.946 16612.955 5693.228 17468.168
000040 f9 86 c5 46 e0 ec ed 45 28 e4 b5 46 af a8 cc 46
       25283.486 7613.6094 23282.078 26196.342
000050 db e2 f8 45 76 c4 ab 46 b9 03 b3 46 01 2a e0 45
       7964.357 21986.23 22913.861 7173.2505
000060 8f 44 8d 46 87 73 bb 46 ee 29 ef 45
       18082.28 23993.764 7653.241

st_gcn_networks.0.gcn.conv.weight f4 [24, 3, 1, 1]
000000 fe 45 92 bd 1b 43 53 bc 9b ad 0a 3b f9 c4 13 3e
       -0.07142256 -0.012894417 0.0021160606 0.14430608
000010 6a c3 6b bd cc 6c 84 3d 5b 84 98 3d be f5 1f 3b
       -0.05755941 0.06466064 0.0744712 0.0024407948
000020 9d e5 4e 3d 03 28 12 bd 8d 1e 9b bc 40 7d 04 3e
       0.050511945 -0.03568269 -0.018935466 0.12938404
000030 cc 80 e1 3c a3 5b 90 bc b3 3d 61 be 69 c6 5a 3e
       0.027527235 -0.01762182 -0.21996193 0.2136475
000040 49 e1 97 3e a0 f2 a2 3d 26 f6 67 be ed f4 28 3e
       0.29664066 0.07956433 -0.22652492 0.16499682
000050 ed cc 97 3d da 5b 41 be ea 03 8f 3d 31 a9 08 be
       0.07412133 -0.18882695 0.069831684 -0.13345791
000060 db d0 4a bd b9 4e 59 bd de 19 92 bc bd f8 7e be
       -0.049515586 -0.05305359 -0.0178346 -0.24899574
000070 50 b2 b1 bd fe 9e 16 3d 4d 28 28 3e a4 1e 95 bc
       -0.086765885 0.03677272 0.16421624 -0.018203087
000080 b8 fc 89 bc 9c de 0e be 2a 06 08 be f7 93 8c 3b
       -0.016844139 -0.13952106 -0.13283601 0.0042900997
000090 68 da 40 ba 62 04 ab bc 93 07 44 3e 57 69 33 bd
       -0.0007356764 -0.020876113 0.19143514 -0.04380163
0000a0 c5 17 72 be 2f 7b 03 be 00 b5 6c 3d 67 4f 8a 3d
       -0.2364188 -0.1283996 0.057789803 0.06753426
0000b0 e6 5c 50 3d 74 e9 34 3e 75 2d ca bd 81 d0 29 3e
       0.050869845 0.1766718 -0.098719515 0.16583444
0000c0 69 a2 fc bb f4 40 d2 bb dd 5d 6c 3b f9 ae 13 bd
       -0.0077097905 -0.0064164344 0.003606669 -0.03605554
0000d0 86 ae fe bc 8e fb 9f bd 77 df 20 3e b6 dd be bc
       -0.031089079 -0.07811652 0.15710245 -0.02329908
0000e0 ae 04 22 3d 24 2d 1b bd fd 33 c4 bc b0 66 26 3c
       0.039555244 -0.037884846 -0.023950571 0.010156319
0000f0 65 b7 59 be 0b 0b 8d 3c 34 c7 1f bc 06 6e 38 3d
       -0.21261366 0.01721718 -0.009752084 0.0450268
000100 9a 78 69 bd 21 f0 e4 3d 52 80 48 3d cd bc 56 bd
       -0.05699978 0.111786135 0.0489505 -0.05242615
000110 1d bf 19 bc bc 03 db bd 49 31 10 3e 35 c2 48 3d
       -0.009383944 -0.10694072 0.14081301 0.049013335

st_gcn_networks.0.gcn.conv.bias f4 [24]
000000 ae 50 fb 3c 6e 24 4d 3d d3 12 52 3d 84 6b 9f 3d
       0.03067812 0.05008357 0.051287483 0.07784179
000010 10 9e 30 bc 63 2d 34 be 40 91 fd bb 35 93 fd 3d
       -0.010779873 -0.17595439 -0.0077382624 0.12381593
000020 a0 0e 8d bd 57 f1 84 3c ea cc b0 3d cd 84 f5 bc
       -0.06887555 0.016228361 0.08632834 -0.02997055
000030 8f e8 d5 3c 06 f4 0e 3e 7a 77 26 3e e0 f9 85 bc
       0.02611187 0.13960275 0.16256514 -0.016354501
000040 ab 2a 86 bc 72 31 1f be 80 83 bb 3c cc 10 74 bd
       -0.016377768 -0.15546206 0.022889853 -0.05958633
000050 15 40 21 3d ab 1b e6 3c b7 9e dd bc d8 67 ac 3a
       0.039367754 0.028089365 -0.02705322 0.0013153506

st_gcn_networks.0.tcn.0.weight f4 [8]
000000 bd de 21 3e d1 ec a3 3e e1 5b c5 3e 17 f9 8e 3e
       0.15807624 0.32016614 0.3854666 0.27924415
000010 b5 03 82 3e de 89 ad 3e 08 76 ab 3e 0c 47 b1 3e
       0.25393453 0.33894247 0.33488488 0.34624517

st_gcn_networks.0.tcn.0.bias f4 [8]
000000 bc 46 3f 3d 78 15 0c 3d 0b f3 3f 3d 28 04 a8 3c
       0.046698317 0.03420016 0.046862643 0.020509794
000010 d5 0e 0a bd 33 54 63 3d c8 3f 0d bc ec 83 36 bd
       -0.03370555 0.05550022 -0.008621164 -0.044559404

st_gcn_networks.0.tcn.0.running_mean f4 [8]
000000 9c 79 92 bb a7 96 a2 3a ab 18 8e 3c 9b cf 89 3b
       -0.0044700634 0.0012404517 0.017345747 0.0042056567
000010 84 e9 55 3b c6 8c bb bb b2 4f 84 3c 8b 3d 6b 3c
       0.0032640407 -0.0057235686 0.016151283 0.014357935

st_gcn_networks.0.tcn.0.running_var f4 [8]
000000 c4 41 ee 38 bd bf 5f 39 1e 0a a7 39 b0 01 8e 39
       0.00011360974 0.00021338365 0.0003186026 0.00027085608
000010 db 32 a6 37 1d 1f 7b 39 85 f5 cb 39 7a 21 89 38
       1.9812423e-05 0.00023948816 0.00038902104 6.5389046e-05

st_gcn_networks.0.tcn.2.weight f4 [8, 8, 9, 1]
000000 78 73 d9 bc 12 84 3a bc ac ba 7e 3c 2c d3 b1 bb
       -0.026544318 -0.011384027 0.015547436 -0.005426785
000010 ba e2 c5 3b ac 5a c8 bc d0 c5 cb 39 69 5a 1d bc
       0.006038991 -0.024457298 0.0003886656 -0.009604075
000020 88 ff 49 3c 72 ff eb 3c 2f a1 59 bd 01 fa db bc
       0.01232899 0.02880833 -0.053132232 -0.02685261
000030 bf 3d ca bb fb 04 26 bc fc e7 c1 3c 83 92 7e 3c
       -0.0061719115 -0.010133023 0.02367019 0.015537861
000040 49 33 01 ba 8c 27 66 bc 2b 8d 32 3d 8e c1 6b 3d
       -0.00049286016 -0.014047515 0.04359166 0.057557635
000050 16 ff db 3c 27 e7 7c 3d 45 46 69 bc 84 89 bf 3d
       0.026855033 0.06174388 -0.014237945 0.09352401
000060 28 8a 77 bd c6 cc d6 3c 9b f8 6e bd 43 6d 03 3c
       -0.06043449 0.02622069 -0.058342557 0.0080216555
000070 d4 23 a6 bc 73 1b 75 3d ef c1 f5 ba 45 b6 6c 3c
       -0.020280756 0.05984063 -0.0018749813 0.014447753
000080 1a 74 bf 3c ea 1c 9f 3c be 63 17 3d 41 cb a6 3c
       0.023370791 0.019422967 0.036960356 0.02036059
000090 97 25 7e bd 65 a6 dc bc 7c c9 fc 3c 8d 3c b9 bc
       -0.062047567 -0.026934812 0.030857794 -0.02261188
0000a0 b3 61 e7 bc 12 63 a3 3c be f0 b3 3c f8 25 35 bd
       -0.028244829 0.019944701 0.02196538 -0.044225663
0000b0 02 69 85 3c 24 65 f7 bc 92 3c e4 3b 7b b8 13 3c
       0.016285423 -0.030199595 0.0069652284 0.009016152
0000c0 cf 29 c5 3c 03 62 eb 3c 2a bb 60 3c f8 d7 7f bb
       0.024067787 0.028733259 0.013716498 -0.003903864
0000d0 f0 2c 2a 3c d1 2e 46 3c 84 3b ee 3c ae 1a cf 3c
       0.0103866905 0.012096123 0.029081114 0.025281277
0000e0 d6 d3 e2 3b 51 79 1d bd 7d 63 da bc 6e 4d 75 bc
       0.0069222255 -0.038445774 -0.026658768 -0.014972074
0000f0 14 51 fc bc f7 a1 74 3d b4 54 64 bc a5 9d f7 bc
       -0.03080038 0.059724774 -0.01393621 -0.030226538
000100 9f bc ee bd 44 9d d3 ba 39 ff 7f bd cd 1a 95 3b
       -0.1165707 -0.0016144891 -0.06249926 0.004550314
000110 9f e6 98 bd 7f b8 87 bc f4 bd bb bc ed 62 88 3b
       -0.074658625 -0.016567467 -0.022917725 0.0041621835
000120 99 86 ad 3c bc 3d 5a bc 51 1a 80 bb df 0d be 3a
       0.021182345 -0.013320383 -0.003909387 0.0014499984
000130 79 cf 92 3c 42 ff 34 3c 5d 4f 45 3d ff e1 86 3b
       0.017921196 0.011047186 0.04817139 0.0041162963
000140 c3 a9 bb bb 10 75 e3 3c 57 3f 86 3c 89 4b 27 3d
       -0.0057270243 0.02776578 0.016387625 0.04084352
000150 f4 fb 02 3c f8 d7 b1 bc 4e b0 85 3b 7a 05 f4 3c
       0.007994641 -0.021709427 0.004079855 0.029787768
000160 c5 fe e3 bb 0a 98 07 3d 73 db f9 3c 5c ea 99 3d
       -0.006957861 0.03310398 0.03050015 0.07515404
000170 6a 1c a4 3d 0b 08 3a 3a d6 a1 87 bc 3e 04 73 bd
       0.08013232 0.00070965354 -0.016556662 -0.059330218
000180 6d a3 3f bc d1 d0 b7 3c 1d 0f 05 bc b9 76 54 3d
       -0.011696679 0.022438439 -0.008121279 0.051871035
000190 8b 00 e1 bc 0a e6 ae 3c af 07 6f 3c 51 36 8e 3c
       -0.02746608 0.021349926 0.014589234 0.017359884
0001a0 ac 23 67 3c 71 23 1f 3d 7c 5d eb bc a6 95 52 bc
       0.014107626 0.03885216 -0.0287311 -0.012853062
0001b0 b5 97 99 3c 22 f4 8f bb c6 17 e0 3c c4 fe 80 3c
       0.018749097 -0.0043931166 0.027355086 0.015746482
0001c0 a7 10 9c 3c 83 86 03 bd d1 9b 46 3d ab f1 6b 3d
       0.01905091 -0.032110702 0.04848844 0.05760352
0001d0 e3 3c 91 3c b9 23 b4 bc ef f2 0b 3d 42 2c a1 3c
       0.017729228 -0.02198969 0.034167226 0.019674424
0001e0 c9 b3 14 bd cd 4c a6 3c ba 08 04 bd d3 b2 41 bd
       -0.03630427 0.020300293 -0.032234885 -0.04728968
0001f0 b4 97 99 bc ce ca 75 bc 43 e2 7c bd 58 47 29 bd
       -0.018749095 -0.015001966 -0.061739217 -0.041327804
000200 ac 96 8d bd 68 c4 3a bd 8f 97 b3 bc 1e 5b 21 3d
       -0.06913504 -0.045597464 -0.021922855 0.039393537
000210 35 12 f5 3c 54 e6 23 bd 51 5d 62 3d 28 32 fd 3c
       0.029915908 -0.04001458 0.055264775 0.030907705
000220 11 55 5b bd 29 5f ab bc 86 24 7e bb 4b fd bb 3c
       -0.053547923 -0.0209194 -0.0038779094 0.022947928
000230 b0 d0 1f bd 0d 41 a8 3c ae 54 c9 bc 97 d9 d4 bc
       -0.03901738 0.020538831 -0.024576511 -0.025982661
000240 1f a8 a2 bc 0c ec 82 bb 7e f8 3a bc 82 47 5c 3d
       -0.019855557 -0.003995424 -0.011411784 0.053779133
000250 c4 85 83 bc 1b f7 d2 bb 09 16 af 3c 16 71 cc bc
       -0.016054995 -0.0064381487 0.021372812 -0.024956267
000260 27 e7 8f bc d7 1d 80 bb 80 5a b0 bb f3 a7 23 bc
       -0.017566277 -0.003909807 -0.005381882 -0.009988773
000270 a7 bb ca 3c 6f 96 d5 bc 2a e5 11 3c 8f fb 7f 3c
       0.024747683 -0.026072709 0.008904735 0.015623941
000280 df 77 0a bd 03 f6 df 3b 99 3c 8d 3d d1 43 4f bb
       -0.033805724 0.006834747 0.06896324 -0.0031626115
000290 a8 54 04 3c c7 2a a2 bd 11 ec 62 3d 14 63 a0 bb
       0.008076824 -0.079183154 0.05540091 -0.0048946235
0002a0 bc 09 44 3d c8 07 88 bd 4b 40 17 3d 71 4a e9 3c
       0.047860846 -0.06642109 0.03692655 0.02847788
0002b0 08 0a fd bc b4 4f f9 bc 04 c2 ea 3c 9c 6d 75 3c
       -0.030888572 -0.030433513 0.028656967 0.014979746
0002c0 c5 c1 09 bd 24 a4 be 3a a4 41 13 bd 43 b4 cc 3c
       -0.03363206 0.0014544767 -0.03595127 0.0249883
0002d0 c1 07 a6 bb ac 27 56 3c f3 09 40 3d e4 f0 f2 3b
       -0.0050668423 0.013070982 0.04688449 0.0074139703
0002e0 57 ee 7b bd 5c 94 88 bc 99 ce f4 bc bb 1f 59 bc
       -0.061506595 -0.016672306 -0.02988367 -0.013252194
0002f0 27 7e 52 3b 13 b2 28 bd b8 65 88 bd 30 0f 7c 3d
       0.003211865 -0.04118545 -0.06660026 0.06153792
000300 d5 0d 42 bd 91 47 5d bd d4 08 cd 3b 6c dd 2e 3d
       -0.047376473 -0.05402333 0.006257156 0.042691633
000310 f0 e8 3e bd 67 21 a4 3d 65 5a 52 3c 4b cf f0 bc
       -0.046608865 0.080141835 0.012838935 -0.02939572
000320 36 aa 84 bd 6f 60 5b 3d b1 96 be 3d 64 db ab 3c
       -0.06477778 0.053558763 0.09306086 0.020978637
000330 00 e2 05 bd a7 a3 15 3d 89 27 3f 3d 64 42 3c bd
       -0.032686234 0.036533024 0.046668563 -0.045961753
000340 96 12 c3 bc 99 1f 9d bd 55 db 17 3d 0a 58 4b 3b
       -0.023812573 -0.076720424 0.037074406 0.0031027817
000350 93 38 6e 3d 9f a5 2d bd d7 93 06 bd 9b 9a a1 bc
       0.058159422 -0.042394277 -0.032855835 -0.019727042
000360 b6 b0 e1 bb 7f c9 52 bb c9 db 54 3c 95 12 40 3c
       -0.0068875207 -0.0032163558 0.012991854 0.01172318
000370 8b b0 ad 3c 28 04 5c bc 7a ae b6 bb f5 4b 6d bc
       0.021202346 -0.013428725 -0.0055749984 -0.014483442
000380 e8 63 3b 3c 9c c7 ab ba af 5a a7 3c a5 d7 63 bc
       0.011437394 -0.0013105753 0.020428983 -0.013906394
000390 0f bc 0f bc 96 89 19 3d dc 1c 15 3d 38 24 db 3c
       -0.008772864 0.037484728 0.036404476 0.026750669
0003a0 75 8f 8d 3b 71 80 19 3d 0c f3 69 3c 92 ae 26 3c
       0.00432008 0.037476007 0.014279138 0.010173457
0003b0 53 e2 75 3a 8d 64 52 bc a8 82 09 bc 73 b4 f2 bb
       0.0009379733 -0.012841356 -0.008392967 -0.007406765
0003c0 7a db 34 3c b9 36 96 3b 5c 78 56 bd 7e fe 58 3c
       0.011038655 0.00458416 -0.052360877 0.013244269
0003d0 c1 a1 0e bd fe ca 09 bd 2c 04 34 bd 23 f2 1a bd
       -0.03482223 -0.033640854 -0.04394929 -0.037828576
0003e0 ec ee 3c bc 30 35 0a bd 43 a9 09 bd ab bb 91 3c
       -0.011531573 -0.03374213 -0.033608686 0.017789682
0003f0 0f df dd 39 30 29 44 bd 42 90 4e 3b ad 3b 12 3d
       0.00042318596 -0.047890842 0.003151909 0.035701443

st_gcn_networks.0.tcn.2.bias f4 [8]
000000 61 3a 84 38 d4 76 99 37 e7 d0 e8 b8 5d 14 70 b7
       6.3051244e-05 1.8294355e-05 -0.00011101533 -1.4309856e-05
000010 a5 d2 e5 37 a2 02 2f b8 d2 e9 48 b8 cd f4 40 b8
       2.7397016e-05 -4.1725703e-05 -4.7901478e-05 -4.6004356e-05

st_gcn_networks.0.tcn.3.weight f4 [8]
000000 a7 0d af 3e 06 b3 9c 3e d8 94 8c 3e 75 c5 6d 3e
       0.34190103 0.30605334 0.2745731 0.23219855
000010 48 ba 4f 3e 77 70 a6 3e ec 18 b9 3e e3 08 9c 3e
       0.20285904 0.3250768 0.36151826 0.3047553

st_gcn_networks.0.tcn.3.bias f4 [8]
000000 5d 93 38 bd bf f2 eb ba 7a 90 5c 3d 99 db 8d 3c
       -0.04506241 -0.0018001421 0.05384872 0.017316626
000010 db 09 9d bc 7b f4 b9 3c bf 04 fe 3c 1a 1f 9b bc
       -0.019169739 0.022699585 0.031008122 -0.018935729

st_gcn_networks.0.tcn.3.running_mean f4 [8]
000000 38 7c 1e 3c c0 3b 8f 3c 6d 07 3b bc 9f 35 fb bc
       0.009673171 0.017484546 -0.011415345 -0.030665217
000010 61 0d ed 3c 0d 4b 1b 3d 91 b9 d7 bb d1 df 45 3c
       0.028937044 0.03791337 -0.0065834005 0.012077288

st_gcn_networks.0.tcn.3.running_var f4 [8]
000000 00 14 b5 3b f7 7e 62 3b e2 6e e3 3a c7 fa 66 3a
       0.005526066 0.003456054 0.0017351771 0.00088111724
000010 65 2b ca 3a 0a e0 95 3b 31 2d ac 3b 69 7d 5c 3b
       0.001542431 0.0045738267 0.0052544107 0.0033644086

st_gcn_networks.1.gcn.conv.weight f4 [24, 8, 1, 1]
000000 d4 67 bb bc b9 50 1d bd b9 c3 6a 3d 2a 36 63 3d
       -0.022876658 -0.03840706 0.057315562 0.055471577
000010 4f 16 81 bc 3d bd 88 3c db 9c 39 3c 19 9f 31 3d
       -0.015757708 0.016691798 0.011328901 0.043364618
000020 f5 3a 9d bb 46 f6 9d bc 16 4f aa 3d d2 48 0e bd
       -0.004798288 -0.019282471 0.08315866 -0.034737416
000030 13 d5 fa 3c fc e8 b8 bc 54 2f 8c 3d 12 f3 a9 3c
       0.03061918 -0.022572033 0.068449646 0.020745788
000040 41 75 8e 3d 38 12 77 bd 74 90 ee bc df 8c a3 3d
       0.06955958 -0.06032011 -0.029121615 0.079858534
000050 4a 42 8a 3d 54 ef 8f 3d ba a7 f8 bc 2f 78 99 bc
       0.06750925 0.0702807 -0.030353416 -0.018734066
000060 67 36 a5 3b f8 05 fe bc 8a 1d 0b bd f3 d5 0a bd
       0.0050418857 -0.031008705 -0.033963718 -0.033895444
000070 0d 39 8a bd 66 5f bf bd 6f e3 30 3d 98 18 c2 bd
       -0.06749163 -0.09344368 0.043185648 -0.09477347
000080 e8 cc b9 bc 94 01 a5 3b bf 50 99 3d e1 6b 4b bd
       -0.022680715 0.0050355885 0.07486104 -0.04966343
000090 0b dd 9d 3c 9d f0 9c 3c fa 69 1c 3d 69 b1 75 bb
       0.01927044 0.019157702 0.038187005 -0.0037489778
0000a0 cf bb 52 3c c5 61 b8 bd 42 3e f5 3c d8 90 81 bd
       0.01286216 -0.09003023 0.029936913 -0.06326455
0000b0 3c e9 2a bc 9c e0 be 3b 86 99 a6 bd 63 92 0b 3c
       -0.010431584 0.0058251154 -0.08134751 0.008518788
0000c0 a8 b0 da bc d6 77 84 bc 1b f7 52 3d 85 0c 4a bb
       -0.026695564 -0.016170423 0.05150519 -0.0030830216
0000d0 94 50 92 3c c3 58 a7 3c 16 86 44 bd 14 3e f8 bc
       0.017860688 0.020428067 -0.047979437 -0.030303039
0000e0 d2 a9 da bc 3c 81 98 bb a5 b4 d0 bc cf 5c 00 bd
       -0.026692305 -0.004654078 -0.025476763 -0.03133851
0000f0 f5 81 fc bb ce 2c 6b 3d 01 84 b3 3b dd a0 98 3d
       -0.007705922 0.057415776 0.0054783826 0.07452557
000100 d1 c9 cd bc 78 ee 8d 3d c9 c4 39 3c d7 ac 1b bd
       -0.025120648 0.0693025 0.011338421 -0.03800663
000110 57 ea 7b bd 3c 17 ff 3b 13 89 9c 3d c9 68 cb 3d
       -0.06150278 0.007784752 0.07643332 0.099320956
000120 3a f9 6e bd fc b9 00 bc 14 2b 77 bd 22 b9 df bc
       -0.05834315 -0.007856842 -0.060343817 -0.027309958
000130 ac 3d f1 bb c8 4f 00 bd 3a e6 63 3d df 30 cb 3a
       -0.007362088 -0.031326085 0.055639483 0.0015502236
000140 c4 6a 48 3c 36 40 09 bc c7 47 5f 3d 50 11 40 bd
       0.012232486 -0.0083771255 0.05451181 -0.04689151
000150 32 81 49 bd c2 7e c7 bd fb b7 d2 3d f3 ce 47 bd
       -0.049195476 -0.09740974 0.10288998 -0.048781347
000160 48 70 a4 bc 23 a3 ff 3d 12 77 92 3d ec 9e b2 3c
       -0.020073071 0.12482288 0.07151617 0.021804295
000170 3b 51 65 bd 0f c4 88 3d 1a c0 24 bd 6a 43 be bd
       -0.05598567 0.0667802 -0.040222265 -0.09290202
000180 3a 29 24 bd 2f 09 c6 bc 6f dc 96 3d 8f 09 35 3d
       -0.04007838 -0.024174301 0.07366263 0.04419857
000190 2d f5 96 3b f7 c7 95 3c d1 23 e3 bc d5 94 14 3d
       0.004606864 0.018283827 -0.02772704 0.03627475
0001a0 1b 28 b0 3d 0e 5d 3f bd 1e 21 dd ba bc f9 83 bd
       0.086013995 -0.046719603 -0.0016870832 -0.064441174
0001b0 4a 5e 01 3d 37 f6 a6 bd b0 81 a3 3d 1f 6b 6b 3d
       0.03158406 -0.081524305 0.0798372 0.057475206
0001c0 83 a6 8c bd 67 69 d9 bd b0 8e 2d 3d 2a e5 42 3d
       -0.06867697 -0.10615807 0.042372406 0.04758183
0001d0 9b 40 8e bd 50 f6 48 bd 09 5d fa 3c 79 fc 95 3d
       -0.06945916 -0.049063027 0.03056194 0.07323546
0001e0 4a 59 ea 3c 02 46 40 3c c0 bb 5c bc c3 83 cb b9
       0.02860703 0.011735441 -0.013472497 -0.00038817347
0001f0 8b b7 cf ba f7 6d 86 3c 7a e6 0e 3d 30 f5 18 bc
       -0.0015847547 0.016409857 0.03488777 -0.009335801
000200 5d d5 37 bc 1d 5a 47 bc 1c 4f b8 3c 4f 10 93 3d
       -0.011220303 -0.012167481 0.02249866 0.07180845
000210 6a fd 46 bc a1 dc 3e 3d 98 a1 51 bd 44 fb 62 3a
       -0.01214538 0.046597127 -0.0511795 0.00086586573
000220 23 44 6f 3d 11 1a ef 3b f2 99 d0 3c 13 a4 d4 bc
       0.05841459 0.0072968085 0.025464032 -0.025957143
000230 c0 98 d8 3a 77 35 54 3d 21 e8 b5 3d ff ab a3 3c
       0.0016525015 0.0518088 0.08882166 0.019979475
000240 6a 24 b7 b9 21 24 c8 3c e7 54 d9 bc 28 ea 78 bd
       -0.0003493161 0.02443129 -0.026529742 -0.060770184
000250 a1 4e e3 bb 76 46 57 bd 6f d7 7a 3d 06 8a ad 3c
       -0.0069368635 -0.05255743 0.06124061 0.021183979
000260 63 61 9b 3d 9c 7f f5 bc 95 94 ba bc f2 ed 68 bd
       0.075869344 -0.029968075 -0.022775928 -0.056867547
000270 cf 11 63 bc 46 40 d4 bc 44 f6 1b 3e 79 94 89 bb
       -0.013859226 -0.025909554 0.15230662 -0.0041986075
000280 eb b8 5e 3b 1b 7e 04 3b ac ab 91 3c 40 c4 79 bd
       0.0033984731 0.0020216766 0.017782055 -0.060978174
000290 c6 db cb 3c 44 79 fb bb 66 d3 3c 3c db 9b 0e 3b
       0.02488507 -0.007674368 0.011525011 0.0021760378
0002a0 68 6a c3 bc c7 6a 21 bd a9 df 9c bc 15 10 01 3c
       -0.02385445 -0.03940847 -0.019149618 0.007877369
0002b0 22 60 83 bd ba 23 7c bd 6d ad 04 bd 1c f8 da ba
       -0.0641482 -0.06155751 -0.032391954 -0.0016706022
0002c0 de 81 8d 3d aa 79 1c 3d 08 a1 ec 3c 48 bb d0 bd
       0.06909536 0.038201965 0.02888538 -0.10191971
0002d0 47 d3 76 3d 5d d4 22 3d dd 3b ac bb 6a 02 d4 bc
       0.060260084 0.039753307 -0.0052561597 -0.025880057
0002e0 92 e6 1e bb fd 23 ba bc 4d ee 19 3d c1 52 da 3b
       -0.0024246317 -0.022722239 0.037580777 0.006662697
0002f0 f4 a1 1b 38 22 14 15 bd 58 1f 0e bb 42 a5 94 3d
       3.710571e-05 -0.036396153 -0.0021686163 0.07258083

st_gcn_networks.1.gcn.conv.bias f4 [24]
000000 4d 21 38 ba 59 8a 53 3c ea 50 74 bc 3c 3f 1c 3d
       -0.0007024005 0.012911403 -0.01491187 0.038146242
000010 d8 02 1c 3c dc b8 b2 bb 8a 78 51 3b 00 f0 b7 b8
       0.009522162 -0.005454166 0.0031962716 -8.7708235e-05
000020 94 47 95 bd dd 15 98 bb 25 97 6c 3c 9a cc b7 3a
       -0.07289043 -0.004641278 0.014440333 0.0014022768
000030 50 6f 51 bd 43 d4 42 3c 19 f8 54 3d 53 a2 da bb
       -0.051131546 0.011891427 0.051994417 -0.0066721826
000040 22 01 f9 bb f8 b6 22 bd 29 08 80 3b 68 b1 7d 3c
       -0.007599012 -0.039725274 0.0039072228 0.0154841915
000050 75 48 41 3c 6a 59 92 bc e6 a4 bd 3c 80 34 f5 bb
       0.01179706 -0.017864902 0.023149919 -0.007483065

st_gcn_networks.1.tcn.0.weight f4 [8]
000000 dc 6e 67 3e f1 51 49 3e c6 90 8e 3e a5 f0 96 3e
       0.22600883 0.19660164 0.27844828 0.29480472
000010 22 9a 24 3e 85 87 72 3e c9 8d 88 3e f7 18 5b 3e
       0.16074422 0.23684509 0.26670673 0.21396242

st_gcn_networks.1.tcn.0.bias f4 [8]
000000 92 87 f6 bc e5 19 0a 3c 8e 7e 9c 3c 4e 11 b7 3b
       -0.030093942 0.008429025 0.019103315 0.0055867797
000010 ab 62 99 bc be 8a 0a bc bf 82 0c bd bc 5c c0 bc
       -0.018723806 -0.00845593 -0.034304377 -0.02348172

st_gcn_networks.1.tcn.0.running_mean f4 [8]
000000 2c c1 b3 ba 06 18 ca 37 2e 0e be 38 53 98 bf 3a
       -0.0013714186 2.4091463e-05 9.062547e-05 0.001461754
000010 a6 fa a6 ba 76 7e 71 ba c4 74 1d 3b 87 bc f4 39
       -0.0012739494 -0.00092122646 0.0024025897 0.0004667977

st_gcn_networks.1.tcn.0.running_var f4 [8]
000000 4a 8d a5 36 8d 82 bb 36 7b f3 82 37 27 dd 2b 37
       4.9338314e-06 5.5882324e-06 1.5610587e-05 1.0243885e-05
000010 18 26 03 37 13 2c b3 36 3c ef 66 37 8d 04 c4 36
       7.817078e-06 5.3397466e-06 1.3764769e-05 5.841785e-06

st_gcn_networks.1.tcn.2.weight f4 [8, 8, 9, 1]
000000 d8 ef 5d bc 31 89 f6 b8 f3 a1 53 3c 37 3a 3c bc
       -0.013545953 -0.00011755748 0.01291703 -0.011488489
000010 b1 6c 65 bc 14 a7 13 bd d4 83 1d bb cd 0d 42 3c
       -0.014002965 -0.03604801 -0.0024034875 0.011844111
000020 a0 2a 26 3d 03 73 47 bd 40 bd d4 3b 94 85 20 3d
       0.040567994 -0.048693668 0.006492287 0.03918989
000030 71 9e 0a 3c 44 a7 26 bd 15 7e d7 bc cb ec c1 3c
       0.008460627 -0.04068686 -0.026305238 0.023672482
000040 8a 3f be 3c 6e 4a 67 bc 50 58 03 3c 5f 2f 94 bc
       0.023223657 -0.0141168665 0.008016661 -0.018088995
000050 a3 8d 46 3d 58 f1 56 bc 25 bb d0 3b b1 26 d1 bb
       0.04847492 -0.013119064 0.0063699656 -0.006382786
000060 fd 08 35 3d ca 83 0a bd 64 94 4c bd 9e 86 2c 3c
       0.044198025 -0.03381709 -0.049946204 0.010530142
000070 c9 c0 62 3c 0c 36 d1 3c 90 76 18 39 d9 5a c0 3c
       0.013839909 0.025538467 0.00014540018 0.02348082
000080 69 b1 30 3d 0e 08 2d bd 6e 58 29 bd 8b 59 2b bd
       0.04313794 -0.04224401 -0.0413441 -0.04183344
000090 17 6b ef bb ff 74 10 bc bd cc a2 bb f7 c2 80 bb
       -0.0073064673 -0.008816957 -0.0049682544 -0.0039294916
0000a0 c2 07 93 3b c7 01 23 3d d8 b4 78 3c 62 cb ac 3c
       0.004487009 0.039796617 0.015179835 0.021093074
0000b0 f6 bd 09 3d 38 81 54 ba f6 b2 26 bd 15 86 e9 3c
       0.033628426 -0.00081064133 -0.040698014 0.028506318
0000c0 32 b1 9f 3c 4e fe 98 bc fc 3c 85 bc 73 da 03 bc
       0.019493673 -0.01867595 -0.016264431 -0.008047688
0000d0 67 e3 61 bc ac b9 1a bc e0 92 3e bc 27 88 b5 3b
       -0.013787127 -0.009443682 -0.011631697 0.0055399123
0000e0 b6 95 2e 3c a0 0b 83 bc 7d ac 00 3d 59 2a c4 3c
       0.010655811 -0.015996754 0.031414498 0.023945974
0000f0 8e f9 cb 3c d6 8d 89 39 74 5f 0a 3c e9 d3 4e 3c
       0.02489927 0.00026236352 0.008445609 0.0126237655
000100 75 b5 44 bb e4 a2 61 bd 01 9e 50 bd 0c 11 f1 3c
       -0.0030015383 -0.055086985 -0.050931934 0.029427074
000110 ab 9d a8 bc 95 65 39 bc 04 f2 f7 3b 46 f3 23 bb
       -0.020582994 -0.011315723 0.0075666923 -0.0025016828
000120 35 f8 87 bb 11 87 0e bd 1a 92 32 3b 83 5e 83 39
       -0.0041494616 -0.034796778 0.0027247728 0.00025056684
000130 b6 d9 45 bc 96 3d 2a bd 80 79 0e 3c 45 d9 89 3c
       -0.012075832 -0.04156264 0.00869596 0.016827235
000140 5a bf 49 bd c4 4c 20 bd 1c 86 e4 bb 03 d6 52 bc
       -0.049254753 -0.03913571 -0.006973995 -0.012868407
000150 36 09 92 bd 1d b8 ac 3c a7 2b ac 3b 61 e1 29 3d
       -0.07130663 0.021083886 0.005254227 0.041474704
000160 62 04 0c 3c 4a 97 1c 3d 37 c4 02 bd 30 05 31 bc
       0.008545967 0.038230218 -0.031925406 -0.010804459
000170 f3 c7 41 3c b6 58 1b bc 9e 8c bf 3c b7 cf 22 3d
       0.011827457 -0.0094816 0.023382481 0.039748874
000180 36 f7 b7 3b 46 d4 51 3d 48 da b3 3c 49 de 97 3c
       0.0056141866 0.05122783 0.02195467 0.018538611
000190 7b 3f 4c 3d 12 d7 63 3a e1 74 b5 3c fc f0 ab bb
       0.049865227 0.0008691411 0.022150459 -0.0052472334
0001a0 46 c3 f8 3c c4 a4 73 3c 4c 70 88 bc 52 06 e6 3c
       0.030366551 0.014870826 -0.01665511 0.028079186
0001b0 6e 78 c9 bc 69 e8 08 3c 79 d5 aa bc e1 d2 dc bc
       -0.024593558 0.008356192 -0.020853745 -0.026956024
0001c0 0b e6 d8 ba 0d 3e 1b 3c 8e 70 ba 3c 87 c6 d9 bc
       -0.001654805 0.009475243 0.022758748 -0.026583923
0001d0 fe 9e a4 3c 52 98 b5 3c 32 33 c4 bb 1d bd 43 b8
       0.020095345 0.022167359 -0.0059875483 -4.666775e-05
0001e0 36 20 48 bc 9f 12 58 bc 75 16 82 3b c5 44 c1 3b
       -0.012214711 -0.013188033 0.0039699622 0.0058980905
0001f0 04 8d 02 3c 7a e2 5d 3d 9e eb 6a bc 7e ca a2 3b
       0.007968191 0.054171063 -0.014338402 0.0049679866
000200 1c ea 10 3d b7 ea e8 bc 09 8a 9a 3c 12 56 e5 bb
       0.035379514 -0.028432233 0.018864648 -0.006998786
000210 c6 59 de 3c a9 75 a7 bc 3b 34 00 3d 4f 0c 7b bc
       0.027142417 -0.020441847 0.03129981 -0.015322759
000220 b3 2a 01 bd 21 42 a0 bc 21 76 9d bc b5 21 00 bd
       -0.03153486 -0.019562783 -0.019221367 -0.031282146
000230 d1 52 a4 3c 62 ac cb 3b b8 3d 57 bc ce a8 0a 3c
       0.020059021 0.006215618 -0.0131372735 0.008463098
000240 46 11 b8 b7 90 b0 80 bd 2d 6d b6 bc c5 2c a4 bb
       -2.1942553e-05 -0.062836766 -0.022268856 -0.0050102198
000250 a5 2a 90 3a 65 44 0a ba 16 3f 42 3b ef 7d 1b bd
       0.0010999037 -0.0005274474 0.0029639653 -0.037961897
000260 fb 65 54 bd f1 cd 10 3d 43 a2 04 bd eb b8 af bc
       -0.05185507 0.03535265 -0.032381307 -0.02145048
000270 81 03 57 bb 42 1f 2d 3a 54 0e 42 bc 58 34 a4 bc
       -0.0032808485 0.0006604084 -0.011844236 -0.02004449
000280 40 07 06 3c 30 e7 ce 3a 17 4e 2f 3d fe c5 20 bd
       0.0081804395 0.0015785452 0.04279908 -0.03925132
000290 b2 21 81 3c 16 93 43 3d fa bd 5f bd 25 0f c1 3c
       0.015763137 0.047747694 -0.054624535 0.023566792
0002a0 9c 92 0a 3d b2 ce b0 3c bc 38 1d 3c 8f 49 dd bc
       0.033831224 0.021582935 0.009596046 -0.027012615
0002b0 00 d3 1f 3d fb e9 2b bd 7c 2d 0e 3c eb b9 93 bc
       0.039019585 -0.041971188 0.0086778365 -0.018032989
0002c0 2b 17 ce bc 4a c0 30 bd e1 c8 a4 3c dc b0 58 bc
       -0.025157532 -0.04315213 0.020115318 -0.01322576
0002d0 e9 e3 96 3b 19 de bf 3c 71 bf 5e bc d6 fe 4b 3d
       0.0046048057 0.023421334 -0.013595448 0.049803577
0002e0 ff 80 5e bc 36 65 8f bc d2 57 79 3c db 1b 0b bd
       -0.01358056 -0.017504316 0.015218692 -0.033962112
0002f0 d2 1d a6 bc a9 42 64 3b 87 ad 96 bc 48 4b 3e 3d
       -0.020277891 0.0034829772 -0.018393291 0.046458513
000300 12 f0 49 bc d7 3e b7 3b c5 7d 1c bd f8 c3 c6 ba
       -0.012325304 0.005592208 -0.03820588 -0.0015164604
000310 86 af 94 bd d4 04 41 bd 6f b1 25 bc cb 79 a0 bb
       -0.07260041 -0.047123745 -0.010113104 -0.0048973314
000320 68 c8 b5 3c 3e 55 65 3d a9 b6 24 bc e7 58 21 bc
       0.022190288 0.055989496 -0.010053315 -0.009847856
000330 49 ff fe 3b 36 be 8b 3c 28 8b 66 3d 5d cd b4 3b
       0.007781897 0.017058473 0.056285053 0.0055176453
000340 61 b2 00 3d fb 45 c8 3c 7a 81 7c bc c1 60 69 3c
       0.031420115 0.024447432 -0.015411729 0.014244259
000350 a6 d6 a1 bc 0a f2 07 3c a8 eb 32 bb a1 8a 8c bc
       -0.019755673 0.008297453 -0.0027301107 -0.017155947
000360 e1 2f 4d bc 51 1e 80 bc 08 e4 45 3d d3 15 fe bc
       -0.012523622 -0.015639456 0.04831317 -0.031016266
000370 19 05 05 bd b1 f3 3f bb 0c 99 fd bc 65 5d 7d bd
       -0.032475565 -0.0029289539 -0.030956767 -0.061856646
000380 21 2d c4 3c 73 29 45 3d 0d b9 0f 3c 68 75 38 3c
       0.0239473 0.048135232 0.008772147 0.011258461
000390 95 0e 79 3c 82 54 19 3d 9d f5 5f 39 6f 84 09 bd
       0.0152012305 0.03743411 0.00021358435 -0.033573564
0003a0 86 80 17 bd ac e3 5e 3c aa 66 5a 3c 72 87 e9 3b
       -0.036987804 0.013604086 0.013330141 0.007126742
0003b0 ea a1 e3 3c 90 85 e1 bc de 14 98 3c b8 4d 93 bb
       0.027787168 -0.027529508 0.018564638 -0.004495349
0003c0 70 75 c4 3b 1f a1 41 39 24 e1 34 3d ed 65 a9 bb
       0.005995445 0.00018465937 0.044160023 -0.005169621
0003d0 c4 21 52 b9 42 c7 a0 bc ac 38 e6 3c 47 b4 d2 bb
       -0.0002003974 -0.019626264 0.028103195 -0.006430182
0003e0 fb 25 fa bc 8c a3 1e bb 0d c0 af 3c fe a2 70 bd
       -0.030535689 -0.0024206368 0.021453882 -0.05874919
0003f0 ba f8 8f 3c 76 be 93 bb eb 1a 88 bc 0b c9 15 bd
       0.017574657 -0.0045087887 -0.016614398 -0.036568683

st_gcn_networks.1.tcn.2.bias f4 [8]
000000 9e db 8c 37 a8 34 9a b8 77 3a 33 37 55 fb b2 b7
       1.6791568e-05 -7.3531e-05 1.0682844e-05 -2.133629e-05
000010 bf cb 90 37 7e 02 c0 37 97 09 5c 38 3b e2 87 37
       1.7261014e-05 2.2889344e-05 5.246102e-05 1.61986e-05

st_gcn_networks.1.tcn.3.weight f4 [8]
000000 5b 00 57 3e 01 16 81 3e 52 ee 91 3e cd bd 89 3e
       0.2099623 0.252121 0.28502136 0.2690262
000010 ce 43 54 3e cc 4a 98 3e a0 e3 87 3e 5f 36 3f 3e
       0.2072899 0.29744565 0.26540852 0.18673085

st_gcn_networks.1.tcn.3.bias f4 [8]
000000 22 c4 10 3c 56 4c 91 bc 8e 0c 98 bc 19 cd 27 bc
       0.008835824 -0.017736595 -0.018560674 -0.01024177
000010 62 7f e4 38 fe 67 41 bb f1 c1 17 bc e2 0e a3 3b
       0.00010895614 -0.0029511447 -0.009262548 0.0049761394

st_gcn_networks.1.tcn.3.running_mean f4 [8]
000000 55 48 2e bb e9 af 5c 3c 38 c3 c9 bb 81 0d b2 3a
       -0.0026593406 0.013469675 -0.006157305 0.0013584347
000010 77 a1 43 bb 9b 74 02 3c 55 4e 42 bc c2 fb 0f bc
       -0.002985088 0.007962371 -0.011859496 -0.008788051

st_gcn_networks.1.tcn.3.running_var f4 [8]
000000 5c 84 b0 39 ad 67 88 3a 9a 71 0e 3a 38 1e e3 39
       0.0003366795 0.0010406874 0.0005433798 0.0004331933
000010 92 33 8b 39 1e 1f 64 3a e4 7e 05 3a ec a5 0d 3a
       0.0002655057 0.00087021466 0.00050924555 0.00054034474

st_gcn_networks.1.residual.0.weight f4 [8, 8, 1, 1]
000000 de 3e fb bc b1 60 74 bd ae 83 da bd 34 86 96 bc
       -0.030669626 -0.059662525 -0.10669647 -0.01837454
000010 74 b6 56 bd e7 64 e6 3c dc e8 5e 3d 32 9c 90 bb
       -0.052420095 0.028124286 0.05442129 -0.004413151
000020 02 bd 9c bd a3 7c 33 bd f0 5e de bc de e3 1a 3b
       -0.07653238 -0.043820035 -0.02714488 0.0023634355
000030 31 0f 69 3c 03 b8 9d 3d 4a e3 b8 3d ef 40 b8 bd
       0.014224813 0.07701113 0.09027727 -0.0899676
000040 69 00 01 be 3f e3 32 3b d9 63 91 3d 1f 6e 41 bb
       -0.12597813 0.0027296094 0.070991226 -0.00295151
000050 6d c5 08 bd 2e 20 56 3d ce f8 66 bb 01 e9 6e bd
       -0.033391405 0.052276783 -0.0035243514 -0.05832768
000060 5b 3d ae 3d c3 9d a6 3c 7d dc 5d bd 9a 0b a2 3b
       0.085077964 0.020338899 -0.054165352 0.0049452307
000070 88 4f a6 bc a0 c4 be 3b 21 50 70 3d 3e 8d 97 3d
       -0.020301595 0.0058217794 0.058670167 0.07399987
000080 d3 8f 7a bd b4 79 18 3d 3e 8f 93 bd 5e 52 87 3c
       -0.061172318 0.03722544 -0.07205056 0.016518768
000090 71 9c 23 3d 20 02 29 bd 46 e9 a2 3d 28 02 83 3d
       0.039944116 -0.041261792 0.079546496 0.06396896
0000a0 ce f8 e2 3d da 67 e9 3c 4f 23 c0 3d 98 5c 95 bc
       0.11082612 0.028491903 0.093817346 -0.018232629
0000b0 83 ea 7b bd db 75 17 bd 06 4d dc bc 60 fe af bd
       -0.061502945 -0.03697763 -0.026892196 -0.0859344
0000c0 85 6d b3 3c 64 ba c3 3c f0 63 91 bd 23 02 b0 3c
       0.021902809 0.023892589 -0.0709914 0.021485394
0000d0 c4 62 ab bc eb 26 f6 bc 3b 4b 95 bd fb 8f 77 3c
       -0.020921119 -0.030047854 -0.0728974 0.015110011
0000e0 ca d3 01 ba 3b 1b 1e 3d d3 73 ac 3d b2 98 79 3c
       -0.00049525185 0.038600188 0.08420529 0.015234159
0000f0 8c 00 61 3d 00 ca 95 3d 2f 2a 9a bd 4b 2d 00 bd
       0.054932162 0.07313919 -0.07527577 -0.031293195

st_gcn_networks.1.residual.0.bias f4 [8]
000000 3c 09 40 b7 06 d0 d4 b7 13 61 fd 36 f7 8c 9e b7
       -1.1446242e-05 -2.5369238e-05 7.5512885e-06 -1.890071e-05
000010 31 63 0b b8 a2 fd 11 38 1b 0f 2f 38 f2 61 16 37
       -3.323256e-05 3.4806908e-05 4.173732e-05 8.963501e-06

st_gcn_networks.1.residual.1.weight f4 [8]
000000 4f be 5e 3e 6d d1 3c 3e fe 83 6a 3e 95 83 67 3e
       0.21752284 0.18439265 0.22901914 0.22608788
000010 58 ee 3e 3e 7d 97 66 3e 8a 97 a5 3e 38 dc 12 3e
       0.18645608 0.22518726 0.32342178 0.1434182

st_gcn_networks.1.residual.1.bias f4 [8]
000000 22 c4 10 3c 56 4c 91 bc 8e 0c 98 bc 19 cd 27 bc
       0.008835824 -0.017736595 -0.018560674 -0.01024177
000010 62 7f e4 38 fe 67 41 bb f1 c1 17 bc e2 0e a3 3b
       0.00010895614 -0.0029511447 -0.009262548 0.0049761394

st_gcn_networks.1.residual.1.running_mean f4 [8]
000000 da a0 7f bc 7e 43 6c ba bb 92 a7 bb 64 4a a1 3c
       -0.015602315 -0.00090127427 -0.005113927 0.019688793
000010 f7 0a 9b 3b 2a 8a b8 3a 2e e7 77 bc 3b 7c 7e 3c
       0.0047315317 0.0014079262 -0.015130801 0.015532549

st_gcn_networks.1.residual.1.running_var f4 [8]
000000 bb 67 37 3a 63 f6 8a 3a d0 72 2d 3a b2 fd 76 3a
       0.0006996353 0.0010601993 0.00066165347 0.0009421959
000010 ff 80 86 3a 2a bf a4 3a 72 41 4a 3a cc 14 27 3a
       0.0010261833 0.0012569178 0.00077154406 0.00063736434

st_gcn_networks.2.gcn.conv.weight f4 [48, 8, 1, 1]
000000 39 0f de 3c 2a 9d 7b bd c3 f7 80 3c 57 96 46 bd
       0.027106868 -0.06142918 0.015743142 -0.04848322
000010 8c 43 5b 3d 9e 3c 40 3c d4 55 81 bd c3 e9 b3 bc
       0.053531215 0.011733202 -0.063151985 -0.021962052
000020 e9 00 ad bc bb 4d ba bc 29 df 49 3b 9b f7 13 bd
       -0.021118598 -0.022742143 0.003080318 -0.036124807
000030 ae 60 26 bc db 88 b3 3b 57 0c b5 3c 60 ba 9b bc
       -0.010154886 0.005478961 0.02210061 -0.019009769
000040 28 52 d1 3c c6 b3 a8 bc 3d 5b 35 3c 00 01 1f bd
       0.02555187 -0.020593535 0.011069116 -0.038819313
000050 44 34 aa bc 66 53 2c 3c d4 26 19 bd 6b 81 02 bc
       -0.020776875 0.010517931 -0.037390545 -0.007965426
000060 69 94 a9 3c 4a 85 a2 ba 31 ad 2f 3a e9 30 c6 bc
       0.02070065 -0.0012399342 0.0006701528 -0.024193244
000070 7c d2 ed ba a3 4a 40 bd 56 fb cb bc bc 9e 2c 3b
       -0.0018144394 -0.04694618 -0.02490012 0.002633973
000080 c0 1d a6 3c fc f1 4c 3c 7c 87 11 bd 94 69 25 3c
       0.020277858 0.012508865 -0.0355296 0.010095973
000090 2c 9a 5c bd 33 6f 26 3d 41 7f 32 bc 36 7a cd bc
       -0.053857967 0.04063339 -0.0108945975 -0.025082689
0000a0 a9 5d 83 3d d4 6e d8 bb 1d a5 89 bd bb 0e bb bc
       0.06414349 -0.0066050086 -0.06720946 -0.022834172
0000b0 da 75 bd 3d 1a b3 9f bc b0 e7 ca bd f4 5e b9 bc
       0.09250994 -0.019494582 -0.09907472 -0.022628285
0000c0 88 53 23 bd bd 7f ab bd 7c 4e 54 bd 63 71 da ba
       -0.039874583 -0.083739735 -0.05183266 -0.0016665872
0000d0 d3 d0 7a bd 90 2c 56 3d 05 f6 b6 bd 81 b2 2f bb
       -0.061234307 0.05228859 -0.08933643 -0.0026809277
0000e0 8d 64 04 bc e2 fd f0 bc 05 d7 0c 3d 04 f0 16 bc
       -0.008080614 -0.029417936 0.034384746 -0.009212498
0000f0 02 1f 73 bc da e7 ad bc 61 96 b0 3c 72 f1 fc bb
       -0.014838936 -0.02122872 0.021556081 -0.007719212
000100 c2 f4 e6 ba f2 41 e5 bc 14 51 1b bd 7b a9 71 3c
       -0.0017620551 -0.027985547 -0.03791912 0.01474988
000110 f9 80 4c bd b8 37 36 3d 8d 7b f2 bc d0 98 26 bd
       -0.049927685 0.04448673 -0.02959993 -0.040673077
000120 dd e5 da bb 5a 8f a7 bc 6c 1e 36 3d 31 2b a0 3c
       -0.006680234 -0.020454098 0.044462606 0.019551845
000130 9a 12 bf 3c c5 1b 23 bd 84 5f 98 3c 5d 98 ff 3b
       0.0233243 -0.039821405 0.018600233 0.0078001455
000140 41 77 6a 3c 9e 65 fb bc 65 7a c2 3c df 1a 45 3b
       0.014310659 -0.030688103 0.023740003 0.003007583
000150 1b 8b 1e 3d bc 9f 6a 3d 3d dd f8 3a e6 ab ad bc
       0.03870688 0.05728124 0.0018986833 -0.021200132
000160 d7 bc 09 3d a0 34 19 bd c5 74 13 bd 6d b9 fc 3c
       0.033627357 -0.037403703 -0.036000032 0.030850137
000170 c2 07 9f bc 55 21 46 bc 89 c4 b2 3c 51 97 2f bd
       -0.019412879 -0.012092908 0.02182223 -0.042868916
000180 2b 90 c9 3c 2b 81 09 bd a2 1b e3 bb b2 ba 99 3d
       0.024604877 -0.03357045 -0.0069307843 0.075063124
000190 6d be c7 bc 51 2f 90 3c bb 64 b5 3c 00 e2 9d bb
       -0.024382794 0.017600687 0.022142759 -0.004818201
0001a0 4f 0d c4 3b f9 f5 6e bd ff 40 6b 3d d2 c7 a6 bc
       0.005983032 -0.058340047 0.057435032 -0.020358954
0001b0 a2 8b a5 bc 5b cf ea 3a 0e ec e9 bb ef 77 a1 3b
       -0.020208184 0.001791458 -0.0071387356 0.0049276273
0001c0 da 70 fb bc aa 42 c1 3c f7 84 1f 3d 37 fd 15 bd
       -0.03069346 0.023591358 0.038945165 -0.036618438
0001d0 c0 10 09 3c fe 06 3b 3d d4 f4 09 3d a3 b2 39 bc
       0.00836581 0.045660965 0.033680752 -0.011334094
0001e0 71 9c 51 bc c3 9e b5 3c 04 a1 a0 bc 7c da 07 bd
       -0.012793646 0.02217043 -0.019608028 -0.033167347
0001f0 d9 77 6b bd fa 89 f7 bb 49 9e cf bb 66 4c c8 bb
       -0.057487343 -0.00755429 -0.0063360077 -0.006112623
000200 ae 36 05 3d c8 75 04 bd 27 1e a7 3c 04 8e 61 bd
       0.03252285 -0.032338887 0.02040012 -0.055067077
000210 7e b3 24 3d 83 db a8 3d c2 eb b6 3d 21 36 25 bd
       0.04021024 0.082449935 0.08931686 -0.040334824
000220 73 38 94 bb 89 00 10 bd 77 08 05 bd 5e 55 17 bd
       -0.004523331 -0.03515676 -0.032478776 -0.036946647
000230 e0 6f f3 bb f1 46 2d 3d dc 8d b0 3c 7f 88 9a 3c
       -0.007429108 0.042303983 0.021552019 0.018863915
000240 d0 eb 98 3c 36 30 37 3b 1c 82 67 3d 8a 1b 17 bc
       0.018667132 0.002795232 0.056520566 -0.009222874
000250 fa 9e 1e 3d 5a f6 f4 bb ee 29 aa 3c 60 d5 37 bd
       0.03872583 -0.0074756565 0.020771947 -0.044881225
000260 78 57 85 3c 5e f3 fe 3c 7f 0d df 39 11 e0 b4 bc
       0.01627706 0.031121906 0.0004254393 -0.0220795
000270 5f 7a 41 3d 8a 6c 38 bd 41 22 03 bd ca 06 2a bd
       0.047235843 -0.045025386 -0.03201509 -0.04151038
000280 b7 b6 b5 3b d7 f4 d9 bc 9d 4a d6 3c 6a b3 99 bc
       0.005545463 -0.026606007 0.026158625 -0.01876231
000290 6b 84 3d bb 9f 41 06 3d ae e7 1d 3d b9 43 62 3c
       -0.0028918039 0.032777425 0.038551025 0.013810092
0002a0 2e 0b cf 3c 14 66 17 3d 2f b5 9b bc 06 79 28 bd
       0.025273886 0.036962584 -0.019007294 -0.041131042
0002b0 5a 1d 84 3c c1 4d c9 bd cd f8 96 3c 04 8e 07 bc
       0.016127277 -0.098292835 0.018429184 -0.008273605
0002c0 21 12 48 3d 34 22 24 3d 2a 14 8a bd 7b d1 fc 3c
       0.048845414 0.04007168 -0.06742127 0.030861607
0002d0 5c 99 87 3d 6b 49 0f bd e3 e9 37 bc 2e 2b 41 bd
       0.06621048 -0.034982126 -0.0112251965 -0.04716032
0002e0 ea 0a 81 bc 25 30 6f bd e5 40 24 3d 8b ac 03 3d
       -0.015752275 -0.058395524 0.04010095 0.03214697
0002f0 ff 4a 3f bd 42 8e 2d 3d ef 7a a3 bc 2b 68 3e 3d
       -0.04670238 0.042371996 -0.01995608 0.04648606
000300 f6 cc 24 3d bb 52 62 3d 6d ca b9 bc d2 a9 de 3c
       0.04023453 0.05525468 -0.022679532 0.027180586
000310 d6 82 5c 3d d7 05 04 b9 6a db 84 3d e4 e0 bb bc
       0.053835712 -0.00012590676 0.064871624 -0.022934385
000320 1a ec 91 bc 89 73 83 bc 7f 3e fe bc 78 e2 de 3c
       -0.017812777 -0.016046302 -0.03103566 0.027207598
000330 13 74 84 bd b8 71 51 3d f2 96 ef 3c b1 5a 0a bd
       -0.06467452 0.05113384 0.029246781 -0.033777896
000340 04 8f 6b bc af 63 67 bd 51 7b 90 bc cf 86 36 3d
       -0.014377359 -0.05649155 -0.017636927 0.044562157
000350 e5 40 06 bb fc 3a 27 ba 3a 3a 0f 3b c2 5c 4d 3d
       -0.0020485457 -0.0006379334 0.0021854774 0.05013729
000360 5f 95 6f 3d 4c c8 a9 3d 32 8a 76 3c db 31 52 3c
       0.05849206 0.08290157 0.015047597 0.012829269
000370 83 6e 48 bd 47 79 9f bc 86 4b bd 3d 11 68 61 3d
       -0.048933517 -0.01946701 0.092429206 0.055030886
000380 bf 1a ca 3d 27 6f a5 bc 3f fb fc bb 86 0e 55 bd
       0.09868383 -0.020194603 -0.0077203806 -0.052015804
000390 11 61 1f bd c4 f7 1a bc 74 c9 05 3d eb d0 04 bc
       -0.03891093 -0.009458486 0.032662824 -0.008106451
0003a0 d1 f6 15 3d a3 70 31 3d a1 15 9f bd e7 b9 94 3d
       0.036612336 0.04332031 -0.07767797 0.072620206
0003b0 2d dc ab bb 3b 14 56 bd c8 c8 61 bb cf 03 ab 3d
       -0.005244753 -0.052265387 -0.003445195 0.08350336
0003c0 92 56 be bc 48 87 72 bc 90 ba 15 bd 9a ab ab bc
       -0.02323464 -0.014802761 -0.036554873 -0.02095585
0003d0 7a d3 e7 3c 24 63 6f 3c 55 73 b3 bb 56 2f d6 bb
       0.028299082 0.014611039 -0.005476395 -0.0065364046
0003e0 0f de cf bc ea 97 d3 bb 9f 56 d0 3c 20 e8 18 3d
       -0.02537444 -0.0064573186 0.02543193 0.037330747
0003f0 04 ef 9e 3c 92 65 9a 3c 00 87 60 3d 3b 65 2f 3b
       0.01940108 0.01884726 0.054816246 0.002676322

st_gcn_networks.2.gcn.conv.bias f4 [48]
000000 de 3e 43 bc 66 9f 3e 3c 4a 8b 67 bc b8 33 ad 3b
       -0.011916844 0.011634683 -0.01413233 0.0052857064
000010 fa 6a e3 39 78 49 8d bc 69 8d fb 3c cf 04 78 bc
       0.00043376518 -0.017246947 0.030707078 -0.015137865
000020 53 40 28 bc 2c 6c e1 bb 50 20 1b bc c8 67 02 bc
       -0.010269242 -0.00687935 -0.009468153 -0.007959314
000030 85 01 05 bd ad 2c 18 bc bf c7 db b9 c5 a3 12 3c
       -0.032472152 -0.009287995 -0.00041919757 0.0089501785
000040 08 8f 51 bd f8 58 1a bc 1c 2e bd ba 68 68 66 3c
       -0.051161796 -0.009420626 -0.0014433297 0.014062978
000050 f0 26 80 3b 70 9d 84 bc c0 28 1f bc fb f4 06 bc
       0.0039108917 -0.016188353 -0.009714305 -0.008237119
000060 33 8e 3b bd f0 f5 42 bc a0 b2 84 bc e2 39 34 bd
       -0.04578991 -0.011899456 -0.016198456 -0.044000514
000070 8d dc 84 3c 88 44 f2 3b fe 8a cf bb bd d8 64 bc
       0.016218448 0.0073934235 -0.006333708 -0.01396769
000080 a4 f8 32 3c 1e 62 67 3c 98 fe e8 bb 7a 05 fb 3b
       0.010923538 0.014122514 -0.007110428 0.007660565
000090 be f8 f0 bc 73 c0 38 3c 72 d8 80 3b b1 3a fc bb
       -0.029415485 0.011276352 0.0039320523 -0.0076974262
0000a0 73 1d 75 ba ae 7f 5a 3b 27 5b 1e bc 46 71 05 bd
       -0.00093503966 0.0033340263 -0.009665287 -0.03257873
0000b0 3b 8f e3 3c 48 cb 8b bc 50 b4 80 3c 5a e9 a4 3b
       0.027778259 -0.017064705 0.01571098 0.0050327005

st_gcn_networks.2.tcn.0.weight f4 [16]
000000 4c 35 5d 3e ed 81 e6 3d 1d cb 25 3e 6d e2 03 3e
       0.21602362 0.1125525 0.16190763 0.12879343
000010 b5 d7 8d 3d 7f 92 6d 3e de 1d 33 3e 36 13 34 3e
       0.069259085 0.23200415 0.17491862 0.17585453
000020 04 38 21 3e 24 7b 0f 3e d8 a2 08 3e 93 62 39 3e
       0.15744025 0.14011818 0.1334337 0.1810401
000030 89 0c 1b 3e b9 87 1d 3e 6c 87 ca 3d 24 0a cd 3d
       0.151415 0.15383805 0.09889111 0.100117

st_gcn_networks.2.tcn.0.bias f4 [16]
000000 b8 73 af bc 40 8a 8e 3a 0d a8 29 bd 5b 10 b4 bc
       -0.021417484 0.0010874942 -0.04142003 -0.021980455
000010 95 76 5a 3b 28 86 06 bd c4 2e c4 bc f5 67 23 bd
       0.003333484 -0.032842785 -0.02394808 -0.039894063
000020 cb 99 1a bd 15 1d 09 bd e0 37 2c bd 88 75 1e bd
       -0.037744325 -0.033475 -0.042045474 -0.038686305
000030 b6 07 32 bd 50 f8 2e bd 9f da 25 bc 65 a6 1c bd
       -0.043464385 -0.042717278 -0.010122924 -0.038244624

st_gcn_networks.2.tcn.0.running_mean f4 [16]
000000 61 8d d9 ba 97 ab 94 b9 1c c5 2a ba 46 6f b7 b9
       -0.001659792 -0.00028356604 -0.0006514357 -0.00034987385
000010 29 36 cb b9 d9 2e 3f bb db fc 20 ba 99 3e d8 ba
       -0.0003875953 -0.002917221 -0.0006141194 -0.0016498148
000020 7d c0 ae ba f4 80 cd b9 5c 42 83 ba 7b 8c 00 bb
       -0.0013332512 -0.00039196725 -0.0010014283 -0.0019614983
000030 c2 e0 b0 39 29 30 33 ba cf 36 3a 3a 33 3a 5b 3a
       0.00033736794 -0.00068354845 0.0007103504 0.00083628594

st_gcn_networks.2.tcn.0.running_var f4 [16]
000000 12 23 c3 36 d9 e2 49 36 fd 5c 36 36 b1 d9 bf 36
       5.8155356e-06 3.0083377e-06 2.717424e-06 5.717586e-06
000010 d0 41 28 36 86 aa 92 37 f6 17 78 36 ca 11 4a 36
       2.5072259e-06 1.7483962e-05 3.6968827e-06 3.01107e-06
000020 a6 16 72 36 7c 2f 4e 36 b0 6f 26 36 58 43 77 36
       3.6073993e-06 3.0724032e-06 2.4800938e-06 3.6845067e-06
000030 2d 4c 26 36 2e 2a 3b 36 6d c2 d6 35 e0 c1 25 36
       2.4780268e-06 2.7889723e-06 1.6000828e-06 2.4699766e-06
