weights_arm/137.pt (torch, 70926 bytes, 80 tensors)

A f4 [3, 9, 9]
0.5 0.0 0.0 0.0 0.0 0.0 0.0 0.0
0.0 0.0 0.2 0.0 0.0 0.0 0.0 0.0
0.0 0.0 0.0 0.0 0.33333334 0.0 0.0 0.0
0.0 0.0 0.0 0.0 0.0 0.0 0.33333334 0.0
0.0 0.0 0.0 0.0 0.0 0.0 0.0 0.0
0.5 0.0 0.0 0.0 0.0 0.0 0.0 0.0
0.0 0.0 0.33333334 0.0 0.0 0.0 0.0 0.0
0.0 0.0 0.0 0.0 0.33333334 0.0 0.0 0.0
0.0 0.0 0.0 0.0 0.0 0.0 0.5 0.0
0.0 0.0 0.0 0.0 0.0 0.0 0.0 0.0
0.5 0.0 0.2 0.0 0.0 0.0 0.0 0.0
0.0 0.0 0.0 0.0 0.0 0.0 0.0 0.0
0.0 0.0 0.0 0.0 0.2 0.0 0.0 0.0
0.0 0.0 0.0 0.0 0.0 0.0 0.33333334 0.0
0.5 0.0 0.0 0.0 0.0 0.0 0.0 0.0
0.33333334 0.0 0.0 0.0 0.0 0.0 0.0 0.2
0.0 0.0 0.0 0.0 0.0 0.0 0.0 0.0
0.0 0.0 0.0 0.0 0.33333334 0.0 0.5 0.0
0.0 0.0 0.0 0.0 0.0 0.0 0.33333334 0.0
0.0 0.0 0.2 0.0 0.0 0.0 0.0 0.0
0.0 0.0 0.0 0.0 0.0 0.0 0.0 0.0
0.0 0.0 0.0 0.5 0.0 0.33333334 0.0 0.0
0.33333334 0.0 0.0 0.5 0.0 0.0 0.0 0.33333334
0.0 0.0 0.0 0.0 0.0 0.0 0.0 0.0
0.0 0.0 0.0 0.0 0.0 0.0 0.0 0.0
0.0 0.0 0.0 0.0 0.0 0.0 0.0 0.0
0.0 0.0 0.0 0.0 0.0 0.33333334 0.0 0.0
0.0 0.0 0.0 0.0 0.0 0.0 0.0 0.0
0.0 0.0 0.0 0.0 0.0 0.0 0.0 0.0
0.0 0.0 0.0 0.0 0.0 0.0 0.0 0.0
0.0 0.0 0.0
00000000: 0000 003f 0000 0000 0000 0000 0000 0000
00000010: 0000 0000 0000 0000 0000 0000 0000 0000
00000020: 0000 0000 0000 0000 cdcc 4c3e 0000 0000
00000030: 0000 0000 0000 0000 0000 0000 0000 0000
00000040: 0000 0000 0000 0000 0000 0000 0000 0000
00000050: abaa aa3e 0000 0000 0000 0000 0000 0000
00000060: 0000 0000 0000 0000 0000 0000 0000 0000
00000070: 0000 0000 0000 0000 abaa aa3e 0000 0000
00000080: 0000 0000 0000 0000 0000 0000 0000 0000
00000090: 0000 0000 0000 0000 0000 0000 0000 0000
000000a0: 0000 003f 0000 0000 0000 0000 0000 0000
000000b0: 0000 0000 0000 0000 0000 0000 0000 0000
000000c0: 0000 0000 0000 0000 abaa aa3e 0000 0000
000000d0: 0000 0000 0000 0000 0000 0000 0000 0000
000000e0: 0000 0000 0000 0000 0000 0000 0000 0000
000000f0: abaa aa3e 0000 0000 0000 0000 0000 0000
00000100: 0000 0000 0000 0000 0000 0000 0000 0000
00000110: 0000 0000 0000 0000 0000 003f 0000 0000
00000120: 0000 0000 0000 0000 0000 0000 0000 0000
00000130: 0000 0000 0000 0000 0000 0000 0000 0000
00000140: 0000 003f 0000 0000 cdcc 4c3e 0000 0000
00000150: 0000 0000 0000 0000 0000 0000 0000 0000
00000160: 0000 0000 0000 0000 0000 0000 0000 0000
00000170: 0000 0000 0000 0000 0000 0000 0000 0000
00000180: 0000 0000 0000 0000 0000 0000 0000 0000
00000190: cdcc 4c3e 0000 0000 0000 0000 0000 0000
000001a0: 0000 0000 0000 0000 0000 0000 0000 0000
000001b0: 0000 0000 0000 0000 abaa aa3e 0000 0000
000001c0: 0000 003f 0000 0000 0000 0000 0000 0000
000001d0: 0000 0000 0000 0000 0000 0000 0000 0000
000001e0: abaa aa3e 0000 0000 0000 0000 0000 0000
000001f0: 0000 0000 0000 0000 0000 0000 cdcc 4c3e
00000200: 0000 0000 0000 0000 0000 0000 0000 0000
00000210: 0000 0000 0000 0000 0000 0000 0000 0000
00000220: 0000 0000 0000 0000 0000 0000 0000 0000
00000230: abaa aa3e 0000 0000 0000 003f 0000 0000
00000240: 0000 0000 0000 0000 0000 0000 0000 0000
00000250: 0000 0000 0000 0000 abaa aa3e 0000 0000
00000260: 0000 0000 0000 0000 cdcc 4c3e 0000 0000
00000270: 0000 0000 0000 0000 0000 0000 0000 0000
00000280: 0000 0000 0000 0000 0000 0000 0000 0000
00000290: 0000 0000 0000 0000 0000 0000 0000 0000
000002a0: 0000 0000 0000 0000 0000 0000 0000 003f
000002b0: 0000 0000 abaa aa3e 0000 0000 0000 0000
000002c0: abaa aa3e 0000 0000 0000 0000 0000 003f
000002d0: 0000 0000 0000 0000 0000 0000 abaa aa3e
000002e0: 0000 0000 0000 0000 0000 0000 0000 0000
000002f0: 0000 0000 0000 0000 0000 0000 0000 0000
00000300: 0000 0000 0000 0000 0000 0000 0000 0000
00000310: 0000 0000 0000 0000 0000 0000 0000 0000
00000320: 0000 0000 0000 0000 0000 0000 0000 0000
00000330: 0000 0000 0000 0000 0000 0000 0000 0000
00000340: 0000 0000 0000 0000 0000 0000 0000 0000
00000350: 0000 0000 abaa aa3e 0000 0000 0000 0000
00000360: 0000 0000 0000 0000 0000 0000 0000 0000
00000370: 0000 0000 0000 0000 0000 0000 0000 0000
00000380: 0000 0000 0000 0000 0000 0000 0000 0000
00000390: 0000 0000 0000 0000 0000 0000 0000 0000
000003a0: 0000 0000 0000 0000 0000 0000 0000 0000
000003b0: 0000 0000 0000 0000 0000 0000 0000 0000
000003c0: 0000 0000 0000 0000 0000 0000

data_bn.weight f4 [27]
0.09215175 0.047573358 0.045229867 0.2537504 0.056032136 0.061070416 0.27584553 0.1953012
0.21295878 0.45085356 0.51739466 0.36437586 0.51190287 0.5133771 0.3661095 0.2710355
0.16987893 0.23120712 0.4720959 0.3971613 0.34546787 0.49598965 0.41719025 0.3401585
0.22379722 0.039634325 0.061079297
00000000: 0fba bc3d 48dc 423d f442 393d 93eb 813e
00000010: f481 653d f924 7a3d a03b 8d3e 0afd 473e
00000020: de11 5a3e 47d6 e63e fa73 043f 798f ba3e
00000030: 110c 033f ae6c 033f b472 bb3e 2ac5 8a3e
00000040: bef4 2d3e 8fc1 6c3e 8eb6 f13e ba58 cb3e
00000050: 2ae1 b03e 5bf2 fd3e f699 d53e 4129 ae3e
00000060: 192b 653e 9a57 223d 492e 7a3d

data_bn.bias f4 [27]
-0.00918352 0.026825817 -0.016084699 -0.019199217 -0.016323566 3.817046e-05 0.04559047 0.008933806
0.00077060604 -0.023774568 0.0034776952 0.012481415 -0.004534568 0.0032802518 -0.00297971 0.023563182
0.048959 0.040068597 0.008297143 -0.013503198 -0.01768967 -0.028173774 -0.024795488 0.0022409353
0.01717407 0.02149819 0.0075992015
00000000: 7a76 16bc d1c1 db3c 0fc4 83bc ad47 9dbc
00000010: 00b9 85bc 3819 2038 13bd 3a3d 195f 123c
00000020: 7f02 4a3a e2c2 c2bc 0bea 633b d97e 4c3c
00000030: b796 94bb 7ef9 563b 3d47 43bb 9307 c13c
00000040: 3b89 483d f81e 243d bdf0 073c 843c 5dbc
00000050: ede9 90bc b0cc e6bc e81f cbbc a8dc 123b
00000060: a3b0 8c3c f91c b03c b902 f93b

data_bn.running_mean f4 [27]
92.432976 80.70741 25.160347 101.36968 88.32314 27.03047 91.137886 83.4347
25.85476 102.01678 85.57458 26.150965 110.301704 82.666695 24.32316 111.40832
93.21428 28.236053 133.35634 100.17583 30.08588 131.97868 95.531876 29.007153
107.75774 100.121025 29.917593
00000000: afdd b842 326a a142 6448 c941 47bd ca42
00000010: 73a5 b042 673e d841 9946 b642 91de a642
00000020: 8cd6 ce41 9708 cc42 2f26 ab42 2d35 d141
00000030: 799a dc42 5955 a542 d595 c241 0fd1 de42
00000040: b66d ba42 70e3 e141 395b 0543 065a c842
00000050: e2af f041 8bfa 0343 5210 bf42 a60e e841
00000060: f683 d742 f73d c842 3b57 ef41

data_bn.running_var f4 [27]
12469.193 22148.873 8204.619 13093.113 24461.164 9120.117 10141.953 21407.37
8215.507 12971.475 20060.285 7979.529 14704.127 18375.707 7266.8613 17044.568
27788.504 10103.512 22571.377 28685.988 10808.49 21375.045 25121.256 9783.52
17952.615 26217.518 10227.064
00000000: c6d4 4246 bf09 ad46 7a32 0046 7494 4c46
00000010: 541a bf46 7880 0e46 d077 1e46 bd3e a746
00000020: 075e 0046 e6ad 4a46 92b8 9c46 3b5c f945
00000030: 82c0 6546 6a8f 8f46 e416 e345 2329 8546
00000040: 0219 d946 0cde 1d46 c156 b046 fa1b e046
00000050: f6e1 2846 17fe a646 8342 c446 14de 1846
00000060: 3b41 8c46 09d3 cc46 42cc 1f46

st_gcn_networks.0.gcn.conv.weight f4 [24, 3, 1, 1]
-0.06922616 -0.012546057 0.0017289921 0.14573637 -0.056494355 0.065307595 0.07137233 0.0009242454
0.049872648 -0.034069348 -0.020102663 0.1292852 0.027844084 -0.014626493 -0.21715598 0.21564947
0.2965882 0.07932698 -0.225021 0.16684759 0.07322508 -0.18912594 0.07017108 -0.13334417
-0.046900116 -0.053732947 -0.018157246 -0.24778546 -0.08644878 0.03690116 0.16499202 -0.019536199
-0.017231483 -0.13857004 -0.13378981 0.004488762 -0.00091121974 -0.018966172 0.19287722 -0.04234645
-0.23568018 -0.12869675 0.058545657 0.06929732 0.049620084 0.17580064 -0.098698676 0.16590674
-0.0070885783 -0.004421158 0.0044900505 -0.03562142 -0.029639022 -0.0748119 0.1570581 -0.022917954
0.04042588 -0.03927549 -0.02450204 0.009108742 -0.21339978 0.018284025 -0.0067324666 0.04596615
-0.05599166 0.11592623 0.049096897 -0.052514866 -0.009622867 -0.106426775 0.14173783 0.049120888
00000000: 72c6 8dbd fa8d 4dbc 599f e23a ea3b 153e
00000010: a066 67bd fdbf 853d a82b 923d 0f49 723a
00000020: 4347 4c3d 4d8c 0bbd 57ae a4bc 5763 043e
00000030: 4719 e43c f5a3 6fbc 235e 5ebe 37d3 5c3e
00000040: 69da 973e 2f76 a23d e86b 66be 18da 2a3e
00000050: 08f7 953d 3baa 41be dbb5 8f3d 608b 08be
00000060: 561a 40bd 1417 5cbd 81be 94bc 79bb 7dbe
00000070: 0f0c b1bd ac25 173d abf3 283e 610a a0bc
00000080: 0a29 8dbc 4ee5 0dbe 3200 09be 7716 933b
00000090: ecde 6eba f25e 9bbc 9b81 453e 7973 2dbd
000000a0: 2556 71be 15c9 03be 92cd 6f3d c1eb 8d3d
000000b0: 6e3e 4b3d 1505 343e 8822 cabd 75e3 293e
000000c0: 4e47 e8bb 5ddf 90bb 4621 933b c4e7 11bd
000000d0: 89cd f2bc fb36 99bd d7d3 203e 6fbe bbbc
000000e0: 9c95 253d 56df 20bd 81b8 c8bc d53c 153c
000000f0: 7985 5abe 61c8 953c 069c dcbb 0047 3c3d
00000100: 8357 65bd bb6a ed3d d419 493d d419 57bd
00000110: 3ba9 1dbc 48f6 d9bd b923 113e fc32 493d

st_gcn_networks.0.gcn.conv.bias f4 [24]
0.029694963 0.051091358 0.05023598 0.07791366 -0.013070335 -0.17454614 -0.00927831 0.124658406
-0.07021274 0.016578743 0.08661179 -0.029727755 0.023405226 0.13908844 0.161449 -0.01601208
-0.017690133 -0.15534125 0.023789927 -0.058629498 0.04080389 0.029516028 -0.026935654 0.0024432102
00000000: da42 f33c 2c45 513d 3ec4 4d3d 3291 9f3d
00000010: f524 56bc 39bc 32be 0e04 18bc e84c ff3d
00000020: b2cb 8fbd 25d0 873c 8661 b13d 9f87 f3bc
00000030: 51bc bf3c 336d 0e3e e352 253e c42b 83bc
00000040: e6ea 90bc c711 1fbe 18e3 c23c 7c25 70bd
00000050: fb21 273d 99cb f13c 29a8 dcbc 441e 203b

st_gcn_networks.0.tcn.0.weight f4 [8]
0.15676928 0.31811535 0.38476887 0.2790096 0.25171542 0.33988813 0.3338339 0.34693965
00000000: 2088 203e 04e0 a23e 6d00 c53e 59da 8e3e
00000010: d8e0 803e d105 ae3e 47ec aa3e 13a2 b13e

st_gcn_networks.0.tcn.0.bias f4 [8]
0.04792346 0.03485237 0.049038235 0.022202652 -0.03507922 0.054727685 -0.009164157 -0.04144887
00000000: 644b 443d 5cc1 0e3d 51dc 483d 56e2 b53c
00000010: 3aaf 0fbd 232a 603d 4325 16bc 4ac6 29bd

st_gcn_networks.0.tcn.0.running_mean f4 [8]
-0.0047571333 0.00134773 0.017304756 0.004187657 0.0027292902 -0.005538031 0.01582677 0.014462614
00000000: bae1 9bbb 51a6 b03a b4c2 8d3c 9d38 893b
00000010: e4dd 323b 5f78 b5bb 24a7 813c 9af4 6c3c

st_gcn_networks.0.tcn.0.running_var f4 [8]
0.0001110965 0.00020992267 0.00030839653 0.0002687452 1.9350384e-05 0.00023847668 0.00037615738 6.592658e-05
00000000: 7bfc e838 b01e 5c39 48b0 a139 5fe6 8c39
00000010: a252 a237 990f 7a39 fd36 c539 1042 8a38

st_gcn_networks.0.tcn.2.weight f4 [8, 8, 9, 1]
-0.028307457 -0.013793146 0.015927792 -0.005083783 0.0060284776 -0.024922306 -0.0002972207 -0.009772757
0.010527981 0.028343605 -0.054083023 -0.0269579 -0.005252262 -0.009408463 0.023240866 0.01463226
-0.0011184964 -0.015354418 0.045049276 0.05887435 0.026824588 0.062108327 -0.012786094 0.09501566
-0.058555726 0.027545176 -0.05630106 0.007849347 -0.020543672 0.061074745 0.0004616096 0.015967185
0.024205921 0.019130433 0.037244506 0.019617697 -0.06061375 -0.027066616 0.031135503 -0.021043416
-0.027583506 0.020121073 0.023006964 -0.04333517 0.016987307 -0.028167041 0.0076604793 0.008882958
0.023037592 0.030390698 0.01552681 -0.0018899301 0.012007746 0.01474246 0.027232686 0.023759106
0.005551371 -0.039871626 -0.028350618 -0.017046975 -0.03357602 0.05754237 -0.016598959 -0.030626243
-0.116152704 -0.001010675 -0.06084026 0.005252544 -0.073704176 -0.016468005 -0.022633623 0.0026855727
0.021673517 -0.013523202 -0.0042099897 0.001228738 0.018396089 0.011085639 0.047745854 0.0054883757
-0.0040871105 0.026769374 0.014538009 0.039049108 0.0061993385 -0.023246313 0.0019874834 0.02672937
-0.00826917 0.032241736 0.03090972 0.07564316 0.08036299 0.00050145754 -0.017593978 -0.060011357
-0.01211601 0.020595508 -0.009755433 0.050873462 -0.029017579 0.019730205 0.013210915 0.016635219
0.012629677 0.03696816 -0.028429732 -0.012580855 0.017994734 -0.0032031273 0.026649218 0.013870698
0.019811431 -0.033176105 0.047542308 0.05722421 0.017837884 -0.021127494 0.034926195 0.020310907
-0.036194798 0.019663602 -0.032263197 -0.04760047 -0.020894194 -0.016950488 -0.06306229 -0.042103514
-0.069859564 -0.04599767 -0.021834161 0.039864015 0.029754892 -0.039828848 0.05445267 0.029996956
-0.053966887 -0.02157754 -0.0043166736 0.022439057 -0.04041485 0.019226076 -0.02488442 -0.02736651
-0.019482097 -0.0043873726 -0.01195142 0.05358786 -0.018021641 -0.008337552 0.02154546 -0.0264546
-0.019026738 -0.00479153 -0.0064535723 -0.010734618 0.023953386 -0.02816072 0.0067671286 0.013820077
-0.036805674 0.0041915467 0.0669416 -0.005536254 0.006501457 -0.08091899 0.05458466 -0.0047643706
0.045749027 -0.06803538 0.035332944 0.028447185 -0.031242657 -0.029991562 0.028679369 0.013608005
-0.034871705 0.001376453 -0.038315244 0.023317022 -0.003958795 0.011659674 0.04644232 0.009434431
-0.061703354 -0.016929425 -0.030458342 -0.013180727 0.003363588 -0.04214873 -0.0668838 0.061013527
-0.04792819 -0.053502247 0.007683856 0.04200833 -0.046271816 0.0809457 0.01154372 -0.029598622
-0.06498337 0.051824182 0.092376366 0.02045514 -0.03402299 0.033378072 0.04492489 -0.047830526
-0.025944466 -0.07855656 0.034983292 0.0014409433 0.05668051 -0.045237135 -0.035854537 -0.021821026
-0.007990839 -0.0040556286 0.010670585 0.009197598 0.01909053 -0.015026093 -0.007726863 -0.017226595
0.009199348 -0.00211956 0.019870719 -0.015715014 -0.010187688 0.0364647 0.035381757 0.025970206
0.0033504812 0.036774263 0.0154638905 0.011262035 0.0035968204 -0.010394933 -0.00725751 -0.0073619555
0.011880785 0.0056956885 -0.05119059 0.011955761 -0.03568131 -0.036600195 -0.04704213 -0.039856035
-0.0137329865 -0.03542126 -0.03617904 0.015965454 -0.0016082098 -0.04996724 0.003598887 0.036232553
00000000: 0ae5 e7bc a6fc 61bc 007b 823c dd95 a6bb
00000010: 898a c53b dd29 ccbc 49d4 9bb9 ea1d 20bc
00000020: 8e7d 2c3c d930 e83c 2986 5dbd d0d6 dcbc
00000030: 2b1b acbb f425 1abc a163 be3c 26bc 6f3c
00000040: 839a 92ba 1991 7bbc 9785 383d 3b26 713d
00000050: 3dbf db3c 4d65 7e3d c47c 51bc 9297 c23d
00000060: 21d8 6fbd 6ca6 e13c f19b 66bd 8c9a 003c
00000070: 344b a8bc 8329 7a3d 3104 f239 9dcd 823c
00000080: 7f4b c63c 6db7 9c3c b28d 183d 4bb5 a03c
00000090: 2046 78bd cfba ddbc e20f ff3c 3e63 acbc
000000a0: cef6 e1bc f3d4 a43c 1a79 bc3c 3880 31bd
000000b0: f728 8b3c 91be e6bc c204 fb3b d489 113c
000000c0: 55b9 bc3c eaf5 f83c 2964 7e3c 88b7 f7ba
000000d0: 23bc 443c 5c8a 713c 1517 df3c 75a2 c23c
000000e0: 46e8 b53b 6e50 23bd 8e3f e8bc 19a6 8bbc
000000f0: 0287 09bd 8cb1 6b3d 8afa 87bc e3e3 fabc
00000100: 78e1 edbd a078 84ba a333 79bd 881d ac3b
00000110: 37f2 96bd e9e7 86bc 266a b9bc 6f00 303b
00000120: a98c b13c 6c90 5dbc f4f3 89bb 9b0d a13a
00000130: 65b3 963c 8aa0 353c 2891 433d d5d7 b33b
00000140: 2bed 85bb 724b db3c d430 6e3c f5f1 1f3d
00000150: d223 cb3b 0d6f bebc 7040 023b 8df7 da3c
00000160: 6a7b 07bc e90f 043d 6236 fd3c cdea 9a3d
00000170: 5a95 a43d 3f74 033a 3f21 90bc 78ce 75bd
00000180: 3b82 46bc e9b7 a83c 40d5 1fbc b160 503d
00000190: 46b6 edbc 3da1 a13c 9872 583c 9546 883c
000001a0: b4ec 4e3c ed6b 173d 78e5 e8bc ee1f 4ebc
000001b0: b169 933c 8feb 51bb 764f da3c ed41 633c
000001c0: 954b a23c abe3 07bd b9bb 423d ef63 6a3d
000001d0: c120 923c 9113 adbc c50e 0f3d 0f63 a63c
000001e0: ff40 14bd 9015 a13c 6a26 04bd b6f8 42bd
000001f0: 4d2a abbc c0db 8abc cd26 81bd bc74 2cbd
00000200: 8812 8fbd 0e68 3cbd 8edd b2bc 7348 233d
00000210: 88c0 f33c 9323 23bd c309 5f3d 2dbc f53c
00000220: 620c 5dbd 62c3 b0bc e272 8dbb 1dd2 b73c
00000230: 0b8a 25bd 0180 9d3c 69da cbbc bb2f e0bc
00000240: eb98 9fbc f3c3 8fbb e4cf 43bc f27e 5b3d
00000250: 1fa2 93bc 3a9a 08bc 1b80 b03c 51b7 d8bc
00000260: f6dd 9bbc 4402 9dbb 7d78 d3bb 40e0 2fbc
00000270: e439 c43c 4fb1 e6bc cabe dd3b 9b6d 623c
00000280: 8cc1 16bd 3e59 893b ad18 893d 7769 b5bb
00000290: 2d0a d53b dbb8 a5bd 2a94 5f3d 701e 9cbb
000002a0: 5563 3b3d 2256 8bbd 47b9 103d 120a e93c
000002b0: 9af0 ffbc ddb0 f5bc fff0 ea3c 1cf4 5e3c
000002c0: a2d5 0ebd 196a b43a 72f0 1cbd 5703 bf3c
000002d0: c8b8 81bb 3808 3f3c 4d3a 3e3d df92 1a3c
000002e0: a8bc 7cbd 94af 8abc c683 f9bc faf3 57bc
000002f0: a46f 5c3b 26a4 2cbd 60fa 88bd 52e9 793d
00000300: 5a50 44bd 2c25 5bbd dbc8 fb3b ed10 2c3d
00000310: 8487 3dbd dcc6 a53d df21 3d3c cf78 f2bc
00000320: 0016 85bd 9845 543d d22f bd3d 8a91 a73c
00000330: b15b 0bbd 72b7 083d 2903 383d f1e9 43bd
00000340: 7d89 d4bc 43e2 a0bd a44a 0f3d 09de bc3a
00000350: d329 683d 934a 39bd 35dc 12bd 02c2 b2bc
00000360: 02ec 02bc 14e5 84bb add3 2e3c 86b1 163c
00000370: be63 9c3c 0130 76bc a031 fdbb ca1e 8dbc
00000380: ddb8 163c 51e8 0abb ebc7 a23c c6bc 80bc
00000390: 43ea 26bc 025c 153d 76ec 103d 78bf d43c
000003a0: bf93 5b3b 9ca0 163d 425c 7d3c 6684 383c
000003b0: a2b8 6b3b 824f 2abc 68d0 edbb 8f3c f1bb
000003c0: a0a7 423c e6a2 ba3b 39ad 51bd 19e2 433c
000003d0: 9126 12bd 16ea 15bd 40af 40bd 1540 23bd
000003e0: 5200 61bc e215 11bd 7930 14bd fcc9 823c
000003f0: 91ca d2ba 73aa 4cbd 4edb 6b3b 9668 143d

st_gcn_networks.0.tcn.2.bias f4 [8]
1.5071864e-05 -1.4397232e-06 3.671393e-05 -4.363322e-06 -2.6381393e-05 3.4253964e-05 -1.4759112e-05 2.339549e-05
00000000: 2add 7c37 833c c1b5 48fd 1938 a768 92b6
00000010: 9c4d ddb7 eaab 0f38 e79d 77b7 6f41 c437

st_gcn_networks.0.tcn.3.weight f4 [8]
0.34177193 0.30508384 0.27067658 0.23394004 0.20318235 0.3253732 0.36021683 0.30518332
00000000: bbfc ae3e f333 9c3e 1f96 8a3e fa8d 6f3e
00000010: 090f 503e 5197 a63e 576e b83e fd40 9c3e

st_gcn_networks.0.tcn.3.bias f4 [8]
-0.043571796 -0.0027306927 0.053992216 0.0189776 -0.018412301 0.024370499 0.031310003 -0.017783595
00000000: 5778 32bd 6cf5 32bb f126 5d3d e976 9b3c
00000010: 65d5 96bc a4a4 c73c eb3e 003d e7ae 91bc

st_gcn_networks.0.tcn.3.running_mean f4 [8]
0.010218036 0.011718655 -0.019923858 -0.031466175 0.031445436 0.041477636 -0.010113181 0.015950311
00000000: 8d69 273c 9aff 3f3c 5c37 a3bc ade2 00bd
00000010: eecc 003d 74e4 293d c1b1 25bc 3aaa 823c

st_gcn_networks.0.tcn.3.running_var f4 [8]
0.0061752396 0.0033332703 0.0018879502 0.00072684925 0.0014784076 0.0046658255 0.0054953317 0.003977381
00000000: aa59 ca3b ff72 5a3b 1975 f73a 078a 3e3a
00000010: 21c7 c13a c8e3 983b 2f12 b43b b154 823b

st_gcn_networks.1.gcn.conv.weight f4 [24, 8, 1, 1]
-0.022295928 -0.04043258 0.054047268 0.05524718 -0.016414644 0.015615235 0.010352914 0.044850968
-0.0065925024 -0.01827351 0.08230838 -0.034126535 0.029846942 -0.024113009 0.06687345 0.021229066
0.068835534 -0.060861684 -0.028012356 0.08099292 0.06632331 0.06834962 -0.030618947 -0.01924518
0.002942506 -0.03263712 -0.033764366 -0.033760462 -0.06869024 -0.09546804 0.042205736 -0.09450221
-0.023370676 0.005657835 0.073271684 -0.04896617 0.019476457 0.017445574 0.0370101 -0.004429893
0.009753224 -0.09079801 0.02835437 -0.06360375 -0.011514839 0.0026935455 -0.08268066 0.009217401
-0.027713748 -0.014765219 0.0514189 -0.0007121289 0.01919744 0.021417165 -0.048664056 -0.027446209
-0.030081334 -0.004666841 -0.026248809 -0.032414373 -0.008546733 0.05666767 0.0054216078 0.07457719
-0.027026063 0.068794385 0.007930624 -0.037197843 -0.06185927 0.0064146444 0.07524211 0.10114159
-0.058664013 -0.0070129577 -0.061013073 -0.026503375 -0.008847879 -0.03474091 0.054586697 0.00077838777
0.01280023 -0.008202897 0.05558146 -0.047364924 -0.05050053 -0.09750735 0.10292279 -0.050103705
-0.020041041 0.12423347 0.07107217 0.02172143 -0.05566661 0.067177795 -0.03806493 -0.092977494
-0.041510038 -0.023530783 0.074633054 0.045062196 0.0051238188 0.018155953 -0.028496448 0.035995774
0.08538693 -0.048002355 -0.0027011593 -0.06505317 0.030936515 -0.08269834 0.07875812 0.056009937
-0.068414375 -0.10462014 0.04297675 0.04655928 -0.06821114 -0.050339364 0.03028392 0.074576594
0.026736625 0.010442713 -0.01413705 -0.0013442916 -0.0010276709 0.017397663 0.035576936 -0.008234715
-0.014352233 -0.013511288 0.023370342 0.074368015 -0.014421336 0.04618263 -0.053147063 -0.00038128177
0.060854364 0.005964261 0.025562638 -0.028066367 0.0010501551 0.051059823 0.08941028 0.0186796
-0.00058849563 0.020529654 -0.024790162 -0.06024468 -0.00922774 -0.05339375 0.0609157 0.018736597
0.076279655 -0.02925997 -0.024521226 -0.060586106 -0.013970667 -0.025180051 0.15233198 -0.004014004
0.002717226 0.0039295163 0.018059172 -0.05888233 0.024475424 -0.00954146 0.0104268715 0.0005412653
-0.023486944 -0.04060982 -0.019148383 0.007976333 -0.06668487 -0.060901765 -0.031789217 -0.0030514356
0.06849946 0.039906632 0.027098369 -0.10319247 0.060092364 0.037128627 -0.0073188 -0.024068456
-0.0029008256 -0.022328509 0.038828462 0.0072705946 -0.00050885766 -0.035314288 -0.0017493119 0.07240912
00000000: f3a5 b6bc a29c 25bd ab60 5d3d de4a 623d
00000010: 0178 86bc 0bd7 7f3c 459f 293c a6b5 373d
00000020: eb05 d8bb 54b2 95bc 4c91 a83d 44c8 0bbd
00000030: 9381 f43c a588 c5bc f3f4 883d 94e8 ad3c
00000040: a5f9 8c3d 1a4a 79bd 2b7a e5bc 9edf a53d
00000050: 84d4 873d e3fa 8b3d 96d4 fabc 11a8 9dbc
00000060: 0fd7 403b 80ae 05bd 814c 0abd 6948 0abd
00000070: 78ad 8cbd bf84 c3bd ecdf 2c3d 608a c1bd
00000080: dc73 bfbc 5c65 b93b 770f 963d c090 48bd
00000090: 178d 9f3c 05ea 8e3c e797 173d a328 91bb
000000a0: fdcb 1f3c 4ff4 b9bd 6c47 e83c af42 82bd
000000b0: bca8 3cbc 3286 303b 7a54 a9bd 9504 173c
000000c0: f107 e3bc d1e9 71bc a09c 523d 29ae 3aba
000000d0: f343 9d3c 0d73 af3c f653 47bd dfd6 e0bc
000000e0: 216d f6bc 4dec 98bb be07 d7bc efc4 04bd
000000f0: 9907 0cbc 5c1c 683d bea7 b13b edbb 983d
00000100: c365 ddbc 12e4 8c3d 73ef 013c c45c 18bd
00000110: 2560 7dbd f031 d23b 8918 9a3d 5223 cf3d
00000120: ad49 70bd f4cc e5bb d8e8 79bd 9b1d d9bc
00000130: b2f6 10bc 7c4c 0ebd 4d96 5f3d b80c 4c3a
00000140: 0eb8 513c 7265 06bc 63a9 633d b901 42bd
00000150: a5d9 4ebd efb1 c7bd 2fc9 d23d 8b39 4dbd
00000160: 1c2d a4bc 1e6e fe3d 498e 913d 24f1 b13c
00000170: ac02 64bd 8394 893d f9e9 1bbd fc6a bebd
00000180: 6e06 2abd a1c3 c0bc 37d9 983d 2393 383d
00000190: b5e5 a73b cbbb 943c 6271 e9bc 4e70 133d
000001a0: 58df ae3d 1e9e 44bd ef05 31bb 993a 85bd
000001b0: 936e fd3c bf5d a9bd f04b a13d ad6a 653d
000001c0: d61c 8cbd 1543 d6bd 6308 303d f2b4 3e3d
000001d0: 48b2 8bbd a630 4ebd fc15 f83c 9dbb 983d
000001e0: c406 db3c ea17 2b3c 169f 67bc f132 b0ba
000001f0: eab2 86ba 8b85 8e3c 1fb9 113d e6ea 06bc
00000200: a125 6bbc 735e 5dbc 2973 bf3c 424e 983d
00000210: 7847 6cbc ff29 3d3d bcb0 59bd c6e6 c7b9
00000220: 6d42 793d d96f c33b bd68 d13c 70eb e5bc
00000230: 5ca5 893a 1b24 513d bd1c b73d f605 993c
00000240: 4645 1aba ce2d a83c bd14 cbbc 20c3 76bd
00000250: f22f 17bc 68b3 5abd be82 793d 7e7d 993c
00000260: 8238 9c3d 9bb2 efbc bde0 c8bc 2329 78bd
00000270: 39e5 64bc 6546 cebc eafc 1b3e e887 83bb
00000280: 7d13 323b 2cc3 803b d4f0 933c 992e 71bd
00000290: af80 c83c c953 1cbc 78d5 2a3c b3e3 0d3a
000002a0: b167 c0bc 7c56 26bd 12dd 9cbc 2aaf 023c
000002b0: 1492 88bd 2174 79bd 6935 02bd 98fa 47bb
000002c0: 7249 8c3d 2375 233d 66fd dd3c 9356 d3bd
000002d0: 6923 763d 3014 183d 8bd2 efbb 362b c5bc
000002e0: c71b 3ebb 47ea b6bc 980a 1f3d 2b3e ee3b
000002f0: dc64 05ba b7a5 10bd 2b49 e5ba 3c4b 943d

st_gcn_networks.1.gcn.conv.bias f4 [24]
-0.00067847426 0.012737256 -0.013693885 0.03827451 0.008778579 -0.0066419677 0.005131845 -0.00092308415
-0.0727384 -0.0054621566 0.01618555 0.0021921797 -0.051721003 0.0109704 0.053296376 -0.0075625563
-0.00792963 -0.040567487 0.0031332457 0.0155451745 0.012579153 -0.016761985 0.02165529 -0.0069615026
00000000: a3db 31ba ecaf 503c 515c 60bc bcc5 1c3d
00000010: 07d4 0f3c dda4 d9bb 0929 a83b 21fb 71ba
00000020: dff7 94bd e4fb b2bb 8f97 843c acaa 0f3b
00000030: 67d9 53bd 31bd 333c 4d4d 5a3d 52cf f7bb
00000040: 47eb 01bc 182a 26bd 2457 4d3b 30b1 7e3c
00000050: cb18 4e3c 6e50 89bc 6f66 b13c 511d e4bb

st_gcn_networks.1.tcn.0.weight f4 [8]
0.22538176 0.19520096 0.2780827 0.29496422 0.15983117 0.23558909 0.2672496 0.21387024
00000000: 7aca 663e c3e2 473e db60 8e3e 8d05 973e
00000010: c8aa 233e 443e 713e f1d4 883e cd00 5b3e

st_gcn_networks.1.tcn.0.bias f4 [8]
-0.030888956 0.008468022 0.019779263 0.0063490057 -0.018765606 -0.0089120725 -0.0334658 -0.023849169
00000000: d60a fdbc 75bd 0a3c 1f08 a23c 520b d03b
00000010: 54ba 99bc f103 12bc 6f13 09bd 555f c3bc

st_gcn_networks.1.tcn.0.running_mean f4 [8]
-0.0014357929 -0.0002566788 0.00011144478 0.0013106032 -0.0015335013 -0.0010658074 0.0024949114 0.00045041207
00000000: 3731 bcba d892 86b9 76b7 e938 8cc8 ab3a
00000010: c4ff c8ba 90b2 8bba ab81 233b 4925 ec39

st_gcn_networks.1.tcn.0.running_var f4 [8]
5.287395e-06 4.4334765e-06 1.5539206e-05 9.579739e-06 6.9945872e-06 4.8396364e-06 1.4237784e-05 5.2120827e-06
00000000: 616a b136 46c3 9436 315a 8237 aab8 2037
00000010: 0cb3 ea36 2964 a236 d1de 6e37 73e3 ae36

st_gcn_networks.1.tcn.2.weight f4 [8, 8, 9, 1]
-0.012211136 -0.0009902548 0.014484704 -0.010522471 -0.011884132 -0.035807315 -0.0026980604 0.013250945
0.039337996 -0.047836144 0.006180265 0.040511057 0.0068887 -0.041040327 -0.026856117 0.02262852
0.022655236 -0.01430882 0.008347989 -0.017428283 0.049786534 -0.012506861 0.0075010415 -0.004968395
0.04569734 -0.032175276 -0.0491866 0.010739136 0.014236931 0.026942171 0.0013508871 0.023611821
0.043323185 -0.042519603 -0.041926455 -0.042227466 -0.0077979304 -0.009606918 -0.004146317 -0.0032411807
0.004437271 0.040886577 0.015941354 0.022031574 0.033138618 -0.0013995306 -0.04002079 0.029243054
0.019830294 -0.017176544 -0.015494085 -0.00844222 -0.011799915 -0.00824222 -0.012556666 0.0040447367
0.009974117 -0.01880848 0.02933898 0.022460336 0.023851834 0.00053161284 0.0075883833 0.013008979
-0.0029157419 -0.055881582 -0.05108771 0.030762121 -0.020350356 -0.01170728 0.008132164 -0.0030437135
-0.004983063 -0.035895422 0.0033099318 0.0011092791 -0.010669352 -0.039471757 0.009522306 0.016551523
-0.04818661 -0.040115774 -0.007450464 -0.013724365 -0.071681865 0.022166748 0.00512246 0.041373003
0.009051832 0.03978109 -0.032264374 -0.011280501 0.010784339 -0.010084971 0.023743266 0.03933882
0.0056558084 0.050397344 0.020489074 0.018192876 0.05026435 0.0022306 0.022677524 -0.0052196286
0.029389791 0.014397275 -0.01584934 0.028366273 -0.02675015 0.007951742 -0.022878015 -0.02639394
-0.00049151137 0.008479321 0.02262764 -0.028057868 0.020173106 0.022514608 -0.005593961 -0.00028414218
-0.01352759 -0.012575696 0.003646996 0.0058651576 0.008366381 0.053700026 -0.014237185 0.0057702255
0.03660936 -0.027769709 0.02157929 -0.0057534757 0.028801365 -0.018532122 0.032450356 -0.014611154
-0.03205781 -0.018385628 -0.01899874 -0.031088032 0.020721976 0.0053182365 -0.013162605 0.009567572
-0.0005631261 -0.062416647 -0.022000108 -0.0049917833 0.00068284996 0.0002561604 0.0026292915 -0.03642732
-0.052633867 0.035453856 -0.032435488 -0.020974265 -0.0030773624 0.0012828769 -0.010478495 -0.019312587
0.009557476 0.0027890198 0.042324465 -0.0389023 0.016927069 0.048015345 -0.05492753 0.024090998
0.03427532 0.022468204 0.010266124 -0.026437756 0.038670722 -0.04141832 0.009396249 -0.019286655
-0.024830077 -0.042340167 0.019859195 -0.013767521 0.005138907 0.024325792 -0.011860878 0.049278088
-0.01387902 -0.016697176 0.015115162 -0.031480268 -0.020360742 0.004270562 -0.016014157 0.04866123
-0.010801207 0.0064800535 -0.035966054 -0.00018125444 -0.07379073 -0.047144253 -0.010263693 -0.0041522356
0.023777159 0.056908756 -0.009531407 -0.00728819 0.009912861 0.018568486 0.057494555 0.0046607647
0.030422697 0.022390215 -0.01604697 0.013731221 -0.020607252 0.008961958 -0.0031407254 -0.01716078
-0.01344356 -0.015539916 0.048772622 -0.030753493 -0.035796173 -0.0033393698 -0.02940069 -0.062335007
0.025093466 0.047094114 0.008562323 0.011927209 0.015093057 0.03455067 0.00017182976 -0.03351101
-0.037984706 0.012494884 0.013678328 0.0067053195 0.028671656 -0.027212191 0.017095475 -0.00511159
0.0060666036 0.0010913449 0.04609819 -0.0055225226 -0.0011995715 -0.020625921 0.027769322 -0.0061264443
-0.031540122 -0.002070254 0.021703705 -0.05753924 0.017407246 -0.0031516105 -0.015292163 -0.035898454
00000000: 3711 48bc 70cb 81ba 4051 6d3c 7166 2cbc
00000010: aab5 42bc b1aa 12bd f1d1 30bb 7e1a 593c
00000020: e120 213d d5ef 43bd d283 ca3b ecee 253d
00000030: 9bba e13b e719 28bd 5c01 dcbc 725f b93c
00000040: 7997 b93c 8a6f 6abc 01c6 083c c2c5 8ebc
00000050: f7ec 4b3d 94e9 4cbc 4ccb f53b ebcd a2bb
00000060: 222d 3b3d 39ca 03bd e377 49bd 33f3 2f3c
00000070: 0442 693c d4b5 dc3c 4010 b13a 946d c13c
00000080: a773 313d 0929 2ebd 13bb 2bbd b5f6 2cbd
00000090: c885 ffbb 5666 1dbc d4dd 87bb fd69 54bb
000000a0: 8766 913b af78 273d 7197 823c 8f7b b43c
000000b0: 5cbc 073d 7470 b7ba d7ec 23bd 218f ef3c
000000c0: 2473 a23c d3b5 8cbc e7da 7dbc 3d51 0abc
000000d0: 6e54 41bc 600a 07bc 79ba 4dbc b689 843b
000000e0: 7b6a 233c 3e14 9abc 4d58 f03c bdfe b73c
000000f0: ec64 c33c ef5b 0b3a f9a7 f83b 9d23 553c
00000100: 0816 3fbb 16e4 64bd 5941 51bd d800 fc3c
00000110: cab5 a6bc e4cf 3fbc c53c 053c 0a79 47bb
00000120: f648 a3bb 1407 13bd 71eb 583b 3b65 913a
00000130: 81ce 2ebc 23ad 21bd 7203 1c3c 0f97 873c
00000140: 535f 45bd 7050 24bd 0623 f4bb 29dc 60bc
00000150: f1cd 92bd 0a97 b53c 4fda a73b bd76 293d
00000160: 234e 143c 7ff1 223d a627 04bd dad1 38bc
00000170: ccb0 303c 6f3b 25bc 3d81 c23c be21 213d
00000180: 5c54 b93b 726d 4e3d b4d8 a73c 3a09 953c
00000190: fee1 4d3d 422f 123b 37c6 b93c 6b09 abbb
000001a0: dcc2 f03c 8ce2 6b3c 7ad6 81bc 6360 e83c
000001b0: 2123 dbbc 0648 023c ad6a bbbc 1b38 d8bc
000001c0: c5d8 00ba daec 0a3c 9a5d b93c 9dd9 e5bc
000001d0: 1242 a53c 8e70 b83c 8c4d b7bb ebf8 94b9
000001e0: d3a2 5dbc 4b0a 4ebc 7102 6f3b 8230 c03b
000001f0: 2513 093c 8ff4 5b3d 1543 69bc 2914 bd3b
00000200: b2f3 153d 4d7d e3bc 0dc7 b03c a787 bcbb
00000210: d7f0 eb3c add0 97bc aaea 043d 9f63 6fbc
00000220: 0d4f 03bd 759d 96bc 3fa3 9bbc 54ac febc
00000230: 22c1 a93c 9a44 ae3b f8a7 57bc 4ec1 1c3c
00000240: c19e 13ba 99a8 7fbd 9239 b4bc 1d92 a3bb
00000250: 4901 333a 444d 8639 3150 2c3b d034 15bd
00000260: 9c96 57bd 1038 113d 13db 04bd 39d2 abbc
00000270: 93ad 49bb 3526 a83a fead 2bbc 6e35 9ebc
00000280: f696 1c3c fdc7 363b 6b5c 2d3d 0558 1fbd
00000290: a3aa 8a3c bdab 443d b1fb 60bd 7c5a c53c
000002a0: 4764 0c3d 3d0f b83c 3f33 283c fe93 d8bc
000002b0: 3165 1e3d 42a6 29bd baf2 193c 0cff 9dbc
000002c0: 7268 cbbc e26c 2dbd c0af a23c 2b91 61bc
000002d0: 4764 a83b e246 c73c 2154 42bc d2d7 493d
000002e0: d464 63bc 84c8 88bc 96a5 773c 74f1 00bd
000002f0: 92cb a6bc 12f0 8b3b 1f30 83bc ff50 473d
00000300: 8cf7 30bc a156 d43b 2451 13bd 1e0f 3eb9
00000310: 981f 97bd 551a 41bd 0c29 28bc 7a0f 88bb
00000320: 51c8 c23c 2819 693d 9e29 1cbc c5d1 eebb
00000330: 8d69 223c f01c 983c 697f 6b3d 54b9 983b
00000340: 0539 f93c af6b b73c ef74 83bc eaf8 603c
00000350: 8ad0 a8bc 2dd5 123c a1d4 4dbb c494 8cbc
00000360: 6142 5cbc 229b 7ebc cdc5 473d c0ee fbbc
00000370: 029f 12bd 54d9 5abb b7d9 f0bc fe52 7fbd
00000380: d090 cd3c c2e5 403d fc48 0c3c 576a 433c
00000390: df48 773c 0185 0d3d 332d 3439 d742 09bd
000003a0: da95 1bbd 58b7 4c3c 111b 603c 4cb8 db3b
000003b0: d2e0 ea3c 1aec debc cf0b 8c3c 207f a7bb
000003c0: 5cca c63b 750b 8f3a 75d1 3c3d 47f6 b4bb
000003d0: f13a 9dba b1f7 a8bc 7d7c e33c 57c0 c8bb
000003e0: 3730 01bd 19ad 07bb f8cb b13c 44ae 6bbd
000003f0: a499 8e3c 408b 4ebb fb8b 7abc 420a 13bd

st_gcn_networks.1.tcn.2.bias f4 [8]
3.4483757e-05 2.5852363e-05 5.6260717e-05 5.905059e-05 3.2167893e-05 1.4290551e-05 -6.89442e-06 1.7391578e-05
00000000: a7a2 1038 87dd d837 7cf9 6b38 17ad 7738
00000010: 03ec 0638 73c1 6f37 9e56 e7b6 21e4 9137

st_gcn_networks.1.tcn.3.weight f4 [8]
0.21013422 0.25422034 0.2850879 0.2681735 0.20620696 0.29459986 0.26610133 0.18450779
00000000: 6d2d 573e 2b29 823e 0bf7 913e 094e 893e
00000010: eb27 533e cbd5 963e 6f3e 883e 9cef 3c3e

st_gcn_networks.1.tcn.3.bias f4 [8]
0.009276722 -0.015261612 -0.01652498 -0.013018174 -0.0005823368 -0.00439296 -0.010037274 0.0039714854
00000000: 64fd 173c d70b 7abc 655f 87bc 2e4a 55bc
00000010: f6a7 18ba d2f2 8fbb 6173 24bc 3c23 823b

st_gcn_networks.1.tcn.3.running_mean f4 [8]
-0.001179443 0.014305119 -0.004369511 0.00021273787 -0.003554756 0.0070772953 -0.010215512 -0.00976484
00000000: 8a97 9aba 0560 6a3c 1d2e 8fbb 6312 5f39
00000010: e9f6 68bb a8e8 e73b f65e 27bc b5fc 1fbc

st_gcn_networks.1.tcn.3.running_var f4 [8]
0.00028964857 0.0009792561 0.0006393237 0.00036914748 0.00025932354 0.00096571393 0.0004573597 0.00055826874
00000000: f9db 9739 625a 803a 4a98 273a 238a c139
00000010: d1f5 8739 f727 7d3a c8c9 ef39 c858 123a

st_gcn_networks.1.residual.0.weight f4 [8, 8, 1, 1]
-0.028034158 -0.059754737 -0.10506393 -0.018005503 -0.052122645 0.029757226 0.056264933 -0.0032359394
-0.07587532 -0.043657526 -0.025492046 0.0025937443 0.015359878 0.075749435 0.09230426 -0.08984407
-0.12707981 0.002923463 0.07118647 -0.0016737719 -0.030532397 0.05232538 -0.004434743 -0.055964872
0.085736915 0.02119857 -0.054795407 0.0029680505 -0.0202458 0.0064661796 0.057163317 0.07335071
-0.0619204 0.03624092 -0.07011316 0.017156128 0.04101115 -0.041615844 0.07969716 0.06420226
0.110365175 0.02723195 0.09228176 -0.016175881 -0.06367734 -0.03693871 -0.027925275 -0.0864516
0.021205079 0.022267962 -0.07151094 0.02269326 -0.021108413 -0.02971791 -0.07374065 0.016225804
-0.0010091125 0.03890382 0.08310392 0.015878003 0.055265717 0.07328416 -0.07590264 -0.030406555
00000000: e4a7 e5bc 62c1 74bd c22b d7bd 4780 93bc
00000010: 8e7e 55bd 6dc5 f33c 0f76 663d 0e12 54bb
00000020: 8564 9bbd 3cd2 32bd b2d4 d0bc cffb 293b
00000030: ffa7 7b3c 8522 9b3d 040a bd3d 2b00 b8bd
00000040: 3621 02be 9297 3f3b 36ca 913d 7762 dbba
00000050: 141f fabc 2353 563d 5251 91bb 6c3b 65bd
00000060: d696 af3d a0a8 ad3c 2671 60bd a083 423b
00000070: 85da a5bc 3fe2 d33b 1524 6a3d e638 963d
00000080: 3fa0 7dbd 5c71 143d 7d97 8fbd 028b 8c3c
00000090: 4ffb 273d 6075 2abd 4438 a33d 797c 833d
000000a0: 2307 e23d 8a15 df3c 38fe bc3d 4883 84bc
000000b0: 4469 82bd 0b4d 17bd 8cc3 e4bc 890d b1bd
000000c0: 46b6 ad3c 4d6b b63c 5474 92bd 37e7 b93c
000000d0: 8deb acbc f972 f3bc 5705 97bd faeb 843c
000000e0: 3244 84ba 9d59 1f3d 6332 aa3d 9612 823c
000000f0: 4e5e 623d 0116 963d d872 9bbd 2b17 f9bc

st_gcn_networks.1.residual.0.bias f4 [8]
-3.3416818e-05 5.059031e-05 2.1682494e-05 1.9216863e-05 -3.218713e-05 1.5069677e-05 -2.6259188e-06 1.641144e-05
00000000: 0929 0cb8 ef30 5438 cde2 b537 e633 a137
00000010: ab00 07b8 c5d3 7c37 f138 30b6 4dab 8937

st_gcn_networks.1.residual.1.weight f4 [8]
0.21776983 0.18385854 0.22982638 0.22502731 0.18606307 0.22438043 0.3237888 0.14410812
00000000: 0eff 5e3e 6a45 3c3e 9b57 6b3e 8f6d 663e
00000010: 5187 3e3e fcc3 653e a5c7 a53e 1491 133e

st_gcn_networks.1.residual.1.bias f4 [8]
0.009276722 -0.015261612 -0.01652498 -0.013018174 -0.0005823368 -0.00439296 -0.010037274 0.0039714854
00000000: 64fd 173c d70b 7abc 655f 87bc 2e4a 55bc
00000010: f6a7 18ba d2f2 8fbb 6173 24bc 3c23 823b

st_gcn_networks.1.residual.1.running_mean f4 [8]
-0.0153573835 -0.00057184463 -0.004303171 0.019158233 0.00470321 0.001147773 -0.015797777 0.016088076
00000000: 899d 7bbc d8e7 15ba 9d01 8dbb baf1 9c3c
00000010: 631d 9a3b df70 963a 576a 81bc 24cb 833c

st_gcn_networks.1.residual.1.running_var f4 [8]
0.0005216119 0.001008424 0.00067799474 0.0008981475 0.0008956943 0.0010332399 0.0006808516 0.00058465
00000000: c8bc 083a 182d 843a 75bb 313a a971 6b3a
00000010: 07cd 6a3a c76d 873a 2d7b 323a 3343 193a

st_gcn_networks.2.gcn.conv.weight f4 [48, 8, 1, 1]
0.027443571 -0.061963692 0.015883375 -0.048960727 0.054163586 0.01151321 -0.06274166 -0.021884654
-0.018074851 -0.02098793 0.004092856 -0.03667353 -0.012874711 0.0060837 0.023330605 -0.023457164
0.025746822 -0.019723969 0.011708591 -0.04075396 -0.020002335 0.010754838 -0.037719276 -0.008984975
0.019826459 -0.003108732 -0.00059105706 -0.024517374 -0.0006186054 -0.04546257 -0.024616925 0.0014204215
0.021182513 0.014249603 -0.0334003 0.010709382 -0.05331213 0.039606784 -0.010443926 -0.022797244
0.06479765 -0.0072059347 -0.06752835 -0.022273036 0.09173778 -0.020077912 -0.09943269 -0.021623662
-0.039210785 -0.08615524 -0.05360322 -0.00097101665 -0.05933377 0.051609587 -0.08986742 -0.0033203007
-0.009558077 -0.029563488 0.035010833 -0.010249188 -0.014666728 -0.02155393 0.02281325 -0.005905142
-0.0016952683 -0.025979903 -0.038144782 0.014366693 -0.049782056 0.044245698 -0.03047251 -0.040193923
-0.007027717 -0.020646978 0.04569159 0.018505614 0.024525946 -0.040489316 0.019214062 0.009232047
0.014630251 -0.031680048 0.022842603 0.00018153652 0.039152924 0.05651865 0.0037651826 -0.022657612
0.0343276 -0.035900436 -0.038189266 0.030282293 -0.017817924 -0.011845343 0.02248251 -0.043911245
0.024227323 -0.03395084 -0.004756635 0.07626665 -0.023003895 0.019792708 0.023381345 -0.0013217609
0.005586969 -0.05886584 0.058481496 -0.017065283 -0.01956265 0.0021598109 -0.0059023383 0.007835976
-0.030148584 0.02278648 0.041270886 -0.034761347 0.008262038 0.044220936 0.034943193 -0.009031329
-0.012983149 0.021295661 -0.020372357 -0.03287454 -0.057140213 -0.0074419347 -0.0070031066 -0.0071172803
0.031922385 -0.031697255 0.01968239 -0.054281775 0.041695062 0.08159283 0.089804836 -0.041875187
-0.0022997695 -0.036864854 -0.03258336 -0.037342742 -0.009048722 0.041926444 0.02298459 0.017026216
0.021221228 0.004163287 0.05801558 -0.00898 0.03891652 -0.008504109 0.02206221 -0.043549966
0.014522318 0.029441863 -0.0004079692 -0.02210351 0.04805104 -0.04463719 -0.03425994 -0.04237242
0.007628178 -0.025950333 0.025364937 -0.019351268 -0.005071996 0.032243896 0.040152777 0.014239072
0.025465261 0.036644917 -0.018616235 -0.041272253 0.015746446 -0.09903908 0.018699672 -0.0071141343
0.04789438 0.038022548 -0.068163164 0.03003286 0.06582046 -0.035038654 -0.010775074 -0.048947055
-0.016538518 -0.058186926 0.03890855 0.031521384 -0.04397347 0.04282904 -0.01873532 0.04643481
0.04103326 0.056073833 -0.022858547 0.027321689 0.05421907 -0.00062551914 0.064616814 -0.022324244
-0.014546924 -0.016383039 -0.031147342 0.026095586 -0.06361768 0.050869025 0.02961411 -0.035055947
-0.014516069 -0.057781156 -0.01685825 0.043939862 -0.0010037466 -0.0016410609 0.0022442793 0.04947173
0.058683254 0.08450415 0.016232476 0.011104873 -0.04915961 -0.020025669 0.09268622 0.054280017
0.09816505 -0.01889941 -0.008891154 -0.050960865 -0.04002509 -0.006101408 0.033230964 -0.010153831
0.034491267 0.04312969 -0.07811502 0.07375296 -0.0031214247 -0.05188809 -0.0040899357 0.08321831
-0.023450216 -0.01347178 -0.038256597 -0.02172118 0.028634056 0.013304255 -0.0029585978 -0.0053719957
-0.025394237 -0.0059951716 0.025169414 0.03863134 0.017200222 0.019276438 0.05387454 0.0029478983
00000000: 57d1 e03c a4cd 7dbd da1d 823c 0b8b 48bd
00000010: a3da 5d3d e7a1 3c3c b37e 80bd 7247 b3bc
00000020: b611 94bc e1ee abbc 5d1d 863b fc36 16bd
00000030: 74f0 52bc c659 c73b d31f bf3c 3d29 c0bc
00000040: 00eb d23c 2994 a1bc 64d5 3f3c a0ed 26bd
00000050: f0db a3bc 0f35 303c 877f 1abd b735 13bc
00000060: 196b a23c debb 4bbb 2bf1 1aba a9d8 c8bc
00000070: e829 22ba f636 3abd 6fa9 c9bc 702d ba3a
00000080: f386 ad3c 2b77 693c c1ce 08bd 6776 2f3c
00000090: d25d 5abd b93a 223d 001d 2bbc 49c1 babc
000000a0: a1b4 843d c31f ecbb 4e4c 8abd f175 b6bc
000000b0: 04e1 bb3d 6f7a a4bc 5ea3 cbbd 1b24 b1bc
000000c0: 7d9b 20bd 2972 b0bd 0d8f 5bbd d38b 7eba
000000d0: f807 73bd 9364 533d 690c b8bd 6799 59bb
000000e0: 7b99 1cbc 212f f2bc 8567 0f3d 36ec 27bc
000000f0: b74c 70bc de91 b0bc dae2 ba3c ec7f c1bb
00000100: c433 deba ced3 d4bc b43d 1cbd 4762 6b3c
00000110: 45e8 4bbd fa3a 353d 7ca1 f9bc 62a2 24bd
00000120: c348 e6bb da23 a9bc 1b27 3b3d 1699 973c
00000130: a3ea c83c 20d8 25bd cf66 9d3c 0342 173c
00000140: b8b3 6f3c f0c2 01bd 6920 bb3c d75a 3e39
00000150: d15e 203d 1a80 673d 48c1 763b 759c b9bc
00000160: 199b 0c3d 560c 13bd 596c 1cbd 9212 f83c
00000170: e5f6 91bc f812 42bc 3e2d b83c 47dc 33bd
00000180: 6178 c63c 0910 0bbd 8cdd 9bbb b031 9c3d
00000190: aa72 bcbc 5124 a23c 3c8a bf3c f03e adba
000001a0: e512 b73b 4f1d 71bd 4b8a 6f3d 7ecc 8bbc
000001b0: da41 a0bc 9d8b 0d3b 6768 c1bb 7762 003c
000001c0: 2afa f6bc b6aa ba3c a90b 293d ea61 0ebd
000001d0: 805d 073c 0321 353d 9820 0f3d 24f8 13bc
000001e0: 46b7 54bc 3d74 ae3c eee3 a6bc 74a7 06bd
000001f0: db0b 6abd 79db f3bb 517a e5bb 1338 e9bb
00000200: 0cc1 023d fbd4 01bd f73c a13c 9156 5ebd
00000210: 71c8 2a3d 241a a73d 99eb b73d 5185 2bbd
00000220: bbb7 16bb 9aff 16bd 2176 05bd b4f4 18bd
00000230: 1741 14bc 10bb 2b3d 2e4a bc3c 907a 8b3c
00000240: 24d8 ad3c 2f6c 883b bfa1 6d3d da20 13bc
00000250: ee66 1f3d d254 0bbc cfbb b43c 7361 32bd
00000260: 04ef 6d3c 1030 f13c b3e4 d5b9 6c12 b5bc
00000270: 2bd1 443d 7cd5 36bd 2754 0cbd b48e 2dbd
00000280: ccf5 f93b cb95 d4bc 21ca cf3c 8d86 9ebc
00000290: fc32 a6bb 2d12 043d 3d77 243d ff4a 693c
000002a0: 869c d03c fb18 163d 1381 98bc 180d 29bd
000002b0: b1fe 803c 00d5 cabd 0e30 993c af1d e9bb
000002c0: e62c 443d 88bd 1b3d 2199 8bbd 7907 f63c
000002d0: e1cc 863d b184 0fbd f089 30bc b57c 48bd
000002e0: c97b 87bc 6a55 6ebd 925e 1f3d 911c 013d
000002f0: 861d 34bd 816d 2f3d d07a 99bc 6d32 3e3d
00000300: 7e12 283d adad 653d d941 bbbc bcd1 df3c
00000310: d114 5e3d e1f9 23ba d255 843d 55e1 b6bc
00000320: 3956 6ebc b935 86bc b628 ffbc 69c6 d53c
00000330: fc49 82bd 0a5c 503d 4a99 f23c d396 0fbd
00000340: ced4 6dbc efab 6cbd 501a 8abc 49fa 333d
00000350: 2690 83ba de18 d7ba c214 133b dea2 4a3d
00000360: da5d 703d 8310 ad3d f8f9 843c 37f1 353c
00000370: 965b 49bd df0c a4bc 46d2 bd3d b954 5e3d
00000380: c20a c93d efd2 9abc 34ac 11bc 57bc 50bd
00000390: 59f1 23bd 52ee c7bb 311d 083d 415c 26bc
000003a0: b746 0d3d c2a8 303d c5fa 9fbd cb0b 973d
000003b0: d190 4cbb 9b88 54bd de04 86bb 5c6e aa3d
000003c0: ab1a c0bc beb8 5cbc f3b2 1cbd 9ef0 b1bc
000003d0: f891 ea3c 17fa 593c 09e5 41bb 9107 b0bb
000003e0: 9307 d0bc 2573 c4bb 1630 ce3c e53b 1e3d
000003f0: 7be7 8c3c 9fe9 9d3c 8dab 5c3d 8731 413b

st_gcn_networks.2.gcn.conv.bias f4 [48]
-0.012532036 0.013223595 -0.0128751835 0.006516061 0.0014864312 -0.016406802 0.030201765 -0.015189912
-0.009477945 -0.0070764986 -0.009191119 -0.006624109 -0.031715266 -0.009680704 -0.0011527954 0.0066860826
-0.051468406 -0.00828669 -0.00082664 0.01510273 0.0039199055 -0.015708372 -0.009600019 -0.008782269
-0.04542765 -0.011728046 -0.017281754 -0.0424295 0.016795443 0.0060948255 -0.0068610623 -0.014332209
0.010977076 0.015891703 -0.0064508524 0.008563725 -0.030099418 0.011057149 0.004540913 -0.009409548
-0.00093161664 0.0029165996 -0.009942571 -0.032292787 0.027905226 -0.018000068 0.014692823 0.0054481477
00000000: 2b53 4dbc c7a7 583c 6ff2 52bc ae84 d53b
00000010: 5bd4 c23a 8f67 86bc b169 f73c 1cdf 78bc
00000020: 6249 1bbc f9e1 e7bb 5996 16bc 0e0f d9bb
00000030: dee7 01bd d19b 1ebc 6519 97ba ed16 db3b
00000040: 89d0 52bd e6c4 07bc dfb2 58ba 7171 773c
00000050: 8d72 803b d8ae 80bc 6649 1dbc 82e3 0fbc
00000060: 5812 3abd fe26 40bc 7792 8dbc 8eca 2dbd
00000070: 9996 893c 1ab7 c73b c3d2 e0bb a4d1 6abc
00000080: 32d9 333c 512f 823c ac61 d3bb de4e 0c3c
00000090: 0e93 f6bc 0b29 353c f0cb 943b 812a 1abc
000000a0: bc37 74ba 6c24 3f3b 2ae6 22bc 7145 04bd
000000b0: 8099 e43c e174 93bc 2bba 703c 6086 b23b

st_gcn_networks.2.tcn.0.weight f4 [16]
0.21564214 0.114143796 0.16221486 0.12909333 0.068716824 0.23157752 0.174165 0.17505185
0.15706545 0.14036153 0.13277103 0.18153185 0.15120007 0.15438901 0.09779886 0.10036758
00000000: 4bd1 5c3e 39c4 e93d a71b 263e 0b31 043e
00000010: 68bb 8c3d a822 6d3e 4f58 323e cb40 333e
00000020: c4d5 203e efba 0f3e 21f5 073e 7ce3 393e
00000030: 31d4 1a3e 2718 1e3e c54a c83d 858d cd3d

st_gcn_networks.2.tcn.0.bias f4 [16]
-0.020755826 0.0019127368 -0.04069467 -0.022205923 0.0020435508 -0.032994628 -0.023797432 -0.04130122
-0.03909108 -0.03403258 -0.04289946 -0.03634481 -0.042559788 -0.043673027 -0.010809978 -0.038853116
00000000: 1f08 aabc ccb4 fa3a 74af 26bd 32e9 b5bc
00000010: 18ed 053b 6025 07bd d5f2 c2bc 782b 29bd
00000020: f81d 20bd bf65 0bbd 58b7 2fbd 4cde 14bd
00000030: 2c53 2ebd 7de2 32bd 551c 31bc 7224 1fbd

st_gcn_networks.2.tcn.0.running_mean f4 [16]
-0.0017125194 -0.0002505688 -0.0004995441 -0.00021580169 -0.00037205376 -0.0028823614 -0.0007031999 -0.0017114977
-0.0012274751 -0.0005431541 -0.0010705562 -0.0017919906 0.00050493696 -0.0007230411 0.00054908165 0.00061324553
00000000: 9e76 e0ba c65e 83b9 d6f3 02ba d348 62b9
00000010: 3610 c3b9 00e6 3cbb f256 38ba 5554 e0ba
00000020: 3be3 a0ba 7462 0eba e851 8cba 3ae1 eaba
00000030: bf5d 043a 788a 3dba 3ff0 0f3a 36c2 203a

st_gcn_networks.2.tcn.0.running_var f4 [16]
6.5659474e-06 3.0667088e-06 2.900463e-06 5.13068e-06 2.639774e-06 1.6452594e-05 4.3719883e-06 3.1174168e-06
3.8623134e-06 3.3257681e-06 2.3751581e-06 3.9025404e-06 2.5899215e-06 2.769387e-06 1.5690817e-06 2.4139922e-06
00000000: 0f51 dc36 a8cd 4d36 93a5 4236 3528 ac36
00000010: f926 3136 ad03 8a37 18b3 9236 d034 5136
00000020: 0599 8136 4330 5f36 e864 1f36 91f2 8236
00000030: 83ce 2d36 b5d9 3936 3d99 d235 1200 2236

st_gcn_networks.2.tcn.2.weight f4 [16, 16, 9, 1]
-0.015720181 -0.0128620425 -0.005351749 -0.01723164 -0.011464577 0.025396071 -0.018592197 -0.027432181
-0.048539586 0.0038299172 0.014545459 0.039998762 -0.037572153 -0.0005570602 0.007697811 0.007151399
0.003039812 0.0048529212 0.0004649435 0.011330036 0.02282483 0.004515054 0.0018740968 -0.03198542
0.0027575574 -0.00041376092 0.0036809132 -0.0088849105 -0.009100731 0.012435524 -0.012758854 -0.0064247255
0.003667519 -0.019665932 -0.010893283 0.01220747 0.02455466 0.021281062 -0.006725664 -0.009251359
-0.0019859392 -0.01122043 0.000101110396 -0.0072052376 -0.023153633 0.046699073 -0.015137669 0.015293493
-0.006875237 -0.0060167494 0.010842995 -0.009795863 0.0023030508 0.02003406 -0.0017596406 0.017850218
0.010432543 0.026218377 0.019152367 -0.0009786318 0.00089390547 0.023540333 0.013667869 0.008614841
-0.0090250615 -0.013145159 0.0036686247 0.008162364 -0.025695141 0.008627252 0.009341407 -0.0152951935
-0.0034570943 0.024817618 0.015273937 0.016161526 -0.0005664469 -0.011822011 0.023244098 0.020903409
-0.008909868 -0.035085164 0.031643823 -0.025279691 0.031311046 -0.039397597 -0.025298666 0.025245704
-0.011392801 -0.034718744 -0.0050780587 0.009148159 -0.012579301 0.005408538 0.004723957 -0.022585683
0.009850878 0.016300239 -0.042475466 0.02408574 -0.008237454 -0.0077198423 -0.041089322 -0.028804097
-0.0025381057 -0.06586201 -0.009975064 0.0381838 -0.0063843965 0.008675019 -0.007684286 -0.019802796
0.00745298 -0.04339525 -0.0074706846 0.004293417 -0.0074898354 0.00845973 0.0044154604 -0.029564362
0.008504661 0.011565699 -0.0004942764 -0.03341385 0.001760713 0.03885167 -0.023177352 -0.010449413
0.0038327137 -0.013341878 -0.0067494307 -0.012118408 0.0041025886 -0.00932352 -0.014909024 0.005572085
0.012176411 0.00091618334 0.005139627 0.009768111 -0.018453551 0.016044645 -0.022684759 -0.013884277
-0.0014406738 -0.015698062 0.015818719 0.008569587 0.016582333 0.025409441 0.029910032 0.00088554964
0.04287573 -0.0270031 0.0059296275 0.010493486 -0.028656755 -0.019605773 -0.00203901 -0.047801163
0.00636117 -0.014399899 -0.0057330723 0.012346235 -0.016599381 0.0155488495 -0.0002094862 -0.030621784
-0.000991972 -0.027713155 -0.037119437 -0.030402763 -0.025347175 -0.03454737 0.03635352 0.00010257534
0.0038508016 -0.013194153 -0.010206893 -0.044649873 0.020060696 -0.049325086 -0.02719656 -0.024251096
0.0035516217 -0.028919106 -0.00935401 0.010316993 0.016788183 0.0015869805 -0.0106376875 -0.010257712
-0.0070207496 -0.020924963 -0.03857148 -0.03613577 -0.07495328 -0.032090407 0.0001961429 0.031050548
0.018039966 0.011353717 0.033911146 0.010134656 0.036080517 -0.036449265 0.034832988 0.0153351
-0.01154211 -0.01589665 -0.010170503 -0.036366347 -0.028274093 -0.0087876925 -0.011537198 -0.023340981
-0.012733587 -0.0015207422 0.0003191609 -0.015024619 0.014570444 -0.02478705 -0.036523946 -0.00345789
-0.031326223 0.0013218584 -0.029576246 -0.039322607 -0.023982799 -0.015465756 0.02337404 -0.013954473
-0.019411558 -0.018632853 -0.021179702 0.013019904 -0.016738568 -0.007870265 0.021095844 -0.02414306
-0.02891218 -0.04965536 -0.050722912 0.0015158653 0.0069636083 0.009565803 0.038346026 0.002986424
0.0067749936 -0.002237605 -0.0031361505 0.023755267 0.008274162 0.0089249825 -0.015291508 0.007169094
00000000: 9cc7 80bc 51bb 52bc b95d afbb 5e29 8dbc
00000010: ecd5 3bbc 6c0b d03c aa4e 98bc 74b9 e0bc
00000020: 72d1 46bd 59ff 7a3b 1450 6e3c bed5 233d
00000030: 42e5 19bd ad07 12ba eb3d fc3b 4856 ea3b
00000040: 9537 473b 4105 9f3b a9c3 f339 9ea1 393c
00000050: 23fb ba3c 05f3 933b 41a4 f53a 2503 03bd
00000060: 23b8 343b 0dee d8b9 7a3b 713b 0492 11bc
00000070: 3c1b 15bc 5ebe 4b3c 830a 51bc 8186 d2bb
00000080: c25a 703b 731a a1bc be79 32bc d701 483c
00000090: db26 c93c 9f55 ae3c f562 dcbb 0393 17bc
000000a0: 8826 02bb e5d5 37bc 3b0b d438 ea19 ecbb
000000b0: b0ac bdbc 8747 3f3d fc03 78bc 8f91 7a3c
000000c0: ab49 e1bb 2728 c5bb d1a6 313c d47e 20bc
000000d0: c8ee 163b 781e a43c bea3 e6ba 9f3a 923c
000000e0: 42ed 2a3c ecc7 d63c 6de5 9c3c 6f45 80ba
000000f0: fb54 6a3a a8d7 c03c 33ef 5f3c 4325 0d3c
00000100: dadd 13bc cb5e 57bc 4f6d 703b 70bb 053c
00000110: 9e7e d2bc 5159 0d3c b30c 193c b198 7abc
00000120: 6b90 62bb 514e cb3c 893f 7a3c 2d65 843c
00000130: 9c7d 14ba 1cb1 41bc 686a be3c a03d ab3c
00000140: b2fa 11bc 76b5 0fbd f49c 013d 5b17 cfbc
00000150: 0340 003d 605f 21bd 263f cfbc 14d0 ce3c
00000160: dfa8 3abc 3e35 0ebd d865 a6bb 29e2 153c
00000170: 6a19 4ebc 1b3a b13b 6ccb 9a3b 9c05 b9bc
00000180: 9465 213c 1488 853c c1fa 2dbd 754f c53c
00000190: 63f6 06bc bbf6 fcbb 474d 28bd 92f6 ebbc
000001a0: 5956 26bb a9e2 86bd 736e 23bc 9e66 1c3d
000001b0: 3334 d1bb ab21 0e3c 77cc fbbb 7939 a2bc
000001c0: 2138 f43b 38bf 31bd a5cc f4bb cbaf 8c3b
000001d0: 4b6d f5bb ae9a 0a3c 91af 903b f630 f2bc
000001e0: 2257 0b3c 0f7e 3d3c 5492 01ba f6dc 08bd
000001f0: bac7 e63a ee22 1f3d 6ede bdbc 0434 2bbc
00000200: 442e 7b3b e497 5abc 542a ddbb 4a8c 46bc
00000210: 026f 863b adc1 18bc fb44 74bc 0996 b63b
00000220: 927f 473c 062c 703a 516a a83b 6d0a 203c
00000230: e72b 97bc 0f70 833c 63d5 b9bc e17a 63bc
00000240: fed4 bcba 3999 80bc 4296 813c 7467 0c3c
00000250: acd7 873c 7627 d03c e205 f53c 3b24 683a
00000260: 769e 2f3d 9b35 ddbc 524d c23b dfec 2b3c
00000270: 92c1 eabc 499c a0bc e9a0 05bb 27cb 43bd
00000280: 5d71 d03b 8eed 6bbc 7fdc bbbb dd47 4a3c
00000290: 6dfb 87bc 9ac0 7e3c 86a9 5bb9 89da fabc
000002a0: 0f05 82ba b306 e3bc 8d0a 18bd 370f f9bc
000002b0: e1a4 cfbc 8b81 0dbd 6ee7 143d b71d d738
000002c0: bb5d 7c3b 4a2c 58bc d03a 27bc c9e2 36bd
000002d0: 5456 a43c 1a09 4abd 52cb debc 3caa c6bc
000002e0: 53c2 683b c3e7 ecbc 9041 19bc 9b08 293c
000002f0: 5f87 893c 3b02 d03a b249 2ebc f60f 28bc
00000300: 510e e6bb d46a abbc 21fd 1dbd 1a03 14bd
00000310: 1b81 99bd 3b71 03bd b5ab 4d39 b85d fe3c
00000320: 8dc8 933c f104 3a3c 6ae6 0a3d d40b 263c
00000330: 2ac9 133d d34b 15bd 09ad 0e3d 1240 7b3c
00000340: 1e1b 3dbc b139 82bc 2ea2 26bc e1f4 14bd
00000350: 129f e7bc 41fa 0fbc 8406 3dbc 9635 bfbc
00000360: 89a0 50bc a453 c7ba 0d55 a739 d229 76bc
00000370: dfb8 6e3c 360e cbbc 229a 15bd c49d 62bb
00000380: ed4f 00bd 3542 ad3a e249 f2bc be10 21bd
00000390: 9377 c4bc 1564 7dbc ea7a bf3c 4da1 64bc
000003a0: fd04 9fbc eda3 98bc 0e81 adbc 6f51 553c
000003b0: 521f 89bc 49f2 00bc 31d1 ac3c abc7 c5bc
000003c0: 3cd9 ecbc 6b63 4bbd d4c2 4fbd 00b0 c63a
000003d0: fb2e e43b e3b9 1c3c b910 1d3d e1b7 433b
000003e0: c400 de3b c8a4 12bb e087 4dbb 689a c23c
000003f0: 5a90 073c 173a 123c 3c89 7abc b8ea ea3b

st_gcn_networks.2.tcn.2.bias f4 [16]
6.1619634e-05 6.787224e-05 1.6208302e-05 -7.0859754e-14 4.306555e-05 1.7733968e-05 0.00012905603 2.6080252e-05
2.375197e-05 -2.0532145e-05 2.3061805e-06 -5.9709197e-05 -2.2406473e-06 -2.5160134e-05 2.0733045e-05 -1.034829e-09
00000000: ca39 8138 a256 8e38 10f7 8737 de8f 9fa9
00000010: 48a1 3438 68c3 9437 3753 0739 eac6 da37
00000020: f83e c737 723c acb7 e1c3 1a36 4370 7ab8
00000030: 075e 16b6 fa0e d3b7 e0eb ad37 cf39 8eb0

st_gcn_networks.2.tcn.3.weight f4 [16]
0.1581256 0.20273027 0.13470423 -2.1e-43 0.21725008 0.15871318 0.19788155 0.113842115
0.11409514 0.14439175 0.21135221 0.11567807 0.22815731 0.09865013 0.11310585 -2.4146182e-06
00000000: adeb 213e 8698 4f3e e8ef 093e 9600 0080
00000010: ce76 5e3e b585 223e 76a1 4a3e 0e26 e93d
00000020: b6aa e93d 6edb 133e b76c 583e a0e8 ec3d
00000030: 12a2 693e 1409 ca3d 0aa4 e73d d30a 22b6
