weights_arm/142.pt (torch, 70926 bytes, 80 tensors)

A f4 [3, 9, 9]
0.5 0.0 0.0 0.0 0.0 0.0 0.0 0.0
0.0 0.0 0.2 0.0 0.0 0.0 0.0 0.0
0.0 0.0 0.0 0.0 0.33333334 0.0 0.0 0.0
0.0 0.0 0.0 0.0 0.0 0.0 0.33333334 0.0
0.0 0.0 0.0 0.0 0.0 0.0 0.0 0.0
0.5 0.0 0.0 0.0 0.0 0.0 0.0 0.0
0.0 0.0 0.33333334 0.0 0.0 0.0 0.0 0.0
0.0 0.0 0.0 0.0 0.33333334 0.0 0.0 0.0
0.0 0.0 0.0 0.0 0.0 0.0 0.5 0.0
0.0 0.0 0.0 0.0 0.0 0.0 0.0 0.0
0.5 0.0 0.2 0.0 0.0 0.0 0.0 0.0
0.0 0.0 0.0 0.0 0.0 0.0 0.0 0.0
0.0 0.0 0.0 0.0 0.2 0.0 0.0 0.0
0.0 0.0 0.0 0.0 0.0 0.0 0.33333334 0.0
0.5 0.0 0.0 0.0 0.0 0.0 0.0 0.0
0.33333334 0.0 0.0 0.0 0.0 0.0 0.0 0.2
0.0 0.0 0.0 0.0 0.0 0.0 0.0 0.0
0.0 0.0 0.0 0.0 0.33333334 0.0 0.5 0.0
0.0 0.0 0.0 0.0 0.0 0.0 0.33333334 0.0
0.0 0.0 0.2 0.0 0.0 0.0 0.0 0.0
0.0 0.0 0.0 0.0 0.0 0.0 0.0 0.0
0.0 0.0 0.0 0.5 0.0 0.33333334 0.0 0.0
0.33333334 0.0 0.0 0.5 0.0 0.0 0.0 0.33333334
0.0 0.0 0.0 0.0 0.0 0.0 0.0 0.0
0.0 0.0 0.0 0.0 0.0 0.0 0.0 0.0
0.0 0.0 0.0 0.0 0.0 0.0 0.0 0.0
0.0 0.0 0.0 0.0 0.0 0.33333334 0.0 0.0
0.0 0.0 0.0 0.0 0.0 0.0 0.0 0.0
0.0 0.0 0.0 0.0 0.0 0.0 0.0 0.0
0.0 0.0 0.0 0.0 0.0 0.0 0.0 0.0
0.0 0.0 0.0
00000000: 0000 003f 0000 0000 0000 0000 0000 0000
00000010: 0000 0000 0000 0000 0000 0000 0000 0000
00000020: 0000 0000 0000 0000 cdcc 4c3e 0000 0000
00000030: 0000 0000 0000 0000 0000 0000 0000 0000
00000040: 0000 0000 0000 0000 0000 0000 0000 0000
00000050: abaa aa3e 0000 0000 0000 0000 0000 0000
00000060: 0000 0000 0000 0000 0000 0000 0000 0000
00000070: 0000 0000 0000 0000 abaa aa3e 0000 0000
00000080: 0000 0000 0000 0000 0000 0000 0000 0000
00000090: 0000 0000 0000 0000 0000 0000 0000 0000
000000a0: 0000 003f 0000 0000 0000 0000 0000 0000
000000b0: 0000 0000 0000 0000 0000 0000 0000 0000
000000c0: 0000 0000 0000 0000 abaa aa3e 0000 0000
000000d0: 0000 0000 0000 0000 0000 0000 0000 0000
000000e0: 0000 0000 0000 0000 0000 0000 0000 0000
000000f0: abaa aa3e 0000 0000 0000 0000 0000 0000
00000100: 0000 0000 0000 0000 0000 0000 0000 0000
00000110: 0000 0000 0000 0000 0000 003f 0000 0000
00000120: 0000 0000 0000 0000 0000 0000 0000 0000
00000130: 0000 0000 0000 0000 0000 0000 0000 0000
00000140: 0000 003f 0000 0000 cdcc 4c3e 0000 0000
00000150: 0000 0000 0000 0000 0000 0000 0000 0000
00000160: 0000 0000 0000 0000 0000 0000 0000 0000
00000170: 0000 0000 0000 0000 0000 0000 0000 0000
00000180: 0000 0000 0000 0000 0000 0000 0000 0000
00000190: cdcc 4c3e 0000 0000 0000 0000 0000 0000
000001a0: 0000 0000 0000 0000 0000 0000 0000 0000
000001b0: 0000 0000 0000 0000 abaa aa3e 0000 0000
000001c0: 0000 003f 0000 0000 0000 0000 0000 0000
000001d0: 0000 0000 0000 0000 0000 0000 0000 0000
000001e0: abaa aa3e 0000 0000 0000 0000 0000 0000
000001f0: 0000 0000 0000 0000 0000 0000 cdcc 4c3e
00000200: 0000 0000 0000 0000 0000 0000 0000 0000
00000210: 0000 0000 0000 0000 0000 0000 0000 0000
00000220: 0000 0000 0000 0000 0000 0000 0000 0000
00000230: abaa aa3e 0000 0000 0000 003f 0000 0000
00000240: 0000 0000 0000 0000 0000 0000 0000 0000
00000250: 0000 0000 0000 0000 abaa aa3e 0000 0000
00000260: 0000 0000 0000 0000 cdcc 4c3e 0000 0000
00000270: 0000 0000 0000 0000 0000 0000 0000 0000
00000280: 0000 0000 0000 0000 0000 0000 0000 0000
00000290: 0000 0000 0000 0000 0000 0000 0000 0000
000002a0: 0000 0000 0000 0000 0000 0000 0000 003f
000002b0: 0000 0000 abaa aa3e 0000 0000 0000 0000
000002c0: abaa aa3e 0000 0000 0000 0000 0000 003f
000002d0: 0000 0000 0000 0000 0000 0000 abaa aa3e
000002e0: 0000 0000 0000 0000 0000 0000 0000 0000
000002f0: 0000 0000 0000 0000 0000 0000 0000 0000
00000300: 0000 0000 0000 0000 0000 0000 0000 0000
00000310: 0000 0000 0000 0000 0000 0000 0000 0000
00000320: 0000 0000 0000 0000 0000 0000 0000 0000
00000330: 0000 0000 0000 0000 0000 0000 0000 0000
00000340: 0000 0000 0000 0000 0000 0000 0000 0000
00000350: 0000 0000 abaa aa3e 0000 0000 0000 0000
00000360: 0000 0000 0000 0000 0000 0000 0000 0000
00000370: 0000 0000 0000 0000 0000 0000 0000 0000
00000380: 0000 0000 0000 0000 0000 0000 0000 0000
00000390: 0000 0000 0000 0000 0000 0000 0000 0000
000003a0: 0000 0000 0000 0000 0000 0000 0000 0000
000003b0: 0000 0000 0000 0000 0000 0000 0000 0000
000003c0: 0000 0000 0000 0000 0000 0000

data_bn.weight f4 [27]
0.08822487 0.04442151 0.046910197 0.25241593 0.054359198 0.05618597 0.27815527 0.19032168
0.21166475 0.44998085 0.5143707 0.36514857 0.50597197 0.51212835 0.3596681 0.2667463
0.17107847 0.23325123 0.47043186 0.3961159 0.34276894 0.49451563 0.41393593 0.34128729
0.22189847 0.03812915 0.061441083
00000000: 3eaf b43d 54f3 353d e824 403d a93c 813e
00000010: c0a7 5e3d 4223 663d 5e6a 8e3e b0e3 423e
00000020: a5be 583e e463 e63e ccad 033f c1f4 ba3e
00000030: 6187 013f d81a 033f 6b26 b83e f992 883e
00000040: 322f 2f3e 69d9 6e3e 72dc f03e b4cf ca3e
00000050: 697f af3e 2731 fd3e 69ef d33e 35bd ae3e
00000060: 5a39 633e 502d 1c3d a5a9 7b3d

data_bn.bias f4 [27]
-0.013996134 0.02123527 -0.018436868 -0.01766164 -0.0154523915 0.0014859801 0.04674075 0.007593284
0.0031323507 -0.022292899 0.004323424 0.015588347 -0.007951472 0.0039715134 -0.005600833 0.023652578
0.047744934 0.038922284 0.0061659324 -0.014736829 -0.020462263 -0.024846897 -0.025174547 0.004115151
0.012704294 0.014736365 0.0061450587
00000000: 0a50 65bc 97f5 ad3c ea08 97bc 25af 90bc
00000010: 072c 7dbc 38c5 c23a 3b73 3f3d 15d1 f83b
00000020: 2048 4d3b 999f b6bc 82ab 8d3b 4466 7f3c
00000030: e446 02bc 7823 823b 3187 b7bb 0dc3 c13c
00000040: 3190 433d f96c 1f3d 970b ca3b be72 71bc
00000050: 7aa0 a7bc b88b cbbc da3a cebc 63d8 863b
00000060: ac25 503c cb70 713c 7d5c c93b

data_bn.running_mean f4 [27]
88.69074 76.44709 20.599388 98.01407 83.41445 22.172894 88.31974 78.80423
21.243166 99.77736 80.927124 21.467594 107.81092 78.48239 20.613733 107.55149
88.07654 23.106737 128.41574 94.81366 24.366661 127.644264 90.758224 23.43251
106.275085 93.88555 24.46712
00000000: a961 b142 e9e4 9842 8ccb a441 3407 c442
00000010: 33d4 a642 1662 b141 b5a3 b042 c49b 9d42
00000020: 01f2 a941 028e c742 b0da a142 a2bd ab41
00000030: 319f d742 fcf6 9c42 ede8 a441 5d1a d742
00000040: 3027 b042 99da b841 6e6a 0043 98a0 bd42
00000050: ecee c241 dd49 ff42 3684 b542 c875 bb41
00000060: d88c d442 67c5 bb42 a9bc c341

data_bn.running_var f4 [27]
12551.752 21147.896 6726.6006 13306.088 23362.062 7529.2554 10329.342 20460.34
6816.618 13135.007 19313.098 6606.105 14843.776 17681.846 6131.101 17244.537
26541.66 8292.448 22609.809 27422.62 8770.03 21629.46 24062.402 7913.568
18280.797 25099.354 8391.734
00000000: 021f 4446 cb37 a546 ce34 d245 5ae8 4f46
00000010: 2084 b646 0b4a eb45 5e65 2146 aed8 9f46
00000020: f204 d545 073c 4d46 32e2 9646 d770 ce45
00000030: 1bef 6746 b123 8a46 cf98 bf45 13b9 8646
00000040: 525b cf46 cb91 0146 9ea3 b046 3d3d d646
00000050: 1f08 0946 ecfa a846 cefc bb46 8b4c f745
00000060: 98d1 8e46 b516 c446 f01e 0346

st_gcn_networks.0.gcn.conv.weight f4 [24, 3, 1, 1]
-0.07040564 -0.011186667 -0.0016204993 0.14935732 -0.05943904 0.0638532 0.070321836 0.0010801681
0.049231775 -0.03085919 -0.019420417 0.12993008 0.02979639 -0.014726156 -0.20926431 0.2174095
0.29390118 0.079437196 -0.22258754 0.16702312 0.07478288 -0.18880986 0.0696311 -0.13365977
-0.048240233 -0.051232953 -0.01955899 -0.2431835 -0.086545296 0.037218135 0.16362433 -0.018872663
-0.017974494 -0.1361024 -0.13419756 0.005038694 -0.0006269347 -0.019595422 0.19846036 -0.04279459
-0.23445861 -0.12800737 0.059944656 0.067844614 0.0497805 0.17590165 -0.09911927 0.16490576
-0.009656177 -0.003706606 0.008313359 -0.038274772 -0.027096957 -0.07616266 0.15639551 -0.021480842
0.041232634 -0.036892142 -0.025900472 0.008117781 -0.20821714 0.0139481425 -0.004580548 0.04579039
-0.055032022 0.11734055 0.042463873 -0.057639144 -0.013326195 -0.10984396 0.13659872 0.048439965
00000000: d530 90bd 4848 37bc ef66 d4ba 20f1 183e
00000010: 5a76 73bd 77c5 823d e504 903d 6d94 8d3a
00000020: 42a7 493d 69cc fcbc 9117 9fbc 640c 053e
00000030: 8f17 f43c fa45 71bc 6249 56be 99a0 5e3e
00000040: 377a 963e f8af a23d fded 63be 1c08 2b3e
00000050: c427 993d 5f57 41be c09a 8e3d 1bde 08be
00000060: 8d97 45bd a5d9 51bd 2d3a a0bc 1805 79be
00000070: a93e b1bd 0b72 183d 238d 273e d89a 9abc
00000080: 3f3f 93bc 6d5e 0bbe 166b 09be a11b a53b
00000090: e058 24ba 9486 a0bc 3139 4b3e 6149 2fbd
000000a0: eb15 70be 5d14 03be 8788 753d 1ef2 8a3d
000000b0: a3e6 4b3d 901f 343e 0bff cabd 0edd 283e
000000c0: f134 1ebc 88ea 72bb c134 083c 02c6 1cbd
000000d0: 70fa ddbc 2bfb 9bbd 2526 203e 97f8 afbc
000000e0: 8de3 283d 371c 17bd 3a2d d4bc 7100 053c
000000f0: e036 55be c086 643c 6c18 96bb b48e 3b3d
00000100: 4269 61bd 3e50 f03d 99ee 2d3d 0617 6cbd
00000110: 1d56 5abc dff5 e0bd 89e0 0b3e fc68 463d

st_gcn_networks.0.gcn.conv.bias f4 [24]
0.030187277 0.04814207 0.050380588 0.07601881 -0.013709792 -0.17571884 -0.009325191 0.12493645
-0.06841473 0.017766764 0.08614255 -0.029470118 0.022804221 0.13811892 0.16026631 -0.015677463
-0.016714804 -0.15758018 0.02407346 -0.058679298 0.04054054 0.028683266 -0.024882007 0.0011270056
00000000: 4f4b f73c 9f30 453d e05b 4e3d c0af 9b3d
00000010: 099f 60bc a4ef 33be b0c8 18bc aede ff3d
00000020: 061d 8cbd 9b8b 913c 816b b03d 516b f1bc
00000030: ebcf ba3c 0c6f 0d3e da1c 243e 066e 80bc
00000040: 7ced 88bc b35c 21be b435 c53c b459 70bd
00000050: d60d 263d 2bf9 ea3c 5ad5 cbbc 08b8 933a

st_gcn_networks.0.tcn.0.weight f4 [8]
0.15445168 0.31514615 0.38406003 0.27568498 0.2510739 0.3334257 0.33168203 0.34420544
00000000: 9528 1e3e d65a a13e 84a3 c43e 9526 8d3e
00000010: c28c 803e c6b6 aa3e 3ad2 a93e b23b b03e

st_gcn_networks.0.tcn.0.bias f4 [8]
0.04689435 0.03822887 0.05195961 0.023015104 -0.03739813 0.05619105 -0.006543273 -0.041530896
00000000: 4a14 403d e095 1c3d 9ad3 543d 2c8a bc3c
00000010: c82e 19bd 9628 663d f468 d6bb 4d1c 2abd

st_gcn_networks.0.tcn.0.running_mean f4 [8]
-0.004409714 0.0009947856 0.017147778 0.004016043 0.002512088 -0.005854996 0.015642818 0.014402634
00000000: 5d7f 90bb 7763 823a 7f79 8c3c 0399 833b
00000010: d8a1 243b 44db bfbb 5e25 803c 07f9 6b3c

st_gcn_networks.0.tcn.0.running_var f4 [8]
0.00010827644 0.00020535728 0.00029815547 0.00026217158 1.6415928e-05 0.00023806855 0.00036514143 6.502759e-05
00000000: 7912 e338 2d55 5739 c051 9c39 1374 8939
00000010: f0b4 8937 0aa2 7939 7470 bf39 6c5f 8838

st_gcn_networks.0.tcn.2.weight f4 [8, 8, 9, 1]
-0.030112268 -0.012851118 0.015148403 -0.007607937 0.007247144 -0.024682693 -5.9550763e-05 -0.009181816
0.011706007 0.030218836 -0.052189752 -0.027266813 -0.005693405 -0.007983942 0.021753186 0.015101166
-0.0017589373 -0.015207543 0.045041837 0.056061503 0.027759602 0.06428773 -0.013290714 0.09333443
-0.057035606 0.026244612 -0.05744122 0.008837961 -0.018174838 0.061483663 0.0006587408 0.01866533
0.026039267 0.020231983 0.0385681 0.022778891 -0.06615268 -0.028441237 0.030335985 -0.0219632
-0.028548202 0.018572383 0.020095212 -0.045352902 0.014506594 -0.029086549 0.003938251 0.007548294
0.024175089 0.032570146 0.014947097 -0.0015415436 0.011947819 0.012671501 0.027918817 0.022162676
0.0059665674 -0.040733583 -0.028120287 -0.016049776 -0.03485804 0.057307824 -0.013609088 -0.02831185
-0.11800812 -0.0021109197 -0.06080079 0.0034397843 -0.074501164 -0.018710012 -0.026002837 0.0033085695
0.023830302 -0.0109694945 -0.0019501861 0.00062458566 0.017708493 0.013653929 0.049153894 0.005426874
-0.003971624 0.026692519 0.01822594 0.042619858 0.008635475 -0.022621268 0.0020256748 0.026031865
-0.007402127 0.035334226 0.030239277 0.07434847 0.080504246 -0.0007236111 -0.017702792 -0.06204377
-0.013112346 0.020848457 -0.008228093 0.051516414 -0.02661679 0.02315058 0.014243225 0.016497992
0.011771529 0.03644404 -0.02861117 -0.010914065 0.01859105 0.003928846 0.02781943 0.017457373
0.023526687 -0.029384788 0.049870078 0.05635343 0.017097931 -0.020630859 0.034247335 0.021792598
-0.03751385 0.020213727 -0.031029355 -0.047931 -0.018660737 -0.013572151 -0.06300294 -0.044458505
-0.070731096 -0.047660127 -0.023082841 0.038005542 0.028584316 -0.038952988 0.057180118 0.03351853
-0.051473822 -0.019273164 -0.0032014325 0.02310365 -0.03973732 0.021225918 -0.022924347 -0.025560606
-0.021363804 -0.0048301914 -0.012730834 0.054348137 -0.017570622 -0.0072984113 0.024090566 -0.02392238
-0.01698146 -0.006218376 -0.0066529443 -0.012701001 0.022282232 -0.026668906 0.009139936 0.0119110895
-0.037200905 0.004407191 0.07141175 -0.0049627633 0.007466365 -0.07974853 0.053864308 -0.004316737
0.046598464 -0.0680275 0.036151156 0.02774518 -0.029850079 -0.03019794 0.028533306 0.014806549
-0.031963937 0.0012801483 -0.03638282 0.02306205 -0.0055732527 0.009216113 0.043005556 0.0060868184
-0.064526774 -0.016652646 -0.032140236 -0.011904746 0.0027853916 -0.0394514 -0.06493019 0.06150964
-0.04716161 -0.055381216 0.009549542 0.042844303 -0.04733176 0.08274264 0.008696242 -0.032397613
-0.06584322 0.051666126 0.094144106 0.021045575 -0.03440299 0.03185763 0.04377406 -0.045867614
-0.025410984 -0.078868896 0.03799576 0.0030880265 0.058152426 -0.042548332 -0.032353166 -0.019706352
-0.009330101 -0.0041139848 0.011420493 0.009402032 0.021101696 -0.014582066 -0.00860924 -0.018727047
0.010466504 -0.0031085045 0.019445777 -0.015768124 -0.011780315 0.033966918 0.035996184 0.023563989
0.0010284493 0.037389547 0.013172308 0.009057407 0.00045235708 -0.013180001 -0.009928863 -0.009838591
0.011292736 0.00835858 -0.05472865 0.012245425 -0.03443067 -0.03379767 -0.04603037 -0.038629852
-0.010951591 -0.03549685 -0.037349775 0.019358141 -0.004467539 -0.050744362 0.0005305268 0.035336144
00000000: 01ae f6bc 7f8d 52bc 0231 783c 004c f9bb
00000010: 7379 ed3b 5c33 cabc 25c6 79b8 546f 16bc
00000020: 8dca 3f3c 7e8d f73c ecc4 55bd a75e dfbc
00000030: be8f babb 14cf 02bc bd33 b23c e26a 773c
00000040: 248c e6ba 0f29 79bc ca7d 383d bfa0 653d
00000050: 1b68 e33c 49a9 833d 4bc1 59bc 1f26 bf3d
00000060: 2b9e 69bd f1fe d63c 7c47 6bbd 18cd 103c
00000070: 66e3 94bc 4bd6 7b3d 59af 2c3a 09e8 983c
00000080: 4d50 d53c 8bbd a53c 96f9 1d3d cc9a ba3c
00000090: 0e7b 87bd 99fd e8bc 2c83 f83c 2bec b3bc
000000a0: ebdd e9bc 1c25 983c b79e a43c f7c3 39bd
000000b0: 11ad 6d3c ea46 eebc 720c 813b ae57 f73b
000000c0: d60a c63c 4668 053d abe4 743c 9f0d caba
000000d0: c9c0 433c 219c 4f3c 01b6 e43c 808e b53c
000000e0: 3283 c33b 42d8 26bd 845c e6bc d27a 83bc
000000f0: 4ec7 0ebd 9cbb 6a3d a7f8 5ebc 41ee e7bc
00000100: 3eae f1bd 5b57 0abb 400a 79bd 016e 613b
00000110: 1194 98bd bd45 99bc e703 d5bc 96d4 583b
00000120: c437 c33c 65b9 33bc 639d ffba 3cbb 233a
00000130: 6711 913c bbb4 5f3c 9855 493d ebd3 b13b
00000140: 6624 82bb 45aa da3c 914e 953c 2992 2e3d
00000150: cf7b 0d3c 3d50 b9bc 2fc1 043b c740 d53c
00000160: 8b8d f2bb 9fba 103d 5cb8 f73c 0344 983d
00000170: 69df a43d b8b0 3dba 7205 91bc 9c21 7ebd
00000180: 2ad5 56bc 62ca aa3c 20cf 06bc e002 533d
00000190: 740b dabc 49a6 bd3c 6a5c 693c cc26 873c
000001a0: 5fdd 403c 5846 153d f961 eabc e8d0 32bc
000001b0: 424c 983c 8dbd 803b 93e5 e33c c402 8f3c
000001c0: 0abb c03c 5eb8 f0bc 9144 4c3d dbd2 663d
000001d0: f610 8c3c 0c02 a9bc ef46 0c3d 6486 b23c
000001e0: 1fa8 19bd 4297 a53c 4631 febc 4c53 44bd
000001f0: 67de 98bc ba5d 5ebc af07 81bd 1f1a 36bd
00000200: 77db 90bd 4437 43bd 3a18 bdbc b3ab 1b3d
00000210: a829 ea3c 2b8d 1fbd b335 6a3d ba4a 093d
00000220: 37d6 52bd c1e2 9dbc 20cf 51bb de43 bd3c
00000230: 9ac3 22bd fae1 ad3c d7cb bbbc 7a64 d1bc
00000240: 2503 afbc 9546 9ebb fd94 50bc 279c 5e3d
00000250: 44f0 8fbc 8327 efbb 9459 c53c def8 c3bc
00000260: b41c 8bbc 85c3 cbbb f100 dabb dc17 50bc
00000270: 3a89 b63c c078 dabc acbf 153c bb26 433c
00000280: fa5f 18bd 336a 903b 5340 923d ad9e a2bb
00000290: 69a8 f43b 3353 a3bd d2a0 5c3d 6a73 8dbb
000002a0: 08de 3e3d 0052 8bbd 3c13 143d dc49 e33c
000002b0: 2788 f4bc ac61 f7bc aebe e93c 2b97 723c
000002c0: 9eec 02bd a6ca a73a 2706 15bd a0ec bc3c
000002d0: d59f b6bb 2eff 163c 9826 303d ef73 c73b
000002e0: 9d26 84bd 216b 88bc 7ba5 03bd 200c 43bc
000002f0: 1e8b 363b cb97 21bd 1ffa 84bd 88f1 7b3d
00000300: 882c 41bd 6ad7 62bd af75 1c3c 827d 2f3d
00000310: f3de 41bd f974 a93d af7a 0e3c 5cb3 04bd
00000320: cfd8 86bd dc9f 533d a0ce c03d c567 ac3c
00000330: 26ea 0cbd 257d 023d 6e4c 333d aedf 3bbd
00000340: b22a d0bc 0486 a1bd 71a1 1b3d 7d60 4a3b
00000350: 3d31 6e3d 2947 2ebd c184 04bd 376f a1bc
00000360: 48dd 18bc 9bce 86bb 051d 3b3c fb0a 1a3c
00000370: 77dd ac3c 9ee9 6ebc c50d 0dbc 7769 99bc
00000380: b37b 2b3c 0db8 4bbb c04c 9f3c 272c 81bc
00000390: 3902 41bc e520 0b3d bc70 133d 4409 c13c
000003a0: 08cd 863a c825 193d aad0 573c 8565 143c
000003b0: 572a ed39 eef0 57bc abac 22bc 0b32 21bc
000003c0: 2b05 393c 6df2 083c 262b 60bd 09a1 483c
000003d0: 2d07 0dbd 6d6f 0abd 578a 3cbd 563a 1ebd
000003e0: 4d6e 33bc 2565 11bd 14fc 18bd f794 9e3c
000003f0: 6f64 92bb 52d9 4fbd 0d13 0b3a a2bc 103d

st_gcn_networks.0.tcn.2.bias f4 [8]
-3.9779185e-05 1.4706597e-05 1.21703415e-05 3.8833234e-05 -1.4494925e-05 -6.888849e-05 -4.2586e-05 -4.0685463e-05
00000000: 93d8 26b8 5abc 7637 382f 4c37 dee0 2238
00000010: 3b2f 73b7 3a78 90b8 5f9e 32b8 afa5 2ab8

st_gcn_networks.0.tcn.3.weight f4 [8]
0.3404101 0.30242968 0.26950008 0.23264103 0.20192052 0.32352045 0.35772017 0.30268735
00000000: 3c4a ae3e 10d8 9a3e eafb 893e 7339 6e3e
00000010: 41c4 4e3e 79a4 a53e 1927 b73e d6f9 9a3e

st_gcn_networks.0.tcn.3.bias f4 [8]
-0.03939 -0.0017434269 0.05547344 0.022281384 -0.01900035 0.024844319 0.030749086 -0.016543875
00000000: 6957 21bd b383 e4ba 1e38 633d 7387 b63c
00000010: 9fa6 9bbc 5086 cb3c 82e5 fb3c 0587 87bc

st_gcn_networks.0.tcn.3.running_mean f4 [8]
0.009368037 0.017001664 -0.016680872 -0.033599265 0.025280531 0.037467584 -0.0027605125 0.01291696
00000000: 657c 193c 1347 8b3c 53a6 88bc 629f 09bd
00000010: 1e19 cf3c 9c77 193d b7e9 34bb a8a1 533c

st_gcn_networks.0.tcn.3.running_var f4 [8]
0.005935998 0.0034837145 0.0018792318 0.00094358897 0.0016154653 0.0043166173 0.0050962577 0.0036265093
00000000: c382 c23b 084f 643b 8e50 f63a 2f5b 773a
00000010: 05be d33a 6972 8d3b 82fe a63b bbaa 6d3b

st_gcn_networks.1.gcn.conv.weight f4 [24, 8, 1, 1]
-0.021737719 -0.037733372 0.05876069 0.05535695 -0.0144076925 0.017160429 0.011247243 0.042426657
-0.005059356 -0.018195724 0.082518175 -0.035214473 0.034221143 -0.024331467 0.06738209 0.021736097
0.06906078 -0.06125681 -0.02814318 0.08371056 0.06351841 0.06670144 -0.031764228 -0.0201348
0.004202726 -0.033792954 -0.031901807 -0.031253003 -0.06841011 -0.095657274 0.043565907 -0.09741166
-0.023211459 0.0058966144 0.070750974 -0.045755852 0.019468822 0.018008823 0.038843516 -0.0049441154
0.012863586 -0.08763593 0.032503724 -0.064307086 -0.010213518 0.0022788064 -0.08213094 0.011731848
-0.027992334 -0.013357559 0.050707247 0.0025686594 0.02133008 0.021345088 -0.04913302 -0.028839141
-0.031568777 -0.0020317687 -0.029721592 -0.029887434 -0.012594177 0.057174757 0.005514469 0.0763558
-0.025293387 0.071861185 0.010131922 -0.037433427 -0.06097034 0.009842979 0.07753538 0.09855946
-0.058238283 -0.009809522 -0.0593301 -0.02728713 -0.007604054 -0.035169546 0.055427317 0.002618051
0.012081451 -0.009252874 0.055361446 -0.04960914 -0.049302846 -0.09799256 0.10164631 -0.048844177
-0.02090918 0.122359484 0.0695464 0.02426709 -0.056018792 0.07105557 -0.037430048 -0.09554257
-0.03966476 -0.020637257 0.07506943 0.044071194 0.0062764855 0.017088925 -0.02768148 0.039116785
0.08697008 -0.045322563 -0.003285808 -0.062454917 0.029203314 -0.081341594 0.080420114 0.053911578
-0.06640252 -0.10886514 0.043597914 0.04478061 -0.07040047 -0.047187265 0.030422794 0.0744172
0.026344746 0.0106576355 -0.0134109575 -0.00033690484 -0.002355931 0.01613315 0.035618536 -0.0055222423
-0.013893468 -0.0121113 0.029663326 0.072495766 -0.018719235 0.044364974 -0.051138878 0.0031484482
0.061537728 0.007673855 0.02994891 -0.022949267 0.003365757 0.050486878 0.08983364 0.023404505
-0.0026957334 0.022953002 -0.025408743 -0.059788067 -0.0067369496 -0.05309093 0.0592953 0.015648758
0.07192206 -0.02886599 -0.02519607 -0.061045785 -0.0129068205 -0.026100954 0.1511313 -0.0027440519
0.0029707027 0.00600458 0.010822614 -0.06484515 0.026418218 -0.008513053 0.00952647 -7.191602e-05
-0.022950297 -0.04083157 -0.017513989 0.014813068 -0.07299774 -0.06703205 -0.03690462 -0.0020001233
0.06987517 0.04057123 0.028690696 -0.10040735 0.05771093 0.037086222 -0.008548354 -0.026430221
-0.00025746992 -0.022411382 0.035177838 0.0026207413 0.0035090025 -0.03358272 -0.0014837882 0.07165144
00000000: 4d13 b2bc 4f8e 1abd 0daf 703d f8bd 623d
00000010: 3e0e 6cbc 0794 8c3c 5b46 383c 93c7 2d3d
00000020: f4c8 a5bb 330f 95bc 4aff a83d 0d3d 10bd
00000030: 782b 0c3d c952 c7bc 9fff 893d e60f b23c
00000040: bd6f 8d3d 6ce8 7abd 878c e6bc 7170 ab3d
00000050: f115 823d c49a 883d 351b 02bd bcf1 a4bc
00000060: 05b7 893b 7b6a 0abd 78ab 02bd 2603 00bd
00000070: 9a1a 8cbd f6e7 c3bd 2a72 323d c47f c7bd
00000080: f525 bebc 6338 c13b e3e5 903d 7d6a 3bbd
00000090: 147d 9f3c 3d87 933c 611a 1f3d 3f02 a2bb
000000a0: cac1 523c 777a b3bd a022 053d 6fb3 83bd
000000b0: 9956 27bc 0758 153b 4434 a8bd f036 403c
000000c0: 2e50 e5bc aad9 5abc 67b2 4f3d f456 283b
000000d0: 6cbc ae3c e5db ae3c b53f 49bd 1040 ecbc
000000e0: 434e 01bd 6c27 05bb b27a f3bc 7ed6 f4bc
000000f0: cf57 4ebc 1430 6a3d b8b2 b43b 6e60 9c3d
00000100: 1434 cfbc f52b 933d 5c00 263c cb53 19bd
00000110: 09bc 79bd 7244 213c dfca 9e3d 8bd9 c93d
00000120: 448b 6ebd 1eb8 20bc 1e04 73bd 4289 dfbc
00000130: 6e2b f9bb f10d 10bd c107 633d 9b93 2b3b
00000140: 47f1 453c 5e99 17bc afc2 623d f432 4bbd
00000150: c8f1 49bd 53b0 c8bd f12b d03d d510 48bd
00000160: bb49 abbc 9c97 fa3d 586e 8e3d c7cb c63c
00000170: f673 65bd 9585 913d 4050 19bd d3ab c3bd
00000180: 8477 22bd 770f a9bc 00be 993d ff83 343d
00000190: faaa cd3b 13fe 8b3c 45c4 e2bc ec38 203d
000001a0: 5f1d b23d 27a4 39bd b656 57bb bad0 7fbd
000001b0: ca3b ef3c 6c96 a6bd 4db3 a43d 63d2 5c3d
000001c0: 0bfe 87bd b0f4 debd ba93 323d df6b 373d
000001d0: 1f2e 90bd 6f47 41bd 3939 f93c 0c68 983d
000001e0: f0d0 d73c 5d9d 2e3c a2b9 5bbc 9aa2 b0b9
000001f0: f765 1abb ab29 843c bee4 113d edf3 b4bb
00000200: 6ea1 63bc 796e 46bc 8100 f33c a978 943d
00000210: 1559 99bc 0cb8 353d 0077 51bd 3256 4e3b
00000220: fc0e 7c3d f674 fb3b 6b57 f53c 1a00 bcbc
00000230: 0894 5c3b 54cb 4e3d b3fa b73d ceba bf3c
00000240: e7aa 30bb ef07 bc3c ff25 d0bc 55e4 74bd
00000250: a1c1 dcbb e075 59bd a1df 723d d331 803c
00000260: df4b 933d 5e78 ecbc fd67 cebc 250b 7abd
00000270: 2177 53bc abd1 d5bc 2ac2 1a3e 8dd5 33bb
00000280: 1fb0 423b 11c2 c43b 5551 313c 89cd 84bd
00000290: 056b d83c 557a 0bbc e914 1c3c 9fd1 96b8
000002a0: 4302 bcbc 013f 27bd 7f79 8fbc 83b2 723c
000002b0: d77f 95bd 1948 89bd 4c29 17bd 8014 03bb
000002c0: b71a 8f3d 052e 263d c008 eb3c 5ea2 cdbd
000002d0: 4c62 6c3d b9e7 173d 650e 0cbc 3184 d8bc
000002e0: 07fd 86b9 1398 b7bc a316 103d bec0 2b3b
000002f0: 4bf7 653b 098e 09bd ac7b c2ba fdbd 923d

st_gcn_networks.1.gcn.conv.bias f4 [24]
0.0017325808 0.010387413 -0.0176088 0.03747157 0.0066382596 -0.0054056756 0.004491539 0.00036947732
-0.06988111 -0.008246465 0.013942814 0.0020831248 -0.05431333 0.012235161 0.052267537 -0.0069987373
-0.009000803 -0.03766897 0.005105609 0.015134289 0.011212845 -0.016019618 0.023787264 -0.009649929
00000000: c417 e33a f82f 2a3c 5540 90bc ca7b 193d
00000010: c285 d93b 1822 b1bb c32d 933b 68b6 c139
00000020: d41d 8fbd 2e1c 07bc 6770 643c 0985 083b
00000030: a877 5ebd fc75 483c 7c16 563d aa55 e5bb
00000040: 1b78 13bc c74a 1abd f44c a73b cff5 773c
00000050: 15b6 373c 933b 83bc 82dd c23c bc1a 1ebc

st_gcn_networks.1.tcn.0.weight f4 [8]
0.22183089 0.19431995 0.27345496 0.29459748 0.15870051 0.23513974 0.26519603 0.21159998
00000000: a327 633e cffb 463e 4a02 8c3e 7bd5 963e
00000010: 6382 223e 79c8 703e c6c7 873e aaad 583e

st_gcn_networks.1.tcn.0.bias f4 [8]
-0.031085314 0.007808171 0.02012674 0.0042975885 -0.019727772 -0.008063949 -0.031977512 -0.024994314
00000000: a1a6 febc b0db ff3b d5e0 a43c c9d2 8c3b
00000010: 239c a1bc a71e 04bc dafa 02bd e0c0 ccbc

st_gcn_networks.1.tcn.0.running_mean f4 [8]
-0.001033561 -0.00037487212 -0.00014008442 0.0013031315 -0.0017495415 -0.0007856772 0.0023944313 0.00038930445
00000000: 8d78 87ba 7c8a c4b9 a0e3 12b9 d6cd aa3a
00000010: df50 e5ba e8f5 4dba e4eb 1c3b 8f1b cc39

st_gcn_networks.1.tcn.0.running_var f4 [8]
4.7694575e-06 4.322218e-06 1.4856701e-05 9.869725e-06 6.551071e-06 4.968485e-06 1.2407609e-05 5.5517935e-06
00000000: 5409 a036 9207 9136 0b41 7937 2596 2537
00000010: 45d1 db36 f6b6 a636 462a 5037 8b49 ba36

st_gcn_networks.1.tcn.2.weight f4 [8, 8, 9, 1]
-0.012328477 -0.0010305423 0.0130414525 -0.00925699 -0.0131222885 -0.038086917 -0.0053767473 0.010601984
0.03638301 -0.04848444 0.0072141243 0.04318818 0.0071605532 -0.041897092 -0.030495917 0.024078386
0.023491263 -0.0140319485 0.0056721256 -0.020465277 0.048425667 -0.013525337 0.00676697 -0.004331272
0.043905266 -0.03367413 -0.049762107 0.011505577 0.012921537 0.02674492 0.001476479 0.025159828
0.0472866 -0.04430102 -0.043747216 -0.04291968 -0.007862948 -0.010719443 -0.0089009935 -0.0051673176
0.0016076675 0.040401727 0.013015381 0.020022929 0.029392727 -0.004912679 -0.039389987 0.030667897
0.018948838 -0.017886164 -0.016578274 -0.011906514 -0.011290422 -0.00957074 -0.012659645 0.00601026
0.0086862305 -0.017498756 0.03128102 0.023832543 0.024557957 0.00092008495 0.010034143 0.012081934
-0.006271389 -0.054823004 -0.051114067 0.031599227 -0.022254935 -0.010043466 0.008565837 -0.002815704
-0.0051514907 -0.03866391 0.0030045053 -0.0014427218 -0.0124761155 -0.03481201 0.006516651 0.015273648
-0.050619535 -0.045204796 -0.011182432 -0.013700513 -0.0739172 0.019667385 0.0021525647 0.03944991
0.009400208 0.041706692 -0.03212819 -0.011155092 0.012416723 -0.008641249 0.026526192 0.038592633
0.003070367 0.049006313 0.020905191 0.021236407 0.0541014 0.003227066 0.02415601 -0.004672273
0.03149392 0.013184269 -0.014165646 0.028256394 -0.02659601 0.009361682 -0.021414978 -0.028194796
-0.001927621 0.007445032 0.020027567 -0.029497921 0.018866891 0.02075358 -0.002218353 -0.0016807172
-0.011054172 -0.012477753 0.006021335 0.0057212827 0.0074437177 0.053442743 -0.014144114 0.0066328137
0.040579524 -0.029518995 0.024122935 -0.007283498 0.025144843 -0.021769248 0.02792888 -0.013654479
-0.03374781 -0.018482395 -0.018268542 -0.030564034 0.021608641 0.0064125075 -0.009622828 0.009385796
0.000894317 -0.059653796 -0.01892018 -0.005082249 -0.00074881146 0.0036617655 0.0017945267 -0.03657175
-0.054892372 0.034627818 -0.03436662 -0.025769666 -0.006491014 0.00265965 -0.011706033 -0.018421672
0.009761362 -0.0006931643 0.040680863 -0.038630877 0.0150713315 0.045564473 -0.057715997 0.025109278
0.035434086 0.02289537 0.009185737 -0.024063634 0.040672675 -0.041429665 0.008661336 -0.016688755
-0.02569208 -0.04028231 0.021112623 -0.0142880855 0.004493555 0.02403318 -0.011928766 0.050703507
-0.015807724 -0.020934734 0.018864067 -0.030150417 -0.023260651 0.005534923 -0.014171014 0.04653759
-0.010085328 0.0066752327 -0.037383683 -0.00030799667 -0.07638637 -0.04975307 -0.009932865 -0.0051495163
0.024925109 0.05701973 -0.012275313 -0.008849592 0.0092980545 0.018187018 0.05764231 0.009781546
0.033536404 0.025494238 -0.012704467 0.01716013 -0.017693877 0.01111404 -0.0032551691 -0.015967822
-0.012746258 -0.01268638 0.05163857 -0.029448198 -0.03540404 -0.001982914 -0.031368166 -0.061474692
0.029229939 0.044155676 0.010908684 0.00974163 0.0117405355 0.035346553 6.31907e-05 -0.035671066
-0.03797972 0.012531437 0.014336208 0.0059772986 0.029349646 -0.028316583 0.018942613 -0.0041756984
0.007270206 -0.00023243598 0.046369813 -0.00621589 -0.00045698616 -0.020031083 0.030285845 -0.0066002896
-0.03131871 -0.0019713487 0.022712443 -0.056688543 0.015252129 -0.00264842 -0.018578228 -0.03692863
00000000: 61fd 49bc 4313 87ba d1ab 553c a1aa 17bc
00000010: defe 56bc 0701 1cbd 6d2f b0bb f2b3 2d3c
00000020: 5a06 153d 9f97 46bd 7664 ec3b 17e6 303d
00000030: 13a3 ea3b 499c 2bbd 93d2 f9bc 0940 c53c
00000040: c070 c03c 42e6 65bc 3ddd b93b cca6 a7bc
00000050: fe59 463d 6099 5dbc 75bd dd3b 58ed 8dbb
00000060: 02d6 333d e2ed 09bd 5ad3 4bbd e381 3c3c
00000070: dbb4 533c 2a18 db3c 6a86 c13a fc1b ce3c
00000080: 98af 413d fd74 35bd 4830 33bd 8ccc 2fbd
00000090: 98d3 00bc 9aa0 2fbc 79d5 11bc 9a52 a9bb
000000a0: 5fb8 d23a 487c 253d 773e 553c 2007 a43c
000000b0: 04c9 f03c 8afa a0bb 6557 21bd 3e3b fb3c
000000c0: 983a 9b3c 0186 92bc 29cf 87bc 8a13 43bc
000000d0: 76fb 38bc 98ce 1cbc 666a 4fbc b7f1 c43b
000000e0: b150 0e3c 8d59 8fbc 8720 003d 773c c33c
000000f0: c52d c93c db31 713a 3f66 243c 4ef3 453c
00000100: 3980 cdbb 168e 60bd fc5c 51bd 316e 013d
00000110: fb4f b6bc 5a8d 24bc b957 0c3c ad87 38bb
00000120: d6cd a8bb 0c5e 1ebd 3ce7 443b b619 bdba
00000130: 9f68 4cbc 0a97 0ebd a189 d53b 533e 7a3c
00000140: 6e56 4fbd aa28 39bd 8536 37bc 1e78 60bc
00000150: e761 97bd 7f1d a13c 0b12 0d3b 3b96 213d
00000160: 5403 1a3c a3d4 2a3d d998 03bd d9c3 36bc
00000170: 836f 4b3c 0694 0dbc 754d d93c 4f13 1e3d
00000180: 3638 493b d8ba 483d 5d41 ab3c f9f7 ad3c
00000190: 6e99 5d3d 2f7d 533b d3e2 c53c de19 99bb
000001a0: c5ff 003d d502 583c 0717 68bc f479 e73c
000001b0: e0df d9bc be61 193c 776e afbc c6f8 e6bc
000001c0: 3aa8 fcba 74f5 f33b da10 a43c a0a5 f1bc
000001d0: bd8e 9a3c 6903 aa3c ca61 11bb 834b dcba
000001e0: 8f1c 35bc 7d6f 4cbc 9e4e c53b 9979 bb3b
000001f0: 6eea f33b c7e6 5a3d b7bc 67bc 1358 d93b
00000200: b736 263d d2d1 f1bc 769d c53c 69aa eebb
00000210: 8ffc cd3c 6c55 b2bc 1bcb e43c 09b7 5fbc
00000220: 253b 0abd 6468 97bc e9a7 95bc 6d61 fabc
00000230: 9b04 b13c 0320 d23b 11a9 1dbc e2c6 193c
00000240: 9970 6a3a 8a57 74bd 7efe 9abc ff88 a6bb
00000250: e34b 44ba 3bfa 6f3b 5336 eb3a 42cc 15bd
00000260: d3d6 60bd e6d5 0d3d 03c4 0cbd e81a d3bc
00000270: 92b2 d4bb 864d 2e3b a9ca 3fbc 0ce9 96bc
00000280: 1fee 1f3c 78b5 35ba faa0 263d 693b 1ebd
00000290: bfed 763c d0a1 3a3d 9c67 6cbd f9b1 cd3c
000002a0: 5523 113d 128f bb3c c67f 163c 1921 c5bc
000002b0: 6498 263d 27b2 29bd 47e8 0d3c dbb6 88bc
000002c0: 3278 d2bc 10ff 24bd 61f4 ac3c 9318 6abc
000002d0: ac3e 933b 3be1 c43c df70 43bc 7bae 4f3d
000002e0: 337f 81bc 527f abbc d188 9a3c 02fe f6bc
000002f0: 1f8d bebc 4d5e b53b 8a2d 68bc 339e 3e3d
00000300: ee3c 25bc e9bb da3b a21f 19bd 9d7a a1b9
00000310: 7570 9cbd e0c9 4bbd 75bd 22bc 46bd a8bb
00000320: be2f cc3c 858d 693d 651e 49bc e1fd 10bc
00000330: de56 183c f1fc 943c 581a 6c3d c742 203c
00000340: 785d 093d 4bd9 d03c 6626 50bc 6793 8c3c
00000350: c0f2 90bc aa17 363c ad54 55bb f3ce 82bc
00000360: aed5 50bc 89da 4fbc f782 533d 593d f1bc
00000370: d403 11bd c7f3 01bb e87b 00bd e3cc 7bbd
00000380: a073 ef3c 95dc 343d 56ba 323c 5c9b 1f3c
00000390: 605b 403c 8cc7 103d 4085 8438 d31b 12bd
000003a0: 9f90 1bbd a850 4d3c 6ae2 6a3c 37dd c33b
000003b0: ab6e f03c 2ef8 e7bc 8a2d 9b3c 4cd4 88bb
000003c0: e93a ee3b 0fba 73b9 46ee 3d3d aaae cbbb
000003d0: a597 efb9 3a18 a4bc 051a f83c 3e47 d8bb
000003e0: 0c48 00bd be31 01bb 720f ba3c 3f32 68bd
000003f0: 11e4 793c 1d91 2dbb 5e31 98bc 7a42 17bd

st_gcn_networks.1.tcn.2.bias f4 [8]
1.6813216e-05 1.2805913e-05 2.483658e-05 -4.441619e-06 -6.5167715e-06 -5.5459306e-05 -3.097425e-07 -5.212049e-05
00000000: 1b0a 8d37 fad8 5637 2658 d037 3709 95b6
00000010: a4aa dab6 fa9c 68b8 af4a a6b4 f39b 5ab8

st_gcn_networks.1.tcn.3.weight f4 [8]
0.21115567 0.25000858 0.28316274 0.26664966 0.20661801 0.2901122 0.2671217 0.18450643
00000000: 3139 583e 2001 803e b5fa 903e 4e86 883e
00000010: ac93 533e 9689 943e 2dc4 883e 41ef 3c3e

st_gcn_networks.1.tcn.3.bias f4 [8]
0.008297306 -0.017773865 -0.01734427 -0.012709547 0.0010765416 -0.004498475 -0.012752858 -0.0014038512
00000000: 6cf1 073c 7f9a 91bc 9215 8ebc b43b 50bc
00000010: be1a 8d3a f267 93bb 5df1 50bc 6e01 b8ba

st_gcn_networks.1.tcn.3.running_mean f4 [8]
-0.0031033386 0.014369812 -0.004239974 0.001973231 -0.0020928588 0.010617475 -0.011391745 -0.008413308
00000000: 6261 4bbb 5c6f 6b3c 7bef 8abb 5351 013b
00000010: 5828 09bb ebf4 2d3c 71a4 3abc f9d7 09bc

st_gcn_networks.1.tcn.3.running_var f4 [8]
0.00030857886 0.0010680831 0.0005491693 0.0003687535 0.0002508934 0.00093477714 0.000559458 0.0005389938
00000000: c1c8 a139 ecfe 8b3a 21f6 0f3a 4255 c139
00000010: 588a 8339 d50b 753a 97a8 123a 434b 0d3a

st_gcn_networks.1.residual.0.weight f4 [8, 8, 1, 1]
-0.030267945 -0.061697334 -0.1076958 -0.017348167 -0.05099951 0.027386677 0.052673314 -0.0034802328
-0.07552442 -0.043020017 -0.028461564 0.0014438478 0.017964207 0.07667668 0.08967297 -0.08875098
-0.12597825 0.0021827603 0.07214084 -0.0023377745 -0.03165508 0.051323693 -0.0007664803 -0.056965817
0.0867531 0.021375978 -0.052116245 0.0016140001 -0.018316725 0.0063367174 0.05994619 0.07189675
-0.061920095 0.040846907 -0.069016315 0.016322672 0.043691453 -0.041962594 0.07862679 0.05893348
0.11078347 0.028574202 0.091713384 -0.01573826 -0.06342221 -0.03587103 -0.02768463 -0.083734676
0.022444906 0.023031296 -0.070327885 0.024575496 -0.021244112 -0.026845671 -0.07459798 0.017727092
0.0014385583 0.03539986 0.08116321 0.02142611 0.0569584 0.075248025 -0.07328722 -0.03229674
00000000: 7bf4 f7bc 58b6 7cbd 9e8f dcbd be1d 8ebc
00000010: dde4 50bd 065a e03c f9bf 573d 9e14 64bb
00000020: 8cac 9abd c235 30bd 3a28 e9bc 7e3f bd3a
00000030: ac29 933c aa08 9d3d 76a6 b73d 13c3 b5bd
00000040: 7100 01be a40c 0f3b 94be 933d 5935 19bb
00000050: c2a8 01bd cb38 523d 9fed 48ba fd54 69bd
00000060: 9cab b13d ad1c af3c d877 55bd db8c d33a
00000070: f50c 96bc 3da4 cf3b 238a 753d 9a3e 933d
00000080: ed9f 7dbd 164f 273d 6d58 8dbd 20b7 853c
00000090: cff5 323d f8e0 2bbd 1507 a13d 3c64 713d
000000a0: 72e2 e23d 7214 ea3c 3ad4 bb3d 86ed 80bc
000000b0: 81e3 81bd 80ed 12bd e1ca e2bc 167d abbd
000000c0: 61de b73c 21ac bc3c 1108 90bd 8d52 c93c
000000d0: 2208 aebc 74eb dbbc d3c6 98bd 6838 913c
000000e0: 028e bc3a 72ff 103d e638 a63d cf85 af3c
000000f0: 364d 693d a31b 9a3d 9c17 96bd 9649 04bd

st_gcn_networks.1.residual.0.bias f4 [8]
5.3639127e-05 -1.3575674e-05 5.1338422e-05 -7.3281894e-06 4.5149536e-05 -6.259604e-05 7.516145e-06 -4.7897636e-05
00000000: 93fa 6038 13c3 63b7 3654 5738 abe4 f5b6
00000010: f25e 3d38 fe45 83b8 3233 fc36 b2e5 48b8

st_gcn_networks.1.residual.1.weight f4 [8]
0.21404682 0.1810838 0.22887896 0.22618715 0.1803673 0.22551961 0.32119197 0.14336418
00000000: 172f 5b3e 086e 393e 3f5f 6a3e 9b9d 673e
00000010: 35b2 383e 9dee 663e 4673 a43e 0fce 123e

st_gcn_networks.1.residual.1.bias f4 [8]
0.008297306 -0.017773865 -0.01734427 -0.012709547 0.0010765416 -0.004498475 -0.012752858 -0.0014038512
00000000: 6cf1 073c 7f9a 91bc 9215 8ebc b43b 50bc
00000010: be1a 8d3a f267 93bb 5df1 50bc 6e01 b8ba

st_gcn_networks.1.residual.1.running_mean f4 [8]
-0.016725369 -0.0014675531 -0.0043773893 0.01965435 0.0040902337 0.0023103752 -0.014200298 0.016813228
00000000: a403 89bc e95a c0ba 3470 8fbb 2902 a13c
00000010: 5e07 863b aa69 173b 5ea8 68bc e5bb 893c

st_gcn_networks.1.residual.1.running_var f4 [8]
0.00053728785 0.0009849827 0.0006142825 0.0009878023 0.0008859545 0.001094543 0.0007510632 0.0005406622
00000000: c7d8 0c3a 891a 813a cd07 213a 2579 813a
00000010: 663f 683a c576 8f3a 00e3 443a 3abb 0d3a

st_gcn_networks.2.gcn.conv.weight f4 [48, 8, 1, 1]
0.029518861 -0.058659237 0.016051218 -0.04842895 0.05460759 0.010537343 -0.063722886 -0.022360262
-0.01782215 -0.022392366 0.005069847 -0.0339515 -0.01452659 0.0024419753 0.025625868 -0.023360526
0.024736876 -0.020283133 0.0124000665 -0.038963344 -0.018581158 0.010957932 -0.042683117 -0.0085166
0.023302892 -0.0016914501 0.0004239542 -0.022410838 -0.003403336 -0.047244553 -0.021812808 0.00066238845
0.02246628 0.01634821 -0.035407133 0.012798574 -0.051828835 0.04047195 -0.01433034 -0.021961614
0.06676202 -0.006061543 -0.06967762 -0.025283935 0.091292165 -0.01887336 -0.09953575 -0.024024531
-0.043723617 -0.085887276 -0.047946677 -0.0007185838 -0.059234176 0.051058542 -0.09201871 -0.0036122622
-0.0084580025 -0.027174082 0.03582891 -0.010808292 -0.010098878 -0.018978791 0.026536426 -0.00720638
-0.0042822417 -0.025739986 -0.040182807 0.013942485 -0.048352275 0.042355463 -0.028848669 -0.041010074
0.002094884 -0.017308908 0.045856286 0.01862591 0.020581579 -0.040592324 0.018801993 0.008092339
0.013549555 -0.03229354 0.026908083 0.00075110083 0.038449273 0.05870023 0.0032104682 -0.016890941
0.03406022 -0.035190627 -0.040721305 0.030382277 -0.018548304 -0.010198111 0.024890913 -0.046486955
0.024582852 -0.033670403 -0.0052807755 0.07713441 -0.020388948 0.019940956 0.025793603 -0.0019730423
0.008429991 -0.05839658 0.059993908 -0.017631497 -0.01515654 0.0021970177 -0.011104398 0.005218373
-0.032033358 0.02193212 0.041323245 -0.03984307 0.009276455 0.04374013 0.03287567 -0.005818405
-0.0125007015 0.024912963 -0.023294102 -0.03267245 -0.058146145 -0.0067619695 -0.007727777 -0.010461617
0.032420233 -0.028514398 0.021703215 -0.055077966 0.041254733 0.082326725 0.0886924 -0.040998124
-2.0074622e-05 -0.032710955 -0.032036018 -0.03916713 -0.006820122 0.044631228 0.024058083 0.016793165
0.02160686 0.0034652052 0.056029648 -0.012010579 0.03918482 -0.009592038 0.022592103 -0.048843905
0.015339938 0.028661268 0.00047224844 -0.018804055 0.046411447 -0.044870365 -0.037768286 -0.048238937
0.008274355 -0.025570706 0.02175094 -0.022073498 -0.007807717 0.029290466 0.03986764 0.011214369
0.02336675 0.036958907 -0.019102037 -0.039783847 0.016853547 -0.097775996 0.017146602 -0.0077568064
0.051211137 0.04007669 -0.06532335 0.0302121 0.06568727 -0.036734216 -0.014683458 -0.04675754
-0.011648593 -0.055073243 0.040287834 0.03450936 -0.04355182 0.04334807 -0.018169204 0.045138955
0.03946195 0.05653372 -0.022108383 0.025724184 0.055035856 -0.0018953241 0.06660335 -0.026170328
-0.014415862 -0.011647354 -0.032287348 0.030271737 -0.06335635 0.054274302 0.029259015 -0.035714947
-0.01563708 -0.058995858 -0.012478956 0.045821648 0.00030986714 -0.0021892919 0.0015457278 0.04971701
0.059411254 0.08401431 0.016044056 0.012111591 -0.045085225 -0.021053357 0.09494148 0.05503749
0.09728074 -0.020249862 -0.009510304 -0.054150313 -0.04153692 -0.0055705975 0.030622952 -0.0077485507
0.037980493 0.044666387 -0.07889326 0.07365796 -0.0041369214 -0.049864843 -0.0057192706 0.08469706
-0.02589442 -0.01445089 -0.045762207 -0.02253265 0.027211994 0.013806965 -0.0075731734 -0.003117434
-0.026021035 -0.0009521739 0.024924686 0.038288116 0.02383993 0.019242331 0.053738073 0.004275623
00000000: 8ad1 f13c ab44 70bd d87d 833c 6f5d 46bd
00000010: 35ac 5f3d d2a4 2c3c 2581 82bd de2c b7bc
00000020: c2ff 91bc 3270 b7bc f620 a63b ba10 0bbd
00000030: ef00 6ebc 8c09 203b 57ed d13c 935e bfbc
00000040: fda4 ca3c d028 a6bc a629 4b3c 0798 1fbd
00000050: 8337 98bc e688 333c 7ed4 2ebd 3689 0bbc
00000060: b5e5 be3c a6b3 ddba 2b46 de39 ef96 b7bc
00000070: 810a 5fbb 8183 41bd c6b0 b2bc 23a4 2d3a
00000080: 340b b83c aeec 853c 1207 11bd 1cb1 513c
00000090: 794a 54bd eac5 253d cdc9 6abc d8e8 b3bc
000000a0: 87ba 883d e89f c6bb 24b3 8ebd 4120 cfbc
000000b0: 63f7 ba3d 4e9c 9abc 66d9 cbbd 18cf c4bc
000000c0: 8917 33bd abe5 afbd bc63 44bd 585f 3cba
000000d0: 899f 72bd c322 513d 4e74 bcbd b4bb 6cbb
000000e0: 6f93 0abc 2e9c debc 56c1 123d 4315 31bc
000000f0: c475 25bc 6979 9bbc eb62 d93c 7f23 ecbb
00000100: 0c52 8cbb aadc d2bc ba96 24bd 056f 643c
00000110: 090d 46bd ec7c 2d3d 0b54 ecbc 2efa 27bd
00000120: 524a 093b 69cb 8dbc cdd3 3b3d 5d95 983c
00000130: b39a a83c 2344 26bd a306 9a3c bb95 043c
00000140: f4fe 5d3c 3b46 04bd 576e dc3c 86e5 443a
00000150: fc7c 1d3d a76f 703d b866 523b df5e 8abc
00000160: bb82 0b3d 0c24 10bd 62cb 26bd 41e4 f83c
00000170: 9df2 97bc fa15 27bc 07e8 cb3c 1b69 3ebd
00000180: fa61 c93c fae9 09bd 5b0a adbb a5f8 9d3d
00000190: b906 a7bc 375b a33c 1b4d d33c 284e 01bb
000001a0: f21d 0a3c 4131 6fbd 2cbc 753d ee6f 90bc
000001b0: 2353 78bc d7fb 0f3b 39ef 35bc e3fe aa3b
000001c0: 6935 03bd fdaa b33c 9042 293d 7d32 23bd
000001d0: 46fc 173c da28 333d a3a8 063d 52a8 bebb
000001e0: becf 4cbc 4516 cc3c 46d3 bebc 8cd3 05bd
000001f0: a72a 6ebd 8393 ddbb 4b39 fdbb 3467 2bbc
00000200: 14cb 043d 0797 e9bc f1ca b13c 6f99 61bd
00000210: b9fa 283d ea9a a83d 5ca4 b53d a6ed 27bd
00000220: ec65 a8b7 ecfb 05bd 3338 03bd b66d 20bd
00000230: 547b dfbb 3ccf 363d 7515 c53c d291 893c
00000240: df00 b13c 7f18 633b 587f 653d 05c8 44bc
00000250: 4380 203d ec27 1dbc 1313 b93c 8c10 48bd
00000260: 5d54 7b3c 09cb ea3c 1d98 f739 f60a 9abc
00000270: ee19 3e3d fdc9 37bd ebb2 1abd 3196 45bd
00000280: 2991 073c a879 d1bc 072f b23c 7bd3 b4bc
00000290: e1d7 ffbb 8ff2 ef3c 404c 233d 79bc 373c
000002a0: a06b bf3c 3962 173d e07b 9cbc 63f4 22bd
000002b0: 7310 8a3c c83e c8bd 0877 8c3c cf2c febb
000002c0: c5c2 513d 7527 243d 40c8 85bd 5e7f f73c
000002d0: 0c87 863d 9e76 16bd e392 70bc d684 3fbd
000002e0: bdd9 3ebc 7b94 61bd db04 253d b059 0d3d
000002f0: 6563 32bd bf8d 313d 95d7 94bc a0e3 383d
00000300: dba2 213d e78f 673d a41c b5bc 86bb d23c
00000310: 476d 613d 866c f8ba 5667 883d 2863 d6bc
00000320: 8230 6cbc 8bd4 3ebc bd3f 04bd 6ffc f73c
00000330: f9c0 81bd bb4e 5e3d 9ab0 ef3c d649 12bd
00000340: 5519 80bc a4a5 71bd 8974 4cbc 7baf 3b3d
00000350: aa75 a239 397a 0fbb 059a ca3a 10a4 4b3d
00000360: 3759 733d b20f ac3d d36e 833c b26f 463c
00000370: 49ab 38bd 1778 acbc ae70 c23d fe6e 613d
00000380: 203b c73d 0ae3 a5bc 1bd1 1bbc b8cc 5dbd
00000390: 9e22 2abd 8f89 b6bb fcdc fa3c 8ee7 fdbb
000003a0: 6f91 1b3d 1af4 363d ca92 a1bd fcd9 963d
000003b0: 038f 87bb 143f 4cbd b868 bbbb a775 ad3d
000003c0: 8920 d4bc 6dc3 6cbc 2771 3bbd 6496 b8bc
000003d0: b0eb de3c 9c36 623c 6228 f8bb dd4d 4cbb
000003e0: 112a d5bc 4f9b 79ba db2e cc3c 00d4 1c3d
000003f0: f54b c33c 18a2 9d3c 741c 5c3d 861a 8c3b

st_gcn_networks.2.gcn.conv.bias f4 [48]
-0.011278678 0.00966132 -0.013112506 0.0040645176 0.0027655954 -0.016168604 0.030857446 -0.013884639
-0.0102386875 -0.007653521 -0.0073125493 -0.0074983714 -0.030924333 -0.009634843 -0.00169816 0.007735579
-0.050352577 -0.009758249 -0.0009432888 0.013272486 0.004899715 -0.016257973 -0.0097059375 -0.008796085
-0.04624029 -0.009938917 -0.016086208 -0.042488765 0.016257167 0.006952779 -0.007875245 -0.013748738
0.011863587 0.016743429 -0.007568775 0.007285683 -0.033429835 0.010330539 0.0025137465 -0.008863768
-0.0014490141 0.0043539824 -0.009020173 -0.032072008 0.026902953 -0.0157112 0.015177318 0.0064474107
00000000: 34ca 38bc 834a 1e3c d6d5 56bc a52f 853b
00000010: fe3e 353b 0574 84bc c1c8 fc3c 667c 63bc
00000020: 2bc0 27bc 63ca fabb 1c9e efbb e6b4 f5bb
00000030: 0755 fdbc 76db 1dbc cb94 deba bd7a fd3b
00000040: 813e 4ebd 10e1 1fbc 0a47 77ba d774 593c
00000050: ca8d a03b 712f 85bc a705 1fbc 741d 10bc
00000060: 7566 3dbd d7d6 22bc 39c7 83bc b308 2ebd
00000070: c02d 853c 23d4 e33b 2c07 01bc 6342 61bc
00000080: 7e5f 423c 8429 893c 7d03 f8bb bdbc ee3b
00000090: b9ed 08bd 6c41 293c abbd 243b 5639 11bc
000000a0: d8ec bdba daab 8e3b 59c9 13bc f05d 03bd
000000b0: 9563 dc3c c6b4 80bc 49aa 783c cd44 d33b

st_gcn_networks.2.tcn.0.weight f4 [16]
0.21292797 0.11488478 0.1612434 0.12676083 0.06883243 0.22972853 0.1710323 0.17356879
0.1559371 0.14246456 0.13369498 0.18173829 0.14995293 0.1552465 0.1003634 0.10051697
00000000: ca09 5a3e b648 eb3d fd1c 253e 97cd 013e
00000010: 04f8 8c3d f53d 6b3e 1723 2f3e 04bc 313e
00000020: faad 1f3e 3be2 113e 56e7 083e 9a19 3a3e
00000030: 438d 193e f0f8 1e3e 548b cd3d d7db cd3d

st_gcn_networks.2.tcn.0.bias f4 [16]
-0.020182699 0.0019450998 -0.0394695 -0.025196245 0.0013323509 -0.03180039 -0.027120838 -0.039903495
-0.04134716 -0.03216675 -0.042201303 -0.038349863 -0.042624597 -0.042464565 -0.010738923 -0.038709383
00000000: 3056 a5bc b8f2 fe3a c5aa 21bd 5b68 cebc
00000010: 47a2 ae3a 2041 02bd 852c debc d971 23bd
00000020: a45b 29bd 48c1 03bd 46db 2cbd bf14 1dbd
00000030: 2197 2ebd 53ef 2dbd 4ff2 2fbc bb8d 1ebd

st_gcn_networks.2.tcn.0.running_mean f4 [16]
-0.0014572785 -0.00023180967 -0.0006081673 -0.00037302557 -0.00050018326 -0.0028193702 -0.00060813373 -0.0014732565
-0.0013177335 -0.00018521426 -0.0009453788 -0.001975252 0.00037314655 -0.0006567288 0.00046550995 0.0007832793
00000000: 2702 bfba ef11 73b9 6b6d 1fba a592 c3b9
00000010: bb1e 03ba 2fc5 38bb 2a6b 1fba 491a c1ba
00000020: cdb7 acba 1336 42b9 4cd3 77ba 3b73 01bb
00000030: e2a2 c339 5328 2cba b00f f439 fc54 4d3a

st_gcn_networks.2.tcn.0.running_var f4 [16]
5.119116e-06 2.972204e-06 2.6474154e-06 5.7238863e-06 2.888647e-06 1.6227958e-05 3.55275e-06 2.8103473e-06
3.788056e-06 2.911011e-06 2.5528784e-06 3.7504228e-06 2.623169e-06 2.6772152e-06 1.541018e-06 2.3824946e-06
00000000: dfc4 ab36 1376 4736 40aa 3136 cf0f c036
00000010: 94da 4136 4621 8837 c86b 6e36 6699 3c36
00000020: 4e36 7e36 ca5a 4336 1e52 2b36 c6af 7b36
00000030: b309 3036 35aa 3336 fad4 ce35 f2e2 1f36

st_gcn_networks.2.tcn.2.weight f4 [16, 16, 9, 1]
-0.017719105 -0.011097565 -0.0056229974 -0.017817635 -0.011912899 0.02357673 -0.021452712 -0.029903391
-0.044226546 0.0029885112 0.016068218 0.037964754 -0.04008168 -0.0008259761 0.01034527 0.0065960456
0.005975101 0.009101562 -0.0009268522 0.012030656 0.026317338 0.0060571134 0.0033867043 -0.02982911
-0.00019605971 0.0027425643 0.0086245015 -0.004895486 -0.0065680337 0.018509421 -0.008433173 -0.006523877
0.0050279396 -0.02210381 -0.01288057 0.012169399 0.026296578 0.021978155 -0.0062693562 -0.01194348
-0.0026031428 -0.0133620165 -0.003737223 -0.00863465 -0.022973325 0.050697435 -0.015273776 0.013769633
-0.006487368 -0.0073166504 0.010408213 -0.009053794 0.0028575403 0.02113482 -0.0022808476 0.017717998
0.011779177 0.025392057 0.020597767 0.00044896753 -0.00402092 0.024491249 0.011780108 0.0046403124
-0.007501694 -0.014167427 0.002680836 0.010498449 -0.020014714 0.008513708 0.009514776 -0.008775507
-0.0038162398 0.026808495 0.019959208 0.01744716 0.0018905048 -0.008910752 0.022910444 0.020958392
-0.0060265986 -0.032807812 0.036210455 -0.025982158 0.033867396 -0.043654706 -0.02087718 0.025694761
-0.011377701 -0.02940538 -0.010587945 0.010344131 -0.013132704 0.0008668645 0.006780367 -0.020370744
0.011289867 0.01664029 -0.04129637 0.025598254 -0.005024032 -0.005092186 -0.035396148 -0.023957793
0.0041774497 -0.06979561 -0.006472135 0.042815324 -0.0068884357 0.011379281 -0.007546205 -0.023451693
0.0070617045 -0.04202225 -0.0073090154 0.004831556 -0.0087199425 0.007146649 0.0061630495 -0.03252487
0.008202536 0.014967107 0.0015119618 -0.039308712 0.008042374 0.03993121 -0.020216044 -0.0074737896
-0.000915097 -0.011065628 -0.0028461814 -0.014887917 0.0015657156 -0.015409825 -0.016916296 0.0017803933
0.014945006 0.0009286713 0.0060451003 0.014527143 -0.017232798 0.01421465 -0.024623966 -0.008758644
-0.002480333 -0.013370328 0.014020034 0.008483791 0.017947093 0.030305505 0.030783353 0.0038168163
0.043265585 -0.02482244 0.010531352 0.0120564215 -0.02764721 -0.017248742 0.0009865668 -0.04906106
0.0081671765 -0.011005136 -0.0035072525 0.015786838 -0.015722238 0.015268854 0.0040512723 -0.029896105
0.00035859755 -0.028475948 -0.03477133 -0.03006652 -0.025083616 -0.032965306 0.03883523 0.002246928
0.007855936 -0.010911102 -0.008962629 -0.04406342 0.017953617 -0.049751937 -0.032235123 -0.025854975
0.004448966 -0.031277265 -0.009267352 0.010854538 0.01599112 0.002522082 -0.010420919 -0.007980377
-0.008960964 -0.021572111 -0.03686449 -0.039585575 -0.07706652 -0.03817883 -0.0009935057 0.030968571
0.015353898 0.012146374 0.0327193 0.010768778 0.039772864 -0.038156815 0.033729997 0.013900364
-0.011061156 -0.016412277 -0.014324985 -0.03342106 -0.025617346 -0.009134514 -0.0111011565 -0.021932773
-0.014414428 -0.005278038 -0.0013064477 -0.015363791 0.013899696 -0.02669491 -0.036134407 -0.0015987477
-0.034841765 -0.00097080006 -0.027642572 -0.0447748 -0.024868794 -0.018921101 0.019631425 -0.015492279
-0.019469883 -0.019198647 -0.022575397 0.011897357 -0.015856506 -0.00661557 0.02285675 -0.022466578
-0.028468698 -0.051961455 -0.04881963 0.0010085627 0.007232021 0.008986666 0.03973608 0.0021163106
0.0045846812 -0.003606463 0.00022613571 0.024558306 0.008519372 0.008755345 -0.014303416 0.008304162
00000000: a827 91bc 90d2 35bc 1f41 b8bb 4af6 91bc
00000010: 522e 43bc fd23 c13c 99bd afbc f5f7 f4bc
00000020: e526 35bd e6da 433b 7fa1 833c ee80 1b3d
00000030: b02c 24bd 5186 58ba 357f 293c a423 d83b
00000040: c8ca c33b b81e 153c 00f8 72ba 3b1c 453c
00000050: 7597 d73c c07a c63b 78f3 5d3b 2d5c f4bc
00000060: 6195 4db9 98bc 333b c84d 0d3c 506a a0bb
00000070: a938 d7bb 12a1 973c 4b2b 0abc 3fc6 d5bb
00000080: 6ac1 a43b 0d13 b5bc 0709 53bc 2962 473c
00000090: ec6b d73c 880b b43c 2c6f cdbb 96ae 43bc
000000a0: 7d99 2abb 5cec 5abc 33ec 74bb 5978 0dbc
000000b0: 8e32 bcbc 1da8 4f3d dc3e 7abc 079a 613c
000000c0: fd93 d4bb 83c0 efbb 3687 2a3c 5d56 14bc
000000d0: 9245 3b3b ee22 ad3c 467a 15bb 5625 913c
000000e0: 73fd 403c 0103 d03c a6bc a83c 6763 eb39
000000f0: ecc1 83bb dfa1 c83c 5b01 413c c30d 983b
00000100: c5d0 f5bb 7f1e 68bc f7b0 2f3b b001 2c3c
00000110: e6f5 a3bc 147d 0b3c dde3 1b3c 25c7 0fbc
00000120: e119 7abb 7d9d db3c 7e81 a33c 59ed 8e3c
00000130: d1ca f73a 67fe 11bc afae bb3c efb0 ab3c
00000140: c67a c5bb 7c61 06bd 6a51 143d 89d8 d4bc
00000150: 8ab8 0a3d 47cf 32bd 9f06 abbc d27d d23c
00000160: 8969 3abc 8de3 f0bc 0f79 2dbc 6e7a 293c
00000170: 8e2a 57bc 4b3e 633a d72d de3b 8ce0 a6bc
00000180: 22f9 383c 3851 883c 6226 29bd 6eb3 d13c
00000190: a3a0 a4bb 5adc a6bb 8dfb 10bd 2243 c4bc
000001a0: fde2 883b 00f1 8ebd 3414 d4bb 1f5f 2f3d
000001b0: 63b8 e1bb 2a70 3a3c 2846 f7bb c41d c0bc
000001c0: df65 e73b 861f 2cbd 7780 efbb 0852 9e3b
000001d0: 17de 0ebc 702e ea3b 68f3 c93b cc38 05bd
000001e0: ee63 063c 9938 753c 052d c63a 2c02 21bd
000001f0: 29c4 033c e98e 233d 1e9c a5bc b1e6 f4bb
00000200: 1fe3 6fba 9c4c 35bc 0087 3abb 73ec 73bc
00000210: b338 cd3a 7e79 7cbc 0b94 8abc 165c e93a
00000220: e6db 743c 1372 733a fa15 c63b 4103 6e3c
00000230: cc2b 8dbc 90e4 683c 33b8 c9bc 6a80 0fbc
00000240: 158d 22bb 380f 5bbc 49b4 653c 99ff 0a3c
00000250: c805 933c 4043 f83c 5f2d fc3c 8d23 7a3b
00000260: 4137 313d 6e58 cbbc b18b 2c3c 4c88 453c
00000270: 677c e2bc 3c4d 8dbc b04f 813a 40f4 48bd
00000280: 9fcf 053c e34e 34bc efd9 65bb 6653 813c
00000290: eccb 80bc 372a 7a3c 89c0 843b ade8 f4bc
000002a0: 2602 bc39 6446 e9bc 626c 0ebd 104e f6bc
000002b0: 287c cdbc a106 07bd b111 1f3d 3241 133b
000002c0: 2fb6 003c 7bc4 32bc fed7 12bc d87b 34bd
000002d0: 7713 933c b0c8 4bbd fa08 04bd d0cd d3bc
000002e0: a2c8 913b 971c 00bd 17d6 17bc 3bd7 313c
000002f0: cfff 823c 8449 253b 81bc 2abc 21c0 02bc
00000300: 02d1 12bc ffb7 b0bc 38ff 16bd 7c24 22bd
00000310: 0dd5 9dbd 6861 1cbd 8538 82ba cdb1 fd3c
00000320: ea8e 7b3c 9601 473c ac04 063d 876f 303c
00000330: dfe8 223d 524a 1cbd 7728 0a3d 5abe 633c
00000340: da39 35bc 0a73 86bc 58b3 6abc 85e4 08bd
00000350: 78db d1bc eea8 15bc a0e1 35bc 5cac b3bc
00000360: 7e2a 6cbc 64f3 acbb 1c3d abba 69b8 7bbc
00000370: 8dbb 633c 49af dabc ac01 14bd 128d d1ba
00000380: 3db6 0ebd 4a7d 7eba ad72 e2bc c865 37bd
00000390: a4b9 cbbc 6d00 9bbc 15d2 a03c 54d3 7dbc
000003a0: 4e7f 9fbc 7b46 9dbc 0af0 b8bc 22ed 423c
000003b0: 81e5 81bc 6cc7 d8bb 143e bb3c d40b b8bc
000003c0: 3037 e9bc 89d5 54bd 18f7 47bd c031 843a
000003d0: 97fa ec3b cf3c 133c 4dc2 223d cdb1 0a3b
000003e0: 183b 963b 695a 6cbb d81e 6d39 802e c93c
000003f0: d694 0b3c 9472 0f3c e058 6abc 2e0e 083c

st_gcn_networks.2.tcn.2.bias f4 [16]
-3.1906584e-05 7.3688665e-05 2.2016207e-05 1.01905556e-07 -0.000103491206 -2.3498184e-05 -2.0088464e-05 -4.6385125e-05
-3.4602854e-05 2.163656e-06 2.3859979e-05 1.0503422e-05 -7.701549e-05 1.436506e-05 1.264357e-05 1.5019867e-12
00000000: 6fd3 05b8 4d89 9a38 72af b837 2cd7 da33
00000010: 6b09 d9b8 f71d c5b7 a683 a8b7 a68d 42b8
00000020: 8822 11b8 5433 1136 ea26 c837 db37 3037
00000030: 6083 a1b8 7701 7137 b81f 5437 c662 d32b

st_gcn_networks.2.tcn.3.weight f4 [16]
0.16147773 0.2005806 0.13429576 -8.838534e-15 0.21702692 0.15647265 0.19777295 0.115580596
0.11386645 0.14646356 0.20980994 0.11677735 0.2271133 0.10593062 0.116093524 -8.56869e-28
00000000: 6b5a 253e 0065 4d3e d484 093e 8b38 1fa8
00000010: 4e3c 5e3e 5e3a 203e fe84 4a3e 85b5 ec3d
00000020: d032 e93d 8bfa 153e 6bd8 563e f728 ef3d
00000030: 6490 683e 27f2 d83d 71c2 ed3d bcc6 8792
