weights_arm/154.pt (torch, 70926 bytes, 80 tensors)

A f4 [3, 9, 9]
0.5 0.0 0.0 0.0 0.0 0.0 0.0 0.0
0.0 0.0 0.2 0.0 0.0 0.0 0.0 0.0
0.0 0.0 0.0 0.0 0.33333334 0.0 0.0 0.0
0.0 0.0 0.0 0.0 0.0 0.0 0.33333334 0.0
0.0 0.0 0.0 0.0 0.0 0.0 0.0 0.0
0.5 0.0 0.0 0.0 0.0 0.0 0.0 0.0
0.0 0.0 0.33333334 0.0 0.0 0.0 0.0 0.0
0.0 0.0 0.0 0.0 0.33333334 0.0 0.0 0.0
0.0 0.0 0.0 0.0 0.0 0.0 0.5 0.0
0.0 0.0 0.0 0.0 0.0 0.0 0.0 0.0
0.5 0.0 0.2 0.0 0.0 0.0 0.0 0.0
0.0 0.0 0.0 0.0 0.0 0.0 0.0 0.0
0.0 0.0 0.0 0.0 0.2 0.0 0.0 0.0
0.0 0.0 0.0 0.0 0.0 0.0 0.33333334 0.0
0.5 0.0 0.0 0.0 0.0 0.0 0.0 0.0
0.33333334 0.0 0.0 0.0 0.0 0.0 0.0 0.2
0.0 0.0 0.0 0.0 0.0 0.0 0.0 0.0
0.0 0.0 0.0 0.0 0.33333334 0.0 0.5 0.0
0.0 0.0 0.0 0.0 0.0 0.0 0.33333334 0.0
0.0 0.0 0.2 0.0 0.0 0.0 0.0 0.0
0.0 0.0 0.0 0.0 0.0 0.0 0.0 0.0
0.0 0.0 0.0 0.5 0.0 0.33333334 0.0 0.0
0.33333334 0.0 0.0 0.5 0.0 0.0 0.0 0.33333334
0.0 0.0 0.0 0.0 0.0 0.0 0.0 0.0
0.0 0.0 0.0 0.0 0.0 0.0 0.0 0.0
0.0 0.0 0.0 0.0 0.0 0.0 0.0 0.0
0.0 0.0 0.0 0.0 0.0 0.33333334 0.0 0.0
0.0 0.0 0.0 0.0 0.0 0.0 0.0 0.0
0.0 0.0 0.0 0.0 0.0 0.0 0.0 0.0
0.0 0.0 0.0 0.0 0.0 0.0 0.0 0.0
0.0 0.0 0.0
00000000: 0000 003f 0000 0000 0000 0000 0000 0000
00000010: 0000 0000 0000 0000 0000 0000 0000 0000
00000020: 0000 0000 0000 0000 cdcc 4c3e 0000 0000
00000030: 0000 0000 0000 0000 0000 0000 0000 0000
00000040: 0000 0000 0000 0000 0000 0000 0000 0000
00000050: abaa aa3e 0000 0000 0000 0000 0000 0000
00000060: 0000 0000 0000 0000 0000 0000 0000 0000
00000070: 0000 0000 0000 0000 abaa aa3e 0000 0000
00000080: 0000 0000 0000 0000 0000 0000 0000 0000
00000090: 0000 0000 0000 0000 0000 0000 0000 0000
000000a0: 0000 003f 0000 0000 0000 0000 0000 0000
000000b0: 0000 0000 0000 0000 0000 0000 0000 0000
000000c0: 0000 0000 0000 0000 abaa aa3e 0000 0000
000000d0: 0000 0000 0000 0000 0000 0000 0000 0000
000000e0: 0000 0000 0000 0000 0000 0000 0000 0000
000000f0: abaa aa3e 0000 0000 0000 0000 0000 0000
00000100: 0000 0000 0000 0000 0000 0000 0000 0000
00000110: 0000 0000 0000 0000 0000 003f 0000 0000
00000120: 0000 0000 0000 0000 0000 0000 0000 0000
00000130: 0000 0000 0000 0000 0000 0000 0000 0000
00000140: 0000 003f 0000 0000 cdcc 4c3e 0000 0000
00000150: 0000 0000 0000 0000 0000 0000 0000 0000
00000160: 0000 0000 0000 0000 0000 0000 0000 0000
00000170: 0000 0000 0000 0000 0000 0000 0000 0000
00000180: 0000 0000 0000 0000 0000 0000 0000 0000
00000190: cdcc 4c3e 0000 0000 0000 0000 0000 0000
000001a0: 0000 0000 0000 0000 0000 0000 0000 0000
000001b0: 0000 0000 0000 0000 abaa aa3e 0000 0000
000001c0: 0000 003f 0000 0000 0000 0000 0000 0000
000001d0: 0000 0000 0000 0000 0000 0000 0000 0000
000001e0: abaa aa3e 0000 0000 0000 0000 0000 0000
000001f0: 0000 0000 0000 0000 0000 0000 cdcc 4c3e
00000200: 0000 0000 0000 0000 0000 0000 0000 0000
00000210: 0000 0000 0000 0000 0000 0000 0000 0000
00000220: 0000 0000 0000 0000 0000 0000 0000 0000
00000230: abaa aa3e 0000 0000 0000 003f 0000 0000
00000240: 0000 0000 0000 0000 0000 0000 0000 0000
00000250: 0000 0000 0000 0000 abaa aa3e 0000 0000
00000260: 0000 0000 0000 0000 cdcc 4c3e 0000 0000
00000270: 0000 0000 0000 0000 0000 0000 0000 0000
00000280: 0000 0000 0000 0000 0000 0000 0000 0000
00000290: 0000 0000 0000 0000 0000 0000 0000 0000
000002a0: 0000 0000 0000 0000 0000 0000 0000 003f
000002b0: 0000 0000 abaa aa3e 0000 0000 0000 0000
000002c0: abaa aa3e 0000 0000 0000 0000 0000 003f
000002d0: 0000 0000 0000 0000 0000 0000 abaa aa3e
000002e0: 0000 0000 0000 0000 0000 0000 0000 0000
000002f0: 0000 0000 0000 0000 0000 0000 0000 0000
00000300: 0000 0000 0000 0000 0000 0000 0000 0000
00000310: 0000 0000 0000 0000 0000 0000 0000 0000
00000320: 0000 0000 0000 0000 0000 0000 0000 0000
00000330: 0000 0000 0000 0000 0000 0000 0000 0000
00000340: 0000 0000 0000 0000 0000 0000 0000 0000
00000350: 0000 0000 abaa aa3e 0000 0000 0000 0000
00000360: 0000 0000 0000 0000 0000 0000 0000 0000
00000370: 0000 0000 0000 0000 0000 0000 0000 0000
00000380: 0000 0000 0000 0000 0000 0000 0000 0000
00000390: 0000 0000 0000 0000 0000 0000 0000 0000
000003a0: 0000 0000 0000 0000 0000 0000 0000 0000
000003b0: 0000 0000 0000 0000 0000 0000 0000 0000
000003c0: 0000 0000 0000 0000 0000 0000

data_bn.weight f4 [27]
0.087477736 0.04563763 0.03964707 0.24386106 0.042948015 0.054922663 0.2800132 0.19356309
0.20238742 0.44548827 0.5097959 0.3557601 0.5000781 0.5093308 0.3563608 0.26502508
0.164206 0.23175462 0.4651665 0.39470556 0.34198532 0.49004638 0.40988144 0.33602542
0.2201302 0.039783478 0.050947472
00000000: 8727 b33d 86ee 3a3d f764 223d b7b6 793e
00000010: 42ea 2f3d 96f6 603d e45d 8f3e 6735 463e
00000020: a63e 4f3e 0a17 e43e fc81 023f 3026 b63e
00000030: 1e05 003f 8163 023f ec74 b63e 5eb1 873e
00000040: 9e25 283e 1551 6d3e 4e2a ee3e d916 ca3e
00000050: b318 af3e 5ce7 fa3e fbdb d13e 860b ac3e
00000060: d069 613e 00f4 223d 4cae 503d

data_bn.bias f4 [27]
-0.015207418 0.026288893 -0.016347537 -0.01587997 -0.017287264 0.001510345 0.043754973 0.015010623
0.0085698925 -0.019701129 0.0037639872 0.012775919 -0.010101732 0.0055600586 -0.0027204112 0.019393936
0.04543492 0.037318937 0.008170052 -0.016008763 -0.022248 -0.024051184 -0.026380895 0.0038521152
0.010315548 0.017903576 0.009827861
00000000: 8928 79bc ce5b d73c 45eb 85bc b616 82bc
00000010: 059e 8dbc c5f6 c53a 6a38 333d 1eef 753c
00000020: bc68 0c3c 4364 a1bc 3aad 763b 1752 513c
00000030: bc81 25bc 2731 b63b ed48 32bb 08e0 9e3c
00000040: f719 3a3d bedb 183d afdb 053c cf24 83bc
00000050: 7041 b6bc fd06 c5bc bf1c d8bc c573 7c3b
00000060: 8b02 293c 85aa 923c 0905 213c

data_bn.running_mean f4 [27]
89.44137 83.05923 22.979069 97.64224 90.71437 24.650244 87.93445 85.5389
23.597404 99.75693 87.2528 23.842669 108.23455 84.09038 22.571754 107.185265
95.91092 25.723568 128.265 103.14563 27.300085 128.42065 97.44404 26.338593
109.16327 102.52586 27.055384
00000000: fbe1 b242 531e a642 22d5 b741 d448 c342
00000010: c26d b542 b333 c541 70de af42 eb13 ab42
00000020: 7cc7 bc41 8c83 c742 6f81 ae42 c9bd be41
00000030: 1778 d842 462e a842 f492 b441 db5e d642
00000040: 64d2 bf42 dec9 cd41 d743 0043 904a ce42
00000050: 9366 da41 b06b 0043 59e3 c242 70b5 d241
00000060: 9853 da42 3e0d cd42 6d71 d841

data_bn.running_var f4 [27]
11985.686 22700.734 7433.905 12555.149 24962.178 8260.818 9718.982 21760.045
7461.213 12569.125 20180.1 7233.5073 14263.234 18266.37 6579.934 16321.318
28452.84 9124.267 21451.064 29067.426 9687.937 20722.732 25093.055 8807.045
17684.523 26423.346 9148.757
00000000: be46 3b46 7859 b146 3d4f e845 992c 4446
00000010: 5b04 c346 4613 0146 eedb 1746 1700 aa46
00000020: b429 e945 8064 4446 33a8 9d46 0f0c e245
00000030: f0dc 5e46 bdb4 8e46 799f cd45 4605 7f46
00000040: ae49 de46 1191 0e46 2196 a746 da16 e346
00000050: bf5f 1746 77e5 a146 1c0a c446 2e9c 0946
00000060: 0c29 8a46 b16e ce46 07f3 0e46

st_gcn_networks.0.gcn.conv.weight f4 [24, 3, 1, 1]
-0.065591425 -0.0110506825 -0.0010310834 0.14934184 -0.0583739 0.064361475 0.06894408 0.0019133355
0.049299553 -0.026869452 -0.018585827 0.12627064 0.028124796 -0.015319996 -0.20973012 0.21889685
0.29207337 0.078697175 -0.22232923 0.16551441 0.07227503 -0.18794593 0.072813705 -0.13318501
-0.04726234 -0.051167436 -0.017435974 -0.2420891 -0.085227504 0.035890263 0.16180173 -0.014320927
-0.016961379 -0.13328911 -0.13708527 0.0032452988 -0.0012068421 -0.023595156 0.1931953 -0.047122248
-0.2331778 -0.12788816 0.062041074 0.06971998 0.046783295 0.17612678 -0.09961374 0.16302747
-0.010760971 -0.0003995394 0.0086569125 -0.04326718 -0.024454279 -0.07371352 0.15452513 -0.032988124
0.043218482 -0.033993475 -0.026431305 0.0056593185 -0.20701668 0.015031544 -0.011860342 0.041734442
-0.05634104 0.10797329 0.03739028 -0.05698791 -0.004718944 -0.10534362 0.14094226 0.048947405
00000000: cc54 86bd ec0d 35bc 6b25 87ba 11ed 183e
00000010: 7819 6fbd f3cf 833d 8e32 8d3d e3c8 fa3a
00000020: 54ee 493d 531d dcbc 4e41 98bc 174d 013e
00000030: f965 e63c b800 7bbc 7ec3 56be 7f26 603e
00000040: a48a 953e fc2b a13d 46aa 63be 9c7c 293e
00000050: ee04 943d e674 40be 5a1f 953d a761 08be
00000060: 2896 41bd f294 51bd e3d5 8ebc 34e6 77be
00000070: c28b aebd ab01 133d 5aaf 253e 52a2 6abc
00000080: 97f2 8abc f17c 08be 1560 0cbe 14af 543b
00000090: e72e 9eba a14a c1bc fdd4 453e 4203 41bd
000000a0: 29c6 6ebe 1df5 02be c81e 7e3d 59c9 8e3d
000000b0: d79f 3f3d 945a 343e 4a02 ccbd acf0 263e
000000c0: c94e 30bc 4579 d1b9 b9d5 0d3c ed38 31bd
000000d0: 5754 c8bc 1df7 96bd d63b 1e3e 8e1e 07bd
000000e0: dd05 313d be3c 0bbd 7786 d8bc ce71 b93b
000000f0: 2efc 53be dd46 763c e151 42bc bcf1 2a3d
00000100: ddc5 66bd 1a21 dd3d 8d26 193d 286c 69bd
00000110: 5fa1 9abb 65be d7bd 2b53 103e 137d 483d

st_gcn_networks.0.gcn.conv.bias f4 [24]
0.0326061 0.046270426 0.047431536 0.07425221 -0.0147992 -0.1718551 -0.015118522 0.12347644
-0.06719341 0.016816147 0.08611148 -0.027812023 0.02403215 0.137385 0.15151237 -0.017496835
-0.018535988 -0.15228997 0.022643106 -0.06310321 0.04070629 0.028133309 -0.027987774 0.001246864
00000000: f98d 053d 0f86 3d3d 9247 423d 8b11 983d
00000010: 5878 72bc c9fa 2fbe adb3 77bc 37e1 fc3d
00000020: b39c 89bd 04c2 893c 375b b03d 0ad6 e3bc
00000030: 12df c43c a7ae 0c3e 0f26 1b3e 8655 8fbc
00000040: c9d8 97bc e7f1 1bbe 097e b93c 413c 81bd
00000050: a4bb 263d d377 e63c 9e46 e5bc d06d a33a

st_gcn_networks.0.tcn.0.weight f4 [8]
0.147479 0.30620018 0.37763694 0.26524395 0.24838792 0.32979992 0.32707053 0.3407567
00000000: bc04 173e 45c6 9c3e a159 c13e 0ece 873e
00000010: 6759 7e3e 89db a83e ca75 a73e aa77 ae3e

st_gcn_networks.0.tcn.0.bias f4 [8]
0.051981475 0.03896411 0.054390013 0.021857455 -0.04146028 0.054885723 -0.0077831126 -0.040370986
00000000: 87ea 543d d598 1f3d 10c8 5e3d 680e b33c
00000010: 41d2 29bd dacf 603d 7b09 ffbb 0c5c 25bd

st_gcn_networks.0.tcn.0.running_mean f4 [8]
-0.003972642 0.00092523516 0.016475758 0.0037370063 0.0025035366 -0.005431132 0.013628217 0.013912497
00000000: f02c 82bb 7b8b 723a 2bf8 863c 90e8 743b
00000010: 6012 243b a3f7 b1bb e348 5f3c 3ef1 633c

st_gcn_networks.0.tcn.0.running_var f4 [8]
9.678875e-05 0.0001868449 0.00028212587 0.00024377224 1.7170853e-05 0.00022081468 0.0003205419 6.0960327e-05
00000000: 11fb ca38 cceb 4339 4bea 9339 1d9d 7f39
00000010: 200a 9037 7d8a 6739 680e a839 a7af 7f38

st_gcn_networks.0.tcn.2.weight f4 [8, 8, 9, 1]
-0.038194645 -0.018420123 0.015477905 -0.005189759 0.009943355 -0.024920916 0.0021557102 -0.009017268
0.010551674 0.032982774 -0.054823756 -0.03130141 -0.0068924315 -0.0065354235 0.022333913 0.014894176
-0.0043552024 -0.017331226 0.04670088 0.05307241 0.029974427 0.06490924 -0.016143149 0.093362965
-0.05821957 0.027565854 -0.05505371 0.010776586 -0.02011379 0.06109031 0.004695884 0.021836646
0.029560933 0.020876097 0.040578302 0.025595287 -0.07156126 -0.025926879 0.037619863 -0.022490874
-0.025169963 0.0208175 0.022332827 -0.04800167 0.013949632 -0.028692245 0.0034332625 0.0087134065
0.022027412 0.034842428 0.012372331 -0.005601724 0.016971553 0.011931112 0.027763015 0.02108495
0.003611203 -0.039517697 -0.025524057 -0.014676455 -0.03503989 0.054793004 -0.015650762 -0.024400376
-0.12104449 -0.0037563825 -0.05471612 0.001529346 -0.075734206 -0.020355575 -0.026006425 0.003916496
0.02220165 -0.013084852 -0.0036341143 -0.0054585645 0.012523088 0.0113338195 0.047940567 -0.00017561187
-0.007736494 0.02405374 0.019670801 0.043885387 0.0106715625 -0.021631377 0.0015509435 0.02611276
-0.0073276786 0.034362607 0.033717856 0.07584323 0.0811855 -0.00014392936 -0.018501982 -0.06279915
-0.014456977 0.0193039 -0.010443459 0.04749831 -0.02734372 0.023454165 0.011613037 0.016388826
0.01019766 0.037724115 -0.029458655 -0.011778842 0.020610109 0.010198042 0.025700465 0.01905819
0.015514376 -0.029977068 0.045840185 0.04990896 0.009576452 -0.017211104 0.03636715 0.02294942
-0.037879057 0.020624597 -0.031205194 -0.05125752 -0.022024777 -0.014835397 -0.06384079 -0.048088577
-0.07062321 -0.051980663 -0.022946836 0.037319817 0.0290384 -0.04006663 0.06000441 0.03159263
-0.053772293 -0.02344473 -0.0053728283 0.020746741 -0.03994725 0.022044038 -0.022282988 -0.028205099
-0.020612765 -0.005257712 -0.013993501 0.057799853 -0.019792171 -0.009678787 0.022883737 -0.025300957
-0.014144809 -0.0035977399 -0.0031540943 -0.013684239 0.022663206 -0.023638146 0.010504131 0.009691559
-0.037194706 0.007509342 0.070132606 -0.0039006977 0.0054510487 -0.08222082 0.0558052 -0.0037104907
0.04745796 -0.06615694 0.03491599 0.029946797 -0.026099266 -0.030809637 0.028413905 0.01273269
-0.033227675 -0.0025084207 -0.03629591 0.024440525 -0.0026449566 0.017039802 0.050477084 0.00702401
-0.06411891 -0.016857877 -0.0299671 -0.016502932 0.000106416766 -0.040872958 -0.06253988 0.057818778
-0.045975037 -0.058671843 0.010952068 0.04150923 -0.047911394 0.08284344 0.009262134 -0.0325835
-0.0632707 0.054058388 0.09499444 0.02257639 -0.03659928 0.033926006 0.044294078 -0.04708935
-0.024969434 -0.080474086 0.03893158 0.0016857099 0.060028367 -0.04643352 -0.034679987 -0.021834686
-0.009600371 -0.007068283 0.0101673985 0.007940703 0.020865886 -0.016668592 -0.008923733 -0.020224186
0.011441811 -0.0023168356 0.019359853 -0.014343251 -0.010169178 0.029895796 0.036839332 0.026886841
0.0020642749 0.036865707 0.016105263 0.011182355 0.0027394905 -0.015693458 -0.011989552 -0.011444455
0.011215181 0.0076037403 -0.057686973 0.013665064 -0.033993334 -0.032190632 -0.04575038 -0.040400684
-0.011536163 -0.033957873 -0.03897609 0.021728717 -0.0021362745 -0.04770313 -8.1009115e-05 0.03686965
00000000: fd71 1cbd cce5 96bc 0a97 7d3c db0e aabb
00000010: 74e9 223c f326 ccbc d146 0d3b 2abd 13bc
00000020: eee0 2c3c f218 073d e08e 60bd e835 00bd
00000030: e8d9 e1bb 1b27 d6bb 9cf5 b63c b406 743c
00000040: 16b6 8ebb 37fa 8dbc 6c49 3f3d 7562 593d
00000050: ee8c f53c 23ef 843d a33e 84bc 1535 bf3d
00000060: a577 6ebd c9d1 e13c 0080 61bd 4790 303c
00000070: adc5 a4bc d539 7a3d eedf 993b c4e2 b23c
00000080: c529 f23c 5904 ab3c 6f35 263d 35ad d13c
00000090: b68e 92bd 9b64 d4bc 4917 1a3d c83e b8bc
000000a0: 3d31 cebc 7689 aa3c 55f3 b63c 669d 44bd
000000b0: ff8c 643c 000c ebbc 9600 613b adc2 0e3c
000000c0: d572 b43c efb6 0e3d 51b5 4a3c ab8e b7bb
000000d0: ed07 8b3c b67a 433c 436f e33c 58ba ac3c
000000e0: efa9 6c3b 4fdd 21bd d417 d1bc 8475 70bc
000000f0: fd85 0fbd a16e 603d 0736 80bc 4ce3 c7bc
00000100: 2ce6 f7bd a42d 76bb 031e 60bd 5674 c83a
00000110: 891a 9bbd bcc0 a6bc 6d0b d5bc f355 803b
00000120: 3ce0 b53c d961 56bc 522a 6ebb c2dd b2bb
00000130: a32d 4d3c 7cb1 393c 545d 443d 7424 38b9
00000140: 6a82 fdbb 590c c53c a924 a13c 2ac1 333d
00000150: c7d7 2e3c 4934 b1bc 0749 cb3a 6dea d53c
00000160: 061d f0bb cebf 0c3d bc1b 0a3d b253 9b3d
00000170: 9544 a63d beeb 16b9 7891 97bc d79c 80bd
00000180: f5dc 6cbc 3623 9e3c 0b1b 2bbc 978d 423d
00000190: f0ff dfbc f322 c03c 9c44 3e3c dc41 863c
000001a0: 1614 273c 9a84 1a3d 4753 f1bc 0bfc 40bc
000001b0: 88d6 a83c b015 273c c889 d23c ec1f 9c3c
000001c0: 0230 7e3c 7892 f5bc ebc2 3b3d 566d 4c3d
000001d0: 8de6 1c3c 4dfe 8cbc b8f5 143d 6c00 bc3c
000001e0: 1227 1bbd eaf4 a83c 09a2 ffbc 68f3 51bd
000001f0: 4e6d b4bc 2a10 73bc f6be 82bd 87f8 44bd
00000200: e7a2 90bd ade9 54bd 01fb bbbc aadc 183d
00000210: f0e1 ed3c e81c 24bd 2fc7 753d 4667 013d
00000220: 5640 5cbd 2a0f c0bc 8d0e b0bb 12f5 a93c
00000230: ba9f 23bd b395 b43c d08a b6bc 610e e7bc
00000240: 1adc a8bc e348 acbb ff44 65bc 8abf 6c3d
00000250: 3123 a2bc c693 1ebc ad76 bb3c f443 cfbc
00000260: a1bf 67bc 0fc8 6bbb ecb4 4ebb dc33 60bc
00000270: 30a8 b93c c9a4 c1bc 8519 2c3c 58c9 1e3c
00000280: 7a59 18bd ed10 f63b afa1 8f3d d9a2 7fbb
00000290: b69e b23b 6463 a8bd fe93 643d b42b 73bb
000002a0: 4763 423d 4a7d 87bd 1204 0f3d fc52 f53c
000002b0: 21ce d5bc 7e64 fcbc 47c4 e83c c69c 503c
000002c0: be19 08bd 5164 24bb 05ab 14bd 7f37 c83c
000002d0: 0257 2dbb 0e97 8b3c 0fc1 4e3d ab29 e63b
000002e0: c650 83bd 8819 8abc 907d f5bc 2831 87bc
000002f0: 112c df38 676a 27bd e914 80bd 62d3 6c3d
00000300: 5250 3cbd e351 70bd 4d70 333c 9505 2a3d
00000310: bd3e 44bd d2a9 a93d 35c0 173c 4776 05bd
00000320: 1294 81bd 546c 5d3d 728c c23d 1ff2 b83c
00000330: 20e9 15bd fff5 0a3d b56d 353d c3e0 40bd
00000340: b38c ccbc 99cf a4bd b876 1f3d 0af3 dc3a
00000350: 4ee0 753d 1331 3ebd 9a0c 0ebd a8de b2bc
00000360: e04a 1dbc 0e9d e7bb 2995 263c b919 023c
00000370: efee aa3c 928c 88bc d934 12bc 31ad a5bc
00000380: 6f76 3b3c 0dd6 17bb 8e98 9e3c f4ff 6abc
00000390: a09c 26bc 07e8 f43c d7e4 163d cb41 dc3c
000003a0: c948 073b 7f00 173d 2fef 833c 3236 373c
000003b0: 0689 333b 918f 80bc d36f 44bc 8681 3bbc
000003c0: e1bf 373c cc28 f93b 2d49 6cbd 6fe3 5f3c
000003d0: 983c 0bbd 53da 03bd c064 3bbd 307b 25bd
000003e0: 2d02 3dbc 6917 0bbd 64a5 1fbd 6c00 b23c
000003f0: bd00 0cbb 5b64 43bd 70e3 a9b8 a104 173d

st_gcn_networks.0.tcn.2.bias f4 [8]
1.1116102e-05 -2.5927797e-05 9.920634e-05 3.833193e-05 2.310136e-05 -1.5436293e-05 -3.5187306e-05 2.2017884e-05
00000000: 4b7f 3a37 857f d9b7 000d d038 99c6 2038
00000010: cbc9 c137 307d 81b7 1596 13b8 0cb3 b837

st_gcn_networks.0.tcn.3.weight f4 [8]
0.33571312 0.29924724 0.2679721 0.22968425 0.19568665 0.31633213 0.34911573 0.29859552
00000000: 97e2 ab3e ef36 993e a433 893e 5932 6b3e
00000010: 1562 483e 49f6 a13e 4cbf b23e 83e1 983e

st_gcn_networks.0.tcn.3.bias f4 [8]
-0.040677555 0.0020264431 0.054320253 0.016460491 -0.014067099 0.036369674 0.032747593 -0.018395811
00000000: 829d 26bd 13ce 043b ea7e 5e3d 27d8 863c
00000010: b179 66bc 5ef8 143d 5722 063d d0b2 96bc

st_gcn_networks.0.tcn.3.running_mean f4 [8]
0.009515306 0.011155388 -0.014956077 -0.034117065 0.029428145 0.040802445 -0.003643037 0.01595539
00000000: 16e6 1b3c 17c5 363c 550a 75bc 56be 0bbd
00000010: 4b13 f13c 7720 273d 05c0 6ebb e1b4 823c

st_gcn_networks.0.tcn.3.running_var f4 [8]
0.0054522594 0.003376051 0.0017051141 0.00093090086 0.0016487541 0.0044997665 0.00492739 0.0037778823
00000000: dea8 b23b bd40 5d3b 237e df3a b307 743a
00000010: 021b d83a c772 933b f175 a13b 5996 773b

st_gcn_networks.1.gcn.conv.weight f4 [24, 8, 1, 1]
-0.023190416 -0.037684165 0.05727663 0.058000427 -0.014430296 0.023537507 0.010179943 0.045231648
-0.0049137617 -0.019493058 0.0846567 -0.037471864 0.031364623 -0.025342567 0.06662575 0.024425108
0.07238917 -0.06722791 -0.02718306 0.07864985 0.060755882 0.06760767 -0.030099712 -0.018269185
0.0077230115 -0.03124272 -0.030845061 -0.03625131 -0.0687466 -0.09624216 0.046390813 -0.09396734
-0.024254642 0.0066906125 0.0693971 -0.04140102 0.015484294 0.026222078 0.04057698 -0.009387061
0.00931269 -0.085708246 0.034059238 -0.06333579 -0.012644105 0.0013345958 -0.08468939 0.010969001
-0.022968102 -0.007512932 0.05195837 0.0033150872 0.021139503 0.021376492 -0.046528354 -0.028501559
-0.03466155 -0.0037096487 -0.033071574 -0.031983774 -0.014647075 0.05556196 0.0035683059 0.07826597
-0.018058782 0.07139121 0.014899815 -0.030807937 -0.061631013 0.010351772 0.07624119 0.09901672
-0.058129564 -0.011603317 -0.059249967 -0.022538386 -0.008724167 -0.032993168 0.05702255 0.0051545566
0.01191251 -0.0052720155 0.057852276 -0.047027983 -0.048273485 -0.0966896 0.09855924 -0.05165291
-0.020022392 0.12260515 0.0690425 0.023681864 -0.05698094 0.06683371 -0.03627778 -0.09826236
-0.036872555 -0.018566577 0.07570284 0.04669788 0.0032556609 0.023667786 -0.025710085 0.039216343
0.085051455 -0.044413086 -0.0050818557 -0.06362927 0.030326001 -0.081295475 0.08086224 0.051614184
-0.06624273 -0.11099976 0.042906802 0.04099289 -0.07357564 -0.047665767 0.028904207 0.07276157
0.02849474 0.010168841 -0.0116649885 -0.003066174 -0.0025451374 0.0206178 0.03725098 -0.008354368
-0.015901076 -0.014517055 0.038899064 0.07552613 -0.016441321 0.042412985 -0.047625326 -0.0008329308
0.066230126 0.015993005 0.02478957 -0.02074098 0.00711628 0.050891005 0.0917914 0.018852782
-0.0051196483 0.021070803 -0.030218214 -0.06292089 -0.0075140838 -0.053035073 0.05931498 0.024734493
0.07044462 -0.034641296 -0.02820009 -0.06283364 -0.010748768 -0.025704062 0.15155278 -0.000929807
0.00059454486 0.00014704531 0.0052821026 -0.070479155 0.02960133 -0.012053933 0.007014792 -0.0007014359
-0.018227996 -0.04125616 -0.01735432 0.021886615 -0.0692744 -0.06694222 -0.040335834 -0.0042388476
0.06950297 0.040520024 0.02720275 -0.10076702 0.058856014 0.037952736 -0.013916197 -0.02962198
0.0010016243 -0.008094012 0.032047704 0.0075199273 0.009350449 -0.033592455 0.0010753084 0.06590611
00000000: d4f9 bdbc b65a 1abd e69a 6a3d db91 6d3d
00000010: 0c6d 6cbc bbd1 c03c c7c9 263c d244 393d
00000020: 9f03 a1bb e8af 9fbc 7e60 ad3d 197c 19bd
00000030: 3178 003d 379b cfbc 1573 883d 2a17 c83c
00000040: c640 943d c9ae 89bd 02af debc 2c13 a13d
00000050: 29db 783d e475 8a3d ac93 f6bc 42a9 95bc
00000060: 5111 fd3b bcf0 ffbc c8ae fcbc 417c 14bd
00000070: 04cb 8cbd 9c1a c5bd 4b04 3e3d f371 c0bd
00000080: acb1 c6bc ed3c db3b 1120 8e3d 1e94 29bd
00000090: d6b1 7d3c afcf d63c 0c34 263d 30cc 19bc
000000a0: 4194 183c ce87 afbd b381 0b3d 32b6 81bd
000000b0: 3829 4fbc 9bed ae3a a271 adbd 53b7 333c
000000c0: 9a27 bcbc 0b2f f6bb 4dd2 543d ef41 593b
000000d0: c02c ad3c c11d af3c 8494 3ebd 1a7c e9bc
000000e0: 45f9 0dbd 941d 73bb 0f76 07bd 6b01 03bd
000000f0: 49fa 6fbc f094 633d 3dda 693b e949 a03d
00000100: 03f0 93bc 8e35 923d 5b1e 743c ed60 fcbc
00000110: cd70 7cbd 7b9a 293c 5724 9c3d 47c9 ca3d
00000120: 4419 6ebd d71b 3ebc 18b0 72bd 6ca2 b8bc
00000130: cfef 0ebc d823 07bd 7a90 693d 8ee7 a83b
00000140: b02c 433c dfc0 acbb 82f6 6c3d 6aa0 40bd
00000150: 6bba 45bd 3205 c6bd 6dd9 c93d 0092 53bd
00000160: 0006 a4bc 6918 fb3d 2766 8d3d 7800 c23c
00000170: d964 69bd 1de0 883d 0298 14bd c73d c9bd
00000180: ad07 17bd ef18 98bc 170a 9b3d 4746 3f3d
00000190: ed5c 553b f2e2 c13c f59d d2bc 51a1 203d
000001a0: 752f ae3d 7fea 35bd b285 a6bb 1050 82bd
000001b0: 3c6e f83c 3e7e a6bd 1a9b a53d 6569 533d
000001c0: 45aa 87bd d853 e3bd 0bbf 2f3d 29e8 273d
000001d0: d3ae 96bd 2e3d 43bd 84c8 ec3c 0504 953d
000001e0: cd6d e93c 369b 263c 821e 3fbc ddf1 48bb
000001f0: 52cc 26bb a9e6 a83c 7c94 183d c2e0 08bc
00000200: f942 82bc f1d8 6dbc a054 1f3d 72ad 9a3d
00000210: f3af 86bc 3db9 2d3d c612 43bd 0a59 5aba
00000220: a9a3 873d c303 833c 7f13 cb3c fde8 a9bc
00000230: af2f e93b 1673 503d 21fd bb3d 2671 9a3c
00000240: b9c2 a7bb ad9c ac3c 308c f7bc abdc 80bd
00000250: b438 f6bb 4e3b 59bd 44f4 723d fe9f ca3c
00000260: 4545 903d 08e4 0dbd e003 e7bc ecae 80bd
00000270: 9a1b 30bc 5391 d2bc a730 1b3e 4bbe 73ba
00000280: 3bdb 1b3a 2d30 1a39 7d15 ad3b 6057 90bd
00000290: 7d7e f23c dc7d 45bc 57dc e53b 91e0 37ba
000002a0: e152 95bc 38fc 28bd a62a 8ebc 8f4b b33c
000002b0: bddf 8dbd 0119 89bd 3037 25bd 08e6 8abb
000002c0: 9357 8e3d 53f8 253d 4dd8 de3c f05e cebd
000002d0: 0113 713d 5474 1b3d c300 64bc cba9 f2bc
000002e0: ef48 833a bf9c 04bc 7444 033d b969 f63b
000002f0: a032 193c 3e98 09bd 5df1 8c3a c8f9 863d

st_gcn_networks.1.gcn.conv.bias f4 [24]
0.0030114665 0.012810918 -0.016973544 0.03456546 0.0064393454 -0.004905988 0.003328841 -0.0008862516
-0.068374336 -0.00805362 0.017998572 0.00010179753 -0.05631678 0.01198489 0.052137855 -0.008285849
-0.010681098 -0.039743666 0.006366828 0.018087754 0.006916052 -0.014027188 0.023020482 -0.0077206516
00000000: 065c 453b e2e4 513c 1a0c 8bbc 8394 0d3d
00000010: 2501 d33b 69c2 a0bb af28 5a3b 5753 68ba
00000020: d807 8cbd 55f3 03bc be71 933c 227c d538
00000030: 6dac 66bd 465c 443c 818e 553d 5fc1 07bc
00000040: c6ff 2ebc 41ca 22bd d3a0 d03b c52c 943c
00000050: 0da0 e23b 4ad2 65bc 7395 bc3c 85fd fcbb

st_gcn_networks.1.tcn.0.weight f4 [8]
0.21519439 0.19329306 0.26960152 0.29057497 0.15654014 0.22941554 0.2596694 0.20589212
00000000: eb5b 5c3e 9eee 453e 3609 8a3e 3ec6 943e
00000010: 0f4c 203e e8eb 6a3e 63f3 843e 62d5 523e

st_gcn_networks.1.tcn.0.bias f4 [8]
-0.0309997 0.008583348 0.025237178 0.0016832232 -0.02259401 -0.0072543123 -0.0345307 -0.02448189
00000000: 15f3 fdbc 2ca1 0c3c 33be ce3c 999f dc3a
00000010: 1317 b9bc 95b5 edbb 1070 0dbd 3f8e c8bc

st_gcn_networks.1.tcn.0.running_mean f4 [8]
-0.000770367 -0.00010120288 0.00015350935 0.0011113341 -0.0018200646 -0.0007521143 0.0023672604 0.00036302718
00000000: 74f2 49ba e23c d4b8 5af7 2039 2faa 913a
00000010: 3c8f eeba 8929 45ba 0a24 1b3b af54 be39

st_gcn_networks.1.tcn.0.running_var f4 [8]
3.691857e-06 4.6803243e-06 1.3821508e-05 9.293721e-06 6.655119e-06 4.4469402e-06 1.227932e-05 5.409582e-06
00000000: 9fc1 7736 ae0b 9d36 ede2 6737 3aec 1b37
00000010: 094f df36 ed36 9536 4703 4e37 f583 b536

st_gcn_networks.1.tcn.2.weight f4 [8, 8, 9, 1]
-0.014307033 0.0019451192 0.018941803 -0.009217319 -0.010327418 -0.03834531 -0.0012167465 0.008835816
0.038095415 -0.05077195 0.008048788 0.042499814 0.0048300005 -0.043764163 -0.0326236 0.025917128
0.022056326 -0.018034058 0.0074250773 -0.0202969 0.051773015 -0.013438199 0.0082719885 -0.006116512
0.044976555 -0.03645833 -0.05382973 0.009999598 0.013288874 0.028641842 0.0033661802 0.02723063
0.046800327 -0.04344069 -0.047764394 -0.04118051 -0.0022505727 -0.01381829 -0.009120351 -0.0024416437
0.006340627 0.04040683 0.018818468 0.015667908 0.029958976 -0.0011749208 -0.039683033 0.032552227
0.019632157 -0.019620068 -0.011033557 -0.009273895 -0.00831922 -0.013069291 -0.012674446 0.0062228236
0.009324895 -0.019011552 0.03154047 0.02314072 0.024533404 4.5733093e-05 0.006688208 0.011469878
-0.009276417 -0.055345405 -0.05377152 0.03300181 -0.024002027 -0.012149579 0.009703673 -0.003761299
0.0008109346 -0.035258397 -0.0026977705 -0.0028340747 -0.009031348 -0.039014373 0.009354215 0.01912852
-0.04854991 -0.048447724 -0.012920365 -0.017114434 -0.076319 0.022636106 0.0059579643 0.042302005
0.010668577 0.041367553 -0.032343566 -0.011296683 0.015555769 -0.012659329 0.028765213 0.035713356
0.0024562506 0.05036088 0.022389418 0.015266967 0.057978906 -0.001842291 0.026810262 -0.0064384737
0.031146754 0.0085633015 -0.01375329 0.028242743 -0.029120386 0.017053973 -0.024200775 -0.023152897
0.0004180256 0.0068658353 0.021140587 -0.027219726 0.020463947 0.017628552 -0.0038021966 -0.0061991177
-0.013755567 -0.011401666 0.0051976265 0.0051850444 0.004266136 0.05438586 -0.020459147 0.0077686864
0.043250784 -0.030636514 0.027686743 -0.012820594 0.02692522 -0.01868113 0.027113093 -0.014015817
-0.037826512 -0.023620056 -0.021303918 -0.02955902 0.019577796 0.0029575403 -0.005406417 0.00872978
-0.001411207 -0.05755374 -0.02109692 0.0007193224 -0.00013595168 0.0011741819 0.0040484616 -0.03915971
-0.0530166 0.03657086 -0.03319374 -0.02695439 -0.007870135 -0.0014199221 -0.008987592 -0.01610245
0.008161562 1.6763634e-05 0.040539637 -0.039714523 0.014747904 0.046856426 -0.061279166 0.02833862
0.0362118 0.026323305 0.009573424 -0.026968485 0.04091825 -0.043257184 0.007530182 -0.01380662
-0.02927921 -0.042882606 0.02218793 -0.017096028 0.0020050434 0.018340785 -0.0071264855 0.05564477
-0.014181435 -0.022895295 0.01993244 -0.02862862 -0.029693628 0.0025990608 -0.015363426 0.046241526
-0.010240994 0.010334888 -0.031765215 0.0016475614 -0.08050103 -0.050685994 -0.0068599307 -0.0025825677
0.025259476 0.058900848 -0.010841851 -0.008647322 0.008642339 0.017768718 0.05707476 0.008193987
0.03146757 0.025618011 -0.011736238 0.017326841 -0.017368678 0.013881549 -0.0020420903 -0.017542273
-0.008725923 -0.018791128 0.053386655 -0.023484744 -0.03686475 -0.0037742397 -0.031121299 -0.062544145
0.029780203 0.04482394 0.010649813 0.008169957 0.0127747515 0.033287402 0.0012164267 -0.035796184
-0.036426544 0.010712688 0.0126191145 0.0027182456 0.028843382 -0.029259842 0.016696423 -0.005704489
0.009300908 0.0014987263 0.050464083 -0.00749039 -0.0015304843 -0.01807827 0.029509192 -0.009416482
-0.030919608 -0.005228947 0.02358512 -0.057613403 0.015736677 -0.006331406 -0.022439891 -0.043181557
00000000: 0c68 6abc 5ff3 fe3a d72b 9b3c 3d04 17bc
00000010: 5534 29bc f90f 1dbd 3d7b 9fba 19c4 103c
00000020: f009 1c3d 40f6 4fbd 10df 033c 4914 2e3d
00000030: fb44 9e3b 0d42 33bd 53a0 05bd 2850 d43c
00000040: 78af b43c 29bc 93bc 104e f33b af45 a6bc
00000050: f10f 543d e42b 5cbc 3c87 073c 066d c8bb
00000060: 5639 383d 5455 15bd 907c 5cbd 5bd5 233c
00000070: 94b9 593c 4ca2 ea3c 229b 5c3b c512 df3c
00000080: b3b1 3f3d ddee 31bd 99a4 43bd e5ac 28bd
00000090: 587e 13bb 1c66 62bc 866d 15bc fc03 20bb
000000a0: 09c5 cf3b a281 253d 3029 9a3c fc59 803c
000000b0: 876c f53c cdff 99ba ad8a 22bd 7c55 053d
000000c0: 9ed3 a03c 44ba a0bc 18c6 34bc 89f1 17bc
000000d0: 564d 08bc 9420 56bc 7ba8 4fbc d4e8 cb3b
000000e0: 72c7 183c 1dbe 9bbc 9430 013d 9b91 bd3c
000000f0: 47fa c83c 89d1 3f38 c128 db3b 28ec 3b3c
00000100: 1dfc 17bc ddb1 62bd 863f 5cbd e82c 073d
00000110: e69f c4bc 070f 47bc 28fc 1e3c 2080 76bb
00000120: e694 543a 1c6b 10bd 14cd 30bb e2bb 39bb
00000130: 38f8 13bc 89cd 1fbd 6c42 193c 6ab3 9c3c
00000140: 45dc 46bd 1f71 46bd f0af 53bc 9233 8cbc
00000150: 234d 9cbd 5b6f b93c 073b c33b de44 2d3d
00000160: 41cb 2e3c 0671 293d b07a 04bd b915 39bc
00000170: a0dd 7e3c 1369 4fbc 06a5 eb3c 2b48 123d
00000180: 0cf9 203b 3647 4e3d 036a b73c 4d22 7a3c
00000190: 4a7b 6d3d 0779 f1ba 32a1 db3c d5f9 d2bb
000001a0: 7a27 ff3c 174d 0c3c 7b55 61bc 535d e73c
000001b0: e08d eebc c6b4 8b3c b440 c6bc 25ab bdbc
000001c0: 722a db39 cdfa e03b 062f ad3c e7fb debc
000001d0: 02a4 a73c c169 903c 462e 79bb f821 cbbb
000001e0: 085f 61bc 0ece 3abc da50 aa3b 4ee7 a93b
000001f0: f1ca 8b3b b5c3 5e3d f199 a7bc 7790 fe3b
00000200: bc27 313d 6df9 fabc 4fcf e23c 780d 52bc
00000210: 4792 dc3c 2b09 99bc 471c de3c 99a2 65bc
00000220: f9ef 1abd d97e c1bc 8e85 aebc c225 f2bc
00000230: 9d61 a03c 4bd3 413b 5028 b1bb 5a07 0f3c
00000240: 40f8 b8ba 78bd 6bbd 73d3 acbc e990 3c3a
00000250: 408e 0eb9 02e7 993a f5a8 843b ef65 20bd
00000260: ef27 59bd 53cb 153d 29f6 07bd 74cf dcbc
00000270: bdf1 00bc ae1c baba b140 13bc 49e9 83bc
00000280: 12b8 053c a19f 8c37 e40c 263d b2ab 22bd
00000290: 31a1 713c 86ec 3f3d ddff 7abd 6526 e83c
000002a0: d352 143d f9a3 d73c dad9 1c3c 03ed dcbc
000002b0: e599 273d 722e 31bd bfbf f63b 2935 62bc
000002c0: f4da efbc aca5 2fbd 76c3 b53c f80c 8cbc
000002d0: 0c67 033b 6a3f 963c 4b85 e9bb c5eb 633d
000002e0: 4059 68bc ea8e bbbc 5b49 a33c 9186 eabc
000002f0: 0d40 f3bc 0155 2a3b e1b6 7bbc c167 3d3d
00000300: d8c9 27bc a953 293c 3e1c 02bd fdf2 d73a
00000310: b9dd a4bd 1e9c 4fbd 45c9 e0bb 4c40 29bb
00000320: f6ec ce3c 0442 713d 05a2 31bc 7fad 0dbc
00000330: 9998 0d3c b48f 913c 39c7 693d 1340 063c
00000340: 24e4 003d dddc d13c 5a49 40bc 05f1 8d3c
00000350: c248 8ebc 706f 633c 97d4 05bb d0b4 8fbc
00000360: 2cf7 0ebc daef 99bc f7ab 5a3d 1463 c0bc
00000370: 7eff 16bd 3c59 77bb 18f2 febc 2517 80bd
00000380: 9df5 f33c 4f99 373d 8e7c 2e3c 49db 053c
00000390: 314d 513c 5f58 083d 8270 9f3a 059f 12bd
000003a0: 0034 15bd 4584 2f3c 67c0 4e3c 9824 323b
000003b0: f548 ec3c 56b2 efbc f0c6 883c b9ec babb
000003c0: d662 183c e970 c43a 6db3 4e3d f271 f5bb
000003d0: 889a c8ba e118 94bc 43bd f13c 9747 1abc
000003e0: 1e4b fdbc 9657 abbb 9535 c13c 08fc 6bbd
000003f0: 34ea 803c af77 cfbb ddd3 b7bc 25df 30bd

st_gcn_networks.1.tcn.2.bias f4 [8]
3.5039313e-05 5.4902735e-06 -0.00010306313 3.1353917e-05 -3.916666e-05 7.6739685e-05 1.0404991e-05 3.357212e-05
00000000: 2df7 1238 1739 b836 9923 d8b8 0382 0338
00000010: e246 24b8 4eef a038 1991 2e37 cacf 0c38

st_gcn_networks.1.tcn.3.weight f4 [8]
0.20651974 0.24946365 0.27745658 0.25756785 0.20198354 0.28150323 0.26472422 0.18462636
00000000: e979 533e 6673 7f3e ca0e 8e3e efdf 833e
00000010: c6d4 4e3e 3121 903e ef89 873e b10e 3d3e

st_gcn_networks.1.tcn.3.bias f4 [8]
0.005687085 -0.014874916 -0.016179359 -0.013437725 -0.001358628 -0.0030971458 -0.013371231 0.005287662
00000000: ba5a ba3b ebb5 73bc 938a 84bc e729 5cbc
00000010: fe13 b2ba 7cf9 4abb 0213 5bbc 2044 ad3b

st_gcn_networks.1.tcn.3.running_mean f4 [8]
-0.0028686034 0.013737267 -0.002894218 0.0015118325 -0.001747493 0.009747452 -0.009835652 -0.010605863
00000000: 2eff 3bbb 4612 613c ecac 3dbb ae28 c63a
00000010: 230c e5ba c7b3 1f3c b725 21bc 37c4 2dbc

st_gcn_networks.1.tcn.3.running_var f4 [8]
0.00031918194 0.0009090608 0.0004938162 0.00031427538 0.0002378421 0.00086432864 0.000477058 0.0005373787
00000000: e057 a739 0a4e 6e3a 7273 013a 54c5 a439
00000010: 4165 7939 1d94 623a a41d fa39 e0de 0c3a

st_gcn_networks.1.residual.0.weight f4 [8, 8, 1, 1]
-0.030005528 -0.06135117 -0.107477754 -0.020160176 -0.04445166 0.028034266 0.05349834 -0.0039405096
-0.075895034 -0.045313116 -0.03169499 0.00574527 0.020123726 0.0743463 0.08730933 -0.085617855
-0.12284046 -0.000923736 0.07533994 -0.001896234 -0.03314709 0.051654153 -8.4808424e-05 -0.053452007
0.086638056 0.02372602 -0.051125836 0.0015204302 -0.023109837 0.009199063 0.056749858 0.071548425
-0.060674746 0.041353285 -0.065838836 0.022807943 0.042719696 -0.044316884 0.07586962 0.061302014
0.115653776 0.028488291 0.08693106 -0.017652273 -0.06049327 -0.034883205 -0.024317658 -0.08154754
0.022007694 0.023946993 -0.06897963 0.023720136 -0.021063343 -0.027345648 -0.07789172 0.017243484
0.003065127 0.037196927 0.08317892 0.016896652 0.05372784 0.07599211 -0.06867668 -0.03041477
00000000: 27ce f5bc 5d4b 7bbd 4c1d dcbd f426 a5bc
00000010: f212 36bd 1ea8 e53c 1321 5b3d 641f 81bb
00000020: db6e 9bbd 3f9a 39bd 9bd2 01bd d142 bc3b
00000030: 83da a43c df42 983d 3ccf b23d 6a58 afbd
00000040: c793 fbbd e026 72ba d44b 9a3d 0e8b f8ba
00000050: 3ec5 07bd 4e93 533d 2ddb b1b8 7ef0 5abd
00000060: 4b6f b13d 125d c23c 5369 51bd 2c49 c73a
00000070: d750 bdbc abb7 163c 8a72 683d fb87 923d
00000080: 1586 78bd 1062 293d 83d6 86bd b9d7 ba3c
00000090: d9fa 2e3d 9f85 35bd 8861 9b3d d217 7b3d
000000a0: e3db ec3d 4760 e93c e908 b23d 809b 90bc
000000b0: cbc7 77bd b1e1 0ebd d335 c7bc 6602 a7bd
000000c0: 7b49 b43c 7c2c c43c 3145 8dbd bb50 c23c
000000d0: 088d acbc fb03 e0bc b285 9fbd 3542 8d3c
000000e0: 4ce0 483b ce5b 183d b659 aa3d d96a 8a3c
000000f0: b911 5c3d c0a1 9b3d 5ca6 8cbd 6528 f9bc

st_gcn_networks.1.residual.0.bias f4 [8]
7.6041447e-06 -1.8256384e-05 2.3250186e-05 4.174304e-05 3.0651656e-06 4.5495777e-05 2.7950162e-05 4.470372e-05
00000000: 1b27 ff36 4925 99b7 6509 c337 3f15 2f38
00000010: 25b3 4d36 b8d2 3e38 8476 ea37 4180 3b38

st_gcn_networks.1.residual.1.weight f4 [8]
0.21695201 0.17944689 0.22620901 0.22286776 0.17279385 0.22348768 0.3200144 0.14015089
00000000: ab28 5e3e edc0 373e 56a3 673e 7237 643e
00000010: dff0 303e f4d9 643e edd8 a33e b783 0f3e

st_gcn_networks.1.residual.1.bias f4 [8]
0.005687085 -0.014874916 -0.016179359 -0.013437725 -0.001358628 -0.0030971458 -0.013371231 0.005287662
00000000: ba5a ba3b ebb5 73bc 938a 84bc e729 5cbc
00000010: fe13 b2ba 7cf9 4abb 0213 5bbc 2044 ad3b

st_gcn_networks.1.residual.1.running_mean f4 [8]
-0.016045304 -0.0010388987 -0.0031357724 0.019130569 0.0045813634 0.0027492538 -0.014926872 0.017844766
00000000: 7171 83bc a82b 88ba 8881 4dbb b6b7 9c3c
00000010: 431f 963b d32c 343b d78f 74bc 302f 923c

st_gcn_networks.1.residual.1.running_var f4 [8]
0.00056227937 0.0009625415 0.00064825884 0.00095561106 0.00090476446 0.0010840367 0.0007595 0.00056043104
00000000: ee65 133a 1153 7c3a eaef 293a f981 7a3a
00000010: b72d 6d3a 3c16 8e3a 2f19 473a e4e9 123a

st_gcn_networks.2.gcn.conv.weight f4 [48, 8, 1, 1]
0.032146957 -0.05878329 0.014228354 -0.050816704 0.053452037 0.012169402 -0.06338081 -0.022494378
-0.01806393 -0.021707073 -0.000825384 -0.03333357 -0.012445078 0.0017226136 0.026772536 -0.02417526
0.021859372 -0.021721056 0.014334129 -0.04374477 -0.01943179 0.011035535 -0.047018543 -0.008362175
0.025128804 -0.001907211 -0.0015608225 -0.020339077 -0.006316028 -0.054367963 -0.022178685 0.0046784924
0.026647886 0.017976794 -0.03342605 0.014868742 -0.060404286 0.040467866 -0.014265817 -0.021323869
0.07011935 -0.0074106078 -0.06716072 -0.029706497 0.08848056 -0.019081954 -0.10124733 -0.024122875
-0.038731333 -0.08733992 -0.04700824 -0.003386232 -0.057442047 0.05040249 -0.09306375 -0.0036177237
-0.008549493 -0.021494847 0.036918875 -0.011941642 -0.011926868 -0.016768085 0.029517217 -0.005828372
-0.0105771795 -0.023140255 -0.03333712 0.018437728 -0.046197183 0.042568836 -0.022399308 -0.039862167
0.0059684 -0.019957105 0.048888437 0.02017409 0.019548887 -0.047380906 0.01871805 0.006726922
0.015913803 -0.034480806 0.023499066 -0.000664354 0.039416157 0.0594944 0.005390489 -0.015942462
0.03337932 -0.037336577 -0.042868044 0.030579217 -0.021945389 -0.0114056235 0.02472146 -0.051489357
0.026826076 -0.033312477 -0.0011596644 0.076207444 -0.021056421 0.020063661 0.02887542 -0.0046832026
0.005267037 -0.06318513 0.059777554 -0.017589498 -0.010593245 -0.0055143666 -0.0037401435 0.0043769013
-0.03385779 0.020556353 0.043462347 -0.039200418 0.013677284 0.043987174 0.03149059 -0.009051335
-0.021245291 0.026431583 -0.02899642 -0.0290616 -0.06910788 -0.006579484 -0.001508987 -0.016723797
0.02974125 -0.02652066 0.02306885 -0.050764997 0.041478314 0.08167075 0.08974985 -0.0432039
-0.0032926856 -0.026262434 -0.03551227 -0.038063128 -0.007103959 0.046953816 0.025059288 0.020053975
0.01747623 0.0012630989 0.057895888 -0.014263211 0.039157312 -0.012078287 0.024147939 -0.044750012
0.015709806 0.02659665 0.0014146725 -0.01743857 0.049117185 -0.041407194 -0.044026744 -0.050180495
-0.0022200337 -0.02560272 0.02722192 -0.02212338 -0.0037557902 0.026746878 0.04335846 0.0121027045
0.024934735 0.034437165 -0.015082206 -0.037974246 0.019320399 -0.098778024 0.019419162 -0.0104436595
0.054543298 0.038073707 -0.064252205 0.034516104 0.06457272 -0.039113272 -0.00918952 -0.05174603
-0.01969602 -0.05299898 0.041425537 0.036647614 -0.04259771 0.04354645 -0.019840095 0.04655375
0.041759223 0.058451712 -0.021141384 0.025436867 0.053547762 -0.0025411767 0.0709677 -0.026494991
-0.009927265 -0.018299893 -0.029163647 0.02820719 -0.06566122 0.049807027 0.03125836 -0.02927803
-0.013235304 -0.061641168 -0.011117658 0.047547027 0.00073987566 -0.0024811674 0.0022245839 0.05279328
0.056146707 0.08467168 0.018388331 0.0108487075 -0.04431225 -0.021566307 0.09741581 0.05383997
0.09964306 -0.024037872 -0.008753187 -0.05548203 -0.038438156 -0.01012294 0.030770931 -0.011691754
0.04394843 0.047338556 -0.07810908 0.06989835 -0.004454303 -0.05535622 0.0005380137 0.082971126
-0.038033705 -0.013717993 -0.047869172 -0.023402106 0.026962614 0.01211869 -0.007960447 0.0034817986
-0.042359684 -0.00026670305 0.019067124 0.039340325 0.018819531 0.017079402 0.055860717 -0.0033790926
00000000: 87ac 033d bfc6 70bd 0b1e 693c 2d25 50bd
00000010: 86f0 5a3d 2c62 473c cccd 81bd 2146 b8bc
00000020: cffa 93bc 08d3 b1bc 955e 58ba c888 08bd
00000030: 71e6 4bbc 52c9 e13a 1452 db3c 320b c6bc
00000040: 6d12 b33c 5bf0 b1bc b2d9 6a3c b72d 33bd
00000050: 6b2f 9fbc 63ce 343c 8496 40bd 8101 09bc
00000060: ecda cd3c 62fb f9ba 8394 ccba 239e a6bc
00000070: aff6 cebb f1b0 5ebd 13b0 b5bc 0a4e 993b
00000080: ab4c da3c 1244 933c c1e9 08bd 069c 733c
00000090: 7c6a 77bd a2c1 253d 2cbb 69bc 65af aebc
000000a0: bc9a 8f3d afd4 f2bb 8f8b 89bd 0a5b f3bc
000000b0: 4c35 b53d c251 9cbc c35a cfbd 569d c5bc
000000c0: bfa4 1ebd 46df b2bd b68b 40bd 8ceb 5dbb
000000d0: 5a48 6bbd d772 4e3d 3598 bebd 5517 6dbb
000000e0: 2c13 0cbc f615 b0bc 3f38 173d e0a6 43bc
000000f0: e968 43bc 395d 89bc 17ce f13c eefb bebb
00000100: e84b 2dbc a290 bdbc 818c 08bd b80a 973c
00000110: 4239 3dbd a95c 2e3d c17e b7bc 8346 23bd
00000120: 9192 c33b 157d a3bc 3e3f 483d 2244 a53c
00000130: fd24 a03c 7b12 42bd 9956 993c 836d dc3b
00000140: aa5d 823c bf3b 0dbd 1d81 c03c 0b28 2eba
00000150: d672 213d 66b0 733d b3a2 b03b c499 82bc
00000160: c1b8 083d 3dee 18bd 6796 2fbd 4481 fa3c
00000170: d1c6 b3bc a7de 3abc a984 ca3c 81e6 52bd
00000180: 5cc2 db3c aa72 08bd e1ff 97ba a612 9c3d
00000190: 847e acbc 8c5c a43c 258c ec3c 8d75 99bb
000001a0: 1c97 ac3b 3567 81bd 4fd9 743d da17 90bc
000001b0: 4a8f 2dbc dcb1 b4bb 321d 75bb 1c6c 8f3b
000001c0: 77ae 0abd cc65 a83c 9305 323d 9e90 20bd
000001d0: b016 603c e52b 343d 47fc 003d 0d4c 14bc
000001e0: 9b0a aebc 0c87 d83c e689 edbc 9812 eebc
000001f0: 6f88 8dbd b698 d7bb 34c9 c5ba 5800 89bc
00000200: eca3 f33c db41 d9bc e3fa bc3c f5ee 4fbd
00000210: 2ae5 293d ff42 a73d c5ce b73d 93f6 30bd
00000220: 19ca 57bb 5124 d7bc 5075 11bd 15e8 1bbd
00000230: 54c8 e8bb a552 403d 2349 cd3c 3c48 a43c
00000240: 502a 8f3c 918e a53a 3d24 6d3d 3eb0 69bc
00000250: 6b63 203d 02e4 45bc e6d1 c53c ca4b 37bd
00000260: dab1 803c 38e1 d93c 886c b93a 55db 8ebc
00000270: 1a2f 493d 979a 29bd 6355 34bd 108a 4dbd
00000280: fc7d 11bb ccbc d1bc 8100 df3c 173c b5bc
00000290: b423 76bb 451c db3c a498 313d 6c4a 463c
000002a0: ee43 cc3c fc0d 0d3d 5b1b 77bc e28a 1bbd
000002b0: d045 9e3c 224c cabd ef14 9f3c e21b 2bbc
000002c0: cb68 5f3d 2df3 1b3d a996 83bd c260 0d3d
000002d0: b43e 843d 3d35 20bd a48f 16bc a5f3 53bd
000002e0: 8c59 a1bc 7515 59bd d3ad 293d cf1b 163d
000002f0: f07a 2ebd c35d 323d b287 a2bc 25af 3e3d
00000300: b80b 2b3d 106b 6f3d b230 adbc fa60 d03c
00000310: e654 5b3d df89 26bb 8357 913d 060c d9bc
00000320: f8a5 22bc a8e9 95bc 9ae8 eebc c412 e73c
00000330: 6479 86bd 7402 4c3d c408 003d 7bd8 efbc
00000340: e3d8 58bc 737b 7cbd d626 36bc acc0 423d
00000350: 37f4 413a 159b 22bb 53ca 113b c43d 583d
00000360: 17fa 653d 5968 ad3d 20a3 963c c7be 313c
00000370: c380 35bd d3ab b0bc f181 c73d 4d87 5c3d
00000380: a911 cc3d 12eb c4bc 8769 0fbc 2041 63bd
00000390: 5471 1dbd b0da 25bc 5213 fc3c c58e 3fbc
000003a0: 4503 343d 13e6 413d a7f7 9fbd de26 8f3d
000003b0: 67f5 91bb 34bd 62bd 7d09 0d3a c4ec a93d
000003c0: 3bc9 1bbd 6fc1 60bc 7712 44bd c6b5 bfbc
000003d0: b3e0 dc3c 788d 463c 896c 02bc e32e 643b
000003e0: 5981 2dbd 47d4 8bb9 a832 9c3c 5223 213d
000003f0: 6b2b 9a3c 1aea 8b3c 35ce 643d c473 5dbb

st_gcn_networks.2.gcn.conv.bias f4 [48]
-0.011120851 0.0100466 -0.009614162 0.0003967776 0.002521661 -0.0125511 0.02884787 -0.013329928
-0.009520075 -0.00754136 -0.0076110046 -0.0077060517 -0.029149486 -0.009858177 0.001158215 0.0076683983
-0.050591428 -0.01000746 -0.0015435949 0.012264351 0.0018204784 -0.015122881 -0.010706033 -0.010551656
-0.046077296 -0.008905602 -0.016430221 -0.038995106 0.01614453 0.0058682463 -0.00984702 -0.014098956
0.013209231 0.021956868 -0.010128521 0.00646627 -0.03696745 0.011184666 0.004460191 -0.008677228
0.00074292615 0.0045114257 -0.009657836 -0.032749746 0.02652213 -0.015363628 0.017598515 0.008882423
00000000: 3b34 36bc 7f9a 243c b884 1dbc 9706 d039
00000010: 7442 253b 21a3 4dbc 5e52 ec3c c565 5abc
00000020: 17fa 1bbc 831d f7bb bc65 f9bb 0c83 fcbb
00000030: e7ca eebc 3184 21bc 3fcf 973a 3047 fb3b
00000040: f538 4fbd 54f6 23bc 7352 caba 6bf0 483c
00000050: 1e9d ee3a f6c5 77bc 5b68 2fbc dae0 2cbc
00000060: 8cbb 3cbd cde8 11bc ac98 86bc 55b9 1fbd
00000070: 8941 843c 6b4a c03b 6555 21bc 4fff 66bc
00000080: 886b 583c e4de b33c 19f2 25bc 01e3 d33b
00000090: 2e6b 17bd e43f 373c cb26 923b ef2a 0ebc
000000a0: eec0 423a 95d4 933b e63b 1ebc 9924 06bd
000000b0: f044 d93c bab7 7bbc c32a 903c 9587 113c

st_gcn_networks.2.tcn.0.weight f4 [16]
0.20584469 0.11582215 0.1597755 0.12689894 0.072485805 0.22424942 0.16965495 0.17171209
0.15524082 0.14256822 0.13401584 0.1785461 0.14855427 0.15205948 0.10339619 0.102898344
00000000: f3c8 523e 2a34 ed3d 309c 233e ccf1 013e
00000010: 7073 943d a4a1 653e 07ba 2d3e 4bd5 2f3e
00000020: 73f7 1e3e 67fd 113e 733b 093e cad4 363e
00000030: 9c1e 183e 7bb5 1b3e 62c1 d33d 5ebc d23d

st_gcn_networks.2.tcn.0.bias f4 [16]
-0.021816807 -0.003945612 -0.04117406 -0.029243369 -0.0007817866 -0.029856704 -0.028484356 -0.039710056
-0.04139505 -0.034635134 -0.043089837 -0.036941003 -0.041083034 -0.04068148 -0.010934762 -0.03947866
00000000: 29b9 b2bc 314a 81bb 22a6 28bd ca8f efbc
00000010: d0f0 4cba 0c96 f4bc 0658 e9bc 03a7 22bd
00000020: db8d 29bd 92dd 0dbd f87e 30bd 734f 17bd
00000030: af46 28bd a0a1 26bd b727 33bc 60b4 21bd

st_gcn_networks.2.tcn.0.running_mean f4 [16]
-0.0013824835 8.917215e-05 -0.000697706 -0.0007304173 -0.0006896596 -0.002651408 -0.00077453314 -0.0014294131
-0.0011274081 -0.00043443195 -0.0009247503 -0.0018333794 0.00042068594 -0.0007483692 0.0005178004 0.0006501747
00000000: 7334 b5ba ef01 bb38 42e6 36ba 7a79 3fba
00000010: 46ca 34ba 3fc3 2dbb 0a0a 4bba 255b bbba
00000020: 8ac5 93ba 78c4 e3b9 f16a 72ba 014e f0ba
00000030: 838f dc39 352e 44ba ffbc 073a 7c70 2a3a

st_gcn_networks.2.tcn.0.running_var f4 [16]
4.557326e-06 2.6941327e-06 2.6170178e-06 5.016835e-06 2.657378e-06 1.453286e-05 3.6108042e-06 2.659102e-06
3.228581e-06 3.3253573e-06 2.4505273e-06 3.7481593e-06 2.4326955e-06 2.860939e-06 1.6515486e-06 2.4491355e-06
00000000: 22eb 9836 d9cc 3436 06a0 2f36 4956 a836
00000010: 6855 3236 29d2 7337 2551 7236 0673 3236
00000020: 99aa 5836 3429 5f36 bd73 2436 e388 7b36
00000030: 6441 2336 8ffe 3f36 c7aa dd35 d45b 2436

st_gcn_networks.2.tcn.2.weight f4 [16, 16, 9, 1]
-0.019545821 -0.013684251 -0.0064810566 -0.018982507 -0.00784608 0.019457495 -0.023391027 -0.029260924
-0.051625367 -0.0034654299 0.014320893 0.037733138 -0.03986677 0.004229095 0.0073569724 0.00953422
0.009635996 0.0026497985 -0.001412322 0.010799041 0.030744104 0.0069837556 0.005428537 -0.032247584
0.0019707193 0.0074050245 0.004296598 -0.009288679 -0.013348791 0.021949587 -0.007221221 -0.006863778
0.004997873 -0.02458828 -0.017756328 0.014362662 0.03954137 0.02482144 -0.0044921446 -0.010736314
0.00017636117 -0.014891972 -0.0054155095 -0.0073629417 -0.031038744 0.054109067 -0.014592688 0.010246133
-0.0025705586 -0.004224729 0.013040081 -0.0057060122 -0.0019910822 0.021655593 -0.004663832 0.020568417
0.01509509 0.02176314 0.017925208 0.0009174001 -0.00096013286 0.029105688 0.009283531 0.007973527
-0.011849767 -0.012088887 0.01054501 0.011434596 -0.016293509 0.0118550565 0.0119637875 -0.017276792
-0.006918921 0.029503679 0.02732606 0.016063103 0.0016032769 -0.008562206 0.021144055 0.01976452
-0.011617333 -0.032346837 0.030421969 -0.032849442 0.029014764 -0.04807498 -0.021071414 0.02113014
-0.020066148 -0.030371556 -0.009578753 0.014005459 -0.009121826 -0.0051072002 0.009368435 -0.013352854
0.014311483 0.021430487 -0.039686218 0.027054554 -0.0073534595 -0.0042537097 -0.035500415 -0.018599551
0.007511128 -0.07856446 -0.011419249 0.038906656 -0.0068338723 0.0068795416 -0.009723006 -0.024220156
0.010799073 -0.045264617 0.0018802421 0.00913247 -0.011071082 0.00093841454 0.009609454 -0.035516627
0.002223866 0.020231066 -0.0037415738 -0.045938455 0.00028359672 0.035137113 -0.02617032 -0.008137741
-0.007214983 -0.00746741 -0.0040608332 -0.013418328 0.0046446817 -0.022589594 -0.013225991 0.004297837
0.0029882363 -0.0014679703 0.0050973543 0.017982077 -0.023955911 0.0064784344 -0.03128996 -0.023100957
-0.0036638551 -0.018501434 0.013606108 0.007531301 0.015569888 0.029923806 0.030139955 0.002897306
0.046998408 -0.025737733 0.0069308947 0.009401222 -0.03241503 -0.017485322 0.0014620776 -0.052301448
0.0110090915 -0.008728587 -0.0011215734 0.019356525 -0.012526145 0.016656289 0.008086477 -0.029654738
0.00095845596 -0.032885164 -0.03669713 -0.036912035 -0.02375989 -0.03336313 0.04353578 0.0009766428
0.00322607 -0.011511991 -0.0023292827 -0.04412313 0.016680826 -0.054560024 -0.041473452 -0.025493596
0.0058544707 -0.036356434 -0.0077591767 0.014720297 0.01679019 0.004623778 -0.011161983 -0.0052011176
-0.013542827 -0.019739244 -0.03562312 -0.040184394 -0.08147917 -0.04156036 -0.002607846 0.033891436
0.010990145 0.011502263 0.030759484 0.012278142 0.043032836 -0.042420574 0.038610138 0.0145331705
-0.013223566 -0.01654412 -0.016051643 -0.03342009 -0.025143074 -0.0080846995 -0.014809259 -0.023375535
-0.012328546 -0.008950954 -0.0010657981 -0.014257769 0.017562727 -0.029137557 -0.034889087 -0.0018145179
-0.032830935 -0.0033257478 -0.026121141 -0.052374575 -0.019648345 -0.015377451 0.021032292 -0.014725609
-0.01500812 -0.016305204 -0.023674442 0.016037177 -0.012153858 -0.0075067873 0.024400698 -0.021005047
-0.029847564 -0.055460934 -0.045569558 0.0013238951 0.006636453 0.00910021 0.038530692 -0.0017791693
0.008093015 -0.00017987494 0.0019820933 0.02461588 0.010182713 0.0056918263 -0.017900107 0.0067573464
00000000: 8f1e a0bc e933 60bc 0b5f d4bb 3481 9bbc
00000010: d88c 00bc 5365 9f3c 8a9e bfbc 9bb4 efbc
00000020: 1f75 53bd 441c 63bb 2ea2 6a3c 108e 1a3d
00000030: 574b 23bd 3894 8a3b c212 f13b 6b35 1c3c
00000040: 4ce0 1d3c 3ea8 2d3b aa1d b9ba 76ee 303c
00000050: 0fdb fb3c fdd7 e43b dee1 b13b 0b16 04bd
00000060: 2f27 013b d9a5 f23b 7aca 8c3b 8b2f 18bc
00000070: e3b4 5abc 9fcf b33c fe9f ecbb 8be9 e0bb
00000080: 33c5 a33b 5c6d c9bc b875 91bc 5f51 6b3c
00000090: 22f6 213d 5556 cb3c d732 93bb 5de7 2fbc
000000a0: 97ed 3839 75fd 73bc 9674 b1bb d544 f1bb
000000b0: f744 febc 78a1 5d3d 2b16 6fbc 66df 273c
000000c0: d176 28bb 986f 8abb 10a6 553c 80f9 babb
000000d0: d17c 02bb 1267 b13c 0fd3 98bb 197f a83c
000000e0: 6551 773c 9d48 b23c e3d7 923c ae7d 703a
000000f0: 6db1 7bba 0d6f ee3c f419 183c 65a3 023c
00000100: 8625 42bc 7810 46bc fac4 2c3c 2c58 3b3c
00000110: f779 85bc b63b 423c c303 443c 0f88 8dbc
00000120: 1eb8 e2bb b3b1 f13c e7da df3c c596 833c
00000130: 0c25 d23a 7f48 0cbc 4c36 ad3c 34e9 a13c
00000140: a056 3ebc 1e7e 04bd 7e37 f93c 238d 06bd
00000150: 5fb0 ed3c 45ea 44bd f59d acbc 1e19 ad3c
00000160: c361 a4bc c5cd f8bc 34f0 1cbc 2777 653c
00000170: b673 15bc 4d5a a7bb 107e 193c eec5 5abc
00000180: b67a 6a3c fd8e af3c 048e 22bd 83a1 dd3c
00000190: 4af5 f0bb b462 8bbb e268 11bd 165e 98bc
000001a0: e91f f63b 67e6 a0bd cd17 3bbc 965c 1f3d
000001b0: adee dfbb c76d e13b 3e4d 1fbc 5969 c6bc
000001c0: 98ee 303c 6467 39bd 7572 f63a 5ba0 153c
000001d0: 7c63 35bc efff 753a f970 1d3c e279 11bd
000001e0: 48be 113b 9fbb a53c 3135 75bb f629 3cbd
000001f0: b5af 9439 efeb 0f3d 2463 d6bc 2954 05bc
00000200: aa6b ecbb 2db1 f4bb bd10 85bb 8cd8 5bbc
00000210: 6a32 983b d00d b9bc d4b1 58bc dfd4 8c3b
00000220: 49d6 433b e968 c0ba b507 a73b 264f 933c
00000230: 303f c4bc 0c49 d43b e729 00bd 383e bdbc
00000240: 4a1d 70bb 5290 97bc 27ec 5e3c 22c9 f63b
00000250: d818 7f3c c522 f53c 11e8 f63c bbe0 3d3b
00000260: 6781 403d f0d7 d2bc 8f1c e33b 9507 1a3c
00000270: 9fc5 04bd 613d 8fbc 2fa3 bf3a 0b3a 56bd
00000280: 7a5f 343c 5902 0fbc c201 93ba 9391 9e3c
00000290: 763a 4dbc c572 883c 257d 043c 7eee f2bc
000002a0: e440 7b3a 98b2 06bd bb4f 16bd 1331 17bd
000002b0: 1aa4 c2bc c7a7 08bd 9352 323d b202 803a
000002c0: 796c 533b ca9c 3cbc e1a6 18bb 75ba 34bd
000002d0: 3aa6 883c 557a 5fbd 11e0 29bd f2d7 d0bc
000002e0: dcd6 bf3b 7cea 14bd b140 febb 672d 713c
000002f0: 958b 893c 1083 973b c0e0 36bc 236e aabb
00000300: bce2 5dbc 32b4 a1bc 8ce9 11bd 6498 24bd
00000310: 8dde a6bd 323b 2abd 65e8 2abb bfd1 0a3d
00000320: 0210 343c fd73 3c3c 50fb fb3c 432a 493c
00000330: 3343 303d 32c1 2dbd aa25 1e3d 891c 6e3c
00000340: a8a7 58bc 8987 87bc bc7e 83bc 81e3 08bd
00000350: d9f8 cdbc b075 04bc 89a2 72bc 0d7e bfbc
00000360: abfd 49bc 06a7 12bc 40b2 8bba 6b99 69bc
00000370: b5df 8f3c e3b1 eebc dce7 0ebd 1ed5 edba
00000380: bb79 06bd caf4 59bb 01fc d5bc b986 56bd
00000390: 91f5 a0bc b4f1 7bbc ea4b ac3c ae43 71bc
000003a0: 9ee4 75bc 7e92 85bc e7f0 c1bc 6660 833c
000003b0: fa20 47bc 7ffb f5bb f9e3 c73c c712 acbc
000003c0: e182 f4bc 012b 63bd 25a7 3abd 8c86 ad3a
000003d0: 9a76 d93b 0c19 153c 5cd2 1d3d 0433 e9ba
000003e0: 9198 043c d09c 3cb9 02e6 013b 3ea7 c93c
000003f0: 65d5 263c 8082 ba3b 3fa3 92bc bb6c dd3b

st_gcn_networks.2.tcn.2.bias f4 [16]
2.309537e-05 -7.127211e-05 -4.5729827e-05 1.702852e-06 1.4631546e-05 3.1869844e-05 -6.352753e-05 -5.7999205e-05
0.00012779469 2.4361338e-05 6.10589e-05 4.939613e-05 6.806704e-05 1.7765224e-05 -4.078947e-05 -9.4748606e-07
00000000: eebc c137 ec77 95b8 07ce 3fb8 8d8d e435
00000010: 037a 7537 fcab 0538 153a 85b8 2c44 73b8
00000020: a000 0639 935b cc37 bf0c 8038 b12e 4f38
00000030: 37bf 8e38 8706 9537 5c15 2bb8 bf56 7eb5

st_gcn_networks.2.tcn.3.weight f4 [16]
0.16448443 0.19826445 0.13285466 -4.4535256e-25 0.21423587 0.15531819 0.19855155 0.12366775
0.11454003 0.14922345 0.20817678 0.122653164 0.2246716 0.10755843 0.12591809 0.00030784478
00000000: 9b6e 283e d605 4b3e 0d0b 083e 77d4 0997
00000010: a660 5b3e bb0b 1f3e 1951 4b3e 8445 fd3d
00000020: f793 ea3d 08ce 183e 4b2c 553e 9531 fb3d
00000030: 5010 663e 9847 dc3d acf0 003e 3a66 a139
