weights_arm/155.pt (torch, 70926 bytes, 80 tensors)

A f4 [3, 9, 9]
0.5 0.0 0.0 0.0 0.0 0.0 0.0 0.0
0.0 0.0 0.2 0.0 0.0 0.0 0.0 0.0
0.0 0.0 0.0 0.0 0.33333334 0.0 0.0 0.0
0.0 0.0 0.0 0.0 0.0 0.0 0.33333334 0.0
0.0 0.0 0.0 0.0 0.0 0.0 0.0 0.0
0.5 0.0 0.0 0.0 0.0 0.0 0.0 0.0
0.0 0.0 0.33333334 0.0 0.0 0.0 0.0 0.0
0.0 0.0 0.0 0.0 0.33333334 0.0 0.0 0.0
0.0 0.0 0.0 0.0 0.0 0.0 0.5 0.0
0.0 0.0 0.0 0.0 0.0 0.0 0.0 0.0
0.5 0.0 0.2 0.0 0.0 0.0 0.0 0.0
0.0 0.0 0.0 0.0 0.0 0.0 0.0 0.0
0.0 0.0 0.0 0.0 0.2 0.0 0.0 0.0
0.0 0.0 0.0 0.0 0.0 0.0 0.33333334 0.0
0.5 0.0 0.0 0.0 0.0 0.0 0.0 0.0
0.33333334 0.0 0.0 0.0 0.0 0.0 0.0 0.2
0.0 0.0 0.0 0.0 0.0 0.0 0.0 0.0
0.0 0.0 0.0 0.0 0.33333334 0.0 0.5 0.0
0.0 0.0 0.0 0.0 0.0 0.0 0.33333334 0.0
0.0 0.0 0.2 0.0 0.0 0.0 0.0 0.0
0.0 0.0 0.0 0.0 0.0 0.0 0.0 0.0
0.0 0.0 0.0 0.5 0.0 0.33333334 0.0 0.0
0.33333334 0.0 0.0 0.5 0.0 0.0 0.0 0.33333334
0.0 0.0 0.0 0.0 0.0 0.0 0.0 0.0
0.0 0.0 0.0 0.0 0.0 0.0 0.0 0.0
0.0 0.0 0.0 0.0 0.0 0.0 0.0 0.0
0.0 0.0 0.0 0.0 0.0 0.33333334 0.0 0.0
0.0 0.0 0.0 0.0 0.0 0.0 0.0 0.0
0.0 0.0 0.0 0.0 0.0 0.0 0.0 0.0
0.0 0.0 0.0 0.0 0.0 0.0 0.0 0.0
0.0 0.0 0.0
00000000: 0000 003f 0000 0000 0000 0000 0000 0000
00000010: 0000 0000 0000 0000 0000 0000 0000 0000
00000020: 0000 0000 0000 0000 cdcc 4c3e 0000 0000
00000030: 0000 0000 0000 0000 0000 0000 0000 0000
00000040: 0000 0000 0000 0000 0000 0000 0000 0000
00000050: abaa aa3e 0000 0000 0000 0000 0000 0000
00000060: 0000 0000 0000 0000 0000 0000 0000 0000
00000070: 0000 0000 0000 0000 abaa aa3e 0000 0000
00000080: 0000 0000 0000 0000 0000 0000 0000 0000
00000090: 0000 0000 0000 0000 0000 0000 0000 0000
000000a0: 0000 003f 0000 0000 0000 0000 0000 0000
000000b0: 0000 0000 0000 0000 0000 0000 0000 0000
000000c0: 0000 0000 0000 0000 abaa aa3e 0000 0000
000000d0: 0000 0000 0000 0000 0000 0000 0000 0000
000000e0: 0000 0000 0000 0000 0000 0000 0000 0000
000000f0: abaa aa3e 0000 0000 0000 0000 0000 0000
00000100: 0000 0000 0000 0000 0000 0000 0000 0000
00000110: 0000 0000 0000 0000 0000 003f 0000 0000
00000120: 0000 0000 0000 0000 0000 0000 0000 0000
00000130: 0000 0000 0000 0000 0000 0000 0000 0000
00000140: 0000 003f 0000 0000 cdcc 4c3e 0000 0000
00000150: 0000 0000 0000 0000 0000 0000 0000 0000
00000160: 0000 0000 0000 0000 0000 0000 0000 0000
00000170: 0000 0000 0000 0000 0000 0000 0000 0000
00000180: 0000 0000 0000 0000 0000 0000 0000 0000
00000190: cdcc 4c3e 0000 0000 0000 0000 0000 0000
000001a0: 0000 0000 0000 0000 0000 0000 0000 0000
000001b0: 0000 0000 0000 0000 abaa aa3e 0000 0000
000001c0: 0000 003f 0000 0000 0000 0000 0000 0000
000001d0: 0000 0000 0000 0000 0000 0000 0000 0000
000001e0: abaa aa3e 0000 0000 0000 0000 0000 0000
000001f0: 0000 0000 0000 0000 0000 0000 cdcc 4c3e
00000200: 0000 0000 0000 0000 0000 0000 0000 0000
00000210: 0000 0000 0000 0000 0000 0000 0000 0000
00000220: 0000 0000 0000 0000 0000 0000 0000 0000
00000230: abaa aa3e 0000 0000 0000 003f 0000 0000
00000240: 0000 0000 0000 0000 0000 0000 0000 0000
00000250: 0000 0000 0000 0000 abaa aa3e 0000 0000
00000260: 0000 0000 0000 0000 cdcc 4c3e 0000 0000
00000270: 0000 0000 0000 0000 0000 0000 0000 0000
00000280: 0000 0000 0000 0000 0000 0000 0000 0000
00000290: 0000 0000 0000 0000 0000 0000 0000 0000
000002a0: 0000 0000 0000 0000 0000 0000 0000 003f
000002b0: 0000 0000 abaa aa3e 0000 0000 0000 0000
000002c0: abaa aa3e 0000 0000 0000 0000 0000 003f
000002d0: 0000 0000 0000 0000 0000 0000 abaa aa3e
000002e0: 0000 0000 0000 0000 0000 0000 0000 0000
000002f0: 0000 0000 0000 0000 0000 0000 0000 0000
00000300: 0000 0000 0000 0000 0000 0000 0000 0000
00000310: 0000 0000 0000 0000 0000 0000 0000 0000
00000320: 0000 0000 0000 0000 0000 0000 0000 0000
00000330: 0000 0000 0000 0000 0000 0000 0000 0000
00000340: 0000 0000 0000 0000 0000 0000 0000 0000
00000350: 0000 0000 abaa aa3e 0000 0000 0000 0000
00000360: 0000 0000 0000 0000 0000 0000 0000 0000
00000370: 0000 0000 0000 0000 0000 0000 0000 0000
00000380: 0000 0000 0000 0000 0000 0000 0000 0000
00000390: 0000 0000 0000 0000 0000 0000 0000 0000
000003a0: 0000 0000 0000 0000 0000 0000 0000 0000
000003b0: 0000 0000 0000 0000 0000 0000 0000 0000
000003c0: 0000 0000 0000 0000 0000 0000

data_bn.weight f4 [27]
0.08750656 0.044612955 0.03735963 0.24231467 0.04519366 0.055028584 0.28129333 0.19374338
0.1971659 0.44393295 0.5092759 0.3537627 0.5014265 0.5090285 0.35809222 0.26576
0.1631984 0.2314078 0.46610823 0.39611903 0.34202993 0.48793158 0.40783274 0.33562058
0.21898364 0.039304223 0.04886395
00000000: a436 b33d 13bc 363d 6906 193d 5621 783e
00000010: fd1c 393d a765 613d ae05 903e aa64 463e
00000020: dce5 493e 2e4b e33e e85f 023f 6220 b53e
00000030: 7d5d 003f b14f 023f dd57 b73e b211 883e
00000040: 7b1d 273e 2bf6 6c3e bda5 ee3e 1dd0 ca3e
00000050: 8c1e af3e 2bd2 f93e 74cf d03e 76d6 ab3e
00000060: 3f3d 603e 77fd 203d 9125 483d

data_bn.bias f4 [27]
-0.014573414 0.026666973 -0.014989395 -0.016135352 -0.018484946 0.0011115824 0.042675048 0.017401885
0.009129395 -0.019922456 0.0032780669 0.011608905 -0.009768011 0.0064284424 -0.001360697 0.019538356
0.04423111 0.037736293 0.007802244 -0.013549435 -0.021837186 -0.023369191 -0.02924053 0.0032684123
0.010350687 0.018311232 0.011073525
00000000: 54c5 6ebc b274 da3c 1496 75bc 492e 84bc
00000010: be6d 97bc 84b2 913a 08cc 2e3d 668e 8e3c
00000020: 7593 153c 6b34 a3bc d6d4 563b 4733 3e3c
00000030: 020a 20bc afa5 d23b 6a59 b2ba e70e a03c
00000040: ae2b 353d 5f91 1a3d f7a9 ff3b 73fe 5dbc
00000050: e6e3 b2bc bf70 bfbc d689 efbc dc32 563b
00000060: ee95 293c 7001 963c bb6d 353c

data_bn.running_mean f4 [27]
89.3765 77.20405 20.872488 98.08064 84.14831 22.392262 87.98949 79.4103
21.440157 98.87703 81.514725 21.643854 106.28631 79.01972 21.070112 107.99373
88.8896 23.368206 129.09154 95.94229 24.840115 127.10447 88.99613 23.872393
104.71567 95.11094 24.675388
00000000: c5c0 b242 7968 9a42 dbfa a641 4a29 c442
00000010: ef4b a842 5a23 b341 9efa af42 13d2 9e42
00000020: 7185 ab41 0ac1 c542 8a07 a342 9d26 ad41
00000030: 9792 d442 190a 9e42 978f a841 cafc d742
00000040: 7ac7 b142 16f2 ba41 6f17 0143 74e2 bf42
00000050: 8eb8 c641 7d35 fe42 05fe b142 a9fa be41
00000060: 6c6e d142 cd38 be42 3267 c541

data_bn.running_var f4 [27]
12432.673 21345.996 6937.293 12989.042 23495.22 7708.2314 9957.12 20517.498
6961.689 12708.535 19240.578 6742.344 14425.1455 17740.371 6349.454 17019.023
26749.803 8513.208 22448.312 27775.746 9067.473 21217.957 23910.35 8191.386
17644.104 25059.672 8608.451
00000000: b142 4246 fec3 a646 58ca d845 2bf4 4a46
00000010: 718e b746 dae1 f045 7b94 1b46 ff4a a046
00000020: 838d d945 2492 4646 2851 9646 c1b2 d245
00000030: 9564 6146 be98 8a46 a26b c645 0cf6 8446
00000040: 9bfb d046 d504 0546 a060 af46 7eff d846
00000050: e4ad 0d46 eac3 a546 b3cc ba46 17fb ff45
00000060: 35d8 8946 58c7 c346 ce81 0646

st_gcn_networks.0.gcn.conv.weight f4 [24, 3, 1, 1]
-0.065732405 -0.010812788 0.0027655372 0.1482151 -0.05844173 0.06277176 0.06891021 0.0023201227
0.0495718 -0.02569399 -0.0211368 0.12538087 0.029723173 -0.013848792 -0.20853327 0.21903104
0.29021943 0.07713295 -0.22343257 0.16416769 0.07257937 -0.18865578 0.072034754 -0.13192251
-0.04823036 -0.05009182 -0.013800392 -0.24301374 -0.08483182 0.034582395 0.15995878 -0.013967636
-0.017567364 -0.13224526 -0.13933985 0.002053701 0.00030948184 -0.022176446 0.1941089 -0.046911415
-0.23505343 -0.12871186 0.061952155 0.067830585 0.046843633 0.17521922 -0.100408904 0.1641799
-0.011705464 -0.0014322011 0.0121093355 -0.043455854 -0.025871066 -0.07578771 0.1540395 -0.033458702
0.042200066 -0.032838605 -0.027268827 0.0050847162 -0.20620105 0.015948243 -0.009472852 0.04297629
-0.05656732 0.10645158 0.03730925 -0.056965772 -0.0027990704 -0.104481936 0.14106324 0.049866
00000000: b69e 86bd 1f28 31bc 043e 353b b3c5 173e
00000010: 9860 6fbd 7b8e 803d cc20 8d3d 330d 183b
00000020: cd0b 4b3d 347c d2bc 1527 adbc d863 003e
00000030: 037e f33c 0be6 62bc bf89 55be ac49 603e
00000040: a497 943e e1f7 9d3d 82cb 64be 931b 283e
00000050: 7ea4 943d fb2e 41be f586 933d b216 07be
00000060: 338d 45bd 152d 4dbd 0a1b 62bc 98d8 78be
00000070: 4ebc adbd 45a6 0d3d 3ccc 233e 83d8 64bc
00000080: 6fe9 8fbc 4d6b 07be 1baf 0ebe 6397 063b
00000090: f341 a239 61ab b5bc 7cc4 463e 2f26 40bd
000000a0: d9b1 70be 0bcd 03be 8bc1 7d3d c3ea 8a3d
000000b0: 1cdf 3f3d ab6c 333e 2fa3 cdbd c71e 283e
000000c0: 46c8 3fbc b2b8 bbba 3c66 463c c4fe 31bd
000000d0: 8fef d3bc 9636 9bbd 88bc 1d3e fe0b 09bd
000000e0: fad9 2c3d c681 06bd e062 dfbc b19d a63b
000000f0: 5e26 53be e4a5 823c 0534 1bbc e807 303d
00000100: 22b3 67bd 4903 da3d 96d1 183d f154 69bd
00000110: 9c70 37bb a0fa d5bd e272 103e 4a40 4c3d

st_gcn_networks.0.gcn.conv.bias f4 [24]
0.031871554 0.04514116 0.048581347 0.07426788 -0.01472688 -0.17167754 -0.015438815 0.122756205
-0.06731334 0.015806092 0.087097816 -0.027016502 0.023976954 0.13717616 0.15116738 -0.017123986
-0.017589469 -0.15261929 0.022250975 -0.06320264 0.040454183 0.028777454 -0.029212095 0.002936527
00000000: bf8b 023d f0e5 383d 3cfd 463d c219 983d
00000010: 0349 71bc 3dcc 2fbe 15f3 7cbc 9b67 fb3d
00000020: 94db 89bd c77b 813c 5760 b23d b651 ddbc
00000030: 516b c43c e877 0c3e 9fcb 1a3e 9a47 8cbc
00000040: ca17 90bc 3b48 1cbe ad47 b63c 6370 81bd
00000050: 49b3 253d b2be eb3c 344e efbc bf72 403b

st_gcn_networks.0.tcn.0.weight f4 [8]
0.14486893 0.30423945 0.37851956 0.26515004 0.24920976 0.32883126 0.3273325 0.34006006
00000000: 8558 143e 46c5 9b3e 51cd c13e bfc1 873e
00000010: d830 7f3e 925c a83e 2098 a73e 5a1c ae3e

st_gcn_networks.0.tcn.0.bias f4 [8]
0.05062381 0.03707363 0.05420388 0.023848278 -0.04075633 0.053557664 -0.008734723 -0.03951807
00000000: ea5a 4f3d 85da 173d e304 5e3d 775d c33c
00000010: 1cf0 26bd 485f 5b3d 151c 0fbc b3dd 21bd

st_gcn_networks.0.tcn.0.running_mean f4 [8]
-0.004054723 0.00075702474 0.016697913 0.0037905101 0.00244802 -0.0053308215 0.013551269 0.013902848
00000000: 7bdd 84bb 1273 463a 10ca 883c 356a 783b
00000010: f66e 203b 2cae aebb 2406 5e3c c5c8 633c

st_gcn_networks.0.tcn.0.running_var f4 [8]
9.4186435e-05 0.0001901028 0.00027908167 0.00024784452 1.6096974e-05 0.00021712027 0.0003217848 6.172346e-05
00000000: f585 c538 5556 4739 b551 9239 21f1 8139
00000010: fd07 8737 c7aa 6339 3ab5 a839 8871 8138

st_gcn_networks.0.tcn.2.weight f4 [8, 8, 9, 1]
-0.03711072 -0.017178392 0.01842658 -0.0031537917 0.01272927 -0.023407046 0.0017494552 -0.007581886
0.012379759 0.03234807 -0.05511939 -0.030744608 -0.0068717985 -0.005678999 0.023206381 0.013512376
-0.004294875 -0.017267497 0.045880552 0.052066952 0.028777683 0.065541394 -0.017049763 0.093411654
-0.05748824 0.026317334 -0.055871993 0.011192647 -0.019774519 0.062246587 0.005158097 0.02274211
0.03021124 0.01949086 0.041477777 0.026418505 -0.07249319 -0.026151475 0.039467406 -0.020994974
-0.025125993 0.021989744 0.021294251 -0.04951932 0.0150223775 -0.028740495 0.0036175663 0.008158239
0.02176943 0.034287892 0.0109787965 -0.005004126 0.015537303 0.010013278 0.029106915 0.021910254
0.0033304025 -0.03962563 -0.025449581 -0.014380083 -0.034835663 0.055832278 -0.01504092 -0.024527036
-0.12107275 -0.0042757555 -0.054288574 0.0016067445 -0.07551198 -0.020088373 -0.025567416 0.0048904284
0.024340238 -0.013653225 -0.0040909587 -0.0062500746 0.01299609 0.011112446 0.048338342 -6.6291934e-05
-0.006767722 0.02482265 0.01931881 0.043282535 0.008759449 -0.02242576 0.000120040815 0.025763739
-0.007727859 0.03409299 0.032196015 0.07681093 0.081722304 0.0008361203 -0.018617012 -0.06249298
-0.014670292 0.019140767 -0.010579198 0.04873468 -0.028086917 0.022990847 0.0099762445 0.016407395
0.008827424 0.03772598 -0.029864827 -0.011924989 0.02054662 0.009938012 0.024407085 0.020515088
0.01736199 -0.029099105 0.046411525 0.051433466 0.010549337 -0.018448668 0.037524175 0.0240095
-0.037292793 0.02035754 -0.030362872 -0.05135737 -0.021918686 -0.014100851 -0.062786944 -0.048442464
-0.069775134 -0.052036457 -0.023243235 0.036975075 0.028924985 -0.04033553 0.06075537 0.032583624
-0.053541128 -0.022497624 -0.0038691633 0.021791324 -0.038908564 0.022916459 -0.021213515 -0.026896633
-0.022230681 -0.0066873906 -0.014751265 0.05765354 -0.019560698 -0.009019183 0.024311516 -0.022740647
-0.013408696 -0.0049906853 -0.0041831234 -0.014468467 0.022366907 -0.023539718 0.010114074 0.0094611775
-0.036998734 0.008404486 0.07180155 -0.0033971844 0.0056450185 -0.08205936 0.057013914 -0.0035193022
0.046689346 -0.06789195 0.03401186 0.028801743 -0.027345397 -0.0312432 0.028438764 0.012734358
-0.033288397 -0.0020638187 -0.03576962 0.024332693 -0.0043441313 0.01586673 0.048538767 0.005396456
-0.06498618 -0.01875274 -0.031077115 -0.015229869 -0.0017596732 -0.040270787 -0.06212446 0.057139874
-0.046948645 -0.058853824 0.010729254 0.04051633 -0.049101356 0.08247179 0.010344775 -0.033011965
-0.062395547 0.055148292 0.09469904 0.021994414 -0.038123727 0.031125166 0.043001913 -0.046336714
-0.025336372 -0.07955555 0.040658005 0.0027196212 0.061311398 -0.04507572 -0.033998128 -0.020732656
-0.01112309 -0.008299493 0.008443094 0.0049272026 0.018852273 -0.01773413 -0.009343388 -0.021374661
0.00951301 -0.0026352443 0.01854869 -0.015352368 -0.011168299 0.028650472 0.037343398 0.026826276
0.0014315286 0.035807185 0.01630728 0.012134899 0.003582589 -0.01337842 -0.010368097 -0.0114144925
0.009908276 0.007351408 -0.057876073 0.013539428 -0.034257766 -0.032554682 -0.047658466 -0.042004235
-0.011345442 -0.033616118 -0.03996067 0.020718662 -0.0041912333 -0.048280228 -0.0009646638 0.037270084
00000000: 6901 18bd b3b9 8cbc 57f3 963c d8af 4ebb
00000010: 6e8e 503c 22c0 bfbc fa4d e53a 7871 f8bb
00000020: 79d4 4a3c 697f 043d dfc4 61bd 1edc fbbc
00000030: d32c e1bb e516 babb 4f1b be3c 0363 5d3c
00000040: 06bc 8cbb 9174 8dbc 3fed 3b3d 2844 553d
00000050: 2dbf eb3c 913a 863d f2ab 8bbc 9c4e bf3d
00000060: ca78 6bbd 7397 d73c 08da 64bd 5d61 373c
00000070: 2cfe a1bc 47f6 7e3d 4105 a93b a94d ba3c
00000080: 907d f73c 4cab 9f3c 9ae4 293d 9f6b d83c
00000090: 4f77 94bd 9e3b d6bc 93a8 213d a7fd abbc
000000a0: 07d5 cdbc d623 b43c 4871 ae3c c5d4 4abd
000000b0: 6b20 763c 3071 ebbc b114 6d3b 22aa 053c
000000c0: ce55 b23c 7671 0c3d 69e0 333c a7f9 a3bb
000000d0: 2c90 7e3c bb0e 243c a071 ee3c 227d b33c
000000e0: e242 5a3b 7c4e 22bd a47b d0bc 719a 6bbc
000000f0: d7af 0ebd 63b0 643d 316e 76bc ecec c8bc
00000100: fdf4 f7bd a31b 8cbb b25d 5ebd 6699 d23a
00000110: 06a6 9abd 5f90 a4bc c272 d1bc e33f a03b
00000120: 2e65 c73c c7b1 5fbc 730d 86bb 6dcd ccbb
00000130: 8ded 543c fa10 363c 6dfe 453d 3606 8bb8
00000140: c4c3 ddbb df58 cb3c 7b42 9e3c 0749 313d
00000150: cb83 0f3c 3ab6 b7bc 6cbe fb38 7a0e d33c
00000160: fb39 fdbb 17a5 0b3d f8df 033d 0d4f 9d3d
00000170: 065e a73d 152f 5b3a b482 98bc a4f8 7fbd
00000180: aa5b 70bc 19cd 9c3c 5f54 2dbc 049e 473d
00000190: 8916 e6bc 4d57 bc3c 6773 233c cd68 863c
000001a0: e6a0 103c 8f86 1a3d 15a7 f4bc 0761 43bc
000001b0: 6351 a83c 0bd3 223c 5ef1 c73c 420f a83c
000001c0: bb3a 8e3c 3f61 eebc 031a 3e3d e6ab 523d
000001d0: 20d7 2c3c a921 97bc f3b2 193d 92af c43c
000001e0: 54c0 18bd dbc4 a63c 8fbb f8bc 1b5c 52bd
000001f0: d18e b3bc 4107 67bc 7196 80bd 9b6b 46bd
00000200: 44e6 8ebd 2e24 55bd 9968 bebc 2d73 173d
00000210: 17f4 ec3c de36 25bd 9fda 783d 6876 053d
00000220: f14d 5bbd f04c b8bc ca91 7dbb b883 b23c
00000230: 965e 1fbd 4cbb bb3c f7c7 adbc 5456 dcbc
00000240: 1e1d b6bc e621 dbbb 4aaf 71bc 1e26 6c3d
00000250: c23d a0bc 32c5 13bc f228 c73c 984a babc
00000260: 26b0 5bbc e788 a3bb 9512 89bb 260d 6dbc
00000270: ce3a b73c 5ed6 c0bc 80b5 253c 0e03 1b3c
00000280: fc8b 17bd f8b2 093c b10c 933d 4ca3 5ebb
00000290: d9f9 b83b bd0e a8bd 6c87 693d 18a4 66bb
000002a0: 543d 3f3d ef0a 8bbd 0550 0b3d a2f1 eb3c
000002b0: 7403 e0bc bdf1 ffbc 69f8 e83c c5a3 503c
000002c0: 6a59 08bd 2241 07bb 2a83 12bd 5b55 c73c
000002d0: 3759 8ebb f2fa 813c 96d0 463d c1d4 b03b
000002e0: 7917 85bd 599f 99bc 6f95 febc b386 79bc
000002f0: d6a4 e6ba fbf2 24bd 3876 7ebd 800b 6a3d
00000300: 394d 40bd b510 71bd c1c9 2f3c 74f4 253d
00000310: 811e 49bd f8e6 a83d 227d 293c 8e37 07bd
00000320: 7992 7fbd 2de3 613d 92f1 c13d a12d b43c
00000330: a027 1cbd 34fa fe3c c622 303d 91cb 3dbd
00000340: 398e cfbc 05ee a2bd 0289 263d ac3b 323b
00000350: a921 7b3d 51a1 38bd 9f41 0bbd 88d7 a9bc
00000360: 9f3d 36bc 99fa 07bc e754 0a3c 5f74 a13b
00000370: 1570 9a3c 2b47 91bc 0215 19bc ea19 afbc
00000380: 75dc 1b3c 10b4 2cbb 6cf3 973c 8088 7bbc
00000390: 3efb 36bc 65b4 ea3c 64f5 183d c7c2 db3c
000003a0: 21a2 bb3a 8eaa 123d d896 853c 75d1 463c
000003b0: dfc9 6a3b 2931 5bbc f3de 29bc da03 3bbc
000003c0: 5256 223c 14e4 f03b 760f 6dbd 7ad4 5d3c
000003d0: df51 0cbd 0f58 05bd 8635 43bd a20c 2cbd
000003e0: 3ce2 39bc 0eb1 09bd cdad 23bd 2fba a93c
000003f0: 9d56 89bb 7dc1 45bd 7ee1 7cba 84a8 183d

st_gcn_networks.0.tcn.2.bias f4 [8]
-4.9224473e-05 -1.7298915e-05 3.3647073e-05 6.5369146e-05 1.1466942e-05 4.1866533e-06 6.908043e-06 -2.6730491e-05
00000000: 6076 4eb8 231d 91b7 4520 0d38 cb16 8938
00000010: 2462 4037 147b 8c36 a3cb e736 4b3b e0b7

st_gcn_networks.0.tcn.3.weight f4 [8]
0.33616078 0.2984342 0.2670679 0.22995801 0.19580759 0.3167406 0.34688112 0.2978514
00000000: 441d ac3e 5ecc 983e 20bd 883e 1d7a 6b3e
00000010: c981 483e d32b a23e 679a b13e fb7f 983e

st_gcn_networks.0.tcn.3.bias f4 [8]
-0.040518828 0.0017016127 0.054253556 0.015954413 -0.013055742 0.037131537 0.031082114 -0.018211627
00000000: 12f7 25bd a608 df3a fa38 5e3d d4b2 823c
00000010: c0e7 55bc 3d17 183d eb9f fe3c 8d30 95bc

st_gcn_networks.0.tcn.3.running_mean f4 [8]
0.010195041 0.012041217 -0.015456697 -0.03544563 0.028658306 0.03921921 -0.0030679465 0.011217316
00000000: 1a09 273c 8648 453c 163e 7dbc 702f 11bd
00000010: d3c4 ea3c 53a4 203d 9a0f 49bb d5c8 373c

st_gcn_networks.0.tcn.3.running_var f4 [8]
0.0053044865 0.0032302614 0.0017469765 0.0009053735 0.0015041761 0.004422344 0.0046135504 0.0034440353
00000000: 42d1 ad3b cbb2 533b cefa e43a 9656 6d3a
00000010: c627 c53a 4fe9 903b 442d 973b 53b5 613b

st_gcn_networks.1.gcn.conv.weight f4 [24, 8, 1, 1]
-0.022182016 -0.038288753 0.05659848 0.05591272 -0.013544361 0.021038987 0.008816428 0.04317531
-0.003583003 -0.018225199 0.085805774 -0.03604156 0.031883724 -0.025085863 0.0652062 0.024716277
0.07218321 -0.0665975 -0.028206805 0.079085395 0.062097162 0.06782849 -0.03010872 -0.019516693
0.007441373 -0.030342499 -0.030525627 -0.03556199 -0.068734765 -0.09649515 0.045903344 -0.093866825
-0.027732423 0.0067749918 0.06943079 -0.045632675 0.016194418 0.023960184 0.037818138 -0.0103112
0.0090526985 -0.08709361 0.033314977 -0.061283562 -0.013968514 0.0017883794 -0.08417628 0.01270392
-0.022407364 -0.006418921 0.051546283 0.0018892627 0.021475889 0.022180231 -0.046212256 -0.028942565
-0.031002264 -0.00465664 -0.033859793 -0.03276114 -0.013078195 0.056887224 0.004983615 0.07755013
-0.019471979 0.072188124 0.013911171 -0.033171993 -0.060564216 0.010291525 0.07710168 0.09890038
-0.058133703 -0.010750371 -0.059690513 -0.023610322 -0.0075831483 -0.033410348 0.056578115 0.0050824406
0.013726984 -0.004200862 0.055754233 -0.04975095 -0.046386104 -0.09892839 0.09682103 -0.050987042
-0.022034297 0.12267843 0.06985252 0.025706876 -0.057944074 0.0687817 -0.035489418 -0.09765441
-0.03988988 -0.016489742 0.07635721 0.047046777 0.0030989076 0.021045191 -0.027527569 0.04044428
0.084502704 -0.04509443 -0.0049826354 -0.064807 0.029970303 -0.08057917 0.08186721 0.051420607
-0.06601332 -0.11137173 0.04249362 0.040383868 -0.07267094 -0.04697644 0.029074717 0.07400695
0.030178552 0.008121115 -0.011731322 -0.0023459103 -0.0019054011 0.019725613 0.03843512 -0.008996957
-0.01424759 -0.016686678 0.040131185 0.07518297 -0.01630301 0.042947162 -0.044272307 -0.0017533717
0.06538595 0.016982172 0.02339982 -0.022503726 0.008572349 0.049755596 0.089588895 0.018250586
-0.0046896315 0.02263363 -0.03270373 -0.06526587 -0.00607902 -0.05298543 0.058824502 0.025096383
0.06978228 -0.03346014 -0.029527593 -0.064728685 -0.010742036 -0.024390226 0.15135387 0.0011557967
0.0020375387 0.0016587743 0.0049635307 -0.07136531 0.029936558 -0.012912227 0.007946826 0.000533446
-0.015068429 -0.041360613 -0.018395135 0.020928599 -0.07034774 -0.0660255 -0.040868267 -0.004455668
0.06833868 0.038751714 0.029838802 -0.096301824 0.05861212 0.036785204 -0.014364147 -0.029609565
0.00053830486 -0.009854483 0.031608175 0.008844764 0.007943186 -0.034350082 0.0006923498 0.065702684
00000000: 0fb7 b5bc abd4 1cbd cfd3 673d bc04 653d
00000010: 2be9 5dbc f459 ac3c c772 103c 98d8 303d
00000020: d1d0 6abb 034d 95bc f0ba af3d 51a0 13bd
00000030: 8298 023d de80 cdbc d48a 853d ca79 ca3c
00000040: cad4 933d 4564 88bd f511 e7bc 86f7 a13d
00000050: 9859 7e3d aae9 8a3d 90a6 f6bc 79e1 9fbc
00000060: c3d6 f33b d590 f8bc e110 fabc 73a9 11bd
00000070: d0c4 8cbd 409f c5bd 2505 3c3d 403d c0bd
00000080: 1b2f e3bc c000 de3b bb31 8e3d 54e9 3abd
00000090: 28aa 843c 2648 c43c 31e7 1a3d 4ff0 28bc
000000a0: c551 143c 225e b2bd 4975 083d 7904 7bbd
000000b0: 32dc 64bc 0e68 ea3a 9d64 acbd 1a24 503c
000000c0: a68f b7bc d055 d2bb 3222 533d 23a1 f73a
000000d0: 34ee af3c 51b3 b53c 1049 3dbd f518 edbc
000000e0: 76f8 fdbc ba96 98bb 91b0 0abd 8c30 06bd
000000f0: ed45 56bc 9402 693d 984d a33b 9ad2 9e3d
00000100: b383 9fbc 5ed7 933d aeeb 633c 5bdf 07bd
00000110: 2f12 78bd c99d 283c 7ce7 9d3d 488c ca3d
00000120: 9b1d 6ebd 5322 30bc 0a7e 74bd 6f6a c1bc
00000130: 0f7c f8bb 4ad9 08bd 74be 673d 9a8a a63b
00000140: 25e7 603c 62a7 89bb 8d5e 643d a7c7 4bbd
00000150: 5bff 3dbd f89a cabd 1b4a c63d cad7 50bd
00000160: 4581 b4bc d43e fb3d d70e 8f3d 3a97 d23c
00000170: c456 6dbd 6cdd 8c3d 5a5d 11bd 09ff c7bd
00000180: 9263 23bd 7f15 87bc 2b61 9c3d 1fb4 403d
00000190: 0b17 4b3b f766 ac3c 7f81 e1bc e7a8 253d
000001a0: c10f ad3d f0b4 38bd 6045 a3bb 88b9 84bd
000001b0: 4884 f53c b106 a5bd ffa9 a73d 6a9e 523d
000001c0: fe31 87bd dd16 e4bd ca0d 2e3d 8e69 253d
000001d0: 80d4 94bd 5e6a 40bd 1a2e ee3c f590 973d
000001e0: 0339 f73c 6d0e 053c bb34 40bc d8bd 19bb
000001f0: a7be f9ba 9c97 a13c 256e 1d3d f967 13bc
00000200: b96e 69bc 80b2 88bc 9960 243d 87f9 993d
00000210: e48d 85bc 5de9 2f3d e156 35bd 64d1 e5ba
00000220: 12e9 853d 321e 8b3c fbb0 bf3c bc59 b8bc
00000230: 0a73 0c3c 86cc 4b3d 627a b73d 4182 953c
00000240: 7bab 99bb 2a6a b93c 59f4 05bd 1daa 85bd
00000250: 8432 c7bb 4007 59bd f6f1 703d ee96 cd3c
00000260: 03ea 8e3d 800d 09bd dae3 f1bc 7990 84bd
00000270: 5dff 2fbc 03ce c7bc 82fc 1a3e 1a7e 973a
00000280: 3a88 053b 3b6b d93a 1da5 a23b fa27 92bd
00000290: 833d f53c ce8d 53bc 6733 023c f4d6 0b3a
000002a0: 92e1 76bc bf69 29bd 65b1 96bc 7472 ab3c
000002b0: 7a12 90bd 6138 87bd 7c65 27bd da00 92bb
000002c0: 26f5 8b3d 1eba 1e3d 8170 f43c e439 c5bd
000002d0: 4313 703d 15ac 163d 9957 6bbc c28f f2bc
000002e0: 071d 0d3a b374 21bc 9377 013d a1e9 103c
000002f0: 2324 023c acb2 0cbd cf7e 353a 218f 863d

st_gcn_networks.1.gcn.conv.bias f4 [24]
0.0012408189 0.014238846 -0.017741079 0.034223344 0.006372317 -0.0043615075 0.0032895869 0.00013549271
-0.06953415 -0.0067033176 0.016402453 -0.0004034874 -0.05613416 0.012709181 0.05233117 -0.0075348523
-0.009263335 -0.041291356 0.005609306 0.017986655 0.007393569 -0.01426365 0.024209643 -0.008799583
00000000: f9a2 a23a 0c4a 693c bd55 91bc c72d 0c3d
00000010: dfce d03b faea 8ebb 1c96 573b 0c13 0e39
00000020: ec67 8ebd 81a7 dbbb 705e 863c 298b d3b9
00000030: efec 65bd 2b3a 503c 3559 563d ece6 f6bb
00000040: 3ec5 17bc 2021 29bd 45ce b73b c058 933c
00000050: c145 f23b 16b2 69bc 4d53 c63c 202c 10bc

st_gcn_networks.1.tcn.0.weight f4 [8]
0.21355227 0.19216007 0.26902303 0.2921384 0.15749879 0.22939834 0.25811088 0.2054873
00000000: 72ad 5a3e 9cc5 443e 63bd 893e 2a93 953e
00000010: 5d47 213e 66e7 6a3e 1c27 843e 436b 523e

st_gcn_networks.1.tcn.0.bias f4 [8]
-0.031735 0.009113716 0.022032268 0.0014208406 -0.022743326 -0.006186942 -0.033498175 -0.024529578
00000000: 8ffc 01bd b251 153c 047d b43c 803b ba3a
00000010: 3650 babc d5bb cabb 6235 09bd 41f2 c8bc

st_gcn_networks.1.tcn.0.running_mean f4 [8]
-0.00090509834 -0.00017064017 -5.1576746e-05 0.0010848456 -0.0020267242 -0.00070952653 0.002426631 0.0003845453
00000000: 1f44 6dba dfed 32b9 1c54 58b8 6131 8e3a
00000010: cad2 04bb 85ff 39ba 1d08 1f3b cc9c c939

st_gcn_networks.1.tcn.0.running_var f4 [8]
4.2390125e-06 4.756814e-06 1.28078345e-05 9.156218e-06 6.7132237e-06 4.9015302e-06 1.2918412e-05 5.9033036e-06
00000000: d73c 8e36 b99c 9f36 3be1 5637 a89d 1937
00000010: 2742 e136 d377 a436 28bc 5837 fe14 c636

st_gcn_networks.1.tcn.2.weight f4 [8, 8, 9, 1]
-0.013939752 0.0029610926 0.019177534 -0.010564941 -0.011521649 -0.038980868 -0.002698927 0.008970186
0.038017172 -0.051074035 0.00951644 0.042201143 0.0050077536 -0.043021258 -0.031163735 0.026485026
0.02363878 -0.017962782 0.007886376 -0.018654391 0.052395307 -0.012279417 0.008587157 -0.005157802
0.04673844 -0.03536107 -0.053282246 0.009278231 0.013382734 0.028428031 0.002449558 0.0282384
0.04803678 -0.044366766 -0.046175268 -0.04018058 -0.00492891 -0.013980786 -0.010755103 -0.0016086219
0.0059435386 0.040375527 0.017092226 0.016328054 0.030390572 -0.0017987129 -0.04074984 0.029333241
0.017813472 -0.019846875 -0.012047023 -0.0073096156 -0.007857613 -0.011967554 -0.010902749 0.008667455
0.009071917 -0.017776133 0.03207253 0.02468071 0.025565978 0.002843467 0.010404828 0.01182246
-0.0086047 -0.056285862 -0.053334054 0.033903126 -0.02437171 -0.011983787 0.010225793 -0.004248722
0.0016231702 -0.034530073 -0.00032752278 -0.0019194896 -0.008533909 -0.038437903 0.009231571 0.019526133
-0.04723062 -0.04767498 -0.011821768 -0.016114708 -0.07409037 0.024180805 0.005590379 0.04405329
0.009967804 0.041870806 -0.032070242 -0.010038148 0.01507027 -0.012474049 0.029328937 0.036128774
0.0033266738 0.0506602 0.0234108 0.016144693 0.058109906 -0.0023581672 0.026478441 -0.005745954
0.031092422 0.0098870555 -0.0141601935 0.029299986 -0.030207012 0.015503388 -0.024631187 -0.024222624
0.00073093537 0.0053786323 0.02147071 -0.028277045 0.020115938 0.017575609 -0.003042764 -0.007551132
-0.0142174745 -0.011675875 0.005417825 0.006337645 0.0042541246 0.056315996 -0.02050203 0.0067191035
0.04314656 -0.030866453 0.026657695 -0.013015992 0.02723516 -0.018478869 0.027726382 -0.011758268
-0.036842268 -0.022578916 -0.020183884 -0.028891858 0.021512559 0.0032413504 -0.0056117447 0.009871326
-0.00027330907 -0.05569452 -0.021885976 0.0019487378 -0.0011715157 0.0036755053 0.0065003927 -0.03839744
-0.05400943 0.036043044 -0.033866074 -0.029500674 -0.008521495 -0.0031459848 -0.010393009 -0.018986257
0.0066130594 -0.0014079395 0.04108301 -0.041041397 0.014885244 0.045492757 -0.06303218 0.027088596
0.035304707 0.024954073 0.009076786 -0.02661584 0.041821145 -0.0421805 0.008806952 -0.013977679
-0.03087238 -0.04253904 0.022935636 -0.018180579 0.0020311223 0.01974949 -0.007988904 0.05625651
-0.016414417 -0.024391351 0.019696059 -0.028939469 -0.029584182 0.0020999592 -0.015771016 0.045488305
-0.011749369 0.007911164 -0.033266127 -0.00038255233 -0.082025535 -0.053646874 -0.008733292 -0.0033560877
0.023664286 0.057968255 -0.012812023 -0.010615042 0.0067165075 0.015038746 0.0543033 0.0077205375
0.030438062 0.024927858 -0.012356491 0.017205402 -0.017856132 0.013191812 -0.0020749853 -0.018384641
-0.00827697 -0.016970333 0.05261152 -0.02477877 -0.035403974 -0.0028310642 -0.03316363 -0.06315376
0.029300155 0.045631316 0.012566704 0.008785729 0.012885372 0.032665074 0.0016653578 -0.036474757
-0.036681715 0.011952248 0.0116255665 0.0022650526 0.02798309 -0.029643795 0.017148066 -0.00609534
0.009199866 -0.0005445326 0.04855767 -0.00639294 -0.00075364474 -0.01673966 0.03065061 -0.008427012
-0.030608727 -0.00532377 0.02454461 -0.058519285 0.017093316 -0.003976006 -0.02182999 -0.042253952
00000000: 8f63 64bc e40e 423b 341a 9d3c 9318 2dbc
00000010: 4cc5 3cbc 67aa 1fbd 7be0 30bb b0f7 123c
00000020: e5b7 1b3d 0233 51bd d8ea 1b3c 1bdb 2c3d
00000030: 1518 a43b 0f37 30bd 174b ffbc 20f7 d83c
00000040: 1da6 c13c af26 93bc dc35 013c 18d1 98bc
00000050: 769c 563d 9c2f 49bc 26b1 0c3c c702 a9bb
00000060: ce70 3f3d c5d6 10bd 7c3e 5abd b903 183c
00000070: 4143 5b3c e7e1 e83c c388 203b 3854 e73c
00000080: 37c2 443d edb9 35bd 4722 3dbd 6494 24bd
00000090: b282 a1bb ab0f 65bc 2c36 30bc 65d8 d2ba
000000a0: 04c2 c23b cf60 253d ff04 8c3c 69c2 853c
000000b0: a6f5 f83c cac2 ebba 4ee9 26bd 444c f03c
000000c0: 8fed 913c ea95 a2bc e060 45bc 8085 efbb
000000d0: 38bd 00bc 8f13 44bc 72a1 32bc f101 0e3c
000000e0: 61a2 143c 419f 91bc 7c5e 033d 332f ca3c
000000f0: be6f d13c 7659 3a3b 0379 2a3c feb2 413c
00000100: bafa 0cbc 018c 66bd cf74 5abd 01de 0a3d
00000110: 2ea7 c7bc a557 44bc 168a 273c dd38 8bbb
00000120: 8ec0 d43a 686f 0dbd 5db7 abb9 6297 fbba
00000130: cfd1 0bbc 1071 1dbd 0440 173c 45f5 9f3c
00000140: e574 41bd d746 43bd 17b0 41bc fe02 84bc
00000150: b1bc 97bd d316 c63c 7f2f b73b 3971 343d
00000160: 0050 233c b980 2b3d 165c 03bd 0b77 24bc
00000170: 4be9 763c f45f 4cbc 3d43 f03c c4fb 133d
00000180: 5304 5a3b 1281 4f3d 02c8 bf3c e041 843c
00000190: a704 6e3d 7b8b 1abb 51e9 d83c 8e48 bcbb
000001a0: 89b5 fe3c 51fd 213c 2800 68bc 8606 f03c
000001b0: b274 f7bc ec01 7e3c 58c7 c9bc 866e c6bc
000001c0: 3e9c 3f3a 3d3f b03b 58e3 af3c 43a5 e7bc
000001d0: 2eca a43c b9fa 8f3c 1c69 47bb 7c6f f7bb
000001e0: 69f0 68bc 2b4c 3fbc 0388 b13b 05ac cf3b
000001f0: 2f66 8b3b 9aab 663d e0f3 a7bc ed2b dc3b
00000200: 73ba 303d a5db fcbc 3d61 da3c 0741 55bc
00000210: 451c df3c ff60 97bc 7022 e33c c0a5 40bc
00000220: ebe7 16bd 6bf7 b8bc ac58 a5bc 9eae ecbc
00000230: 1b3b b03c d66c 543b bae2 b7bb 58bb 213c
00000240: ec4a 8fb9 f01f 64bd 384a b3bc ca6c ff3a
00000250: 8b8d 99ba bfe0 703b 3f01 d53b a246 1dbd
00000260: fe38 5dbd dfa1 133d 27b7 0abd 66ab f1bc
00000270: be9d 0bbc de2c 4ebb 7047 2abc 1189 9bbc
00000280: 5db2 d83b 9c8a b8ba a946 283d 061b 28bd
00000290: 3de1 733c 9d56 3a3d 0417 81bd e7e8 dd3c
000002a0: ab9b 103d 7c6c cc3c cdb6 143c 7609 dabc
000002b0: a64c 2b3d 76c5 2cbd 094b 103c a302 65bc
000002c0: 13e8 fcbc 6b3d 2ebd 84e3 bb3c 70ef 94bc
000002d0: 941c 053b afc9 a13c e4e3 02bc 3a6d 663d
000002e0: 8777 86bc 5fd0 c7bc a159 a13c 7712 edbc
000002f0: 875a f2bc 789f 093b 3832 81bc f251 3a3d
00000300: 6d80 40bc d49d 013c 1042 08bd 4e91 c8b9
00000310: 01fd a7bd d3bc 5bbd 1516 0fbc cff1 5bbb
00000320: 9bdb c13c 1f70 6d3d 85e9 51bc b7ea 2dbc
00000330: 2616 dc3b 1365 763c 236d 5e3d 90fc fc3b
00000340: 3e59 f93c 8235 cc3c e172 4abc 58f2 8c3c
00000350: 0647 92bc 7822 583c 7afc 07bb 639b 96bc
00000360: 219c 07bc 5e05 8bbc 2d7f 573d d9fc cabc
00000370: c203 11bd 6089 39bb 96d6 07bd c256 81bd
00000380: e106 f03c e7e7 3a3d 94e4 4d3c 05f2 0f3c
00000390: 2b1d 533c d0cb 053d 2348 da3a 8e66 15bd
000003a0: 913f 16bd 5dd3 433c 2979 3e3c 4771 143b
000003b0: cb3c e53c 8bd7 f2bc 1a7a 8c3c 6bbb c7bb
000003c0: 09bb 163c f7be 0eba 68e4 463d de7b d1bb
000003d0: 3e90 45ba 9d21 89bc fd16 fb3c 7311 0abc
000003e0: 27bf fabc 0573 aebb c711 c93c ebb1 6fbd
000003f0: 4807 8c3c 2849 82bb cfd4 b2bc 7b12 2dbd

st_gcn_networks.1.tcn.2.bias f4 [8]
2.5226156e-05 4.9430106e-05 9.499046e-06 1.2460327e-05 2.5499714e-06 2.5554033e-05 2.2343542e-05 2.7757138e-05
00000000: c29c d337 2c53 4f38 185e 1f37 b20c 5137
00000010: 2d20 2b36 de5c d637 646e bb37 00d8 e837

st_gcn_networks.1.tcn.3.weight f4 [8]
0.20649014 0.24905647 0.27776086 0.2562797 0.20182687 0.28083232 0.26385614 0.18481575
00000000: 2772 533e a908 7f3e ac36 8e3e 1837 833e
00000010: b4ab 4e3e 41c9 8f3e 2718 873e 5740 3d3e

st_gcn_networks.1.tcn.3.bias f4 [8]
0.007832471 -0.014229142 -0.016935078 -0.012701548 -0.0013070011 -0.003923821 -0.013411747 0.0064433557
00000000: c453 003c 5921 69bc 6fbb 8abc 271a 50bc
00000010: ae4f abba 6593 80bb f2bc 5bbc c922 d33b

st_gcn_networks.1.tcn.3.running_mean f4 [8]
-0.0012216485 0.013683873 -0.005210439 0.0011908885 -0.0011507247 0.009158079 -0.011103367 -0.009906716
00000000: b91f a0ba 5332 603c 55bc aabb 9617 9c3a
00000010: ead3 96ba c40b 163c e6ea 35bc c74f 22bc

st_gcn_networks.1.tcn.3.running_var f4 [8]
0.0003199537 0.000873354 0.0005089416 0.0003231351 0.00023060899 0.00087050354 0.0005296435 0.0005458513
00000000: 75bf a739 cbf1 643a 7e6a 053a 756a a939
00000010: a1cf 7139 8132 643a c6d7 0a3a 7617 0f3a

st_gcn_networks.1.residual.0.weight f4 [8, 8, 1, 1]
-0.029406883 -0.061468367 -0.106933974 -0.022026915 -0.04495292 0.027829185 0.05372464 -0.0035293351
-0.077270925 -0.043917064 -0.030866819 0.004296545 0.022421826 0.07458959 0.08645602 -0.08515749
-0.124715164 -0.00067257276 0.073267594 -0.00029745066 -0.03479003 0.04993319 -0.0012413275 -0.054719876
0.086616196 0.022175264 -0.052120563 0.0061961603 -0.0272349 0.008037813 0.05534729 0.07131636
-0.061325133 0.041202646 -0.065278925 0.024616972 0.041915692 -0.043155544 0.077030435 0.059770033
0.11517944 0.02704851 0.08723984 -0.017766563 -0.05973825 -0.036265902 -0.025087524 -0.08187286
0.023436906 0.024499383 -0.06782334 0.02249346 -0.022088505 -0.026990527 -0.07807739 0.016975822
0.0036392019 0.035333745 0.08342995 0.019128758 0.051934365 0.07790597 -0.06799032 -0.029829452
00000000: b4e6 f0bc 41c6 7bbd 3300 dbbd ca71 b4bc
00000010: 8e20 38bd 08fa e33c 5e0e 5c3d 6b4c 67bb
00000020: 3840 9ebd 61e2 33bd 69dc fcbc 08ca 8c3b
00000030: faad b73c 6dc2 983d db0f b13d 0d67 aebd
00000040: aa6a ffbd 984f 30ba 520d 963d 27f3 9bb9
00000050: fe7f 0ebd bf86 4c3d 0ab4 a2ba f321 60bd
00000060: d563 b13d e6a8 b53c 5f7c 55bd 2909 cb3b
00000070: ba1b dfbc 08b1 033c d7b3 623d 500e 923d
00000080: 1030 7bbd 1bc4 283d f5b0 85bd 88a9 c93c
00000090: caaf 2b3d dec3 30bd 22c2 9d3d 6cd1 743d
000000a0: 33e3 eb3d d694 dd3c cdaa b23d 2f8b 91bc
000000b0: 18b0 74bd 8e8b 14bd 5a84 cdbc f5ac a7bd
000000c0: c1fe bf3c eeb2 c83c f7e6 8abd 3444 b83c
000000d0: f4f2 b4bc 3d1b ddbc 0ae7 9fbd e110 8b3c
000000e0: ad7f 6e3b 1eba 103d 52dd aa3d eab3 9c3c
000000f0: 21b9 543d 2a8d 9f3d 823e 8bbd e55c f4bc

st_gcn_networks.1.residual.0.bias f4 [8]
3.2815187e-05 -1.3497747e-05 4.8047972e-05 -5.2491164e-06 -3.6007274e-05 8.774468e-06 7.461706e-05 2.9120622e-05
00000000: 0aa3 0938 6274 62b7 1e87 4938 9121 b0b6
00000010: 8406 17b8 0e36 1337 bb7b 9c38 0f48 f437

st_gcn_networks.1.residual.1.weight f4 [8]
0.21746886 0.1804029 0.2238293 0.22459848 0.17277177 0.22362068 0.31967854 0.14007238
00000000: 28b0 5e3e 8abb 383e 8233 653e 25fd 653e
00000010: 15eb 303e d2fc 643e e8ac a33e 226f 0f3e

st_gcn_networks.1.residual.1.bias f4 [8]
0.007832471 -0.014229142 -0.016935078 -0.012701548 -0.0013070011 -0.003923821 -0.013411747 0.0064433557
00000000: c453 003c 5921 69bc 6fbb 8abc 271a 50bc
00000010: ae4f abba 6593 80bb f2bc 5bbc c922 d33b

st_gcn_networks.1.residual.1.running_mean f4 [8]
-0.016101478 -0.0012046468 -0.003936845 0.018415658 0.0049248887 0.0021450554 -0.0145036485 0.018070877
00000000: 3fe7 83bc 3de5 9dba a600 81bb 6fdc 963c
00000010: f660 a13b 0f94 0c3b b6a0 6dbc 6009 943c

st_gcn_networks.1.residual.1.running_var f4 [8]
0.00057902955 0.0009191531 0.0006543657 0.00088620343 0.00082800386 0.0010581932 0.0007250596 0.00060172327
00000000: 04ca 173a 52f3 703a bd89 2b3a 1b50 683a
00000010: 660e 593a 12b3 8a3a ed11 3e3a f7bc 1d3a

st_gcn_networks.2.gcn.conv.weight f4 [48, 8, 1, 1]
0.03242094 -0.060217984 0.014749122 -0.0510992 0.053116392 0.011533261 -0.06274913 -0.020999337
-0.01633356 -0.019038474 -0.0013012224 -0.033745546 -0.01283513 0.00010540884 0.027616203 -0.024142759
0.024486909 -0.021818338 0.012995095 -0.04375659 -0.016134663 0.011142631 -0.04857545 -0.011355885
0.02669238 -0.00021041349 -0.0006168959 -0.018590992 -0.0057449243 -0.053220898 -0.02250797 0.0045311255
0.026911281 0.018260695 -0.036131594 0.014973234 -0.061171018 0.04124169 -0.015863407 -0.023606379
0.06892489 -0.0075573395 -0.06579628 -0.02876242 0.08814334 -0.018881576 -0.10285321 -0.024185756
-0.039989285 -0.08657116 -0.04564571 -0.0031929542 -0.056696907 0.05002554 -0.09492749 -0.00656951
-0.0095373215 -0.022981368 0.03692684 -0.012580077 -0.010479678 -0.017312186 0.028905101 -0.005559043
-0.0119819045 -0.024299897 -0.03454171 0.017217807 -0.044118125 0.04109971 -0.023442455 -0.042149547
0.007072056 -0.01858258 0.0512603 0.021380752 0.019888962 -0.045629285 0.01797398 0.009197629
0.014384353 -0.035771847 0.022116857 0.002537501 0.039780658 0.05975092 0.005845535 -0.016662827
0.034484453 -0.037335116 -0.045595296 0.0308262 -0.022088611 -0.011613093 0.025301123 -0.0514175
0.028219782 -0.033007614 -0.00085876044 0.07698488 -0.020015841 0.020324057 0.030251823 -0.005468732
0.006712992 -0.06410047 0.05942617 -0.017721632 -0.011843628 -0.0048383693 -0.00540875 0.001685401
-0.03251129 0.022074584 0.04389947 -0.03731016 0.013545238 0.04437282 0.030052125 -0.008562425
-0.020062564 0.02791479 -0.031001471 -0.033092406 -0.06999271 -0.0064090695 -0.0026254887 -0.019437239
0.030426037 -0.028166959 0.022882586 -0.05206861 0.04108588 0.08122934 0.089963295 -0.044236112
-0.002693454 -0.025058663 -0.035961427 -0.038712256 -0.0062619736 0.046470486 0.0255031 0.020762978
0.01985322 0.0017373996 0.057099003 -0.013362006 0.040940046 -0.0127307875 0.02417237 -0.045011364
0.015660834 0.025953827 0.0016351377 -0.01717741 0.049023703 -0.043732386 -0.044606477 -0.05087815
-0.0020216873 -0.024041682 0.027848193 -0.021205314 -0.0052539296 0.027977929 0.04165725 0.0102898
0.023938559 0.03475447 -0.016420705 -0.03777245 0.019370565 -0.098814026 0.01789466 -0.012065153
0.05296276 0.037955925 -0.06544202 0.033974618 0.06455254 -0.039431583 -0.007505556 -0.05291782
-0.017358765 -0.053952824 0.040024526 0.035970796 -0.04206992 0.043721613 -0.019576726 0.04369049
0.04176333 0.05813922 -0.02253785 0.024321383 0.054019704 -0.0027464337 0.07076435 -0.026861511
-0.0060220086 -0.016463421 -0.028351555 0.029066566 -0.06655778 0.05086829 0.030889506 -0.031418383
-0.014012129 -0.062270325 -0.0112091405 0.047087815 0.0009677582 -0.0031749068 0.0016312911 0.05239918
0.055125605 0.083846144 0.018049568 0.011715012 -0.043421738 -0.02345395 0.09788217 0.055120707
0.102139905 -0.023303097 -0.0072266944 -0.054875564 -0.038241263 -0.009312852 0.030046457 -0.0105755525
0.042533923 0.046606053 -0.077974156 0.07112064 -0.006273351 -0.05429144 -7.8902194e-05 0.0824093
-0.037077643 -0.012128335 -0.04581003 -0.022469763 0.0277917 0.014105486 -0.007917635 0.004882892
-0.036968786 -0.0004164788 0.020210564 0.03931693 0.021281905 0.017631583 0.056417752 -0.004986876
00000000: d2cb 043d 22a7 76bd 4da6 713c 654d 51bd
00000010: 9390 593d 01f6 3c3c 9e82 80bd cd06 acbc
00000020: f5cd 85bc 93f6 9bbc c78d aaba c538 0abd
00000030: 704a 52bc f10e dd38 603b e23c 09c7 c5bc
00000040: c598 c83c 5fbc b2bc 61e9 543c 1c3a 33bd
00000050: d72c 84bc 958f 363c 0df7 46bd 090e 3abc
00000060: faa9 da3c 71a2 5cb9 2fb7 21ba 234c 98bc
00000070: eb3f bcbb 28fe 59bd a262 b8bc d679 943b
00000080: 0c75 dc3c 7497 953c b9fe 13bd 4c52 753c
00000090: 768e 7abd 0ced 283d faf3 81bc 2a62 c1bc
000000a0: 7e28 8d3d 8fa3 f7bb 33c0 86bd 2b9f ebbc
000000b0: 7f84 b43d 89ad 9abc b4a4 d2bd 3521 c6bc
000000c0: cecb 23bd 384c b1bd fff6 3abd e240 51bb
000000d0: 043b 68bd 95e7 4c3d 5869 c2bd 0b45 d7bb
000000e0: 6d42 1cbc 6c43 bcbc 9940 173d ab1c 4ebc
000000f0: f5b2 2bbc 49d2 8dbc 64ca ec3c a228 b6bb
00000100: c04f 44bc 9410 c7bc 9c7b 0dbd 5c0c 8d3c
00000110: 35b5 34bd 2b58 283d 640a c0bc 01a5 2cbd
00000120: b5bc e73b 7f3a 98bc 52f6 513d b026 af3c
00000130: 2dee a23c c6e5 3abd 2b3e 933c a7b1 163c
00000140: 59ac 6b3c 8085 12bd 692e b53c 344c 263b
00000150: 0bf1 223d 61bd 743d e78b bf3b 7b80 88bc
00000160: 923f 0d3d b5ec 18bd 22c2 3abd 3a87 fc3c
00000170: 2df3 b4bc d844 3ebc 4d44 cf3c 289b 52bd
00000180: 2c2d e73c fe32 07bd 701e 61ba 40aa 9d3d
00000190: 43f8 a3bc a37e a63c acd2 f73c 0d33 b3bb
000001a0: a9f8 db3b 1b47 83bd db68 733d f52c 91bc
000001b0: c70b 42bc 2f8b 9ebb e23b b1bb ace8 dc3a
000001c0: 8f2a 05bd c2d5 b43c eecf 333d 8ad2 18bd
000001d0: d9ec 5d3c 46c0 353d e02f f63c 6a49 0cbc
000001e0: 3f5a a4bc 8fad e43c ccf6 fdbc e78b 07bd
000001f0: 5758 8fbd 2c03 d2bb 6410 2cbb d83a 9fbc
00000200: 0640 f93c 65be e6bc 4374 bb3c e545 55bd
00000210: ab49 283d 915b a63d ad3e b83d ed30 35bd
00000220: a984 30bb d347 cdbc 4a4c 13bd be90 1ebd
00000230: 3e31 cdbb d657 3e3d e1eb d03c 1f17 aa3c
00000240: 38a3 a23c 75b9 e33a a5e0 693d 51ec 5abc
00000250: c0b0 273d cb94 50bc 2205 c63c d65d 38bd
00000260: 264b 803c 1f9d d43c 1e52 d63a a4b7 8cbc
00000270: 14cd 483d bb20 33bd 48b5 36bd 9b65 50bd
00000280: 497e 04bb 10f3 c4bc e521 e43c c4b6 adbc
00000290: 2829 acbb f831 e53c cba0 2a3d 8d96 283c
000002a0: cc1a c43c b45a 0e3d b784 86bc 49b7 1abd
000002b0: 05af 9e3c 025f cabd d297 923c ebac 45bc
000002c0: 7bef 583d ac77 1b3d 7706 86bd f828 0b3d
000002d0: 1f34 843d 0383 21bd 2bf1 f5bb 5bc0 58bd
000002e0: f833 8ebc a3fd 5cbd c2f0 233d 1d56 133d
000002f0: 8251 2cbd 6f15 333d 5f5f a0bc cdf4 323d
00000300: 0710 2b3d 6423 6e3d 4ca1 b8bc a33d c73c
00000310: c443 5d3d 83fd 33bb e6ec 903d ac0c dcbc
00000320: 4554 c5bb 4cde 86bc 8541 e8bc 021d ee3c
00000330: 724f 88bd 455b 503d fd0b fd3c 90b0 00bd
00000340: 2193 65bc 2b0f 7fbd 8ba6 37bc 27df 403d
00000350: 27b1 7d3a 1912 50bb 0cd1 d53a 86a0 563d
00000360: 63cb 613d 87b7 ab3d b0dc 933c 52f0 3f3c
00000370: feda 31bd 8022 c0bc 7276 c83d 40c6 613d
00000380: ba2e d13d 23e6 bebc e8cd ecbb 33c5 60bd
00000390: dfa2 1cbd ef94 18bc fd23 f63c 1545 2dbc
000003a0: 0d38 2e3d fde5 3e3d eab0 9fbd b3a7 913d
000003b0: af90 cdbb b360 5ebd 4b78 a5b8 35c6 a83d
000003c0: bade 17bd edb5 46bc 4ca3 3bbd 8212 b8bc
000003d0: 6bab e33c b21a 673c f8b8 01bc ab00 a03b
000003e0: 956c 17bd d75a dab9 a090 a53c ca0a 213d
000003f0: 6457 ae3c 1c70 903c 4d16 673d f368 a3bb

st_gcn_networks.2.gcn.conv.bias f4 [48]
-0.010846482 0.01163339 -0.008873997 0.0020053312 0.000752008 -0.013067569 0.029244086 -0.013990216
-0.01116185 -0.0047028884 -0.0069250613 -0.0068264627 -0.027910024 -0.010779179 0.0006456933 0.007887058
-0.050284732 -0.009594227 -0.00078820664 0.013366299 0.0007109163 -0.01588836 -0.0113815935 -0.0110025
-0.04695019 -0.00732204 -0.01620006 -0.03829205 0.017006142 0.005961682 -0.0097946925 -0.013637679
0.012967553 0.0203228 -0.009684222 0.006813277 -0.035815854 0.010841553 0.0033771563 -0.008761846
-0.00036246234 0.0037700378 -0.010451496 -0.033009235 0.02673482 -0.014935923 0.018361062 0.009703877
00000000: 71b5 31bc f999 3e3c 3e64 11bc e06b 033b
00000010: 6722 453a 5b19 56bc 4b91 ef3c 3837 65bc
00000020: 31e0 36bc b01a 9abb a0eb e2bb 85b0 dfbb
00000030: 90a3 e4bc 279b 30bc be43 293a b838 013c
00000040: 5df7 4dbd 1b31 1dbc a79f 4eba 52fe 5a3c
00000050: c95c 3a3a 4e28 82bc dd79 3abc d443 34bc
00000060: d84e 40bd b9ed efbb fdb5 84bc 20d8 1cbd
00000070: 7750 8b3c 375a c33b eb79 20bc 9270 5fbc
00000080: dc75 543c 007c a63c 92aa 1ebc e941 df3b
00000090: a5b3 12bd c5a0 313c 4853 5d3b d98d 0fbc
000000a0: df08 beb9 bd12 773b c03c 2bbc b134 07bd
000000b0: fb02 db3c cdb5 74bc f069 963c 03fd 1e3c

st_gcn_networks.2.tcn.0.weight f4 [16]
0.20541604 0.114625864 0.16042252 0.12743124 0.07298991 0.22369286 0.16861698 0.17056747
0.15507393 0.14280173 0.13423727 0.17906107 0.15037459 0.15156743 0.102927074 0.10399453
00000000: 9558 523e f7c0 ea3d cd45 243e 567d 023e
00000010: bc7b 953d be0f 653e eea9 2c3e 3da9 2e3e
00000020: b3cb 1e3e 9e3a 123e 7f75 093e c95b 373e
00000030: ccfb 193e 7e34 1b3e 6ecb d23d 16fb d43d

st_gcn_networks.2.tcn.0.bias f4 [16]
-0.021424 -0.0040522562 -0.039529547 -0.027961837 -0.0013896853 -0.029799052 -0.029712856 -0.040246446
-0.042293802 -0.033043534 -0.042896155 -0.035299666 -0.039509762 -0.039678644 -0.010248155 -0.038856577
00000000: 6281 afbc cac8 84bb bce9 21bd 3910 e5bc
00000010: 1a26 b6ba 241d f4bc 6068 f3bc 75d9 24bd
00000020: 443c 2dbd a858 07bd e1b3 2fbd 6296 10bd
00000030: fdd4 21bd 1386 22bd e1e7 27bc 1328 1fbd

st_gcn_networks.2.tcn.0.running_mean f4 [16]
-0.00141038 0.00014820193 -0.00058992184 -0.0005018724 -0.0008510642 -0.0026016238 -0.0008016911 -0.0015121597
-0.0013213351 -0.00024803457 -0.00094499125 -0.0017899878 0.00056467595 -0.0007879923 0.00055560627 0.0007339552
00000000: 80dc b8ba a766 1b39 fca4 1aba 1690 03ba
00000010: f419 5fba 0180 2abb 9428 52ba a933 c6ba
00000020: a630 adba a30a 82b9 4ab9 77ba 069e eaba
00000030: c306 143a 4591 4eba 1ba6 113a e666 403a

st_gcn_networks.2.tcn.0.running_var f4 [16]
4.775979e-06 2.420449e-06 2.616573e-06 4.902339e-06 2.7686385e-06 1.3398109e-05 3.5279472e-06 2.8243494e-06
3.3717529e-06 3.0730919e-06 2.495292e-06 4.0940595e-06 2.381324e-06 2.9920213e-06 1.6508559e-06 2.5677969e-06
00000000: 5941 a036 ff6e 2236 6298 2f36 c57e a436
00000010: d9cc 3936 71c8 6037 acc1 6c36 f489 3d36
00000020: 4646 6236 513b 4e36 ca74 2736 b45f 8936
00000030: d6ce 1f36 89ca 4836 fa92 dd35 6a52 2c36

st_gcn_networks.2.tcn.2.weight f4 [16, 16, 9, 1]
-0.021901786 -0.0112865195 -0.00651959 -0.01613998 -0.0053838855 0.019485533 -0.021654503 -0.029745797
-0.051426686 -0.0060166516 0.016655987 0.03871136 -0.038982697 0.0070802937 0.008530023 0.009669591
0.009840167 0.0042745876 -0.0020588033 0.010887688 0.030917764 0.008271918 0.004337385 -0.03281662
0.0035914676 0.007721038 0.0046329065 -0.010189387 -0.016973214 0.020096572 -0.00923516 -0.007945951
0.0038201308 -0.024413547 -0.018841239 0.013104668 0.04026509 0.027393527 -0.0030729135 -0.009135328
0.00087105966 -0.016411044 -0.0038931654 -0.0066714706 -0.031508032 0.0536076 -0.015371264 0.009834265
-0.00476066 -0.004465474 0.0119876005 -0.0081421705 -0.0024986807 0.02179784 -0.0061976663 0.020337855
0.014819154 0.022104306 0.015945628 0.0003202242 -0.0014987352 0.028182022 0.009951063 0.005723086
-0.012365585 -0.014376394 0.010050434 0.0074593634 -0.01843743 0.012379723 0.011157321 -0.019075505
-0.0076336986 0.028687812 0.027144782 0.01584805 0.00037972 -0.009595836 0.021515224 0.020562317
-0.010373409 -0.032793432 0.030777264 -0.03141585 0.031294014 -0.04851199 -0.020822117 0.019905753
-0.020170843 -0.030466361 -0.008102847 0.014426962 -0.009830583 -0.0041249106 0.008481123 -0.01456559
0.013530413 0.019993305 -0.04028936 0.026281826 -0.0078025 -0.00256911 -0.03566663 -0.02157471
0.009651761 -0.080671005 -0.009776239 0.0400712 -0.007079118 0.008948716 -0.009106719 -0.024985278
0.01167902 -0.0456007 0.0025821312 0.008492091 -0.009376485 0.0004438041 0.0097836815 -0.03390675
0.0022709498 0.01947062 -0.00034545 -0.046376243 0.0010182379 0.036724 -0.027659763 -0.006423606
-0.008282181 -0.00668491 -0.0019225037 -0.014078621 0.0020501753 -0.02349207 -0.012836446 0.005450054
0.0036625993 0.00010648396 0.008061933 0.019720448 -0.02383818 0.0071703824 -0.032051295 -0.020802088
-0.0026108003 -0.020171829 0.012638536 0.008442629 0.014789401 0.0289666 0.031341936 0.0030737543
0.047804873 -0.026423253 0.00563587 0.008313738 -0.031804476 -0.018537186 0.00079682475 -0.05218098
0.011166661 -0.009054707 0.00030930334 0.019096758 -0.012549164 0.016505219 0.009089654 -0.030627308
0.0025333096 -0.03315569 -0.03795316 -0.036716554 -0.023062667 -0.033632502 0.043774467 0.0017222842
0.0023884142 -0.012633263 -0.0015062299 -0.043897208 0.017330417 -0.055889465 -0.04252913 -0.024343455
0.0041931495 -0.036313165 -0.007152175 0.014437731 0.016228879 0.0056971945 -0.010112243 -0.0049817427
-0.013060096 -0.018442728 -0.036116164 -0.04052335 -0.08221609 -0.041957803 -0.002067947 0.03407063
0.010960293 0.011152362 0.030088056 0.012986621 0.042439066 -0.041887127 0.039648067 0.01429602
-0.013619791 -0.018477524 -0.014341094 -0.034428194 -0.023697022 -0.006479763 -0.013719475 -0.023525618
-0.012324886 -0.010554462 -0.0010242108 -0.013667474 0.017272366 -0.028763758 -0.035255156 -0.0017288574
-0.03202545 -0.001727276 -0.027458036 -0.051637106 -0.018885206 -0.016269723 0.022860374 -0.012325958
-0.014390536 -0.017663132 -0.023788473 0.01560682 -0.0108247865 -0.0065477206 0.024096873 -0.019500418
-0.029071016 -0.056085616 -0.044964716 0.003498037 0.007514018 0.011688076 0.038741224 -0.0010043756
0.009993241 0.0009775552 0.0029072436 0.025046524 0.0107913 0.0056103766 -0.01747343 0.005790951
00000000: 606b b3bc 18eb 38bc 49a2 d5bb fe37 84bc
00000010: 4e6b b0bb 20a0 9f3c c964 b1bc 75ad f3bc
00000020: caa4 52bd 5527 c5bb 2372 883c ce8f 1e3d
00000030: 52ac 1fbd cf01 e83b 82c1 0b3c 346d 1e3c
00000040: a738 213c d711 8c3b fdec 06bb 4662 323c
00000050: 4047 fd3c f086 073c 9f20 8e3b b86a 06bd
00000060: d45e 6b3b c300 fd3b a3cf 973b 63f1 26bc
00000070: 690b 8bbc 91a1 a43c 124f 17bc bc2f 02bc
00000080: 295b 7a3b ebfe c7bc f158 9abc f6b4 563c
00000090: 02ed 243d 6468 e03c ef62 49bb 58ac 15bc
000000a0: d357 643a 7470 86bc 7a24 7fbb 5a9c dabb
000000b0: 910e 01bd a593 5b3d c1d7 7bbc e61f 213c
000000c0: 50ff 9bbb 1c53 92bb a467 443c bd66 05bc
000000d0: e8c0 23bb 6291 b23c cb15 cbbb 939b a63c
000000e0: 09cc 723c 1714 b53c 68a0 823c c4e3 a739
000000f0: 3571 c4ba fcdd e63c c909 233c ba88 bb3b
00000100: 0699 4abc f88a 6bbc 93aa 243c ad6d f43b
00000110: 180a 97bc 52d4 4a3c 32cd 363c 3c44 9cbc
00000120: 1b24 fabb b402 eb3c bc5e de3c c5d3 813c
00000130: 2815 c739 da37 1dbc b240 b03c 4e72 a83c
00000140: 3bf5 29bc 6852 06bd 9a20 fc3c e8ad 00bd
00000150: 272e 003d 82b4 46bd 2593 aabc 6411 a33c
00000160: 533d a5bc 9794 f9bc cec1 04bc 105f 6c3c
00000170: 7410 21bc 422a 87bb 68f4 0a3c 83a4 6ebc
00000180: aaae 5d3c 00c9 a33c 7506 25bd fc4c d73c
00000190: 1dac ffbb 835e 28bb 2c17 12bd 72bd b0bc
000001a0: 6b22 1e3c d736 a5bd 852c 20bc b321 243d
000001b0: f2f7 e7bb a39d 123c 5934 15bc edad ccbc
000001c0: 5c59 3f3c cdc7 3abd f938 293b 6922 0b3c
000001d0: d49f 19bc 61ae e839 bc4b 203c cee1 0abd
000001e0: 37d4 143b da80 9f3c 841d b5b9 04f5 3dbd
000001f0: 6576 853a e86b 163d ba96 e2bc 1d7d d2bb
00000200: fcb1 07bc 170d dbbb 85fc fbba 04aa 66bc
00000210: 3c5c 063b 7172 c0bc f54f 52bc 5e96 b23b
00000220: 3808 703b 2450 df38 3316 043c c78c a13c
00000230: 4948 c3bc 87f5 ea3b 3848 03bd 2469 aabc
00000240: f619 2bbb 643f a5bc dd11 4f3c f452 0a3c
00000250: 3e4f 723c 5d4b ed3c 6760 003d 0a71 493b
00000260: 0bcf 433d 9475 d8bc 1bad b83b 5836 083c
00000270: 6945 02bd 4cdb 97bc 01e2 503a b9bb 55bd
00000280: 5ff4 363c 325a 14bc fe29 a239 ce70 9c3c
00000290: 029b 4dbc f435 873c c6ec 143c 1fe6 fabc
000002a0: e205 263b 43ce 07bd c674 1bbd 1964 16bd
000002b0: ebed bcbc 3cc2 09bd db4c 333d 45be e13a
000002c0: f186 1c3b bffb 4ebc b06c c5ba 8fcd 33bd
000002d0: 85f8 8d3c 5aec 64bd 0633 2ebd ed6b c7bc
000002e0: b066 893b 1dbd 14bd cb5c eabb 3c8c 6c3c
000002f0: 6df2 843c 88af ba3b d2ad 25bc e33d a3bb
00000300: 03fa 55bc 3415 97bc 8bee 13bd d0fb 25bd
00000310: e960 a8bd f2db 2bbd 6586 07bb a58d 0b3d
00000320: cd92 333c 66b8 363c 3a7b f63c d6c5 543c
00000330: 96d4 2d3d d691 2bbd 0366 223d db39 6a3c
00000340: 8b25 5fbc 2d5e 97bc e8f6 6abc 9404 0dbd
00000350: 4220 c2bc 3154 d4bb a6c7 60bc ccb8 c0bc
00000360: 52ee 49bc 9fec 2cbc d03e 86ba 8aed 5fbc
00000370: c77e 8d3c f9a1 ebbc b667 10bd d49a e2ba
00000380: 1e2d 03bd c465 e2ba adef e0bc 6e81 53bd
00000390: 26b5 9abc 1548 85bc ae45 bb3c d1f2 49bc
000003a0: 48c6 6bbc 46b2 90bc 0be0 c2bc bfb3 7f3c
000003b0: 725a 31bc 438e d6bb ce66 c53c 57bf 9fbc
000003c0: 5726 eebc 08ba 65bd ec2c 38bd 533f 653b
000003d0: 2738 f63b 587f 3f3c 1eaf 1e3d 41a5 83ba
000003e0: b1ba 233c 4f21 803a 7487 3e3b 5e2e cd3c
000003f0: fecd 303c 40d7 b73b 7024 8fbc 05c2 bd3b

st_gcn_networks.2.tcn.2.bias f4 [16]
3.9963193e-06 2.9281215e-05 5.458254e-05 -3.4074244e-08 8.1113605e-05 -6.852845e-05 -3.37301e-05 4.1989562e-05
3.1988653e-05 -5.197623e-06 6.655671e-05 2.6489066e-05 -6.472347e-05 3.7553018e-05 -1.0638223e-05 -7.899134e-08
00000000: 1f18 8636 eea0 f537 8eef 6438 0759 12b3
00000010: 891b aa38 eeb6 8fb8 6b79 0db8 f31d 3038
00000020: 8e2b 0638 3e67 aeb6 5d94 8b38 d634 de37
00000030: 26bc 87b8 3f82 1d38 d27a 32b7 f3a1 a9b3

st_gcn_networks.2.tcn.3.weight f4 [16]
0.16500272 0.19736573 0.13320975 2.6649988e-32 0.21357092 0.15474041 0.19962664 0.12167965
0.114217155 0.15035415 0.20800631 0.122524254 0.22267282 0.10745696 0.12590988 9.04662e-05
00000000: 79f6 283e 3e1a 4a3e 2368 083e e95f 0a0b
00000010: 56b2 5a3e 4574 1e3e ed6a 4c3e 2e33 f93d
00000020: afea e93d 70f6 193e 9bff 543e ffed fa3d
00000030: 5804 643e 6512 dc3d 85ee 003e acb8 bd38
