weights_arm/159.pt (torch, 70926 bytes, 80 tensors)

A f4 [3, 9, 9]
0	0x3f000000	0.5
1	0x00000000	0.0
2	0x00000000	0.0
3	0x00000000	0.0
4	0x00000000	0.0
5	0x00000000	0.0
6	0x00000000	0.0
7	0x00000000	0.0
8	0x00000000	0.0
9	0x00000000	0.0
10	0x3e4ccccd	0.2
11	0x00000000	0.0
12	0x00000000	0.0
13	0x00000000	0.0
14	0x00000000	0.0
15	0x00000000	0.0
16	0x00000000	0.0
17	0x00000000	0.0
18	0x00000000	0.0
19	0x00000000	0.0
20	0x3eaaaaab	0.33333334
21	0x00000000	0.0
22	0x00000000	0.0
23	0x00000000	0.0
24	0x00000000	0.0
25	0x00000000	0.0
26	0x00000000	0.0
27	0x00000000	0.0
28	0x00000000	0.0
29	0x00000000	0.0
30	0x3eaaaaab	0.33333334
31	0x00000000	0.0
32	0x00000000	0.0
33	0x00000000	0.0
34	0x00000000	0.0
35	0x00000000	0.0
36	0x00000000	0.0
37	0x00000000	0.0
38	0x00000000	0.0
39	0x00000000	0.0
40	0x3f000000	0.5
41	0x00000000	0.0
42	0x00000000	0.0
43	0x00000000	0.0
44	0x00000000	0.0
45	0x00000000	0.0
46	0x00000000	0.0
47	0x00000000	0.0
48	0x00000000	0.0
49	0x00000000	0.0
50	0x3eaaaaab	0.33333334
51	0x00000000	0.0
52	0x00000000	0.0
53	0x00000000	0.0
54	0x00000000	0.0
55	0x00000000	0.0
56	0x00000000	0.0
57	0x00000000	0.0
58	0x00000000	0.0
59	0x00000000	0.0
60	0x3eaaaaab	0.33333334
61	0x00000000	0.0
62	0x00000000	0.0
63	0x00000000	0.0
64	0x00000000	0.0
65	0x00000000	0.0
66	0x00000000	0.0
67	0x00000000	0.0
68	0x00000000	0.0
69	0x00000000	0.0
70	0x3f000000	0.5
71	0x00000000	0.0
72	0x00000000	0.0
73	0x00000000	0.0
74	0x00000000	0.0
75	0x00000000	0.0
76	0x00000000	0.0
77	0x00000000	0.0
78	0x00000000	0.0
79	0x00000000	0.0
80	0x3f000000	0.5
81	0x00000000	0.0
82	0x3e4ccccd	0.2
83	0x00000000	0.0
84	0x00000000	0.0
85	0x00000000	0.0
86	0x00000000	0.0
87	0x00000000	0.0
88	0x00000000	0.0
89	0x00000000	0.0
90	0x00000000	0.0
91	0x00000000	0.0
92	0x00000000	0.0
93	0x00000000	0.0
94	0x00000000	0.0
95	0x00000000	0.0
96	0x00000000	0.0
97	0x00000000	0.0
98	0x00000000	0.0
99	0x00000000	0.0
100	0x3e4ccccd	0.2
101	0x00000000	0.0
102	0x00000000	0.0
103	0x00000000	0.0
104	0x00000000	0.0
105	0x00000000	0.0
106	0x00000000	0.0
107	0x00000000	0.0
108	0x00000000	0.0
109	0x00000000	0.0
110	0x3eaaaaab	0.33333334
111	0x00000000	0.0
112	0x3f000000	0.5
113	0x00000000	0.0
114	0x00000000	0.0
115	0x00000000	0.0
116	0x00000000	0.0
117	0x00000000	0.0
118	0x00000000	0.0
119	0x00000000	0.0
120	0x3eaaaaab	0.33333334
121	0x00000000	0.0
122	0x00000000	0.0
123	0x00000000	0.0
124	0x00000000	0.0
125	0x00000000	0.0
126	0x00000000	0.0
127	0x3e4ccccd	0.2
128	0x00000000	0.0
129	0x00000000	0.0
130	0x00000000	0.0
131	0x00000000	0.0
132	0x00000000	0.0
133	0x00000000	0.0
134	0x00000000	0.0
135	0x00000000	0.0
136	0x00000000	0.0
137	0x00000000	0.0
138	0x00000000	0.0
139	0x00000000	0.0
140	0x3eaaaaab	0.33333334
141	0x00000000	0.0
142	0x3f000000	0.5
143	0x00000000	0.0
144	0x00000000	0.0
145	0x00000000	0.0
146	0x00000000	0.0
147	0x00000000	0.0
148	0x00000000	0.0
149	0x00000000	0.0
150	0x3eaaaaab	0.33333334
151	0x00000000	0.0
152	0x00000000	0.0
153	0x00000000	0.0
154	0x3e4ccccd	0.2
155	0x00000000	0.0
156	0x00000000	0.0
157	0x00000000	0.0
158	0x00000000	0.0
159	0x00000000	0.0
160	0x00000000	0.0
161	0x00000000	0.0
162	0x00000000	0.0
163	0x00000000	0.0
164	0x00000000	0.0
165	0x00000000	0.0
166	0x00000000	0.0
167	0x00000000	0.0
168	0x00000000	0.0
169	0x00000000	0.0
170	0x00000000	0.0
171	0x3f000000	0.5
172	0x00000000	0.0
173	0x3eaaaaab	0.33333334
174	0x00000000	0.0
175	0x00000000	0.0
176	0x3eaaaaab	0.33333334
177	0x00000000	0.0
178	0x00000000	0.0
179	0x3f000000	0.5
180	0x00000000	0.0
181	0x00000000	0.0
182	0x00000000	0.0
183	0x3eaaaaab	0.33333334
184	0x00000000	0.0
185	0x00000000	0.0
186	0x00000000	0.0
187	0x00000000	0.0
188	0x00000000	0.0
189	0x00000000	0.0
190	0x00000000	0.0
191	0x00000000	0.0
192	0x00000000	0.0
193	0x00000000	0.0
194	0x00000000	0.0
195	0x00000000	0.0
196	0x00000000	0.0
197	0x00000000	0.0
198	0x00000000	0.0
199	0x00000000	0.0
200	0x00000000	0.0
201	0x00000000	0.0
202	0x00000000	0.0
203	0x00000000	0.0
204	0x00000000	0.0
205	0x00000000	0.0
206	0x00000000	0.0
207	0x00000000	0.0
208	0x00000000	0.0
209	0x00000000	0.0
210	0x00000000	0.0
211	0x00000000	0.0
212	0x00000000	0.0
213	0x3eaaaaab	0.33333334
214	0x00000000	0.0
215	0x00000000	0.0
216	0x00000000	0.0
217	0x00000000	0.0
218	0x00000000	0.0
219	0x00000000	0.0
220	0x00000000	0.0
221	0x00000000	0.0
222	0x00000000	0.0
223	0x00000000	0.0
224	0x00000000	0.0
225	0x00000000	0.0
226	0x00000000	0.0
227	0x00000000	0.0
228	0x00000000	0.0
229	0x00000000	0.0
230	0x00000000	0.0
231	0x00000000	0.0
232	0x00000000	0.0
233	0x00000000	0.0
234	0x00000000	0.0
235	0x00000000	0.0
236	0x00000000	0.0
237	0x00000000	0.0
238	0x00000000	0.0
239	0x00000000	0.0
240	0x00000000	0.0
241	0x00000000	0.0
242	0x00000000	0.0

data_bn.weight f4 [27]
0	0x3db2f89d	0.087388255
1	0x3d131e3b	0.035917502
2	0x3d1c9e7c	0.03823708
3	0x3e7ab5f3	0.2448347
4	0x3d54b5fd	0.05193137
5	0x3d5fc34a	0.0546296
6	0x3e914e69	0.28380135
7	0x3e405b82	0.18784907
8	0x3e4758f8	0.19467533
9	0x3ee203ac	0.44143426
10	0x3f026894	0.50940824
11	0x3eb383ee	0.35061592
12	0x3f0047de	0.5010966
13	0x3f016da0	0.505579
14	0x3eb73b3a	0.35787374
15	0x3e87d40a	0.2652896
16	0x3e281acf	0.16416477
17	0x3e71fb38	0.23630989
18	0x3eee2e1f	0.46519563
19	0x3eca348e	0.3949322
20	0x3ead43ec	0.33840883
21	0x3ef889b4	0.4854256
22	0x3ed05316	0.4068839
23	0x3eab3dfb	0.33445725
24	0x3e5ef615	0.2177356
25	0x3cf9a691	0.030474933
26	0x3d4879ba	0.048944212

data_bn.bias f4 [27]
0	0xbc88d0d3	-0.016701138
1	0x3ce284ba	0.02765118
2	0xbc822602	-0.015887264
3	0xbc686693	-0.014184612
4	0xbca0774b	-0.019588133
5	0xb97be36a	-0.00024021944
6	0x3d2ff7bf	0.04296088
7	0x3c8f5273	0.01749537
8	0x3c3b6b4d	0.011439157
9	0xbc9b718d	-0.018975044
10	0x3b6d1f8f	0.003618214
11	0x3c389eef	0.0112683615
12	0xbc235464	-0.009968851
13	0x3bc925c4	0.006138535
14	0xba9054c1	-0.0011011587
15	0x3c9d55f5	0.019206027
16	0x3d30ddf2	0.043180414
17	0x3d1fe5c4	0.03903748
18	0x3bb9da6c	0.00567179
19	0xbc655b02	-0.013998749
20	0xbcc2dac1	-0.02378595
21	0xbcbd3164	-0.02309484
22	0xbce84e43	-0.02835763
23	0x3b9385f2	0.0045020515
24	0x3c0deafa	0.00866198
25	0x3c9acf70	0.018897742
26	0x3c408479	0.011750334

data_bn.running_mean f4 [27]
0	0x42b82ded	92.0897
1	0x42bcf79b	94.483604
2	0x41a296d4	20.323647
3	0x42c7e784	99.95218
4	0x42ce2e95	103.09098
5	0x41aed66c	21.854698
6	0x42b46d3a	90.21333
7	0x42c2ae83	97.34084
8	0x41a7c035	20.968851
9	0x42c855fb	100.16793
10	0x42c72407	99.570366
11	0x41a99555	21.197916
12	0x42d7896e	107.76842
13	0x42c058b8	96.17328
14	0x419e453d	19.783808
15	0x42daf8be	109.485825
16	0x42d9b82c	108.85971
17	0x41b5ed1c	22.740776
18	0x430295b9	130.58485
19	0x42ea2660	117.07495
20	0x41c07e12	24.061558
21	0x4302d311	130.82448
22	0x42dd1514	110.54117
23	0x41b8fba5	23.122873
24	0x42de38b6	111.11076
25	0x42e78577	115.76067
26	0x41c18e1a	24.194386

data_bn.running_var f4 [27]
0	0x46369ba1	11686.907
1	0x46c12565	24722.697
2	0x45cfb102	6646.126
3	0x463e3904	12174.254
4	0x46d42dba	27158.863
5	0x45e80006	7424.003
6	0x4614b6fe	9517.748
7	0x46b986bd	23747.37
8	0x45d240e6	6728.1123
9	0x463cee7f	12091.624
10	0x46acd77f	22123.748
11	0x45cbd781	6522.938
12	0x46554668	13649.602
13	0x469d1d3a	20110.613
14	0x45b72a04	5861.252
15	0x46758db5	15715.427
16	0x46f15a30	30893.094
17	0x45ff41fe	8168.249
18	0x46a3449b	20898.303
19	0x46f6db80	31597.75
20	0x46062acd	8586.7
21	0x469e79c4	20284.883
22	0x46d60853	27396.162
23	0x45f18606	7728.753
24	0x4686797a	17212.738
25	0x46df893a	28612.613
26	0x4601a0b8	8296.18

st_gcn_networks.0.gcn.conv.weight f4 [24, 3, 1, 1]
0	0xbd813e7d	-0.06310747
1	0xbc5029bc	-0.012705263
2	0x3917954c	0.000144561
3	0x3e19befe	0.15014264
4	0xbd69f903	-0.05712224
5	0x3d7c2291	0.061556403
6	0x3d8a2fbf	0.06747388
7	0x3b0acf8e	0.002118084
8	0x3d43f9cd	0.04784565
9	0xbcdc0f18	-0.026862666
10	0xbc9f5092	-0.019447599
11	0x3dfbd9ed	0.122974254
12	0x3ce58926	0.028019499
13	0xbc44f059	-0.012020194
14	0xbe5709a9	-0.20999779
15	0x3e5ed678	0.21761501
16	0x3e95081b	0.29107746
17	0x3da29a38	0.07939571
18	0xbe652289	-0.22376455
19	0x3e24c11f	0.16089295
20	0x3d9554a7	0.07291537
21	0xbe40a866	-0.18814239
22	0x3d90b7cf	0.07066309
23	0xbe07fe7d	-0.13280673
24	0xbd4601fc	-0.048341736
25	0xbd594db4	-0.05305262
26	0xbc8c5b46	-0.017133366
27	0xbe772b6a	-0.24137655
28	0xbdac6c57	-0.08419102
29	0x3d02fae7	0.03197756
30	0x3e273b6e	0.16331264
31	0xbc6853d1	-0.01418014
32	0xbc9a2fe9	-0.018821673
33	0xbe091b1e	-0.1338925
34	0xbe0dbd99	-0.13841857
35	0x3a0aa32d	0.00052885973
36	0xba593097	-0.00082851335
37	0xbcb5ac16	-0.022176784
38	0x3e429726	0.19002971
39	0xbd471718	-0.04860601
40	0xbe6e4190	-0.23267198
41	0xbe029fe6	-0.12756309
42	0x3d812251	0.063053735
43	0x3d83fe37	0.06444972
44	0x3d461c2c	0.04836671
45	0x3e33b714	0.17550308
46	0xbdce4002	-0.10070802
47	0x3e2683b7	0.16261183
48	0xbc5f3890	-0.013624325
49	0xbb3ae31e	-0.002851672
50	0x3c439574	0.011937488
51	0xbd30f053	-0.04319794
52	0xbcc147de	-0.02359384
53	0xbd9d2b82	-0.07674314
54	0x3e1d800b	0.15380876
55	0xbd0c1049	-0.03419522
56	0x3d29e644	0.041479364
57	0xbd0e3898	-0.03472194
58	0xbce5220f	-0.027970342
59	0x3ad4c045	0.0016231617
60	0xbe5601a4	-0.20899063
61	0x3c4fa8b5	0.0126745
62	0xbbe248e9	-0.006905664
63	0x3d35328d	0.044237662
64	0xbd619a88	-0.055079013
65	0x3ddedf9b	0.10882493
66	0x3d12c652	0.035833664
67	0xbd7815a6	-0.06056752
68	0x3afade27	0.0019139693
69	0xbdd56985	-0.10420517
70	0x3e12add0	0.14324117
71	0x3d4a7869	0.04943124

st_gcn_networks.0.gcn.conv.bias f4 [24]
0	0x3d0401d3	0.032228302
1	0x3d343e2f	0.044004615
2	0x3d4024e0	0.046910167
3	0x3d9c01e0	0.07617545
4	0xbc774086	-0.015091067
5	0xbe2e45d4	-0.17018825
6	0xbc898f3a	-0.016791929
7	0x3dfdcde4	0.12392786
8	0xbd8777f8	-0.06614679
9	0x3c8a15d0	0.016856104
10	0x3dae8283	0.08520987
11	0xbcd2fdd1	-0.025755795
12	0x3cc82639	0.024432288
13	0x3e0d0ad0	0.13773656
14	0x3e1a8c32	0.15092543
15	0xbc90a77c	-0.017657988
16	0xbc8d244a	-0.017229218
17	0xbe1caa2c	-0.1529929
18	0x3ca70deb	0.020392379
19	0xbd7cb641	-0.06169725
20	0x3d27c84f	0.040962514
21	0x3ce64307	0.028108133
22	0xbd027924	-0.03185381
23	0x3b15e4d5	0.002287199

st_gcn_networks.0.tcn.0.weight f4 [8]
0	0x3e115564	0.1419273
1	0x3e9af9bf	0.30268666
2	0x3ec221ee	0.3791651
3	0x3e8661e3	0.26246557
4	0x3e7c75f4	0.2465437
5	0x3ea6f375	0.32607618
6	0x3ea662d8	0.32497287
7	0x3eacec42	0.33774

st_gcn_networks.0.tcn.0.bias f4 [8]
0	0x3d5d3a0b	0.054010432
1	0x3d16f2de	0.03685271
2	0x3d645435	0.05574437
3	0x3cbc81ca	0.023011107
4	0xbd1fa670	-0.038977087
5	0x3d5b8fbb	0.05360387
6	0xbc0bd7e4	-0.008535359
7	0xbd2459fc	-0.04012488

st_gcn_networks.0.tcn.0.running_mean f4 [8]
0	0xbb7c658c	-0.0038512675
1	0x3a333eb1	0.000683765
2	0x3c83f9a4	0.016110249
3	0x3b8cde46	0.004298958
4	0x3b22dbcd	0.002485025
5	0xbba69f0a	-0.005084877
6	0x3c57bfbf	0.013168274
7	0x3c63c856	0.013902744

st_gcn_networks.0.tcn.0.running_var f4 [8]
0	0x38cda381	9.805617e-05
1	0x394417ee	0.00018700931
2	0x39900259	0.0002746757
3	0x3986d7fe	0.00025719398
4	0x3795c8ac	1.785563e-05
5	0x39622f13	0.00021570576
6	0x399a7c33	0.00029465705
7	0x387d5396	6.0397746e-05

st_gcn_networks.0.tcn.2.weight f4 [8, 8, 9, 1]
0	0xbd16d427	-0.036823418
1	0xbc8aa2a3	-0.016923254
2	0x3ca33b3d	0.019925708
3	0xbb66f460	-0.0035240874
4	0x3c3424ea	0.010995129
5	0xbcd9c8ee	-0.026585069
6	0x3b0c929e	0.0021449695
7	0xbbd7300e	-0.006567008
8	0x3c3f87cc	0.011690091
9	0x3cf9a433	0.030473804
10	0xbd640557	-0.055669155
11	0xbd0428ba	-0.032265402
12	0xbc01acd4	-0.007914741
13	0xbba41c21	-0.005008236
14	0x3ca8dc7a	0.020612944
15	0x3c61124d	0.013737273
16	0xbb6a1eba	-0.003572388
17	0xbc9a56f6	-0.018840294
18	0x3d4001b6	0.04687663
19	0x3d583f48	0.052794725
20	0x3cf1aac9	0.029500382
21	0x3d8996da	0.06718226
22	0xbc6fcc03	-0.0146360425
23	0x3dc321ac	0.09527907
24	0xbd6df172	-0.05809159
25	0x3cd0f60b	0.025507947
26	0xbd604f91	-0.05476338
27	0x3c0a1aeb	0.008429269
28	0xbcb00025	-0.021484444
29	0x3d7a7c86	0.06115391
30	0x3b69fa08	0.0035702009
31	0x3cb928db	0.02260249
32	0x3cdad9fd	0.026715273
33	0x3c9c8ccb	0.019110104
34	0x3d2e023b	0.042482596
35	0x3cda010d	0.02661183
36	0xbd913b30	-0.07091367
37	0xbcc143f9	-0.023591982
38	0x3d1b4b6a	0.037913717
39	0xbcb97326	-0.022637915
40	0xbce32acf	-0.027730374
41	0x3c940eab	0.0180734
42	0x3caf6d8c	0.02141454
43	0xbd4dd0a5	-0.050247807
44	0x3c6d95ff	0.014501094
45	0xbce1371f	-0.027492104
46	0x3b830da9	0.003999431
47	0x3bf34613	0.007424125
48	0x3cb4f543	0.022089606
49	0x3d0d878a	0.03455309
50	0x3c4b1e21	0.01239732
51	0xbbffce07	-0.007806543
52	0x3c80e6be	0.015735026
53	0x3c34a45a	0.011025513
54	0x3cf0605e	0.029342826
55	0x3ca0d96f	0.01963493
56	0x3b315245	0.0027057093
57	0xbd201c6f	-0.039089616
58	0xbccb7227	-0.024834706
59	0xbc651e15	-0.013984223
60	0xbd0f58ad	-0.034996677
61	0x3d5cecc3	0.05393673
62	0xbc80a1b5	-0.015702108
63	0xbce38857	-0.027774973
64	0xbdfb90a8	-0.1228345
65	0xbba57f6c	-0.0050505903
66	0xbd5c1b8d	-0.053737212
67	0x3acfcbf5	0.0015853631
68	0xbd9ac2d7	-0.07556694
69	0xbc98ef0a	-0.01866867
70	0xbcb3ff27	-0.021972252
71	0x3bd1762d	0.0063922615
72	0x3cbbeabf	0.022939084
73	0xbc72f4d4	-0.014828879
74	0xbbacda73	-0.0052750646
75	0xbbd36892	-0.0064516747
76	0x3c4defbf	0.012569367
77	0x3c48d651	0.012258128
78	0x3d484d46	0.04890182
79	0x39dea1af	0.00042463603
80	0xbbe9bd08	-0.00713313
81	0x3ccfe195	0.02537612
82	0x3ca801ec	0.020508729
83	0x3d3c36ac	0.045950577
84	0x3c32e49a	0.010918761
85	0xbcaecbdb	-0.02133744
86	0x3ab91c9b	0.0014122905
87	0x3cd538cf	0.026028065
88	0xbbdac7d2	-0.0066766525
89	0x3d128544	0.035771623
90	0x3d077940	0.033074617
91	0x3d9fb2ab	0.0779775
92	0x3da9bb8b	0.08287724
93	0x3a84827f	0.0010109692
94	0xbc96401b	-0.018341115
95	0xbd7afb1a	-0.061274625
96	0xbc4b3e5e	-0.012405006
97	0x3ca52826	0.020160746
98	0xbc04378d	-0.008069885
99	0x3d47f1af	0.04881447
100	0xbcdd8a3f	-0.02704346
101	0x3ccc6b8b	0.024953624
102	0x3c4382b0	0.011933014
103	0x3c927d70	0.017882079
104	0x3c2d44d7	0.010575495
105	0x3d1ad14b	0.037797254
106	0xbce8c766	-0.028415393
107	0xbc1d9752	-0.009618597
108	0x3c8948d6	0.016758364
109	0x3c286778	0.010278575
110	0x3cbcd0a8	0.023048714
111	0x3cacc42c	0.021089636
112	0x3c870afb	0.016484728
113	0xbcd8b687	-0.026454223
114	0x3d419968	0.04726544
115	0x3d4d9e25	0.050199647
116	0x3c0a29e5	0.00843284
117	0xbc9b5dbc	-0.018965594
118	0x3d154ea0	0.036451936
119	0x3cc4a54c	0.024004601
120	0xbd1e55f5	-0.038656194
121	0x3ca807a1	0.02051145
122	0xbd01a381	-0.03165007
123	0xbd48acd1	-0.048992936
124	0xbcb02a95	-0.02150468
125	0xbc537932	-0.012907313
126	0xbd7c6b0d	-0.06162553
127	0xbd4c19c4	-0.04982926
128	0xbd8e0f9e	-0.069365725
129	0xbd53c37f	-0.05170011
130	0xbcb510c1	-0.022102715
131	0x3d1724f0	0.03690046
132	0x3cedef18	0.029044673
133	0xbd212e24	-0.039350644
134	0x3d817172	0.06320466
135	0x3d06908e	0.0328527
136	0xbd613443	-0.05498148
137	0xbcc1cee2	-0.02365822
138	0xbb658dba	-0.0035027103
139	0x3cb35122	0.021889273
140	0xbd1d38a7	-0.038384106
141	0x3cb8a15f	0.022537885
142	0xbcae2d6e	-0.021261897
143	0xbce4dad4	-0.027936377
144	0xbca5380b	-0.020168325
145	0xbbd57ba7	-0.0065149846
146	0xbc753815	-0.014966984
147	0x3d77477c	0.060370907
148	0xbc9f2175	-0.019425133
149	0xbc0e044b	-0.008668016
150	0x3ccc0ef0	0.024909467
151	0xbcc42239	-0.0239421
152	0xbc478f8b	-0.012180219
153	0xbb56bdcb	-0.0032766934
154	0xbb922315	-0.0044597485
155	0xbc8a8047	-0.01690687
156	0x3cb63c24	0.022245474
157	0xbcbfa49e	-0.023393925
158	0x3c38f6cc	0.01128931
159	0x3c0cabbd	0.0085858675
160	0xbd1cbaeb	-0.038264196
161	0x3c02af5c	0.007976379
162	0x3d94921b	0.0725443
163	0xbb54b20c	-0.0032454757
164	0x3ba7e694	0.0051239226
165	0xbda8df1c	-0.0824568
166	0x3d6d4b39	0.057933066
167	0xbb2321d1	-0.0024891982
168	0x3d441a5f	0.047876712
169	0xbd86858a	-0.06568439
170	0x3d079437	0.033100333
171	0x3cffbe54	0.031218685
172	0xbcdc15d2	-0.026865873
173	0xbd062fe7	-0.032760527
174	0x3cf045ce	0.02933016
175	0x3c3d2685	0.011544828
176	0xbd071262	-0.032976516
177	0xbb21fb83	-0.0024716563
178	0xbd161468	-0.036640555
179	0x3ccb0915	0.024784604
180	0xbab37728	-0.0013692128
181	0x3c80cbce	0.015722182
182	0x3d4de53b	0.05026744
183	0x3bcd79f1	0.00627064
184	0xbd841d93	-0.06450953
185	0xbc982b41	-0.018575313
186	0xbcf75b41	-0.03019488
187	0xbc894d52	-0.016760502
188	0xbb7935ab	-0.0038026373
189	0xbd27c842	-0.040962465
190	0xbd7c37a7	-0.06157651
191	0x3d6e95f5	0.05824848
192	0xbd3f83a5	-0.046756405
193	0xbd78310b	-0.060593646
194	0x3c24dc0d	0.01006223
195	0x3d297eee	0.041380815
196	0xbd453eea	-0.048155703
197	0x3daa6e8b	0.08321866
198	0x3bea6e46	0.007154259
199	0xbd02b1b1	-0.03190774
200	0xbd823082	-0.063569084
201	0x3d5b8a26	0.053598545
202	0x3dc0f92f	0.09422528
203	0x3ca527ee	0.020160642
204	0xbd1e1d72	-0.0386023
205	0x3d05d5d6	0.032674633
206	0x3d34a858	0.044105858
207	0xbd3369c7	-0.04380205
208	0xbccd6d29	-0.025076466
209	0xbda428ba	-0.080155805
210	0x3d2987b7	0.041389193
211	0x3b4459ad	0.0029960677
212	0x3d730332	0.05932922
213	0xbd35d1af	-0.044389423
214	0xbd0fc95a	-0.035104133
215	0xbcafd12f	-0.021462051
216	0xbc4770c3	-0.012172881
217	0xbc14604b	-0.009056161
218	0x3bf61449	0.0075097424
219	0x3b9f6610	0.0048644617
220	0x3c9c5faf	0.019088594
221	0xbc9264f9	-0.017870413
222	0xbc30e242	-0.010796132
223	0xbcb3873b	-0.021915069
224	0x3c137775	0.009000649
225	0xbb7f90f8	-0.003899632
226	0x3c94d07d	0.018165821
227	0xbc71ba1b	-0.014753844
228	0xbc169d6f	-0.0091928085
229	0x3ce46604	0.027880676
230	0x3d1df14c	0.038560197
231	0x3ce8d21c	0.0284205
232	0x3af1fd2c	0.0018462292
233	0x3d16a546	0.03677871
234	0x3c731c4f	0.014838292
235	0x3c42d684	0.011891965
236	0x3b350ee4	0.0027627284
237	0xbc6f040a	-0.014588365
238	0xbc33a80f	-0.010965361
239	0xbc53bbc0	-0.012923181
240	0x3c338f9f	0.010959535
241	0x3c035f90	0.008018389
242	0xbd6a2ade	-0.057169788
243	0x3c4e8e80	0.012607217
244	0xbd0c00c6	-0.034180425
245	0xbd01d54b	-0.031697553
246	0xbd3e934e	-0.0465272
247	0xbd2cf9cb	-0.04223041
248	0xbc334d7f	-0.0109437695
249	0xbd0e131a	-0.034686185
250	0xbd260bf2	-0.040538736
251	0x3cb1d2ec	0.02170702
252	0xba80b360	-0.0009819083
253	0xbd3cdd82	-0.046109684
254	0x3a74eef1	0.00093434664
255	0x3d18bbe6	0.03728857

st_gcn_networks.0.tcn.2.bias f4 [8]
0	0xb84743fd	-4.7508616e-05
1	0x3812f0b7	3.5033296e-05
2	0x378bada0	1.6650942e-05
3	0x37919358	1.735396e-05
4	0xb6c0f258	-5.7502584e-06
5	0xb8c66f5a	-9.4621166e-05
6	0xb91f5ae9	-0.00015197288
7	0x37fc64a7	3.008761e-05

st_gcn_networks.0.tcn.3.weight f4 [8]
0	0x3eab5ac3	0.33467683
1	0x3e96b809	0.29437283
2	0x3e880e52	0.26573426
3	0x3e6a9062	0.2290664
4	0x3e46d82b	0.19418399
5	0x3ea24fdd	0.31701556
6	0x3eb04120	0.34424686
7	0x3e97c509	0.29642513

st_gcn_networks.0.tcn.3.bias f4 [8]
0	0xbd1c7092	-0.038193293
1	0x3b538c17	0.0032279545
2	0x3d5ad4ac	0.053425476
3	0x3c716593	0.01473369
4	0xbc5f11fd	-0.013615129
5	0x3d23d8b6	0.040001594
6	0x3d09a315	0.033602793
7	0xbca2b92f	-0.019863693

st_gcn_networks.0.tcn.3.running_mean f4 [8]
0	0x3c2c3947	0.010511703
1	0x3c86ddd1	0.016463192
2	0xbc6639ee	-0.014051897
3	0xbd1901b5	-0.037355144
4	0x3cf0c8fd	0.029392714
5	0x3d16b69f	0.036795255
6	0xbae2e00f	-0.0017309206
7	0x3c313085	0.010814791

st_gcn_networks.0.tcn.3.running_var f4 [8]
0	0x3bbb1a1f	0.005709901
1	0x3b4be80c	0.0031113653
2	0x3ae1ecb2	0.0017236678
3	0x3a7c0fb7	0.0009615379
4	0x3ac2fabd	0.0014875751
5	0x3b75dded	0.0037516311
6	0x3b9a096c	0.00470083
7	0x3b7b6a9d	0.0038363107

st_gcn_networks.1.gcn.conv.weight f4 [24, 8, 1, 1]
0	0xbcc9de78	-0.024642214
1	0xbd1bfec7	-0.03808477
2	0x3d65708a	0.05601553
3	0x3d5e3773	0.0542521
4	0xbc64fb28	-0.013975896
5	0x3ca5de5a	0.020247627
6	0x3bc52e85	0.0060175085
7	0x3d381baf	0.044948276
8	0xbb4ec323	-0.0031549416
9	0xbc9d5ffb	-0.019210806
10	0x3db44d92	0.08803858
11	0xbd2522fe	-0.040316574
12	0x3d085ada	0.033289768
13	0xbcc4d86c	-0.02402898
14	0x3d84c009	0.0648194
15	0x3cb8e63a	0.022570718
16	0x3d95f65b	0.07322379
17	0xbd845d34	-0.064630896
18	0xbceaa5f6	-0.02864359
19	0x3da50d5b	0.08059188
20	0x3d76e439	0.060276244
21	0x3d8831f8	0.06650156
22	0xbcfad3fc	-0.03061866
23	0xbc9cbe59	-0.019133734
24	0x3c1a05ff	0.009400844
25	0xbced98d4	-0.029003538
26	0xbd018467	-0.03162041
27	0xbd0805c3	-0.03320862
28	0xbd855087	-0.065095
29	0xbdca3715	-0.09873787
30	0x3d41f1ce	0.047349744
31	0xbdc24f31	-0.09487761
32	0xbcc984a0	-0.024599373
33	0x3c215d5e	0.009848921
34	0x3d8c625b	0.06854697
35	0xbd412824	-0.04715742
36	0x3c78a879	0.015176886
37	0x3cc1aaa0	0.02364093
38	0x3d2aa50b	0.041661303
39	0xbc2b7b77	-0.010466448
40	0x3c0fb370	0.008770809
41	0xbdaf4607	-0.085582785
42	0x3d0ad341	0.033892874
43	0xbd6604e2	-0.056157
44	0xbc58a8c7	-0.013223833
45	0x3b3cfcd5	0.0028837223
46	0xbdafb29b	-0.08578988
47	0x3c39524d	0.011311126
48	0xbcd98f65	-0.026557634
49	0xbc18911c	-0.0093119405
50	0x3d4add85	0.049527664
51	0x3b957f5d	0.004562302
52	0x3ca3479e	0.01993161
53	0x3cafee78	0.021476015
54	0xbd35c666	-0.04437866
55	0xbcd69a8e	-0.026196744
56	0xbd0c4c26	-0.03425231
57	0xbb53b181	-0.0032301845
58	0xbd1264a4	-0.03574051
59	0xbd041dbb	-0.032254916
60	0xbc7bde11	-0.015372769
61	0x3d612ddd	0.05497538
62	0x3bbd5c4d	0.0057788254
63	0x3da1f724	0.079084665
64	0xbc8feee7	-0.017569972
65	0x3d926927	0.071489625
66	0x3c86492a	0.01639231
67	0xbd1d1781	-0.038352493
68	0xbd8185d7	-0.06324356
69	0x3c41c8e3	0.01182768
70	0x3da0196f	0.07817351
71	0x3dc4e73a	0.096144155
72	0xbd7892c3	-0.060686838
73	0xbc44e5a9	-0.012017646
74	0xbd734d1e	-0.059399717
75	0xbca21455	-0.019785086
76	0xbbe6e2b5	-0.0070460686
77	0xbd093d24	-0.033505574
78	0x3d640e34	0.055677608
79	0x3b919f48	0.0044440366
80	0x3c6f1757	0.014592967
81	0xbbb7bff7	-0.005607601
82	0x3d654000	0.05596924
83	0xbd4c0d19	-0.04981718
84	0xbd470b71	-0.048594896
85	0xbdcebd2a	-0.10094674
86	0x3dc39c12	0.095512524
87	0xbd571e7d	-0.05251931
88	0xbcafcf30	-0.0214611
89	0x3df9462c	0.12171587
90	0x3d8a1fbb	0.06744333
91	0x3cdac7dd	0.02670663
92	0xbd65a80b	-0.05606846
93	0x3d87cd3f	0.066309445
94	0xbd1346d8	-0.035956234
95	0xbdc9b451	-0.09848846
96	0xbd1bf70d	-0.038077403
97	0xbc6de09c	-0.014518883
98	0x3d9f668b	0.077832304
99	0x3d224610	0.039617598
100	0x3b0f02fd	0.002182185
101	0x3cae2055	0.021255651
102	0xbcd9b821	-0.026577057
103	0x3d1fa89e	0.038979165
104	0x3da9fd55	0.083002724
105	0xbd397cd0	-0.045285046
106	0xbbd9039d	-0.006622745
107	0xbd94921b	-0.0725443
108	0x3d02363b	0.03179
109	0xbda59f0e	-0.08086978
110	0x3da47d30	0.0803169
111	0x3d54e690	0.051977694
112	0xbd85c079	-0.06530852
113	0xbde308bd	-0.11085651
114	0x3d34d3ed	0.04414742
115	0x3d2c0f44	0.042006746
116	0xbd938424	-0.07202938
117	0xbd4c42c8	-0.049868375
118	0x3cdc325e	0.026879486
119	0x3d9d0fc4	0.07669023
120	0x3cd50a43	0.02600587
121	0x3c0e30ff	0.008678674
122	0xbc77edc5	-0.015132372
123	0x39422b62	0.00018517443
124	0xbb3b2fce	-0.002856243
125	0x3cacf287	0.02111174
126	0x3d1bd282	0.038042553
127	0xbba9822b	-0.005172988
128	0xbc827cc2	-0.01592863
129	0xbc6521b0	-0.0139850825
130	0x3d2ae9e4	0.04172696
131	0x3d9e5b34	0.07732239
132	0xbc792bd0	-0.0152082
133	0x3d266f30	0.04063338
134	0xbd365bb1	-0.044521037
135	0xba262844	-0.00063383975
136	0x3d83a52d	0.06427989
137	0x3c90ce0a	0.017676372
138	0x3cd68b6d	0.02618953
139	0xbca1a76a	-0.01973315
140	0x3c5ccc82	0.013476493
141	0x3d40a892	0.04703576
142	0x3dba8c90	0.091088414
143	0x3c68a523	0.014199528
144	0xbb6f637c	-0.0036527803
145	0x3c99ea78	0.018788561
146	0xbcfd60b5	-0.030929903
147	0xbd86de5d	-0.06585381
148	0xbb4d3011	-0.0031309167
149	0xbd52abfe	-0.051433556
150	0x3d70394b	0.05864839
151	0x3c971a62	0.018445197
152	0x3d8c2e92	0.0684482
153	0xbd0f6544	-0.035008684
154	0xbcec9698	-0.028880402
155	0xbd88223d	-0.066471554
156	0xbc102b71	-0.00879942
157	0xbcdb9a57	-0.026806993
158	0x3e1ab37b	0.15107529
159	0xbb38f21f	-0.0028220487
160	0xba46799d	-0.00075712224
161	0x3c1536d2	0.009107308
162	0x3bbabd52	0.0056988383
163	0xbd8b59b5	-0.0680422
164	0x3d00d279	0.031450722
165	0xbc88f652	-0.016719017
166	0x3c479bea	0.012183169
167	0x3ba968f6	0.005169983
168	0xbc8e8399	-0.017396735
169	0xbd21de70	-0.039518774
170	0xbca93349	-0.020654337
171	0x3cd4dd9e	0.025984582
172	0xbd902fb9	-0.070403524
173	0xbd92aa1c	-0.07161352
174	0xbd35949b	-0.044331174
175	0xbbc6e19b	-0.0060693747
176	0x3d889e29	0.06670792
177	0x3d070bd8	0.03297028
178	0x3d01d32f	0.03169554
179	0xbdc243a7	-0.0948556
180	0x3d72b72c	0.059256718
181	0x3d16b7f0	0.03679651
182	0xbc866cf2	-0.016409371
183	0xbd139def	-0.03603929
184	0x3b298abb	0.0025870043
185	0xbc0856e8	-0.008321501
186	0x3cef899f	0.029240428
187	0x3ba2f98b	0.0049735955
188	0x3c32df2f	0.010917469
189	0xbd075139	-0.033036444
190	0x3af63680	0.0018784553
191	0x3d8a9409	0.06766517

st_gcn_networks.1.gcn.conv.bias f4 [24]
0	0x3a678d38	0.0008832994
1	0x3c623db2	0.013808655
2	0xbc8c32a1	-0.017113985
3	0x3d1231d4	0.03569205
4	0x3bbd5645	0.0057781064
5	0xbbab3056	-0.005224268
6	0x3b2b0f60	0.0026101694
7	0x3a0c8b35	0.00053613196
8	0xbd8f8ac6	-0.07008891
9	0xbbf759b9	-0.0075485376
10	0x3c8bc7d9	0.017063068
11	0x3b132400	0.0022451878
12	0xbd698bc5	-0.05701806
13	0x3c47d4c2	0.0121967215
14	0x3d53b1aa	0.051683106
15	0xbbe342ca	-0.006935452
16	0xbc3a7f7e	-0.011382936
17	0xbd24cec3	-0.040236246
18	0x3bfdca29	0.0077450466
19	0x3c8e62f6	0.017381173
20	0x3c299e2f	0.010352655
21	0xbc61e717	-0.013788006
22	0x3cc52ba8	0.024068668
23	0xbc2a8ced	-0.010409576

st_gcn_networks.1.tcn.0.weight f4 [8]
0	0x3e59d9fb	0.21274559
1	0x3e456ed0	0.19280553
2	0x3e88d148	0.2672217
3	0x3e940d19	0.28916243
4	0x3e1f636a	0.15565267
5	0x3e6a2233	0.22864608
6	0x3e83f94e	0.25776142
7	0x3e4f8784	0.20266539

st_gcn_networks.1.tcn.0.bias f4 [8]
0	0xbd02ce62	-0.031935103
1	0x3c0716ec	0.008245211
2	0x3cce5f4a	0.025191922
3	0x3b384c40	0.002812162
4	0xbcb2499f	-0.02176362
5	0xbbf722f6	-0.0075420095
6	0xbd0e2e01	-0.03471184
7	0xbcd0c7c7	-0.025485886

st_gcn_networks.1.tcn.0.running_mean f4 [8]
0	0xba83f423	-0.0010067265
1	0xb9655de6	-0.00021874122
2	0x37872259	1.6109248e-05
3	0x3a9f2289	0.001214103
4	0xbaf0defe	-0.0018377004
5	0xba6822ec	-0.00088553014
6	0x3b1492d4	0.0022670524
7	0x39a6a703	0.0003178642

st_gcn_networks.1.tcn.0.running_var f4 [8]
0	0x3689477c	4.09124e-06
1	0x36958ec8	4.457168e-06
2	0x375dd9e2	1.3223356e-05
3	0x370e3f2d	8.478569e-06
4	0x36c4c632	5.864328e-06
5	0x36997e51	4.5744605e-06
6	0x37470a5d	1.1863737e-05
7	0x36af2376	5.2195346e-06

st_gcn_networks.1.tcn.2.weight f4 [8, 8, 9, 1]
0	0xbc684d00	-0.0141785145
1	0x3bbdfb49	0.005797778
2	0x3ca19360	0.019723594
3	0xbc1976e4	-0.009366725
4	0xbc7773d3	-0.015103298
5	0xbd1f6fbc	-0.038924918
6	0xbb7a225f	-0.003816746
7	0x3bc4943a	0.0059991153
8	0x3d2b4b4a	0.041819848
9	0xbd523b06	-0.05132582
10	0x3c515c9e	0.012778429
11	0x3d3cc67f	0.046087738
12	0x3be83a72	0.0070870453
13	0xbd343bdc	-0.0440024
14	0xbcf1ca73	-0.02951548
15	0x3ccb2d26	0.024801802
16	0x3cbffbb1	0.023435446
17	0xbc722c5b	-0.014781083
18	0x3bf2ad63	0.007405923
19	0xbc9c11fa	-0.01905154
20	0x3d5cf487	0.053944137
21	0xbc1fcd25	-0.0097535
22	0x3c33fb34	0.010985184
23	0xbb8721f5	-0.004123921
24	0x3d3e5cac	0.046475098
25	0xbd0d8b69	-0.03455678
26	0xbd50e662	-0.05100096
27	0x3c11923d	0.008884964
28	0x3c57fb85	0.0131825255
29	0x3ce40800	0.027835846
30	0x3a03deed	0.0005030472
31	0x3ce27962	0.02764577
32	0x3d404c85	0.046947975
33	0xbd32d455	-0.043659527
34	0xbd47a373	-0.04873986
35	0xbd271ed8	-0.0408009
36	0xbbb3aa85	-0.005482974
37	0xbc4d3c43	-0.012526575
38	0xbc27aae9	-0.010233619
39	0x3a802640	0.0009777024
40	0x3b9cd030	0.00478556
41	0x3d32318b	0.04350428
42	0x3c86a172	0.016434405
43	0x3c51a2b3	0.012795138
44	0x3d0b91e9	0.034074698
45	0x3a0bc759	0.00053321343
46	0xbd283fac	-0.041076347
47	0x3d02b03e	0.03190636
48	0x3ca8182f	0.020519344
49	0xbca43273	-0.020043587
50	0xbc0676d7	-0.008207045
51	0xbbcc624e	-0.006237305
52	0xbc1e255b	-0.009652461
53	0xbc5819ec	-0.013189774
54	0xbc31ae91	-0.0108448425
55	0x3c1bab6e	0.009501321
56	0x3c201c67	0.009772397
57	0xbc91e4b9	-0.017809259
58	0x3d03c4cd	0.032170106
59	0x3cd1bf1d	0.025603825
60	0x3cd618c3	0.026134854
61	0x38e8e438	0.00011105131
62	0x3c16b4e6	0.009198403
63	0x3c543ffb	0.012954707
64	0xbbe9db20	-0.0071367174
65	0xbd64f9b8	-0.055902213
66	0xbd594283	-0.053041946
67	0x3d0a08a5	0.03369965
68	0xbcdcc39b	-0.02694874
69	0xbc6aae69	-0.014323809
70	0x3c2d16c9	0.010564514
71	0xbbae0604	-0.0053107757
72	0x39900359	0.00027468315
73	0xbcff121f	-0.03113657
74	0x3a8d3504	0.0010773246
75	0xbaee0efe	-0.0018162427
76	0xbc198e60	-0.009372324
77	0xbd22ff85	-0.039794464
78	0x3c360031	0.011108444
79	0x3ca2df9b	0.019882014
80	0xbd30151e	-0.04298889
81	0xbd443114	-0.047898367
82	0xbbefb687	-0.00731546
83	0xbc5197f1	-0.012792573
84	0xbd98dc5e	-0.07463907
85	0x3cd3ab50	0.025838524
86	0x3c09888d	0.008394373
87	0x3d31e10c	0.043427512
88	0x3c3ed052	0.011646347
89	0x3d333949	0.043755803
90	0xbd0a3ebf	-0.033751246
91	0xbc20d2a7	-0.009815848
92	0x3c88b6b5	0.016688684
93	0xbc4c32c0	-0.012463272
94	0x3ce6fb35	0.028195957
95	0x3d133b2a	0.035945095
96	0x3b43e524	0.0029891217
97	0x3d5848b0	0.052803695
98	0x3cc568a2	0.024097744
99	0x3c8891d3	0.016671097
100	0x3d7465f3	0.05966754
101	0xbaa9a3a4	-0.0012942445
102	0x3ce299dc	0.027661256
103	0xbba2a885	-0.0049639367
104	0x3cfa20ec	0.030533276
105	0x3c20e11a	0.009819293
106	0xbc649055	-0.013950427
107	0x3cf33da3	0.029692477
108	0xbcd8b1b8	-0.02645193
109	0x3c94eb23	0.018178528
110	0xbcb5dac4	-0.022199042
111	0xbcbcb8a3	-0.02303726
112	0x39bfd050	0.00036585564
113	0x3baa3c8a	0.005195205
114	0x3caa3358	0.020776436
115	0xbcdef116	-0.027214568
116	0x3caf50f9	0.021400915
117	0x3c91f71e	0.01781803
118	0xbaadc0cb	-0.0013256309
119	0xbc03e6bb	-0.008050616
120	0xbc612f7c	-0.013744231
121	0xbc2c58e6	-0.010519242
122	0x3bb78224	0.005600231
123	0x3c07ac6f	0.0082808575
124	0x3bb5a4ae	0.005543313
125	0x3d6d2525	0.057896752
126	0xbca403e3	-0.020021385
127	0x3bc29b58	0.0059389286
128	0x3d382b44	0.044963136
129	0xbd04feaf	-0.032469448
130	0x3ce9f6e8	0.028560117
131	0xbc820a44	-0.015874036
132	0x3cdc6c37	0.02690707
133	0xbc81ffc2	-0.015869025
134	0x3cf732bf	0.030175565
135	0xbc2fd086	-0.010730868
136	0xbd181a16	-0.037134252
137	0xbcc221a3	-0.02369768
138	0xbc9ac6e4	-0.018893667
139	0xbcd63154	-0.026146568
140	0x3cada519	0.021196889
141	0x3b1060b4	0.0022030296
142	0xbbbb1755	-0.0057095685
143	0x3c36eae7	0.0111644035
144	0x3a192691	0.00058422337
145	0xbd5ec256	-0.054384552
146	0xbcaf1b9a	-0.021375466
147	0x3b39bc43	0.0028340972
148	0xb9df838d	-0.00042631887
149	0x3b1ee1cb	0.002424347
150	0x3bc4bd55	0.0060040154
151	0xbd1fe212	-0.039033957
152	0xbd61b38d	-0.055102874
153	0x3d2a439e	0.04156839
154	0xbcf801ef	-0.03027436
155	0xbcf4c1f9	-0.02987765
156	0xbc0160da	-0.007896626
157	0xb9fa9ac8	-0.00047799037
158	0xbc055ef7	-0.008140317
159	0xbca220a7	-0.01979096
160	0x3bdecb2a	0.0067991214
161	0xb9a1b146	-0.00030840392
162	0x3d29e1d9	0.04147515
163	0xbd2b3528	-0.04179874
164	0x3c7aa051	0.0152970115
165	0x3d3b4fed	0.04573052
166	0xbd835e26	-0.06414442
167	0x3cdbcd09	0.026831167
168	0x3d16ffaf	0.036864933
169	0x3ce1c57f	0.027559994
170	0x3c42d84d	0.01189239
171	0xbccf994c	-0.025341652
172	0x3d302340	0.043002367
173	0xbd2733d0	-0.040820897
174	0x3c15ed08	0.009150751
175	0xbc5e81d7	-0.013580761
176	0xbd04a69a	-0.032385446
177	0xbd1b11ca	-0.03785876
178	0x3cc39f39	0.023879634
179	0xbc98c260	-0.018647373
180	0x3aac291b	0.0013134809
181	0x3ca61bad	0.020276869
182	0xbbe6d807	-0.0070447954
183	0x3d61dacc	0.0551403
184	0xbc8328f1	-0.016010733
185	0xbcd790d8	-0.026314184
186	0x3cb9f21d	0.022698456
187	0xbcdd2b3c	-0.026998155
188	0xbcf39548	-0.029734269
189	0x39a1d97f	0.0003087036
190	0xbc80c881	-0.015720608
191	0x3d35663e	0.04428696
192	0xbc2f856d	-0.0107129635
193	0x3c2b34ae	0.010449572
194	0xbd054fa9	-0.032546673
195	0x38c69a10	9.470072e-05
196	0xbda7aca1	-0.08187223
197	0xbd506cab	-0.050884884
198	0xbc0fc4a3	-0.008774909
199	0xbb4e8e9c	-0.0031518107
200	0x3cc018b3	0.023449278
201	0x3d6cc977	0.05780932
202	0xbc548089	-0.012970098
203	0xbc2240df	-0.009903162
204	0x3c0da5ef	0.008645519
205	0x3c86a1c1	0.016434552
206	0x3d6a8697	0.05725726
207	0x3c034090	0.008010998
208	0x3cf2a2c7	0.029618634
209	0x3cccd37a	0.025003184
210	0xbc49d582	-0.012318971
211	0x3c8f1084	0.01746393
212	0xbc9321d0	-0.017960459
213	0x3c3ffeb5	0.011718442
214	0xbb918e08	-0.0044419803
215	0xbca87f3c	-0.020568483
216	0xbbeba223	-0.007190959
217	0xbcaf09a7	-0.021366907
218	0x3d5bf13c	0.053696856
219	0xbcba9dc1	-0.022780301
220	0xbd1d1f58	-0.03835997
221	0xbb28c37d	-0.0025751286
222	0xbcfa9757	-0.030589743
223	0xbd828fce	-0.06375085
224	0x3cf40631	0.029788109
225	0x3d3d2ec3	0.046187174
226	0x3c7ee3ea	0.015557269
227	0x3bff4bc4	0.0077910144
228	0x3c39b868	0.01133547
229	0x3d0ac6fe	0.03388118
230	0xb9d02d0d	-0.00039706417
231	0xbd0f0ead	-0.034926105
232	0xbd177884	-0.036980167
233	0x3c3c1270	0.011479005
234	0x3c0b65ef	0.00850819
235	0x3ad26b2b	0.0016053667
236	0x3ceb8ae6	0.028752755
237	0xbceedbbd	-0.029157514
238	0x3c8bb13f	0.017052291
239	0xbb504944	-0.003178195
240	0x3c0f0040	0.008728087
241	0xbaeaeca1	-0.0017923304
242	0x3d44fcbf	0.0480926
243	0xbbcd57b3	-0.006266558
244	0xbb01c97a	-0.0019803927
245	0xbc9208bc	-0.01782643
246	0x3d052e85	0.032515068
247	0xbbe9613d	-0.0071221874
248	0xbcf05d5a	-0.029341388
249	0xbb91097e	-0.0044261804
250	0x3ce634b1	0.028101297
251	0xbd6ca160	-0.057771087
252	0x3c97f45a	0.018549133
253	0xbbbf7ec9	-0.0058439714
254	0xbcc706d8	-0.024295256
255	0xbd2e94a3	-0.04262222

st_gcn_networks.1.tcn.2.bias f4 [8]
0	0xb7a295fc	-1.9381747e-05
1	0xb8b0d549	-8.4320614e-05
2	0x3863e9e6	5.4338852e-05
3	0xb83c3c52	-4.487887e-05
4	0x383a24e0	4.43802e-05
5	0xb7872153	-1.6108772e-05
6	0xb81edf2f	-3.787799e-05
7	0x381d068f	3.7437825e-05

st_gcn_networks.1.tcn.3.weight f4 [8]
0	0x3e4fa3fd	0.202774
1	0x3e7efc0d	0.24900837
2	0x3e8c9a12	0.27461296
3	0x3e832fcd	0.25622407
4	0x3e4d8b17	0.2007259
5	0x3e8d2611	0.27568105
6	0x3e881ceb	0.26584563
7	0x3e3acd87	0.18242465

st_gcn_networks.1.tcn.3.bias f4 [8]
0	0x3bd7cbe6	0.006585586
1	0xbc6a228e	-0.014290465
2	0xbc8277d7	-0.015926285
3	0xbc1147b2	-0.008867191
4	0xbace07a2	-0.0015718827
5	0xbba6349f	-0.005072191
6	0xbc5a2629	-0.013314762
7	0x3bf0f480	0.0073533654

st_gcn_networks.1.tcn.3.running_mean f4 [8]
0	0xba0f8b24	-0.00054757507
1	0x3c83a9e1	0.016072216
2	0xbb62697f	-0.0034547744
3	0x3a3fea8c	0.0007321022
4	0xbac16cdc	-0.0014757174
5	0x3c2014d2	0.009770589
6	0xbc3b6fef	-0.011440261
7	0xbc3fab4c	-0.011698555

st_gcn_networks.1.tcn.3.running_var f4 [8]
0	0x39845b53	0.00025245044
1	0x3a813586	0.000985787
2	0x39e8e5e2	0.00044421764
3	0x39927385	0.0002793336
4	0x3967b988	0.00022098992
5	0x3a5a9f1b	0.00083397486
6	0x3a09a8d8	0.0005251295
7	0x3a12761e	0.0005587059

st_gcn_networks.1.residual.0.weight f4 [8, 8, 1, 1]
0	0xbcea671b	-0.028613618
1	0xbd8235e6	-0.063579366
2	0xbdda8fde	-0.10671972
3	0xbc90b0f1	-0.017662497
4	0xbd348378	-0.04407069
5	0x3ce205db	0.027590683
6	0x3d5d2731	0.053992454
7	0xbb52cf93	-0.003216718
8	0xbd9a7c23	-0.075432085
9	0xbd34b856	-0.04412111
10	0xbd009df1	-0.031400625
11	0x3a369853	0.0006965447
12	0x3cabd0ff	0.02097368
13	0x3d99310d	0.07480059
14	0x3db5b731	0.088728316
15	0xbda978de	-0.08275007
16	0xbdfe235e	-0.124090895
17	0xbb97395a	-0.004614991
18	0x3d95538c	0.07291326
19	0xbb25f21b	-0.0025321308
20	0xbd0a7c6c	-0.033810064
21	0x3d516d78	0.05112979
22	0x3a1477ae	0.00056635856
23	0xbd5d3f0d	-0.054015208
24	0x3db3c00e	0.08776866
25	0x3ccfb861	0.025356473
26	0xbd503ea8	-0.050841004
27	0x3ad07539	0.0015904076
28	0xbcd6c987	-0.026219143
29	0x3c1c3145	0.009533231
30	0x3d666cf8	0.056256264
31	0x3d8c43f7	0.06848901
32	0xbd7db44b	-0.06193952
33	0x3d269c23	0.040676247
34	0xbd87b234	-0.066257864
35	0x3cb3b885	0.021938572
36	0x3d1e4160	0.038636565
37	0xbd3ec022	-0.04656995
38	0x3d9a7c37	0.07543223
39	0x3d741f1c	0.05959998
40	0x3dec3338	0.11533207
41	0x3cca3927	0.024685455
42	0x3dad62dc	0.084661216
43	0xbc7b81c5	-0.015350764
44	0xbd7f3317	-0.062304582
45	0xbd17345d	-0.036915172
46	0xbcbe78dd	-0.023250991
47	0xbdaa9c03	-0.08330538
48	0x3cbe9433	0.023264026
49	0x3cb9d6d9	0.022685455
50	0xbd8f9c67	-0.07012253
51	0x3ca39b66	0.01997156
52	0xbcc1cf2b	-0.023658356
53	0xbcefd270	-0.02927515
54	0xbd9e9012	-0.07742323
55	0x3c8d19bc	0.017224185
56	0x3bba9eca	0.0056951987
57	0x3d12d2f2	0.035845704
58	0x3da6b165	0.08139304
59	0x3cb83a0f	0.022488622
60	0x3d5030b9	0.050827716
61	0x3da3a395	0.07990185
62	0xbd87de07	-0.06634145
63	0xbcf89cc7	-0.030348195

st_gcn_networks.1.residual.0.bias f4 [8]
0	0xb7764f8e	-1.4681265e-05
1	0xb73f1070	-1.1388314e-05
2	0x3820dbae	3.8351565e-05
3	0xb7d3ea48	-2.5262256e-05
4	0x38148259	3.5407345e-05
5	0x369a01ec	4.5897814e-06
6	0xb88f9005	-6.845597e-05
7	0x3785474e	1.588804e-05

st_gcn_networks.1.residual.1.weight f4 [8]
0	0x3e5fabd7	0.21842895
1	0x3e37c61f	0.17946671
2	0x3e64e575	0.22353156
3	0x3e670023	0.22558646
4	0x3e2e90d7	0.1704744
5	0x3e61f477	0.22065912
6	0x3ea3b314	0.31972563
7	0x3e0fbfdd	0.14038034

st_gcn_networks.1.residual.1.bias f4 [8]
0	0x3bd7cbe6	0.006585586
1	0xbc6a228e	-0.014290465
2	0xbc8277d7	-0.015926285
3	0xbc1147b2	-0.008867191
4	0xbace07a2	-0.0015718827
5	0xbba6349f	-0.005072191
6	0xbc5a2629	-0.013314762
7	0x3bf0f480	0.0073533654

st_gcn_networks.1.residual.1.running_mean f4 [8]
0	0xbc84f9e0	-0.016232431
1	0xba954ba0	-0.0011390336
2	0xbb8b6ac2	-0.00425467
3	0x3c9c2eef	0.019065348
4	0x3b699bcb	0.0035645838
5	0x3af64c9a	0.001879114
6	0xbc8022ef	-0.015641658
7	0x3c9e2b04	0.01930762

st_gcn_networks.1.residual.1.running_var f4 [8]
0	0x3a0c35f1	0.0005348614
1	0x3a75ef14	0.0009381634
2	0x3a1e66d4	0.0006042544
3	0x3a6bc006	0.00089931523
4	0x3a68d907	0.0008882437
5	0x3a8c6ed6	0.0010714184
6	0x3a4a815e	0.00077249657
7	0x3a126d11	0.000558571

st_gcn_networks.2.gcn.conv.weight f4 [48, 8, 1, 1]
0	0x3d161ee6	0.03665056
1	0xbd7f3c2d	-0.062313247
2	0x3c5e2f68	0.013561107
3	0xbd449f8f	-0.04800373
4	0x3d578237	0.052614417
5	0x3c49faaf	0.012327834
6	0xbd82de41	-0.06390048
7	0xbcab533c	-0.020913713
8	0xbcb5ff93	-0.022216594
9	0xbc9f254a	-0.01942696
10	0x3a3ea6e1	0.00072727917
11	0xbd09874c	-0.033576295
12	0xbc331245	-0.010929649
13	0xba571333	-0.000820446
14	0x3cee0b13	0.029058015
15	0xbcc0a10a	-0.02351429
16	0x3ccd734b	0.02507939
17	0xbcbc950f	-0.023020295
18	0x3c75f225	0.015011345
19	0xbd2adc48	-0.041713983
20	0xbc879de2	-0.016554777
21	0x3c2762c7	0.010216421
22	0xbd4dd050	-0.05024749
23	0xbc3ac326	-0.011399066
24	0x3ce31a1c	0.02772241
25	0x39bc1bc6	0.00035878847
26	0xba64c9e6	-0.0008727595
27	0xbc7daaad	-0.015482587
28	0xbb466596	-0.0030272952
29	0xbd685b52	-0.056727715
30	0xbcbdf96c	-0.023190223
31	0x3bbc3e6f	0.0057447474
32	0x3cfe2a2b	0.031025967
33	0x3c8d8d3b	0.017279258
34	0xbd1192df	-0.035540458
35	0x3c959034	0.018257238
36	0xbd839fdc	-0.06426975
37	0x3d219607	0.039449718
38	0xbc9b3611	-0.01894668
39	0xbcb1bfc4	-0.021697886
40	0x3d919945	0.07109312
41	0xbc0a41bf	-0.008438527
42	0xbd856f5f	-0.06515383
43	0xbce80e2e	-0.028327074
44	0x3db33cf7	0.087518625
45	0xbc9ddcb2	-0.019270275
46	0xbdd4de0b	-0.10393914
47	0xbcbd2cad	-0.023092592
48	0xbd161c16	-0.03664788
49	0xbdb0cd44	-0.08632901
50	0xbd3e663c	-0.046484217
51	0xba2c3540	-0.0006569214
52	0xbd5b247c	-0.05350159
53	0x3d4fd0a8	0.0507361
54	0xbdc1cfdf	-0.094634764
55	0xbc0dc701	-0.008653403
56	0xbc247e05	-0.010039811
57	0xbc9f70ee	-0.019463029
58	0x3d1d0f61	0.038344745
59	0xbc504bb0	-0.012713358
60	0xbc290bc3	-0.010317746
61	0xbc8e4927	-0.017368866
62	0x3cf6e35b	0.030137708
63	0xbb998d8f	-0.0046860646
64	0xbc819be2	-0.015821401
65	0xbccb8370	-0.024842948
66	0xbd1796b7	-0.037008967
67	0x3c87dd76	0.016585093
68	0xbd36ca36	-0.044626437
69	0x3d207f6e	0.039184026
70	0xbcd0c942	-0.025486592
71	0xbd399c02	-0.045314796
72	0x3c1c91c3	0.009556237
73	0xbcacb17e	-0.021080729
74	0x3d5083be	0.05090689
75	0x3c9ae512	0.018908057
76	0x3ca41edb	0.020034244
77	0xbd3ed47a	-0.046589352
78	0x3ca3693e	0.019947644
79	0x3be4395d	0.006964846
80	0x3c46a451	0.012124137
81	0xbd14259e	-0.036168687
82	0x3ce41db3	0.027846193
83	0x3b76bd2c	0.0037649376
84	0x3d21b289	0.039476905
85	0x3d748c9c	0.059704408
86	0x3b98271a	0.004643333
87	0xbc873d39	-0.016508685
88	0x3d087eaa	0.03332392
89	0xbd1d9526	-0.038472317
90	0xbd33fb15	-0.043940622
91	0x3d09e702	0.03366757
92	0xbc9bf9a3	-0.019039935
93	0xbc406663	-0.011743161
94	0x3cdc602d	0.026901329
95	0xbd5a7db4	-0.053342536
96	0x3cdb22c4	0.026749976
97	0xbd03d633	-0.0321867
98	0xbae9d3e0	-0.0017839633
99	0x3da28e2d	0.07937274
100	0xbc7b90b2	-0.015354322
101	0x3ca2a80d	0.019855523
102	0x3cfaa0ec	0.030594312
103	0xbbef5b57	-0.0073045897
104	0x3bf90d8e	0.007600493
105	0xbd7f8dc4	-0.062391058
106	0x3d71b34c	0.05900888
107	0xbc91b2a1	-0.017785372
108	0xbc3625ff	-0.011117457
109	0xbb901e36	-0.0043981327
110	0xbbf814aa	-0.0075708227
111	0xb9cc6ee3	-0.0003899253
112	0xbceecbb7	-0.029149873
113	0x3cb47271	0.022027226
114	0x3d44a2d0	0.048006833
115	0xbd2869e8	-0.041116625
116	0x3c438926	0.011934554
117	0x3d304efd	0.04304408
118	0x3cf3bc94	0.029753007
119	0xbc008a9f	-0.00784555
120	0xbc8f685c	-0.017505817
121	0x3ceb411e	0.028717574
122	0xbce423ab	-0.027849039
123	0xbcff031f	-0.031129418
124	0xbd96c718	-0.07362193
125	0xbc00737f	-0.007840036
126	0xbb447fdb	-0.0029983434
127	0xbc952098	-0.018204018
128	0x3d05aba1	0.03263438
129	0xbcf4981f	-0.029857693
130	0x3caa5c47	0.020795954
131	0xbd57435a	-0.052554466
132	0x3d2cc3e6	0.04217901
133	0x3da3dd92	0.080012456
134	0x3db8d247	0.09024482
135	0xbd2f4a1d	-0.04279529
136	0xbb0b9db5	-0.0021303718
137	0xbca3a999	-0.019978331
138	0xbd027677	-0.031851258
139	0xbd242be1	-0.04008091
140	0xbbaed557	-0.0053354907
141	0x3d42befe	0.047545426
142	0x3cf78049	0.030212538
143	0x3cb74b00	0.02237463
144	0x3c8cc8bf	0.017185567
145	0x3b0d37e9	0.0021548218
146	0x3d6b7671	0.057486
147	0xbc22bef0	-0.009933218
148	0x3d20026b	0.039064806
149	0xbc4dbd3d	-0.012557325
150	0x3cb87dbc	0.022520892
151	0xbd2e64b7	-0.042576518
152	0x3c9d8a24	0.01923091
153	0x3ce1e869	0.027576642
154	0x3b824c77	0.0039764005
155	0xbc81328e	-0.015771177
156	0x3d4a36cb	0.04936866
157	0xbd2627dd	-0.04056536
158	0xbd35cffc	-0.044387802
159	0xbd53c02d	-0.051696945
160	0xba1a0118	-0.0005874797
161	0xbcc9ab8c	-0.024617933
162	0x3cd51910	0.026012927
163	0xbcaf5b94	-0.021405973
164	0xbba6f6b6	-0.005095328
165	0x3cce9696	0.02521829
166	0x3d31a6f6	0.043372117
167	0x3c0f88f8	0.008760683
168	0x3cc368af	0.023853628
169	0x3d0d01c0	0.034425497
170	0xbc7626f5	-0.0150239365
171	0xbd297fce	-0.04138165
172	0x3c95cabd	0.01828515
173	0xbdcc1f41	-0.09966899
174	0x3c9379ba	0.01800238
175	0xbc4003eb	-0.011719684
176	0x3d5c85ed	0.05383866
177	0x3d1c9f53	0.03823788
178	0xbd80fbb2	-0.06298007
179	0x3d170651	0.03687126
180	0x3d86fe34	0.06591454
181	0xbd21e33b	-0.039523344
182	0xbc091d7b	-0.008368845
183	0xbd517dd7	-0.0511454
184	0xbc64df8d	-0.013969314
185	0xbd516eb3	-0.05113096
186	0x3d28b5e1	0.04118908
187	0x3d15dbf9	0.036586735
188	0xbd3a2131	-0.04544181
189	0x3d350449	0.04419354
190	0xbc9bbd65	-0.019011209
191	0x3d37d9fc	0.04488562
192	0x3d269133	0.040665817
193	0x3d7098ce	0.058739476
194	0xbca11cbf	-0.019667028
195	0x3cd552b5	0.026040414
196	0x3d5742e1	0.052554015
197	0xbb705ff8	-0.0036678296
198	0x3d95fa9e	0.07323192
199	0xbcdf8291	-0.027283939
200	0xbc00f9f8	-0.007872097
201	0xbc8d82a1	-0.017274203
202	0xbd038739	-0.03211138
203	0x3cfcd65a	0.03086393
204	0xbd8ba674	-0.06818858
205	0x3d5401f7	0.051759686
206	0x3cf37f52	0.029723797
207	0xbcfa2fef	-0.030540435
208	0xbc7d2019	-0.015449547
209	0xbd82fe9a	-0.06396218
210	0xbc30507d	-0.010761377
211	0x3d424cf8	0.047436684
212	0xba914e61	-0.0011085981
213	0xbb3422c1	-0.0027486535
214	0x3bfd366d	0.0077274353
215	0x3d5cce90	0.05390793
216	0x3d5dfdfb	0.054197293
217	0x3daafd24	0.08349064
218	0x3c87d679	0.01658176
219	0x3c5312e9	0.0128829265
220	0xbd3f921f	-0.04677021
221	0xbcb463ff	-0.022020338
222	0x3dc86003	0.09783938
223	0x3d5cb897	0.053886976
224	0x3dcc0bbd	0.099631764
225	0xbcd01c76	-0.025404196
226	0xbc01ab9b	-0.007914449
227	0xbd556775	-0.052100617
228	0xbd131373	-0.03590722
229	0xbbfb8f15	-0.007676969
230	0x3cfd83cd	0.030946637
231	0xbc6041e7	-0.013687587
232	0x3d2ca505	0.042149562
233	0x3d487791	0.048942152
234	0xbda25300	-0.07925987
235	0x3d90d029	0.070709534
236	0xbc036f9a	-0.008022213
237	0xbd5ce5f0	-0.053930223
238	0xbb14ed4c	-0.0022724448
239	0x3dab892b	0.08375772
240	0xbd15cf9a	-0.036574937
241	0xbc7e75ac	-0.015530985
242	0xbd47bd5e	-0.04876458
243	0xbcce7ba1	-0.025205435
244	0x3cd8f004	0.026481636
245	0x3c2c59b8	0.0105194375
246	0xbc0ccead	-0.008594197
247	0x3b4390a5	0.0029840854
248	0xbd155c49	-0.036464963
249	0xba32919f	-0.00068118604
250	0x3ca02f87	0.019553913
251	0x3d21e538	0.03952524
252	0x3cd13f20	0.025542796
253	0x3c5c31dc	0.013439622
254	0x3d6c0d6e	0.057629995
255	0xbba97aa4	-0.0051720906

st_gcn_networks.2.gcn.conv.bias f4 [48]
0	0xbc300303	-0.010742906
1	0x3c28a493	0.010293144
2	0xbc300645	-0.010743682
3	0x3a8e9264	0.0010877368
4	0x3ad60787	0.0016329148
5	0xbc39fc71	-0.011351691
6	0x3cf4718c	0.0298393
7	0xbc65b945	-0.0140212225
8	0xbc3a013e	-0.011352835
9	0xbb504538	-0.003177954
10	0xbc0308d5	-0.007997711
11	0xbbff7d7b	-0.007796941
12	0xbcda4a27	-0.026646687
13	0xbc2d0d7f	-0.0105623
14	0xb8d25ca3	-0.00010030835
15	0x3c181127	0.009281433
16	0xbd4d15c6	-0.050069593
17	0xbbe74443	-0.007057698
18	0xbaf186dd	-0.0018427033
19	0x3c4a2fb0	0.012340471
20	0x3b1130b9	0.0022154285
21	0xbc7eddec	-0.01555584
22	0xbc34836f	-0.011017664
23	0xbc2d09a2	-0.010561379
24	0xbd419aee	-0.047266893
25	0xbbb0e42e	-0.005398295
26	0xbc905c28	-0.017622069
27	0xbd199519	-0.037495706
28	0x3c8bb6d6	0.017054956
29	0x3bb98cf0	0.005662553
30	0xbc4b2fe3	-0.012401554
31	0xbc6b1d95	-0.014350315
32	0x3c5d7b19	0.013518118
33	0x3cabdbe5	0.020978877
34	0xbc1aa723	-0.009439263
35	0x3b8361e8	0.004009474
36	0xbd1ed614	-0.03877838
37	0x3c25aeac	0.010112446
38	0x3b46e27e	0.0030347402
39	0xbbfe017d	-0.0077516423
40	0x3a960a36	0.0011447135
41	0x3b833e84	0.004005255
42	0xbc37a288	-0.011208184
43	0xbd0ea13b	-0.03482173
44	0x3ce6a9bf	0.028157113
45	0xbc545b33	-0.012961197
46	0x3c8ed62c	0.01743611
47	0x3c106785	0.0088137435

st_gcn_networks.2.tcn.0.weight f4 [16]
0	0x3e4fa139	0.20276345
1	0x3dec9861	0.115525015
2	0x3e222154	0.15833026
3	0x3e028b90	0.12748551
4	0x3d95239f	0.07282185
5	0x3e636dec	0.222099
6	0x3e2ca477	0.16859613
7	0x3e2ded50	0.16985059
8	0x3e1ee12e	0.15515587
9	0x3e14c14d	0.14526863
10	0x3e0a5c39	0.13511743
11	0x3e35b166	0.17743453
12	0x3e17f02c	0.14837712
13	0x3e1b7825	0.1518255
14	0x3dd57565	0.10422782
15	0x3dd4fef1	0.10400189

st_gcn_networks.2.tcn.0.bias f4 [16]
0	0xbca947eb	-0.020664176
1	0xbbb7f93e	-0.005614429
2	0xbd2bc5d7	-0.04193672
3	0xbcee22e9	-0.02906938
4	0xbb044549	-0.0020182899
5	0xbcf613e1	-0.030038776
6	0xbd00c298	-0.03143558
7	0xbd23f43b	-0.04002784
8	0xbd25c0e8	-0.040467173
9	0xbcff3be3	-0.031156486
10	0xbd361d92	-0.044461794
11	0xbd0ed62d	-0.034872223
12	0xbd225aed	-0.039637495
13	0xbd208cbf	-0.039196726
14	0xbc49e0b1	-0.012321637
15	0xbd23c0d2	-0.03997881

st_gcn_networks.2.tcn.0.running_mean f4 [16]
0	0xbab5c9f2	-0.0013869388
1	0x39952b08	0.00028451555
2	0xba51615c	-0.0007987225
3	0xba2f5e23	-0.00066897477
4	0xba6d156b	-0.0009044024
5	0xbb314cd7	-0.0027053857
6	0xba248d60	-0.000627717
7	0xbab707d0	-0.001396412
8	0xba93f2bf	-0.0011287554
9	0xb89205c1	-6.962894e-05
10	0xba8c3ae3	-0.0010698702
11	0xbaf07bff	-0.0018347501
12	0x3a31db4c	0.0006784692
13	0xba484813	-0.00076401344
14	0x3979e2b3	0.00023830943
15	0x3a40637b	0.00073390425

st_gcn_networks.2.tcn.0.running_var f4 [16]
0	0x369dfc09	4.7083054e-06
1	0x3624dcd4	2.4566443e-06
2	0x36393c6d	2.760232e-06
3	0x369b331e	4.625311e-06
4	0x3638aeeb	2.7519952e-06
5	0x3766ae28	1.3749617e-05
6	0x364d2a84	3.0572128e-06
7	0x362dcc16	2.5897803e-06
8	0x3651e12f	3.12745e-06
9	0x363c749f	2.8082065e-06
10	0x361f58ff	2.3744649e-06
11	0x366f12ee	3.5624794e-06
12	0x361f3d96	2.3728694e-06
13	0x36368965	2.7200088e-06
14	0x35d48837	1.5834875e-06
15	0x3620af67	2.3943956e-06
