weights_arm/166.pt (torch, 70926 bytes, 80 tensors)

A f4 [3, 9, 9]
0	0x3f000000	0.5
1	0x00000000	0.0
2	0x00000000	0.0
3	0x00000000	0.0
4	0x00000000	0.0
5	0x00000000	0.0
6	0x00000000	0.0
7	0x00000000	0.0
8	0x00000000	0.0
9	0x00000000	0.0
10	0x3e4ccccd	0.2
11	0x00000000	0.0
12	0x00000000	0.0
13	0x00000000	0.0
14	0x00000000	0.0
15	0x00000000	0.0
16	0x00000000	0.0
17	0x00000000	0.0
18	0x00000000	0.0
19	0x00000000	0.0
20	0x3eaaaaab	0.33333334
21	0x00000000	0.0
22	0x00000000	0.0
23	0x00000000	0.0
24	0x00000000	0.0
25	0x00000000	0.0
26	0x00000000	0.0
27	0x00000000	0.0
28	0x00000000	0.0
29	0x00000000	0.0
30	0x3eaaaaab	0.33333334
31	0x00000000	0.0
32	0x00000000	0.0
33	0x00000000	0.0
34	0x00000000	0.0
35	0x00000000	0.0
36	0x00000000	0.0
37	0x00000000	0.0
38	0x00000000	0.0
39	0x00000000	0.0
40	0x3f000000	0.5
41	0x00000000	0.0
42	0x00000000	0.0
43	0x00000000	0.0
44	0x00000000	0.0
45	0x00000000	0.0
46	0x00000000	0.0
47	0x00000000	0.0
48	0x00000000	0.0
49	0x00000000	0.0
50	0x3eaaaaab	0.33333334
51	0x00000000	0.0
52	0x00000000	0.0
53	0x00000000	0.0
54	0x00000000	0.0
55	0x00000000	0.0
56	0x00000000	0.0
57	0x00000000	0.0
58	0x00000000	0.0
59	0x00000000	0.0
60	0x3eaaaaab	0.33333334
61	0x00000000	0.0
62	0x00000000	0.0
63	0x00000000	0.0
64	0x00000000	0.0
65	0x00000000	0.0
66	0x00000000	0.0
67	0x00000000	0.0
68	0x00000000	0.0
69	0x00000000	0.0
70	0x3f000000	0.5
71	0x00000000	0.0
72	0x00000000	0.0
73	0x00000000	0.0
74	0x00000000	0.0
75	0x00000000	0.0
76	0x00000000	0.0
77	0x00000000	0.0
78	0x00000000	0.0
79	0x00000000	0.0
80	0x3f000000	0.5
81	0x00000000	0.0
82	0x3e4ccccd	0.2
83	0x00000000	0.0
84	0x00000000	0.0
85	0x00000000	0.0
86	0x00000000	0.0
87	0x00000000	0.0
88	0x00000000	0.0
89	0x00000000	0.0
90	0x00000000	0.0
91	0x00000000	0.0
92	0x00000000	0.0
93	0x00000000	0.0
94	0x00000000	0.0
95	0x00000000	0.0
96	0x00000000	0.0
97	0x00000000	0.0
98	0x00000000	0.0
99	0x00000000	0.0
100	0x3e4ccccd	0.2
101	0x00000000	0.0
102	0x00000000	0.0
103	0x00000000	0.0
104	0x00000000	0.0
105	0x00000000	0.0
106	0x00000000	0.0
107	0x00000000	0.0
108	0x00000000	0.0
109	0x00000000	0.0
110	0x3eaaaaab	0.33333334
111	0x00000000	0.0
112	0x3f000000	0.5
113	0x00000000	0.0
114	0x00000000	0.0
115	0x00000000	0.0
116	0x00000000	0.0
117	0x00000000	0.0
118	0x00000000	0.0
119	0x00000000	0.0
120	0x3eaaaaab	0.33333334
121	0x00000000	0.0
122	0x00000000	0.0
123	0x00000000	0.0
124	0x00000000	0.0
125	0x00000000	0.0
126	0x00000000	0.0
127	0x3e4ccccd	0.2
128	0x00000000	0.0
129	0x00000000	0.0
130	0x00000000	0.0
131	0x00000000	0.0
132	0x00000000	0.0
133	0x00000000	0.0
134	0x00000000	0.0
135	0x00000000	0.0
136	0x00000000	0.0
137	0x00000000	0.0
138	0x00000000	0.0
139	0x00000000	0.0
140	0x3eaaaaab	0.33333334
141	0x00000000	0.0
142	0x3f000000	0.5
143	0x00000000	0.0
144	0x00000000	0.0
145	0x00000000	0.0
146	0x00000000	0.0
147	0x00000000	0.0
148	0x00000000	0.0
149	0x00000000	0.0
150	0x3eaaaaab	0.33333334
151	0x00000000	0.0
152	0x00000000	0.0
153	0x00000000	0.0
154	0x3e4ccccd	0.2
155	0x00000000	0.0
156	0x00000000	0.0
157	0x00000000	0.0
158	0x00000000	0.0
159	0x00000000	0.0
160	0x00000000	0.0
161	0x00000000	0.0
162	0x00000000	0.0
163	0x00000000	0.0
164	0x00000000	0.0
165	0x00000000	0.0
166	0x00000000	0.0
167	0x00000000	0.0
168	0x00000000	0.0
169	0x00000000	0.0
170	0x00000000	0.0
171	0x3f000000	0.5
172	0x00000000	0.0
173	0x3eaaaaab	0.33333334
174	0x00000000	0.0
175	0x00000000	0.0
176	0x3eaaaaab	0.33333334
177	0x00000000	0.0
178	0x00000000	0.0
179	0x3f000000	0.5
180	0x00000000	0.0
181	0x00000000	0.0
182	0x00000000	0.0
183	0x3eaaaaab	0.33333334
184	0x00000000	0.0
185	0x00000000	0.0
186	0x00000000	0.0
187	0x00000000	0.0
188	0x00000000	0.0
189	0x00000000	0.0
190	0x00000000	0.0
191	0x00000000	0.0
192	0x00000000	0.0
193	0x00000000	0.0
194	0x00000000	0.0
195	0x00000000	0.0
196	0x00000000	0.0
197	0x00000000	0.0
198	0x00000000	0.0
199	0x00000000	0.0
200	0x00000000	0.0
201	0x00000000	0.0
202	0x00000000	0.0
203	0x00000000	0.0
204	0x00000000	0.0
205	0x00000000	0.0
206	0x00000000	0.0
207	0x00000000	0.0
208	0x00000000	0.0
209	0x00000000	0.0
210	0x00000000	0.0
211	0x00000000	0.0
212	0x00000000	0.0
213	0x3eaaaaab	0.33333334
214	0x00000000	0.0
215	0x00000000	0.0
216	0x00000000	0.0
217	0x00000000	0.0
218	0x00000000	0.0
219	0x00000000	0.0
220	0x00000000	0.0
221	0x00000000	0.0
222	0x00000000	0.0
223	0x00000000	0.0
224	0x00000000	0.0
225	0x00000000	0.0
226	0x00000000	0.0
227	0x00000000	0.0
228	0x00000000	0.0
229	0x00000000	0.0
230	0x00000000	0.0
231	0x00000000	0.0
232	0x00000000	0.0
233	0x00000000	0.0
234	0x00000000	0.0
235	0x00000000	0.0
236	0x00000000	0.0
237	0x00000000	0.0
238	0x00000000	0.0
239	0x00000000	0.0
240	0x00000000	0.0
241	0x00000000	0.0
242	0x00000000	0.0

data_bn.weight f4 [27]
0	0x3db093fd	0.086219765
1	0x3d1dd7c6	0.038535856
2	0x3d25aa6d	0.040445734
3	0x3e760801	0.24026491
4	0x3d40ebb4	0.047099784
5	0x3d519a6e	0.051172666
6	0x3e94611a	0.28980333
7	0x3e435ea1	0.19079067
8	0x3e449acc	0.19199675
9	0x3ee092c1	0.43861964
10	0x3f01376d	0.504752
11	0x3eb2e25a	0.34938318
12	0x3efe563e	0.49675173
13	0x3f019362	0.50615513
14	0x3eb42bbd	0.3518962
15	0x3e8856a8	0.26628613
16	0x3e2310f5	0.15924437
17	0x3e6e24ca	0.23256221
18	0x3eee62eb	0.46559843
19	0x3ec837a4	0.3910495
20	0x3ead4c06	0.33847064
21	0x3ef6f0f3	0.48230705
22	0x3ecf11ca	0.4044326
23	0x3eaacc13	0.3335882
24	0x3e5e8d72	0.21733645
25	0x3d0ab5c6	0.03386476
26	0x3d49ca65	0.049265284

data_bn.bias f4 [27]
0	0xbc84a62d	-0.01619252
1	0x3ce32c46	0.027731072
2	0xbc983d52	-0.018583927
3	0xbc87363d	-0.016505355
4	0xbc7b42c9	-0.015335747
5	0xbb391844	-0.0028243223
6	0x3d35f57c	0.044423565
7	0x3c447168	0.011989929
8	0x3c162a1f	0.009165316
9	0xbc9a011a	-0.018799353
10	0x3ac6743d	0.0015140843
11	0x3c6f2c9a	0.014598036
12	0xbc41bf92	-0.011825459
13	0x3c101b07	0.008795506
14	0xbb54e2cf	-0.0032483821
15	0x3cabd14b	0.020973822
16	0x3d336d92	0.043805666
17	0x3d15baeb	0.036555212
18	0x3beaa003	0.007160188
19	0xbc827c89	-0.015928524
20	0xbccff3cb	-0.025384804
21	0xbcc208b0	-0.023685783
22	0xbcdfccc8	-0.027319327
23	0x3ba67f24	0.0050810743
24	0x3c48b9c0	0.0122513175
25	0x3c8774b8	0.016535148
26	0x3c2d030e	0.01055981

data_bn.running_mean f4 [27]
0	0x42b4a4fe	90.32225
1	0x42a91d6e	84.55748
2	0x41d58513	26.689978
3	0x42c67fe7	99.24981
4	0x42b7e622	91.94948
5	0x41e3d02e	28.47665
6	0x42b33eaf	89.62243
7	0x42adfaf1	86.99012
8	0x41da42ba	27.282581
9	0x42cac407	101.382866
10	0x42b1a7ff	88.82812
11	0x41dcecdb	27.615652
12	0x42d9588c	108.67294
13	0x42a9add0	84.83948
14	0x41cd04c2	25.627323
15	0x42d9419a	108.62813
16	0x42c1db7a	96.928665
17	0x41ed63dc	29.67376
18	0x43020aae	130.04172
19	0x42cfe912	103.955215
20	0x41f5388d	30.652613
21	0x4301826c	129.50946
22	0x42c692b7	99.28655
23	0x41edbf33	29.718359
24	0x42d8548c	108.16513
25	0x42cf13a2	103.538345
26	0x41fa85a0	31.315247

data_bn.running_var f4 [27]
0	0x463cf6aa	12093.666
1	0x46aef641	22395.127
2	0x4608b861	8750.095
3	0x4647bc3c	12783.059
4	0x46c03431	24602.096
5	0x46153e6d	9551.606
6	0x461c3d07	9999.257
7	0x46a8c917	21604.545
8	0x46070e0a	8643.51
9	0x464a29b0	12938.422
10	0x469db3e0	20185.938
11	0x4602bb73	8366.862
12	0x4661eca5	14459.161
13	0x468f3845	18332.135
14	0x45ea5d0f	7499.6323
15	0x4680ce1b	16487.053
16	0x46d9b2dc	27865.43
17	0x46245a03	10518.503
18	0x46ab20c5	21904.385
19	0x46de2592	28434.785
20	0x4628e67b	10809.62
21	0x46a3c62f	20963.092
22	0x46c25dd3	24878.912
23	0x461ad816	9910.021
24	0x468afa68	17789.203
25	0x46cbe65d	26099.182
26	0x4623fbac	10494.918

st_gcn_networks.0.gcn.conv.weight f4 [24, 3, 1, 1]
0	0xbd7fe8d1	-0.06247789
1	0xbb9a1955	-0.004702727
2	0x39899ada	0.0002624605
3	0x3e1b6323	0.15174536
4	0xbd5eab2d	-0.054362465
5	0x3d80fc8e	0.06298171
6	0x3d86bb24	0.06578663
7	0x3b8ca06d	0.004291585
8	0x3d4759a5	0.048669476
9	0xbccd015f	-0.025025068
10	0xbc8d015e	-0.017212566
11	0x3e024f65	0.12725599
12	0x3ce6321c	0.028100066
13	0xbc689829	-0.014196434
14	0xbe556f51	-0.20843245
15	0x3e5f48e7	0.21805154
16	0x3e9393dc	0.28823745
17	0x3da25c98	0.07927817
18	0xbe63dee7	-0.22252999
19	0x3e250354	0.16114551
20	0x3d8aa53b	0.067697965
21	0xbe3fddca	-0.1873695
22	0x3d90becc	0.070676416
23	0xbe08144a	-0.1328899
24	0xbd5bc02d	-0.05365007
25	0xbd3d4b84	-0.046214595
26	0xbc8f7a04	-0.017514236
27	0xbe7636d5	-0.24044354
28	0xbdaa8eee	-0.08328043
29	0x3d063a9b	0.032770734
30	0x3e28bee6	0.16479072
31	0xbc2eaf75	-0.010661949
32	0xbc9a00ce	-0.018799212
33	0xbe06123a	-0.1309289
34	0xbe0968b4	-0.13418847
35	0x3bb1f923	0.0054313107
36	0xba7278cd	-0.0009249568
37	0xbcc2f8dd	-0.023800308
38	0x3e3fae96	0.18718943
39	0xbd4a7ea1	-0.04943717
40	0xbe6e28ed	-0.232578
41	0xbe03a36d	-0.1285531
42	0x3d87385b	0.06602546
43	0x3d842f11	0.0645429
44	0x3d398698	0.045294374
45	0x3e349454	0.17634708
46	0xbdcce7f5	-0.1000518
47	0x3e2572ad	0.16157027
48	0xbcae918e	-0.02130964
49	0x3b7723fd	0.003771066
50	0x3c43927c	0.01193678
51	0xbd26f138	-0.040757388
52	0xbcd9c0db	-0.026581218
53	0xbd9beac3	-0.076131366
54	0x3e1e27db	0.15444891
55	0xbce285dc	-0.02765172
56	0x3d313ae3	0.04326905
57	0xbcd864fe	-0.026415344
58	0xbcc02fcb	-0.02346029
59	0x3c1a61c5	0.009422724
60	0xbe5956bd	-0.21224494
61	0x3c0d60ae	0.008629007
62	0xbc223b47	-0.009901828
63	0x3d307087	0.043076064
64	0xbd756c4a	-0.059917726
65	0x3dd8b897	0.10582083
66	0x3d0d9439	0.034565184
67	0xbd8091a5	-0.062777795
68	0x3b2d6fb9	0.0026464297
69	0xbdd9ff56	-0.106444046
70	0x3e1451f0	0.14484382
71	0x3d48092a	0.048836865

st_gcn_networks.0.gcn.conv.bias f4 [24]
0	0x3d058214	0.032594755
1	0x3d346caf	0.04404896
2	0x3d362c48	0.044475824
3	0x3d9a455a	0.07532759
4	0xbc859b9e	-0.016309556
5	0xbe2bf3db	-0.16792242
6	0xbc93b21d	-0.018029267
7	0x3dfba89f	0.12288021
8	0xbd859332	-0.06522216
9	0x3c707061	0.014675231
10	0x3da8fb71	0.08251084
11	0xbcc0fde7	-0.02355857
12	0x3cc2a51d	0.023760373
13	0x3e0e926c	0.13923043
14	0x3e1907f1	0.14944436
15	0xbc989e8c	-0.018630289
16	0xbc98b919	-0.018642949
17	0xbe1826b6	-0.14858517
18	0x3c94e915	0.018177548
19	0xbd6df5d5	-0.05809577
20	0x3d249220	0.04017842
21	0x3cd2dd99	0.025740432
22	0xbd028193	-0.031861853
23	0xbae17e4c	-0.0017203777

st_gcn_networks.0.tcn.0.weight f4 [8]
0	0x3e12b412	0.14326504
1	0x3e98db9d	0.29855052
2	0x3ec0ab6c	0.37630785
3	0x3e845e93	0.25853404
4	0x3e7c2a0a	0.24625412
5	0x3ea5e3a4	0.3240024
6	0x3ea374d9	0.31925085
7	0x3eabf71d	0.3358697

st_gcn_networks.0.tcn.0.bias f4 [8]
0	0x3d5532c7	0.05205038
1	0x3d12f663	0.035879504
2	0x3d629e12	0.05532653
3	0x3cd3b53e	0.025843259
4	0xbd2d3bd2	-0.042293377
5	0x3d589407	0.052875545
6	0xbbd1c9f6	-0.0064022494
7	0xbd27f18a	-0.041001834

st_gcn_networks.0.tcn.0.running_mean f4 [8]
0	0xbb74b78b	-0.0037340845
1	0x3a25e38d	0.0006328158
2	0x3c7bd10a	0.015369663
3	0x3b93f884	0.0045157094
4	0x3b11bc8a	0.0022237622
5	0xbb9bbdc8	-0.0047528483
6	0x3c51d88d	0.012807977
7	0x3c5bc759	0.013414227

st_gcn_networks.0.tcn.0.running_var f4 [8]
0	0x38bcac40	8.996623e-05
1	0x392e7781	0.00016638452
2	0x398e97ba	0.00027197396
3	0x3967084e	0.0002203297
4	0x37a0fc7c	1.9191059e-05
5	0x395a9e45	0.0002084906
6	0x39995aba	0.0002925003
7	0x387962ae	5.945813e-05

st_gcn_networks.0.tcn.2.weight f4 [8, 8, 9, 1]
0	0xbd187cbd	-0.037228335
1	0xbc823739	-0.015895473
2	0x3cc8c23c	0.02450668
3	0x38b39833	8.5637344e-05
4	0x3c47889a	0.012178564
5	0xbcd9af1a	-0.026572753
6	0x3b129597	0.0022366995
7	0xbbc7eda0	-0.006101325
8	0x3c36332e	0.011120601
9	0x3d03876a	0.032111563
10	0xbd5c765d	-0.053823818
11	0xbd03809e	-0.03210508
12	0xbbfe8ae4	-0.007768022
13	0xbb5e58f6	-0.0033927537
14	0x3c9a8b5b	0.018865278
15	0x3c42945e	0.011876194
16	0xbb8c8df0	-0.004289381
17	0xbca69d1a	-0.020338584
18	0x3d410c5c	0.047130927
19	0x3d589bf4	0.052883103
20	0x3d00c59b	0.03143845
21	0x3d8a89d8	0.06764573
22	0xbc944a7e	-0.018101927
23	0x3dbf9f1a	0.09356518
24	0xbd74c7d6	-0.05976089
25	0x3cbfb9aa	0.023403961
26	0xbd6ce22c	-0.05783288
27	0x3c163e25	0.00917009
28	0xbc9ef611	-0.019404443
29	0x3d85f392	0.06540598
30	0x3bebd289	0.0071967286
31	0x3cdc0af2	0.026860688
32	0x3cf033f1	0.029321643
33	0x3c97f942	0.018551473
34	0x3d348594	0.044072703
35	0x3cef2b07	0.029195322
36	0xbd91e570	-0.0712384
37	0xbca8d409	-0.020608919
38	0x3d2cc376	0.042178594
39	0xbcc2794b	-0.023739478
40	0xbd052048	-0.03250149
41	0x3c967f1b	0.018371155
42	0x3c93b029	0.018028336
43	0xbd586c2b	-0.052837532
44	0x3c14cda8	0.009082235
45	0xbce5b71a	-0.028041411
46	0x3aa80933	0.0012820124
47	0x3c1a90dd	0.009433952
48	0x3caf87b5	0.021427015
49	0x3d04ef7c	0.032454953
50	0x3c37683f	0.011194288
51	0xbc0a6b42	-0.008448424
52	0x3c9bf450	0.019037396
53	0x3c1cda1a	0.009573484
54	0x3cf857ac	0.030315243
55	0x3c964e36	0.01834784
56	0x3b3f1a2d	0.002915989
57	0xbd1c8d33	-0.038220596
58	0xbcbc54ac	-0.022989593
59	0xbc311bda	-0.010809863
60	0xbd02328b	-0.031786483
61	0x3d5ef98c	0.054437205
62	0xbc3eb195	-0.011639019
63	0xbcc5091f	-0.0240522
64	0xbdfa7132	-0.122286215
65	0xbb9557fd	-0.004557608
66	0xbd521ec7	-0.051298883
67	0xb987e638	-0.00025920733
68	0xbd9d6df7	-0.0768699
69	0xbcadbb46	-0.021207463
70	0xbcbeecb3	-0.023306226
71	0x3b84fc90	0.004058428
72	0x3cc7d3e9	0.024393039
73	0xbc441ac1	-0.011969269
74	0xbb4a394a	-0.00308569
75	0xbbcfefff	-0.0063457484
76	0x3c653c6f	0.013991459
77	0x3c7d1c7a	0.015448684
78	0x3d562e5c	0.052290305
79	0x3b1b8177	0.002372829
80	0xbbdf4c91	-0.0068145473
81	0x3cc975bb	0.024592271
82	0x3cae3ab2	0.021268222
83	0x3d43ce9b	0.047804456
84	0x3c4adf82	0.01238239
85	0xbcac65ab	-0.021044573
86	0x3aff1d16	0.0019463624
87	0x3ce06d57	0.027395887
88	0xbb70a0ed	-0.0036717013
89	0x3d14fb4b	0.036372464
90	0x3cfb2eee	0.030662026
91	0x3d9d4891	0.076798566
92	0x3da8456e	0.08216368
93	0xb96e3cd8	-0.00022720115
94	0xbc9c8814	-0.019107856
95	0xbd832a7a	-0.06404586
96	0xbc6424ce	-0.013924791
97	0x3ca08e82	0.019599203
98	0xbbd4330c	-0.006475812
99	0x3d4925cd	0.049108315
100	0xbcc4090c	-0.023930095
101	0x3cddbba2	0.02706701
102	0x3c576e37	0.013148836
103	0x3ca1e7c4	0.019763835
104	0x3c4d334b	0.012524436
105	0x3d221667	0.039572146
106	0xbcd5a49f	-0.026079474
107	0xbc187237	-0.009304575
108	0x3c98d5bc	0.018656604
109	0x3c6e0b27	0.014529026
110	0x3cd983f1	0.026552172
111	0x3ca59b65	0.0202157
112	0x3c8782c6	0.01654185
113	0xbcd44d78	-0.025915846
114	0x3d3549e5	0.044259924
115	0x3d574398	0.052554697
116	0x3c5e9fac	0.013587873
117	0xbcbaaeaa	-0.022788364
118	0x3d1697f9	0.036766026
119	0x3cc5be78	0.024138674
120	0xbd204906	-0.03913214
121	0x3ca7c2c9	0.020478623
122	0xbd0820e1	-0.03323448
123	0xbd41eac6	-0.047343038
124	0xbcb019a0	-0.021496594
125	0xbc28739b	-0.010281469
126	0xbd803b78	-0.06261343
127	0xbd4ec583	-0.05048133
128	0xbd91a2cd	-0.0711113
129	0xbd4fe561	-0.050755862
130	0xbca9e565	-0.020739267
131	0x3d1d83b3	0.038455676
132	0x3ceec3a1	0.029146018
133	0xbd271d45	-0.040799398
134	0x3d82062e	0.06348835
135	0x3d03ab38	0.03214571
136	0xbd62fe35	-0.055418212
137	0xbcd6bdbe	-0.026213523
138	0xbb96fc78	-0.0046077333
139	0x3cb499cc	0.022045992
140	0xbd17029f	-0.036867734
141	0x3cab6866	0.020923804
142	0xbcb8f591	-0.022578033
143	0xbcf54021	-0.029937806
144	0xbcad0512	-0.021120582
145	0xbbf613c5	-0.007509681
146	0xbc64e8e8	-0.013971545
147	0x3d8178cf	0.063218705
148	0xbc98372f	-0.018581001
149	0xbbf685ef	-0.0075232903
150	0x3d02a3c6	0.031894468
151	0xbcb46ff9	-0.022026049
152	0xbbdaa1ab	-0.0066721044
153	0xbb16acc8	-0.002299117
154	0xbba86c01	-0.005139828
155	0xbc8593f5	-0.016305903
156	0x3cae2651	0.021258505
157	0xbca33d57	-0.01992671
158	0x3c2dda76	0.010611167
159	0x3c253f80	0.01008594
160	0xbd23c537	-0.039983
161	0x3c3851c7	0.011249966
162	0x3d94ffbf	0.07275342
163	0xbbaf350f	-0.0053469012
164	0x3b6d166f	0.0036176702
165	0xbda85c1a	-0.08220692
166	0x3d721dc3	0.059110414
167	0xb9827c60	-0.000248882
168	0x3d402474	0.046909764
169	0xbd87fb1f	-0.066396944
170	0x3cfa9299	0.030587481
171	0x3cfc0a89	0.030766742
172	0xbcda7e3e	-0.026671525
173	0xbd047cd5	-0.03234561
174	0x3cdaf6c7	0.026729
175	0x3c32b128	0.010906495
176	0xbd0d50bc	-0.034500822
177	0xb877fc3d	-5.9124304e-05
178	0xbd0c0d82	-0.03419257
179	0x3ceeda77	0.029156907
180	0x3ba55426	0.0050454317
181	0x3c7aba8e	0.015303267
182	0x3d5b4c53	0.053539585
183	0x3bf18402	0.007370473
184	0xbd81ff33	-0.063475035
185	0xbc8b298a	-0.01698758
186	0xbcec0fda	-0.028816152
187	0xbc813986	-0.0157745
188	0x3967d17e	0.00022107919
189	0xbd2e9751	-0.042624775
190	0xbd7f17ff	-0.062278744
191	0x3d617549	0.055043492
192	0xbd3f9188	-0.04676965
193	0xbd7fe082	-0.062469967
194	0x3c31b50a	0.010846386
195	0x3d2f7b1b	0.042842012
196	0xbd5076ed	-0.050894666
197	0x3daa855e	0.08326219
198	0x3bb74b79	0.005593714
199	0xbd0c1144	-0.034196153
200	0xbd81bf35	-0.06335298
201	0x3d550d55	0.052014668
202	0x3dc0c52b	0.09412607
203	0x3cabe4f3	0.020983195
204	0xbd13efaa	-0.036117233
205	0x3d0a373e	0.03374409
206	0x3d2f4eb5	0.04279967
207	0xbd348a6d	-0.044077326
208	0xbcda8de1	-0.026678981
209	0xbda8f7e3	-0.08250406
210	0x3d25fe55	0.040525753
211	0x3a0c3cd6	0.00053496414
212	0x3d7b934b	0.061419766
213	0xbd3d43b4	-0.046207145
214	0xbd147f63	-0.036254298
215	0xbcc397e0	-0.02387613
216	0xbc40005e	-0.011718838
217	0xbc0f67f1	-0.008752809
218	0x3bf81d8d	0.007571882
219	0x3b9ed4b0	0.0048471317
220	0x3ca2af70	0.019859046
221	0xbc9ede49	-0.019393103
222	0xbc470502	-0.01214719
223	0xbcaf27bf	-0.021381257
224	0x3c14af33	0.009074974
225	0xbb7491f9	-0.0037318452
226	0x3c98e17e	0.01866221
227	0xbc6d632c	-0.014488976
228	0xbc0d917d	-0.008640644
229	0x3ce73890	0.028225213
230	0x3d213597	0.039357748
231	0x3cee76f7	0.029109461
232	0x3b8504f6	0.0040594293
233	0x3d11e68f	0.03562027
234	0x3c8802f4	0.01660297
235	0x3c3df4a8	0.011593975
236	0x3b5c2899	0.0033593534
237	0xbc6b46de	-0.014360158
238	0xbc1ed9f1	-0.009695516
239	0xbc49b288	-0.012310632
240	0x3c50404b	0.012710641
241	0x3c27b178	0.010235183
242	0xbd6d0222	-0.057863362
243	0x3c49421d	0.012283829
244	0xbd093bd8	-0.033504337
245	0xbd04c8ad	-0.03241794
246	0xbd3cac54	-0.046062782
247	0xbd2abedb	-0.04168592
248	0xbc51488d	-0.012773645
249	0xbd15647c	-0.036472782
250	0xbd217f93	-0.039428305
251	0x3ca6cb57	0.020360632
252	0xbb15e11a	-0.0022869767
253	0xbd377598	-0.04478988
254	0x3b8bcae7	0.004266131
255	0x3d264080	0.040588856

st_gcn_networks.0.tcn.2.bias f4 [8]
0	0xb6de2b3f	-6.62115e-06
1	0x380a36b8	3.2952725e-05
2	0xb6e3126e	-6.7672727e-06
3	0xb3f55cf7	-1.1425612e-07
4	0xb66657e8	-3.432384e-06
5	0xb7d22b63	-2.5054154e-05
6	0x3804cab1	3.1660024e-05
7	0xb7ac1fa6	-2.0518735e-05

st_gcn_networks.0.tcn.3.weight f4 [8]
0	0x3eab0cc6	0.33408183
1	0x3e9517fc	0.2911986
2	0x3e8632c9	0.2621062
3	0x3e6b5856	0.22982916
4	0x3e452cac	0.19255322
5	0x3ea03f30	0.31298208
6	0x3eae78da	0.34076577
7	0x3e967120	0.29383183

st_gcn_networks.0.tcn.3.bias f4 [8]
0	0xbd0b5ce2	-0.034024127
1	0x3b8f3528	0.0043703504
2	0x3d5074fb	0.05089281
3	0x3c74dcc6	0.014945215
4	0xbc420d20	-0.01184395
5	0x3d26e352	0.040744133
6	0x3cf88f8d	0.030341888
7	0xbcbceb3a	-0.023061384

st_gcn_networks.0.tcn.3.running_mean f4 [8]
0	0x3c34d5e1	0.011037321
1	0x3c953ffc	0.018218987
2	0xbc5d22ae	-0.013497038
3	0xbd05de24	-0.032682553
4	0x3d0a1b17	0.03371724
5	0x3d1b16a7	0.0378634
6	0x382a5e21	4.0618823e-05
7	0x3c7fbd50	0.0156091

st_gcn_networks.0.tcn.3.running_var f4 [8]
0	0x3ba35795	0.004984806
1	0x3b5bdf77	0.0033549943
2	0x3ac0dc19	0.0014714032
3	0x3a4a74fe	0.00077231217
4	0x3abdedb5	0.0014490398
5	0x3b7667ab	0.0037598412
6	0x3b839dee	0.0040166294
7	0x3b662165	0.003511512

st_gcn_networks.1.gcn.conv.weight f4 [24, 8, 1, 1]
0	0xbcbed57a	-0.023295153
1	0xbd1d7851	-0.03844482
2	0x3d68e504	0.05685903
3	0x3d69f0da	0.05711446
4	0xbc7f697e	-0.015589116
5	0x3cb02de3	0.021506255
6	0x3ba43a61	0.005011842
7	0x3d2b4563	0.04181422
8	0xbbb5a288	-0.005543057
9	0xbc9dab6c	-0.01924678
10	0x3daf00b7	0.08545058
11	0xbd108952	-0.03528721
12	0x3d04944f	0.032368
13	0xbcd3dc5b	-0.02586191
14	0x3d851958	0.064989746
15	0x3cc26e63	0.023734277
16	0x3d95fefd	0.07324026
17	0xbd8490d2	-0.06472935
18	0xbcd68dfe	-0.026190754
19	0x3daab281	0.08334828
20	0x3d7fd688	0.062460452
21	0x3d8ab9cb	0.067737184
22	0xbd09632d	-0.033541847
23	0xbca7207b	-0.02040123
24	0x3bfe0212	0.0077517116
25	0xbcdef617	-0.027216954
26	0xbd02f9ca	-0.0319765
27	0xbcf7869b	-0.030215552
28	0xbd87027e	-0.06592272
29	0xbdd2964f	-0.10282575
30	0x3d38783e	0.045036547
31	0xbdbf3f2e	-0.093382224
32	0xbcd6cb72	-0.026220057
33	0x3c175b3e	0.009238062
34	0x3d88bd41	0.06676722
35	0xbd4c7b13	-0.04992206
36	0x3c7400fa	0.014892811
37	0x3cea641e	0.028612193
38	0x3d2cb6d5	0.04216655
39	0xbc6ff8d2	-0.014646726
40	0x3c27484d	0.010210109
41	0xbdae40e7	-0.08508473
42	0x3d0a732f	0.033801254
43	0xbd7a70a3	-0.061142575
44	0xbc4cce58	-0.012500368
45	0x3b3744be	0.0027964558
46	0xbdad7a23	-0.08470561
47	0x3c525659	0.01283797
48	0xbcbbfaa3	-0.022946661
49	0xbc261548	-0.01013691
50	0x3d5330d6	0.051560245
51	0x3c033a4b	0.008009504
52	0x3cbbf43c	0.022943608
53	0x3cc850f4	0.024452664
54	0xbd389fc4	-0.04507424
55	0xbcd73a70	-0.026272982
56	0xbd030052	-0.031982727
57	0xbb00698d	-0.0019594163
58	0xbd12dddd	-0.035856117
59	0xbcff4942	-0.031162862
60	0xbc44ba59	-0.012007319
61	0x3d638312	0.05554492
62	0x3b7e78fb	0.0038829434
63	0x3da3a20e	0.07989894
64	0xbc92fff5	-0.017944315
65	0x3d93db90	0.072196126
66	0x3c785add	0.015158382
67	0xbd1b28b2	-0.037880607
68	0xbd85c9fa	-0.065326646
69	0x3c4d4092	0.012527602
70	0x3d9d4cc4	0.076806575
71	0x3dc60762	0.09669377
72	0xbd6c9700	-0.057761192
73	0xbc6a178b	-0.01428784
74	0xbd7912bf	-0.060808893
75	0xbc8a73de	-0.016900953
76	0xbbf731f7	-0.007543798
77	0xbd0b5ed8	-0.034025997
78	0x3d661aa6	0.056177758
79	0x3b4a864e	0.0030902806
80	0x3c4db369	0.012554982
81	0xbb82f02a	-0.003995915
82	0x3d6494f5	0.05580612
83	0xbd568957	-0.05237707
84	0xbd4500b6	-0.04809638
85	0xbdc5c2d2	-0.096563
86	0x3dc537b2	0.09629764
87	0xbd5a4900	-0.053292274
88	0xbca4a500	-0.02009821
89	0x3df688ea	0.12037833
90	0x3d915905	0.07097057
91	0x3ccbe0d3	0.024887478
92	0xbd57c047	-0.052673604
93	0x3d895333	0.06705322
94	0xbceed16b	-0.029152593
95	0xbdcd4630	-0.10023153
96	0xbd1ba414	-0.037998274
97	0xbc958fae	-0.018256988
98	0x3d9ebdf7	0.07751077
99	0x3d2b4d25	0.041821618
100	0x3b5c27ec	0.0033593131
101	0x3cd0912d	0.02545985
102	0xbcd66003	-0.026168829
103	0x3d1b55ee	0.037923746
104	0x3dae0b6e	0.08498274
105	0xbd334e9b	-0.043776136
106	0xbbe83d5d	-0.007087393
107	0xbd9379b9	-0.07200951
108	0x3d06cd0c	0.03291039
109	0xbda1e96f	-0.07905852
110	0x3da5fd91	0.081050046
111	0x3d554f56	0.052077614
112	0xbd803987	-0.062609725
113	0xbde845cc	-0.11341438
114	0x3d2da9a7	0.04239812
115	0x3d129db4	0.03579493
116	0xbd92a408	-0.07160193
117	0xbd46e433	-0.04855747
118	0x3cfce503	0.03087092
119	0x3d954727	0.07288962
120	0x3cf2844d	0.029604102
121	0x3c043553	0.008069354
122	0xbc66db41	-0.01409036
123	0xbb23e327	-0.002500722
124	0xbb0265e6	-0.0019897162
125	0x3cc9f47c	0.024652712
126	0x3d1faf91	0.038985793
127	0xbbb50f5d	-0.005525513
128	0xbc7f1c63	-0.015570733
129	0xbc2d916c	-0.010593753
130	0x3d2ac1cf	0.041688737
131	0x3da4cf03	0.08047297
132	0xbcb59706	-0.02216674
133	0x3d249640	0.040182352
134	0xbd36ee6d	-0.044660974
135	0x3b436198	0.002981281
136	0x3d8c1b8c	0.06841192
137	0x3c47e16e	0.012199743
138	0x3cfd6a2d	0.030934418
139	0xbc8fbb8b	-0.017545482
140	0x3c3a6756	0.011377176
141	0x3d37a1ae	0.044831924
142	0x3dbf5510	0.09342396
143	0x3bacbe96	0.005271743
144	0xbb828ca8	-0.0039840527
145	0x3c6be243	0.014397207
146	0xbd087474	-0.033314183
147	0xbd87f4f0	-0.06638515
148	0xb9b0c222	-0.00033713976
149	0xbd4f1513	-0.050557207
150	0x3d6acf0c	0.05732636
151	0x3c56a4e4	0.013100836
152	0x3d8d76ea	0.06907447
153	0xbd0afde4	-0.033933535
154	0xbcbde9f9	-0.023182856
155	0xbd7f313e	-0.06230282
156	0xbb833f92	-0.004005381
157	0xbcc1687f	-0.023609398
158	0x3e1adf09	0.15124144
159	0xbbaadda9	-0.005214412
160	0xbac96e8f	-0.0015368032
161	0x3c092630	0.008370921
162	0x3b1a091a	0.002350396
163	0xbd933195	-0.071871914
164	0x3d033657	0.032034244
165	0xbc9c38dd	-0.019070083
166	0x3c33fc6e	0.010985477
167	0x3b123621	0.0022310095
168	0xbc58d274	-0.01323377
169	0xbd1b1da8	-0.03787008
170	0xbcab145f	-0.020883737
171	0x3cd89e73	0.026442742
172	0xbd915a92	-0.07097353
173	0xbd92fc4a	-0.071770266
174	0xbd3c9f17	-0.046050157
175	0xbc23b0f5	-0.00999092
176	0x3d90e9a8	0.070758164
177	0x3d058e92	0.03260667
178	0x3d07f5a4	0.033193246
179	0xbdcb8872	-0.09938134
180	0x3d6138d6	0.054985844
181	0x3d0a9d75	0.03384157
182	0xbc581ece	-0.013190938
183	0xbd2b95ce	-0.04189091
184	0x3beaa68e	0.007160968
185	0xbba770c2	-0.0051098773
186	0x3cbb546f	0.02286741
187	0x3a6524ab	0.00087411207
188	0x3c307fc0	0.0107726455
189	0xbd037b5f	-0.032100078
190	0x3a9a515e	0.0011773517
191	0x3d88daf1	0.06682385

st_gcn_networks.1.gcn.conv.bias f4 [24]
0	0x3a76bf30	0.00094126444
1	0x3c4340c5	0.011917298
2	0xbc87753c	-0.016535394
3	0x3d0dc7bb	0.034614306
4	0x3ba96143	0.005169065
5	0xbb913367	-0.0044311765
6	0x3b4c02b2	0.0031129536
7	0x3afb0c2f	0.0019153411
8	0xbd921254	-0.07132402
9	0xbc38e0e4	-0.011284087
10	0x3c93580c	0.01798632
11	0x3b117921	0.0022197443
12	0xbd6d8a3e	-0.057993166
13	0x3c473a48	0.012159891
14	0x3d53f024	0.051742688
15	0xbbfccc7a	-0.007714805
16	0xbc10c3a4	-0.008835707
17	0xbd29fe24	-0.041502133
18	0x3bf333db	0.007421953
19	0x3cac6eb4	0.021048881
20	0x3bff3deb	0.0077893636
21	0xbc33f859	-0.010984504
22	0x3cbea971	0.023274155
23	0xbc3b31b1	-0.011425422

st_gcn_networks.1.tcn.0.weight f4 [8]
0	0x3e59f63e	0.2128534
1	0x3e4008b6	0.18753323
2	0x3e87e7dd	0.26544085
3	0x3e92d103	0.28675088
4	0x3e1fdb70	0.15611053
5	0x3e687139	0.22699441
6	0x3e8276fa	0.25481397
7	0x3e4c99d4	0.19980556

st_gcn_networks.1.tcn.0.bias f4 [8]
0	0xbceecb9d	-0.029149825
1	0x3c0d7b4d	0.008635354
2	0x3cc6d2e8	0.02427049
3	0x3bae7867	0.0053244117
4	0xbc945b56	-0.018109959
5	0xbbdcb80a	-0.0067358064
6	0xbd14c5e9	-0.036321554
7	0xbcd6a86f	-0.026203362

st_gcn_networks.1.tcn.0.running_mean f4 [8]
0	0xba89225d	-0.0010462512
1	0xba1842f0	-0.00058083143
2	0x3915c6a4	0.00014283747
3	0x3aac229f	0.0013132876
4	0xbb11c02e	-0.0022239792
5	0xba231ca3	-0.0006222224
6	0x3b16222b	0.002290855
7	0x39e2a3e9	0.00043228202

st_gcn_networks.1.tcn.0.running_var f4 [8]
0	0x36940c48	4.4121734e-06
1	0x369ae212	4.6158757e-06
2	0x37670822	1.37705665e-05
3	0x37178d37	9.0331805e-06
4	0x36d51291	6.350056e-06
5	0x36a09aa5	4.7863746e-06
6	0x372de928	1.03658895e-05
7	0x36daaf0d	6.517285e-06

st_gcn_networks.1.tcn.2.weight f4 [8, 8, 9, 1]
0	0xbc95d6d0	-0.018290907
1	0xb9d03db9	-0.00039718839
2	0x3ca007ea	0.019535024
3	0xbc7e3023	-0.015514406
4	0xbc78b320	-0.0151794255
5	0xbd2fedc8	-0.042951375
6	0xbae355c7	-0.0017344289
7	0x3b9d6247	0.0048029753
8	0x3d2d6f15	0.042342264
9	0xbd57a119	-0.05264387
10	0x3c2412de	0.010014264
11	0x3d39c976	0.045358144
12	0x3bc03940	0.0058661997
13	0xbd46b93f	-0.04851651
14	0xbcfd75a5	-0.030939886
15	0x3cd26c4c	0.025686406
16	0x3cd65365	0.026162812
17	0xbc92f117	-0.017937226
18	0x3bf35c9d	0.007426812
19	0xbc99cfe7	-0.018775893
20	0x3d692588	0.05692056
21	0xbc2c3b8e	-0.010512246
22	0x3c5715bc	0.0131277405
23	0xbb8eaf19	-0.0043543694
24	0x3d3985d6	0.04529365
25	0xbd0ba272	-0.034090467
26	0xbd511222	-0.051042683
27	0x3c070a94	0.008242268
28	0x3c5cacbf	0.01346892
29	0x3cf46a37	0.029835803
30	0x3b11ad0e	0.0022228393
31	0x3cec5ee5	0.028853843
32	0x3d459930	0.048241794
33	0xbd386bdc	-0.045024738
34	0xbd48a116	-0.04898175
35	0xbd2314bc	-0.039814696
36	0xbb3e8f03	-0.002907694
37	0xbca899e6	-0.020581197
38	0xbc4856be	-0.012227712
39	0xbadd145c	-0.001686703
40	0x3c0ae73a	0.00847798
41	0x3d2fd2af	0.042925533
42	0x3c91d06e	0.017799582
43	0x3c4d39a5	0.012525951
44	0x3d05f955	0.032708485
45	0x3a8f9531	0.0010954497
46	0xbd2a2a33	-0.04154415
47	0x3ccfeb5f	0.025380788
48	0x3c907847	0.017635478
49	0xbcc7d71d	-0.024394566
50	0xbc297b04	-0.010344271
51	0xbc112aa3	-0.008860263
52	0xbbf30c80	-0.0074172616
53	0xbc74b4cb	-0.0149356825
54	0xbc30d27f	-0.010792374
55	0x3bdcb06e	0.0067348992
56	0x3c019404	0.007908825
57	0xbcb4c3ab	-0.022065958
58	0x3d007fc0	0.031371832
59	0x3cc80334	0.02441559
60	0x3cd5ce6e	0.02609941
61	0x3afa6c7f	0.0019105821
62	0x3c1fda2d	0.009756607
63	0x3c753f32	0.01496868
64	0xbc0ddab9	-0.008658105
65	0xbd5e84c1	-0.054325823
66	0xbd5278d9	-0.05138478
67	0x3d0d41d5	0.03448661
68	0xbcea2a65	-0.028584668
69	0xbc4f1430	-0.01263909
70	0x3c301f2c	0.010749619
71	0xbbd688df	-0.006547078
72	0xb8f4b10f	-0.000116678064
73	0xbd0aeac5	-0.0339153
74	0x3add91e1	0.0016904437
75	0xbb5d4cde	-0.003376774
76	0xbc336c6d	-0.010951144
77	0xbd220f0c	-0.03956513
78	0x3c667881	0.014066816
79	0x3c9bd5de	0.019022878
80	0xbd2ca28f	-0.042147215
81	0xbd56fb4c	-0.05248575
82	0xbc38a3a0	-0.01126948
83	0xbc5cd895	-0.013479372
84	0xbda37148	-0.07980591
85	0x3cd787d9	0.026309894
86	0x3be980a8	0.0071259327
87	0x3d319329	0.043353233
88	0x3c3696f5	0.011144389
89	0x3d20636f	0.039157327
90	0xbcfb27da	-0.030658651
91	0xbc268151	-0.010162667
92	0x3c94b300	0.01815176
93	0xbc8772cd	-0.016534233
94	0x3cf84166	0.030304622
95	0x3d0fed3c	0.035138354
96	0x3b597b8a	0.0033185207
97	0x3d50d5e2	0.050985225
98	0x3cb71f48	0.022353783
99	0x3c8a21d0	0.016861826
100	0x3d685e67	0.056730654
101	0x3aae877c	0.0013315524
102	0x3cf59a8f	0.029980926
103	0xbb20d487	-0.0024540739
104	0x3d0cd45e	0.034382217
105	0x3c30802a	0.010772744
106	0xbc36711b	-0.011135365
107	0x3d064971	0.032784883
108	0xbcd1d6e8	-0.02561517
109	0x3ca013fb	0.019540777
110	0xbca7ddb2	-0.020491455
111	0xbcb97c0a	-0.022642154
112	0x3aa12c4d	0.0012296528
113	0x3b953a68	0.0045540817
114	0x3cb4446f	0.022005288
115	0xbce19251	-0.02753559
116	0x3ca20391	0.019777091
117	0x3c913f4c	0.017730378
118	0x3a90daf7	0.0011051585
119	0xbc1c2c1e	-0.009532003
120	0xbc5617d2	-0.013067203
121	0xbc291e98	-0.0103222355
122	0x3b9ff04a	0.0048809396
123	0x3bb90861	0.005646751
124	0x3bb05526	0.0053812442
125	0x3d786e21	0.060651902
126	0xbc935898	-0.01798658
127	0x3bd85669	0.006602098
128	0x3d44c7fa	0.048042275
129	0xbd1237ab	-0.03569762
130	0x3cf5e808	0.030017868
131	0xbc991ddd	-0.018690998
132	0x3cdd1e36	0.026991945
133	0xbc6f8743	-0.014619651
134	0x3cff5806	0.031169903
135	0xbc5f93d5	-0.013646086
136	0xbd2267b7	-0.03964969
137	0xbcd16683	-0.025561577
138	0xbca05783	-0.019572979
139	0xbcea9b5e	-0.028638538
140	0x3c97038a	0.018434305
141	0x3abeeb0c	0.0014565899
142	0xbb8b6bb4	-0.0042547826
143	0x3bf7537f	0.0075477953
144	0xbad904f1	-0.0016557259
145	0xbd6f704a	-0.058456697
146	0xbcc85965	-0.02445669
147	0x3b72d5e0	0.003705375
148	0xbacf1f9d	-0.0015802268
149	0x3a7db6c0	0.0009678416
150	0x3b8601f4	0.0040895883
151	0xbd1e332a	-0.038623013
152	0xbd5a72f7	-0.053332295
153	0x3d2809db	0.041025024
154	0xbd033ab9	-0.032038424
155	0xbcf5476e	-0.029941287
156	0xbc3a48c5	-0.011369889
157	0x3a1e521b	0.00060394563
158	0xbbd3450f	-0.0064474414
159	0xbcae2cab	-0.021261534
160	0x3bb2173b	0.005434898
161	0x3b6148f8	0.0034375768
162	0x3d283cf8	0.04107377
163	0xbd2f9053	-0.042862248
164	0x3c858356	0.016297977
165	0x3d3a7062	0.045517333
166	0xbd873f63	-0.06603887
167	0x3ce51898	0.027965829
168	0x3d15c2c1	0.036562685
169	0x3ce25ed1	0.027633103
170	0x3c3d30ad	0.01154725
171	0xbcc18341	-0.023622157
172	0x3d3c0a1b	0.045908075
173	0xbd2f4bf5	-0.042797048
174	0x3c02fac1	0.007994355
175	0xbc4a9f51	-0.012367086
176	0xbd017cd4	-0.031613186
177	0xbd24d90c	-0.040246055
178	0x3cb89905	0.022533903
179	0xbcadcb86	-0.021215212
180	0xbafb4960	-0.0019171648
181	0x3c92373e	0.017848607
182	0xbbe6db33	-0.0070451736
183	0x3d6559d3	0.055993866
184	0xbc8b443d	-0.017000312
185	0xbcd6e98c	-0.02623441
186	0x3cd2f84f	0.025753168
187	0xbcd0a081	-0.02546716
188	0xbd0526e6	-0.0325078
189	0xbb104f81	-0.0022020044
190	0xbc822543	-0.015886908
191	0x3d3ee574	0.046605542
192	0xbbe246a9	-0.006905396
193	0x3c2d5c08	0.010581024
194	0xbcf33473	-0.029688096
195	0x3aa95359	0.0012918516
196	0xbdad89f1	-0.08473576
197	0xbd4c540f	-0.049884852
198	0xbc3f282f	-0.011667295
199	0xbb6ee00c	-0.003644946
200	0x3cc12c6a	0.023580749
201	0x3d730695	0.05933245
202	0xbc2fc23a	-0.01072746
203	0xbc26653a	-0.01015597
204	0x3c18c06d	0.009323222
205	0x3c63d178	0.013904922
206	0x3d653d39	0.05596659
207	0x3bd867cf	0.006604172
208	0x3ce3f20c	0.027825378
209	0x3ce16025	0.027511666
210	0xbc4cc91b	-0.012499119
211	0x3c8e40c3	0.017364865
212	0xbc889214	-0.016671218
213	0x3c3a344c	0.011365008
214	0xbb856ca0	-0.004071787
215	0xbc8c46a2	-0.017123524
216	0xbbecf620	-0.007231489
217	0xbc9472df	-0.018121181
218	0x3d5f88f2	0.05457396
219	0xbcb81774	-0.02247212
220	0xbd1b0d9d	-0.03785478
221	0xbbc0f50e	-0.005888588
222	0xbd07199a	-0.0329834
223	0xbd8081ed	-0.062747814
224	0x3d0034d2	0.031300373
225	0x3d2e6e44	0.042585626
226	0x3c62e6db	0.013848986
227	0x3c13d55c	0.009023037
228	0x3c457b2d	0.012053293
229	0x3d022a38	0.031778544
230	0xba86b1ee	-0.0010276416
231	0xbd1c00a4	-0.03808655
232	0xbd1e2a34	-0.038614467
233	0x3c182056	0.009285053
234	0x3c01184c	0.007879328
235	0x3b349111	0.0027552287
236	0x3cfa6606	0.030566227
237	0xbcfa785c	-0.03057497
238	0x3c9d05ce	0.019167807
239	0xbb93603d	-0.0044975565
240	0x3c134df3	0.0089907525
241	0xbaf0937a	-0.0018354498
242	0x3d49fcb3	0.04931326
243	0xbb5112be	-0.003190204
244	0xb9ae6da5	-0.00033269558
245	0xbc821e54	-0.015883602
246	0x3d084f02	0.033278473
247	0xbb77cbf9	-0.0037810786
248	0xbcff0471	-0.031130048
249	0xbba0c434	-0.0049062017
250	0x3ccab4f5	0.02474449
251	0xbd6ed225	-0.05830588
252	0x3c8b452b	0.017000755
253	0xbb649d8c	-0.0034883944
254	0xbcd7728b	-0.026299736
255	0xbd22365b	-0.03960262

st_gcn_networks.1.tcn.2.bias f4 [8]
0	0x37e350cb	2.709813e-05
1	0x389e21eb	7.540345e-05
2	0x3833c47d	4.285992e-05
3	0x3677349b	3.6836489e-06
4	0x3767d426	1.3818068e-05
5	0x37ba7885	2.222905e-05
6	0x3815eb6c	3.5743622e-05
7	0x37344914	1.0745851e-05

st_gcn_networks.1.tcn.3.weight f4 [8]
0	0x3e4f8724	0.20266396
1	0x3e7be729	0.245999
2	0x3e8bb0ec	0.27283418
3	0x3e82145c	0.25406158
4	0x3e4c2fc2	0.19940093
5	0x3e8b0ba9	0.27157333
6	0x3e8616d2	0.26189286
7	0x3e36d0fc	0.17853159

st_gcn_networks.1.tcn.3.bias f4 [8]
0	0x3b099308	0.0020992178
1	0xbc47cd71	-0.012194977
2	0xbc6516e8	-0.013982512
3	0xbbb3deaa	-0.00548919
4	0xba229b97	-0.0006202994
5	0xbbc8bce3	-0.0061260327
6	0xbc857410	-0.016290694
7	0x3b7b4664	0.0038341517

st_gcn_networks.1.tcn.3.running_mean f4 [8]
0	0xbb29509b	-0.0025835398
1	0x3c79136f	0.015202387
2	0xbb9ef5b0	-0.0048510656
3	0x3aeba073	0.0017976895
4	0xbaa68876	-0.0012705463
5	0x3c420078	0.011840932
6	0xbc3b5532	-0.011433886
7	0xbc2c0631	-0.010499523

st_gcn_networks.1.tcn.3.running_var f4 [8]
0	0x398d28b9	0.00026923956
1	0x3a94a64c	0.0011341064
2	0x3a01df7f	0.0004954263
3	0x39a3576c	0.00031154917
4	0x3984b2fe	0.00025310362
5	0x3a5b2169	0.00083591655
6	0x3a1ae466	0.0005908668
7	0x3a1e3b60	0.0006036069

st_gcn_networks.1.residual.0.weight f4 [8, 8, 1, 1]
0	0xbd036f58	-0.032088608
1	0xbd7c34c6	-0.061573766
2	0xbdd957c8	-0.10612446
3	0xbc892cb2	-0.016744945
4	0xbd416a36	-0.04722043
5	0x3ce0a6a8	0.027423218
6	0x3d5640b1	0.05230779
7	0xbb7ce21c	-0.003858692
8	0xbd99b3bb	-0.07504984
9	0xbd30defb	-0.0431814
10	0xbcf76f83	-0.03020454
11	0xb99346be	-0.00028090732
12	0x3cd1d0e4	0.025612302
13	0x3d917891	0.07103074
14	0x3db51585	0.08841995
15	0xbdb0c866	-0.08631973
16	0xbe00b1a6	-0.12567768
17	0xbae3a017	-0.0017366436
18	0x3d9458c4	0.07243493
19	0x3b5dd385	0.0033848
20	0xbcf099a2	-0.029370133
21	0x3d5556f7	0.05208489
22	0xbafb45f0	-0.0019170623
23	0xbd4c41f6	-0.049867593
24	0x3db594e5	0.0886629
25	0x3cd1d008	0.025611892
26	0xbd45fb2f	-0.04833525
27	0x3a5ce657	0.00084266573
28	0xbcca81cb	-0.024720093
29	0x3c4448f3	0.011980283
30	0x3d64a364	0.055819884
31	0x3d8d9913	0.06913962
32	0xbd73dc49	-0.059536252
33	0x3d344aaf	0.044016536
34	0xbd827ffc	-0.06372067
35	0x3ca2bb20	0.019864619
36	0x3d24ca95	0.04023226
37	0xbd430e4d	-0.04762106
38	0x3d9615cc	0.07328376
39	0x3d7bc8c2	0.061470754
40	0x3df443b2	0.11926974
41	0x3ce8c348	0.02841343
42	0x3da6bba0	0.081412554
43	0xbc5f9f67	-0.013648844
44	0xbd7515dc	-0.0598353
45	0xbd0c2f6c	-0.034224913
46	0xbcadc678	-0.021212801
47	0xbda58457	-0.080818824
48	0x3caf1d82	0.021376375
49	0x3cb9811e	0.022644576
50	0xbd8bd524	-0.06827763
51	0x3c960dc8	0.018317118
52	0xbcc854b1	-0.024454447
53	0xbceda534	-0.029009439
54	0xbda60269	-0.081059285
55	0x3c99b0de	0.018761095
56	0x3bcd796f	0.0062705795
57	0x3d126fba	0.035751082
58	0x3da8b7c5	0.08238176
59	0x3cc3ea9e	0.023915585
60	0x3d522d61	0.051312808
61	0x3d9d1777	0.07670491
62	0xbd8a92eb	-0.06766304
63	0xbce6e23e	-0.028184053

st_gcn_networks.1.residual.0.bias f4 [8]
0	0x37a3108d	1.9438821e-05
1	0x37acb9f9	2.0590598e-05
2	0x373b3e91	1.1160636e-05
3	0xb7e213c7	-2.6950509e-05
4	0x3731e22e	1.0602684e-05
5	0x384c27ee	4.8674578e-05
6	0x381d246c	3.7465637e-05
7	0x37e833a5	2.7680604e-05

st_gcn_networks.1.residual.1.weight f4 [8]
0	0x3e5e0117	0.21680103
1	0x3e34d037	0.17657553
2	0x3e66fafe	0.22556683
3	0x3e64b18b	0.22333352
4	0x3e26e7c1	0.16299345
5	0x3e6198fe	0.22031018
6	0x3ea3007b	0.31836304
7	0x3e126638	0.14296806

st_gcn_networks.1.residual.1.bias f4 [8]
0	0x3b099308	0.0020992178
1	0xbc47cd71	-0.012194977
2	0xbc6516e8	-0.013982512
3	0xbbb3deaa	-0.00548919
4	0xba229b97	-0.0006202994
5	0xbbc8bce3	-0.0061260327
6	0xbc857410	-0.016290694
7	0x3b7b4664	0.0038341517

st_gcn_networks.1.residual.1.running_mean f4 [8]
0	0xbc87a526	-0.016558241
1	0xbad4c3f3	-0.0016232714
2	0xbb664e7e	-0.0035142
3	0x3ca16401	0.019701006
4	0x3b86477a	0.004097876
5	0x3b650460	0.0034945235
6	0xbc79cc81	-0.015246511
7	0x3c9c6d3a	0.019095052

st_gcn_networks.1.residual.1.running_var f4 [8]
0	0x3a173401	0.0005767942
1	0x3a805235	0.0009790125
2	0x3a21fe6e	0.00061795756
3	0x3a7f2ab7	0.0009733843
4	0x3a6f3910	0.00091256294
5	0x3a9257a1	0.0011165031
6	0x3a465af5	0.0007566654
7	0x3a05ba9d	0.0005101355

st_gcn_networks.2.gcn.conv.weight f4 [48, 8, 1, 1]
0	0x3d1911fe	0.037370674
1	0xbd6fffc3	-0.058593523
2	0x3c43164f	0.011907174
3	0xbd428fba	-0.04750035
4	0x3d4f4723	0.05060495
5	0x3c58885c	0.013216104
6	0xbd897088	-0.06710917
7	0xbcb8c16d	-0.02255317
8	0xbc83081c	-0.015995078
9	0xbc77b7e6	-0.015119528
10	0x3b7d3321	0.0038635212
11	0xbce909dc	-0.028447084
12	0xbc5e605a	-0.013572777
13	0xbb326a95	-0.0027224172
14	0x3cf86981	0.030323746
15	0xbcaf5697	-0.021403594
16	0x3cd10933	0.025517082
17	0xbcafe67f	-0.021472214
18	0x3c76a30a	0.01505352
19	0xbd35fe28	-0.044431835
20	0xbca3de93	-0.020003593
21	0x3c201fd7	0.009773216
22	0xbd4f1adc	-0.050562724
23	0xbc64841c	-0.013947513
24	0x3cce0fe7	0.025154067
25	0x3a54c2ea	0.00081162027
26	0xbb14832c	-0.0022661192
27	0xbc82c39f	-0.01596242
28	0xbb8c14a1	-0.00427492
29	0xbd5b6d81	-0.053571228
30	0xbc76a622	-0.015054258
31	0x3b873b23	0.0041269227
32	0x3d043c63	0.03228415
33	0x3c8a0a57	0.016850634
34	0xbd094212	-0.033510275
35	0x3c99fd0c	0.01879742
36	0xbd88f9e7	-0.0668829
37	0x3d238040	0.03991723
38	0xbc6de70d	-0.014520419
39	0xbcc2a625	-0.023760865
40	0x3d971afb	0.07378193
41	0xbc164b4f	-0.009173228
42	0xbd87bc47	-0.06627708
43	0xbcdc57a7	-0.026897265
44	0x3daf7ad6	0.08568351
45	0xbc90773a	-0.017634977
46	0xbdd0ad33	-0.10189285
47	0xbca651a7	-0.020302607
48	0xbd2428a1	-0.04007781
49	0xbdb6ce45	-0.089260615
50	0xbd322cfa	-0.043499924
51	0x3a12f65f	0.000560617
52	0xbd5a0c6f	-0.053234514
53	0x3d4c7ca2	0.049923547
54	0xbdc0ecfe	-0.09420203
55	0xbbf696fc	-0.007525323
56	0xbc51faa0	-0.012816101
57	0xbcac1761	-0.021007242
58	0x3d0db526	0.034596585
59	0xbc79517c	-0.015217181
60	0xbbf378c7	-0.0074301693
61	0xbc9869bd	-0.018605107
62	0x3cff5ee4	0.031173177
63	0xbc23ce13	-0.009997862
64	0xbc7dc3b2	-0.015488552
65	0xbcce56e3	-0.025187915
66	0xbd0c4860	-0.03424871
67	0x3cab3e8e	0.020903852
68	0xbd2d6b63	-0.04233874
69	0x3d222a18	0.039590925
70	0xbcc1721c	-0.023613982
71	0xbd388068	-0.045044333
72	0x3c788c9e	0.0151702445
73	0xbcac5ae9	-0.021039443
74	0x3d528016	0.051391684
75	0x3c8af3d2	0.016961966
76	0x3c89aa45	0.016804824
77	0xbd3f0927	-0.046639588
78	0x3c9d806b	0.019226274
79	0xba15171c	-0.00056873425
80	0x3c702fa7	0.014659799
81	0xbd06fc0e	-0.03295522
82	0x3cdd3dde	0.02700704
83	0x3b5c70ed	0.0033636645
84	0x3d213825	0.039360184
85	0x3d764aec	0.060130045
86	0x3a09bbca	0.0005254118
87	0xbc95102c	-0.018196188
88	0x3d04a989	0.032388244
89	0xbd13f4ad	-0.036122013
90	0xbd293bfd	-0.041316975
91	0x3d0be5bf	0.03415465
92	0xbcaf2600	-0.021380424
93	0xbc8200d0	-0.015869528
94	0x3cbb1072	0.02283499
95	0xbd652cc0	-0.05595088
96	0x3cd7bc91	0.026335033
97	0xbcfaf171	-0.030632706
98	0xbb8ef6cd	-0.004362917
99	0x3d9f27cc	0.077712625
100	0xbc844844	-0.01614774
101	0x3ca7eca3	0.02049858
102	0x3cd2f998	0.025753781
103	0xbbba6f7e	-0.0056895604
104	0x3c0279e4	0.007963631
105	0xbd7ed8f5	-0.062218625
106	0x3d84db6a	0.064871624
107	0xbc9d5455	-0.019205252
108	0xbc5ff244	-0.0136686005
109	0xba844881	-0.0010092409
110	0xbc576002	-0.013145449
111	0xbb35b064	-0.0027723545
112	0xbd0bfdab	-0.034177464
113	0x3cc3cd2a	0.02390154
114	0x3d400e71	0.046888772
115	0xbd3e9016	-0.04652413
116	0x3c8e35af	0.017359583
117	0x3d38a24d	0.045076657
118	0x3cf3a2aa	0.02974065
119	0xbc1a5ca3	-0.0094215
120	0xbca98b7d	-0.020696396
121	0x3d045378	0.032306165
122	0xbcd6806e	-0.026184287
123	0xbd118cb7	-0.035534587
124	0xbd96873e	-0.07350014
125	0xbbfe6251	-0.007763185
126	0xb9c71915	-0.00037974925
127	0xbcaa3eed	-0.020781958
128	0x3d0539d9	0.03252587
129	0xbce2921e	-0.027657565
130	0x3cb8a04c	0.022537373
131	0xbd5f193c	-0.054467425
132	0x3d2aa76c	0.041663572
133	0x3da4b3c4	0.080421
134	0x3db75507	0.089517646
135	0xbd387e31	-0.04504222
136	0x3c022bff	0.00794506
137	0xbcbdfcf4	-0.023191907
138	0xbd075f5b	-0.033049922
139	0xbd281f1d	-0.041045297
140	0xbbac4d91	-0.00525827
141	0x3d47feb2	0.04882688
142	0x3d0e59d2	0.034753628
143	0x3c819dab	0.015822252
144	0x3cb4699c	0.022023015
145	0x3b69830d	0.003563109
146	0x3d6f2c20	0.05839169
147	0xbc33ced3	-0.010974604
148	0x3d29a2f5	0.041415174
149	0xbc3c6630	-0.011498973
150	0x3cddad60	0.02706021
151	0xbd3a398d	-0.04546504
152	0x3c98a25b	0.018632105
153	0x3ce12f5d	0.027488405
154	0x3b463cee	0.003024872
155	0xbc96bd97	-0.01840095
156	0x3d47007c	0.048584446
157	0xbd3a556b	-0.045491617
158	0xbd43ff85	-0.047851104
159	0xbd5cbd76	-0.05389162
160	0xbc4c6fc7	-0.012477822
161	0xbcdaced6	-0.026709955
162	0x3cfc60a3	0.030807799
163	0xbcb554e4	-0.022135206
164	0xbbec5f8b	-0.007213538
165	0x3cc66158	0.024216339
166	0x3d391d80	0.04519415
167	0x3c1319bd	0.008978304
168	0x3c86761d	0.016413743
169	0x3d0837da	0.03325639
170	0xbc933970	-0.017971724
171	0xbd266100	-0.04061985
172	0x3c848455	0.016176382
173	0xbdd3672c	-0.10322413
174	0x3c95172e	0.01819953
175	0xbc4a1031	-0.012332962
176	0x3d52c4ef	0.05145734
177	0x3d0f58ab	0.03499667
178	0xbd82127f	-0.06351184
179	0x3d1661c7	0.03671434
180	0x3d854a4b	0.06508311
181	0xbd24e9c3	-0.040261995
182	0xbbef0e1c	-0.007295383
183	0xbd590a88	-0.05298856
184	0xbc6b6a4c	-0.014368605
185	0xbd634ccb	-0.055493157
186	0x3d294e99	0.041334722
187	0x3d14b265	0.036302943
188	0xbd2711ee	-0.040788583
189	0x3d2e20f7	0.042511906
190	0xbcb16f78	-0.021659598
191	0x3d3f42e9	0.04669467
192	0x3d24cd6c	0.040234968
193	0x3d695f65	0.05697574
194	0xbcc42c3c	-0.023946874
195	0x3cdec732	0.027194593
196	0x3d53de42	0.051725633
197	0xbb657faa	-0.003501872
198	0x3d98c0b7	0.074586324
199	0xbcebc9d8	-0.02878277
200	0xbc593aad	-0.013258618
201	0xbc991d87	-0.018690838
202	0xbd05957b	-0.03261326
203	0x3d051f0f	0.032500323
204	0xbd8a8db2	-0.067653075
205	0x3d51a8ac	0.05118625
206	0x3cf604ca	0.03003158
207	0xbcf882f5	-0.030335883
208	0xbc9c08bd	-0.019047135
209	0xbd80f706	-0.06297116
210	0xbc452939	-0.012033754
211	0x3d4b75b0	0.049672782
212	0x3b03ceb7	0.0020112225
213	0xbb80106a	-0.0039082067
214	0x3b4815ba	0.0030530528
215	0x3d59ee6e	0.0532059
216	0x3d60dffe	0.054901116
217	0x3dadd6e3	0.08488252
218	0x3cabcbcd	0.020971203
219	0x3c40b20f	0.0117612025
220	0xbd37e6ef	-0.04489797
221	0xbccf2012	-0.025283847
222	0x3dca810b	0.09887894
223	0x3d57f127	0.052720215
224	0x3dcfd6e6	0.101484105
225	0xbcdcd18d	-0.02695539
226	0xbbf0811f	-0.007339611
227	0xbd67101f	-0.05641186
228	0xbd20039a	-0.039065935
229	0xbbd1c007	-0.0064010653
230	0x3cf3eb8e	0.029775407
231	0xbc49182c	-0.012273829
232	0x3d1a7e50	0.037718117
233	0x3d434619	0.047674272
234	0xbda3bd20	-0.07995057
235	0x3d8cae63	0.06869199
236	0xbc002c46	-0.007823056
237	0xbd5aaa2e	-0.053384952
238	0xba52e132	-0.0008044421
239	0x3db0d2a4	0.086339265
240	0xbd2f8d60	-0.042859435
241	0xbc6e87e7	-0.014558769
242	0xbd3a89ad	-0.045541454
243	0xbcc2ae22	-0.023764674
244	0x3ce33d88	0.027739301
245	0x3c4d086c	0.012514215
246	0xbc449b30	-0.01199989
247	0x3bc877b8	0.006117787
248	0xbd11ac44	-0.035564676
249	0xbb201fcc	-0.0024433015
250	0x3ca9808f	0.020691184
251	0x3d239a67	0.03994217
252	0x3cc73421	0.02431685
253	0x3c7f630e	0.015587581
254	0x3d6f5392	0.05842931
255	0xbbe3cb53	-0.0069517284

st_gcn_networks.2.gcn.conv.bias f4 [48]
0	0xbc34479f	-0.011003404
1	0x3c2e324f	0.010632112
2	0xbc105441	-0.00880915
3	0x3b38508d	0.0028124184
4	0xb7d2dcbb	-2.5136736e-05
5	0xbc350d47	-0.011050529
6	0x3cea7388	0.028619543
7	0xbc86ddbe	-0.016463157
8	0xbc22e616	-0.009942552
9	0xbba6f43f	-0.0050950344
10	0xbbc36314	-0.005962739
11	0xbc2cd1a0	-0.010548025
12	0xbcf0063a	-0.029299844
13	0xbc0f7b46	-0.008757418
14	0x3bab394b	0.0052253357
15	0x3bfeb11c	0.007772578
16	0xbd4d21e3	-0.050081145
17	0xbbe45ade	-0.00696884
18	0xba5a3208	-0.0008323495
19	0x3c77a8f3	0.015115964
20	0x3837bc31	4.3805867e-05
21	0xbc80c244	-0.015717633
22	0xbc27c2b3	-0.010239291
23	0xbc57261f	-0.013131647
24	0xbd4237dd	-0.047416557
25	0xbc0201f5	-0.007935037
26	0xbc9224d0	-0.01783982
27	0xbd171fa1	-0.036895398
28	0x3c70d3bb	0.014698918
29	0x3b54667a	0.0032409714
30	0xbc2db150	-0.010601357
31	0xbc6adcb3	-0.014334845
32	0x3c3fdce7	0.011710382
33	0x3ca77865	0.02044315
34	0xbc05bebf	-0.008163153
35	0x3be482cd	0.0069736005
36	0xbd295daa	-0.04134909
37	0x3c2d6b57	0.010584674
38	0x3b303e47	0.002689259
39	0xbbf56780	-0.007489145
40	0x396322b6	0.00021661338
41	0x3b121bd2	0.0022294414
42	0xbc1f5c89	-0.009726652
43	0xbd039250	-0.032121956
44	0x3ce4df39	0.027938472
45	0xbc8002e9	-0.015626388
46	0x3c9776c9	0.018489258
47	0x3c2c5200	0.010517597

st_gcn_networks.2.tcn.0.weight f4 [16]
0	0x3e4bf800	0.19918823
1	0x3deca6de	0.11555265
2	0x3e20cfd2	0.15704277
3	0x3e0239df	0.12717389
4	0x3d9b2e38	0.07577175
5	0x3e601683	0.21883588
6	0x3e29663f	0.1654291
7	0x3e2d1fa8	0.16906607
8	0x3e1e66af	0.15468858
9	0x3e142254	0.1446622
10	0x3e0918e0	0.13388395
11	0x3e342403	0.17591862
12	0x3e19a17b	0.15003006
13	0x3e1add18	0.15123403
14	0x3ddb494f	0.10707342
15	0x3dd7c864	0.10536268

st_gcn_networks.2.tcn.0.bias f4 [16]
0	0xbcc16600	-0.023608208
1	0xbc26325b	-0.010143842
2	0xbd24e1bd	-0.040254343
3	0xbcd8f465	-0.026483724
4	0xbb81f3ca	-0.0039658295
5	0xbcee2ed3	-0.029075062
6	0xbd0919bd	-0.03347181
7	0xbd258b54	-0.040416077
8	0xbd22f353	-0.039782833
9	0xbd140570	-0.036137998
10	0xbd35db8e	-0.044398837
11	0xbd161120	-0.036637425
12	0xbd2bfb6e	-0.04198783
13	0xbd1ace4a	-0.03779439
14	0xbc26035c	-0.010132637
15	0xbd24ee61	-0.0402664

st_gcn_networks.2.tcn.0.running_mean f4 [16]
0	0xbac54c6a	-0.001505268
1	0x39af190e	0.00033397268
2	0xba0eb3be	-0.0005443654
3	0xb9c0c7e2	-0.00036770018
4	0xba9d6bd6	-0.0012010287
5	0xbb324e04	-0.0027207145
6	0xba37c554	-0.00070103
7	0xbad8cdb8	-0.0016540801
8	0xba955645	-0.0011393508
9	0xb9cbc6ea	-0.0003886738
10	0xba864fd4	-0.0010247179
11	0xbaf27a67	-0.0018499614
12	0x39bcc217	0.00036002762
13	0xba5fcc2c	-0.0008537199
14	0x3a10abd0	0.0005518766
15	0x3a4e09eb	0.0007859754

st_gcn_networks.2.tcn.0.running_var f4 [16]
0	0x369748f9	4.508646e-06
1	0x36352d1e	2.6997363e-06
2	0x3629836f	2.5259467e-06
3	0x369f19d8	4.741578e-06
4	0x362c4772	2.5671584e-06
5	0x37663d03	1.3723274e-05
6	0x3662b903	3.3784315e-06
7	0x36466474	2.956277e-06
8	0x3659179a	3.2349258e-06
9	0x365e3ded	3.3116623e-06
10	0x362e70f2	2.5993763e-06
11	0x36756998	3.6569309e-06
12	0x361cb903	2.3353502e-06
13	0x36391dc9	2.7584485e-06
14	0x35d891e0	1.6135709e-06
15	0x3643c449	2.9171517e-06
