weights_arm/168.pt (torch, 70926 bytes, 80 tensors)

A f4 [3, 9, 9]
00000000: 0000 003f 0000 0000 0000 0000 0000 0000
00000010: 0000 0000 0000 0000 0000 0000 0000 0000
00000020: 0000 0000 0000 0000 cdcc 4c3e 0000 0000
00000030: 0000 0000 0000 0000 0000 0000 0000 0000
00000040: 0000 0000 0000 0000 0000 0000 0000 0000
00000050: abaa aa3e 0000 0000 0000 0000 0000 0000
00000060: 0000 0000 0000 0000 0000 0000 0000 0000
00000070: 0000 0000 0000 0000 abaa aa3e 0000 0000
00000080: 0000 0000 0000 0000 0000 0000 0000 0000
00000090: 0000 0000 0000 0000 0000 0000 0000 0000
000000a0: 0000 003f 0000 0000 0000 0000 0000 0000
000000b0: 0000 0000 0000 0000 0000 0000 0000 0000
000000c0: 0000 0000 0000 0000 abaa aa3e 0000 0000
000000d0: 0000 0000 0000 0000 0000 0000 0000 0000
000000e0: 0000 0000 0000 0000 0000 0000 0000 0000
000000f0: abaa aa3e 0000 0000 0000 0000 0000 0000
00000100: 0000 0000 0000 0000 0000 0000 0000 0000
00000110: 0000 0000 0000 0000 0000 003f 0000 0000
00000120: 0000 0000 0000 0000 0000 0000 0000 0000
00000130: 0000 0000 0000 0000 0000 0000 0000 0000
00000140: 0000 003f 0000 0000 cdcc 4c3e 0000 0000
00000150: 0000 0000 0000 0000 0000 0000 0000 0000
00000160: 0000 0000 0000 0000 0000 0000 0000 0000
00000170: 0000 0000 0000 0000 0000 0000 0000 0000
00000180: 0000 0000 0000 0000 0000 0000 0000 0000
00000190: cdcc 4c3e 0000 0000 0000 0000 0000 0000
000001a0: 0000 0000 0000 0000 0000 0000 0000 0000
000001b0: 0000 0000 0000 0000 abaa aa3e 0000 0000
000001c0: 0000 003f 0000 0000 0000 0000 0000 0000
000001d0: 0000 0000 0000 0000 0000 0000 0000 0000
000001e0: abaa aa3e 0000 0000 0000 0000 0000 0000
000001f0: 0000 0000 0000 0000 0000 0000 cdcc 4c3e
00000200: 0000 0000 0000 0000 0000 0000 0000 0000
00000210: 0000 0000 0000 0000 0000 0000 0000 0000
00000220: 0000 0000 0000 0000 0000 0000 0000 0000
00000230: abaa aa3e 0000 0000 0000 003f 0000 0000
00000240: 0000 0000 0000 0000 0000 0000 0000 0000
00000250: 0000 0000 0000 0000 abaa aa3e 0000 0000
00000260: 0000 0000 0000 0000 cdcc 4c3e 0000 0000
00000270: 0000 0000 0000 0000 0000 0000 0000 0000
00000280: 0000 0000 0000 0000 0000 0000 0000 0000
00000290: 0000 0000 0000 0000 0000 0000 0000 0000
000002a0: 0000 0000 0000 0000 0000 0000 0000 003f
000002b0: 0000 0000 abaa aa3e 0000 0000 0000 0000
000002c0: abaa aa3e 0000 0000 0000 0000 0000 003f
000002d0: 0000 0000 0000 0000 0000 0000 abaa aa3e
000002e0: 0000 0000 0000 0000 0000 0000 0000 0000
000002f0: 0000 0000 0000 0000 0000 0000 0000 0000
00000300: 0000 0000 0000 0000 0000 0000 0000 0000
00000310: 0000 0000 0000 0000 0000 0000 0000 0000
00000320: 0000 0000 0000 0000 0000 0000 0000 0000
00000330: 0000 0000 0000 0000 0000 0000 0000 0000
00000340: 0000 0000 0000 0000 0000 0000 0000 0000
00000350: 0000 0000 abaa aa3e 0000 0000 0000 0000
00000360: 0000 0000 0000 0000 0000 0000 0000 0000
00000370: 0000 0000 0000 0000 0000 0000 0000 0000
00000380: 0000 0000 0000 0000 0000 0000 0000 0000
00000390: 0000 0000 0000 0000 0000 0000 0000 0000
000003a0: 0000 0000 0000 0000 0000 0000 0000 0000
000003b0: 0000 0000 0000 0000 0000 0000 0000 0000
000003c0: 0000 0000 0000 0000 0000 0000
0.5 0.0 0.0 0.0 0.0 0.0 0.0 0.0
0.0 0.0 0.2 0.0 0.0 0.0 0.0 0.0
0.0 0.0 0.0 0.0 0.33333334 0.0 0.0 0.0
0.0 0.0 0.0 0.0 0.0 0.0 0.33333334 0.0
0.0 0.0 0.0 0.0 0.0 0.0 0.0 0.0
0.5 0.0 0.0 0.0 0.0 0.0 0.0 0.0
0.0 0.0 0.33333334 0.0 0.0 0.0 0.0 0.0
0.0 0.0 0.0 0.0 0.33333334 0.0 0.0 0.0
0.0 0.0 0.0 0.0 0.0 0.0 0.5 0.0
0.0 0.0 0.0 0.0 0.0 0.0 0.0 0.0
0.5 0.0 0.2 0.0 0.0 0.0 0.0 0.0
0.0 0.0 0.0 0.0 0.0 0.0 0.0 0.0
0.0 0.0 0.0 0.0 0.2 0.0 0.0 0.0
0.0 0.0 0.0 0.0 0.0 0.0 0.33333334 0.0
0.5 0.0 0.0 0.0 0.0 0.0 0.0 0.0
0.33333334 0.0 0.0 0.0 0.0 0.0 0.0 0.2
0.0 0.0 0.0 0.0 0.0 0.0 0.0 0.0
0.0 0.0 0.0 0.0 0.33333334 0.0 0.5 0.0
0.0 0.0 0.0 0.0 0.0 0.0 0.33333334 0.0
0.0 0.0 0.2 0.0 0.0 0.0 0.0 0.0
0.0 0.0 0.0 0.0 0.0 0.0 0.0 0.0
0.0 0.0 0.0 0.5 0.0 0.33333334 0.0 0.0
0.33333334 0.0 0.0 0.5 0.0 0.0 0.0 0.33333334
0.0 0.0 0.0 0.0 0.0 0.0 0.0 0.0
0.0 0.0 0.0 0.0 0.0 0.0 0.0 0.0
0.0 0.0 0.0 0.0 0.0 0.0 0.0 0.0
0.0 0.0 0.0 0.0 0.0 0.33333334 0.0 0.0
0.0 0.0 0.0 0.0 0.0 0.0 0.0 0.0
0.0 0.0 0.0 0.0 0.0 0.0 0.0 0.0
0.0 0.0 0.0 0.0 0.0 0.0 0.0 0.0
0.0 0.0 0.0

data_bn.weight f4 [27]
00000000: 78d8 a73d 9747 173d 16e8 223d ea0f 793e
00000010: 22ef 453d e17f 533d 3e7c 933e 83d5 423e
00000020: 6b25 473e d05f e03e 8073 013f 2c94 b23e
00000030: 8d04 fe3e f4ee 003f 4916 b33e b205 883e
00000040: 7c2a 253e 3814 6a3e e8df ec3e ac02 c83e
00000050: 5e82 ae3e d11a f73e 0486 ce3e 2a14 aa3e
00000060: aa68 603e de69 ff3c 276c 443d
0.08195585 0.036933508 0.039772116 0.24322477 0.048323758 0.051635627 0.28805727 0.19026761
0.19447868 0.438231 0.50566864 0.3487867 0.49612847 0.50364614 0.3497794 0.26566845
0.16129488 0.22859275 0.46264577 0.39064538 0.34083837 0.48262647 0.4033662 0.3321851
0.21914926 0.031178411 0.047954705

data_bn.bias f4 [27]
00000000: fb08 a7bc 8a92 eb3c 6841 adbc df57 77bc
00000010: 9614 71bc b6ba b8b9 5c81 413d b04e 493c
00000020: 6402 2f3c 5f6e 8dbc 25ea 373b b95b 763c
00000030: b14b 63bc 4905 153c 602d 8bbb 2e34 9b3c
00000040: dab7 283d 816c 0c3d 3502 b23b 96d5 89bc
00000050: dbcd c9bc 0c35 b2bc f11e e4bc 3e6c 983b
00000060: e63b 023c 0df2 7a3c f243 f03b
-0.020390024 0.028756399 -0.021149352 -0.015096634 -0.014714381 -0.00035234325 0.047242507 0.012286827
0.010681722 -0.017264543 0.0028063145 0.015036517 -0.013873027 0.009095498 -0.0042473525 0.01894578
0.04119096 0.034283165 0.005432392 -0.016825479 -0.024634292 -0.02175381 -0.027846785 0.0046515753
0.007948851 0.0153164985 0.0073323185

data_bn.running_mean f4 [27]
00000000: bc0b a742 4571 8e42 5860 aa41 e8a4 b842
00000010: 0184 9b42 787e b741 91ba a542 52bb 9242
00000020: 5cb8 af41 f806 ba42 574a 9642 3807 b141
00000030: 3aa3 c842 1359 9242 2a39 ac41 933f cb42
00000040: 9f4a a442 a446 bf41 4547 f442 6da3 b042
00000050: 8477 ca41 74f8 f142 20ce a642 a0d9 c241
00000060: bb92 c342 5aeb af42 7e07 ca41
83.52292 71.22123 21.297043 92.32208 77.75782 22.936752 82.86439 73.36586
21.96502 93.01361 75.145195 22.128525 100.3188 73.17397 21.527912 101.62417
82.145744 23.909492 122.1392 88.31919 25.308357 120.98526 83.40259 24.356262
97.78658 87.95967 25.253658

data_bn.running_var f4 [27]
00000000: d7e8 3846 3997 9a46 1fbf d445 19f5 4546
00000010: ecee aa46 f0eb ee45 4c0e 1846 3e5d 9546
00000020: 345d d845 3a95 4346 d2a1 8c46 8cf5 d045
00000030: fae4 5f46 4485 8146 a783 c345 b68a 8146
00000040: f884 c246 8c95 0346 fbcd ad46 9c17 c946
00000050: b1e2 0a46 e196 a446 e758 b046 2886 fb45
00000060: 1365 8746 8929 b846 1f50 0546
11834.21 19787.611 6807.89 12669.274 21879.46 7645.492 9731.574 19118.621
6923.6504 12517.307 18000.91 6686.6934 14329.244 16578.633 6256.4565 16581.355
24898.484 8421.387 22246.99 25739.805 8888.673 21067.44 22572.451 8048.7695
17330.537 23572.768 8532.03

st_gcn_networks.0.gcn.conv.weight f4 [24, 3, 1, 1]
00000000: 2b3d 7fbd c882 a0ba 0f98 8a38 75f7 1b3e
00000010: c01e 58bd e37d 843d 6e0c 833d 63af 913b
00000020: 7221 3d3d 44fc ddbc a9c9 88bc 726b 013e
00000030: 45d0 eb3c af1f 3dbc 5063 58be 95d1 5e3e
00000040: 4d6f 923e 8482 a33d ac28 65be 899d 243e
00000050: e08e 8c3d 3d77 40be c3df 933d 243f 07be
00000060: b1b9 59bd 4004 35bd 52f9 91bc 237d 74be
00000070: 1517 a7bd 8025 0c3d 2d07 2c3e 1c80 1abc
00000080: 8f84 afbc 8617 06be 49f9 08be 13ec a23b
00000090: bac7 ac39 bcc0 a6bc 0005 3d3e 5a66 54bd
000000a0: 7574 6fbe dbdd 03be c9c7 833d 4da5 813d
000000b0: 72c0 3d3d 3f6c 333e f94a ccbd 109e 253e
000000c0: 0b0b c8bc b238 c93b a4f7 2b3c f600 27bd
000000d0: 54ae dbbc 9a09 99bd 1767 1c3e 7996 edbc
000000e0: 2670 333d bd41 d5bc f42f a9bc 4040 213c
000000f0: 9cad 59be a767 433c c22c 5ebc 6ac7 2e3d
00000100: 6143 76bd b427 d43d f177 083d 8f68 7ebd
00000110: 8a49 c03b 6ce4 d8bd 2d03 163e ec4a 453d
-0.062314194 -0.0012246007 6.608676e-05 0.15231116 -0.0527637 0.064693235 0.06398855 0.0044459566
0.046174474 -0.027097829 -0.016697722 0.12638643 0.028785834 -0.0115431985 -0.21131635 0.21759637
0.2860054 0.07983878 -0.22378796 0.1607572 0.06863189 -0.18795486 0.072204135 -0.1320768
-0.053155605 -0.044193506 -0.01781908 -0.23875861 -0.081586994 0.03421545 0.16799612 -0.009429958
-0.021425514 -0.13094911 -0.13376345 0.00497199 0.00032955204 -0.020355575 0.18458939 -0.051855423
-0.23384269 -0.128776 0.0643459 0.06330357 0.04632611 0.17521761 -0.099752374 0.16173577
-0.024419328 0.006140792 0.010496054 -0.0407724 -0.026816525 -0.074725345 0.152737 -0.029002415
0.043808125 -0.026032323 -0.020652749 0.009841979 -0.21257633 0.011926568 -0.013560476 0.042670645
-0.06012285 0.10359135 0.03331751 -0.062111434 0.0058681415 -0.10590443 0.14649649 0.048167154

st_gcn_networks.0.gcn.conv.bias f4 [24]
00000000: 92da 023d 5296 323d ba5f 2f3d c707 983d
00000010: b02c 85bc 32af 2cbe c532 8dbc 8959 fc3d
00000020: ac43 86bd ee6d 913c 1510 a93d 56e3 d0bc
00000030: 9e73 bd3c 3bac 0d3e 41c7 163e 6825 a2bc
00000040: fa10 a3bc 0637 1abe d5b9 8a3c 762e 72bd
00000050: b931 203d 3362 d43c bc29 ebbc f9a6 06bb
0.031946726 0.043600388 0.0428159 0.074233584 -0.01625666 -0.16863707 -0.017236123 0.12321765
-0.06555876 0.017752614 0.082550205 -0.025499027 0.02312642 0.13835232 0.14724447 -0.019793227
-0.019905556 -0.15060052 0.016934315 -0.05912634 0.03910992 0.025925731 -0.028706424 -0.00205463

st_gcn_networks.0.tcn.0.weight f4 [8]
00000000: 805c 123e 6ec2 973e b3c7 bf3e 4708 823e
00000010: f88c 7d3e c0cf a53e 3261 a43e b1d6 ab3e
0.14293098 0.29640526 0.37457046 0.2539694 0.24760807 0.32385063 0.32105404 0.33562234

st_gcn_networks.0.tcn.0.bias f4 [8]
00000000: b947 433d afa5 1c3d 5e14 6a3d 8e5e c23c
00000010: 17ac 2bbd 0d89 5a3d 9901 adbb 0234 2abd
0.047675822 0.038243946 0.05714833 0.023726728 -0.041912165 0.053353358 -0.0052797315 -0.041553505

st_gcn_networks.0.tcn.0.running_mean f4 [8]
00000000: b4fd 7fbb a25f 5c3a 3b8e 763c 8fbd 873b
00000010: acbd 053b efea a2bb d6ae 503c 17ae 5a3c
-0.003906113 0.00084065844 0.015048559 0.00414247 0.0020407243 -0.004971854 0.012736997 0.01334717

st_gcn_networks.0.tcn.0.running_var f4 [8]
00000000: 9e3e b138 b3f9 2a39 30cc 8d39 bf71 6539
00000010: 7e25 8437 8510 4f39 f150 9939 1d03 7138
8.451681e-05 0.00016305484 0.00027045747 0.00021881516 1.5753085e-05 0.00019747212 0.0002924274 5.7461777e-05

st_gcn_networks.0.tcn.2.weight f4 [8, 8, 9, 1]
00000000: a891 1cbd fc03 79bc e510 cc3c 4452 8a39
00000010: 7e9e 233c 3958 debc b261 233b ec05 c3bb
00000020: e1f9 423c 5b8b 063d 4862 56bd 3e45 06bd
00000030: 3a5d 06bc c7ed 63bb e3ee 8d3c 915d 473c
00000040: 010b 92bb 507c a3bc 1b69 463d 1e5a 573d
00000050: 3089 063d d095 8f3d 076f 80bc fed0 c33d
00000060: b3d6 6cbd 3945 d43c af31 65bd e62f 063c
00000070: 5026 a3bc 966b 843d d792 d13b 120c c13c
00000080: 8e7b d33c 57f7 8c3c c316 303d 519e e93c
00000090: dfb4 91bd 6b4a a4bc 673f 353d d864 a6bc
000000a0: 1a96 f5bc 3c22 ab3c bd1d a63c 8815 4dbd
000000b0: fafd 343c 0b46 d9bc 9c84 d73a 132f 283c
000000c0: bcdf b23c c32b 0c3d adfd 573c 6871 05bc
000000d0: b501 a83c 17a2 213c 7a40 fc3c 6ce9 913c
000000e0: dbf9 083a 3975 25bd e0dd cebc 1355 57bc
000000f0: 9357 0dbd ec7e 553d ea5c 4abc bc01 b8bc
00000100: 0381 f8bd e831 63bb ea33 4bbd 9ce4 8cba
00000110: fdb8 9dbd 9e3b a9bc 69eb bbbc dbdc 9e3b
00000120: 6284 bd3c 8be5 49bc ec7a b2bb b68a ecbb
00000130: 6515 4d3c 1a6e 723c 6f6a 563d f5be a53a
00000140: be82 d7bb dbb1 b23c 5502 a53c 8784 363d
00000150: 6b1f 2d3c 0b72 bebc 96dc c639 cc89 d13c
00000160: c968 8fbb 8417 113d 2e37 043d 2d5d 9d3d
00000170: 2a97 ad3d db93 8b3a 8e35 93bc 7f70 80bd
00000180: 448d 5bbc 7a1c ab3c c57f babb 6dde 413d
00000190: 37d3 c8bc be8f c73c 6d38 3e3c 3374 8e3c
000001a0: 8c62 383c f78d 1d3d f028 d7bc c7c1 15bc
000001b0: 2f60 8e3c 320d 7d3c 00bc dd3c 8ef8 b13c
000001c0: 1f7f 923c dc15 c6bc 1381 3a3d f2d2 543d
000001d0: a797 873c 28d3 b0bc ab3c 153d 4f8c d43c
000001e0: c0fe 1ebd 382e ac3c 9fb6 08bd e4e2 45bd
000001f0: 0fd3 aebc 3856 30bc cba7 81bd 00df 4ebd
00000200: 84b7 91bd e0a7 52bd 6fa6 b1bc 123d 213d
00000210: f9f1 ec3c 653c 20bd 654a 863d ba21 033d
00000220: 960d 69bd a4e5 eabc 7b56 bbbb 9721 a73c
00000230: 4b6d 18bd 0ca0 9e3c 88f1 babc fece f1bc
00000240: 0387 cbbc fa4e 20bc 07af 6bbc 1e56 7c3d
00000250: fb4e 98bc 6f3b 07bc 9f2e e93c ec0d d1bc
00000260: 28b7 38bc 68b3 96bb cfd2 f6bb 48e0 8ebc
00000270: 1510 9f3c 4961 a3bc 9496 0e3c feb8 cd3b
00000280: 10b6 2cbd 0201 1c3c 480e 973d 5551 a4bb
00000290: 388d 7a3b 25cc a5bd c1fd 6a3d c679 33bb
000002a0: 6431 3f3d 1d00 88bd db90 013d 92ef ee3c
000002b0: 3631 e2bc fca2 03bd 64f5 d33c f0a9 493c
000002c0: a4f7 0bbd 4535 e4ba 2a38 11bd fc15 e63c
000002d0: 76ee b23a db3f 783c e804 593d f7cc da3b
000002e0: 4915 88bd 5b47 96bc 8436 dbbc 5220 2bbc
000002f0: 8ad6 283b 26ad 2abd b163 79bd 0e1f 613d
00000300: f44b 3cbd 3795 81bd 5743 283c b89f 2f3d
00000310: 3722 4fbd f92e b03d c99f e73b 4c0e 0dbd
00000320: 0d1a 81bd b39a 593d b440 c23d ff9f b53c
00000330: a7e1 0bbd 1f9e 0c3d ce2f 313d f37a 33bd
00000340: 5398 dabc cac4 a9bd a6d3 2c3d c838 213a
00000350: b36a 7b3d 89d8 39bd b222 15bd 24f8 c1bc
00000360: a574 12bc daec e3bb 5416 223c 4cde fb3b
00000370: 4248 b23c 325e 9fbc 5e93 3cbc bb85 b0bc
00000380: 8a4e 1c3c f397 46bb c77e 9e3c 897b 69bc
00000390: 96c6 e5bb ab0b ea3c 3aab 1d3d f6d3 e73c
000003a0: 1294 893b 783b 163d cc6c 783c ecab 463c
000003b0: d50b 213b e0be 82bc 3554 1dbc 8ea3 42bc
000003c0: dc81 5e3c 9568 243c 827c 70bd 9ece 5c3c
000003d0: 8fc2 09bd 7bbf 02bd 0d8f 38bd 32bd 26bd
000003e0: bab0 61bc 2b9a 19bd f9fe 28bd ffdf a93c
000003f0: aa95 99bb 544b 32bd ae81 893b 1624 253d
-0.038224846 -0.015198704 0.0249104 0.00026382704 0.009986518 -0.027141677 0.0024930057 -0.0059516337
0.011900396 0.032847743 -0.052339822 -0.03278088 -0.008200938 -0.0034779178 0.017325824 0.012168304
-0.004456878 -0.019956738 0.04844008 0.052576177 0.032845676 0.07010996 -0.015677942 0.095613465
-0.05782194 0.025911914 -0.055955585 0.008190131 -0.01991573 0.06465833 0.0063956785 0.023565326
0.025815751 0.017207785 0.042990457 0.028517874 -0.071145765 -0.020055017 0.04424992 -0.020311758
-0.0299788 0.020890348 0.020277852 -0.050069362 0.011046881 -0.026522657 0.0016442719 0.01026513
0.0218352 0.034221422 0.01318304 -0.008144714 0.020508626 0.009865305 0.030792464 0.0178115
0.00052252196 -0.040394995 -0.025252283 -0.013142842 -0.034507345 0.052122995 -0.012351254 -0.022461765
-0.12133982 -0.0034667198 -0.049610056 -0.0010749283 -0.07701299 -0.02065831 -0.0229394 0.0048481054
0.023134414 -0.012322794 -0.0054467823 -0.007218684 0.012517308 0.014796758 0.052347597 0.0012645411
-0.006576865 0.021813324 0.020142714 0.04455998 0.010566573 -0.02324774 0.00037929852 0.025578402
-0.004376505 0.035422817 0.032279186 0.076837875 0.08476098 0.0010648923 -0.017969873 -0.06271457
-0.01340038 0.020887602 -0.005691501 0.047331262 -0.024514778 0.024360534 0.011610133 0.017389392
0.011253964 0.038465466 -0.026264638 -0.009140438 0.017379848 0.015445041 0.027067184 0.021724965
0.017882882 -0.024180345 0.04553325 0.051958986 0.016551806 -0.021585062 0.03643481 0.02594581
-0.038817167 0.021018133 -0.033377286 -0.048312083 -0.021340875 -0.010762744 -0.06330832 -0.050505638
-0.07115081 -0.05142963 -0.021685807 0.03936488 0.028923975 -0.039120097 0.065571584 0.032014586
-0.056897722 -0.028673954 -0.0057170964 0.02040176 -0.037213605 0.019363426 -0.02282025 -0.029517647
-0.024844652 -0.0097844545 -0.0143849915 0.061605565 -0.018592348 -0.008253916 0.028464613 -0.025519334
-0.011274137 -0.0045990236 -0.0075324546 -0.01744093 0.019416848 -0.01994385 0.008702893 0.0062781563
-0.042165816 0.009521725 0.07375771 -0.0050145783 0.0038231146 -0.08095578 0.057370905 -0.0027385815
0.046677962 -0.066406466 0.031632286 0.02916697 -0.027611356 -0.032137856 0.025873847 0.012308583
-0.034171715 -0.0017410895 -0.035453953 0.028086655 0.0013651389 0.015151943 0.052983195 0.0066772657
-0.06644685 -0.018344572 -0.026759394 -0.0104447175 0.002576264 -0.041669033 -0.06088609 0.054961257
-0.045970872 -0.063272886 0.010269961 0.04287693 -0.05056974 0.08602709 0.0070686084 -0.034437463
-0.06303797 0.05312605 0.094849974 0.022171019 -0.034150746 0.034330484 0.04325848 -0.043818425
-0.026683962 -0.08289488 0.04219403 0.00061501237 0.061381053 -0.04537252 -0.03641004 -0.023677893
-0.008938943 -0.006955725 0.009893019 0.007686412 0.02176297 -0.019454096 -0.011509744 -0.021548143
0.00954021 -0.003030297 0.019347562 -0.0142506445 -0.0070121987 0.028570017 0.038493372 0.028299313
0.0041985596 0.036677808 0.015162658 0.01212595 0.0024573703 -0.015960157 -0.009602596 -0.011879815
0.013580766 0.0100347 -0.05871249 0.013476996 -0.03363281 -0.03192089 -0.0450583 -0.040707774
-0.013775045 -0.03750054 -0.041258786 0.020736692 -0.004687031 -0.04352887 0.004196367 0.040317617

st_gcn_networks.0.tcn.2.bias f4 [8]
00000000: c3c0 d3b6 f12c 87b8 4dbb a036 0a6d d2b7
00000010: 64de 8fb6 16b0 e336 0b34 8433 6ff7 35b8
-6.3107304e-06 -6.4456726e-05 4.7901763e-06 -2.5084726e-05 -4.287622e-06 6.7856263e-06 6.1561956e-08 -4.3384203e-05

st_gcn_networks.0.tcn.3.weight f4 [8]
00000000: 8527 aa3e a025 963e c439 853e e227 693e
00000010: 95aa 443e be98 9f3e ee5a ad3e 28b5 963e
0.33233276 0.2932558 0.26020634 0.2276912 0.19205697 0.3117122 0.33858436 0.29435086

st_gcn_networks.0.tcn.3.bias f4 [8]
00000000: 10b8 0cbd 33c9 b43b ceec 643d 0534 533c
00000010: 85d2 1dbc 691c 2c3d e4b8 f33c e107 c5bc
-0.034355223 0.005517149 0.055889897 0.01289082 -0.009632711 0.04201928 0.029751249 -0.024051609

st_gcn_networks.0.tcn.3.running_mean f4 [8]
00000000: 7203 4f3c aa20 703c c692 86bc eda2 02bd
00000010: 4812 033d 8b5e 1b3d e3a6 f4bb f619 893c
0.012635099 0.014656225 -0.016427409 -0.03189366 0.031999856 0.03793196 -0.0074661835 0.016736012

st_gcn_networks.0.tcn.3.running_var f4 [8]
00000000: 6a18 c03b 21f5 433b 34e5 e33a 8dbf 543a
00000010: 7d38 af3a 2090 713b 6d1f a43b fedf 4f3b
0.0058622854 0.0029900747 0.0017387033 0.00081157015 0.0013368275 0.0036859587 0.005008629 0.0031719203

st_gcn_networks.1.gcn.conv.weight f4 [24, 8, 1, 1]
00000000: 4c10 b4bc 84f1 15bd 74a9 6a3d 230c 5e3d
00000010: 5489 89bc bf3b ac3c 4719 b73b fbcd 2f3d
00000020: be8c e6bb 7187 87bc ec74 b23d 8725 1ebd
00000030: 0991 0a3d 8193 cfbc 4851 833d 2967 c13c
00000040: d213 933d 96f7 89bd d004 dfbc dce7 aa3d
00000050: 3fba 813d c19a 873d b9a1 0abd d6f5 9ebc
00000060: c43e 053c 1c6e dabc caf5 ffbc 969d 02bd
00000070: a154 88bd 3c2d cfbd e755 3a3d 2bb6 bcbd
00000080: f4a2 ebbc ac32 e63b 4f7a 843d 2265 48bd
00000090: 9376 463c 42ab da3c a32a 2b3d 77ed 5bbc
000000a0: bdf8 363c 74f1 b5bd 3589 0c3d ea3e 7abd
000000b0: 7491 80bc e3a3 9e3b a184 aebd 276c 403c
000000c0: dfe8 afbc f0d5 2bbc 78a7 553d 2959 fe3b
000000d0: 58b3 a73c 1578 be3c c3ca 36bd a703 dfbc
000000e0: 845e 00bd 68f7 0dbb 5b31 0fbd 47c9 fabc
000000f0: b304 46bc 5884 673d 41c6 783b 1453 a23d
00000100: faf5 9dbc f8cf 933d 58b0 733c 13ce 1dbd
00000110: ff4a 88bd bc47 4c3c 4562 9d3d 380d ca3d
00000120: 34fe 6dbd a7cb 5abc c8a0 77bd d17e 82bc
00000130: 83a1 cfbb ef30 01bd e07c 683d 7afa 6e3b
00000140: 898e 503c 8326 81bb c8f3 613d 937e 51bd
00000150: fa87 45bd 69ce c5bd 7edc c33d e710 58bd
00000160: c198 a3bc 3fef f63d 3e2c 8d3d 7634 d43c
00000170: 9ee2 54bd e4e9 8c3d 00ed e7bc 4739 cebd
00000180: d16f 18bd e080 92bc b704 9e3d eb9c 2f3d
00000190: 1f41 f33a 6e4d c23c 2982 e1bc ae3e 233d
000001a0: ebc7 aa3d 800b 3dbd 92ac debb 29c5 91bd
000001b0: 5a5d ec3c ca56 a3bd 6d32 a73d 245a 543d
000001c0: a4b4 77bd 79a4 e7bd e174 2b3d e983 093d
000001d0: dac8 9bbd ac94 4fbd 9931 f23c ad41 953d
000001e0: aa99 f83c abd8 e23b 182d 69bc d0ab e8ba
000001f0: 9791 77bb 90f7 d73c 8a7f 1b3d c336 c7bb
00000200: 937d 89bc 37e7 44bc f9ac 343d 3212 a43d
00000210: 1ae9 acbc f44b 213d 4ad4 2cbd 2897 9bba
00000220: 7778 8d3d c87e 1a3c 94ba 0e3d a3ff 93bc
00000230: a1e9 2a3c 1256 383d e32b c73d af7f aa3b
00000240: 3d52 83bb 1cba 8c3c 4dfe fabc 35d3 86bd
00000250: 074d c53a 5e76 54bd c99b 6b3d f3b9 513c
00000260: cf26 8f3d e268 1cbd 7ea2 d6bc 07f8 7fbd
00000270: de47 9cbb 8a41 c1bc adc8 193e 245a eabb
00000280: dc75 6fba 9bd6 0f3c 66c5 8fb9 80ef 8fbd
00000290: d29e 043d db91 98bc 5efd 2c3c 1234 a239
000002a0: 2ad3 48bc 6554 2abd 0599 94bc 7cad cc3c
000002b0: 9486 92bd bbaa 95bd 44b3 3bbd 9d46 5dbc
000002c0: 2c18 923d 1a5c 133d 2df2 043d 325c c4bd
000002d0: b79a 643d 7bde 073d 41ef 82bc 072b 15bd
000002e0: 292e f83b 068e 88bb c3d1 cc3c 9d35 a13a
000002f0: c4cc 2c3c 8234 01bd e560 c23a 8ecc 823d
-0.021980427 -0.03660728 0.05729051 0.054210793 -0.016789116 0.021024583 0.00558773 0.042921048
-0.0070358207 -0.016544076 0.08713707 -0.038610008 0.033829723 -0.02533889 0.064119875 0.02360876
0.07181515 -0.067366764 -0.027223974 0.08345005 0.06334352 0.06621314 -0.033845637 -0.019404333
0.00813264 -0.026663832 -0.031245131 -0.031888567 -0.06656767 -0.1011605 0.04549208 -0.09214433
-0.028764226 0.0070250835 0.06468641 -0.048924573 0.012113231 0.02669299 0.04178871 -0.013423315
0.011167702 -0.08883944 0.03431054 -0.061095156 -0.015694357 0.004841314 -0.08521391 0.0117445355
-0.021473346 -0.010488018 0.052161664 0.0077620936 0.02047126 0.023250619 -0.044626962 -0.027223421
-0.031340137 -0.0021662358 -0.03495918 -0.030613555 -0.012086081 0.056522697 0.0037959965 0.07926002
-0.01928233 0.07217401 0.014873587 -0.038526606 -0.06654929 0.012468275 0.07684759 0.098658025
-0.058103755 -0.013354219 -0.060456067 -0.015929611 -0.0063363924 -0.031540807 0.056759715 0.0036465214
0.0127292955 -0.0039413585 0.05516413 -0.0511461 -0.04822538 -0.0965851 0.0956354 -0.052750494
-0.0199703 0.12057351 0.06893204 0.025903922 -0.05197393 0.068805486 -0.028311253 -0.100695185
-0.03721601 -0.017883718 0.07715743 0.042874258 0.0018558836 0.023718562 -0.027527886 0.039854698
0.083389126 -0.046153545 -0.0067954743 -0.071176834 0.028853107 -0.07975538 0.08163915 0.051843777
-0.060475007 -0.113106675 0.04185951 0.033573065 -0.07606669 -0.050678894 0.029564666 0.07287917
0.03034671 0.0069228015 -0.014231943 -0.00177514 -0.0037775987 0.026363164 0.037963428 -0.006079526
-0.016783511 -0.012018017 0.044110272 0.08011283 -0.021107245 0.039379075 -0.042194642 -0.001187061
0.069077425 0.009429641 0.034845904 -0.018066233 0.010431678 0.045003958 0.097251676 0.0052032094
-0.0040076063 0.017178588 -0.030638838 -0.06583253 0.0015052863 -0.051870696 0.057521615 0.012800681
0.06989824 -0.03818596 -0.02620053 -0.062492397 -0.0047693094 -0.023590822 0.15017958 -0.007151859
-0.0009134689 0.008779193 -0.0002742216 -0.07028103 0.032378025 -0.018624237 0.010558454 0.00030937843
-0.012257377 -0.04158439 -0.018139372 0.024985068 -0.07154575 -0.07307955 -0.045825258 -0.013505605
0.07133517 0.035976507 0.03245752 -0.09587897 0.05581161 0.03317116 -0.015983226 -0.036417987
0.007573862 -0.004167321 0.025002366 0.0012299303 0.010546867 -0.031544216 0.0014829902 0.06386672

st_gcn_networks.1.gcn.conv.bias f4 [24]
00000000: 448d 0d3b 29d5 4c3c 5901 8fbc 3ea9 153d
00000010: f460 863b e932 6fbb 38f0 3f3b 7ab0 5b39
00000020: 987f 90bd 0a0c 25bc d06c 963c 2c3b 7a3b
00000030: 342d 6fbd 14f1 463c 1f17 583d d227 12bc
00000040: 5afe 0dbc 0bcd 24bd 9421 013c 7d53 9f3c
00000050: 6e08 413c f781 57bc 8257 c53c 82e5 21bc
0.0021599093 0.012501993 -0.017456697 0.036538355 0.004100913 -0.003649885 0.0029287469 0.0002095121
-0.070555866 -0.010073671 0.018362433 0.0038182242 -0.05839272 0.012142438 0.052756425 -0.008920627
-0.008666599 -0.040234607 0.007881541 0.01944899 0.011781795 -0.013153545 0.024089579 -0.009881379

st_gcn_networks.1.tcn.0.weight f4 [8]
00000000: 3485 593e eebf 403e ad33 873e 9130 923e
00000010: 5f40 1d3e 4a3b 6b3e e606 823e 6fa3 4a3e
0.21242219 0.18823215 0.26406613 0.28552678 0.15356587 0.22971836 0.25395888 0.19788907

st_gcn_networks.1.tcn.0.bias f4 [8]
00000000: 2647 f1bc 4911 203c 5a46 c63c 4402 cf3b
00000010: 5957 9fbc 819e bebb 01d6 13bd d5b3 ddbc
-0.029452872 0.009769746 0.024203468 0.0063174088 -0.01945083 -0.005817235 -0.036092762 -0.02706329

st_gcn_networks.1.tcn.0.running_mean f4 [8]
00000000: d6eb 88ba 2824 bcb9 2ddb 4a39 ed4a d73a
00000010: e4b8 12bb bc8f 41ba fd99 1b3b bd08 8839
-0.0010446261 -0.00035885093 0.0001934587 0.0016425528 -0.0022388035 -0.0007383784 0.0023742907 0.00025946452

st_gcn_networks.1.tcn.0.running_var f4 [8]
00000000: 56bc 9436 ee62 8036 4aa6 4b37 14f8 1d37
00000010: 3410 e136 cad4 bc36 1435 5337 1031 bd36
4.432669e-06 3.826214e-06 1.213846e-05 9.415689e-06 6.707409e-06 5.6276085e-06 1.2588938e-05 5.6383506e-06

st_gcn_networks.1.tcn.2.weight f4 [8, 8, 9, 1]
00000000: 6c04 8ebc 4a15 bb3a bc5f 983c c355 69bc
00000010: 37a3 69bc bc1a 2bbd 0fcc 89bb 0740 933b
00000020: d8e8 2f3d 340c 65bd f37a 2a3c 1584 3a3d
00000030: 972e 983b e9ae 45bd af34 07bd 2977 c53c
00000040: 9939 cb3c aa85 91bc 617b d73b 3ddd 98bc
00000050: bd38 6c3d ae71 30bc dabc 483c fe8e bdbb
00000060: 2d75 333d 5e31 17bd 0220 5ebd 8a3b 223c
00000070: cd9a 6a3c 9fe8 e83c 3ebb 04ba 34cb e23c
00000080: c2eb 493d ced7 34bd 767b 44bd ea4b 26bd
00000090: a7bf 3bbb 3710 93bc 3fb8 4bbc 12fb 78ba
000000a0: 75d9 f43b 8103 323d 9a10 8a3c 0826 673c
000000b0: 81d6 ff3c 68fc dbba c8e4 2abd 9f53 e73c
000000c0: 99f8 a53c 2287 bebc 0278 efbb 8090 1cbc
000000d0: aef3 0dbc 436a 85bc f11e 3bbc 53ec 103c
000000e0: 989b 2b3c 470c 9fbc e9b9 fc3c 486a d63c
000000f0: 5d97 cb3c f343 8d3b c706 2d3c 9595 7f3c
00000100: 9cf5 10bc bb34 5bbd b65c 48bd d2ff 103d
00000110: 6a6a e1bc 59ac 59bc 0432 343c 826b a5bb
00000120: 37e4 60b9 23c4 07bd 5e51 703b a6f5 12ba
00000130: f7f9 27bc dd1c 24bd f7fe 7c3c 2bf8 9e3c
00000140: 8193 25bd a0f4 58bd 4174 29bc 6f70 60bc
00000150: a7cd a3bd c978 c83c 718a f73b e100 323d
00000160: 4881 413c e64a 343d 9e45 02bd f6ff 42bc
00000170: d334 823c 99b3 96bc 4d2b e93c 5a45 0f3d
00000180: 0ee9 1e3b 59c5 4e3d b173 b93c 2755 883c
00000190: 106e 683d ffc5 1f3a 0b91 e93c 71ef 64bb
000001a0: ce14 093d 38b9 413c 2272 36bc 5029 013d
000001b0: 4068 c8bc 2843 b13c ac49 97bc a9e2 b1bc
000001c0: 2a53 e2b9 4929 193b 50c4 b23c 6977 eabc
000001d0: d65c 9d3c 0887 9c3c c95f f03a 6b6e 16bc
000001e0: 3d83 49bc ec06 2bbc 2548 073c 1560 be3b
000001f0: 18a5 e43b 2e28 843d e1a6 9dbc 2db6 c33b
00000200: d416 483d b6d9 1cbd 0852 f43c 876d 99bc
00000210: 9bac cf3c 17e5 6dbc ed78 ff3c 638c 71bc
00000220: ad1e 22bd f523 c9bc 91a3 a6bc f358 e7bc
00000230: 80e9 8f3c 206b 7bba 28a5 8cbb 1894 0a3c
00000240: ae2d 78ba 73e0 76bd 6bfd d5bc 4f1a 833b
00000250: 5a73 4fba f252 6a3b 8921 a43b 7c9b 20bd
00000260: 687a 56bd 1ed7 2c3d 3052 ffbc 72a7 03bd
00000270: 5f91 38bc 6648 ed3a d428 c4bb 5a80 b7bc
00000280: 2da0 b03b 45ea 953a 37a2 243d 86b6 2cbd
00000290: 465b 783c a5fa 3d3d b2d7 85bd abcc ea3c
000002a0: 5425 1d3d f7fc df3c 8996 193c 95dd babc
000002b0: 4488 383d 62cc 20bd 46f6 2a3c a357 3dbc
000002c0: 2a79 ffbc 9e81 2ebd f8d9 ad3c e5d2 b2bc
000002d0: 8bec 04bb b832 823c bf67 dbbb 7773 683d
000002e0: c44f 8bbc 5018 d1bc 9c95 d13c 0227 d0bc
000002f0: 53e1 0ebd d9b3 18bb d867 69bc c041 3c3d
00000300: f2b2 fabb 93c1 303c cb2b f4bc b1c5 52b9
00000310: f935 b1bd 1c11 5dbd ce6d 3cbc 9a00 56bb
00000320: 5f8e ba3c 8d00 763d 950b 1ebc d25f 22bc
00000330: d41b 2f3c 9371 623c f9f1 623d 0db1 fc3b
00000340: caf5 e93c 28a0 e43c d0df 46bc e3a1 913c
00000350: 01c2 83bc 4aff 413c f5c8 72bb 90a9 82bc
00000360: a236 edbb e4d3 8ebc 2c72 5a3d 8613 bfbc
00000370: 3c31 19bd feeb bebb eb80 0ebd 130f 85bd
00000380: 6243 f23c 4940 343d fe65 5c3c 2cfc d13b
00000390: 83f1 373c 8e0e 073d 0366 7bba 4ca6 1fbd
000003a0: 0ed6 20bd 1295 033c 0033 163c e2c4 213b
000003b0: b9f9 f93c df46 fcbc e9eb 9f3c bb2f 62bb
000003c0: 06ce 413c 2a61 6dbb 968d 4e3d 8597 acbb
000003d0: 9db0 35bb f3c9 69bc fc37 fd3c d60d b6bb
000003e0: 7aa9 f5bc 162c a1bb 7369 c23c 008e 72bd
000003f0: 3421 8c3c eb52 b1bb a5c7 dbbc dce6 2dbd
-0.017336093 0.0014273312 0.018600337 -0.014241639 -0.014260105 -0.041773543 -0.004205234 0.0044937166
0.042946666 -0.05591984 0.01040529 0.04553612 0.004644226 -0.04826251 -0.033009227 0.024104672
0.024807738 -0.017763931 0.006575987 -0.018660182 0.057671297 -0.010769291 0.012252057 -0.0057848683
0.04381292 -0.036912315 -0.054229744 0.0099018905 0.014319134 0.028431235 -0.00050633017 0.027684785
0.0492971 -0.04415112 -0.047969304 -0.04059974 -0.002864817 -0.017952068 -0.012434064 -0.00094978616
0.007472212 0.043460373 0.01685362 0.014108188 0.031230213 -0.0016783597 -0.04172209 0.028238116
0.020260142 -0.023257796 -0.007308007 -0.009555936 -0.008664055 -0.016286021 -0.011420951 0.008845407
0.010474108 -0.019415034 0.030850368 0.026173726 0.02485245 0.0043110787 0.010560698 0.015599628
-0.00884762 -0.053517085 -0.04891654 0.03540022 -0.027516562 -0.01328572 0.010998253 -0.0050482163
-0.00021447321 -0.033146035 0.0036669592 -0.00056060625 -0.010252467 -0.04006659 0.015441648 0.019405445
-0.040423874 -0.052967668 -0.0103426585 -0.013698681 -0.079982094 0.024471657 0.0075543453 0.04345787
0.011810608 0.04401674 -0.031804673 -0.011901846 0.01589433 -0.018396186 0.02846303 0.03497825
0.0024247798 0.050481174 0.022638174 0.016642166 0.05674559 0.00060948724 0.028511545 -0.0034932757
0.033467107 0.011823945 -0.01113561 0.03153354 -0.024463773 0.021638468 -0.018467747 -0.021714525
-0.0004316804 0.0023370555 0.021822125 -0.028621392 0.019209307 0.019107357 0.0018339093 -0.009181599
-0.012299356 -0.010438662 0.008256947 0.0058097937 0.0069776885 0.06452976 -0.019244613 0.005972645
0.048849896 -0.038293563 0.029824272 -0.018728985 0.02535086 -0.014519951 0.031185592 -0.014742943
-0.039580036 -0.024553278 -0.020341666 -0.028240656 0.017567396 -0.0009590853 -0.004292149 0.00845816
-0.0009467256 -0.060272645 -0.026121816 0.004000939 -0.0007913612 0.0035755006 0.0050088805 -0.03921078
-0.05236283 0.04219734 -0.03116712 -0.03214211 -0.011265128 0.0018103241 -0.0059863124 -0.02240007
0.005390188 0.0011437616 0.040193763 -0.042166255 0.01515848 0.04638161 -0.06535281 0.028662046
0.038365677 0.027342303 0.009374269 -0.022810737 0.045051828 -0.039257415 0.010434693 -0.011556539
-0.031185705 -0.04260408 0.0212221 -0.021829078 -0.0020282592 0.015893325 -0.006695717 0.05675074
-0.017005809 -0.025524288 0.025584035 -0.025409225 -0.034882855 -0.0023300557 -0.01424595 0.04596114
-0.0076507265 0.010788339 -0.029806038 -0.00020100806 -0.086528726 -0.053971395 -0.011500789 -0.0032654167
0.022772966 0.06005912 -0.009646316 -0.009910541 0.010687787 0.0138210235 0.055406544 0.007711536
0.028559584 0.0279084 -0.012138322 0.017777389 -0.01608372 0.011840651 -0.003704605 -0.015949994
-0.0072391788 -0.017435022 0.05333154 -0.02332474 -0.03740047 -0.0058264723 -0.034790915 -0.06497016
0.029573146 0.04400662 0.013452051 0.006408235 0.0112270145 0.032972865 -0.0009590091 -0.038976952
-0.03926664 0.008031147 0.009167433 0.0024684002 0.030514585 -0.030795513 0.01952167 -0.0034513313
0.011828905 -0.0036221244 0.050427996 -0.005267086 -0.0027723678 -0.01426934 0.030910484 -0.0055558486
-0.02998804 -0.0049185855 0.023731923 -0.059217453 0.017105676 -0.005411496 -0.026828596 -0.042456493

st_gcn_networks.1.tcn.2.bias f4 [8]
00000000: e57a d6b7 276c c838 ce0b ae37 6dce 1238
00000010: 01b9 e136 eaf7 ed38 e30e 4ab8 6f59 9cb7
-2.5568015e-05 9.556888e-05 2.0747913e-05 3.500136e-05 6.72706e-06 0.00011347218 -4.8174417e-05 -1.8638295e-05

st_gcn_networks.1.tcn.3.weight f4 [8]
00000000: f382 4d3e 7b41 7d3e 97b0 8c3e 694b 813e
00000010: 7a27 4d3e 4700 8a3e 75bb 863e b882 383e
0.20069484 0.2473201 0.27478477 0.25252846 0.2003459 0.26953337 0.26314893 0.18018615

st_gcn_networks.1.tcn.3.bias f4 [8]
00000000: 7e4d 1b3b 5f2d 37bc 5bce 6bbc 5622 d8bb
00000010: 733e 7cbb c7ce d6bb be03 81bc 8425 963b
0.0023697312 -0.011180251 -0.014392461 -0.00659589 -0.003848937 -0.0065554115 -0.015748855 0.004582109

st_gcn_networks.1.tcn.3.running_mean f4 [8]
00000000: f220 17bb f37d 7c3c 24e2 b1bb 563f c839
00000010: 54fd c8b9 3e07 353c 2dd9 3fbc e51b 5abc
-0.0023060408 0.015410888 -0.0054285694 0.00038194162 -0.00038335717 0.01104909 -0.011709494 -0.013312315

st_gcn_networks.1.tcn.3.running_var f4 [8]
00000000: abb3 9139 1b06 833a 00cf 043a 66de a639
00000010: 382f 8a39 fe0b 6a3a a41b 0d3a 9faa 2d3a
0.00027790418 0.0009996326 0.0005066246 0.00031827687 0.00026356592 0.00089281786 0.0005382842 0.0006624851

st_gcn_networks.1.residual.0.weight f4 [8, 8, 1, 1]
00000000: 1b5b 02bd 594d 7dbd 8db7 dabd 4ae4 81bc
00000010: fd04 3bbd bf67 df3c 48a1 563d 9733 a5ba
00000020: f1d9 99bd eea8 37bd 1b12 02bd 43fa f93a
00000030: df22 b13c ed00 923d b816 b13d b296 b2bd
00000040: c189 00be 68ba 8839 bac9 933d 224c 1f3b
00000050: 1952 dabc 9bc8 593d dd70 19bb ac17 4cbd
00000060: 667f b73d af9e d83c 5a34 41bd a2b1 a63a
00000070: 812d b0bc eadb 263c a824 643d d565 8f3d
00000080: 32bf 74bd d8b8 313d 1547 81bd 32e7 a33c
00000090: cae4 1a3d 1eaa 4abd 8f43 953d 701f 7e3d
000000a0: 08a0 f43d a6d1 da3c e5f7 a73d 42a8 48bc
000000b0: ef5e 74bd 0fe4 07bd 790a a5bc 2969 a7bd
000000c0: f065 af3c 9941 cc3c 03c3 89bd a605 ab3c
000000d0: 5317 c5bc 1b97 e5bc d7d1 a3bd be0c 9f3c
000000e0: 3ab8 dc3b 9b6e 183d bdd1 aa3d 3b31 c93c
000000f0: 96f3 573d a000 973d cd9c 89bd 0aa8 eebc
-0.031825166 -0.061841343 -0.10679541 -0.015855927 -0.045659054 0.02727115 0.052399904 -0.0012603876
-0.07512272 -0.04483884 -0.031755548 0.0019071776 0.021623073 0.07129083 0.086469114 -0.08720149
-0.12552549 0.00026078825 0.07216211 0.0024306853 -0.026650475 0.053169828 -0.002341322 -0.049827263
0.08959846 0.026442854 -0.047169067 0.0012717734 -0.021506073 0.010184268 0.05569902 0.07001845
-0.05975265 0.04338917 -0.06312386 0.020007703 0.037815847 -0.049478643 0.072882764 0.0620417
0.11944586 0.026711296 0.08201579 -0.012247147 -0.05966085 -0.033176478 -0.020146595 -0.081743546
0.021410912 0.024933623 -0.06726649 0.020876717 -0.024058973 -0.028026154 -0.07999008 0.019415256
0.0067358287 0.037214857 0.08340786 0.024559608 0.052722536 0.07373166 -0.067193605 -0.029132862

st_gcn_networks.1.residual.0.bias f4 [8]
00000000: 0746 f3b7 aa65 de38 348f 7937 dea0 6eb7
00000010: 0178 c6b6 5a99 1338 40b2 2eb8 a002 f4b7
-2.9000466e-05 0.00010604721 1.4874899e-05 -1.422336e-05 -5.91483e-06 3.519035e-05 -4.165084e-05 -2.9088289e-05

st_gcn_networks.1.residual.1.weight f4 [8]
00000000: f24b 5f3e 2af3 333e 0467 643e 33a4 643e
00000010: 0173 243e 9129 5f3e 7619 a33e 0c96 0f3e
0.21806315 0.17573228 0.22304922 0.22328262 0.16059496 0.217932 0.31855363 0.14022082

st_gcn_networks.1.residual.1.bias f4 [8]
00000000: 7e4d 1b3b 5f2d 37bc 5bce 6bbc 5622 d8bb
00000010: 733e 7cbb c7ce d6bb be03 81bc 8425 963b
0.0023697312 -0.011180251 -0.014392461 -0.00659589 -0.003848937 -0.0065554115 -0.015748855 0.004582109

st_gcn_networks.1.residual.1.running_mean f4 [8]
00000000: 5ed5 7fbc f713 faba 8bba 40bb a0e7 a43c
00000010: b439 493b 52a3 933b cce0 73bc 0647 973c
-0.015614836 -0.0019079436 -0.0029408063 0.020129979 0.003070456 0.0045055533 -0.014885139 0.018466484

st_gcn_networks.1.residual.1.running_var f4 [8]
00000000: 9d87 113a ab64 4e3a 29cf 273a 781f 813a
00000010: a21e 553a e928 8f3a 795e 2b3a b681 1e3a
0.0005551519 0.0007873277 0.00064014137 0.0009851297 0.000812987 0.0010922226 0.000653721 0.000604655

st_gcn_networks.2.gcn.conv.weight f4 [48, 8, 1, 1]
00000000: f0ac 1a3d f9a6 6dbd a400 5c3c 9e70 45bd
00000010: cefe 533d e4ea 573c 663e 89bd 263d c4bc
00000020: 4389 9dbc d9df 8cbc 596c e43a 133e debc
00000030: 995f 54bc 1ce9 d2b9 7f87 f73c f5b9 d2bc
00000040: 122d e13c 50e7 a4bc 5de0 703c b157 37bd
00000050: 0669 a9bc 5df7 053c 8cba 49bd 529b 2fbc
00000060: 879a cb3c 01e5 0d3a c010 43bb b6e9 61bc
00000070: 0f84 71bb 33a3 58bd d7ec 92bc 6121 2e3b
00000080: 18b9 033d 1ae8 8d3c 2365 01bd 9916 a73c
00000090: 4777 8cbd ebf6 253d 0e24 7cbc 976f c0bc
000000a0: 0a53 943d 1783 1ebc 2663 8abd 4451 dcbc
000000b0: 0a3e af3d 7cc4 8ebc 25e9 d5bd 95cb 9cbc
000000c0: d1fe 2abd d67a b5bd 8667 2dbd af82 6b3b
000000d0: b53c 64bd 35ed 533d 8a7a c5bd 5ea4 eebb
000000e0: 4c02 19bc 9708 97bc 312a 0f3d 18a4 8ebc
000000f0: e47e 3cbc c8c3 9ebc 1da7 073d 0424 11bc
00000100: 2e33 8cbc a775 cebc 477a 12bd 55a4 903c
00000110: c16c 28bd de1f 203d a7c1 c1bc 0dde 42bd
00000120: 1b00 603c 24fc b6bc 8862 563d e520 833c
00000130: 972e 9a3c e727 3fbd 4c82 ae3c 9d5e d63a
00000140: 2b92 6b3c 96b8 05bd 5b3f d13c 1633 953b
00000150: e554 233d 5dff 773d 4493 8a3a fc56 babc
00000160: 3c71 023d 87be 20bd 1405 2cbd c920 0c3d
00000170: 4f35 93bc 43d6 82bc 5849 b13c 25af 67bd
00000180: 672d c83c 8a74 febc c61b 8abb 6981 a13d
00000190: d82f 80bc 3ec9 ab3c 3ec7 d23c a629 b2bb
000001a0: a7ad 303c c73b 84bd 008f 863d 21a0 a8bc
000001b0: a4bc 4cbc bd51 08bb ffec 1abc c6ff b8bb
000001c0: 8d08 0dbd 9154 b13c 0117 3e3d 1c58 34bd
000001d0: 53df 7d3c 2049 303d e4fb f23c d3c8 01bc
000001e0: f4c0 bcbc 3859 0b3d 43e3 abbc ffd9 13bd
000001f0: 76a1 9abd 27c4 babb 21c7 91ba 9aaa 9abc
00000200: b8d7 023d 3aa9 01bd 5b4f bc3c 3ee9 5fbd
00000210: 118d 2e3d 20a1 a13d 0dc1 bc3d 2830 2ebd
00000220: fdbd d23b 39c9 c9bc be6b 11bd e503 1ebd
00000230: 9a04 a4bb 4ceb 483d 030b 0b3d 02c8 913c
00000240: 99e5 9f3c e6b6 5d3b 9a34 6f3d 6834 50bc
00000250: 7966 2b3d 4f2d 1dbc a0fa de3c 2267 41bd
00000260: 5e0a ad3c 467a d53c 4874 0fba 14c1 91bc
00000270: 09d5 4a3d af54 32bd e8c0 48bd ace8 62bd
00000280: 9cef 6fbc af84 d9bc 5739 fd3c e27f b4bc
00000290: 9c55 f2bb 6514 c73c 58b2 353d cdce bc3b
000002a0: ece0 7d3c e973 0c3d 0e20 8fbc 8acb 22bd
000002b0: edae 7c3c e14a cfbd 3332 853c c829 59bc
000002c0: 328b 583d 6d9d 123d 7fd5 84bd 434e 1f3d
000002d0: c53d 803d 32cf 1cbd c9bd c9bb c7ab 55bd
000002e0: d8fc 4fbc e2b9 5ebd 2726 2b3d 10e8 153d
000002f0: e88b 2bbd 6930 333d 471c b7bc c60f 3e3d
00000300: 4749 2b3d 12fb 6f3d f1fc cbbc 99ce e73c
00000310: 8509 5a3d 6681 30bb ed9d 973d 25d7 f8bc
00000320: d504 7dbc 3ce1 9dbc 2620 04bd 48c1 f93c
00000330: dd62 7bbd a481 5b3d 7e7f f03c 56ff efbc
00000340: 3815 b3bc c50e 84bd 2311 67bc 8fa0 473d
00000350: 99aa 123b d16b 85bb ad2d 833b 09cb 593d
00000360: 1a60 603d 3802 ad3d 4ff2 a03c c452 533c
00000370: e66b 39bd 7cdb cdbc e284 cc3d b7da 543d
00000380: 1ff1 ce3d cec5 debc 656d 17bc 8209 5fbd
00000390: 6a8b 29bd 8320 cdbb 33d9 f03c c32f 65bc
000003a0: 98ad 143d 7e56 3d3d b7ff a6bd 3b4f 8a3d
000003b0: 9bc3 f0bb 64da 59bd 7f04 3a3a f231 af3d
000003c0: 1d85 34bd da38 6bbc e4a2 42bd 2e28 d0bc
000003d0: 1944 d93c a169 223c 12c9 0dbc 1a16 793b
000003e0: 2840 29bd 5360 84ba 376b b13c 8690 243d
000003f0: 3197 c13c f3e4 743c 7a2a 723d d3c1 a6bb
0.037762582 -0.058020566 0.013427887 -0.048203103 0.051756673 0.013178561 -0.06701355 -0.02395494
-0.01923049 -0.017196583 0.001742731 -0.027129209 -0.012962245 -0.00040228 0.030215977 -0.025723437
0.027487312 -0.02012983 0.01470193 -0.044761363 -0.020679962 0.008176652 -0.04925017 -0.010718184
0.024853958 0.00054128474 -0.0029764622 -0.013788631 -0.0036852395 -0.052890014 -0.0179352 0.0026570188
0.03215894 0.017322589 -0.031590592 0.020396518 -0.06858688 0.040518682 -0.0153894555 -0.02349071
0.07242401 -0.009674809 -0.06757192 -0.02689422 0.08556755 -0.017427675 -0.104448594 -0.019140044
-0.041746918 -0.0886132 -0.042335056 0.0035936048 -0.055721957 0.05173989 -0.09642513 -0.0072827777
-0.0093389265 -0.018436713 0.034952346 -0.01741223 -0.011504862 -0.019380465 0.033118356 -0.008858684
-0.017114248 -0.025202585 -0.035761144 0.017656485 -0.04111934 0.03909289 -0.023651911 -0.047575045
0.0136719 -0.022337027 0.05234006 0.016006896 0.018821044 -0.046668913 0.021302365 0.0016355101
0.014378111 -0.032646738 0.025542906 0.004553209 0.039875884 0.060546268 0.0010572453 -0.022746556
0.03184627 -0.0392442 -0.04199703 0.034210954 -0.017969755 -0.015971309 0.021641418 -0.056563515
0.024435712 -0.03106143 -0.0042147366 0.07886011 -0.015647814 0.020969983 0.025729772 -0.005437094
0.010783589 -0.06456714 0.06570244 -0.020584168 -0.012496147 -0.0020800673 -0.009455918 -0.005645725
-0.034431983 0.02164677 0.046408657 -0.04402934 0.015495139 0.043038487 0.029661126 -0.007921415
-0.023041226 0.034020633 -0.02098239 -0.03609657 -0.075503275 -0.0056996527 -0.0011121967 -0.018880177
0.031944007 -0.031655528 0.022987058 -0.054665796 0.042615 0.0789206 0.09216509 -0.042526394
0.00643134 -0.024632083 -0.03550314 -0.038577933 -0.0050054314 0.04905252 0.03394605 0.017795566
0.01951866 0.003383094 0.058399774 -0.012707807 0.041845772 -0.009593322 0.027219117 -0.047217496
0.021123108 0.026059281 -0.00054723443 -0.017792262 0.049519572 -0.04353779 -0.049012095 -0.055397674
-0.01464453 -0.026552526 0.03091113 -0.022033636 -0.0073954593 0.024301717 0.044359535 0.0057619573
0.01549552 0.034290228 -0.01747134 -0.03974489 0.015422565 -0.10121704 0.016259288 -0.01325459
0.052867122 0.035794664 -0.06486034 0.038892996 0.062617816 -0.038283534 -0.0061566574 -0.052165773
-0.01269456 -0.05437649 0.04178443 0.036598265 -0.041881472 0.04374734 -0.02235235 0.04640176
0.04181793 0.05858905 -0.024900885 0.028296756 0.053231735 -0.0026932596 0.07403169 -0.030376026
-0.015443047 -0.01927244 -0.03225722 0.030487671 -0.06137358 0.05359043 0.029357668 -0.029296558
-0.021860704 -0.064481296 -0.014103207 0.048737105 0.0022379516 -0.0040716906 0.0040032477 0.053172145
0.05477915 0.08447689 0.019646792 0.012898151 -0.045268916 -0.025129072 0.09986283 0.051966395
0.10104584 -0.02719393 -0.00924239 -0.054452427 -0.04139272 -0.006259979 0.029400444 -0.013988438
0.036298364 0.046225064 -0.081542425 0.06753393 -0.0073475367 -0.05318679 0.0007096007 0.08554448
-0.04407226 -0.014356816 -0.047518626 -0.025409784 0.02652173 0.009912879 -0.008653896 0.0038007558
-0.04132095 -0.0010099508 0.02165757 0.04017689 0.023631664 0.014947164 0.05912254 -0.0050890236

st_gcn_networks.2.gcn.conv.bias f4 [48]
00000000: ccf2 2dbc 38b3 233c ac79 1fbc 5eab 5a3a
00000010: 26a3 49b7 676a 40bc 551c e83c 54da 8bbc
00000020: 5d24 15bc ce62 d2bb c160 adbb dfb9 2dbc
00000030: 3b88 d9bc 5c9d 13bc e832 733b 0818 0c3c
00000040: 591d 4cbd be42 fcbb 4375 07bb 3a94 553c
00000050: c4c6 67b9 1785 81bc 56fc 1cbc 9e77 64bc
00000060: 3b1e 3bbd ecfd 0cbc 6691 93bc 592d 15bd
00000070: 217c 793c a008 583b 82e4 3ebc 1281 6abc
00000080: de1c 373c ffdd a43c d489 1dbc a41f a83b
00000090: 2aa2 2abd c650 353c eb9f 5a3b 8655 11bc
000000a0: a8f8 1b3b 4080 103b 09ed 2cbc b8fa 08bd
000000b0: 6ccb d83c d0ad 6fbc 7876 903c 9137 2e3c
-0.010616969 0.00999146 -0.009733599 0.0008341576 -1.201852e-05 -0.011744118 0.028333822 -0.01707188
-0.009102908 -0.00642047 -0.005291075 -0.010603397 -0.026554218 -0.009009685 0.00371092 0.008550651
-0.049832676 -0.007698386 -0.0020669259 0.013035828 -0.00022103923 -0.015810532 -0.009581646 -0.013944535
-0.045683127 -0.008605462 -0.018013667 -0.0364202 0.015227349 0.0032964125 -0.01165116 -0.014312999
0.011176316 0.020125387 -0.00961538 0.005130725 -0.041658558 0.011066621 0.0033359479 -0.008870488
0.0023799334 0.00220491 -0.01055456 -0.03344223 0.026464187 -0.0146288425 0.017634615 0.010633365

st_gcn_networks.2.tcn.0.weight f4 [16]
00000000: e677 4b3e a206 ea3d 8e48 213e 7c47 013e
00000010: bf2e 9b3d 232c 5f3e aeaf 2a3e b0ed 2c3e
00000020: 3697 1f3e 4cb1 133e bccd 083e af03 333e
00000030: 31b9 183e 03d6 193e 911a d73d 0e3d da3d
0.19869956 0.11427046 0.15750334 0.12624925 0.075772755 0.2179418 0.16668579 0.16887546
0.15585026 0.14423102 0.13359731 0.17481874 0.14914395 0.15023045 0.10503114 0.106561765

st_gcn_networks.2.tcn.0.bias f4 [16]
00000000: e0f3 c0bc a2c1 36bc 8f4f 2bbd cffa e9bc
00000010: f19b b2bb b46d eebc f227 05bd bd90 25bd
00000020: 1744 1abd 3cae 14bd 5a29 36bd 48e6 10bd
00000030: 8a93 2abd 5aaa 20bd 6a03 44bc 0f4b 25bd
-0.023553789 -0.011154564 -0.04182392 -0.028561978 -0.0054507186 -0.029105045 -0.032508798 -0.040421236
-0.03766259 -0.036298975 -0.04447303 -0.035375863 -0.04164461 -0.03922496 -0.011963705 -0.040354785

st_gcn_networks.2.tcn.0.running_mean f4 [16]
00000000: 934d b7ba c255 8f39 2e81 04ba 3860 3bba
00000010: b876 94ba 2dce 33bb b523 37ba bd25 d8ba
00000020: dd2e 8bba 3440 fab9 804c 7dba 524c faba
00000030: b58a fd39 6347 70ba e221 b539 c355 583a
-0.0013984911 0.0002733898 -0.00050546497 -0.00071478216 -0.0011326885 -0.0027436123 -0.0006986217 -0.0016490739
-0.0010618825 -0.0004773155 -0.00096625835 -0.0019096232 0.00048359265 -0.0009165911 0.00034548255 0.00082525256

st_gcn_networks.2.tcn.0.running_var f4 [16]
00000000: 5a84 9236 02fc 0e36 22ea 2f36 4aba a536
00000010: 760d 5436 098e 5f37 9380 4e36 5c86 2936
00000020: 10bd 5036 d1e2 4336 e3ab 2c36 e0ba 8936
00000030: d131 1c36 23d5 3736 cac4 e835 4e66 3636
4.366547e-06 2.1306337e-06 2.6213315e-06 4.93907e-06 3.1598297e-06 1.3324906e-05 3.0771232e-06 2.526117e-06
3.1104464e-06 2.9189289e-06 2.5730048e-06 4.1046733e-06 2.3274808e-06 2.7393187e-06 1.734262e-06 2.7179663e-06

st_gcn_networks.2.tcn.2.weight f4 [16, 16, 9, 1]
00000000: 13e0 c2bc 01aa 24bc ffd7 08bc 2d3d a0bc
00000010: 1ac4 2a3a 5906 b83c 3d92 bebc b355 13bd
00000020: 3899 53bd a046 3fbc 70e9 923c 0a76 183d
00000030: 7101 3abd a071 5d3c 2e76 0c3c e929 293c
00000040: 1c00 093b 33a3 053c 2132 68bb 6c2c 223c
00000050: 26b5 013d 570d 133c fa4a 1a3c 982c 19bd
00000060: 7a95 92b9 9599 0d3c b46b 8e38 58a5 2abc
00000070: 17f8 9bbc c92f d53c d817 47bc 3d21 46bc
00000080: 5d76 453b 5be3 bcbc baed 8abc 5059 3c3c
00000090: 08a5 233d 9ade e83c 2ded b93b fda5 2cbc
000000a0: d26f 8839 88f8 a9bc 0717 10bc 280f 47bc
000000b0: 453b 06bd 3fc3 573d 6d26 32bc 0882 473c
000000c0: 36c4 a6bb 82fc 85bb ce3f 863c 715d 0abb
000000d0: cd6f aa3b 260d ce3c b16e b3bb b7ca d13c
000000e0: d130 6c3c adff bf3c 053e 253c efdd 89bb
000000f0: efc9 1abb f620 d83c e894 613c 1823 1c3c
00000100: f77d 9abc cb93 59bc 197f 013c f3d7 123c
00000110: d9fa acbc 10ba 303c 9122 e83b 50d2 84bc
00000120: 3784 17bc 6adc 023d 1faa 0d3d 2a7d 983c
00000130: c44a 4a3b 9f5d 26bc 448a b63c 722a 893c
00000140: 6c1b 6dbc 7a88 e5bc 2d68 fd3c 92ff dbbc
00000150: 4543 c73c 5d83 5cbd 060b b8bc 46cc c13c
00000160: 729d a1bc dd54 d1bc 8443 bbbb a4ac 443c
00000170: 88b7 32bc 1c59 febb a72b 743c 84a5 1cbc
00000180: b2fc b83c 4d2e ca3c 2ec5 05bd c23f b03c
00000190: b610 e3bb 35c1 8c39 d99e 05bd f101 adbc
000001a0: c385 1f3c 3ecc b3bd 7ce8 a5bb 6d07 213d
000001b0: 35ed 82bc 257b 313c e0bd 31bc e75f b5bc
000001c0: fd16 853c 9986 41bd a7e1 bd3b b831 be3b
000001d0: 5486 32bc d008 89ba 27ef 1d3c 9305 31bd
000001e0: 49eb 8f3a a3c6 b23c 9556 a3ba 6889 40bd
000001f0: 220b ca3a 503b 363d a4b4 0bbd 9b77 76bc
00000200: 1c3f 65bc 2d05 d5bb 630a 22bb b5f4 0fbc
00000210: 40bf 193b a3ee a2bc 6e7c 08bc 3d5b 033c
00000220: a295 aebb 3fc9 19bc 9b49 573c 28ff d03c
00000230: 9273 d5bc c2b2 45ba ce72 11bd 63b6 a6bc
00000240: 6b5a dabb c6ee abbc 33ff 1a3c 5e18 063c
00000250: 62e8 793c 85ea fc3c 6ff7 0d3d 8932 7a3a
00000260: badf 533d 039d 10bd 5d76 3739 af68 c03b
00000270: 6278 f0bc fae3 3cbc d17a a33b cfde 4dbd
00000280: 6a2b 5a3c d119 c1bb 8668 0ebb 8d56 9b3c
00000290: 7cb0 89bc f6a1 753c d577 823b 9992 00bd
000002a0: 05e0 0c3b 9a6c 19bd 1131 21bd 072d 13bd
000002b0: 8cf4 babc 07f1 20bd 838f 373d 1e33 dab9
000002c0: baf2 203b fb3d 6dbc 2af7 023c 85e2 29bd
000002d0: 1444 8f3c 872d 72bd 5cfa 59bd cb74 bebc
000002e0: 0e0d cd3b ea66 17bd dcd5 fc3a de2b 9b3c
000002f0: 7c18 8b3c a344 033c 8fce bdbb 6c7d d5bb
00000300: e8e0 90bc 1637 a1bc 1fc8 15bd 12f2 20bd
00000310: 8084 b1bd 2118 3dbd d011 4c3a 3204 193d
00000320: 8290 883b 1d55 023c 62ec ef3c 125d 813c
00000330: 5f91 3a3d f0e6 36bd 45fd 203d 4c65 8b3c
00000340: 6093 7ebc 59f3 93bc 2677 9abc 8f34 e9bc
00000350: 6ab6 bbbc 8bb8 debb d3a4 59bc 8d08 bbbc
00000360: b143 f4bb 1fa9 64bc 5cc2 3bba 1c09 41bc
00000370: 2e9f ab3c d2da 07bd c824 11bd 74ac 9abb
00000380: 9e6f f1bc 3b62 e8bb b896 07bd 8d0f 66bd
00000390: b16b 98bc 15f5 fdbb 6686 cb3c 36e9 3ebc
000003a0: 00c9 49bc 8db8 c4bc a94d b5bc d486 593c
000003b0: 47eb 11bc 94e0 3fbc f513 c23c da46 a9bc
000003c0: d0ca f6bc de4c 5dbd 717b 2bbd 1306 773b
000003d0: 6de3 ef3b ceaf 393c 0341 193d cb21 44bb
000003e0: 6fe0 033c 81fa abba 62ce 5d39 e788 f53c
000003f0: add0 523c e6e7 1a3b 4644 c4bc 39dc b73a
-0.023788488 -0.010050298 -0.008352279 -0.01956042 0.0006514207 0.022463964 -0.023263091 -0.0359704
-0.051659793 -0.011674553 0.017933577 0.037221946 -0.04541153 0.01351586 0.008573098 0.010324934
0.0020904606 0.0081565855 -0.003543027 0.009898286 0.031666897 0.008975348 0.00941729 -0.037396044
-0.0002795866 0.008642574 6.791149e-05 -0.010415398 -0.019039197 0.026023762 -0.012151681 -0.012092886
0.0030130364 -0.02305763 -0.01695906 0.011495903 0.039952308 0.028426457 0.0056740255 -0.010537622
0.00026023254 -0.020748392 -0.008794553 -0.01214961 -0.032771368 0.052676436 -0.010873419 0.012176998
-0.005089308 -0.004088939 0.016387846 -0.0021112824 0.005201316 0.025152754 -0.005475842 0.025609357
0.014415936 0.023437345 0.010085587 -0.0042073647 -0.0023618897 0.026382904 0.013768412 0.009529851
-0.018858893 -0.0132798655 0.007903838 0.008962619 -0.021115707 0.010786548 0.0070841988 -0.016213566
-0.009247831 0.031948484 0.03458607 0.01861437 0.0030867318 -0.010154157 0.022282727 0.016743872
-0.01447187 -0.028019179 0.030933464 -0.026855264 0.024324069 -0.053836215 -0.022466194 0.023656975
-0.019728396 -0.025553161 -0.0057148356 0.012004051 -0.010908015 -0.0077620875 0.014902986 -0.009560946
0.022581432 0.024680281 -0.03265875 0.021514777 -0.0069294823 0.0002684683 -0.032622192 -0.02111909
0.009736481 -0.087791905 -0.0050631147 0.039313722 -0.01598225 0.010832583 -0.010848492 -0.022140456
0.016246313 -0.047247503 0.005794722 0.005804267 -0.010896284 -0.0010454897 0.009639538 -0.043218207
0.0010980155 0.021823233 -0.0012461717 -0.04700604 0.0015414695 0.04449016 -0.03410782 -0.015043165
-0.013992097 -0.006500861 -0.002472543 -0.00878637 0.002345994 -0.019889181 -0.008330448 0.008017358
-0.005327896 -0.00938636 0.0131401075 0.025512293 -0.026056085 -0.00075415906 -0.035509877 -0.02035064
-0.0066636107 -0.02098788 0.009460258 0.0081845205 0.015253158 0.030873546 0.0346598 0.00095442735
0.051727034 -0.035305988 0.00017496334 0.0058718543 -0.029354278 -0.011528963 0.004989006 -0.050261315
0.013316015 -0.00589297 -0.0021729781 0.018962169 -0.016807787 0.014992228 0.0039815702 -0.031389806
0.002149583 -0.037457086 -0.039353434 -0.035931613 -0.022821687 -0.03929236 0.044814598 -0.00041618285
0.0024558739 -0.014480109 0.007993499 -0.04147579 0.017488517 -0.05912545 -0.053217277 -0.02324905
0.0062576598 -0.03696338 0.0019289809 0.018941816 0.016979448 0.00801197 -0.005792446 -0.0065151956
-0.017685369 -0.019679587 -0.036567803 -0.039293356 -0.086678505 -0.04616559 0.00077846367 0.037357517
0.0041676173 0.007954863 0.02928752 0.01579145 0.045548793 -0.044653833 0.039304037 0.017016076
-0.015538067 -0.018060373 -0.018855643 -0.028467445 -0.02291413 -0.0067969016 -0.013283926 -0.022831226
-0.0074543585 -0.013956337 -0.00071624457 -0.011781957 0.020949926 -0.033167668 -0.035435468 -0.004720265
-0.029472169 -0.007091788 -0.03310272 -0.056167174 -0.018606039 -0.0077501633 0.02484436 -0.0116522815
-0.012315989 -0.024013782 -0.022131758 0.013276774 -0.008906192 -0.011711258 0.023691157 -0.020663667
-0.030126005 -0.054028384 -0.04186577 0.003769283 0.0073208124 0.011333419 0.037415516 -0.0029927369
0.008049115 -0.0013120921 0.00021153086 0.029972507 0.012867135 0.0023636757 -0.023958337 0.0014027423

st_gcn_networks.2.tcn.2.bias f4 [16]
00000000: 5ea1 2cb7 e8b7 f436 667a 22b6 bc44 9a28
00000010: 6a03 a3b8 52a1 c4b3 2f5e 9c38 fc38 0db8
00000020: 1e24 47b8 2083 6ab8 757c 4e38 3982 52b7
00000030: 25e0 5bb8 2a4b b2b7 30bf 94b7 2fbb 68ad
-1.028957e-05 7.293176e-06 -2.4211126e-06 1.7127243e-14 -7.7730816e-05 -9.156305e-08 7.456203e-05 -3.367009e-05
-4.7478934e-05 -5.5912067e-05 4.9230137e-05 -1.2547295e-05 -5.242242e-05 -2.1254255e-05 -1.7732003e-05 -1.3229236e-11

st_gcn_networks.2.tcn.3.weight f4 [16]
00000000: 245a 303e fe62 473e 6be8 0c3e a185 2bbb
00000010: ff4b 5a3e a450 1d3e 369c 4c3e 30de 043e
00000020: 82dc ec3d 38e1 1c3e 4d4d 543e 6191 fa3d
00000030: ec99 623e 204a e53d 59b7 073e 75f8 faba
0.17221886 0.19471356 0.13760535 -0.0026172178 0.21318053 0.15362793 0.19981465 0.12975383
0.11565496 0.15320289 0.20732613 0.1223476 0.22129029 0.11195779 0.13253535 -0.0019147532
