weights_arm/172.pt (torch, 70926 bytes, 80 tensors)

A f4 [3, 9, 9]
0.5 0.0 0.0 0.0 0.0 0.0 0.0 0.0
0.0 0.0 0.2 0.0 0.0 0.0 0.0 0.0
0.0 0.0 0.0 0.0 0.33333334 0.0 0.0 0.0
0.0 0.0 0.0 0.0 0.0 0.0 0.33333334 0.0
0.0 0.0 0.0 0.0 0.0 0.0 0.0 0.0
0.5 0.0 0.0 0.0 0.0 0.0 0.0 0.0
0.0 0.0 0.33333334 0.0 0.0 0.0 0.0 0.0
0.0 0.0 0.0 0.0 0.33333334 0.0 0.0 0.0
0.0 0.0 0.0 0.0 0.0 0.0 0.5 0.0
0.0 0.0 0.0 0.0 0.0 0.0 0.0 0.0
0.5 0.0 0.2 0.0 0.0 0.0 0.0 0.0
0.0 0.0 0.0 0.0 0.0 0.0 0.0 0.0
0.0 0.0 0.0 0.0 0.2 0.0 0.0 0.0
0.0 0.0 0.0 0.0 0.0 0.0 0.33333334 0.0
0.5 0.0 0.0 0.0 0.0 0.0 0.0 0.0
0.33333334 0.0 0.0 0.0 0.0 0.0 0.0 0.2
0.0 0.0 0.0 0.0 0.0 0.0 0.0 0.0
0.0 0.0 0.0 0.0 0.33333334 0.0 0.5 0.0
0.0 0.0 0.0 0.0 0.0 0.0 0.33333334 0.0
0.0 0.0 0.2 0.0 0.0 0.0 0.0 0.0
0.0 0.0 0.0 0.0 0.0 0.0 0.0 0.0
0.0 0.0 0.0 0.5 0.0 0.33333334 0.0 0.0
0.33333334 0.0 0.0 0.5 0.0 0.0 0.0 0.33333334
0.0 0.0 0.0 0.0 0.0 0.0 0.0 0.0
0.0 0.0 0.0 0.0 0.0 0.0 0.0 0.0
0.0 0.0 0.0 0.0 0.0 0.0 0.0 0.0
0.0 0.0 0.0 0.0 0.0 0.33333334 0.0 0.0
0.0 0.0 0.0 0.0 0.0 0.0 0.0 0.0
0.0 0.0 0.0 0.0 0.0 0.0 0.0 0.0
0.0 0.0 0.0 0.0 0.0 0.0 0.0 0.0
0.0 0.0 0.0
00000000: 0000 003f 0000 0000 0000 0000 0000 0000
00000010: 0000 0000 0000 0000 0000 0000 0000 0000
00000020: 0000 0000 0000 0000 cdcc 4c3e 0000 0000
00000030: 0000 0000 0000 0000 0000 0000 0000 0000
00000040: 0000 0000 0000 0000 0000 0000 0000 0000
00000050: abaa aa3e 0000 0000 0000 0000 0000 0000
00000060: 0000 0000 0000 0000 0000 0000 0000 0000
00000070: 0000 0000 0000 0000 abaa aa3e 0000 0000
00000080: 0000 0000 0000 0000 0000 0000 0000 0000
00000090: 0000 0000 0000 0000 0000 0000 0000 0000
000000a0: 0000 003f 0000 0000 0000 0000 0000 0000
000000b0: 0000 0000 0000 0000 0000 0000 0000 0000
000000c0: 0000 0000 0000 0000 abaa aa3e 0000 0000
000000d0: 0000 0000 0000 0000 0000 0000 0000 0000
000000e0: 0000 0000 0000 0000 0000 0000 0000 0000
000000f0: abaa aa3e 0000 0000 0000 0000 0000 0000
00000100: 0000 0000 0000 0000 0000 0000 0000 0000
00000110: 0000 0000 0000 0000 0000 003f 0000 0000
00000120: 0000 0000 0000 0000 0000 0000 0000 0000
00000130: 0000 0000 0000 0000 0000 0000 0000 0000
00000140: 0000 003f 0000 0000 cdcc 4c3e 0000 0000
00000150: 0000 0000 0000 0000 0000 0000 0000 0000
00000160: 0000 0000 0000 0000 0000 0000 0000 0000
00000170: 0000 0000 0000 0000 0000 0000 0000 0000
00000180: 0000 0000 0000 0000 0000 0000 0000 0000
00000190: cdcc 4c3e 0000 0000 0000 0000 0000 0000
000001a0: 0000 0000 0000 0000 0000 0000 0000 0000
000001b0: 0000 0000 0000 0000 abaa aa3e 0000 0000
000001c0: 0000 003f 0000 0000 0000 0000 0000 0000
000001d0: 0000 0000 0000 0000 0000 0000 0000 0000
000001e0: abaa aa3e 0000 0000 0000 0000 0000 0000
000001f0: 0000 0000 0000 0000 0000 0000 cdcc 4c3e
00000200: 0000 0000 0000 0000 0000 0000 0000 0000
00000210: 0000 0000 0000 0000 0000 0000 0000 0000
00000220: 0000 0000 0000 0000 0000 0000 0000 0000
00000230: abaa aa3e 0000 0000 0000 003f 0000 0000
00000240: 0000 0000 0000 0000 0000 0000 0000 0000
00000250: 0000 0000 0000 0000 abaa aa3e 0000 0000
00000260: 0000 0000 0000 0000 cdcc 4c3e 0000 0000
00000270: 0000 0000 0000 0000 0000 0000 0000 0000
00000280: 0000 0000 0000 0000 0000 0000 0000 0000
00000290: 0000 0000 0000 0000 0000 0000 0000 0000
000002a0: 0000 0000 0000 0000 0000 0000 0000 003f
000002b0: 0000 0000 abaa aa3e 0000 0000 0000 0000
000002c0: abaa aa3e 0000 0000 0000 0000 0000 003f
000002d0: 0000 0000 0000 0000 0000 0000 abaa aa3e
000002e0: 0000 0000 0000 0000 0000 0000 0000 0000
000002f0: 0000 0000 0000 0000 0000 0000 0000 0000
00000300: 0000 0000 0000 0000 0000 0000 0000 0000
00000310: 0000 0000 0000 0000 0000 0000 0000 0000
00000320: 0000 0000 0000 0000 0000 0000 0000 0000
00000330: 0000 0000 0000 0000 0000 0000 0000 0000
00000340: 0000 0000 0000 0000 0000 0000 0000 0000
00000350: 0000 0000 abaa aa3e 0000 0000 0000 0000
00000360: 0000 0000 0000 0000 0000 0000 0000 0000
00000370: 0000 0000 0000 0000 0000 0000 0000 0000
00000380: 0000 0000 0000 0000 0000 0000 0000 0000
00000390: 0000 0000 0000 0000 0000 0000 0000 0000
000003a0: 0000 0000 0000 0000 0000 0000 0000 0000
000003b0: 0000 0000 0000 0000 0000 0000 0000 0000
000003c0: 0000 0000 0000 0000 0000 0000

data_bn.weight f4 [27]
0.077030286 0.03697293 0.043085333 0.23911655 0.046595417 0.04897631 0.28902063 0.19205682
0.19370013 0.4363647 0.5026933 0.34787244 0.49564862 0.50343096 0.3480479 0.26785326
0.16164255 0.22913696 0.46321848 0.38902283 0.33813033 0.47823808 0.40169412 0.33340898
0.21793757 0.03142321 0.050474457
00000000: 0ec2 9d3d ed70 173d 3f7a 303d f8da 743e
00000010: d6da 3e3d 629b 483d 83fa 933e 8baa 443e
00000020: 5459 463e 326b df3e 82b0 003f 561c b23e
00000030: a8c5 fd3e dae0 003f 5633 b23e 1024 893e
00000040: a085 253e e1a2 6a3e f92a ed3e 002e c73e
00000050: 6b1f ad3e 9fdb f43e daaa cd3e 95b4 aa3e
00000060: 072b 5f3e a0b5 003d 4ebe 4e3d

data_bn.bias f4 [27]
-0.018440763 0.027273836 -0.0185123 -0.015790695 -0.014995632 -0.00070643326 0.047252037 0.012494308
0.011367449 -0.020472929 0.002456246 0.015111275 -0.011892867 0.009326316 -0.0029886786 0.021609178
0.04372058 0.034697477 0.0075567304 -0.018010944 -0.024918923 -0.02335694 -0.027279904 0.0032738915
0.008016711 0.014831726 0.009556432
00000000: 1511 97bc 616d df3c 1ba7 97bc 7d5b 81bc
00000010: 3db0 75bc ef2f 39ba 5a8b 413d edb4 4c3c
00000020: 893e 3a3c d8b6 a7bc f8f8 203b 4895 773c
00000030: 4dda 42bc 68cd 183c b5dd 43bb bb05 b13c
00000040: 5a14 333d f11e 0e3d 739e f73b b08b 93bc
00000050: c522 ccbc 0e57 bfbc 1b7a dfbc c98e 563b
00000060: 8658 033c c500 733c 9592 1c3c

data_bn.running_mean f4 [27]
90.03322 78.064575 24.668203 98.81276 85.00955 26.510498 88.886696 80.34116
25.38822 99.51077 82.60705 25.794086 107.898254 80.74821 23.910067 108.531105
89.68877 27.626286 129.58258 96.64678 29.349493 129.667 91.25982 28.310057
103.677444 96.357925 29.221554
00000000: 0211 b442 1021 9c42 7b58 c541 22a0 c542
00000010: e404 aa42 8015 d441 fdc5 b142 adae a042
00000020: 131b cb41 8405 c742 cf36 a542 4a5a ce41
00000030: e8cb d742 157f a142 d147 bf41 ed0f d942
00000040: a660 b342 a202 dd41 2495 0143 274b c142
00000050: c3cb ea41 c1aa 0143 0785 b642 ff7a e241
00000060: da5a cf42 42b7 c042 bec5 e941

data_bn.running_var f4 [27]
12324.435 21333.24 8062.718 13004.375 23430.734 9009.031 10077.054 20492.625
8148.3745 12843.708 19332.645 7995.2583 14586.302 17887.238 7183.2983 16938.965
26641.475 9924.067 22475.508 27625.117 10601.841 21643.861 24086.164 9632.471
17580.076 25194.605 10096.645
00000000: bd91 4046 7baa a646 bef5 fb45 8031 4b46
00000010: 780d b746 20c4 0c46 3774 1d46 4019 a046
00000020: ffa2 fe45 d5ae 4846 4a09 9746 11da f945
00000030: 35e9 6346 7abe 8b46 637a e045 ee55 8446
00000040: f322 d046 4510 1b46 0497 af46 3cd2 d746
00000050: 5da7 2546 b917 a946 542c bc46 e281 1646
00000060: 2758 8946 36d5 c446 94c2 1d46

st_gcn_networks.0.gcn.conv.weight f4 [24, 3, 1, 1]
-0.060180664 -0.001948572 0.0035177257 0.15021761 -0.054009836 0.06315286 0.062339596 0.003106054
0.04773881 -0.02379085 -0.010339279 0.1292197 0.027418151 -0.013010948 -0.20638575 0.21785352
0.28633484 0.07984725 -0.22629617 0.1574936 0.0657156 -0.18725084 0.070881486 -0.13162813
-0.052541476 -0.04639968 -0.014309847 -0.23947854 -0.08247715 0.032691002 0.16276832 -0.011735453
-0.01915389 -0.12887704 -0.13001634 0.008840453 2.3672462e-06 -0.021652695 0.18798861 -0.05089252
-0.23120482 -0.12953699 0.062471125 0.061689854 0.042572234 0.17624418 -0.10034522 0.16160567
-0.02427935 -0.00060815114 0.012864244 -0.04271436 -0.025211787 -0.07633163 0.15361074 -0.03236512
0.044434186 -0.025686897 -0.018806184 0.009588812 -0.21218199 0.011275272 -0.011324067 0.043125715
-0.062742546 0.106122956 0.029643744 -0.062527195 0.0033946733 -0.10595829 0.14697088 0.050971728
00000000: 0080 76bd 3a67 ffba a589 663b a5d2 193e
00000010: 6b39 5dbd 4956 813d ce57 7f3d f08e 4b3b
00000020: c589 433d 07e5 c2bc 1466 29bc 2b52 043e
00000030: 089c e03c df2b 55bc c956 53be fe14 5f3e
00000040: 7b9a 923e f486 a33d 2fba 67be 0146 213e
00000050: e795 863d afbe 3fbe 502a 913d 86c9 06be
00000060: bb35 57bd 970d 3ebd d973 6abc dd39 75be
00000070: c8e9 a8bd 00e7 053d bdac 263e 0f46 40bc
00000080: 9ee8 9cbc 58f8 03be 0123 05be 8cd7 103c
00000090: fbdc 1e36 fe60 b1bc 1680 403e ad74 50bd
000000a0: f5c0 6cbe 58a5 04be b9e1 7f3d 80ae 7c3d
000000b0: 3960 2e3d 5b79 343e cb81 cdbd f57b 253e
000000c0: 7de5 c6bc 556c 1fba 8dc4 523c 41f5 2ebd
000000d0: f388 cebc c253 9cbd 224c 1d3e 4a91 04bd
000000e0: 9f00 363d 546d d2bc 6d0f 9abc 641a 1d3c
000000f0: 3c46 59be ebbb 383c 9488 39bc 97a4 303d
00000100: 2a7f 80bd fe56 d93d 70d7 f23c 420e 80bd
00000110: 2b79 5e3b a900 d9bd 897f 163e bbc7 503d

st_gcn_networks.0.gcn.conv.bias f4 [24]
0.035566334 0.042203974 0.04462966 0.0740754 -0.015703117 -0.16858451 -0.018179582 0.12212533
-0.064400055 0.017295454 0.08362047 -0.02514424 0.024088992 0.13731317 0.14832346 -0.01946801
-0.017674074 -0.14981599 0.017100647 -0.058705024 0.03756366 0.025447397 -0.029690364 -0.0024140729
00000000: 01ae 113d 13de 2c3d 97cd 363d d8b4 973d
00000010: d3a3 80bc 6ba1 2cbe 59ed 94bc d81c fa3d
00000020: 2de4 83bd 32af 8d3c 3541 ab3d 4bfb cdbc
00000030: 4756 c53c d39b 0c3e 1be2 173e 607b 9fbc
00000040: 38c9 90bc 5d69 19be a816 8c3c ae74 70bd
00000050: 5adc 193d 0f77 d03c 3539 f3bc 6c35 1ebb

st_gcn_networks.0.tcn.0.weight f4 [8]
0.13999903 0.29273993 0.37373513 0.25093028 0.24790254 0.32488692 0.3159924 0.33600712
00000000: e85b 0f3e 02e2 953e 365a bf3e ef79 803e
00000010: 2ada 7d3e 9457 a63e c1c9 a13e 2009 ac3e

st_gcn_networks.0.tcn.0.bias f4 [8]
0.04692896 0.03710059 0.05895661 0.022411928 -0.039815135 0.056507163 -0.005263359 -0.04074147
00000000: 9538 403d caf6 173d 7c7c 713d 3899 b73c
00000010: 3215 23bd 0e74 673d 4178 acbb 87e0 26bd

st_gcn_networks.0.tcn.0.running_mean f4 [8]
-0.0031758798 0.00068936317 0.015367644 0.0042509823 0.002175268 -0.0050269063 0.012575647 0.013164422
00000000: 6c22 50bb 61b6 343a 92c8 7b3c d34b 8b3b
00000010: f18e 0e3b bfb8 a4bb 160a 4e3c 96af 573c

st_gcn_networks.0.tcn.0.running_var f4 [8]
8.11801e-05 0.00016333777 0.0002569219 0.00019588234 1.712129e-05 0.00019797792 0.00028390108 5.7192483e-05
00000000: 3c3f aa38 a645 2b39 79b3 8639 c465 4d39
00000010: b19f 8f37 4b98 4f39 8fd8 9439 f6e1 6f38

st_gcn_networks.0.tcn.2.weight f4 [8, 8, 9, 1]
-0.038564134 -0.0206484 0.023137886 -0.0016287626 0.008322667 -0.027324405 0.0013526333 -0.006015647
0.0117983315 0.034550548 -0.052511778 -0.031928677 -0.00795801 -0.0013622766 0.019135676 0.010928701
-0.004616816 -0.01916316 0.045862347 0.053346533 0.032882284 0.069644645 -0.016782636 0.09531383
-0.057841595 0.026343374 -0.057607494 0.0074646827 -0.02343407 0.062802374 0.00486379 0.02309427
0.027057165 0.016101902 0.04338286 0.03052881 -0.07191525 -0.02066363 0.04638184 -0.02319003
-0.032347318 0.021515904 0.020411646 -0.04962732 0.010604476 -0.028205613 0.0039395546 0.009752436
0.021325137 0.035413343 0.012790825 -0.008528614 0.02151797 0.007970646 0.030696796 0.017128166
-0.0006977711 -0.038457096 -0.023248114 -0.013943501 -0.03397718 0.052763797 -0.007474271 -0.021529637
-0.122414954 -0.005082119 -0.04930424 -0.0025862847 -0.077601574 -0.02116043 -0.023164995 0.008008176
0.024589757 -0.01277167 -0.0073244725 -0.008915704 0.011035114 0.015332868 0.052953113 -0.00046508352
-0.0057779527 0.020706637 0.019591955 0.04367825 0.011495816 -0.023264185 0.000826035 0.02616806
-0.004409388 0.03576379 0.03126668 0.07599957 0.08474 0.0015037131 -0.018667685 -0.06315196
-0.014130604 0.02294851 -0.0057906574 0.047757145 -0.023919633 0.023657499 0.0112149995 0.017498003
0.011723809 0.039792906 -0.025648525 -0.006888046 0.019579697 0.01701008 0.02308754 0.021564795
0.014472955 -0.023533858 0.042850144 0.051560286 0.013539343 -0.02414222 0.03355015 0.024561938
-0.040272463 0.019961441 -0.035576157 -0.052209992 -0.022233857 -0.01322229 -0.06416606 -0.051198933
-0.0722024 -0.05339372 -0.021533601 0.03805215 0.027844265 -0.03949199 0.06694252 0.03244317
-0.056927625 -0.029363303 -0.0071706395 0.019742528 -0.038132675 0.021490866 -0.021903008 -0.027548058
-0.023723127 -0.0089707365 -0.013552996 0.06330902 -0.019708175 -0.0068585146 0.030631736 -0.02275144
-0.013731978 -0.0032716258 -0.0061865393 -0.016228333 0.01983605 -0.018573282 0.010218469 0.006778321
-0.041106697 0.009254605 0.07123818 -0.007815523 0.0030926857 -0.08173113 0.06061855 -0.004438896
0.04801881 -0.068918616 0.03211083 0.029316653 -0.026812332 -0.031875815 0.025295626 0.011151137
-0.033917867 -0.0015406929 -0.033286866 0.02634651 0.0035924234 0.01474547 0.054607175 0.010336093
-0.065266706 -0.019380024 -0.025410207 -0.0111189755 0.0045915707 -0.043756656 -0.062188514 0.05537711
-0.047369774 -0.06292402 0.009527127 0.042903192 -0.051007766 0.08629479 0.0057783695 -0.033668313
-0.06313986 0.052708197 0.093934745 0.023624139 -0.034377147 0.03514017 0.04143453 -0.042410973
-0.024172364 -0.08124515 0.04395634 0.0017421647 0.06343891 -0.043624338 -0.036760222 -0.024788762
-0.009411511 -0.00682439 0.0072326665 0.0066482443 0.02167948 -0.017243916 -0.012234508 -0.020828921
0.009875386 -0.0013300249 0.019459074 -0.014628442 -0.00809528 0.027888836 0.03938914 0.028938364
0.006029556 0.038106076 0.01623247 0.013308781 0.0053279717 -0.014883018 -0.008362633 -0.013089981
0.011333556 0.007729468 -0.060838528 0.014310975 -0.03192133 -0.032799125 -0.046276815 -0.041663732
-0.013333157 -0.03888739 -0.04143156 0.01977748 -0.006894596 -0.044701543 0.0006003838 0.036951214
00000000: 6df5 1dbd d526 a9bc aa8b bd3c 347c d5ba
00000010: cc5b 083c 6ed7 dfbc d84a b13a e81e c5bb
00000020: ca4d 413c e084 0d3d 9716 57bd a5c7 02bd
00000030: 5062 02bc 6b8e b2ba 6cc2 9c3c 4b0e 333c
00000040: a948 97bb 0ffc 9cbc 28da 3b3d e581 5a3d
00000050: 93af 063d daa1 8e3d bd7b 89bc e633 c33d
00000060: 4feb 6cbd 0fce d73c d6f5 6bbd 4c9a f43b
00000070: cff8 bfbc 889e 803d 6d60 9f3b 3230 bd3c
00000080: fda6 dd3c 23e8 833c 3ab2 313d 8e17 fa3c
00000090: 4d48 93bd c646 a9bc e2fa 3d3d 05f9 bdbc
000000a0: 9f7e 04bd 1f42 b03c 5336 a73c 0446 4bbd
000000b0: 65be 2d3c 750f e7bc 6117 813b aec8 1f3c
000000c0: 0eb2 ae3c 950d 113d 9c90 513c 9abb 0bbc
000000d0: 7446 b03c 5097 023c d977 fb3c 5e50 8c3c
000000e0: a0ea 36ba 3085 1dbd d472 bebc 4873 64bc
000000f0: a82b 0bbd da1e 583d bbea f4bb ec5e b0bc
00000100: b1b4 fabd e787 a6bb 3ef3 49bd a87e 29bb
00000110: 93ed 9ebd a358 adbc 84c4 bdbc ba34 033c
00000120: 7570 c93c 4440 51bc 2102 f0bb 2c13 12bc
00000130: 9fcc 343c b636 7b3c 5de5 583d 74d6 f3b9
00000140: fb54 bdbb f7a0 a93c 4f7f a03c f7e7 323d
00000150: f258 3c3c 8894 bebc 458a 583a 665e d63c
00000160: a17c 90bb 0d7d 123d 7e11 003d aaa5 9b3d
00000170: 2a8c ad3d 3d18 c53a f9ec 98bc d155 81bd
00000180: 0d84 67bc 83fe bb3c 8ebf bdbb ff9c 433d
00000190: 1bf3 c3bc 5fcd c13c 1ebf 373c f957 8f3c
000001a0: 3815 403c e3fd 223d db1c d2bc 1eb5 e1bb
000001b0: 9a65 a03c b958 8b3c 1522 bd3c a7a8 b03c
000001c0: f91f 6d3c 14ca c0bc a283 2f3d e130 533d
000001d0: 1fd4 5d3c e8c5 c5bc e26b 093d 1e36 c93c
000001e0: bdf4 24bd 2d86 a33c 4eb8 11bd 25da 55bd
000001f0: c723 b6bc 4ea2 58bc 7f69 83bd f9b5 51bd
00000200: dade 93bd 60b3 5abd 3c67 b0bc 92dc 1b3d
00000210: a819 e43c 5ac2 21bd 2919 893d 21e3 043d
00000220: f12c 69bd 4f8b f0bc aff7 eabb 15bb a13c
00000230: 0231 1cbd 9d0d b03c f06d b3bc 77ac e1bc
00000240: 0157 c2bc fff9 12bc 630d 5ebc 29a8 813d
00000250: 0a73 a1bc 64bd e0bb 68ef fa3c 3a61 babc
00000260: 17fc 60bc c668 56bb 74b8 cabb 48f1 84bc
00000270: 367f a23c ff26 98bc 5e6b 273c ae1c de3b
00000280: 7f5f 28bd a0a0 173c 53e5 913d ae0c 00bc
00000290: a8ae 4a3b a762 a7bd 284b 783d 2974 91bb
000002a0: 5faf 443d 3425 8dbd a586 033d 7a29 f03c
000002b0: 89a5 dbbc 3790 02bd c638 cf3c 42b3 363c
000002c0: 76ed 0abd 13f1 c9ba cf57 08bd a3d4 d73c
000002d0: dd6e 6b3b fc96 713c c6ab 5f3d b758 293c
000002e0: 8daa 85bd dbc2 9ebc 1129 d0bc 5d2c 36bc
000002f0: e374 963b 2e3a 33bd 62b9 7ebd 1cd3 623d
00000300: cf06 42bd 4fde 80bd ab17 1c3c 42bb 2f3d
00000310: 85ed 50bd 53bb b03d 7a58 bd3b c9e7 09bd
00000320: 794f 81bd 8de4 573d dc60 c03d 6987 c13c
00000330: 0dcf 0cbd 24ef 0f3d 41b7 293d 21b7 2dbd
00000340: 1f05 c6bc db63 a6bd 900b 343d 5959 e43a
00000350: 42ec 813d 6faf 32bd e391 16bd cd11 cbbc
00000360: bd32 1abc 229f dfbb 0100 ed3b 84d9 d93b
00000370: 2a99 b13c 1d43 8dbc 3f73 48bc 6aa1 aabc
00000380: 5fcc 213c 3b54 aeba a368 9f3c 22ac 6fbc
00000390: 11a2 04bc 2177 e43c 8256 213d 2610 ed3c
000003a0: 9593 c53b 1e15 1c3d f5f9 843c 130d 5a3c
000003b0: 4496 ae3b e7d7 73bc 6d03 09bc 5c77 56bc
000003c0: 61b0 393c 7a47 fd3b d231 79bd 9478 6a3c
000003d0: f1bf 02bd 6058 06bd c28c 3dbd 97a7 2abd
000003e0: 5073 5abc 6248 1fbd 24b4 29bd 6204 a23c
000003f0: 10ec e1bb f718 37bd 1363 1d3a 285a 173d

st_gcn_networks.0.tcn.2.bias f4 [8]
1.1387562e-05 1.4043966e-05 -6.162181e-05 1.5890208e-05 6.1117746e-05 -3.3665347e-05 -2.9102363e-05 4.050736e-05
00000000: 350d 3f37 609e 6b37 f53a 81b8 f64b 8537
00000010: 572c 8038 e433 0db8 d920 f4b7 72e6 2938

st_gcn_networks.0.tcn.3.weight f4 [8]
0.33023578 0.2907384 0.2614367 0.22487025 0.1936992 0.30744788 0.33878785 0.29353267
00000000: aa14 a93e aadb 943e 08db 853e 6344 663e
00000010: 1559 463e cf69 9d3e 9a75 ad3e ea49 963e

st_gcn_networks.0.tcn.3.bias f4 [8]
-0.03196485 0.0044611814 0.053761106 0.011927284 -0.007908035 0.043372143 0.033664104 -0.022254243
00000000: 93ed 02bd 1a2f 923b 9b34 5c3d a86a 433c
00000010: b490 01bc fda6 313d 5fe3 093d 884e b6bc

st_gcn_networks.0.tcn.3.running_mean f4 [8]
0.012804562 0.011557689 -0.016300522 -0.03223337 0.02849624 0.04332906 -0.003471947 0.015515724
00000000: 3aca 513c 765c 3d3c ac88 85bc 2307 04bd
00000010: f270 e93c d079 313d 9b89 63bb aa35 7e3c

st_gcn_networks.0.tcn.3.running_var f4 [8]
0.005562334 0.0031698968 0.0014562717 0.0008279746 0.0013550902 0.0043471567 0.0041919705 0.003509974
00000000: 3d44 b63b 0bbe 4f3b 5fe0 be3a 6f0c 593a
00000010: 489d b13a 9872 8e3b cc5c 893b 9807 663b

st_gcn_networks.1.gcn.conv.weight f4 [24, 8, 1, 1]
-0.021319253 -0.038758047 0.059059385 0.05038405 -0.018955356 0.020349482 0.0066850428 0.042141862
-0.0075277076 -0.01770976 0.08717613 -0.040000837 0.03355782 -0.027581193 0.06530409 0.023290373
0.072505355 -0.066314295 -0.02620675 0.0823221 0.06437777 0.06606188 -0.033315137 -0.020366285
0.010085801 -0.027252859 -0.029968075 -0.03278435 -0.06596632 -0.098782286 0.04588981 -0.09120299
-0.029781498 0.009205791 0.0639623 -0.043373194 0.014522806 0.026751 0.04187051 -0.01383283
0.011274656 -0.084871195 0.034118805 -0.05824177 -0.017191116 0.0016105593 -0.08650663 0.0144114755
-0.023987845 -0.008893446 0.052767463 0.009808516 0.020681363 0.021421898 -0.047953915 -0.028444208
-0.03309457 -0.0017050527 -0.033007193 -0.035357647 -0.012066033 0.05768935 0.00040693243 0.0784932
-0.019635646 0.071960144 0.017042823 -0.040420327 -0.066840835 0.013761961 0.0761072 0.09666067
-0.05703653 -0.014144891 -0.060903247 -0.013435842 -0.005071755 -0.034487717 0.057061 0.0014670966
0.010936313 -0.001808563 0.05533975 -0.050146542 -0.04932306 -0.09488953 0.09598159 -0.055811383
-0.019901685 0.12156613 0.071054064 0.02238377 -0.052346427 0.06721563 -0.029451083 -0.101721495
-0.042515576 -0.012474954 0.077848054 0.040685322 0.0034078723 0.024039822 -0.027521826 0.03881661
0.082847916 -0.044454753 -0.0056388387 -0.076316856 0.030629039 -0.07894168 0.08167324 0.051089045
-0.061575875 -0.11337889 0.041514114 0.032265298 -0.07455393 -0.05098931 0.028533204 0.07208255
0.029344946 0.005748488 -0.010382997 0.0008617225 -0.0074251764 0.026494006 0.03724432 -0.00572702
-0.018409556 -0.010179704 0.042049672 0.0799606 -0.013785896 0.039890207 -0.04110484 -0.0034067386
0.0678533 0.015114678 0.03313251 -0.016584137 0.012568751 0.045344666 0.096289635 0.0050966484
-0.004289268 0.021005832 -0.030191964 -0.066516854 0.0032628998 -0.054074973 0.059112478 0.016232068
0.06882158 -0.04233567 -0.025365725 -0.06175602 -0.0026342366 -0.024095815 0.15092704 -0.004812841
-0.00082099426 0.010608556 -0.00032158996 -0.07591507 0.033590764 -0.022788616 0.012522436 -0.004097896
-0.012932477 -0.04141547 -0.020529093 0.026524188 -0.075719886 -0.07339567 -0.04791982 -0.01813478
0.07201788 0.036762 0.035262667 -0.093122914 0.054755557 0.032484785 -0.019917892 -0.035322186
0.004544926 0.000479523 0.025143955 0.0026253916 0.0116830375 -0.033954218 -0.0029361362 0.05915758
00000000: b7a5 aebc c2c0 1ebd 41e8 713d 815f 4e3d
00000010: 4348 9bbc f5b3 a63c 340e db3b f29c 2c3d
00000020: fdaa f6bb 0f14 91bc 6689 b23d ebd7 23bd
00000030: ed73 093d f4f1 e1bc 27be 853d 74cb be3c
00000040: b07d 943d cacf 87bd 8aaf d6bc 7d98 a83d
00000050: 7ed8 833d 734b 873d 7475 08bd 32d7 a6bc
00000060: ea3e 253c 6341 dfbc 9c7f f5bc e248 06bd
00000070: 5a19 87bd 5e4e cabd f4f6 3b3d a2c8 babd
00000080: 54f8 f3bc e3d3 163c abfe 823d 17a8 31bd
00000090: 10f1 6d3c ea24 db3c 6980 2b3d 18a3 62bc
000000a0: 56b9 383c f3d0 adbd 29c0 0b3d ec8e 6ebd
000000b0: 62d4 8cbc 6719 d33a 632a b1bd 1c1e 6c3c
000000c0: 2882 c4bc d1b5 11bc b222 583d e6b3 203c
000000d0: f66b a93c fa7c af3c 536b 44bd d403 e9bc
000000e0: 2c8e 07bd 137c dfba 8d32 07bd 2ed3 10bd
000000f0: 9cb0 45bc ab4b 6c3d 8c59 d539 0bc1 a03d
00000100: efda a0bc d75f 933d 649d 8b3c c98f 25bd
00000110: d9e3 88bd d979 613c 17de 9b3d 08f6 c53d
00000120: 239f 69bd f9bf 67bc af75 79bd 0122 5cbc
00000130: f730 a6bb fe42 0dbd ccb8 693d 984b c03a
00000140: 392e 333c 4e0d edba efab 623d 7666 4dbd
00000150: fa06 4abd 7155 c2bd ff91 c43d 7a9a 64bd
00000160: dc08 a3bc aaf7 f83d cb84 913d 2b5e b73c
00000170: 3569 56bd 59a8 893d 6643 f1bc 5c53 d0bd
00000180: d024 2ebd c063 4cbc cd6e 9f3d a7a5 263d
00000190: 9c56 5f3b 29ef c43c 7475 e1bc 2afe 1e3d
000001a0: 2bac a93d 3016 36bd 02c6 b8bb 034c 9cbd
000001b0: c0e9 fa3c 2dac a1bd 4d44 a73d bf42 513d
000001c0: fc36 7cbd 3133 e8bd b40a 2a3d 9e28 043d
000001d0: bbaf 98bd 2bda 50bd 77be e93c 04a0 933d
000001e0: d064 f03c d05d bc3b 721d 2abc 38e5 613a
000001f0: e54e f3bb f509 d93c 808d 183d baa9 bbbb
00000200: a3cf 96bc c6c8 26bc 473c 2c3d 62c2 a33d
00000210: 3dde 61bc ea63 233d 8c5d 28bd 9743 5fbb
00000220: acf6 8a3d 8ea3 773c f4b5 073d 75db 87bc
00000230: 2aed 4d3c 54bb 393d 8033 c53d c901 a73b
00000240: fd8c 8cbb 6c14 ac3c 2355 f7bc fd39 88bd
00000250: 60d6 553b b87d 5dbd ed1f 723d 1df9 843c
00000260: 54f2 8c3d 2b68 2dbd c8cb cfbc e1f3 7cbd
00000270: 28a3 2cbb 9664 c5bc 9e8c 1a3e 09b5 9dbb
00000280: fe37 57ba 82cf 2d3c 139b a8b9 5c79 9bbd
00000290: 7896 093d 31af babc e72a 4d3c a547 86bb
000002a0: bde2 53bc 45a3 29bd a12c a8bc 4149 d93c
000002b0: 0713 9bbd 7850 96bd 9347 44bd 648f 94bc
000002c0: 1c7e 933d c093 163d 966f 103d 3ab7 bebd
000002d0: 5d47 603d c40e 053d d92a a3bc ffad 10bd
000002e0: 9aed 943b 7d68 fb39 b2fa cd3c c30e 2c3b
000002f0: 366a 3f3c 9413 0bbd 316c 40bb 384f 723d

st_gcn_networks.1.gcn.conv.bias f4 [24]
0.0013453336 0.014698172 -0.017242517 0.03550108 0.0038333493 -0.005149115 0.0022589846 0.00041731162
-0.07149284 -0.008823743 0.018225424 0.0019978893 -0.059061576 0.0108632995 0.051904418 -0.009077629
-0.008001884 -0.04048667 0.007564714 0.016782831 0.011108234 -0.012814314 0.026740255 -0.011059784
00000000: e855 b03a 9ad0 703c 2e40 8dbc 9569 113d
00000010: ee38 7b3b e8b9 a8bb 790b 143b 9eca da39
00000020: d76a 92bd 7691 10bc 7c4d 953c 05ef 023b
00000030: 8dea 71bd fbfb 313c ba99 543d 56ba 14bc
00000040: 561a 03bc 5ad5 25bd 6ce1 f73b 267c 893c
00000050: 4fff 353c 21f3 51bc 610e db3c 1934 35bc

st_gcn_networks.1.tcn.0.weight f4 [8]
0.2104882 0.18932107 0.26378816 0.28381786 0.1537043 0.22618675 0.253721 0.19545658
00000000: 388a 573e 62dd 413e 3e0f 873e 9350 913e
00000010: a964 1d3e 809d 673e b8e7 813e c525 483e

st_gcn_networks.1.tcn.0.bias f4 [8]
-0.027582012 0.01323571 0.024372054 0.0007402238 -0.020939484 -0.0072410568 -0.033061836 -0.0287288
00000000: acf3 e1bc 97da 583c e7a7 c73c 940b 423a
00000010: 4889 abbc 6346 edbb d96b 07bd a958 ebbc

st_gcn_networks.1.tcn.0.running_mean f4 [8]
-0.0011560965 -0.00027904083 0.00015167428 0.0013947827 -0.002286516 -0.00081750116 0.002202829 0.00023787547
00000000: 2988 97ba 3a4c 92b9 c10a 1f39 24d1 b63a
00000010: 5fd9 15bb 934d 56ba 575d 103b 366e 7939

st_gcn_networks.1.tcn.0.running_var f4 [8]
4.2275374e-06 4.281653e-06 1.2949591e-05 8.827532e-06 6.334872e-06 4.642231e-06 1.23160935e-05 5.57253e-06
00000000: 45da 8d36 1fab 8f36 1242 5937 f619 1437
00000010: 2390 d436 76c4 9b36 38a1 4e37 abfb ba36

st_gcn_networks.1.tcn.2.weight f4 [8, 8, 9, 1]
-0.01930981 0.0021470422 0.021373957 -0.014766709 -0.014544518 -0.04247442 -0.0056060585 0.0049418947
0.04557199 -0.053740434 0.010277188 0.046577528 0.0031534252 -0.048490733 -0.033728518 0.026767958
0.023272727 -0.02249491 0.004066627 -0.020875439 0.05612857 -0.010668992 0.013060411 -0.0055797957
0.044816487 -0.038866885 -0.053501666 0.011938857 0.016415179 0.03079121 0.0022456169 0.030627701
0.051346317 -0.044578448 -0.047774225 -0.035690278 -0.0036784348 -0.019109402 -0.014321922 -0.0034654539
0.009626929 0.042850997 0.018461669 0.015575379 0.026917571 0.0016202452 -0.038991667 0.028176306
0.018985705 -0.022046708 -0.00852145 -0.00859594 -0.009480679 -0.017406838 -0.013245776 0.005126659
0.008453684 -0.021518575 0.030462548 0.026168877 0.025232641 0.0038340366 0.00740945 0.013270005
-0.0099216625 -0.053020112 -0.049386792 0.036648802 -0.02792334 -0.012441779 0.011123311 -0.0042542643
0.0025676463 -0.030034723 0.002567979 -0.0024263682 -0.014779523 -0.039802745 0.013320398 0.01895885
-0.03940508 -0.051600404 -0.010591996 -0.013983008 -0.07865507 0.025601005 0.007986992 0.04319731
0.015372469 0.04527495 -0.03204037 -0.011444178 0.016081765 -0.018517956 0.029919147 0.036069613
0.0059739607 0.05416493 0.022974676 0.015970202 0.05781 -4.918244e-05 0.026881373 -0.0027890527
0.033359908 0.00785749 -0.014131626 0.031409718 -0.024310114 0.021854823 -0.020186303 -0.020807577
-0.0018744916 -0.0015907902 0.019724807 -0.032320697 0.016903443 0.023501614 0.004039108 -0.008187167
-0.008203979 -0.010929471 0.0077197812 0.0074092294 0.0076732393 0.0638885 -0.019356193 0.003403537
0.050075132 -0.03783731 0.030705469 -0.017468777 0.027426174 -0.015975097 0.029578736 -0.011885573
-0.040273547 -0.025977451 -0.018315779 -0.027127557 0.017507166 -0.0014183763 -0.0035185164 0.010078679
-0.00011625161 -0.058624234 -0.02493916 0.0058083893 -0.0032241622 0.0036360028 0.004580828 -0.04354149
-0.0522269 0.03972027 -0.03308927 -0.03265743 -0.0133400075 0.0008623198 -0.0077029527 -0.024718814
0.005205356 -0.00066959223 0.040640224 -0.041751016 0.014612852 0.046078987 -0.066634044 0.029297037
0.035962652 0.028687902 0.008970642 -0.025292452 0.04432863 -0.04036797 0.008621374 -0.010570049
-0.030732626 -0.042165488 0.019918589 -0.022345504 -0.0011072604 0.015408362 -0.004852075 0.057684157
-0.018426577 -0.026390519 0.025851578 -0.02386118 -0.0349332 -0.005944623 -0.0143935485 0.042453237
-0.010268919 0.011944833 -0.032928824 -0.0016648754 -0.08746729 -0.057540048 -0.009925689 -0.0020621151
0.023672178 0.05960692 -0.008916896 -0.008920225 0.009945116 0.015666122 0.05710546 0.008004821
0.029406805 0.026947942 -0.0128911445 0.016336307 -0.016521696 0.014081909 -0.0058833333 -0.017769178
-0.008923923 -0.016662886 0.0540026 -0.025239399 -0.03770748 -0.0053008567 -0.03302885 -0.06366194
0.03397212 0.04559917 0.012698861 0.008148182 0.011264844 0.032676384 0.0020002832 -0.04113416
-0.04061282 0.012253931 0.0089812325 0.0011288642 0.031058319 -0.030753039 0.018392831 -0.0022580752
0.011033496 -0.00621056 0.049069032 -0.006613694 -0.0024616234 -0.014383099 0.03136741 -0.006157683
-0.03306872 -0.0063085104 0.023796313 -0.058895037 0.019852197 -0.005996678 -0.024700314 -0.04264224
00000000: 9b2f 9ebc 64b5 0c3b 7018 af3c 11f0 71bc
00000010: 214c 6ebc a8f9 2dbd 07b3 b7bb 9eef a13b
00000020: b2a9 3a3d ee1e 5cbd a761 283c 14c8 3e3d
00000030: b2a9 4e3b 389e 46bd ea26 0abd 7a48 db3c
00000040: 72a6 be3c 3f47 b8bc 5741 853b f802 abbc
00000050: 12e7 653d ffcc 2ebc 56fb 553c b8d6 b6bb
00000060: 7e91 373d e232 1fbd 9024 5bbd 329b 433c
00000070: 2079 863c d93d fc3c 332b 133b f2e6 fa3c
00000080: 8450 523d e497 36bd e8ae 43bd f82f 12bd
00000090: e511 71bb 528b 9cbc 7fa6 6abc ab1c 63bb
000000a0: 44ba 1d3c 8784 2f3d ed3c 973c e02f 7f3c
000000b0: 3d82 dc3c 685e d43a bab5 1fbd ffd1 e63c
000000c0: e987 9b3c 4c9b b4bc 8d9d 0bbc fcd5 0cbc
000000d0: da54 1bbc c998 8ebc d004 59bc 88fd a73b
000000e0: 5281 0a3c b947 b0bc 988c f93c 1d60 d63c
000000f0: afb4 ce3c 7644 7b3b f9ca f23b 6f6a 593c
00000100: 788e 22bc 9e2b 59bd ce49 4abd 0e1d 163d
00000110: 7dbf e4bc 9ad8 4bbc 8c3e 363c 5b67 8bbb
00000120: f545 283b 610b f6bc 8a4b 283b b403 1fbb
00000130: d025 72bc 3408 23bd cc3d 5a3c 974f 9b3c
00000140: 3967 21bd f25a 53bd 0d8a 2dbc fd18 65bc
00000150: e915 a1bd 33b9 d13c dfdb 023c aaef 303d
00000160: cfdc 7b3c 3a72 393d c33c 03bd 5d80 3bbc
00000170: e8bd 833c f8b2 97bc 0019 f53c bbbd 133d
00000180: 37c1 c33b 0cdc 5d3d 6335 bc3c f1d3 823c
00000190: 2eca 6c3d 3e49 4eb8 5336 dc3c 8ac8 36bb
000001a0: 66a4 083d b4bc 003c 5688 67bc 7aa7 003d
000001b0: 0126 c7bc e308 b33c bf5d a5bc a774 aabc
000001c0: 80b1 f5ba 1082 d0ba eb95 a13c b562 04bd
000001d0: 1779 8a3c 7586 c03c 7e5a 843b 7823 06bc
000001e0: fb69 06bc 8611 33bc 38f6 fc3b 1fc9 f23b
000001f0: cc6f fb3b f9d7 823d e190 9ebc e00d 5f3b
00000200: 951b 4d3d 4cfb 1abd 098a fb3c ae1a 8fbc
00000210: dbac e03c 35de 82bc 1b4f f23c b5bb 42bc
00000220: e0f5 24bd aace d4bc f90a 96bc 9c3a debc
00000230: 306b 8f3c d0e8 b9ba e996 66bb 0b21 253c
00000240: 1ccc f3b8 f71f 70bd 364d ccbc 4d54 be3b
00000250: 774c 53bb 014a 6e3b c51a 963b 9058 32bd
00000260: e0eb 55bd b9b1 223d 9d88 07bd ccc3 05bd
00000270: 0c90 5abc 4d0d 623a 0d69 fcbb 1c7f cabc
00000280: b191 aa3b 9387 2fba 5d76 263d 1d03 2bbd
00000290: be6a 6f3c 52bd 3c3d 6e77 88bd 5700 f03c
000002a0: 934d 133d e402 eb3c 9af9 123c 1e32 cfbc
000002b0: f091 353d e258 25bd aa40 0d3c 002e 2dbc
000002c0: fdc2 fbbc b8b5 2cbd 4f2c a33c eb0d b7bc
000002d0: 7e21 91ba 5b73 7c3c 28fe 9ebb 3946 6c3d
000002e0: 55f3 96bc ee30 d8bc b0c6 d33c 8578 c3bc
000002f0: 1d16 0fbd 1dcb c2bb ebd2 6bbc 72e3 2d3d
00000300: f83e 28bc 43b4 433c 60e0 06bd f337 daba
00000310: 0d22 b3bd 1daf 6bbd 5b9f 22bc 8d24 07bb
00000320: 28ec c13c 6326 743d 2c18 12bc 2326 12bc
00000330: d7f0 223c 3d56 803c 6ae7 693d a726 033c
00000340: 8ae6 f03c eec1 dc3c 6135 53bc b8d3 853c
00000350: 8258 87bc cfb7 663c fac8 c0bb ab90 91bc
00000360: a535 12bc 9b80 88bc d531 5d3d dbc2 cebc
00000370: 2973 1abd cfb2 adbb 4249 07bd 3161 82bd
00000380: 5a26 0b3d 32c6 3a3d e20e 503c f47f 053c
00000390: 2e90 383c acd7 053d 2f17 033b 4b7c 28bd
000003a0: a159 26bd b6c4 483c 0526 133c 66f6 933a
000003b0: 046e fe3c cced fbbc 90ac 963c 37fc 13bb
000003c0: d6c5 343c f481 cbbb 9cfc 483d b0b7 d8bb
000003d0: 3053 21bb 17a7 6bbc 1d7b 003d 64c6 c9bb
000003e0: 1173 07bd 9fb7 cebb 7cf0 c23c ec3b 71bd
000003f0: 13a1 a23c c87f c4bb 5058 cabc a1a9 2ebd

st_gcn_networks.1.tcn.2.bias f4 [8]
1.4309334e-05 -0.00013703252 -8.112118e-06 -6.165425e-05 5.3004438e-05 6.528891e-05 -4.8895385e-05 3.8573595e-05
00000000: 1f12 7037 63b0 0fb9 4819 08b7 604c 81b8
00000010: 1551 5e38 b7eb 8838 0515 4db8 15ca 2138

st_gcn_networks.1.tcn.3.weight f4 [8]
0.19992404 0.24650957 0.27207047 0.24919131 0.19841473 0.268969 0.26384473 0.17906275
00000000: e3b8 4c3e 016d 7c3e d24c 8b3e 022c 7f3e
00000010: 3b2d 4b3e 4eb6 893e a816 873e 3a5c 373e

st_gcn_networks.1.tcn.3.bias f4 [8]
0.0007960106 -0.012977316 -0.013497832 -0.005972585 -0.0035741727 -0.0047168112 -0.014739537 0.00070742867
00000000: 5eab 503a cf9e 54bc 0326 5dbc adb5 c3bb
00000010: ab3c 6abb 7b8f 9abb 197e 71bc bc72 393a

st_gcn_networks.1.tcn.3.running_mean f4 [8]
-0.0022385265 0.015567952 -0.005298224 3.5233838e-06 -0.0023130386 0.009028797 -0.010339807 -0.009146952
00000000: 3eb4 12bb b910 7f3c b99c adbb 4673 6c36
00000010: 5996 17bb 85ed 133c 4b68 29bc 19dd 15bc

st_gcn_networks.1.tcn.3.running_var f4 [8]
0.00029302065 0.0010033121 0.00050209404 0.0002690576 0.00026799316 0.00079888874 0.00047441263 0.00053276325
00000000: 91a0 9939 9181 833a f69e 033a 4d10 8d39
00000010: 6f81 8c39 846c 513a 96ba f839 23a9 0b3a

st_gcn_networks.1.residual.0.weight f4 [8, 8, 1, 1]
-0.035053164 -0.061616298 -0.10460199 -0.018704256 -0.04471619 0.026945375 0.05291614 -0.0024207036
-0.07312292 -0.04211608 -0.032224983 0.0041120206 0.024953378 0.07148656 0.087163664 -0.08790519
-0.1253929 -0.00019947924 0.073782176 0.0019017981 -0.027018309 0.050465908 -0.0016217093 -0.051031448
0.0882489 0.026127113 -0.047162727 -0.00084781705 -0.026099082 0.010571524 0.055420123 0.07017738
-0.056520194 0.043873258 -0.061425105 0.017958244 0.04166196 -0.051185176 0.072016254 0.063170455
0.11710526 0.025745224 0.082249686 -0.013398873 -0.061700556 -0.03072519 -0.020216469 -0.083805144
0.020518597 0.025339555 -0.069516264 0.02003621 -0.022175532 -0.02730774 -0.079525955 0.022198273
0.0066902554 0.037664574 0.08490467 0.026628537 0.050778814 0.07278878 -0.06710501 -0.027766155
00000000: e893 0fbd 5f61 7cbd 9139 d6bd ab39 99bc
00000010: 5328 37bd 8cbc dc3c 98be 583d aba4 1ebb
00000020: 78c1 95bd e981 2cbd 58fe 03bd 21be 863b
00000030: 076b cc3c 8c67 923d dd82 b23d a307 b4bd
00000040: ff66 00be 4d2b 51b9 1c1b 973d c145 f93a
00000050: 8055 ddbc 57b5 4e3d 898f d4ba 5a06 51bd
00000060: d7bb b43d 8708 d63c b42d 41bd 0a40 5eba
00000070: becd d5bc 2f34 2d3c 3600 633d 29b9 8f3d
00000080: b881 67bd 72b4 333d e498 7bbd 2b1d 933c
00000090: bba5 2a3d 8ca7 51bd 427d 933d 835f 813d
000000a0: e2d4 ef3d a6e7 d23c 8672 a83d f286 5bbc
000000b0: b9b9 7cbd 65b3 fbbc 029d a5bc 08a2 abbd
000000c0: 9e16 a83c e694 cf3c 8b5e 8ebd fa22 a43c
000000d0: 76a9 b5bc 7bb4 dfbc 81de a2bd 27d9 b53c
000000e0: ee39 db3b 2b46 1a3d 80e2 ad3d 1724 da3c
000000f0: 72fd 4f3d 4912 953d 5a6e 89bd d975 e3bc

st_gcn_networks.1.residual.0.bias f4 [8]
6.0217208e-05 -8.766913e-05 -2.4250034e-05 -1.1749387e-05 -6.8060554e-06 6.813358e-05 -2.799436e-05 2.0824555e-05
00000000: bc91 7c38 01db b7b8 8d6c cbb7 3c1f 45b7
00000010: 925f e4b6 f0e2 8e38 6ed5 eab7 64b0 ae37

st_gcn_networks.1.residual.1.weight f4 [8]
0.21875215 0.17534058 0.22204648 0.2218581 0.16136931 0.21665879 0.3167271 0.14214516
00000000: 9000 603e 7b8c 333e 2760 633e c52e 633e
00000010: ff3d 253e cddb 5d3e 0e2a a23e 808e 113e

st_gcn_networks.1.residual.1.bias f4 [8]
0.0007960106 -0.012977316 -0.013497832 -0.005972585 -0.0035741727 -0.0047168112 -0.014739537 0.00070742867
00000000: 5eab 503a cf9e 54bc 0326 5dbc adb5 c3bb
00000010: ab3c 6abb 7b8f 9abb 197e 71bc bc72 393a

st_gcn_networks.1.residual.1.running_mean f4 [8]
-0.01588738 -0.00089685596 -0.003311955 0.019540349 0.0037406844 0.0035993257 -0.014856782 0.018865464
00000000: 4026 82bc fc1a 6bba 620d 59bb 1513 a03c
00000010: 4526 753b aae2 6b3b dc69 73bc bf8b 9a3c

st_gcn_networks.1.residual.1.running_var f4 [8]
0.00053633156 0.0009177362 0.00062836823 0.0009511791 0.00084204046 0.0010389219 0.0007343035 0.0005493848
00000000: 9a98 0c3a 3c94 703a 14b9 243a 8d58 793a
00000010: 61bc 5c3a 6f2c 883a 467e 403a 9704 103a

st_gcn_networks.2.gcn.conv.weight f4 [48, 8, 1, 1]
0.036967676 -0.060058482 0.011142856 -0.04827017 0.050207227 0.013239294 -0.06667536 -0.026044674
-0.01777351 -0.01567166 0.006891699 -0.03223063 -0.01174834 0.00036688417 0.026982015 -0.024921777
0.023149686 -0.020203156 0.0145053705 -0.042936496 -0.016799975 0.010776865 -0.053547382 -0.015391424
0.023296436 -0.0013189455 -0.0035608548 -0.014730004 -0.0010137665 -0.05055415 -0.018217318 -0.002833882
0.03370256 0.018375954 -0.035137992 0.018354055 -0.07293466 0.0416978 -0.01486382 -0.025066957
0.07063863 -0.012797054 -0.06713216 -0.023966614 0.087659985 -0.0171658 -0.102810316 -0.01788258
-0.04191248 -0.08831768 -0.040047254 0.0032424098 -0.052785132 0.049303353 -0.097816244 -0.0055445526
-0.013682239 -0.018145466 0.033832055 -0.017127289 -0.0059984648 -0.018725047 0.033950314 -0.013354456
-0.020621425 -0.024240674 -0.033263415 0.018623253 -0.042381052 0.03970183 -0.022668824 -0.04619923
0.014239022 -0.025080368 0.049263798 0.0174445 0.019084895 -0.04816572 0.021743523 0.002653022
0.014650067 -0.033419345 0.027758045 0.0019414034 0.04117357 0.060975526 -0.00068199565 -0.027083348
0.032188997 -0.03817081 -0.04427486 0.031228287 -0.01816066 -0.016738318 0.019711236 -0.060683154
0.025999352 -0.029099703 -0.007422347 0.078648224 -0.0140737025 0.021165064 0.026728597 -0.01001833
0.01556177 -0.06182258 0.06924952 -0.01851835 -0.010572687 -0.002080307 -0.0110199405 -0.0052091433
-0.034474842 0.02328444 0.043874532 -0.044478774 0.013814979 0.0438497 0.028902272 -0.010628909
-0.025498983 0.03342228 -0.02505912 -0.038715698 -0.0771033 -0.0077892942 -0.0020792992 -0.017862853
0.028508099 -0.030205496 0.024103083 -0.054909486 0.043412562 0.07771759 0.09408744 -0.044281714
0.0066919606 -0.018819408 -0.0346726 -0.040970393 -0.004905338 0.05076129 0.031989645 0.017511224
0.020335069 0.0027516214 0.059646342 -0.008061074 0.04081352 -0.010640605 0.025319507 -0.04551891
0.018825037 0.026739487 0.0014457656 -0.019771487 0.048912168 -0.04457163 -0.049068965 -0.05748993
-0.016216852 -0.026207838 0.030391265 -0.021603389 -0.0065045054 0.024493681 0.044955097 0.007469057
0.018887449 0.034204412 -0.020179844 -0.0389211 0.013885276 -0.10354604 0.01627123 -0.014034113
0.05330592 0.036063325 -0.06460524 0.038311046 0.061979022 -0.0429639 -0.007813142 -0.05335698
-0.012638537 -0.05508634 0.040141847 0.03707063 -0.040929645 0.045323655 -0.023180455 0.045410637
0.0378509 0.05792111 -0.025729401 0.028562108 0.053541467 -0.004845518 0.07489214 -0.03037662
-0.015736189 -0.022109084 -0.02975439 0.033725478 -0.066618875 0.054618366 0.030557215 -0.030520748
-0.020402016 -0.06506594 -0.011382675 0.048025653 0.0025448909 -0.0044198576 0.007654185 0.052380867
0.055522904 0.085829996 0.018833391 0.013654049 -0.042694267 -0.023551492 0.10122878 0.05050398
0.102951705 -0.027838778 -0.0061635054 -0.05220123 -0.040271632 -0.0068272417 0.032037545 -0.016598243
0.04019213 0.049009547 -0.07950604 0.06849694 -0.010599759 -0.05039656 -0.0005099289 0.0866359
-0.041748606 -0.01356978 -0.051618874 -0.024395328 0.027187921 0.009961027 -0.0102243945 0.0023160107
-0.042552657 -0.0027396013 0.022222733 0.04096783 0.025638152 0.013677664 0.05895191 -0.0101104
00000000: 6b6b 173d e2ff 75bd 8790 363c f1b6 45bd
00000010: 18a6 4d3d a0e9 583c 178d 88bd a45b d5bc
00000020: c199 91bc da61 80bc c3d3 e13b 4404 04bd
00000030: 1c7c 40bc 5c5a c039 6309 dd3c c128 ccbc
00000040: 69a4 bd3c 1781 a5bc efa7 6d3c 2ede 2fbd
00000050: 1aa0 89bc 7391 303c 8054 5bbd 502c 7cbc
00000060: 2bd8 be3c 78e0 acba 3b5d 69bb 1d56 71bc
00000070: 5ce0 84ba de11 4fbd 7c3c 95bc a7b8 39bb
00000080: b20b 0a3d 2b89 963c dbec 0fbd 3e5b 963c
00000090: c45e 95bd 50cb 2a3d 6187 73bc 3859 cdbc
000000a0: fcaa 903d bcaa 51bc 967c 89bd a255 c4bc
000000b0: 1487 b33d 4b9f 8cbc 378e d2bd 7d7e 92bc
000000c0: 6cac 2bbd e6df b4bd 9708 24bd 9c7e 543b
000000d0: 3935 58bd 50f2 493d e253 c8bd 14af b5bb
000000e0: 782b 60bc cda5 94bc 7b93 0a3d 874e 8cbc
000000f0: c58e c4bb 4565 99bc 7c0f 0b3d a6cc 5abc
00000100: 43ee a8bc 6194 c6bc 383f 08bd cb8f 983c
00000110: c197 2dbd 639e 223d f8b3 b9bc 673b 3dbd
00000120: c94a 693c 5875 cdbc d6c8 493d c5e7 8e3c
00000130: ed57 9c3c 6b49 45bd 791f b23c 53de 2d3b
00000140: d606 703c b9e2 08bd d764 e33c b076 fe3a
00000150: 9ea5 283d 79c1 793d f4c7 32ba e6dd ddbc
00000160: 9cd8 033d ff58 1cbd 8e59 35bd 77d2 ff3c
00000170: aac5 94bc cc1e 89bc 7579 a13c e68e 78bd
00000180: 98fc d43c 8062 eebc 2937 f3bb 5212 a13d
00000190: 6395 66bc 5b62 ad3c eef5 da3c ec23 24bc
000001a0: cbf6 7e3c ac39 7dbd b1d2 8d3d cbb3 97bc
000001b0: 1039 2dbc c355 08bb fb8c 34bc 76b1 aabb
000001c0: 7e35 0dbd 03bf be3c c8b5 333d 602f 36bd
000001d0: 3958 623c be9b 333d 75c4 ec3c e024 2ebc
000001e0: 3ee3 d0bc cde5 083d c948 cdbc 5a94 1ebd
000001f0: 56e8 9dbd 563d ffbb da44 08bb 1e55 92bc
00000200: d189 e93c 8471 f7bc d473 c53c c5e8 60bd
00000210: 5fd1 313d 662a 9f3d eab0 c03d be60 35bd
00000220: 3c48 db3b 292b 9abc db04 0ebd 92d0 27bd
00000230: f5bc a0bb 12eb 4f3d 9307 033d b373 8f3c
00000240: bb95 a63c 8c54 343b b94f 743d 9812 04bc
00000250: 142c 273d ef55 2ebc db6a cf3c 0972 3abd
00000260: f736 9a3c c50c db3c d87f bd3a d0f7 a1bc
00000270: 2058 483d be90 36bd 8afc 48bd 907a 6bbd
00000280: 34d9 84bc d2b1 d6bc 1af7 f83c 97f9 b0bc
00000290: bf23 d5bb f9a6 c83c d622 383d febe f43b
000002a0: dab9 9a3c ed19 0c3d 3350 a5bc bb6b 1fbd
000002b0: 127f 633c f20f d4bd 3e4b 853c 56ef 65bc
000002c0: 4f57 5a3d 23b7 133d c14f 84bd 0bec 1c3d
000002d0: b7dd 7d3d eafa 2fbd b102 00bc d98c 5abd
000002e0: de11 4fbc 37a2 61bd c76b 243d 5fd7 173d
000002f0: d8a5 27bd 4ca5 393d f0e4 bdbc 8100 3a3d
00000300: 8c09 1b3d b03e 6d3d 77c6 d2bc 15fb e93c
00000310: 4c4e 5b3d 27c7 9ebb 0d61 993d 64d8 f8bc
00000320: 2ee9 80bc 1c1e b5bc 7abf f3bc ba23 0a3d
00000330: 7a6f 88bd 82b7 5f3d 2053 fa3c a606 fabc
00000340: 2122 a7bc 4b41 85bd 667e 3abc 8cb6 443d
00000350: 2fc8 263b 74d4 90bb f5cf fa3b 528d 563d
00000360: fc6b 633d a3c7 af3d 7c48 9a3c 3bb5 5f3c
00000370: 2fe0 2ebd 0fef c0bc 0951 cf3d 43dd 4e3d
00000380: 58d8 d23d 260e e4bc 3bf7 c9bb f5d0 55bd
00000390: def3 24bd 0eb7 dfbb cd39 033d 0af9 87bc
000003a0: 81a0 243d 3cbe 483d 10d4 a2bd 2048 8c3d
000003b0: 9daa 2dbc a06c 4ebd c0ac 05ba 2a6e b13d
000003c0: 9600 2bbd c853 5ebc 506e 53bd b6d8 c7bc
000003d0: 34b9 de3c 9333 233c 3884 27bc 36c8 173b
000003e0: b24b 2ebd e28a 33bb 730c b63c e2cd 273d
000003f0: 1a07 d23c 4818 603c 8f77 713d 17a6 25bc

st_gcn_networks.2.gcn.conv.bias f4 [48]
-0.010563619 0.00936536 -0.0108224405 0.00065580785 0.00014652428 -0.009510448 0.028863255 -0.015116934
-0.0073694065 -0.0064702714 -0.005078303 -0.011265222 -0.026484393 -0.009269667 0.005321886 0.008439387
-0.049434893 -0.006886134 -0.0010099522 0.013832617 0.0002579071 -0.015307943 -0.009618954 -0.014422586
-0.045380738 -0.0068544815 -0.020034513 -0.03612433 0.014382249 0.0051234732 -0.011125291 -0.014396792
0.01168614 0.022426696 -0.008770295 0.0058790995 -0.04063405 0.009223685 0.002563152 -0.009417387
0.0017933534 0.003946907 -0.011204777 -0.03212561 0.027363818 -0.012635311 0.019327516 0.010938561
00000000: 0813 2dbc 2b71 193c 9b50 31bc 85ea 2b3a
00000010: 50a4 1939 b6d1 1bbc a272 ec3c 04ad 77bc
00000020: 107b f1bb 9204 d4bb e567 a6bb c491 38bc
00000030: ccf5 d8bc cddf 17bc 3763 ae3b 5b45 0a3c
00000040: 3e7c 4abd 14a5 e1bb 5f60 84ba 33a2 623c
00000050: b437 8739 2bce 7abc d198 1dbc b64c 6cbc
00000060: 27e1 39bd 8f9b e0bb 6b1f a4bc 1bf7 13bd
00000070: 86a3 6b3c cfe2 a73b da46 36bc 86e0 6bbc
00000080: 3977 3f3c 31b8 b73c 49b1 0fbc 76a5 c03b
00000090: e46f 26bd f01e 173c 8efa 273b 624b 1abc
000000a0: f40e eb3a 0e55 813b 3e94 37bc 2596 03bd
000000b0: 162a e03c 5604 4fbc bd54 9e3c a637 333c

st_gcn_networks.2.tcn.0.weight f4 [16]
0.19662522 0.11353582 0.1556851 0.1253499 0.07712949 0.21663351 0.16516602 0.1675811
0.15484469 0.14794858 0.13354978 0.17351364 0.14932913 0.15060338 0.106470354 0.10777318
00000000: 1f58 493e 7885 e83d ea6b 1f3e b95b 003e
00000010: 11f6 9d3d 2dd5 5d3e 4821 293e 619a 2b3e
00000020: 9b8f 1e3e d57f 173e 46c1 083e 8fad 313e
00000030: bce9 183e c637 1a3e 210d da3d 2fb8 dc3d

st_gcn_networks.2.tcn.0.bias f4 [16]
-0.02448656 -0.010857875 -0.04001441 -0.029233662 -0.0044223825 -0.029049037 -0.033386026 -0.039757915
-0.039500397 -0.034880046 -0.04628284 -0.035506684 -0.042346973 -0.03596877 -0.01172625 -0.040407624
00000000: 0a98 c8bc 3be5 31bc 26e6 23bd 6f7b efbc
00000010: a2e9 90bb 3ff8 edbc c9bf 08bd 32d9 22bd
00000020: 2bcb 21bd 61de 0ebd 1393 3dbd 756f 11bd
00000030: 0574 2dbd fd53 13bd 751f 40bc 7782 25bd

st_gcn_networks.2.tcn.0.running_mean f4 [16]
-0.0014158934 0.00043412138 -0.00052859646 -0.00061201537 -0.0011091317 -0.0027365347 -0.00087967975 -0.0016290528
-0.0010060477 -0.00032633467 -0.0011337671 -0.0017127814 0.0004923214 -0.00059982453 0.00040885792 0.00074121985
00000000: 8095 b9ba c99a e339 8291 0aba a86f 20ba
00000010: 4960 91ba 6f57 33bb 4f9a 66ba f185 d5ba
00000020: 5cdd 83ba e617 abb9 e99a 94ba 687f e0ba
00000030: 210f 013a 8b3d 1dba fb5b d639 6c4e 423a

st_gcn_networks.2.tcn.0.running_var f4 [16]
4.945896e-06 2.2440513e-06 2.4746973e-06 4.388674e-06 3.186871e-06 1.2424421e-05 3.2085532e-06 2.6102887e-06
2.9692026e-06 2.6840287e-06 2.3285406e-06 3.7685188e-06 2.1491878e-06 2.391312e-06 1.7202096e-06 2.6279047e-06
00000000: ecf4 a536 8298 1636 fa12 2636 6c42 9336
00000010: 07de 5536 7b72 5037 8652 5736 6b2c 2f36
00000020: 8342 4736 431f 3436 0644 1c36 a9e6 7c36
00000030: c43a 1036 6d7a 2036 f4e1 e635 0f5b 3036

st_gcn_networks.2.tcn.2.weight f4 [16, 16, 9, 1]
-0.020286286 -0.011303683 -0.01063232 -0.01713184 0.0035215137 0.022368321 -0.023646511 -0.035902765
-0.056819007 -0.010661652 0.019810362 0.03640921 -0.04431949 0.0126751615 0.008324903 0.008966846
0.0011100429 0.009620161 -0.0045536878 0.009059026 0.030972505 0.008659115 0.0054499735 -0.039175253
-0.001718884 0.01015033 -0.0022549604 -0.010765068 -0.01937576 0.024230937 -0.0097962925 -0.015255356
0.005469432 -0.019461082 -0.016138375 0.013194513 0.03842849 0.028698964 0.0056609707 -0.009131988
-0.0013955502 -0.022228016 -0.012073763 -0.017014863 -0.034180332 0.05332542 -0.011987433 0.010954034
-0.0072511192 -0.0070206854 0.016010582 -0.0030153533 0.0030585087 0.028329635 -0.008634917 0.02516423
0.012691437 0.02481403 0.013396464 -0.0038565844 -0.0014642733 0.025530754 0.014897369 0.009037415
-0.017069772 -0.016585145 0.006672888 0.007556851 -0.024110481 0.013859964 0.007673144 -0.015753267
-0.015033479 0.029602095 0.033894572 0.018227326 0.0033701933 -0.011820984 0.021201326 0.0152940955
-0.017026775 -0.030145463 0.03565491 -0.031291567 0.020594811 -0.058246493 -0.02661849 0.023712635
-0.019584998 -0.025624216 -0.012433986 0.011276226 -0.015271653 -0.01061369 0.012663228 -0.011075882
0.020543557 0.021895273 -0.036927648 0.025131438 -0.0063919993 0.002567408 -0.036741726 -0.023481352
0.016916502 -0.087036274 -0.0070178816 0.036890395 -0.0116741415 0.010075931 -0.0113162175 -0.025220867
0.014738135 -0.049204707 0.0070849354 0.003368021 -0.009639456 -0.0037456092 0.011580731 -0.03995193
-0.0038816608 0.02280864 7.411213e-05 -0.04750399 -0.0031915447 0.042189263 -0.037885554 -0.016124668
-0.013500969 -0.0012117212 -0.0012969937 -0.008818239 0.00071759976 -0.020485327 -0.009987446 0.0062640477
-0.00721828 -0.005472873 0.016107861 0.026172375 -0.023194352 -0.0011148459 -0.032316867 -0.016651856
-0.0020704332 -0.019760888 0.011114225 0.008276095 0.017928388 0.030516168 0.03625115 0.0022365276
0.05333405 -0.033942856 -0.001224488 0.006558961 -0.028558308 -0.008541922 0.0047991467 -0.05250379
0.013547882 -0.0053076847 -0.003890719 0.018397387 -0.018669536 0.013755232 0.006601537 -0.028098486
0.0053092814 -0.0369556 -0.039873607 -0.037714142 -0.02323817 -0.03897561 0.04287184 -0.00062892505
0.0020450435 -0.015858153 0.010213679 -0.0408831 0.018245758 -0.061894745 -0.053483605 -0.021728883
0.005967899 -0.03839323 0.0027335917 0.01859618 0.014873886 0.009135868 -0.0076247933 -0.0061673047
-0.021518484 -0.020395838 -0.035311196 -0.039754644 -0.0868957 -0.047395784 0.0007286818 0.036977876
0.0030255148 0.00668472 0.028876703 0.015111624 0.043609668 -0.045613848 0.039578337 0.017995153
-0.011654622 -0.018122064 -0.020602467 -0.034006726 -0.020453626 -0.008311099 -0.014714621 -0.023433086
-0.006214729 -0.0143477665 0.001654273 -0.012202385 0.022256909 -0.035335224 -0.03628548 -0.0060242326
-0.031140847 -0.005892039 -0.03160881 -0.05718997 -0.017511908 -0.0032493898 0.027051335 -0.009665778
-0.009396794 -0.019443432 -0.018574188 0.017990611 -0.008271714 -0.007850492 0.021840988 -0.01970993
-0.032244686 -0.054318268 -0.044437535 -0.00011365725 0.005418555 0.01338078 0.032451972 -0.0009377696
0.007358019 -0.0027112626 -0.0021070377 0.028469471 0.010518536 0.0009455177 -0.026698394 -0.003877266
00000000: 6d2f a6bc 1533 39bc 2f33 2ebc 1358 8cbc
00000010: 32c9 663b c53d b73c 54b6 c1bc c70e 13bd
00000020: 0cbb 68bd 36ae 2ebc 5749 a23c d321 153d
00000030: 5b88 35bd 7bab 4f3c 2d65 083c aee9 123c
00000040: dc7e 913a e19d 1d3c 1a37 95bb 4f6c 143c
00000050: 0dba fd3c f6de 0d3c b195 b23b 3b76 20bd
00000060: 2d4c e1ba 924d 263c f5c7 13bb f85f 30bc
00000070: eab9 9ebc f57f c63c a180 20bc 9af1 79bc
00000080: ec38 b33b d96c 9fbc a034 84bc cc2d 583c
00000090: 3167 1d3d 171a eb3c aa7f b93b 559e 15bc
000000a0: e5ea b6ba 8717 b6bc 08d1 45bc c162 8bbc
000000b0: ad00 0cbd c16b 5a3d f066 44bc 8c78 333c
000000c0: cc9a edbb c70d e6bb a028 833c 3c9d 45bb
000000d0: 4371 483b 8d13 e83c 7879 0dbc 3725 ce3c
000000e0: bfef 4f3c cb46 cb3c d87c 5b3c c0be 7cbb
000000f0: dcec bfba df25 d13c 1814 743c aa11 143c
00000100: e8d5 8bbc 92dd 87bc 3ea8 da3b 769f f73b
00000110: 5883 c5bc e714 633c ff6e fb3b ff0c 81bc
00000120: fb4e 76bc 1880 f23c 09d5 0a3d 7951 953c
00000130: 76de 5c3b cdac 41bc 67ae ad3c 1694 7a3c
00000140: bc7b 8bbc 9ef3 f6bc e20a 123d 962b 00bd
00000150: 73b6 a83c e093 6ebd 050f dabc 0041 c23c
00000160: b870 a0bc e0e9 d1bc ebb7 4bbc ebbf 383c
00000170: f535 7abc 0be5 2dbc 6e79 4f3c 9e77 35bc
00000180: f64a a83c b75d b33c 7241 17bd 72e0 cd3c
00000190: fa73 d1bb f541 283b 7e7e 16bd f75b c0bc
000001a0: 7a94 8a3c 1340 b2bd 42f6 e5bb 621a 173d
000001b0: e644 3fbc 8515 253c a867 39bc fe9b cebc
000001c0: 3878 713c e08a 49bd bf28 e83b 04ba 5c3b
000001d0: cfee 1dbc e578 75bb 1bbd 3d3c a3a4 23bd
000001e0: 7663 7ebb 2fd9 ba3c a66c 9b38 8b93 42bd
000001f0: 3c29 51bb a6ce 2c3d e22d 1bbd e117 84bc
00000200: 2b33 5dbc 9ed2 9eba e3ff a9ba 607a 10bc
00000210: 4e1d 3c3a d8d0 a7bc 62a2 23bc a442 cd3b
00000220: 5287 ecbb c955 b3bb a2f4 833c 7367 d63c
00000230: 1502 bebc 0520 92ba b15e 04bd 7969 88bc
00000240: 1bb0 07bb 96e1 a1bc 7018 363c 7598 073c
00000250: 8ede 923c 0bfd f93c 167c 143d b592 123b
00000260: ce74 5a3d aa07 0bbd 007f a0ba 8dec d63b
00000270: 1df3 e9bc 6bf3 0bbc 2942 9d3b 370e 57bd
00000280: f0f7 5d3c 16ec adbb 6ffb 7ebb 1eb6 963c
00000290: dbf0 98bc a05d 613c b551 d83b cc2e e6bc
000002a0: 7bf9 ad3b c15e 17bd 8252 23bd 257a 1abd
000002b0: fa5d bebc e4a4 1fbd 629a 2f3d 72de 24ba
000002c0: 2306 063b f5e8 81bc 4657 273c 0a75 27bd
000002d0: 2178 953c 5885 7dbd a011 5bbd c500 b2bc
000002e0: 5e8e c33b 3842 1dbd 0f26 333b 0457 983c
000002f0: 99b1 733c 9cae 153c 67d9 f9bb 1a17 cabb
00000300: 8847 b0bc 2c15 a7bc 79a2 10bd c4d5 22bd
00000310: 5ff6 b1bd 1522 42bd 0205 3f3a 1d76 173d
00000320: b747 463b 7f0b db3b d68e ec3c bf96 773c
00000330: 0da0 323d 96d5 3abd e51c 223d 926a 933c
00000340: 07f3 3ebc b974 94bc 81c6 a8bc a34a 0bbd
00000350: 5d8e a7bc 472b 08bc 9815 71bc bef6 bfbc
00000360: eda4 cbbb e512 6bbc 31d4 d83a 83ec 47bc
00000370: 1f54 b63c abbb 10bd 15a0 14bd ed66 c5bb
00000380: 171b ffbc 0112 c1bb 3d78 01bd 0840 6abd
00000390: 2275 8fbc b7f3 54bb c39a dd3c 365d 1ebc
000003a0: 03f5 19bc d547 9fbc e528 98bc 0c61 933c
000003b0: 1586 07bc 5a9f 00bc dfeb b23c b876 a1bc
000003c0: 0113 04bd d57c 5ebd 2204 36bd 455b eeb8
000003d0: 228e b13b 0f3b 5b3c 5cec 043d a7d4 75ba
000003e0: 891b f13b 70af 31bb 3a16 0abb cf38 e93c
000003f0: f055 2c3c 9edc 773a 97b6 dabc bb19 7ebb

st_gcn_networks.2.tcn.2.bias f4 [16]
3.2182565e-05 -4.5467463e-05 3.814057e-05 -1.2190894e-07 5.6244942e-05 -3.4136985e-05 -7.592996e-05 -7.20123e-06
4.6881283e-05 1.3724117e-05 -2.8188388e-05 7.620339e-05 1.608082e-05 3.65361e-05 2.8653181e-05 3.6580325e-06
00000000: c4fb 0638 51b4 3eb8 20f9 1f38 13e6 02b4
00000010: 8ce8 6b38 4f2e 0fb8 963c 9fb8 18a2 f1b6
00000020: 65a2 4438 a240 6637 1a76 ecb7 62cf 9f38
00000030: 4ce5 8637 573e 1938 3d5c f037 857c 7536

st_gcn_networks.2.tcn.3.weight f4 [16]
0.17391059 0.19480276 0.13709871 -7.8159756e-05 0.21295553 0.15277892 0.19782253 0.130232
0.11688785 0.15418029 0.20648901 0.12389555 0.21995278 0.11335744 0.13529468 -0.0003564349
00000000: 9e15 323e 607a 473e 9b63 0c3e b3e9 a3b8
00000010: 0411 5a3e 1472 1c3e fd91 4a3e 8a5b 053e
00000020: e662 ef3d 70e1 1d3e db71 533e f3bc fd3d
00000030: 4d3b 613e f227 e83d b08a 0a3e e2df bab9
