weights_arm/174.pt (torch, 70926 bytes, 80 tensors)

A f4 [3, 9, 9]
000000 00 00 00 3f 00 00 00 00 00 00 00 00 00 00 00 00
       0.5 0.0 0.0 0.0
000010 00 00 00 00 00 00 00 00 00 00 00 00 00 00 00 00
       0.0 0.0 0.0 0.0
000020 00 00 00 00 00 00 00 00 cd cc 4c 3e 00 00 00 00
       0.0 0.0 0.2 0.0
000030 00 00 00 00 00 00 00 00 00 00 00 00 00 00 00 00
       0.0 0.0 0.0 0.0
000040 00 00 00 00 00 00 00 00 00 00 00 00 00 00 00 00
       0.0 0.0 0.0 0.0
000050 ab aa aa 3e 00 00 00 00 00 00 00 00 00 00 00 00
       0.33333334 0.0 0.0 0.0
000060 00 00 00 00 00 00 00 00 00 00 00 00 00 00 00 00
       0.0 0.0 0.0 0.0
000070 00 00 00 00 00 00 00 00 ab aa aa 3e 00 00 00 00
       0.0 0.0 0.33333334 0.0
000080 00 00 00 00 00 00 00 00 00 00 00 00 00 00 00 00
       0.0 0.0 0.0 0.0
000090 00 00 00 00 00 00 00 00 00 00 00 00 00 00 00 00
       0.0 0.0 0.0 0.0
0000a0 00 00 00 3f 00 00 00 00 00 00 00 00 00 00 00 00
       0.5 0.0 0.0 0.0
0000b0 00 00 00 00 00 00 00 00 00 00 00 00 00 00 00 00
       0.0 0.0 0.0 0.0
0000c0 00 00 00 00 00 00 00 00 ab aa aa 3e 00 00 00 00
       0.0 0.0 0.33333334 0.0
0000d0 00 00 00 00 00 00 00 00 00 00 00 00 00 00 00 00
       0.0 0.0 0.0 0.0
0000e0 00 00 00 00 00 00 00 00 00 00 00 00 00 00 00 00
       0.0 0.0 0.0 0.0
0000f0 ab aa aa 3e 00 00 00 00 00 00 00 00 00 00 00 00
       0.33333334 0.0 0.0 0.0
000100 00 00 00 00 00 00 00 00 00 00 00 00 00 00 00 00
       0.0 0.0 0.0 0.0
000110 00 00 00 00 00 00 00 00 00 00 00 3f 00 00 00 00
       0.0 0.0 0.5 0.0
000120 00 00 00 00 00 00 00 00 00 00 00 00 00 00 00 00
       0.0 0.0 0.0 0.0
000130 00 00 00 00 00 00 00 00 00 00 00 00 00 00 00 00
       0.0 0.0 0.0 0.0
000140 00 00 00 3f 00 00 00 00 cd cc 4c 3e 00 00 00 00
       0.5 0.0 0.2 0.0
000150 00 00 00 00 00 00 00 00 00 00 00 00 00 00 00 00
       0.0 0.0 0.0 0.0
000160 00 00 00 00 00 00 00 00 00 00 00 00 00 00 00 00
       0.0 0.0 0.0 0.0
000170 00 00 00 00 00 00 00 00 00 00 00 00 00 00 00 00
       0.0 0.0 0.0 0.0
000180 00 00 00 00 00 00 00 00 00 00 00 00 00 00 00 00
       0.0 0.0 0.0 0.0
000190 cd cc 4c 3e 00 00 00 00 00 00 00 00 00 00 00 00
       0.2 0.0 0.0 0.0
0001a0 00 00 00 00 00 00 00 00 00 00 00 00 00 00 00 00
       0.0 0.0 0.0 0.0
0001b0 00 00 00 00 00 00 00 00 ab aa aa 3e 00 00 00 00
       0.0 0.0 0.33333334 0.0
0001c0 00 00 00 3f 00 00 00 00 00 00 00 00 00 00 00 00
       0.5 0.0 0.0 0.0
0001d0 00 00 00 00 00 00 00 00 00 00 00 00 00 00 00 00
       0.0 0.0 0.0 0.0
0001e0 ab aa aa 3e 00 00 00 00 00 00 00 00 00 00 00 00
       0.33333334 0.0 0.0 0.0
0001f0 00 00 00 00 00 00 00 00 00 00 00 00 cd cc 4c 3e
       0.0 0.0 0.0 0.2
000200 00 00 00 00 00 00 00 00 00 00 00 00 00 00 00 00
       0.0 0.0 0.0 0.0
000210 00 00 00 00 00 00 00 00 00 00 00 00 00 00 00 00
       0.0 0.0 0.0 0.0
000220 00 00 00 00 00 00 00 00 00 00 00 00 00 00 00 00
       0.0 0.0 0.0 0.0
000230 ab aa aa 3e 00 00 00 00 00 00 00 3f 00 00 00 00
       0.33333334 0.0 0.5 0.0
000240 00 00 00 00 00 00 00 00 00 00 00 00 00 00 00 00
       0.0 0.0 0.0 0.0
000250 00 00 00 00 00 00 00 00 ab aa aa 3e 00 00 00 00
       0.0 0.0 0.33333334 0.0
000260 00 00 00 00 00 00 00 00 cd cc 4c 3e 00 00 00 00
       0.0 0.0 0.2 0.0
000270 00 00 00 00 00 00 00 00 00 00 00 00 00 00 00 00
       0.0 0.0 0.0 0.0
000280 00 00 00 00 00 00 00 00 00 00 00 00 00 00 00 00
       0.0 0.0 0.0 0.0
000290 00 00 00 00 00 00 00 00 00 00 00 00 00 00 00 00
       0.0 0.0 0.0 0.0
0002a0 00 00 00 00 00 00 00 00 00 00 00 00 00 00 00 3f
       0.0 0.0 0.0 0.5
0002b0 00 00 00 00 ab aa aa 3e 00 00 00 00 00 00 00 00
       0.0 0.33333334 0.0 0.0
0002c0 ab aa aa 3e 00 00 00 00 00 00 00 00 00 00 00 3f
       0.33333334 0.0 0.0 0.5
0002d0 00 00 00 00 00 00 00 00 00 00 00 00 ab aa aa 3e
       0.0 0.0 0.0 0.33333334
0002e0 00 00 00 00 00 00 00 00 00 00 00 00 00 00 00 00
       0.0 0.0 0.0 0.0
0002f0 00 00 00 00 00 00 00 00 00 00 00 00 00 00 00 00
       0.0 0.0 0.0 0.0
000300 00 00 00 00 00 00 00 00 00 00 00 00 00 00 00 00
       0.0 0.0 0.0 0.0
000310 00 00 00 00 00 00 00 00 00 00 00 00 00 00 00 00
       0.0 0.0 0.0 0.0
000320 00 00 00 00 00 00 00 00 00 00 00 00 00 00 00 00
       0.0 0.0 0.0 0.0
000330 00 00 00 00 00 00 00 00 00 00 00 00 00 00 00 00
       0.0 0.0 0.0 0.0
000340 00 00 00 00 00 00 00 00 00 00 00 00 00 00 00 00
       0.0 0.0 0.0 0.0
000350 00 00 00 00 ab aa aa 3e 00 00 00 00 00 00 00 00
       0.0 0.33333334 0.0 0.0
000360 00 00 00 00 00 00 00 00 00 00 00 00 00 00 00 00
       0.0 0.0 0.0 0.0
000370 00 00 00 00 00 00 00 00 00 00 00 00 00 00 00 00
       0.0 0.0 0.0 0.0
000380 00 00 00 00 00 00 00 00 00 00 00 00 00 00 00 00
       0.0 0.0 0.0 0.0
000390 00 00 00 00 00 00 00 00 00 00 00 00 00 00 00 00
       0.0 0.0 0.0 0.0
0003a0 00 00 00 00 00 00 00 00 00 00 00 00 00 00 00 00
       0.0 0.0 0.0 0.0
0003b0 00 00 00 00 00 00 00 00 00 00 00 00 00 00 00 00
       0.0 0.0 0.0 0.0
0003c0 00 00 00 00 00 00 00 00 00 00 00 00
       0.0 0.0 0.0

data_bn.weight f4 [27]
000000 c7 1c 9c 3d b7 36 1f 3d 67 3b 2a 3d a5 d5 75 3e
       0.07622676 0.03887054 0.041560557 0.2400728
000010 c0 3e 44 3d 97 c5 4c 3d b7 0f 93 3e e6 54 3e 3e
       0.047911406 0.049993124 0.28722927 0.18587074
000020 a2 0e 47 3e 0d 74 df 3e d3 e0 00 3f a8 a2 b1 3e
       0.19439176 0.43643227 0.50343055 0.3469441
000030 f9 1d fd 3e 62 95 00 3f da 87 b1 3e 0e 5f 88 3e
       0.4943693 0.5022794 0.3467396 0.2663502
000040 49 6c 2a 3e bb 1d 6b 3e ef a4 ec 3e bf 0d c5 3e
       0.1664287 0.2296056 0.46219584 0.3848705
000050 e1 aa ad 3e 57 f7 f4 3e 88 7c ce 3e df fa a9 3e
       0.33919433 0.47844955 0.40329385 0.33199212
000060 fe 90 5d 3e 42 1a 08 3d 4e aa 46 3d
       0.21637341 0.033228166 0.04850226

data_bn.bias f4 [27]
000000 ad 7b 9c bc 99 29 e0 3c 39 25 91 bc eb 1b 59 bc
       -0.019101942 0.027363585 -0.017717944 -0.013251285
000010 29 4b 85 bc df 70 b0 ba ba 5c 31 3d 13 50 5b 3c
       -0.01627119 -0.0013461373 0.04330132 0.01338579
000020 12 6b 66 3c 2a 4f a6 bc c8 6b 42 3b 5c 16 7e 3c
       0.0140636135 -0.02030142 0.0029666293 0.015508261
000030 d9 34 3f bc 04 68 21 3c c6 19 70 bb da 7d 9e 3c
       -0.011670315 0.009851459 -0.0036636456 0.01934712
000040 7f e3 2c 3d 0c 1c 07 3d b5 49 fd 3b 4b 33 9a bc
       0.042209145 0.032985732 0.007729734 -0.018823287
000050 e8 64 e4 bc 52 7f b7 bc 6b 08 d9 bc bc a6 c9 3b
       -0.027880147 -0.022399578 -0.026493272 0.0061539095
000060 dc 25 ef 3b 28 9d 81 3c c3 96 42 3c
       0.0072982144 0.015822008 0.011876765

data_bn.running_mean f4 [27]
000000 b4 90 b2 42 bd 58 89 42 32 e9 96 41 8e 50 c4 42
       89.28262 68.67332 18.863865 98.15733
000010 9f 29 96 42 94 99 a1 41 0e 3b af 42 bb 9e 8d 42
       75.08129 20.19999 87.61534 70.81002
000020 7e b2 9a 41 e5 ea c2 42 77 6b 91 42 54 a8 9b 41
       19.337154 97.45878 72.70989 19.457191
000030 76 a2 d1 42 c0 15 8d 42 c8 b6 97 41 c9 ea d8 42
       104.81731 70.54248 18.964249 108.458565
000040 07 c4 9e 42 57 66 a8 41 e1 b1 02 43 07 ad aa 42
       79.382866 21.04997 130.69484 85.337944
000050 b0 6e ad 41 f8 6b 01 43 e2 5c a0 42 96 5e a4 41
       21.679047 129.42175 80.18141 20.546185
000060 f2 1a d1 42 c1 d2 a9 42 ee 2d b0 41
       104.55263 84.91163 22.022427

data_bn.running_var f4 [27]
000000 b3 26 47 46 07 f0 95 46 61 bd c2 45 69 dd 50 46
       12745.675 19192.014 6231.6724 13367.353
000010 6b 3e a6 46 dc f0 d7 45 d1 c4 1d 46 9b 3e 91 46
       21279.209 6910.1074 10097.204 18591.303
000020 4f 8f c3 45 3f 84 46 46 ed c3 88 46 25 da bc 45
       6257.9136 12705.062 17505.963 6043.268
000030 06 94 61 46 c3 ba 7a 46 d0 ca b1 45 0d 71 8a 46
       14437.006 16046.69 5689.3516 17720.525
000040 ad 28 bd 46 b5 86 ed 45 07 2a b9 46 c2 a2 c2 46
       24212.338 7600.8384 23701.014 24913.379
000050 d8 c6 f2 45 f2 ee b0 46 82 81 a8 46 0d cd d7 45
       7768.8555 22647.473 21568.754 6905.6313
000060 8c 3c 8f 46 0b cb b2 46 3f ef ee 45
       18334.273 22885.521 7645.906

st_gcn_networks.0.gcn.conv.weight f4 [24, 3, 1, 1]
000000 c4 1b 7a bd 57 c8 92 bb 59 64 e2 3a a7 bd 18 3e
       -0.061061636 -0.004479449 0.0017272338 0.14916097
000010 32 96 64 bd 57 31 81 3d 2e 90 81 3d 9b 6f 69 3b
       -0.0558073 0.06308239 0.06326328 0.00356195
000020 9e a7 46 3d ac 85 d3 bc d8 0c 3e bc 65 7e 00 3e
       0.048499696 -0.025820576 -0.011599742 0.12548216
000030 32 be d8 3c 44 3b 70 bc 02 56 52 be c2 14 60 3e
       0.02645788 -0.0146625675 -0.20540622 0.21882918
000040 b1 15 92 3e b5 0c a0 3d b8 9c 65 be 54 37 20 3e
       0.28532174 0.07814924 -0.22423065 0.15646106
000050 51 3e 8e 3d ff bc 40 be 82 94 93 3d 0b 27 07 be
       0.0694548 -0.18822096 0.0720606 -0.13198487
000060 d3 4a 5b bd b5 6e 44 bd 02 c4 84 bc b7 e2 74 be
       -0.053538155 -0.04795714 -0.016206745 -0.2391461
000070 b8 82 aa bd b3 d2 06 3d 3a 17 28 3e 37 0c 46 bc
       -0.08325714 0.032915782 0.1641511 -0.012087873
000080 28 20 97 bc ef ef 06 be ac 8d 08 be 20 93 9d 3b
       -0.01844795 -0.13177465 -0.13335294 0.0048087984
000090 4a 0b 86 ba dc 06 c2 bc d4 5c 40 3e 8e eb 58 bd
       -0.0010226753 -0.023684911 0.18785411 -0.052959017
0000a0 f4 5f 6c be 9f a5 06 be 6c 03 86 3d aa ea 7a 3d
       -0.23083478 -0.13149117 0.065436214 0.06125895
0000b0 44 2d 38 3d 95 6d 33 3e 12 ce cb bd 2a fa 24 3e
       0.044965044 0.17522271 -0.09951414 0.16111055
0000c0 b0 3d e1 bc b1 f0 24 bb 30 be 59 3c c5 9d 40 bd
       -0.027495235 -0.0025167877 0.013289973 -0.04702546
0000d0 78 3b b2 bc 48 ad 97 bd 74 11 1c 3e 38 12 09 bd
       -0.021756873 -0.07406098 0.15241033 -0.03346464
0000e0 dd 3a 36 3d fd 7c c8 bc ee 44 9d bc ea 57 0c 3c
       0.04448973 -0.024473662 -0.019197907 0.008565882
0000f0 85 89 57 be 53 c7 30 3c c9 35 1f bc 38 c5 2d 3d
       -0.21048553 0.01078971 -0.009717413 0.04242441
000100 d5 e2 7d bd d3 a4 dc 3d 50 bc d9 3c b5 49 84 bd
       -0.061983902 0.10773625 0.026579052 -0.06459371
000110 6e b2 f5 3b 5f d9 d9 bd 0f f3 14 3e 6a 52 50 3d
       0.007498077 -0.10637163 0.14545844 0.050859846

st_gcn_networks.0.gcn.conv.bias f4 [24]
000000 e3 6e 14 3d 32 dc 2e 3d fd 9c 32 3d 03 4d 93 3d
       0.036238562 0.042690463 0.043606747 0.07192423
000010 6a 56 7f bc 76 6e 29 be 1a f5 88 bc f3 8c f9 3d
       -0.015584568 -0.16546044 -0.016718436 0.12185087
000020 dc 61 80 bd 55 42 99 3c 3b c7 a7 3d b9 86 e0 bc
       -0.06268665 0.018708387 0.08192297 -0.02740799
000030 48 32 cc 3c ed 3f 0f 3e 0a 1b 18 3e be 78 9e bc
       0.02492632 0.1398923 0.14854065 -0.019344684
000040 5c df 8d bc 7e e0 18 be 65 3f 84 3c 6d 3b 70 bd
       -0.01731842 -0.14929387 0.01614351 -0.058650423
000050 ad 4b 1d 3d 13 85 cc 3c da 5f ef bc bc 1e 7b ba
       0.03840225 0.024965798 -0.02922051 -0.000957947

st_gcn_networks.0.tcn.0.weight f4 [8]
000000 58 73 0f 3e e3 f2 95 3e 50 98 be 3e 09 59 80 3e
       0.14008844 0.2928687 0.3722558 0.25067928
000010 6b d8 7b 3e 29 4a a5 3e 82 72 a2 3e 35 38 ab 3e
       0.24594276 0.32283142 0.31727988 0.3344132

st_gcn_networks.0.tcn.0.bias f4 [8]
000000 3d e6 4a 3d 59 2c 16 3d 96 a7 73 3d bb 4e be 3c
       0.04953598 0.036663387 0.059485994 0.023230901
000010 14 7a 23 bd 3c 8b 64 3d 95 93 7f bb 0d a8 24 bd
       -0.039911345 0.055796847 -0.0038997878 -0.04019933

st_gcn_networks.0.tcn.0.running_mean f4 [8]
000000 2b 5a 40 bb cb 7b 6a 3a 52 07 75 3c 00 bf 71 3b
       -0.002935062 0.0008944838 0.014955359 0.0036887527
000010 17 62 13 3b f6 0e 8f bb 9b 85 52 3c ed bf 57 3c
       0.0022488886 -0.004365797 0.012849237 0.013168317

st_gcn_networks.0.tcn.0.running_var f4 [8]
000000 a5 49 ab 38 22 2e 30 39 24 b8 86 39 49 f3 56 39
       8.167633e-05 0.00016801854 0.00025695667 0.00020499261
000010 eb 4c 85 37 df 88 47 39 4d da 99 39 89 d2 64 38
       1.5890653e-05 0.00019029107 0.0002934508 5.4555512e-05

st_gcn_networks.0.tcn.2.weight f4 [8, 8, 9, 1]
000000 fb 5f 1f bd 2c 55 8b bc c4 28 de 3c d4 ec 90 3a
       -0.038909893 -0.017008387 0.027119048 0.0011056908
000010 cd 22 31 3c 5c 1d ce bc ba 4f 76 3b 89 15 0e bb
       0.01081152 -0.025160484 0.0037584142 -0.0021680316
000020 7e c2 56 3c 7a 0a 07 3d e8 c8 57 bd 0d a1 fa bc
       0.013107894 0.032968976 -0.052681834 -0.030594373
000030 8a 9b 0a bc 76 56 7a ba 0a 14 99 3c 69 95 1e 3c
       -0.008459935 -0.0009549627 0.018686313 0.009679177
000040 fb 60 96 bb 6c 94 ae bc 0f 48 3b 3d cf 14 4f 3d
       -0.0045891977 -0.021311007 0.045723017 0.050556954
000050 69 39 fb 3c 4e 9e 90 3d b3 08 85 bc 17 b0 c3 3d
       0.030667024 0.07061444 -0.0162395 0.09555071
000060 a6 be 71 bd b5 5f c6 3c 19 e0 67 bd 9b 5a c5 3b
       -0.059019707 0.024215559 -0.0566102 0.006022764
000070 e4 49 b5 bc 7d 6a 86 3d fc 64 c6 3b 81 7d d0 3c
       -0.02212996 0.0656328 0.0060545187 0.02545047
000080 ad 34 eb 3c 91 bf 83 3c 52 2e 37 3d 02 96 f2 3c
       0.028711641 0.016082557 0.04472191 0.029612545
000090 21 da 95 bd 6c 7c a3 bc d8 46 3e 3d f3 d4 c0 bc
       -0.073169954 -0.01995679 0.04645428 -0.023539042
0000a0 10 f6 03 bd f0 0e af 3c 81 bb a8 3c 3f 8f 48 bd
       -0.032217085 0.021369427 0.020597221 -0.048964735
0000b0 98 64 25 3c 1a 25 dd bc 97 83 39 3b e0 08 15 3c
       0.010094784 -0.02699523 0.0028307193 0.009096354
0000c0 e6 17 c5 3c 21 68 12 3d e6 62 57 3c 9a 54 18 bc
       0.024059247 0.035743836 0.013146138 -0.009297514
0000d0 90 47 b5 3c cc 11 2e 3c da d5 fb 3c 83 22 84 3c
       0.02212885 0.01062436 0.03074162 0.016129738
0000e0 c5 21 99 ba d4 52 22 bd d9 6d b3 bc 46 dd 55 bc
       -0.0011683038 -0.039629772 -0.021902965 -0.013053244
0000f0 9c 27 08 bd 53 95 5c 3d c4 2b 02 bc 92 21 c6 bc
       -0.0332409 0.053853344 -0.007945005 -0.02418593
000100 33 01 fe bd 67 59 9a bb 24 7f 4a bd bf 71 fa b9
       -0.124025725 -0.0047103646 -0.049437657 -0.00047768463
000110 db 28 9d bd 6b 71 ad bc f5 7e b2 bc f4 e3 d6 3b
       -0.07673808 -0.021172246 -0.021789053 0.006557936
000120 73 b8 c1 3c fc d1 71 bc 2a 2d ea bb 9b dc 14 bc
       0.023647523 -0.014759537 -0.0071464973 -0.0090858
000130 d3 da 23 3c d4 97 5e 3c ed 8e 60 3d 50 62 46 ba
       0.010000902 0.013586003 0.054823805 -0.000756775
000140 93 dd d1 bb d3 6b ac 3c f2 92 a3 3c 8b 65 3a 3d
       -0.0064045875 0.021047508 0.01996753 0.045506995
000150 6b 1b 62 3c f1 f5 b6 bc b8 ea 23 3a a3 57 e5 3c
       0.013800482 -0.02233407 0.00062529324 0.02799589
000160 6d 3a 73 bb 58 d5 16 3d c9 8e 04 3d ed f0 9e 3d
       -0.0037113682 0.036824554 0.032362733 0.07760797
000170 c5 6a ac 3d b5 8a 0b 3a 26 4c 92 bc fb fb 7c bd
       0.08418802 0.0005323098 -0.017858576 -0.061763745
000180 8e 99 86 bc 43 33 ba 3c 57 de d2 bb 74 1b 45 3d
       -0.016430642 0.022729522 -0.0064351964 0.048121884
000190 25 06 cd bc 5d 57 d2 3c 38 aa 54 3c 78 e3 91 3c
       -0.025027344 0.025676424 0.012980036 0.01780866
0001a0 7a ca 33 3c 20 46 2c 3d f6 17 cb bc 34 ef b5 bb
       0.010973567 0.042059064 -0.024791699 -0.005552197
0001b0 a4 1b 9c 3c c1 2f 98 3c be 44 c1 3c a4 4e 9f 3c
       0.019056149 0.018577458 0.02359235 0.019446678
0001c0 74 53 5d 3c aa 50 d2 bc ac 15 23 3d 4d f2 4e 3d
       0.013508666 -0.02567323 0.03981559 0.050524045
0001d0 84 70 4c 3c 31 ee ba bc 06 28 0f 3d 2f 22 c3 3c
       0.012477998 -0.022818657 0.03495028 0.023820011
0001e0 6d ae 25 bd 96 4d b5 3c 6c 49 08 bd 11 4c 59 bd
       -0.04044955 0.022131722 -0.033273146 -0.05305106
0001f0 50 91 b5 bc c4 ba 63 bc b9 1a 82 bd 2b a5 56 bd
       -0.022164017 -0.013899509 -0.06352753 -0.05240361
000200 9e 57 91 bd ec e0 56 bd ba 84 b1 bc cd c9 19 3d
       -0.0709679 -0.052460596 -0.021669734 0.037545968
000210 98 46 dd 3c 1c 7c 25 bd 41 5e 8a 3d 47 c8 0d 3d
       0.0270112 -0.040401563 0.06756259 0.034614827
000220 0b 51 65 bd 7e de e2 bc 6f 6a b3 bb a3 b3 b4 3c
       -0.05598549 -0.027693983 -0.0054753344 0.022058314
000230 e4 a0 13 bd 25 36 b9 3c 47 fe a9 bc 0d 65 da bc
       -0.03604211 0.022608826 -0.020751132 -0.026659513
000240 ed 5f cc bc 87 dc 1e bc 9d fa 89 bc aa 46 79 3d
       -0.024948085 -0.0096961325 -0.016843135 0.060858406
000250 cd 44 a7 bc f5 25 ee bb 00 78 f9 3c 6b 7f be bc
       -0.020418549 -0.0072677084 0.030452728 -0.023254117
000260 a2 ff 6f bc af 11 38 bb 65 de 9a bb 82 72 84 bc
       -0.01464835 -0.0028086712 -0.0047262185 -0.016167883
000270 16 51 98 3c 22 3b 99 bc 82 64 26 3c 50 b1 dc 3b
       0.018593352 -0.018704955 0.010155799 0.0067350045
000280 32 d9 2b bd 1b 90 17 3c 5f c9 95 3d 53 09 d7 bb
       -0.04195518 0.009250666 0.07313799 -0.006562391
000290 f3 22 99 3b 7e 10 a5 bd 5e cd 73 3d e8 d3 8f bb
       0.0046733557 -0.08059786 0.059522025 -0.004389275
0002a0 d5 bf 43 3d 60 e5 8c bd 0e 9b 06 3d 89 cb e7 3c
       0.047790367 -0.06879687 0.032862715 0.028295295
0002b0 8b d2 d6 bc 72 2a 06 bd 40 70 c4 3c c0 4b 3a 3c
       -0.026223442 -0.032755323 0.023979306 0.011370599
0002c0 c0 68 06 bd d4 d5 d1 b9 08 70 04 bd 74 43 da 3c
       -0.03281474 -0.000400229 -0.032333404 0.026643492
0002d0 11 a8 19 3b a3 4b 74 3c 6a b2 58 3d 53 f4 02 3c
       0.0023446123 0.014910611 0.052904524 0.007992822
0002e0 7d 7d 88 bd 41 2a a7 bc 71 9e d5 bc 93 c3 4c bc
       -0.0666456 -0.02040589 -0.026076527 -0.0124978
0002f0 96 05 8f 3b ac e7 28 bd fc 1e 72 bd 3a b6 68 3d
       0.0043646796 -0.041236565 -0.05911158 0.05681441
000300 27 81 41 bd d1 a9 83 bd fe 5b 31 3c b9 9c 2e 3d
       -0.04724231 -0.06428874 0.010825155 0.04262993
000310 63 f0 55 bd 5a 4a b1 3d 55 d4 b0 3b db 21 0e bd
       -0.052231204 0.086567596 0.0053964057 -0.034700256
000320 8b 1e 81 bd fa 95 58 3d df ae c2 3d 76 af d2 3c
       -0.06304654 0.052877404 0.0950601 0.025718432
000330 47 ff 07 bd 35 8a 17 3d e6 5f 26 3d c3 f6 33 bd
       -0.033202436 0.03699704 0.0406188 -0.043936502
000340 55 a6 cb bc a3 e4 a9 bd 53 51 2e 3d 39 c9 de 39
       -0.024859587 -0.08295562 0.042558026 0.00042493062
000350 03 d8 83 3d 41 18 31 bd e9 20 11 bd 68 ae bc bc
       0.06437685 -0.04323602 -0.035431776 -0.023032382
000360 ee 6a 5a bc da ce 0f bc e0 08 b7 3b ea 6d 92 3b
       -0.013331158 -0.008777345 0.005585775 0.004468669
000370 0f bb af 3c dc 13 90 bc 80 bd 54 bc 03 10 bd bc
       0.021451501 -0.017587595 -0.012984633 -0.023078924
000380 7b 91 29 3c c4 67 81 bb c1 57 96 3c eb 9b 7d bc
       0.010349627 -0.0039491374 0.018352391 -0.015479068
000390 a7 b5 22 bc ca df de 3c 08 65 1c 3d 9c 38 de 3c
       -0.009931005 0.02720632 0.03818229 0.027126603
0003a0 01 8e 87 3b df b7 1c 3d d9 35 80 3c 84 67 39 3c
       0.004136801 0.03826129 0.015650677 0.011316184
0003b0 a1 03 87 3b ab 02 73 bc 36 89 23 bc c9 3a 6e bc
       0.0041203056 -0.014832179 -0.009981444 -0.014540383
0003c0 09 5b 3c 3c fc b6 0f 3c 9a 04 7d bd 5a 20 3f 3c
       0.011496314 0.008771654 -0.061771967 0.011665428
0003d0 81 4b 05 bd 66 72 05 bd 0d 11 45 bd b5 a5 27 bd
       -0.03254271 -0.032579802 -0.048111964 -0.040929515
0003e0 d5 6f 5e bc 0f 1f 21 bd e7 0b 2e bd 57 1c b0 3c
       -0.0135764675 -0.03933626 -0.04249182 0.021497888
0003f0 11 01 b9 bb cc 26 37 bd 79 a4 05 3b bc 5c 1e 3d
       -0.005645879 -0.044714734 0.0020392223 0.038662657

st_gcn_networks.0.tcn.2.bias f4 [8]
000000 8a e0 eb b7 d8 37 af b7 10 5f 38 b6 1b 8e 3a b7
       -2.8118742e-05 -2.088763e-05 -2.747347e-06 -1.111955e-05
000010 67 34 ce b7 51 f9 33 b6 af 95 bb 38 5e 47 77 b7
       -2.4581515e-05 -2.68182e-06 8.9447356e-05 -1.4738964e-05

st_gcn_networks.0.tcn.3.weight f4 [8]
000000 5e 3b a8 3e 46 17 94 3e 2c 87 85 3e 75 ac 67 3e
       0.32857794 0.28924006 0.2607969 0.22624381
000010 cb 37 43 3e 0e 8d 9d 3e bf 17 ad 3e 0f c7 96 3e
       0.19064252 0.3077168 0.3380718 0.29448745

st_gcn_networks.0.tcn.3.bias f4 [8]
000000 65 30 0d bd ce 90 cc 3b 1b 80 61 3d 55 7c 62 3c
       -0.03446998 0.006242848 0.05505381 0.013823588
000010 b6 bf 2e bc 2d 5b 3f 3d 2f 95 ff 3c 1d c8 be bc
       -0.010665825 0.04671781 0.031199066 -0.02328878

st_gcn_networks.0.tcn.3.running_mean f4 [8]
000000 e2 c6 55 3c 38 2b 4e 3c 89 c6 6f bc c7 eb 0f bd
       0.013047906 0.012583546 -0.014634737 -0.035136964
000010 ea 09 06 3d 27 2c 21 3d 2f 79 ac bb cd 76 53 3c
       0.0327243 0.039348748 -0.0052634696 0.012906742

st_gcn_networks.0.tcn.3.running_var f4 [8]
000000 ac 76 b1 3b 8e 40 54 3b 09 11 c9 3a 13 15 77 3a
       0.005415758 0.003238711 0.001534016 0.00094254425
000010 ca dd c3 3a 81 7d 8f 3b 8b a8 a8 3b 4f ff 5b 3b
       0.0014943418 0.004378975 0.005147045 0.0033568924

st_gcn_networks.1.gcn.conv.weight f4 [24, 8, 1, 1]
000000 93 a5 9f bc 33 89 1c bd ce 12 6a 3d 55 0b 56 3d
       -0.019488132 -0.03821678 0.05714684 0.0522569
000010 cc 0f 97 bc eb a9 af 3c 3e 10 27 3c 54 d6 30 3d
       -0.01844015 0.021443328 0.0101967435 0.04317315
000020 4d 95 ee bb b5 1d 8d bc 2a 00 b0 3d 2e a7 1c bd
       -0.0072809816 -0.01722608 0.08593781 -0.038245372
000030 18 85 0c 3d 14 b4 e3 bc b3 9d 85 3d 4c 32 bb 3c
       0.034306616 -0.027795829 0.06524219 0.022851132
000040 df c8 96 3d 07 ce 8c bd 55 c2 dc bc 0f d5 a7 3d
       0.07362532 -0.06875234 -0.026948133 0.081949346
000050 77 93 7e 3d 46 7f 88 3d 93 44 f5 bc cd fc a2 bc
       0.062152352 0.066649005 -0.029939925 -0.019895935
000060 ad b0 30 3c 55 7a dc bc 6b af ec bc a5 f9 08 bd
       0.01078431 -0.026913801 -0.02889224 -0.033441205
000070 7f 44 8a bd 30 21 cb bd 19 46 3d 3d 19 2b bd bd
       -0.06751346 -0.099184394 0.04620943 -0.09236736
000080 0d b8 f2 bc 26 ee de 3b 1a 74 87 3d fa bf 3f bd
       -0.029628778 0.006803292 0.066139415 -0.046813942
000090 e2 69 6a 3c 68 f6 d4 3c 79 71 2d 3d f5 da 60 bc
       0.014307471 0.025996402 0.042344544 -0.013724078
0000a0 7b 5b 42 3c d3 55 a9 bd 81 31 13 3d 3e ba 76 bd
       0.011862631 -0.08268323 0.035935882 -0.06023621
0000b0 62 7e 5c bc 02 89 e9 39 39 1b b5 bd 05 e9 83 3c
       -0.013457866 0.00044543302 -0.08843083 0.016102323
0000c0 82 70 c9 bc 93 d7 00 bc ac e4 51 3d fd b6 20 3c
       -0.02458978 -0.007863897 0.05124347 0.009809253
0000d0 fa 85 ba 3c d5 c5 bc 3c bc 7b 39 bd 8f 35 df bc
       0.022768963 0.023043552 -0.045284018 -0.027247218
0000e0 f5 12 08 bd ea 6a 3c ba 96 09 0f bd 20 96 f9 bc
       -0.033221204 -0.00071875623 -0.03492125 -0.030467093
0000f0 f1 97 3a bc 8a 53 71 3d 7e 63 6b b9 20 18 a2 3d
       -0.011388765 0.05891756 -0.0002244841 0.07914758
000100 86 b4 94 bc 29 57 96 3d b5 c8 9d 3c 1f d9 21 bd
       -0.018152487 0.07340843 0.019260744 -0.039513703
000110 f1 84 85 bd 51 c8 6e 3c 10 5b 9b 3d 01 fe c5 3d
       -0.06519497 0.014574126 0.07585728 0.09667588
000120 2e 62 6c bd 44 e0 63 bc 9c 02 84 bd c0 ec 48 bc
       -0.05771082 -0.01390845 -0.0644581 -0.012263477
000130 48 e4 aa bb 68 b5 0b bd 03 22 64 3d bf d2 51 3b
       -0.0052152015 -0.03410855 0.0556965 0.0032016484
000140 43 c6 46 3c 29 ab a8 bb 56 ad 65 3d a6 f6 5c bd
       0.01213223 -0.005147357 0.05607351 -0.05394616
000150 a6 63 46 bd 55 f3 c1 bd b9 2e c5 3d f4 f3 5e bd
       -0.048434876 -0.0947024 0.09628052 -0.05443187
000160 92 99 9f bc 57 97 f7 3d e7 89 91 3d 6d 14 a4 3c
       -0.019482408 0.12089413 0.07106381 0.020029271
000170 42 08 52 bd 18 d8 8a 3d cc 95 fc bc f0 57 d4 bd
       -0.051277407 0.06779498 -0.030833147 -0.10368335
000180 8c 38 1c bd 61 a9 7c bc ce 08 a5 3d fa 38 28 3d
       -0.038139865 -0.015421242 0.0805832 0.041069962
000190 a4 bb 35 3b 5c 7e c2 3c de 49 ea bc 35 1f 20 3d
       0.002773025 0.023741893 -0.028599676 0.03909226
0001a0 d0 3c a9 3d 0c e7 33 bd e9 7b 87 bb 67 0d 9f bd
       0.08263552 -0.043921515 -0.0041346443 -0.07766228
0001b0 0f e8 fa 3c 2e 96 a4 bd 40 01 a5 3d ef 7d 58 3d
       0.030628232 -0.08036457 0.08056879 0.052854475
0001c0 ed 61 79 bd cb b2 e5 bd 74 d3 27 3d 42 aa 0b 3d
       -0.060884405 -0.11215743 0.04097314 0.034097917
0001d0 de da 99 bd 2c 7c 47 bd 06 e2 03 3d 6f b4 94 3d
       -0.07512449 -0.048702404 0.032197975 0.072609775
0001e0 5d 51 e3 3c da c3 c1 3b b0 89 44 bc fa ab 0a ba
       0.027748758 0.00591324 -0.011995718 -0.0005289909
0001f0 66 0f e9 bb fc b7 b7 3c c0 b8 17 3d e4 94 98 bb
       -0.0071124313 0.022426598 0.037041426 -0.004656421
000200 dd e2 94 bc c0 5b dc bb ab 1b 20 3d b5 5f a4 3d
       -0.018174583 -0.0067248046 0.039088886 0.08026067
000210 dc e5 10 bc ae 8c 28 3d 9b 70 29 bd 44 cf a6 ba
       -0.008843865 0.041149788 -0.041367155 -0.0012726565
000220 80 c1 85 3d 9a 75 8a 3c 39 8f 00 3d 1f 85 8d bc
       0.06531048 0.01690178 0.031386588 -0.017275391
000230 f1 d5 57 3c 40 4d 3e 3d ca 93 c0 3d cd f8 9b 3b
       0.013173566 0.04646039 0.094031885 0.004759884
000240 c0 54 9d bb e3 42 84 3c 0e ac e7 bc aa 47 8b bd
       -0.0048013628 0.016145175 -0.028280284 -0.06800778
000250 e4 e2 6b 3b 57 83 5f bd 61 e6 72 3d 3e 40 49 3c
       0.0035993392 -0.054568615 0.059301738 0.012283383
000260 a2 36 8b 3d 6a 2c 22 bd a9 64 de bc 98 c3 81 bd
       0.0679753 -0.039593138 -0.027147608 -0.06336135
000270 12 0d 81 ba 66 69 b6 bc b8 79 19 3e ed ac 88 ba
       -0.0009845814 -0.022267055 0.14987838 -0.0010427512
000280 f8 34 07 bb 42 06 1b 3c 9b 21 4b ba 57 76 9f bd
       -0.0020630937 0.009461941 -0.0007748843 -0.077862434
000290 8c e2 0d 3d 07 b5 dc bc b4 0e 44 3c 33 61 be bb
       0.03463988 -0.02694179 0.011966396 -0.005809927
0002a0 7d 83 67 bc 34 55 1b bd c5 cd aa bc 1f 3c cf 3c
       -0.01413047 -0.037923053 -0.020850072 0.025297223
0002b0 4c 16 99 bd f2 92 97 bd aa 71 4a bd 29 da 40 bc
       -0.07474956 -0.074010745 -0.049424805 -0.011770763
0002c0 a0 0a 93 3d 85 3f 12 3d 94 38 11 3d e7 05 bf bd
       0.07179761 0.03570511 0.035454348 -0.09327298
0002d0 77 32 60 3d 42 b5 f5 3c 3e 51 95 bc 4c e5 19 bd
       0.054735627 0.029993657 -0.018227216 -0.03757219
0002e0 7f 26 ba 3b ae f2 41 3b 75 9d b3 3c be f6 c2 ba
       0.0056808586 0.0029594111 0.021925667 -0.001487456
0002f0 1d 59 35 3c 75 78 04 bd 39 ce 68 bb d1 a5 71 3d
       0.01106861 -0.03234144 -0.003552331 0.058996025

st_gcn_networks.1.gcn.conv.bias f4 [24]
000000 0c 9f 93 3a 38 cf 64 3c 52 f9 8a bc 52 92 0b 3d
       0.001126261 0.01396542 -0.016964588 0.03407509
000010 5c e9 ab 3b 22 a1 a8 bb bc c1 60 3b 3c 7a 11 3a
       0.0052463245 -0.0051461617 0.0034295162 0.00055495254
000020 3b c0 92 bd 1e 0b 22 bc 4d 23 9e 3c 47 eb 99 3a
       -0.07165571 -0.009890346 0.019303942 0.0011743092
000030 f3 c8 69 bd 58 77 2c 3c 25 58 59 3d 04 b3 17 bc
       -0.057076406 0.010526501 0.053062577 -0.009258989
000040 97 e9 f9 bb 48 87 23 bd e0 6c d5 3b af 92 92 3c
       -0.007626723 -0.039923936 0.006513223 0.01789221
000050 c4 51 45 3c 9d a6 51 bc 0f 2b d0 3c 73 bd 43 bc
       0.01204342 -0.012796071 0.025411157 -0.011947024

st_gcn_networks.1.tcn.0.weight f4 [8]
000000 24 ba 56 3e fe 5e 3f 3e 47 56 87 3e ce 05 91 3e
       0.20969445 0.1868858 0.26433012 0.2832474
000010 16 b1 1f 3e 90 f8 68 3e 6a ad 80 3e c5 18 46 3e
       0.15594897 0.22751069 0.25132304 0.19345386

st_gcn_networks.1.tcn.0.bias f4 [8]
000000 92 a9 d9 bc 16 7b 48 3c 29 75 ca 3c 6d 1c 28 39
       -0.026570115 0.012236377 0.02471407 0.00016032318
000010 f5 01 9e bc f0 8f 04 bc 8c 8d 0b bd d7 0a f3 bc
       -0.019288043 -0.008090958 -0.034070536 -0.029668255

st_gcn_networks.1.tcn.0.running_mean f4 [8]
000000 66 24 92 ba da 60 d0 b9 46 3a 38 39 aa 19 b4 3a
       -0.0011149764 -0.00039745012 0.00017569316 0.0013740559
000010 c5 e9 06 bb ea dc 63 ba 14 3b 25 3b 0e e8 0a 39
       -0.0020586115 -0.00086922816 0.0025212215 0.00013247153

st_gcn_networks.1.tcn.0.running_var f4 [8]
000000 b9 5f 90 36 5a 50 85 36 ed e8 55 37 cb d5 15 37
       4.302678e-06 3.973063e-06 1.2750022e-05 8.93087e-06
000010 91 65 da 36 2d c6 8f 36 fa c4 3e 37 aa 19 ab 36
       6.50873e-06 4.284803e-06 1.1370745e-05 5.099185e-06

st_gcn_networks.1.tcn.2.weight f4 [8, 8, 9, 1]
000000 61 c8 aa bc 1d f5 bf 3a 11 bd ac 3c f2 b7 69 bc
       -0.020847501 0.0014645193 0.021086248 -0.014265047
000010 7c 0f 5e bc be 06 35 bd 37 cc cf bb 70 a3 b7 3b
       -0.013553496 -0.044195883 -0.006341483 0.0056042
000020 a0 cd 3c 3d 8c 4c 60 bd 01 61 1c 3c a0 5f 3d 3d
       0.046094537 -0.0547605 0.009544612 0.046233773
000030 96 b7 10 3b 97 e1 48 bd 37 78 05 bd 9a c8 dc 3c
       0.0022082082 -0.049043264 -0.03258535 0.026951123
000040 c3 ff c4 3c 67 14 b5 bc 89 dc d3 3b 0f 7b a9 bc
       0.024047738 -0.022104455 0.006465499 -0.020688562
000050 83 93 5f 3d 39 29 28 bc c0 8a 4b 3c e6 85 a0 bb
       0.054584038 -0.0102637345 0.012423217 -0.0048987744
000060 e4 f2 37 3d 10 e0 17 bd c0 e2 57 bd f2 7c 25 3c
       0.044909373 -0.037078917 -0.05270648 0.01010059
000070 ba 0b 85 3c be 7c f5 3c 5d 42 a6 39 f6 be fc 3c
       0.016240943 0.029966708 0.00031711432 0.030852776
000080 cd d9 54 3d d1 2e 37 bd b8 aa 4e bd 6f d3 1a bd
       0.051965524 -0.044722382 -0.05045578 -0.037799295
000090 37 6c 3e bb b3 c2 9b bc a4 3c 75 bc f1 4a 3a ba
       -0.00290562 -0.019013738 -0.014968071 -0.0007106504
0000a0 53 9e 55 3c 20 c2 35 3d 9d 96 b5 3c 8f a5 62 3c
       0.013038236 0.044374585 0.022166545 0.013833418
0000b0 c5 48 d2 3c fe 6f 81 3b 17 0c 2a bd f7 e3 d7 3c
       0.025669465 0.003950118 -0.041515436 0.02635382
0000c0 32 7a 85 3c 12 64 bf bc d0 67 fe bb 29 9a 3e bc
       0.016293619 -0.023363147 -0.0077638403 -0.011633434
0000d0 ae c5 1b bc 15 ef 88 bc 14 7a 57 bc bb 42 ad 3b
       -0.00950758 -0.016715566 -0.013151664 0.005287496
0000e0 d8 6f f8 3b 9d 4c a2 bc 91 b1 00 3d ef 18 f0 3c
       0.007581692 -0.019811923 0.03141934 0.029308764
0000f0 ca f4 db 3c f0 df 5c 3b 3a 92 dc 3b 82 18 64 3c
       0.026850123 0.0033702813 0.0067312988 0.013921859
000100 3c 4d 21 bc af 20 58 bd 61 46 49 bd b4 6e 14 3d
       -0.009845074 -0.052765545 -0.049139384 0.036238387
000110 fe a5 f5 bc 38 00 4f bc a3 41 3d 3c c5 f5 98 bb
       -0.029986378 -0.0126343295 0.011551294 -0.00466797
000120 81 c3 4d 3b 24 d1 f4 bc 85 60 ee 39 48 e7 91 ba
       0.0031397047 -0.029884882 0.0004546681 -0.0011131549
000130 4f 04 7c bc 66 27 20 bd cf 78 4c 3c e3 6e 7d 3c
       -0.015381887 -0.039100073 0.012479975 0.015468332
000140 11 21 25 bd 36 04 56 bd 6a be 37 bc 0f f4 80 bc
       -0.040314738 -0.05225011 -0.011214832 -0.015741376
000150 9a bc a4 bd 57 24 c3 3c 14 d9 94 3b fe 0e 29 3d
       -0.080437854 0.02382104 0.0045424793 0.041274063
000160 eb 79 6e 3c f3 1b 38 3d 5d 28 05 bd 1d 42 43 bc
       0.014555435 0.04494853 -0.032509197 -0.011917618
000170 1d ed 86 3c 3a 56 8e bc 8b e3 fe 3c 5a 20 16 3d
       0.016470486 -0.0173751 0.03111436 0.036651947
000180 c8 8d ad 3b b3 61 61 3d 29 5a b9 3c c2 0c 89 3c
       0.0052964427 0.055024814 0.022626 0.016729716
000190 9d cf 6e 3d ab e0 95 ba 4c 0c f2 3c 8b 4e 54 bb
       0.058303464 -0.0011434754 0.02954688 -0.0032395448
0001a0 5a dd 0a 3d 1d 67 12 3c 26 9f 62 bc 1c 2d 0f 3d
       0.033902504 0.008935717 -0.013831889 0.03495513
0001b0 4d 5e ce bc fa ac c1 3c 89 93 c1 bc 08 50 a1 bc
       -0.02519145 0.023642052 -0.02362992 -0.019691482
0001c0 95 9d 77 bb 10 31 57 bb c3 6d aa 3c 70 52 06 bd
       -0.0037783135 -0.003283564 0.020804292 -0.032793462
0001d0 74 3c 8b 3c e7 b4 b4 3c 10 44 32 3b 6a 68 30 bc
       0.0169966 0.022058917 0.0027201213 -0.010767082
0001e0 9b c7 23 bc 7d 23 3f bc dc d6 0a 3c f7 0e 94 3b
       -0.00999632 -0.011666176 0.008474078 0.0045183855
0001f0 cd b3 f2 3b 26 85 82 3d 05 9e a7 bc 54 8b 84 3b
       0.007406688 0.06373052 -0.020461092 0.0040449295
000200 00 54 46 3d f0 55 16 bd d4 b6 f9 3c d5 a8 91 bc
       0.048419952 -0.03670305 0.030482687 -0.0177807
000210 7d 29 cb 3c e4 00 9e bc b9 59 e2 3c 93 ac 2b bc
       0.024800057 -0.019287534 0.027630674 -0.010478157
000220 13 aa 1d bd 12 b7 c0 bc 06 c1 84 bc 6e 52 d4 bc
       -0.038492274 -0.023524795 -0.016205322 -0.025918212
000230 e2 da 9e 3c b4 43 87 ba 51 67 2f bb 0a 13 3a 3c
       0.01939148 -0.001031986 -0.0026764462 0.011357078
000240 8d e3 24 3a 62 02 6f bd e1 b4 c1 bc 10 ba 6e 3b
       0.0006290011 -0.05835188 -0.02364582 0.003642682
000250 e6 ef 72 bb ad dc dc 3a 70 89 ae 3a 3c 03 34 bd
       -0.003706926 0.0016850434 0.0013316106 -0.043948397
000260 7b cd 5d bd 8f 20 2f 3d 02 9d 08 bd 85 f8 02 bd
       -0.05415104 0.04275566 -0.03335286 -0.031975288
000270 ab 2e 52 bc 49 6b 49 3b 15 97 9a bb 7a 54 c3 bc
       -0.012828509 0.0030734113 -0.0047177174 -0.023843993
000280 8b f0 8e 3b d1 f4 87 b8 ce c8 37 3d 28 30 26 bd
       0.004362171 -6.482902e-05 0.044869237 -0.04057327
000290 80 85 8a 3c ad 26 43 3d a2 d8 88 bd f5 40 01 3d
       0.01690936 0.047644306 -0.066819444 0.03155609
0002a0 f8 32 17 3d 23 ba ee 3c b5 52 02 3c 88 7b c0 bc
       0.036913842 0.029141491 0.007954289 -0.023496404
0002b0 7c 9b 31 3d 3a af 29 bd f0 40 de 3b 00 56 2c bc
       0.043361172 -0.041426875 0.0067826435 -0.010518551
0002c0 7c 31 fc bc 6b 7e 2b bd a6 93 96 3c 05 1f c5 bc
       -0.030785315 -0.04186861 0.018380951 -0.024062643
0002d0 18 c2 0b b8 20 6d 53 3c c0 cd af bb 6b 9b 66 3d
       -3.3320946e-05 0.012904435 -0.0053651035 0.056300562
0002e0 f1 de a6 bc 7e 98 de bc 6a 54 c9 3c 8c 76 ca bc
       -0.020369979 -0.027172323 0.024576385 -0.02471473
0002f0 a5 2e 1d bd 09 62 4e bb d4 f2 57 bc 8d e9 3e 3d
       -0.03837456 -0.003149154 -0.013180453 0.04660945
000300 75 84 03 bc 6a a3 78 3c 3e 2d f4 bc 8e b0 46 3a
       -0.008027186 0.01517568 -0.02980673 0.0007579409
000310 c4 4b b2 bd db ae 63 bd 14 b1 2e bc 54 e4 8c bb
       -0.087058574 -0.055586677 -0.010662336 -0.00429968
000320 af 10 bb 3c 11 de 6d 3d 4c a1 31 bc d8 02 30 bc
       0.022835104 0.058073107 -0.010841679 -0.0107428655
000330 1f b6 de 3b 47 d2 68 3c cd d9 61 3d 82 85 fd 3b
       0.006796613 0.01421029 0.05513935 0.0077368626
000340 0e 2a eb 3c 79 b3 e5 3c d5 29 66 bc 2c e6 81 3c
       0.028706577 0.02803968 -0.0140480595 0.015856825
000350 21 05 90 bc 4c bb 54 3c e2 20 de bb 63 89 96 bc
       -0.01758057 0.012984108 -0.0067788223 -0.018376058
000360 1f c6 0a bc e3 aa 8b bc 93 59 60 3d 65 c3 bc bc
       -0.008470087 -0.017049259 0.054772925 -0.02304239
000370 2f 00 1d bd 5c d3 fe bb 7c 02 01 bd ad 3f 81 bd
       -0.038330253 -0.007776661 -0.03149651 -0.06310973
000380 e8 f4 06 3d 99 84 33 3d 53 d2 51 3c e2 db e1 3b
       0.032948405 0.043827627 0.012806493 0.006892667
000390 1e 95 48 3c a4 75 06 3d a4 05 1b 3b 68 93 1c bd
       0.012242584 0.032827035 0.0023654485 -0.038226515
0003a0 1b ee 1f bd 10 9b 46 3c 8a 5e 11 3c 4e dc e1 3a
       -0.039045434 0.012121931 0.0088726375 0.0017231794
0003b0 cd 37 fd 3c fb fd 04 bd 11 22 97 3c 8c 6c 7f bb
       0.030910397 -0.032468777 0.018448861 -0.003897461
0003c0 76 00 2c 3c 0e 4a 98 bb c2 ea 4d 3d 17 91 f9 bb
       0.010498157 -0.0046475 0.05027271 -0.007616173
0003d0 21 22 2c bb f7 d0 64 bc d5 c9 fb 3c 6b d1 f8 bb
       -0.002626546 -0.013965837 0.03073589 -0.007593324
0003e0 98 c8 07 bd 2f 23 d8 bb 47 0e c6 3c c5 3f 73 bd
       -0.033150285 -0.006595991 0.02417673 -0.059386987
0003f0 cb 38 a4 3c a4 47 ec bb 99 f5 d1 bc a9 79 29 bd
       0.020046612 -0.0072106887 -0.025629805 -0.04137579

st_gcn_networks.1.tcn.2.bias f4 [8]
000000 e7 91 31 b8 80 b0 e5 b6 bc a7 61 b8 25 1d 0d b8
       -4.233597e-05 -6.845279e-06 -5.3800395e-05 -3.3644163e-05
000010 45 1e fc b7 b4 33 1a b8 55 9a 8a 38 08 d5 2b 36
       -3.0054836e-05 -3.6764613e-05 6.6090994e-05 2.5604986e-06

st_gcn_networks.1.tcn.3.weight f4 [8]
000000 d6 83 4d 3e 76 98 7c 3e e0 21 8b 3e dc aa 7d 3e
       0.20069823 0.24667534 0.27174282 0.24772209
000010 54 1c 4c 3e 69 0a 88 3e c5 9e 86 3e 52 09 39 3e
       0.19932681 0.26570442 0.26293007 0.18069962

st_gcn_networks.1.tcn.3.bias f4 [8]
000000 d7 ed b2 ba 39 13 3c bc fa 32 60 bc e9 4b ba bb
       -0.0013651204 -0.011479192 -0.013684029 -0.0056853187
000010 f6 5b aa bb c2 49 98 bb f1 42 6c bc e0 02 20 3b
       -0.005198951 -0.0046474645 -0.014420257 0.0024415776

st_gcn_networks.1.tcn.3.running_mean f4 [8]
000000 32 f0 0a bb 88 99 77 3c b7 f1 b6 bb 02 6d ad 3a
       -0.0021200296 0.015112288 -0.005583014 0.0013231339
000010 2c 50 59 ba 25 65 3f 3c ce 38 29 bc 18 51 1f bc
       -0.00082898396 0.01168183 -0.010328485 -0.009723924

st_gcn_networks.1.tcn.3.running_var f4 [8]
000000 b9 9e 8a 39 d3 a6 83 3a 56 58 14 3a 82 aa a7 39
       0.0002643967 0.0010044224 0.0005658915 0.0003197976
000010 be 4e 6d 39 c1 82 5e 3a b8 ad 09 3a e9 b3 14 3a
       0.00022631415 0.0008488112 0.00052520214 0.00056725607

st_gcn_networks.1.residual.0.weight f4 [8, 8, 1, 1]
000000 2d 0c 1a bd 4a 53 80 bd 3d b7 d2 bd 9d 8a 95 bc
       -0.037609268 -0.06265886 -0.10288856 -0.018254573
000010 9d 17 3f bd 6a dc d3 3c d6 15 56 3d 31 63 35 bb
       -0.04665338 0.025861938 0.052266918 -0.002767753
000020 46 be 93 bd 4d dc 28 bd 76 95 0a bd 2f 34 7d 3b
       -0.07214026 -0.04122572 -0.033833943 0.003863584
000030 f6 ea c7 3c 9f a0 91 3d 49 50 b3 3d 40 f3 b4 bd
       0.02440403 0.07110714 0.087555476 -0.08835459
000040 0e 1f fe bd a2 fc 0e 3b 76 8b 97 3d 0b d0 a2 3b
       -0.12408267 0.0021818061 0.07399647 0.0049686483
000050 00 ad d8 bc 72 ef 52 3d 2e ac c2 ba ec b2 55 bd
       -0.02644968 0.051497884 -0.0014852339 -0.052172586
000060 b4 23 b6 3d ff 47 d0 3c ad ee 3b bd 2f a8 a1 bb
       0.088935286 0.025424955 -0.045881916 -0.004933379
000070 1b 86 c7 bc de 54 39 3c f6 df 67 3d 28 fc 8e 3d
       -0.024355939 0.011311738 0.05661007 0.06981689
000080 ce 81 63 bd 49 d4 3a 3d b9 14 7f bd b2 dd 99 3c
       -0.055543713 0.045612607 -0.062275622 0.01878247
000090 57 a5 28 3d bf 77 4c bd b7 25 92 3d bd 8a 82 3d
       0.041173305 -0.049918886 0.071361 0.063741185
0000a0 cf 53 f0 3d f0 91 d5 3c 79 cc a8 3d 3c f7 68 bc
       0.11734735 0.026070565 0.08242125 -0.0142191015
0000b0 4d 94 75 bd cc 46 04 bd f1 bc aa bc 6b 44 a9 bd
       -0.059955884 -0.03229408 -0.020842047 -0.08265003
0000c0 01 17 a4 3c 61 b4 ca 3c 11 4d 89 bd ee a1 a2 3c
       0.0200305 0.024744214 -0.067041524 0.019852605
0000d0 98 1d c4 bc 63 78 eb bc 2f 0d a7 bd a3 26 ab 3c
       -0.023939893 -0.028743928 -0.081568114 0.020892447
0000e0 72 69 02 3c 08 ec 1b 3d e6 ae aa 3d cf 12 cb 3c
       0.00795971 0.038066894 0.083341405 0.024789242
0000f0 39 1e 4e 3d 02 69 99 3d 20 dc 87 bd bb 82 e3 bc
       0.05032179 0.07490732 -0.066337824 -0.027772298

st_gcn_networks.1.residual.0.bias f4 [8]
000000 09 6d 8c b6 66 9d 26 37 a3 7f ea b5 4b ce f5 36
       -4.1850185e-06 9.931018e-06 -1.7471506e-06 7.3255846e-06
000010 97 84 12 38 c4 9d dc b6 06 20 76 38 19 ee 95 37
       3.4932596e-05 -6.5748773e-06 5.8680795e-05 1.7873057e-05

st_gcn_networks.1.residual.1.weight f4 [8]
000000 03 f0 5f 3e ab 94 34 3e d8 5b 62 3e bc c8 60 3e
       0.21868901 0.17634837 0.22105348 0.21951574
000010 0c 63 25 3e 34 25 60 3e a5 19 a1 3e 6e 46 12 3e
       0.16151065 0.21889192 0.31464878 0.1428468

st_gcn_networks.1.residual.1.bias f4 [8]
000000 d7 ed b2 ba 39 13 3c bc fa 32 60 bc e9 4b ba bb
       -0.0013651204 -0.011479192 -0.013684029 -0.0056853187
000010 f6 5b aa bb c2 49 98 bb f1 42 6c bc e0 02 20 3b
       -0.005198951 -0.0046474645 -0.014420257 0.0024415776

st_gcn_networks.1.residual.1.running_mean f4 [8]
000000 9a 89 84 bc 6b d0 7d ba 9f ac 16 bb df 86 9e 3c
       -0.016178895 -0.0009682241 -0.0022991074 0.01935142
000010 9a 26 84 3b 4a 27 56 3b 23 c9 78 bc 3c 68 9c 3c
       0.004032922 0.0032677227 -0.0151846735 0.019092672

st_gcn_networks.1.residual.1.running_var f4 [8]
000000 4e 19 11 3a 2b 29 5e 3a 55 02 1f 3a c7 ff 80 3a
       0.0005535082 0.00084747624 0.0006065716 0.0009841853
000010 8d 39 5b 3a 2e 53 89 3a d7 08 42 3a 96 a2 19 3a
       0.0008362763 0.001047706 0.000740183 0.0005860714

st_gcn_networks.2.gcn.conv.weight f4 [48, 8, 1, 1]
000000 a2 b7 10 3d 64 97 79 bd cb 4c 48 3c e1 30 46 bd
       0.035331376 -0.060935393 0.01222534 -0.04838646
000010 1b b1 4c 3d 85 c7 61 3c 67 30 87 bd c4 8d db bc
       0.04997359 0.013780479 -0.06601029 -0.026800998
000020 79 fd a4 bc ca b7 88 bc ac 46 8c 3b f8 d9 03 bd
       -0.020140396 -0.0166892 0.0042808857 -0.032190293
000030 70 cb 0a bc 27 33 5e 3a 4e 66 e6 3c 65 8d ca bc
       -0.008471355 0.000847625 0.028124955 -0.024725625
000040 5b 47 b0 3c a0 af af bc 6f f0 63 3c 13 75 36 bd
       0.0215184 -0.02144605 0.013912304 -0.044545244
000050 51 f2 93 bc 80 ae 14 3c 1a 2d 52 bd 2d a7 85 bc
       -0.018059881 0.009074807 -0.051312543 -0.016315067
000060 ab 99 b7 3c c4 3c 2b bb ef 60 78 bb ca d5 89 bc
       0.022412142 -0.0026128748 -0.0037899574 -0.016825575
000070 c1 76 1c 3b a5 70 46 bd 9a ef 90 bc 44 4f 81 bb
       0.0023874494 -0.04844727 -0.017692376 -0.003946217
000080 dd 35 00 3d dc 03 86 3c 26 58 0d bd ae 92 91 3c
       0.031301368 0.016359262 -0.034507893 0.017770138
000090 4d 98 97 bd 86 48 27 3d c4 ea 45 bc 75 5c cb bc
       -0.07402096 0.040840648 -0.012079898 -0.02482436
0000a0 d0 04 97 3d ce 7d 40 bc 67 09 88 bd 72 10 b3 bc
       0.07373965 -0.011748744 -0.06642418 -0.021858428
0000b0 46 f5 b5 3d 0e 11 5e bc 94 2e d2 bd 49 a9 8e bc
       0.08884673 -0.013553871 -0.1026279 -0.017414706
0000c0 da f8 2e bd 48 4b bd bd 80 da 20 bd 1e 12 3a 3b
       -0.042717792 -0.092428744 -0.039270878 0.0028392146
0000d0 4b d1 56 bd 53 b5 44 3d 7b 21 c4 bd 9b 12 57 bb
       -0.05244569 0.048024487 -0.095766984 -0.0032817486
0000e0 a8 5c 6e bc bf 87 8d bc bb c5 09 3d 83 79 82 bc
       -0.014548458 -0.017276643 0.033635836 -0.015927082
0000f0 91 95 e5 bb 9d 5e 95 bc d6 42 17 3d 29 6e 4c bc
       -0.007006355 -0.018233592 0.036928974 -0.012477436
000100 a8 39 b6 bc fe 4a ba bc 68 74 0f bd 9f 76 9e 3c
       -0.02224429 -0.022740837 -0.035023123 0.019343672
000110 d8 07 29 bd 42 97 20 3d 42 1f bb bc 58 d3 37 bd
       -0.041267246 0.03920675 -0.022842053 -0.044879287
000120 c9 32 83 3c 89 59 b0 bc e2 5b 4d 3d 76 d5 a3 3c
       0.016015427 -0.021527069 0.050136454 0.019999247
000130 86 95 a4 3c 29 83 36 bd 9e 55 9b 3c df e8 94 3b
       0.02009083 -0.044558678 0.018961724 0.004544362
000140 72 b4 75 3c 3a 47 0c bd 7b cd da 3c 07 00 cb 3a
       0.014996635 -0.034247614 0.026709309 0.0015487679
000150 72 7b 25 3d cb 82 76 3d be fc 07 3a 6f e3 ba bc
       0.04040093 0.060183328 0.0005187503 -0.022813527
000160 6d c2 04 3d a2 8f 19 bd e9 83 32 bd b5 fb fe 3c
       0.03241198 -0.037490495 -0.04358283 0.031125883
000170 6c 61 99 bc 0e f0 71 bc 6d 57 a4 3c ca 3e 7e bd
       -0.018723212 -0.014766706 0.02006122 -0.0620716
000180 ef 89 e1 3c 2d 22 df bc 09 ac 7e bb cf 74 a2 3d
       0.027531592 -0.027237976 -0.0038859865 0.07932436
000190 ad 33 81 bc 4d a3 a0 3c 47 d6 dc 3c b5 34 0f bc
       -0.015771711 0.019609118 0.026957644 -0.008740594
0001a0 5b ff 83 3c e2 ca 81 bd 1e ed 87 3d 92 76 ae bc
       0.016112974 -0.06337525 0.066370234 -0.021296773
0001b0 a1 32 34 bc 75 e0 51 bb d0 35 07 bc c1 89 0d bc
       -0.010998399 -0.0032024656 -0.008252576 -0.0086388
0001c0 0e 5e f9 bc 30 35 c7 3c 5a a9 3e 3d 45 b7 3b bd
       -0.030440357 0.024317354 0.046548225 -0.045829076
0001d0 1e 49 4b 3c 8d 26 37 3d a0 65 e3 3c 0c e2 39 bc
       0.012407569 0.0447145 0.02775842 -0.011345398
0001e0 82 75 dd bc 1b e0 0f 3d fc 6b c7 bc fe 08 21 bd
       -0.027033571 0.035125833 -0.024343483 -0.039315216
0001f0 8d 3b 9f bd 1d ca f1 bb cb 9c 08 bb b8 ed 70 bc
       -0.0777503 -0.00737883 -0.002084541 -0.014705114
000200 61 80 e5 3c 3c db 00 bd 60 eb b8 3c 36 93 5f bd
       0.028015317 -0.03145908 0.022573173 -0.05458375
000210 33 55 31 3d 35 b1 a0 3d 28 8c c2 3d bf e6 3d bd
       0.043294143 0.078462996 0.09499389 -0.046362635
000220 2a bc a7 3b a0 e8 99 bc 5b 4c 12 bd ed 29 2d bd
       0.0051188665 -0.018787682 -0.03571735 -0.04227631
000230 d3 ab 2d bb 03 bc 52 3d 74 ab 05 3d 7e ea 8a 3c
       -0.002650012 0.051448833 0.032634214 0.016957518
000240 16 d4 a6 3c 15 05 15 3b 83 8e 74 3d 46 7c 16 bc
       0.020364802 0.0022738625 0.059706222 -0.0091849025
000250 56 60 21 3d bf 8e 1b bc e8 6e dc 3c 7f 50 40 bd
       0.039398514 -0.009494483 0.026908353 -0.046951767
000260 25 b7 93 3c 20 2a cd 3c 95 04 5b 3b 50 b7 8e bc
       0.018031666 0.0250445 0.003341948 -0.017421395
000270 cd 36 52 3d ce 39 31 bd 5d fe 4b bd 9a 17 62 bd
       0.051321793 -0.043268017 -0.049803127 -0.05519829
000280 38 65 9a bc e8 76 ea bc e8 5f ee 3c b8 a2 c0 bc
       -0.018847093 -0.028621152 0.029098466 -0.02351509
000290 a6 46 27 bc 47 20 c8 3c 87 ca 44 3d 28 bc dc 3b
       -0.010209715 0.024429454 0.048044708 0.006736297
0002a0 43 44 9d 3c 6e 2e 0d 3d 43 bf 8d bc 1e 82 1a bd
       0.019197589 0.034468107 -0.017303115 -0.037721746
0002b0 11 3a 6a 3c 94 3e d0 bd 1b 46 81 3c 7d a4 65 bc
       0.014296071 -0.10168186 0.0157805 -0.014016268
0002c0 72 22 56 3d 91 7c 0b 3d e0 74 83 bd be 0d 14 3d
       0.052278943 0.034054343 -0.064187765 0.036145918
0002d0 4f 6a 7e 3d 31 95 36 bd 11 66 98 bb f4 e4 5f bd
       0.062113103 -0.044575874 -0.004650839 -0.054661706
0002e0 27 7b 58 bc 2f d2 5a bd 2c b4 25 3d c0 28 17 3d
       -0.013212956 -0.053423103 0.04045503 0.036904097
0002f0 ee f5 35 bd b8 86 3c 3d e8 fd af bc 4f cb 3d 3d
       -0.04442399 0.046026915 -0.021483377 0.04633647
000300 47 1d 0e 3d 28 35 76 3d 0c 5b ca bc e3 92 f0 3c
       0.03469589 0.060109288 -0.024701618 0.029366916
000310 21 f5 5b 3d ae 38 95 bb 52 be 99 3d c4 1a fc bc
       0.05370057 -0.004553876 0.07507004 -0.030774482
000320 d3 1a 83 bc 79 60 94 bc a0 4d 0d bd 3e ab 0d 3d
       -0.016004002 -0.018112408 -0.034497857 0.034587137
000330 bf 51 8f bd 10 b9 69 3d 92 fa e9 3c 3b 27 e3 bc
       -0.06998014 0.057061255 0.028561864 -0.027728667
000340 92 6b a2 bc 64 07 86 bd e9 99 3e bc 47 2d 48 3d
       -0.019826684 -0.065443784 -0.011633375 0.048871305
000350 b3 8b 45 3b 64 a3 ac bb df ce 1b 3c 99 27 5e 3d
       0.0030143082 -0.005268501 0.009509771 0.054236982
000360 87 af 5e 3d 6f c8 b0 3d 38 5b ad 3c c1 30 6e 3c
       0.054366615 0.0863198 0.02116166 0.014537991
000370 26 fe 34 bd 65 11 b6 bc 23 1c cb 3d 80 17 56 3d
       -0.044187687 -0.022225091 0.09917476 0.052268505
000380 2e 70 d6 3d 79 52 c7 bc 2b d7 12 bc 17 c3 51 bd
       0.10470615 -0.024331318 -0.008962433 -0.051211443
000390 20 17 31 bd 1a d3 e7 bb cf 94 00 3d c0 bf 7f bc
       -0.043234944 -0.007074726 0.031391915 -0.015609682
0003a0 48 54 2a 3d 44 0b 44 3d 5f ca a7 bd f7 a0 88 3d
       0.041584283 0.047862306 -0.08192896 0.066713266
0003b0 c1 82 26 bc 02 29 53 bd e0 99 15 3b 25 3c b0 3d
       -0.01016301 -0.05155278 0.0022827312 0.08605222
0003c0 e5 f4 30 bd 63 a7 67 bc a0 e2 4a bd 33 80 d0 bc
       -0.0432023 -0.014139029 -0.049532533 -0.025451755
0003d0 ef 30 ce 3c 7a 41 3f 3c 14 ab 11 bc bb 80 78 3b
       0.025169818 0.011673326 -0.008890886 0.0037918526
0003e0 c9 3e 33 bd dd 67 d9 ba 29 72 b4 3c 99 1a 1e 3d
       -0.04376105 -0.001658674 0.022027092 0.038599584
0003f0 c3 5d d8 3c ea 82 70 3c 43 aa 7b 3d 79 ae 11 bc
       0.026411897 0.01467965 0.06144167 -0.008891695

st_gcn_networks.2.gcn.conv.bias f4 [48]
000000 65 1a 27 bc 91 26 2b 3c 13 9e 56 bc 51 0b 45 3b
       -0.010199164 0.010446207 -0.013099211 0.003006656
000010 84 ba bf 39 08 a9 fe bb e6 0e e8 3c 72 70 68 bc
       0.00036569324 -0.007771615 0.028327417 -0.014186965
000020 2a 57 f3 bb c6 67 5f bb 95 b1 8e bb 41 3a 21 bc
       -0.0074261623 -0.0034088953 -0.0043546655 -0.009840549
000030 93 48 d1 bc 86 57 2b bc 7e 8e d8 3b 60 a3 1c 3c
       -0.025547301 -0.010457879 0.0066087833 0.009560436
000040 52 56 49 bd dd 1f d0 bb de 2c 00 bb a5 2b 68 3c
       -0.049154587 -0.0063514546 -0.0019557993 0.014170562
000050 37 bf ae 39 24 3c 69 bc 11 2f 11 bc 29 72 5c bc
       0.00033330332 -0.01423553 -0.008861319 -0.013454952
000060 dc 95 3b bd f7 5b b4 bb ae 35 a1 bc a2 98 11 bd
       -0.045797214 -0.005504127 -0.019678917 -0.035545953
000070 9d 73 62 3c 19 c9 9e 3b 54 93 3f bc 09 3a 79 bc
       0.01382151 0.00484575 -0.011692841 -0.015211591
000080 68 6b 37 3c 4a d1 b5 3c 63 d1 0b bc 69 43 ab 3b
       0.011195041 0.022194523 -0.008533808 0.005226542
000090 89 f4 2c bd bc 50 19 3c 30 1e 68 3b 30 28 14 bc
       -0.042225394 0.0093576275 0.0035418384 -0.009042785
0000a0 42 dc 85 39 cf 3c 72 3b 77 45 48 bc cf ac 08 bd
       0.00025531842 0.0036962514 -0.012223593 -0.033367928
0000b0 e7 30 d3 3c 64 1a 46 bc f9 02 8f 3c 3b ce 1e 3c
       0.025780154 -0.012091253 0.017457472 0.009692724

st_gcn_networks.2.tcn.0.weight f4 [16]
000000 ba bc 49 3e 01 f0 e8 3d d7 a0 1e 3e 1f 4c 00 3e
       0.197009 0.11373902 0.15491043 0.12529038
000010 ff 65 9f 3d ae 19 5d 3e f5 3a 28 3e 5b 1c 2b 3e
       0.07783126 0.21591827 0.1642874 0.16710036
000020 8f 0b 1f 3e d5 4a 17 3e e8 f8 08 3e aa ec 30 3e
       0.15531753 0.1477464 0.133762 0.1727778
000030 a3 e6 18 3e c7 ab 18 3e bf 3a da 3d a3 23 df 3d
       0.14931731 0.14909278 0.10655736 0.10895469

st_gcn_networks.2.tcn.0.bias f4 [16]
000000 7a 7a cf bc 02 b8 1e bc 43 6b 27 bd 56 0c ef bc
       -0.025326956 -0.009687426 -0.040873777 -0.029180687
000010 2a 79 88 bb fc 20 e9 bc 4d da 07 bd 4a e8 1b bd
       -0.0041648345 -0.028458111 -0.033167172 -0.038063325
000020 c3 91 24 bd 67 9b 08 bd 90 e9 3c bd 09 57 08 bd
       -0.04017807 -0.03335133 -0.04612118 -0.03328613
000030 2b 1d 2f bd f9 61 12 bd 98 5b 4a bc 78 cf 28 bd
       -0.042752426 -0.035737965 -0.012350939 -0.041213483

st_gcn_networks.2.tcn.0.running_mean f4 [16]
000000 dd fd b6 ba df bc 04 3a 8c 4f 2c ba ac e4 03 ba
       -0.0013961155 0.00050635444 -0.00065731327 -0.0005031328
000010 91 11 99 ba fe 54 24 bb 0d 4b 5b ba 9e 90 c6 ba
       -0.0011678209 -0.0025075073 -0.00083653704 -0.00151493
000020 a0 17 8e ba 41 62 27 b9 b1 ed 93 ba f0 ac ea ba
       -0.0010840781 -0.00015962964 -0.0011286048 -0.0017904323
000030 83 58 f4 39 42 75 52 ba f6 5a cd 39 6e c7 40 3a
       0.00046605253 -0.0008028337 0.00039168418 0.0007353936

st_gcn_networks.2.tcn.0.running_var f4 [16]
000000 5c 2d 8f 36 d8 6b 16 36 3a c6 2e 36 82 e1 9f 36
       4.2670126e-06 2.2414515e-06 2.6043404e-06 4.764822e-06
000010 4d 15 36 36 96 35 4b 37 c1 a3 5b 36 6f 4d 3e 36
       2.7132512e-06 1.2112219e-05 3.272886e-06 2.8357279e-06
000020 98 da 3a 36 88 28 4b 36 84 c5 1e 36 29 fb 6e 36
       2.7843398e-06 3.027295e-06 2.3658804e-06 3.5610958e-06
000030 38 83 17 36 bc c1 32 36 45 b0 d3 35 e2 f2 37 36
       2.2577133e-06 2.6636835e-06 1.5772026e-06 2.7410501e-06
