weights_arm/183.pt (torch, 70926 bytes, 80 tensors)

A f4 [3, 9, 9]
000000 00 00 00 3f 00 00 00 00 00 00 00 00 00 00 00 00
       0.5 0.0 0.0 0.0
000010 00 00 00 00 00 00 00 00 00 00 00 00 00 00 00 00
       0.0 0.0 0.0 0.0
000020 00 00 00 00 00 00 00 00 cd cc 4c 3e 00 00 00 00
       0.0 0.0 0.2 0.0
000030 00 00 00 00 00 00 00 00 00 00 00 00 00 00 00 00
       0.0 0.0 0.0 0.0
000040 00 00 00 00 00 00 00 00 00 00 00 00 00 00 00 00
       0.0 0.0 0.0 0.0
000050 ab aa aa 3e 00 00 00 00 00 00 00 00 00 00 00 00
       0.33333334 0.0 0.0 0.0
000060 00 00 00 00 00 00 00 00 00 00 00 00 00 00 00 00
       0.0 0.0 0.0 0.0
000070 00 00 00 00 00 00 00 00 ab aa aa 3e 00 00 00 00
       0.0 0.0 0.33333334 0.0
000080 00 00 00 00 00 00 00 00 00 00 00 00 00 00 00 00
       0.0 0.0 0.0 0.0
000090 00 00 00 00 00 00 00 00 00 00 00 00 00 00 00 00
       0.0 0.0 0.0 0.0
0000a0 00 00 00 3f 00 00 00 00 00 00 00 00 00 00 00 00
       0.5 0.0 0.0 0.0
0000b0 00 00 00 00 00 00 00 00 00 00 00 00 00 00 00 00
       0.0 0.0 0.0 0.0
0000c0 00 00 00 00 00 00 00 00 ab aa aa 3e 00 00 00 00
       0.0 0.0 0.33333334 0.0
0000d0 00 00 00 00 00 00 00 00 00 00 00 00 00 00 00 00
       0.0 0.0 0.0 0.0
0000e0 00 00 00 00 00 00 00 00 00 00 00 00 00 00 00 00
       0.0 0.0 0.0 0.0
0000f0 ab aa aa 3e 00 00 00 00 00 00 00 00 00 00 00 00
       0.33333334 0.0 0.0 0.0
000100 00 00 00 00 00 00 00 00 00 00 00 00 00 00 00 00
       0.0 0.0 0.0 0.0
000110 00 00 00 00 00 00 00 00 00 00 00 3f 00 00 00 00
       0.0 0.0 0.5 0.0
000120 00 00 00 00 00 00 00 00 00 00 00 00 00 00 00 00
       0.0 0.0 0.0 0.0
000130 00 00 00 00 00 00 00 00 00 00 00 00 00 00 00 00
       0.0 0.0 0.0 0.0
000140 00 00 00 3f 00 00 00 00 cd cc 4c 3e 00 00 00 00
       0.5 0.0 0.2 0.0
000150 00 00 00 00 00 00 00 00 00 00 00 00 00 00 00 00
       0.0 0.0 0.0 0.0
000160 00 00 00 00 00 00 00 00 00 00 00 00 00 00 00 00
       0.0 0.0 0.0 0.0
000170 00 00 00 00 00 00 00 00 00 00 00 00 00 00 00 00
       0.0 0.0 0.0 0.0
000180 00 00 00 00 00 00 00 00 00 00 00 00 00 00 00 00
       0.0 0.0 0.0 0.0
000190 cd cc 4c 3e 00 00 00 00 00 00 00 00 00 00 00 00
       0.2 0.0 0.0 0.0
0001a0 00 00 00 00 00 00 00 00 00 00 00 00 00 00 00 00
       0.0 0.0 0.0 0.0
0001b0 00 00 00 00 00 00 00 00 ab aa aa 3e 00 00 00 00
       0.0 0.0 0.33333334 0.0
0001c0 00 00 00 3f 00 00 00 00 00 00 00 00 00 00 00 00
       0.5 0.0 0.0 0.0
0001d0 00 00 00 00 00 00 00 00 00 00 00 00 00 00 00 00
       0.0 0.0 0.0 0.0
0001e0 ab aa aa 3e 00 00 00 00 00 00 00 00 00 00 00 00
       0.33333334 0.0 0.0 0.0
0001f0 00 00 00 00 00 00 00 00 00 00 00 00 cd cc 4c 3e
       0.0 0.0 0.0 0.2
000200 00 00 00 00 00 00 00 00 00 00 00 00 00 00 00 00
       0.0 0.0 0.0 0.0
000210 00 00 00 00 00 00 00 00 00 00 00 00 00 00 00 00
       0.0 0.0 0.0 0.0
000220 00 00 00 00 00 00 00 00 00 00 00 00 00 00 00 00
       0.0 0.0 0.0 0.0
000230 ab aa aa 3e 00 00 00 00 00 00 00 3f 00 00 00 00
       0.33333334 0.0 0.5 0.0
000240 00 00 00 00 00 00 00 00 00 00 00 00 00 00 00 00
       0.0 0.0 0.0 0.0
000250 00 00 00 00 00 00 00 00 ab aa aa 3e 00 00 00 00
       0.0 0.0 0.33333334 0.0
000260 00 00 00 00 00 00 00 00 cd cc 4c 3e 00 00 00 00
       0.0 0.0 0.2 0.0
000270 00 00 00 00 00 00 00 00 00 00 00 00 00 00 00 00
       0.0 0.0 0.0 0.0
000280 00 00 00 00 00 00 00 00 00 00 00 00 00 00 00 00
       0.0 0.0 0.0 0.0
000290 00 00 00 00 00 00 00 00 00 00 00 00 00 00 00 00
       0.0 0.0 0.0 0.0
0002a0 00 00 00 00 00 00 00 00 00 00 00 00 00 00 00 3f
       0.0 0.0 0.0 0.5
0002b0 00 00 00 00 ab aa aa 3e 00 00 00 00 00 00 00 00
       0.0 0.33333334 0.0 0.0
0002c0 ab aa aa 3e 00 00 00 00 00 00 00 00 00 00 00 3f
       0.33333334 0.0 0.0 0.5
0002d0 00 00 00 00 00 00 00 00 00 00 00 00 ab aa aa 3e
       0.0 0.0 0.0 0.33333334
0002e0 00 00 00 00 00 00 00 00 00 00 00 00 00 00 00 00
       0.0 0.0 0.0 0.0
0002f0 00 00 00 00 00 00 00 00 00 00 00 00 00 00 00 00
       0.0 0.0 0.0 0.0
000300 00 00 00 00 00 00 00 00 00 00 00 00 00 00 00 00
       0.0 0.0 0.0 0.0
000310 00 00 00 00 00 00 00 00 00 00 00 00 00 00 00 00
       0.0 0.0 0.0 0.0
000320 00 00 00 00 00 00 00 00 00 00 00 00 00 00 00 00
       0.0 0.0 0.0 0.0
000330 00 00 00 00 00 00 00 00 00 00 00 00 00 00 00 00
       0.0 0.0 0.0 0.0
000340 00 00 00 00 00 00 00 00 00 00 00 00 00 00 00 00
       0.0 0.0 0.0 0.0
000350 00 00 00 00 ab aa aa 3e 00 00 00 00 00 00 00 00
       0.0 0.33333334 0.0 0.0
000360 00 00 00 00 00 00 00 00 00 00 00 00 00 00 00 00
       0.0 0.0 0.0 0.0
000370 00 00 00 00 00 00 00 00 00 00 00 00 00 00 00 00
       0.0 0.0 0.0 0.0
000380 00 00 00 00 00 00 00 00 00 00 00 00 00 00 00 00
       0.0 0.0 0.0 0.0
000390 00 00 00 00 00 00 00 00 00 00 00 00 00 00 00 00
       0.0 0.0 0.0 0.0
0003a0 00 00 00 00 00 00 00 00 00 00 00 00 00 00 00 00
       0.0 0.0 0.0 0.0
0003b0 00 00 00 00 00 00 00 00 00 00 00 00 00 00 00 00
       0.0 0.0 0.0 0.0
0003c0 00 00 00 00 00 00 00 00 00 00 00 00
       0.0 0.0 0.0

data_bn.weight f4 [27]
000000 e2 7a 90 3d 1d d6 0d 3d 92 f7 30 3d b3 72 74 3e
       0.07054688 0.034628022 0.04320485 0.2387188
000010 d1 ac 32 3d 1d 83 2f 3d 03 e8 94 3e 5d 69 3f 3e
       0.04362184 0.04284965 0.2908326 0.18692537
000020 9c fa 40 3e 83 f1 de 3e e9 2d 00 3f b8 8e ae 3e
       0.188456 0.43543634 0.50070053 0.3409326
000030 3c b5 fa 3e fa 10 00 3f 69 49 b0 3e e3 05 88 3e
       0.48966396 0.50025904 0.34431008 0.2656699
000040 5b 28 24 3e a7 7d 6d 3e 95 30 ec 3e 67 f8 c5 3e
       0.1603102 0.23192464 0.46130815 0.38666078
000050 b6 0b ad 3e 5a 8d f2 3e df 54 ca 3e c5 11 a8 3e
       0.33797997 0.47373468 0.39517877 0.32826057
000060 0c 41 59 3e f8 83 f9 3c 5a 27 4c 3d
       0.2121622 0.030458435 0.049842216

data_bn.bias f4 [27]
000000 62 3f 97 bc 7a 30 d5 3c e2 23 99 bc 48 32 3f bc
       -0.01846284 0.026024092 -0.018693868 -0.011669703
000010 6f 78 89 bc aa 14 5b bb 1a 71 30 3d 21 3c 58 3c
       -0.01678106 -0.0033429065 0.043076612 0.01319793
000020 13 f2 8c 3c 4a d9 b5 bc c8 e4 a4 3b 9b f9 76 3c
       0.017205274 -0.022198338 0.0050321557 0.015074159
000030 5d 0a 36 bc 57 04 3f 3c ff 55 1b bb de d1 bf 3c
       -0.011110869 0.01165875 -0.002370238 0.023415502
000040 80 2f 20 3d 2d 27 07 3d 3d d6 f4 3b 15 d6 93 bc
       0.0391078 0.032996345 0.0074718283 -0.018046418
000050 5e 19 e3 bc 3b 5f c2 bc e4 eb 04 bd af c1 96 3b
       -0.027722057 -0.02372705 -0.032451525 0.0046007256
000060 f5 bc 09 3c fe b8 69 3c fc 32 1f 3c
       0.008406867 0.014265297 0.0097167455

data_bn.running_mean f4 [27]
000000 58 68 b6 42 2e c3 9b 42 4b 5f 9b 41 36 13 c7 42
       91.2038 77.88121 19.42153 99.53752
000010 0b 3f a9 42 64 70 a5 41 b8 14 b3 42 ba f4 9f 42
       84.62313 20.679878 89.54047 79.97798
000020 9b 60 9e 41 ab 95 c9 42 5c ca a3 42 f5 08 a1 41
       19.79717 100.79232 81.89523 20.129374
000030 10 5d d8 42 7a 8b 9e 42 77 ee 97 41 5f af da 42
       108.18176 79.272415 18.991438 109.34252
000040 fd 7c b2 42 11 8c ac 41 22 17 03 43 42 67 c0 42
       89.24412 21.568392 131.09036 96.201675
000050 78 2e b8 41 9f af 01 43 09 99 b6 42 b5 d3 b3 41
       23.02269 129.68602 91.2989 22.478373
000060 26 bb d2 42 e0 ad be 42 24 e7 b6 41
       105.365524 95.3396 22.862862

data_bn.running_var f4 [27]
000000 3c 69 47 46 65 fe a8 46 93 96 cc 45 d7 f8 4d 46
       12762.309 21631.197 6546.822 13182.21
000010 f5 7b b9 46 0e 3d de 45 7d 31 1f 46 74 af a2 46
       23741.979 7111.632 10188.372 20823.727
000020 6b 6f c8 45 ad 2a 4c 46 e9 24 99 46 a7 de c2 45
       6413.9272 13066.669 19602.455 6235.8315
000030 b4 0a 64 46 c5 ba 8c 46 cc 2f b3 45 a4 25 86 46
       14594.676 18013.385 5733.9746 17170.82
000040 38 3e d2 46 23 aa f5 45 68 f2 b1 46 3b 9a da 46
       26911.11 7861.267 22777.203 27981.115
000050 d6 de 02 46 03 74 a9 46 90 d6 bf 46 7c 20 f2 45
       8375.709 21690.006 24555.281 7748.0605
000060 bc 54 8a 46 05 72 c7 46 c7 42 f6 45
       17706.367 25529.01 7880.347

st_gcn_networks.0.gcn.conv.weight f4 [24, 3, 1, 1]
000000 64 0b 6e bd b3 2d 8f bb 8d 71 57 bb 83 98 1b 3e
       -0.05811633 -0.0043694614 -0.0032874078 0.15194897
000010 d8 7e 5a bd 16 43 7b 3d 02 d7 73 3d 85 b3 9f 3b
       -0.053343624 0.061343275 0.05953122 0.0048736953
000020 81 40 43 3d 9f 92 d4 bc e1 13 34 bc f4 6f fb 3d
       0.047668938 -0.02594882 -0.010991068 0.12277213
000030 da e3 d9 3c fe 1f 56 bc 8f 32 53 be 5f a8 5e 3e
       0.026597906 -0.013069151 -0.20624755 0.21743916
000040 a8 f1 90 3e 7e 4a a0 3d 8c 64 65 be b1 da 1f 3e
       0.2830937 0.07826708 -0.22401637 0.15610768
000050 4c d4 87 3d b5 f3 3f be a3 dc 92 3d 8d 47 07 be
       0.06632289 -0.1874531 0.07170989 -0.13210888
000060 dd 9a 4d bd 8d 68 44 bd 4a 61 a8 bc e8 a7 73 be
       -0.050196517 -0.04795127 -0.020554204 -0.2379452
000070 e2 66 a2 bd 6b 17 02 3d 03 fa 28 3e 2c 1a 25 bc
       -0.079297796 0.031760614 0.16501622 -0.010077041
000080 22 da 98 bc 3b 78 06 be 5f 1e 09 be 2c a1 43 3b
       -0.018658701 -0.13131802 -0.13390492 0.0029850705
000090 e4 98 21 3a cf c7 ad bc 2b 93 3c 3e 24 9c 60 bd
       0.0006164445 -0.02121344 0.18415515 -0.054836407
0000a0 c9 d2 6a be 13 fd 05 be 9b aa 86 3d 94 39 7d 3d
       -0.2293197 -0.13084821 0.06575509 0.06182249
0000b0 94 d3 2b 3d ef 1d 34 3e 36 34 cf bd 5f b9 22 3e
       0.041949823 0.17589544 -0.1011738 0.15891026
0000c0 43 21 f0 bc 29 3f 4c bb f4 6c 45 3c fc d4 2f bd
       -0.029312735 -0.0031165576 0.012049902 -0.042927727
0000d0 f0 c9 98 bc 44 28 94 bd de 1d 1d 3e c4 bc 1a bd
       -0.018650979 -0.072342426 0.15343425 -0.037777677
0000e0 2e b8 35 3d d3 32 ce bc 99 ae bf bc d2 bc 98 3b
       0.0443651 -0.02517072 -0.023398684 0.004661181
0000f0 e1 1a 58 be d7 9e 34 3c f2 01 31 bc 1f f6 39 3d
       -0.21104003 0.0110241985 -0.010803686 0.045400735
000100 da fe 7b bd f2 ba dc 3d 76 79 dc 3c 18 a6 87 bd
       -0.061522342 0.107778445 0.026913386 -0.06623477
000110 c9 4b a8 3b 1d 5c de bd fd b6 13 3e ce 9d 51 3d
       0.0051359874 -0.10857413 0.14425273 0.051175885

st_gcn_networks.0.gcn.conv.bias f4 [24]
000000 29 45 10 3d 0e af 24 3d 50 09 2c 3d 74 85 95 3d
       0.035222206 0.040206008 0.04200107 0.07300845
000010 8f cc 87 bc 31 6f 2a be 4d 3e 9d bc 12 04 fa 3d
       -0.016577033 -0.16643979 -0.019194746 0.122078076
000020 cc e4 80 bd 96 6a 8e 3c ab 07 a4 3d 72 81 d7 bc
       -0.062936395 0.017384809 0.08009275 -0.026306842
000030 d1 bf c0 3c 5d c7 0d 3e ab fe 14 3e f0 66 97 bc
       0.023528965 0.13845582 0.14550273 -0.018481702
000040 78 fa 74 bc 13 0f 17 be 84 4c 4d 3c 9b ed 6b bd
       -0.0149522945 -0.14751844 0.01253045 -0.057599645
000050 3d e3 19 3d c8 4f da 3c bc 4b cd bc a4 dc 31 ba
       0.037570227 0.02664937 -0.025060527 -0.0006784892

st_gcn_networks.0.tcn.0.weight f4 [8]
000000 9e 95 09 3e cb 32 93 3e 67 29 bd 3e 5e b1 7b 3e
       0.1343598 0.2874969 0.3694565 0.24579379
000010 d0 ce 7b 3e 13 ea a3 3e 6c 5a a0 3e 2d c7 a9 3e
       0.24590611 0.32014522 0.31318986 0.33159772

st_gcn_networks.0.tcn.0.bias f4 [8]
000000 3c 75 4f 3d d7 37 1d 3d 65 db 67 3d f3 ea ca 3c
       0.050648913 0.03838333 0.056605715 0.024770236
000010 68 9b 1a bd aa b2 68 3d de c7 e7 39 6a ce 29 bd
       -0.037745863 0.056811012 0.00044208666 -0.041456617

st_gcn_networks.0.tcn.0.running_mean f4 [8]
000000 22 9f 44 bb d6 71 17 3a 02 ec 69 3c 4d 95 7f 3b
       -0.0030002077 0.0005777156 0.01427746 0.0038998902
000010 eb b2 f9 3a 24 96 94 bb ea 7f 4a 3c b4 dd 56 3c
       0.0019050514 -0.0045344997 0.012359599 0.013114382

st_gcn_networks.0.tcn.0.running_var f4 [8]
000000 7c 79 a4 38 f9 d6 1d 39 7f 2c 81 39 5d 29 54 39
       7.8427576e-05 0.0001505277 0.0002463795 0.00020233305
000010 86 53 94 37 c0 73 3f 39 b1 ef 8e 39 87 86 66 38
       1.7681868e-05 0.000182583 0.00027262935 5.496156e-05

st_gcn_networks.0.tcn.2.weight f4 [8, 8, 9, 1]
000000 f6 bb 1e bd 18 1f 81 bc 46 7f e7 3c 38 e7 04 3a
       -0.038753472 -0.015761897 0.02825893 0.00050698547
000010 5a c9 e1 3b 18 01 c3 bc d4 af 70 3b 9b a5 e5 ba
       0.006890458 -0.023804232 0.0036725895 -0.0017520668
000020 50 58 4e 3c a5 47 11 3d 76 ca 52 bd 12 cf 0e bd
       0.0125942975 0.035468716 -0.051462613 -0.034865446
000030 b6 9d 4a bc ce 49 44 39 fb bb 9d 3c 8e 98 19 3c
       -0.012366703 0.00018719511 0.019254675 0.009374751
000040 f3 39 99 bb 04 70 b5 bc c2 4e 50 3d a6 72 50 3d
       -0.0046760975 -0.02214814 0.05085636 0.050890587
000050 73 89 00 3d bd f5 94 3d ab 4d 8c bc 99 92 c4 3d
       0.03138108 0.07273433 -0.017126879 0.09598274
000060 d9 7c 73 bd 0d 80 c6 3c 6c 8c 5d bd 7b 95 08 3c
       -0.059445236 0.024230981 -0.054088995 0.00833642
000070 87 5b 9e bc 8a 31 85 3d 4c d4 b6 3b 6f 9d c9 3c
       -0.019330753 0.065035895 0.005579507 0.024611203
000080 c9 76 f6 3c f8 77 85 3c d0 59 3a 3d e4 50 fb 3c
       0.030085938 0.016292557 0.045495808 0.03067822
000090 65 2b 97 bd fa e0 79 bc e5 2f 3b 3d 90 8c cd bc
       -0.07381324 -0.0152513925 0.045699973 -0.02509144
0000a0 9e 6b 1a bd 85 c3 c5 3c eb 5c b4 3c 57 11 47 bd
       -0.037700288 0.024141083 0.022016963 -0.04860052
0000b0 c9 7c 34 3c e7 25 bb bc a0 c3 b4 3a 28 66 ce 3b
       0.011016079 -0.022845222 0.0013791211 0.006298799
0000c0 ad 86 c3 3c 0a fe 0d 3d 42 60 15 3c 68 d4 65 bc
       0.02386793 0.0346661 0.009117188 -0.014027692
0000d0 b8 5f c1 3c 67 10 05 3c 71 3d 0b 3d 8e 83 7a 3c
       0.023605213 0.008121586 0.033994142 0.015290154
0000e0 ba a2 74 ba b9 3b 19 bd ac 09 98 bc 35 6e 87 bc
       -0.00093321095 -0.03741047 -0.0185593 -0.016532043
0000f0 ee d8 02 bd 44 c0 53 3d ae 7f 2c bc 77 d0 ac bc
       -0.03194516 0.05169703 -0.010528488 -0.021095498
000100 d3 31 fe bd 34 21 29 bb 58 28 45 bd 00 90 10 3a
       -0.12411847 -0.0025807144 -0.048134178 0.0005514622
000110 68 4d a2 bd 8c 78 bf bc b3 6e cb bc e5 87 d7 3b
       -0.0792492 -0.02337291 -0.024833059 0.006577479
000120 d8 88 db 3c 28 63 31 bc 14 55 d0 bb 3a 06 00 bc
       0.02679865 -0.010826863 -0.0063577984 -0.0078139845
000130 0a 54 39 3c ed 26 85 3c 4f 18 62 3d b3 71 44 38
       0.01131154 0.016253913 0.055198964 4.6835932e-05
000140 e2 8a 03 bc 47 cf a7 3c 43 73 a6 3c 1b 52 3f 3d
       -0.008028718 0.02048458 0.020318633 0.04670916
000150 75 60 82 3c 01 a8 a7 bc 5b ce 00 3b 3c 68 d8 3c
       0.015915135 -0.020465853 0.0019654247 0.02641689
000160 9b 31 4b bb d7 e5 12 3d 01 70 fd 3c a9 73 9c 3d
       -0.003100491 0.035863724 0.030937197 0.07639248
000170 12 0c ae 3d 09 a1 8f ba 56 a5 9f bc 65 e5 86 bd
       0.08498396 -0.0010958026 -0.019488018 -0.06586722
000180 8d 94 8d bc b2 1b 9d 3c 87 06 c7 bb 67 f2 47 3d
       -0.017282749 0.019178245 -0.006073776 0.048815157
000190 08 ca c4 bc 51 36 d0 3c 81 95 4b 3c 7f ba 9b 3c
       -0.024022117 0.025416525 0.012425781 0.019009827
0001a0 a4 9a 3d 3c 83 0a 28 3d 01 60 ba bc 31 6b df bb
       0.011572514 0.04102565 -0.022750856 -0.006818198
0001b0 af 2d b7 3c 8e 71 a6 3c ef 1e cb 3c 27 e0 ba 3c
       0.02236065 0.020317819 0.024795024 0.022811962
0001c0 63 58 4c 3c ab 6b af bc 89 c4 2b 3d 40 b3 56 3d
       0.012472245 -0.021413645 0.041935477 0.05241704
0001d0 74 fc 61 3c 7e ed cd bc 4a b7 12 3d 89 14 d8 3c
       0.0137931 -0.02513766 0.03581933 0.02637698
0001e0 46 d8 20 bd e2 c8 b1 3c d0 a5 0c bd 47 20 57 bd
       -0.039268754 0.021702234 -0.03433782 -0.052521016
0001f0 66 e0 dc bc 72 d9 4b bc c8 ef 80 bd f7 f4 5c bd
       -0.02696247 -0.01244198 -0.06295735 -0.053944554
000200 1e 48 92 bd 89 5c 53 bd 22 c9 98 bc 38 d4 1c 3d
       -0.071426615 -0.05160192 -0.018650595 0.038288325
000210 0a ff e6 3c dd d4 21 bd f1 ad 8e 3d c6 59 13 3d
       0.028197784 -0.039509643 0.069667704 0.035974286
000220 2a 72 66 bd 05 5e e8 bc 52 80 bb bb 8f d8 ca 3c
       -0.05626122 -0.028365145 -0.005722084 0.024761466
000230 63 3c 10 bd d5 78 b5 3c f1 d2 9e bc eb 3e eb bc
       -0.03521384 0.022152344 -0.019387694 -0.028716525
000240 de 7e 97 bc fa 1c c9 bb 6d 8d 32 bc 8e 79 84 3d
       -0.018493112 -0.0061374875 -0.010897976 0.06468497
000250 8c de 97 bc ef fc e2 bb 9d 96 13 3d 6c 68 cf bc
       -0.018538736 -0.0069271247 0.036032308 -0.025318347
000260 3a da 84 bc 2d 55 44 bb a5 d3 10 bb cc 39 65 bc
       -0.01621734 -0.0029957995 -0.0022098806 -0.013990831
000270 87 c7 95 3c 73 92 81 bc 17 6b 30 3c e7 8f 09 3c
       0.018283619 -0.015816903 0.01076772 0.008396125
000280 e1 cc 36 bd 0d dc 41 3c a4 89 93 3d 57 67 ec bb
       -0.04462898 0.011832249 0.07203987 -0.0072144675
000290 5a e5 f7 3a 4b 98 a6 bd b5 e7 7d 3d 71 64 3d bb
       0.0018912957 -0.08134516 0.06198855 -0.002889898
0002a0 30 40 3d 3d 81 5d 8c bd 7d 9b 03 3d fb f0 ed 3c
       0.046203792 -0.06853772 0.032130707 0.029045573
0002b0 86 a7 ce bc a7 c5 f6 bc 5e e7 bd 3c 57 a3 1d 3c
       -0.025226366 -0.030123545 0.023181614 0.009621463
0002c0 8b 19 13 bd 6e fd 00 b8 24 63 0c bd ba b2 dc 3c
       -0.03591303 -3.0753603e-05 -0.034274235 0.026940692
0002d0 35 b9 32 39 5a 44 5b 3c f5 dc 55 3d ad 9c e0 3b
       0.00017044398 0.0133829955 0.052212674 0.0068546147
0002e0 ff 51 88 bd a4 ef 9c bc 0b 4d e2 bc d8 cc 8b bc
       -0.066562645 -0.019157238 -0.027624628 -0.01706545
0002f0 5c 53 09 ba d3 3c 36 bd 19 e9 76 bd 26 f5 56 3d
       -0.0005238557 -0.0444916 -0.060280893 0.052479886
000300 f1 23 39 bd 22 52 83 bd b2 5a 47 3c b7 03 33 3d
       -0.045200292 -0.0641215 0.01216762 0.043704715
000310 27 8c 57 bd 45 82 b3 3d 93 5c a8 3b a1 fd 13 bd
       -0.052623894 0.08765081 0.005137989 -0.03613055
000320 c8 7a 7e bd 52 37 59 3d 69 5e c5 3d 6d 1b c9 3c
       -0.062128812 0.053031273 0.09637148 0.02454921
000330 b1 60 0e bd 34 23 1a 3d 87 8c 28 3d 6d a0 38 bd
       -0.03476018 0.03763123 0.041149642 -0.04507487
000340 d3 f2 c9 bc 7e 2f a8 bd 92 55 3f 3d 76 87 e6 ba
       -0.02465192 -0.082121834 0.046712466 -0.0017587978
000350 99 de 83 3d 31 0e 34 bd 5c 01 23 bd 3e 0e a9 bc
       0.064389415 -0.043958846 -0.03979622 -0.020636674
000360 96 5e 82 bc 9c 72 28 bc bd 97 83 3b 9c a6 56 3b
       -0.015914243 -0.010281231 0.0040158913 0.0032753116
000370 46 7c 9a 3c ec c3 93 bc fe eb 52 bc 87 c7 cf bc
       0.018858086 -0.018037759 -0.012873648 -0.025363697
000380 df d8 12 3c d1 4e 71 bb 3d aa 91 3c 78 b8 6b bc
       0.008962839 -0.003682066 0.017781371 -0.0143872425
000390 81 27 0d bc 08 3d cb 3c 19 6e 20 3d be 42 e7 3c
       -0.0086153755 0.024809375 0.039167497 0.028230067
0003a0 9c cc bc 3b 16 13 28 3d fa e5 7f 3c 58 e2 52 3c
       0.005761696 0.041033827 0.0156187955 0.012871347
0003b0 4b b6 89 3b 42 42 73 bc 72 8b 10 bc 15 b9 55 bc
       0.004202639 -0.01484734 -0.008822309 -0.013044615
0003c0 37 ec 22 3c c8 0a 3f 3c e0 a6 80 bd 9a 0a 39 3c
       0.009944013 0.011660285 -0.06281829 0.0112940315
0003d0 52 6e 06 bd 43 e3 04 bd 79 a3 3d bd a7 46 2e bd
       -0.032820053 -0.032443296 -0.046298478 -0.042547848
0003e0 1c db 58 bc a3 56 29 bd 65 1b 3e bd 3f 5e ba 3c
       -0.0132358335 -0.04134239 -0.046412844 0.022750018
0003f0 7d b2 a1 bb b4 64 20 bd e9 b6 a9 b7 e8 06 1a 3d
       -0.0049346075 -0.039158538 -2.0231544e-05 0.037604243

st_gcn_networks.0.tcn.2.bias f4 [8]
000000 91 c0 8e b7 13 75 0d b7 71 56 d5 b7 4b 75 8c b8
       -1.701739e-05 -8.431513e-06 -2.5431831e-05 -6.697568e-05
000010 fd 2c 89 b7 ce f7 3a b8 d2 11 59 38 f6 86 0e 36
       -1.6352622e-05 -4.457664e-05 5.1753428e-05 2.1238207e-06

st_gcn_networks.0.tcn.3.weight f4 [8]
000000 d8 cf a7 3e 70 cc 92 3e a8 0f 83 3e 3c b5 69 3e
       0.3277576 0.28671598 0.25597882 0.22823042
000010 08 52 40 3e f2 8f 9a 3e 0f ce aa 3e b1 92 95 3e
       0.18781292 0.30187947 0.33360335 0.2921348

st_gcn_networks.0.tcn.3.bias f4 [8]
000000 5d 74 f7 bc 79 0e ba 3b 3d 51 60 3d b5 f1 2f 3c
       -0.030206854 0.005677995 0.054764975 0.01073878
000010 4f f9 5e bc 5f 16 42 3d e4 fa 03 3d 78 cc c5 bc
       -0.0136092445 0.047384616 0.03222169 -0.02414535

st_gcn_networks.0.tcn.3.running_mean f4 [8]
000000 bf 71 6b 3c 86 64 6f 3c ba af 56 bc 41 c5 12 bd
       0.014370381 0.014611369 -0.01310342 -0.035832647
000010 e1 77 07 3d d6 3d 18 3d 36 c8 b0 bb 87 3c 50 3c
       0.03307331 0.037168346 -0.0053949608 0.012709743

st_gcn_networks.0.tcn.3.running_var f4 [8]
000000 ec 2c ab 3b 66 6c 54 3b ab a2 b0 3a af ed 54 3a
       0.005223861 0.0032413243 0.0013476213 0.0008122576
000010 68 51 c4 3a e3 35 83 3b 46 db a0 3b fe 1a 74 3b
       0.0014977874 0.0040042265 0.004908952 0.0037247534

st_gcn_networks.1.gcn.conv.weight f4 [24, 8, 1, 1]
000000 97 bd 8b bc 2d 60 13 bd ae a4 67 3d f5 41 6f 3d
       -0.017058177 -0.035980392 0.056553535 0.05841251
000010 cb a4 8a bc 0f 07 b2 3c aa 1c ef 3b 42 8a 3a 3d
       -0.016924283 0.021731881 0.007297118 0.04554201
000020 4f aa b6 bb 4e 2a 8b bc b2 6c af 3d 9c 69 2a bd
       -0.0055745016 -0.016987946 0.08565654 -0.041604623
000030 f2 ee 17 3d 47 e8 d9 bc a8 a8 84 3d 64 df bb 3c
       0.03709311 -0.026600016 0.06477481 0.02293367
000040 b0 98 92 3d 51 f6 8b bd 93 e7 f3 bc 23 4c ab 3d
       0.07158029 -0.068340905 -0.02977351 0.08364131
000050 fa 33 7a 3d ed df 8a 3d 11 bd f8 bc f7 3b a6 bc
       0.061084725 0.06780992 -0.030363591 -0.020292265
000060 98 41 c7 3b 66 76 d9 bc f5 d4 04 bd 4b 41 d8 bc
       0.0060808174 -0.026545715 -0.032429654 -0.026398322
000070 bb e6 8a bd 8a 8b cb bd 5a 02 35 3d f4 42 c3 bd
       -0.067822896 -0.09938724 0.044191696 -0.09534255
000080 ed 76 ef bc 5c f8 a4 3b 54 22 7d 3d a1 2e 40 bd
       -0.029231513 0.0050344896 0.061800316 -0.04691947
000090 00 8a 76 3c cb f2 c5 3c 01 95 2c 3d f6 5c 80 bc
       0.01504755 0.024163624 0.04213429 -0.015669327
0000a0 3d ac 16 3c cf bb ad bd a3 b9 07 3d bc d1 60 bd
       0.009196338 -0.08483087 0.03313602 -0.05488752
0000b0 96 44 78 bc b0 a7 86 ba 6e 3e b7 bd 43 de 5a 3c
       -0.015153071 -0.0010273363 -0.089474544 0.013358655
0000c0 3c 07 e4 bc bb d3 dc bb bb ae 57 3d 99 2b 2e 3c
       -0.02783548 -0.0067391074 0.05265687 0.010630512
0000d0 83 e1 79 3c 15 c9 b3 3c bb ae 45 bd db 52 ce bc
       0.01525152 0.02194647 -0.04826234 -0.025185993
0000e0 3b 1b 13 bd cb 29 8b bb 56 7c 1f bd 8e b9 fb bc
       -0.03591464 -0.0042469255 -0.038936935 -0.030728128
0000f0 d4 76 6f bc c4 9b 6a 3d be 12 d3 3a c3 b9 9d 3d
       -0.014615733 0.057277456 0.0016103608 0.07701447
000100 eb b3 92 bc 76 a1 92 3d a4 50 9e 3c d3 4b 1f bd
       -0.017908057 0.071597025 0.019325562 -0.03889067
000110 36 eb 8a bd 96 95 52 3c 30 3f 98 3d 97 c1 c6 3d
       -0.06783144 0.012853047 0.07433927 0.09704893
000120 78 ca 69 bd 76 2c 92 bc 8e 64 86 bd be da 2f bc
       -0.057077855 -0.017843466 -0.06562148 -0.010733305
000130 07 96 bb bb f2 a8 0f bd fd 8c 5e 3d c9 a6 9b 3b
       -0.0057246718 -0.03507323 0.054333676 0.004750107
000140 87 f3 33 3c 61 30 f8 ba 35 51 58 3d fb 8f 63 bd
       0.010983354 -0.0018935316 0.05281182 -0.055557232
000150 56 e3 44 bd b2 a5 c1 bd 6a 1f c2 3d 49 6d 5e bd
       -0.048068367 -0.09455432 0.09478648 -0.05430344
000160 73 03 a0 bc fb c6 fa 3d 52 51 8e 3d 8b 12 b5 3c
       -0.019532895 0.12244984 0.06949104 0.022103569
000170 a3 2c 44 bd e7 57 87 3d 9e f1 ee bc 6d fa d3 bd
       -0.04789413 0.06608563 -0.029167946 -0.10350499
000180 1b b0 20 bd db 66 4f bc 4c d7 a8 3d fa 4c 38 3d
       -0.039230447 -0.0126588 0.082441896 0.044995286
000190 4f 5e 5c 3b 9c 4c e4 3c b8 e0 e5 bc 99 7b 27 3d
       0.0033625548 0.027868561 -0.028061256 0.040889356
0001a0 7d 00 a5 3d ab cb 3c bd 02 ce 2c bc c0 e3 9c bd
       0.08056734 -0.04609267 -0.010547163 -0.07660627
0001b0 5e 5a 06 3d 65 f2 aa bd 67 12 a5 3d 85 b2 4d 3d
       0.032801025 -0.08347014 0.080601506 0.050219078
0001c0 58 bc 75 bd 53 1b e2 bd bf e4 27 3d 70 72 f5 3c
       -0.05999407 -0.11040368 0.040989634 0.029961795
0001d0 08 21 98 bd 9f 52 4e bd f6 7d 02 3d d1 81 95 3d
       -0.07428175 -0.050371762 0.031858407 0.07300151
0001e0 f8 57 ef 3c c6 66 94 3b 5a 59 4d bc 26 02 7f 3b
       0.029216751 0.004528853 -0.01253351 0.0038911193
0001f0 1f 16 d7 bb 6d 70 d8 3c 56 6a 20 3d ef 70 a8 bb
       -0.0065639163 0.026420796 0.03916391 -0.005140416
000200 68 e1 a7 bc 30 2b 12 bc d1 ab 1d 3d 10 2d a7 3d
       -0.020493224 -0.0089214295 0.038493935 0.08162892
000210 55 37 0d bb 05 80 23 3d 8c 8b 1c bd c6 37 02 bc
       -0.0021547873 0.03991701 -0.03821902 -0.007947868
000220 99 b8 8d 3d fc dc d6 3c 10 16 eb 3c ec 12 d1 bc
       0.06919975 0.02622842 0.028697044 -0.025521718
000230 5c e3 8a 3c 59 8f 2f 3d 2d 8b c3 3d 4e de 1d ba
       0.016954117 0.042861316 0.0954803 -0.00060222007
000240 22 37 b4 bb c2 e8 b9 3c 52 b6 ed bc 90 f2 a0 bd
       -0.0054997364 0.022693995 -0.029017601 -0.07858765
000250 20 9c 67 3c d2 92 58 bd 68 1a 82 3d 22 bf 9e 3c
       0.014136344 -0.052874394 0.06352693 0.019378249
000260 dd aa 92 3d 96 99 26 bd 7f a9 ce bc a4 46 78 bd
       0.07161496 -0.040673815 -0.025227306 -0.060614243
000270 32 23 cf bb 65 0f b6 bc b8 a6 1b 3e 73 8b 43 39
       -0.0063213343 -0.022224138 0.15200317 0.00018648598
000280 1f 28 47 3b 91 3b 39 3c a0 d3 3b bb 1c c0 a8 bd
       0.0030388904 0.011305706 -0.0028660074 -0.08239767
000290 7f e0 0c 3d e0 76 e1 bc 77 3b 9b 3c e4 c4 2c bc
       0.034393784 -0.027522504 0.018949253 -0.010544989
0002a0 3e b6 25 bc 64 94 23 bd a3 e9 d8 bc bf 8a cf 3c
       -0.010114251 -0.03993644 -0.026478594 0.025334714
0002b0 5d 90 9c bd 49 ea 96 bd 75 66 51 bd 20 97 52 bc
       -0.076447226 -0.07368905 -0.0511231 -0.012853414
0002c0 33 ca 98 3d 24 f2 2a 3d e1 0d 1d 3d 84 16 be bd
       0.074604414 0.04173483 0.038343314 -0.09281638
0002d0 0c 5d 5a 3d 35 ad d2 3c c8 20 95 bc d6 e7 12 bd
       0.053311393 0.025717357 -0.018204108 -0.035865627
0002e0 34 fc ce 3b 98 61 c7 3b 38 69 83 3c e5 a8 b9 ba
       0.006316686 0.006084632 0.016041383 -0.0014164714
0002f0 85 bc 5e 3c bc 0d fa bc 66 81 45 bb 6c 90 66 3d
       0.013594751 -0.030524127 -0.0030136942 0.056290075

st_gcn_networks.1.gcn.conv.bias f4 [24]
000000 17 94 6a 3a 49 a2 79 3c 5a 96 92 bc a7 89 11 3d
       0.00089484587 0.015236446 -0.017893959 0.035531666
000010 03 38 8a 3b f5 79 61 bb e1 75 a5 3a c4 45 48 3a
       0.004218103 -0.0034404967 0.0012623632 0.00076397904
000020 4d 94 92 bd 2d a3 38 bc b2 82 a1 3c 1b 3b 30 3a
       -0.071571924 -0.011269373 0.01971564 0.00067226746
000030 d8 cc 6d bd 5d 9a 31 3c b9 cd 57 3d 3b 03 1c bc
       -0.058056682 0.010840026 0.052686427 -0.009522255
000040 06 88 16 bc 28 80 2c bd 9f 73 a9 3b 82 5a 85 3c
       -0.009187704 -0.042114407 0.005171254 0.016278509
000050 4b 7f 37 3c d1 df 29 bc e5 26 e2 3c 38 cb 50 bc
       0.011199783 -0.010368303 0.027606437 -0.012743764

st_gcn_networks.1.tcn.0.weight f4 [8]
000000 7b 37 52 3e 69 7d 3e 3e 34 2e 85 3e 01 a0 90 3e
       0.20528977 0.18602528 0.26011813 0.28247073
000010 44 de 1d 3e cb 25 66 3e 57 f8 7e 3e 64 06 42 3e
       0.15416819 0.22475354 0.24899422 0.1894775

st_gcn_networks.1.tcn.0.bias f4 [8]
000000 ff 5a df bc 44 c3 35 3c 99 91 af 3c 55 d3 e7 ba
       -0.02726507 0.011093918 0.021431731 -0.0017686883
000010 b0 51 9f bc 60 d6 d9 bb e7 76 0c bd d7 dc 00 bd
       -0.019448131 -0.00664787 -0.03429308 -0.03146061

st_gcn_networks.1.tcn.0.running_mean f4 [8]
000000 e0 50 96 ba a5 d3 0b ba da 63 16 37 60 9a a7 3a
       -0.0011468194 -0.00053339667 8.963945e-06 0.0012787096
000010 61 38 14 bb 3b 9c 72 ba 4c 9d 1d 3b a0 dd d5 b6
       -0.0022616612 -0.00092548475 0.0024050055 -6.373695e-06

st_gcn_networks.1.tcn.0.running_var f4 [8]
000000 5e 7a 8b 36 59 76 92 36 a1 5e 47 37 42 ba 03 37
       4.1567682e-06 4.3649165e-06 1.1883357e-05 7.851575e-06
000010 55 72 d1 36 41 ca 8a 36 2f 5c 32 37 6b 20 a6 36
       6.2419954e-06 4.136266e-06 1.063109e-05 4.9509595e-06

st_gcn_networks.1.tcn.2.weight f4 [8, 8, 9, 1]
000000 97 46 88 bc 28 43 94 3a 87 74 ad 3c ce 83 4e bc
       -0.016635222 0.0011311518 0.021173729 -0.012604667
000010 5a 87 48 bc 39 fc 31 bd b6 04 58 bb 4e 4d 1c 3c
       -0.012239302 -0.04345343 -0.0032961792 0.009539915
000020 bc 93 3a 3d 78 09 58 bd a4 f2 66 3c 57 97 3a 3d
       0.045551047 -0.052743405 0.014095936 0.045554485
000030 9a ba 3e b7 ec 54 47 bd 00 78 fd bc dd be e8 3c
       -1.1368329e-05 -0.048664972 -0.03094101 0.028411323
000040 ef c0 f0 3c 2b 38 b9 bc fe 67 9e 3b 6e cb a6 bc
       0.029388873 -0.02260979 0.004834174 -0.020360675
000050 44 e0 68 3d 54 5a 21 bc e5 0a 89 3c b1 b6 e8 bb
       0.0568545 -0.009848196 0.016728828 -0.0071018566
000060 9f 04 42 3d be f7 16 bd 9d 28 53 bd 34 32 ed 3b
       0.04736769 -0.03685736 -0.051552404 0.0072386507
000070 86 3e 70 3c 00 27 ed 3c bb 59 2d 3a d2 d7 fd 3c
       0.014663344 0.02894926 0.0006612797 0.0309867
000080 13 b1 5f 3d cb 5e 42 bd 7c 0f 5a bd ae f2 23 bd
       0.05461223 -0.047453683 -0.053237423 -0.04002636
000090 7d 9f 54 bb 6a f9 9e bc ce 09 80 bc 34 b6 03 3a
       -0.0032443695 -0.01940604 -0.015629675 0.0005024404
0000a0 82 a7 4c 3c 44 7f 2d 3d 5f 65 b7 3c 3a 27 8a 3c
       0.012491109 0.042357698 0.022387205 0.016864408
0000b0 81 48 bf 3c d8 43 fb 3b 2c fd 23 bd d5 c3 e1 3c
       0.023350002 0.0076679997 -0.040036365 0.0275592
0000c0 5f 1c 7d 3c 6b 29 d4 bc 6d ce 09 bc e1 0a e8 bb
       0.015448659 -0.025898656 -0.008411032 -0.007081375
0000d0 66 38 4e bc 74 d4 51 bc cc 8d 4c bc 10 bd 13 3c
       -0.012586689 -0.012807 -0.012484979 0.009017244
0000e0 4f 7c 1a 3c 75 45 91 bc 4f 30 05 3d 64 f8 f3 3c
       0.009429052 -0.017733315 0.032516774 0.029781528
0000f0 85 7c db 3c 13 35 92 3b d3 12 2a 3c c1 d2 7e 3c
       0.026792774 0.0044618933 0.010380465 0.015553177
000100 92 49 54 bc 96 dc 65 bd 90 3e 45 bd b9 65 12 3d
       -0.012956994 -0.05611857 -0.048155367 0.03574154
000110 c2 73 f5 bc 6a d0 3a bc 5f 11 5f 3c ed 7b 97 bb
       -0.029962424 -0.011402229 0.013614981 -0.0046229274
000120 72 28 b4 3b 8a a2 b8 bc 14 8f a5 3b 95 ae d1 ba
       0.0054979855 -0.022538442 0.0050524566 -0.0015997464
000130 0e e3 86 bc a7 2e 10 bd d8 56 85 3c ac 5a 9e 3c
       -0.01646569 -0.03520074 0.016276762 0.019330345
000140 c7 99 26 bd 49 f9 51 bd b8 66 17 bc 57 05 80 bc
       -0.040673997 -0.051263127 -0.009240799 -0.015627546
000150 0d b3 ad bd 14 76 e2 3c c6 50 ca 3b 37 4b 44 3d
       -0.08481417 0.027644195 0.0061741797 0.047923293
000160 4e 44 a2 3c 31 a3 35 3d ee b1 11 bd 2f 16 43 bc
       0.01980796 0.044345085 -0.035570078 -0.011907144
000170 0f 3e 80 3c 2d 5f 95 bc 88 9a f3 3c e3 dc 04 3d
       0.015654592 -0.01823386 0.029736772 0.032437216
000180 43 41 73 3b cb ed 61 3d bf be c9 3c c0 b3 77 3c
       0.0037117756 0.055158418 0.024627088 0.015118539
000190 c0 8e 70 3d 7e cf 7f b8 c4 f7 eb 3c 8b 6e 19 bb
       0.058729887 -6.098998e-05 0.028804667 -0.0023411836
0001a0 fb 24 16 3d b4 58 17 3c 08 e9 70 bc 2b a4 04 3d
       0.03665636 0.009237457 -0.0147039965 0.032383125
0001b0 3c bf d8 bc 94 b1 af 3c 4c 41 a4 bc 2d 3a b7 bc
       -0.026458375 0.02144698 -0.020050667 -0.022366608
0001c0 d0 39 a8 bb 9b 08 8b bb 13 0f cd 3c 6c f5 0c bd
       -0.005133845 -0.004242969 0.025031602 -0.03441374
0001d0 83 b1 47 3c fa 34 96 3c 4a bf cb 3a 18 32 80 bc
       0.012188318 0.018335808 0.001554468 -0.015648887
0001e0 a2 dd 05 bc 54 0a 57 bc ea 6e a6 3b 68 02 9c 3a
       -0.008170517 -0.013125021 0.00507914 0.0011902573
0001f0 00 da 2b 3c 13 69 84 3d f0 ce a7 bc df 24 8c 3b
       0.010488987 0.06465354 -0.020484418 0.0042768563
000200 82 8b 57 3d 3b 1c 13 bd b8 22 10 3d 7d 37 6e bc
       0.05262328 -0.035915595 0.03518936 -0.014539597
000210 44 71 f4 3c d7 b1 94 bc 00 cc 06 3d 16 28 21 bc
       0.029839166 -0.018151207 0.032909393 -0.009836217
000220 18 0f 28 bd a7 0c b9 bc d6 12 6f bc bc 86 c8 bc
       -0.04103002 -0.02258904 -0.014591893 -0.024478309
000230 fd 5f 95 3c 65 a0 9c 3a d7 67 47 3a 1b f9 38 3c
       0.018234247 0.0011949657 0.0007606721 0.01128986
000240 89 bd 8e bb 2c 38 6b bd 57 be 99 bc d2 e3 17 3c
       -0.0043560904 -0.057426617 -0.018767519 0.009270625
000250 01 ca 6f bb 3b ec 8e 3a 68 32 36 ba b8 b5 25 bd
       -0.003658891 0.0010904142 -0.000695026 -0.040456504
000260 94 5c 70 bd f3 b8 2a 3d 81 e8 d4 bc 63 71 08 bd
       -0.05868204 0.041680288 -0.025989773 -0.03331126
000270 34 4e 3e bc 27 e3 3c 39 8b 73 ab bb 08 9f c4 bc
       -0.011615325 0.00018013698 -0.0052322797 -0.024001613
000280 4f 88 05 3c a1 3f dd 3a d3 cc 36 3d b7 9d 24 bd
       0.008150174 0.0016879925 0.04462893 -0.04018947
000290 bd 19 8f 3c 28 96 44 3d b8 e9 8e bd ea 1e 06 3d
       0.017468328 0.047994763 -0.06978172 0.032744326
0002a0 62 bc 0f 3d 60 37 e2 3c 6c 2a 0d 3c 0c 73 c4 bc
       0.035091765 0.027614295 0.008616071 -0.02398064
0002b0 42 95 44 3d 30 93 30 bd f1 2c 1c 3c 1f 84 f0 bb
       0.047993906 -0.04310912 0.009532199 -0.007339969
0002c0 cc 90 fe bc 3c 85 26 bd f0 41 a2 3c a8 36 c1 bc
       -0.031074904 -0.040654406 0.019806832 -0.023585632
0002d0 a2 f2 14 bb b2 cb 50 3c 09 d1 8f bb 77 7a 76 3d
       -0.0022727628 0.012743877 -0.0043889326 0.060175385
0002e0 81 be 8d bc 8f 57 b7 bc cf 11 e3 3c 47 cc 9c bc
       -0.017302753 -0.022380618 0.027718453 -0.019140376
0002f0 5e fd 14 bd 56 88 e0 ba 7d 1c 49 bc 5b af 3e 3d
       -0.036374442 -0.0017130475 -0.012274859 0.04655395
000300 67 8f 03 bc 12 57 80 3c 6d 18 e2 bc 6f 58 e8 b9
       -0.008029795 0.015666518 -0.027599538 -0.00044316376
000310 28 37 bd bd c6 15 63 bd d0 1e 47 bc fe 20 86 bb
       -0.09239036 -0.055440687 -0.012153342 -0.0040932884
000320 46 aa c2 3c 61 83 75 3d ec a4 2d bc a5 73 3b bc
       0.023762833 0.059939746 -0.0105984025 -0.011441146
000330 69 6c 0b 3c f3 41 6a 3c b8 cd 6a 3d 2b 12 f3 3b
       0.008509734 0.01429795 0.057325095 0.0074179373
000340 1e 92 e3 3c 59 c6 fb 3c 62 fa 27 bc c7 1f 87 3c
       0.027779635 0.030734228 -0.010252567 0.016494645
000350 8a 11 92 bc 76 31 75 3c d3 ae d5 bb b9 6b 81 bc
       -0.017830629 0.014965406 -0.006521085 -0.015798436
000360 92 77 26 bc 42 bd 99 bc 87 0d 74 3d 4c 1b 9c bc
       -0.010160344 -0.018767003 0.059583213 -0.019055985
000370 2c 8a 2a bd 9f cd c5 bb fe 51 10 bd 61 d0 7b bd
       -0.041635677 -0.006036475 -0.035234444 -0.061478022
000380 89 8d 0b 3d b9 d0 34 3d 78 44 12 3c ad 40 cf 3b
       0.034070525 0.044144366 0.008927457 0.0063248486
000390 71 8b 00 3c eb 18 e7 3c 56 53 20 b9 4e f2 33 bd
       0.007845745 0.028210124 -0.00015289834 -0.04393225
0003a0 ea 13 2e bd e9 8d 32 3c 59 75 9e 3b d2 1b 8d 3a
       -0.04249946 0.010898092 0.0048357663 0.0010765737
0003b0 96 97 e7 3c ce cc 02 bd 2b 22 89 3c e5 b7 ab bb
       0.028270524 -0.0319336 0.016739925 -0.005240428
0003c0 d2 74 41 3c 8b f9 aa bb ce f1 55 3d 40 23 d3 bb
       0.011807637 -0.005217736 0.052232556 -0.006443411
0003d0 82 fb bd bb ed ee 21 bc bc ab f1 3c 36 d8 04 bc
       -0.0057978043 -0.0098836245 0.029500835 -0.008108189
0003e0 89 b6 0e bd 31 2b 67 bb f4 2b cb 3c f0 92 81 bd
       -0.034842048 -0.0035273547 0.024801232 -0.06326854
0003f0 f6 fd c6 3c 46 73 1b bc df c2 f4 bc c2 f1 2f bd
       0.02429102 -0.009487933 -0.029878078 -0.042955168

st_gcn_networks.1.tcn.2.bias f4 [8]
000000 7e 20 9e b7 20 08 c3 b5 19 4d 99 b8 e4 86 e0 38
       -1.8850198e-05 -1.4530997e-06 -7.309969e-05 0.00010706278
000010 24 d9 44 b8 60 c8 a4 b5 54 e0 2d b8 99 85 29 37
       -4.693227e-05 -1.2277269e-06 -4.1455336e-05 1.0104291e-05

st_gcn_networks.1.tcn.3.weight f4 [8]
000000 b3 9c 4b 3e c4 56 7b 3e 0a 16 89 3e 6c d4 79 3e
       0.19883995 0.24544817 0.26774627 0.24397439
000010 05 cf 49 3e b5 8f 85 3e dd 1a 87 3e d3 93 33 3e
       0.19707878 0.26086202 0.26387683 0.17536859

st_gcn_networks.1.tcn.3.bias f4 [8]
000000 e0 30 3d bb 62 30 33 bc 35 c8 56 bc 5a 4e bc bb
       -0.0028868243 -0.010936828 -0.0131092565 -0.005746645
000010 e1 51 85 bb 11 36 b3 bb 4a 26 4f bc 78 92 b8 bb
       -0.0040685986 -0.0054690917 -0.012643406 -0.005632695

st_gcn_networks.1.tcn.3.running_mean f4 [8]
000000 95 c1 8f b9 d9 62 7e 3c 87 f1 7f bb 36 c6 2e ba
       -0.00027419315 0.015526497 -0.0039053874 -0.0006667109
000010 4a 8b b0 ba 40 6c 1b 3c e3 90 1a bc 54 a1 13 bc
       -0.0013469246 0.009486258 -0.009433958 -0.009010632

st_gcn_networks.1.tcn.3.running_var f4 [8]
000000 cb e9 82 39 8d 4a 75 3a 13 82 f4 39 1f 83 85 39
       0.00024969722 0.0009357117 0.0004663622 0.0002546543
000010 69 90 70 39 3e b0 3f 3a 95 34 f2 39 b3 b0 04 3a
       0.0002294198 0.0007312334 0.00046197014 0.00050617306

st_gcn_networks.1.residual.0.weight f4 [8, 8, 1, 1]
000000 5a d7 0f bd 25 34 79 bd 3d fb d7 bd 99 06 81 bc
       -0.035117485 -0.060840745 -0.10545967 -0.015750216
000010 cd 1f 39 bd 68 7b be 3c 08 55 5f 3d 90 1b 33 bb
       -0.045196343 0.023252204 0.05452445 -0.002732966
000020 1b 04 9a bd 8d aa 27 bd b7 20 12 bd ac 28 b6 37
       -0.07520314 -0.040934134 -0.03567573 2.171503e-05
000030 45 b7 c0 3c 7a 02 88 3d 00 25 af 3d 97 42 b7 bd
       0.02352489 0.06641097 0.08551979 -0.08948248
000040 e8 1f 01 be f2 a0 85 39 24 3b 97 3d de 9a 93 3b
       -0.12609828 0.0002548765 0.07384327 0.0045045456
000050 a3 85 d6 bc e3 b6 50 3d 53 f5 3c bb 27 7e 3d bd
       -0.02618677 0.050955664 -0.0028832748 -0.046262886
000060 16 30 c1 3d b3 00 cb 3c 48 73 26 bd e7 7b 50 bb
       0.09433 0.024780607 -0.040637285 -0.0031812133
000070 15 78 ce bc 59 81 4b 3c 7c 02 63 3d 0c d9 89 3d
       -0.025203744 0.012420976 0.05542229 0.067308515
000080 b7 5b 6d bd 0d e3 3a 3d ed 6f 70 bd 15 28 8e 3c
       -0.057948794 0.04562669 -0.05870049 0.017353097
000090 14 c7 35 3d 02 fc 53 bd f8 b2 8b 3d 3b e5 81 3d
       0.04437931 -0.051754005 0.06821245 0.0634255
0000a0 0f 73 f1 3d b9 44 d4 3c 9d 76 9e 3d 0c 45 17 bc
       0.11789524 0.025911676 0.077374674 -0.009232771
0000b0 93 f3 77 bd f7 4b f9 bc c8 8d aa bc a8 4c b1 bd
       -0.060535025 -0.03043173 -0.02081956 -0.08657199
0000c0 d0 d0 8e 3c 17 4d d2 3c a2 d7 89 bd ab 4b b8 3c
       0.017433554 0.025671525 -0.06730582 0.022497019
0000d0 e5 a5 c8 bc cf 55 de bc 93 55 a8 bd 8e 07 c1 3c
       -0.024493167 -0.027140526 -0.08219447 0.023563173
0000e0 e0 93 d9 3b 72 1c 15 3d 4e c6 a9 3d 03 c9 ce 3c
       0.0066399425 0.03640408 0.08289777 0.025242334
0000f0 83 d9 3d 3d 62 91 9a 3d ea 20 8a bd c6 7a ec bc
       0.046350013 0.07547261 -0.06744559 -0.028867137

st_gcn_networks.1.residual.0.bias f4 [8]
000000 ff ee 79 37 55 ba 27 37 79 b1 06 b8 cf d4 d1 36
       1.4897202e-05 9.9973595e-06 -3.2113374e-05 6.2534596e-06
000010 61 65 13 38 54 bb 92 38 86 5b 7a b8 dd f4 a2 38
       3.5141948e-05 6.996715e-05 -5.9689883e-05 7.770371e-05

st_gcn_networks.1.residual.1.weight f4 [8]
000000 be 99 5e 3e 45 e1 31 3e 76 0e 66 3e bc 7e 5d 3e
       0.21738335 0.1737109 0.22466454 0.21630377
000010 19 c2 22 3e 18 6d 5b 3e 5c bc 9f 3e 71 98 12 3e
       0.15894355 0.21428335 0.31198394 0.14315964

st_gcn_networks.1.residual.1.bias f4 [8]
000000 e0 30 3d bb 62 30 33 bc 35 c8 56 bc 5a 4e bc bb
       -0.0028868243 -0.010936828 -0.0131092565 -0.005746645
000010 e1 51 85 bb 11 36 b3 bb 4a 26 4f bc 78 92 b8 bb
       -0.0040685986 -0.0054690917 -0.012643406 -0.005632695

st_gcn_networks.1.residual.1.running_mean f4 [8]
000000 21 fb 81 bc 72 fa 42 bb 55 b9 3b bb aa b6 a9 3c
       -0.015866818 -0.0029751328 -0.0028644402 0.020716984
000010 9e 17 7b 3b 51 50 59 3b 19 3c 6c bc 8c 7c 94 3c
       0.0038313637 0.0033159445 -0.014418625 0.018125795

st_gcn_networks.1.residual.1.running_var f4 [8]
000000 60 3e 13 3a f9 07 5a 3a 25 f4 2b 3a ac 43 7c 3a
       0.00056168996 0.0008317228 0.00065595127 0.0009623121
000010 1b 17 64 3a da f5 87 3a 6b fa 39 3a bc 5f 0d 3a
       0.0008700953 0.0010372952 0.0007094505 0.00053929887

st_gcn_networks.2.gcn.conv.weight f4 [48, 8, 1, 1]
000000 42 94 0f 3d 8e 0c 7f bd 7a 23 4c 3c 08 b8 47 bd
       0.0350535 -0.062267832 0.01245963 -0.04875949
000010 d5 d6 55 3d c0 95 35 3c 08 cb 8a bd 9e 99 cb bc
       0.052206833 0.011083066 -0.067770064 -0.024853524
000020 5b 88 87 bc b8 ea 46 bc 90 aa 3b 3b c1 8d 0e bd
       -0.016544512 -0.012140922 0.0028635599 -0.034803156
000030 b5 89 59 bc 4f 38 2f 39 f9 48 e6 3c 18 b6 b2 bc
       -0.013277461 0.00016710277 0.028110968 -0.021815345
000040 61 1f c7 3c e7 62 b3 bc 60 58 94 3c 61 73 27 bd
       0.024306955 -0.021897746 0.018108547 -0.04088152
000050 68 fd 8d bc da 13 01 3c 78 97 54 bd 25 c4 5b bc
       -0.017332748 0.007878268 -0.051902264 -0.013413464
000060 64 c7 c2 3c 60 a2 e0 bb af 20 4b bb f9 7f 94 bc
       0.023776717 -0.006855294 -0.0030994823 -0.018127428
000070 25 50 35 bb b4 9c 40 bd b4 01 57 bc b3 ee 82 bb
       -0.0027666178 -0.047024444 -0.013122965 -0.0039957403
000080 db 68 10 3d 33 66 b7 3c f4 48 10 bd 1b 03 98 3c
       0.035256248 0.0223876 -0.035225824 0.018556168
000090 a3 42 88 bd c4 f1 24 3d cb c9 63 bc 87 a9 f0 bc
       -0.06653335 0.04026963 -0.013903092 -0.029377712
0000a0 fe 51 98 3d d2 31 6f bc 74 68 88 bd ca bc e6 bc
       0.07437514 -0.01459928 -0.06660548 -0.028166194
0000b0 96 ff aa 3d e4 19 5b bc 84 dd d1 bd 77 10 98 bc
       0.083495304 -0.013372872 -0.10247329 -0.018562539
0000c0 d8 ce 24 bd b8 25 bc bd fc 61 1b bd dd 6d e0 3b
       -0.040236324 -0.09186882 -0.037935242 0.006849034
0000d0 d9 fb 57 bd 6f 6c 4f 3d be 8c cd bd fd e3 c7 bb
       -0.052730415 0.05064052 -0.1003661 -0.0061001764
0000e0 53 ca 3c bc 34 0e 66 bc eb da 19 3d 09 11 93 bc
       -0.011522847 -0.014041472 0.037562292 -0.017952459
0000f0 36 51 18 bc b4 31 8d bc 0a ab 23 3d 6d c1 6f bc
       -0.009296706 -0.017235614 0.039958037 -0.014633519
000100 ed 13 06 bd 06 0a c4 bc 4d 77 08 bd 80 42 a8 3c
       -0.032733846 -0.02393056 -0.0333169 0.020539522
000110 97 9a 24 bd b7 e4 1a 3d bd c6 a9 bc 32 b4 49 bd
       -0.04018649 0.037815776 -0.020724649 -0.049244113
000120 6c 64 aa 3c 2d 1d b4 bc c5 2d 6a 3d 75 68 a6 3c
       0.020799838 -0.021986568 0.057172555 0.02031348
000130 a9 b3 9e 3c 8d 51 38 bd 4a 9b 92 3c 51 e8 be 3b
       0.019372778 -0.044999648 0.017896313 0.005826034
000140 b3 9f 40 3c 91 58 fe bc 22 a3 f7 3c 0c 7c 8f 3b
       0.011756825 -0.031048091 0.030229155 0.004378801
000150 06 f8 29 3d 41 e0 7e 3d 65 85 57 bb 13 50 92 bc
       0.0414963 0.062225584 -0.0032885906 -0.017860448
000160 89 22 01 3d 81 c0 18 bd f2 3a 22 bd 36 88 0c 3d
       0.031527076 -0.03729296 -0.039606996 0.03430959
000170 56 97 ac bc d9 fd 81 bc 54 72 90 3c 4f 16 6c bd
       -0.021068256 -0.015868114 0.01763264 -0.057638463
000180 ec 5b c5 3c 37 56 db bc 02 65 68 bb 3c e4 a3 3d
       0.024091683 -0.026774509 -0.0035460596 0.080025166
000190 59 5d 33 bc 40 0b b3 3c 5b da ea 3c 2f 76 15 bc
       -0.010947549 0.02185595 0.028668573 -0.009122415
0001a0 1a 7f 47 3c 41 e8 86 bd 5c 2d 8a 3d d6 5d a2 bc
       0.0121762995 -0.06587268 0.06746933 -0.019820135
0001b0 42 e7 1a bc 79 ac 9a bb 8f 66 05 bc 56 37 94 bb
       -0.00945455 -0.0047202674 -0.008142128 -0.004523198
0001c0 05 e9 25 bd 6d c3 cd 3c 9d f5 2f 3d 71 5b 27 bd
       -0.040505428 0.0251176 0.042958844 -0.04085869
0001d0 4c b4 54 3c c3 a1 40 3d c4 07 e6 3c 39 69 15 bc
       0.012982439 0.047029268 0.028079875 -0.009119325
0001e0 94 fb d9 bc 22 6b 18 3d fb ef af bc 90 bf 29 bd
       -0.02660922 0.037211545 -0.021476736 -0.041442454
0001f0 56 af a3 bd 51 2d a8 bb f8 1c 8c bb 0a a5 91 bc
       -0.07992427 -0.0051323553 -0.0042759143 -0.017778892
000200 56 e1 f0 3c 52 00 fc bc 1f 24 c7 3c f6 0b 6a bd
       0.029404324 -0.030761871 0.024309216 -0.057140313
000210 02 eb 39 3d 8f 24 9d 3d 80 31 bd 3d 20 1f 4d bd
       0.045390137 0.076729886 0.09237957 -0.05007851
000220 a4 3a 2f 3c a3 ff 9e bc 0d ce 18 bd fa 57 2d bd
       0.010695133 -0.019409006 -0.03730588 -0.04232023
000230 d0 31 e9 ba 34 43 54 3d 76 85 18 3d 20 cd 9e 3c
       -0.0017791335 0.051821902 0.037236653 0.01938492
000240 77 ba 96 3c 82 06 6c ba c1 fc 77 3d ed 05 58 bc
       0.01839946 -0.0009003655 0.06054378 -0.013185007
000250 2f ee 24 3d c9 8f 88 bc 20 f7 f3 3c 57 de 3b bd
       0.040266212 -0.016670125 0.029780924 -0.045866337
000260 21 2c be 3c b2 d3 c7 3c c0 e0 23 3b 9c 0e 80 bc
       0.023214402 0.024392936 0.0025005788 -0.015631966
000270 41 20 57 3d ee 5b 36 bd 9c 63 49 bd 18 90 6a bd
       0.052520994 -0.044521265 -0.04916726 -0.057266325
000280 30 26 b0 bc 00 c6 ef bc 4b f3 04 3d 34 92 b3 bc
       -0.021502584 -0.029269218 0.032458585 -0.021920301
000290 ff f5 f8 bb 10 c4 c2 3c 6e 46 2c 3d b5 a6 ab 3b
       -0.0075976844 0.02377513 0.042059354 0.005238379
0002a0 35 d8 86 3c 09 d7 15 3d ed 5f a1 bc 00 c6 15 bd
       0.016460517 0.036582027 -0.019699061 -0.03656578
0002b0 f1 10 89 3c c3 a2 d4 bd ef 96 92 3c fa a1 4b bc
       0.016731711 -0.10382607 0.017894236 -0.012428755
0002c0 3e 7e 60 3d c8 1b 0f 3d 55 52 85 bd 57 8d 1b 3d
       0.054807894 0.034938604 -0.06509844 0.03797659
0002d0 14 5d 7e 3d 40 b4 2d bd f4 bb b9 ba f8 02 58 bd
       0.062100485 -0.042408228 -0.0014170394 -0.052737206
0002e0 a1 47 8c bc 56 b2 60 bd cc d1 29 3d 37 b6 14 3d
       -0.017124 -0.054857574 0.041459844 0.036306586
0002f0 b8 0b 2d bd e7 0e 3e 3d b8 4d b9 bc 3d df 42 3d
       -0.042247504 0.04640093 -0.022620067 0.047576178
000300 09 26 02 3d 2d d4 6a 3d f7 f6 cc bc 8c fd 02 3d
       0.031774554 0.057331253 -0.025020106 0.031980082
000310 9e 51 5d 3d 84 5f bf bb a6 1c 9e 3d 42 0e 01 bd
       0.054032914 -0.005840244 0.07720308 -0.031507738
000320 50 53 54 bc 53 7b ad bc bf 7f fb bc ed f6 00 3d
       -0.012959316 -0.02117697 -0.030700563 0.031485487
000330 52 4f 8b bd f5 b9 67 3d 6c 5d f3 3c a1 8e d5 bc
       -0.068022385 0.056573827 0.029707633 -0.026068987
000340 c6 63 88 bc f5 18 85 bd 18 f3 46 bc 70 20 4c 3d
       -0.016649138 -0.06498901 -0.012142919 0.049835622
000350 c7 dd c3 3b df d4 94 bb fb 7a ef 3b 9b 48 60 3d
       0.0059773657 -0.004541978 0.0073083616 0.054756742
000360 87 85 5e 3d a0 be ad 3d 2d 35 bf 3c 9d d1 32 3c
       0.05432656 0.084836245 0.023340786 0.0109142335
000370 d7 c7 40 bd f6 62 c9 bc 05 bf cd 3d 54 3c 5c 3d
       -0.047065582 -0.024583321 0.100462 0.05376847
000380 02 9e d5 3d 5e 6a d0 bc e8 b1 d4 bb 5b 9f 58 bd
       0.10430528 -0.025441345 -0.0064909346 -0.05288635
000390 b6 bc 3b bd a1 38 e1 bb 40 66 fa 3c a0 f3 70 bc
       -0.045834266 -0.006873206 0.030566335 -0.014706522
0003a0 68 df 23 3d b0 05 44 3d b1 44 a9 bd b4 6c 86 3d
       0.04000798 0.047856987 -0.08265055 0.06563702
0003b0 b9 63 46 bc 03 55 46 bd 7a 05 e4 3a 5f 96 ae 3d
       -0.012108737 -0.048420917 0.0017396652 0.08524775
0003c0 12 e4 5a bd 26 48 67 bc 99 cb 41 bd 62 2c d8 bc
       -0.05344016 -0.014116323 -0.047313306 -0.02638835
0003d0 62 ab c8 3c a4 79 47 3c 66 19 13 bc 8b 38 73 3b
       0.024495784 0.0121749975 -0.008978223 0.003711256
0003e0 72 5e 2d bd 54 88 7e ba 6f fe ac 3c 8c ec 23 3d
       -0.0423264 -0.00097096455 0.021117417 0.04002051
0003f0 9b ab ea 3c 46 8a 6c 3c 50 d5 83 3d 56 ac 42 bc
       0.028646281 0.014437264 0.064371705 -0.011881908

st_gcn_networks.2.gcn.conv.bias f4 [48]
000000 cd 08 2a bc 55 94 03 3c 35 d5 63 bc 19 a7 f7 3a
       -0.010378075 0.008030971 -0.013905813 0.0018894403
000010 d6 13 36 3b 5e e1 bf bb 29 a9 d7 3c fe dc 7f bc
       0.002778282 -0.0058557233 0.026325779 -0.0156166535
000020 20 e6 10 bc 82 cd dc bb a8 85 03 bb 4d 6d 00 bc
       -0.008843929 -0.0067383656 -0.002006868 -0.007838559
000030 bc 89 cc bc 02 18 27 bc 99 c3 18 3c 0a b5 3d 3c
       -0.02496802 -0.010198595 0.009323978 0.011578808
000040 5e 7f 47 bd 84 7d f7 bb 64 9a ca b9 42 e6 73 3c
       -0.04870545 -0.0075528044 -0.00038643472 0.014886441
000050 47 31 40 3a a5 96 68 bc 30 fd 0f bc 28 fa 71 bc
       0.00073315616 -0.014196073 -0.008788392 -0.014769115
000060 76 09 42 bd d0 1d df bb aa ba 9d bc b3 97 0e bd
       -0.047372304 -0.006808974 -0.019254047 -0.03481264
000070 fe 01 6b 3c 83 54 c6 3b e6 82 3b bc 01 cf 68 bc
       0.014343737 0.006052555 -0.011444783 -0.01420951
000080 8d 90 51 3c 89 43 bb 3c b3 dd c3 bb f6 37 b1 3b
       0.012790811 0.022859352 -0.0059773563 0.0054082824
000090 1f d5 2c bd d6 6b 0f 3c 38 6f 5d 3b 45 70 15 bc
       -0.042195436 0.008753737 0.0033788215 -0.009121005
0000a0 6a c3 b5 b9 29 6c 02 3b 2a 99 49 bc 3c fa 0e bd
       -0.00034668605 0.0019900894 -0.012304584 -0.03490661
0000b0 7a ed da 3c b7 cd 4f bc 93 b0 87 3c 1e 91 45 3c
       0.026724566 -0.012683324 0.01656369 0.012058524

st_gcn_networks.2.tcn.0.weight f4 [16]
000000 28 98 46 3e 12 94 ea 3d 14 9d 1d 3e 16 8e fc 3d
       0.1939398 0.114540234 0.15391952 0.12331788
000010 e5 4c 9f 3d 6a b4 58 3e bd 23 28 3e 08 6c 2a 3e
       0.07778338 0.21162573 0.16419883 0.16642773
000020 b0 28 20 3e 1c cd 18 3e eb 07 08 3e a6 cf 2f 3e
       0.15640521 0.14921993 0.1328427 0.17169055
000030 70 71 19 3e c1 50 14 3e 38 1f da 3d 6e ee e2 3d
       0.14984679 0.1448393 0.10650486 0.11080633

st_gcn_networks.2.tcn.0.bias f4 [16]
000000 fc b8 cc bc 59 fb 4b bc 98 54 19 bd e4 df ed bc
       -0.024990551 -0.012450063 -0.03743419 -0.029037423
000010 3e eb 9c bb 60 31 e8 bc c8 de 01 bd 7f 66 1a bd
       -0.0047887852 -0.028343856 -0.0317066 -0.037695404
000020 e4 78 28 bd 72 dd 0a bd ad a2 3a bd 20 d8 00 bd
       -0.041130915 -0.033902593 -0.045565296 -0.031456113
000030 9c 8b 29 bd 43 f8 06 bd 09 97 3e bc db 60 2a bd
       -0.041392908 -0.032951605 -0.011632689 -0.041596275

st_gcn_networks.2.tcn.0.running_mean f4 [16]
000000 80 40 be ba a6 50 f3 39 c5 27 1b ba 80 9c eb b9
       -0.0014515072 0.0004640866 -0.0005918707 -0.00044939294
000010 ec 74 8d ba 07 71 1e bb 7c f7 57 ba 70 86 cd ba
       -0.0010792292 -0.0024176256 -0.0008238477 -0.0015680324
000020 93 db a6 ba bf 09 c2 b9 7f d1 70 ba 28 0a db ba
       -0.0012730233 -0.00037009825 -0.0009186491 -0.0016711401
000030 d2 a0 25 3a f9 87 34 ba d7 87 d9 39 85 2c 7a 3a
       0.00063182146 -0.00068867166 0.00041490674 0.0009543377

st_gcn_networks.2.tcn.0.running_var f4 [16]
000000 a0 70 9c 36 ea fd 11 36 8d 54 2d 36 ee f4 90 36
       4.6622736e-06 2.1754481e-06 2.5828224e-06 4.320048e-06
000010 8f 62 33 36 e4 3f 42 37 0d 51 65 36 ad 68 38 36
       2.6730447e-06 1.1578177e-05 3.4170837e-06 2.7479066e-06
000020 8b 33 4f 36 22 27 48 36 6a 54 21 36 ee 70 61 36
       3.0875406e-06 2.98251e-06 2.4040005e-06 3.3593346e-06
000030 b3 26 08 36 2d bf 2b 36 11 af d5 35 70 13 38 36
       2.0288105e-06 2.5592265e-06 1.5920688e-06 2.742945e-06
