weights_arm/193.pt (torch, 70926 bytes, 80 tensors)

A f4 [3, 9, 9]
0	0x3f000000	0.5
1	0x00000000	0.0
2	0x00000000	0.0
3	0x00000000	0.0
4	0x00000000	0.0
5	0x00000000	0.0
6	0x00000000	0.0
7	0x00000000	0.0
8	0x00000000	0.0
9	0x00000000	0.0
10	0x3e4ccccd	0.2
11	0x00000000	0.0
12	0x00000000	0.0
13	0x00000000	0.0
14	0x00000000	0.0
15	0x00000000	0.0
16	0x00000000	0.0
17	0x00000000	0.0
18	0x00000000	0.0
19	0x00000000	0.0
20	0x3eaaaaab	0.33333334
21	0x00000000	0.0
22	0x00000000	0.0
23	0x00000000	0.0
24	0x00000000	0.0
25	0x00000000	0.0
26	0x00000000	0.0
27	0x00000000	0.0
28	0x00000000	0.0
29	0x00000000	0.0
30	0x3eaaaaab	0.33333334
31	0x00000000	0.0
32	0x00000000	0.0
33	0x00000000	0.0
34	0x00000000	0.0
35	0x00000000	0.0
36	0x00000000	0.0
37	0x00000000	0.0
38	0x00000000	0.0
39	0x00000000	0.0
40	0x3f000000	0.5
41	0x00000000	0.0
42	0x00000000	0.0
43	0x00000000	0.0
44	0x00000000	0.0
45	0x00000000	0.0
46	0x00000000	0.0
47	0x00000000	0.0
48	0x00000000	0.0
49	0x00000000	0.0
50	0x3eaaaaab	0.33333334
51	0x00000000	0.0
52	0x00000000	0.0
53	0x00000000	0.0
54	0x00000000	0.0
55	0x00000000	0.0
56	0x00000000	0.0
57	0x00000000	0.0
58	0x00000000	0.0
59	0x00000000	0.0
60	0x3eaaaaab	0.33333334
61	0x00000000	0.0
62	0x00000000	0.0
63	0x00000000	0.0
64	0x00000000	0.0
65	0x00000000	0.0
66	0x00000000	0.0
67	0x00000000	0.0
68	0x00000000	0.0
69	0x00000000	0.0
70	0x3f000000	0.5
71	0x00000000	0.0
72	0x00000000	0.0
73	0x00000000	0.0
74	0x00000000	0.0
75	0x00000000	0.0
76	0x00000000	0.0
77	0x00000000	0.0
78	0x00000000	0.0
79	0x00000000	0.0
80	0x3f000000	0.5
81	0x00000000	0.0
82	0x3e4ccccd	0.2
83	0x00000000	0.0
84	0x00000000	0.0
85	0x00000000	0.0
86	0x00000000	0.0
87	0x00000000	0.0
88	0x00000000	0.0
89	0x00000000	0.0
90	0x00000000	0.0
91	0x00000000	0.0
92	0x00000000	0.0
93	0x00000000	0.0
94	0x00000000	0.0
95	0x00000000	0.0
96	0x00000000	0.0
97	0x00000000	0.0
98	0x00000000	0.0
99	0x00000000	0.0
100	0x3e4ccccd	0.2
101	0x00000000	0.0
102	0x00000000	0.0
103	0x00000000	0.0
104	0x00000000	0.0
105	0x00000000	0.0
106	0x00000000	0.0
107	0x00000000	0.0
108	0x00000000	0.0
109	0x00000000	0.0
110	0x3eaaaaab	0.33333334
111	0x00000000	0.0
112	0x3f000000	0.5
113	0x00000000	0.0
114	0x00000000	0.0
115	0x00000000	0.0
116	0x00000000	0.0
117	0x00000000	0.0
118	0x00000000	0.0
119	0x00000000	0.0
120	0x3eaaaaab	0.33333334
121	0x00000000	0.0
122	0x00000000	0.0
123	0x00000000	0.0
124	0x00000000	0.0
125	0x00000000	0.0
126	0x00000000	0.0
127	0x3e4ccccd	0.2
128	0x00000000	0.0
129	0x00000000	0.0
130	0x00000000	0.0
131	0x00000000	0.0
132	0x00000000	0.0
133	0x00000000	0.0
134	0x00000000	0.0
135	0x00000000	0.0
136	0x00000000	0.0
137	0x00000000	0.0
138	0x00000000	0.0
139	0x00000000	0.0
140	0x3eaaaaab	0.33333334
141	0x00000000	0.0
142	0x3f000000	0.5
143	0x00000000	0.0
144	0x00000000	0.0
145	0x00000000	0.0
146	0x00000000	0.0
147	0x00000000	0.0
148	0x00000000	0.0
149	0x00000000	0.0
150	0x3eaaaaab	0.33333334
151	0x00000000	0.0
152	0x00000000	0.0
153	0x00000000	0.0
154	0x3e4ccccd	0.2
155	0x00000000	0.0
156	0x00000000	0.0
157	0x00000000	0.0
158	0x00000000	0.0
159	0x00000000	0.0
160	0x00000000	0.0
161	0x00000000	0.0
162	0x00000000	0.0
163	0x00000000	0.0
164	0x00000000	0.0
165	0x00000000	0.0
166	0x00000000	0.0
167	0x00000000	0.0
168	0x00000000	0.0
169	0x00000000	0.0
170	0x00000000	0.0
171	0x3f000000	0.5
172	0x00000000	0.0
173	0x3eaaaaab	0.33333334
174	0x00000000	0.0
175	0x00000000	0.0
176	0x3eaaaaab	0.33333334
177	0x00000000	0.0
178	0x00000000	0.0
179	0x3f000000	0.5
180	0x00000000	0.0
181	0x00000000	0.0
182	0x00000000	0.0
183	0x3eaaaaab	0.33333334
184	0x00000000	0.0
185	0x00000000	0.0
186	0x00000000	0.0
187	0x00000000	0.0
188	0x00000000	0.0
189	0x00000000	0.0
190	0x00000000	0.0
191	0x00000000	0.0
192	0x00000000	0.0
193	0x00000000	0.0
194	0x00000000	0.0
195	0x00000000	0.0
196	0x00000000	0.0
197	0x00000000	0.0
198	0x00000000	0.0
199	0x00000000	0.0
200	0x00000000	0.0
201	0x00000000	0.0
202	0x00000000	0.0
203	0x00000000	0.0
204	0x00000000	0.0
205	0x00000000	0.0
206	0x00000000	0.0
207	0x00000000	0.0
208	0x00000000	0.0
209	0x00000000	0.0
210	0x00000000	0.0
211	0x00000000	0.0
212	0x00000000	0.0
213	0x3eaaaaab	0.33333334
214	0x00000000	0.0
215	0x00000000	0.0
216	0x00000000	0.0
217	0x00000000	0.0
218	0x00000000	0.0
219	0x00000000	0.0
220	0x00000000	0.0
221	0x00000000	0.0
222	0x00000000	0.0
223	0x00000000	0.0
224	0x00000000	0.0
225	0x00000000	0.0
226	0x00000000	0.0
227	0x00000000	0.0
228	0x00000000	0.0
229	0x00000000	0.0
230	0x00000000	0.0
231	0x00000000	0.0
232	0x00000000	0.0
233	0x00000000	0.0
234	0x00000000	0.0
235	0x00000000	0.0
236	0x00000000	0.0
237	0x00000000	0.0
238	0x00000000	0.0
239	0x00000000	0.0
240	0x00000000	0.0
241	0x00000000	0.0
242	0x00000000	0.0

data_bn.weight f4 [27]
0	0x3d88237b	0.06647392
1	0x3cdba073	0.026809907
2	0x3d3bed6b	0.045880716
3	0x3e71276e	0.23550197
4	0x3d4ed5cb	0.050496858
5	0x3d1678c7	0.036736276
6	0x3e954386	0.2915308
7	0x3e3a7452	0.18208435
8	0x3e3c0002	0.18359378
9	0x3ede049a	0.43362886
10	0x3efec6ad	0.49760953
11	0x3eaa554d	0.33268204
12	0x3ef94c97	0.48691246
13	0x3efead00	0.49741364
14	0x3eaf5663	0.34245595
15	0x3e8afbeb	0.27145323
16	0x3e22cb2b	0.15897815
17	0x3e679ea6	0.22619113
18	0x3ee814fd	0.45328513
19	0x3ec36022	0.3815928
20	0x3ead343a	0.33828908
21	0x3ef1a542	0.47196394
22	0x3ec9e1f4	0.394302
23	0x3ea7013b	0.32618126
24	0x3e5c33d0	0.2150414
25	0x3cd0d70c	0.025493167
26	0x3d4dda87	0.050257232

data_bn.bias f4 [27]
0	0xbca73c16	-0.020414393
1	0x3ccf88d0	0.025333792
2	0xbcaa8a24	-0.020817824
3	0xbc3e3c39	-0.011611038
4	0xbc7a30f0	-0.015270457
5	0xbb9c4a3e	-0.0047695925
6	0x3d41c772	0.047309346
7	0x3c188676	0.009309402
8	0x3c836f7e	0.016044375
9	0xbcae5652	-0.021281395
10	0x3bc15d81	0.005901039
11	0x3c862be0	0.016378343
12	0xbc335875	-0.010946383
13	0x3c3cb4fa	0.011517758
14	0xbb7e5393	-0.0038807138
15	0x3cc44719	0.023959683
16	0x3d1f0cbc	0.038830504
17	0x3d1ec0ee	0.03875821
18	0x3bc6f12b	0.00607123
19	0xbcab7338	-0.020928964
20	0xbcf89483	-0.030344253
21	0xbcc0d689	-0.023539798
22	0xbcf04c87	-0.029333366
23	0x3ba50c5d	0.005036874
24	0x3bed7995	0.0072471597
25	0x3c524db5	0.01283591
26	0x3c1ef874	0.0097027905

data_bn.running_mean f4 [27]
0	0x42b3c288	89.879944
1	0x4287a0d6	67.81413
2	0x41c80562	25.002628
3	0x42c5f366	98.97539
4	0x42936944	73.7056
5	0x41d6500b	26.789083
6	0x42b12c9c	88.58713
7	0x428b57a9	69.67121
8	0x41cd2d3f	25.647093
9	0x42c53e19	98.621284
10	0x428db469	70.85236
11	0x41cf5f3f	25.921507
12	0x42d0f78a	104.483475
13	0x42894310	68.63098
14	0x41c37615	24.432657
15	0x42da37ec	109.10922
16	0x429b7efc	77.74802
17	0x41df7576	27.932354
18	0x4302ff83	130.9981
19	0x42a740d0	83.62659
20	0x41ec69a5	29.551584
21	0x42fffbfe	127.99217
22	0x429d4422	78.63307
23	0x41e3b66a	28.46407
24	0x42d07dec	104.24594
25	0x42a647bf	83.14013
26	0x41eb2257	29.391768

data_bn.running_var f4 [27]
0	0x4648d1a6	12852.412
1	0x46973251	19353.158
2	0x4600a745	8233.817
3	0x4654b36d	13612.856
4	0x46a5dc7b	21230.24
5	0x460e7c9a	9119.15
6	0x4621fa14	10366.52
7	0x469189f7	18628.982
8	0x4600c89a	8242.15
9	0x464b35bb	13005.433
10	0x46885c74	17454.227
11	0x45fa6d2f	8013.648
12	0x46626c1a	14491.025
13	0x467c5667	16149.601
14	0x45e2e853	7261.0405
15	0x468c0a0e	17925.027
16	0x46bc1230	24073.094
17	0x461d197d	10054.372
18	0x46b95ef6	23727.48
19	0x46c312b4	24969.352
20	0x4625976a	10597.854
21	0x46ac05e1	22018.94
22	0x46a9f64d	21755.15
23	0x4615db14	9590.77
24	0x468f7ee5	18367.447
25	0x46b1e746	22771.637
26	0x461db98d	10094.388

st_gcn_networks.0.gcn.conv.weight f4 [24, 3, 1, 1]
0	0xbd76414a	-0.06012086
1	0xbab15e3a	-0.001353211
2	0xbb91ce5e	-0.0044496497
3	0x3e1dc6c2	0.15407851
4	0xbd625db8	-0.05526516
5	0x3d6c93f8	0.0577583
6	0x3d5ee5f2	0.05441851
7	0x3ba946f3	0.0051659285
8	0x3d43339d	0.047656644
9	0xbcd0988c	-0.025463365
10	0xbc0c9a80	-0.008581758
11	0x3df3d6b1	0.119061835
12	0x3ceb463c	0.028720014
13	0xbc6ec176	-0.014572492
14	0xbe52703f	-0.20550631
15	0x3e61027b	0.21973602
16	0x3e905d00	0.28195953
17	0x3da227f2	0.07917775
18	0xbe638922	-0.22220281
19	0x3e1e1ec1	0.15441419
20	0x3d89eff6	0.06735222
21	0xbe405dec	-0.18785828
22	0x3d913cb3	0.070916556
23	0xbe0413ff	-0.12898253
24	0xbd57ad04	-0.052655235
25	0xbd404ee9	-0.046950255
26	0xbca03c7e	-0.019560095
27	0xbe722059	-0.23645152
28	0xbd9edb9b	-0.0775673
29	0x3ce8846a	0.028383452
30	0x3e2544cc	0.16139525
31	0xbc2cb122	-0.010540279
32	0xbca65aa3	-0.02030689
33	0xbe0626b5	-0.13100703
34	0xbe09d791	-0.13461138
35	0xba81d36f	-0.0009904931
36	0x3acb9596	0.0015532251
37	0xbcb0677b	-0.021533718
38	0x3e3aed06	0.1825448
39	0xbd55e99a	-0.052224733
40	0xbe689a01	-0.22714998
41	0xbe049f2f	-0.12951349
42	0x3d8cf5f9	0.06882853
43	0x3d70567e	0.058676235
44	0x3d329247	0.043596532
45	0x3e3492cb	0.17634122
46	0xbdcdde97	-0.10052221
47	0x3e23c242	0.15992072
48	0xbd097b2b	-0.033564728
49	0x3b29d34c	0.0025913296
50	0x3c6796ca	0.014135072
51	0xbd3838f0	-0.044976175
52	0xbc8eab54	-0.01741568
53	0xbda6cd5f	-0.0814464
54	0x3e1f15a2	0.15535596
55	0xbd270ed8	-0.04078564
56	0x3d376d67	0.04478207
57	0xbcca0073	-0.024658417
58	0xbc927b7c	-0.017881148
59	0x3bb17403	0.005415441
60	0xbe553a8f	-0.2082312
61	0x3c3c0a2d	0.0114770355
62	0xbbfcc7c2	-0.0077142427
63	0x3d36d2fb	0.0446348
64	0xbd841cac	-0.06450781
65	0x3dd5dd34	0.10442582
66	0x3cbf5bdf	0.023359237
67	0xbd7d6964	-0.061868086
68	0x3c3ce4ed	0.01152919
69	0xbddaa190	-0.10675347
70	0x3e11fd54	0.14256793
71	0x3d573981	0.052545074

st_gcn_networks.0.gcn.conv.bias f4 [24]
0	0x3d10189e	0.035179727
1	0x3d13bb73	0.036067437
2	0x3d2c56ab	0.04207484
3	0x3d948ed7	0.07253807
4	0xbc88a864	-0.016681857
5	0xbe291858	-0.16513193
6	0xbcb42eb0	-0.021994919
7	0x3df9b47e	0.12192629
8	0xbd7395f1	-0.059469167
9	0x3c5e63f4	0.013573635
10	0x3da1a852	0.07893433
11	0xbcddabd9	-0.027059482
12	0x3cb6b5d5	0.022303501
13	0x3e0d67b6	0.13809094
14	0x3e1273fc	0.14302057
15	0xbc9c9451	-0.019113692
16	0xbc8e1488	-0.017343774
17	0xbe15023e	-0.14551637
18	0x3c478a79	0.012179011
19	0xbd7981c3	-0.060914766
20	0x3d0df6d8	0.034659237
21	0x3ccdf317	0.025140328
22	0xbcd944f8	-0.026522145
23	0xbb182b67	-0.002321923

st_gcn_networks.0.tcn.0.weight f4 [8]
0	0x3e058e7f	0.13042639
1	0x3e90d34e	0.28286213
2	0x3ebbbc6a	0.36667186
3	0x3e74b752	0.23898056
4	0x3e7ddb79	0.24790753
5	0x3ea15668	0.31511235
6	0x3e9e19b2	0.3087898
7	0x3ea8b05b	0.3294705

st_gcn_networks.0.tcn.0.bias f4 [8]
0	0x3d4f7ef3	0.050658178
1	0x3d12f5a3	0.03587879
2	0x3d6f6983	0.058450233
3	0x3c9ff679	0.019526707
4	0xbd2fa89e	-0.042885415
5	0x3d60d875	0.05489393
6	0x3ac0efc3	0.0014719892
7	0xbd27523a	-0.0408499

st_gcn_networks.0.tcn.0.running_mean f4 [8]
0	0xbb2c6937	-0.002630783
1	0xb949bab0	-0.000192384
2	0x3c65fa6a	0.014036754
3	0x3b7202c5	0.003692792
4	0x3ada3506	0.0016647882
5	0xbb914ccb	-0.0044342033
6	0x3c3de7bd	0.011590895
7	0x3c5348db	0.012895788

st_gcn_networks.0.tcn.0.running_var f4 [8]
0	0x38a0fef3	7.6768825e-05
1	0x390cd1af	0.00013429554
2	0x396cb81c	0.000225753
3	0x393f253f	0.00018229055
4	0x3782fbd3	1.5614472e-05
5	0x39428c11	0.0001855346
6	0x3988641c	0.0002601453
7	0x38670fd2	5.5089426e-05

st_gcn_networks.0.tcn.2.weight f4 [8, 8, 9, 1]
0	0xbd2a4920	-0.041573644
1	0xbcb3acd0	-0.02193299
2	0x3cda6c30	0.026662916
3	0x3aba4824	0.0014212173
4	0x3bbc5292	0.005747148
5	0xbcdb0b37	-0.026738746
6	0x3bb278e6	0.005446541
7	0xba8d2e7e	-0.0010771302
8	0x3c6bc65d	0.014390555
9	0x3d1760d7	0.036957588
10	0xbd55bb68	-0.052180678
11	0xbd11ad45	-0.035565633
12	0xbc7a11c0	-0.015263021
13	0x3b0295d1	0.0019925723
14	0x3c934bf3	0.017980551
15	0x3c0bfc27	0.0085440045
16	0xbbef68f4	-0.0073062126
17	0xbca65253	-0.020302927
18	0x3d449f3e	0.048003428
19	0x3d578221	0.052614335
20	0x3d0a3a10	0.03374678
21	0x3d91a326	0.07111196
22	0xbc9fd9f7	-0.019513113
23	0x3dc79abc	0.0974631
24	0xbd733352	-0.059375115
25	0x3cbf3aee	0.02334353
26	0xbd5f826a	-0.054567732
27	0x3c1a4edc	0.009418216
28	0xbca74321	-0.020417752
29	0x3d87b575	0.06626407
30	0x3bbabcde	0.0056987843
31	0x3cc69de1	0.024245204
32	0x3cfd2241	0.030900123
33	0x3c900b52	0.017583523
34	0x3d39d712	0.045371123
35	0x3d145bc9	0.036220346
36	0xbd982560	-0.07429004
37	0xbc882ebc	-0.016623847
38	0x3d3ee470	0.046604574
39	0xbcd3a049	-0.025833266
40	0xbd217ccd	-0.03942566
41	0x3ccef19c	0.025261693
42	0x3cb52e22	0.022116724
43	0xbd33b9d2	-0.043878384
44	0x3c39ad19	0.011332774
45	0xbcd0d5c8	-0.025492564
46	0x3bb41a5e	0.0054963073
47	0x3c162240	0.009163439
48	0x3cca7b6e	0.024717059
49	0x3d0c4523	0.03424562
50	0x3c53f963	0.012937876
51	0xbc8009b3	-0.015629625
52	0x3ccfdc5b	0.025373628
53	0x3bf79a8a	0.0075562643
54	0x3d0a6a10	0.033792555
55	0x3c52c6f0	0.012864813
56	0xbb58feaf	-0.0033110788
57	0xbd231627	-0.039816048
58	0xbc8bba03	-0.01705647
59	0xbc8604e9	-0.016359763
60	0xbcf4d8ad	-0.029888475
61	0x3d4dc802	0.05023957
62	0xbc3087b4	-0.010774542
63	0xbc97bf6a	-0.01852389
64	0xbdfe51e7	-0.124179654
65	0xbba0a943	-0.00490299
66	0xbd3e4fed	-0.046462942
67	0xba8aca4e	-0.0010588856
68	0xbda68fdb	-0.08132907
69	0xbcb84630	-0.022494406
70	0xbcc7617a	-0.024338473
71	0x3c010e37	0.007876924
72	0x3cdc098a	0.026860017
73	0xbc181a2c	-0.009283584
74	0xbb9d01dc	-0.0047914814
75	0xbbfc6c14	-0.0077033136
76	0x3c4434bc	0.0119754635
77	0x3c8c8923	0.017155236
78	0x3d6b096e	0.05738204
79	0xbaa39c31	-0.0012482462
80	0xbbe23d76	-0.0069042994
81	0x3c923b1a	0.017850447
82	0x3ca33a34	0.019925214
83	0x3d42effa	0.04759214
84	0x3c94a654	0.018145718
85	0xbc9f4ce9	-0.019445853
86	0x3b0f7e3d	0.0021895312
87	0x3ce3b4c1	0.027796151
88	0xbb9cb5e7	-0.0047824266
89	0x3d0e363b	0.034719687
90	0x3d06b2ee	0.032885484
91	0x3d9db6bc	0.077008694
92	0x3daffade	0.08592771
93	0xba9e1703	-0.0012061301
94	0xbca1ed5c	-0.019766502
95	0xbd843aba	-0.06456514
96	0xbc860e41	-0.016364219
97	0x3cb34c39	0.021886932
98	0xbba04870	-0.0048914477
99	0x3d3ce36d	0.046115328
100	0xbcd01cec	-0.025404416
101	0x3ccc7ab7	0.024960859
102	0x3c32daad	0.010916394
103	0x3c92b754	0.017909683
104	0x3c172fc2	0.009227695
105	0x3d29d9a4	0.041467324
106	0xbcddaf3f	-0.027061103
107	0xbc262523	-0.01014069
108	0x3c85527a	0.01627468
109	0x3c8da85b	0.017292192
110	0x3cacba8f	0.021085052
111	0x3ca57868	0.020199016
112	0x3c229f4a	0.009925673
113	0xbca15de5	-0.019698093
114	0x3d372d79	0.0447211
115	0x3d6770cb	0.056504052
116	0x3c8d5f52	0.017257366
117	0xbcc9dc99	-0.024641322
118	0x3d172cd5	0.03690799
119	0x3ce5f79c	0.02807217
120	0xbd20c3da	-0.03924928
121	0x3ca69d2b	0.020338615
122	0xbd013977	-0.031548943
123	0xbd5c94b8	-0.053852767
124	0xbccbcf2b	-0.024879059
125	0xbc2ead94	-0.010661501
126	0xbd73ec57	-0.059551563
127	0xbd66be97	-0.056334104
128	0xbd928dc9	-0.071559496
129	0xbd57834a	-0.05261544
130	0xbca04dc7	-0.019568337
131	0x3d1afc37	0.037838187
132	0x3ce88788	0.028384939
133	0xbd2ec5fb	-0.042669278
134	0x3d946d6b	0.07247432
135	0x3d183309	0.037158046
136	0xbd6d8ee5	-0.057997603
137	0xbcfa85f3	-0.03058145
138	0xbbbf3ebb	-0.0058363355
139	0x3cbb7af7	0.022885783
140	0xbd11cf30	-0.03559798
141	0x3cbd4d64	0.023108192
142	0xbcc02936	-0.02345715
143	0xbcf48b29	-0.029851513
144	0xbcaffde2	-0.021483365
145	0xbc394da3	-0.011310014
146	0xbc903ba3	-0.017606562
147	0x3d8317e5	0.06401042
148	0xbc93ef71	-0.01805851
149	0xbc0972ec	-0.008389216
150	0x3d0e7c65	0.0347866
151	0xbcdbb8e3	-0.02682156
152	0xbc69a2c2	-0.014259996
153	0xbb92f9b0	-0.0044853315
154	0xbad7b706	-0.0016457743
155	0xbc770769	-0.01507745
156	0x3c8cad7b	0.017172566
157	0xbc3596d1	-0.011083321
158	0x3c534cd2	0.012896733
159	0x3bd92d87	0.0066277417
160	0xbd4bfa0b	-0.049799006
161	0x3c687f12	0.014190452
162	0x3d984ee8	0.07436925
163	0xbc00c758	-0.007860027
164	0x3a781ce0	0.0009464752
165	0xbda2fa49	-0.07957894
166	0x3d79daa3	0.060999524
167	0xbb5137c2	-0.0031924103
168	0x3d3f2eca	0.04667548
169	0xbd8ebcd5	-0.069696106
170	0x3d049641	0.032369856
171	0x3ce83551	0.028345736
172	0xbcd6ee36	-0.026236635
173	0xbcf96225	-0.030442307
174	0x3cbf1a56	0.023327988
175	0x3c502c37	0.012705854
176	0xbd07a588	-0.033116847
177	0x39db388c	0.00041813066
178	0xbd0e7b32	-0.034785457
179	0x3ce9db4e	0.028546955
180	0x3b051c0f	0.0020310914
181	0x3c946ea2	0.01811916
182	0x3d6d634c	0.057956025
183	0x3bf853ae	0.007578335
184	0xbd89e908	-0.067339
185	0xbc997574	-0.018732764
186	0xbcd6e554	-0.026232399
187	0xbc4a1685	-0.012334471
188	0xb9d3969b	-0.00040357266
189	0xbd32da5d	-0.04366528
190	0xbd6c54ad	-0.05769794
191	0x3d50d187	0.05098107
192	0xbd4173f1	-0.04722971
193	0xbd8ba756	-0.06819026
194	0x3c3bceff	0.011462926
195	0x3d2eddb6	0.04269191
196	0xbd5c5f05	-0.053801555
197	0x3db3967b	0.08768936
198	0x3b9f22e8	0.004856456
199	0xbd152cae	-0.036419563
200	0xbd81e933	-0.06343307
201	0x3d5ab0df	0.053391334
202	0x3dc4fa5c	0.09618065
203	0x3cbdae34	0.023154356
204	0xbd1201f6	-0.0356464
205	0x3d213f3d	0.03936695
206	0x3d1dbc51	0.03850967
207	0xbd39c036	-0.045349322
208	0xbcc899ec	-0.024487458
209	0xbda9377c	-0.08262536
210	0x3d415c33	0.04720707
211	0xbbfd7621	-0.0077350293
212	0x3d7fe7d6	0.062476955
213	0xbd32e8e2	-0.043679126
214	0xbd25d0a5	-0.040482182
215	0xbcbd4cd5	-0.023107925
216	0xbca29d44	-0.01985038
217	0xbc0ddd9b	-0.008658792
218	0x3b8ffe78	0.0043943487
219	0x3aca58cc	0.001543784
220	0x3ca97645	0.020686278
221	0xbc9cc892	-0.019138608
222	0xbc84fef1	-0.016234847
223	0xbcdadb46	-0.026715886
224	0x3bd410c4	0.006471725
225	0xb9afb81f	-0.00033515782
226	0x3c9a8897	0.01886396
227	0xbc528e90	-0.012851372
228	0xbbea3827	-0.007147807
229	0x3cccfc9c	0.025022797
230	0x3d2a70a5	0.041611332
231	0x3ce928c5	0.028461823
232	0x3c10b802	0.008832933
233	0x3d2fd8a1	0.042931203
234	0x3c905d74	0.017622687
235	0x3c3c361a	0.011487508
236	0x3b543549	0.0032380393
237	0xbc727482	-0.014798285
238	0xbc2fcc2f	-0.0107298335
239	0xbc829229	-0.015938835
240	0x3c154d49	0.0091126645
241	0x3c426457	0.011864743
242	0xbd7bf280	-0.061510563
243	0x3c4ed140	0.012623131
244	0xbcf989ae	-0.030461159
245	0xbcfbc1d2	-0.03073207
246	0xbd3986e9	-0.045294676
247	0xbd218814	-0.039436415
248	0xbc3aecc5	-0.011408989
249	0xbd322f63	-0.043502223
250	0xbd3f92bd	-0.0467708
251	0x3cbf1a60	0.023328006
252	0xbbcdf405	-0.006285193
253	0xbd1a3260	-0.037645698
254	0x3b4b6494	0.003103529
255	0x3d22cfd2	0.039748974

st_gcn_networks.0.tcn.2.bias f4 [8]
0	0xb8c2301d	-9.259603e-05
1	0x36b82176	5.4875227e-06
2	0x37f370ba	2.902035e-05
3	0xb8b4e5df	-8.625886e-05
4	0xb89b4e56	-7.405567e-05
5	0xb8760879	-5.865886e-05
6	0x3838dcc9	4.407464e-05
7	0xb88d7a73	-6.746212e-05

st_gcn_networks.0.tcn.3.weight f4 [8]
0	0x3ea650ac	0.32483423
1	0x3e91bf43	0.28466234
2	0x3e7fa78f	0.24966262
3	0x3e6bd864	0.23031765
4	0x3e3d125c	0.18464035
5	0x3e998c8e	0.29990047
6	0x3ea82f68	0.32848668
7	0x3e948590	0.2900815

st_gcn_networks.0.tcn.3.bias f4 [8]
0	0xbce73d36	-0.02822743
1	0x3c09e3c7	0.008416123
2	0x3d66291d	0.056191552
3	0x3c36239e	0.01111689
4	0xbc623821	-0.0138073275
5	0x3d459e81	0.048246864
6	0x3d0d9cec	0.03457348
7	0xbcc76b2c	-0.024343096

st_gcn_networks.0.tcn.3.running_mean f4 [8]
0	0x3c6740a5	0.014114534
1	0x3c5e14d6	0.013554772
2	0xbc6f800a	-0.014617929
3	0xbd02d069	-0.031937037
4	0x3cf1808c	0.029480241
5	0x3d248bd0	0.040172398
6	0xbb6c4e9c	-0.0036057597
7	0x3c93187c	0.017956011

st_gcn_networks.0.tcn.3.running_var f4 [8]
0	0x3ba96e8f	0.0051706503
1	0x3b4740dd	0.0030403652
2	0x3abae07a	0.0014257573
3	0x3a59098f	0.00082793174
4	0x3abfc110	0.0014629681
5	0x3b8250ae	0.003976903
6	0x3b8fec2c	0.0043921676
7	0x3b61f0de	0.0034475843

st_gcn_networks.1.gcn.conv.weight f4 [24, 8, 1, 1]
0	0xbcb7d68b	-0.02244117
1	0xbd25be79	-0.040464852
2	0x3d720346	0.059085153
3	0x3d75c393	0.060000967
4	0xbc8512a5	-0.016244242
5	0x3cba75e7	0.022761298
6	0x3bdd957c	0.0067622047
7	0x3d28c4a3	0.041203152
8	0xbc08cc0a	-0.008349428
9	0xbc8a867f	-0.016909836
10	0x3daccf81	0.08438016
11	0xbd25c992	-0.040475436
12	0x3d0f570e	0.03499513
13	0xbccf3bdf	-0.025297103
14	0x3d8b0d5c	0.067896575
15	0x3cab25c3	0.02089203
16	0x3d94ac18	0.07259387
17	0xbd8a6733	-0.06757965
18	0xbcd3be4a	-0.025847573
19	0x3dab6ce3	0.08370378
20	0x3d7d049e	0.06177198
21	0x3d878afd	0.06618307
22	0xbcf56744	-0.029956467
23	0xbca29ff5	-0.019851664
24	0x3b9a7955	0.004714171
25	0xbce1edea	-0.027579267
26	0xbd05599f	-0.032556172
27	0xbccc8170	-0.024964064
28	0xbd8d7ae3	-0.069082044
29	0xbdc67436	-0.09690134
30	0x3d2b2838	0.041786402
31	0xbdc31fce	-0.09527551
32	0xbce97eec	-0.028502904
33	0x3c01bca6	0.007918512
34	0x3d78c158	0.060731262
35	0xbd38fb51	-0.04516155
36	0x3c50ddb8	0.012748174
37	0x3ce61804	0.028087623
38	0x3d2524e4	0.040318385
39	0xbc824834	-0.01590357
40	0x3bf0b4f6	0.007345791
41	0xbda741a4	-0.08166817
42	0x3d0f1425	0.03493132
43	0xbd5d90ea	-0.05409328
44	0xbc88ffc0	-0.016723514
45	0xbabbaf4e	-0.0014319213
46	0xbdb145a4	-0.08655861
47	0x3c57595d	0.013143864
48	0xbcd29c82	-0.025709394
49	0xbc1cc739	-0.009568983
50	0x3d5412dd	0.051775802
51	0x3c2d73ee	0.010586722
52	0x3ca1f409	0.019769685
53	0x3cd4b69d	0.025965983
54	0xbd40fb68	-0.04711476
55	0xbcb9170d	-0.022594
56	0xbd16da87	-0.036829498
57	0xbb47ea93	-0.0030504807
58	0xbd118dbc	-0.03553556
59	0xbce64dd9	-0.028113293
60	0xbc48e51c	-0.012261655
61	0x3d6bd781	0.057578567
62	0x3b11543b	0.002217545
63	0x3da6a40a	0.08136757
64	0xbc7cd5c4	-0.015431825
65	0x3d945d9f	0.07244419
66	0x3caa1467	0.020761682
67	0xbd1fd08b	-0.03901724
68	0xbd888fab	-0.066680275
69	0x3c7bde4a	0.015372822
70	0x3d96baf6	0.07359879
71	0x3dbe7deb	0.09301361
72	0xbd607b56	-0.054805122
73	0xbc896e49	-0.01677622
74	0xbd8614bb	-0.06546923
75	0xbc2b7216	-0.010464212
76	0xbc0dc77c	-0.008653518
77	0xbd13495f	-0.035958644
78	0x3d642863	0.05570258
79	0x3b9da07d	0.0048103915
80	0x3c0c5315	0.00856473
81	0x3a98cb49	0.0011657263
82	0x3d5ffcb2	0.05468435
83	0xbd69f764	-0.057120696
84	0xbd3a0ae9	-0.04542056
85	0xbdc0a902	-0.09407236
86	0x3dc459c8	0.09587437
87	0xbd5e5191	-0.054277007
88	0xbca61751	-0.02027479
89	0x3df9275d	0.12165711
90	0x3d8ca34a	0.068670824
91	0x3cd47b06	0.025937568
92	0xbd391f7d	-0.045196045
93	0x3d86b9fe	0.06578444
94	0xbcde9e44	-0.027175076
95	0xbde12c6f	-0.10994803
96	0xbd3d02ad	-0.04614513
97	0xbc4d4cdc	-0.012530532
98	0x3da90a74	0.08253947
99	0x3d46fe55	0.048582394
100	0x3b2afa6a	0.00260892
101	0x3cd07671	0.025447102
102	0xbcf3b45b	-0.029749086
103	0x3d236ebc	0.039900526
104	0x3da6860b	0.081310354
105	0xbd441961	-0.047875766
106	0xbc0a862e	-0.0084548425
107	0xbd9df225	-0.07712201
108	0x3ceef8cc	0.02917137
109	0xbdaec555	-0.08533732
110	0x3da7449c	0.08167383
111	0x3d5d0839	0.05396292
112	0xbd6d40b2	-0.057923026
113	0xbdea2b3c	-0.114340276
114	0x3d1ddcb9	0.038540576
115	0x3d080c35	0.033214767
116	0xbd96c370	-0.073614955
117	0xbd5a841f	-0.053348657
118	0x3cf6d2b3	0.030129766
119	0x3d8f9a41	0.070118435
120	0x3cf983c9	0.030458348
121	0x3b8f9340	0.0043815672
122	0xbc083353	-0.008313018
123	0x39dd2098	0.0004217669
124	0xbb86d500	-0.004114747
125	0x3cece55c	0.02891796
126	0x3d263fce	0.040588193
127	0xbbc52231	-0.006016039
128	0xbcfdcb8b	-0.030980846
129	0xbb87732c	-0.0041336026
130	0x3d2d03e8	0.042240053
131	0x3dabef61	0.08395267
132	0x3b0d6715	0.0021576334
133	0x3d27affe	0.040939324
134	0xbd334702	-0.04376889
135	0xbc2e2b71	-0.010630474
136	0x3d96857c	0.07349679
137	0x3d27784d	0.040886212
138	0x3d02e83e	0.031959765
139	0xbd05b05a	-0.032638885
140	0x3c888e47	0.016669406
141	0x3d40078a	0.04688219
142	0x3dcc7a80	0.099843025
143	0xbb7acf76	-0.003827063
144	0xbb8b3d19	-0.004249227
145	0x3cb25bea	0.021772344
146	0xbcdecc8d	-0.027197147
147	0xbda2ee66	-0.07955627
148	0x3c4a1fcd	0.012336683
149	0xbd5817e0	-0.052757144
150	0x3d85175a	0.064985946
151	0x3c27bd18	0.010237955
152	0x3d8cd95c	0.068773955
153	0xbd1a5fc3	-0.03768898
154	0xbce25b00	-0.027631283
155	0xbd77ebc8	-0.060527593
156	0xbc445f81	-0.0119856605
157	0xbccbaf92	-0.024863992
158	0x3e1859f9	0.14878072
159	0x3c14bfc0	0.00907892
160	0x3ac49c8a	0.0015000266
161	0x3c210492	0.00982775
162	0xbc5c5da6	-0.013450062
163	0xbdb2e702	-0.087354675
164	0x3d28edd0	0.04124242
165	0xbcfc2a14	-0.030781783
166	0x3cad6a87	0.02116896
167	0xbc018776	-0.007905832
168	0xbc77c0fc	-0.015121695
169	0xbd29479f	-0.04132807
170	0xbcd89b5e	-0.026441272
171	0x3cd83f1b	0.026397279
172	0xbd9bd0f4	-0.07608214
173	0xbd9ae756	-0.07563655
174	0xbd6f652d	-0.058446098
175	0xbc4f9ac5	-0.012671177
176	0x3d9ff6db	0.07810756
177	0x3d251aad	0.040308643
178	0x3d199d0a	0.03750328
179	0xbdc44ba9	-0.095847435
180	0x3d43867e	0.047735684
181	0x3cc12d42	0.02358115
182	0xbc977eae	-0.018493023
183	0xbd37573d	-0.04476093
184	0x3b13577a	0.002248256
185	0x3c9c05b0	0.01904568
186	0x3c8903ca	0.01672544
187	0xb96987a0	-0.00022271136
188	0x3cb26c84	0.02178026
189	0xbcfdc5ec	-0.030978166
190	0xbb2366dd	-0.0024933137
191	0x3d8382ea	0.06421454

st_gcn_networks.1.gcn.conv.bias f4 [24]
0	0xb97f31fe	-0.00024337319
1	0x3c674536	0.014115622
2	0xbc882d90	-0.016623288
3	0x3d1573fd	0.03648757
4	0x3bf18d9a	0.0073716165
5	0xbaf77977	-0.0018880804
6	0x3a4b0318	0.00077442965
7	0xb946e0c5	-0.00018966485
8	0xbd914a12	-0.07094206
9	0xbc587227	-0.01321081
10	0x3cbe7f27	0.02325399
11	0x3b03299f	0.0020013822
12	0xbd681744	-0.056662813
13	0x3c3ed859	0.011648261
14	0x3d571d65	0.052518267
15	0xbc0aeec5	-0.008479779
16	0xbbdba777	-0.006703313
17	0xbd2b840d	-0.04187398
18	0x3bb75da0	0.0055958778
19	0x3c8778ff	0.016537188
20	0x3bf05b79	0.007335123
21	0xbc37ae34	-0.011210967
22	0x3cea8744	0.028628953
23	0xbc246ece	-0.0100361835

st_gcn_networks.1.tcn.0.weight f4 [8]
0	0x3e4e5305	0.20148857
1	0x3e3d59bb	0.1849126
2	0x3e836539	0.25663164
3	0x3e8e1044	0.27746785
4	0x3e1c100a	0.15240493
5	0x3e65f649	0.22457232
6	0x3e7c26b7	0.24624144
7	0x3e400187	0.18750583

st_gcn_networks.1.tcn.0.bias f4 [8]
0	0xbcc26de0	-0.023734033
1	0x3c5c8201	0.01345873
2	0x3ccf5d6c	0.025313102
3	0xb94000be	-0.00018310823
4	0xbca12a34	-0.019673444
5	0xbbc3886d	-0.005967191
6	0xbd06b573	-0.032887887
7	0xbcf9987f	-0.030468224

st_gcn_networks.1.tcn.0.running_mean f4 [8]
0	0xba8957da	-0.0010478452
1	0xba413b28	-0.00073711807
2	0x39be7aee	0.00036331214
3	0x3aa6c501	0.0012723507
4	0xbb15f464	-0.0022881264
5	0xba46d228	-0.00075844163
6	0x3b1a5cbd	0.0023553811
7	0x39aafd49	0.0003261364

st_gcn_networks.1.tcn.0.running_var f4 [8]
0	0x3692c0b7	4.373574e-06
1	0x3689afb1	4.1033713e-06
2	0x37443de3	1.16969195e-05
3	0x370fd780	8.573639e-06
4	0x36ccadd7	6.0999114e-06
5	0x369f43b4	4.746451e-06
6	0x373b4dcc	1.1164182e-05
7	0x36b95f52	5.5245264e-06

st_gcn_networks.1.tcn.2.weight f4 [8, 8, 9, 1]
0	0xbc38399d	-0.011244205
1	0x3ba18a05	0.0049297833
2	0x3cc76c8e	0.024343755
3	0xbc9b953a	-0.018992055
4	0xbc690170	-0.014221534
5	0xbd350adc	-0.04419981
6	0xbb944f5c	-0.004526062
7	0x3bf49752	0.007464328
8	0x3d2662b0	0.04062146
9	0xbd5e8ecb	-0.054335397
10	0x3c5edf00	0.013602972
11	0x3d47f373	0.048816156
12	0xbb350f19	-0.0027627407
13	0xbd4ab81e	-0.049491994
14	0xbd0bd0fd	-0.034134854
15	0x3cd7a1b4	0.026322223
16	0x3ccb8425	0.024843285
17	0xbcc9e618	-0.02464585
18	0x3ba43184	0.0050107855
19	0xbca30505	-0.019899854
20	0x3d6042c4	0.054751173
21	0xbbecb784	-0.007224025
22	0x3c99163c	0.01868736
23	0xbbdbbe97	-0.0067060697
24	0x3d4dc3ea	0.050235666
25	0xbd1f3899	-0.038872335
26	0xbd5d24a4	-0.05399002
27	0x3c13fddb	0.009032692
28	0x3c59ad7e	0.013285993
29	0x3ceabe3a	0.02865516
30	0x38e7fab9	0.00011061639
31	0x3d06bd8c	0.03289561
32	0x3d6afbd9	0.057369087
33	0xbd3eb502	-0.04655934
34	0xbd4aa99f	-0.04947817
35	0xbd2162f1	-0.039401
36	0xbb73019d	-0.003707982
37	0xbc9e1660	-0.019297779
38	0xbc400ab4	-0.011721302
39	0xbb576a2b	-0.0032869678
40	0x3c3ac443	0.0113993315
41	0x3d33689d	0.04380094
42	0x3cbf649b	0.023363402
43	0x3ca28006	0.019836437
44	0x3cd63bdc	0.02615159
45	0x3bf31a57	0.0074189114
46	0xbd376714	-0.044776037
47	0x3d005346	0.031329416
48	0x3c2dddf0	0.010611996
49	0xbccac59b	-0.024752429
50	0xbc18690f	-0.009302392
51	0xbc3dac11	-0.011576668
52	0xbc43c402	-0.011948587
53	0xbc597dac	-0.013274591
54	0xbc817b0f	-0.01580575
55	0x3bf3548e	0.007425851
56	0x3c3ad822	0.011404069
57	0xbcaa0671	-0.020755025
58	0x3cfd581d	0.030925805
59	0x3cdff9b1	0.027340742
60	0x3cc73b9a	0.024320412
61	0x3b9a8516	0.004715572
62	0x3c131d46	0.008979147
63	0x3c936787	0.017993702
64	0xbc79a0d1	-0.0152360955
65	0xbd7a7452	-0.061146088
66	0xbd500b1a	-0.050791837
67	0x3d16e820	0.036842465
68	0xbd0b31ba	-0.03398297
69	0xbc508698	-0.012727402
70	0x3c8427f0	0.016132325
71	0xbbdf9f8b	-0.006824439
72	0x3b56ff87	0.0032806115
73	0xbcbf2102	-0.023331169
74	0x3c01fd0d	0.007933867
75	0xbb88f5f7	-0.004179712
76	0xbc8e0726	-0.017337393
77	0xbd1a1e4e	-0.037626557
78	0x3c9a27a7	0.018817736
79	0x3c94df25	0.01817281
80	0xbd2c0269	-0.041994486
81	0xbd5f7ca8	-0.05456224
82	0xbc10c280	-0.008835435
83	0xbc60c9a6	-0.013719952
84	0xbdafa93d	-0.085772015
85	0x3d012524	0.03152956
86	0x3ad5084d	0.0016253084
87	0x3d306615	0.043066103
88	0x3c85becc	0.01632633
89	0x3d2eb6b6	0.042654715
90	0xbcfed47a	-0.031107176
91	0xbc3bb1ce	-0.011455966
92	0x3c9c5ac0	0.019086242
93	0xbca57950	-0.020199448
94	0x3d043d8f	0.03228527
95	0x3d10485e	0.035225265
96	0x3bdc3f8e	0.0067214435
97	0x3d6931ea	0.056932367
98	0x3cc0b442	0.023523454
99	0x3c77488c	0.01509298
100	0x3d7285df	0.0592097
101	0xb85df2b0	-5.2916526e-05
102	0x3cf0ff42	0.029418591
103	0xbb9f717e	-0.0048658242
104	0x3d1c2ea1	0.038130406
105	0x3c250600	0.010072231
106	0xbc6d7f05	-0.014495616
107	0x3d086ed9	0.033308838
108	0xbcbe0229	-0.02319439
109	0x3cba20ce	0.02272072
110	0xbc863836	-0.016384225
111	0xbccf0b8c	-0.02527406
112	0xbbc000d9	-0.005859476
113	0xbc1281ce	-0.008942081
114	0x3cae9e84	0.02131582
115	0xbd1eec41	-0.038799528
116	0x3c375b4f	0.011191203
117	0x3ca99e13	0.020705258
118	0x3afbcd8f	0.0019211042
119	0xbc932048	-0.017959729
120	0xbc0e760a	-0.008695135
121	0xbc5f52ff	-0.013630628
122	0x3bbcc038	0.005760219
123	0x3b593e0f	0.0033148562
124	0x3c2f25f8	0.010690205
125	0x3d8668c4	0.06562951
126	0xbcb43131	-0.021996113
127	0x3a19a1d6	0.0005860602
128	0x3d68cb78	0.056834668
129	0xbd0e1189	-0.03468469
130	0x3d09d2f6	0.033648454
131	0xbc5dc732	-0.013536261
132	0x3cebe10e	0.028793838
133	0xbca8fdb5	-0.02062879
134	0x3cf973bf	0.0304507
135	0xbc5e3c90	-0.013564244
136	0xbd428da2	-0.047498353
137	0xbcbf8cb4	-0.023382522
138	0xbc8b177c	-0.016978972
139	0xbccd9634	-0.025096036
140	0x3c844140	0.016144395
141	0xba090639	-0.00052270625
142	0xb7dca497	-2.6302687e-05
143	0x3c1716a0	0.009221703
144	0x3aa4dd37	0.0012578134
145	0xbd637b2d	-0.05553739
146	0xbc994651	-0.018710287
147	0x3c2a4650	0.01039274
148	0xbbcc226d	-0.00622969
149	0xb9789ffa	-0.00023710719
150	0x39d41b87	0.000404563
151	0xbd16bece	-0.03680306
152	0xbd641e68	-0.05569306
153	0x3d350ca8	0.044201523
154	0xbcd4925d	-0.025948698
155	0xbd008756	-0.031379066
156	0xbc4c84f2	-0.0124828685
157	0xba56def8	-0.0008196677
158	0xbba24677	-0.0049522477
159	0xbcdc6de7	-0.026907874
160	0x3bdc0691	0.00671465
161	0x3b085c2f	0.0020806899
162	0x3d3ebca8	0.046566635
163	0xbd2e1757	-0.042502727
164	0x3c92b60b	0.01790907
165	0x3d4c66b4	0.049902633
166	0xbd8e34fb	-0.06943699
167	0x3d096df5	0.03355213
168	0x3d0fbfc4	0.03509499
169	0x3ce2e2d9	0.02769606
170	0x3c0dce9a	0.008655215
171	0xbcd889e4	-0.026432939
172	0x3d5395aa	0.051656403
173	0xbd2f1fb7	-0.042754855
174	0x3c24cd8c	0.010058772
175	0xbbda567f	-0.006663143
176	0xbd0044e8	-0.031315714
177	0xbd382b77	-0.044963326
178	0x3ca9f5ca	0.020747084
179	0xbce3b4e9	-0.027796226
180	0x3b752a83	0.0037409372
181	0x3c62fcf6	0.013854256
182	0xbb906167	-0.0044061425
183	0x3d675a0d	0.056482363
184	0xbc9eb9be	-0.019375678
185	0xbcd952a3	-0.026528662
186	0x3ce5bb9b	0.028043559
187	0xbc99f7d6	-0.018794935
188	0xbd239361	-0.039935473
189	0xbbc324b0	-0.005955301
190	0xbc62987b	-0.0138302995
191	0x3d41bdb0	0.04730004
192	0xbbd36086	-0.0064507155
193	0x3c494f1f	0.01228693
194	0xbcf47aef	-0.029843776
195	0x3a0e3175	0.000542424
196	0xbdbcbe9e	-0.09216045
197	0xbd630225	-0.055421967
198	0xbc4cf684	-0.012509946
199	0xbb988964	-0.00465505
200	0x3cbdc535	0.023165325
201	0x3d720cca	0.059094228
202	0xbc39f826	-0.011350667
203	0xbc7fb291	-0.015606538
204	0x3c14c20f	0.00907947
205	0x3c4c2541	0.012460054
206	0x3d6c420e	0.057680182
207	0x3b5e41c9	0.0033913723
208	0x3cdb73e4	0.02678866
209	0x3cefb8bd	0.029262895
210	0xbc5dfa77	-0.013548485
211	0x3c865a4f	0.016400484
212	0xbc9ad935	-0.0189024
213	0x3c77cb8c	0.015124213
214	0xbbf8a76f	-0.007588319
215	0xbc91457c	-0.017733328
216	0xbbf80887	-0.007569376
217	0xbc74874d	-0.014924836
218	0x3d8245bd	0.06360958
219	0xbc8be350	-0.017076164
220	0xbd2dc759	-0.04242644
221	0xbbddfd84	-0.006774606
222	0xbd0fc0d8	-0.03509602
223	0xbd740d41	-0.059582952
224	0x3d156111	0.036469523
225	0x3d32b84f	0.0436328
226	0x3c0d9747	0.008642024
227	0x3c008a99	0.007845544
228	0x3bf50a6b	0.0074780486
229	0x3cfda851	0.030964049
230	0x3b554b90	0.003254626
231	0xbd30eeea	-0.043196596
232	0xbd24b99a	-0.040216066
233	0x3c295e94	0.010337491
234	0x3be9c630	0.0071342215
235	0x3ae0bd8d	0.0017146334
236	0x3cf1020e	0.029419925
237	0xbcef335a	-0.029199291
238	0x3c8b2607	0.016985906
239	0xbb8c0e26	-0.0042741476
240	0x3c316a76	0.010828605
241	0xbbc0315d	-0.0058652596
242	0x3d59e3b4	0.05319567
243	0xbbee82d0	-0.0072787777
244	0xbc0c5d78	-0.008567207
245	0xbc12de98	-0.008964203
246	0x3cffc804	0.031223305
247	0xbbccfa3e	-0.006255417
248	0xbd0749b2	-0.033029266
249	0xbbddfcef	-0.006774537
250	0x3ccd6d6d	0.025076592
251	0xbd74dbd7	-0.059779968
252	0x3cb20aa2	0.021733586
253	0xbc29bfe8	-0.010360695
254	0xbcd717d1	-0.026256474
255	0xbd2e140a	-0.04249958

st_gcn_networks.1.tcn.2.bias f4 [8]
0	0x383ebf8c	4.5477922e-05
1	0x37efaf2c	2.8572591e-05
2	0x37627f8a	1.3500345e-05
3	0x388d5621	6.739447e-05
4	0xb904488e	-0.0001261553
5	0x38bb0a88	8.9188165e-05
6	0xb5f6b733	-1.8381746e-06
7	0xb8b03d0a	-8.4037034e-05

st_gcn_networks.1.tcn.3.weight f4 [8]
0	0x3e482a2f	0.19547342
1	0x3e79d6e5	0.24398382
2	0x3e85a4d6	0.26102322
3	0x3e739b51	0.23789717
4	0x3e493033	0.19647293
5	0x3e82d89d	0.25555888
6	0x3e87018c	0.26368368
7	0x3e32c64a	0.17458454

st_gcn_networks.1.tcn.3.bias f4 [8]
0	0xbb6c1957	-0.0036025846
1	0xbc33838e	-0.010956658
2	0xbc6e4d68	-0.014544822
3	0xbbd1bda8	-0.0064007826
4	0xbbe4a0a4	-0.0069771577
5	0xbbd35cb6	-0.006450261
6	0xbc576c76	-0.013148418
7	0xbbc80eb2	-0.0061052674

st_gcn_networks.1.tcn.3.running_mean f4 [8]
0	0xbadf678c	-0.0017044409
1	0x3c773c5c	0.015090074
2	0xbba657be	-0.0050763777
3	0x3a0ca065	0.0005364477
4	0xba578e30	-0.0008222787
5	0x3c264e07	0.010150439
6	0xbc2f05ac	-0.010682505
7	0xbc287bc9	-0.010283419

st_gcn_networks.1.tcn.3.running_var f4 [8]
0	0x39926b39	0.00027927177
1	0x3a7a38a3	0.00095451827
2	0x3a06fedb	0.0005149671
3	0x398c9174	0.00026811252
4	0x39874489	0.0002580027
5	0x3a56f4f1	0.0008199951
6	0x3a0d3954	0.00053872657
7	0x3a0b845d	0.0005322153

st_gcn_networks.1.residual.0.weight f4 [8, 8, 1, 1]
0	0xbd0916f6	-0.033469163
1	0xbd84ccfd	-0.06484411
2	0xbdd2acd4	-0.102868706
3	0xbc8cedbf	-0.01720321
4	0xbd3aeaec	-0.045634195
5	0x3cb6c980	0.02231288
6	0x3d60e0d1	0.0549019
7	0xbb351156	-0.0027628741
8	0xbd97c23b	-0.074100934
9	0xbd266ca9	-0.04063097
10	0xbd127c08	-0.035762817
11	0x3b47a948	0.003046589
12	0x3cd4e8df	0.025989948
13	0x3d892c91	0.066979535
14	0x3daa143e	0.08304642
15	0xbdb8fad2	-0.09032215
16	0xbdff9029	-0.12478668
17	0xba3641aa	-0.0006952534
18	0x3d93ad15	0.07210747
19	0x3bb6ceaf	0.005578838
20	0xbce65575	-0.028116921
21	0x3d56df1c	0.052458867
22	0xbb8ea1f2	-0.0043528015
23	0xbd480e38	-0.048841685
24	0x3dbc81bb	0.092044316
25	0x3cd25ee7	0.025680019
26	0xbd290d9c	-0.041272745
27	0xbb72ec80	-0.0037067235
28	0xbce53973	-0.027981495
29	0x3c42ccf4	0.011889685
30	0x3d69ba15	0.057062227
31	0x3d87a178	0.066225946
32	0xbd6d88c8	-0.057991773
33	0x3d3aff4d	0.04565363
34	0xbd68ec7c	-0.056866154
35	0x3c419d8b	0.011817346
36	0x3d492b17	0.04911336
37	0xbd53b9be	-0.05169081
38	0x3d888ba8	0.06667262
39	0x3d7c908b	0.061661284
40	0x3df5cf39	0.12002415
41	0x3ce7752e	0.028254118
42	0x3d9abacb	0.07555159
43	0xbc327372	-0.010891782
44	0xbd736023	-0.059417855
45	0xbcfe06bb	-0.031009069
46	0xbca94ed0	-0.020667464
47	0xbda573b7	-0.080787115
48	0x3c937345	0.0179993
49	0x3cca0b27	0.024663521
50	0xbd897912	-0.067125455
51	0x3ca69d35	0.020338634
52	0xbccced7d	-0.025015587
53	0xbce10bfb	-0.027471533
54	0xbda97ccb	-0.082757555
55	0x3ce66c52	0.028127823
56	0x3c141bcc	0.00903983
57	0x3d17fb9c	0.037105188
58	0x3da79aa6	0.08183794
59	0x3cf0f63b	0.029414287
60	0x3d490da7	0.049085286
61	0x3d9c56b1	0.076337226
62	0xbd80d2e7	-0.062902264
63	0xbce792c8	-0.028268233

st_gcn_networks.1.residual.0.bias f4 [8]
0	0xb78301b3	-1.5617208e-05
1	0x383220a2	4.24689e-05
2	0x35ef6f3f	1.7839265e-06
3	0x38125140	3.4884783e-05
4	0xb7caca1f	-2.4174396e-05
5	0x3864f523	5.4587737e-05
6	0xb7325684	-1.062977e-05
7	0xb89b5db4	-7.4084295e-05

st_gcn_networks.1.residual.1.weight f4 [8]
0	0x3e5f3e25	0.2180105
1	0x3e317d56	0.17332968
2	0x3e63262e	0.22182533
3	0x3e5d9a55	0.21640904
4	0x3e1b9b24	0.151959
5	0x3e5a4f82	0.21319392
6	0x3e9e4f01	0.3091965
7	0x3e144914	0.14481002

st_gcn_networks.1.residual.1.bias f4 [8]
0	0xbb6c1957	-0.0036025846
1	0xbc33838e	-0.010956658
2	0xbc6e4d68	-0.014544822
3	0xbbd1bda8	-0.0064007826
4	0xbbe4a0a4	-0.0069771577
5	0xbbd35cb6	-0.006450261
6	0xbc576c76	-0.013148418
7	0xbbc80eb2	-0.0061052674

st_gcn_networks.1.residual.1.running_mean f4 [8]
0	0xbc808e62	-0.015692893
1	0xbb2ca1ad	-0.0026341483
2	0xbb48f9de	-0.003066651
3	0x3ca372b2	0.019952152
4	0x3b40e46b	0.0029433023
5	0x3b8c09b7	0.004273619
6	0xbc6ba742	-0.014383139
7	0x3c9c9341	0.019113185

st_gcn_networks.1.residual.1.running_var f4 [8]
0	0x3a0704ca	0.0005150555
1	0x3a4c0fb5	0.0007784323
2	0x3a286488	0.0006423672
3	0x3a848d9f	0.0010113007
4	0x3a50383b	0.00079429493
5	0x3a7e4775	0.0009699979
6	0x3a40e08e	0.000735768
7	0x3a1cb7ec	0.0005978334

st_gcn_networks.2.gcn.conv.weight f4 [48, 8, 1, 1]
0	0x3d23c443	0.03998209
1	0xbd708e6b	-0.05872957
2	0x3c6827c1	0.014169634
3	0xbd4a14d0	-0.049336255
4	0x3d5319e5	0.051538367
5	0x3c42c5d5	0.011887987
6	0xbd92fe55	-0.07177416
7	0xbcbeb699	-0.023280429
8	0xbc99aaf1	-0.018758269
9	0xbc26fa1c	-0.010191467
10	0x3b23e7e5	0.0025010046
11	0xbd0c8a5a	-0.03431163
12	0xbc8e7cf3	-0.017393565
13	0xba9a3e56	-0.0011767845
14	0x3cec14cd	0.028818512
15	0xbcd1abcc	-0.025594614
16	0x3cda9cc9	0.02668609
17	0xbcc28ba7	-0.023748232
18	0x3c94c5d9	0.018160747
19	0xbd271f7c	-0.04080151
20	0xbc879400	-0.016550064
21	0x3bbeca3d	0.0058224485
22	0xbd6c6142	-0.05770994
23	0xbc9a24eb	-0.018816432
24	0x3cf63a92	0.030057225
25	0x392cd04b	0.00016480793
26	0x3b98863b	0.0046546734
27	0xbc830799	-0.015994834
28	0xbba1bd45	-0.0049358928
29	0xbd2e2d3f	-0.04252362
30	0xbc3784a7	-0.01120106
31	0xbab3d25b	-0.0013719307
32	0x3d2064d1	0.039158646
33	0x3cbcd584	0.023051031
34	0xbd09e637	-0.033666816
35	0x3c99ddee	0.018782582
36	0xbd96b1fb	-0.07358166
37	0x3d22a184	0.039704815
38	0xbc28ad68	-0.0102952495
39	0xbce6d8ab	-0.028179487
40	0x3d966ec2	0.07345344
41	0xbc8dca03	-0.01730824
42	0xbd91dc44	-0.071220905
43	0xbccce154	-0.025009789
44	0x3da8c384	0.08240417
45	0xbbe615fb	-0.0070216632
46	0xbdd3a3f6	-0.103340074
47	0xbc8622f2	-0.016374085
48	0xbd23902b	-0.03993241
49	0xbdbfc999	-0.093646236
50	0xbd1d38c6	-0.03838422
51	0x3bf26ac4	0.0073979814
52	0xbd538972	-0.05164475
53	0x3d4665f7	0.048437085
54	0xbdd16492	-0.102242604
55	0xbc077acf	-0.008269026
56	0xbc8043c7	-0.015657319
57	0xbc579a14	-0.013159294
58	0x3d0c4ab4	0.03425093
59	0xbc93eb76	-0.018056612
60	0xbc45e77a	-0.012079114
61	0xbc9218c6	-0.017834079
62	0x3d3900a1	0.045166615
63	0xbc9f4cfd	-0.01944589
64	0xbd0bc6db	-0.03412519
65	0xbcac85b1	-0.021059843
66	0xbd069203	-0.03285409
67	0x3ca6f4c3	0.020380383
68	0xbd1b6a5f	-0.03794324
69	0x3d1a1e29	0.03762642
70	0xbcad15fa	-0.021128643
71	0xbd625ce3	-0.055264365
72	0x3ccb8bce	0.024846938
73	0xbca3ff6e	-0.02001926
74	0x3d64b034	0.055832103
75	0x3c6a471b	0.014299179
76	0x3ca652d9	0.020303177
77	0xbd4ee2e1	-0.050509337
78	0x3c90bd4a	0.017668385
79	0x3b3aae14	0.0028485106
80	0x3c292e07	0.010325915
81	0xbd01b3ab	-0.031665485
82	0x3cdc2567	0.026873304
83	0x3b978b59	0.004624766
84	0x3d27a608	0.040929824
85	0x3d810259	0.06299276
86	0xbab9db3c	-0.0014179717
87	0xbc953191	-0.018212112
88	0x3cfe1949	0.031017916
89	0xbd294a4c	-0.04133062
90	0xbd217bcf	-0.039424714
91	0x3d0b8e08	0.034071
92	0xbcb21771	-0.021739693
93	0xbc7b33eb	-0.015332202
94	0x3c9e65e4	0.019335695
95	0xbd81b316	-0.06332986
96	0x3ce8dc98	0.0284255
97	0xbcffa10e	-0.031204727
98	0xbabc44eb	-0.0014363801
99	0x3d9ed7dc	0.07756016
100	0xbc5f3391	-0.013623134
101	0x3cafa472	0.021440718
102	0x3d0aa947	0.03385284
103	0xbc163117	-0.009166977
104	0x3c0ef6b8	0.0087258145
105	0xbd824161	-0.06360126
106	0x3d8f7448	0.07004601
107	0xbcb889b0	-0.022526592
108	0xbbd196dc	-0.0063961577
109	0xbb759c0a	-0.003747704
110	0xbc3467b0	-0.011011049
111	0xbc60d760	-0.013723224
112	0xbd0fdefa	-0.035124756
113	0x3cd76bd7	0.02629654
114	0x3d343c07	0.04400256
115	0xbd2f47f0	-0.042793214
116	0x3c43e11b	0.011955525
117	0x3d41b9c7	0.04729631
118	0x3cdbfa9f	0.026852904
119	0xbc5b5842	-0.0133877415
120	0xbcbc8b95	-0.023015777
121	0x3d210805	0.03931429
122	0xbcab8b9f	-0.0209406
123	0xbd2481bc	-0.040162787
124	0xbdab5f3b	-0.08367773
125	0xbb90e47a	-0.004421768
126	0xbb017e67	-0.001975918
127	0xbc573848	-0.013135977
128	0x3d01575f	0.031577464
129	0xbcf0e65a	-0.029406715
130	0x3cbfd22d	0.02341565
131	0xbd5fe065	-0.05465736
132	0x3d39cb34	0.045359805
133	0x3da0d740	0.07853556
134	0x3db5646a	0.08857043
135	0xbd45ab1d	-0.04825889
136	0x3c343cae	0.011000795
137	0xbc910835	-0.017704109
138	0xbd236152	-0.039887734
139	0xbd266289	-0.040621314
140	0x3b001974	0.0019546421
141	0x3d5c2d44	0.053754106
142	0x3d0f134f	0.034930523
143	0x3ca29e33	0.019850826
144	0x3c8de368	0.01732035
145	0xba7c52dd	-0.00096253847
146	0x3d77aebd	0.060469378
147	0xbc360e5e	-0.011111824
148	0x3d17cdc7	0.03706148
149	0xbc876699	-0.016528415
150	0x3d02ade1	0.031904105
151	0xbd473afc	-0.048640236
152	0x3cc460f2	0.023972008
153	0x3cc32145	0.023819575
154	0x3b909f97	0.004413556
155	0xbc87c787	-0.016574634
156	0x3d57e0da	0.05270467
157	0xbd221052	-0.039566346
158	0xbd3e8054	-0.046509102
159	0xbd78d0c8	-0.060745984
160	0xbcab5c74	-0.020918109
161	0xbd009821	-0.03139508
162	0x3d03ae84	0.032148853
163	0xbcc729c1	-0.024311902
164	0xbbe5e3bd	-0.007015674
165	0x3ccc2c96	0.024923604
166	0x3d35d999	0.04439697
167	0xbb06dadb	-0.0020577225
168	0x3c4450c5	0.011982148
169	0x3d1aa3d9	0.037753914
170	0xbca446b9	-0.020053254
171	0xbd1a0825	-0.037605423
172	0x3c79829d	0.015228895
173	0xbdd29a7c	-0.10283372
174	0x3c867611	0.01641372
175	0xbc8965e8	-0.016772225
176	0x3d606826	0.054786824
177	0x3d105b51	0.035243336
178	0xbd6c3c15	-0.057674486
179	0x3d1fb6cc	0.038992688
180	0x3d79b076	0.060959302
181	0xbd2f9447	-0.042866018
182	0x3a3e57be	0.00072609994
183	0xbd6cfd8f	-0.057859
184	0xbc2b8f8d	-0.010471237
185	0xbd611001	-0.054946903
186	0x3d2aee91	0.04173142
187	0x3d20a900	0.03922367
188	0xbd324f29	-0.043532524
189	0x3d3f0ed6	0.046645008
190	0xbcc1ff2f	-0.023681251
191	0x3d3a2f86	0.045455478
192	0x3d098ca6	0.0335814
193	0x3d68a2fa	0.05679605
194	0xbcb1ab84	-0.02168823
195	0x3d03b8b5	0.032158572
196	0x3d5f8567	0.05457058
197	0xbb9c3f8f	-0.004768319
198	0x3d9fd29c	0.078038424
199	0xbd039e33	-0.032133292
200	0xbc1aceca	-0.009448716
201	0xbcba6d87	-0.022757305
202	0xbd00fd2b	-0.03149144
203	0x3d02492c	0.031808063
204	0xbd9e1737	-0.07719272
205	0x3d66b3a0	0.056323647
206	0x3d08bc0b	0.033382457
207	0xbcc81233	-0.02442274
208	0xbc8e7ecd	-0.017394448
209	0xbd8baad3	-0.068196915
210	0xbc56031d	-0.013062266
211	0x3d542d8e	0.051801257
212	0x3bedca93	0.0072568147
213	0xbbce034b	-0.0062870136
214	0x3c5dbe78	0.013534181
215	0x3d51ac25	0.05118956
216	0x3d6dcf07	0.058058765
217	0x3dad9510	0.08475697
218	0x3cb6301b	0.022239735
219	0x3c27d1bd	0.010242877
220	0xbd32b606	-0.043630622
221	0xbcbe6bbb	-0.02324473
222	0x3dcb11a8	0.09915477
223	0x3d5f9399	0.05458412
224	0x3dd360ea	0.10321219
225	0xbcef5b03	-0.029218202
226	0xbc1220c2	-0.008918943
227	0xbd606b13	-0.054789614
228	0xbd4257de	-0.047447078
229	0xbc0ffbad	-0.0087880315
230	0x3d061be5	0.032741446
231	0xbc6bc895	-0.014391084
232	0x3d0d855d	0.034551013
233	0x3d49853d	0.04919933
234	0xbdae8c78	-0.08522886
235	0x3d8955f9	0.06705851
236	0xbc2689d3	-0.010164696
237	0xbd496d6d	-0.049176622
238	0xba75263f	-0.00093517074
239	0x3db09f37	0.08624118
240	0xbd5618ce	-0.05226975
241	0xbc45c81b	-0.012071635
242	0xbd3d5815	-0.04622658
243	0xbcf58926	-0.029972624
244	0x3ccb8a60	0.024846256
245	0x3c29a5c2	0.010354461
246	0xbbc1b9ed	-0.0059120567
247	0x3b856a37	0.0040714997
248	0xbd4d5ab9	-0.050135348
249	0xbbbd4956	-0.0057765646
250	0x3ca37761	0.019954385
251	0x3d26b1db	0.04069696
252	0x3cdddacc	0.02708187
253	0x3c3b6a0a	0.011438856
254	0x3d86ac48	0.06575829
255	0xbc4c7dc7	-0.0124811595

st_gcn_networks.2.gcn.conv.bias f4 [48]
0	0xbc23b909	-0.009992846
1	0x3c146abc	0.009058651
2	0xbc5bf086	-0.0134240445
3	0x3bc4da76	0.006007488
4	0x3bb6c525	0.0055777007
5	0xbbdb2ed4	-0.006688932
6	0x3cdd1c5f	0.026991067
7	0xbc6dd322	-0.01451567
8	0xbbc87519	-0.0061174748
9	0xbc166d9c	-0.009181406
10	0xba97ae2a	-0.0011572291
11	0xbc1e8fbd	-0.009677825
12	0xbcd3d7af	-0.025859682
13	0xbc3640c3	-0.011123839
14	0x3c1451f7	0.009052745
15	0x3c1407f9	0.009035104
16	0xbd440910	-0.047860205
17	0xbbb0f687	-0.005400482
18	0xba23feca	-0.0006255923
19	0x3c797b82	0.0152272
20	0x3b037e29	0.002006421
21	0xbc873151	-0.016503008
22	0xbc08e575	-0.008355488
23	0xbc794e2e	-0.015216393
24	0xbd44392b	-0.047906082
25	0xbc00d0ca	-0.007862279
26	0xbcb3bed1	-0.021941574
27	0xbd094bcf	-0.033519562
28	0x3c5b4363	0.013382765
29	0x3bc3ca3f	0.0059750373
30	0xbc4ceb44	-0.012507264
31	0xbc8191e3	-0.015816635
32	0x3c5dfa2f	0.013548418
33	0x3cc71b2c	0.024304949
34	0xbbd4c288	-0.0064929165
35	0x3b8738dd	0.0041266517
36	0xbd2c696c	-0.042092726
37	0x3bbf92b3	0.0058463453
38	0x3b8eefb3	0.0043620705
39	0xbc21871f	-0.009858876
40	0x385d4b03	5.2760366e-05
41	0x39c8fea2	0.0003833669
42	0xbc2d485d	-0.010576335
43	0xbd0f9ee8	-0.035063654
44	0x3cdf087b	0.027225723
45	0xbc3f6779	-0.011682385
46	0x3c9df975	0.01928399
47	0x3c54549f	0.012959628

st_gcn_networks.2.tcn.0.weight f4 [16]
0	0x3e418814	0.18899566
1	0x3deb1e1a	0.11480351
2	0x3e19fff9	0.15039052
3	0x3df98582	0.12183668
4	0x3da4a4f9	0.080392785
5	0x3e54fe88	0.20800221
6	0x3e261d56	0.16222128
7	0x3e284d79	0.16435803
8	0x3e1ea9e7	0.154945
9	0x3e1f9fd3	0.15588312
10	0x3e060b5b	0.1309027
11	0x3e2ce1cf	0.16883014
12	0x3e19f344	0.15034205
13	0x3e169048	0.14703476
14	0x3ddacdb4	0.10683766
15	0x3de6cae7	0.11269169

st_gcn_networks.2.tcn.0.bias f4 [16]
0	0xbce25278	-0.027627215
1	0xbc3b7581	-0.011441589
2	0xbd1a170e	-0.037619643
3	0xbce8b0d1	-0.028404625
4	0xbbfac2ee	-0.007652632
5	0xbcf957ab	-0.030437311
6	0xbd0ca2f2	-0.034335084
7	0xbd18ff9b	-0.03735314
8	0xbd11fd99	-0.03564224
9	0xbd0c7235	-0.034288604
10	0xbd454582	-0.04816199
11	0xbceb555e	-0.02872723
12	0xbd2f5039	-0.042801116
13	0xbcfc639b	-0.030809214
14	0xbc5d4ee5	-0.013507579
15	0xbd31cfc8	-0.043411046

st_gcn_networks.2.tcn.0.running_mean f4 [16]
0	0xbaa512c8	-0.0012594098
1	0x3a126dc8	0.00055858167
2	0xba36e31b	-0.00069765904
3	0xb8410fd1	-4.6029516e-05
4	0xba803f22	-0.000978444
5	0xbb255c27	-0.002523193
6	0xba4109ed	-0.0007363845
7	0xbad0a9f3	-0.001591979
8	0xba97f77c	-0.0011594142
9	0xba33bb88	-0.00068562524
10	0xba6f7d2a	-0.00091357774
11	0xbae1e8b8	-0.0017235493
12	0x39d938f9	0.00041431913
13	0xba41f980	-0.0007399544
14	0x39e650a2	0.00043929095
15	0x3a3592c8	0.0006926474

st_gcn_networks.2.tcn.0.running_var f4 [16]
0	0x3685173d	3.966414e-06
1	0x360c51c9	2.090923e-06
2	0x361ea785	2.3641344e-06
3	0x366a4bcf	3.4912844e-06
4	0x363f5abd	2.8514035e-06
5	0x372f95d6	1.0465699e-05
6	0x3640c3ec	2.872427e-06
7	0x3630dc9e	2.635446e-06
8	0x363cb0fd	2.8117204e-06
9	0x36566dc5	3.195238e-06
10	0x36220efd	2.4148605e-06
11	0x367242f5	3.6099784e-06
12	0x360aa9ec	2.066251e-06
13	0x3624d1f1	2.4560106e-06
14	0x35d1b303	1.5623813e-06
15	0x362fcf9d	2.619788e-06
