weights_arm/194.pt (torch, 70926 bytes, 80 tensors)

A f4 [3, 9, 9]
0	0x3f000000	0.5
1	0x00000000	0.0
2	0x00000000	0.0
3	0x00000000	0.0
4	0x00000000	0.0
5	0x00000000	0.0
6	0x00000000	0.0
7	0x00000000	0.0
8	0x00000000	0.0
9	0x00000000	0.0
10	0x3e4ccccd	0.2
11	0x00000000	0.0
12	0x00000000	0.0
13	0x00000000	0.0
14	0x00000000	0.0
15	0x00000000	0.0
16	0x00000000	0.0
17	0x00000000	0.0
18	0x00000000	0.0
19	0x00000000	0.0
20	0x3eaaaaab	0.33333334
21	0x00000000	0.0
22	0x00000000	0.0
23	0x00000000	0.0
24	0x00000000	0.0
25	0x00000000	0.0
26	0x00000000	0.0
27	0x00000000	0.0
28	0x00000000	0.0
29	0x00000000	0.0
30	0x3eaaaaab	0.33333334
31	0x00000000	0.0
32	0x00000000	0.0
33	0x00000000	0.0
34	0x00000000	0.0
35	0x00000000	0.0
36	0x00000000	0.0
37	0x00000000	0.0
38	0x00000000	0.0
39	0x00000000	0.0
40	0x3f000000	0.5
41	0x00000000	0.0
42	0x00000000	0.0
43	0x00000000	0.0
44	0x00000000	0.0
45	0x00000000	0.0
46	0x00000000	0.0
47	0x00000000	0.0
48	0x00000000	0.0
49	0x00000000	0.0
50	0x3eaaaaab	0.33333334
51	0x00000000	0.0
52	0x00000000	0.0
53	0x00000000	0.0
54	0x00000000	0.0
55	0x00000000	0.0
56	0x00000000	0.0
57	0x00000000	0.0
58	0x00000000	0.0
59	0x00000000	0.0
60	0x3eaaaaab	0.33333334
61	0x00000000	0.0
62	0x00000000	0.0
63	0x00000000	0.0
64	0x00000000	0.0
65	0x00000000	0.0
66	0x00000000	0.0
67	0x00000000	0.0
68	0x00000000	0.0
69	0x00000000	0.0
70	0x3f000000	0.5
71	0x00000000	0.0
72	0x00000000	0.0
73	0x00000000	0.0
74	0x00000000	0.0
75	0x00000000	0.0
76	0x00000000	0.0
77	0x00000000	0.0
78	0x00000000	0.0
79	0x00000000	0.0
80	0x3f000000	0.5
81	0x00000000	0.0
82	0x3e4ccccd	0.2
83	0x00000000	0.0
84	0x00000000	0.0
85	0x00000000	0.0
86	0x00000000	0.0
87	0x00000000	0.0
88	0x00000000	0.0
89	0x00000000	0.0
90	0x00000000	0.0
91	0x00000000	0.0
92	0x00000000	0.0
93	0x00000000	0.0
94	0x00000000	0.0
95	0x00000000	0.0
96	0x00000000	0.0
97	0x00000000	0.0
98	0x00000000	0.0
99	0x00000000	0.0
100	0x3e4ccccd	0.2
101	0x00000000	0.0
102	0x00000000	0.0
103	0x00000000	0.0
104	0x00000000	0.0
105	0x00000000	0.0
106	0x00000000	0.0
107	0x00000000	0.0
108	0x00000000	0.0
109	0x00000000	0.0
110	0x3eaaaaab	0.33333334
111	0x00000000	0.0
112	0x3f000000	0.5
113	0x00000000	0.0
114	0x00000000	0.0
115	0x00000000	0.0
116	0x00000000	0.0
117	0x00000000	0.0
118	0x00000000	0.0
119	0x00000000	0.0
120	0x3eaaaaab	0.33333334
121	0x00000000	0.0
122	0x00000000	0.0
123	0x00000000	0.0
124	0x00000000	0.0
125	0x00000000	0.0
126	0x00000000	0.0
127	0x3e4ccccd	0.2
128	0x00000000	0.0
129	0x00000000	0.0
130	0x00000000	0.0
131	0x00000000	0.0
132	0x00000000	0.0
133	0x00000000	0.0
134	0x00000000	0.0
135	0x00000000	0.0
136	0x00000000	0.0
137	0x00000000	0.0
138	0x00000000	0.0
139	0x00000000	0.0
140	0x3eaaaaab	0.33333334
141	0x00000000	0.0
142	0x3f000000	0.5
143	0x00000000	0.0
144	0x00000000	0.0
145	0x00000000	0.0
146	0x00000000	0.0
147	0x00000000	0.0
148	0x00000000	0.0
149	0x00000000	0.0
150	0x3eaaaaab	0.33333334
151	0x00000000	0.0
152	0x00000000	0.0
153	0x00000000	0.0
154	0x3e4ccccd	0.2
155	0x00000000	0.0
156	0x00000000	0.0
157	0x00000000	0.0
158	0x00000000	0.0
159	0x00000000	0.0
160	0x00000000	0.0
161	0x00000000	0.0
162	0x00000000	0.0
163	0x00000000	0.0
164	0x00000000	0.0
165	0x00000000	0.0
166	0x00000000	0.0
167	0x00000000	0.0
168	0x00000000	0.0
169	0x00000000	0.0
170	0x00000000	0.0
171	0x3f000000	0.5
172	0x00000000	0.0
173	0x3eaaaaab	0.33333334
174	0x00000000	0.0
175	0x00000000	0.0
176	0x3eaaaaab	0.33333334
177	0x00000000	0.0
178	0x00000000	0.0
179	0x3f000000	0.5
180	0x00000000	0.0
181	0x00000000	0.0
182	0x00000000	0.0
183	0x3eaaaaab	0.33333334
184	0x00000000	0.0
185	0x00000000	0.0
186	0x00000000	0.0
187	0x00000000	0.0
188	0x00000000	0.0
189	0x00000000	0.0
190	0x00000000	0.0
191	0x00000000	0.0
192	0x00000000	0.0
193	0x00000000	0.0
194	0x00000000	0.0
195	0x00000000	0.0
196	0x00000000	0.0
197	0x00000000	0.0
198	0x00000000	0.0
199	0x00000000	0.0
200	0x00000000	0.0
201	0x00000000	0.0
202	0x00000000	0.0
203	0x00000000	0.0
204	0x00000000	0.0
205	0x00000000	0.0
206	0x00000000	0.0
207	0x00000000	0.0
208	0x00000000	0.0
209	0x00000000	0.0
210	0x00000000	0.0
211	0x00000000	0.0
212	0x00000000	0.0
213	0x3eaaaaab	0.33333334
214	0x00000000	0.0
215	0x00000000	0.0
216	0x00000000	0.0
217	0x00000000	0.0
218	0x00000000	0.0
219	0x00000000	0.0
220	0x00000000	0.0
221	0x00000000	0.0
222	0x00000000	0.0
223	0x00000000	0.0
224	0x00000000	0.0
225	0x00000000	0.0
226	0x00000000	0.0
227	0x00000000	0.0
228	0x00000000	0.0
229	0x00000000	0.0
230	0x00000000	0.0
231	0x00000000	0.0
232	0x00000000	0.0
233	0x00000000	0.0
234	0x00000000	0.0
235	0x00000000	0.0
236	0x00000000	0.0
237	0x00000000	0.0
238	0x00000000	0.0
239	0x00000000	0.0
240	0x00000000	0.0
241	0x00000000	0.0
242	0x00000000	0.0

data_bn.weight f4 [27]
0	0x3d8ba831	0.06819189
1	0x3cd79edc	0.026320867
2	0x3d40805f	0.046997424
3	0x3e701a57	0.23447548
4	0x3d4cf542	0.050038584
5	0x3d105591	0.035237852
6	0x3e95e966	0.2927963
7	0x3e3ade52	0.18248871
8	0x3e3e583b	0.18588345
9	0x3edd787f	0.43255994
10	0x3eff082c	0.49810922
11	0x3eaa87c8	0.33306718
12	0x3ef91ec9	0.486563
13	0x3efdf14f	0.49598166
14	0x3eaeb4ac	0.34122217
15	0x3e896854	0.2683741
16	0x3e249444	0.16072184
17	0x3e671a39	0.22568597
18	0x3ee8f0db	0.45496258
19	0x3ec4c072	0.38428074
20	0x3ead3ddd	0.3383626
21	0x3ef112e6	0.4708473
22	0x3ec84b7f	0.391201
23	0x3ea6da37	0.3258836
24	0x3e5a5755	0.21322377
25	0x3ccd4ef2	0.025062058
26	0x3d54541f	0.051838037

data_bn.bias f4 [27]
0	0xbca3ddd4	-0.020003237
1	0x3cd5559b	0.026041796
2	0xbcaf2d4f	-0.02138391
3	0xbc45dfec	-0.012077313
4	0xbc82aeb6	-0.01595245
5	0xbbdfc966	-0.0068294285
6	0x3d3d3a0a	0.04619793
7	0x3c5559cb	0.013021897
8	0x3c8f8df3	0.017523741
9	0xbcb6f157	-0.022331877
10	0x3bc8ad7e	0.0061241975
11	0x3c6e4f3a	0.014545256
12	0xbc3062de	-0.010765759
13	0x3c3a984e	0.011388851
14	0xbaf0ce68	-0.0018372061
15	0x3cc7c015	0.024383584
16	0x3d1848af	0.03717869
17	0x3d1d78c8	0.038445264
18	0x3bb25cef	0.0054432075
19	0xbca45a3a	-0.020062555
20	0xbcf4c921	-0.029881062
21	0xbcbca38e	-0.023027208
22	0xbcf7c381	-0.03024459
23	0x3bae4307	0.005318049
24	0x3c0891ec	0.008335572
25	0x3c6fe234	0.014641333
26	0x3c2bf767	0.010495997

data_bn.running_mean f4 [27]
0	0x42b1c910	88.8927
1	0x429d3ae7	78.61504
2	0x41b31dcd	22.389551
3	0x42c32e67	97.59063
4	0x42ab0d70	85.526245
5	0x41bf2775	23.894266
6	0x42afe155	87.9401
7	0x42a1b8e3	80.86111
8	0x41b726c0	22.89392
9	0x42c6e262	99.442154
10	0x42a58c6b	82.774254
11	0x41b99552	23.19791
12	0x42d5d79a	106.9211
13	0x429ee962	79.455826
14	0x41b5046a	22.627155
15	0x42d633b9	107.10102
16	0x42b46255	90.192055
17	0x41c736fc	24.901848
18	0x42ff6703	127.701195
19	0x42c20981	97.01856
20	0x41d2ef18	26.366745
21	0x42fc483e	126.1411
22	0x42b71881	91.54786
23	0x41cb0312	25.3765
24	0x42d6d071	107.40711
25	0x42c125ab	96.57357
26	0x41d17f34	26.18711

data_bn.running_var f4 [27]
0	0x46447166	12572.35
1	0x46a9602e	21680.09
2	0x45e45101	7306.1255
3	0x464d9ff2	13159.986
4	0x46ba32b9	23833.361
5	0x45fb0c0f	8033.5073
6	0x4620d8be	10294.186
7	0x46a3487b	20900.24
8	0x45e36165	7276.1743
9	0x464d62ae	13144.67
10	0x469950a7	19624.326
11	0x45ddaec3	7093.845
12	0x466814b7	14853.179
13	0x468c3e97	17951.295
14	0x45d14bc9	6697.473
15	0x46848ab5	16965.354
16	0x46d32794	27027.79
17	0x460a32d4	8844.707
18	0x46ac54a1	22058.314
19	0x46da8568	27970.703
20	0x46129613	9381.519
21	0x46a46b94	21045.79
22	0x46be28c1	24340.377
23	0x4604840e	8481.014
24	0x468e4004	18208.008
25	0x46c81c79	25614.236
26	0x460a9e99	8871.649

st_gcn_networks.0.gcn.conv.weight f4 [24, 3, 1, 1]
0	0xbd73de3c	-0.05953811
1	0x3b022ea1	0.0019864219
2	0xbba9ff58	-0.00518791
3	0x3e1d0f76	0.15337929
4	0xbd6085cd	-0.054815102
5	0x3d6a5cb3	0.05721731
6	0x3d684e5e	0.05671536
7	0x3bab57d6	0.0052289767
8	0x3d4902d6	0.04907497
9	0xbcb58327	-0.022157265
10	0xbc0a5fb9	-0.008445674
11	0x3df64d23	0.120264314
12	0x3ce2f645	0.027705321
13	0xbc66bc62	-0.014083
14	0xbe5287e2	-0.20559648
15	0x3e620949	0.22073855
16	0x3e908582	0.28226858
17	0x3da1871b	0.078870974
18	0xbe621313	-0.22077589
19	0x3e1e07de	0.15432689
20	0x3d89a06e	0.06720053
21	0xbe4075ce	-0.18794939
22	0x3d919f9e	0.07110523
23	0xbe047366	-0.12934646
24	0xbd57bebe	-0.05267214
25	0xbd374921	-0.044747476
26	0xbca77d97	-0.020445628
27	0xbe7298fd	-0.23691173
28	0xbd9dd799	-0.077071376
29	0x3ce19522	0.027536932
30	0x3e2480ac	0.1606471
31	0xbc2616a1	-0.010137231
32	0xbc9ed64a	-0.01938929
33	0xbe04107c	-0.12896913
34	0xbe09cd4e	-0.13457224
35	0x392f9ab5	0.00016746933
36	0x38c04c19	9.169448e-05
37	0xbcaaa505	-0.02083064
38	0x3e3b0ad4	0.1826585
39	0xbd549e24	-0.051908627
40	0xbe67bc16	-0.22630343
41	0xbe049307	-0.12946711
42	0x3d901931	0.07036055
43	0x3d68f7a8	0.05687681
44	0x3d34941e	0.044086568
45	0x3e34ddf8	0.176628
46	0xbdcc9dbe	-0.099910244
47	0x3e2308fd	0.15921398
48	0xbd141e5a	-0.036161758
49	0x3b5a1594	0.0033277022
50	0x3c4f5f9d	0.012657073
51	0xbd380540	-0.04492688
52	0xbc8ffd7e	-0.01757693
53	0xbda1c7ee	-0.07899462
54	0x3e1dd912	0.15414837
55	0xbd2dce14	-0.04243286
56	0x3d3f43fc	0.046695694
57	0xbcc0e0db	-0.02354472
58	0xbc8c49fe	-0.017125126
59	0x3bcb5e2a	0.0062062936
60	0xbe55473d	-0.20827956
61	0x3c161c3f	0.009162008
62	0xbc1774b3	-0.009244132
63	0x3d37ee1c	0.044904813
64	0xbd8081fd	-0.06274793
65	0x3dd70825	0.104996
66	0x3cbbf860	0.022945583
67	0xbd813555	-0.063090004
68	0x3c3d5a3b	0.011557157
69	0xbdd7261d	-0.105053164
70	0x3e15c5af	0.14626192
71	0x3d5848d1	0.052803818

st_gcn_networks.0.gcn.conv.bias f4 [24]
0	0x3d0d9baf	0.0345723
1	0x3d199cdd	0.037503112
2	0x3d2bd436	0.041950427
3	0x3d977dec	0.073970646
4	0xbc995cc8	-0.018721
5	0xbe28d718	-0.16488302
6	0xbca92941	-0.020649554
7	0x3df7e8df	0.121049635
8	0xbd76fdcb	-0.06030063
9	0x3c723047	0.014782018
10	0x3da0687c	0.07832429
11	0xbcd43845	-0.025905738
12	0x3cae1326	0.021249365
13	0x3e0d14d1	0.13777472
14	0x3e151217	0.14557682
15	0xbca3451a	-0.019930411
16	0xbc88e00d	-0.016708398
17	0xbe14ba19	-0.14524116
18	0x3c31404d	0.010818553
19	0xbd791a9a	-0.060816385
20	0x3d0f3454	0.034962013
21	0x3cd34266	0.025788497
22	0xbcdbd329	-0.026834087
23	0xba02c9c1	-0.000498917

st_gcn_networks.0.tcn.0.weight f4 [8]
0	0x3e07405f	0.1320815
1	0x3e908e6b	0.28233656
2	0x3ebbab44	0.36654103
3	0x3e751e3c	0.23937315
4	0x3e7f2547	0.24916564
5	0x3ea07e1d	0.31346217
6	0x3e9dc6a6	0.3081562
7	0x3ea87b6a	0.32906657

st_gcn_networks.0.tcn.0.bias f4 [8]
0	0x3d49aff8	0.049240083
1	0x3d147f1f	0.036254045
2	0x3d7193aa	0.058978714
3	0x3c9ee837	0.019397838
4	0xbd2e0ac6	-0.042490743
5	0x3d5bd02a	0.053665318
6	0x3b55fbf5	0.0032651399
7	0xbd22ad3b	-0.039715987

st_gcn_networks.0.tcn.0.running_mean f4 [8]
0	0xbb3583e8	-0.002769703
1	0x393066d0	0.00016822969
2	0x3c6368c7	0.013879961
3	0x3b81727e	0.003950416
4	0x3aaaa2c7	0.0013018482
5	0xbb90f852	-0.0044241333
6	0x3c432d32	0.011912631
7	0x3c50bbbc	0.012740072

st_gcn_networks.0.tcn.0.running_var f4 [8]
0	0x389d8c1e	7.512442e-05
1	0x39149e61	0.0001417338
2	0x396e0997	0.00022701021
3	0x394421d5	0.0001870462
4	0x376f71ab	1.42719755e-05
5	0x39443ee0	0.0001871544
6	0x397e093b	0.00024226766
7	0x385a297d	5.201389e-05

st_gcn_networks.0.tcn.2.weight f4 [8, 8, 9, 1]
0	0xbd2be742	-0.04196859
1	0xbcb777f1	-0.02239606
2	0x3cdb8bbf	0.026800035
3	0x3aa3932c	0.0012479774
4	0x3b8a134d	0.0042137266
5	0xbce58e2b	-0.028021893
6	0x3b89c80f	0.004204757
7	0xbb26c037	-0.0025444159
8	0x3c6366d6	0.0138794985
9	0x3d1e2e68	0.038618475
10	0xbd4ee479	-0.050510857
11	0xbd0ae182	-0.033906467
12	0xbc717bfa	-0.014739031
13	0x3b63d38e	0.0034763548
14	0x3c977d14	0.01849226
15	0x3c0c2e9f	0.008556037
16	0xbbef5b33	-0.007304573
17	0xbca9212b	-0.020645699
18	0x3d4783c8	0.04870966
19	0x3d5874cc	0.05284576
20	0x3d0a2a21	0.033731584
21	0x3d944441	0.07239581
22	0xbc93193d	-0.01795637
23	0x3dc863c5	0.097846545
24	0xbd7044ec	-0.05865948
25	0x3cbf0296	0.023316663
26	0xbd64088b	-0.05567221
27	0x3c219dd3	0.009864288
28	0xbca03df6	-0.019560795
29	0x3d88ee3e	0.06686066
30	0x3bafe27a	0.0053675743
31	0x3cc59dad	0.024123037
32	0x3cf6c11c	0.030121379
33	0x3c897199	0.0167778
34	0x3d34bf68	0.04412785
35	0x3d13edd3	0.03611548
36	0xbd979a5f	-0.07402491
37	0xbc880e57	-0.0166084
38	0x3d3f05a3	0.046636235
39	0xbcc7a4a0	-0.024370492
40	0xbd21b8b9	-0.039482806
41	0x3ccecca7	0.02524407
42	0x3cb74d35	0.022375682
43	0xbd301f41	-0.042998556
44	0x3c345e97	0.01100888
45	0xbcd2a586	-0.025713693
46	0x3b8a7f0b	0.0042265705
47	0x3be9f9c6	0.007140371
48	0x3cc88945	0.024479518
49	0x3d108755	0.035285313
50	0x3c5a8426	0.013337171
51	0xbc756ed5	-0.014980038
52	0x3ccf3150	0.025292069
53	0x3bd3b96b	0.0064613125
54	0x3d06c78a	0.03290514
55	0x3c4aaeba	0.01237076
56	0xbb8cb5d4	-0.0042941365
57	0xbd27af39	-0.04093859
58	0xbc92d4cb	-0.017923733
59	0xbc8f35f6	-0.017481785
60	0xbcf9e086	-0.030502569
61	0x3d473d17	0.048642244
62	0xbc34bd56	-0.011031469
63	0xbc935354	-0.01798407
64	0xbdfb9a87	-0.12285333
65	0xbb6a91dd	-0.0035792508
66	0xbd3be30b	-0.045870822
67	0xba69f039	-0.00089240406
68	0xbda96a99	-0.08272285
69	0xbcbc3c7d	-0.022978062
70	0xbccd6c42	-0.025076035
71	0x3bd74688	0.0065696873
72	0x3cdb62a9	0.026780443
73	0xbc15a0a5	-0.009132539
74	0xbbb7385a	-0.0055914344
75	0xbc148007	-0.009063727
76	0x3c237bbc	0.009978231
77	0x3c84c8fc	0.016209118
78	0x3d639e52	0.055570908
79	0xb9dd6a9f	-0.00042231844
80	0xbbdd4457	-0.0067525315
81	0x3c99ba03	0.018765455
82	0x3ca6d39c	0.020364575
83	0x3d45d1fd	0.048295964
84	0x3c9ebaaa	0.019376118
85	0xbc9a07db	-0.018802574
86	0x3b3a52a4	0.0028430605
87	0x3ce33833	0.027736759
88	0xbb4ddb2e	-0.003141116
89	0x3d154e38	0.03645155
90	0x3d031b81	0.03200865
91	0x3d9cd43a	0.076576665
92	0x3db147d3	0.086562775
93	0xb993857d	-0.0002813748
94	0xbc9c4f1a	-0.019080687
95	0xbd84f7d0	-0.06492579
96	0xbc82cabc	-0.015965812
97	0x3ca721d3	0.02040187
98	0xbbd36869	-0.0064516556
99	0x3d3f6e78	0.04673621
100	0xbccf699a	-0.02531891
101	0x3cc973d3	0.024591362
102	0x3c2fefa0	0.010738283
103	0x3c8afa92	0.016965184
104	0x3c13e1c7	0.0090259975
105	0x3d259cfd	0.04043292
106	0xbcd2449c	-0.025667481
107	0xbc16d167	-0.009205199
108	0x3c81a6d4	0.01582662
109	0x3c988c2f	0.018621532
110	0x3cade22a	0.021226007
111	0x3c9b0438	0.01892291
112	0x3c0733c6	0.00825209
113	0xbca9c938	-0.020725831
114	0x3d37e1e6	0.044893168
115	0x3d6e0e31	0.058119003
116	0x3c8dee33	0.017325496
117	0xbccecf43	-0.025245314
118	0x3d16edc8	0.03684786
119	0x3cf5f5e7	0.030024482
120	0xbd1a0853	-0.037605595
121	0x3cb37680	0.021907091
122	0xbd01e5af	-0.031713184
123	0xbd5ae199	-0.053437803
124	0xbcd8e38d	-0.026475692
125	0xbc4d9eb3	-0.012550044
126	0xbd6fe3d4	-0.058566883
127	0xbd66695e	-0.05625283
128	0xbd91e772	-0.07124223
129	0xbd58467b	-0.05280159
130	0xbca09a09	-0.0196047
131	0x3d19fdcb	0.03759555
132	0x3ce2538a	0.027627725
133	0xbd2d58ff	-0.0423212
134	0x3d9666ff	0.07343864
135	0x3d164e8f	0.036696013
136	0xbd72832a	-0.05920712
137	0xbd04116a	-0.03224317
138	0xbbf09808	-0.0073423423
139	0x3cab1e8a	0.020888586
140	0xbd13eaba	-0.036112525
141	0x3cc184de	0.023622926
142	0xbcb1c946	-0.02170242
143	0xbce9b245	-0.028527388
144	0xbcb787eb	-0.022403678
145	0xbc45af3a	-0.012065703
146	0xbc8c0c0f	-0.017095594
147	0x3d83bab4	0.06432095
148	0xbc99ebfa	-0.01878928
149	0xbc1f9369	-0.009739735
150	0x3d0c06b5	0.034186084
151	0xbcdb0bcf	-0.02673903
152	0xbc602097	-0.013679645
153	0xbbca6b82	-0.0061773667
154	0xbb3e79b9	-0.0029064252
155	0xbc806ef7	-0.015677912
156	0x3c86c692	0.016452108
157	0xbc48aae2	-0.012247773
158	0x3c45a15e	0.012062399
159	0x3bbecb28	0.005822558
160	0xbd4e7c8a	-0.05041174
161	0x3c69a5af	0.014260693
162	0x3d9983f0	0.07495868
163	0xbbebee3a	-0.0072000297
164	0x3b24224f	0.0025044864
165	0xbd9fa84e	-0.077957734
166	0x3d80848e	0.06275283
167	0xbadb26db	-0.0016719954
168	0x3d41ca2d	0.04731195
169	0xbd8d8269	-0.069096394
170	0x3d04464d	0.032293607
171	0x3cceb4ff	0.02523279
172	0xbce840cc	-0.02835121
173	0xbd01f3b2	-0.031726547
174	0x3cb41977	0.021984799
175	0x3c36ba87	0.01115287
176	0xbd0eb2c1	-0.03483844
177	0xbac97347	-0.0015369438
178	0xbd10616c	-0.03524916
179	0x3cec19a9	0.02882083
180	0x3acbcf9c	0.0015549543
181	0x3c8693ab	0.016427835
182	0x3d6c3cf3	0.057675313
183	0x3ba938a3	0.0051642223
184	0xbd8f42f5	-0.06995193
185	0xbcb33d74	-0.02187989
186	0xbcf8fde7	-0.030394508
187	0xbc62c794	-0.013841528
188	0xbb313f4f	-0.0027045792
189	0xbd2c3000	-0.042037964
190	0xbd66f3d1	-0.056384865
191	0x3d55d504	0.0522051
192	0xbd386afe	-0.04502391
193	0xbd867af2	-0.06566419
194	0x3c55f9de	0.013060061
195	0x3d359b1e	0.044337384
196	0xbd570968	-0.052499205
197	0x3db41d15	0.087946095
198	0x3b933e9d	0.004493548
199	0xbd15e65d	-0.036596645
200	0xbd839ac5	-0.06426004
201	0x3d578370	0.052615583
202	0x3dc55523	0.09635379
203	0x3cc08ac5	0.02350367
204	0xbd12b8e1	-0.035820846
205	0x3d1f0f8e	0.038833193
206	0x3d1de933	0.038552474
207	0xbd3fb8af	-0.046806987
208	0xbcc7e6e2	-0.024402086
209	0xbdaa233d	-0.083075024
210	0x3d3c7bf4	0.04601665
211	0xbbf64158	-0.007515114
212	0x3d7e9ee2	0.06216324
213	0xbd394eb2	-0.045241065
214	0xbd2873ec	-0.041126177
215	0xbcb6dd72	-0.02232239
216	0xbc905edf	-0.017623363
217	0xbc0e0a9c	-0.008669522
218	0x3baaa1ea	0.00520729
219	0x3ad61918	0.0016334383
220	0x3ca97053	0.020683443
221	0xbc9b64e5	-0.018969009
222	0xbc82239a	-0.015886117
223	0xbcd56aab	-0.02605184
224	0x3c06a687	0.008218414
225	0x3a8c1c1a	0.0010689527
226	0x3c9852d1	0.018594177
227	0xbc50a47f	-0.012734531
228	0xbbd66165	-0.006542372
229	0x3cc8edc7	0.024527444
230	0x3d2b5567	0.041829493
231	0x3ce38d46	0.027777325
232	0x3c013757	0.007886729
233	0x3d2ee403	0.042697918
234	0x3c77a6ea	0.015115479
235	0x3c35c677	0.011094681
236	0x3b373748	0.0027956534
237	0xbc7737b1	-0.015088961
238	0xbc30e076	-0.010795703
239	0xbc830506	-0.015993606
240	0x3c0f43da	0.008744204
241	0x3c3c304b	0.011486123
242	0xbd816531	-0.06318129
243	0x3c56609a	0.013084555
244	0xbd006a86	-0.03135159
245	0xbcfdfdca	-0.031004805
246	0xbd3b9335	-0.045794684
247	0xbd24ed71	-0.040265504
248	0xbc508e6d	-0.012729269
249	0xbd3930f6	-0.04521271
250	0xbd44517d	-0.047929276
251	0x3cc2b24d	0.023766661
252	0xbbf4adc2	-0.0074670026
253	0xbd200da0	-0.039075494
254	0x39dfeb83	0.00042709344
255	0x3d1cfc96	0.038326822

st_gcn_networks.0.tcn.2.bias f4 [8]
0	0xb6d0d567	-6.2237264e-06
1	0x3896109b	7.1556504e-05
2	0x3707468d	8.063053e-06
3	0xb7f24f24	-2.88855e-05
4	0xb8c084ef	-9.180034e-05
5	0xb8cfee7b	-9.9149496e-05
6	0xb89b9ce6	-7.4202006e-05
7	0xb83a864c	-4.447093e-05

st_gcn_networks.0.tcn.3.weight f4 [8]
0	0x3ea5b837	0.32367107
1	0x3e91b960	0.28461742
2	0x3e7f7a21	0.24948932
3	0x3e6a7b2f	0.22898553
4	0x3e3ee544	0.18642145
5	0x3e98d1e0	0.29847622
6	0x3ea83ff5	0.32861295
7	0x3e946757	0.28985092

st_gcn_networks.0.tcn.3.bias f4 [8]
0	0xbce6ecb2	-0.028189037
1	0x3c2293b6	0.009922912
2	0x3d6596ef	0.056052145
3	0x3c240a6a	0.0100122485
4	0xbc382f80	-0.011241794
5	0x3d45596d	0.048180986
6	0x3d1b2675	0.037878472
7	0xbccc5a26	-0.02494533

st_gcn_networks.0.tcn.3.running_mean f4 [8]
0	0x3c58cb69	0.0132320905
1	0x3c6f37c4	0.014600698
2	0xbc749615	-0.0149283605
3	0xbd0eb3a6	-0.034839295
4	0x3cecb077	0.028892739
5	0x3d1cb53b	0.038258772
6	0xbb87374c	-0.004126465
7	0x3c8db43a	0.017297853

st_gcn_networks.0.tcn.3.running_var f4 [8]
0	0x3bb04159	0.005378884
1	0x3b43c511	0.00298721
2	0x3ad9dbd2	0.0016621298
3	0x3a6a9dac	0.00089498865
4	0x3aaf8ab6	0.001339278
5	0x3b7b9b89	0.0038392267
6	0x3b886af8	0.0041631423
7	0x3b73e982	0.003721804

st_gcn_networks.1.gcn.conv.weight f4 [24, 8, 1, 1]
0	0xbcb1fb1d	-0.021726185
1	0xbd224039	-0.03961203
2	0x3d6d48be	0.0579307
3	0x3d75d424	0.060016766
4	0xbc6c6b74	-0.014429916
5	0x3cc46a7d	0.023976559
6	0x3bead2a8	0.0071662255
7	0x3d2f3349	0.04277352
8	0xbbe39f7f	-0.0069465037
9	0xbc845700	-0.016154766
10	0x3dafe92d	0.085893966
11	0xbd2b12aa	-0.041765846
12	0x3d147a9e	0.03624975
13	0xbce3c975	-0.027806023
14	0x3d8b493c	0.06801078
15	0x3cb113b3	0.021615839
16	0x3d93a2ba	0.07208772
17	0xbd8a9eb2	-0.0676855
18	0xbce12aac	-0.027486168
19	0x3daf3038	0.08554119
20	0x3d807f61	0.062742956
21	0x3d85337b	0.0650396
22	0xbcf16249	-0.029465811
23	0xbcaa8549	-0.020815508
24	0x3babec20	0.005246654
25	0xbce7e305	-0.028306494
26	0xbd051be1	-0.03249729
27	0xbcd1c3d0	-0.025606066
28	0xbd9044ea	-0.07044394
29	0xbdc448b1	-0.09584177
30	0x3d2e4160	0.042542815
31	0xbdc21c45	-0.09478048
32	0xbce41d20	-0.02784592
33	0x3c0e5e2c	0.0086894445
34	0x3d794904	0.06086065
35	0xbd427dd8	-0.047483295
36	0x3c62ae6d	0.013835532
37	0x3cee6b6f	0.029103963
38	0x3d31aed7	0.04337963
39	0xbc83b3e6	-0.016076993
40	0x3bbe11d4	0.005800465
41	0xbda76327	-0.08173209
42	0x3d0c5cbc	0.034268126
43	0xbd5c3d9a	-0.053769685
44	0xbc92ff6f	-0.017944066
45	0xbb003005	-0.0019559872
46	0xbdb19d98	-0.08672637
47	0x3c58abdf	0.013224571
48	0xbcd04d17	-0.025427384
49	0xbc0cbf1b	-0.008590485
50	0x3d57700b	0.052597087
51	0x3bfa577a	0.0076398226
52	0x3c9ff417	0.01952557
53	0x3cca93b0	0.024728626
54	0xbd49c87d	-0.049263466
55	0xbcc5629c	-0.024094872
56	0xbd1c066b	-0.03809206
57	0xbbaac750	-0.005211748
58	0xbd142a02	-0.036172874
59	0xbcd5e184	-0.02610851
60	0xbc5ec5f8	-0.013597004
61	0x3d6b4ec7	0.057448175
62	0x3aa58e1e	0.0012630855
63	0x3da5538c	0.08072576
64	0xbc824785	-0.015903244
65	0x3d98665f	0.07441401
66	0x3c9c777e	0.019099947
67	0xbd1c4631	-0.038152877
68	0xbd878291	-0.066167004
69	0x3c686c7a	0.014186019
70	0x3d95ecc7	0.07320552
71	0x3dbec191	0.093142636
72	0xbd60bc57	-0.054867115
73	0xbc7c3721	-0.015394003
74	0xbd85f986	-0.065417334
75	0xbc5812fa	-0.013188118
76	0xbbf30996	-0.007416914
77	0xbd17f6e7	-0.0371007
78	0x3d612a9c	0.054972276
79	0x3b9c9e16	0.0047795875
80	0x3c19e11f	0.009392052
81	0xba9a9dd3	-0.0011796303
82	0x3d5b39f1	0.053522054
83	0xbd64dbfb	-0.055873852
84	0xbd35748f	-0.044300612
85	0xbdbda457	-0.09259861
86	0x3dc6cdba	0.09707208
87	0xbd6515be	-0.055928938
88	0xbc9034f0	-0.017603368
89	0x3df89b38	0.121389806
90	0x3d8d24fb	0.06891819
91	0x3cc6f612	0.024287257
92	0xbd3d0da1	-0.046155576
93	0x3d8b9c46	0.06816916
94	0xbccf0769	-0.025272088
95	0xbddf086b	-0.108902775
96	0xbd32138c	-0.043475673
97	0xbc445c21	-0.011984856
98	0x3da79cfe	0.08184241
99	0x3d3a5774	0.045493558
100	0x3b7237a5	0.0036959436
101	0x3cdfcf79	0.02732061
102	0xbce1edbd	-0.027579183
103	0x3d24775b	0.04015289
104	0x3da717c3	0.08158829
105	0xbd4569d7	-0.04819664
106	0xbc0c282c	-0.0085545
107	0xbd9deeeb	-0.077115856
108	0x3ceb72d6	0.028741281
109	0xbdae6623	-0.08515575
110	0x3da7caed	0.08193002
111	0x3d5df353	0.05418713
112	0xbd713bfe	-0.058895104
113	0xbde7aa73	-0.113118075
114	0x3d1f1190	0.03883511
115	0x3d0bff26	0.034178875
116	0xbd98c8ea	-0.07460196
117	0xbd6235d7	-0.055227127
118	0x3cddc928	0.027073458
119	0x3d90035e	0.07031892
120	0x3ce87e8e	0.028380658
121	0x3b9d202e	0.004795096
122	0xbc2d1ab2	-0.010565447
123	0xba43c15f	-0.0007467474
124	0xbb461e4f	-0.0030230468
125	0x3ced20ca	0.0289463
126	0x3d21e127	0.039521363
127	0xbbc2f1ad	-0.00594922
128	0xbcfd0115	-0.030884305
129	0xbbd4f821	-0.006499306
130	0x3d24fa7e	0.04027795
131	0x3daa1b60	0.083060026
132	0xbb7ed0ae	-0.0038881707
133	0x3d24e22c	0.040254757
134	0xbd344977	-0.044015374
135	0xbc235e3e	-0.0099712
136	0x3d939a73	0.07207193
137	0x3d27d52f	0.040974792
138	0x3d07af78	0.033126324
139	0xbd0260fc	-0.031830773
140	0x3c83fd5a	0.016112018
141	0x3d3cbaff	0.04607677
142	0x3dc80d2f	0.097681396
143	0xbb063047	-0.0020475553
144	0xbb57efe4	-0.0032949382
145	0x3cc3124a	0.023812432
146	0xbcbadc11	-0.022810014
147	0xbd9d72d7	-0.076879196
148	0x3c5f9359	0.01364597
149	0xbd5413ab	-0.05177657
150	0x3d87884d	0.06617794
151	0x3c16620e	0.0091786515
152	0x3d8becaa	0.068322495
153	0xbd210514	-0.039311484
154	0xbce3d63f	-0.027812121
155	0xbd7aaf36	-0.06120225
156	0xbc5bdfb2	-0.013420032
157	0xbcc97c36	-0.024595361
158	0x3e18204e	0.14856073
159	0x3c1e9649	0.009679385
160	0x3a2983fe	0.0006466507
161	0x3c31442a	0.010819474
162	0xbc50e7d6	-0.0127505865
163	0xbdb8a1ff	-0.09015273
164	0x3d336cf2	0.04380507
165	0xbcecb398	-0.02889423
166	0x3cb57791	0.02215174
167	0xbbcf3fac	-0.006324729
168	0xbc501e2e	-0.012702508
169	0xbd323063	-0.043503176
170	0xbcd6352a	-0.026148397
171	0x3cde56c6	0.027140986
172	0xbd9b9344	-0.07596448
173	0xbd93d76a	-0.07218821
174	0xbd6aaf10	-0.05729586
175	0xbc445db7	-0.011985234
176	0x3d991f25	0.074766435
177	0x3d26f74e	0.040763192
178	0x3d13b184	0.036057964
179	0xbdbe853f	-0.093027584
180	0x3d4cdabd	0.050013293
181	0x3cba78a8	0.022762612
182	0xbcadfb50	-0.021238
183	0xbd3d3cbd	-0.046200503
184	0x3b5d6153	0.0033779934
185	0x3c94315d	0.018089944
186	0x3c7f77e5	0.01559255
187	0xbb6b7bf7	-0.0035932043
188	0x3ca834d7	0.020533009
189	0xbcfa72e9	-0.030572372
190	0xbb0dd156	-0.0021639667
191	0x3d82479e	0.06361316

st_gcn_networks.1.gcn.conv.bias f4 [24]
0	0x3a80c0ec	0.000982312
1	0x3c6ffefb	0.014648194
2	0xbc920fe9	-0.017829852
3	0x3d139c4f	0.03603774
4	0x3bd4bd1d	0.0064922706
5	0xbb815852	-0.003947296
6	0x3a027615	0.0004976702
7	0x398546bc	0.00025420438
8	0xbd908964	-0.07057455
9	0xbc561f34	-0.013068963
10	0x3cb867c6	0.02251042
11	0x3b06517c	0.0020495346
12	0xbd6c1819	-0.05764017
13	0x3c0fa116	0.008766433
14	0x3d56da3c	0.05245422
15	0xbc099529	-0.008397379
16	0xbc0257b1	-0.007955478
17	0xbd2b86ec	-0.04187672
18	0x3c017bdf	0.007903068
19	0x3c8c99c2	0.017163161
20	0x3bfcbd60	0.007713005
21	0xbc2b7008	-0.010463722
22	0x3ce0bf37	0.027434928
23	0xbc2e6cb2	-0.010646032

st_gcn_networks.1.tcn.0.weight f4 [8]
0	0x3e4d22bb	0.2003278
1	0x3e3f0803	0.186554
2	0x3e835677	0.25651905
3	0x3e8de761	0.2771559
4	0x3e1cd09e	0.15313956
5	0x3e6487f9	0.22317494
6	0x3e7bc095	0.24585183
7	0x3e3e5181	0.18585779

st_gcn_networks.1.tcn.0.bias f4 [8]
0	0xbcc25250	-0.02372089
1	0x3c56b68c	0.013105046
2	0x3cd940a8	0.026520088
3	0xb93d15c7	-0.00018032557
4	0xbca9fffd	-0.020751948
5	0xbc2d636c	-0.010582786
6	0xbd10c5a3	-0.03534473
7	0xbd00646b	-0.031345766

st_gcn_networks.1.tcn.0.running_mean f4 [8]
0	0xba7f08b7	-0.00097287766
1	0xba35d509	-0.0006936347
2	0x39bec925	0.00036389488
3	0x3ab346ba	0.0013677694
4	0xbb0e3c0e	-0.0021703276
5	0xba7a8db3	-0.0009557858
6	0x3b0e83ea	0.0021746107
7	0x39869470	0.00025669066

st_gcn_networks.1.tcn.0.running_var f4 [8]
0	0x367c9c2f	3.7641837e-06
1	0x3681ec4d	3.8720086e-06
2	0x374b2a35	1.210957e-05
3	0x3707388a	8.059791e-06
4	0x36b602dd	5.424356e-06
5	0x3686c301	4.0162126e-06
6	0x3733c130	1.0714211e-05
7	0x369c21fe	4.6531195e-06

st_gcn_networks.1.tcn.2.weight f4 [8, 8, 9, 1]
0	0xbc4223e2	-0.011849375
1	0x3b8f3164	0.0043699015
2	0x3cbdbd1d	0.023161465
3	0xbca189e7	-0.019719077
4	0xbc689518	-0.014195703
5	0xbd2d7c58	-0.04235491
6	0xbba6a122	-0.0050851265
7	0x3bd52916	0.006505142
8	0x3d27839d	0.040897
9	0xbd6c4ff3	-0.057693433
10	0x3c4edd71	0.012626038
11	0x3d42569d	0.047445882
12	0xbb8c22b1	-0.0042765965
13	0xbd50c417	-0.050968256
14	0xbd08a2d5	-0.033358414
15	0x3cd637be	0.026149627
16	0x3cce69a1	0.025196852
17	0xbcdec1f7	-0.027192099
18	0x3b8e4e53	0.004342833
19	0xbca573b4	-0.020196773
20	0x3d60b28f	0.054857787
21	0xbbedda30	-0.007258676
22	0x3c9ef543	0.01940406
23	0xbbc00ef1	-0.005861156
24	0x3d502f27	0.050826218
25	0xbd1d62b5	-0.038424212
26	0xbd5ae509	-0.05344108
27	0x3c026c37	0.007960371
28	0x3c546958	0.012964569
29	0x3cdaf813	0.02672962
30	0xb7c202f4	-2.3127977e-05
31	0x3d05f88b	0.032707732
32	0x3d66b3c2	0.056323774
33	0xbd4643ac	-0.04840438
34	0xbd535a62	-0.051599868
35	0xbd20c7c6	-0.03925302
36	0xbb8583be	-0.004074543
37	0xbcac61a4	-0.021042652
38	0xbc779595	-0.015111347
39	0xbbb3d125	-0.0054875785
40	0x3bf2d6d6	0.0074108643
41	0x3d32b94c	0.043633744
42	0x3cb0f12d	0.021599377
43	0x3c9a3bbb	0.01882731
44	0x3cd98c34	0.026556112
45	0x3bbe315a	0.005804223
46	0xbd3963af	-0.04526108
47	0x3cfbd480	0.030740976
48	0x3c3c90e0	0.01150915
49	0xbcb7f95b	-0.02245777
50	0xbc1faf36	-0.009746363
51	0xbc2511c9	-0.010075041
52	0xbc452476	-0.012032619
53	0xbc749015	-0.01492693
54	0xbc7c5a3b	-0.015402372
55	0x3bfe3598	0.0077578537
56	0x3c2fd9a8	0.010733046
57	0xbcafe629	-0.021472054
58	0x3cfb9078	0.030708537
59	0x3ce7cde5	0.02829642
60	0x3cc2b401	0.023767473
61	0x3bae8e48	0.00532702
62	0x3c11e90c	0.00890566
63	0x3c94d188	0.018166319
64	0xbc755047	-0.014972753
65	0xbd7a2864	-0.061073676
66	0xbd4d46b7	-0.050116267
67	0x3d1988f8	0.03748414
68	0xbd0bce6e	-0.034132414
69	0xbc51b655	-0.012799819
70	0x3c8029da	0.015644956
71	0xbbe49869	-0.0069761765
72	0x3ac3c4b3	0.001493594
73	0xbcc736e4	-0.024318166
74	0x3c002528	0.007821359
75	0xbbbb5999	-0.005717468
76	0xbc9db82c	-0.019252859
77	0xbd1b9865	-0.03798713
78	0x3c88eb25	0.016713688
79	0x3c80a354	0.01570288
80	0xbd326cf6	-0.043560944
81	0xbd60b024	-0.05485548
82	0xbc01683a	-0.007898385
83	0xbc71a4fc	-0.014748808
84	0xbdb32542	-0.08747341
85	0x3cee2064	0.02906818
86	0xb930722c	-0.000168272
87	0x3d29f722	0.04149545
88	0x3c855fa7	0.016280962
89	0x3d27917b	0.040910225
90	0xbd0152e3	-0.031573188
91	0xbc3f5789	-0.011678585
92	0x3c8b7cd6	0.0170273
93	0xbcaa2dcb	-0.020773789
94	0x3d071caa	0.03298632
95	0x3d120b8b	0.03565554
96	0x3bed5f1d	0.0072440044
97	0x3d67fee2	0.05663956
98	0x3cc4b251	0.02401081
99	0x3c4e26ff	0.01258254
100	0x3d72391c	0.059136495
101	0x3a8e71c0	0.001086764
102	0x3cf9e162	0.030502979
103	0xbb6a532b	-0.0035755138
104	0x3d1b73ab	0.037952106
105	0x3c11da1e	0.008902101
106	0xbc6fec8f	-0.014643802
107	0x3d097eec	0.033568308
108	0xbcb511b7	-0.022103174
109	0x3cc95b6c	0.024579726
110	0xbc8f5779	-0.017497765
111	0xbcd77978	-0.026303038
112	0xbbdd0fa7	-0.0067462507
113	0xbc117a68	-0.008879282
114	0x3caaf928	0.02087076
115	0xbd22d707	-0.039755847
116	0x3c3f4cec	0.011676054
117	0x3caeb177	0.021324856
118	0x3b0fa3cc	0.00219177
119	0xbc9f9422	-0.019479815
120	0xbc1785d9	-0.00924822
121	0xbc5ce7c3	-0.013482991
122	0x3bb9cbe1	0.005670056
123	0x3b7a2013	0.003816609
124	0x3c2ee771	0.010675297
125	0x3d85e357	0.06537502
126	0xbca632c9	-0.020287888
127	0x3b3333f5	0.0027344201
128	0x3d65642b	0.05600373
129	0xbd1472cf	-0.036242303
130	0x3d0d59fe	0.03450965
131	0xbc3eb8e0	-0.011640757
132	0x3cf86c15	0.030324975
133	0xbcaae965	-0.020863244
134	0x3d00de93	0.031462263
135	0xbc4e7173	-0.012600291
136	0xbd3ee7ec	-0.046607897
137	0xbcb54ee7	-0.02213235
138	0xbc8191e0	-0.015816629
139	0xbcc783a2	-0.02435476
140	0x3c939c53	0.018018877
141	0x3aaaffcd	0.0013046205
142	0x3aafc6c3	0.0013410676
143	0x3c356780	0.01107204
144	0x3a5e0fc7	0.0008470979
145	0xbd608ca6	-0.054821633
146	0xbc8c732b	-0.01714476
147	0x3c495f53	0.0122907935
148	0xbbbb4631	-0.0057151546
149	0xb9df9413	-0.00042644198
150	0x3a10a6ab	0.00055179995
151	0xbd120371	-0.035647813
152	0xbd5d2ae7	-0.053995993
153	0x3d324f87	0.043532874
154	0xbcea4a32	-0.028599832
155	0xbd074e68	-0.03303376
156	0xbc441788	-0.011968501
157	0x38f7d024	0.00011816647
158	0xbbb2a062	-0.005451248
159	0xbcd23832	-0.025661562
160	0x3bb9f178	0.0056745373
161	0x3b34a2f3	0.0027562946
162	0x3d401305	0.04689314
163	0xbd339f84	-0.043853298
164	0x3c90e531	0.017687412
165	0x3d498959	0.04920325
166	0xbd8f78fd	-0.070054986
167	0x3d0160fa	0.031586625
168	0x3d0aee2a	0.033918537
169	0x3ce22ab3	0.027608251
170	0x3bf27bb5	0.007400001
171	0xbcd8f787	-0.026485218
172	0x3d579a23	0.05263723
173	0xbd2e6a0f	-0.042581614
174	0x3c312bd2	0.01081367
175	0xbbe54cd3	-0.0069976836
176	0xbd04c35a	-0.032412864
177	0xbd371cfc	-0.044705376
178	0x3cafdd56	0.021467846
179	0xbce68db1	-0.028143736
180	0x3b8973a0	0.004194692
181	0x3c4a9f60	0.0123670995
182	0xbb921e96	-0.0044592125
183	0x3d6c0c08	0.05762866
184	0xbc956d19	-0.018240498
185	0xbccf6bbb	-0.025319925
186	0x3cf0a767	0.029376699
187	0xbc8f7fd8	-0.017517015
188	0xbd243b00	-0.04009533
189	0xbb94594a	-0.0045272456
190	0xbc6eab8b	-0.014567266
191	0x3d3e505b	0.04646335
192	0xbbc6d8a1	-0.0060683046
193	0x3c4e6c45	0.012599056
194	0xbcf5cce9	-0.030004935
195	0xba1e8459	-0.0006046943
196	0xbdbc418d	-0.0919219
197	0xbd63c0f9	-0.055603955
198	0xbc2d74ee	-0.01058696
199	0xbb961d54	-0.004581133
200	0x3cc68c29	0.024236755
201	0x3d76bad0	0.060236752
202	0xbc325b66	-0.010886049
203	0xbc7c41e1	-0.015396566
204	0x3c18384d	0.009290767
205	0x3c5d8241	0.0135198245
206	0x3d6f12e2	0.058367617
207	0x3b2e4bfa	0.0026595579
208	0x3cd386ab	0.02582105
209	0x3ce7f6a8	0.028315857
210	0xbc6eb93e	-0.014570532
211	0x3c8542ac	0.016267143
212	0xbc9e0044	-0.019287236
213	0x3c6997f1	0.014257417
214	0xbc00eda4	-0.007869158
215	0xbc973004	-0.018455513
216	0xbbf05c2b	-0.007335206
217	0xbc733a1a	-0.014845395
218	0x3d7e499d	0.06208192
219	0xbc98775a	-0.018611599
220	0xbd2af1a1	-0.04173434
221	0xbc22bb9c	-0.009932425
222	0xbd181c66	-0.037136458
223	0xbd6f7e58	-0.0584701
224	0x3d11ceeb	0.035597723
225	0x3d31181e	0.04323589
226	0x3c174979	0.009233826
227	0x3bfffa09	0.007811789
228	0x3bda55fc	0.006663082
229	0x3cf6ecdd	0.030142242
230	0x3aa7ba1d	0.0012796555
231	0xbd356b76	-0.044291936
232	0xbd2c5b30	-0.04207915
233	0x3c2a2b84	0.0103863515
234	0x3bf003d6	0.007324676
235	0x3b6418ee	0.0034804898
236	0x3cfe0bf2	0.031011555
237	0xbce66c90	-0.028127939
238	0x3c920f0b	0.017829439
239	0xbb5c0813	-0.0033574149
240	0x3c523ac5	0.012831395
241	0xbb82597d	-0.003977953
242	0x3d68cd7a	0.056836583
243	0xbb91435b	-0.004433078
244	0xbbb92591	-0.00565023
245	0xbbc7b9e2	-0.006095157
246	0x3d0056c6	0.031332754
247	0xbbd34490	-0.0064473823
248	0xbd0208f5	-0.031746823
249	0xbbcf011e	-0.006317272
250	0x3ccb4ad4	0.024815954
251	0xbd7a5157	-0.061112728
252	0x3cbb7bca	0.022886176
253	0xbbf0c5ce	-0.007347799
254	0xbcccbc74	-0.024992205
255	0xbd290899	-0.041267965

st_gcn_networks.1.tcn.2.bias f4 [8]
0	0x3853bf67	5.0484578e-05
1	0x380193c3	3.089361e-05
2	0xb7a54144	-1.9699924e-05
3	0xb519becd	-5.7274593e-07
4	0x373d20e4	1.1272936e-05
5	0x380f89e1	3.4222267e-05
6	0x3858f23e	5.172402e-05
7	0xb728dd4e	-1.0065107e-05

st_gcn_networks.1.tcn.3.weight f4 [8]
0	0x3e490d69	0.19634022
1	0x3e7a6159	0.24451198
2	0x3e854775	0.2603108
3	0x3e72f2d8	0.2372545
4	0x3e48abd8	0.19596803
5	0x3e829e09	0.25511196
6	0x3e86ea54	0.26350653
7	0x3e3241ca	0.17407909

st_gcn_networks.1.tcn.3.bias f4 [8]
0	0xbb79bc02	-0.0038106446
1	0xbc0f9e37	-0.008765749
2	0xbc75c08c	-0.01499952
3	0xbbf6647c	-0.007519303
4	0xbc0bbc0e	-0.008528722
5	0xbbe23797	-0.0069035995
6	0xbc47b521	-0.012189181
7	0xbbc4af43	-0.006002338

st_gcn_networks.1.tcn.3.running_mean f4 [8]
0	0xbb22f44a	-0.0024864846
1	0x3c785983	0.01515806
2	0xbb8f999e	-0.0043823263
3	0x3ae92072	0.0017786159
4	0xbb48351f	-0.003054924
5	0x3c18d385	0.009327774
6	0xbc155111	-0.009113566
7	0xbc238fc2	-0.009983005

st_gcn_networks.1.tcn.3.running_var f4 [8]
0	0x39743a55	0.00023291384
1	0x3a8597c1	0.0010192321
2	0x39eafb3a	0.00044819136
3	0x39920130	0.00027848175
4	0x396ed598	0.00022777019
5	0x3a4fe886	0.0007931072
6	0x3a081234	0.0005190701
7	0x3a091016	0.0005228532

st_gcn_networks.1.residual.0.weight f4 [8, 8, 1, 1]
0	0xbd08a853	-0.03336365
1	0xbd83122e	-0.06399952
2	0xbdd69239	-0.104771085
3	0xbc7b10e1	-0.015323848
4	0xbd356176	-0.0442824
5	0x3cb40433	0.021974659
6	0x3d5f9887	0.05458882
7	0xbb1b2366	-0.0023672222
8	0xbd9844bc	-0.07434985
9	0xbd287621	-0.04112828
10	0xbd17e35a	-0.037082054
11	0x3b6883da	0.003547898
12	0x3cdace4b	0.026709696
13	0x3d884833	0.06654396
14	0x3da750b0	0.08169687
15	0xbdb94cf6	-0.09047882
16	0xbdff6d34	-0.12472001
17	0xbabc7e99	-0.0014380991
18	0x3d95eaa8	0.07320148
19	0x3bc02df5	0.0058648535
20	0xbcf1f4ad	-0.029535616
21	0x3d52c749	0.051459584
22	0xbb8ccce9	-0.004296888
23	0xbd422b59	-0.04740462
24	0x3dc17f9c	0.09448168
25	0x3ccd8ec6	0.025092494
26	0xbd250556	-0.040288292
27	0xbb211d6d	-0.002458419
28	0xbce6457e	-0.028109308
29	0x3c497808	0.012296684
30	0x3d69e714	0.05710514
31	0x3d838b6a	0.064230755
32	0xbd744040	-0.059631586
33	0x3d3b976d	0.045798708
34	0xbd639531	-0.055562202
35	0x3c411808	0.011785515
36	0x3d44be60	0.04803312
37	0xbd53c30a	-0.051699676
38	0x3d883c43	0.06652119
39	0x3d7b7fef	0.061401304
40	0x3df080ee	0.117433414
41	0x3ce4086e	0.02783605
42	0x3d99ffb2	0.07519473
43	0xbc08fc9f	-0.008361011
44	0xbd7ca725	-0.06168284
45	0xbd001845	-0.031273145
46	0xbcb5a148	-0.022171631
47	0xbda9639e	-0.082709536
48	0x3c955bab	0.018232187
49	0x3ccff66d	0.02538606
50	0xbd8039a2	-0.062609926
51	0x3ca938c7	0.020656956
52	0xbcd0842a	-0.025453646
53	0xbce4e3ce	-0.027940657
54	0xbdafa4f7	-0.085763864
55	0x3cd84a78	0.026402697
56	0x3c1f9fa2	0.009742649
57	0x3d1a2ccd	0.03764038
58	0x3da79e24	0.0818446
59	0x3cdf41d5	0.02725307
60	0x3d44046b	0.047855776
61	0x3d996822	0.07490565
62	0xbd8593dc	-0.065223426
63	0xbcec3638	-0.028834447

st_gcn_networks.1.residual.0.bias f4 [8]
0	0xb46ea15b	-2.2224178e-07
1	0x37c55e66	2.3528188e-05
2	0xb87275a1	-5.7806847e-05
3	0x379cdd25	1.8699628e-05
4	0xb70adcb2	-8.276826e-06
5	0x37af4664	2.0894404e-05
6	0x38370d23	4.3642834e-05
7	0xb734949e	-1.0763439e-05

st_gcn_networks.1.residual.1.weight f4 [8]
0	0x3e5e6ff1	0.2172239
1	0x3e323fc9	0.17407145
2	0x3e636b98	0.22209013
3	0x3e5df7eb	0.21676604
4	0x3e1ac260	0.1511321
5	0x3e58fb3d	0.2118959
6	0x3e9e690d	0.30939522
7	0x3e1372b0	0.14399219

st_gcn_networks.1.residual.1.bias f4 [8]
0	0xbb79bc02	-0.0038106446
1	0xbc0f9e37	-0.008765749
2	0xbc75c08c	-0.01499952
3	0xbbf6647c	-0.007519303
4	0xbc0bbc0e	-0.008528722
5	0xbbe23797	-0.0069035995
6	0xbc47b521	-0.012189181
7	0xbbc4af43	-0.006002338

st_gcn_networks.1.residual.1.running_mean f4 [8]
0	0xbc85e2f2	-0.016343568
1	0xbb65f7ba	-0.0035090283
2	0xbb4c19d7	-0.0031143331
3	0x3ca90e2b	0.020636639
4	0x3b5a09d3	0.0033270016
5	0x3b82e3d6	0.0039944453
6	0xbc6f7d50	-0.014617279
7	0x3c99b169	0.018761354

st_gcn_networks.1.residual.1.running_var f4 [8]
0	0x39f2a993	0.0004628418
1	0x3a454d67	0.00075264875
2	0x3a1e5205	0.00060394435
3	0x3a7fa30c	0.0009751774
4	0x3a5d0e39	0.00084326003
5	0x3a7c9381	0.0009635017
6	0x3a4e73b1	0.0007875516
7	0x3a116ebb	0.0005547811

st_gcn_networks.2.gcn.conv.weight f4 [48, 8, 1, 1]
0	0x3d1de938	0.038552493
1	0xbd7544d7	-0.059880104
2	0x3c50ebac	0.012751501
3	0xbd501f1d	-0.050810922
4	0x3d5066da	0.050879337
5	0x3c2b6d4f	0.010463073
6	0xbd94e094	-0.072693974
7	0xbcd4b3eb	-0.025964698
8	0xbc942d2e	-0.01808795
9	0xbc49fa89	-0.012327799
10	0x3b17e5df	0.0023177785
11	0xbd0f91d8	-0.035051197
12	0xbc841b8f	-0.016126422
13	0xbb77e15d	-0.0037823536
14	0x3cf49399	0.029855536
15	0xbcd8bc6e	-0.026457038
16	0x3ce9be49	0.028533118
17	0xbcc1b21b	-0.023644498
18	0x3ca0a9c1	0.019612195
19	0xbd1e1bb5	-0.038600642
20	0xbc989ab2	-0.018628452
21	0x3be7881d	0.0070657865
22	0xbd6a0732	-0.05713577
23	0xbc8c8ed3	-0.017157948
24	0x3cecd5ba	0.028910507
25	0xb802f2ff	-3.1220723e-05
26	0x3b902897	0.00439937
27	0xbc8fdf45	-0.017562518
28	0xbbbd728e	-0.0057814782
29	0xbd378e21	-0.04481328
30	0xbc345768	-0.011007167
31	0xbb11d767	-0.0022253634
32	0x3d246a92	0.040140696
33	0x3cbd6453	0.023119127
34	0xbd07b573	-0.033132028
35	0x3ca0fee5	0.019652793
36	0xbd97c656	-0.074108765
37	0x3d1e2fe2	0.038619883
38	0xbc32dbeb	-0.01091669
39	0xbceadcf3	-0.02866981
40	0x3d97bfc5	0.07409624
41	0xbc8f703c	-0.017509572
42	0xbd8cebd7	-0.068809204
43	0xbcd007eb	-0.0253944
44	0x3daa2125	0.08307103
45	0xbbe449c2	-0.0069668004
46	0xbdd26b80	-0.1027441
47	0xbc5d38f7	-0.013502351
48	0xbd28dcee	-0.04122632
49	0xbdbfb498	-0.093606174
50	0xbd1fd57d	-0.039021958
51	0x3c015fbd	0.007896361
52	0xbd5386cb	-0.05164222
53	0x3d432e72	0.047651716
54	0xbdd134a7	-0.10215121
55	0xbc1a60b3	-0.009422469
56	0xbc86d4dc	-0.016458921
57	0xbc7aa1ed	-0.015297395
58	0x3d0ec35d	0.03485428
59	0xbc816443	-0.015794879
60	0xbc26c5b1	-0.010178969
61	0xbc971f7c	-0.01844763
62	0x3d39f827	0.045402672
63	0xbc943a3d	-0.018094176
64	0xbd10ccab	-0.035351437
65	0xbca5194c	-0.020153664
66	0xbd02712d	-0.031846214
67	0x3ca5a8a5	0.020222018
68	0xbd1b7720	-0.037955403
69	0x3d183a17	0.037164774
70	0xbcaca234	-0.021073438
71	0xbd60737b	-0.05479763
72	0x3cd0005a	0.025390793
73	0xbca216f1	-0.01978633
74	0x3d5e474e	0.05426722
75	0x3c71dba2	0.014761837
76	0x3c943d33	0.018095588
77	0xbd4a5c4d	-0.04940443
78	0x3c7f4154	0.01557954
79	0xb9763380	-0.00023479573
80	0x3c2f4abd	0.010698971
81	0xbd02308f	-0.03178459
82	0x3cd47f52	0.025939617
83	0x3b1f4e3b	0.0024308104
84	0x3d27c9d4	0.040963963
85	0x3d807541	0.062723644
86	0xba00fca7	-0.00049204606
87	0xbcb24db8	-0.021765575
88	0x3d008871	0.03138012
89	0xbd29741c	-0.041370496
90	0xbd2dd807	-0.042442348
91	0x3d0fe6ee	0.03513234
92	0xbcb7af79	-0.02242254
93	0xbc86e6ad	-0.016467417
94	0x3ca442f4	0.020051457
95	0xbd846bed	-0.06465898
96	0x3ce106bd	0.027469033
97	0xbd03328b	-0.032030623
98	0xbb837ed2	-0.004012921
99	0x3da161ba	0.07879968
100	0xbc574cf1	-0.013140903
101	0x3cba2155	0.022720972
102	0x3d0a9418	0.03383264
103	0xbc1377ac	-0.0090007
104	0x3bf6096a	0.0075084465
105	0xbd860d1d	-0.0654547
106	0x3d91904d	0.07107601
107	0xbcaa0c87	-0.020757927
108	0xbb6f38e7	-0.0036502422
109	0xbb704f43	-0.0036668337
110	0xbc1e0bc1	-0.009646357
111	0xbc438042	-0.0119324345
112	0xbd0b4537	-0.034001555
113	0x3cda6310	0.026658565
114	0x3d364cfe	0.04450702
115	0xbd2e5cd6	-0.042569004
116	0x3c3e05d3	0.011598068
117	0x3d3a8719	0.045538995
118	0x3ce0a967	0.027424527
119	0xbc53b014	-0.012920398
120	0xbcc384c2	-0.023867015
121	0x3d20d572	0.039266057
122	0xbca9dde9	-0.020735698
123	0xbd275c49	-0.040859494
124	0xbda7efeb	-0.082000576
125	0xbb8f6a5b	-0.004376692
126	0xbb4ba28a	-0.0031072223
127	0xbc51e049	-0.012809821
128	0x3d020bae	0.03174942
129	0xbcf12e34	-0.029440977
130	0x3cbf0f42	0.023322705
131	0xbd5f0e54	-0.054457024
132	0x3d34980c	0.044090316
133	0x3da04dab	0.07827314
134	0x3db6eea5	0.089322366
135	0xbd4a3216	-0.049364172
136	0x3c2e4670	0.010636911
137	0xbc8e55fc	-0.017374985
138	0xbd21eb0c	-0.0395308
139	0xbd286623	-0.04111303
140	0x3b4a58fd	0.0030875795
141	0x3d578d39	0.052624915
142	0x3d173744	0.03691794
143	0x3c9d16e6	0.019175958
144	0x3c8b2e73	0.016989922
145	0xbaf43618	-0.0018631844
146	0x3d7bcd56	0.06147512
147	0xbc37d8e7	-0.011221147
148	0x3d1503a7	0.036380436
149	0xbc7ef9da	-0.015562499
150	0x3cfc6666	0.030810546
151	0xbd45bb34	-0.048274234
152	0x3cc2b781	0.023769142
153	0x3cc0cd8b	0.02353551
154	0x3b2efb2c	0.0026700003
155	0xbc902a03	-0.017598158
156	0x3d56936f	0.052386697
157	0xbd24f9b4	-0.040277198
158	0xbd3bfa6c	-0.045893118
159	0xbd71485e	-0.058906905
160	0xbc9f0746	-0.019412648
161	0xbd00f4ef	-0.031483587
162	0x3d03a7ee	0.032142572
163	0xbcca46c6	-0.02469195
164	0xbc205c41	-0.00978762
165	0x3cd37b5c	0.025815658
166	0x3d343584	0.04399635
167	0xba991b01	-0.0011681021
168	0x3c52b800	0.012861252
169	0x3d1a86ac	0.03772609
170	0xbcaa6185	-0.020798454
171	0xbd184f87	-0.03718522
172	0x3c85a8e5	0.016315887
173	0xbdd3ad33	-0.103357695
174	0x3c8c7eab	0.017150244
175	0xbc8f9aaa	-0.017529804
176	0x3d64e7e7	0.05588522
177	0x3d0f7705	0.035025615
178	0xbd6c6c83	-0.057720672
179	0x3d19da62	0.03756178
180	0x3d7b3def	0.06133836
181	0xbd32a0fe	-0.043610565
182	0x3a4b96a5	0.0007766283
183	0xbd736e9c	-0.059431657
184	0xbc476dab	-0.012172143
185	0xbd60f693	-0.05492265
186	0x3d2996d7	0.041403618
187	0x3d2494c4	0.040180936
188	0xbd2ad8eb	-0.041710775
189	0x3d3ff902	0.04686833
190	0xbcc305e1	-0.023806514
191	0x3d398bbd	0.04529928
192	0x3d0a76ac	0.03380458
193	0x3d6d61e8	0.0579547
194	0xbca9fb05	-0.020749578
195	0x3d0895b8	0.033345908
196	0x3d5f7d00	0.05456257
197	0xbbb94fb4	-0.0056552533
198	0x3d9cde75	0.07659618
199	0xbcf36afb	-0.029714098
200	0xbc3afb59	-0.011412465
201	0xbcbdc005	-0.023162851
202	0xbd072b2c	-0.033000156
203	0x3d07ea4a	0.03318242
204	0xbd9d3dd3	-0.07677808
205	0x3d6e3473	0.05815549
206	0x3d0887cc	0.03333263
207	0xbcb94a66	-0.022618484
208	0xbc8afbe0	-0.016965806
209	0xbd8dcbd8	-0.06923646
210	0xbc2dade8	-0.0106005445
211	0x3d51bf1f	0.051207658
212	0x3bd444ec	0.0064779427
213	0xbbea3dc5	-0.007148477
214	0x3c800d32	0.015631292
215	0x3d58849e	0.05286085
216	0x3d6b734d	0.057483006
217	0x3dac5ec9	0.08416516
218	0x3caa8f52	0.020820294
219	0x3c228c20	0.009921104
220	0xbd30f556	-0.04320272
221	0xbcca10b4	-0.024666168
222	0x3dcd6229	0.10028488
223	0x3d5e40cc	0.054261014
224	0x3dd49b7a	0.10381217
225	0xbce724a0	-0.028215706
226	0xbc2c0cd9	-0.01050111
227	0xbd5b0a4c	-0.053476617
228	0xbd3faa5a	-0.04679332
229	0xbbe59207	-0.007005933
230	0x3d0f28b3	0.034950923
231	0xbc633802	-0.013868334
232	0x3d100dbb	0.035169344
233	0x3d41a90e	0.047280364
234	0xbdb077f3	-0.086166285
235	0x3d875d93	0.06609645
236	0xbc3d05e8	-0.011537053
237	0xbd47f2e7	-0.048815634
238	0xba9c0403	-0.0011903051
239	0x3dae3052	0.0850531
240	0xbd55c69e	-0.05219137
241	0xbc30d82a	-0.010793725
242	0xbd42a67c	-0.047522053
243	0xbd0161b2	-0.03158731
244	0x3cdae61f	0.026721058
245	0x3c2dc0fc	0.010605093
246	0xbba425d2	-0.0050093913
247	0x3b5f72dd	0.0034095563
248	0xbd5ad250	-0.053423226
249	0xbbb7b560	-0.0056063384
250	0x3c99aa97	0.018758101
251	0x3d27a2fc	0.04092692
252	0x3ce245e6	0.02762122
253	0x3c44094d	0.011965108
254	0x3d863d03	0.06554606
255	0xbc45f978	-0.012083404

st_gcn_networks.2.gcn.conv.bias f4 [48]
0	0xbc39bf4b	-0.011337112
1	0x3c15e8a5	0.009149705
2	0xbc444aa4	-0.011980686
3	0x3b9c1d1b	0.004764212
4	0x3b56621c	0.0032712286
5	0xbbaea6be	-0.005329936
6	0x3ce18d51	0.027533205
7	0xbc6cd8fe	-0.014456032
8	0xbbd747a2	-0.0065698186
9	0xbc299062	-0.010349365
10	0xbb0f3cfa	-0.0021856413
11	0xbc160192	-0.009155648
12	0xbcd13e5a	-0.025542427
13	0xbc2fe109	-0.010734805
14	0x3c083d2f	0.008315369
15	0x3c08f08d	0.008358133
16	0xbd46e889	-0.048561607
17	0xbba83c34	-0.00513413
18	0x38f96712	0.000118924436
19	0x3c768544	0.015046421
20	0xba363908	-0.00069512473
21	0xbc7a71b3	-0.015285897
22	0xbc093620	-0.008374721
23	0xbc669bda	-0.014075244
24	0xbd454c1b	-0.048168283
25	0xbbe66ab4	-0.007031763
26	0xbcb9431f	-0.022615014
27	0xbd05ffee	-0.032714777
28	0x3c5ac81b	0.013353373
29	0x3b8cad04	0.004293086
30	0xbc5fbaf5	-0.013655414
31	0xbc8bdda3	-0.017073458
32	0x3c52e02f	0.012870832
33	0x3cc4d7f0	0.024028748
34	0xbbb5e008	-0.0055503882
35	0x3b682b59	0.0035426228
36	0xbd3063f7	-0.043064084
37	0x3bdc33fa	0.0067200633
38	0x3b758982	0.0037465994
39	0xbc11d975	-0.008901943
40	0xb994a3ee	-0.00028350897
41	0x3a87ad09	0.0010351251
42	0xbc241f81	-0.010017277
43	0xbd0ce2bb	-0.034395915
44	0x3cd90e13	0.026495969
45	0xbc67ac0a	-0.014140138
46	0x3c8f5c62	0.017500106
47	0x3c3cc4e9	0.011521556

st_gcn_networks.2.tcn.0.weight f4 [16]
0	0x3e41bc55	0.18919499
1	0x3dea72c8	0.11447674
2	0x3e1aa4e5	0.15101965
3	0x3df8c28d	0.121464826
4	0x3da4a617	0.080394916
5	0x3e549086	0.20758256
6	0x3e2602b2	0.16211966
7	0x3e2813d7	0.16413818
8	0x3e1de870	0.15420699
9	0x3e1fec58	0.15617502
10	0x3e0666e6	0.1312519
11	0x3e2d44b7	0.16920744
12	0x3e1ac10e	0.15112707
13	0x3e15a1b1	0.14612462
14	0x3dd91154	0.10599008
15	0x3de44c19	0.11147327

st_gcn_networks.2.tcn.0.bias f4 [16]
0	0xbcd70f5a	-0.026252437
1	0xbc2869ed	-0.010279161
2	0xbd1929c3	-0.037393343
3	0xbce9dc67	-0.028547479
4	0xbc1458f6	-0.009054413
5	0xbcf65ffb	-0.030075064
6	0xbd0dbf0f	-0.034606036
7	0xbd18fa28	-0.037347943
8	0xbd11e9a8	-0.035623223
9	0xbd06a040	-0.03286767
10	0xbd488ce8	-0.048962504
11	0xbce029c2	-0.027363662
12	0xbd2e9d32	-0.042630382
13	0xbd038c96	-0.032116495
14	0xbc6cd310	-0.014454618
15	0xbd36bc3f	-0.04461312

st_gcn_networks.2.tcn.0.running_mean f4 [16]
0	0xbabe303d	-0.0014510226
1	0x3a165cba	0.0005735863
2	0xba1bf481	-0.00059492147
3	0xb9261e39	-0.00015842252
4	0xba98f61b	-0.0011670025
5	0xbb207ce4	-0.0024488503
6	0xba49681d	-0.00076830556
7	0xbac6e7c6	-0.0015175275
8	0xba944a90	-0.0011313725
9	0xba401f07	-0.0007328842
10	0xba8165ed	-0.0009872295
11	0xbad791e9	-0.0016446683
12	0x3a0054ef	0.00048954686
13	0xba7438e7	-0.00093163404
14	0x398ba989	0.0002663846
15	0x3a1680ac	0.00057412195

st_gcn_networks.2.tcn.0.running_var f4 [16]
0	0x36a7e06b	5.0031135e-06
1	0x362a36bc	2.5363834e-06
2	0x3625f3eb	2.4728895e-06
3	0x3689f459	4.111364e-06
4	0x36371f46	2.7287329e-06
5	0x37368fd5	1.0881534e-05
6	0x364153a6	2.880793e-06
7	0x361eac15	2.3644e-06
8	0x363f9007	2.8545053e-06
9	0x364d9998	3.0636784e-06
10	0x362984b1	2.52602e-06
11	0x364fe657	3.097948e-06
12	0x360bc63c	2.0828002e-06
13	0x361bd254	2.3219227e-06
14	0x35c44ae6	1.4624936e-06
15	0x361c53c7	2.3294576e-06
