weights_arm/25.pt (torch, 70926 bytes, 80 tensors)

A f4 [3, 9, 9]
0	0x3f000000	0.5
1	0x00000000	0.0
2	0x00000000	0.0
3	0x00000000	0.0
4	0x00000000	0.0
5	0x00000000	0.0
6	0x00000000	0.0
7	0x00000000	0.0
8	0x00000000	0.0
9	0x00000000	0.0
10	0x3e4ccccd	0.2
11	0x00000000	0.0
12	0x00000000	0.0
13	0x00000000	0.0
14	0x00000000	0.0
15	0x00000000	0.0
16	0x00000000	0.0
17	0x00000000	0.0
18	0x00000000	0.0
19	0x00000000	0.0
20	0x3eaaaaab	0.33333334
21	0x00000000	0.0
22	0x00000000	0.0
23	0x00000000	0.0
24	0x00000000	0.0
25	0x00000000	0.0
26	0x00000000	0.0
27	0x00000000	0.0
28	0x00000000	0.0
29	0x00000000	0.0
30	0x3eaaaaab	0.33333334
31	0x00000000	0.0
32	0x00000000	0.0
33	0x00000000	0.0
34	0x00000000	0.0
35	0x00000000	0.0
36	0x00000000	0.0
37	0x00000000	0.0
38	0x00000000	0.0
39	0x00000000	0.0
40	0x3f000000	0.5
41	0x00000000	0.0
42	0x00000000	0.0
43	0x00000000	0.0
44	0x00000000	0.0
45	0x00000000	0.0
46	0x00000000	0.0
47	0x00000000	0.0
48	0x00000000	0.0
49	0x00000000	0.0
50	0x3eaaaaab	0.33333334
51	0x00000000	0.0
52	0x00000000	0.0
53	0x00000000	0.0
54	0x00000000	0.0
55	0x00000000	0.0
56	0x00000000	0.0
57	0x00000000	0.0
58	0x00000000	0.0
59	0x00000000	0.0
60	0x3eaaaaab	0.33333334
61	0x00000000	0.0
62	0x00000000	0.0
63	0x00000000	0.0
64	0x00000000	0.0
65	0x00000000	0.0
66	0x00000000	0.0
67	0x00000000	0.0
68	0x00000000	0.0
69	0x00000000	0.0
70	0x3f000000	0.5
71	0x00000000	0.0
72	0x00000000	0.0
73	0x00000000	0.0
74	0x00000000	0.0
75	0x00000000	0.0
76	0x00000000	0.0
77	0x00000000	0.0
78	0x00000000	0.0
79	0x00000000	0.0
80	0x3f000000	0.5
81	0x00000000	0.0
82	0x3e4ccccd	0.2
83	0x00000000	0.0
84	0x00000000	0.0
85	0x00000000	0.0
86	0x00000000	0.0
87	0x00000000	0.0
88	0x00000000	0.0
89	0x00000000	0.0
90	0x00000000	0.0
91	0x00000000	0.0
92	0x00000000	0.0
93	0x00000000	0.0
94	0x00000000	0.0
95	0x00000000	0.0
96	0x00000000	0.0
97	0x00000000	0.0
98	0x00000000	0.0
99	0x00000000	0.0
100	0x3e4ccccd	0.2
101	0x00000000	0.0
102	0x00000000	0.0
103	0x00000000	0.0
104	0x00000000	0.0
105	0x00000000	0.0
106	0x00000000	0.0
107	0x00000000	0.0
108	0x00000000	0.0
109	0x00000000	0.0
110	0x3eaaaaab	0.33333334
111	0x00000000	0.0
112	0x3f000000	0.5
113	0x00000000	0.0
114	0x00000000	0.0
115	0x00000000	0.0
116	0x00000000	0.0
117	0x00000000	0.0
118	0x00000000	0.0
119	0x00000000	0.0
120	0x3eaaaaab	0.33333334
121	0x00000000	0.0
122	0x00000000	0.0
123	0x00000000	0.0
124	0x00000000	0.0
125	0x00000000	0.0
126	0x00000000	0.0
127	0x3e4ccccd	0.2
128	0x00000000	0.0
129	0x00000000	0.0
130	0x00000000	0.0
131	0x00000000	0.0
132	0x00000000	0.0
133	0x00000000	0.0
134	0x00000000	0.0
135	0x00000000	0.0
136	0x00000000	0.0
137	0x00000000	0.0
138	0x00000000	0.0
139	0x00000000	0.0
140	0x3eaaaaab	0.33333334
141	0x00000000	0.0
142	0x3f000000	0.5
143	0x00000000	0.0
144	0x00000000	0.0
145	0x00000000	0.0
146	0x00000000	0.0
147	0x00000000	0.0
148	0x00000000	0.0
149	0x00000000	0.0
150	0x3eaaaaab	0.33333334
151	0x00000000	0.0
152	0x00000000	0.0
153	0x00000000	0.0
154	0x3e4ccccd	0.2
155	0x00000000	0.0
156	0x00000000	0.0
157	0x00000000	0.0
158	0x00000000	0.0
159	0x00000000	0.0
160	0x00000000	0.0
161	0x00000000	0.0
162	0x00000000	0.0
163	0x00000000	0.0
164	0x00000000	0.0
165	0x00000000	0.0
166	0x00000000	0.0
167	0x00000000	0.0
168	0x00000000	0.0
169	0x00000000	0.0
170	0x00000000	0.0
171	0x3f000000	0.5
172	0x00000000	0.0
173	0x3eaaaaab	0.33333334
174	0x00000000	0.0
175	0x00000000	0.0
176	0x3eaaaaab	0.33333334
177	0x00000000	0.0
178	0x00000000	0.0
179	0x3f000000	0.5
180	0x00000000	0.0
181	0x00000000	0.0
182	0x00000000	0.0
183	0x3eaaaaab	0.33333334
184	0x00000000	0.0
185	0x00000000	0.0
186	0x00000000	0.0
187	0x00000000	0.0
188	0x00000000	0.0
189	0x00000000	0.0
190	0x00000000	0.0
191	0x00000000	0.0
192	0x00000000	0.0
193	0x00000000	0.0
194	0x00000000	0.0
195	0x00000000	0.0
196	0x00000000	0.0
197	0x00000000	0.0
198	0x00000000	0.0
199	0x00000000	0.0
200	0x00000000	0.0
201	0x00000000	0.0
202	0x00000000	0.0
203	0x00000000	0.0
204	0x00000000	0.0
205	0x00000000	0.0
206	0x00000000	0.0
207	0x00000000	0.0
208	0x00000000	0.0
209	0x00000000	0.0
210	0x00000000	0.0
211	0x00000000	0.0
212	0x00000000	0.0
213	0x3eaaaaab	0.33333334
214	0x00000000	0.0
215	0x00000000	0.0
216	0x00000000	0.0
217	0x00000000	0.0
218	0x00000000	0.0
219	0x00000000	0.0
220	0x00000000	0.0
221	0x00000000	0.0
222	0x00000000	0.0
223	0x00000000	0.0
224	0x00000000	0.0
225	0x00000000	0.0
226	0x00000000	0.0
227	0x00000000	0.0
228	0x00000000	0.0
229	0x00000000	0.0
230	0x00000000	0.0
231	0x00000000	0.0
232	0x00000000	0.0
233	0x00000000	0.0
234	0x00000000	0.0
235	0x00000000	0.0
236	0x00000000	0.0
237	0x00000000	0.0
238	0x00000000	0.0
239	0x00000000	0.0
240	0x00000000	0.0
241	0x00000000	0.0
242	0x00000000	0.0

data_bn.weight f4 [27]
0	0x3e97317c	0.2952994
1	0x3eadea28	0.3396771
2	0x3e8052f7	0.25063297
3	0x3ec7a359	0.38991812
4	0x3ec5c20e	0.38624614
5	0x3ea75f63	0.32689962
6	0x3ec4e47a	0.38455564
7	0x3e9b8345	0.30373588
8	0x3eb8f272	0.3612247
9	0x3f17a51e	0.59236324
10	0x3f1f7236	0.6228365
11	0x3efdec90	0.49594545
12	0x3f285937	0.6576113
13	0x3f1757c2	0.5911828
14	0x3f005d32	0.50142205
15	0x3ec92042	0.39282423
16	0x3eb06451	0.34451535
17	0x3ead8d75	0.33896986
18	0x3f142f1e	0.57884395
19	0x3f103757	0.5633444
20	0x3ef05558	0.46940112
21	0x3f1aa92b	0.6041438
22	0x3f128bad	0.5724438
23	0x3ef7f47b	0.4842871
24	0x3ea96e34	0.3309189
25	0x3e9086df	0.28227898
26	0x3e8c6abd	0.27425185

data_bn.bias f4 [27]
0	0x3c44db34	0.012015153
1	0x3c2805f8	0.010255329
2	0xbb947176	-0.004530127
3	0xbb96ea7c	-0.0046055894
4	0xba74b51b	-0.0009334848
5	0xbb545962	-0.003240191
6	0x3cbb1c53	0.022840654
7	0xba445553	-0.0007489521
8	0x3bed8a6b	0.0072491667
9	0xbce191f4	-0.027535416
10	0xbc2fee44	-0.010737959
11	0x3c962f16	0.018333
12	0xbbd38b23	-0.0064557954
13	0xb9bc5689	-0.00035922628
14	0xbc8c5f49	-0.01713528
15	0x3caf6ff5	0.02141569
16	0x3d01cecc	0.031691357
17	0x3cf3d290	0.02976349
18	0x3ca95228	0.020669058
19	0x3bc8fcf1	0.0061336686
20	0xbca98f58	-0.020698234
21	0xbc9911e3	-0.018685287
22	0xbc385aac	-0.011252087
23	0x3c8fdfff	0.017562864
24	0x3c795bda	0.015219653
25	0xbbb8c574	-0.0056387726
26	0xbb8abc93	-0.0042339056

data_bn.running_mean f4 [27]
0	0x42b4e044	90.43802
1	0x42a0963a	80.29341
2	0x41b3fc2f	22.498137
3	0x42c51ae9	98.55256
4	0x42ae6705	87.20121
5	0x41c02779	24.019274
6	0x42b215a5	89.042274
7	0x42a5116f	82.53405
8	0x41b80c2b	23.005941
9	0x42c92096	100.563644
10	0x42a8b42c	84.3519
11	0x41ba41a0	23.282043
12	0x42d6851f	107.26
13	0x42a26faf	81.21813
14	0x41b1ef9d	22.241999
15	0x42d7c8a8	107.89191
16	0x42b7c3a7	91.88213
17	0x41c84631	25.034273
18	0x43013962	129.22415
19	0x42c5a298	98.817566
20	0x41d3a5a3	26.455877
21	0x4301067c	129.02533
22	0x42bd77a8	94.7337
23	0x41cbd06d	25.47677
24	0x42d350d7	105.65789
25	0x42c4ad42	98.338394
26	0x41d2d8f1	26.355928

data_bn.running_var f4 [27]
0	0x4642df52	12471.83
1	0x46ae3904	22300.508
2	0x45e989b6	7473.214
3	0x464add7f	12983.374
4	0x46be9334	24393.602
5	0x46003609	8205.509
6	0x461f38b3	10190.175
7	0x46a75626	21419.074
8	0x45e80d99	7425.6997
9	0x464af42f	12989.046
10	0x469c92fe	20041.496
11	0x45e14e5e	7209.796
12	0x4662ad26	14507.287
13	0x468f83b6	18369.855
14	0x45cfb107	6646.1284
15	0x4682acb4	16726.352
16	0x46d7fde5	27646.947
17	0x460d34e2	9037.221
18	0x46ad4161	22176.69
19	0x46df704f	28600.154
20	0x461445ac	9489.418
21	0x46a5391d	21148.557
22	0x46c5482f	25252.092
23	0x460674ff	8605.249
24	0x468a673e	17715.621
25	0x46cbd943	26092.63
26	0x460db101	9068.251

st_gcn_networks.0.gcn.conv.weight f4 [24, 3, 1, 1]
0	0xbdbbb415	-0.09165207
1	0xbc74708a	-0.0149194095
2	0xbb6de306	-0.0036298647
3	0x3e0903f7	0.13380419
4	0xbdc24003	-0.094848655
5	0x3d5398cf	0.0516594
6	0x3e13efcb	0.14446943
7	0xbc0c5266	-0.008564567
8	0x3d566d2f	0.05235022
9	0xbd0c1f0d	-0.0342093
10	0xbcf58e25	-0.029975006
11	0x3e5073ce	0.20356676
12	0x3d205ee7	0.039153006
13	0xbd3db555	-0.04631551
14	0xbea4ec40	-0.32211494
15	0x3e68d5e0	0.22737837
16	0x3ec2fd15	0.3808371
17	0x3d49217c	0.0491042
18	0xbe83de91	-0.25755742
19	0x3e8e951a	0.2784813
20	0x3dfe90fd	0.12429998
21	0xbe4fe57f	-0.2030239
22	0x3d97eb41	0.07417918
23	0xbe11924f	-0.14215969
24	0xbd478a31	-0.048715774
25	0xbdf0c520	-0.117563486
26	0xbd5ce41e	-0.053928487
27	0xbe978d18	-0.29599833
28	0xbe27e47c	-0.16395754
29	0x3d4ba993	0.049722265
30	0x3e70b3dd	0.23506112
31	0xbcb5433a	-0.022126783
32	0xbc9367b1	-0.01799378
33	0xbe3bb77f	-0.18331717
34	0xbe1a2400	-0.15052795
35	0x3d6dc83e	0.058052294
36	0xbab898ca	-0.0014083621
37	0xbca907a3	-0.020633524
38	0x3e924bf7	0.28573582
39	0xbd395736	-0.045249186
40	0xbe835153	-0.25647983
41	0xbe3e64c3	-0.18593125
42	0x3d0fc68a	0.03510145
43	0x3d5df5f4	0.054189637
44	0x3d983a39	0.0743298
45	0x3e26692a	0.16251054
46	0xbdf8a71e	-0.1214125
47	0x3e3c4911	0.18387248
48	0x3c2444b9	0.01002615
49	0x3d0d5f41	0.03451467
50	0xbc9d045a	-0.019167114
51	0xbd509680	-0.050924778
52	0xbd0ca457	-0.034336414
53	0x3c19e8a1	0.009393842
54	0x3e4d169a	0.20028153
55	0x3c54e9fe	0.012995241
56	0x3d8f7962	0.07005574
57	0xbe09de8d	-0.13463803
58	0x3b86183f	0.004092246
59	0x3bad35d1	0.0052859564
60	0xbe430c15	-0.19047578
61	0xbd4b9faf	-0.049712833
62	0x3c9ec232	0.019379709
63	0x3c2abadf	0.01042053
64	0xbd27de04	-0.040983215
65	0x3e1e94d3	0.1548646
66	0x3dbace4d	0.0912138
67	0xbdf609b4	-0.120135695
68	0x3d191c11	0.03738028
69	0xbe156119	-0.14587821
70	0x3e51404c	0.20434684
71	0x3d6b87f7	0.057502713

st_gcn_networks.0.gcn.conv.bias f4 [24]
0	0xbbc67c19	-0.006057274
1	0x3db4c82d	0.08827243
2	0x3e1e3a5e	0.15451953
3	0x3d8bdece	0.06829606
4	0xbc69ae70	-0.014262781
5	0xbe5ab4c9	-0.21358027
6	0x3c0e06e9	0.00866864
7	0x3e4e68e1	0.20157196
8	0xbe0aa619	-0.13539924
9	0x3c878ade	0.01654571
10	0x3dd7d976	0.10539524
11	0xbdb1710f	-0.08664142
12	0x3d248f2a	0.040175594
13	0x3e2fe7f7	0.17178331
14	0x3e8b89ff	0.2725372
15	0x3cb3fb90	0.02197054
16	0xbcf12c45	-0.029440055
17	0xbe64a4f1	-0.22328545
18	0x3d484834	0.048896983
19	0xbc5ddd6b	-0.01354156
20	0x3db01ccf	0.08599245
21	0x3cc87627	0.024470402
22	0x3c133c97	0.008986614
23	0xbc897521	-0.016779484

st_gcn_networks.0.tcn.0.weight f4 [8]
0	0x3eadd3a3	0.33950529
1	0x3f045468	0.51691294
2	0x3f09f9a0	0.5389652
3	0x3f01f362	0.50762
4	0x3ecc6751	0.39922574
5	0x3f0a804d	0.5410202
6	0x3f05cd45	0.5226634
7	0x3ef4a8d4	0.47785056

st_gcn_networks.0.tcn.0.bias f4 [8]
0	0x3c987fe8	0.018615678
1	0x3a20a619	0.0006128266
2	0xbc4f0832	-0.012636231
3	0xbc170bc2	-0.009219112
4	0xbc2ada51	-0.010428027
5	0xbaac28fa	-0.001313477
6	0x3cd971f1	0.02654359
7	0xbc495649	-0.012288638

st_gcn_networks.0.tcn.0.running_mean f4 [8]
0	0xbcd41033	-0.02588663
1	0xba308a24	-0.0006734452
2	0x3d526b40	0.051371813
3	0xbb101d81	-0.0021990242
4	0x3c3e03c3	0.011597577
5	0xbc2c2895	-0.010507722
6	0x3d3f920c	0.04677014
7	0x3d26e547	0.040746

st_gcn_networks.0.tcn.0.running_var f4 [8]
0	0x3a4ff39d	0.00079327245
1	0x3ae0b3a9	0.0017143387
2	0x3b0e0c3c	0.0021674773
3	0x3ac06f56	0.0014681618
4	0x3996baa7	0.00028749296
5	0x3ac15871	0.0014751089
6	0x3b0a9b21	0.0021149593
7	0x39fe43c0	0.00048497133

st_gcn_networks.0.tcn.2.weight f4 [8, 8, 9, 1]
0	0x3c5eb350	0.013592556
1	0x3cdfd08c	0.027321123
2	0xba8865f3	-0.001040636
3	0x3c783d89	0.01515139
4	0x3c739c0b	0.0148687465
5	0xbc6a5d5b	-0.014304484
6	0x3c03677d	0.008020279
7	0x3c525fa7	0.012840188
8	0x3cb93e2a	0.02261265
9	0x3d38e1de	0.04513728
10	0xbd59b508	-0.05315116
11	0xbb5ba653	-0.0033515885
12	0xbb9986b8	-0.004685249
13	0xbcf125e8	-0.02943702
14	0x3d594f82	0.05305434
15	0x3c8efd2a	0.017454702
16	0xbc00596f	-0.007833823
17	0xbd4eaf34	-0.050460055
18	0x3d6a30b5	0.057175357
19	0x3d956d5f	0.072962515
20	0x3cbce7af	0.023059694
21	0x3d50db4e	0.050990395
22	0xbcf78313	-0.030213868
23	0x3d92a0d3	0.07159581
24	0xbd4a7b73	-0.049434137
25	0x3d431673	0.04762883
26	0xbd84d54d	-0.064859964
27	0x3c013c8f	0.007887973
28	0xbcf29337	-0.029611213
29	0x3d7669c3	0.060159456
30	0xbd077c63	-0.03307761
31	0xbc9efcad	-0.019407595
32	0x3d5f1253	0.054460835
33	0x3cfe7e13	0.031065976
34	0x3d113c16	0.035457693
35	0xbc93cf78	-0.018043265
36	0xbb3d5481	-0.002888948
37	0xbcf6101c	-0.030036978
38	0x39948070	0.00028324453
39	0xbcd8a35d	-0.026445085
40	0xbd0bdbd0	-0.034145176
41	0x3bb48c7b	0.0055099106
42	0x3cc860d7	0.02446024
43	0xbd0ecd86	-0.03486397
44	0xbc0a94da	-0.008458341
45	0xbd849710	-0.064741254
46	0x3b947d02	0.0045315037
47	0x3d2b392b	0.041802566
48	0xbb82cd97	-0.0039917934
49	0x3d3412af	0.04396313
50	0x3c7e33ee	0.015515311
51	0x3d14efe1	0.03636158
52	0x3c0667bc	0.008203443
53	0x3d3275c7	0.043569352
54	0x3d110fb5	0.03541537
55	0x3d369977	0.04457995
56	0x3b5211f7	0.0032054165
57	0xbd2072cc	-0.03917198
58	0xbd0fcca3	-0.035107266
59	0x3b168b34	0.0022971155
60	0xbd2aa8fd	-0.041665066
61	0x3d3c2268	0.04593125
62	0xbd35f286	-0.04442074
63	0xbcd36af1	-0.02580783
64	0xbda68613	-0.081310414
65	0xbc04f150	-0.008114174
66	0xbd9330b0	-0.07187021
67	0xbc0af9a5	-0.008482371
68	0xbd6bda76	-0.057581387
69	0xbc7f80a9	-0.01559464
70	0xbb877389	-0.004133646
71	0xbafcd73a	-0.0019290217
72	0xbc6d1cb0	-0.014472172
73	0xbc1a8d4f	-0.009433105
74	0xbc069931	-0.008215235
75	0x3baecaaa	0.005334218
76	0x3cc9ebd2	0.02464858
77	0xbcfbcd6d	-0.030737603
78	0x3cabac7a	0.020956267
79	0x39f84658	0.00047354656
80	0xbc80c8d5	-0.015720764
81	0x3c7deb9f	0.015498071
82	0x3cfb9f6f	0.030715672
83	0x3d0c0aaa	0.034189858
84	0x3c5ba2a0	0.013405472
85	0x3bbb2dca	0.0057122456
86	0x3c6e8f74	0.014560569
87	0x3cff2e45	0.031149993
88	0x390687c7	0.00012829817
89	0x3c7c20f8	0.01538872
90	0x3d057739	0.032584403
91	0x3d64ecca	0.055889882
92	0x3d84a2cb	0.06476363
93	0xba817e6e	-0.0009879598
94	0xbc23f363	-0.010006758
95	0xbd171647	-0.03688648
96	0x3badbbad	0.0053019137
97	0x3cab3d5e	0.020903286
98	0xbbd1f7b1	-0.006407701
99	0x3d54710b	0.05186562
100	0xbc9a2f8b	-0.018821498
101	0x3ce0edf3	0.027457213
102	0x3c9e3578	0.019312605
103	0x3d367b73	0.044551324
104	0x3cfd9f1c	0.030959658
105	0x3d164773	0.036689233
106	0xbcaaff64	-0.020873733
107	0xbc7fd0fe	-0.015613792
108	0x3b3bff79	0.002868621
109	0xbb51acd7	-0.003199389
110	0x3c9f9e47	0.019484652
111	0x3ce6bfa7	0.028167559
112	0x3d62afa3	0.05534328
113	0xbd2f744d	-0.042835522
114	0x3d2effa9	0.042724285
115	0x3d66e2e0	0.05636871
116	0x3d7de69c	0.061987504
117	0xbc9babaf	-0.019002764
118	0x3d2b6665	0.041845698
119	0x3c68cd28	0.014209069
120	0xbcd2c3ac	-0.02572807
121	0x3cc48ae9	0.023992019
122	0xbbabe939	-0.005246308
123	0xbd2d626a	-0.042330183
124	0xbc9c7781	-0.019099953
125	0xbccdc8e6	-0.02512021
126	0xbd206166	-0.039155386
127	0xbd05a795	-0.03263052
128	0xbd27f538	-0.041005343
129	0xbd84372e	-0.06455837
130	0xbd72408d	-0.05914359
131	0x3d285f0e	0.041106276
132	0x3c4a9aac	0.012365978
133	0xbd31946a	-0.04335443
134	0x3d6f5211	0.058427874
135	0x3d031dc5	0.032010812
136	0xbd8e62c1	-0.069524296
137	0xbb688dd6	-0.0035484931
138	0x3c476446	0.012169903
139	0x3d154830	0.036445796
140	0xbd221762	-0.03957308
141	0x3d2058f1	0.03914732
142	0xbd249d87	-0.040189292
143	0xbd055583	-0.032552253
144	0xbcc6d683	-0.024272209
145	0xbc094339	-0.008377844
146	0xbd0b7b0a	-0.034052886
147	0xbc56caa1	-0.013109834
148	0x3b893fb1	0.004188501
149	0xbd323f4f	-0.043517407
150	0xbc3272e1	-0.010891647
151	0xbd03287f	-0.032021042
152	0xbcab418e	-0.020905282
153	0xbc9c0c9e	-0.019048985
154	0xbc8bf5a9	-0.017084913
155	0xbc868719	-0.016421841
156	0x3d0507eb	0.032478254
157	0xbbf7594b	-0.0075484863
158	0xbc212d60	-0.009837478
159	0x3ce2459c	0.027621083
160	0xbd05a698	-0.03262958
161	0x3c1cf4da	0.009579862
162	0x3d4a4b36	0.049388133
163	0x397269e8	0.00023118372
164	0xbc29b41d	-0.010357884
165	0xbda8d7ae	-0.08244263
166	0x3d67ccb6	0.056591712
167	0xbd024b33	-0.031809997
168	0x3d8c5633	0.06852379
169	0xbd73fe0f	-0.05956846
170	0x3d2d51c0	0.04231429
171	0x3cb0dfdd	0.021591121
172	0xbd8778db	-0.06614848
173	0xbd590789	-0.0529857
174	0x3cdad8cb	0.026714703
175	0x3d17b12e	0.037034206
176	0xbd614831	-0.055000488
177	0x3c897c1d	0.016782815
178	0xbd13efde	-0.036117427
179	0x3d06d35a	0.032916404
180	0xbc1383dd	-0.009003607
181	0x3c4d3f7c	0.012527343
182	0x3d26b294	0.04069765
183	0x3ca2dccf	0.01988068
184	0xbd3cf869	-0.04613534
185	0xbbf0554d	-0.0073343874
186	0xbbef1f24	-0.0072974134
187	0xbc88130b	-0.016610643
188	0x3d1dbe0b	0.038511317
189	0xbd095d1a	-0.033536054
190	0xbd747d73	-0.05968995
191	0x3d9b9119	0.075960346
192	0xbcc73d34	-0.024321176
193	0xbd3b496e	-0.045724325
194	0xbc5ca2e7	-0.013466573
195	0x3d7cdf5d	0.061736453
196	0xbd14c8b5	-0.03632422
197	0x3d8168b5	0.063187994
198	0x3d4ae0d2	0.04953081
199	0xbd09af01	-0.033614162
200	0xbdaa6bad	-0.08321319
201	0x3d62796d	0.055291582
202	0x3d932520	0.071848154
203	0x3c9f4249	0.019440787
204	0xbcd0dc28	-0.025495604
205	0x3d34722f	0.044054206
206	0x3d82d4d9	0.06388254
207	0xbd92904e	-0.0715643
208	0xbcd41164	-0.025887199
209	0xbd4ddd41	-0.050259832
210	0x3d324d32	0.04353065
211	0xbbede4ad	-0.0072599263
212	0x3d47beac	0.048765823
213	0xbd30d22f	-0.043169197
214	0xbd4efa3d	-0.050531615
215	0xbbb3c724	-0.005486386
216	0xbb879fa8	-0.0041389056
217	0x3be1e506	0.006893757
218	0x3cf60a41	0.030034186
219	0x3c8d4cfa	0.01724862
220	0x3c6d1740	0.014470875
221	0xb97ad6da	-0.00023921896
222	0x3bff65be	0.007794111
223	0x3c25ce27	0.010119951
224	0x3c11d335	0.008900453
225	0x3c349bd2	0.011023479
226	0x3cbca570	0.023028105
227	0xbcb8b6f1	-0.02254817
228	0xbc4734be	-0.012158571
229	0x3ca03c98	0.019560143
230	0x3cf861f5	0.030320147
231	0x3d1c472e	0.03815382
232	0xbc73b5f9	-0.014874929
233	0x3b6f68ba	0.0036530928
234	0xbc4418bd	-0.011968789
235	0x3b67793a	0.003532006
236	0xbcd2f752	-0.025752697
237	0xbc8f22e7	-0.017472697
238	0xbaa9085d	-0.0012896169
239	0xbc92c61d	-0.017916733
240	0xbb85f990	-0.004088588
241	0xbcf5ff17	-0.030028863
242	0xbd21588f	-0.039391097
243	0x3cf39b72	0.029737208
244	0xbcf57749	-0.029964106
245	0xbd1f1bd6	-0.038844906
246	0xbd1abc2a	-0.037777103
247	0xbd1a183e	-0.037620775
248	0xbab4d8c3	-0.001379751
249	0xbca0c3db	-0.019624641
250	0xba50e86b	-0.0007969203
251	0x3c816c7b	0.015798798
252	0x3b8036ca	0.0039127814
253	0xbccac786	-0.024753343
254	0xbb6cb5db	-0.0036119136
255	0x3c8f53e2	0.017496053

st_gcn_networks.0.tcn.2.bias f4 [8]
0	0x376e82e9	1.4216385e-05
1	0x36948d06	4.427161e-06
2	0x38113a25	3.4624845e-05
3	0x3709b50b	8.207989e-06
4	0xb583d00f	-9.820814e-07
5	0xb4fc2f08	-4.6972877e-07
6	0x3513fa6d	5.5126185e-07
7	0xb68bf2e9	-4.1708013e-06

st_gcn_networks.0.tcn.3.weight f4 [8]
0	0x3ef9bcb3	0.4877678
1	0x3eef954c	0.46793592
2	0x3edff388	0.43740487
3	0x3ea04527	0.3130276
4	0x3ebbcffa	0.3668211
5	0x3f01c20e	0.5068673
6	0x3f04f0e7	0.5193009
7	0x3ef02cf7	0.46909305

st_gcn_networks.0.tcn.3.bias f4 [8]
0	0xbcb3ad74	-0.021933295
1	0x3c5c7620	0.013455898
2	0x3c05c28e	0.008164061
3	0x3bc8e912	0.0061313
4	0x3a5f720d	0.000852377
5	0x3b9b6234	0.0047419313
6	0x3c651417	0.013981841
7	0x3bd90532	0.006622934

st_gcn_networks.0.tcn.3.running_mean f4 [8]
0	0x3cab6507	0.020922197
1	0x3d60c86f	0.05487865
2	0xbd199c97	-0.03750285
3	0xbcf81752	-0.030284557
4	0x3c5e28be	0.013559518
5	0x3c85570e	0.016276862
6	0xbd32b8bd	-0.04363321
7	0x3c262dc4	0.010142747

st_gcn_networks.0.tcn.3.running_var f4 [8]
0	0x3c5a5626	0.013326203
1	0x3c1eeb9a	0.0096997265
2	0x3c1812bb	0.009281809
3	0x3b8d2b1e	0.0043081185
4	0x3b911535	0.004427577
5	0x3c297046	0.0103417095
6	0x3c8ada1c	0.016949706
7	0x3c2c23b3	0.010506558

st_gcn_networks.1.gcn.conv.weight f4 [24, 8, 1, 1]
0	0x3abb8ad7	0.0014308345
1	0xbd45858c	-0.048223063
2	0x3d5dc497	0.05414256
3	0x3ce9e9f4	0.02855394
4	0xbc035c13	-0.008017558
5	0xbd1fa14a	-0.038972177
6	0x3cc8cd45	0.024511943
7	0x3d964f66	0.07339363
8	0x3bdb5c1b	0.0066943294
9	0xbc93df2a	-0.018050749
10	0x3db65d54	0.0890452
11	0xbc1406c8	-0.00903482
12	0x3d3d2f4a	0.046187676
13	0xbc8ab242	-0.016930703
14	0x3da06d23	0.07833316
15	0x3c381867	0.011236287
16	0x3db8a833	0.090164565
17	0xbd8aa655	-0.067700066
18	0xbce268a5	-0.027637789
19	0x3d2d2ea4	0.042280808
20	0x3dcbf3cb	0.09958609
21	0x3dc208ec	0.09474358
22	0xbcd23083	-0.025657898
23	0xbd06728a	-0.032824077
24	0x3d0222d9	0.031771515
25	0xbd70af37	-0.058760848
26	0xbd697829	-0.05699936
27	0xbd3e5d0c	-0.046475455
28	0xbdc901b0	-0.09814775
29	0xbdc87f13	-0.097898625
30	0x3d0c9e25	0.034330506
31	0xbd8ba5f0	-0.068187594
32	0xbcd2c0d6	-0.025726717
33	0xbc547831	-0.012968109
34	0x3d7cc818	0.06171426
35	0xbc5e672a	-0.013574401
36	0x3b301ee9	0.0026873893
37	0x3c8be71f	0.01707798
38	0x3d8947b2	0.06703128
39	0xbbc600a1	-0.0060425554
40	0x3c991081	0.018684627
41	0xbdf9dd9d	-0.122004725
42	0x3d4e35c0	0.05034423
43	0xbb2e6980	-0.0026613176
44	0xbb9d9778	-0.0048093162
45	0x3b81d8ef	0.003962628
46	0xbdc94f0b	-0.098295294
47	0x3c461132	0.012089061
48	0xbd1518dc	-0.03640066
49	0xbd8ccca0	-0.068749666
50	0x3db1ff8a	0.08691318
51	0x3ceabb58	0.028653786
52	0x3d8dc963	0.06923177
53	0x3bde5aa5	0.006785708
54	0xbd37c075	-0.044861276
55	0xbc0e92e2	-0.008702012
56	0xbc31eec4	-0.010860149
57	0x3c187671	0.009305582
58	0xbb509ae7	-0.003183061
59	0xbc755637	-0.0149741685
60	0x3b890867	0.00418191
61	0x3d4086fc	0.04700373
62	0x3cabadfa	0.020956982
63	0x3da73841	0.081650265
64	0xbc3f42ab	-0.01167361
65	0x3dd584e2	0.10425736
66	0xbb71b232	-0.0036879894
67	0x3bfe2fb9	0.007757154
68	0xbc99af48	-0.018760338
69	0x3c95b49f	0.018274603
70	0x3d4007df	0.046882506
71	0x3e003780	0.12521172
72	0xbd9bd820	-0.07609582
73	0x3c68a2d9	0.014198982
74	0xbd68c9d6	-0.05683311
75	0x3c007d4a	0.007842371
76	0x3c921fc4	0.017837413
77	0xbc44c394	-0.01200952
78	0x3d644d98	0.05573806
79	0x3c810827	0.015750958
80	0x3d14a332	0.036288448
81	0xbc59d42d	-0.013295216
82	0x3dad4b25	0.08461598
83	0x3d4d7e51	0.050169293
84	0xbd693791	-0.056937758
85	0xbdcea1cc	-0.10089454
86	0x3dfc6752	0.12324394
87	0xbd257d0d	-0.04040246
88	0xbc90b00c	-0.01766207
89	0x3e0c6d02	0.13713458
90	0x3dc5c5c1	0.09656859
91	0xbc64e0c9	-0.013969609
92	0xbd89723b	-0.06711241
93	0x3dc7371e	0.0972731
94	0xbd44d851	-0.048057858
95	0xbdeffb22	-0.11717822
96	0xbd0f7f11	-0.03503329
97	0xbcc1c786	-0.02365471
98	0x3db84b7f	0.08998775
99	0x3cf25ca2	0.029585186
100	0xbceaaff1	-0.028648349
101	0x3d0dc652	0.03461296
102	0xbd31215c	-0.043244705
103	0x3c98664f	0.018603472
104	0x3dcdf6a2	0.10056807
105	0xbd42b278	-0.047533482
106	0xbc8dbb7d	-0.017301315
107	0xbdc528ff	-0.0962696
108	0x3d29d3cb	0.041461747
109	0xbe0021ce	-0.12512895
110	0x3d8ef8c3	0.06981041
111	0x3d12c34f	0.035830792
112	0xbdc78714	-0.09742561
113	0xbde48a08	-0.1115914
114	0x3d950373	0.072760485
115	0x3b57d0d6	0.0032930872
116	0xbd99272f	-0.07478177
117	0xbd02afeb	-0.03190605
118	0x3cdc86c1	0.026919724
119	0x3dcc98b3	0.099900626
120	0x3d68d1d5	0.056840736
121	0x3d196774	0.037452176
122	0xbbc4763e	-0.005995541
123	0x3c21c57d	0.009873745
124	0x3a97b590	0.0011574496
125	0x3bc68c8f	0.0060592364
126	0x3d1e9312	0.038714476
127	0x3be4bd8d	0.006980604
128	0xbbe5f671	-0.0070179035
129	0x3beb70df	0.007185086
130	0x3d822160	0.06354022
131	0x3d2cff80	0.04223585
132	0x3c0d7c44	0.008635584
133	0x3d033bd9	0.032039497
134	0xbca429c1	-0.020039441
135	0xbb86f343	-0.0041183545
136	0x3cb4c33a	0.022065748
137	0xbc1cb8ed	-0.009565574
138	0x3c9f24fa	0.019426811
139	0xbcdcaaf0	-0.026936978
140	0x3b906f5c	0.0044078063
141	0x3d67a7ab	0.056556385
142	0x3d739a1f	0.059473153
143	0x3db4ad1e	0.08822082
144	0x3c295787	0.01033581
145	0x3ce2bea1	0.02767879
146	0x3c90c939	0.017674075
147	0xba6321ea	-0.00086644164
148	0x3bdfc8bf	0.0068293507
149	0xbd9f9249	-0.077915736
150	0x3dd5e94c	0.104448885
151	0x3b3fc0fe	0.002925932
152	0x3dc7ab2a	0.09749444
153	0xbc6df580	-0.014523864
154	0xbd1f4105	-0.038880367
155	0x3afe8354	0.0019417801
156	0x3b32e4d1	0.002729703
157	0xbd4b139d	-0.04957925
158	0x3e03f2a2	0.12885526
159	0xbd02f6bb	-0.03197358
160	0x3d1205db	0.035650115
161	0xba0cbde5	-0.00053688727
162	0x3d4291b6	0.047502242
163	0xbb2a1689	-0.0025953373
164	0x3bf9293c	0.0076037925
165	0xbb6c1912	-0.0036025685
166	0x3c3e46fe	0.011613606
167	0xbd192530	-0.03738898
168	0xbbf0ba22	-0.0073464075
169	0xbbe6439b	-0.007027102
170	0xbd7ec268	-0.06219712
171	0x397b569c	0.0002396949
172	0x3cfcc574	0.030855872
173	0xbde63363	-0.1124027
174	0xbd7c1b39	-0.0615494
175	0xbc5c5b18	-0.013449453
176	0x3d95fea4	0.073239595
177	0x394850ff	0.0001910366
178	0x3d276d2f	0.04087561
179	0xbd9aed9b	-0.07564851
180	0x3d1661b8	0.036714286
181	0x3d1324b1	0.035923664
182	0x3b25cc65	0.002529883
183	0xbc93e76d	-0.018054688
184	0x3cc3c4c1	0.02389753
185	0xbd7c4df0	-0.061597764
186	0x3d2a7d0d	0.041623164
187	0xbd023a1b	-0.031793695
188	0x3a0d1e89	0.0005383273
189	0xbd218f38	-0.039443225
190	0xbd77f6ea	-0.06053821
191	0x3e251578	0.16121471

st_gcn_networks.1.gcn.conv.bias f4 [24]
0	0x3acd6817	0.001567128
1	0x3cf0c483	0.02939058
2	0x3bf018a0	0.0073271543
3	0x3d36f2ab	0.04466502
4	0xbc19ab61	-0.009379239
5	0xbb91e01c	-0.0044517647
6	0x3c9db82d	0.01925286
7	0xbc063e44	-0.008193556
8	0xbdada45c	-0.08478615
9	0xbb0e1462	-0.002167963
10	0x3bb12c51	0.0054068943
11	0x3b939917	0.0045043337
12	0xbda99ae9	-0.082815
13	0x3cb653b9	0.022256719
14	0x3dc1951c	0.094522685
15	0x3c932e2a	0.017966349
16	0xbc781713	-0.01514222
17	0xbd7fcb3c	-0.06244968
18	0x3c3cb558	0.011517845
19	0x3d1afebd	0.037840594
20	0x3cad7fc4	0.021179087
21	0xbd02b912	-0.031914778
22	0x3d12ee86	0.035872005
23	0xbd1c9fdd	-0.038238395

st_gcn_networks.1.tcn.0.weight f4 [8]
0	0x3eb0dd0e	0.3454365
1	0x3e98057c	0.29691684
2	0x3ee5bee0	0.4487219
3	0x3ee2d97f	0.4430656
4	0x3e925cbd	0.2858638
5	0x3eca6fa8	0.39538312
6	0x3ed7b0a0	0.42126942
7	0x3ec870b9	0.391485

st_gcn_networks.1.tcn.0.bias f4 [8]
0	0xbbdbbe80	-0.006706059
1	0x3b539858	0.003228685
2	0x3c83eb8a	0.016103525
3	0x3cea9965	0.028637597
4	0xbb7e11b6	-0.003876788
5	0xba9a555e	-0.0011774709
6	0xbc636896	-0.013879916
7	0x3a3b6683	0.00071487593

st_gcn_networks.1.tcn.0.running_mean f4 [8]
0	0x3a162b9b	0.00057285436
1	0x3b95530e	0.00455702
2	0x3ba6f54d	0.00509516
3	0x3b7c7aee	0.003852542
4	0xbbad1b62	-0.0052828053
5	0xbc1a979c	-0.009435561
6	0x3c63a01d	0.013893154
7	0x3b909f50	0.004413523

st_gcn_networks.1.tcn.0.running_var f4 [8]
0	0x383cb0b2	4.4987253e-05
1	0x384d283f	4.891329e-05
2	0x3923dce3	0.00015627178
3	0x38b1a25a	8.470258e-05
4	0x38c4a000	9.3758106e-05
5	0x38cd8216	9.799392e-05
6	0x38e168b9	0.00010748342
7	0x38c28b7d	9.2766226e-05

st_gcn_networks.1.tcn.2.weight f4 [8, 8, 9, 1]
0	0x3b0ce6f8	0.0021499973
1	0xbb14d6b9	-0.0022710992
2	0xbbf1bb63	-0.0073770746
3	0xbbc90c43	-0.006135495
4	0xbc075d9d	-0.008262065
5	0xbb4ed2cc	-0.003155875
6	0xbad0b70f	-0.0015923696
7	0x3bb7bc5b	0.0056071705
8	0x3bb9dd7c	0.005672155
9	0xbc60d6d3	-0.013723093
10	0xbcbd8e4a	-0.023139138
11	0xbc0d572f	-0.008626743
12	0xbbfa135a	-0.0076317014
13	0xbcbba756	-0.02290694
14	0xbca347b6	-0.019931655
15	0xbc78dcfe	-0.015189407
16	0xbc99bd22	-0.018766943
17	0xbc68193f	-0.014166175
18	0x3cffd57a	0.031229723
19	0xbc028f39	-0.007968717
20	0x3c4138ed	0.011793357
21	0xbca0ea5d	-0.019643003
22	0x3c77a085	0.015113954
23	0xbb873b32	-0.0041269297
24	0x3ce2e497	0.02769689
25	0xbc955db3	-0.018233156
26	0xbcf0f944	-0.029415734
27	0xbc72223f	-0.014778673
28	0xbc88056b	-0.016604146
29	0x3c32a32b	0.01090316
30	0x3b790c5a	0.0038001747
31	0xbc2d5e7c	-0.010581609
32	0x3be35018	0.006937038
33	0xbd1942a3	-0.037417065
34	0xbd26d9f1	-0.04073519
35	0xbd139a58	-0.036035866
36	0x3c29896a	0.0103477035
37	0xbd01d42a	-0.031696476
38	0xbbe09b08	-0.0068544187
39	0xbcc20807	-0.023685468
40	0x3c989341	0.018624904
41	0x3c62809b	0.013824607
42	0x3c5774b0	0.013150379
43	0xbacaaed8	-0.0015463484
44	0xb99245c0	-0.00027899258
45	0x3b4130d6	0.0029478571
46	0xbc205029	-0.009784737
47	0x3c8e004e	0.01733413
48	0x3cadb87e	0.021206137
49	0x3c66d1e0	0.014088124
50	0xbb6d8ab7	-0.003624601
51	0x3c6db470	0.014508352
52	0xbcb84859	-0.022495436
53	0xbc6cd053	-0.014453965
54	0x391e5f32	0.00015103517
55	0x3c55b38a	0.013043294
56	0x3c949bc7	0.018140687
57	0xbc786ae1	-0.015162201
58	0x3c6a277a	0.0142916385
59	0x3ccf5d28	0.025312975
60	0x3c65a4b0	0.014016315
61	0xbaf9faa9	-0.0019071895
62	0x3c020e5d	0.007937995
63	0x3be5295c	0.006993456
64	0x3c159c02	0.009131433
65	0xbcac23df	-0.021013198
66	0xbcc7fb9d	-0.02441197
67	0x3a125a8e	0.00055829517
68	0xbc1982c6	-0.009369558
69	0x3a8e7aba	0.0010870316
70	0x3c951a11	0.018200906
71	0xbbb691f6	-0.005571599
72	0xbbdee569	-0.00680225
73	0xbc9d5afd	-0.019208426
74	0xbc5bcba6	-0.013415253
75	0x3b4d71a1	0.0031348246
76	0xbbbf5190	-0.0058385804
77	0x3c059c05	0.008154874
78	0xbc655824	-0.013998065
79	0x3b1a496d	0.00235423
80	0xbbc8571b	-0.0061138994
81	0xbcb9572e	-0.022624578
82	0xbc144da2	-0.009051712
83	0xbc6ce837	-0.014459661
84	0xbc78c5a5	-0.015183841
85	0x3cef4fc2	0.029212836
86	0x3cf45026	0.029823374
87	0x3cd2f052	0.02574936
88	0xbc57e076	-0.013176074
89	0xbb948b64	-0.004533218
90	0xbbc77aac	-0.0060876217
91	0xbc08f644	-0.008359496
92	0x3cafd64c	0.02146449
93	0x3cf4304e	0.02980819
94	0x3cab7055	0.020927588
95	0x3d025ada	0.031824924
96	0x3bb8c795	0.0056390264
97	0x3ca881b2	0.020569656
98	0x3cc87bf2	0.024473164
99	0xba112b8f	-0.0005537802
100	0x3d26ca33	0.040720176
101	0x3b589a03	0.0033050783
102	0x3d0cd598	0.034383386
103	0x3cc0e9f4	0.023549058
104	0x3d042096	0.03225764
105	0x3d46437e	0.04840421
106	0x3c64375f	0.013929217
107	0x3d3c64b8	0.04599449
108	0xbcab5dc6	-0.020918738
109	0x3c9b51d1	0.018959912
110	0xbb82ff22	-0.0039976994
111	0xbc7538a1	-0.014967115
112	0x3c4b06ae	0.012391729
113	0xbc86b578	-0.016443953
114	0x3c75b58d	0.014996898
115	0x398ef68b	0.0002726804
116	0x3d32d03b	0.043655615
117	0x3c91ef09	0.017814176
118	0xbc05bd89	-0.0081628645
119	0x3c456dc9	0.012050101
120	0xbc963db4	-0.01833997
121	0xbcc0e887	-0.023548378
122	0xbcaf8c1a	-0.02142911
123	0x3bd79017	0.006578456
124	0x3c67e594	0.014153857
125	0x3bebe958	0.0071994476
126	0xbc3d1f9d	-0.011543182
127	0x3a575d18	0.0008215471
128	0x3cf4bdce	0.029875662
129	0xbc5fa327	-0.013649738
130	0x3c474d2d	0.012164396
131	0x3cb80ac9	0.02246608
132	0x3cdadcba	0.026716579
133	0xbc6a2080	-0.014289975
134	0x3ca1c3de	0.019746717
135	0x3b87aa7d	0.004140197
136	0xbb87d0fa	-0.004144785
137	0xbc178ed1	-0.009250359
138	0xbbb0ea40	-0.0053990185
139	0xbced8cbe	-0.028997775
140	0x3c3df65e	0.011594383
141	0x3cd582d9	0.02606337
142	0xbc45f943	-0.012083354
143	0xbbd60561	-0.006531403
144	0x3c3682fd	0.0111396285
145	0xbd06e87f	-0.03293657
146	0xbd11ec67	-0.03562584
147	0xbcc664e2	-0.024218027
148	0xbc882008	-0.016616836
149	0x3c7725fe	0.015084742
150	0x3b2c2dba	0.0026272372
151	0xbd04b086	-0.03239491
152	0xbcd7f099	-0.026359843
153	0x3ca66d76	0.020315867
154	0x3c95d218	0.018288657
155	0xbbe29fc3	-0.0069160177
156	0xbbb611a6	-0.005556303
157	0x3ae769bc	0.0017655413
158	0xbcda1764	-0.026622482
159	0xbd03729b	-0.03209172
160	0xbc8dbed6	-0.017302912
161	0xbbe52722	-0.0069931904
162	0x3d108f10	0.035292685
163	0xbc87a7ff	-0.016559599
164	0x3c93bb29	0.01803358
165	0x3ce536eb	0.027980288
166	0x3c509248	0.012730189
167	0x3c545445	0.012959545
168	0x3c6a9748	0.014318295
169	0x3b5e45ac	0.003391604
170	0xbbcb9a40	-0.0062134564
171	0xbc9cfa6b	-0.019162377
172	0x3bac9854	0.0052671824
173	0xbd5f9003	-0.0545807
174	0x3a9cd4f8	0.0011965325
175	0xbcbb898b	-0.022892734
176	0xbd339b64	-0.043849364
177	0xbd21d823	-0.039512765
178	0x3c789014	0.01517107
179	0x3c81ffd5	0.01586906
180	0xbc86795f	-0.016415296
181	0x3d5f9e67	0.054594424
182	0xbd2d8767	-0.042365458
183	0x3d335493	0.043781828
184	0xbc2a3926	-0.010389602
185	0x3cd2976f	0.025706975
186	0x3cdfb0a0	0.027305901
187	0xbc36ca70	-0.011156663
188	0x3cc91e19	0.024550484
189	0x3c0d8440	0.008637488
190	0xbd312c81	-0.043255333
191	0x3ce0a7c4	0.027423747
192	0xbbb6a6ca	-0.005574082
193	0x3a0bafcd	0.00053286256
194	0xbd13a2f5	-0.03604408
195	0x3bc96466	0.0061460016
196	0xbd30b4bc	-0.04314111
197	0xbd1fce2d	-0.039014984
198	0xb99d3585	-0.0002998525
199	0x3b0ca5a4	0.0021461034
200	0x3ce78dde	0.02826589
201	0x3d1904ee	0.037358217
202	0x3c05c6dd	0.0081650885
203	0xbcb82d9d	-0.022482688
204	0xbbd4ae22	-0.006490485
205	0x3c06c626	0.008225953
206	0x3d2c93be	0.042133085
207	0xbb9b4766	-0.004738736
208	0x3d31345f	0.043262836
209	0x3c9f8c40	0.019476056
210	0xbc1df631	-0.009641216
211	0x3cbc909a	0.02301817
212	0x3c2f8277	0.010712258
213	0x3b8308d5	0.0039988556
214	0xbb87a590	-0.0041396096
215	0x3b5d6d0b	0.0033786919
216	0xba3abe59	-0.0007123701
217	0xbbef337e	-0.0072998395
218	0x3c9aea5e	0.018910583
219	0xbca5f371	-0.020257683
220	0xbc16d8e2	-0.009206982
221	0x3b059ade	0.0020386497
222	0xbcacd088	-0.02109553
223	0xbc90bd0d	-0.017668271
224	0x3c01f674	0.007932294
225	0x3d350415	0.044193346
226	0xbc0fc44e	-0.00877483
227	0x3c89708b	0.016777297
228	0x3c96e5e4	0.018420167
229	0x3d3b04d2	0.045658894
230	0x3b8e63d5	0.004345397
231	0xbc81a197	-0.015824122
232	0xbcf852b4	-0.030312873
233	0x3cbb22be	0.022843715
234	0x3c521737	0.012822918
235	0x3d050539	0.032475684
236	0x3c291ab8	0.010321312
237	0xbc9dd91b	-0.019268563
238	0x3d1c5639	0.038168166
239	0x3c99b495	0.018762866
240	0x3c9eb52e	0.019373503
241	0x3ceca718	0.02888827
242	0x3d1d481c	0.038398847
243	0xbb843840	-0.004035026
244	0xbc73297d	-0.014841435
245	0xbcb9e0e3	-0.022690242
246	0x3bbc2ce9	0.0057426584
247	0xbc867c49	-0.016416686
248	0xbcdaa384	-0.026689298
249	0xbc1dd5a4	-0.009633455
250	0x3cd6eb84	0.02623535
251	0xbcf969b3	-0.03044591
252	0x39fb789d	0.00047964315
253	0xbb8f231d	-0.0043681995
254	0xbb1df649	-0.0024103096
255	0xbb1c6186	-0.002386184

st_gcn_networks.1.tcn.2.bias f4 [8]
0	0x36266bea	2.4798742e-06
1	0xb6db19ed	-6.5297268e-06
2	0x36ee3c76	7.0999913e-06
3	0x36e37cfb	6.779677e-06
4	0x35d79ef5	1.6065011e-06
5	0x3758dda7	1.2926211e-05
6	0x3709a1e8	8.203533e-06
7	0xb599dd49	-1.1463791e-06

st_gcn_networks.1.tcn.3.weight f4 [8]
0	0x3e9b71c8	0.30360246
1	0x3ececfbd	0.40392867
2	0x3ed3793d	0.41303435
3	0x3edf50d0	0.43616343
4	0x3eacda12	0.33760124
5	0x3ef6fea3	0.48241147
6	0x3ed37091	0.4129682
7	0x3e9f75ba	0.31144506

st_gcn_networks.1.tcn.3.bias f4 [8]
0	0x3bb89bea	0.005633821
1	0x3bbe8159	0.0058137593
2	0xbc5d2b0d	-0.013499034
3	0x3b79b795	0.0038103808
4	0xbc8572ad	-0.016290033
5	0xbadd94b4	-0.0016905279
6	0xbba73edc	-0.005103929
7	0x3c15053d	0.009095487

st_gcn_networks.1.tcn.3.running_mean f4 [8]
0	0xbcd97dd8	-0.026549265
1	0x3d775e6d	0.060392786
2	0xbc815d96	-0.015791696
3	0x3c843ac8	0.01614131
4	0xbc840f41	-0.016120555
5	0x3c99b2d1	0.018762024
6	0xbcf687b3	-0.030094003
7	0xbd3f8107	-0.04675391

st_gcn_networks.1.tcn.3.running_var f4 [8]
0	0x3b1fcf06	0.002438487
1	0x3c29f780	0.01037395
2	0x3b4a89d1	0.00309049
3	0x3b77f84d	0.0037837208
4	0x3afb1617	0.0019156364
5	0x3b97f37b	0.0046371794
6	0x3ae267f6	0.0017273414
7	0x3bb4bc9d	0.0055156485

st_gcn_networks.1.residual.0.weight f4 [8, 8, 1, 1]
0	0xbd57176f	-0.052512582
1	0xbd962c39	-0.073326536
2	0xbdfdad02	-0.12386514
3	0xbc03e82e	-0.008050961
4	0xbd6001ae	-0.054689102
5	0x3d470194	0.04858549
6	0x3db8489e	0.08998226
7	0xbd87eac5	-0.066365756
8	0xbdf340d5	-0.118776
9	0xbd95184d	-0.07280026
10	0xbd0fbed5	-0.0350941
11	0xbcdd461c	-0.02701097
12	0xbd61cf98	-0.055129617
13	0x3e0047bc	0.12527364
14	0x3df27ec7	0.11840587
15	0xbdd11693	-0.10209384
16	0xbe1f9fcc	-0.15588301
17	0xbc0976be	-0.008390127
18	0x3d9c8afc	0.07643697
19	0xbc0e36cb	-0.008680056
20	0xbd0e70fb	-0.034775715
21	0x3d7ea034	0.0621645
22	0xbbd4aa13	-0.006490001
23	0xbdaa85bf	-0.08326291
24	0x3da469b6	0.08027975
25	0xbcc33a00	-0.023831367
26	0xbd9bfc5b	-0.07616492
27	0xbcd61357	-0.026132269
28	0xbce9909d	-0.02851134
29	0xbd101d8d	-0.03518443
30	0x3dd3a409	0.103340216
31	0x3ddcee32	0.1078762
32	0xbccf567c	-0.025309794
33	0x3d5ed803	0.054405224
34	0xbdcb7a2a	-0.0993541
35	0x3b23793e	0.0024944092
36	0x3cf6d1a4	0.030129261
37	0xbd883c40	-0.06652117
38	0x3e10d2de	0.1414294
39	0x3d815031	0.063141234
40	0x3e152a30	0.14566875
41	0x3d4faffc	0.05070494
42	0x3de585ed	0.11207185
43	0xbb19e600	-0.0023483038
44	0xbd810d1a	-0.06301327
45	0xbdae94b5	-0.08524457
46	0xbd5b21ee	-0.053499155
47	0xbde916db	-0.113813125
48	0x3d1c4816	0.038154684
49	0x3c216b09	0.009852179
50	0xbd92b17f	-0.07162761
51	0x3d1a140d	0.03761678
52	0xbcad30a5	-0.02114136
53	0xbcdc438d	-0.02688768
54	0xbd9d6810	-0.07685864
55	0x3ad3abc2	0.001614921
56	0xbd0fd42b	-0.03511445
57	0x3a8720e3	0.0010309484
58	0x3dda2cab	0.10653051
59	0x3c343a99	0.011000299
60	0x3dcaa5cb	0.09894904
61	0x3e0ed4c8	0.13948357
62	0xbe0b4736	-0.13601384
63	0xbda4fcf8	-0.080560625

st_gcn_networks.1.residual.0.bias f4 [8]
0	0x3538dbf3	6.886541e-07
1	0x3653a3bf	3.1536763e-06
2	0x361f073d	2.369706e-06
3	0xb6036184	-1.9577283e-06
4	0x36466628	2.9563762e-06
5	0x36ffad99	7.6198016e-06
6	0xb5951ed9	-1.1110343e-06
7	0x35636b5e	8.472033e-07

st_gcn_networks.1.residual.1.weight f4 [8]
0	0x3eac1261	0.33607772
1	0x3ec5bee6	0.38622206
2	0x3ed90989	0.42390087
3	0x3ebbc4b4	0.3667351
4	0x3ebe4028	0.37158322
5	0x3ecb52c3	0.3971158
6	0x3ef621bb	0.4807261
7	0x3eaad53c	0.3336581

st_gcn_networks.1.residual.1.bias f4 [8]
0	0x3bb89bea	0.005633821
1	0x3bbe8159	0.0058137593
2	0xbc5d2b0d	-0.013499034
3	0x3b79b795	0.0038103808
4	0xbc8572ad	-0.016290033
5	0xbadd94b4	-0.0016905279
6	0xbba73edc	-0.005103929
7	0x3c15053d	0.009095487

st_gcn_networks.1.residual.1.running_mean f4 [8]
0	0xbd1365fb	-0.035985928
1	0xbc972808	-0.018451706
2	0xbcb1ddca	-0.021712203
3	0x3ca5dbeb	0.020246467
4	0x3c94790c	0.018124126
5	0xbb85861e	-0.004074826
6	0xbcb6d75b	-0.022319486
7	0x3c6917e5	0.014226888

st_gcn_networks.1.residual.1.running_var f4 [8]
0	0x3afb559a	0.0019175292
1	0x3b6d3cbe	0.0036199535
2	0x3b093f81	0.0020942392
3	0x3b22c208	0.002483489
4	0x3b8309a1	0.0039989506
5	0x3b57a777	0.0032906213
6	0x3a875f46	0.0010328076
7	0x3b8e296e	0.004338435

st_gcn_networks.2.gcn.conv.weight f4 [48, 8, 1, 1]
0	0x3cd5d4e8	0.026102498
1	0xbd143b3a	-0.036189295
2	0xbba1412b	-0.0049210987
3	0xbd3b1c98	-0.045681566
4	0x3d4ac91d	0.049508203
5	0xbc357d46	-0.011077231
6	0xbdb87f10	-0.0900861
7	0xbc4a6bf8	-0.012354843
8	0xb9a82801	-0.00032073262
9	0xbced768e	-0.028987195
10	0xbcb41c2f	-0.021986095
11	0xbc608b99	-0.013705158
12	0xbc82d1cb	-0.015969178
13	0x3c85d194	0.016335286
14	0x3bb77b48	0.005599413
15	0x3ab0d201	0.001349032
16	0xbc45e565	-0.012078618
17	0xbd614e50	-0.055006325
18	0x3be83322	0.0070861736
19	0xbcfd5b8c	-0.030927442
20	0x3a63ccf1	0.00086899014
21	0x3c513029	0.01276783
22	0xb7e9e6b1	-2.7883189e-05
23	0x3d529b72	0.051417775
24	0x3bc255d4	0.0059306417
25	0xbd230f59	-0.03980956
26	0xbb132208	-0.0022450704
27	0xbc6a707f	-0.014309048
28	0x3d862d7e	0.06551646
29	0xbd7949a6	-0.060861252
30	0x3a952e6d	0.0011381634
31	0x3d6bf125	0.05760302
32	0xbbf740d5	-0.0075455704
33	0xbc65115f	-0.013981192
34	0xbb679340	-0.003533557
35	0xbd20feb3	-0.0393054
36	0x3bdc9c83	0.006732525
37	0x3d3b877c	0.045783505
38	0xbcdd0948	-0.026981965
39	0xbc1a5b6a	-0.009421209
40	0x3d96ad83	0.073573135
41	0x3ac76f92	0.0015215746
42	0xbda1739d	-0.078833796
43	0xbce536f2	-0.027980302
44	0x3e0b9853	0.13632326
45	0xbc1710ce	-0.009220315
46	0xbdfbef7d	-0.12301538
47	0xbcd45121	-0.025917592
48	0xbcf2f275	-0.029656628
49	0xbdbbbe82	-0.09167196
50	0xbd86259c	-0.06550142
51	0xbc90217c	-0.017594092
52	0xbd1602ee	-0.036623888
53	0x3d84ca57	0.06483906
54	0xbdaea384	-0.08527282
55	0x3d4defc1	0.050277475
56	0xbcc86dd8	-0.02446644
57	0xbc425092	-0.01186003
58	0x3d075443	0.033039343
59	0x3aa799c8	0.0012786919
60	0xbb337329	-0.0027381873
61	0xbc21f236	-0.009884408
62	0xbbc2e77a	-0.0059480043
63	0x3cb243c9	0.021760838
64	0xba5bdc73	-0.00083870365
65	0xbcc944c4	-0.024568923
66	0x3c7c58cb	0.015402029
67	0xbb9ed9df	-0.0048477496
68	0xbd82ba75	-0.0638322
69	0x3d6a6c3e	0.057232134
70	0xbbf505b4	-0.0074774865
71	0x3bb31cea	0.0054660933
72	0xbc281454	-0.010258753
73	0xbc6f6f9b	-0.014614011
74	0x3bbf539c	0.0058388244
75	0x3c7cb433	0.015423822
76	0x3d33bc5d	0.04388081
77	0xbc1f59bd	-0.009725985
78	0xbc33ecda	-0.010981763
79	0xbaf3a616	-0.0018588926
80	0x3bb07e25	0.0053861313
81	0xbc937a3b	-0.01800262
82	0x3ce6734b	0.028131148
83	0x3ba8be97	0.005149673
84	0x3d514161	0.05108774
85	0x3d94ff7d	0.07275293
86	0x3ccc6323	0.024949616
87	0x3be80c70	0.007081561
88	0x3cb0250f	0.021502046
89	0xbdaed10a	-0.08535965
90	0xbd7f6f64	-0.06236209
91	0x3cd4c550	0.025972992
92	0xbbb5df9f	-0.0055503394
93	0xbc81f163	-0.015862172
94	0x3bc8f378	0.0061325394
95	0x3c8d2ab0	0.017232269
96	0x3cec7267	0.028863145
97	0xbd25a56b	-0.040440958
98	0xbb24e8cd	-0.0025163174
99	0x3dacf8b1	0.084458716
100	0xbd147f72	-0.036254354
101	0x3b42b03e	0.00297071
102	0x3c0ec553	0.008714038
103	0x3b49b3db	0.0030777368
104	0xbce6d6d1	-0.028178604
105	0xbd346cdf	-0.04404914
106	0x3da61dcc	0.08111152
107	0xbcc5616f	-0.024094312
108	0xbc581729	-0.013189116
109	0x3caa4abd	0.020787591
110	0xbaaf2e4e	-0.001336524
111	0x3c5361a5	0.012901698
112	0xbce667c1	-0.028125646
113	0x3c729161	0.014805169
114	0x3d439beb	0.047756117
115	0xbd9e4bb9	-0.07729287
116	0xbc288ee1	-0.010287971
117	0x3d6b6560	0.057469726
118	0x3afa8d4f	0.00191156
119	0xbb348a5b	-0.0027548287
120	0xbc9e1377	-0.019296391
121	0xbadffa0e	-0.0017088072
122	0xbbf2aee6	-0.0074061034
123	0xbd07b30d	-0.03312974
124	0xbb602e36	-0.0034207231
125	0x3b220f4f	0.0024728363
126	0xbc736edd	-0.014857975
127	0xb863276a	-5.4157725e-05
128	0xbb27102c	-0.0025491817
129	0xbce992ff	-0.028512476
130	0x3d0d6527	0.034520295
131	0xbcda22d9	-0.026627945
132	0x3cd443c6	0.025911223
133	0x3dd6c636	0.104870245
134	0x3dbb7f32	0.0915512
135	0xbbb23a94	-0.005439112
136	0xbc0bd921	-0.008535654
137	0xbd3735bf	-0.04472899
138	0xbc1e7b66	-0.009672975
139	0xbcb400e4	-0.021973081
140	0xbb9d7856	-0.004805605
141	0x3cc6bbec	0.02425953
142	0x3d808668	0.06275636
143	0x3b8ff4a0	0.0043931752
144	0x3c088a95	0.008333822
145	0xbc347906	-0.011015182
146	0x3d8a0a71	0.06740273
147	0xbc0472ff	-0.008084058
148	0x3d65004f	0.055908497
149	0xbbbee118	-0.005825173
150	0x3b745f69	0.0037288314
151	0xbcab35dc	-0.020899706
152	0x3d2dd515	0.04243954
153	0x3d2cda8f	0.04220062
154	0xbcb13406	-0.021631252
155	0xbd2ff355	-0.04295667
156	0x3da0e573	0.07856264
157	0xbcf7a243	-0.03022874
158	0xbcbc60b4	-0.02299533
159	0xbd0132f2	-0.031542726
160	0x3bb035df	0.0053775157
161	0xbbab41ca	-0.0052263485
162	0x3d0c65c4	0.03427674
163	0xbbc4cd0f	-0.00600589
164	0xbbb1642d	-0.005413553
165	0x3d326329	0.043551598
166	0x3d3f865b	0.04675899
167	0x3a36bc43	0.0006970802
168	0x3c486e14	0.012233276
169	0x3d3c02f5	0.045901258
170	0xbd4a2f4b	-0.04936151
171	0xbd4fca23	-0.050729882
172	0x3ceadfcb	0.028671166
173	0xbdf9fa52	-0.12205948
174	0x3d3583ce	0.044315152
175	0xbadef84e	-0.0017011256
176	0x3d11da02	0.0356083
177	0x3d608db6	0.054822646
178	0xbd544642	-0.051824816
179	0x3d493b0f	0.04912859
180	0x3db1aecc	0.08675918
181	0xbd0aca2b	-0.03388421
182	0xbc42cc88	-0.011889584
183	0xbc8cee48	-0.017203465
184	0x3c259593	0.010106462
185	0xbd82fbb0	-0.06395662
186	0x3d1aec29	0.037822876
187	0x3b8f6639	0.0043761996
188	0xbc53cd3a	-0.012927348
189	0x3d1ae0c9	0.037812028
190	0xbccf2a83	-0.025288826
191	0x3d556563	0.052098643
192	0x3d6679d9	0.056268547
193	0x3d8e3371	0.069434054
194	0xbd14d467	-0.036335375
195	0x3d0378d4	0.032097653
196	0x3d95e3fd	0.07318876
197	0x3ab5d998	0.0013874052
198	0x3cff06e7	0.031131221
199	0xbcce619f	-0.025193034
200	0xbba81738	-0.005129721
201	0xbaaf2885	-0.0013363516
202	0xbc42ac0a	-0.011881838
203	0x3d2a51ea	0.041582026
204	0xbcc45ef7	-0.023971064
205	0x3d45fe24	0.04833807
206	0xb9ee30fd	-0.00045431397
207	0xbb6cfe0f	-0.0036162173
208	0xbb2a04c2	-0.0025942777
209	0xbd5bc2a6	-0.053652428
210	0x3c8116e6	0.01575799
211	0x3d15003d	0.03637718
212	0x3b16031a	0.0022890032
213	0x3acb26ee	0.0015499273
214	0x3c28c545	0.010300939
215	0x3d03085a	0.031990387
216	0x3db0dc6f	0.08635794
217	0x3dc6272e	0.09675442
218	0x3cf46ff1	0.029838534
219	0x3a7566c6	0.0009361323
220	0xbd12ec31	-0.03586978
221	0xbc525afa	-0.012839073
222	0x3db96a18	0.09053439
223	0x3d0fe09c	0.035126314
224	0x3d29cf8e	0.041457705
225	0x39d1400f	0.00039911314
226	0x3c51789e	0.012785105
227	0xbd780b59	-0.060557697
228	0xbbf0895c	-0.0073405933
229	0xbbcddcd0	-0.0062824264
230	0x3cdca225	0.026932785
231	0xba1c9140	-0.00059725717
232	0x3bf0f275	0.007353122
233	0x3d4668d3	0.048439812
234	0xbd8c0a4a	-0.068379
235	0x3dc85e1a	0.097835734
236	0xbc9eb23c	-0.019372098
237	0xbdb7c7f5	-0.08973686
238	0x3bab3a10	0.0052254274
239	0x3dd2a563	0.10285451
240	0x3b4261e7	0.0029660405
241	0xbca491ed	-0.020089114
242	0x3bcbb932	0.0062171454
243	0x3bc17fc9	0.0059051258
244	0x3c6ec01f	0.014572172
245	0x3ca1b704	0.019740589
246	0x3943c8fe	0.00018671525
247	0xbc02d7a0	-0.007985979
248	0x3b3f164c	0.0029157577
249	0xbd0151cf	-0.03157216
250	0x3c45d399	0.012074375
251	0x3cbe5b58	0.023236915
252	0xba7711b4	-0.000942494
253	0x3c887098	0.016655251
254	0xbcbbaa08	-0.022908226
255	0x3b5426c5	0.0032371741

st_gcn_networks.2.gcn.conv.bias f4 [48]
0	0xbc1158b5	-0.008871247
1	0x3be02a24	0.006840961
2	0xbcc0c9c6	-0.023533713
3	0xba91b170	-0.0011115503
4	0xbc27e8aa	-0.0102483425
5	0xbd0cce25	-0.034376282
6	0x3d262a17	0.040567484
7	0xbc14eb83	-0.0090893535
8	0xbc065e01	-0.008201123
9	0xbc7d4edf	-0.015460699
10	0xbc6c6e32	-0.0144305695
11	0x3abd9bc6	0.001446598
12	0xbc1a0ef7	-0.009402982
13	0xbbf99165	-0.0076162093
14	0xbc67786e	-0.014127834
15	0x38fb0cd2	0.00011971001
16	0xbd89350a	-0.066995695
17	0xbc88f2a1	-0.016717257
18	0xbb44d965	-0.0030036804
19	0x3b9651ee	0.0045874035
20	0x3c5efe9e	0.01361051
21	0xbd1a5f2f	-0.03768843
22	0xbc64e3ca	-0.013970325
23	0xbc213f62	-0.009841772
24	0xbd91621e	-0.070987925
25	0xbc563ec2	-0.013076486
26	0xbcb2192e	-0.021740522
27	0xbd11ce63	-0.035597216
28	0x3d0ccb87	0.034373786
29	0x3d50f5b2	0.051015563
30	0xbc9cc0ca	-0.019134898
31	0xbbc52433	-0.006016278
32	0x3c107f07	0.008819348
33	0x3c74a5fc	0.014932152
34	0xbb6cdfb1	-0.0036144073
35	0x3c9f07ea	0.019412953
36	0xbc2665f3	-0.0101561425
37	0xbbb5e696	-0.0055511696
38	0xbbee144d	-0.0072656036
39	0xbc70e5c2	-0.014703216
40	0xbcc86196	-0.024460595
41	0x3b34d794	0.0027594315
42	0xbc564df9	-0.013080114
43	0xbd0377fe	-0.032096855
44	0x3d1d0e16	0.03834351
45	0xbb90e8e1	-0.0044222926
46	0x3c892327	0.016740395
47	0x3bdd5541	0.006754548

st_gcn_networks.2.tcn.0.weight f4 [16]
0	0x3eb205c7	0.34770033
1	0x3e81b924	0.25336564
2	0x3e93f6b8	0.2889917
3	0x3ea07756	0.31341046
4	0x3e0ab5dd	0.13545938
5	0x3eb8a95d	0.36066714
6	0x3e9d3353	0.3070322
7	0x3e82e10c	0.25562322
8	0x3e945434	0.28970492
9	0x3e56df54	0.2098363
10	0x3e8252c5	0.25453773
11	0x3e95a242	0.29225355
12	0x3e5c66f8	0.21523654
13	0x3ea08788	0.31353402
14	0x3e521a96	0.20517954
15	0x3e28b779	0.1647624

st_gcn_networks.2.tcn.0.bias f4 [16]
0	0xbb729450	-0.003701467
1	0x3bdf58c7	0.006816003
2	0xbaefcad3	-0.0018294699
3	0xbbb51fbf	-0.005527466
4	0x3bf13509	0.0073610586
5	0xbc174215	-0.009232064
6	0xbc13c14e	-0.009018255
7	0xbc7b0944	-0.015322033
8	0xbc7e023d	-0.015503463
9	0xbcaa11c8	-0.020760432
10	0xbbf987c9	-0.007615064
11	0xbc42c4c0	-0.011887729
12	0xbbe1379b	-0.0068730838
13	0xbd37b286	-0.044847988
14	0x3b0a8ebc	0.0021142205
15	0xbca03b05	-0.019559393

st_gcn_networks.2.tcn.0.running_mean f4 [16]
0	0xbb81a58d	-0.003956503
1	0xbab98294	-0.0014153295
2	0xbafcfe58	-0.0019301875
3	0x3a89148d	0.0010458395
4	0x3a1ac033	0.00059032737
5	0xbc74062f	-0.014894052
6	0xbad3c1bf	-0.0016155763
7	0xbb2572be	-0.0025245394
8	0xbb33068d	-0.0027317137
9	0x37f1c693	2.8821907e-05
10	0xbace55db	-0.001574214
11	0xbb121279	-0.0022288843
12	0x3be485ed	0.006973973
13	0x3bbd8ec8	0.005784843
14	0xba9e6765	-0.0012085257
15	0xb896701b	-7.173439e-05

st_gcn_networks.2.tcn.0.running_var f4 [16]
0	0x37f57551	2.9260906e-05
1	0x38566ce7	5.1123e-05
2	0x37c1eb46	2.311695e-05
3	0x389e1686	7.5382224e-05
4	0x37ef4372	2.8522427e-05
5	0x395382b3	0.00020171217
6	0x3810b988	3.4505065e-05
7	0x37bd0f85	2.2537783e-05
8	0x38533a73	5.0360755e-05
9	0x3804905e	3.1605705e-05
10	0x38011251	3.0773055e-05
11	0x383b8ffe	4.4718377e-05
12	0x37855103	1.589256e-05
13	0x384c1d46	4.8664653e-05
14	0x37a39737	1.950153e-05
15	0x379f307b	1.8976853e-05
