weights_arm/27.pt (torch, 70926 bytes, 80 tensors)

A f4 [3, 9, 9]
0	0x3f000000	0.5
1	0x00000000	0.0
2	0x00000000	0.0
3	0x00000000	0.0
4	0x00000000	0.0
5	0x00000000	0.0
6	0x00000000	0.0
7	0x00000000	0.0
8	0x00000000	0.0
9	0x00000000	0.0
10	0x3e4ccccd	0.2
11	0x00000000	0.0
12	0x00000000	0.0
13	0x00000000	0.0
14	0x00000000	0.0
15	0x00000000	0.0
16	0x00000000	0.0
17	0x00000000	0.0
18	0x00000000	0.0
19	0x00000000	0.0
20	0x3eaaaaab	0.33333334
21	0x00000000	0.0
22	0x00000000	0.0
23	0x00000000	0.0
24	0x00000000	0.0
25	0x00000000	0.0
26	0x00000000	0.0
27	0x00000000	0.0
28	0x00000000	0.0
29	0x00000000	0.0
30	0x3eaaaaab	0.33333334
31	0x00000000	0.0
32	0x00000000	0.0
33	0x00000000	0.0
34	0x00000000	0.0
35	0x00000000	0.0
36	0x00000000	0.0
37	0x00000000	0.0
38	0x00000000	0.0
39	0x00000000	0.0
40	0x3f000000	0.5
41	0x00000000	0.0
42	0x00000000	0.0
43	0x00000000	0.0
44	0x00000000	0.0
45	0x00000000	0.0
46	0x00000000	0.0
47	0x00000000	0.0
48	0x00000000	0.0
49	0x00000000	0.0
50	0x3eaaaaab	0.33333334
51	0x00000000	0.0
52	0x00000000	0.0
53	0x00000000	0.0
54	0x00000000	0.0
55	0x00000000	0.0
56	0x00000000	0.0
57	0x00000000	0.0
58	0x00000000	0.0
59	0x00000000	0.0
60	0x3eaaaaab	0.33333334
61	0x00000000	0.0
62	0x00000000	0.0
63	0x00000000	0.0
64	0x00000000	0.0
65	0x00000000	0.0
66	0x00000000	0.0
67	0x00000000	0.0
68	0x00000000	0.0
69	0x00000000	0.0
70	0x3f000000	0.5
71	0x00000000	0.0
72	0x00000000	0.0
73	0x00000000	0.0
74	0x00000000	0.0
75	0x00000000	0.0
76	0x00000000	0.0
77	0x00000000	0.0
78	0x00000000	0.0
79	0x00000000	0.0
80	0x3f000000	0.5
81	0x00000000	0.0
82	0x3e4ccccd	0.2
83	0x00000000	0.0
84	0x00000000	0.0
85	0x00000000	0.0
86	0x00000000	0.0
87	0x00000000	0.0
88	0x00000000	0.0
89	0x00000000	0.0
90	0x00000000	0.0
91	0x00000000	0.0
92	0x00000000	0.0
93	0x00000000	0.0
94	0x00000000	0.0
95	0x00000000	0.0
96	0x00000000	0.0
97	0x00000000	0.0
98	0x00000000	0.0
99	0x00000000	0.0
100	0x3e4ccccd	0.2
101	0x00000000	0.0
102	0x00000000	0.0
103	0x00000000	0.0
104	0x00000000	0.0
105	0x00000000	0.0
106	0x00000000	0.0
107	0x00000000	0.0
108	0x00000000	0.0
109	0x00000000	0.0
110	0x3eaaaaab	0.33333334
111	0x00000000	0.0
112	0x3f000000	0.5
113	0x00000000	0.0
114	0x00000000	0.0
115	0x00000000	0.0
116	0x00000000	0.0
117	0x00000000	0.0
118	0x00000000	0.0
119	0x00000000	0.0
120	0x3eaaaaab	0.33333334
121	0x00000000	0.0
122	0x00000000	0.0
123	0x00000000	0.0
124	0x00000000	0.0
125	0x00000000	0.0
126	0x00000000	0.0
127	0x3e4ccccd	0.2
128	0x00000000	0.0
129	0x00000000	0.0
130	0x00000000	0.0
131	0x00000000	0.0
132	0x00000000	0.0
133	0x00000000	0.0
134	0x00000000	0.0
135	0x00000000	0.0
136	0x00000000	0.0
137	0x00000000	0.0
138	0x00000000	0.0
139	0x00000000	0.0
140	0x3eaaaaab	0.33333334
141	0x00000000	0.0
142	0x3f000000	0.5
143	0x00000000	0.0
144	0x00000000	0.0
145	0x00000000	0.0
146	0x00000000	0.0
147	0x00000000	0.0
148	0x00000000	0.0
149	0x00000000	0.0
150	0x3eaaaaab	0.33333334
151	0x00000000	0.0
152	0x00000000	0.0
153	0x00000000	0.0
154	0x3e4ccccd	0.2
155	0x00000000	0.0
156	0x00000000	0.0
157	0x00000000	0.0
158	0x00000000	0.0
159	0x00000000	0.0
160	0x00000000	0.0
161	0x00000000	0.0
162	0x00000000	0.0
163	0x00000000	0.0
164	0x00000000	0.0
165	0x00000000	0.0
166	0x00000000	0.0
167	0x00000000	0.0
168	0x00000000	0.0
169	0x00000000	0.0
170	0x00000000	0.0
171	0x3f000000	0.5
172	0x00000000	0.0
173	0x3eaaaaab	0.33333334
174	0x00000000	0.0
175	0x00000000	0.0
176	0x3eaaaaab	0.33333334
177	0x00000000	0.0
178	0x00000000	0.0
179	0x3f000000	0.5
180	0x00000000	0.0
181	0x00000000	0.0
182	0x00000000	0.0
183	0x3eaaaaab	0.33333334
184	0x00000000	0.0
185	0x00000000	0.0
186	0x00000000	0.0
187	0x00000000	0.0
188	0x00000000	0.0
189	0x00000000	0.0
190	0x00000000	0.0
191	0x00000000	0.0
192	0x00000000	0.0
193	0x00000000	0.0
194	0x00000000	0.0
195	0x00000000	0.0
196	0x00000000	0.0
197	0x00000000	0.0
198	0x00000000	0.0
199	0x00000000	0.0
200	0x00000000	0.0
201	0x00000000	0.0
202	0x00000000	0.0
203	0x00000000	0.0
204	0x00000000	0.0
205	0x00000000	0.0
206	0x00000000	0.0
207	0x00000000	0.0
208	0x00000000	0.0
209	0x00000000	0.0
210	0x00000000	0.0
211	0x00000000	0.0
212	0x00000000	0.0
213	0x3eaaaaab	0.33333334
214	0x00000000	0.0
215	0x00000000	0.0
216	0x00000000	0.0
217	0x00000000	0.0
218	0x00000000	0.0
219	0x00000000	0.0
220	0x00000000	0.0
221	0x00000000	0.0
222	0x00000000	0.0
223	0x00000000	0.0
224	0x00000000	0.0
225	0x00000000	0.0
226	0x00000000	0.0
227	0x00000000	0.0
228	0x00000000	0.0
229	0x00000000	0.0
230	0x00000000	0.0
231	0x00000000	0.0
232	0x00000000	0.0
233	0x00000000	0.0
234	0x00000000	0.0
235	0x00000000	0.0
236	0x00000000	0.0
237	0x00000000	0.0
238	0x00000000	0.0
239	0x00000000	0.0
240	0x00000000	0.0
241	0x00000000	0.0
242	0x00000000	0.0

data_bn.weight f4 [27]
0	0x3e8eb41b	0.27871785
1	0x3ea8658e	0.3288998
2	0x3e6fe714	0.23427993
3	0x3ec37c0f	0.38180587
4	0x3eba88e8	0.36432576
5	0x3e9e30d5	0.3089663
6	0x3ebe9a17	0.37226936
7	0x3e95c65d	0.29252902
8	0x3eb39388	0.35073495
9	0x3f15af03	0.5847017
10	0x3f1e869f	0.61924165
11	0x3efa727e	0.48915476
12	0x3f27959d	0.65462667
13	0x3f164cff	0.58711237
14	0x3efcd65f	0.49382302
15	0x3ec46cf6	0.3836438
16	0x3ea756ca	0.32683402
17	0x3ea850be	0.328741
18	0x3f12e887	0.5738606
19	0x3f0e90b1	0.5568953
20	0x3eec8f1b	0.4620293
21	0x3f18befd	0.59666425
22	0x3f112471	0.5669623
23	0x3ef22f71	0.4730182
24	0x3ea41c6e	0.3205294
25	0x3e88c7bb	0.26714882
26	0x3e8371ca	0.25672752

data_bn.bias f4 [27]
0	0x3c773e8e	0.015090598
1	0x3c41b707	0.011823422
2	0xbbec1f22	-0.0072058598
3	0xbba70858	-0.00509743
4	0x3a8591ed	0.0010190584
5	0x3a1f29ae	0.00060715794
6	0x3cc0e841	0.023548247
7	0xbb314690	-0.0027050115
8	0x3b9f73e2	0.004866109
9	0xbcec9de1	-0.028883876
10	0xbc3b3a1f	-0.011427431
11	0x3c8159ae	0.015789833
12	0xbba4ccb2	-0.0050292844
13	0x3a39d6b7	0.0007089185
14	0xbc60c8ca	-0.013719747
15	0x3caa7bf3	0.020811057
16	0x3cf6f246	0.030144822
17	0x3cdf0651	0.027224692
18	0x3cacc23e	0.021088716
19	0x3bad1678	0.0052822195
20	0xbc92490a	-0.017857093
21	0xbcabb210	-0.02095893
22	0xbc33bf84	-0.010970954
23	0x3c71b901	0.014753581
24	0x3c9f0cc2	0.019415263
25	0xbb1379cb	-0.0022503014
26	0xbba8b372	-0.0051483447

data_bn.running_mean f4 [27]
0	0x42c7061a	99.51192
1	0x42ae09b3	87.01894
2	0x41b232f9	22.274889
3	0x42db3e14	109.62125
4	0x42bd22c7	94.567924
5	0x41bf2218	23.891647
6	0x42c535cd	98.60508
7	0x42b28c63	89.27419
8	0x41b6d9ca	22.856342
9	0x42dd9f10	110.81067
10	0x42b6da05	91.42582
11	0x41b88fb0	23.07016
12	0x42ede007	118.93755
13	0x42b0e360	88.44409
14	0x41abc1a1	21.469545
15	0x42f0e9c7	120.4566
16	0x42c7ceec	99.904144
17	0x41c7645c	24.924004
18	0x4310f542	144.95804
19	0x42d724ad	107.57163
20	0x41d37a1a	26.43462
21	0x430ec006	142.75009
22	0x42cc3dd6	102.12077
23	0x41cc6315	25.54838
24	0x42e9e515	116.947426
25	0x42d58c06	106.77348
26	0x41d25965	26.29365

data_bn.running_var f4 [27]
0	0x464681a1	12704.407
1	0x46b634cc	23322.398
2	0x45e7309b	7398.0757
3	0x464d8279	13152.618
4	0x46c70c28	25478.078
5	0x45fff31a	8190.3877
6	0x461e6816	10138.021
7	0x46ae09a9	22276.83
8	0x45e6e06e	7388.0537
9	0x464ceff9	13115.993
10	0x46a340dc	20896.43
11	0x45dfdb39	7163.403
12	0x4667ef9b	14843.901
13	0x4696e2ed	19313.463
14	0x45ca3446	6470.534
15	0x4686f638	17275.11
16	0x46e28aaf	28997.342
17	0x460d3775	9037.864
18	0x46b41818	23052.047
19	0x46ea59e0	29996.938
20	0x46157b5f	9566.843
21	0x46a996c5	21707.385
22	0x46cd7ef4	26303.477
23	0x46081dc8	8711.445
24	0x4691317c	18584.742
25	0x46d4ed6e	27254.715
26	0x460e0979	9090.368

st_gcn_networks.0.gcn.conv.weight f4 [24, 3, 1, 1]
0	0xbdb996e7	-0.090619855
1	0xbc524733	-0.012834358
2	0xbb3bedf7	-0.0028675774
3	0x3e0af651	0.13570525
4	0xbdc4fcf4	-0.096185595
5	0x3d4caebe	0.049971335
6	0x3e13beb0	0.1442821
7	0xbc025659	-0.007955157
8	0x3d58fb54	0.05297406
9	0xbd11a6bd	-0.035559405
10	0xbcf3eb94	-0.029775418
11	0x3e4d12d3	0.20026712
12	0x3d27d496	0.040974222
13	0xbd36197d	-0.0444579
14	0xbea3dfe5	-0.32006755
15	0x3e66ab3e	0.22526261
16	0x3ec20449	0.37893894
17	0x3d4932e2	0.04912079
18	0xbe814ee5	-0.25255504
19	0x3e8de4d9	0.2771366
20	0x3df93ad8	0.12169427
21	0xbe50082d	-0.20315619
22	0x3d976c7f	0.07393741
23	0xbe11a065	-0.14221342
24	0xbd3b6e46	-0.04575946
25	0xbde35c41	-0.111015804
26	0xbd4b27ee	-0.049598627
27	0xbe960962	-0.29304034
28	0xbe267855	-0.1625684
29	0x3d4327a2	0.04764522
30	0x3e6d20a3	0.23156981
31	0xbcb032fc	-0.021508686
32	0xbc89cc0f	-0.016820936
33	0xbe3a7bea	-0.18211332
34	0xbe179b0c	-0.1480524
35	0x3d669d37	0.056302276
36	0x3a1fab57	0.00060909
37	0xbc972294	-0.018449105
38	0x3e8fe668	0.28105474
39	0xbd41ea5f	-0.047342654
40	0xbe819ca9	-0.25314835
41	0xbe3a0f9b	-0.18170016
42	0x3d1d529b	0.038408857
43	0x3d690046	0.056885026
44	0x3d9410c4	0.0722976
45	0x3e261a33	0.16220932
46	0xbdf69d21	-0.12041689
47	0x3e3b7a4f	0.18308376
48	0x3be7abb1	0.0070700278
49	0x3cf37280	0.029717684
50	0xbc98a40b	-0.01863291
51	0xbd514f9e	-0.05110132
52	0xbd062231	-0.03274745
53	0x3b97c492	0.0046315873
54	0x3e48b3a2	0.19599774
55	0x3c5bd4dc	0.013417449
56	0x3d899c4e	0.06719266
57	0xbe07ab3a	-0.13248911
58	0x3b53504c	0.0032243906
59	0xb8b3f12b	-8.580306e-05
60	0xbe41170b	-0.18856446
61	0xbd4bad41	-0.049725775
62	0x3c6d0f34	0.014468957
63	0x3c561da8	0.013068594
64	0xbd1b749e	-0.03795301
65	0x3e1ea61a	0.1549305
66	0x3dc220ae	0.094788894
67	0xbddbe025	-0.107361116
68	0x3d197644	0.037466303
69	0xbe12bb3e	-0.1432924
70	0x3e4b8ba7	0.19877492
71	0x3d6a78fe	0.057244293

st_gcn_networks.0.gcn.conv.bias f4 [24]
0	0xbbfd3245	-0.00772694
1	0x3db49a33	0.08818474
2	0x3e17fef9	0.14843358
3	0x3d8dfd61	0.06933094
4	0xbc6b6b15	-0.014368792
5	0xbe59400a	-0.21215835
6	0x3c24f46d	0.010068041
7	0x3e496fc4	0.19671541
8	0xbe086a4c	-0.13321799
9	0x3c8a3028	0.016868666
10	0x3dd423c9	0.10358388
11	0xbdabe764	-0.08393744
12	0x3d1cc979	0.038278077
13	0x3e2e54f3	0.17024593
14	0x3e8888fa	0.26667005
15	0x3ca59b28	0.020215586
16	0xbcf43c42	-0.02981389
17	0xbe621966	-0.22080001
18	0x3d44a90b	0.048012774
19	0xbc8b9eae	-0.017043438
20	0x3daf5fb6	0.08563177
21	0x3cc4cd03	0.024023538
22	0x3c00ee8d	0.007869375
23	0xbc8cf93f	-0.017208694

st_gcn_networks.0.tcn.0.weight f4 [8]
0	0x3ea73bec	0.32662904
1	0x3f028e03	0.5099794
2	0x3f07377e	0.5281905
3	0x3eff2f5e	0.49840826
4	0x3ec710ba	0.3887995
5	0x3f082e72	0.5319587
6	0x3f035c34	0.51312566
7	0x3ef1849c	0.47171485

st_gcn_networks.0.tcn.0.bias f4 [8]
0	0x3c847660	0.016169727
1	0x3ab11b44	0.0013512154
2	0xbc445d26	-0.011985099
3	0xbbfdef10	-0.0077494457
4	0xbc202569	-0.009774544
5	0xbb5a6db9	-0.003332956
6	0x3cc2eee6	0.023795556
7	0xbc68b8a7	-0.014204181

st_gcn_networks.0.tcn.0.running_mean f4 [8]
0	0xbccfd6a1	-0.025370898
1	0xb90165d8	-0.00012340338
2	0x3d483230	0.048875988
3	0xbae77e11	-0.0017661472
4	0x3c33ea50	0.010981157
5	0xbc2b1424	-0.010441814
6	0x3d38c446	0.045109056
7	0x3d1ef5a1	0.03880847

st_gcn_networks.0.tcn.0.running_var f4 [8]
0	0x3a3311e3	0.00068309734
1	0x3acf428e	0.0015812682
2	0x3b026211	0.0019894878
3	0x3ab60c5d	0.0013889183
4	0x398380ba	0.00025082176
5	0x3ab24ac5	0.0013602605
6	0x3b05be09	0.002040746
7	0x39e88fbb	0.00044357576

st_gcn_networks.0.tcn.2.weight f4 [8, 8, 9, 1]
0	0x3c3b63fe	0.011437414
1	0x3cc15eda	0.023604799
2	0xbaec2692	-0.0018016866
3	0x3c5f31ce	0.013622714
4	0x3c6033d5	0.013684233
5	0xbc666eeb	-0.014064531
6	0x3bef739f	0.0073074843
7	0x3c41815f	0.01181063
8	0x3cae5870	0.021282405
9	0x3d2e3230	0.04252833
10	0xbd5d19f7	-0.05397984
11	0xbb9d361e	-0.004797711
12	0xbbb8e672	-0.0056427056
13	0xbcee08f3	-0.029057002
14	0x3d537a4d	0.051630307
15	0x3c8d1f08	0.01722671
16	0xbc084645	-0.008317535
17	0xbd4ef46e	-0.050526075
18	0x3d6b790c	0.057488486
19	0x3d95ead4	0.073201805
20	0x3cc1c287	0.023652328
21	0x3d53a1a6	0.05166783
22	0xbced904a	-0.028999466
23	0x3d93320e	0.071872815
24	0xbd491c0e	-0.04909902
25	0x3d4159b8	0.047204703
26	0xbd82a987	-0.06379991
27	0x3bc7c83a	0.006096867
28	0xbcfa47c5	-0.0305518
29	0x3d708e04	0.058729187
30	0xbd070ccc	-0.03297119
31	0xbc9c0f52	-0.019050274
32	0x3d5a11bc	0.05323957
33	0x3cf8d378	0.030374274
34	0x3d0ac7a9	0.033881817
35	0xbc972ea6	-0.01845486
36	0xbbbf734a	-0.005842601
37	0xbd057d0c	-0.032589957
38	0xba9ce23b	-0.0011969277
39	0xbce7e2ac	-0.028306328
40	0xbd104138	-0.035218447
41	0x3b7886fd	0.0037922256
42	0x3cb3f466	0.021967124
43	0xbd16169f	-0.036642667
44	0xbc159ed1	-0.009132103
45	0xbd82554b	-0.063639246
46	0x3baa293f	0.005192905
47	0x3d28aad7	0.04117855
48	0xbb49460b	-0.0030711915
49	0x3d324be8	0.04352942
50	0x3c7ac237	0.0153050935
51	0x3d128876	0.03577467
52	0x3c00da2b	0.007864515
53	0x3d2ece5d	0.042677272
54	0x3d0d8eca	0.034560002
55	0x3d32b773	0.043631982
56	0x3b330728	0.0027317498
57	0xbd21d17a	-0.039506413
58	0xbd0fd07e	-0.035110943
59	0x3ae23856	0.0017259221
60	0xbd2a064e	-0.04150992
61	0x3d38e4aa	0.045139946
62	0xbd374d1f	-0.044751283
63	0xbcd5a808	-0.0260811
64	0xbda6bff8	-0.08142084
65	0xbc04d093	-0.008106369
66	0xbd92f1b3	-0.07175007
67	0xbc04aca4	-0.008097801
68	0xbd6bcdbc	-0.05756925
69	0xbc7514c5	-0.014958565
70	0xbb8dbedf	-0.004325732
71	0xbaacd16e	-0.0013184974
72	0xbc409d19	-0.011756205
73	0xbbe28ab1	-0.006913506
74	0xbbe0727d	-0.0068495856
75	0x3bcdfc54	0.0062861834
76	0x3cdcb838	0.026943311
77	0xbcdef778	-0.027217612
78	0x3cbf7164	0.023369499
79	0x3b4e0585	0.0031436395
80	0xbc549837	-0.012975744
81	0x3c92d4ce	0.017923739
82	0x3d099cd3	0.033596825
83	0x3d1026e0	0.035193324
84	0x3c6807be	0.014162002
85	0x3c04d75b	0.008107985
86	0x3c8fc002	0.017547611
87	0x3d085623	0.03328527
88	0x3b35e2e8	0.0027753655
89	0x3c94839a	0.018129159
90	0x3cfa0f14	0.030524768
91	0x3d5d96e9	0.054098997
92	0x3d839017	0.06423967
93	0xbadd8c8c	-0.0016902848
94	0xbc44ddb0	-0.012015745
95	0xbd207c8b	-0.039181273
96	0x3b4dc4f1	0.0031397904
97	0x3c9fa100	0.01948595
98	0xbbe4bb82	-0.0069803605
99	0x3d561bec	0.052272722
100	0xbc8ea6f0	-0.017413586
101	0x3ce24596	0.027621072
102	0x3c9c7e96	0.01910333
103	0x3d38dd55	0.045132954
104	0x3d013b7e	0.031550877
105	0x3d18568f	0.037191924
106	0xbca464f7	-0.020067675
107	0xbc7b38ac	-0.015333336
108	0x3ae5566b	0.0017497068
109	0xbb8bf248	-0.0042708255
110	0x3c9bff3b	0.019042602
111	0x3ce55934	0.027996637
112	0x3d5d80ee	0.054078035
113	0xbd2b8a03	-0.041879665
114	0x3d2cf091	0.04222161
115	0x3d68f40d	0.05687337
116	0x3d7a9074	0.061172917
117	0xbc922079	-0.01783775
118	0x3d2b9bbc	0.041896567
119	0x3c85cfa7	0.016334368
120	0xbcc6fdfe	-0.024291035
121	0x3cc90583	0.024538761
122	0xbbb352e9	-0.00547253
123	0xbd2a2932	-0.041543193
124	0xbc9ad901	-0.018902304
125	0xbcc355f8	-0.023844704
126	0xbd1fc9a5	-0.039010663
127	0xbd044862	-0.032295592
128	0xbd28d545	-0.041219015
129	0xbd8470b9	-0.06466813
130	0xbd70b34d	-0.058764745
131	0x3d23636d	0.03988974
132	0x3c3e87f3	0.0116290925
133	0xbd359bae	-0.04433792
134	0x3d67a253	0.05655129
135	0x3d009a7a	0.03139732
136	0xbd8d778e	-0.06907569
137	0xbb9526e9	-0.0045517576
138	0x3c3bdff9	0.011466973
139	0x3d14622e	0.036226444
140	0xbd21c7e0	-0.039497256
141	0x3d1ee4e7	0.038792517
142	0xbd22e67d	-0.039770592
143	0xbd0447ad	-0.032294918
144	0xbcc704ea	-0.024294335
145	0xbc05bfd7	-0.008163414
146	0xbd06207e	-0.03274583
147	0xbc4a7a4f	-0.012358262
148	0x3b5c50ad	0.0033617422
149	0xbd2caaf9	-0.04215524
150	0xbc1f3f7d	-0.009719727
151	0xbcf9f65a	-0.030512977
152	0xbca918ed	-0.020641768
153	0xbca7eb2e	-0.020497885
154	0xbc955fda	-0.018234182
155	0xbc8fbe34	-0.01754675
156	0x3cfdedb1	0.03099713
157	0xbc1683fc	-0.009186741
158	0xbc3749f9	-0.01118707
159	0x3cdea7c1	0.0271796
160	0xbd04db9d	-0.032436002
161	0x3c125dea	0.008933524
162	0x3d4b1659	0.04958186
163	0xb88b1c22	-6.633277e-05
164	0xbc1264ea	-0.008935193
165	0xbda6e1aa	-0.08148511
166	0x3d6587b8	0.056037635
167	0xbcf7a232	-0.030228708
168	0x3d8a819c	0.06763002
169	0xbd752be5	-0.059856314
170	0x3d2d89f0	0.042367876
171	0x3caf1f76	0.021377306
172	0xbd860ebf	-0.06545781
173	0xbd56019e	-0.052247636
174	0x3cdced09	0.026968496
175	0x3d16b89d	0.036797155
176	0xbd5f6e14	-0.054548338
177	0x3c8946c3	0.016757375
178	0xbd1177c5	-0.03551461
179	0x3d0501bb	0.032472353
180	0xbc1800fb	-0.0092775775
181	0x3c38ecbe	0.0112869125
182	0x3d210386	0.03931
183	0x3c948e3f	0.018134234
184	0xbd407579	-0.04698703
185	0xbbfd3c0e	-0.0077281063
186	0xbc01adf5	-0.00791501
187	0xbc8f5c08	-0.017499939
188	0x3d1749d8	0.036935657
189	0xbd0707d6	-0.032966457
190	0xbd718f0a	-0.058974303
191	0x3d9b2e57	0.07577198
192	0xbcc2f1a5	-0.023796866
193	0xbd398bf3	-0.04529948
194	0xbc4bea94	-0.0124460645
195	0x3d778f2b	0.06043927
196	0xbd138cec	-0.036023065
197	0x3d816a1d	0.063190676
198	0x3d4625cd	0.048375893
199	0xbd0b02e6	-0.03393831
200	0xbdaafb0d	-0.083486654
201	0x3d603cc6	0.054745458
202	0x3d927955	0.071520485
203	0x3c9c28b4	0.019062378
204	0xbcd5ea62	-0.026112739
205	0x3d32ae8c	0.043623492
206	0x3d80fcb6	0.06298201
207	0xbd93bdc0	-0.07213926
208	0xbcdbfe37	-0.026854618
209	0xbd5024e0	-0.050816417
210	0x3d2e4956	0.042550407
211	0xbbedb294	-0.007253954
212	0x3d445617	0.047933664
213	0xbd2e9b02	-0.042628296
214	0xbd4939f3	-0.04912753
215	0xbbaa2896	-0.0051928265
216	0xbbb53fcd	-0.0055312873
217	0x3bb3f025	0.005491274
218	0x3cea0f5f	0.028571783
219	0x3c7d4e86	0.015460616
220	0x3c4ee83b	0.01262861
221	0xbaea8ea9	-0.0017895299
222	0x3bba020b	0.005676513
223	0x3bf6a24f	0.007526673
224	0x3bd856f4	0.0066021625
225	0x3c2d57e9	0.010580041
226	0x3cb7041f	0.022340832
227	0xbcb70c10	-0.022344619
228	0xbc4f2c75	-0.012644877
229	0x3c99162d	0.018687332
230	0x3cf05c96	0.029341023
231	0x3d14dd4f	0.03634387
232	0xbc866c9f	-0.016409216
233	0x3b23c7f7	0.0024991015
234	0xbbf02110	-0.00732816
235	0x3bddf5c1	0.006773681
236	0xbcc68e6d	-0.024237836
237	0xbc6cc972	-0.014452325
238	0x3b09d0f0	0.0021029077
239	0xbc78bb47	-0.015181369
240	0xb9e21e36	-0.00043128588
241	0xbccc80e7	-0.02496381
242	0xbd170542	-0.03687025
243	0x3cefa445	0.029253135
244	0xbcf87745	-0.03033031
245	0xbd2063c1	-0.039157633
246	0xbd2071a2	-0.03917087
247	0xbd21e8a9	-0.039528523
248	0xbb44ed46	-0.0030048653
249	0xbcb0c634	-0.021578886
250	0xbb6c7b26	-0.0036084144
251	0x3c5b2d48	0.013377495
252	0x3ba9881b	0.0051736957
253	0xbcb9b228	-0.02266796
254	0xbb02ee38	-0.0019978415
255	0x3c953b11	0.018216642

st_gcn_networks.0.tcn.2.bias f4 [8]
0	0xb6f027a0	-7.1571703e-06
1	0x36838eb3	3.9207166e-06
2	0x371832a0	9.071693e-06
3	0xb3b5962c	-8.4557854e-08
4	0xb734f03e	-1.0784772e-05
5	0xb72a2bb4	-1.0142965e-05
6	0xb6578fcd	-3.21212e-06
7	0x37848b99	1.5800631e-05

st_gcn_networks.0.tcn.3.weight f4 [8]
0	0x3ef5c109	0.47998837
1	0x3eeac2d3	0.45851764
2	0x3edaaa1c	0.42707908
3	0x3e9c6223	0.30543622
4	0x3eb67d30	0.35642385
5	0x3efe7f46	0.49706477
6	0x3f02b733	0.5106079
7	0x3eebb3b7	0.4603555

st_gcn_networks.0.tcn.3.bias f4 [8]
0	0xbca7b83d	-0.020473594
1	0x3c2523f3	0.010079372
2	0x3c057dd9	0.00814768
3	0x3c1022d9	0.008797371
4	0x39e64b7e	0.00043925265
5	0x3b761757	0.0037550533
6	0x3c8233b3	0.015893793
7	0x3c103340	0.008801281

st_gcn_networks.0.tcn.3.running_mean f4 [8]
0	0x3c49b44e	0.012311054
1	0x3d79ddc2	0.0610025
2	0xbd178103	-0.03698827
3	0xbd03d544	-0.032185808
4	0x3cb88b99	0.022527503
5	0x3cb93bb9	0.022611486
6	0xbd37d8c3	-0.044884454
7	0x3c3771d8	0.011196576

st_gcn_networks.0.tcn.3.running_var f4 [8]
0	0x3c5a40b2	0.013321089
1	0x3c35770c	0.011075746
2	0x3c1b6c42	0.00948626
3	0x3b3de841	0.0028977545
4	0x3b9eca8a	0.004845922
5	0x3c264751	0.010148839
6	0x3c7535f5	0.014966478
7	0x3c1fd52d	0.009755415

st_gcn_networks.1.gcn.conv.weight f4 [24, 8, 1, 1]
0	0x3b49475b	0.0030712697
1	0xbd47d9ea	-0.048791803
2	0x3d60e383	0.054904472
3	0x3cfa1caa	0.030531246
4	0xbc179a2c	-0.009253066
5	0xbd12b595	-0.0358177
6	0x3cc56f47	0.024100913
7	0x3d8ed571	0.069743045
8	0x3c1f2f51	0.009715871
9	0xbc85254a	-0.016253132
10	0x3db7e180	0.089785576
11	0xbc3de8e8	-0.011591174
12	0x3d4086e4	0.04700364
13	0xbc86bd93	-0.016447818
14	0x3da0e9ea	0.078571156
15	0x3c3f5641	0.011678279
16	0x3db8cd94	0.09023586
17	0xbd844d35	-0.064600386
18	0xbcf699f2	-0.030102704
19	0x3d3e5c96	0.046475016
20	0x3dccce35	0.10000268
21	0x3dc0b472	0.09409417
22	0xbccd6893	-0.025074279
23	0xbcf7483a	-0.030185807
24	0x3d017e84	0.031614795
25	0xbd6a8ec8	-0.057265073
26	0xbd6e660a	-0.05820278
27	0xbd48dc4d	-0.04903822
28	0xbdc34e75	-0.09536449
29	0xbdc3bc2e	-0.09557377
30	0x3d1809a7	0.03711858
31	0xbd89a7ba	-0.067214444
32	0xbcd844e3	-0.026400035
33	0xbc40b351	-0.011761502
34	0x3d6d26da	0.05789838
35	0xbc392f72	-0.011302816
36	0x3b0ac63d	0.0021175288
37	0x3c84b260	0.016198337
38	0x3d81d0cd	0.06338654
39	0xbba65205	-0.0050756955
40	0x3ca71414	0.020395316
41	0xbdf5db72	-0.120047465
42	0x3d44a610	0.048009932
43	0xbbdcfc30	-0.0067439303
44	0xbb6087ba	-0.0034260587
45	0x3b54377f	0.003238171
46	0xbdc265f1	-0.094921
47	0x3c43d045	0.011951511
48	0xbd0fd64f	-0.03511649
49	0xbd81c0b5	-0.06335584
50	0x3db21a70	0.08696449
51	0x3cf9b9d0	0.03048411
52	0x3d8d7f5c	0.069090575
53	0x3bcdcc6b	0.006280472
54	0xbd37377a	-0.04473064
55	0xbbb31f1c	-0.005466355
56	0xbc4e5b63	-0.0125950305
57	0x3bc191c1	0.005907268
58	0xbb61d3e3	-0.003445857
59	0xbc8503b6	-0.016237121
60	0x3b0e8e0c	0.0021752147
61	0x3d3be862	0.045875914
62	0x3ca041be	0.019562598
63	0x3da2a552	0.079416886
64	0xbc3fec35	-0.011714031
65	0x3dd0c72f	0.10194241
66	0xbb02a44b	-0.0019934352
67	0x3be86b49	0.0070928675
68	0xbc93fdbe	-0.01806533
69	0x3c93b7f8	0.01803206
70	0x3d451f6b	0.048125666
71	0x3dff5e62	0.12469174
72	0xbd93fe0c	-0.0722619
73	0x3c2adcac	0.010428589
74	0xbd4d080c	-0.050056502
75	0x3bb0ad29	0.005391736
76	0x3c72ccd6	0.0148193445
77	0xbc324660	-0.0108810365
78	0x3d6a0a75	0.05713888
79	0x3c2ab0d1	0.010418133
80	0x3d08a002	0.03335572
81	0xbc680bb7	-0.014162949
82	0x3da83a00	0.082141876
83	0x3d543864	0.05181159
84	0xbd67723e	-0.056505434
85	0xbdcf6298	-0.10126227
86	0x3df7c5b2	0.12098254
87	0xbd2fd5fe	-0.04292869
88	0xbc7e40f9	-0.01551842
89	0x3e0c9d0f	0.13731788
90	0x3dc2fa73	0.09520426
91	0xbc8654fa	-0.016397942
92	0xbd86b0d8	-0.06576699
93	0x3dc82406	0.09772496
94	0xbd341900	-0.043969154
95	0xbdefda1d	-0.11711524
96	0xbd10ed4c	-0.035382554
97	0xbcbeaf6a	-0.023277003
98	0x3db2830d	0.08716402
99	0x3d100bdd	0.035167564
100	0xbcdb7d18	-0.026793048
101	0x3d0c5fda	0.0342711
102	0xbd36471e	-0.044501416
103	0x3ca57e14	0.02020172
104	0x3dcd0cfc	0.10012242
105	0xbd43c259	-0.047792766
106	0xbc903f64	-0.017608352
107	0xbdbfe1b2	-0.0936922
108	0x3d24561c	0.040121183
109	0xbdfcde1e	-0.12347053
110	0x3d8faff2	0.07015981
111	0x3d17ac45	0.037029523
112	0xbdc8d43b	-0.09806105
113	0xbde1a20c	-0.11017236
114	0x3d8e0240	0.06934023
115	0x3ba03574	0.0048891846
116	0xbd95a0ea	-0.073060825
117	0xbd01cb5e	-0.031688087
118	0x3cdaa52e	0.026690092
119	0x3dcb8542	0.09937526
120	0x3d6b62fb	0.057467442
121	0x3d1bc1c9	0.038026605
122	0xbbd1fa38	-0.006408002
123	0x3be9c046	0.0071335165
124	0x3b2be4c2	0.002622888
125	0x3bd19c7d	0.0063968287
126	0x3d1f2191	0.03885037
127	0x3be5a753	0.007008472
128	0xbc0f5159	-0.008747422
129	0x3bd8a23b	0.0066111363
130	0x3d7fc090	0.0624395
131	0x3d2ae492	0.041721888
132	0x3bddc5c0	0.0067679584
133	0x3ced8ead	0.028998697
134	0xbcac2917	-0.021015687
135	0xb9dae119	-0.0004174791
136	0x3cbc1470	0.022958964
137	0xbbdb0c20	-0.006684795
138	0x3cb58ecd	0.02216282
139	0xbcf6f4b0	-0.030145973
140	0x3b66d90f	0.0035224592
141	0x3d5d190a	0.053978957
142	0x3d75950e	0.059956603
143	0x3dad9025	0.08474759
144	0x3c2350ad	0.009967965
145	0x3ce4d95f	0.027935682
146	0x3c866abc	0.016408317
147	0xb90bdb52	-0.00013337776
148	0x3c08199d	0.008306888
149	0xbd9d4ec8	-0.07681042
150	0x3dcdc877	0.10048001
151	0x3ba69d2b	0.005084654
152	0x3dc58f9f	0.09646534
153	0xbc5b5945	-0.013387983
154	0xbd21362e	-0.03935831
155	0xbae92dfa	-0.0017790191
156	0x3adfec03	0.0017083887
157	0xbd4aec35	-0.04954167
158	0x3e04fc26	0.12986812
159	0xbcf491b5	-0.029854635
160	0x3d0c6d97	0.0342842
161	0xbb25a0da	-0.0025272877
162	0x3d2705fe	0.0407772
163	0xbb48a720	-0.0030617192
164	0x3c0b6f5f	0.00851044
165	0xbb483d05	-0.0030553949
166	0x3c55807f	0.013031124
167	0xbd1e88e8	-0.038704783
168	0xbbfef2fc	-0.007780431
169	0xbbe77ba9	-0.007064302
170	0xbd73750e	-0.059437804
171	0x3a4b4774	0.0007754483
172	0x3cdde622	0.027087275
173	0xbde165ce	-0.11005746
174	0xbd70be6b	-0.058775347
175	0xbc44b2dd	-0.012005535
176	0x3d999f2f	0.07501065
177	0xb9cd3c20	-0.00039145444
178	0x3d1beed3	0.038069557
179	0xbd9e5bfb	-0.07732388
180	0x3d14e965	0.036355395
181	0x3d1fbfbb	0.039001208
182	0x3ac3f38a	0.00149499
183	0xbc97c4c2	-0.018526439
184	0x3cb91bac	0.022596203
185	0xbd80a3d7	-0.0628125
186	0x3d29e8cd	0.04148178
187	0xbd0822f9	-0.033236478
188	0xba932ae3	-0.0011227991
189	0xbd1de387	-0.038547065
190	0xbd6f05cd	-0.05835514
191	0x3e1e9409	0.15486158

st_gcn_networks.1.gcn.conv.bias f4 [24]
0	0x3aada376	0.0013247568
1	0x3cf335cd	0.02968874
2	0x3bf18a01	0.0073711877
3	0x3d3472c9	0.04405478
4	0xbc348543	-0.0110181
5	0xbbd2068c	-0.006409472
6	0x3ca2077b	0.019778958
7	0xbbecfce2	-0.0072322944
8	0xbdabe979	-0.08394141
9	0xbad28955	-0.0016062657
10	0x3bbb7a3e	0.0057213595
11	0x3bb487f6	0.005509372
12	0xbda57a70	-0.08079994
13	0x3cb75f53	0.022384321
14	0x3dbc5440	0.09195757
15	0x3c8e4603	0.017367369
16	0xbc710be2	-0.014712306
17	0xbd7f8d07	-0.062390354
18	0x3c0ab59f	0.008466153
19	0x3d1c189a	0.0381094
20	0x3cb6a2e0	0.022294462
21	0xbcf8b5aa	-0.030360062
22	0x3d05eea9	0.032698307
23	0xbd1cd20c	-0.038286254

st_gcn_networks.1.tcn.0.weight f4 [8]
0	0x3eab8212	0.33497673
1	0x3e93e513	0.28885707
2	0x3ee0907d	0.43860236
3	0x3edf80cc	0.43652952
4	0x3e8b89f1	0.27253678
5	0x3ec48b7e	0.38387674
6	0x3ed35b7e	0.4128074
7	0x3ec1db97	0.37862846

st_gcn_networks.1.tcn.0.bias f4 [8]
0	0xbbf94a31	-0.0076077213
1	0x3b73324d	0.003710884
2	0x3c7892ed	0.015171749
3	0x3cfcbd45	0.03085197
4	0xbb7eb7db	-0.003886691
5	0xbaf1d717	-0.0018450943
6	0xbc8913b0	-0.01673302
7	0xbb547859	-0.0032420366

st_gcn_networks.1.tcn.0.running_mean f4 [8]
0	0x3931736d	0.00016923035
1	0x3b912967	0.0044299844
2	0x3b96390b	0.004584437
3	0x3b82387d	0.003974019
4	0xbbad83cd	-0.005295253
5	0xbc0c97e8	-0.008581139
6	0x3c56f9cb	0.013121079
7	0x3b8326b4	0.0040024165

st_gcn_networks.1.tcn.0.running_var f4 [8]
0	0x381e7309	3.777727e-05
1	0x38321b1a	4.2463747e-05
2	0x3913ffb1	0.00014114265
3	0x38b00823	8.3938496e-05
4	0x38a7b6d2	7.9972335e-05
5	0x38a4dc95	7.861216e-05
6	0x38b3dbb2	8.5763066e-05
7	0x38a67ef6	7.939145e-05

st_gcn_networks.1.tcn.2.weight f4 [8, 8, 9, 1]
0	0x3b184fd7	0.0023240948
1	0xbb348994	-0.0027547823
2	0xbbfbb256	-0.0076811714
3	0xbbc94033	-0.0061416863
4	0xbc0f4016	-0.008743307
5	0xbb80fc59	-0.003936332
6	0xbab86ea8	-0.0014071064
7	0x3ba57027	0.00504877
8	0x3be06d77	0.0068489867
9	0xbc52efe2	-0.012874575
10	0xbcb58683	-0.022158867
11	0xbbf0d0f2	-0.007349127
12	0xbbc0325c	-0.0058653783
13	0xbcbd5289	-0.023110645
14	0xbc8a6aea	-0.016896684
15	0xbc59ec4a	-0.013300965
16	0xbc996f58	-0.01872985
17	0xbc671260	-0.014103502
18	0x3ce6c3de	0.028169569
19	0xbc28dc8f	-0.0103064915
20	0x3c18b696	0.009320876
21	0xbcb42c7e	-0.021993872
22	0x3c4ba057	0.012428365
23	0xbbcb3005	-0.0062007927
24	0x3ccb5424	0.024820395
25	0xbcb2e556	-0.021837872
26	0xbd097a2e	-0.033563785
27	0xbc58a59a	-0.013223076
28	0xbc69fdf2	-0.014281737
29	0x3c3dd7a0	0.011587054
30	0x3b7a6e96	0.0038212887
31	0xbc1329dd	-0.008982149
32	0x3c0889e2	0.008333655
33	0xbd0fe5c1	-0.03513122
34	0xbd2219b6	-0.0395753
35	0xbd0f68c4	-0.03501202
36	0x3c0970d1	0.008388714
37	0xbd002927	-0.031289246
38	0xbbf23bd6	-0.007392387
39	0xbcc65f8a	-0.024215478
40	0x3c845480	0.016153574
41	0x3c5bc7a9	0.013414302
42	0x3c4c6a4e	0.012476517
43	0xbb5efc54	-0.003402491
44	0xba9b443d	-0.0011845898
45	0xba0533c3	-0.00050812605
46	0xbc56d13e	-0.013111411
47	0x3c70f06d	0.0147057595
48	0x3c97d631	0.018534752
49	0x3c3c6742	0.011499228
50	0xbb9fac74	-0.004872853
51	0x3c501606	0.012700563
52	0xbcbdfb0f	-0.023191003
53	0xbc80d32c	-0.015725695
54	0x3ab34fe9	0.0013680431
55	0x3c7314b6	0.014836481
56	0x3caac9ec	0.020848237
57	0xbc4986e4	-0.012300227
58	0x3c8aa273	0.016923165
59	0x3cec990f	0.028881578
60	0x3c91d404	0.017801292
61	0x395ee449	0.00021256613
62	0x3c208a06	0.009798532
63	0x3bdd68e3	0.0067568882
64	0x3c0c664f	0.008569314
65	0xbca7a8ba	-0.020466197
66	0xbcc4d63b	-0.024027934
67	0x3a1e44d5	0.00060374785
68	0xbc1bf1b2	-0.009518074
69	0x3a80a1e0	0.0009813868
70	0x3c948da7	0.018133951
71	0xbba7d000	-0.005121231
72	0xbb4161ee	-0.0029507834
73	0xbc679d91	-0.014136688
74	0xbbf66fdc	-0.007520659
75	0x3c007b5e	0.007841913
76	0xbad9cd4c	-0.0016616969
77	0x3c4b25fd	0.012399194
78	0xbc147388	-0.009060748
79	0x3bcbe8c5	0.0062228166
80	0xbb4498b3	-0.0029998242
81	0xbca46f32	-0.020072553
82	0xbbd309dd	-0.006440385
83	0xbc3203b7	-0.0108651435
84	0xbc4f15f6	-0.012639513
85	0x3d0113a4	0.03151287
86	0x3d0224f7	0.031773534
87	0x3ce831a1	0.028343977
88	0xbc1ef574	-0.009702075
89	0xba7522db	-0.0009351202
90	0xbba0d424	-0.0049081016
91	0xbbeb2ac1	-0.0071767275
92	0x3cb985f7	0.022646887
93	0x3cfa5b61	0.030561151
94	0x3cb5bc5d	0.022184545
95	0x3d06c1f3	0.03289981
96	0x3bf30190	0.0074159577
97	0x3cb17f35	0.021667102
98	0x3cd46b82	0.02593017
99	0xba09c4d1	-0.0005255463
100	0x3d248517	0.040165987
101	0x3b5e0d0a	0.0033882284
102	0x3d0cdc0a	0.034389533
103	0x3cba6aa1	0.022755923
104	0x3d086a63	0.033304583
105	0x3d3ff1fe	0.04686164
106	0x3c76f99d	0.015074161
107	0x3d3e3be0	0.04644382
108	0xbcc325a3	-0.023821658
109	0x3c74f6f2	0.0149514545
110	0xbbc07325	-0.0058731013
111	0xbc88c39d	-0.016694838
112	0x3c1b99b9	0.0094971
113	0xbc909839	-0.01765071
114	0x3c495016	0.01228716
115	0xbabb71f7	-0.0014300932
116	0x3d24d8e9	0.040245924
117	0x3c870ba8	0.01648505
118	0xbc111917	-0.00885608
119	0x3c344756	0.011003336
120	0xbc9cf26b	-0.019158563
121	0xbcc39f4a	-0.023879666
122	0xbcb274aa	-0.021784145
123	0x3bb95306	0.005655649
124	0x3c56c65b	0.013108815
125	0x3bd828dd	0.006596668
126	0xbc54ad82	-0.012980821
127	0xb9889efb	-0.0002605839
128	0x3ce98634	0.028506376
129	0xbc736d51	-0.014857606
130	0x3c35dd0a	0.011100063
131	0x3cac1f45	0.021011004
132	0x3cd1715a	0.025566746
133	0xbc751a29	-0.01495985
134	0x3c99d083	0.018776184
135	0x3bb5894d	0.005540049
136	0xbb1ff6bc	-0.002440854
137	0xbbf86135	-0.0075799474
138	0xbb74c1ea	-0.0037347027
139	0xbcdc33bf	-0.026880143
140	0x3c58d6bf	0.013234793
141	0x3ce2eca1	0.027700724
142	0xbc2270fc	-0.009914633
143	0xbb92e51d	-0.004482879
144	0x3c3be2eb	0.011467676
145	0xbd0915a1	-0.033467893
146	0xbd12447b	-0.03570984
147	0xbcbd4a13	-0.02310661
148	0xbc8eb0d0	-0.017418295
149	0x3c767cf0	0.015044436
150	0x3b499604	0.0030759582
151	0xbcfff03d	-0.031242484
152	0xbcd05d09	-0.025434988
153	0x3cbf2a7b	0.023335686
154	0x3c90f3f1	0.017694445
155	0xbbd46591	-0.006481834
156	0xbb8c3288	-0.0042784847
157	0x3a3ef97e	0.0007285102
158	0xbcd70b70	-0.026250571
159	0xbcfe3a41	-0.031033637
160	0xbc7963d3	-0.015221554
161	0xbbda9fe4	-0.0066718925
162	0x3d10fe9d	0.03539907
163	0xbc90adde	-0.017661031
164	0x3c8dbace	0.01730099
165	0x3ce30673	0.027713036
166	0x3c3181d5	0.010834177
167	0x3c4584ed	0.012055618
168	0x3c5f990e	0.013647331
169	0x3adfeb9f	0.001708377
170	0xbbfc0b57	-0.0076917815
171	0xbca05b9e	-0.019574936
172	0x3bd752fd	0.0065711723
173	0xbd611646	-0.054952882
174	0x3a00fa87	0.0004920144
175	0xbcc47f1a	-0.023986388
176	0xbd3676c2	-0.04454685
177	0xbd272738	-0.040808886
178	0x3c669c43	0.014075342
179	0x3c65d085	0.014026766
180	0xbc723218	-0.014782451
181	0x3d64a7ed	0.05582421
182	0xbd26f085	-0.04075672
183	0x3d37723a	0.04478667
184	0xbc1a1a8c	-0.009405743
185	0x3cddab78	0.027059302
186	0x3ce15a7c	0.027508967
187	0xbc17e6a0	-0.009271294
188	0x3cca44b5	0.024690965
189	0x3c2c2c7a	0.010508651
190	0xbd2f65ad	-0.042821575
191	0x3ce1a7a6	0.027545761
192	0xbb8628a2	-0.0040941993
193	0x3aa2a167	0.0012407721
194	0xbd0fc8cb	-0.0351036
195	0x3bf97198	0.0076124184
196	0xbd308784	-0.043097988
197	0xbd1abbf8	-0.037776917
198	0x39baf1f5	0.00035656957
199	0x3b10b8a2	0.0022082706
200	0x3ce5ee6a	0.028067786
201	0x3d1d9b77	0.03847834
202	0x3c0a10af	0.008426829
203	0xbcab6484	-0.020921953
204	0xbbb1b11a	-0.0054227235
205	0x3c12561b	0.008931662
206	0x3d2df90d	0.04247384
207	0xbb8588e1	-0.004075155
208	0x3d2ea8ee	0.042641573
209	0x3c9e3902	0.019314293
210	0xbc1eda54	-0.009695608
211	0x3cb30d12	0.021856818
212	0x3c1fe97d	0.009760258
213	0x3b52b8c5	0.0032153588
214	0xbb91c5f0	-0.004448645
215	0x3b3bedb3	0.0028675615
216	0xbb15c9d3	-0.0022855892
217	0xbc09a9a5	-0.008402263
218	0x3c8d73bb	0.017267099
219	0xbca7c45b	-0.020479372
220	0xbc47132a	-0.012150565
221	0x3a44985a	0.0007499509
222	0xbcbe24b4	-0.02321086
223	0xbca7c6c8	-0.020480528
224	0x3b80a90d	0.0039264024
225	0x3d387204	0.04503061
226	0xbc0e9c05	-0.00870419
227	0x3c97f7f9	0.01855086
228	0x3c96c895	0.018406192
229	0x3d37b6ec	0.044852182
230	0x3ba24eb3	0.0049532293
231	0xbc824ef4	-0.015906788
232	0xbcf74466	-0.030183982
233	0x3cb3cedc	0.021949224
234	0x3c557bbd	0.01302999
235	0x3cffc395	0.03122119
236	0x3c338a4f	0.010958268
237	0xbca030c2	-0.0195545
238	0x3d1ccd48	0.03828171
239	0x3c968d5d	0.018377954
240	0x3c9879fd	0.018612856
241	0x3ce0a114	0.027420558
242	0x3d1afcb7	0.037838664
243	0xbbde9946	-0.006793174
244	0xbc86a6da	-0.016436983
245	0xbccd6342	-0.025071744
246	0x3b8c46b5	0.00428089
247	0xbc970854	-0.018436588
248	0xbce7acec	-0.028280698
249	0xbc3e5637	-0.011617235
250	0x3cc69fbb	0.024246087
251	0xbd0427ff	-0.032264706
252	0x3a562ee0	0.0008170437
253	0xbb86ef3d	-0.004117875
254	0xbb15f914	-0.0022884058
255	0xbb283844	-0.0025668303

st_gcn_networks.1.tcn.2.bias f4 [8]
0	0x3651c3f1	3.125748e-06
1	0x364a0bfb	3.010732e-06
2	0xb71a123b	-9.18336e-06
3	0x36b22040	5.308568e-06
4	0x360ea6fd	2.125685e-06
5	0xb69a933b	-4.6066975e-06
6	0xb6244e76	-2.4483575e-06
7	0x3683a867	3.923709e-06

st_gcn_networks.1.tcn.3.weight f4 [8]
0	0x3e982c07	0.2972109
1	0x3ec86cdc	0.39145553
2	0x3ecfa5d5	0.40556207
3	0x3edaae45	0.42711082
4	0x3ea73323	0.32656202
5	0x3ef17bd6	0.47164792
6	0x3ece6236	0.40309304
7	0x3e9759b0	0.29560614

st_gcn_networks.1.tcn.3.bias f4 [8]
0	0x3c03c56f	0.008042677
1	0x3b09b848	0.0021014381
2	0xbc6d341b	-0.014477755
3	0x3a379663	0.00070033054
4	0xbc96e4aa	-0.018419582
5	0x39330b87	0.00017075065
6	0xbbaa5aae	-0.005198798
7	0x3c2ccd20	0.0105469525

st_gcn_networks.1.tcn.3.running_mean f4 [8]
0	0xbcf7f380	-0.030267477
1	0x3d869f5e	0.06573366
2	0xbc565d53	-0.013083774
3	0x3c38782c	0.01125912
4	0xbca8bfff	-0.020599363
5	0x3c87b4aa	0.01656564
6	0xbd044109	-0.032288585
7	0xbd225a8d	-0.039637137

st_gcn_networks.1.tcn.3.running_var f4 [8]
0	0x3b275a6e	0.0025536078
1	0x3c2289e9	0.009920576
2	0x3b3da6e8	0.0028938595
3	0x3b8c37bb	0.0042791045
4	0x3afe3e43	0.0019397218
5	0x3b9872ac	0.004652342
6	0x3b02fe63	0.0019988052
7	0x3ba8f952	0.0051566744

st_gcn_networks.1.residual.0.weight f4 [8, 8, 1, 1]
0	0xbd5d5dd6	-0.054044567
1	0xbd963331	-0.07333983
2	0xbdfb6a01	-0.12276078
3	0xbbc53ad9	-0.006018978
4	0xbd630fcf	-0.055434998
5	0x3d3c2529	0.045933876
6	0x3dadd99c	0.08488771
7	0xbd843e34	-0.06457177
8	0xbde9460a	-0.11390312
9	0xbd90b3e1	-0.07065559
10	0xbd0cad20	-0.034344792
11	0xbcd86a4c	-0.026417874
12	0xbd50db83	-0.050990593
13	0x3dfd6904	0.12373546
14	0x3df59bca	0.11992605
15	0xbdd01a20	-0.10161233
16	0xbe1e27ea	-0.15444914
17	0xbc2e198a	-0.010626206
18	0x3d99edf0	0.07516086
19	0xbbe0f55f	-0.006865188
20	0xbd14255f	-0.036168452
21	0x3d7bad34	0.061444476
22	0xbbfa1db0	-0.0076329336
23	0xbda81487	-0.0820704
24	0x3da74fc5	0.08169512
25	0xbca1b37f	-0.01973891
26	0xbd9a3655	-0.07529894
27	0xbcbf5cc8	-0.023359671
28	0xbcceb152	-0.025231037
29	0xbd05ac88	-0.03263524
30	0x3dc7c5e8	0.097545445
31	0x3ddd886b	0.10817035
32	0xbcda1f6f	-0.026626317
33	0x3d56ae48	0.0524123
34	0xbdc450e1	-0.09585739
35	0x3afe5eea	0.0019406949
36	0x3cf4ff39	0.029906856
37	0xbd825fad	-0.06365905
38	0x3e0ec1e4	0.13941151
39	0x3d81694a	0.063189104
40	0x3e12da6f	0.14341138
41	0x3d46160e	0.048360877
42	0x3de0b8af	0.109727256
43	0xbb9ae064	-0.0047264565
44	0xbd824d28	-0.06362373
45	0xbda96b64	-0.08272436
46	0xbd563ccb	-0.05230407
47	0xbdf106a9	-0.117688484
48	0x3d1d074e	0.038337044
49	0x3c2cc740	0.010545552
50	0xbd9304ab	-0.07178625
51	0x3d1d02b5	0.03833266
52	0xbcb62c2b	-0.022237858
53	0xbcda446d	-0.026643956
54	0xbd976098	-0.07391471
55	0x3b3e4584	0.0029033134
56	0xbd12f992	-0.03588254
57	0x3aefab3a	0.0018285282
58	0x3dd82d4d	0.105555154
59	0x3c3a2e5e	0.011363594
60	0x3dc4778c	0.09593114
61	0x3e0a6169	0.13513722
62	0xbe0a73c5	-0.13520725
63	0xbd9ab433	-0.075539015

st_gcn_networks.1.residual.0.bias f4 [8]
0	0x36ed6076	7.07438e-06
1	0xb5fb1369	-1.8706606e-06
2	0xb785b97f	-1.5941214e-05
3	0xb5c6ded5	-1.4817002e-06
4	0x35a91170	1.2596556e-06
5	0xb6f7d33d	-7.385765e-06
6	0xb7f1a8b2	-2.8807994e-05
7	0xb559da90	-8.115685e-07

st_gcn_networks.1.residual.1.weight f4 [8]
0	0x3ea80cc5	0.32822242
1	0x3ebea9cd	0.37238923
2	0x3ed403b5	0.41409078
3	0x3eb4972e	0.3527159
4	0x3eb81279	0.35951594
5	0x3ec4c5f2	0.3843227
6	0x3ef2b066	0.47400206
7	0x3ea527a2	0.322568

st_gcn_networks.1.residual.1.bias f4 [8]
0	0x3c03c56f	0.008042677
1	0x3b09b848	0.0021014381
2	0xbc6d341b	-0.014477755
3	0x3a379663	0.00070033054
4	0xbc96e4aa	-0.018419582
5	0x39330b87	0.00017075065
6	0xbbaa5aae	-0.005198798
7	0x3c2ccd20	0.0105469525

st_gcn_networks.1.residual.1.running_mean f4 [8]
0	0xbd184bf8	-0.037181824
1	0xbc8daff2	-0.017295811
2	0xbcb9daae	-0.022687282
3	0x3cb318ed	0.021862471
4	0x3c968d72	0.018377993
5	0xbbba6501	-0.00568831
6	0xbcaff39c	-0.021478467
7	0x3c63a2bd	0.01389378

st_gcn_networks.1.residual.1.running_var f4 [8]
0	0x3aeec7e3	0.001821753
1	0x3b6f3540	0.0036500245
2	0x3afaa0d8	0.0019121422
3	0x3b19cce3	0.002346807
4	0x3b747bb3	0.0037305176
5	0x3b55e4f2	0.0032637683
6	0x3a650201	0.00087359553
7	0x3b843ac1	0.0040353243

st_gcn_networks.2.gcn.conv.weight f4 [48, 8, 1, 1]
0	0x3ceb7a9d	0.02874499
1	0xbd159407	-0.036518123
2	0xbbaa37b4	-0.0051946286
3	0xbd3856b2	-0.045004554
4	0x3d44d855	0.048057873
5	0xbc31414a	-0.010818789
6	0xbdb87977	-0.090075426
7	0xbc5bcddd	-0.013415781
8	0xbb10a689	-0.002207192
9	0xbcfb12bb	-0.03064858
10	0xbcc5a65b	-0.024127176
11	0xbc4fef13	-0.012691277
12	0xbc708881	-0.014680983
13	0x3c8e2d69	0.017355638
14	0x3bcd3285	0.006262126
15	0x3b88381c	0.0041570794
16	0xbc6f4a06	-0.014605051
17	0xbd68a9d7	-0.056802597
18	0x3bdc3470	0.006720118
19	0xbd0678af	-0.032829937
20	0x3aba85c3	0.0014230538
21	0x3c432ced	0.011912567
22	0x3ad870ec	0.0016513146
23	0x3d5b8148	0.05359009
24	0x3ba762e8	0.005108226
25	0xbd171cc2	-0.03689266
26	0xb89aaef5	-7.3758805e-05
27	0xbc2d96aa	-0.010595003
28	0x3d84e3e1	0.06488777
29	0xbd6eff63	-0.058349025
30	0xbab7cd03	-0.001402289
31	0x3d5a8be7	0.053356078
32	0xbbb17783	-0.0054158582
33	0xbc4c267a	-0.012460345
34	0xbb088b8f	-0.0020835137
35	0xbd134aa3	-0.03595985
36	0x3baebea4	0.0053327847
37	0x3d3298a5	0.043602604
38	0xbcce9d71	-0.025221558
39	0xbbae8c7f	-0.005326807
40	0x3d903b32	0.070425406
41	0x3b0e1e61	0.0021685588
42	0xbd9cd4ab	-0.07657751
43	0xbcd7bca1	-0.026335062
44	0x3e08ac9d	0.13347097
45	0xbc051fbc	-0.008125242
46	0xbdf92630	-0.12165487
47	0xbcd07e36	-0.025450807
48	0xbcdcc2b1	-0.026948305
49	0xbdb75bd6	-0.08953063
50	0xbd8873c9	-0.06662709
51	0xbc7b1374	-0.015324462
52	0xbd0fc66e	-0.035101347
53	0x3d815ddf	0.063167326
54	0xbdaf4af5	-0.08559219
55	0x3d3d54b4	0.046223357
56	0xbcfb1a81	-0.030652286
57	0xbc6fba82	-0.014631869
58	0x3d06a171	0.032868806
59	0x3b002142	0.0019551073
60	0xbb2140ad	-0.00246052
61	0xbc314f10	-0.010822073
62	0xbc2223c9	-0.009896227
63	0x3ca57633	0.020197963
64	0x36fe287f	7.5745043e-06
65	0xbcd2490c	-0.025669597
66	0x3c53affb	0.012920375
67	0xbb197d95	-0.00234208
68	0xbd8497b7	-0.0647425
69	0x3d6bd3c1	0.05757499
70	0xbbc5ea5b	-0.0060399002
71	0x3bd22021	0.0064125215
72	0xbbaebb4f	-0.0053323875
73	0xbc768bfa	-0.015048021
74	0x3c0ad37d	0.008473274
75	0x3c90ab18	0.017659709
76	0x3d25fa6e	0.04052203
77	0xbc4a68a9	-0.0123540545
78	0xbc2706b4	-0.010194469
79	0xb9d25069	-0.00040114232
80	0x3bbc2fd7	0.0057430076
81	0xbcaad37b	-0.020852795
82	0x3ce8727c	0.028374903
83	0x3b8289e8	0.003983725
84	0x3d5a0d68	0.05323544
85	0x3d8c6ee3	0.068570875
86	0x3cc59b30	0.02412185
87	0x3c045be6	0.008078551
88	0x3ccde421	0.025133194
89	0xbdad798d	-0.084704496
90	0xbd821e6d	-0.063534595
91	0x3cc4faae	0.024045315
92	0xbbd24913	-0.0064174025
93	0xbc8d46f5	-0.017245749
94	0x3be359fb	0.0069382167
95	0x3c746c0e	0.01491834
96	0x3ce4980d	0.027904535
97	0xbd252df0	-0.040327013
98	0xbb190c8b	-0.0023353423
99	0x3dad6281	0.08466054
100	0xbd15447b	-0.03644226
101	0x3b764f34	0.003758383
102	0x3c07be87	0.008285171
103	0x3b46281c	0.003023631
104	0xbccd2519	-0.025042104
105	0xbd302d80	-0.043012142
106	0x3da7f352	0.082007065
107	0xbcd45dfe	-0.025923725
108	0xbc6f12de	-0.014591901
109	0x3c9ee7d2	0.01939765
110	0xba864418	-0.0010243682
111	0x3c4c64a8	0.01247517
112	0xbcc341e2	-0.023835126
113	0x3c8a4f45	0.016883502
114	0x3d47ef5a	0.048812248
115	0xbd9b3f1e	-0.07580398
116	0xbc4233f9	-0.011853212
117	0x3d62a6a3	0.0553347
118	0x3ae9a831	0.0017826614
119	0x38edfcbf	0.00011348118
120	0xbc874d94	-0.016516484
121	0xba133c61	-0.0005616602
122	0xbbe0fc5a	-0.00686602
123	0xbd08ed94	-0.033429697
124	0xbb7728d8	-0.0037713554
125	0x3b0a6797	0.0021118873
126	0xbc66c439	-0.014084869
127	0xbab632b6	-0.0013900611
128	0x3afa7438	0.0019108122
129	0xbce13a91	-0.027493747
130	0x3d113307	0.035449054
131	0xbcf00ad0	-0.02930203
132	0x3ccee036	0.025253396
133	0x3dd46f89	0.10372836
134	0x3db7d004	0.08975223
135	0xbbbfa879	-0.005848941
136	0xbc0a14db	-0.008427824
137	0xbd2f607e	-0.04281663
138	0xbc65e79e	-0.014032273
139	0xbca57454	-0.020197071
140	0xbb74c666	-0.00373497
141	0x3cdacf48	0.026710168
142	0x3d79b52c	0.060963795
143	0x3b94c402	0.0045399675
144	0x3c3e0229	0.011597195
145	0xbc3a3ad1	-0.011366562
146	0x3d84df74	0.06487933
147	0xbc0fb262	-0.008770557
148	0x3d5d0bc1	0.053966288
149	0xbbd1e522	-0.0064054886
150	0x3bb5e59a	0.0055510523
151	0xbcbc7fb0	-0.023010105
152	0x3d2f08a0	0.042732835
153	0x3d31c62e	0.04340189
154	0xbc85946e	-0.016306128
155	0xbd21413a	-0.039368846
156	0x3d9d0a4e	0.07667981
157	0xbcf2f4c7	-0.029657735
158	0xbcd2979d	-0.02570706
159	0xbcfdebf0	-0.030996293
160	0x3b6728c5	0.0035272103
161	0xbba6e261	-0.0050929044
162	0x3d0e9793	0.03481252
163	0xbbe3ee92	-0.00695593
164	0xbbb81186	-0.0056173233
165	0x3d2e1586	0.042500995
166	0x3d3789e6	0.044809245
167	0x3af03ee5	0.0018329291
168	0x3c3c1590	0.01147975
169	0x3d359633	0.044332694
170	0xbd3e07f3	-0.0463943
171	0xbd4ba43e	-0.04971718
172	0x3cec380f	0.028835325
173	0xbdf7bce7	-0.12096577
174	0x3d2e2a6a	0.042520918
175	0x3a944799	0.0011312842
176	0x3d14b5b6	0.036306106
177	0x3d6061ae	0.054780655
178	0xbd5bc211	-0.053651873
179	0x3d487469	0.048939142
180	0x3db34c98	0.087548435
181	0xbd0c9d7e	-0.034329884
182	0xbc4a0cad	-0.012332124
183	0xbc94d4c8	-0.018167868
184	0x3c73c392	0.014878171
185	0xbd7bc224	-0.061464444
186	0x3d1acd47	0.037793424
187	0x3b044403	0.002018214
188	0xbc729563	-0.014806124
189	0x3d1f7765	0.038932223
190	0xbcc92c6e	-0.024557319
191	0x3d444ef0	0.047926843
192	0x3d671b7b	0.05642269
193	0x3d87f1ac	0.06637892
194	0xbd14e6de	-0.036352985
195	0x3cff96d7	0.031199856
196	0x3d989392	0.07450022
197	0x3aae4d86	0.001329825
198	0x3d05c6c7	0.032660272
199	0xbcd7a065	-0.0263216
200	0xba96b13e	-0.0011496914
201	0xbb0753c2	-0.0020649289
202	0xbc6cbf59	-0.014449918
203	0x3d1ab0ee	0.03776639
204	0xbcba5512	-0.022745643
205	0x3d45bac3	0.048273813
206	0x3b118f28	0.0022210572
207	0xbc0d0e70	-0.008609399
208	0x3bb62ca6	0.0055595217
209	0xbd5e6b1d	-0.05430137
210	0x3c7252b7	0.014790229
211	0x3d0b7eae	0.034056358
212	0x3b81c302	0.0039600143
213	0xba2b1c7a	-0.00065273757
214	0x3c471119	0.0121500725
215	0x3cf2ca27	0.02963741
216	0x3db0344c	0.08603725
217	0x3dc259f0	0.094898105
218	0x3cdb40c1	0.026764276
219	0xb9c8c3a9	-0.0003829275
220	0xbd12bf08	-0.035826713
221	0xbc60aa52	-0.0137124825
222	0x3dba5f2b	0.09100183
223	0x3d0c19a8	0.034204155
224	0x3d3430fd	0.04399203
225	0x3b252849	0.0025201014
226	0x3c46ff3f	0.012145816
227	0xbd78c693	-0.06073625
228	0xbc21d02e	-0.009876294
229	0xbbacea7f	-0.0052769776
230	0x3ce47a39	0.027890312
231	0xbb35aca2	-0.0027721305
232	0x3b6ced1e	0.0036152075
233	0x3d435a51	0.047693554
234	0xbd8727c4	-0.065993816
235	0x3dc67320	0.09689927
236	0xbc9f1991	-0.01942137
237	0xbdb7ce61	-0.089749105
238	0x3bd00b29	0.0063489866
239	0x3dd18890	0.10231125
240	0xbb0763aa	-0.002065877
241	0xbc90cfd7	-0.01767723
242	0x3c0f9a7a	0.008764857
243	0x3b8f787b	0.004378376
244	0x3c59ac3e	0.013285695
245	0x3ca2b3f8	0.019861206
246	0xba9c1dc7	-0.001191073
247	0xbbd73825	-0.0065679722
248	0x3a3874b1	0.00070364313
249	0xbd003c3d	-0.031307448
250	0x3c6de697	0.014520309
251	0x3cb655a6	0.022257637
252	0x3a31ff76	0.0006790081
253	0x3c6efa12	0.014585989
254	0xbc95f0a4	-0.018303223
255	0x3b8ebdd8	0.004356127

st_gcn_networks.2.gcn.conv.bias f4 [48]
0	0xbc273c53	-0.0102072535
1	0x3be5b5f8	0.0070102178
2	0xbcca38a1	-0.024685206
3	0x3a6a8f5d	0.00089477544
4	0xbc211518	-0.009831689
5	0xbd06cbaf	-0.03290909
6	0x3d262ec3	0.04057194
7	0xbc1e9c9c	-0.009680893
8	0xbc004d48	-0.007830925
9	0xbc783f1b	-0.015151764
10	0xbc5e8226	-0.0135808345
11	0xba9e3ae5	-0.0012071995
12	0xbc2735ec	-0.010205727
13	0xbc206b5e	-0.009791223
14	0xbc536b51	-0.012904004
15	0x3b14a06d	0.002267863
16	0xbd89ff5d	-0.0673816
17	0xbc7b0beb	-0.015322666
18	0xbb4b4072	-0.0031013754
19	0x3ba0c334	0.0049060825
20	0x3c45854a	0.012055704
21	0xbd10ece0	-0.03538215
22	0xbc7a1403	-0.01526356
23	0xbc0000e8	-0.007812716
24	0xbd8eeccf	-0.069787614
25	0xbc5d9e82	-0.013526561
26	0xbca22b51	-0.019796045
27	0xbd1df25e	-0.038561217
28	0x3d0a243c	0.033725962
29	0x3d41f951	0.047356907
30	0xbca04518	-0.019564196
31	0xbbe5bdf5	-0.00701117
32	0x3c22a9b5	0.009928157
33	0x3c5cdc02	0.013480188
34	0xbbd38a34	-0.006455684
35	0x3c9454b1	0.01810679
36	0xbc590856	-0.013246616
37	0xbb879ea6	-0.0041387854
38	0xbbf4a946	-0.007466468
39	0xbc9ded67	-0.019278241
40	0xbcc2cb07	-0.023778452
41	0x3b098d43	0.002098874
42	0xbc59b065	-0.013286685
43	0xbd02f8f1	-0.03197569
44	0x3d0fe806	0.035133384
45	0xbb7a4ca1	-0.0038192647
46	0x3c721b5e	0.014777033
47	0x3bf112ab	0.0073569617

st_gcn_networks.2.tcn.0.weight f4 [16]
0	0x3ead6ab5	0.33870474
1	0x3e75e031	0.24011303
2	0x3e902d14	0.28159392
3	0x3e9a6c70	0.30160856
4	0x3e01af7b	0.12664597
5	0x3eb49e5b	0.35277066
6	0x3e99c700	0.30034637
7	0x3e7c9860	0.24667501
8	0x3e8ff2d7	0.2811496
9	0x3e4cf807	0.2001649
10	0x3e78dbd5	0.2430261
11	0x3e8f5109	0.27991512
12	0x3e53c557	0.20680748
13	0x3e9a4945	0.30134025
14	0x3e420e9b	0.18950884
15	0x3e198ea8	0.14995825

st_gcn_networks.2.tcn.0.bias f4 [16]
0	0xbb65b565	-0.0035050747
1	0x3be188c8	0.0068827607
2	0xbb7bd1e5	-0.0038424667
3	0xbbadb87c	-0.0053015333
4	0x3bcddb01	0.006282211
5	0xbc0a5bfe	-0.008444784
6	0xbc124fe4	-0.00893018
7	0xbc607de2	-0.013701888
8	0xbc9594e9	-0.018259482
9	0xbcb6fa95	-0.022336284
10	0xbc2ff2ef	-0.010739072
11	0xbc52e712	-0.012872474
12	0xbc1a4824	-0.009416614
13	0xbd447f68	-0.047973067
14	0x3ac42eb4	0.0014967532
15	0xbcb1897a	-0.021672

st_gcn_networks.2.tcn.0.running_mean f4 [16]
0	0xbb85ee2c	-0.00408723
1	0xba9730f1	-0.0011534971
2	0xbb1c3ace	-0.0023838761
3	0x3aad93c0	0.0013242885
4	0x3a107018	0.00055098673
5	0xbc6252a2	-0.0138136465
6	0xbacd33d3	-0.0015655704
7	0xbb3c2058	-0.0028705802
8	0xbb3264b1	-0.0027220661
9	0xb914a014	-0.00014174014
10	0xba8def2d	-0.0010828726
11	0xbb289184	-0.00257215
12	0x3bcb5cf7	0.0062061506
13	0x3ba865bd	0.0051390813
14	0xba5b1bba	-0.00083583186
15	0x354b1178	7.5648813e-07

st_gcn_networks.2.tcn.0.running_var f4 [16]
0	0x37e26460	2.698804e-05
1	0x3834a20e	4.306627e-05
2	0x37c1f693	2.3122213e-05
3	0x3884b346	6.327643e-05
4	0x37bf7c05	2.2826725e-05
5	0x393d2929	0.00018039778
6	0x37f4aa62	2.9166407e-05
7	0x37c1d177	2.3104933e-05
8	0x3826b41c	3.9745224e-05
9	0x37ba4b3d	2.2207963e-05
10	0x37bb26d0	2.231021e-05
11	0x3809d1f5	3.2858883e-05
12	0x3789c6fd	1.6424334e-05
13	0x384e1ac9	4.9139173e-05
14	0x379e2702	1.8853232e-05
15	0x37933cef	1.755214e-05
