weights_arm/35.pt (torch, 70926 bytes, 80 tensors)

A f4 [3, 9, 9]
0.5 0.0 0.0 0.0 0.0 0.0 0.0 0.0
0.0 0.0 0.2 0.0 0.0 0.0 0.0 0.0
0.0 0.0 0.0 0.0 0.33333334 0.0 0.0 0.0
0.0 0.0 0.0 0.0 0.0 0.0 0.33333334 0.0
0.0 0.0 0.0 0.0 0.0 0.0 0.0 0.0
0.5 0.0 0.0 0.0 0.0 0.0 0.0 0.0
0.0 0.0 0.33333334 0.0 0.0 0.0 0.0 0.0
0.0 0.0 0.0 0.0 0.33333334 0.0 0.0 0.0
0.0 0.0 0.0 0.0 0.0 0.0 0.5 0.0
0.0 0.0 0.0 0.0 0.0 0.0 0.0 0.0
0.5 0.0 0.2 0.0 0.0 0.0 0.0 0.0
0.0 0.0 0.0 0.0 0.0 0.0 0.0 0.0
0.0 0.0 0.0 0.0 0.2 0.0 0.0 0.0
0.0 0.0 0.0 0.0 0.0 0.0 0.33333334 0.0
0.5 0.0 0.0 0.0 0.0 0.0 0.0 0.0
0.33333334 0.0 0.0 0.0 0.0 0.0 0.0 0.2
0.0 0.0 0.0 0.0 0.0 0.0 0.0 0.0
0.0 0.0 0.0 0.0 0.33333334 0.0 0.5 0.0
0.0 0.0 0.0 0.0 0.0 0.0 0.33333334 0.0
0.0 0.0 0.2 0.0 0.0 0.0 0.0 0.0
0.0 0.0 0.0 0.0 0.0 0.0 0.0 0.0
0.0 0.0 0.0 0.5 0.0 0.33333334 0.0 0.0
0.33333334 0.0 0.0 0.5 0.0 0.0 0.0 0.33333334
0.0 0.0 0.0 0.0 0.0 0.0 0.0 0.0
0.0 0.0 0.0 0.0 0.0 0.0 0.0 0.0
0.0 0.0 0.0 0.0 0.0 0.0 0.0 0.0
0.0 0.0 0.0 0.0 0.0 0.33333334 0.0 0.0
0.0 0.0 0.0 0.0 0.0 0.0 0.0 0.0
0.0 0.0 0.0 0.0 0.0 0.0 0.0 0.0
0.0 0.0 0.0 0.0 0.0 0.0 0.0 0.0
0.0 0.0 0.0
00000000: 0000 003f 0000 0000 0000 0000 0000 0000
00000010: 0000 0000 0000 0000 0000 0000 0000 0000
00000020: 0000 0000 0000 0000 cdcc 4c3e 0000 0000
00000030: 0000 0000 0000 0000 0000 0000 0000 0000
00000040: 0000 0000 0000 0000 0000 0000 0000 0000
00000050: abaa aa3e 0000 0000 0000 0000 0000 0000
00000060: 0000 0000 0000 0000 0000 0000 0000 0000
00000070: 0000 0000 0000 0000 abaa aa3e 0000 0000
00000080: 0000 0000 0000 0000 0000 0000 0000 0000
00000090: 0000 0000 0000 0000 0000 0000 0000 0000
000000a0: 0000 003f 0000 0000 0000 0000 0000 0000
000000b0: 0000 0000 0000 0000 0000 0000 0000 0000
000000c0: 0000 0000 0000 0000 abaa aa3e 0000 0000
000000d0: 0000 0000 0000 0000 0000 0000 0000 0000
000000e0: 0000 0000 0000 0000 0000 0000 0000 0000
000000f0: abaa aa3e 0000 0000 0000 0000 0000 0000
00000100: 0000 0000 0000 0000 0000 0000 0000 0000
00000110: 0000 0000 0000 0000 0000 003f 0000 0000
00000120: 0000 0000 0000 0000 0000 0000 0000 0000
00000130: 0000 0000 0000 0000 0000 0000 0000 0000
00000140: 0000 003f 0000 0000 cdcc 4c3e 0000 0000
00000150: 0000 0000 0000 0000 0000 0000 0000 0000
00000160: 0000 0000 0000 0000 0000 0000 0000 0000
00000170: 0000 0000 0000 0000 0000 0000 0000 0000
00000180: 0000 0000 0000 0000 0000 0000 0000 0000
00000190: cdcc 4c3e 0000 0000 0000 0000 0000 0000
000001a0: 0000 0000 0000 0000 0000 0000 0000 0000
000001b0: 0000 0000 0000 0000 abaa aa3e 0000 0000
000001c0: 0000 003f 0000 0000 0000 0000 0000 0000
000001d0: 0000 0000 0000 0000 0000 0000 0000 0000
000001e0: abaa aa3e 0000 0000 0000 0000 0000 0000
000001f0: 0000 0000 0000 0000 0000 0000 cdcc 4c3e
00000200: 0000 0000 0000 0000 0000 0000 0000 0000
00000210: 0000 0000 0000 0000 0000 0000 0000 0000
00000220: 0000 0000 0000 0000 0000 0000 0000 0000
00000230: abaa aa3e 0000 0000 0000 003f 0000 0000
00000240: 0000 0000 0000 0000 0000 0000 0000 0000
00000250: 0000 0000 0000 0000 abaa aa3e 0000 0000
00000260: 0000 0000 0000 0000 cdcc 4c3e 0000 0000
00000270: 0000 0000 0000 0000 0000 0000 0000 0000
00000280: 0000 0000 0000 0000 0000 0000 0000 0000
00000290: 0000 0000 0000 0000 0000 0000 0000 0000
000002a0: 0000 0000 0000 0000 0000 0000 0000 003f
000002b0: 0000 0000 abaa aa3e 0000 0000 0000 0000
000002c0: abaa aa3e 0000 0000 0000 0000 0000 003f
000002d0: 0000 0000 0000 0000 0000 0000 abaa aa3e
000002e0: 0000 0000 0000 0000 0000 0000 0000 0000
000002f0: 0000 0000 0000 0000 0000 0000 0000 0000
00000300: 0000 0000 0000 0000 0000 0000 0000 0000
00000310: 0000 0000 0000 0000 0000 0000 0000 0000
00000320: 0000 0000 0000 0000 0000 0000 0000 0000
00000330: 0000 0000 0000 0000 0000 0000 0000 0000
00000340: 0000 0000 0000 0000 0000 0000 0000 0000
00000350: 0000 0000 abaa aa3e 0000 0000 0000 0000
00000360: 0000 0000 0000 0000 0000 0000 0000 0000
00000370: 0000 0000 0000 0000 0000 0000 0000 0000
00000380: 0000 0000 0000 0000 0000 0000 0000 0000
00000390: 0000 0000 0000 0000 0000 0000 0000 0000
000003a0: 0000 0000 0000 0000 0000 0000 0000 0000
000003b0: 0000 0000 0000 0000 0000 0000 0000 0000
000003c0: 0000 0000 0000 0000 0000 0000

data_bn.weight f4 [27]
0.21803382 0.29296628 0.18443845 0.3493965 0.29412976 0.25153157 0.3383689 0.25802004
0.31598273 0.56682074 0.6055653 0.46924955 0.6342261 0.5696375 0.46840113 0.34779274
0.29382652 0.28708443 0.54718 0.53366596 0.43155012 0.5795414 0.5452813 0.44032693
0.27630752 0.20478721 0.20995134
00000000: 4244 5f3e adff 953e 6fdd 3c3e 19e4 b23e
00000010: 2d98 963e bfc8 803e b03e ad3e 341b 843e
00000020: 7dc8 a13e 2a1b 113f 5406 1b3f 7a41 f03e
00000030: a45c 223f c3d3 113f 46d2 ef3e e411 b23e
00000040: 6e70 963e bbfc 923e fd13 0c3f 559e 083f
00000050: 23f4 dc3e d35c 143f 8e97 0b3f 8872 e13e
00000060: 2e78 8d3e bdb3 513e 7cfd 563e

data_bn.bias f4 [27]
0.012802922 0.0123100355 -0.014299874 -0.0052277595 0.005018511 0.0049387985 0.027649444 -0.01514162
-0.005403194 -0.02790251 -0.01096251 0.01902361 -0.0021785335 0.0028881521 -0.013507726 0.014942948
0.03662134 0.020022497 0.015862867 0.0057887593 -0.01892669 -0.025628302 -0.014427995 0.01676733
0.01934074 -0.006569158 -0.010581721
00000000: 59c3 513c 08b0 493c 054a 6abc a04d abbb
00000010: 5272 a43b a5d5 a13b 1681 e23c 8f14 78bc
00000020: 470d b1bb ce93 e4bc 199c 33bc 67d7 9b3c
00000030: bac5 0ebb 2747 3d3b 824f 5dbc 44d3 743c
00000040: 4200 163d 3806 a43c d8f2 813c a2af bd3b
00000050: 250c 9bbc 72f2 d1bc 6663 6cbc a45b 893c
00000060: 7970 9e3c 1742 d7bb f45e 2dbc

data_bn.running_mean f4 [27]
87.52556 81.633484 23.603476 95.76305 88.939804 25.365108 86.23591 84.09104
24.301027 97.62424 85.5764 24.589188 104.80661 82.53395 22.609243 105.19908
93.754845 26.459711 125.101555 100.69786 27.760262 124.11791 96.48141 26.728416
99.7813 100.22529 27.89233
00000000: 160d af42 5844 a342 ebd3 bc41 ae86 bf42
00000010: 2ee1 b142 beeb ca41 c978 ac42 9d2e a842
00000020: 8168 c241 9c3f c342 1e27 ab42 a8b6 c441
00000030: fc9c d142 6211 a542 bbdf b441 ee65 d242
00000040: 7b82 bb42 7dad d341 ff33 fa42 4e65 c942
00000050: 0415 de41 5f3c f842 7bf6 c042 ccd3 d541
00000060: 0790 c742 5973 c842 7e23 df41

data_bn.running_var f4 [27]
11753.35 22426.63 7760.345 12276.448 24697.377 8663.568 9466.293 21656.416
7837.473 12397.979 20201.371 7633.8516 14026.777 18344.35 6755.2983 16072.261
27993.172 9561.625 21317.889 28771.549 9985.056 20265.23 25261.51 9032.086
16498.984 26274.531 9622.538
00000000: 66a5 3746 4335 af46 c382 f245 cbd1 3f46
00000010: c1f2 c046 465e 0746 2ce9 1346 d530 a946
00000020: c9eb f445 eab7 4146 bed2 9d46 d08e ee45
00000030: 1c2b 5b46 b350 8f46 631a d345 0b21 7b46
00000040: 58b2 da46 8066 1546 c78b a646 19c7 e046
00000050: 3904 1c46 7652 9e46 055b c546 5820 0d46
00000060: f8e5 8046 1045 cd46 275a 1646

st_gcn_networks.0.gcn.conv.weight f4 [24, 3, 1, 1]
-0.09076037 -0.011874058 0.0055445074 0.13628016 -0.08676439 0.054139093 0.13371056 -0.009092675
0.04516984 -0.04067595 -0.033272386 0.1862138 0.03867824 -0.04165675 -0.30818564 0.21808344
0.36280334 0.052917395 -0.24313046 0.2618925 0.11794248 -0.20018694 0.07475268 -0.14043312
-0.04367676 -0.08914746 -0.040271416 -0.28514528 -0.1543433 0.048645806 0.22097318 -0.021940572
-0.024025865 -0.17649567 -0.14671412 0.045546923 0.0011133574 -0.017831946 0.26623982 -0.042583827
-0.25148332 -0.16738029 0.038213372 0.060526446 0.07071912 0.16425107 -0.116785385 0.18127573
-0.003756344 0.011364804 -0.010763508 -0.058764376 -0.028372044 -0.005544189 0.18092719 0.005661004
0.052322287 -0.12344795 -0.010103464 -0.00804713 -0.18653545 -0.0499861 0.0032762005 0.02124131
-0.03048471 0.15104005 0.09168654 -0.07162903 0.030292626 -0.12815319 0.18837552 0.056967333
00000000: 93e0 b9bd 698b 42bc b3ae b53b 078d 0b3e
00000010: 87b1 b1bd f4c0 5d3d 6ceb 083e 71f9 14bc
00000020: 0304 393d d39b 26bd a048 08bd d5ae 3e3e
00000030: 136d 1e3d 45a0 2abd 82ca 9dbe 4451 5f3e
00000040: 5cc1 b93e e9bf 583d 31f7 78be c616 863e
00000050: d48b f13d cefd 4cbe ef17 993d b3cd 0fbe
00000060: 67e6 32bd f292 b6bd a4f3 24bd 90fe 91be
00000070: 2c0c 1ebe d340 473d cb46 623e b7bc b3bc
00000080: e4d1 c4bc 48bb 34be 3a3c 16be 698f 3a3d
00000090: 13ee 913a 4d14 92bc 9650 883e 616c 2ebd
000000a0: 6cc2 80be bd65 2bbe a085 1c3d 94ea 773d
000000b0: 30d5 903d 6f31 283e 2d2d efbd 58a0 393e
000000c0: ff2c 76bb 7133 3a3c 6d59 30bc eab2 70bd
000000d0: 7d6c e8bc 07ac b5bb fa44 393e f27f b93b
000000e0: e54f 563d 47d2 fcbd 0089 25bc 1cd8 03bc
000000f0: 2603 3fbe 3abe 4cbd 86b5 563b 4102 ae3c
00000100: 12bb f9bc 3eaa 1a3e 27c6 bb3d 3eb2 92bd
00000110: 3e28 f83c 973a 03be 83e5 403e 9456 693d

st_gcn_networks.0.gcn.conv.bias f4 [24]
-0.0038903349 0.07910708 0.1293848 0.0712374 -0.016471824 -0.20945391 0.01202269 0.1817898
-0.12236852 0.020428352 0.098405585 -0.07646616 0.033256378 0.16634043 0.24860804 0.0132361185
-0.027098753 -0.21237324 0.050607916 -0.01777483 0.08267164 0.02244422 0.007874408 -0.013074943
00000000: fdf4 7ebb e502 a23d 737d 043e eae4 913d
00000010: ebef 86bc 167b 56be d1fa 443c 1b27 3a3e
00000020: 599c fabd 5c59 a73c de88 c93d 4a9a 9cbd
00000030: d737 083d 2555 2a3e 1b93 7e3e 4edc 583c
00000040: 34fe ddbc 5f78 59be 3f4a 4f3d 859c 91bc
00000050: c04f a93d f1dc b73c a903 013c 4938 56bc

st_gcn_networks.0.tcn.0.weight f4 [8]
0.29454863 0.47911054 0.49772468 0.46269888 0.3511079 0.49532428 0.48367113 0.45047337
00000000: 14cf 963e fa4d f53e c5d5 fe3e dee6 ec3e
00000010: 6ac4 b33e 259b fd3e bea3 f73e 72a4 e63e

st_gcn_networks.0.tcn.0.bias f4 [8]
0.018313855 0.006737307 -0.0052005677 -0.0032266441 -0.013826031 0.007224998 0.02457758 -0.018586526
00000000: f006 963c a1c4 dc3b 8669 aabb 1b76 53bb
00000010: 9486 62bc adbf ec3b ec56 c93c c542 98bc

st_gcn_networks.0.tcn.0.running_mean f4 [8]
-0.021090746 0.00025983507 0.041507117 -0.00016590586 0.008676923 -0.010239921 0.039783563 0.033101358
00000000: 80c6 acbc 793a 8839 5e03 2a3d 04f7 2db9
00000010: a729 0e3c 57c5 27bc 17f4 223d 4a95 073d

st_gcn_networks.0.tcn.0.running_var f4 [8]
0.0004924171 0.0011909469 0.0014088118 0.0010919869 0.00017496811 0.0010017861 0.0015545451 0.00030357623
00000000: 8d15 013a 8c19 9c3a e1a7 b83a 0021 8f3a
00000010: a577 3739 5d4e 833a e1c1 cb3a 5029 9f39

st_gcn_networks.0.tcn.2.weight f4 [8, 8, 9, 1]
0.012154122 0.022077674 0.0048495894 0.016332371 0.01767508 -0.0073438524 0.011604645 0.013756332
0.02472219 0.03674751 -0.05415865 -0.007617667 -0.007458962 -0.026493777 0.04618181 0.01798438
-0.00760587 -0.046406217 0.056830063 0.07108362 0.023611303 0.05337222 -0.026533782 0.07281986
-0.04814795 0.04422618 -0.06338223 0.00733861 -0.02574716 0.0615687 -0.026648894 -0.010438148
0.054936476 0.035636242 0.036103275 -0.010945039 -0.008469743 -0.032954656 0.0011850463 -0.026097452
-0.031745747 0.005732765 0.022368139 -0.035828136 -0.0063902372 -0.05971212 0.006311506 0.03848406
0.0016573409 0.041610304 0.015729595 0.034732915 0.008258953 0.039353307 0.031391285 0.040573508
0.0017048838 -0.03992202 -0.033970818 0.001071893 -0.039141323 0.045395978 -0.043079924 -0.027781911
-0.081642665 -0.009008139 -0.073366396 -0.0076863538 -0.0601433 -0.014633103 -0.007689483 -0.0012299201
-0.0018933448 -0.0028663892 -0.0048897346 0.0069401753 0.030975286 -0.020852469 0.02555618 0.005428637
-0.007857411 0.02033657 0.032514803 0.02966427 0.007948106 0.006108719 0.015128411 0.030133184
-0.0006335437 0.018805366 0.027080474 0.054632884 0.06792229 0.0014477932 -0.012696468 -0.039268937
0.0016107243 0.02128601 -0.0065738014 0.05095243 -0.018598618 0.022818604 0.013890261 0.041692868
0.027022675 0.03379989 -0.022988664 -0.017170934 0.004923324 -0.0007690574 0.024296869 0.032748304
0.057027217 -0.033321828 0.04080644 0.05748658 0.06037828 -0.018485561 0.039749768 0.018538846
-0.023988146 0.023357706 -0.007374615 -0.040536445 -0.018412694 -0.023781586 -0.039134268 -0.0323197
-0.04327754 -0.0650169 -0.05652768 0.03518703 0.011122955 -0.04597129 0.05313793 0.030586237
-0.06714854 -0.0065770787 0.0101083685 0.036018606 -0.03960098 0.0367692 -0.04031963 -0.032542426
-0.023681788 -0.0082641905 -0.02811712 -0.0101786 -0.0012442496 -0.040301144 -0.006198594 -0.029443843
-0.020931492 -0.017727027 -0.014400792 -0.012883496 0.03334129 -0.009556242 -0.010311775 0.030522166
-0.028700259 0.009865648 0.05011212 -0.0006915182 -0.0054383725 -0.07827234 0.05431512 -0.023020016
0.06408587 -0.060226176 0.04215425 0.021390371 -0.063726194 -0.049351543 0.028826978 0.035326127
-0.054484513 0.016303485 -0.035472333 0.02879821 -0.005805027 0.010001313 0.037947915 0.018709045
-0.046964854 -0.007355834 -0.006648903 -0.01629527 0.0355893 -0.03644746 -0.061578233 0.06996174
-0.027652914 -0.04652028 -0.009908861 0.054295894 -0.035802536 0.06132134 0.044697132 -0.035388254
-0.085055076 0.052399166 0.07049821 0.018307034 -0.027320858 0.042457722 0.059371833 -0.07226949
-0.02933328 -0.053979896 0.038706906 -0.008153512 0.043400243 -0.042482316 -0.046830747 -0.006426909
-0.005993659 0.007150328 0.029771285 0.016801018 0.016484592 0.0022574938 0.009416515 0.010627669
0.009441624 0.0057326453 0.019374559 -0.022631433 -0.013962379 0.020118807 0.028702477 0.035412803
-0.015635736 0.0031959943 -0.0011205547 0.0065784846 -0.02698291 -0.012509774 0.0017511985 -0.0145184845
0.002657693 -0.022109702 -0.038062643 0.0283937 -0.028117865 -0.036826283 -0.038995028 -0.038013097
-0.0014625681 -0.019389408 -0.0032952942 0.012825681 0.00014763429 -0.024293698 -0.004790078 0.015035504
00000000: 1522 473c 3ddc b43c 4ee9 9e3b 77cb 853c
00000010: 54cb 903c b3a4 f0bb 6921 3e3c 3d62 613c
00000020: 3186 ca3c 8f84 163d 76d5 5dbd 9f9d f9bb
00000030: 4f6a f4bb 7a09 d9bc 2329 3d3d fa53 933c
00000040: a93a f9bb 7214 3ebd a4c6 683d 4a94 913d
00000050: 7e6c c13c d49c 5a3d 605d d9bc 9422 953d
00000060: c936 45bd 8326 353d 8bce 81bd b978 f03b
00000070: b5eb d2bc 762f 7c3d c84e dabc c404 2bbc
00000080: 1205 613d 4ff7 113d 07e1 133d d252 33bc
00000090: adc4 0abc 76fb 06bd 8e53 9b3a 53ca d5bc
000000a0: d407 02bd ebd9 bb3b 633d b73c 86c0 12bd
000000b0: 3265 d1bb b294 74bd c0d0 ce3b 76a1 1d3d
000000c0: 223b d93a 916f 2a3d 5adb 803c 1a44 0e3d
000000d0: 8f50 073c ef30 213d 2694 003d 6830 263d
000000e0: 6876 df3a 4685 23bd fc24 0bbd c37e 8c3a
000000f0: a752 20bd 22f1 393d 9374 30bd e496 e3bc
00000100: 4534 a7bd e096 13bc 1f41 96bd cfdd fbbb
00000110: d258 76bd afbf 6fbc 0ff8 fbbb 4535 a1ba
00000120: 1c2a f8ba 08da 3bbb 113a a0bb 696a e33b
00000130: e2bf fd3c ccd2 aabc 325b d13c b5e2 b13b
00000140: 5fbc 00bc e198 a63c 3e2e 053d 7c02 f33c
00000150: c638 023c a62b c83b 28dd 773c ded9 f63c
00000160: 6614 26ba b60d 9a3c dfd7 dd3c bbc6 5f3d
00000170: d71a 8b3d e1c3 bd3a d904 50bc 77d8 20bd
00000180: f01e d33a 0060 ae3c 0b69 d7bb 7fb3 503d
00000190: 215c 98bc 15ee ba3c fa93 633c 24c6 2a3d
000001a0: a85e dd3c c171 0a3d b952 bcbc 0faa 8cbc
000001b0: d653 a13b 929a 49ba 3a0a c73c 1623 063d
000001c0: 5f95 693d 787c 08bd a724 273d 0c77 6b3d
000001d0: 374f 773d 086f 97bc a7d0 223d c7de 973c
000001e0: ca82 c4bc a958 bf3c c1a6 f1bb 8b09 26bd
000001f0: 38d6 96bc 9ad1 c2bc 414b 20bd a961 04bd
00000200: ca43 31bd 9527 85bd 9289 67bd 4620 103d
00000210: 0e3d 363c 644c 3cbd 28a7 593d fd8f fa3c
00000220: 2c85 89bd 8984 d7bb 929d 253c 3f88 133d
00000230: a334 22bd 4d9b 163d 3226 25bd 354b 05bd
00000240: 4f00 c2bc 8766 07bc e055 e6bc 25c4 26bc
00000250: 1716 a3ba d012 25bd 931d cbbb 3734 f1bc
00000260: 8578 abbc 4538 91bc 4df1 6bbc 4c15 53bc
00000270: e090 083d c991 1cbc b8f2 28bc 9f09 fa3c
00000280: ce1c ebbc 87a3 213c 5e42 4d3d 0047 35ba
00000290: 6034 b2bb 404d a0bd 8879 5e3d 7994 bcbc
000002a0: 743f 833d b9af 76bd efa9 2c3d dc3a af3c
000002b0: e182 82bd d824 4abd 8e26 ec3c 21b2 103d
000002c0: 272b 5fbd e38e 853c 704b 11bd 39ea eb3c
000002d0: 1938 bebb 8cdc 233c 466f 1b3d b643 993c
000002e0: 385e 40bd 3509 f1bb 0adf d9bb a87d 85bc
000002f0: 16c6 113d ef49 15bd 7539 7cbd 1a48 8f3d
00000300: 5d88 e2bc 0d8c 3ebd c658 22bc 5f65 5e3d
00000310: aea5 12bd 162c 7b3d 5714 373d 46f3 10bd
00000320: 5b31 aebd 82a0 563d 5e61 903d a2f8 953c
00000330: fecf dfbc 26e8 2d3d e12f 733d 0702 94bd
00000340: 594c f0bc 061a 5dbd 228b 1e3d 4f96 05bc
00000350: 74c4 313d f001 2ebd 99d1 3fbd d298 d2bb
00000360: 7566 c4bb 4c4d ea3b e9e2 f33c 4aa2 893c
00000370: b20a 873c 76f2 133b ba47 1a3c ad1f 2e3c
00000380: 0bb1 1a3c ead8 bb3b 65b7 9e3c 8e65 b9bc
00000390: 76c2 64bc 32d0 a43c 7521 eb3c 040d 113d
000003a0: 8416 80bc e373 513b 94df 92ba 5490 d73b
000003b0: 440b ddbc ccf5 4cbc 7988 e53a f0de 6dbc
000003c0: b12c 2e3b 681f b5bc 93e7 1bbd e899 e83c
000003d0: 7057 e6bc 28d7 16bd 40b9 1fbd 9fb3 1bbd
000003e0: a4b3 bfba 89d6 9ebc ddf5 57bb ce22 523c
000003f0: 47ce 1a39 9403 c7bc 16f6 9cbb 7957 763c

st_gcn_networks.0.tcn.2.bias f4 [8]
1.8996909e-05 1.8882323e-06 2.7765466e-06 2.2996363e-05 7.335677e-06 -1.9018378e-05 -5.753479e-06 1.5345594e-06
00000000: 8d5b 9f37 2b6f fd35 b554 3a36 50e8 c037
00000010: fc24 f636 a889 9fb7 020e c1b6 0ff7 cd35

st_gcn_networks.0.tcn.3.weight f4 [8]
0.45463493 0.43436682 0.39756018 0.27635154 0.3177676 0.46209887 0.4805728 0.42256537
00000000: e9c5 e83e 5465 de3e 028d cb3e f37d 8d3e
00000010: 6fb2 a23e 3998 ec3e a30d f63e 7d5a d83e

st_gcn_networks.0.tcn.3.bias f4 [8]
-0.021702101 0.009653189 0.008545508 0.004746036 -0.000405704 0.004230746 0.016982857 0.00012987459
00000000: 9bc8 b1bc 6928 1e3c 7502 0c3c a384 9b3b
00000010: abb4 d4b9 12a2 8a3b a21f 8b3c f22e 0839

st_gcn_networks.0.tcn.3.running_mean f4 [8]
0.022326538 0.050890416 -0.036588624 -0.027186688 0.012162787 0.02921913 -0.06159193 0.0044830195
00000000: 25e6 b63c 7872 503d f4dd 15bd 9eb6 debc
00000010: 6d46 473c f55c ef3c d247 7cbd 4be6 923b

st_gcn_networks.0.tcn.3.running_var f4 [8]
0.011879253 0.009551769 0.006995066 0.0020660788 0.0043467507 0.009787581 0.014017986 0.008512642
00000000: 33a1 423c 067f 1c3c de36 e53b 0d67 073b
00000010: 306f 8e3b 175c 203c b2ab 653c 9c78 0b3c

st_gcn_networks.1.gcn.conv.weight f4 [24, 8, 1, 1]
-0.004137826 -0.047564086 0.054917697 0.041470807 -0.011695806 -0.033482194 0.018140865 0.06429193
0.015046718 -0.017592547 0.09039423 -0.021250313 0.039446227 -0.024519842 0.07237316 0.012176611
0.08319182 -0.062597916 -0.0386314 0.04552026 0.09726502 0.08544251 -0.023843298 -0.025877988
0.025924327 -0.0566054 -0.052006427 -0.046033196 -0.088664174 -0.09291307 0.03428504 -0.0703318
-0.023936035 -0.007864622 0.055661544 -0.008024905 0.002935801 0.014169651 0.048852187 -0.0006696654
0.027326712 -0.117496066 0.042014685 -0.016958486 -0.0026907313 0.002574106 -0.08944405 0.015221131
-0.03581446 -0.056184057 0.085663654 0.030714503 0.06311597 0.006467368 -0.04798226 -0.01222023
-0.016783193 -0.00605804 -0.0013712407 -0.02060862 -0.0068226536 0.045822185 0.017536113 0.072448045
-0.01295553 0.09359294 0.0053813774 0.00907193 -0.018854475 0.01590167 0.04901296 0.121463954
-0.070615925 0.003736191 -0.037146006 0.002019819 0.0057761692 -0.010468362 0.055566598 0.0067515746
0.024853963 -0.01183619 0.07527332 0.043582745 -0.05209063 -0.09679526 0.12063343 -0.043436106
-0.016880505 0.13866244 0.09249053 -0.01605324 -0.06442157 0.091841795 -0.04364683 -0.112016946
-0.037543315 -0.023015223 0.08507908 0.0512724 -0.021714307 0.031880647 -0.042563405 0.018895386
0.09537597 -0.045663044 -0.010742108 -0.08100419 0.037562344 -0.11136702 0.06716949 0.043990307
-0.092153214 -0.11216099 0.06481401 0.009846416 -0.070904516 -0.028314546 0.028278146 0.08988284
0.056005705 0.034083284 -0.005597231 0.0033454336 0.0023977687 0.0065307496 0.033168066 0.004269957
-0.012205772 0.00020986961 0.05335556 0.039868824 -0.0025320891 0.02864044 -0.027235236 -0.0011973378
0.023479698 -0.006104753 0.023714442 -0.028840374 -0.00021458462 0.04810519 0.059213318 0.06522358
0.010925661 0.0146671105 0.021250045 0.00043445287 0.0068609784 -0.07242065 0.09389927 0.0034754747
0.09771738 -0.01926429 -0.03660799 -0.006547747 -0.0047879363 -0.044944152 0.1360615 -0.02986451
0.029885747 -0.007498716 0.02706954 -0.012703694 0.012789457 -0.0062390747 0.01265789 -0.031001706
-0.020991556 -0.010801415 -0.05172588 0.015384575 0.017852644 -0.105634026 -0.04850407 -0.0092946505
0.075901754 0.005692173 0.03586216 -0.08627801 0.03250456 0.04109766 -0.002284001 -0.018073471
0.020981003 -0.040428713 0.041804787 -0.033172898 -0.0005400221 -0.036395356 -0.048815835 0.14447008
00000000: 9a96 87bb 8fd2 42bd 61f1 603d 4bdd 293d
00000010: c49f 3fbc a024 09bd 279c 943c 7dab 833d
00000020: 8286 763c 3f1e 90bc 9c20 b93d 2315 aebc
00000030: 5e92 213d d6dd c8bc 6138 943d 6980 473c
00000040: 7960 aa3d 5633 80bd f53b 1ebd 7473 3a3d
00000050: e232 c73d 7cfc ae3d 0553 c3bc 13fe d3bc
00000060: 415f d43c 10db 67bd b104 55bd 4e8d 3cbd
00000070: 9095 b5bd 3549 bebd 786e 0c3d 1e0a 90bd
00000080: 8115 c4bc 9eda 00bc 5cfd 633d e47a 03bc
00000090: 9166 403b d327 683c 3b19 483d 7c8c 2fba
000000a0: 45dc df3c c7a1 f0bd 9717 2c3d 86ec 8abc
000000b0: fb56 30bb 55b2 283b 712e b7bd 0d62 793c
000000c0: 2fb2 12bd 4121 66bd 6d70 af3d fb9c fb3c
000000d0: f242 813d 37ec d33b 0c89 44bd 5c37 48bc
000000e0: e87c 89bc 8682 c6bb 34bb b3ba 69d3 a8bc
000000f0: 9190 dfbb 0bb0 3b3d e5a7 8f3c a45f 943d
00000100: 6e43 54bc a8ad bf3d 4456 b03b 6fa2 143c
00000110: b374 9abc 3844 823c d0c1 483d 18c2 f83d
00000120: 159f 90bd e2da 743b 6926 18bd f15e 043b
00000130: 0546 bd3b 7e83 2bbc cd99 633d 503c dd3b
00000140: 8a9a cb3c 94ec 41bc e628 9a3d d283 323d
00000150: fc5c 55bd 983c c6bd a90e f73d 0fea 31bd
00000160: fc48 8abc 87fd 0d3e ad6b bd3d 1682 83bc
00000170: 75ef 83bd 8d17 bc3d 05c7 32bd 2469 e5bd
00000180: 05c7 19bd 6c8a bcbc f13d ae3d 0203 523d
00000190: 34e2 b1bc 4895 023d f756 2ebd 7fca 9a3c
000001a0: 7a54 c33d 2c09 3bbd abff 2fbc 86e5 a5bd
000001b0: f9da 193d 6414 e4bd 2890 893d 2e2f 343d
000001c0: d3ba bcbd a9b4 e5bd 35bd 843d dd52 213c
000001d0: 6336 91bd e8f3 e7bc 92a7 e73c 7f14 b83d
000001e0: 3d66 653d ea9a 0b3d fa68 b7bb 103f 5b3b
000001f0: e223 1d3b e6ff d53b 3ddb 073d ffea 8b3b
00000200: b8fa 47bc 7210 5c39 5c8b 5a3d 7e4d 233d
00000210: 68f1 25bb 5b9f ea3c 6e1c dfbc fdef 9cba
00000220: 7f58 c03c 610a c8bb ca44 c23c a642 ecbc
00000230: 1f02 61b9 f309 453d aa89 723d f193 853d
00000240: 8b01 333c 524e 703c 9314 ae3c 47c7 e339
00000250: 0fd2 e03b 4751 94bd 434e c03d cac4 633b
00000260: 0d20 c83d 25d0 9dbc 42f2 15bd 7c8e d6bb
00000270: 1fe4 9cbb 5c17 38bd b553 0b3e 6ba6 f4bc
00000280: f4d2 f43c cab7 f5bb f1c0 dd3c 2823 50bc
00000290: df8a 513c 2771 ccbb 0a63 4f3c 4af7 fdbc
000002a0: 7cf6 abbc 6bf8 30bc 84de 53bd 960f 7c3c
000002b0: b53f 923c a756 d8bd 34ac 46bd 9748 18bc
000002c0: 6172 9b3d 6885 ba3b 33e4 123d 86b2 b0bd
000002d0: 8023 053d 0556 283d 2eaf 15bb d10e 94bc
000002e0: 5ae0 ab3c 9498 25bd 7f3b 2b3d 4ee0 07bd
000002f0: 4590 0dba 4c13 15bd 1df3 47bd f7ef 133e

st_gcn_networks.1.gcn.conv.bias f4 [24]
0.0036084908 0.025285125 0.000111109155 0.041469324 -0.0025222483 -0.00873663 0.021157118 -0.0068549872
-0.08039241 -0.0031675233 0.0010034268 0.0069478527 -0.07189551 0.024188375 0.08347164 0.013061344
-0.019102251 -0.059463326 0.00980838 0.036486935 0.01465384 -0.026712792 0.02772644 -0.032517236
00000000: 6e7c 6c3b c022 cf3c 4603 e938 bddb 293d
00000010: 4e4c 25bb 1524 0fbc b151 ad3c cd9f e0bb
00000020: c7a4 a4bd 3996 4fbb 6b85 833a d0aa e33b
00000030: f43d 93bd b326 c63c 2ef3 aa3d 3fff 553c
00000040: 537c 9cbc d18f 73bd 54b3 203c 5373 153d
00000050: a916 703c c9d4 dabc 8f22 e33c cb30 05bd

st_gcn_networks.1.tcn.0.weight f4 [8]
0.30179757 0.26305044 0.39966795 0.41103503 0.23682742 0.3480341 0.38651088 0.3446835
00000000: 3685 9a3e 8cae 863e 47a1 cc3e 2f73 d23e
00000010: e382 723e 8731 b23e c1e4 c53e 5b7a b03e

st_gcn_networks.1.tcn.0.bias f4 [8]
-0.009920654 0.002952383 0.020687163 0.030486781 -0.0027438118 -0.0031505479 -0.022126658 6.126619e-05
00000000: 3d8a 22bc c47c 413b 2078 a93c 6abf f93c
00000010: 86d1 33bb 6c79 4ebb f742 b5bc 097c 8038

st_gcn_networks.1.tcn.0.running_mean f4 [8]
-0.00095990143 0.0023037484 0.0025122925 0.0041743573 -0.0041936543 -0.005745743 0.010008442 0.0023592648
00000000: e5a1 7bba 7cfa 163b 46a5 243b 0cc9 883b
00000010: ec6a 89bb c946 bcbb 73fa 233c e59d 1a3b

st_gcn_networks.1.tcn.0.running_var f4 [8]
2.2696686e-05 2.279248e-05 7.808354e-05 5.5944074e-05 4.3783184e-05 4.779674e-05 6.5185435e-05 4.027748e-05
00000000: c364 be37 7a32 bf37 c8c0 a338 7ea5 6a38
00000010: d6a3 3738 5c79 4838 2ab4 8838 9def 2838

st_gcn_networks.1.tcn.2.weight f4 [8, 8, 9, 1]
0.0014918274 -0.0054551647 -0.01054493 -0.005998007 -0.008370276 -0.0070114653 -0.0008632472 0.0067416104
0.015387506 -0.0103563145 -0.021034809 -0.0036791987 -0.0051740645 -0.027330678 -0.010649555 -0.009250748
-0.016152373 -0.01416489 0.028476812 -0.0086446125 0.011105617 -0.021210095 0.012766832 -0.0031332278
0.02418391 -0.024718374 -0.03568511 -0.009323599 -0.008098468 0.011118551 0.0021171186 -0.009459618
0.011408608 -0.034343418 -0.042277716 -0.03588504 0.010015829 -0.02108884 -0.0031336818 -0.016982673
0.016532749 0.021971459 0.015331427 0.00022843965 0.004126465 -0.005244625 -0.01855575 0.009278874
0.0129341595 0.004607217 -0.0055030296 0.008694212 -0.021560606 -0.014784522 -0.0011315651 0.01411516
0.019041097 -0.012363723 0.017313723 0.033902198 0.019899152 0.0021109837 0.008565536 0.0060867216
0.0061831344 -0.021045022 -0.02660615 -0.0007384529 -0.013165401 -0.0029522846 0.016293045 -0.004114237
-0.009657773 -0.01948609 -0.006199746 0.0041028867 -0.008713017 0.0038283928 -0.010449542 -0.0018979966
-0.009241789 -0.019923816 -0.008604482 -0.008369195 -0.016293813 0.028250838 0.02620207 0.026109055
-0.010288911 0.0022185664 -0.0059361 -0.0076520895 0.020831391 0.027604608 0.021922423 0.03150271
0.008391299 0.019915318 0.026953595 0.00013543286 0.040031377 0.0050402395 0.035190657 0.019137599
0.03567731 0.042926636 0.016338902 0.047240626 -0.023231892 0.011670454 -0.0026024838 -0.012359598
0.010284279 -0.014968979 0.010740971 0.0004766814 0.038865067 0.013571017 -0.009644489 0.007900287
-0.019708026 -0.023010852 -0.020455463 0.0041993507 0.009320983 0.0062313797 -0.010073772 0.0039273594
0.03094835 -0.00963203 0.015539382 0.022227302 0.028345581 -0.009714471 0.024837838 0.0032560013
-0.0040601143 -0.0085225 -0.0056745894 -0.026235275 0.011727444 0.026272824 -0.009200246 -0.0036229817
0.013331351 -0.034960132 -0.034072112 -0.018678209 -0.023374602 0.014391378 0.0024076055 -0.030277738
-0.023154533 0.031249825 0.012347749 -0.0048947157 -0.0010725857 -0.004891649 -0.025175825 -0.026561528
-0.008158369 -0.0070899567 0.03677249 -0.019661682 0.016006337 0.029255709 0.005725979 0.011028137
0.013547396 0.00011756636 -0.010007359 -0.020609632 0.01289707 -0.054563515 0.0011558193 -0.022874469
-0.04198817 -0.04226721 0.016036157 0.011126802 -0.012218107 0.05433188 -0.036798064 0.044907417
-0.00905412 0.029408013 0.025882611 -0.0035893784 0.02361016 0.013508419 -0.046515632 0.024821758
-0.004659743 -0.0021414866 -0.03747344 0.009177191 -0.045327477 -0.03505111 -0.0005313491 -0.00023891371
0.025180316 0.04102614 0.0072576255 -0.016049847 -0.002741104 0.010790289 0.042586807 0.00072793046
0.043438204 0.0202917 -0.009461415 0.01814136 0.0077446727 0.001313283 -0.004956772 0.0028302744
0.0038629961 -0.007199487 0.019369638 -0.01589751 -0.012858055 0.001567746 -0.022392178 -0.022246538
0.0039370833 0.049308263 -0.009801033 0.021731248 0.01671366 0.043650337 0.004226879 -0.017081182
-0.032678053 0.01854763 0.015845504 0.027661003 0.0144206425 -0.020740844 0.039517753 0.019288966
0.020563718 0.027211804 0.0383681 -0.0059594284 -0.010718589 -0.02253491 0.0074685747 -0.0144333355
-0.024168313 -0.009919401 0.024998248 -0.031186264 0.0034101584 -0.0017248852 -0.0015050027 -0.005424974
00000000: 6c89 c33a 3dc1 b2bb a4c4 2cbc ee8a c4bb
00000010: 7b23 09bc 6fc0 e5bb 8a4b 62ba bae8 dc3b
00000020: e11b 7c3c 88ad 29bc 3151 acbc b61e 71bb
00000030: 338b a9bb 96e4 dfbc 797b 2ebc 7390 17bc
00000040: fb51 84bc db13 68bc 3448 e93c 22a2 0dbc
00000050: 55f4 353c cbc0 adbc f92b 513c d756 4dbb
00000060: 561d c63c 307e cabc 8d2a 12bd 02c2 18bc
00000070: 70af 04bc 952a 363c 5bbf 0a3b 83fc 1abc
00000080: 2ceb 3a3c afab 0cbd 662b 2dbd 31fc 12bd
00000090: 6e19 243c 81c2 acbc 755e 4dbb 3f1f 8bbc
000000a0: b06f 873c 7dfd b33c aa30 7b3c 4d89 6f39
000000b0: 4c37 873b 1adb abbb 3a02 98bc 6b06 183c
000000c0: cce9 533c 23f8 963b c252 b4bb 2b72 0e3c
000000d0: de9f b0bc c83a 72bc 0651 94ba 4643 673c
000000e0: 13fc 9b3c 3691 4abc 82d5 8d3c 08dd 0a3d
000000f0: 8c03 a33c 6e58 0a3b 7656 0c3c 1f73 c73b
00000100: e49b ca3b 9c66 acbc 24f5 d9bc bc94 41ba
00000110: b2b3 57bc 1e7b 41bb fe78 853c b9d0 86bb
00000120: a33b 1ebc 4ba1 9fbc 3d27 cbbb 8271 863b
00000130: 0bc1 0ebc c6e5 7a3b 8e34 2bbc 33c6 f8ba
00000140: df6a 17bc 4537 a3bc d0f9 0cbc f31e 09bc
00000150: 9a7a 85bc 4d6e e73c b9a5 d63c a8e2 d53c
00000160: d292 28bc 5e65 113b 9e83 c2bb 61be fabb
00000170: 98a6 aa3c 0f23 e23c a796 b33c fc08 013d
00000180: a97b 093c 7325 a33c c9cd dc3c fb02 0e39
00000190: f1f7 233d 9828 a53b 1424 103d 74c6 9c3c
000001a0: 5f22 123d d7d3 2f3d 29d9 853c 637f 413d
000001b0: cf50 bebc 6f35 3f3c 6f8e 2abb e97f 4abc
000001c0: 647f 283c 7340 75bc e6fa 2f3c 18eb f939
000001d0: fa30 1f3d f958 5e3c eb03 1ebc 3570 013c
000001e0: ba72 a1bc 4181 bcbc 3792 a7bc b59a 893b
000001f0: 09b7 183c 9a30 cc3b 760c 25bc 14b1 803b
00000200: 6587 fd3c a9cf 1dbc e498 7e3c 0816 b63c
00000210: fe34 e83c 7229 1fbc b978 cb3c a362 553b
00000220: b50a 85bb f5a1 0bbc e8f1 b9bb 5ceb d6bc
00000230: 7724 403c 1b3a d73c a1bc 16bc 8c6f 6dbb
00000240: bd6b 5a3c 5b32 0fbd 338f 0bbd 0b03 99bc
00000250: 187c bfbc d0c9 6b3c ebc8 1d3b 0509 f8bc
00000260: 93ae bdbc a2ff ff3c 374e 4a3c da63 a0bb
00000270: 0196 8cba 204a a0bb 883d cebc 9097 d9bc
00000280: aeaa 05bc de52 e8bb c09e 163d 8911 a1bc
00000290: b91f 833c aba9 ef3c fea0 bb3b 5caf 343c
000002a0: e6f5 5d3c f58d f638 e8f5 23bc 88d5 a8bc
000002b0: 3b4e 533c fe7d 5fbd dc7e 973a 3d63 bbbc
000002c0: cafb 2bbd 6220 2dbd 425e 833c 314d 363c
000002d0: 742e 48bc 1b8b 5e3d 91b9 16bd d7f0 373d
000002e0: bb57 14bc 13e9 f03c c507 d43c c73b 6bbb
000002f0: 186a c13c 6a52 5d3c 2d87 3ebd 0057 cb3c
00000300: c2b0 98bb 2f58 0cbb c07d 19bd ee5b 163c
00000310: 4ea9 39bd c191 0fbd 3c4a 0bba e984 7ab9
00000320: f346 ce3c 070b 283d 60d1 ed3b f87a 83bc
00000330: 18a4 33bb c1c9 303c 816f 2e3d 96d2 3e3a
00000340: 42ec 313d c73a a63c 0d04 1bbc 309d 943c
00000350: 06c7 fd3b 7722 ac3a 6b6c a2bb 207c 393b
00000360: 522a 7d3b ade9 ebbb 13ad 9e3c 7f3b 82bc
00000370: 97aa 52bc d47c cd3a cd6f b7bc 5f3e b6bc
00000380: a602 813b 76f7 493d 8394 20bc bb05 b23c
00000390: 16eb 883c b2ca 323d a281 8a3b d6ed 8bbc
000003a0: 6cd9 05bd 33f1 973c 6ece 813c 5499 e23c
000003b0: 8f44 6c3c b4e8 a9bc 5edd 213d e503 9e3c
000003c0: 3e75 a83c 4aeb de3c de27 1d3d 4f47 c3bb
000003d0: 059d 2fbc 229b b8bc f2ba f43b cc79 6cbc
000003e0: a0fc c5bc fc84 22bc 20c9 cc3c 567a ffbc
000003f0: f77c 5f3b 8b15 e2ba 8343 c5ba fbc3 b1bb

st_gcn_networks.1.tcn.2.bias f4 [8]
1.0708911e-05 -2.8771626e-06 1.474707e-05 -1.3393724e-05 -1.3076393e-05 -3.8411695e-06 2.4648454e-05 7.662186e-06
00000000: 6caa 3337 4715 41b6 2f6a 7737 9bb5 60b7
00000010: ae62 5bb7 65e3 80b6 27c4 ce37 d78c 0037

st_gcn_networks.1.tcn.3.weight f4 [8]
0.26898172 0.346992 0.38855022 0.39481434 0.2887734 0.43572235 0.37209982 0.2520933
00000000: f9b7 893e efa8 b13e 0ef0 c63e 1b25 ca3e
00000010: 1bda 933e 0017 df3e de83 be3e 5f12 813e

st_gcn_networks.1.tcn.3.bias f4 [8]
0.006244424 0.00087126606 -0.014904303 -0.003636056 -0.012668165 -0.002965087 -0.0025252837 0.009174564
00000000: 069e cc3b ad65 643a 2d31 74bc e64a 6ebb
00000010: 238e 4fbc e851 42bb 3b7f 25bb e950 163c

st_gcn_networks.1.tcn.3.running_mean f4 [8]
-0.024725443 0.054407522 -0.011105747 0.012505968 -0.009562566 0.017533597 -0.031145606 -0.040360983
00000000: 038d cabc 6cda 5e3d e1f4 35bc d5e5 4c3c
00000010: 4fac 1cbc 9ea2 8f3c 1225 ffbc 8f51 25bd

st_gcn_networks.1.tcn.3.running_var f4 [8]
0.0018926316 0.009314003 0.002279819 0.0028260346 0.0013085157 0.00385793 0.0022863795 0.004218227
00000000: 2e12 f83a c399 183c 0469 153b fe34 393b
00000010: 8082 ab3a 53d5 7c3b 15d7 153b 0e39 8a3b

st_gcn_networks.1.residual.0.weight f4 [8, 8, 1, 1]
-0.051014345 -0.06817881 -0.119060636 -0.001109245 -0.052302442 0.0427674 0.07683316 -0.054241136
-0.10915908 -0.06755702 -0.028850673 -0.01863569 -0.04112491 0.11680313 0.112018004 -0.103259
-0.14637305 -0.0105705885 0.07151067 -0.0077393446 -0.04198983 0.06361794 -0.005847719 -0.077630505
0.08470667 -0.014924708 -0.071999006 -0.020755613 -0.021530062 -0.024916006 0.0863925 0.100974195
-0.028005604 0.042677067 -0.089573115 0.0025123912 0.027334165 -0.057994314 0.1331749 0.05811988
0.14009665 0.043478772 0.10807471 -0.009059629 -0.062370222 -0.07695863 -0.04519896 -0.106845036
0.038850736 0.012411972 -0.07429598 0.034467384 -0.021827562 -0.025953354 -0.06851697 0.0031059629
-0.03258479 0.004795426 0.09916979 0.008971415 0.08388624 0.12374204 -0.12672202 -0.06440333
00000000: 6bf4 50bd 55a1 8bbd 10d6 f3bd 1664 91ba
00000010: 163b 56bd df2c 2f3d b45a 9d3d f42b 5ebd
00000020: cc8e dfbd 565b 8abd 3f58 ecbc e0a9 98bc
00000030: 9872 28bd 7b36 ef3d b269 e53d 7479 d3bd
00000040: d1e2 15be 4330 2dbc 3074 923d 549a fdbb
00000050: 87fd 2bbd 1f4a 823d 399e bfbb befc 9ebd
00000060: b17a ad3d c386 74bc 3774 93bd ad07 aabc
00000070: d05f b0bc a71c ccbc 8dee b03d 8fcb ce3d
00000080: 026c e5bc 26ce 2e3d 1c72 b7bd eea6 243b
00000090: e6eb df3c 728b 6dbd 005f 083e 1c0f 6e3d
000000a0: 7f75 0f3e cc16 323d 4656 dd3d d76e 14bc
000000b0: eb77 7fbd 7c9c 9dbd 8b22 39bd 92d1 dabd
000000c0: f321 1f3d 955b 4b3c 7e28 98bd ac2d 0d3d
000000d0: b7cf b2bc 219c d4bc a052 8cbd 698d 4b3b
000000e0: a177 05bd f322 9d3b 8819 cb3d d8fc 123c
000000f0: 8dcc ab3d 776c fd3d 6bc3 01be e5e5 83bd

st_gcn_networks.1.residual.0.bias f4 [8]
1.0511061e-05 -1.5467653e-05 1.2479092e-05 2.9385114e-06 -7.574272e-06 -5.3885287e-06 4.3546344e-05 -1.2637149e-06
00000000: aa58 3037 88c0 81b7 4b5d 5137 3e33 4536
00000010: 8026 feb6 1ccf b4b6 88a5 3638 ea9c a9b5

st_gcn_networks.1.residual.1.weight f4 [8]
0.29901317 0.332103 0.38192284 0.31499782 0.31781968 0.34978604 0.4475639 0.27778164
00000000: 4118 993e 6809 aa3e 648b c33e 6547 a13e
00000010: 43b9 a23e 2817 b33e 1827 e53e 6539 8e3e

st_gcn_networks.1.residual.1.bias f4 [8]
0.006244424 0.00087126606 -0.014904303 -0.003636056 -0.012668165 -0.002965087 -0.0025252837 0.009174564
00000000: 069e cc3b ad65 643a 2d31 74bc e64a 6ebb
00000010: 238e 4fbc e851 42bb 3b7f 25bb e950 163c

st_gcn_networks.1.residual.1.running_mean f4 [8]
-0.0298621 -0.012531574 -0.01881207 0.021388326 0.015121967 -0.0033379067 -0.019370364 0.011300183
00000000: 5da1 f4bc 3b51 4dbc c51b 9abc 9236 af3c
00000010: 20c2 773c c8c0 5abb 99ae 9ebc 6724 393c

st_gcn_networks.1.residual.1.running_var f4 [8]
0.0013427003 0.002893158 0.001537098 0.0015846255 0.0026018207 0.0026208658 0.0006988206 0.0029299683
00000000: 8cfd af3a 239b 3d3b 7378 c93a 35b3 cf3a
00000010: 4f83 2a3b d5c2 2b3b 0e31 373a b604 403b

st_gcn_networks.2.gcn.conv.weight f4 [48, 8, 1, 1]
0.029364442 -0.03921681 -0.0024072812 -0.039424594 0.04913417 -0.006936591 -0.084534034 -0.0124503495
-0.0012858505 -0.023073109 -0.018613337 -0.007976047 -0.010283001 0.017617112 0.008295258 0.0105541535
-0.013222816 -0.048948426 0.0018082461 -0.035266936 -0.0011647048 0.0174778 -0.00062805024 0.04339582
0.00036239467 -0.029723307 -0.00061555783 -0.0024519244 0.056059558 -0.04896253 -0.0059033907 0.045050256
-0.005450081 -0.007710297 -0.0025364952 -0.03167627 -0.0012717858 0.036707688 -0.020014308 -0.0061133285
0.06174195 0.0019081823 -0.08207493 -0.027212845 0.12064393 -0.0028000183 -0.113295004 -0.025918517
-0.029022073 -0.08324699 -0.06508817 -0.010299228 -0.035993367 0.06299925 -0.085352324 0.04341681
-0.025387116 -0.018294161 0.030997168 0.00061562634 -0.00014016776 -0.01361822 -0.008412035 0.01952301
-0.0008180414 -0.025529578 0.0098736845 -0.0022467251 -0.06505166 0.058835585 -0.0071262326 0.0063554104
-0.0020150736 -0.015597715 0.017110698 0.0148395365 0.03093379 -0.021828774 -0.00770779 0.005228752
0.010117836 -0.024122111 0.021128276 0.0062765577 0.054841187 0.063056834 0.01906521 0.0074564186
0.033682816 -0.080566645 -0.06817659 0.030866807 -0.0086745145 -0.014272419 0.012383334 0.007796156
0.02410773 -0.0405906 -0.0077589126 0.08194991 -0.041381173 0.0052039903 0.005828165 -0.0045877327
-0.01040761 -0.038470052 0.088738665 -0.024630811 -0.013227846 0.0150869675 -0.0019174295 0.019181423
-0.010608964 0.018152922 0.042878274 -0.07303629 -0.0067159575 0.04858176 0.0017748595 -0.0074331053
-0.008759621 0.001294019 -0.0013886637 -0.030244034 -0.0056058383 0.0032604001 -0.013349986 -0.0043956754
0.012008551 -0.028417824 0.034236155 -0.034376584 0.026194936 0.10092951 0.0887643 -0.009459192
-0.009135497 -0.042681783 -0.017977148 -0.016225694 -0.0022839382 0.024636384 0.05578786 0.003989855
0.018324116 -0.008813763 0.064421915 -0.006146963 0.053595625 -0.006316223 0.007179996 -0.021532672
0.051992618 0.040334165 -0.0155561585 -0.036169235 0.067609936 -0.029183315 -0.031207006 -0.033296313
-0.006413282 -0.0035005575 0.031254824 -0.008932796 -0.00892531 0.04061754 0.035445254 0.0026380974
0.01846482 0.040302217 -0.042002656 -0.05058312 0.024442656 -0.12057119 0.038902037 0.002461439
0.03413241 0.05314098 -0.062198553 0.044922333 0.084257625 -0.034242783 -0.015901696 -0.013887848
0.020717012 -0.058103926 0.035458773 0.0031310932 -0.015176092 0.038515862 -0.016611505 0.044614047
0.047263063 0.06295276 -0.032795876 0.027344447 0.071062885 0.002324803 0.030938966 -0.023564855
-0.005892823 -0.004370518 -0.016103534 0.025344959 -0.016006775 0.04399045 0.0039985008 -0.012217179
0.027031584 -0.047515932 0.01943025 0.03166623 0.0027153546 -0.004229037 0.018160505 0.026284149
0.08091909 0.090527855 0.021554586 0.0053701177 -0.032979235 -0.012307837 0.088252194 0.032876663
0.04679461 0.0002522215 0.012070886 -0.058655474 -0.014927234 -0.010108706 0.029385427 -0.0019087624
-0.0018075863 0.047811814 -0.06732592 0.09406259 -0.020570014 -0.0860664 0.0068558156 0.09674512
-0.00791727 -0.015639884 0.007139941 0.0015604758 0.012455569 0.020531422 -0.0032935638 -0.007778229
-0.002658859 -0.031950377 0.015233901 0.018941406 0.001482119 0.014894592 -0.007611041 0.007171297
00000000: b38d f03c cea1 20bd 7ac3 1dbb af7b 21bd
00000010: e940 493d 584c e3bb 2e20 adbd 8dfc 4bbc
00000020: fc89 a8ba d103 bdbc ff7a 98bc f7ad 02bc
00000030: 087a 28bc c351 903c d5e8 073c 54eb 2c3c
00000040: 83a4 58bc 257e 48bd ac02 ed3a 1074 10bd
00000050: 02a9 98ba 9a2d 8f3c bda3 24ba d1bf 313d
00000060: caff bd39 4b7e f3bc 635d 21ba 77b0 20bb
00000070: b59e 653d ef8c 48bd 3b71 c1bb 9e86 383d
00000080: 9896 b2bb a9a6 fcbb 543b 26bb fabe 01bd
00000090: 0db2 a6ba cd5a 163d 0cf5 a3bc 5152 c8bb
000000a0: 21e5 7c3d f91b fa3a e716 a8bd 79ed debc
000000b0: 2a14 f73d 8380 37bb 3607 e8bd 1253 d4bc
000000c0: b3bf edbc 667d aabd f24c 85bd 18be 28bc
000000d0: c86d 13bd c005 813d 33cd aebd d3d5 313d
000000e0: a4f8 cfbc a3dd 95bc c6ed fd3c fc61 213a
000000f0: fff9 12b9 f41e 5fbc a2d2 09bc b8ee 9f3c
00000100: d471 56ba 6823 d1bc 3cc5 213c cb3d 13bb
00000110: ce39 85bd 95fd 703d 2c83 e9bb 0c41 d03b
00000120: 530f 04bb 8f8d 7fbc bc2b 8c3c 8721 733c
00000130: dc68 fd3c 42d2 b2bc a191 fcbb f355 ab3b
00000140: 48c5 253c bc9b c5bc 3515 ad3c 95ab cd3b
00000150: 27a1 603d f123 813d a52e 9c3c f954 f43b
00000160: fef6 093d 2000 a5bd 2ba0 8bbd 63dc fc3c
00000170: 8d1f 0ebc ddd6 69bc 78e3 4a3c e676 ff3b
00000180: 937d c53c 5442 26bd 7a3e febb 5bd5 a73d
00000190: 4e7f 29bd 3c86 aa3b 31fa be3b b154 96bb
000001a0: ae84 2abc c692 1dbd 9ebc b53d 8ec6 c9bc
000001b0: 9bb9 58bc 542f 773c 4252 fbba 5c22 9d3c
000001c0: 38d1 2dbc 70b5 943c 21a1 2f3d 0d94 95bd
000001d0: 8911 dcbb abfd 463d 67a2 e83a 6891 f3bb
000001e0: 8384 0fbc 139c a93a d203 b6ba 56c2 f7bc
000001f0: 2eb1 b7bb 70ac 553b e6b9 5abc 9909 90bb
00000200: 83bf 443c 7fcc e8bc 363b 0c3d 76ce 0cbd
00000210: c396 d63c 22b4 ce3d 0fca b53d bafa 1abc
00000220: 0dad 15bc 18d3 2ebd d044 93bc bfeb 84bc
00000230: 20ae 15bb 3ed2 c93c d081 643d 54bd 823b
00000240: 751c 963c 9a67 10bc a3ef 833d 776c c9bb
00000250: 1687 5b3d 52f8 cebb 2c46 eb3b 4965 b0bc
00000260: 36f6 543d 7035 253d 42df 7ebc 3126 14bd
00000270: 1477 8a3d d911 efbc d6a5 ffbc b761 08bd
00000280: 8226 d2bb 9c69 65bb 0f05 003d dd5a 12bc
00000290: 773b 12bc 945e 263d 0b2f 113d eee3 2c3b
000002a0: 8943 973c f013 253d fa0a 2cbd 3f30 4fbd
000002b0: f73b c83c 07ee f6bd be57 1f3d 1850 213b
000002c0: 6dce 0b3d 5baa 593d e9c3 7ebd 7b00 383d
000002d0: 438f ac3d 2942 0cbd 4644 82bc db89 63bc
000002e0: b9b6 a93c 62fe 6dbd 383d 113d 0733 4d3b
000002f0: 25a5 78bc cfc2 1d3d da14 88bc 38bd 363d
00000300: ea96 413d 60ed 803d f854 06bd 7601 e03c
00000310: 6b89 913d b95b 183b b773 fd3c 150b c1bc
00000320: 9518 c1bb 9036 8fbb 8feb 83bc 3ba0 cf3c
00000330: a420 83bc 552f 343d db05 833b 902a 48bc
00000340: 5771 dd3c 11a0 42bd 302c 9f3c 73b4 013d
00000350: 17f4 313b bc93 8abb 57c5 943c db51 d73c
00000360: e8b8 a53d ab66 b93d 3e93 b03c d0f7 af3b
00000370: 3c15 07bd cfa6 49bc 91bd b43d aea9 063d
00000380: b4ab 3f3d 993c 8439 f7c4 453c b940 70bd
00000390: 5b91 74bc fc9e 25bc b5b9 f03c 702f faba
000003a0: 88ec ecba 52d6 433d 2ce2 89bd e3a3 c03d
000003b0: 7282 a8bc 9543 b0bd c0a6 e03b 4e22 c63d
000003c0: 70b7 01bc 371f 80bc 2bf6 e93b e188 cc3a
000003d0: 7112 4c3c 8331 a83c d5d8 57bb 84e0 febb
000003e0: 4040 2ebb 66de 02bd 9d97 793c 022b 9b3c
000003f0: a943 c23a 7208 743c 0a66 f9bb 33fd ea3b

st_gcn_networks.2.gcn.conv.bias f4 [48]
-0.011879543 0.008888126 -0.021981653 0.0058017084 -0.004477554 -0.026214467 0.03975689 -0.008926619
-0.0041742693 -0.015453954 -0.014859016 -0.0021462366 -0.023310574 -0.010725737 -0.009616791 0.0004912531
-0.06505337 -0.013757577 -0.0067950813 0.009516129 0.01417512 -0.026282744 -0.009487867 -0.009609758
-0.06483244 -0.015688755 -0.020755578 -0.04305228 0.025544278 0.04016155 -0.016826903 -0.00941752
0.006954386 0.013969172 -0.0035132503 0.013449458 -0.017580025 0.0021820203 -0.0070095067 -0.012993147
-0.025349414 0.0044697444 -0.018306183 -0.03482058 0.0337247 -0.0061164736 0.012902576 0.00017828024
00000000: 6aa2 42bc 819f 113c de12 b4bc 421c be3b
00000010: 72b8 92bb b9bf d6bc 1fd8 223d f440 12bc
00000020: 4fc8 88bb 9532 7dbc 3b73 73bc e0a7 0cbb
00000030: d1f5 bebc 00bb 2fbc bf8f 1dbc 70c7 003a
00000040: b43a 85bd 7667 61bc 46a9 debb 8ae9 1b3c
00000050: c33e 683c e94e d7bc 0073 1bbc 3f72 1dbc
00000060: dfc6 84bd b485 80bc 9a07 aabc 9657 30bd
00000070: 3c42 d13c 7080 243d 93d8 89bc f14b 1abc
00000080: 9ee1 e33b f4de 643c 8f3e 66bb 1e5b 5c3c
00000090: fc03 90bc 3a00 0f3b 01b0 e5bb 35e1 54bc
000000a0: 93a9 cfbc ef76 923b d9f6 95bc 06a0 0ebd
000000b0: e922 0a3d b36c c8bb 5365 533c bdf0 3a39

st_gcn_networks.2.tcn.0.weight f4 [16]
0.3094865 0.2017054 0.25970167 0.26284733 0.10195812 0.32613468 0.27079016 0.21837305
0.251788 0.16410519 0.21128204 0.24869223 0.18432489 0.2636527 0.15065902 0.11440926
00000000: 0475 9e3e dc8b 4e3e 9ef7 843e ed93 863e
00000010: 6bcf d03d 20fb a63e 02a5 8a3e 2f9d 5f3e
00000020: 5bea 803e 310b 283e 525a 583e 2da9 7e3e
00000030: aabf 3c3e 7dfd 863e 5c46 1a3e 674f ea3d

st_gcn_networks.2.tcn.0.bias f4 [16]
-0.0041761063 0.0055297804 -0.0073650084 -0.009437977 0.012430869 -0.010070761 -0.0064580524 -0.020066023
-0.021797724 -0.024333237 -0.021295978 -0.017859092 -0.012071632 -0.050649006 -0.0006349503 -0.023644377
00000000: b8d7 88bb 2933 b53b 2b56 f1bb bfa1 1abc
00000010: d8aa 4b3c d5ff 24bc 129e d3bb 8061 a4bc
00000020: 2491 b2bc 7f56 c7bc e774 aebc 3b4d 92bc
00000030: 18c8 45bc 5575 4fbd cb72 26ba dab1 c1bc

st_gcn_networks.2.tcn.0.running_mean f4 [16]
-0.0035699292 -0.00010157524 -0.0016126819 0.0006012165 0.00092219317 -0.0103160655 -0.0015068739 -0.0020559703
-0.0027869262 -0.00065530516 -0.0014310103 -0.0031724272 0.0031785117 0.0033260772 -0.00053013593 -0.0005882102
00000000: 79f5 69bb cb04 d5b8 a060 d3ba f59a 1d3a
00000010: 56bf 713a b704 29bc 4c82 c5ba 75bd 06bb
00000020: dda4 36bb c9c8 2bba bd90 bbba 7fe8 4fbb
00000030: 944e 503b 51fa 593b d2f8 0aba 1e32 1aba

st_gcn_networks.2.tcn.0.running_var f4 [16]
1.6413376e-05 2.1206937e-05 1.37973475e-05 3.4902478e-05 1.5372287e-05 0.00014427272 2.1661555e-05 1.16854035e-05
2.5506311e-05 1.1755881e-05 1.2559357e-05 1.8441606e-05 1.3682555e-05 2.8554872e-05 9.570354e-06 7.5912453e-06
00000000: 75af 8937 8de5 b137 287b 6737 4064 1238
00000010: bcf3 8037 ea47 1739 d6b5 b537 6d0c 4437
00000020: 63f6 d537 203b 4537 07b6 5237 0cb3 9a37
00000030: 208e 6537 1f89 ef37 5c90 2037 4db8 fe36

st_gcn_networks.2.tcn.2.weight f4 [16, 16, 9, 1]
-0.007696505 -0.003695641 -0.014373151 -0.00821387 -0.008767966 -0.0042662546 -0.0042768894 -0.008021748
-0.0058072554 -0.0015279714 -0.0015465755 -0.00084266544 -0.0008747457 0.002937252 0.00033921425 0.0010413781
-0.0015328431 0.0017475727 0.0020536745 -0.005694668 0.0013753098 -0.0017602434 0.001967731 -0.00417695
0.009168064 0.007847805 0.005722326 -0.0027425303 -0.00030648086 0.0019221962 -0.00053380785 0.0032775374
0.00689516 0.006548491 0.0096598305 0.009805518 -0.002395167 -0.0018069481 -0.006050053 -0.0059541175
-0.005672353 -0.007822038 -0.006530464 -0.008758326 -0.011514393 -0.0075820913 -0.005532866 -0.0017706016
-0.0011071067 0.0010133903 0.0065102708 0.0023945144 0.0072006136 0.0058515975 0.010020226 0.00813379
0.0042673578 0.003418045 0.009985138 0.009620933 0.007428102 0.0065937694 0.004057535 0.006425678
0.008005936 0.004098197 0.0029691574 0.002124373 0.001148223 0.002515396 0.0015728258 0.002077217
0.013614947 0.010486429 0.008514623 0.00797131 0.008278134 0.00831515 0.0074935635 0.003822273
0.0071331365 0.004411219 0.0044607446 0.0036980961 0.003906664 0.003704286 0.0029169186 0.0018295948
-0.0027578333 -0.00471339 -0.010724878 -0.0064564883 -0.007584955 -0.0040419847 -0.003074205 -0.006168133
-0.0058378563 -0.0076095723 -0.012674107 0.0027966446 0.0032623962 0.006557027 0.004701214 0.0026257406
0.004810717 -0.0036102443 -2.0421941e-05 0.0025324358 -0.006503548 -0.008566846 -0.0057140426 -0.005019716
-0.0024697508 -0.0022842907 -0.0053534047 -0.0025912824 -0.0024091545 0.003141769 0.0005861016 -0.008069471
0.0036556278 -0.0076047443 -0.0024737057 -0.009196173 -0.006433384 -0.0023476398 -0.0016065075 -0.0015782107
-0.0050175656 -0.0031662034 -0.004386388 -0.0064231013 -0.0006237534 -0.0056945556 -0.0052663595 0.0030394285
0.0034340716 0.002766897 0.0036197691 0.0030797643 0.00479357 0.00346211 0.0026122478 0.0009847806
0.0082832305 0.0004925041 0.015534894 0.0068322537 0.009145881 0.010666903 0.0067443755 0.0038646527
0.014030359 -0.004629036 -0.0012245242 -0.008051691 -0.0058896965 -0.011752421 -0.007976174 -0.015871784
-0.012970076 -0.008733164 -0.02692077 0.0015882539 -0.020616077 0.02309529 -0.0056082616 0.004518101
-0.014193283 0.0032688435 -0.017125905 -0.009825094 -0.0040410017 -0.022685481 -0.0046940055 -0.006137617
-0.014482941 -0.012601452 -0.009620021 -0.0015377225 -0.004065781 -0.009571175 -0.009283691 -0.0116218915
-0.0045481087 -0.009579749 -0.0046333666 0.0026022377 0.009902346 -0.007464125 -0.01630793 -0.0070495536
-0.021873655 -0.01582173 -0.028428508 -0.018826447 -0.032941863 -0.012734585 0.0032038959 0.010164882
0.010213809 0.016112443 0.025886932 0.007855942 0.014980057 -0.004787767 0.017358847 -0.008969695
-0.0044862395 -0.0022628831 -0.007814061 -0.01582217 -0.009573847 -0.003974903 -0.007226676 -0.0059789913
-0.009322906 -0.008599781 -0.005231178 -0.01852907 -0.015889365 -0.016040208 -0.01069449 -0.015825529
-0.0211497 0.003558842 0.0130850375 -0.0061751064 -0.010442771 0.00161302 0.012739032 0.0011765497
-0.023122648 0.0058538695 -0.0007877424 -0.026052052 -0.026059363 -0.02932792 0.004814157 -0.038405757
-0.015404092 -0.013810352 -0.025720747 0.015231694 0.011006728 0.0030170188 0.0064613665 0.0039774454
0.008980403 0.001668448 0.007303166 0.01444794 0.009472486 0.012088823 0.01521637 -0.00030449548
00000000: f732 fcbb 9132 72bb 5d7d 6bbc 7893 06bc
00000010: 84a7 0fbc f0cb 8bbb 2625 8cbb a66d 03bc
00000020: ca4a bebb 3646 c8ba 76b6 caba 52e6 5cba
00000030: 314f 65ba e97e 403b 91d8 b139 da7e 883a
00000040: aee9 c8ba cf0e e53a f196 063b 569a babb
00000050: bd43 b43a f8b7 e6ba 0cf5 003b ccde 88bb
00000060: a635 163c 1494 003c 5a82 bb3b 06bc 33bb
00000070: 2aaf a0b9 34f2 fb3a 3def 0bba f4cb 563b
00000080: cbf0 e13b b994 d63b 4444 1e3c 53a7 203c
00000090: 3cf8 1cbb 1ed7 ecba 863f c6bb c21a c3bb
000000a0: 25df b9bb 0128 00bc 81fd d5bb 157f 0fbc
000000b0: dda6 3cbc 3173 f8bb 0b4d b5bb 8813 e8ba
000000c0: 561c 91ba bcd3 843a 1c54 d53b 49ed 1c3b
000000d0: 20f3 eb3b c2be bf3b e02b 243c 9743 053c
000000e0: 31d5 8b3b 4701 603b b498 233c 1ea1 1d3c
000000f0: 7067 f33b 8c10 d83b 12f5 843b 7e8e d23b
00000100: 542b 033c 2b4a 863b 3296 423b 1139 0b3b
00000110: f87f 963a 58d9 243b 4727 ce3a eb21 083b
00000120: 3a11 5f3c 45cf 2b3c eb80 0b3c 199a 023c
00000130: 03a1 073c 443c 083c 918c f53b 1a7f 7a3b
00000140: 16bd e93b fd8b 903b 702b 923b c25b 723b
00000150: 7903 803b 9bc3 723b c629 3f3b 04cf ef3a
00000160: c4bc 34bb c872 9abb 66b7 2fbc f390 d3bb
00000170: 378b f8bb a072 84bb 9a78 49bb 0d1e cabb
00000180: 7d4b bfbb b859 f9bb 0fa7 4fbc e947 373b
00000190: edcd 553b 54dc d63b a40c 9a3b 9e14 2c3b
000001a0: 38a3 9d3b d999 6cbb c94f abb7 39f7 253b
000001b0: b71b d5bb f55b 0cbc dd3c bbbb 6e7c a4bb
000001c0: 8bdb 21bb 0ab4 15bb 9d6b afbb 81d2 29bb
000001d0: e8e2 1dbb 23e6 4d3b 9da4 193a d135 04bc
000001e0: 4293 6f3b 3831 f9bb e51d 22bb 8cab 16bc
000001f0: 23cf d2bb dcda 19bb 7291 d2ba f7db ceba
00000200: 646a a4bb 1480 4fbb b1bb 8fbb e178 d2bb
00000210: 6283 23ba 6599 babb 6d91 acbb 2631 473b
00000220: 290e 613b d454 353b a639 6d3b dfd5 493b
00000230: 6113 9d3b 91e4 623b 3f32 2b3b c113 813a
00000240: 63b6 073c 641b 013a 1186 7e3c 19e1 df3b
00000250: 9bd8 153c 3cc4 2e3c ecff dc3b 1d46 7d3b
00000260: 97df 653c 2baf 97bb 3780 a0ba 3deb 03bc
00000270: 5bfe c0bb 3a8d 40bc 80ae 02bc 8b05 82bc
00000280: 7180 54bc 8b15 0fbc f288 dcbc f52c d03a
00000290: 0ce3 a8bc 5532 bd3c 82c5 b7bb 940c 943b
000002a0: f28a 68bc 183a 563b a04b 8cbc 6ef9 20bc
000002b0: 616a 84bb e7d6 b9bc 2cd0 99bb 101e c9bb
000002c0: db49 6dbc 5276 4ebc 4b9d 1dbc 688d c9ba
000002d0: 3e3a 85bb 6bd0 1cbc 9f1a 18bc bf69 3ebc
000002e0: 4d08 95bb 61f4 1cbc 7fd3 97bb 4e8a 2a3b
000002f0: 733d 223c 9e95 f4bb 3598 85bc f1ff e6bb
00000300: 6130 b3bc 939c 81bc e7e2 e8bc ec39 9abc
00000310: 0cee 06bd b9a4 50bc 74f8 513b 9b8a 263c
00000320: d257 273c 3efe 833c d510 d43c 35b6 003c
00000330: ea6e 753c b3e2 9cbb 2434 8e3c a1f5 12bc
00000340: 4e01 93bb e14c 14bb 8c06 00bc 7f9d 81bc
00000350: a0db 1cbc e73f 82bb c1cd ecbb 6aeb c3bb
00000360: 1abf 18bc 19e6 0cbc 4d6a abbb 47ca 97bc
00000370: 6a2a 82bc c166 83bc f137 2fbc 8aa4 81bc
00000380: 2342 adbc 763b 693b a062 563c 8c58 cabb
00000390: 2818 2bbc f86b d33a 5fb7 503c 7536 9a3a
000003a0: b56b bdbc d1d1 bf3b 7f80 4eba 1d6b d5bc
000003b0: 727a d5bc 1b41 f0bc 13c0 9d3b 5b4f 1dbd
000003c0: 7261 7cbc d144 62bc 51b4 d2bc 5b8e 793c
000003d0: 9055 343c 2db9 453b dfb9 d33b 3b55 823b
000003e0: 8a22 133c d3af da3a 664f ef3b 0db7 6c3c
000003f0: 7c32 1b3c 3310 463c 154e 793c b1a4 9fb9

st_gcn_networks.2.tcn.2.bias f4 [16]
1.0632722e-07 -1.4453284e-05 2.4174474e-06 -7.9971255e-07 5.1844204e-06 -7.826947e-06 -3.0907227e-06 2.6581286e-06
-9.418516e-06 3.3896192e-06 3.9113866e-06 -2.5063227e-06 -4.6941836e-06 5.45101e-06 1.0031101e-05 1.3071951e-06
00000000: 0256 e433 627c 72b7 6e3b 2236 d4ab 56b5
00000010: d5f5 ad36 7b50 03b7 366a 4fb6 4d62 3236
00000020: 3804 1eb7 3779 6336 8e3e 8336 4c32 28b6
00000030: bb82 9db6 d2e7 b636 404b 2837 e272 af35

st_gcn_networks.2.tcn.3.weight f4 [16]
0.110688634 0.23773447 0.06413461 0.046301648 0.2687036 0.23444958 0.23084195 0.081427425
0.11154579 0.119582996 0.2671219 0.0687491 0.27283585 0.104677394 0.08908821 0.066835746
00000000: b9b0 e23d aa70 733e 0259 833d cca6 3d3d
00000010: 8593 893e 8d13 703e d561 6c3e 6cc3 a63d
00000020: 1f72 e43d eee7 f43d 34c4 883e 54cc 8c3d
00000030: 24b1 8b3e 1a61 d63d e173 b63d 2ee1 883d
