weights_arm/36.pt (torch, 70926 bytes, 80 tensors)

A f4 [3, 9, 9]
00000000: 0000 003f 0000 0000 0000 0000 0000 0000
00000010: 0000 0000 0000 0000 0000 0000 0000 0000
00000020: 0000 0000 0000 0000 cdcc 4c3e 0000 0000
00000030: 0000 0000 0000 0000 0000 0000 0000 0000
00000040: 0000 0000 0000 0000 0000 0000 0000 0000
00000050: abaa aa3e 0000 0000 0000 0000 0000 0000
00000060: 0000 0000 0000 0000 0000 0000 0000 0000
00000070: 0000 0000 0000 0000 abaa aa3e 0000 0000
00000080: 0000 0000 0000 0000 0000 0000 0000 0000
00000090: 0000 0000 0000 0000 0000 0000 0000 0000
000000a0: 0000 003f 0000 0000 0000 0000 0000 0000
000000b0: 0000 0000 0000 0000 0000 0000 0000 0000
000000c0: 0000 0000 0000 0000 abaa aa3e 0000 0000
000000d0: 0000 0000 0000 0000 0000 0000 0000 0000
000000e0: 0000 0000 0000 0000 0000 0000 0000 0000
000000f0: abaa aa3e 0000 0000 0000 0000 0000 0000
00000100: 0000 0000 0000 0000 0000 0000 0000 0000
00000110: 0000 0000 0000 0000 0000 003f 0000 0000
00000120: 0000 0000 0000 0000 0000 0000 0000 0000
00000130: 0000 0000 0000 0000 0000 0000 0000 0000
00000140: 0000 003f 0000 0000 cdcc 4c3e 0000 0000
00000150: 0000 0000 0000 0000 0000 0000 0000 0000
00000160: 0000 0000 0000 0000 0000 0000 0000 0000
00000170: 0000 0000 0000 0000 0000 0000 0000 0000
00000180: 0000 0000 0000 0000 0000 0000 0000 0000
00000190: cdcc 4c3e 0000 0000 0000 0000 0000 0000
000001a0: 0000 0000 0000 0000 0000 0000 0000 0000
000001b0: 0000 0000 0000 0000 abaa aa3e 0000 0000
000001c0: 0000 003f 0000 0000 0000 0000 0000 0000
000001d0: 0000 0000 0000 0000 0000 0000 0000 0000
000001e0: abaa aa3e 0000 0000 0000 0000 0000 0000
000001f0: 0000 0000 0000 0000 0000 0000 cdcc 4c3e
00000200: 0000 0000 0000 0000 0000 0000 0000 0000
00000210: 0000 0000 0000 0000 0000 0000 0000 0000
00000220: 0000 0000 0000 0000 0000 0000 0000 0000
00000230: abaa aa3e 0000 0000 0000 003f 0000 0000
00000240: 0000 0000 0000 0000 0000 0000 0000 0000
00000250: 0000 0000 0000 0000 abaa aa3e 0000 0000
00000260: 0000 0000 0000 0000 cdcc 4c3e 0000 0000
00000270: 0000 0000 0000 0000 0000 0000 0000 0000
00000280: 0000 0000 0000 0000 0000 0000 0000 0000
00000290: 0000 0000 0000 0000 0000 0000 0000 0000
000002a0: 0000 0000 0000 0000 0000 0000 0000 003f
000002b0: 0000 0000 abaa aa3e 0000 0000 0000 0000
000002c0: abaa aa3e 0000 0000 0000 0000 0000 003f
000002d0: 0000 0000 0000 0000 0000 0000 abaa aa3e
000002e0: 0000 0000 0000 0000 0000 0000 0000 0000
000002f0: 0000 0000 0000 0000 0000 0000 0000 0000
00000300: 0000 0000 0000 0000 0000 0000 0000 0000
00000310: 0000 0000 0000 0000 0000 0000 0000 0000
00000320: 0000 0000 0000 0000 0000 0000 0000 0000
00000330: 0000 0000 0000 0000 0000 0000 0000 0000
00000340: 0000 0000 0000 0000 0000 0000 0000 0000
00000350: 0000 0000 abaa aa3e 0000 0000 0000 0000
00000360: 0000 0000 0000 0000 0000 0000 0000 0000
00000370: 0000 0000 0000 0000 0000 0000 0000 0000
00000380: 0000 0000 0000 0000 0000 0000 0000 0000
00000390: 0000 0000 0000 0000 0000 0000 0000 0000
000003a0: 0000 0000 0000 0000 0000 0000 0000 0000
000003b0: 0000 0000 0000 0000 0000 0000 0000 0000
000003c0: 0000 0000 0000 0000 0000 0000
0.5 0.0 0.0 0.0 0.0 0.0 0.0 0.0
0.0 0.0 0.2 0.0 0.0 0.0 0.0 0.0
0.0 0.0 0.0 0.0 0.33333334 0.0 0.0 0.0
0.0 0.0 0.0 0.0 0.0 0.0 0.33333334 0.0
0.0 0.0 0.0 0.0 0.0 0.0 0.0 0.0
0.5 0.0 0.0 0.0 0.0 0.0 0.0 0.0
0.0 0.0 0.33333334 0.0 0.0 0.0 0.0 0.0
0.0 0.0 0.0 0.0 0.33333334 0.0 0.0 0.0
0.0 0.0 0.0 0.0 0.0 0.0 0.5 0.0
0.0 0.0 0.0 0.0 0.0 0.0 0.0 0.0
0.5 0.0 0.2 0.0 0.0 0.0 0.0 0.0
0.0 0.0 0.0 0.0 0.0 0.0 0.0 0.0
0.0 0.0 0.0 0.0 0.2 0.0 0.0 0.0
0.0 0.0 0.0 0.0 0.0 0.0 0.33333334 0.0
0.5 0.0 0.0 0.0 0.0 0.0 0.0 0.0
0.33333334 0.0 0.0 0.0 0.0 0.0 0.0 0.2
0.0 0.0 0.0 0.0 0.0 0.0 0.0 0.0
0.0 0.0 0.0 0.0 0.33333334 0.0 0.5 0.0
0.0 0.0 0.0 0.0 0.0 0.0 0.33333334 0.0
0.0 0.0 0.2 0.0 0.0 0.0 0.0 0.0
0.0 0.0 0.0 0.0 0.0 0.0 0.0 0.0
0.0 0.0 0.0 0.5 0.0 0.33333334 0.0 0.0
0.33333334 0.0 0.0 0.5 0.0 0.0 0.0 0.33333334
0.0 0.0 0.0 0.0 0.0 0.0 0.0 0.0
0.0 0.0 0.0 0.0 0.0 0.0 0.0 0.0
0.0 0.0 0.0 0.0 0.0 0.0 0.0 0.0
0.0 0.0 0.0 0.0 0.0 0.33333334 0.0 0.0
0.0 0.0 0.0 0.0 0.0 0.0 0.0 0.0
0.0 0.0 0.0 0.0 0.0 0.0 0.0 0.0
0.0 0.0 0.0 0.0 0.0 0.0 0.0 0.0
0.0 0.0 0.0

data_bn.weight f4 [27]
00000000: b967 5a3e 43b7 933e 9858 393e 4fa0 b03e
00000010: 71bc 923e 7492 7a3e bc84 ab3e f60b 823e
00000020: f062 a03e 5946 103f 5a7e 1a3f 3346 ee3e
00000030: abc1 213f da76 113f 3f54 ef3e b2d8 b03e
00000040: f3c4 943e 7cb5 913e b598 0b3f e748 073f
00000050: 556f db3e 13fd 133f 222a 0b3f fedb df3e
00000060: 4c54 8b3e bba9 4a3e 78c8 523e
0.2132863 0.28850755 0.18100202 0.34497306 0.28659394 0.2446993 0.33499706 0.2539975
0.31325483 0.5635734 0.6034905 0.46537933 0.6318614 0.5682198 0.46743962 0.34540325
0.2905651 0.28458774 0.5452989 0.52845615 0.42858377 0.57808036 0.54361165 0.43722528
0.2721275 0.1979131 0.20584285

data_bn.bias f4 [27]
00000000: 2371 383c 38e3 493c ec5b 76bc bab6 a7bb
00000010: c619 a83b 25a2 ce3b be23 e53c e9c4 7bbc
00000020: c25f b2bb 8713 dfbc f1b1 33bc ee2e ac3c
00000030: f1cc 78bb 8876 5a3b 4d12 7abc 04be 7c3c
00000040: ea2a 1c3d 08bc a53c 924b 863c 9fea 973b
00000050: 6981 a0bc 5335 ccbc 5b52 74bc ab3b 8a3c
00000060: 9f98 8f3c d4ec e3bb 82ab 2dbc
0.011257443 0.01232224 -0.015036564 -0.0051182183 0.0051300256 0.00630595 0.027971145 -0.015366771
-0.005443544 -0.027230991 -0.0109677175 0.021018472 -0.0037963951 0.003333481 -0.015263152 0.015426163
0.038126864 0.020231262 0.016393457 0.0046361233 -0.019592958 -0.02492777 -0.014912213 0.016874155
0.01752883 -0.0069557223 -0.010599973

data_bn.running_mean f4 [27]
00000000: f9fc b442 a348 9342 9642 7641 42bf c742
00000010: 6bb4 a042 dab3 8341 1d27 b342 96b9 9742
00000020: cf1e 7c41 1811 cb42 827b 9b42 141f 7d41
00000030: fee1 d842 3a41 9742 e6ce 7241 cf09 dc42
00000040: f4bc a942 7e72 8941 8333 0343 db3e b642
00000050: 198e 9141 a7f9 0243 61c4 ad42 296e 8b41
00000060: a13c d242 4937 b542 c7d3 9041
90.49409 73.64187 15.391256 99.87355 80.35238 16.462818 89.57639 75.86247
15.757522 101.53339 77.74123 15.820087 108.44139 75.627396 15.175512 110.01916
84.86905 17.180904 131.20122 91.122765 18.194384 130.9752 86.88355 17.42879
105.118416 90.60798 18.103407

data_bn.running_var f4 [27]
00000000: a4be 4946 4d22 a346 36c9 a145 a302 5546
00000010: e10b b446 45ef b245 7558 2346 ef8b 9d46
00000020: 3cb2 a145 d2fd 5046 72c3 9346 8409 9c45
00000030: fa89 6e46 796a 8746 2661 9045 2c98 8b46
00000040: f8ab cc46 9579 c545 e67f b846 5be6 d146
00000050: db0f d245 0e4a b046 e69e b646 eb39 bd45
00000060: 1bc3 8f46 f15d c046 8aa1 c845
12911.66 20881.15 5177.1514 13632.659 23045.94 5725.9087 10454.114 20165.967
5174.2793 13375.455 18913.723 4993.1895 15266.494 17333.236 4620.1436 17868.086
26197.984 6319.1978 23615.95 26867.178 6721.982 22565.027 23375.45 6055.2397
18401.553 24622.97 6420.1924

st_gcn_networks.0.gcn.conv.weight f4 [24, 3, 1, 1]
00000000: dfdf b8bd 0d3f 3cbc 0b0a a53b 73f7 0b3e
00000010: d028 acbd a892 6a3d 591d 083e a1aa 05bc
00000020: 18ee 383d c4ae 28bd b0ab 09bd 1658 3d3e
00000030: 7380 223d bc59 27bd 573e 9dbe 7c2e 5f3e
00000040: 0294 b93e 63e4 5f3d 215f 77be 9387 853e
00000050: 5909 f13d cec8 4bbe 9516 983d e979 10be
00000060: b3d2 2ebd 10ea b0bd 0db6 2cbd 1d51 91be
00000070: dbe9 1bbe b812 523d d5d3 603e 6ca9 aabc
00000080: 1b2b c8bc 6dea 33be e4a6 15be 5992 363d
00000090: e4d0 1d3b 8533 8cbc 0a22 873e 790c 29bd
000000a0: b341 7fbe cb24 29be 30b2 203d 0cce 783d
000000b0: 191e 923d 1a72 293e 0e6e eebd 3b8f 383e
000000c0: 9fe2 84bb 9dba 123c 77db 30bc ee42 73bd
000000d0: 90ea e5bc ff2b bbbb 281b 373e a5b9 ba3b
000000e0: d96d 503d 659f f8bd ec2f 55bc f2d0 0abc
000000f0: eacf 3ebe 0b80 45bd 0476 8d3a 1645 b43c
00000100: 80e3 fdbc 9e1e 183e 60c4 c13d 1a21 88bd
00000110: f7ad 083d 641f 02be b5a1 3e3e a4f1 643d
-0.09027075 -0.011489642 0.0050365976 0.13668613 -0.08406222 0.05726877 0.13292445 -0.008158357
0.04514894 -0.041182294 -0.033611 0.18490633 0.03967328 -0.04085706 -0.30711624 0.21795076
0.36245733 0.054661166 -0.24157383 0.26079997 0.11769361 -0.1990082 0.07426182 -0.14109005
-0.042681407 -0.08638394 -0.042165805 -0.28382197 -0.15225928 0.051287383 0.21955808 -0.02083274
-0.024434617 -0.17569895 -0.14614445 0.04457316 0.0024080807 -0.01711441 0.26393157 -0.04127166
-0.24927406 -0.16517942 0.039232433 0.060743377 0.07134647 0.16547433 -0.11642085 0.18023388
-0.0040553357 0.008955625 -0.010794512 -0.05939 -0.02806595 -0.005712032 0.17881453 0.0056984
0.05088601 -0.12139777 -0.013011914 -0.008472668 -0.18634 -0.048217814 0.0010792618 0.022005599
-0.03099227 0.1485543 0.09461284 -0.066469386 0.03336903 -0.12707287 0.18616374 0.05589451

st_gcn_networks.0.gcn.conv.bias f4 [24]
00000000: c800 30bb 06f3 9d3d 2f3f 023e f3ee 903d
00000010: e44d 81bc 69c0 56be c869 313c 9fed 393e
00000020: e646 f9bd 5649 ae3c 620f cc3d 297c 9bbd
00000030: dbce 083d 002c 293e 15a0 7b3e 3897 5e3c
00000040: b5e7 dbbc 80f6 58be b77a 493d cdfe 8cbc
00000050: 96b8 a63d d5e8 b63c fece ee3b de17 68bc
-0.0026855934 0.07712369 0.12719415 0.07076826 -0.015784211 -0.20971836 0.010828443 0.18157052
-0.12171726 0.021275204 0.099638715 -0.07592041 0.033400398 0.16520691 0.24572785 0.013585858
-0.026843885 -0.21187782 0.049189296 -0.017211342 0.08140676 0.02232782 0.007287859 -0.014165847

st_gcn_networks.0.tcn.0.weight f4 [8]
00000000: d47f 953e 2f7d f33e f04f fd3e 10d1 ea3e
00000010: e29c b13e 5de3 fa3e 1af9 f53e 8da9 e53e
0.29199088 0.47556445 0.4947505 0.45862627 0.34690005 0.4900159 0.48041612 0.4485592

st_gcn_networks.0.tcn.0.bias f4 [8]
00000000: 2346 993c 4f47 053c 987c 18bb ae2e 20bb
00000010: 20bb 6cbc c4e3 0b3c 4846 b83c fadc 96bc
0.018710202 0.008134677 -0.0023267623 -0.0024441886 -0.014448911 0.00853819 0.02249445 -0.018415917

st_gcn_networks.0.tcn.0.running_mean f4 [8]
00000000: f366 a8bc f3a6 2939 1db5 273d f5a5 2cb9
00000010: b028 0d3c eb5e 2abc 5e35 1f3d 3a53 063d
-0.020556903 0.0001617929 0.040944207 -0.00016465022 0.008615658 -0.010398607 0.038869254 0.032794215

st_gcn_networks.0.tcn.0.running_var f4 [8]
00000000: b438 ec39 3750 913a b93c b33a d6e9 883a
00000010: ec01 1b39 0f32 7c3a 5a06 cf3a 18e2 9e39
0.00045055675 0.0011086528 0.0013674713 0.0010445665 0.00014782668 0.00096204964 0.001579474 0.0003030456

st_gcn_networks.0.tcn.2.weight f4 [8, 8, 9, 1]
00000000: a64a 363c 7857 aa3c 816c 853b d219 7a3c
00000010: 22c7 863c 989d fcbb fe35 2c3c 8529 4f3c
00000020: 14db c43c 338a 0d3d 3f20 65bd e4d2 1ebc
00000030: 75bd 18bc d282 e4bc a9e7 343d 5e9f 853c
00000040: 655a 13bc fe79 41bd ab2e 6d3d 971b 933d
00000050: 1b0d ca3c a0f3 5d3d 44b1 cebc 8cad 963d
00000060: 9a3c 40bd 03a6 373d 9bf4 7ebd 3b45 a83b
00000070: b10d e1bc 872c 733d 2664 e7bc 8996 43bc
00000080: def0 583d ad17 0a3d eb71 0c3d 211f 43bc
00000090: 9e18 1dbc 5d7b 0abd 4298 1e3a 9760 dcbc
000000a0: 4c97 04bd 70f3 a13b fef0 ae3c f7b0 15bd
000000b0: d09e dcbb ed0c 73bd 12ab ce3b 93d7 1b3d
000000c0: a6e5 d13a b2bf 263d 33ad 733c ade0 0b3d
000000d0: cf06 f83b 88af 1c3d d896 003d 4f7d 263d
000000e0: daf1 f63a 7e0f 22bd 4c31 09bd d2fc a43a
000000f0: 9e7b 1ebd b7c7 3a3d 4b87 2ebd 9a75 e3bc
00000100: 40e6 a6bd 52af 16bc 203e 96bd 620c fbbb
00000110: c035 77bd 2e3e 74bc 0f20 05bc 7a29 9bba
00000120: 70d2 c3ba 7308 62bb 3b7f b4bb 12fb cf3b
00000130: d0bb fa3c 08cc adbc af14 cb3c c527 8f3b
00000140: 722f 0fbc 73a2 ac3c 7b41 053d 63a3 f33c
00000150: 4e5a 033c 4577 ce3b 0cd3 743c 79c2 f23c
00000160: 7d98 a2ba 6e45 973c afba db3c a3f1 613d
00000170: 6938 8c3d 3b74 e73a f2cc 52bc ee5e 21bd
00000180: 74ca bd3a 3099 b03c 3cfa cbbb 7b91 533d
00000190: a661 95bc ddcb bb3c e5ec 683c 095d 2b3d
000001a0: db76 db3c ad1d 093d acce bfbc 08d7 91bc
000001b0: ddd1 a83b 1c41 8eba 6474 c83c 9738 053d
000001c0: 0832 663d 4d94 07bd 6878 253d 6818 6a3d
000001d0: 16b4 773d c822 a4bc 7bb8 1c3d 3adc 8e3c
000001e0: c2b8 d0bc 10d9 b33c cddf 12bc c48f 2abd
000001f0: 459b a3bc d7a7 cdbc aedf 1ebd a3a6 01bd
00000200: 7282 30bd 63a1 83bd 73b3 63bd 781b 103d
00000210: 0321 393c 6b00 3dbd 3d9b 553d 7a91 fd3c
00000220: 86d1 87bd 9ccc ccbb a0c0 2d3c 3035 163d
00000230: a957 1fbd ba17 183d 88a0 21bd 009f 02bd
00000240: a551 cebc 549b 1bbc 80b2 ecbc 91ec 32bc
00000250: 960b 42bb 4680 29bd 874e ebbb 4e5e fbbc
00000260: 064e b8bc b01a 87bc 1e32 56bc db43 37bc
00000270: 705a 0d3d cc5a 0fbc cc6d 1abc aff3 013d
00000280: 841b e3bc 352e 2d3c c09a 473d b773 24bb
00000290: b466 eebb 564d a3bd 1a47 573d e9cd c0bc
000002a0: 4b80 7d3d a403 7fbd d6f5 243d 1b58 b63c
000002b0: 35a6 7fbd ec5b 44bd 2b47 f53c 35cc 133d
000002c0: 5e95 5abd 1df7 8d3c c944 0dbd 952d ef3c
000002d0: 729f f3bb b607 023c 3283 133d 6999 8d3c
000002e0: 52b2 47bd c90e 11bc cde6 06bc 710f 92bc
000002f0: 8c2e 0b3d b8bd 14bd f0cb 7cbd 198b 8d3d
00000300: fc1f e7bc 25d9 3ebd 29f7 1dbc 155f 5a3d
00000310: a605 14bd 8ea9 793d 8754 383d 9ed2 0dbd
00000320: 82a2 acbd 45de 573d f5b1 913d 4195 9d3c
00000330: bb48 d8bc 2b03 313d b5e2 743d 2d77 94bd
00000340: 8d88 f2bc 9557 5fbd d8ae 1a3d ae88 09bc
00000350: ba6e 2e3d 3c73 2fbd d449 40bd 744a dabb
00000360: 3abc c8bb bfcb e33b 6277 f33c cc2b 8b3c
00000370: c56d 8d3c 7b20 3b3b fa08 243c 898a 333c
00000380: 0ce0 1c3c 541b ae3b 03b3 993c 4516 bbbc
00000390: 0a0d 66bc 4678 a93c fc76 ec3c 8beb 113d
000003a0: 5e79 7abc 5add 513b 96dc 893a 5ea7 0e3c
000003b0: 87c8 cebc bd79 33bc 85dc 083b 5854 5cbc
000003c0: 309d 673b 1a13 adbc 7c42 16bd 4ec7 e13c
000003d0: dd86 eebc 7d73 1abd 3987 23bd e8ec 1cbd
000003e0: 9a85 0abb 27de a3bc 7be7 8cbb 2b74 3c3c
000003f0: e703 e1b9 732f c9bc b3cb 9dbb b340 763c
0.011126196 0.020793661 0.0040717726 0.015264945 0.016452376 -0.0077092163 0.01051092 0.012644176
0.024030246 0.034555625 -0.055938955 -0.009693835 -0.009322514 -0.027894411 0.04416624 0.016311344
-0.00899372 -0.04723548 0.057905834 0.07182997 0.024664452 0.054187417 -0.025231011 0.0735732
-0.046932794 0.044836055 -0.062244993 0.005135206 -0.027472349 0.059368636 -0.028245997 -0.011937746
0.052964084 0.033713985 0.03428833 -0.011909277 -0.009588389 -0.033809055 0.000604991 -0.026901526
-0.03237085 0.00494235 0.021355148 -0.03654572 -0.006732799 -0.0593385 0.0063070143 0.038047384
0.0016013875 0.04071016 0.014872837 0.034149814 0.007569171 0.038253337 0.031393856 0.040646847
0.0018840388 -0.039565556 -0.03349428 0.0012587553 -0.03869211 0.04560062 -0.042609494 -0.027766038
-0.081493855 -0.009197073 -0.07336068 -0.0076613883 -0.060353994 -0.014907403 -0.008125319 -0.0011837923
-0.0014940035 -0.00344899 -0.005508331 0.0063470686 0.030607134 -0.021215454 0.024790136 0.0043687546
-0.008739339 0.021073556 0.03253315 0.029740995 0.008017136 0.006300839 0.014942896 0.029633747
-0.0012405064 0.018465724 0.026822416 0.055162083 0.06846697 0.0017658541 -0.012866246 -0.039397173
0.0014479891 0.02155742 -0.0062248986 0.051652413 -0.018235039 0.022924358 0.014216636 0.041836772
0.026790073 0.033475567 -0.023413979 -0.01780273 0.005151971 -0.0010853144 0.024469562 0.03252467
0.056200057 -0.033100415 0.04039803 0.057152182 0.060474478 -0.020036116 0.03826187 0.017438997
-0.025478724 0.02195409 -0.008964491 -0.04164101 -0.0199715 -0.025104446 -0.038787536 -0.031653058
-0.043093152 -0.064272664 -0.055591058 0.035182446 0.0112993745 -0.046142977 0.05215 0.030953158
-0.0663176 -0.0062499773 0.010605007 0.036671817 -0.03890196 0.037132002 -0.039459735 -0.031889915
-0.025185416 -0.009497482 -0.02889371 -0.01092066 -0.0029608957 -0.041382097 -0.007180992 -0.030684616
-0.022498142 -0.016492218 -0.013073472 -0.011185612 0.034510076 -0.008749675 -0.009425592 0.031726535
-0.027723081 0.010570099 0.048731565 -0.0025093385 -0.0072754268 -0.07973735 0.052558042 -0.023535686
0.061889928 -0.06225933 0.04027351 0.022258809 -0.062414367 -0.047939226 0.029941162 0.03608342
-0.053365104 0.017329747 -0.034489427 0.02919654 -0.007434779 0.007936409 0.03601379 0.017285066
-0.048754044 -0.008853623 -0.008233738 -0.017829629 0.033979937 -0.036313742 -0.061717927 0.069112964
-0.028213494 -0.046593804 -0.009641447 0.053313334 -0.0361382 0.060952716 0.045002487 -0.03462469
-0.084294334 0.052702207 0.07114021 0.019236209 -0.026401868 0.04321591 0.059786517 -0.072492935
-0.029606128 -0.054526884 0.0377644 -0.008394403 0.042586066 -0.042834505 -0.046945408 -0.0066617075
-0.006125954 0.0069517787 0.029720012 0.016988657 0.017264256 0.0028553295 0.010011906 0.010958322
0.009574901 0.0053133164 0.018762117 -0.022837767 -0.014041195 0.020687234 0.02886533 0.035625022
-0.015287725 0.0032022805 0.001051801 0.008706896 -0.025242103 -0.010954318 0.0020883393 -0.0134478435
0.0035341494 -0.021127272 -0.0366845 0.027560856 -0.029117042 -0.037707794 -0.03992388 -0.03831187
-0.0021136762 -0.020003391 -0.0043000556 0.011502306 -0.00042918252 -0.024558758 -0.0048155426 0.015030074

st_gcn_networks.0.tcn.2.bias f4 [8]
00000000: 7147 7a37 9674 fd36 db4a d936 8c3a 9a34
00000010: 8bb4 ceb6 55cb 0e36 dfe3 6b36 526a a0b7
1.4917795e-05 7.55356e-06 6.4758183e-06 2.8727334e-07 -6.1602964e-06 2.1278004e-06 3.5150367e-06 -1.9122996e-05

st_gcn_networks.0.tcn.3.weight f4 [8]
00000000: 6c7a e73e 1dee dc3e 5067 c93e 5d4e 8c3e
00000010: 17c6 a03e 5760 ea3e 07a9 f43e 1b0e d63e
0.45210588 0.43150416 0.39336634 0.27403536 0.3140113 0.45776626 0.47785208 0.41807637

st_gcn_networks.0.tcn.3.bias f4 [8]
00000000: b38c afbc 5cbe 243c aa7b 053c a498 a13b
00000010: 3057 6cba cc79 7c3b c5a5 903c 148a 7838
-0.021429395 0.010055151 0.00814716 0.0049315263 -0.00090156775 0.0038524745 0.01765717 5.9256403e-05

st_gcn_networks.0.tcn.3.running_mean f4 [8]
00000000: d958 813c e5ed 443d cb81 24bd 9165 8fbc
00000010: 0f8c 513c 7fdd c83c fda8 72bd c662 133c
0.015789436 0.048078436 -0.040162843 -0.017504485 0.01278974 0.02451968 -0.05924319 0.008995717

st_gcn_networks.0.tcn.3.running_var f4 [8]
00000000: 77f8 543c 393b 213c 68fd ce3b 9228 c83a
00000010: 8c49 813b 05d1 203c 7028 6a3c cce4 033c
0.012998692 0.00984078 0.0063168295 0.001527088 0.003945535 0.009815459 0.014291868 0.008050155

st_gcn_networks.1.gcn.conv.weight f4 [24, 8, 1, 1]
00000000: c908 9ebb fd43 40bd db5f 5c3d d573 313d
00000010: 4939 42bc c033 07bd 3506 8b3c 4ef6 843d
00000020: b6f9 6d3c aba7 97bc a164 b73d b748 cfbc
00000030: 4085 1c3d 3cb4 d0bc d31f 903d 4964 2c3c
00000040: d00d a83d a797 82bd b6bb 18bd 6b59 393d
00000050: e693 c33d ffd6 ab3d 1e33 c3bc d36c cfbc
00000060: ee2b d43c 0d30 6cbd 9395 4fbd 3ec2 3bbd
00000070: a0c0 b7bd 5dba bcbd dc98 083d 40f7 94bd
00000080: b961 bbbc fd62 04bc dc18 6e3d c723 c3bb
00000090: fa2c 303b 2d73 6c3c 82c0 413d b59b c5ba
000000a0: 83f4 d43c 4fd8 efbd 7c1b 273d 7f57 a4bc
000000b0: d1b5 29bb ce78 f73a 2de3 b6bd d627 7d3c
000000c0: 44e4 15bd d5fc 5bbd dd01 ae3d f6ad ff3c
000000d0: efe0 803d d12b ce3b c4fd 44bd 7ad3 3ebc
000000e0: e413 83bc 9067 b1bb a522 a0ba 9b02 adbc
000000f0: 1195 b7bb 5299 3b3d 9eca 953c fed6 903d
00000100: be51 60bc 764a bd3d 586b ea3b df57 d73b
00000110: 8bad 9ebc 9c47 6f3c 1850 463d 3ce7 f73d
00000120: 6cf8 93bd b5ad bb3a dd92 1abd 15f8 cb3a
00000130: f570 aa3a 4042 27bc abf1 643d d24f d33b
00000140: 8a79 ce3c 27c9 35bc 7d29 9e3d 1d4c 273d
00000150: e52e 54bd 3a2b c3bd 2092 f83d 3ea1 34bd
00000160: 6b04 92bc 2731 0d3e e9f8 b93d 77ec 89bc
00000170: 452d 86bd 8383 ba3d 7ceb 36bd dea5 e4bd
00000180: 84a3 17bd efec b2bc 3e46 b03d 44d2 533d
00000190: 1d82 a0bc a1d9 fe3c d27b 33bd 24cf 983c
000001a0: 9fd6 bf3d ef3c 39bd 9aa5 34bc 602c a4bd
000001b0: 2226 183d b61f e1bd eca7 8a3d eac6 3c3d
000001c0: f746 bdbd fcb9 e6bd 3e00 833d fd04 573c
000001d0: ac29 90bd ad83 dabc 4e2d ea3c ec19 b73d
000001e0: d184 693d 361e 0c3d bb06 c1bb 93d6 c73a
000001f0: f322 7b3b 433e a53b 1994 053d 1e2d 933b
00000200: fa2c 4ebc 2d50 c2ba e316 5a3d a9b2 1d3d
00000210: 2c44 29bb 06e1 e43c bfae e8bc 0247 12bb
00000220: 2891 bb3c 252d c5bb adaf ba3c a934 edbc
00000230: 26e2 62ba dc9f 403d 8d99 703d b3d9 7f3d
00000240: 2ab4 2b3c ab37 753c a78f a83c c6c2 da3a
00000250: 0e87 d33b 13f3 92bd 4ba7 be3d e86d 743b
00000260: 2349 c63d cf95 a3bc 235f 17bd 8bad 0dbc
00000270: 6269 d5bb a1eb 39bd de6b 0b3e a3e6 debc
00000280: 8a03 eb3c 0386 dbbb e637 d03c 8d7d 4fbc
00000290: d8ac 443c a76a e4bb 3b91 4b3c 98e7 00bd
000002a0: 554f a9bc 8623 3ebc 3fcb 5dbd 645e 523c
000002b0: 5029 963c ce82 d7bd a785 43bd 73d7 f1bb
000002c0: 4509 9d3d 5c03 de3b 6d76 0f3d f620 aebd
000002d0: 0c46 093d 840f 2a3d d009 09bb da19 aabc
000002e0: f1b2 a53c b512 26bd 3a7c 2a3d 8f66 0abd
000002f0: f080 673a 4693 14bd 01f3 47bd a19a 0f3e
-0.0048228246 -0.04693984 0.053802352 0.043323357 -0.011854478 -0.033008337 0.016970733 0.064922914
0.014524868 -0.018512568 0.0895474 -0.025303228 0.038213015 -0.025476567 0.0703732 0.010521957
0.082057595 -0.06376582 -0.03728839 0.04525129 0.09549694 0.083906166 -0.023828086 -0.025320446
0.025899854 -0.057663012 -0.050679754 -0.04583954 -0.08972287 -0.092152335 0.033348903 -0.07273722
-0.022873746 -0.008080241 0.058129176 -0.0059551927 0.0026882277 0.014431757 0.04730273 -0.0015076312
0.025995499 -0.117111795 0.040797696 -0.020061253 -0.0025895725 0.0018880607 -0.08930049 0.015451392
-0.036594644 -0.053707916 0.08496449 0.03121088 0.06292903 0.0062918444 -0.048093572 -0.0116471
-0.016000696 -0.005413957 -0.0012217356 -0.021119406 -0.005602487 0.045800515 0.018285092 0.070722565
-0.013691364 0.09242718 0.0071539097 0.0065717543 -0.019369861 0.014604475 0.048416227 0.12104651
-0.07225117 0.0014318737 -0.037737716 0.0015561605 0.0013003635 -0.010208666 0.055894535 0.0064487243
0.025204439 -0.011095322 0.07722757 0.04084407 -0.051802535 -0.09529729 0.12137246 -0.044099085
-0.017824372 0.13788281 0.09080679 -0.016836388 -0.06551603 0.09107115 -0.04465817 -0.11164449
-0.037021175 -0.021841494 0.08607148 0.051714197 -0.019593293 0.031109633 -0.043819256 0.01865346
0.093671076 -0.045224126 -0.011025811 -0.08016276 0.03714574 -0.109923765 0.0677031 0.046088137
-0.09242051 -0.112659425 0.063965306 0.013123748 -0.07039198 -0.026674116 0.028586056 0.08940491
0.05701143 0.0342085 -0.005890695 0.0015246443 0.0038320392 0.0050428226 0.03261194 0.0044914624
-0.012583965 -0.001482492 0.053244483 0.03850046 -0.0025827987 0.02793933 -0.028403638 -0.0022320156
0.022896364 -0.0060173445 0.022788847 -0.028955774 -0.00086549146 0.047027454 0.058740187 0.062463474
0.010479966 0.014966886 0.020576311 0.0016690127 0.0064553088 -0.07175269 0.09309252 0.0037296955
0.096819185 -0.019968895 -0.036955964 -0.008647333 -0.0065128068 -0.04539073 0.13615367 -0.027209586
0.028688211 -0.006699325 0.02541728 -0.012664211 0.0120041 -0.0069707218 0.012424762 -0.031470865
-0.020667711 -0.011605149 -0.05414891 0.012839887 0.018330246 -0.10522996 -0.047734883 -0.00738042
0.07667784 0.006775303 0.03502505 -0.085023805 0.033514068 0.041518703 -0.002091039 -0.02076428
0.020226927 -0.040545184 0.041622378 -0.033789214 0.0008831164 -0.036273263 -0.04881573 0.1402383

st_gcn_networks.1.gcn.conv.bias f4 [24]
00000000: 331b 893b d113 c93c 8880 403a fb77 303d
00000010: c4b8 3aba aa20 d9bb 5f74 9d3c e6d4 e0bb
00000020: a7ee a4bd f7d2 78bb 56e8 063b ec28 043c
00000030: ba7a 8ebd 9068 d33c 247b a73d fbcd 553c
00000040: 20d1 a5bc 7a7c 74bd 4b49 273c 5694 113d
00000050: b94f 523c 9c17 e2bc 3e36 ec3c 13dd 05bd
0.0041841506 0.024545582 0.00073433714 0.043083172 -0.0007122869 -0.0066262083 0.01922053 -0.006861317
-0.08053332 -0.0037967542 0.002058526 0.008066397 -0.06957002 0.025806695 0.08177784 0.013049598
-0.02024132 -0.059689023 0.0102103455 0.035541855 0.01283639 -0.027599148 0.028834458 -0.032681536

st_gcn_networks.1.tcn.0.weight f4 [8]
00000000: 0f10 993e 0c61 853e c370 ca3e f709 d13e
00000010: 7493 6f3e d83c b13e 2bf5 c33e 364e ae3e
0.29895064 0.26050603 0.39539155 0.40827915 0.23396093 0.34616733 0.38272986 0.34044045

st_gcn_networks.1.tcn.0.bias f4 [8]
00000000: f3d3 23bc 78c0 5b3b 49bd ae3c 35c6 033d
00000010: 7e52 11bb 9501 08bb 82e2 b9bc 2545 0ebb
-0.009999263 0.0033531468 0.021330493 0.032171447 -0.0022174413 -0.0020752896 -0.022691015 -0.0021708694

st_gcn_networks.1.tcn.0.running_mean f4 [8]
00000000: b658 97ba b51c de3a 3365 2a3b 2d5e 863b
00000010: 78c6 82bb bfc0 adbb 9d91 1c3c 700d 163b
-0.0011546824 0.0016945811 0.002600026 0.004100582 -0.0039909445 -0.005302518 0.009556201 0.0022896193

st_gcn_networks.1.tcn.0.running_var f4 [8]
00000000: 023d ba37 293e a337 13d9 9a38 eabb 5a38
00000010: 7030 3638 dbad 3e38 176f 9038 9bb6 2938
2.2201337e-05 1.946006e-05 7.3837255e-05 5.215026e-05 4.3437292e-05 4.5461446e-05 6.887147e-05 4.0462804e-05

st_gcn_networks.1.tcn.2.weight f4 [8, 8, 9, 1]
00000000: f7f0 093b aa80 a1bb d5ef 22bc 6786 abbb
00000010: 6316 f7bb 09fb d7bb acc9 4cb9 f506 013c
00000020: 0892 8c3c e58c 10bc 5838 a4bc 8761 06bb
00000030: 6af4 90bb f800 d8bc 2e32 12bc 4a4f 0abc
00000040: f60f 71bc 3365 54bc 1de8 ec3c 52af 02bc
00000050: e3aa 453c 2612 a8bc 4372 653c 6a01 e9ba
00000060: c57a cb3c 4a76 c5bc 772d 11bd 0540 13bc
00000070: a023 03bc 86ef 303c 38c7 bd3a 9021 2cbc
00000080: c1ea 2d3c 5b0e 12bd 0d61 32bd 201c 19bd
00000090: 99b4 393c 6b4b 9ebc 0ab1 c8ba 7717 7fbc
000000a0: 3956 903c 8ddf bd3c 6078 843c c0e8 c83a
000000b0: 11b9 b53b f8fc cdbb 7244 9ebc 8442 113c
000000c0: aaad 473c b1bd 813b 56f5 b2bb 0b79 063c
000000d0: df1d b3bc aa09 80bc aa49 1ebb 8e29 523c
000000e0: 5406 933c 9dc1 60bc f3c3 863c c80f 073d
000000f0: ffc3 983c fa97 533a fbdf df3b 749d ee3b
00000100: 71fa ef3b 1fa2 a3bc 22cf d1bc f808 5e3a
00000110: 3a0f 3fbc 1954 cfba c1a4 913c dd03 0cbb
00000120: a5e4 1ebc 4270 98bc fccc a2bb d52f 983b
00000130: bd0c 00bc cb6e 883b 2423 18bc 83a7 e7ba
00000140: 376f 0bbc b778 9fbc 40d9 0abc b8a3 febb
00000150: d0b9 88bc 8baa e63c 39c2 d13c 3fa5 d43c
00000160: 1e25 23bc 563d 4c3b 394a cfbb 59ba 00bc
00000170: 2b69 a73c 895c dd3c e599 b13c 07d1 fe3c
00000180: 2b16 063c c7f7 9f3c 7a2e db3c 0e04 a339
00000190: 4e8e 253d 0e61 b03b f932 103d 3ee3 9e3c
000001a0: a661 173d 8a88 303d 6bce 863c 28e4 413d
000001b0: 8076 c1bc 5c56 303c a8ec 10bb 5490 4dbc
000001c0: 2a15 2d3c 7837 77bc 08d6 363c cddf 1b3a
000001d0: b110 203d c9d7 5b3c 8077 18bc e7cc 083c
000001e0: 7b0e 9dbc 1fa6 b6bc 92ab a1bc a2d3 8b3b
000001f0: f72d 203c 9874 dc3b ca25 33bc 470a 783b
00000200: 50da fa3c 73b9 20bc 7fea 7f3c 4097 af3c
00000210: 4265 e83c b348 1dbc bf86 cd3c d889 413b
00000220: 685a 90bb 79b3 12bc 9240 c9bb cc79 d8bc
00000230: c056 363c 6e07 d23c 980c 1dbc 6754 86bb
00000240: 234d 553c 519b 0ebd b2a1 0cbd 5d5b 95bc
00000250: 6448 c4bc 8920 6e3c 19e9 fa3a 309b f9bc
00000260: 2816 c5bc 50bf fe3c 80db 383c 5641 b8bb
00000270: 1073 ecba b652 d0bb 3bad d0bc ce13 ddbc
00000280: d144 00bc 256e 04bc 77c3 153d 7734 a6bc
00000290: c0dc 7f3c 075a ef3c 9969 ab3b db03 3b3c
000002a0: 3d89 663c eff3 433a 6461 1dbc 4e56 adbc
000002b0: a16f 563c 718d 5fbd 3109 8e3a 835f bcbc
000002c0: 8029 2bbd 85dc 2ebd 9269 833c fed9 2a3c
000002d0: fa36 52bc bbf3 5a3d 5257 19bd d7f5 333d
000002e0: 3be7 23bc c852 f13c 6ee1 cc3c f6ad 56bb
000002f0: a7b6 b93c c926 763c 552e 3abd c228 d53c
00000300: 6d1a 6cbb b15e 98ba 43bb 15bd b702 2f3c
00000310: 8bd1 33bd acea 07bd 514c 1139 40fc d039
00000320: 4987 d23c a74e 2b3d 85f7 ff3b e496 6fbc
00000330: 46cf c7ba 4d0b 483c f1e2 313d ddc5 c23a
00000340: 6b89 333d fea4 a83c 4326 16bc 55c1 933c
00000350: dde8 003c 55b4 b53a 5630 a3bb 0a35 453b
00000360: 589e d53b f3fd ccbb b980 ac3c 84f2 67bc
00000370: 053d 3fbc ce6a 4a3b ef00 b1bc cf1c acbc
00000380: 8c89 b63b 5b3b 503d 0d01 11bc 2bb9 bc3c
00000390: 1499 933c 1ad7 363d c1c4 b53b 3d81 8abc
000003a0: 1cf9 01bd 2c9d 9d3c 7796 7c3c a599 da3c
000003b0: 1b52 623c 404e aebc 635e 1e3d ccf9 993c
000003c0: 5a20 a73c 70ea df3c b56f 1d3d 7763 96bb
000003d0: f9a4 0abc cebd adbc 197f 193c 3798 4dbc
000003e0: 1efe b2bc 9da5 03bc 01fc dd3c 13f5 edbc
000003f0: 6d10 313b 5bb5 2abb e3a7 45bb 65ef cdbb
0.0021048167 -0.004928668 -0.009944876 -0.005234528 -0.0075405105 -0.006591205 -0.00019530085 0.007875194
0.017159477 -0.008822654 -0.020046398 -0.0020504908 -0.0044236677 -0.02636765 -0.008923097 -0.008441756
-0.014713278 -0.012963581 0.028919274 -0.00797637 0.012064668 -0.020516466 0.014004293 -0.0017776911
0.024838815 -0.024104256 -0.03544375 -0.008987431 -0.008004099 0.010799294 0.0014478927 -0.010506049
0.010615052 -0.03565822 -0.043549586 -0.037380338 0.011334562 -0.019323071 -0.0015311551 -0.015569559
0.01761924 0.023177886 0.01617068 0.0015328154 0.0055457433 -0.0062862597 -0.019319747 0.008865956
0.012187401 0.0039593806 -0.005461375 0.00820757 -0.02186483 -0.015629608 -0.0024152794 0.01282729
0.017947353 -0.013718036 0.016450858 0.032974035 0.018648146 0.00080716575 0.0068321205 0.0072819535
0.007323556 -0.019974766 -0.025611464 0.00084699644 -0.011661345 -0.001581791 0.017778756 -0.0021364607
-0.009698068 -0.018608216 -0.0049682837 0.004644374 -0.007815537 0.004163598 -0.009285722 -0.0017673824
-0.008510402 -0.019466741 -0.008474648 -0.0077709816 -0.016690165 0.028157493 0.025605308 0.025957702
-0.00995758 0.0031164489 -0.0063259867 -0.007856929 0.02043589 0.027021663 0.021679828 0.031105531
0.008183996 0.01952733 0.02675556 0.00031092804 0.040418915 0.0053826636 0.03520486 0.019395467
0.03695836 0.043098964 0.01645585 0.047336727 -0.023616076 0.010762777 -0.0022113714 -0.012546618
0.010564128 -0.015088908 0.011159427 0.00059461297 0.03907842 0.013418146 -0.009305835 0.008349634
-0.019171944 -0.02229601 -0.019735131 0.004267172 0.009776584 0.0067277662 -0.010934303 0.0037847923
0.030621678 -0.00980984 0.015619873 0.021434426 0.028368596 -0.009599852 0.025088666 0.0029531624
-0.0044053085 -0.008953922 -0.0061417306 -0.026425265 0.011129081 0.025638308 -0.009585522 -0.004099417
0.013018879 -0.03481609 -0.034333892 -0.018232042 -0.0239603 0.014534124 0.0019142955 -0.030469507
-0.024058416 0.031097084 0.011282802 -0.005623023 -0.0018039662 -0.006357516 -0.025473228 -0.026986983
-0.007828907 -0.008082901 0.036563363 -0.020288689 0.015616596 0.029217733 0.005231094 0.011414493
0.014070806 0.00074750086 -0.009605739 -0.021159317 0.013088138 -0.05457825 0.001083648 -0.022994762
-0.041787624 -0.042690773 0.01604155 0.01042795 -0.01283049 0.053455096 -0.03743679 0.043935623
-0.01000386 0.029458418 0.025009837 -0.0032757497 0.022670103 0.015023896 -0.045454342 0.026020411
-0.0036026493 -0.00116249 -0.03655554 0.0106818 -0.043901008 -0.033182785 0.00013856708 0.00039860792
0.025699275 0.041823056 0.007811489 -0.0146233775 -0.0015244267 0.012209726 0.04342932 0.0014859993
0.043832224 0.020586487 -0.009164396 0.018036524 0.007868019 0.0013862947 -0.0049801273 0.0030091428
0.00651912 -0.006255859 0.021057473 -0.014156941 -0.011672263 0.0030886414 -0.02160689 -0.02100983
0.005570596 0.050837856 -0.008850348 0.023037514 0.01801733 0.04463873 0.0055471365 -0.016907329
-0.03173171 0.019239984 0.015416733 0.026684592 0.013813521 -0.021277547 0.038664233 0.01879587
0.020401169 0.027333468 0.03843661 -0.004589494 -0.008462184 -0.02120867 0.009368681 -0.012548498
-0.021849688 -0.008035091 0.027097704 -0.029047525 0.0027017847 -0.0026048038 -0.0030159883 -0.0062846416

st_gcn_networks.1.tcn.2.bias f4 [8]
00000000: a7d0 9bb6 0c92 57b6 dcfe 00b7 a9aa d3b7
00000010: de7f 74b6 1caa cd37 858a ee36 c047 2cb6
-4.6436503e-06 -3.2122507e-06 -7.688734e-06 -2.523263e-05 -3.6433262e-06 2.4517118e-05 7.1090785e-06 -2.5671761e-06

st_gcn_networks.1.tcn.3.weight f4 [8]
00000000: f1a4 883e 2e3e af3e 705f c63e 15d7 c83e
00000010: c5eb 903e 9282 dd3e 0979 bd3e 262e 7e3e
0.2668834 0.34227127 0.38744688 0.39226595 0.28304878 0.4326368 0.37006405 0.24822292

st_gcn_networks.1.tcn.3.bias f4 [8]
00000000: ccf1 943b 1222 12ba f858 67bc 3cad 03bb
00000010: 311f 3cbc bf29 0abb 5cec 37bb 189c 0d3c
0.004545426 -0.0005574535 -0.014120333 -0.002009227 -0.011482046 -0.0021082012 -0.0028064465 0.008643173

st_gcn_networks.1.tcn.3.running_mean f4 [8]
00000000: c076 bcbc eb4e 623d 5b84 29bc 1880 9f3c
00000010: c48b efbb ee93 b13c e60f edbc 352a 38bd
-0.023005843 0.055251043 -0.010346497 0.01947026 -0.0073103625 0.021676984 -0.028938245 -0.044962127

st_gcn_networks.1.tcn.3.running_var f4 [8]
00000000: 046a d63a 5f53 103c c72c 1d3b d986 393b
00000010: 5c7a ba3a 003f 6f3b 61a6 fc3a e0b4 833b
0.0016358499 0.00880894 0.0023982988 0.0028309135 0.001422714 0.0036506057 0.0019275659 0.0040193647

st_gcn_networks.1.residual.0.weight f4 [8, 8, 1, 1]
00000000: 67e9 4dbd cc5f 8cbd 5b2d f3bd d542 ba39
00000010: 00dc 54bd 0fdd 2e3d 8536 9c3d 7823 50bd
00000020: 5cd3 ddbd c40d 8cbd 320d e6bc d5c7 82bc
00000030: 74ae 28bd 7b01 ee3d 69c8 e13d a818 d4bd
00000040: 7ec3 15be 7bdf 10bc ca5c 923d b5ce 07bc
00000050: 4bcb 2cbd 1e57 813d b1ff b9bb d156 9dbd
00000060: 5a46 ad3d caf9 72bc 72f2 90bd e6e8 bcbc
00000070: 64c9 b6bc 03e0 d2bc 02c4 b03d 6fed cb3d
00000080: 4c2d e3bc 16a2 2b3d 24e4 b8bd 81d2 2c3a
00000090: a949 ed3c 5a47 6fbd 7068 073e d77e 5c3d
000000a0: 5998 0e3e ff66 303d 8a07 dc3d 7e0e 15bc
000000b0: 0ff3 7fbd e00e 9ebd 358d 36bd ae8a d7bd
000000c0: 80a5 1f3d e6a7 563c 583f 96bd 6259 0f3d
000000d0: 5824 afbc 1b38 d5bc b88d 8bbd 9a21 913b
000000e0: 3cc2 07bd 28d2 ac3b 668e c83d 1de3 1a3c
000000f0: 1bea a63d dc58 fb3d 7bc4 00be 2eb1 80bd
-0.050271418 -0.06854209 -0.11873885 0.00035526478 -0.05196762 0.042691287 0.07627586 -0.050815076
-0.10831329 -0.06838563 -0.028082464 -0.015964428 -0.041181996 0.11621376 0.11024553 -0.10356265
-0.14625356 -0.008842344 0.07146604 -0.008289029 -0.042186063 0.063154444 -0.0056762327 -0.076825745
0.08460684 -0.014830062 -0.07077493 -0.023060273 -0.022312827 -0.025741583 0.086311355 0.09957396
-0.02773156 0.041902624 -0.09027889 0.0006592647 0.028965788 -0.058417656 0.13223433 0.0538319
0.13925304 0.043066975 0.107436255 -0.0090976935 -0.062487658 -0.07717681 -0.04456826 -0.10524498
0.038976192 0.013101554 -0.073363006 0.03499735 -0.021379635 -0.02602773 -0.0681414 0.0044290544
-0.03314422 0.005274076 0.09792785 0.009453562 0.08150121 0.12272808 -0.12574951 -0.06283794

st_gcn_networks.1.residual.0.bias f4 [8]
00000000: a337 47b7 9226 c737 9c8d 28b7 5c6f 5c37
00000010: 4c26 30b7 7b3d c937 1fef 4b37 57ff f836
-1.1874278e-05 2.374061e-05 -1.0046551e-05 1.313895e-05 -1.0499334e-05 2.3989696e-05 1.2155418e-05 7.4207014e-06

st_gcn_networks.1.residual.1.weight f4 [8]
00000000: 63b5 973e e7b1 a73e 1f50 c13e 1840 9e3e
00000010: 9735 a03e afc4 b13e ea5b e33e 5b30 8b3e
0.29630575 0.32752916 0.3775644 0.30908275 0.31290886 0.3472037 0.44406062 0.2718533

st_gcn_networks.1.residual.1.bias f4 [8]
00000000: ccf1 943b 1222 12ba f858 67bc 3cad 03bb
00000010: 311f 3cbc bf29 0abb 5cec 37bb 189c 0d3c
0.004545426 -0.0005574535 -0.014120333 -0.002009227 -0.011482046 -0.0021082012 -0.0028064465 0.008643173

st_gcn_networks.1.residual.1.running_mean f4 [8]
00000000: 5c81 eabc ac9d 45bc 2cd7 92bc ce12 aa3c
00000010: 1ecc 613c c834 4dbb 4022 99bc 5ad5 353c
-0.028626136 -0.012061518 -0.017924868 0.02076092 0.0137815755 -0.0031311978 -0.01869309 0.01109823

st_gcn_networks.1.residual.1.running_var f4 [8]
00000000: a00c a03a 93a4 273b 7eb9 d13a e8e0 d93a
00000010: c9f2 283b 6d24 1e3b 1826 283a 2419 3f3b
0.0012210794 0.0025580272 0.0016000716 0.0016622813 0.0025779477 0.0024130598 0.0006414368 0.0029159272

st_gcn_networks.2.gcn.conv.weight f4 [48, 8, 1, 1]
00000000: 1708 f63c 57bb 1ebd a0ea 05bb e81c 1bbd
00000010: 146f 483d 36f3 a6bb 394c abbd 7c9d 41bc
00000020: 6440 6cb9 1cbb cabc 8c76 a1bc 9db6 25bc
00000030: 4a98 52bc 24ea 673c fa93 f13b 6c68 2d3c
00000040: 3fab 61bc ad64 3ebd a852 2d3b b1a0 0cbd
00000050: 1665 65bb 981a 993c 1dc5 2ebb 9678 2f3d
00000060: 4073 243b b839 edbc 2e90 303b 67cf b8ba
00000070: 11c5 593d 98cb 45bd 9c6d e4bb 5ae6 3e3d
00000080: 23a8 a2bb 83a9 e6bb 6102 6cbb 8443 02bd
00000090: f2db 85ba 5ed8 1c3d c57f a6bc 42eb d6bb
000000a0: ba5c 7c3d 0613 ed39 b9a3 a5bd cdc9 e4bc
000000b0: a56f f43d cecc bebb 2ae1 e6bd c59a ccbc
000000c0: 205a f3bc 4710 aabd bd8e 89bd 9d00 2abc
000000d0: c7b0 12bd 8f39 823d c49d adbd e5ca 2c3d
000000e0: 8e95 cfbc 3d4f 9cbc e6d2 013d 426b b53a
000000f0: 50a4 833a f209 73bc 6aea f1bb 2679 a73c
00000100: 0a91 24ba b456 ccbc f235 243c cf79 2fbb
00000110: 4d7d 80bd a99f 753d a731 dbbb 9281 de3b
00000120: 2c2b 69bb 1a4b 83bc dadd 893c 0283 653c
00000130: 0f9b fb3c 92a5 bcbc 36f4 cdbb 322e 433b
00000140: 005d 203c b52e c2bc 2e01 b03c 4121 aa3b
00000150: c21a 563d 9125 823d 8217 853c f3db c63b
00000160: fcc6 043d a7cb a4bd 376c 8abd aca0 fc3c
00000170: b9d7 03bc d2a8 72bc aeb2 583c c6d6 ea3b
00000180: 821e ce3c 005c 26bd 8d4e dbbb 8ed6 a43d
00000190: 6dec 2dbd e929 a63b 1d57 003c 7489 94bb
000001a0: 33a8 12bc cb68 1bbd 4a14 b43d 38a6 bebc
000001b0: b7e1 43bc 66df 6b3c 4a7a deba ce50 993c
000001c0: af69 3abc 5c9a 923c a81a 293d 10a6 93bd
000001d0: f624 7fbb aa5c 473d 05d8 443b fd42 14bc
000001e0: 750a 02bc 8bb1 da3a 0bfd 8639 44a0 fabc
000001f0: a456 e7bb 1959 5b3b a9f5 60bc 984e e3bb
00000200: 8a82 403c 60d6 ecbc db7c 0b3d 466f 0bbd
00000210: 1c1f d93c dd38 cf3d baea b63d 9445 17bc
00000220: 0717 1ebc ba3c 3dbd 968c a5bc 3085 94bc
00000230: 5ca4 6dbb 576a b23c c6e5 5a3d 67e5 503b
00000240: 3d73 943c 1202 dcbb 9b44 853d 17db a3bb
00000250: 6823 5d3d de40 d6bb 1954 d93b 9062 b6bc
00000260: 481d 5b3d cb91 273d 5124 7ebc 3a8a 17bd
00000270: 714f 853d a2f7 e5bc fe2b 0abd b0a8 0cbd
00000280: 49ba babb 437b 63bb 6660 f73c 702f 12bc
00000290: 3ba5 0dbc a055 293d e21a 0b3d 6b6e 003b
000002a0: 662e 9b3c f648 213d 8448 2abd c010 5abd
000002b0: ded9 c23c a74d f6bd 6863 193d 7774 593a
000002c0: d1d3 0b3d e007 553d 1d54 83bd 8eb6 363d
000002d0: fbbe a93d 58c4 08bd e991 79bc 7a59 59bc
000002e0: 4471 923c ce00 6bbd b152 0e3d 90e1 403b
000002f0: d3a5 6ebc 6122 1d3d ed38 82bc d6fd 323d
00000300: e0e5 413d 133a 823d b71e 09bd 2962 e13c
00000310: d2e9 8f3d 4d83 793b 9bb7 013d e518 b6bc
00000320: 0671 aebb a416 9ebb 600c 7ebc c35f c43c
00000330: 9360 78bc e0db 313d 52b1 8e3b 707f 3fbc
00000340: b6f5 d63c 3280 3cbd 2c3c ae3c a703 073d
00000350: 023d 8e3a 73db b2bb 311b 6d3c 3fb3 d93c
00000360: ff00 a33d dfa1 b73d 9e73 af3c 217c c83b
00000370: 9087 08bd 87a5 4abc b2a9 b43d 992f 073d
00000380: cbb6 463d 3472 14ba 225f 443c bafc 71bd
00000390: 9b27 6ebc b86d 3dbc 65d5 013d dcdf 0db8
000003a0: 64c9 28bb 452c 453d a99d 8abd f5f2 c03d
000003b0: 6d0e aabc 2cde afbd 0820 fb3b 634a c33d
000003c0: 1dc1 1dbc 60b4 85bc 7dd0 a83b efa4 d63a
000003d0: 6b1e 623c 2248 ae3c bf9a 90bb 56f2 1bbc
000003e0: c146 29bb 3a0c 02bd 0605 6f3c 9dc3 953c
000003f0: 95c1 013b 2cdf 773c 6051 04bc ce21 ac3b
0.030033154 -0.03875288 -0.0020434037 -0.037869364 0.048934057 -0.005094911 -0.08364148 -0.011817332
-0.00022530701 -0.024747424 -0.019709848 -0.010114339 -0.012853691 0.014154945 0.0073723765 0.010583978
-0.013773738 -0.04648273 0.0026446972 -0.034332935 -0.003500288 0.018689439 -0.0026667782 0.04283961
0.0025093108 -0.028958187 0.0026941407 -0.0014099897 0.053166453 -0.048289865 -0.0069710743 0.0466064
-0.004963891 -0.0070392503 -0.003601216 -0.03180267 -0.0010212644 0.03829228 -0.020324597 -0.0065588066
0.06161187 0.00045218336 -0.08087868 -0.027928257 0.11935357 -0.0058227545 -0.112734154 -0.024976144
-0.02970606 -0.08303886 -0.06716678 -0.010376123 -0.03581312 0.06358635 -0.08477357 0.042185683
-0.025339868 -0.019080753 0.03169527 0.001384117 0.0010043476 -0.014833914 -0.0073826807 0.02044351
-0.0006277716 -0.024943687 0.010022627 -0.0026775484 -0.06273899 0.059966717 -0.0066892686 0.0067903483
-0.003557871 -0.016027022 0.01682942 0.0140082855 0.030713586 -0.023028169 -0.0062852157 0.0029782173
0.009787798 -0.023703912 0.021484938 0.0051919525 0.052271612 0.063548215 0.016246561 0.0060687005
0.03241633 -0.08046656 -0.067589216 0.030838333 -0.008047038 -0.014810758 0.013226194 0.0071667163
0.025161032 -0.04061508 -0.0066927136 0.080487356 -0.0424618 0.005070914 0.007833269 -0.0045329873
-0.008951235 -0.037941735 0.08792932 -0.023272619 -0.01195567 0.014396524 -0.0016973701 0.018715288
-0.011377736 0.01789587 0.041285187 -0.07209408 -0.0038931943 0.048672356 0.0030035984 -0.009049174
-0.007937063 0.0016684992 0.00025747003 -0.030593999 -0.007059889 0.0033469854 -0.013730445 -0.0069368593
0.011749873 -0.028910816 0.03405462 -0.034041665 0.026504092 0.10118268 0.08931489 -0.009232897
-0.009649045 -0.04620049 -0.020208638 -0.018129915 -0.0036261296 0.021779222 0.053441785 0.0031875016
0.018121356 -0.006714114 0.06507226 -0.005000483 0.053988844 -0.0065384945 0.0066323397 -0.022263795
0.05349472 0.040910523 -0.015511588 -0.036997057 0.06509293 -0.028072182 -0.03373336 -0.03434056
-0.0056984765 -0.003471092 0.030197334 -0.008922443 -0.008645351 0.041341424 0.033961184 0.0019597064
0.018943023 0.03937622 -0.041573063 -0.05323863 0.023785528 -0.1202653 0.037448317 0.00082952477
0.03413755 0.052009463 -0.06412528 0.04460769 0.0828838 -0.033390373 -0.015232542 -0.013265962
0.017876275 -0.057373814 0.03474683 0.002943132 -0.014565903 0.038362864 -0.015896285 0.043699108
0.047338367 0.06358733 -0.033476558 0.027512627 0.070270196 0.0038072646 0.03166924 -0.022228668
-0.005323532 -0.0048244763 -0.01550588 0.023971444 -0.015159744 0.04342258 0.0043546343 -0.011688098
0.026240211 -0.046020694 0.021268927 0.032962468 0.0010851922 -0.0054582893 0.014471815 0.026574729
0.07959174 0.08966421 0.021417435 0.006118313 -0.033332407 -0.012368566 0.08821429 0.033004377
0.04851417 -0.00056627695 0.011985572 -0.05907891 -0.01453581 -0.0115618035 0.03169765 -3.3825505e-05
-0.0025754804 0.04813792 -0.067683525 0.094213404 -0.020758832 -0.08587298 0.0076637305 0.095356725
-0.009628561 -0.016321361 0.005151807 0.0016376058 0.0138011975 0.02127463 -0.0044129784 -0.009518227
-0.0025829526 -0.03174994 0.0145886 0.018281752 0.0019799222 0.015128892 -0.008076042 0.0052530533

st_gcn_networks.2.gcn.conv.bias f4 [48]
00000000: 00a0 2cbc 2736 aa3b 21b8 b9bc bc94 bf3b
00000010: af08 7cbb 2390 dbbc 08e8 253d bf5d 18bc
00000020: d764 faba 0bfe 83bc 1b3f 8bbc bb0e 5abb
00000030: c2c6 b3bc c4e3 35bc ad5a 09bc 2eed f93a
00000040: 0b7d 83bd 43dd 82bc 9bab e3bb 8ed2 1d3c
00000050: 3f98 633c 3eb4 debc 5cfd 11bc d91c 2bbc
00000060: b94d 81bd 6f1a 8bbc 9a42 bbbc e9fa 34bd
00000070: ae35 dd3c 76d1 233d f2dd 79bc 0af9 e7bb
00000080: a546 f23b d596 5c3c ff8d 8fbb 2fab 4b3c
00000090: b32b 80bc cf6c be3a eb2e afbb 60f2 68bc
000000a0: 31f8 d7bc 0efc cd3b 6d4f 84bc 3c78 13bd
000000b0: 0ba5 0b3d 22b3 b2bb 16ac 693c edfb 453b
-0.010536194 0.0051944437 -0.022670807 0.005846588 -0.0038457324 -0.026802128 0.040504485 -0.009299695
-0.0019103539 -0.016112348 -0.016997864 -0.003327294 -0.021945361 -0.011101667 -0.008383435 0.0019067877
-0.064203344 -0.015974646 -0.006947947 0.00963272 0.013891279 -0.027185556 -0.008910503 -0.01044389
-0.063136525 -0.016980378 -0.022858907 -0.0441846 0.027003136 0.03999468 -0.01525067 -0.0070792483
0.0073936754 0.0134636955 -0.004380941 0.01243095 -0.015645837 0.0014528277 -0.005346169 -0.014217943
-0.026363464 0.006286151 -0.016151154 -0.036003336 0.034092944 -0.005453483 0.01426222 0.0030209974

st_gcn_networks.2.tcn.0.weight f4 [16]
00000000: 2880 9c3e f908 483e 2035 843e 2dea 833e
00000010: 776f ce3d 975d a53e e0a0 883e 8d42 5d3e
00000020: f34c 803e 1a0e 253e 31fd 543e b290 7c3e
00000030: 5c32 3b3e 4b3a 853e 376f 173e 91e2 e43d
0.30566525 0.19534673 0.2582178 0.257646 0.10079854 0.32297966 0.26685238 0.21607418
0.25058708 0.1611866 0.2079971 0.24664572 0.1828093 0.26021037 0.14788519 0.111760266

st_gcn_networks.2.tcn.0.bias f4 [16]
00000000: bd1a 9abb 14b3 953b c80e bdbb f1de 36bc
00000010: dbc6 473c b618 3dbc 23c4 fdbb e7f6 adbc
00000020: 8a19 b5bc 2b77 c4bc ce9f bebc aa1a 8dbc
00000030: 47a2 46bc 5a5c 4bbd fb49 cd39 d800 aebc
-0.0047028945 0.004568467 -0.0057695843 -0.011161552 0.012193407 -0.011541536 -0.0077443286 -0.021235896
-0.022106905 -0.023982605 -0.02326956 -0.017224628 -0.012123651 -0.04964862 0.00039155767 -0.021240637

st_gcn_networks.2.tcn.0.running_mean f4 [16]
00000000: b885 45bb adab 68ba 7468 c5ba 58ba f139
00000010: f385 a73a bff2 2ebc 9107 aeba 0275 05bb
00000020: 1690 1ebb 7d37 3eba 72aa bcba b27e 71bb
00000030: 1fed 643b 0837 3e3b 2aaf 82b9 d945 67b9
-0.0030139517 -0.00088756793 -0.0015061037 0.0004610594 0.0012781009 -0.010677992 -0.0013277401 -0.0020363932
-0.0024194769 -0.0007256193 -0.0014394058 -0.0036849198 0.0034931374 0.00290245 -0.0002492604 -0.00022055897

st_gcn_networks.2.tcn.0.running_var f4 [16]
00000000: fd53 8037 768a ca37 00c3 4937 e250 0238
00000010: 7956 8537 17ed 1839 ceab c537 ec38 4937
00000020: a7b1 c537 c180 2437 8f31 4537 4100 a737
00000030: b5c0 3d37 998c d537 256a 1437 09a5 d736
1.52979e-05 2.4144752e-05 1.2025936e-05 3.1069743e-05 1.5895102e-05 0.00014584172 2.3564233e-05 1.1993787e-05
2.3566956e-05 9.80514e-06 1.1753654e-05 1.990807e-05 1.1310146e-05 2.545705e-05 8.846201e-06 6.426712e-06

st_gcn_networks.2.tcn.2.weight f4 [16, 16, 9, 1]
00000000: f766 ddbb f341 69bb 6c7d 71bc db8f 04bc
00000010: 90df 04bc da31 8fbb 17c3 33bb 5521 ebbb
00000020: c62e b1bb 1ede c4ba f012 afba 3bea 87ba
00000030: 53f8 d138 22bb 3e3b be91 9c38 361e 623a
00000040: 92df c0ba 19d1 9f3a 0968 5c3b 9563 82bb
00000050: 4394 1f3b 2ed5 a2ba cebd 663b 421a 42bb
00000060: 5785 283c 8b07 193c 0af5 e93b 43f9 0dbb
00000070: 3dd5 6eba 5629 053b 9a9c 7dba 8ba4 5e3b
00000080: be4b f03b 70f9 ae3b ae4f 153c 89f7 0b3c
00000090: 39d4 c6ba 2fb9 51ba 32bb b3bb 4ee8 aabb
000000a0: 2940 aabb 2dd1 fdbb 70ca babb c983 02bc
000000b0: a700 2fbc df3a b2bb 659c 98bb 5b07 e3b9
000000c0: b8cd 2bb9 b5cf c83a 682a fc3b 4e56 393b
000000d0: 69ab 073c 7b52 d33b 27a6 203c e936 fb3b
000000e0: f4b2 923b abc2 0e3b 6c05 103c 8815 143c
000000f0: 4136 c53b 9a8b d23b 3ec4 933b e26a 033c
00000100: dffe 143c 1c9b b63b 5099 863b fd76 873b
00000110: d423 123b 20bb 7a3b 3ad0 0c3b 3150 5b3b
00000120: 3784 5e3c 20ec 2b3c 0ab1 173c 75c3 093c
00000130: 704c 113c 9836 153c 8db6 f73b e0a0 863b
00000140: 49e0 ea3b a350 6d3b 3912 663b 9069 473b
00000150: 4c6a 4a3b bc9f 573b d477 f33a e3a4 3f3a
00000160: d6af 4ebb b50c a0bb 6c13 2bbc 2b49 d5bb
00000170: 50b5 f5bb e8c5 77bb 99f6 21bb a040 c4bb
00000180: da98 bbbb dd7f fbbb d483 43bc 8939 8a3b
00000190: 3625 843b 7e96 ed3b 75f6 bf3b a372 2b3b
000001a0: 3782 b83b b80b 3cbb aa3b 633a e8de 6c3b
000001b0: b065 abbb d9ea efbb c7bf 8ebb 0b9d 6abb
000001c0: 4f93 c1ba 7001 96ba fc0c 8cbb 1052 daba
000001d0: e3a9 c4ba 72de 823b 6f53 103a e33b f8bb
000001e0: a0de 823b 3800 f7bb 4046 f4ba dd13 11bc
000001f0: 87fd c6bb daec 2eb9 0f27 cd39 27da b938
00000200: 52e8 6abb b660 00bb 1d91 33bb 7b38 afbb
00000210: 1eb1 353a 7cb9 8dbb 6c87 89bb 718d 6b3b
00000220: e0a7 693b da2e 273b 25d5 573b 08e9 433b
00000230: c953 863b 024e 323b d41d fa3a 9bb0 583a
00000240: 7149 f53b e4ce f6b9 0f48 813c 8fc6 cd3b
00000250: dc3e 1e3c 64de 2c3c af94 d23b 26b7 643b
00000260: c88f 703c df91 77bb 5b17 0d39 a705 dabb
00000270: efda 9fbb b0d0 28bc 9ec9 cdbb 9dcc 6ebc
00000280: 5a24 3abc 84b8 e6bb 799e dfbc 65bc 0d3b
00000290: 6bd2 a0bc a0c6 c23c 0a81 b6bb 17de 993b
000002a0: 1b1a 66bc 80b5 373b 5e38 86bc 2449 14bc
000002b0: 90a7 95bb 85eb b3bc a969 a2bb 6a98 c7bb
000002c0: 7a7d 7abc 857f 38bc cac0 23bc 1326 81b9
000002d0: 9a43 debb fa2a 41bc 8bfc 31bc 48bb 58bc
000002e0: c7b8 afbb 080f 2bbc 81aa bcbb 941c f13a
000002f0: fe2b 1b3c 09b6 c7bb e73c 7dbc 45d8 c5bb
00000300: ea5d abbc 74f6 76bc 1504 e2bc a714 8dbc
00000310: c212 01bd 5c35 37bc d82d 9b3a c991 013c
00000320: cc62 0c3c bc4b 6b3c a284 c83c adb8 c03b
00000330: a5c6 6b3c 794f b8bb 5a1c 8a3c 00e8 10bc
00000340: 0fad 4bbb 8b07 84ba a002 d9bb b15b 70bc
00000350: 4fbd 0ebc aa23 5abb 0323 c2bb d27d 8dbb
00000360: 64d4 5fbc af9b 47bc 215c 13bc 5532 b7bc
00000370: 79cd 9dbc a38c a1bc 4af1 63bc 4d7c 9abc
00000380: 276b c4bc 3604 453b bdea 4c3c 33ec d3bb
00000390: aa43 32bc 0100 b33a d76f 443c d6f8 6c3a
000003a0: 99c6 bdbc 2012 b03b e9de 53bb 78f3 dfbc
000003b0: 1c97 dbbc f7c1 f8bc d0e0 883b ed1d 20bd
000003c0: 80d8 82bc bf51 6cbc 919d d1bc cd47 873c
000003d0: b534 483c 4dff 7e3b 2428 f33b f3d6 ab3b
000003e0: 976b 263c 9989 623b 3d81 0f3c 1dce 823c
000003f0: e45e 163c a4a7 433c 5069 743c 514d 25ba
-0.006756659 -0.0035592287 -0.014739376 -0.008090938 -0.008109942 -0.0043699564 -0.0027429515 -0.0071756043
-0.005407187 -0.0015019809 -0.0013357084 -0.0010369489 0.000100121506 0.002910324 7.465806e-05 0.00086257176
-0.0014715067 0.0012193053 0.0033631346 -0.0039791563 0.0024349845 -0.0012423152 0.0035208347 -0.0029617702
0.010285697 0.009340177 0.0071398066 -0.0021663464 -0.00091107545 0.0020318828 -0.00096745195 0.0033972587
0.007333248 0.005339794 0.009113235 0.008542904 -0.0015169448 -0.0008000312 -0.005484962 -0.005215681
-0.005195637 -0.007745883 -0.005700402 -0.00796599 -0.010681308 -0.005439147 -0.0046573156 -0.00043302294
-0.00016384467 0.001532069 0.007695485 0.0028280201 0.008280613 0.0064490414 0.009805239 0.007666458
0.0044768993 0.0021783512 0.008790355 0.009038337 0.0060184305 0.006425333 0.004509478 0.008021088
0.009093969 0.0055726897 0.0041076317 0.0041340576 0.0022299187 0.0038258508 0.0021486417 0.0033464546
0.013581327 0.010493308 0.009258518 0.008408417 0.008868322 0.009107254 0.0075596035 0.0041085333
0.00716785 0.0036211393 0.0035106076 0.003042791 0.0030886112 0.0032901606 0.001857514 0.0007310642
-0.0031537912 -0.0048843273 -0.010441642 -0.0065089664 -0.007498421 -0.003780717 -0.0024713634 -0.005989149
-0.0057250084 -0.0076751546 -0.011933286 0.0042182845 0.004032756 0.007250606 0.0058582374 0.0026160858
0.005630757 -0.0028693508 0.00086682534 0.0036143605 -0.005230628 -0.007321697 -0.0043563577 -0.0035799171
-0.0014768633 -0.001144452 -0.004274009 -0.0016656537 -0.0015004243 0.0039938027 0.00055055966 -0.0075754984
0.003993824 -0.007537868 -0.0018636659 -0.008854833 -0.0060727033 -0.00016682167 0.00039129748 8.8621215e-05
-0.003584404 -0.0019588894 -0.0027399727 -0.005347309 0.00069309946 -0.00432509 -0.0041970517 0.003594246
0.003565304 0.0025510103 0.003293344 0.0029893536 0.0040993434 0.002720714 0.0019082376 0.00082660624
0.0074855615 -0.00047074922 0.01578143 0.0062797735 0.0096585415 0.010551069 0.006426416 0.0034899204
0.014682718 -0.0037776155 0.00013455508 -0.006653506 -0.004878394 -0.010303661 -0.006280138 -0.014575151
-0.011361206 -0.007041039 -0.027297245 0.0021627184 -0.019631585 0.023776352 -0.005569582 0.0046956646
-0.01404431 0.0028031766 -0.0163843 -0.009050641 -0.004567094 -0.02196289 -0.0049564433 -0.006091167
-0.015288705 -0.011260872 -0.009994695 -0.00024633165 -0.006782961 -0.011790032 -0.010863434 -0.013228245
-0.0053626033 -0.010440595 -0.0057576303 0.0018395358 0.009470938 -0.0060946983 -0.015456415 -0.006037744
-0.020918805 -0.015073407 -0.027589837 -0.017221762 -0.03151203 -0.011182155 0.0011839224 0.007908293
0.008568477 0.014361318 0.024477307 0.00588139 0.014390622 -0.0056247083 0.016859222 -0.008844376
-0.0031078493 -0.0010073049 -0.0066226274 -0.014670298 -0.008712127 -0.0033285418 -0.005924584 -0.0043179775
-0.013661478 -0.012183114 -0.008994133 -0.022362867 -0.019263016 -0.019720381 -0.013912508 -0.0188581
-0.023976875 0.0030062324 0.012507138 -0.006467366 -0.01088039 0.0013656617 0.011989555 0.0009039765
-0.023165988 0.0053732544 -0.003232891 -0.027337775 -0.026805453 -0.030365927 0.0041771904 -0.03909104
-0.015972376 -0.014423787 -0.025587829 0.01651373 0.012219598 0.0038909495 0.0074205566 0.00524413
0.010157487 0.0034566878 0.00875884 0.015967423 0.009177897 0.011941824 0.014917687 -0.00063057715

st_gcn_networks.2.tcn.2.bias f4 [16]
00000000: 82c3 2fb6 7f21 ff36 46a2 7636 7c2d 0db5
00000010: 0d8f 7137 7f9c a3b6 11dc fdb7 4cce f0b5
00000020: d7ab 8db6 b0df 3436 f6a7 e6b7 0703 74b6
00000030: 3d74 5537 03ef c7b6 f0cf e2b6 386e 5bb4
-2.6190833e-06 7.6034917e-06 3.6751312e-06 -5.259278e-07 1.4398026e-05 -4.875997e-06 -3.0262427e-05 -1.7941434e-06
-4.2221322e-06 2.6952293e-06 -2.749635e-05 -3.6360595e-06 1.2722853e-05 -5.958487e-06 -6.759532e-06 -2.0436062e-07

st_gcn_networks.2.tcn.3.weight f4 [16]
00000000: 9569 d93d af63 723e 33bb 823d 5364 333d
00000010: ace3 873e e486 6d3e d33a 673e c019 a63d
00000020: 922f e53d 53b5 ef3d 755e 873e cb18 863d
00000030: 207b 8b3e 8d2a c93d 9ffc b03d 6d6e 863d
0.10615841 0.23670839 0.06383362 0.04379685 0.26540887 0.23195988 0.22581033 0.0811038
0.11190714 0.11704507 0.26439252 0.06547698 0.27242374 0.09822569 0.08641934 0.06564031
