weights_arm/38.pt (torch, 70926 bytes, 80 tensors)

A f4 [3, 9, 9]
000000 00 00 00 3f 00 00 00 00 00 00 00 00 00 00 00 00
       0.5 0.0 0.0 0.0
000010 00 00 00 00 00 00 00 00 00 00 00 00 00 00 00 00
       0.0 0.0 0.0 0.0
000020 00 00 00 00 00 00 00 00 cd cc 4c 3e 00 00 00 00
       0.0 0.0 0.2 0.0
000030 00 00 00 00 00 00 00 00 00 00 00 00 00 00 00 00
       0.0 0.0 0.0 0.0
000040 00 00 00 00 00 00 00 00 00 00 00 00 00 00 00 00
       0.0 0.0 0.0 0.0
000050 ab aa aa 3e 00 00 00 00 00 00 00 00 00 00 00 00
       0.33333334 0.0 0.0 0.0
000060 00 00 00 00 00 00 00 00 00 00 00 00 00 00 00 00
       0.0 0.0 0.0 0.0
000070 00 00 00 00 00 00 00 00 ab aa aa 3e 00 00 00 00
       0.0 0.0 0.33333334 0.0
000080 00 00 00 00 00 00 00 00 00 00 00 00 00 00 00 00
       0.0 0.0 0.0 0.0
000090 00 00 00 00 00 00 00 00 00 00 00 00 00 00 00 00
       0.0 0.0 0.0 0.0
0000a0 00 00 00 3f 00 00 00 00 00 00 00 00 00 00 00 00
       0.5 0.0 0.0 0.0
0000b0 00 00 00 00 00 00 00 00 00 00 00 00 00 00 00 00
       0.0 0.0 0.0 0.0
0000c0 00 00 00 00 00 00 00 00 ab aa aa 3e 00 00 00 00
       0.0 0.0 0.33333334 0.0
0000d0 00 00 00 00 00 00 00 00 00 00 00 00 00 00 00 00
       0.0 0.0 0.0 0.0
0000e0 00 00 00 00 00 00 00 00 00 00 00 00 00 00 00 00
       0.0 0.0 0.0 0.0
0000f0 ab aa aa 3e 00 00 00 00 00 00 00 00 00 00 00 00
       0.33333334 0.0 0.0 0.0
000100 00 00 00 00 00 00 00 00 00 00 00 00 00 00 00 00
       0.0 0.0 0.0 0.0
000110 00 00 00 00 00 00 00 00 00 00 00 3f 00 00 00 00
       0.0 0.0 0.5 0.0
000120 00 00 00 00 00 00 00 00 00 00 00 00 00 00 00 00
       0.0 0.0 0.0 0.0
000130 00 00 00 00 00 00 00 00 00 00 00 00 00 00 00 00
       0.0 0.0 0.0 0.0
000140 00 00 00 3f 00 00 00 00 cd cc 4c 3e 00 00 00 00
       0.5 0.0 0.2 0.0
000150 00 00 00 00 00 00 00 00 00 00 00 00 00 00 00 00
       0.0 0.0 0.0 0.0
000160 00 00 00 00 00 00 00 00 00 00 00 00 00 00 00 00
       0.0 0.0 0.0 0.0
000170 00 00 00 00 00 00 00 00 00 00 00 00 00 00 00 00
       0.0 0.0 0.0 0.0
000180 00 00 00 00 00 00 00 00 00 00 00 00 00 00 00 00
       0.0 0.0 0.0 0.0
000190 cd cc 4c 3e 00 00 00 00 00 00 00 00 00 00 00 00
       0.2 0.0 0.0 0.0
0001a0 00 00 00 00 00 00 00 00 00 00 00 00 00 00 00 00
       0.0 0.0 0.0 0.0
0001b0 00 00 00 00 00 00 00 00 ab aa aa 3e 00 00 00 00
       0.0 0.0 0.33333334 0.0
0001c0 00 00 00 3f 00 00 00 00 00 00 00 00 00 00 00 00
       0.5 0.0 0.0 0.0
0001d0 00 00 00 00 00 00 00 00 00 00 00 00 00 00 00 00
       0.0 0.0 0.0 0.0
0001e0 ab aa aa 3e 00 00 00 00 00 00 00 00 00 00 00 00
       0.33333334 0.0 0.0 0.0
0001f0 00 00 00 00 00 00 00 00 00 00 00 00 cd cc 4c 3e
       0.0 0.0 0.0 0.2
000200 00 00 00 00 00 00 00 00 00 00 00 00 00 00 00 00
       0.0 0.0 0.0 0.0
000210 00 00 00 00 00 00 00 00 00 00 00 00 00 00 00 00
       0.0 0.0 0.0 0.0
000220 00 00 00 00 00 00 00 00 00 00 00 00 00 00 00 00
       0.0 0.0 0.0 0.0
000230 ab aa aa 3e 00 00 00 00 00 00 00 3f 00 00 00 00
       0.33333334 0.0 0.5 0.0
000240 00 00 00 00 00 00 00 00 00 00 00 00 00 00 00 00
       0.0 0.0 0.0 0.0
000250 00 00 00 00 00 00 00 00 ab aa aa 3e 00 00 00 00
       0.0 0.0 0.33333334 0.0
000260 00 00 00 00 00 00 00 00 cd cc 4c 3e 00 00 00 00
       0.0 0.0 0.2 0.0
000270 00 00 00 00 00 00 00 00 00 00 00 00 00 00 00 00
       0.0 0.0 0.0 0.0
000280 00 00 00 00 00 00 00 00 00 00 00 00 00 00 00 00
       0.0 0.0 0.0 0.0
000290 00 00 00 00 00 00 00 00 00 00 00 00 00 00 00 00
       0.0 0.0 0.0 0.0
0002a0 00 00 00 00 00 00 00 00 00 00 00 00 00 00 00 3f
       0.0 0.0 0.0 0.5
0002b0 00 00 00 00 ab aa aa 3e 00 00 00 00 00 00 00 00
       0.0 0.33333334 0.0 0.0
0002c0 ab aa aa 3e 00 00 00 00 00 00 00 00 00 00 00 3f
       0.33333334 0.0 0.0 0.5
0002d0 00 00 00 00 00 00 00 00 00 00 00 00 ab aa aa 3e
       0.0 0.0 0.0 0.33333334
0002e0 00 00 00 00 00 00 00 00 00 00 00 00 00 00 00 00
       0.0 0.0 0.0 0.0
0002f0 00 00 00 00 00 00 00 00 00 00 00 00 00 00 00 00
       0.0 0.0 0.0 0.0
000300 00 00 00 00 00 00 00 00 00 00 00 00 00 00 00 00
       0.0 0.0 0.0 0.0
000310 00 00 00 00 00 00 00 00 00 00 00 00 00 00 00 00
       0.0 0.0 0.0 0.0
000320 00 00 00 00 00 00 00 00 00 00 00 00 00 00 00 00
       0.0 0.0 0.0 0.0
000330 00 00 00 00 00 00 00 00 00 00 00 00 00 00 00 00
       0.0 0.0 0.0 0.0
000340 00 00 00 00 00 00 00 00 00 00 00 00 00 00 00 00
       0.0 0.0 0.0 0.0
000350 00 00 00 00 ab aa aa 3e 00 00 00 00 00 00 00 00
       0.0 0.33333334 0.0 0.0
000360 00 00 00 00 00 00 00 00 00 00 00 00 00 00 00 00
       0.0 0.0 0.0 0.0
000370 00 00 00 00 00 00 00 00 00 00 00 00 00 00 00 00
       0.0 0.0 0.0 0.0
000380 00 00 00 00 00 00 00 00 00 00 00 00 00 00 00 00
       0.0 0.0 0.0 0.0
000390 00 00 00 00 00 00 00 00 00 00 00 00 00 00 00 00
       0.0 0.0 0.0 0.0
0003a0 00 00 00 00 00 00 00 00 00 00 00 00 00 00 00 00
       0.0 0.0 0.0 0.0
0003b0 00 00 00 00 00 00 00 00 00 00 00 00 00 00 00 00
       0.0 0.0 0.0 0.0
0003c0 00 00 00 00 00 00 00 00 00 00 00 00
       0.0 0.0 0.0

data_bn.weight f4 [27]
000000 95 23 4c 3e e5 e0 8c 3e e5 67 32 3e 1a d2 ad 3e
       0.19935448 0.2751533 0.17422445 0.33949357
000010 78 00 8a 3e 0a 1f 6f 3e ed 9e a9 3e 54 2b 7d 3e
       0.26953483 0.23351684 0.33129063 0.2472356
000020 49 ef 9c 3e 39 a2 0f 3f 98 83 19 3f 50 21 ec 3e
       0.3065131 0.5610691 0.5996642 0.46119165
000030 a0 04 20 3f 74 e4 10 3f 06 8c ec 3e 42 1a ae 3e
       0.6250706 0.5659859 0.4620058 0.34004408
000040 63 ca 91 3e da 98 8f 3e 4c 56 0a 3f 04 e5 06 3f
       0.2847472 0.28046304 0.5403793 0.526932
000050 dc 09 d7 3e 0f 9b 13 3f 68 dd 08 3f bd e1 dd 3e
       0.4199971 0.57658476 0.5346284 0.43336287
000060 cf 00 88 3e de bc 3a 3e 31 10 4a 3e
       0.26563117 0.1823611 0.19732739

data_bn.bias f4 [27]
000000 c6 bb 53 3c 7c 9e 29 3c 88 2f 56 bc 22 c3 85 bb
       0.012923187 0.010352727 -0.013072856 -0.0040820995
000010 6f 10 83 3b 42 c4 9a 3b 83 e3 df 3c 13 86 57 bc
       0.003999762 0.004723103 0.027330166 -0.013154524
000020 33 b3 cd bb ae 73 e4 bc c1 06 3a bc c4 d2 ae 3c
       -0.0062774657 -0.027887192 -0.011354149 0.021340735
000030 64 a1 82 bb fe 14 55 3b 21 96 7c bc 31 8b 67 3c
       -0.0039865244 0.0032513733 -0.015416653 0.014132307
000040 07 cc 29 3d 34 26 ba 3c 6c 13 8e 3c 8f 80 cc 3b
       0.04145434 0.022723295 0.017343245 0.0062409113
000050 1e 66 a8 bc 57 a0 cf bc 1b ea 83 bc 26 8f 90 3c
       -0.020556506 -0.02534501 -0.016102841 0.017646383
000060 97 16 a6 3c c1 2f e2 bb 85 59 0a bc
       0.020274444 -0.0069026654 -0.008444195

data_bn.running_mean f4 [27]
000000 0f e7 be 42 52 1e a2 42 88 c9 a5 41 73 57 d1 42
       95.45129 81.05922 20.723404 104.6708
000010 2e b8 b0 42 4a 9a b1 41 72 81 bb 42 ad f2 a6 42
       88.359726 22.200336 93.75282 83.473976
000020 38 11 aa 41 2b e1 d1 42 79 ad aa 42 e8 8e ac 41
       21.258408 104.93978 85.33881 21.569778
000030 e1 83 e0 42 18 62 a6 42 27 b7 a1 41 28 d2 e6 42
       112.257576 83.19159 20.21443 115.41046
000040 f2 86 ba 42 42 12 b9 41 c6 1f 0b 43 a0 cd c8 42
       93.263565 23.133915 139.12411 100.40161
000050 3d 5f c4 41 b2 4b 0a 43 49 e3 bf 42 63 c7 bd 41
       24.546503 138.29568 95.94392 23.722357
000060 f9 1a da 42 30 ad c7 42 19 69 c3 41
       109.05268 99.83826 24.426317

data_bn.running_var f4 [27]
000000 d4 55 47 46 71 dc ae 46 75 dd d3 45 9e 69 4f 46
       12757.457 22382.22 6779.682 13274.404
000010 ec 05 c0 46 a1 1f ea 45 53 9f 1d 46 24 05 a8 46
       24578.96 7491.9536 10087.831 21506.57
000020 ec 92 d3 45 65 fa 48 46 5d 41 9d 46 40 5b ce 45
       6770.365 12862.599 20128.682 6603.4062
000030 af d6 61 46 76 7b 91 46 91 fc ba 45 74 4a 89 46
       14453.671 18621.73 5983.571 17573.227
000040 8f 3d da 46 58 06 01 46 47 d9 b6 46 54 e6 e0 46
       27934.78 8257.586 23404.639 28787.164
000050 2d d7 08 46 1a 7a ad 46 0f 33 c5 46 e3 00 fa 45
       8757.794 22205.05 25241.53 8000.111
000060 a7 74 8d 46 2f b4 cd 46 0b e1 01 46
       18106.326 26330.092 8312.261

st_gcn_networks.0.gcn.conv.weight f4 [24, 3, 1, 1]
000000 8c 26 b1 bd d9 a8 17 bc b2 71 25 3c 62 d1 0b 3e
       -0.0864993 -0.009256565 0.010097908 0.13654092
000010 a3 e7 ab bd 73 c9 67 3d bc 97 06 3e 8f f1 d6 bb
       -0.083937906 0.0565886 0.1314382 -0.0065595577
000020 a5 f2 34 3d e1 b3 27 bd 0c 4c fa bc 4d 9b 3b 3e
       0.044176716 -0.04094303 -0.03055384 0.18320961
000030 e9 50 24 3d 98 6e 29 bd 31 df 9a be 5d 73 60 3e
       0.040116224 -0.041365236 -0.30248407 0.21919008
000040 18 db b6 3e b7 e5 64 3d 1e eb 75 be ac 08 85 3e
       0.3571403 0.055883136 -0.24015471 0.2598318
000050 c2 93 e5 3d 86 a3 4b be d1 3a 95 3d 6d a7 0f be
       0.11209823 -0.19886598 0.07286609 -0.14028712
000060 e2 dc 2a bd 77 44 ab bd ae 80 0e bd aa d3 90 be
       -0.041714557 -0.08362668 -0.034790687 -0.28286487
000070 7f 54 1b be 32 94 4d 3d 87 2b 5d 3e ed 4c a1 bc
       -0.15168951 0.05019016 0.21598636 -0.019690001
000080 5d 86 ce bc 8e 26 32 be 98 8e 12 be 03 ca 32 3d
       -0.025210554 -0.1739752 -0.14312208 0.043649685
000090 fe 7a 57 3b 34 35 8d bc a2 f3 85 3e 03 36 23 bd
       0.0032879706 -0.017237283 0.2616244 -0.03984643
0000a0 31 f1 7f be 72 17 27 be c6 0f 22 3d 8c 4d 81 3d
       -0.24994351 -0.16317537 0.039565824 0.06313619
0000b0 23 1a 89 3d 47 8f 29 3e e5 fd ee bd 50 ec 38 3e
       0.06694438 0.16558562 -0.1166952 0.18058896
0000c0 31 c3 6b bb 1b 95 03 3c 36 f4 86 bb 52 74 75 bd
       -0.0035974497 0.008031155 -0.0041184677 -0.059925385
0000d0 22 1f dd bc 8d a3 f1 bb d7 a9 36 3e a4 6b f7 3b
       -0.026992384 -0.007374233 0.17838226 0.0075506736
0000e0 c6 f4 48 3d 40 7a f2 bd d0 c4 5a bc 25 91 09 bc
       0.04906156 -0.118397236 -0.013352588 -0.008396422
0000f0 2f a8 3e be 7b 32 3d bd c7 66 fc 38 ad 9d b8 3c
       -0.18618844 -0.04619072 0.0001203544 0.022536123
000100 ba ae fd bc 32 75 16 3e 7b 2a c4 3d 53 c9 7a bd
       -0.030967105 0.14693144 0.09578415 -0.061227154
000110 2c 1a 00 3d 93 98 02 be 27 02 3b 3e 93 11 5c 3d
       0.03127496 -0.12753515 0.1826254 0.053727698

st_gcn_networks.0.gcn.conv.bias f4 [24]
000000 c8 2c d9 ba 20 17 9d 3d 17 c8 fe 3d 6f 1e 8f 3d
       -0.0016569132 0.07670426 0.12440508 0.069882266
000010 34 a0 7e bc 2d 7d 56 be 86 8e 3f 3c 6b 1f 35 3e
       -0.015541125 -0.20946188 0.011691695 0.17687766
000020 af 73 fb bd 36 a8 a2 3c 1a 72 c4 3d 20 4f 9a bd
       -0.12277924 0.0198556 0.09592076 -0.07534623
000030 59 39 0a 3d 53 d3 27 3e d4 17 78 3e e4 2b 5c 3c
       0.033746097 0.16389208 0.2422784 0.013438199
000040 f7 9a b9 bc 1b 55 55 be cd ac 4a 3d 92 18 8f bc
       -0.0226569 -0.20833246 0.049481202 -0.01746777
000050 7c b6 a2 3d 28 f6 b7 3c a6 74 6e 3b e8 25 53 bc
       0.079449624 0.022456244 0.0036385446 -0.0128874555

st_gcn_networks.0.tcn.0.weight f4 [8]
000000 5a 4d 92 3e 80 99 f0 3e fd bd fa 3e 70 a4 e6 3e
       0.2857464 0.4699211 0.48973075 0.4504733
000010 90 0e ae 3e c7 4e f6 3e 0b 5a f2 3e be 85 e3 3e
       0.33995485 0.48106977 0.47334322 0.44437975

st_gcn_networks.0.tcn.0.bias f4 [8]
000000 48 b5 94 3c 9f 32 01 3c 62 6d 05 bb a4 0e c0 ba
       0.018152848 0.007885604 -0.0020359387 -0.0014652801
000010 db ec 77 bc 8c 35 26 3c 02 4f a9 3c 11 6e aa bc
       -0.015132154 0.0101446025 0.020667557 -0.020804437

st_gcn_networks.0.tcn.0.running_mean f4 [8]
000000 9c 9a a3 bc e8 b2 c5 39 e4 06 21 3d d8 fd 4b b9
       -0.019971184 0.00037708064 0.039313212 -0.00019454153
000010 ac 25 09 3c 3d d9 29 bc 1d aa 1a 3d 4a 73 01 3d
       0.008370798 -0.010366735 0.03775989 0.03160409

st_gcn_networks.0.tcn.0.running_var f4 [8]
000000 f5 99 d5 39 86 a3 89 3a b7 0d a8 3a 44 5e 79 3a
       0.00040741233 0.0010501004 0.001282147 0.0009512643
000010 fe a2 0e 39 15 a7 69 3a 3e 63 c3 3a 73 c1 93 39
       0.00013602895 0.0008913142 0.0014906896 0.00028182156

st_gcn_networks.0.tcn.2.weight f4 [8, 8, 9, 1]
000000 a1 90 62 3c cb c4 b8 3c fc 9f e5 3b 8e fc 8d 3c
       0.0138284275 0.022554776 0.007007597 0.017332342
000010 5b bb 9c 3c 83 de 96 bb f1 af 53 3c 3e bd 70 3c
       0.019132307 -0.004604162 0.012920366 0.014693556
000020 c5 74 d3 3c 15 1c 09 3d c2 13 65 bd e4 b9 27 bc
       0.025812516 0.033474047 -0.055927046 -0.010237191
000030 fa f8 1b bc 29 7a db bc 76 69 32 3d 67 c4 87 3c
       -0.00951981 -0.026791649 0.043557607 0.016573144
000040 5b ff 12 bc dd 91 3e bd c5 86 66 3d 4a c8 8f 3d
       -0.008972014 -0.046525825 0.05628087 0.07020624
000050 22 fa c1 3c 20 cd 5b 3d 0a b1 d4 bc 96 71 94 3d
       0.023678843 0.05366242 -0.025963325 0.07248227
000060 6c cf 44 bd 39 dd 30 3d 99 4a 80 bd 28 55 97 3b
       -0.048049375 0.043179724 -0.062642284 0.0046183057
000070 68 8e db bc cd 4d 72 3d e5 9d e3 bc 98 23 2a bc
       -0.026801303 0.059156228 -0.02778525 -0.010384463
000080 d2 db 57 3d 1b 8d 0a 3d 95 22 0b 3d ce 4f 37 bc
       0.05269987 0.033825975 0.033968527 -0.0111884605
000090 bc 6e 37 bc 55 a3 0e bd 56 2b 33 b9 64 62 e4 bc
       -0.011195835 -0.034823734 -0.00017086914 -0.027878948
0000a0 99 bf 08 bd cc bb 71 3b 89 b6 a3 3c fc cf 17 bd
       -0.033385847 0.0036885617 0.0199845 -0.037063584
0000b0 38 b8 e8 bb bb 88 70 bd 4c d3 c3 3b 54 b7 18 3d
       -0.0071020387 -0.058724146 0.0059761163 0.03728421
0000c0 97 53 3b 3b 22 71 22 3d 2a 79 6e 3c b4 51 08 3d
       0.002858376 0.039658673 0.014555255 0.033281043
0000d0 84 ee e7 3b c4 76 17 3d 08 f2 f1 3c ba 54 1f 3d
       0.007077994 0.036978498 0.029534355 0.03889916
0000e0 3c 3b 06 3a 10 61 26 bd 72 59 0c bd f7 35 df 38
       0.0005120521 -0.04061991 -0.03426499 0.0001064352
0000f0 a9 f1 21 bd e2 cc 35 3d 94 68 32 bd 3e 9f f4 bc
       -0.039537106 0.044384845 -0.043556765 -0.029861089
000100 56 de a9 bd 8c 09 35 bc a9 4a 9a bd 09 78 0f bc
       -0.0829436 -0.011049639 -0.075337715 -0.008756646
000110 a7 34 7d bd da 77 83 bc 67 ff 1e bc 7c 6d 08 bb
       -0.06181779 -0.01604836 -0.009704447 -0.002081721
000120 1f 00 56 3a 57 1a 11 bb cd 1a 94 bb d5 44 dc 3b
       0.000816347 -0.0022140944 -0.0045197965 0.0067220726
000130 ab 8c 04 3d 1e 08 9d bc 82 55 d8 3c 28 dd c2 3b
       0.032360714 -0.01916891 0.02640796 0.005946774
000140 e5 21 c0 bb af 2b b3 3c 1d d3 08 3d 74 22 f1 3c
       -0.0058634155 0.021871416 0.03340446 0.029435374
000150 35 ff f6 3b 2b b7 e6 3b 4f bb 7d 3c 22 cf f6 3c
       0.0075377473 0.0070408783 0.015486552 0.030128065
000160 27 78 25 ba 85 38 a5 3c 31 7d e1 3c 4f 1f 63 3d
       -0.00063121546 0.020168552 0.027525516 0.05544978
000170 da 1d 8f 3d e7 74 62 3b f2 c4 53 bc 47 f5 1f bd
       0.069881156 0.0034554543 -0.012925373 -0.039052274
000180 05 49 e8 3a e9 2b b8 3c 16 bc ca bb a6 a3 50 3d
       0.0017721957 0.022481875 -0.0061869724 0.050937317
000190 e8 78 95 bc 57 a3 b2 3c 8f 18 53 3c b1 41 29 3d
       -0.01824613 0.021806402 0.012884273 0.041322414
0001a0 f4 76 d5 3c be 2d 07 3d 3d f5 be bc a2 90 8c bc
       0.026057698 0.033002608 -0.023310298 -0.01715881
0001b0 cf ab 81 3b a4 7d 4d bb a8 78 bf 3c 33 38 fe 3c
       0.0039572488 -0.0031355405 0.023372963 0.031032657
0001c0 43 4f 5d 3d b1 7e 09 bd e0 d8 1f 3d 65 00 64 3d
       0.054030668 -0.033568088 0.039025187 0.05566444
0001d0 75 5d 6e 3d c0 50 a6 bc 68 cd 13 3d 99 b0 8c 3c
       0.058194596 -0.020302176 0.036084563 0.017174052
0001e0 12 2a d5 bc bc a6 a7 3c 26 7d 31 bc bd 21 2d bd
       -0.026021037 0.020465247 -0.01083306 -0.042268503
0001f0 69 94 ad bc 52 27 d7 bc 15 fd 20 bd e7 ec 00 bd
       -0.021188932 -0.026263867 -0.039303858 -0.031475928
000200 79 a9 33 bd 8a 6f 84 bd f3 cf 62 bd 22 56 0a 3d
       -0.043862794 -0.06466587 -0.055374097 0.03377355
000210 c7 e9 2b 3c 04 28 3e bd 57 57 53 3d ca 96 fc 3c
       0.010492749 -0.04642488 0.051596966 0.03083362
000220 31 9d 85 bd f4 35 d3 bb ad d8 2c 3c ff 92 16 3d
       -0.065241225 -0.0064456407 0.010549706 0.03676128
000230 15 bd 1e bd 82 3f 16 3d f5 62 20 bd 6f 1b 01 bd
       -0.03875454 0.03668166 -0.039156873 -0.031520303
000240 e6 3a c0 bc 0f 5c f4 bb a7 bd d3 bc 96 e5 fc bb
       -0.023465585 -0.0074572633 -0.02584727 -0.0077177985
000250 99 d4 85 ba 3f fe 1a bd 82 28 8a bb 2c f3 e4 bc
       -0.0010210454 -0.037840124 -0.0042162547 -0.027947985
000260 80 19 a6 bc 59 49 86 bc 5b 1d 50 bc 22 96 37 bc
       -0.020275831 -0.016392397 -0.012702311 -0.011205228
000270 41 90 0b 3d b3 de 1e bc df 20 1d bc 84 88 fd 3c
       0.034073118 -0.00969665 -0.009590357 0.030948885
000280 41 50 e4 bc 8b d6 1a 3c dc b7 4a 3d b0 3f 4a bb
       -0.0278703 0.009450565 0.04949175 -0.0030860715
000290 f2 f6 ce bb 75 3d a1 bd 2f 57 58 3d d7 25 b5 bc
       -0.0063160593 -0.0787305 0.05281752 -0.02211277
0002a0 7e b0 7c 3d 31 bb 7f bd e8 63 27 3d 67 0a af 3c
       0.061691754 -0.06243438 0.040866762 0.021367265
0002b0 db 34 7f bd f1 50 44 bd 1d 95 f1 3c 32 4e 10 3d
       -0.062306266 -0.047928754 0.029490048 0.035230823
0002c0 4b 62 5b bd bd c7 88 3c 5e b3 0d bd 65 4a df 3c
       -0.053560536 0.016696805 -0.034594886 0.027257154
0002d0 52 cf 08 bc 2c 2b c0 3b db 03 0f 3d ec 3b 88 3c
       -0.00835021 0.0058645215 0.034915786 0.016630135
0002e0 40 3e 49 bd b5 5a 1a bc 2e b2 0c bc 90 fa 93 bc
       -0.04913163 -0.00942104 -0.008587403 -0.018063813
0002f0 dc 7b 05 3d 38 03 1c bd 57 e1 83 bd 2c e3 88 3d
       0.032588825 -0.038089007 -0.064394645 0.066839546
000300 4c b6 f4 bc 62 7a 42 bd 2e 26 24 bc 0a 62 52 3d
       -0.029872082 -0.047479995 -0.010018868 0.05136303
000310 ea ce 18 bd 62 9c 75 3d 65 fc 33 3d 84 58 0d bd
       -0.037306704 0.05996359 0.043941874 -0.034508243
000320 90 f1 ac bd 33 25 54 3d fa 30 91 3d 52 63 9c 3c
       -0.08444512 0.05179329 0.0708942 0.019090328
000330 9a 95 db bc a1 be 2f 3d 36 1b 6f 3d 3f 5e 96 bd
       -0.026804734 0.042906407 0.05837556 -0.07342195
000340 4f 46 f9 bc 91 81 66 bd b2 9f 0e 3d e8 f9 27 bc
       -0.030429034 -0.056275908 0.034820266 -0.010252453
000350 9d 3b 23 3d 59 94 36 bd 84 16 43 bd d0 49 0b bc
       0.039851774 -0.04457507 -0.047628894 -0.008501485
000360 2d 64 c1 bb f3 c1 fb 3b a3 f5 f3 3c c3 e2 8e 3c
       -0.0059018345 0.0076830327 0.029780215 0.017442113
000370 78 15 94 3c 12 18 52 3b 87 2f 28 3c be 83 31 3c
       0.018076643 0.0032057804 0.010265238 0.010834632
000380 76 ea 17 3c 0d 10 c2 3b 1a b1 a4 3c 82 fa b1 bc
       0.009272208 0.0059223236 0.02010398 -0.021725897
000390 f5 c4 52 bc 3b 49 b7 3c 80 05 f5 3c 0c e4 15 3d
       -0.012864341 0.022373786 0.02990985 0.036594436
0003a0 be 5b 66 bc 68 b9 89 3b 4e d0 18 3a 53 b7 df 3b
       -0.014059959 0.0042030104 0.00058293797 0.006827274
0003b0 ab 15 d1 bc 4a ab 41 bc ef 6b 9e 3a 11 ea 69 bc
       -0.025523027 -0.011820624 0.001208661 -0.014276997
0003c0 74 05 35 3b d8 39 ae bc 89 02 16 bd 8f 99 dd 3c
       0.0027621659 -0.021267816 -0.03662351 0.027050762
0003d0 65 60 e9 bc ba f1 1a bd 35 62 24 bd 86 23 1d bd
       -0.028488347 -0.037828185 -0.04013272 -0.038363956
0003e0 e8 42 2d bb d1 55 a7 bc 83 68 af bb ac 21 25 3c
       -0.0026437584 -0.020426663 -0.005353035 0.010078829
0003f0 8b 13 7e b9 20 51 c7 bc c5 85 91 bb ec af 78 3c
       -0.00024230608 -0.024330676 -0.0044409954 0.015178662

st_gcn_networks.0.tcn.2.bias f4 [8]
000000 51 e1 ad 37 94 b2 2c 37 2d 4e 91 37 ad 1b dc 36
       2.0728128e-05 1.0293577e-05 1.732175e-05 6.559733e-06
000010 93 f0 db b6 e8 6a 47 b7 e1 e6 84 37 cd 93 d6 b6
       -6.554715e-06 -1.1886215e-05 1.5843138e-05 -6.3949033e-06

st_gcn_networks.0.tcn.3.weight f4 [8]
000000 67 0f e4 3e 54 f7 d9 3e dd ed c5 3e 4d c0 87 3e
       0.44543 0.4257151 0.38658038 0.265139
000010 e6 2a 9e 3e 03 14 e8 3e fa 20 f1 3e 0b 8d d2 3e
       0.30892104 0.45327768 0.47095472 0.41123232

st_gcn_networks.0.tcn.3.bias f4 [8]
000000 15 1c cf bc 1d e2 0c 3c 4d ab d3 3b 90 97 16 3b
       -0.025281945 0.0085988315 0.0064596296 0.0022978522
000010 0a b3 9d ba 43 a4 e8 3b a8 c9 8c 3c f6 50 9f 3a
       -0.0012031507 0.0070996596 0.017186001 0.0012154866

st_gcn_networks.0.tcn.3.running_mean f4 [8]
000000 a3 4a 34 3c d6 0b 42 3d c8 c4 2e bd 32 ff 96 bc
       0.011004123 0.04737457 -0.042668134 -0.018432233
000010 b0 a6 8e 3c 0a 90 8b 3c 90 8f 50 bd a5 3b bf 3b
       0.017413467 0.017036457 -0.050918162 0.0058359676

st_gcn_networks.0.tcn.3.running_var f4 [8]
000000 81 ad 46 3c 60 e6 2e 3c b6 b0 d1 3b eb 9e d0 3a
       0.0121263275 0.010675043 0.0063992394 0.0015916502
000010 86 19 7e 3b 1d 44 19 3c b4 62 51 3c 3a f9 00 3c
       0.0038772537 0.009354618 0.01277988 0.00787192

st_gcn_networks.1.gcn.conv.weight f4 [24, 8, 1, 1]
000000 92 68 b8 bb 4c d2 3c bd d9 8f 57 3d 13 aa 30 3d
       -0.0056277 -0.046098992 0.05262742 0.043130945
000010 02 79 49 bc db f6 fe bc 56 c1 88 3c 88 b7 82 3d
       -0.012296917 -0.03112357 0.016693752 0.06382662
000020 22 9f 51 3c 02 53 84 bc 52 05 b9 3d dc 9c c1 bc
       0.012794288 -0.016152862 0.09034218 -0.023634367
000030 e7 e7 1d 3d ef 03 e7 bc f2 65 8a 3d a5 56 58 3c
       0.038551237 -0.028200118 0.06757726 0.013204251
000040 d3 81 a8 3d a9 be 81 bd e0 80 1e bd bb ee 34 3d
       0.08227887 -0.06335194 -0.038697124 0.044172984
000050 52 06 c0 3d 1c 86 a9 3d 92 5f bd bc 4e 19 c8 bc
       0.093762055 0.082775325 -0.02311686 -0.024426129
000060 71 a5 ca 3c 2e 27 64 bd 51 6f 43 bd 16 77 2b bd
       0.024737092 -0.055701427 -0.04771358 -0.041861616
000070 f1 96 b3 bd 46 2e be bd 0e 51 04 3d 6a c6 96 bd
       -0.08769024 -0.0928617 0.032303862 -0.07362063
000080 1c 45 a5 bc 7d 5b 0c bc a1 ee 72 3d 05 53 0e bc
       -0.020174555 -0.008566734 0.059309606 -0.008686786
000090 db ca 16 3b 09 01 61 3c d4 d7 3f 3d 05 72 16 bb
       0.0023009095 0.013733157 0.04683669 -0.0022956145
0000a0 c7 4d cb 3c c5 fd ee bd 65 ad 29 3d 67 63 ae bc
       0.02481736 -0.116694964 0.041425128 -0.021287633
0000b0 a1 42 23 bb 4a 06 9d 3a 6f ba bb bd 7d a3 91 3c
       -0.002491154 0.0011980024 -0.09166419 0.017778153
0000c0 73 bf 1b bd b6 e5 4f bd 98 ae a6 3d cb b0 02 3d
       -0.038024377 -0.05075618 0.0813877 0.031906884
0000d0 93 b5 7e 3d 2b cb c0 3b 20 7c 40 bd 25 79 38 bc
       0.06218488 0.0058835945 -0.046993375 -0.011259352
0000e0 6b c6 54 bc e4 ca db bb e8 c3 43 ba 23 b8 bb bc
       -0.01298676 -0.006707536 -0.0007467852 -0.022914952
0000f0 8f 73 bf bb cc 38 46 3d 27 c1 a6 3c 37 5e 8b 3d
       -0.005842633 0.04839401 0.020355774 0.068050794
000100 85 38 50 bc 2d 4a bb 3d 1c 57 00 3c 01 6b 94 3b
       -0.012708788 0.09145007 0.0078332685 0.0045293574
000110 63 28 96 bc 4d e3 81 3c 8b 5b 4b 3d 0c a0 f6 3d
       -0.018329805 0.015855456 0.04964785 0.12042245
000120 7c 94 93 bd 5c c1 6e 3b 31 e9 10 bd 5e 91 4a 3a
       -0.072060555 0.003643117 -0.03537864 0.000772735
000130 8c 62 73 3b 47 54 31 bc 9d 69 5c 3d 8b 02 94 3b
       0.0037137596 -0.010823316 0.05381166 0.0045169047
000140 f4 a4 bc 3c 77 49 3f bc 1a 68 98 3d 76 d8 19 3d
       0.023027875 -0.01167523 0.07441731 0.03755995
000150 10 ae 57 bd 44 28 c6 bd 16 7a f5 3d 00 a4 43 bd
       -0.052656233 -0.09675649 0.11986177 -0.047763824
000160 16 ee 8f bc 19 92 0d 3e 5f 6b bd 3d 6c df 50 bc
       -0.017569583 0.13825263 0.09248995 -0.01274858
000170 d0 1f 87 bd dc 3e b8 3d ab 50 37 bd 97 02 e0 bd
       -0.06597865 0.089963645 -0.044754665 -0.10937994
000180 a3 87 12 bd eb ac bb bc 8d 2b b2 3d bb 8f 4f 3d
       -0.035773885 -0.022909602 0.08699713 0.05067418
000190 f3 1c 96 bc 52 b1 f7 3c 20 2a 31 bd c0 d8 97 3c
       -0.018324351 0.03023592 -0.043253064 0.018535972
0001a0 68 59 ba 3d 2e cf 35 bd 69 e7 16 bc 8c 48 98 bd
       0.09099084 -0.044387035 -0.009210446 -0.07435712
0001b0 d2 2a 1a 3d fe f9 dd bd d3 e1 86 3d 8f ed 39 3d
       0.037638493 -0.10838698 0.06586041 0.04539257
0001c0 53 42 c1 bd c8 cf e6 bd db 07 73 3d c8 05 78 3c
       -0.094364785 -0.112701 0.059333663 0.015138097
0001d0 f2 2a 95 bd 26 af e8 bc 7d 61 e7 3c ac 34 b8 3d
       -0.07283582 -0.02840383 0.028244728 0.08994421
0001e0 9f dc 68 3d 70 f1 08 3d 2c f6 c6 bb b3 c0 c6 38
       0.056851026 0.033433378 -0.0060718264 9.477269e-05
0001f0 4d 98 56 3b 36 7a e0 3b ae 9f 05 3d b8 59 be 3b
       0.0032744587 0.006850506 0.032622986 0.005809035
000200 6f ad 4a bc 09 ce 2b bb a4 76 56 3d 49 5f 19 3d
       -0.012370451 -0.0026215336 0.05235924 0.037444387
000210 7d 0d 27 bb e2 f4 db 3c 88 58 ea bc d5 bc 82 bb
       -0.0025490217 0.026850168 -0.028606668 -0.0039897957
000220 1e f9 bd 3c 25 60 7d bb 7f 5c b9 3c 3c ee 01 bd
       0.023190077 -0.0038662043 0.022627113 -0.03172134
000230 7e a0 8f 3a a6 47 3a 3d 8f a6 69 3d a9 6c 6d 3d
       0.0010957865 0.045478486 0.05704361 0.057964955
000240 12 c5 21 3c c1 b1 62 3c 16 80 b0 3c 52 e8 e5 3a
       0.009873645 0.013836325 0.021545451 0.001754055
000250 7d 62 d1 3b d1 d4 92 bd 14 c1 b9 3d f6 b2 b2 3b
       0.0063899145 -0.07169498 0.0907003 0.0054534627
000260 06 0f c5 3d 9b 04 c2 bc 79 e0 0c bd 34 d0 0d bc
       0.09622006 -0.023683837 -0.03439376 -0.0086555965
000270 96 cc ee bb 25 06 37 bd 28 29 0c 3e d0 a3 e2 bc
       -0.007287572 -0.044683594 0.13687575 -0.027666003
000280 43 5c e2 3c 68 5e f2 bb 7f d1 bd 3c b7 12 6c bc
       0.027631884 -0.007396508 0.023171185 -0.014408759
000290 1e 21 44 3c dc 39 02 bc 24 e1 43 3c e6 89 e9 bc
       0.011970786 -0.007948365 0.011955533 -0.028508138
0002a0 f2 66 c8 bc be 2f 4f bc 91 b2 57 bd f0 07 84 3c
       -0.02446315 -0.01264566 -0.05266053 0.016117066
0002b0 ae 19 92 3c f8 d9 d6 bd 4e b4 44 bd 2d e6 95 bb
       0.01783451 -0.10490793 -0.048023514 -0.004574558
0002c0 7b f5 9b 3d 64 3f 1f 3c 86 dd 02 3d ec 19 ad bd
       0.07615181 0.009719703 0.031949542 -0.0845221
0002d0 5f 44 04 3d e3 2b 29 3d bc d3 c6 ba 15 60 9a bc
       0.032291766 0.04130162 -0.0015169303 -0.018844644
0002e0 b5 b1 a8 3c 5a 14 1c bd 0e b8 27 3d 25 91 11 bd
       0.02059255 -0.038105346 0.040947013 -0.03553881
0002f0 4c 95 f0 3a 87 02 14 bd a0 f2 37 bd c2 1f 0a 3e
       0.0018355041 -0.036135223 -0.04490912 0.13488677

st_gcn_networks.1.gcn.conv.bias f4 [24]
000000 93 73 95 3b a4 16 cd 3c 6a 61 87 ba 33 d9 2f 3d
       0.0045608967 0.02503521 -0.0010328714 0.042931747
000010 3b e8 02 3b 20 f6 f6 bb c1 c3 95 3c 3e ef be bb
       0.0019974846 -0.0075366646 0.01828182 -0.0058268597
000020 ce 64 a4 bd a4 45 88 bb 3b a8 e1 39 5d de 07 3c
       -0.080270395 -0.0041586924 0.00043040686 0.008292762
000030 a2 9a 88 bd 3e 0d d2 3c d3 a7 a6 3d 15 a3 46 3c
       -0.06670119 0.02564108 0.08137479 0.012123843
000040 d4 33 a2 bc e7 05 79 bd 57 df 30 3c 1e 8f 10 3d
       -0.019800104 -0.060796645 0.010795436 0.035292737
000050 e9 47 51 3c 85 0a dd bc 52 83 e2 3c 7f 50 ff bc
       0.012773492 -0.026982555 0.027650509 -0.031166313

st_gcn_networks.1.tcn.0.weight f4 [8]
000000 dd 93 96 3e d2 28 82 3e 74 6d c7 3e b2 81 ce 3e
       0.29409686 0.25421768 0.38950694 0.40333325
000010 88 06 6a 3e f0 87 ad 3e 43 39 c1 3e 78 72 aa 3e
       0.22854054 0.33892775 0.37739 0.33290458

st_gcn_networks.1.tcn.0.bias f4 [8]
000000 44 5c 25 bc 02 35 34 3a 74 cd ae 3c a2 d8 06 3d
       -0.010092799 0.0006874354 0.021338202 0.03292144
000010 f0 6c c7 b6 9e a7 5c bb e4 76 b6 bc c3 91 a4 ba
       -5.943344e-06 -0.0033669244 -0.022273488 -0.0012555647

st_gcn_networks.1.tcn.0.running_mean f4 [8]
000000 cd 26 97 ba 0a 47 d6 3a 61 e4 e6 3a 62 29 88 3b
       -0.0011531949 0.0016348076 0.001761567 0.004155324
000010 7c f7 67 bb 69 a4 a8 bb 95 a4 12 3c cf 49 14 3b
       -0.0035395315 -0.0051465523 0.008950372 0.0022627

st_gcn_networks.1.tcn.0.running_var f4 [8]
000000 3a b8 ad 37 65 85 a2 37 b7 e4 84 38 6f 20 3f 38
       2.0708994e-05 1.9374022e-05 6.336852e-05 4.5568155e-05
000010 9d 63 18 38 9b 80 24 38 2c 10 80 38 d2 fc 28 38
       3.6332396e-05 3.922042e-05 6.106528e-05 4.028978e-05

st_gcn_networks.1.tcn.2.weight f4 [8, 8, 9, 1]
000000 d9 18 20 3b 02 cc a7 bb 20 a0 17 bc 8a c5 9b bb
       0.0024428873 -0.005120755 -0.009254485 -0.004753773
000010 ed 02 db bb 97 5b ce bb 84 37 0c 39 ec 59 07 3c
       -0.0066836984 -0.0062975395 0.00013372122 0.008261185
000020 cf 45 9e 3c 44 40 04 bc 0d 29 a0 bc 42 d2 fb b8
       0.019320397 -0.008071963 -0.019550825 -0.00012007776
000030 37 6d 3a bb d4 bf dc bc d5 e2 c4 bb b8 ac 05 bc
       -0.0028446445 -0.02694694 -0.006008486 -0.008158855
000040 39 06 45 bc b4 b2 51 bc 3e 1f f1 3c 0e 78 dc bb
       -0.012025409 -0.012798954 0.029433843 -0.006728179
000050 37 e2 60 3c de c8 a5 bc 3e d1 64 3c 5b f2 bf ba
       0.013725809 -0.020237383 0.013965903 -0.0014644371
000060 d7 49 c6 3c 77 84 c6 bc 14 55 14 bd 38 f8 ff bb
       0.024205131 -0.024233086 -0.03621395 -0.0078115724
000070 96 9c e0 bb ce 91 2c 3c ca 67 14 3b 4a bf 2a bc
       -0.006854604 0.010532809 0.002264487 -0.010421583
000080 73 d7 3d 3c 25 ad 11 bd a6 5d 2b bd 1c 24 18 bd
       0.011587012 -0.035565514 -0.041837357 -0.03714381
000090 1d b6 2f 3c 00 cd 9c bc f6 cf d7 ba 0f 4c 77 bc
       0.0107245715 -0.01914072 -0.0016465175 -0.015093817
0000a0 5f 31 8a 3c 75 dc bf 3c fc 7b 6f 3c 74 7c a6 3a
       0.016869245 0.023420552 0.0146169625 0.0012701885
0000b0 83 24 b8 3b b9 d8 eb bb 9b 00 a9 bc ee 75 12 3c
       0.005619587 -0.007197466 -0.020630172 0.008939249
0000c0 87 09 39 3c 0e fe 45 3b b1 1b ad bb 7a 8b fb 3b
       0.011293775 0.0030211243 -0.005282842 0.007676539
0000d0 be 11 b5 bc b0 dd 7d bc fe 7b 52 ba 97 08 6e 3c
       -0.022103187 -0.015494749 -0.00080293405 0.014528415
0000e0 a5 f1 a4 3c c6 f2 35 bc 24 76 9c 3c 3d ab 10 3d
       0.020134756 -0.011105245 0.019099303 0.035319556
0000f0 4c da a6 3c 49 54 47 3b 49 7d 08 3c e4 2c 14 3c
       0.020367764 0.0030415228 0.008330652 0.009043906
000100 3e f1 15 3c 2b bd 8f bc e6 aa ca bc 70 a6 02 3b
       0.009151755 -0.017546257 -0.024739694 0.001993563
000110 05 0c 2b bc bf d7 89 ba 48 e2 94 3c e1 d8 19 ba
       -0.010439877 -0.0010516568 0.018174306 -0.00058688043
000120 fb fe 2d bc 4e fc 90 bc e2 dd 77 bb 45 8b ac 3b
       -0.010619874 -0.017698433 -0.0037821461 0.0052656257
000130 be 2f ff bb 1a b0 8e 3b 3a 25 ed bb 50 a0 b0 39
       -0.0077876737 0.004354489 -0.007237104 0.00033688778
000140 30 25 eb bb a8 e3 9b bc a7 c2 fc bb c1 f9 d6 bb
       -0.007176064 -0.019029453 -0.007713634 -0.0065605347
000150 37 b1 84 bc 72 62 e8 3c 8f 58 ce 3c e5 0e da 3c
       -0.016197784 0.028367255 0.025188712 0.02661843
000160 a3 5e 09 bc bc 28 af 3b 01 38 db bb 27 c8 07 bc
       -0.00838438 0.005345432 -0.006690026 -0.008287466
000170 16 ed a3 3c ba 07 d0 3c c3 e1 ae 3c 49 30 fa 3c
       0.020010512 0.02539431 0.021347886 0.030540602
000180 72 3f 09 3c 6b 5a 9e 3c c1 33 e0 3c 14 97 c6 39
       0.008376943 0.019330224 0.027368428 0.00037878065
000190 9c 2e 25 3d 67 07 ba 3b 7e 3c 10 3d bd 5d 95 3c
       0.040327653 0.005677152 0.03521394 0.018233174
0001a0 80 69 1b 3d e9 7d 2f 3d a4 25 83 3c 70 48 42 3d
       0.03794241 0.042844687 0.01600916 0.047432363
0001b0 d3 00 c4 bc 8e d0 2c 3c f3 ca e7 ba d6 99 41 bc
       -0.023926174 0.01054777 -0.0017684385 -0.0118164625
0001c0 88 f2 23 3c f5 29 71 bc b5 0a 34 3c 6a 03 9f 3a
       0.010006554 -0.014719476 0.010988881 0.0012131755
0001d0 67 26 21 3d 0f f6 42 3c f4 ae 2a bc 94 b1 f5 3b
       0.039343264 0.011899485 -0.010417689 0.0074979756
0001e0 1b f8 a1 bc 59 4e b7 bc 42 77 a3 bc 8d 2a 65 3b
       -0.019771626 -0.022376226 -0.019954327 0.003496799
0001f0 79 b3 0c 3c e9 f3 d3 3b 77 e5 33 bc 61 d3 91 3b
       0.0085877115 0.0064682853 -0.010980002 0.004450247
000200 41 42 fd 3c 6d 16 1d bc 2a b8 7d 3c 97 c4 aa 3c
       0.030915381 -0.009587866 0.015485803 0.020845694
000210 0d 27 ea 3c 81 dc 10 bc a1 01 d9 3c cb ea 1b 3b
       0.028583074 -0.008841635 0.026490035 0.002379107
000220 12 dd 99 bb ef 0d 17 bc d3 8c d2 bb 22 61 d5 bc
       -0.004695543 -0.009219631 -0.006425479 -0.026047293
000230 84 32 39 3c 72 79 d3 3c 89 95 0e bc db 43 5a bb
       0.011303548 0.025814746 -0.008702644 -0.0033304605
000240 ad 65 40 3c dd 92 18 bd 20 e9 11 bd 23 50 a0 bc
       0.011742991 -0.037249435 -0.035622716 -0.019569462
000250 78 cd db bc 49 8d 46 3c e9 2b 88 39 61 ad 05 bd
       -0.026831374 0.012118646 0.00025972657 -0.03263605
000260 b0 07 d5 bc a7 a4 09 3d 2a 47 37 3c 5a a7 8c bb
       -0.026004642 0.03360429 0.0111864 -0.004292411
000270 c1 f7 b2 b9 7c 23 e0 bb 71 cc c5 bc 1d 88 d1 bc
       -0.00034135397 -0.0068401676 -0.024145337 -0.0255776
000280 9c ae bb bb 67 18 ef bb ec d5 1c 3d 7c 71 9d bc
       -0.005727602 -0.00729661 0.03828995 -0.019219153
000290 c6 d6 89 3c 8c e5 fd 3c a2 8f ba 3b ce ed 4f 3c
       0.016826045 0.030993246 0.005693392 0.012690974
0002a0 35 09 7f 3c 85 b7 13 3b 1e 6a 04 bc 4b fd ad bc
       0.01556616 0.0022539806 -0.008081941 -0.021238944
0002b0 00 b9 65 3c 02 12 5f bd 82 ba 76 3a 35 94 b7 bc
       0.014021158 -0.054460533 0.0009411947 -0.022409538
0002c0 22 1c 29 bd 55 2c 31 bd c5 b9 76 3c 5c 98 09 3c
       -0.041286595 -0.04325517 0.015058939 0.008398142
0002d0 b8 15 30 bc 68 11 5e 3d 48 55 11 bd 0a a7 36 3d
       -0.010747366 0.05421582 -0.03548172 0.044592895
0002e0 98 69 09 bc e2 f3 fd 3c f1 e8 d1 3c 4a 3a cc ba
       -0.008386992 0.031000081 0.02562377 -0.0015581336
0002f0 50 e4 b9 3c 7c 90 87 3c 99 a6 38 bd 97 22 d6 3c
       0.022691876 0.016548388 -0.045080755 0.02613954
000300 cb 34 63 bb 49 36 90 ba d6 0f 14 bd fc a4 25 3c
       -0.0034668918 -0.0011002506 -0.036147915 0.010110136
000310 98 b5 32 bd 1d af 03 bd b2 e7 3d b8 73 0a f1 b9
       -0.043630213 -0.032149423 -4.5276895e-05 -0.00045974887
000320 da ec cb 3c 62 58 29 3d be 71 f0 3b 74 d3 68 bc
       0.024893213 0.041344054 0.007337778 -0.014210571
000330 15 ff b9 ba 74 ba 41 3c 8a 94 30 3d 76 ad aa 3a
       -0.00141904 0.011824239 0.043110408 0.0013021666
000340 ef 64 31 3d 91 fb a4 3c 05 06 24 bc 3b 6d 89 3c
       0.04330915 0.020139487 -0.010011201 0.016775718
000350 ff 66 d9 3b 59 9c 96 39 94 42 bb bb 69 fb 13 3b
       0.0066345925 0.00028726718 -0.005714724 0.0022580272
000360 09 37 d5 3b eb cd 0e bc f6 b0 af 3c 6a ec 62 bc
       0.006506805 -0.008716087 0.021446686 -0.013850311
000370 9b 0d 52 bc db 91 7d 3b bc 1e b4 bc c1 b7 b8 bc
       -0.012820627 0.0038691673 -0.021987312 -0.022548558
000380 67 ab 84 3b b1 93 4b 3d 5f 8a 3f bc b4 4e ad 3c
       0.004048753 0.049701396 -0.011690705 0.021155693
000390 df bf 8a 3c f5 bf 2c 3d f1 6d a9 3b 56 eb 95 bc
       0.016937194 0.042175252 0.0051705767 -0.018300693
0003a0 2c e9 0f bd b1 ec 81 3c dd 98 80 3c 0b 61 cc 3c
       -0.03513448 0.015859934 0.01569789 0.024948617
0003b0 3f 09 62 3c 38 70 ae bc 18 c1 1a 3d 7a 19 95 3c
       0.01379615 -0.021293744 0.037781805 0.018200625
0003c0 8c 99 a7 3c ed 5a d4 3c 4a b5 1d 3d 47 2b c9 bb
       0.020458959 0.025922263 0.03850297 -0.0061391923
0003d0 b7 23 0b bc 34 4d b8 bc 61 65 11 3c 05 ed 53 bc
       -0.008492402 -0.02249775 0.008874268 -0.012934928
0003e0 64 2c bc bc ec 68 1e bc 3f 93 d3 3c 93 f7 ff bc
       -0.022970386 -0.00966857 0.025827048 -0.031245982
0003f0 19 74 84 3a 00 47 66 bb 17 bd b0 bb a1 f8 f2 bb
       0.00101054 -0.0035137534 -0.005393635 -0.007414893

st_gcn_networks.1.tcn.2.bias f4 [8]
000000 f8 b8 de b7 75 1c 58 b7 2a 65 67 b7 c6 11 a6 37
       -2.6550595e-05 -1.2881229e-05 -1.3792227e-05 1.9797018e-05
000010 d1 1d 4c b6 70 35 2e b7 14 69 41 b6 f5 72 4b b6
       -3.0415724e-06 -1.038365e-05 -2.8820405e-06 -3.031627e-06

st_gcn_networks.1.tcn.3.weight f4 [8]
000000 21 33 86 3e bf 9e aa 3e 18 1d c4 3e e3 a1 c6 3e
       0.26210883 0.3332424 0.38303447 0.38795385
000010 4d 49 8d 3e b5 5e d8 3e 88 59 ba 3e ef be 79 3e
       0.27594987 0.42259756 0.36396432 0.24389242

st_gcn_networks.1.tcn.3.bias f4 [8]
000000 93 15 d6 3b 5b 6c b3 ba 4a f7 58 bc d4 29 57 bb
       0.0065333336 -0.0013688909 -0.013242552 -0.0032831328
000010 00 b8 35 bc 33 2b 8e bb f2 41 1d bb 0a 4e fc 3b
       -0.011091232 -0.004338646 -0.0023995605 0.0076997327

st_gcn_networks.1.tcn.3.running_mean f4 [8]
000000 9a 87 8e bc 7f f3 60 3d 6a 8a 18 bc 5e 66 93 3c
       -0.017398644 0.054919716 -0.009310344 0.017993148
000010 26 4b f6 bb 4e bc bf 3c ad 41 fb bc 48 08 26 bd
       -0.0075162826 0.02340522 -0.030670965 -0.04053524

st_gcn_networks.1.tcn.3.running_var f4 [8]
000000 86 22 9f 3a 3b cc 05 3c 5b f5 21 3b 2a ff 27 3b
       0.0012141026 0.008166368 0.0024712894 0.0025634267
000010 f6 9d a5 3a be ff 6c 3b 50 4d 03 3b 40 e2 62 3b
       0.0012635577 0.0036163176 0.0020035096 0.0034619719

st_gcn_networks.1.residual.0.weight f4 [8, 8, 1, 1]
000000 75 d0 47 bd 6b 17 8d bd c5 55 ee bd 37 57 0c ba
       -0.048782784 -0.06889232 -0.11637453 -0.0005353572
000010 7c aa 5c bd df 98 2f 3d c5 b5 99 3d ac eb 4b bd
       -0.053873524 0.0428704 0.07505373 -0.0497853
000020 2f f8 dc bd c7 9c 87 bd ce f4 e2 bc c8 62 58 bc
       -0.10789525 -0.066217 -0.027704623 -0.013207145
000030 e9 09 1a bd ec 93 e8 3d 3b 8b e1 3d b3 f2 d3 bd
       -0.037607107 0.11356339 0.11012884 -0.103490256
000040 f0 3a 12 be f5 85 37 bc 5c ca 93 3d 00 1e 0b bc
       -0.14280295 -0.011201371 0.07216331 -0.008491039
000050 cb b3 38 bd 79 14 83 3d 2f 11 b9 bb f0 2a 9d bd
       -0.04509334 0.06400389 -0.0056478004 -0.07674205
000060 1b fb ae 3d 2c 59 53 bc 9c cb 8d bd 7e 30 a4 bc
       0.08543988 -0.012899678 -0.06923601 -0.020042654
000070 16 5e b1 bc 3b d8 c2 bc 9b a4 a8 3d 0f d0 cc 3d
       -0.021651309 -0.023784747 0.08234521 0.100006215
000080 67 d3 e4 bc c6 84 29 3d 90 2e b8 bd 60 f6 90 3b
       -0.027932836 0.04138639 -0.08993256 0.0044239014
000090 ed b3 fd 3c 33 06 67 bd 78 07 05 3e 00 6f 61 3d
       0.030969584 -0.056402396 0.1299113 0.0550375
0000a0 c2 32 0c 3e 4d 03 27 3d 4d ba de 3d 5a 15 09 bc
       0.13691238 0.040774632 0.10875378 -0.008366907
0000b0 50 b8 7d bd ba 5a 9e bd 5e e6 3b bd 40 6d ce bd
       -0.061943352 -0.077321485 -0.045873992 -0.100794315
0000c0 25 10 19 3d ff 1e 48 3c 93 df 98 bd e1 01 09 3d
       0.037368912 0.012214421 -0.074645184 0.033449057
0000d0 5e 01 bc bc a2 1f d6 bc 09 df 8b bd bb 5f 77 3b
       -0.02294987 -0.02613813 -0.0682965 0.0037746269
0000e0 33 9d 00 bd c5 d7 db 3b 13 4a c7 3d d3 10 02 3c
       -0.031399917 0.0067090713 0.097309254 0.0079385815
0000f0 a0 73 a1 3d a0 c6 f8 3d 33 9b fa bd 23 27 75 bd
       0.07883382 0.1214726 -0.12236633 -0.059851777

st_gcn_networks.1.residual.0.bias f4 [8]
000000 91 59 7f b7 a5 c9 8d b6 79 c1 f9 b7 e5 3b 11 37
       -1.5220038e-05 -4.225602e-06 -2.9773206e-05 8.656619e-06
000010 d3 f9 d8 36 b7 e5 2c b7 55 b5 14 38 b6 51 b6 b5
       6.466385e-06 -1.0305484e-05 3.545483e-05 -1.3583838e-06

st_gcn_networks.1.residual.1.weight f4 [8]
000000 89 58 95 3e 2b 27 a2 3e d9 1b be 3e 18 3e 9b 3e
       0.2916911 0.31670508 0.3713062 0.3032081
000010 d8 ad 9d 3e bf ad ae 3e 84 be e0 3e 72 c6 86 3e
       0.30796695 0.34116933 0.43895352 0.26323277

st_gcn_networks.1.residual.1.bias f4 [8]
000000 93 15 d6 3b 5b 6c b3 ba 4a f7 58 bc d4 29 57 bb
       0.0065333336 -0.0013688909 -0.013242552 -0.0032831328
000010 00 b8 35 bc 33 2b 8e bb f2 41 1d bb 0a 4e fc 3b
       -0.011091232 -0.004338646 -0.0023995605 0.0076997327

st_gcn_networks.1.residual.1.running_mean f4 [8]
000000 eb 81 e6 bc 02 9d 33 bc 08 d6 8b bc 7b b2 a8 3c
       -0.028138122 -0.010962727 -0.017069831 0.020592919
000010 2d 55 67 3c 62 f8 73 bb 01 3f a0 bc 74 88 4e 3c
       0.014119429 -0.0037226905 -0.019561293 0.012605775

st_gcn_networks.1.residual.1.running_var f4 [8]
000000 54 01 97 3a c4 ea 2c 3b 8d 0d c4 3a e3 8c d1 3a
       0.0011520782 0.0026385048 0.0014957652 0.0015987422
000010 f3 bd 16 3b 95 83 08 3b 53 05 2e 3a 34 a1 20 3b
       0.0023001402 0.0020830382 0.00066383666 0.0024510147

st_gcn_networks.2.gcn.conv.weight f4 [48, 8, 1, 1]
000000 9e b8 f3 3c fe c1 1e bd 64 55 18 bb f4 ba 1d bd
       0.029751118 -0.038759224 -0.0023244256 -0.03850837
000010 e5 3f 4f 3d cf 03 af bb 31 b3 a9 bd 61 62 5d bc
       0.050598044 -0.00534103 -0.08286131 -0.013512225
000020 ea 5a 8f ba cd 5e b3 bc fd 9e a8 bc f9 6d 0d bc
       -0.0010937129 -0.02189579 -0.020583624 -0.008632177
000030 d0 59 32 bc 15 fe 5d 3c 23 65 27 3c 73 35 1d 3c
       -0.010885671 0.013549347 0.010216984 0.009595263
000040 22 5f 83 bc 0a 58 3f bd cc d8 36 3a 40 76 1a bd
       -0.016036574 -0.04671482 0.0006975054 -0.03771043
000050 09 ab 7a bb ac 98 8d 3c 59 0e 13 bb 03 41 29 3d
       -0.0038248918 0.017284714 -0.0022438972 0.041321766
000060 a7 d8 d3 b9 ea dd 01 bd 19 85 cb 3a 15 1d 83 ba
       -0.00040406475 -0.031705774 0.0015527337 -0.0010003174
000070 c7 9e 5d 3d f0 86 43 bd 2b a5 f7 bb 57 b1 41 3d
       0.0541065 -0.04773611 -0.0075575314 0.047288265
000080 aa f7 80 bb 9e 50 ce bb 15 bf 2b bb e7 b7 03 bd
       -0.003935774 -0.0062962314 -0.0026206423 -0.032157805
000090 5a c3 6f bb bd b3 14 3d fe 03 a3 bc e4 1c 1c bc
       -0.0036584944 0.036304224 -0.019899365 -0.009528372
0000a0 09 c3 70 3d fd 1a a0 3a 93 26 a5 bd 28 2f df bc
       0.05877975 0.0012215074 -0.08063998 -0.027244166
0000b0 58 b7 f3 3d 0d a7 98 bb 04 e1 e3 bd 21 cd cb bc
       0.119002044 -0.004658586 -0.11126903 -0.024878087
0000c0 6b 08 df bc db 77 a7 bd a3 73 89 bd 14 4f 04 bc
       -0.027225694 -0.081771575 -0.06711509 -0.008075494
0000d0 29 dc 11 bd 50 33 82 3d 87 f9 b1 bd 35 28 25 3d
       -0.03561035 0.06357443 -0.08690172 0.040321548
0000e0 66 8d e2 bc b3 3d a8 bc 64 7f 02 3d 05 53 f3 3a
       -0.027655315 -0.020537233 0.03185977 0.001856417
0000f0 9d 63 73 3a 34 f9 82 bc 62 3e 05 bc 53 02 b4 3c
       0.0009284558 -0.01598797 -0.008132549 0.021973765
000100 fd a7 3b ba 7e 10 e3 bc 1a 69 ae 3b 0a b8 37 bb
       -0.0007158516 -0.027717825 0.0053225877 -0.002803328
000110 27 e1 80 bd 28 98 6c 3d 3b d3 e6 bb c8 7a a4 3b
       -0.062929444 0.057762295 -0.0070442236 0.0050195195
000120 56 60 76 bb de 21 8d bc 6c f9 a1 3c ab 08 64 3c
       -0.0037594042 -0.017228063 0.019772254 0.013918082
000130 00 79 f8 3c cd 37 c7 bc ab 62 d5 bb 6d 34 c5 3b
       0.030331135 -0.0243186 -0.0065120063 0.0060182125
000140 96 1b 3b 3c 6f 0c c2 bc 8b fa ba 3c 0c 0b d9 3b
       0.011420151 -0.02368757 0.022824546 0.0066236313
000150 93 c7 53 3d e0 6b 80 3d c8 a7 74 3c b5 a0 0c 3c
       0.051704 0.062705755 0.01493258 0.008583237
000160 2a bd 07 3d 00 c1 9d bd 5d 07 89 bd 82 99 08 3d
       0.033139385 -0.077028275 -0.066908576 0.03334952
000170 9e 94 10 bc 5d 66 71 bc 80 d7 5c 3c 45 ff f3 3b
       -0.008824496 -0.014733878 0.013479114 0.007446202
000180 36 51 e5 3c 6d 57 20 bd 81 d1 d5 bb 73 11 a9 3d
       0.027992826 -0.039145876 -0.006525219 0.08255281
000190 7e a5 32 bd 4c bc 09 3c a2 de fe 3b 69 81 9f bb
       -0.043614857 0.00840671 0.0077780047 -0.004867722
0001a0 ce c8 cb bb a8 ae 15 bd 0f 48 b2 3d 2d 8b c4 bc
       -0.006219006 -0.03654352 0.0870515 -0.023992145
0001b0 a3 0f 4e bc eb 6d 77 3c fe 5e a6 ba e3 82 98 3c
       -0.01257697 0.01510189 -0.0012693105 0.0186171
0001c0 b3 2d 2c bc e8 7c a1 3c f7 c4 25 3d 3e b8 8d bd
       -0.010508942 0.01971288 0.040471043 -0.06919907
0001d0 27 3d 07 3a 6d f8 43 3d 1a 58 2f 3b c5 2d 44 bc
       0.0005158954 0.04784434 0.0026755393 -0.011973803
0001e0 ae bc 01 bc 98 3b e3 3a 99 56 de ba 1d 1d 00 bd
       -0.00791852 0.0017336486 -0.0016963064 -0.031277765
0001f0 7e e6 ff bb 84 fe 75 3b 49 27 55 bc 3f 0f b1 bb
       -0.007809459 0.0037535736 -0.013009855 -0.005403429
000200 ee a1 85 3c 6c 00 f6 bc 40 23 0a 3d fd 92 0d bd
       0.016312566 -0.030029498 0.033725023 -0.034564007
000210 c3 17 e4 3c 7c 47 cb 3d b5 e9 b6 3d 43 57 14 bc
       0.027843362 0.09925744 0.08931295 -0.009054008
000220 5b af 13 bc be 28 35 bd e9 1a ac bc 36 da 97 bc
       -0.009013976 -0.044228308 -0.021008926 -0.018536668
000230 b2 56 65 bb 5f d0 a1 3c 68 1f 58 3d f2 72 48 3b
       -0.0034994301 0.01975268 0.052764326 0.003058609
000240 c2 58 7a 3c 85 b3 c2 bb 39 1f 82 3d 8f 9c dd bb
       0.015279951 -0.0059418106 0.063536115 -0.006763048
000250 e6 10 5a 3d 2d ed 0a bc bb 49 e8 3b 6a ff c6 bc
       0.05323877 -0.008479399 0.0070888675 -0.024291713
000260 f9 d8 5b 3d 26 cc 1d 3d 89 e2 8a bc 40 73 11 bd
       0.053673718 0.03852477 -0.016953724 -0.0355103
000270 0b 95 7d 3d f3 af e8 bc b6 90 04 bd 4d 21 02 bd
       0.061909717 -0.028404212 -0.03236457 -0.03177004
000280 2b 86 b9 bb 97 30 80 bb 6f f9 f6 3c 20 67 29 bc
       -0.005661746 -0.0039120424 0.030148236 -0.010339528
000290 ea 9b 2b bc 52 42 2a 3d 4a d8 fc 3c c7 ca 87 3a
       -0.0104741845 0.041567154 0.030864853 0.0010360115
0002a0 71 7e a0 3c 0b 56 27 3d 8f d6 1d bd 87 98 54 bd
       0.019591542 0.04085354 -0.038534697 -0.051903274
0002b0 1f fd ba 3c 18 e7 f2 bd be 57 14 3d d5 18 8f 3a
       0.022825776 -0.11860484 0.03621649 0.0010917435
0002c0 74 4c 15 3d 4d cb 53 3d ec 8c 85 bd 7d ba 37 3d
       0.036449865 0.051707555 -0.06521019 0.044855583
0002d0 dc cb aa 3d f3 20 07 bd 89 3a 91 bc ae c1 6a bc
       0.08339664 -0.032990407 -0.017728107 -0.014328403
0002e0 70 e4 87 3c cd bb 66 bd 40 2a 0d 3d 56 4b 99 3b
       0.01658842 -0.056331445 0.03446412 0.00467817
0002f0 82 73 83 bc 11 1f 1f 3d ca e3 5f bc 84 70 36 3d
       -0.01604629 0.038847987 -0.013665149 0.044540897
000300 f7 40 39 3d 15 31 7a 3d 41 67 13 bd 72 a8 d7 3c
       0.04522797 0.061081965 -0.035987142 0.026325438
000310 c3 30 8f 3d 1d 8f 3a 3b cd 6d fc 3c c2 ee ce bc
       0.069917224 0.002846665 0.030814076 -0.025260333
000320 3b dd 58 bb 82 f4 bd bb 21 cb 2d bc 14 a9 bf 3c
       -0.0033090848 -0.00579697 -0.010607512 0.023396052
000330 8a bd 4e bc f1 99 2f 3d 5a 0b b4 3b a0 94 08 bc
       -0.012618432 0.04287142 0.0054945173 -0.008336216
000340 65 14 dc 3c d5 08 3a bd a4 83 b1 3c 60 04 05 3d
       0.026865194 -0.04541858 0.021669216 0.032474875
000350 07 b5 b0 b9 73 4d 90 bb 67 67 7d 3c 05 d9 d7 3c
       -0.00033704212 -0.004403764 0.015466548 0.0263486
000360 3f 1b a4 3d ef ea b6 3d 63 c8 b1 3c 1a 2a 04 3c
       0.08013009 0.08931529 0.021701997 0.008066678
000370 1a bc 01 bd 72 d7 4e bc 4b 7c b3 3d 1b ec 03 3d
       -0.03167353 -0.012624608 0.087639414 0.03220759
000380 8f 9f 4a 3d 2f 73 ec 39 f9 1a 25 3c 57 6c 65 bd
       0.049468573 0.00045099246 0.010077232 -0.056011524
000390 a4 60 62 bc 68 72 2f bc 2b b1 02 3d 8d 94 29 bb
       -0.013816986 -0.010708429 0.03190724 -0.0025875897
0003a0 f6 d8 b9 ba 16 3e 44 3d f2 80 8d bd 00 5f c0 3d
       -0.0014179039 0.047910772 -0.0690936 0.0939312
0003b0 89 fc a3 bc 5b 17 ae bd 66 4e f7 3b e5 32 c2 3d
       -0.02001788 -0.085005485 0.0075471876 0.094823636
0003c0 4c 37 04 bc c2 42 72 bc b6 66 98 3b 4e ae a9 3a
       -0.008069824 -0.014786424 0.004650916 0.0012945624
0003d0 65 9f 52 3c c1 85 b0 3c 31 81 58 bb 6c 47 3b bc
       0.012855385 0.021548154 -0.0033035988 -0.0114306025
0003e0 3f fd ce b9 97 70 03 bd 35 f4 69 3c f3 ed 88 3c
       -0.00039480065 -0.032089796 0.014279415 0.016715026
0003f0 43 90 29 3b d9 8e 62 3c 28 50 a4 bb 83 9f bd 3b
       0.002587334 0.013828003 -0.005014438 0.0057868375

st_gcn_networks.2.gcn.conv.bias f4 [48]
000000 bd f3 39 bc 9f f3 ec 3b 7b 31 a8 bc 85 1f b3 3b
       -0.011349616 0.0072311903 -0.020531407 0.005466404
000010 3e ff 89 bb 61 97 c7 bc 69 21 21 3d 1b d3 1d bc
       -0.0042113354 -0.024364175 0.039338503 -0.009632851
000020 72 15 2b bb 84 46 83 bc e5 c5 90 bc 1c 62 01 bb
       -0.0026105312 -0.016024835 -0.017672488 -0.0019742316
000030 8a ad ae bc f5 e9 2f bc 35 48 b5 bb 5b ce 1f 3b
       -0.021322984 -0.010736932 -0.0055322894 0.0024384472
000040 5f eb 82 bd 7d 4f 81 bc 7b c3 d8 bb 76 28 20 3c
       -0.0639255 -0.015784973 -0.0066151 0.009775272
000050 1c e0 5a 3c b9 5c c9 bc 61 30 0f bc e8 26 23 bc
       0.013359096 -0.024580346 -0.008739562 -0.009958006
000060 da 21 83 bd 97 5f 89 bc bd 76 bc bc 20 ab 2f bd
       -0.06402941 -0.016769214 -0.023005838 -0.042887807
000070 d8 9e e0 3c 2f 64 1d 3d a3 d9 66 bc ea 45 ee bb
       0.027419493 0.03842562 -0.014089975 -0.007271518
000080 36 19 e7 3b 97 66 79 3c 7e 5f 4f bb a5 69 d6 3b
       0.007052566 0.015222213 -0.003164261 0.0065433555
000090 db 42 7c bc 6b a5 0e 3b ea e7 db bb 5b d1 59 bc
       -0.015396799 0.0021766077 -0.006710996 -0.013294543
0000a0 1f e0 da bc 20 99 14 3c aa 3e 7a bc 7e 16 13 bd
       -0.026718197 0.009069711 -0.015273729 -0.035910122
0000b0 87 fc 08 3d d1 35 94 bb 54 b9 40 3c d5 9a 54 3b
       0.033443954 -0.004523017 0.011762936 0.003244092

st_gcn_networks.2.tcn.0.weight f4 [16]
000000 2a 5b 9a 3e fe af 3f 3e 4b f1 80 3e 76 3d 7f 3e
       0.30147678 0.1871948 0.25184092 0.24925789
000010 5f 6c c4 3d c7 dc a2 3e b9 09 87 3e 94 c6 58 3e
       0.09590983 0.31809065 0.26374605 0.21169502
000020 51 6b 78 3e 1e f9 1e 3e dc a8 4e 3e dd 35 76 3e
       0.24259688 0.15524718 0.20181602 0.24043985
000030 c5 eb 38 3e f7 34 82 3e ef 3c 11 3e 12 54 dc 3d
       0.18058689 0.25431034 0.141834 0.10758223

st_gcn_networks.2.tcn.0.bias f4 [16]
000000 35 d1 a2 bb 59 76 3c 3b a7 ed fa bb 05 b8 4b bc
       -0.004968787 0.0028757064 -0.007657725 -0.01243401
000010 05 ad 4e 3c 02 db 37 bc 59 8d f8 bb 5d 65 bf bc
       0.012614493 -0.011221649 -0.0075852093 -0.023363763
000020 36 33 c8 bc e4 2c bd bc 0f 65 c8 bc 07 38 84 bc
       -0.024438482 -0.023092695 -0.024462251 -0.016139997
000030 43 bc 41 bc 93 29 48 bd 4f 41 47 ba d5 7b a3 bc
       -0.01182467 -0.048867773 -0.00076009793 -0.019956509

st_gcn_networks.2.tcn.0.running_mean f4 [16]
000000 53 0b 5b bb 28 62 3b ba cc 77 b2 ba 98 28 38 38
       -0.0033423498 -0.00071481103 -0.0013616025 4.3906824e-05
000010 25 74 84 3a 48 26 1e bc 19 3a c3 ba 66 0c e5 ba
       0.0010105415 -0.009652682 -0.0014894634 -0.0017475008
000020 15 c3 45 bb 90 1c 79 b9 d2 66 b1 ba 08 12 60 bb
       -0.0030176092 -0.00023757131 -0.0013534671 -0.0034190435
000030 48 3d 5a 3b d8 a4 48 3b 88 66 43 39 00 70 10 b9
       0.0033300687 0.0030615833 0.00018634845 -0.00013774633

st_gcn_networks.2.tcn.0.running_var f4 [16]
000000 da e4 58 37 3a 21 c9 37 8b 82 47 37 00 3f ff 37
       1.2927887e-05 2.397654e-05 1.1891719e-05 3.0427705e-05
000010 44 0a 59 37 f6 13 fd 38 30 63 b7 37 b4 c4 2c 37
       1.2936598e-05 0.00012067698 2.1861488e-05 1.0297797e-05
000020 1d ef aa 37 17 e7 05 37 b4 1e 2a 37 da 02 90 37
       2.0376925e-05 7.981223e-06 1.0139938e-05 1.7167466e-05
000030 0b a0 26 37 50 ed 9e 37 8a 86 e6 36 ca 80 dc 36
       9.931634e-06 1.8945575e-05 6.8701966e-06 6.571504e-06
