weights_arm/63.pt (torch, 70926 bytes, 80 tensors)

A f4 [3, 9, 9]
0.5 0.0 0.0 0.0 0.0 0.0 0.0 0.0
0.0 0.0 0.2 0.0 0.0 0.0 0.0 0.0
0.0 0.0 0.0 0.0 0.33333334 0.0 0.0 0.0
0.0 0.0 0.0 0.0 0.0 0.0 0.33333334 0.0
0.0 0.0 0.0 0.0 0.0 0.0 0.0 0.0
0.5 0.0 0.0 0.0 0.0 0.0 0.0 0.0
0.0 0.0 0.33333334 0.0 0.0 0.0 0.0 0.0
0.0 0.0 0.0 0.0 0.33333334 0.0 0.0 0.0
0.0 0.0 0.0 0.0 0.0 0.0 0.5 0.0
0.0 0.0 0.0 0.0 0.0 0.0 0.0 0.0
0.5 0.0 0.2 0.0 0.0 0.0 0.0 0.0
0.0 0.0 0.0 0.0 0.0 0.0 0.0 0.0
0.0 0.0 0.0 0.0 0.2 0.0 0.0 0.0
0.0 0.0 0.0 0.0 0.0 0.0 0.33333334 0.0
0.5 0.0 0.0 0.0 0.0 0.0 0.0 0.0
0.33333334 0.0 0.0 0.0 0.0 0.0 0.0 0.2
0.0 0.0 0.0 0.0 0.0 0.0 0.0 0.0
0.0 0.0 0.0 0.0 0.33333334 0.0 0.5 0.0
0.0 0.0 0.0 0.0 0.0 0.0 0.33333334 0.0
0.0 0.0 0.2 0.0 0.0 0.0 0.0 0.0
0.0 0.0 0.0 0.0 0.0 0.0 0.0 0.0
0.0 0.0 0.0 0.5 0.0 0.33333334 0.0 0.0
0.33333334 0.0 0.0 0.5 0.0 0.0 0.0 0.33333334
0.0 0.0 0.0 0.0 0.0 0.0 0.0 0.0
0.0 0.0 0.0 0.0 0.0 0.0 0.0 0.0
0.0 0.0 0.0 0.0 0.0 0.0 0.0 0.0
0.0 0.0 0.0 0.0 0.0 0.33333334 0.0 0.0
0.0 0.0 0.0 0.0 0.0 0.0 0.0 0.0
0.0 0.0 0.0 0.0 0.0 0.0 0.0 0.0
0.0 0.0 0.0 0.0 0.0 0.0 0.0 0.0
0.0 0.0 0.0
00000000: 0000 003f 0000 0000 0000 0000 0000 0000
00000010: 0000 0000 0000 0000 0000 0000 0000 0000
00000020: 0000 0000 0000 0000 cdcc 4c3e 0000 0000
00000030: 0000 0000 0000 0000 0000 0000 0000 0000
00000040: 0000 0000 0000 0000 0000 0000 0000 0000
00000050: abaa aa3e 0000 0000 0000 0000 0000 0000
00000060: 0000 0000 0000 0000 0000 0000 0000 0000
00000070: 0000 0000 0000 0000 abaa aa3e 0000 0000
00000080: 0000 0000 0000 0000 0000 0000 0000 0000
00000090: 0000 0000 0000 0000 0000 0000 0000 0000
000000a0: 0000 003f 0000 0000 0000 0000 0000 0000
000000b0: 0000 0000 0000 0000 0000 0000 0000 0000
000000c0: 0000 0000 0000 0000 abaa aa3e 0000 0000
000000d0: 0000 0000 0000 0000 0000 0000 0000 0000
000000e0: 0000 0000 0000 0000 0000 0000 0000 0000
000000f0: abaa aa3e 0000 0000 0000 0000 0000 0000
00000100: 0000 0000 0000 0000 0000 0000 0000 0000
00000110: 0000 0000 0000 0000 0000 003f 0000 0000
00000120: 0000 0000 0000 0000 0000 0000 0000 0000
00000130: 0000 0000 0000 0000 0000 0000 0000 0000
00000140: 0000 003f 0000 0000 cdcc 4c3e 0000 0000
00000150: 0000 0000 0000 0000 0000 0000 0000 0000
00000160: 0000 0000 0000 0000 0000 0000 0000 0000
00000170: 0000 0000 0000 0000 0000 0000 0000 0000
00000180: 0000 0000 0000 0000 0000 0000 0000 0000
00000190: cdcc 4c3e 0000 0000 0000 0000 0000 0000
000001a0: 0000 0000 0000 0000 0000 0000 0000 0000
000001b0: 0000 0000 0000 0000 abaa aa3e 0000 0000
000001c0: 0000 003f 0000 0000 0000 0000 0000 0000
000001d0: 0000 0000 0000 0000 0000 0000 0000 0000
000001e0: abaa aa3e 0000 0000 0000 0000 0000 0000
000001f0: 0000 0000 0000 0000 0000 0000 cdcc 4c3e
00000200: 0000 0000 0000 0000 0000 0000 0000 0000
00000210: 0000 0000 0000 0000 0000 0000 0000 0000
00000220: 0000 0000 0000 0000 0000 0000 0000 0000
00000230: abaa aa3e 0000 0000 0000 003f 0000 0000
00000240: 0000 0000 0000 0000 0000 0000 0000 0000
00000250: 0000 0000 0000 0000 abaa aa3e 0000 0000
00000260: 0000 0000 0000 0000 cdcc 4c3e 0000 0000
00000270: 0000 0000 0000 0000 0000 0000 0000 0000
00000280: 0000 0000 0000 0000 0000 0000 0000 0000
00000290: 0000 0000 0000 0000 0000 0000 0000 0000
000002a0: 0000 0000 0000 0000 0000 0000 0000 003f
000002b0: 0000 0000 abaa aa3e 0000 0000 0000 0000
000002c0: abaa aa3e 0000 0000 0000 0000 0000 003f
000002d0: 0000 0000 0000 0000 0000 0000 abaa aa3e
000002e0: 0000 0000 0000 0000 0000 0000 0000 0000
000002f0: 0000 0000 0000 0000 0000 0000 0000 0000
00000300: 0000 0000 0000 0000 0000 0000 0000 0000
00000310: 0000 0000 0000 0000 0000 0000 0000 0000
00000320: 0000 0000 0000 0000 0000 0000 0000 0000
00000330: 0000 0000 0000 0000 0000 0000 0000 0000
00000340: 0000 0000 0000 0000 0000 0000 0000 0000
00000350: 0000 0000 abaa aa3e 0000 0000 0000 0000
00000360: 0000 0000 0000 0000 0000 0000 0000 0000
00000370: 0000 0000 0000 0000 0000 0000 0000 0000
00000380: 0000 0000 0000 0000 0000 0000 0000 0000
00000390: 0000 0000 0000 0000 0000 0000 0000 0000
000003a0: 0000 0000 0000 0000 0000 0000 0000 0000
000003b0: 0000 0000 0000 0000 0000 0000 0000 0000
000003c0: 0000 0000 0000 0000 0000 0000

data_bn.weight f4 [27]
0.12647326 0.15841232 0.107216775 0.2963112 0.1556137 0.13676366 0.2969853 0.20936224
0.2625893 0.52257776 0.5688122 0.4216393 0.584751 0.54038763 0.4220565 0.28443182
0.2484325 0.23736294 0.5064878 0.4646938 0.38231555 0.5420726 0.48469272 0.3883718
0.21639359 0.08941203 0.12529816
00000000: 3582 013e d736 223e 7894 db3d 1ab6 973e
00000010: 3359 1f3e c60b 0c3e 750e 983e 0e63 563e
00000020: 1b72 863e a8c7 053f ad9d 113f 1be1 d73e
00000030: 3eb2 153f d856 0a3f ca17 d83e 0ca1 913e
00000040: 1765 7e3e 450f 733e 2fa9 013f 59ec ed3e
00000050: ddbe c33e 45c5 0a3f a529 f83e abd8 c63e
00000060: 4896 5d3e a81d b73d 294e 003e

data_bn.bias f4 [27]
0.0035227065 0.0123388 -0.012477414 -0.012009731 0.004030406 0.009034174 0.046334974 -0.010853736
-0.017669668 -0.027478995 -0.0060455794 0.017864663 0.00029760355 0.0042851013 -0.015455788 0.015119654
0.041026533 0.02114603 0.010445407 -0.00019805977 -0.010819004 -0.029470086 -0.019557003 0.010294239
0.014004099 -0.00433969 -0.0067504235
00000000: 35dd 663b ae28 4a3c 116e 4cbc 76c4 44bc
00000010: 7f11 843b 1204 143c bec9 3d3d ded3 31bc
00000020: fbbf 90bc a11b e1bc ff19 c6bb ea58 923c
00000030: ac07 9c39 096a 8c3b 463a 7dbc 6db8 773c
00000040: 700b 283d 703a ad3c 3623 2b3c 44ae 4fb9
00000050: 3142 31bc 406b f1bc 0236 a0bc 2ba9 283c
00000060: 7371 653c f533 8ebb a832 ddbb

data_bn.running_mean f4 [27]
93.96819 79.77463 24.82857 102.36179 86.66603 26.574348 92.142 81.991745
25.47202 102.735634 83.664795 25.837212 109.94585 80.92864 25.085207 112.35755
91.38249 27.669718 134.05583 98.31434 29.25703 133.12361 93.69512 28.154682
110.070404 97.84141 29.19011
00000000: b7ef bb42 9c8c 9f42 e9a0 c641 3db9 cc42
00000010: 0255 ad42 4498 d441 b448 b842 c6fb a342
00000020: b2c6 cb41 a578 cd42 6054 a742 9cb2 ce41
00000030: 46e4 db42 77db a142 81ae c841 11b7 e042
00000040: d6c3 b642 955b dd41 4b0e 0643 f1a0 c442
00000050: 660e ea41 a51f 0543 e763 bb42 ca3c e141
00000060: 0c24 dc42 cdae c342 5885 e941

data_bn.running_var f4 [27]
12769.457 21557.588 8267.63 13269.491 23725.06 9129.261 10300.475 20865.328
8278.9795 12988.22 19649.855 8075.283 14626.984 18146.623 7567.0156 17248.707
26838.666 10040.808 22780.447 27770.361 10545.16 21634.953 24397.156 9514.914
18288.268 25454.309 10105.852
00000000: d485 4746 2d6b a846 852e 0146 f755 4f46
00000010: 1f5a b946 0ba5 0e46 e6f1 2046 a802 a346
00000020: eb5b 0146 e1f0 4a46 b683 9946 445a fc45
00000030: f08b 6446 3fc5 8d46 2078 ec45 6ac1 8646
00000040: 55ad d146 3be3 1c46 e5f8 b146 b9f4 d846
00000050: a4c4 2446 e805 a946 509a be46 a8ab 1446
00000060: 89e0 8e46 9edc c646 68e7 1d46

st_gcn_networks.0.gcn.conv.weight f4 [24, 3, 1, 1]
-0.087041005 -0.010216979 0.010845203 0.13634679 -0.06996461 0.062434692 0.10689122 -0.0071612215
0.043935798 -0.04964552 -0.0217049 0.1592764 0.03576489 -0.037547383 -0.27201405 0.21557514
0.32839137 0.065869525 -0.23378055 0.21994053 0.09723312 -0.19815196 0.069045015 -0.13647237
-0.04599206 -0.075166166 -0.025940048 -0.2727941 -0.12715362 0.04614465 0.18950222 -0.023288323
-0.026117375 -0.16280536 -0.13466276 0.024922583 -0.0004070481 -0.0156239 0.2359094 -0.038841836
-0.24599616 -0.14155564 0.04291661 0.06279519 0.06352549 0.16700047 -0.109819815 0.17475343
-0.019981505 0.008143143 -0.005498755 -0.06412663 -0.026212512 -0.021929875 0.17447565 0.0018760161
0.034635082 -0.08834371 -0.012887038 2.1233176e-05 -0.18748458 -0.022791043 -0.003911536 0.036493983
-0.035841197 0.13401686 0.07916524 -0.03354459 0.009514382 -0.11648178 0.1615796 0.052364103
00000000: 8e42 b2bd 1e65 27bc 14b0 313c 7e9e 0b3e
00000010: 9b49 8fbd 85bb 7f3d c9e9 da3d aea8 eabb
00000020: 06f6 333d 1a59 4bbd 79ce b1bc 5a19 233e
00000030: 357e 123d 49cb 19bd 6d45 8bbe bbbf 5c3e
00000040: ea22 a83e 9ae6 863d 2b64 6fbe 1738 613e
00000050: 2822 c73d 59e8 4abe 7967 8d3d 6abf 0bbe
00000060: 2c62 3cbd b8f0 99bd 3980 d4bc abab 8bbe
00000070: 8f34 02be 2c02 3d3d df0c 423e 27c7 bebc
00000080: 1bf4 d5bc 73b6 26be 09e5 09be 722a cc3c
00000090: 1269 d5b9 63fb 7fbc 3c92 713e 9e18 1fbd
000000a0: 6be6 7bbe f6f3 10be 54c9 2f3d c49a 803d
000000b0: a719 823d 2c02 2b3e 36e9 e0bd 90f2 323e
000000c0: 41b0 a3bc d16a 053c e62e b4bb d354 83bd
000000d0: 9fbb d6bc 48a6 b3bc bfa9 323e a8e4 f53a
000000e0: 84dd 0d3d 8ced b4bd 2824 53bc e61d b237
000000f0: f5fb 3fbe 48b4 babc 582c 80bb b77a 153d
00000100: 38ce 12bd b73b 093e 6321 a23d 0d66 09bd
00000110: 36e2 1b3c 008e eebd 1f75 253e be7b 563d

st_gcn_networks.0.gcn.conv.bias f4 [24]
0.005694546 0.062007736 0.09122541 0.065402776 -0.016554413 -0.1995461 0.008028386 0.15067028
-0.09721122 0.015887536 0.086945534 -0.05437982 0.029769525 0.15381026 0.20674324 -0.0015382664
-0.022397425 -0.18496723 0.050353196 -0.049218986 0.05913656 0.022006964 -0.0026446276 -0.0059142825
00000000: 5099 ba3b d3fb 7d3d 63d4 ba3d e4f1 853d
00000010: 1f9d 87bc d055 4cbe 7e89 033c 4f49 1a3e
00000020: ad16 c7bd 9426 823c 8010 b23d 60bd 5ebd
00000030: 38df f33c 7080 1d3e 80b4 533e a89f c9ba
00000040: ce7a b7bc 0d68 3dbe 273f 4e3d d999 49bd
00000050: 2d39 723d f347 b43c 7d51 2dbb 99cc c1bb

st_gcn_networks.0.tcn.0.weight f4 [8]
0.23152378 0.41098878 0.44728318 0.37629554 0.282716 0.41334108 0.40808076 0.40153462
00000000: 9214 6d3e 1f6d d23e 4d02 e53e cfa9 c03e
00000010: 27c0 903e 71a1 d33e f6ef d03e f295 cd3e

st_gcn_networks.0.tcn.0.bias f4 [8]
0.031313736 0.023632333 0.021151783 0.009480292 -0.013604737 0.035095934 0.000883988 -0.03693043
00000000: d542 003d 9898 c13c 8146 ad3c 3a53 1b3c
00000010: 67e6 5ebc c1c0 0f3d 6ebb 673a 5d44 17bd

st_gcn_networks.0.tcn.0.running_mean f4 [8]
-0.013134486 0.00022421413 0.028309388 -2.0900183e-05 0.0050615855 -0.008911019 0.027976027 0.022429315
00000000: 0732 57bc 061b 6b39 17e9 e73c cd52 afb7
00000010: a8db a53b 86ff 11bc fb2d e53c afbd b73c

st_gcn_networks.0.tcn.0.running_var f4 [8]
0.000265432 0.00056624017 0.00067581923 0.0005658298 5.8028196e-05 0.00050769694 0.0008661063 0.0001590428
00000000: ae29 8b39 bc6f 143a 7629 313a 3254 143a
00000010: 4d63 7338 f716 053a 690b 633a bac4 2639

st_gcn_networks.0.tcn.2.weight f4 [8, 8, 9, 1]
0.008648107 0.012062537 0.013407733 0.011660139 0.020759411 -0.0053091343 0.0124849565 0.0072203055
0.022343341 0.022709174 -0.0590535 -0.013132601 -0.011090007 -0.01815732 0.037059475 0.019870602
-0.004133218 -0.032858357 0.04984055 0.06517841 0.019478485 0.053204242 -0.026450738 0.08172367
-0.045311354 0.039916273 -0.05898697 0.004214892 -0.019446112 0.06505222 -0.01753467 0.004755146
0.05033672 0.035973415 0.03583124 2.602198e-05 -0.022235 -0.03421194 0.005740558 -0.023295844
-0.034952383 0.006968249 0.018082503 -0.04269651 -0.010563592 -0.051530924 0.009029242 0.028181816
0.014390927 0.03352226 0.017460095 0.032694995 0.008696312 0.03348089 0.022697726 0.032101415
-0.0028694884 -0.04176536 -0.032133546 -0.0024991203 -0.035593547 0.048054248 -0.034432724 -0.036418546
-0.088036455 -0.016388778 -0.081134446 -0.0065625156 -0.06334395 -0.017663904 -0.012398938 0.00415212
0.014128146 -0.005043198 -0.00072726264 0.010055806 0.031693313 -0.0056409165 0.031338535 0.0072068824
0.0023716507 0.028599907 0.030419106 0.029873552 0.006167692 0.0042853374 0.017025927 0.030812142
-0.0030433014 0.027861137 0.02971339 0.063327685 0.07564772 0.0014899446 -0.014233562 -0.046309326
-0.0005563822 0.029141694 -0.009060751 0.04749716 -0.025730181 0.016465677 0.009046638 0.032885663
0.022379432 0.0316961 -0.024741175 -0.013401041 0.009459143 -0.0050073075 0.025661204 0.027000641
0.040899735 -0.028562542 0.036501415 0.055813663 0.05308586 -0.013296567 0.034610868 0.01690451
-0.032863718 0.019854216 -0.018960241 -0.03683669 -0.020732293 -0.03484536 -0.0427424 -0.029198429
-0.04847143 -0.057147566 -0.04200856 0.0313246 0.015669378 -0.042961847 0.05028369 0.021314679
-0.06203759 -0.012288001 0.005336688 0.03037441 -0.03932536 0.028441628 -0.034099326 -0.026686715
-0.021884596 -0.007230262 -0.021039097 0.0093960585 -0.009374389 -0.02887655 -0.0064455704 -0.03277126
-0.028256806 -0.0059727076 -0.0055276365 -0.003240244 0.039648168 -0.014526818 -0.0057921237 0.022410452
-0.033315174 0.00018855248 0.05938968 -0.0051002256 -7.789444e-05 -0.0728078 0.055850614 -0.01343259
0.053476356 -0.06200832 0.040461503 0.025330057 -0.052832477 -0.03969978 0.03551766 0.03278945
-0.047331307 0.011827664 -0.035202317 0.01853554 -0.003391538 0.00027860148 0.040143676 0.021146031
-0.052136976 -0.014228117 -0.006551373 -0.010427144 0.02641582 -0.0394869 -0.07369328 0.05891861
-0.038198177 -0.045355644 -0.008430595 0.03879793 -0.03715526 0.058551732 0.036447156 -0.032078866
-0.08236637 0.04680192 0.0731662 0.018779589 -0.029026577 0.04354947 0.05788938 -0.06502136
-0.028765254 -0.06640327 0.026262509 -0.00748907 0.038469415 -0.046781603 -0.039095055 -0.0016427643
-0.011513007 0.0011922774 0.021192208 0.011496942 0.016545197 -0.001506673 0.006706059 0.0041288985
0.007065803 0.0012344882 0.015116912 -0.02439588 -0.014148255 0.027013686 0.028862128 0.035632335
-0.010611229 0.009425582 0.009769944 0.010011016 -0.02151016 -0.019624004 -0.004065115 -0.0125422655
0.007319552 -0.015061306 -0.039699376 0.027088307 -0.028956959 -0.03661655 -0.04095735 -0.035368297
-0.000789693 -0.016536934 -0.0073264204 0.013356749 -0.0092184115 -0.031237975 -0.005053774 0.015605322
00000000: cab0 0d3c f2a1 453c 1cac 5b3c 2b0a 3f3c
00000010: a40f aa3c 3ff8 adbb b48d 4c3c 5098 ec3b
00000020: 6209 b73c 9708 ba3c 15e2 71bd 1f2a 57bc
00000030: dcb2 35bc a9be 94bc adcb 173d acc7 a23c
00000040: f26f 87bb 7c96 06bd 9b25 4c3d 427c 853d
00000050: 5891 9f3c b1ec 593d 38af d8bc bd5e a73d
00000060: 6698 39bd 3f7f 233d 529c 71bd 141d 8a3b
00000070: 744d 9fbc 193a 853d dea4 8fbc 0ed1 9b3b
00000080: e02d 4e3d dc58 133d c7c3 123d c749 da37
00000090: 2d26 b6bc d221 0cbd 4a1b bc3b edd6 bebc
000000a0: 3b2a 0fbd e955 e43b c221 943c 89e2 2ebd
000000b0: eb12 2dbc 1712 53bd 63ef 133c 8ddd e63c
000000c0: ecc7 6b3c a34e 093d 7908 8f3c 30eb 053d
000000d0: fa7a 0e3c 4223 093d 95f0 b93c c67c 033d
000000e0: 070e 3cbb 2712 2bbd 779e 03bd 48c8 23bb
000000f0: 8aca 11bd 88d4 443d 5409 0dbd 9d2b 15bd
00000100: 754c b4bd c241 86bc d129 a6bd 5f0a d7bb
00000110: 79ba 81bd e4b3 90bc ea24 4bbc 820e 883b
00000120: bd79 673c 6941 a5bb c5a5 3eba 1bc1 243c
00000130: d9d0 013d 70d7 b8bb d65c 003d b627 ec3b
00000140: b26d 1b3b 5a4a ea3c 7d31 f93c 61b9 f43c
00000150: 5a1a ca3b 046c 8c3b f579 8b3c bf69 fc3c
00000160: 2072 47bb 0a3d e43c 7f69 f33c f2b1 813d
00000170: 31ed 9a3d 3f4a c33a e333 69bc d9ae 3dbd
00000180: 2dda 11ba 90ba ee3c 8b73 14bc 628c 423d
00000190: 1ac8 d2bc 07e3 863c 5a38 143c 1eb3 063d
000001a0: 1255 b73c c5d3 013d 01ae cabc 0a90 5bbc
000001b0: 85fa 1a3c 5714 a4bb 7237 d23c 7330 dd3c
000001c0: 7b86 273d fefb e9bc 8282 153d de9c 643d
000001d0: 8f70 593d d8d9 59bc 20c4 0d3d 547b 8a3c
000001e0: 1b9c 06bd 4fa5 a23c 8252 9bbc 12e2 16bd
000001f0: c5d6 a9bc 02ba 0ebd a812 2fbd 8b31 efbc
00000200: fa89 46bd 9113 6abd 2b11 2cbd 394e 003d
00000210: 115d 803c c3f8 2fbd 45f6 4d3d 1f9c ae3c
00000220: 211b 7ebd 9d53 49bc 62df ae3b c1d3 f83c
00000230: a113 21bd 6bfe e83c bcab 0bbd 199e dabc
00000240: 5347 b3bc d5eb ecbb 2f5a acbc edf1 193c
00000250: 0a97 19bc 848e ecbc 5d35 d3bb 283b 06bd
00000260: d17a e7bc b4b6 c3bb 2d21 b5bb 465a 54bb
00000270: 1e66 223d e401 6ebc dbcb bdbb 2096 b73c
00000280: 7e75 08bd 2cb6 4539 9842 733d cb1f a7bb
00000290: 425b a3b8 411c 95bd 9dc3 643d 5e14 5cbc
000002a0: 060a 5b3d 70fc 7dbd f6ba 253d fb80 cf3c
000002b0: de66 58bd 3d9c 22bd f77a 113d 3b4e 063d
000002c0: 79de 41bd d2c8 413c 4e30 10bd d8d7 973c
000002d0: 9144 5ebb 4211 9239 b26d 243d 713a ad3c
000002e0: 958d 55bd 0c1d 69bc e6ac d6bb 9dd6 2abc
000002f0: fd65 d83c 04bd 21bd 81ec 96bd a454 713d
00000300: b175 1cbd d7c6 39bd 7a20 0abc 94ea 1e3d
00000310: 1d30 18bd f1d3 6f3d 9d49 153d 2165 03bd
00000320: b3af a8bd 5fb3 3f3d 29d8 953d a7d7 993c
00000330: 25c9 edbc ee60 323d 6a1d 6d3d eb29 85bd
00000340: 1ca5 ebbc 70fe 87bd 7924 d73c df66 f5bb
00000350: 1b92 1d3d 119e 3fbd 2322 20bd 0652 d7ba
00000360: 0da1 3cbc 3146 9c3a 489b ad3c ab5d 3c3c
00000370: cb89 873c 8f7b c5ba 80be db3b b64b 873b
00000380: 4088 e73b 8dce a13a edac 773c ded9 c7bc
00000390: 15ce 67bc ce4b dd3c 4570 ec3c 36f3 113d
000003a0: b8da 2dbc c26d 1a3c 1d12 203c 3f05 243c
000003b0: 1336 b0bc 85c2 a0bc a834 85bb 137e 4dbc
000003c0: dad8 ef3b b2c3 76bc d09b 22bd 4ce8 dd3c
000003d0: 2537 edbc 3cfb 15bd e5c2 27bd 59de 10bd
000003e0: 6603 4fba 7778 87bc 7812 f0bb 44d6 5a3c
000003f0: d208 17bc c8e6 ffbc 219a a5bb 77ad 7f3c

st_gcn_networks.0.tcn.2.bias f4 [8]
1.596508e-05 -4.076618e-06 9.106346e-06 8.511086e-06 1.6172224e-05 1.5509378e-05 -2.2335114e-06 -7.502655e-07
00000000: c0ec 8537 e2c9 88b6 75c7 1837 d6ca 0e37
00000010: 96a9 8737 231a 8237 6fe3 15b6 da65 49b5

st_gcn_networks.0.tcn.3.weight f4 [8]
0.40111 0.37531617 0.3378782 0.2320271 0.25766948 0.39624068 0.4192856 0.35046422
00000000: 4a5e cd3e 7129 c03e 5ffe ac3e 8398 6d3e
00000010: 41ed 833e 0fe0 ca3e 9aac d63e 0c70 b33e

st_gcn_networks.0.tcn.3.bias f4 [8]
-0.034180682 0.004108863 0.0069614975 0.0067998213 0.007827021 0.009193327 0.023483783 0.0011510641
00000000: 0b01 0cbd a4a3 863b 461d e43b 09d1 de3b
00000010: e83c 003c 9c9f 163c 1061 c03c 4ddf 963a

st_gcn_networks.0.tcn.3.running_mean f4 [8]
0.02029277 0.04225993 -0.036878057 -0.028729605 0.0145612685 0.027994301 -0.034684394 0.0048349127
00000000: 063d a63c c018 2d3d 720d 17bd 595a ebbc
00000010: 6392 6e3c 4e54 e53c 3911 0ebd 306e 9e3b

st_gcn_networks.0.tcn.3.running_var f4 [8]
0.009421252 0.0066710375 0.0037946324 0.0013961014 0.003125778 0.007077914 0.008779452 0.004754846
00000000: 985b 1a3c b898 da3b 5eaf 783b 64fd b63a
00000010: dad9 4c3b d9ed e73b b1d7 0f3c 8ace 9b3b

st_gcn_networks.1.gcn.conv.weight f4 [24, 8, 1, 1]
-0.0137695735 -0.046708666 0.052075714 0.054410487 -0.02011138 -0.015710507 0.0075640134 0.046626113
0.006832132 -0.0180063 0.08570242 -0.02926683 0.03407479 -0.03701228 0.0702575 0.01346527
0.06795354 -0.064817786 -0.039575912 0.056066383 0.081584446 0.07628457 -0.024731476 -0.008775346
0.015898896 -0.03940525 -0.04079212 -0.03358606 -0.08375082 -0.09343991 0.030509269 -0.083489716
-0.020391267 0.008443167 0.0665398 -0.0107600335 0.014009103 -0.0005388154 0.030215451 0.006721547
0.017123692 -0.10288302 0.037362456 -0.044429053 -0.0064937673 -0.0014749131 -0.085452795 0.021238318
-0.03747531 -0.036312584 0.07095609 0.027019026 0.04261813 0.01760821 -0.047426265 -0.016675537
-0.014273795 -0.00775379 -0.0059156446 -0.032584693 -0.010152036 0.05475753 0.006975744 0.06410292
-0.017809685 0.07474781 0.014667033 -0.011905732 -0.030630985 0.010503077 0.05972354 0.115345806
-0.058299795 -0.00084041426 -0.040907796 -0.047982275 -0.007010165 -0.010590146 0.056406002 -0.001601637
0.01010885 -0.009221403 0.066050485 0.004108045 -0.04572751 -0.104217865 0.108988106 -0.04969762
-0.01711612 0.13629432 0.08417017 0.0055856593 -0.068343006 0.07798982 -0.04272863 -0.1005368
-0.038390778 -0.014950691 0.07880949 0.053370584 -0.008160345 0.023408499 -0.029270178 0.030478178
0.09207329 -0.04411575 0.010226149 -0.064726464 0.029064374 -0.09182365 0.071029276 0.053331427
-0.09300352 -0.119426705 0.045284998 0.056811173 -0.08090858 -0.016926672 0.029367656 0.07522581
0.049747046 0.028740704 -0.010152593 0.0014322423 0.004458976 0.009609002 0.02635094 0.0041385614
-0.013530854 -0.0106341345 0.0014156168 0.030857919 -0.0077383933 0.032899622 -0.04405101 -0.003270091
0.030106883 0.021096712 0.008497032 -0.047284205 0.00105316 0.04703109 0.056081004 0.0477484
0.008241196 0.006735279 0.0020126225 -0.020045564 -0.003766883 -0.06195623 0.08103899 0.021708088
0.09387529 -0.026102168 -0.030877654 -0.028849041 -0.027893001 -0.035843 0.14615926 -0.016418425
0.024190562 -0.016788427 0.0058152624 -0.015455554 0.010185541 -0.0024649722 0.010276365 -0.011028912
-0.014402565 -0.033847127 -0.042262882 0.017286696 -0.016355032 -0.06684898 -0.041185707 -0.0066284966
0.07001535 0.01794241 0.024706762 -0.06638885 0.03461635 0.046846393 -0.0132338805 -0.032165565
0.013088909 -0.026332803 0.043283414 -0.020643866 -0.00055502646 -0.03165842 -0.021765197 0.09903218
00000000: c799 61bc 9651 3fbd 584d 553d 88dd 5e3d
00000010: 9fc0 a4bc 52b3 80bc 8bdb f73b 06fb 3e3d
00000020: 14e0 df3b f381 93bc c084 af3d fec0 efbc
00000030: 0292 0b3d 309a 17bd 2ae3 8f3d 709d 5c3c
00000040: 3a2b 8b3d 30bf 84bd 5a1a 22bd dda5 653d
00000050: bf15 a73d 163b 9c3d aa99 cabc 78c6 0fbc
00000060: 673e 823c 6667 21bd a315 27bd 8991 09bd
00000070: 8d85 abbd 6c5d bfbd 93ee f93c a8fc aabd
00000080: 960b a7bc 3655 0a3c 0546 883d da4a 30bc
00000090: 7086 653c 4a3f 0dba 6586 f73c 6c40 dc3b
000000a0: fc46 8c3c 55b4 d2bd 6009 193d 3dfb 35bd
000000b0: abc9 d4bb df51 c1ba e001 afbd fbfb ad3c
000000c0: b67f 19bd 81bc 14bd 6d51 913d 0157 dd3c
000000d0: 5990 2e3d 183f 903c 0b42 42bd 239b 88bc
000000e0: a3dc 69bc 8113 febb 06d8 c1bb 8777 05bd
000000f0: ba54 26bc 6f49 603d c894 e43b 6448 833d
00000100: 9ee5 91bc 6115 993d ff4d 703c 4210 43bc
00000110: d5ed fabc 1915 2c3c aca0 743d 6c3a ec3d
00000120: c4cb 6ebd 3f4f 5cba ef8e 27bd 1089 44bd
00000130: 87b5 e5bb 4b82 2dbc fb09 673d 05ee d1ba
00000140: 979f 253c 5e15 17bc 7a45 873d c79c 863b
00000150: c54c 3bbd 2d70 d5bd 2835 df3d bb8f 4bbd
00000160: 1b37 8cbc bd90 0b3e 6961 ac3d e807 b73b
00000170: 6bf7 8bbd 20b9 9f3d 3704 2fbd 3de6 cdbd
00000180: a63f 1dbd bef3 74bc df66 a13d 1d9b 5a3d
00000190: f8b2 05bc 2ec3 bf3c 03c8 efbc 5fad f93c
000001a0: ec90 bc3d b7b2 34bd 948b 273c 4f8f 84bd
000001b0: 6918 ee3c 0a0e bcbd cc77 913d 0e72 5a3d
000001c0: a178 bebd fd95 f4bd c37c 393d d5b2 683d
000001d0: 66b3 a5bd cea9 8abc 7094 f03c fd0f 9a3d
000001e0: 8fc3 4b3d a071 eb3c 1057 26bc 14ba bb3a
000001f0: 9a1c 923b 136f 1d3c eddd d73c c59c 873b
00000200: 84b0 5dbc cb3a 2ebc 388c b93a bfc9 fc3c
00000210: 5992 fdbb c1c1 063d d56e 34bd 064f 56bb
00000220: b6a2 f63c 03d3 ac3c 2337 0b3c 15ad 41bd
00000230: 300a 8a3a aca3 403d 32b5 653d d493 433d
00000240: 1506 073c 9eb3 dc3b 34e6 033b 9836 a4bc
00000250: cfdd 76bb d1c5 7dbd c5f7 a53d 29d5 b13c
00000260: b041 c03d 37d4 d5bc 22f3 fcbc d354 ecbc
00000270: dd7f e4bc 1cd0 12bd c6aa 153e ef7f 86bc
00000280: 492b c63c e287 89bc f58d be3b 4b39 7dbc
00000290: 41e1 263c 5f8b 21bb 335e 283c 9cb2 34bc
000002a0: bcf8 6bbc 49a3 0abd d81b 2dbd d49c 8d3c
000002b0: fdfa 85bc 1ee8 88bd 58b2 28bd dc33 d9bb
000002c0: 3564 8f3d f6fb 923c d665 ca3c e1f6 87bd
000002d0: e0c9 0d3d 01e2 3f3d ebd2 58bc 0ac0 03bd
000002e0: dd72 563c e4b7 d7bc f349 313d 531d a9bc
000002f0: 327f 11ba 42ac 01bd ed4c b2bc 62d1 ca3d

st_gcn_networks.1.gcn.conv.bias f4 [24]
0.004373706 0.016183859 -0.0069718054 0.04471524 0.0063987067 -0.006284625 0.010672216 -0.000568624
-0.075785965 -0.0065983846 0.0029785102 0.006718146 -0.054189835 0.01835233 0.06510178 0.0014020756
-0.019668488 -0.047788527 0.0099239275 0.025186416 0.010726508 -0.03150973 0.020729447 -0.017653795
00000000: 4e51 8f3b 0394 843c be73 e4bb 5427 373d
00000010: 3eac d13b 41ef cdbb 85da 2e3c b60f 15ba
00000020: ac35 9bbd 4337 d8bb 1c33 433b e523 dc3b
00000030: 29f6 5dbd a057 963c 1554 853d dac5 b73a
00000040: cf1f a1bc e7bd 43bd f897 223c be53 ce3c
00000050: 3cbe 2f3c 5910 01bd cdd0 a93c b19e 90bc

st_gcn_networks.1.tcn.0.weight f4 [8]
0.25109413 0.22667807 0.3362112 0.35479903 0.17869218 0.28856042 0.3338846 0.27856886
00000000: 698f 803e 4c1e 683e e023 ac3e 38a8 b53e
00000010: 15fb 363e 31be 933e ecf2 aa3e 94a0 8e3e

st_gcn_networks.1.tcn.0.bias f4 [8]
-0.009747317 0.010516156 0.0256548 0.023404961 -0.0023261395 -0.015676955 -0.02875848 -0.013514657
00000000: 36b3 1fbc f54b 2c3c 042a d23c c3bb bf3c
00000010: 2572 18bb f56c 80bc e796 ebbc 946c 5dbc

st_gcn_networks.1.tcn.0.running_mean f4 [8]
-0.0021375194 0.00014401918 0.00030709858 0.0032534627 -0.0017120506 -0.0022559701 0.004671541 0.0016002576
00000000: a015 0cbb db03 1739 1302 a139 0c38 553b
00000010: e366 e0ba e6d8 13bb ba13 993b bcbf d13a

st_gcn_networks.1.tcn.0.running_var f4 [8]
8.585664e-06 9.829577e-06 2.5594498e-05 2.3322327e-05 1.1733649e-05 1.40738375e-05 3.580974e-05 1.6590999e-05
00000000: 250b 1037 b6e9 2437 c4b3 d637 51a4 c337
00000010: a4db 4437 ac1e 6c37 6a32 1638 e62c 8b37

st_gcn_networks.1.tcn.2.weight f4 [8, 8, 9, 1]
0.004790343 -0.0036715516 -0.009685716 -0.0027280876 -0.0016223834 -0.015659647 0.002158801 0.010755174
0.03520688 -0.013807299 -0.014114523 0.010763878 0.001037967 -0.038018882 -0.00041086134 0.003209613
0.0051418524 -0.009648102 0.022580065 -0.0038350446 0.02290595 -0.02597417 0.008260503 -0.004546975
0.02824052 -0.031120101 -0.040193137 0.0074757063 0.012142031 0.01437429 0.00853825 -0.0030505543
0.022356573 -0.040097073 -0.035111643 -0.03547972 -0.004442955 -0.01414553 -0.0032535256 -0.009445119
0.00497331 0.029379392 0.01742476 0.005333951 0.019170437 -0.017417205 -0.029861888 0.015244848
0.0058016623 -0.0055189617 -0.010365128 -0.0022564223 -0.01867017 -0.015107265 -0.015813755 0.00487081
0.018136319 -0.01618607 0.021607297 0.0343072 0.030431118 0.0017159187 0.004030265 0.0099850865
0.013647736 -0.02020439 -0.03456618 0.004608499 -0.013025415 -0.005983556 0.013359859 0.0058920267
-0.01577256 -0.023484776 -0.005991986 -0.0015256138 -0.02441457 -0.018860638 0.00072192214 -0.008598233
-0.023347203 -0.026058141 -0.0140494825 9.70195e-05 -0.031395372 0.02561604 0.013292544 0.028224457
-0.002855002 0.01931175 -0.009634813 -0.004840334 0.018556595 0.01295502 0.023680061 0.03383579
0.00921546 0.02587251 0.036177266 0.014069882 0.03576759 0.00049973215 0.027495679 0.0025188967
0.04628318 0.020730799 0.005001419 0.034704342 -0.02671505 -0.0029976002 -0.0041623805 -0.019664388
0.003631632 -0.018711764 0.007273267 -0.012227985 0.030075936 -6.9202564e-05 -0.015822938 0.004580682
-0.015304052 -0.014005583 -0.011287833 0.0015721305 0.007785883 0.012864993 -0.012294448 0.006321347
0.031305663 -0.012956653 0.018843787 0.014137727 0.029132228 -0.01305529 0.03603464 -0.0048783934
-0.008367807 -0.013702717 -0.015112922 -0.027410831 0.0052834614 0.017147854 -0.010314926 -0.004531385
0.013011735 -0.053761847 -0.04072846 -0.010444978 -0.02918098 0.00675329 -0.010478509 -0.03530183
-0.030492185 0.05037082 -0.002947731 -0.0014903741 0.0057246997 -0.014778802 -0.027473973 -0.02377292
0.0076588923 -0.006323328 0.03984659 -0.032107458 0.016413415 0.04061888 -0.010310735 0.014481055
0.018251326 0.005332955 -0.005147937 -0.022978157 0.020495502 -0.0497994 0.0045481324 -0.019710565
-0.03268402 -0.048275575 0.012155925 0.0017724294 -0.003713784 0.04288519 -0.031910613 0.039007947
-0.0071165375 0.025817221 0.016246872 -0.00045355174 0.018594587 0.024942825 -0.042311314 0.026061712
-0.0057367925 -0.0047490546 -0.042661518 0.006903981 -0.05266614 -0.032620482 0.0018302752 -0.0064476826
0.018698355 0.047376607 0.008657386 -0.0049946825 0.004419503 0.013820338 0.043626495 0.0046607614
0.03690358 0.019617558 -0.010231761 0.008261673 -0.005044502 -0.004316788 -0.010005684 -0.001315046
0.012124431 -0.0113091925 0.024018612 -0.009679111 -0.028978862 0.0010416189 -0.028120043 -0.034373753
0.008684594 0.054865006 0.0068157865 0.012892362 0.0151373595 0.04294393 0.011901027 -0.027583962
-0.042560752 0.021780035 0.013035334 0.022162536 0.021750595 -0.030347511 0.021264423 0.014663805
0.01878556 0.01397588 0.038449097 -0.004047432 -0.0058834343 -0.019308206 0.018218055 -0.001153826
-0.011647953 -0.011580209 0.024825329 -0.042263597 -0.0012128005 0.007352578 -0.0068310285 -0.025812835
00000000: 4ff8 9c3b 6a9e 70bb d6b0 1ebc b7c9 32bb
00000010: 27a6 d4ba a948 80bc ac7a 0d3b 7836 303c
00000020: 1735 103d 0238 62bc 9a40 67bc fa5a 303c
00000030: 650c 883a b0b9 1bbd e068 d7b9 5f58 523b
00000040: fc7c a83b 1313 1ebc d4f9 b83c 5f55 7bbb
00000050: 42a5 bb3c c8c7 d4bc 1057 073c cafe 94bb
00000060: aa58 e73c 95ef febc 8fa1 24bd c5f6 f43b
00000070: 5fef 463c 2482 6b3c 04e4 0b3c cfeb 47bb
00000080: 2225 b73c d43c 24bd 3ad1 0fbd 2f53 11bd
00000090: 3596 91bb a7c2 67bc 1a39 55bb b3bf 1abc
000000a0: 26f7 a23b 0dad f03c 5fbe 8e3c 6dc8 ae3b
000000b0: 520b 9d3c 87ae 8ebc eba0 f4bc 87c5 793c
000000c0: df1b be3b 68d8 b4bb 7fd2 29bc 7ce0 13bb
000000d0: 2ff2 98bc 7684 77bc d98b 81bc 519b 9f3b
000000e0: 9e92 943c a698 84bc c901 b13c b585 0c3d
000000f0: ae4a f93c ade8 e03a 5010 843b 7d98 233c
00000100: c19a 5f3c ad83 a5bc 4495 0dbd e402 973b
00000110: 8d68 55bc b511 c4bb 4fe3 5a3c e711 c13b
00000120: 7535 81bc 2563 c0bc 6c58 c4bb 1bf7 c7ba
00000130: 1001 c8bc a081 9abc 603f 3d3a 9adf 0cbc
00000140: a242 bfbc e277 d5bc cd2f 66bc f376 cb38
00000150: 6f98 00bd bbd8 d13c f8c8 593c fa36 e73c
00000160: fc1a 3bbb ad33 9e3c 56db 1dbc aa9b 9ebb
00000170: 0004 983c 4b41 543c b0fc c13c 6697 0a3d
00000180: 71fc 163c 96f2 d33c 9d2e 143d 5d85 663c
00000190: 0981 123d 7500 033a 9e3e e13c 1314 253b
000001a0: 6f93 3d3d a3d3 a93c f2e2 a33b 2426 0e3d
000001b0: 85d9 dabc 6373 44bb 9464 88bb 3617 a1bc
000001c0: ad00 6e3b 6a49 99bc 9654 ee3b e357 48bc
000001d0: cf61 f63c d820 91b8 1b9f 81bc 8c19 963b
000001e0: d9bd 7abc ac77 65bc 9af0 38bc f20f ce3a
000001f0: b820 ff3b b1c7 523c a76e 49bc 4d23 cf3b
00000200: 5e3a 003d 2448 54bc 495e 9a3c eda1 673c
00000210: b6a6 ee3c dbe5 55bc 0f99 133d eeda 9fbb
00000220: 2019 09bc 5c81 60bc 309c 77bc ae8c e0bc
00000230: e320 ad3b a879 8c3c efff 28bc 037c 94bb
00000240: 2c2f 553c 6235 5cbd e3d2 26bd 6a21 2bbc
00000250: f30c efbc b44a dd3b 0dae 2bbc a798 10bd
00000260: bfca f9bc a251 4e3d b82e 41bb a858 c3ba
00000270: 4396 bb3b ca22 72bc 1911 e1bc 6dbf c2bc
00000280: 72f7 fa3b eb33 cfbb 2e36 233d 1c83 03bd
00000290: 6d75 863c fc5f 263d 5bee 28bc f241 6d3c
000002a0: ce83 953c 12c0 ae3b 07b0 a8bb b03c bcbc
000002b0: 2fe6 a73c 75fa 4bbd 8008 953b 0d78 a1bc
000002c0: aedf 05bd 9cbc 45bd a529 473c dd50 e83a
000002d0: f562 73bb 62a8 2f3d b4b4 02bd ccc6 1f3d
000002e0: d831 e9bb a37e d33c 2918 853c afca edb9
000002f0: ad53 983c e554 cc3c a14e 2dbd 5f7f d53c
00000300: b4fb bbbb f59d 9bbb d8bd 2ebd ca3a e23b
00000310: 73b8 57bd 0e9d 05bd d8e5 ef3a 1547 d3bb
00000320: 4b2d 993c f90d 423d b5d7 0d3c 6faa a3bb
00000330: 7ad1 903b b36e 623c b2b1 323d 4db9 983b
00000340: 3528 173d 00b5 a03c 1ea3 27bc f85b 073c
00000350: 5a4c a5bb d873 8dbb e1ee 23bc 9f5d acba
00000360: 8da5 463c 314a 39bc aec2 c43c 2295 1ebc
00000370: 1465 edbc ee86 883a 015c e6bc 7ecb 0cbd
00000380: d449 0e3c 21ba 603d f656 df3b 7c3a 533c
00000390: b002 783c f9e5 2f3d 86fc 423c c3f7 e1bc
000003a0: 2f54 2ebd 0b6c b23c 2792 553c 358e b53c
000003b0: 4e2e b23c 589b f8bc ba32 ae3c 7540 703c
000003c0: 2de4 993c 17fb 643c cd7c 1d3d 52a0 84bb
000003d0: d3c9 c0bb 3e2c 9ebc 083e 953c fa3b 97ba
000003e0: 0ed7 3ebc ebba 3dbc 7d5e cb3c 981c 2dbd
000003f0: d5f6 9eba e5ed f03b d2d6 dfbb 7075 d3bc

st_gcn_networks.1.tcn.2.bias f4 [8]
-1.7630342e-05 -4.8119286e-06 -1.135313e-05 9.997291e-06 1.967842e-05 6.885481e-06 -2.603477e-05 -1.8065371e-05
00000000: dfe4 93b7 2776 a1b6 5279 3eb7 0aba 2737
00000010: 1613 a537 d509 e736 3e65 dab7 178b 97b7

st_gcn_networks.1.tcn.3.weight f4 [8]
0.23205346 0.28377375 0.34244993 0.33174524 0.23674442 0.3767879 0.31209034 0.19901708
00000000: 6c9f 6d3e cb4a 913e 9955 af3e 83da a93e
00000010: 216d 723e 58ea c03e 4eca 9f3e 22cb 4b3e

st_gcn_networks.1.tcn.3.bias f4 [8]
0.009625632 -0.009018602 -0.017483499 -0.017560411 -0.002335716 -0.0032605806 -0.00037336999 0.010877342
00000000: d4b4 1d3c c2c2 13bc 8e39 8fbc dada 8fbc
00000010: d012 19bb 77af 55bb dfc0 c3b9 e136 323c

st_gcn_networks.1.tcn.3.running_mean f4 [8]
-0.008686441 0.027629387 -0.010869647 0.01059287 -0.0071543525 0.011725876 -0.02198257 -0.016017145
00000000: 9351 0ebc 0657 e23c 9b16 32bc b88d 2d3c
00000010: 0f6f eabb e31d 403c ca14 b4bc 6336 83bc

st_gcn_networks.1.tcn.3.running_var f4 [8]
0.0005985951 0.0035305638 0.0013199426 0.0012594704 0.00059473654 0.002218101 0.0015252861 0.0013702225
00000000: 0aeb 1c3a 0861 673b ed01 ad3a d014 a53a
00000010: 18e8 1b3a 8f5d 113b 1cec c73a 0a99 b33a

st_gcn_networks.1.residual.0.weight f4 [8, 8, 1, 1]
-0.04359044 -0.0655392 -0.11064724 -0.0020907782 -0.06299247 0.036489952 0.057591848 -0.025900494
-0.09026436 -0.054968577 -0.021501524 -0.008049987 -0.010398548 0.09970828 0.104309544 -0.09819543
-0.13385804 -0.006184093 0.07288443 -0.0022079488 -0.044802 0.05908326 -0.012599958 -0.06717667
0.07846785 0.005670353 -0.068862215 -0.010698812 -0.025131803 -0.011702563 0.070004046 0.09023921
-0.04224488 0.02649622 -0.093241535 0.01468015 0.038568057 -0.04088712 0.11026842 0.056653894
0.1322244 0.029440196 0.10598674 -0.012830975 -0.06209277 -0.05788028 -0.03649696 -0.08154794
0.02451225 0.016614119 -0.07558073 0.026983729 -0.016727058 -0.034101654 -0.066601716 0.012255605
-0.022827342 0.018211113 0.07386527 -0.004730394 0.06306775 0.10586696 -0.11055615 -0.040337734
00000000: e48b 32bd 6b39 86bd 059b e2bd 7005 09bb
00000010: 3202 81bd 7d76 153d 6ee5 6b3d 462d d4bc
00000020: 85dc b8bd bb26 61bd f723 b0bc 18e4 03bc
00000030: ac5e 2abc db33 cc3d 3ea0 d53d b01a c9bd
00000040: 1512 09be efa3 cabb 6f44 953d 3cb3 10bb
00000050: 4d82 37bd 4a01 723d 0e70 4ebc ec93 89bd
00000060: c1b3 a03d 5ece b93b a207 8dbd 124a 2fbc
00000070: 36e1 cdbc 1bbc 3fbc 485e 8f3d 56cf b83d
00000080: f808 2dbd 9a0e d93c 6bf5 bebd 0385 703c
00000090: 8af9 1d3d 4179 27bd 69d4 e13d ea0d 683d
000000a0: d565 073e 912c f13c 930f d93d 0339 52bc
000000b0: fd54 7ebd df13 6dbd d67d 15bd 9b02 a7bd
000000c0: eacd c83c 551a 883c 12ca 9abd fb0c dd3c
000000d0: 2f07 89bc 2dae 0bbd 7b66 88bd bccb 483c
000000e0: 6800 bbbc 792f 953c ad46 973d 6c01 9bbb
000000f0: aa29 813d c7d0 d83d 436b e2bd 2e39 25bd

st_gcn_networks.1.residual.0.bias f4 [8]
-1.6230742e-05 -1.6150865e-05 -1.3567726e-05 1.5630603e-05 -1.9755462e-05 1.3938319e-05 -5.3277323e-05 -1.2641072e-05
00000000: 4127 88b7 b87b 87b7 f0a0 63b7 771e 8337
00000010: 88b8 a5b7 a0d8 6937 1776 5fb8 fe14 54b7

st_gcn_networks.1.residual.1.weight f4 [8]
0.25160155 0.24618648 0.3098724 0.2519814 0.2524528 0.28435516 0.38182873 0.19100928
00000000: ebd1 803e 4f18 7c3e 98a7 9e3e b503 813e
00000010: 7e41 813e 0097 913e 0e7f c33e f097 433e

st_gcn_networks.1.residual.1.bias f4 [8]
0.009625632 -0.009018602 -0.017483499 -0.017560411 -0.002335716 -0.0032605806 -0.00037336999 0.010877342
00000000: d4b4 1d3c c2c2 13bc 8e39 8fbc dada 8fbc
00000010: d012 19bb 77af 55bb dfc0 c3b9 e136 323c

st_gcn_networks.1.residual.1.running_mean f4 [8]
-0.022239445 -0.0034232177 -0.013200871 0.019624513 0.0098286485 0.00043427036 -0.017197749 0.008906081
00000000: 7f2f b6bc 1058 60bb 7748 58bc 96c3 a03c
00000010: 5708 213c c8ae e339 4be2 8cbc d0ea 113c

st_gcn_networks.1.residual.1.running_var f4 [8]
0.00088387186 0.0018069533 0.0010078783 0.0010322599 0.0012954551 0.0015510942 0.00077232777 0.0010295219
00000000: a3b3 673a 4bd7 ec3a c91a 843a e54c 873a
00000010: 43cc a93a 164e cb3a 0a76 4a3a 06f1 863a

st_gcn_networks.2.gcn.conv.weight f4 [48, 8, 1, 1]
0.02538632 -0.047106333 0.0068547125 -0.03613056 0.058120262 0.0052682003 -0.06750515 -0.010437405
-0.01561893 -0.020396747 -0.006228442 -0.024087397 -0.014091274 0.014681257 0.013982476 0.0009152664
6.0348582e-05 -0.03402085 0.009778833 -0.038767427 -0.009270888 0.009348367 -0.006622692 0.021583786
-0.0097934995 -0.013403392 -0.017995518 -0.0067553185 0.03450107 -0.04275496 -0.0028285817 0.02134562
0.0009857595 -0.002445094 -0.0021156883 -0.009857063 -0.01821002 0.030675748 -0.009087239 -0.013880261
0.04629524 0.0020306678 -0.07799873 -0.026631366 0.102411486 -0.012828992 -0.099042386 -0.020942345
-0.033921346 -0.07124285 -0.06782671 0.004622104 -0.0363037 0.061942447 -0.08888459 0.032741778
-0.027776038 -0.030489855 0.034070827 0.00040243907 0.0016165988 -0.026106112 -0.002970064 0.015777513
0.0012153035 -0.033787064 -0.01515994 0.006885811 -0.050283913 0.055621803 -0.011099349 -0.010616734
-0.001528856 -0.021697879 0.025429957 0.015911326 0.030559763 -0.03339435 -0.0026598927 0.010493012
-0.0033535913 -0.027761688 0.022154566 0.007246473 0.0504512 0.05570175 0.009531038 0.0030160106
0.03314087 -0.06438278 -0.052556608 0.03235162 -0.008374656 -0.01820869 0.010529604 -0.0067497864
0.03178513 -0.04211355 -0.008987122 0.07594708 -0.03924016 0.008788716 0.006497075 -0.004549933
0.004640605 -0.029730797 0.076281436 -0.018054523 -0.025530946 0.0051412913 -0.00013888688 0.031207122
-0.0019651414 0.01936613 0.03149892 -0.048916195 0.017187716 0.03703525 0.010527165 -0.00060907245
-0.015674405 0.00041377902 -0.016045025 -0.015660463 -0.011870925 0.007931079 -0.008941452 0.0016214228
0.027162869 -0.030873314 0.03761256 -0.044987872 0.03665425 0.09209593 0.08579265 -0.01684377
-0.015070333 -0.03982434 -0.021797575 -0.031672634 -0.013631031 0.015017466 0.043551452 0.0047813803
0.013265426 0.002163051 0.06147298 -0.011079669 0.050382804 -0.003907806 0.009462136 -0.032367896
0.027247915 0.042127814 -0.014755024 -0.019493863 0.04462798 -0.031096121 -0.0389365 -0.026939906
-0.011565611 -0.014090994 0.025239939 -0.014087767 -0.014316245 0.0436797 0.020755129 0.0049728258
0.01645375 0.04506059 -0.02598276 -0.042849932 0.024156721 -0.11593421 0.024796626 -0.0048643406
0.05856038 0.04084319 -0.063471794 0.039975565 0.07646237 -0.03567774 -0.024549732 -0.021007763
0.011328694 -0.051707424 0.03166027 0.011782111 -0.026415223 0.04095782 -0.004624135 0.04364787
0.026928365 0.05106131 -0.03822216 0.02608468 0.062205397 0.006256158 0.03098234 -0.019514868
-0.004517042 -0.011341314 -0.0146881975 0.014551829 -0.023831267 0.041269705 0.019841377 -0.013959216
0.024444846 -0.039061632 0.018508127 0.03395191 -0.00606662 -0.002065615 0.0072655366 0.028495561
0.06330094 0.08203198 0.018629393 0.014423973 -0.042738523 -0.018335296 0.08337661 0.043387007
0.07233802 -0.005635135 -0.0027562308 -0.051467635 -0.022103796 -0.015420836 0.029732278 -0.0010245644
0.0077652186 0.052076403 -0.06623466 0.08384269 -0.011168002 -0.07920167 0.010291824 0.087517455
-0.004577548 -0.0168137 -0.0031904231 -0.007598056 0.010216303 0.016023284 0.007360219 -0.021900544
0.0060738544 -0.02482312 0.016074847 0.017453268 0.010012008 0.01630839 0.013649046 0.0027934494
00000000: f9f6 cf3c 92f2 40bd 7f9d e03b a3fd 13bd
00000010: 830f 6e3d dea0 ac3b 2440 8abd a601 2bbc
00000020: 8ae6 7fbc 1417 a7bc f517 ccbb ef52 c5bc
00000030: 16df 66bc a889 703c c116 653c 7dee 6f3a
00000040: cc1e 7d38 7259 0bbd 6637 203c 98ca 1ebd
00000050: ece4 17bc e529 193c 2b03 d9bb 7bd0 b03c
00000060: ea74 20bc e799 5bbc 566b 93bc b85b ddbb
00000070: fe50 0d3d d31f 2fbd ba5f 39bb 02dd ae3c
00000080: 9a34 813a df3d 20bb 5ca7 0abb 857f 21bc
00000090: 2e2d 95bc b54b fb3c a5e2 14bc 096a 63bc
000000a0: 14a0 3d3d f414 053b ccbd 9fbd 062a dabc
000000b0: 1dbd d13d b130 52bc bcd6 cabd 488f abbc
000000c0: 1cf1 0abd c5e7 91bd bbe8 8abd 0575 973b
000000d0: 30b3 14bd 5db7 7d3d 2009 b6bd 3e1c 063d
000000e0: 938a e3bc dcc5 f9bc da8d 0b3d 75fe d239
000000f0: 0ee4 d33a 7cdc d5bc 68a5 42bb d83f 813c
00000100: d24a 9f3a 4e64 0abd 6661 78bc 5fa2 e13b
00000110: 81f6 4dbd b0d3 633d 0bda 35bc cff1 2dbc
00000120: e563 c8ba c0bf b1bc 7c52 d03c 7858 823c
00000130: 7858 fa3c 84c8 08bd 9851 2ebb e2ea 2b3c
00000140: edc7 5bbb 7b6c e3bc 7e7d b53c d273 ed3b
00000150: eba5 4e3d 8527 643d 1228 1c3c 43a8 453b
00000160: b9be 073d 1edb 83bd 9945 57bd 2283 043d
00000170: da35 09bc 642a 95bc 5c84 2c3c 502d ddbb
00000180: 2031 023d 427f 2cbd b93e 13bc 258a 9b3d
00000190: 4aba 20bd 8cfe 0f3c 6ae5 d43b 9b17 95bb
000001a0: 3710 983b 008e f3bc 7139 9c3d 14e7 93bc
000001b0: 4626 d1bc 4778 a83b 2aa2 11b9 14a6 ff3c
000001c0: 9ac9 00bb b8a5 9e3c 0305 013d 595c 48bd
000001d0: 41cd 8c3c 46b2 173d 217a 2c3c 29aa 1fba
000001e0: 9c67 80bc 7bf0 d839 db70 83bc 5f4a 80bc
000001f0: 457e 42bc 5bf1 013c 2b7f 12bc ec85 d43a
00000200: aa84 de3c 08ea fcbc a10f 1a3d 3445 38bd
00000210: c422 163d ca9c bc3d 0fb4 af3d f2fb 89bc
00000220: 8fe9 76bc d91e 23bd d490 b2bc 2abb 01bd
00000230: b054 5fbc d10b 763c 0263 323d 20ad 9c3b
00000240: 3b57 593c f9c1 0d3b 17cb 7b3d 8087 35bc
00000250: 335e 4e3d 0d0d 80bb 1307 1b3c 3394 04bd
00000260: 0537 df3c 378e 2c3d 0ebf 71bc 98b1 9fbc
00000270: d4cb 363d 4bbd febc e17b 1fbd 14b1 dcbc
00000280: b07d 3dbc eadd 66bc fdc3 ce3c 61d0 66bc
00000290: af8e 6abc 7ce9 323d a906 aa3c 16f3 a23b
000002a0: 04ca 863c 7491 383d ccd9 d4bc 6983 2fbd
000002b0: 51e4 c53c ea6e edbd 4b22 cb3c 0c65 9fbb
000002c0: 02dd 6f3d 304b 273d 80fd 81bd 6bbd 233d
000002d0: 4e98 9c3d d222 12bd 851c c9bc 7918 acbc
000002e0: fd9b 393c 2acb 53bd 33ae 013d c109 413c
000002f0: bd64 d8bc 63c3 273d 0e86 97bb 1cc8 323d
00000300: e098 dc3c aa25 513d d78e 1cbd 8aaf d53c
00000310: 16cb 7e3d 7500 cd3b adce fd3c a5dd 9fbc
00000320: b203 94bb ebd0 39bc c4a6 70bc cb6a 6e3c
00000330: ca39 c3bc 6c0a 293d 628a a23c 32b5 64bc
00000340: 8f40 c83c 17ff 1fbd 5b9e 973c 2811 0b3d
00000350: 7fca c6bb 455f 07bb bd13 ee3b 866f e93c
00000360: eca3 813d 6200 a83d ab9c 983c 8752 6c3c
00000370: 970e 2fbd e733 96bc 5bc1 aa3d 93b6 313d
00000380: f525 943d f0a6 b8bb e1a1 34bb bacf 52bd
00000390: 0513 b5bc ada7 7cbc 1b91 f33c ad4a 86ba
000003a0: 6073 fe3b 114e 553d 0aa6 87bd b7b5 ab3d
000003b0: fff9 36bc 7c34 a2bd 0a9f 283c 5a3c b33d
000003c0: 41ff 95bb e2bc 89bc 6b16 51bb 1df9 f8bb
000003d0: 4862 273c 4343 833c fe2d f13b c568 b3bc
000003e0: 2f07 c73b db59 cbbc 66af 833c 28fa 8e3c
000003f0: 6809 243c 2c99 853c 40a0 5f3c 4e12 373b

st_gcn_networks.2.gcn.conv.bias f4 [48]
-0.010195295 0.008425093 -0.011220031 0.0044174897 -0.011365243 -0.01826835 0.030246163 -0.012932773
-0.0010215032 -0.013538985 -0.01971167 -0.0016093326 -0.026759278 -0.009292735 -0.01033953 0.003030022
-0.06290769 -0.013158256 -0.0035717995 0.00867206 0.010383169 -0.015232045 -0.012107603 -0.0037401149
-0.054177504 -0.011827438 -0.02042862 -0.048172433 0.030002039 0.01501163 -0.01972151 -0.009795565
-0.0018571195 0.01533544 -0.003365811 0.0054026186 -0.012050023 0.010789256 -0.0025248001 -0.00578822
-0.0132041685 0.0038597528 -0.0033259764 -0.031211345 0.029476056 -0.015722403 0.014144611 0.0003192119
00000000: 2b0a 27bc 6709 0a3c 39d4 37bc 97c0 903b
00000010: 4935 3abc 82a7 95bc cdc6 f73c fbe3 53bc
00000020: f6e3 85ba 9ed2 5dbc 5e7a a1bc 3ef0 d2ba
00000030: 4636 dbbc 8e40 18bc 2267 29bc 5593 463b
00000040: bfd5 80bd ba95 57bc da14 6abb 4215 0e3c
00000050: 2b1e 2a3c d48f 79bc f85e 46bc b71c 75bb
00000060: 3be9 5dbd dfc7 41bc ec59 a7bc 7550 45bd
00000070: d6c6 f53c 57f3 753c 018f a1bc 947d 20bc
00000080: 976a f3ba 7f41 7b3c f094 5cbb 7308 b13b
00000090: 766d 45bc 6bc5 303c 1e77 25bb 1cab bdbb
000000a0: 4c56 58bc e8f3 7c3b a0f8 59bb efae ffbc
000000b0: c577 f13c 45cc 80bc ccbe 673c e55b a739

st_gcn_networks.2.tcn.0.weight f4 [16]
0.2673779 0.13792108 0.20868394 0.16838396 0.06688132 0.27863255 0.21406785 0.19318321
0.18290031 0.12032185 0.15607472 0.20112208 0.15862687 0.1991027 0.096088715 0.08927741
00000000: c2e5 883e 2f3b 0d3e 3eb1 553e d86c 2c3e
00000010: 13f9 883d eda8 8e3e 9a34 5b3e d2d1 453e
00000020: 384a 3b3e 4d6b f63d 0dd2 1f3e f2f2 4d3e
00000030: 156f 223e 94e1 4b3e 29ca c43d 13d7 b63d

st_gcn_networks.2.tcn.0.bias f4 [16]
-0.016917799 0.00069982326 -0.028919162 -0.02106265 0.013391635 -0.019804053 -0.020847103 -0.0321651
-0.033618033 -0.02516934 -0.040600736 -0.022214197 -0.031434804 -0.057321995 -0.005543423 -0.024632992
00000000: 3297 8abc 5874 373a e1e7 ecbc 948b acbc
00000010: 9768 5b3c 1c3c a2bc 8bc7 aabc 8dbf 03bd
00000020: 10b3 09bd ef2f cebc f54c 26bd 8cfa b5bc
00000030: c8c1 00bd 78ca 6abd 9aa5 b5bb 21cb c9bc

st_gcn_networks.2.tcn.0.running_mean f4 [16]
-0.0025872441 -0.00072640803 -0.00035418116 -0.00052420207 0.00033907423 -0.0049545653 -0.0011630991 -0.0012748584
-0.0018047424 -0.0005817486 -0.0012106873 -0.0029472935 0.0015655989 0.00031817643 -3.3266315e-05 0.00040837255
00000000: c18e 29bb 6b6c 3eba 64b1 b9b9 9b6a 09ba
00000010: c6c5 b139 e859 a2bb 2173 98ba 2619 a7ba
00000020: 1b8d ecba 7d80 18ba edaf 9eba 6127 41bb
00000030: c834 cd3a ebd0 a639 6f87 0bb8 d61a d639

st_gcn_networks.2.tcn.0.running_var f4 [16]
8.216061e-06 9.642259e-06 4.923614e-06 9.139401e-06 5.934149e-06 5.3550048e-05 1.0666704e-05 4.983803e-06
1.0121366e-05 3.0559333e-06 4.526425e-06 7.4230115e-06 4.902784e-06 8.607315e-06 2.497981e-06 1.8026557e-06
00000000: b7d7 0937 30c5 2137 8635 a536 6e55 1937
00000010: f41d c736 ed9a 6038 25f5 3237 8b3a a736
00000020: f0ce 2937 8914 4d36 b2e1 9736 2f13 f936
00000030: 9882 a436 2368 1037 fda2 2736 c7f2 f135

st_gcn_networks.2.tcn.2.weight f4 [16, 16, 9, 1]
-0.00463138 -0.0097118085 -0.027646387 -0.0181219 -0.01574397 0.004919931 -0.00975192 -0.010832652
-0.00026250797 -0.0007825149 0.0027656835 -0.000571078 0.00044415094 0.0044328063 -0.003085008 -0.0075140875
-0.007830294 -0.01217448 0.0121704815 0.0024136496 0.0015122668 0.0039097196 0.007435613 0.0024075676
0.0075722933 0.0024652828 0.002098382 0.0052226256 -0.004402266 -0.001930127 -0.00043338875 0.0011900072
0.007135092 -0.0031647643 -0.007547607 -0.0015787457 0.00037823367 0.005324292 -0.0078860335 -0.0035459034
-0.008585429 -0.006687267 -0.010863296 -0.011533019 -0.015637472 0.008079474 -0.010264527 0.008863863
-0.0006415199 0.004790087 0.010455348 0.0016629383 0.003467677 0.006966926 0.016846435 3.115462e-05
-0.0016173482 0.008263082 0.012028685 -0.00075983146 0.010072104 0.012751243 0.020830685 -0.0045553725
-0.0023146523 -0.0067390488 -0.006068731 0.00020364956 -0.009713417 -0.006975847 -0.016179873 -0.019261356
0.014936819 0.011054134 0.00800086 0.0058655813 0.010084086 -0.0008992833 -0.0017603855 0.0025468739
-0.0025305897 -0.0043215086 -0.0012760124 0.00034215034 0.0006769494 0.002595244 -0.0040897485 0.0024009228
0.003172553 -0.0018672955 0.004573544 0.0080707865 0.0052809226 0.012229194 0.010142784 0.0051459973
0.008231185 0.008770799 0.0044139037 0.0036196392 -0.005825424 0.0025007406 -0.007250163 -0.003875325
-0.0013745062 -0.013883137 -0.0047290213 0.0067424346 -0.0019864815 -0.0075403475 -0.005722844 -0.015521619
-0.007428573 -0.0064674304 -0.0099632 -0.007946051 -0.006617445 0.011377423 -0.0028222513 -0.0063408273
0.0010761094 -0.005684719 -0.002775038 -0.005883851 -0.00023606083 0.013336219 -0.0014186779 0.00023240589
-0.007618609 -0.0025688375 -0.0024593968 0.0005455496 -0.00092611916 0.0013781749 -0.0068076337 0.003598752
0.0033397712 -0.0044073886 -0.00047921416 -0.005208481 -0.006238834 -0.00017405301 -0.0031331223 -0.0070653264
0.0018821763 0.005608578 0.016057186 0.019689918 0.009835379 0.011309427 0.013226064 -0.0020397333
0.018119814 -0.007583159 0.00674547 -0.006971145 -0.0027382772 -0.014696995 0.0017681326 -0.019365927
-0.0016216976 -0.0029725316 -0.023938708 0.014280555 -0.01959823 0.027245488 -0.011349689 -0.0063953055
-0.0101183895 -0.0026673214 -0.024727274 -0.014784393 -0.004563906 -0.018360522 -0.004664983 -0.0031433331
-0.019446556 -0.0037707062 -0.018856978 -0.00081495364 -0.002606078 -0.023114122 -0.0077992706 -0.012618461
-9.281552e-05 -0.012754264 -0.0007680279 0.0031321717 0.0106187565 -0.014792616 -0.00883786 -0.015353734
-0.013934461 -0.019722441 -0.03368394 -0.023148268 -0.03870657 -0.019714478 6.937407e-05 0.010049974
0.019048516 0.014667768 0.037697043 0.0029103006 0.015623621 -0.011329716 0.015425593 0.0043535866
-0.0020868687 0.001655779 -0.009288343 -0.016466735 -0.033590414 -0.011778007 -0.009368062 -0.026730426
-0.01598196 -0.004919424 -0.0071762283 -0.02375747 -0.0123010725 -0.017661307 -0.02041291 -0.020433176
-0.0240192 -0.00322726 -0.002798637 -0.012142873 -0.017476602 -0.0019344183 -0.00036372847 -0.009124499
-0.02767955 -0.009490451 -0.0152081335 -0.027296133 -0.027391016 -0.03519407 0.015039142 -0.034927994
-0.01324627 -0.017313704 -0.025520016 0.01363285 0.013868192 -0.0012564503 0.016964154 0.0019677558
0.013211662 0.0035258415 -0.0010584455 0.012159011 0.017072927 0.024207346 0.01711501 0.0016272909
00000000: d5c2 97bb 471e 1fbc ad7a e2bc 6174 94bc
00000010: 80f9 80bc 5f37 a13b 84c6 1fbc 707b 31bc
00000020: 39a1 89b9 b021 4dba 7840 353b 65b4 15ba
00000030: eedc e839 1341 913b d82d 4abb bc38 f6bb
00000040: a24a 00bc 7877 47bc b366 473c 522e 1e3b
00000050: 4137 c63a 1b1d 803b 71a6 f33b 48c8 1d3b
00000060: 0021 f83b 9590 213b 0285 093b 8f22 ab3b
00000070: e240 90bb 51fc fcba 7438 e3b9 04fa 9b3a
00000080: 7dcd e93b ef67 4fbb eb51 f7bb eaed ceba
00000090: aa4d c639 6677 ae3b 6c34 01bc 6362 68bb
000000a0: e6a9 0cbc dd20 dbbb f7fb 31bc fdf4 3cbc
000000b0: 281a 80bc c55f 043c 8c2c 28bc bc39 113c
000000c0: ac2b 28ba 2af6 9c3b e84c 2b3c f3f6 d93a
000000d0: f741 633b d04a e43b 8901 8a3c 05ac 0238
000000e0: 33fd d3ba e161 073c f613 453c 6d2f 47ba
000000f0: 7705 253c 97ea 503c 1da5 aa3c 3c45 95bb
00000100: 6cb1 17bb 3dd3 dcbb 35dc c6bb c38a 5539
00000110: 0625 1fbc a595 e4bb a78b 84bc fec9 9dbc
00000120: 8fb9 743c 661c 353c 0a16 033c 1034 c03b
00000130: b937 253c e1bd 6bba bcbc e6ba 74e9 263b
00000140: 40d8 25bb 719b 8dbb df3f a7ba a462 b339
00000150: 4e75 313a f814 2a3b 4c03 86bb cd58 1d3b
00000160: 9bea 4f3b 0ac0 f4ba abdd 953b 553b 043c
00000170: 970b ad3b f55c 483c eb2d 263c c19f a83b
00000180: 18dc 063c 66b3 0f3c 82a2 903b 7837 6d3b
00000190: 33e3 bebb 77e3 233b c692 edbb 2af9 7dbb
000001a0: c628 b4ba 1976 63bc e8f5 9abb a4ef dc3b
000001b0: a12f 02bb 0515 f7bb b286 bbbb 634e 7ebc
000001c0: 636b f3bb bdec d3bb b13c 23bc 2730 02bc
000001d0: 27d7 d8bb 5f68 3a3c 85f5 38bb b7c6 cfbb
000001e0: 3d0c 8d3a e146 babb 69dd 35bb 52cd c0bb
000001f0: 1987 77b9 2880 5a3c eef2 b9ba fbb1 7339
00000200: 86a5 f9bb f159 28bb d52d 21bb 3703 0f3a
00000210: cec6 72ba e0a3 b43a 9212 dfbb 0ad9 6b3b
00000220: 10e0 5a3b db6b 90bb 093f fbb9 e8ab aabb
00000230: 226f ccbb 0082 36b9 1255 4dbb 4184 e7bb
00000240: 5bb3 f63a 2ac8 b73b 5c8a 833c c04c a13c
00000250: 9224 213c 2d4b 393c 22b2 583c 0cad 05bb
00000260: 0170 943c 267c f8bb 1b09 dd3b 346e e4bb
00000270: ab74 33bb aacb 70bc afc0 e73a 4ba5 9ebc
00000280: 248f d4ba cece 42bb 1c1b c4bc fdf8 693c
00000290: 788c a0bc ee31 df3c 0cf4 39bc b68f d1bb
000002a0: 9ac7 25bc 3ace 2ebb da90 cabc 3d3a 72bc
000002b0: d28c 95bb ce68 96bc b7dc 98bb 6100 4ebb
000002c0: 624e 9fbc f41d 77bb f379 9abc 9da2 55ba
000002d0: bcca 2abb d459 bdbc 0691 ffbb a9bd 4ebc
000002e0: f4a5 c2b8 43f7 50bc 7b55 49ba 1f45 4d3b
000002f0: 4bfa 2d3c ba5c 72bc accc 10bc 3a8e 7bbc
00000300: 5e4d 64bc f590 a1bc 2cf8 09bd 70a1 bdbc
00000310: c88a 1ebd 4280 a1bc ec7c 9138 a5a8 243c
00000320: a20b 9c3c 1451 703c 3768 1a3d beba 3e3b
00000330: 37fa 7f3c 46a0 39bc a0bb 7c3c 88a8 8e3b
00000340: d9c3 08bb b906 d93a 222e 18bc 3fe5 86bc
00000350: 1a96 09bd 8bf8 40bc 807c 19bc c4f9 dabc
00000360: 99ec 82bc 1f33 a1bb 9126 ebbb 079f c2bc
00000370: 708a 49bc 72ae 90bc fa38 a7bc 7a63 a7bc
00000380: eac3 c4bc 7080 53bb 5669 37bb e7f2 46bc
00000390: 172b 8fbc 4f8c fdba cfb2 beb9 ec7e 15bc
000003a0: 39c0 e2bc d67d 1bbc 892b 79bc 249c dfbc
000003b0: 2063 e0bc a827 10bd bc66 763c a810 0fbd
000003c0: e206 59bc 78d5 8dbc 5a0f d1bc 515c 5f3c
000003d0: 6a37 633c 7aaf a4ba 69f8 8a3c 77f5 003b
000003e0: ba75 583c ce11 673b 8abb 8aba 9736 473c
000003f0: 86dc 8b3c 7c4e c63c c734 8c3c d24a d53a

st_gcn_networks.2.tcn.2.bias f4 [16]
1.7411405e-06 -2.8808174e-05 -2.5404995e-06 -1.4909648e-11 1.1319206e-05 4.3768217e-05 7.0813053e-06 -5.8094133e-06
-1.4334627e-05 2.6025089e-06 -2.968253e-05 -4.438301e-06 -8.1221215e-06 7.0217498e-06 -1.4077886e-05 7.450278e-07
00000000: 22b1 e935 15a9 f1b7 737d 2ab6 8b25 83ad
00000010: 9fe7 3d37 c493 3738 f39b ed36 7bee c2b6
00000020: c17e 70b7 c3a6 2e36 bffe f8b7 b7ec 94b6
00000030: 3f44 08b7 5f9c eb36 0f30 6cb7 ecfd 4735

st_gcn_networks.2.tcn.3.weight f4 [16]
0.09301624 0.22085184 0.09084111 -1.7561584e-21 0.22358866 0.18735008 0.19072966 0.06900788
0.101895474 0.07729602 0.2365242 0.046674382 0.2515864 0.032402724 0.06406036 0.004609411
00000000: 4c7f be3d fc26 623e e70a ba3d 0bb1 049d
00000010: 6df4 643e b3d8 3f3e a34e 433e 0154 8d3d
00000020: 93ae d03d 604d 9e3d 6633 723e a32d 3f3d
00000030: efcf 803e b8b8 043d 1432 833d 8b0a 973b
