weights_arm/77.pt (torch, 70926 bytes, 80 tensors)

A f4 [3, 9, 9]
00000000: 0000 003f 0000 0000 0000 0000 0000 0000
00000010: 0000 0000 0000 0000 0000 0000 0000 0000
00000020: 0000 0000 0000 0000 cdcc 4c3e 0000 0000
00000030: 0000 0000 0000 0000 0000 0000 0000 0000
00000040: 0000 0000 0000 0000 0000 0000 0000 0000
00000050: abaa aa3e 0000 0000 0000 0000 0000 0000
00000060: 0000 0000 0000 0000 0000 0000 0000 0000
00000070: 0000 0000 0000 0000 abaa aa3e 0000 0000
00000080: 0000 0000 0000 0000 0000 0000 0000 0000
00000090: 0000 0000 0000 0000 0000 0000 0000 0000
000000a0: 0000 003f 0000 0000 0000 0000 0000 0000
000000b0: 0000 0000 0000 0000 0000 0000 0000 0000
000000c0: 0000 0000 0000 0000 abaa aa3e 0000 0000
000000d0: 0000 0000 0000 0000 0000 0000 0000 0000
000000e0: 0000 0000 0000 0000 0000 0000 0000 0000
000000f0: abaa aa3e 0000 0000 0000 0000 0000 0000
00000100: 0000 0000 0000 0000 0000 0000 0000 0000
00000110: 0000 0000 0000 0000 0000 003f 0000 0000
00000120: 0000 0000 0000 0000 0000 0000 0000 0000
00000130: 0000 0000 0000 0000 0000 0000 0000 0000
00000140: 0000 003f 0000 0000 cdcc 4c3e 0000 0000
00000150: 0000 0000 0000 0000 0000 0000 0000 0000
00000160: 0000 0000 0000 0000 0000 0000 0000 0000
00000170: 0000 0000 0000 0000 0000 0000 0000 0000
00000180: 0000 0000 0000 0000 0000 0000 0000 0000
00000190: cdcc 4c3e 0000 0000 0000 0000 0000 0000
000001a0: 0000 0000 0000 0000 0000 0000 0000 0000
000001b0: 0000 0000 0000 0000 abaa aa3e 0000 0000
000001c0: 0000 003f 0000 0000 0000 0000 0000 0000
000001d0: 0000 0000 0000 0000 0000 0000 0000 0000
000001e0: abaa aa3e 0000 0000 0000 0000 0000 0000
000001f0: 0000 0000 0000 0000 0000 0000 cdcc 4c3e
00000200: 0000 0000 0000 0000 0000 0000 0000 0000
00000210: 0000 0000 0000 0000 0000 0000 0000 0000
00000220: 0000 0000 0000 0000 0000 0000 0000 0000
00000230: abaa aa3e 0000 0000 0000 003f 0000 0000
00000240: 0000 0000 0000 0000 0000 0000 0000 0000
00000250: 0000 0000 0000 0000 abaa aa3e 0000 0000
00000260: 0000 0000 0000 0000 cdcc 4c3e 0000 0000
00000270: 0000 0000 0000 0000 0000 0000 0000 0000
00000280: 0000 0000 0000 0000 0000 0000 0000 0000
00000290: 0000 0000 0000 0000 0000 0000 0000 0000
000002a0: 0000 0000 0000 0000 0000 0000 0000 003f
000002b0: 0000 0000 abaa aa3e 0000 0000 0000 0000
000002c0: abaa aa3e 0000 0000 0000 0000 0000 003f
000002d0: 0000 0000 0000 0000 0000 0000 abaa aa3e
000002e0: 0000 0000 0000 0000 0000 0000 0000 0000
000002f0: 0000 0000 0000 0000 0000 0000 0000 0000
00000300: 0000 0000 0000 0000 0000 0000 0000 0000
00000310: 0000 0000 0000 0000 0000 0000 0000 0000
00000320: 0000 0000 0000 0000 0000 0000 0000 0000
00000330: 0000 0000 0000 0000 0000 0000 0000 0000
00000340: 0000 0000 0000 0000 0000 0000 0000 0000
00000350: 0000 0000 abaa aa3e 0000 0000 0000 0000
00000360: 0000 0000 0000 0000 0000 0000 0000 0000
00000370: 0000 0000 0000 0000 0000 0000 0000 0000
00000380: 0000 0000 0000 0000 0000 0000 0000 0000
00000390: 0000 0000 0000 0000 0000 0000 0000 0000
000003a0: 0000 0000 0000 0000 0000 0000 0000 0000
000003b0: 0000 0000 0000 0000 0000 0000 0000 0000
000003c0: 0000 0000 0000 0000 0000 0000
0.5 0.0 0.0 0.0 0.0 0.0 0.0 0.0
0.0 0.0 0.2 0.0 0.0 0.0 0.0 0.0
0.0 0.0 0.0 0.0 0.33333334 0.0 0.0 0.0
0.0 0.0 0.0 0.0 0.0 0.0 0.33333334 0.0
0.0 0.0 0.0 0.0 0.0 0.0 0.0 0.0
0.5 0.0 0.0 0.0 0.0 0.0 0.0 0.0
0.0 0.0 0.33333334 0.0 0.0 0.0 0.0 0.0
0.0 0.0 0.0 0.0 0.33333334 0.0 0.0 0.0
0.0 0.0 0.0 0.0 0.0 0.0 0.5 0.0
0.0 0.0 0.0 0.0 0.0 0.0 0.0 0.0
0.5 0.0 0.2 0.0 0.0 0.0 0.0 0.0
0.0 0.0 0.0 0.0 0.0 0.0 0.0 0.0
0.0 0.0 0.0 0.0 0.2 0.0 0.0 0.0
0.0 0.0 0.0 0.0 0.0 0.0 0.33333334 0.0
0.5 0.0 0.0 0.0 0.0 0.0 0.0 0.0
0.33333334 0.0 0.0 0.0 0.0 0.0 0.0 0.2
0.0 0.0 0.0 0.0 0.0 0.0 0.0 0.0
0.0 0.0 0.0 0.0 0.33333334 0.0 0.5 0.0
0.0 0.0 0.0 0.0 0.0 0.0 0.33333334 0.0
0.0 0.0 0.2 0.0 0.0 0.0 0.0 0.0
0.0 0.0 0.0 0.0 0.0 0.0 0.0 0.0
0.0 0.0 0.0 0.5 0.0 0.33333334 0.0 0.0
0.33333334 0.0 0.0 0.5 0.0 0.0 0.0 0.33333334
0.0 0.0 0.0 0.0 0.0 0.0 0.0 0.0
0.0 0.0 0.0 0.0 0.0 0.0 0.0 0.0
0.0 0.0 0.0 0.0 0.0 0.0 0.0 0.0
0.0 0.0 0.0 0.0 0.0 0.33333334 0.0 0.0
0.0 0.0 0.0 0.0 0.0 0.0 0.0 0.0
0.0 0.0 0.0 0.0 0.0 0.0 0.0 0.0
0.0 0.0 0.0 0.0 0.0 0.0 0.0 0.0
0.0 0.0 0.0

data_bn.weight f4 [27]
00000000: f45a f83d c715 d83d d8e7 ab3d a4fc 903e
00000010: 958e 043e 59f2 e03d 01db 943e 9720 4c3e
00000020: 2cde 813e 0c94 003f 1fee 0d3f 06c9 d03e
00000030: b726 113f 0f46 083f 2f06 cf3e 1930 8c3e
00000040: 35ff 673e e76f 6c3e 2483 fc3e b24e e23e
00000050: f093 be3e 98f5 063f ba3c ee3e a1ee bf3e
00000060: 88ed 573e 7528 813d dad3 cd3d
0.12126723 0.10551029 0.0839383 0.2831775 0.12945016 0.10983724 0.29073337 0.19934307
0.25364816 0.502259 0.5544147 0.4077837 0.566997 0.532319 0.40434405 0.27380446
0.22655948 0.23089562 0.49318802 0.44200665 0.37222242 0.52718496 0.46530706 0.37486747
0.21086705 0.06306545 0.10050173

data_bn.bias f4 [27]
00000000: 80ab 2d3b 3cec 7a3c b87a 68bc e385 72bc
00000010: 6028 183b d351 b83b f0d3 343d 590d ddbb
00000020: 1a15 a2bc cdaa babc 98d0 70bb 167e 543c
00000030: a655 4eb9 5025 c23b 5c1f 28bc 2658 b43c
00000040: f6d3 2a3d 1822 da3c 55df 643b 0761 a3bb
00000050: cdae d9bb 5039 f0bc 124e c0bc 6bf7 af3b
00000060: 2a1d 853c c83f 033b 4713 02bc
0.0026499927 0.015315112 -0.014189415 -0.014802429 0.0023217425 0.0056249886 0.04414743 -0.006745976
-0.019785453 -0.022786522 -0.0036745425 0.012969514 -0.00019677597 0.005924858 -0.010261383 0.022014689
0.041706048 0.026627585 0.0034923155 -0.004985932 -0.0066431523 -0.029324204 -0.023474727 0.0053700707
0.016249258 0.002002703 -0.007939166

data_bn.running_mean f4 [27]
00000000: 4207 b142 d055 9542 ac9f 8641 f8ea c142
00000010: fa05 a342 96c8 9041 9b02 ae42 c60f 9a42
00000020: b38f 8a41 762d c142 bdeb 9d42 ffc1 8b41
00000030: 759a cf42 1624 9842 7412 8841 616d d542
00000040: 81ff ab42 4003 9741 c60a ff42 5dc1 b842
00000050: 01d1 9f41 f4be fe42 8505 af42 c841 9941
00000060: 933e d342 1123 b842 9f96 9e41
88.514175 74.6676 16.827965 96.95892 81.51167 18.097942 87.00509 77.03081
17.320166 96.58879 78.96043 17.469725 103.801674 76.07048 17.00901 106.71363
85.99903 18.876587 127.52104 92.37766 19.977053 127.372955 87.51078 19.15712
105.622215 92.06849 19.823545

data_bn.running_var f4 [27]
00000000: 6b84 4446 475d a646 8e25 af45 b40d 4d46
00000010: 8dcc b746 9770 c445 0843 1e46 440e a146
00000020: 86ab b145 1d36 4646 9c4c 9746 29a8 ac45
00000030: e5ec 5e46 206e 8946 5c51 a145 65b6 8546
00000040: 6b83 d046 1e72 d845 ddf7 ae46 8afa d546
00000050: 95f8 e545 50d1 a746 b822 ba46 12d0 ce45
00000060: 13c0 8d46 5fe6 c446 35ba da45
12577.1045 21294.639 5604.6943 13123.426 23526.275 6286.0737 10128.758 20615.133
5685.4404 12685.528 19366.305 5525.02 14267.224 17591.062 5162.17 17115.197
26689.709 6926.2646 22395.932 27389.27 7359.0728 21480.656 23825.36 6618.009
18144.037 25203.186 6999.276

st_gcn_networks.0.gcn.conv.weight f4 [24, 3, 1, 1]
00000000: b1ec adbd 46b6 0bbc fb28 5b3c a7f8 0c3e
00000010: 08a9 84bd 2ebc 833d 0199 cf3d 52cf 6bbb
00000020: f20a 4b3d 6680 49bd 4a1a a9bc 72e8 183e
00000030: ad47 0c3d 6413 08bd 18de 83be c540 573e
00000040: cb5f a23e 2c2b 7e3d 2cb3 69be fc45 533e
00000050: c83f bd3d 672e 47be b8b4 8b3d 6098 0abe
00000060: e10b 48bd 4760 8abd 247b 98bc 56e9 88be
00000070: c4f4 e5bd 6b26 373d 8fb5 363e ee10 b9bc
00000080: ffe5 acbc 36cc 1dbe 64d1 0bbe b10f 8c3c
00000090: df71 2ebb c31f 7ebc 5495 643e 143d 23bd
000000a0: cc53 7bbe bf16 12be b7f3 4e3d fdb7 813d
000000b0: 933f 7f3d 5eb3 2d3e 4b62 d4bd 951e 323e
000000c0: 342e c9bc f056 d33b 0f54 c2bb d630 77bd
000000d0: ca09 b8bc 2559 a6bc 62f1 2e3e 2871 03ba
000000e0: 5834 0f3d 39b6 94bd 0023 33bc 6214 983b
000000f0: dec5 46be 76a0 98bc 5468 32bc 3e87 3c3d
00000100: f8a2 3fbd d406 053e 3250 973d c0b4 f7bc
00000110: 3260 bcb9 fe68 e9bd bfcf 1f3e cee4 5d3d
-0.08492411 -0.008527344 0.01337647 0.13766728 -0.06477553 0.06432377 0.10136605 -0.0035981727
0.049570985 -0.049194716 -0.020642418 0.14932421 0.034248043 -0.033221617 -0.25755382 0.21020801
0.3171371 0.06205289 -0.22822255 0.20632166 0.09240681 -0.19451295 0.06821579 -0.13534689
-0.048839454 -0.06756645 -0.018613406 -0.2674052 -0.11228326 0.044714373 0.17842697 -0.02259108
-0.021105764 -0.15409932 -0.13654095 0.017097326 -0.0026618165 -0.015510502 0.22322589 -0.03985317
-0.24543685 -0.1426649 0.050525393 0.06333921 0.06231649 0.16962954 -0.103703104 0.17394479
-0.024558164 0.0064495727 -0.0059304307 -0.060349308 -0.022465605 -0.02030618 0.17084268 -0.0005014115
0.03496203 -0.07261319 -0.010933638 0.0046411017 -0.19411418 -0.018631201 -0.010889132 0.046027415
-0.04678628 0.12990886 0.07388343 -0.030237556 -0.00035929825 -0.11396979 0.15606593 0.054173283

st_gcn_networks.0.gcn.conv.bias f4 [24]
00000000: 5c77 2c3c ae73 7f3d d3bd a03d 52dc 913d
00000010: 4743 8cbc 0bbf 45be a0ac 843b 3885 133e
00000020: 9593 b6bd 3b79 873c 3c2a b23d 1293 29bd
00000030: 59ce d93c ca71 1b3e 19b5 443e d339 adbb
00000040: 9157 85bc b493 34be a726 413d 6bb1 72bd
00000050: dd95 583d 1368 b73c c103 00bc daf3 51bb
0.010526504 0.06236618 0.07848706 0.07122101 -0.017121924 -0.19311158 0.004048899 0.14406288
-0.08914868 0.0165373 0.08699462 -0.041400023 0.026587652 0.15180126 0.19209708 -0.005286434
-0.016277106 -0.1763447 0.047156002 -0.05925123 0.052877296 0.022388494 -0.007813395 -0.0032036216

st_gcn_networks.0.tcn.0.weight f4 [8]
00000000: 9658 583e 9048 c53e 31d1 db3e 1085 b23e
00000010: f6df 883e d990 c73e a0f8 c63e 7b2f c53e
0.21127543 0.38531923 0.42933038 0.34867144 0.2673337 0.38977697 0.3886156 0.38512787

st_gcn_networks.0.tcn.0.bias f4 [8]
00000000: 146a f53c 767d fb3c 3f04 da3c 9fea 6d3c
00000010: f310 48bc 77ba 213d 0ee3 43ba b05d 1bbd
0.029957809 0.030699473 0.026613353 0.01452127 -0.012211072 0.039484467 -0.00074724935 -0.037931144

st_gcn_networks.0.tcn.0.running_mean f4 [8]
00000000: 9c4c 2cbc ad79 9d3a 3e99 cb3c 484e f43a
00000010: f2f5 813b 963b f8bb a4e0 c53c 6462 a43c
-0.010516312 0.0012014412 0.024853345 0.0018639052 0.0039660865 -0.0075754626 0.024154969 0.020066448

st_gcn_networks.0.tcn.0.running_var f4 [8]
00000000: 2935 5e39 dd56 e739 f274 0f3a 20e4 fb39
00000010: b3a1 2438 a738 cc39 bfec 333a 8ec9 0039
0.00021191374 0.00044124472 0.00054724433 0.00048044417 3.925124e-05 0.0003895212 0.0006863586 0.00012282116

st_gcn_networks.0.tcn.2.weight f4 [8, 8, 9, 1]
00000000: 0d85 dd3b f4a4 193c 9094 383c 0cb1 023c
00000010: 415e 873c f886 14bc 9c8c 0b3c e1dc 133a
00000020: d082 923c 8456 ae3c 33ac 69bd 01c8 82bc
00000030: 37a1 38bc 88e1 6fbc 9ce9 073d 2927 903c
00000040: 4f5b 10bb b1d8 d6bc 4a6c 443d e0d9 803d
00000050: ed25 c63c f6de 563d 3d31 c9bc 0d3e b23d
00000060: 2d86 3cbd ce1e 1e3d 438e 6bbd c808 9c3b
00000070: df87 80bc e262 813d 1665 88bc d55d f13b
00000080: 1398 373d 433f fc3c 5878 123d 32cf 1b3b
00000090: 5569 04bd 78b8 18bd 1565 ee3b 1dbb cbbc
000000a0: 1785 0bbd 748a 5c3c d472 843c a426 3dbd
000000b0: deb7 55bc ef76 3bbd af8c 3f3c f531 d13c
000000c0: 81cb a33c 6e6c 043d 30f3 8a3c 79ee f13c
000000d0: a446 c93b ed7a e23c 03a2 bc3c f597 063d
000000e0: 575a f5ba ab78 29bd 968d 07bd 05c7 ecbb
000000f0: 6c0b 15bd 2e89 463d 9123 0abd 21b3 09bd
00000100: 6fbb b3bd 0975 4cbc 0126 a9bd 8090 a1bb
00000110: eafc 83bd 1ccf 87bc 9ce2 48bc b12d b33b
00000120: 0790 923c d30c 2ebc fa82 80b9 487d 233c
00000130: a7b1 f33c f5d0 0dbb 776b 043d 7b7f 073c
00000140: 0a4d 003b 412a f33c 07a7 bd3c abb8 eb3c
00000150: 149f 433a ec9d 22b8 cc77 4d3c 1490 fd3c
00000160: fee9 c2bb 68aa d43c 3a46 013d 557a 8e3d
00000170: 1e68 983d df3b 1eba 672f 8abc e3e6 46bd
00000180: 904a b0ba e911 fd3c 225a 21bc dd45 493d
00000190: f0c7 fabc c2a0 7f3c 9e98 ea3b fda0 fe3c
000001a0: 641d 963c 58c5 083d 0f7c bcbc 8b7e 53bc
000001b0: f85c 5b3c f1ee 21bc 2290 bb3c 8b06 b83c
000001c0: e6d4 fd3c ee50 01bd a36d fa3c 1600 633d
000001d0: c020 453d 7161 4dbc d128 0e3d b1b3 3a3c
000001e0: d200 27bd d5b0 8a3c ef6a adbc f4f3 10bd
000001f0: 0a50 adbc c955 13bd 2a0c 46bd 33c1 08bd
00000200: b254 5abd 2466 66bd 62ed 09bd 5775 fb3c
00000210: c355 a93c 7f71 2cbd 13d1 4b3d 7a6c 953c
00000220: edaf 76bd fe53 75bc e55c 943b 8613 e53c
00000230: 649e 25bd d3dd c53c e8ed 03bd 936e d8bc
00000240: d540 c6bc b609 21bc 0f80 babc ed8b 743c
00000250: 9539 7abc 7c2e cdbc a61a 82bb 9d36 0fbd
00000260: 6e72 00bd ecd3 9aba deb9 57bb 2ed6 bb3a
00000270: 1846 1e3d d9f0 9cbc 83ae f0ba 8ae4 ad3c
00000280: c6fc 0fbd 35e1 cbb8 f7d3 823d 7a07 7abb
00000290: 6554 a23b f9a6 91bd 6a99 613d 869e 26bc
000002a0: 3e87 4a3d fcd7 84bd 85bc 163d c807 e63c
000002b0: 0d08 40bd 007e 14bd e9ce 143d 8423 f13c
000002c0: cf0e 29bd 6431 283c b52a 14bd cf83 883c
000002d0: c677 7cbb e082 37bb a5a5 253d a8dd 8c3c
000002e0: 5960 6ebd 8c20 82bc 6ab4 22bc 0875 23bc
000002f0: 4b29 913c b8df 23bd 8966 9abd 9f78 6d3d
00000300: 4c9d 29bd 4d91 34bd 5431 a5bb b9ea 103d
00000310: b5cb 1cbd c6a3 783d b8a1 073d 8c48 01bd
00000320: ebe0 a6bd 7566 453d 9be3 9e3d a559 993c
00000330: 0778 03bd 5b3d 1b3d c59a 5a3d 2cbb 75bd
00000340: b7f5 e3bc 8624 91bd 2084 d53c 84d2 75bb
00000350: b8b3 2e3d 19e1 3cbd 1998 19bd 0344 ef39
00000360: 081f 43bc 71be 62ba ce3b 923c de05 003c
00000370: 8f32 8b3c 2441 d5bb 9970 933b fed7 ecb9
00000380: 4a19 1d3c 4735 ad3a eeee 753c 7fc5 bdbc
00000390: f09a 5bbc 4afc 033d 2a62 e03c e230 0c3d
000003a0: 8a60 40bc 563f 843c 23b2 493c 0b29 3b3c
000003b0: ef8a 9cbc b3d9 8abc 39b3 5dbb f0f2 bcbb
000003c0: b1e9 3d3c c2a6 d5bb 54fa 28bd 23ef bc3c
000003d0: 5ef9 02bd 81c6 1dbd 51a3 34bd b759 0abd
000003e0: 3e3f 81bb 2f5e 90bc a311 58bc a4ce 8b3c
000003f0: 3856 0cbc c7e9 0bbd 8856 6739 1f38 903c
0.0067602457 0.009377707 0.011265889 0.007976782 0.016524436 -0.009065382 0.008517411 0.00056405185
0.017884642 0.021281488 -0.057048988 -0.01596451 -0.011268905 -0.014641173 0.03318177 0.017596798
-0.002202708 -0.026226373 0.047954835 0.06291556 0.024188006 0.052458726 -0.024559611 0.087032415
-0.046026397 0.038603596 -0.05750872 0.004761789 -0.015689788 0.063176885 -0.016649764 0.007365922
0.044822764 0.030791884 0.0357593 0.002377462 -0.032327015 -0.037285298 0.0072752335 -0.024869496
-0.03406247 0.013460744 0.016168036 -0.04617943 -0.013044326 -0.04576772 0.011691256 0.025536517
0.0199945 0.03232997 0.016961664 0.029532658 0.006142454 0.027646506 0.023026472 0.03285976
-0.001871894 -0.041374844 -0.03309401 -0.0072258734 -0.036387846 0.04847067 -0.033725325 -0.033618096
-0.087759845 -0.012479075 -0.08259202 -0.004930556 -0.06444724 -0.01657825 -0.012261059 0.0054680933
0.017890943 -0.010623175 -0.00024511648 0.0099786 0.029747797 -0.002163944 0.03232905 0.00827014
0.001957717 0.029683234 0.023150934 0.02877458 0.0007462364 -3.8770886e-05 0.012540769 0.03095249
-0.005948304 0.025960162 0.031561114 0.06956927 0.07441734 -0.0006036143 -0.016868306 -0.048560034
-0.0013449956 0.03089233 -0.0098481495 0.049138892 -0.030612916 0.0156022925 0.0071593067 0.031082625
0.018324561 0.033391327 -0.023008374 -0.012908588 0.013388865 -0.009883628 0.022895876 0.022464057
0.030985307 -0.03157132 0.030569857 0.055420004 0.048126936 -0.012535439 0.034706894 0.011395381
-0.040772267 0.016930023 -0.021169154 -0.0353889 -0.02115633 -0.035970483 -0.048351444 -0.033387374
-0.053303428 -0.056249753 -0.03367365 0.0306956 0.020670777 -0.042100426 0.049759936 0.018240202
-0.06022637 -0.014973639 0.0045276755 0.027963411 -0.040434256 0.024153626 -0.032209307 -0.026419913
-0.024200836 -0.009828975 -0.022766141 0.014925939 -0.015272518 -0.02504658 -0.003970462 -0.034964193
-0.03135913 -0.0011812425 -0.0032917182 0.0014330798 0.038641065 -0.019157814 -0.0018362555 0.02122714
-0.035153173 -9.7217424e-05 0.06388085 -0.003815143 0.0049539083 -0.07111926 0.055077948 -0.010169631
0.049445383 -0.06486508 0.03680088 0.028079882 -0.046882678 -0.036252975 0.036330137 0.02943588
-0.04127389 0.010265682 -0.03617354 0.016664414 -0.003852354 -0.0028001592 0.040441174 0.017195538
-0.058197353 -0.01588466 -0.009930709 -0.009976633 0.017719885 -0.040008277 -0.07539088 0.05797636
-0.041409776 -0.044083882 -0.0050412808 0.0353801 -0.038280208 0.06070306 0.03311321 -0.031563327
-0.081483684 0.048193414 0.07758256 0.018719504 -0.03209689 0.03790031 0.053370256 -0.059992954
-0.027827127 -0.070870444 0.026063979 -0.003750951 0.042651862 -0.046113107 -0.037498567 0.00045636305
-0.011909254 -0.0008649594 0.017850783 0.007813899 0.016991882 -0.0065080095 0.0044995067 -0.00045174354
0.009588549 0.001321473 0.015010579 -0.023165463 -0.013403639 0.032223023 0.027390558 0.034226306
-0.011741767 0.016143482 0.0123105375 0.01142336 -0.019109217 -0.01694951 -0.003382875 -0.005766265
0.011591361 -0.006520123 -0.041254357 0.023063248 -0.031976096 -0.038519386 -0.044101063 -0.033776965
-0.0039443066 -0.017623035 -0.013187799 0.017066307 -0.008565478 -0.034158494 0.00022062112 0.017604886

st_gcn_networks.0.tcn.2.bias f4 [8]
00000000: 63c4 9bb6 e0d2 abb7 2ad3 3e37 3225 35b7
00000010: 05d4 f437 544b 0438 19f4 2ab8 08be 5cb6
-4.6422224e-06 -2.0482985e-05 1.1374048e-05 -1.0797101e-05 2.9185796e-05 3.1541407e-05 -4.0758492e-05 -3.2893167e-06

st_gcn_networks.0.tcn.3.weight f4 [8]
00000000: df04 c53e dc79 b63e 87d9 a33e 3f37 623e
00000010: 2bd9 753e 5225 c23e a6bf cd3e 23df aa3e
0.3848028 0.35639846 0.32001898 0.22091387 0.24008624 0.37919098 0.4018528 0.33373365

st_gcn_networks.0.tcn.3.bias f4 [8]
00000000: 8d8c 14bd c695 db3b c752 903c 499b 863c
00000010: b202 d83b f10e 293c d86d e43c 7ef1 42bb
-0.036266852 0.006701204 0.017617596 0.016431468 0.006592118 0.010318504 0.027884409 -0.0029745991

st_gcn_networks.0.tcn.3.running_mean f4 [8]
00000000: a126 793c ced2 d33c 038b 08bd 9099 05bd
00000010: f47b fb3c d18c 093d f267 b3bc 7091 213c
0.015206964 0.025857355 -0.033335697 -0.03261715 0.030698754 0.03358156 -0.02190015 0.009861335

st_gcn_networks.0.tcn.3.running_var f4 [8]
00000000: 42cb 0e3c 368d b03b 3018 353b f754 873a
00000010: 29ec 313b 4233 db3b d6dd e43b f254 843b
0.008715453 0.0053879274 0.0027632825 0.0010325004 0.002714882 0.00668946 0.0069844527 0.0040384466

st_gcn_networks.1.gcn.conv.weight f4 [24, 8, 1, 1]
00000000: e453 75bc 2aec 2dbd a464 3e3d 6260 663d
00000010: fb88 bbbc e58d e7bb 8a78 db3b a200 373d
00000020: d121 f43b fb80 8dbc ce7e ad3d 3b44 d2bc
00000030: ba71 083d e7fa 1bbd 132b 943d b8ff 563c
00000040: 7a23 8e3d 1e6d 81bd 71d4 12bd 44e7 803d
00000050: 50bd 953d b09b a03d c327 d7bc 976f c8bb
00000060: 0f88 4a3c 56b1 fabc d025 1bbd 85b3 debc
00000070: 938b a3bd 8b48 c2bd 2d1b 023d 0969 b5bd
00000080: ba32 8ebc 2f64 103c efa8 913d 037b f3bc
00000090: 7054 a93c c9a9 57ba 132d df3c bd17 3d3c
000000a0: 7dcc 823c e36c cabd bae4 123d f14b 4abd
000000b0: 0182 7abb 3bd0 cc3a 1d9f aebd 1823 9c3c
000000c0: 257f 10bd d277 03bd 5be0 8f3d c42f 863c
000000d0: f770 103d 950b 963c 861e 38bd b8fb 9dbc
000000e0: 1651 88bc 9ff1 21bc 7d98 63bc 8183 05bd
000000f0: 3513 5bbc 8dd7 673d 5a2d 113c 7b2d 7b3d
00000100: cc18 85bc d912 943d f774 343c 342c 82bc
00000110: 5fa1 19bd 1d31 c13b bf7e 873d d454 e23d
00000120: 7813 6cbd af34 5fba 8d96 30bd 6155 49bd
00000130: 6758 c4bb 746a 78bc 25c4 633d 2e05 0cbb
00000140: 5b71 253c 4ee5 debb b6d8 833d 9147 57bc
00000150: 44df 46bd 90f9 d4bd 73fe d53d f646 4fbd
00000160: 67cf abbc d85f 093e e724 a43d 7ee9 a73c
00000170: bcf2 85bd 0988 9f3d 7fef 23bd afb1 c2bd
00000180: e2ac 05bd 1593 8ebc f6fa 983d 97f5 333d
00000190: 03ac 36bb 32a1 ae3c a76c edbc 26f7 173d
000001a0: 306c b43d 60bb 35bd b8a9 8a3b 8463 65bd
000001b0: d7a8 dd3c 10cc adbd eae7 9b3d 2724 693d
000001c0: 4c18 bebd 1e5d febd 1aef 243d 7cb5 6f3d
000001d0: 9102 a3bd b89a 97bc 79bd ee3c c58d 933d
000001e0: d852 413d 3cc8 d73c 2639 48bc a52a ce3b
000001f0: c50f ce3a 21b5 213c 9cd3 f23c 26c8 523b
00000200: 0382 86bc 66a2 6fbc 9273 65bc 6a87 1b3d
00000210: 791f 4ebb 8359 113d 3769 5ebd 0c4b 40bc
00000220: bd35 003d ce03 d73c a2ae da3b da8a 5dbd
00000230: 9462 d43b dfc2 473d 545a 653d 8a97 263d
00000240: 949d 793b 0c57 b23b 1e9e ffbb 9b01 c8bc
00000250: aa21 4cba 84af 75bd 5038 9a3d 2f77 cf3c
00000260: 7742 b93d 5761 cdbc c8e4 febc 7fbe 11bd
00000270: 0e4f 16bd b04e 06bd 4390 153e 0595 2bbc
00000280: 87b8 c03c b795 d4bc 0dc2 e63b d39c abbc
00000290: 41be da3b 6e30 053c 0335 bc3b 8f00 5dbc
000002a0: b498 4ebc a352 06bd a004 1bbd c951 573c
000002b0: f735 b7bc a56c 6ebd ead8 02bd 2381 f7bb
000002c0: 4a79 8c3d 71dc c43c 8007 c83c ff48 8ebd
000002d0: 9e44 183d 5420 3a3d 24d1 51bc aa24 c8bc
000002e0: 7739 183c 5596 0fbd 5180 2c3d ae35 81bc
000002f0: 548f 52bb 70e7 fdbc 2606 45bc a9c7 ac3d
-0.014973614 -0.04246155 0.046482697 0.05624426 -0.022892466 -0.0070664757 0.006697719 0.044678338
0.0074503203 -0.017273417 0.08471452 -0.0256673 0.033311583 -0.038081076 0.07234778 0.013122492
0.0694036 -0.063196406 -0.03584713 0.062941104 0.07311499 0.07842195 -0.026264077 -0.006116818
0.01236154 -0.030602138 -0.037877858 -0.027185211 -0.07985606 -0.09486493 0.031764198 -0.088579245
-0.017358173 0.008812948 0.071123 -0.029721742 0.020670146 -0.0008226899 0.027243173 0.011541304
0.015966648 -0.0988405 0.035862662 -0.04938883 -0.003822446 0.0015626022 -0.08526442 0.019059703
-0.035277504 -0.03209669 0.07025214 0.016380198 0.03526398 0.01831607 -0.044950984 -0.019285068
-0.016640227 -0.009884267 -0.0138913365 -0.032596115 -0.0133712785 0.05660205 0.00886091 0.06132267
-0.016247176 0.072301574 0.011014215 -0.015890218 -0.03750741 0.0058957473 0.06615972 0.11051336
-0.057635754 -0.00085146254 -0.043112326 -0.04915369 -0.0059919837 -0.015162099 0.05560698 -0.0021365392
0.010097827 -0.0068022376 0.06437819 -0.013139621 -0.048552766 -0.10399163 0.10448923 -0.050604783
-0.02097292 0.13415468 0.08014851 0.02049708 -0.065404385 0.077896185 -0.040023323 -0.09506547
-0.032635577 -0.017404119 0.07469742 0.043935385 -0.0027873523 0.021317098 -0.028982474 0.037100933
0.08809698 -0.044368148 0.004231658 -0.05600311 0.027058048 -0.084861875 0.076125935 0.056919243
-0.09281978 -0.124201044 0.040267088 0.058522686 -0.07959474 -0.018506393 0.029143082 0.07204775
0.047198147 0.026340596 -0.0122206565 0.0062917047 0.0015721252 0.009869845 0.029641919 0.0032162755
-0.016419416 -0.014626121 -0.014004605 0.037970938 -0.0031451865 0.035485756 -0.05429956 -0.011736643
0.03130125 0.026246931 0.00667365 -0.054087497 0.006481478 0.048769828 0.055994347 0.040671863
0.0038088309 0.0054425057 -0.0078008315 -0.024414828 -0.0007786999 -0.059981838 0.07530272 0.025325386
0.0904588 -0.02507083 -0.03111495 -0.03558206 -0.036696486 -0.032789886 0.14605813 -0.010472541
0.02352549 -0.025950296 0.0070421756 -0.020948803 0.006675512 0.008129222 0.005743624 -0.013488903
-0.012609649 -0.032793652 -0.037846208 0.013142058 -0.0223646 -0.05820908 -0.031945147 -0.007553236
0.068590716 0.024030896 0.024417639 -0.06947517 0.037174813 0.045440987 -0.012806211 -0.024431545
0.009291044 -0.035055477 0.04211456 -0.015772667 -0.0032128887 -0.030994147 -0.012025392 0.0843652

st_gcn_networks.1.gcn.conv.bias f4 [24]
00000000: 04d1 bd3b 78fd 853c 94a4 aebb ca8b 2d3d
00000010: f599 013c a8ec babb 9475 eb3b d618 bc3a
00000020: cb38 9abd 1598 edbb b0b4 1b3c 292b b53b
00000030: 0e5c 55bd 3303 8a3c 43cd 6d3d 42f5 f53a
00000040: b5ae a8bc b75c 3fbd ff44 b13b eae0 a73c
00000050: 2b53 0b3c c596 debc e28d 8e3c 9214 7bbc
0.005792739 0.016356215 -0.005329678 0.04236964 0.007910241 -0.005704481 0.0071856473 0.0014350663
-0.07530364 -0.0072507956 0.0095035285 0.0055288267 -0.052089743 0.016847229 0.05805708 0.0018765109
-0.02059112 -0.04671928 0.0054098363 0.02049299 0.0085037155 -0.027171502 0.01740164 -0.015324729

st_gcn_networks.1.tcn.0.weight f4 [8]
00000000: b0bf 753e f483 623e 96e9 a23e 794b ac3e
00000010: 9dd1 2d3e 046d 893e b11e a23e 8965 863e
0.23998904 0.22120649 0.31818837 0.3365133 0.16974492 0.26840985 0.3166404 0.2624934

st_gcn_networks.1.tcn.0.bias f4 [8]
00000000: 6f2e 34bc efda 273b 3520 d33c 506e 8a3c
00000010: 03df 26bc 0a0e 18bc 2e54 01bd 767b 86bc
-0.010997399 0.0025612672 0.025772193 0.016898304 -0.010185006 -0.009280691 -0.03157442 -0.016416293

st_gcn_networks.1.tcn.0.running_mean f4 [8]
00000000: 4a9b 0ebb 4196 db38 babc 2f3a 2017 233b
00000010: 7b91 a8ba 6aae a5ba 8be9 503b 7939 cd3a
-0.002176004 0.00010470721 0.00067038427 0.002488561 -0.0012860739 -0.001264048 0.0031877484 0.0015657387

st_gcn_networks.1.tcn.0.running_var f4 [8]
00000000: 0255 dc36 8118 1637 f663 d237 844a 9037
00000010: 9160 2237 9762 2737 8fd6 0338 d99f 8037
6.566407e-06 8.946402e-06 2.5080499e-05 1.7200837e-05 9.678436e-06 9.97693e-06 3.1432657e-05 1.5333224e-05

st_gcn_networks.1.tcn.2.weight f4 [8, 8, 9, 1]
00000000: 84ac ca3b f16c 35bb 0d38 1fbc bf20 ccbb
00000010: fce7 643a b80b a0bc 04ef cf3a a60a 1a3c
00000020: 22de 123d 120f aabc 8273 80bc 6e5b 843c
00000030: 7d23 1b3b 60a6 24bd dd8f bfbb 7e34 363c
00000040: b7ec 693c 05b7 3cbc 3a3d 9b3c eed8 afbb
00000050: d682 f93c e333 cdbc 43f8 f13b ba5e 0fbc
00000060: ad77 053d 1bbb 0bbd 7bb4 20bd e148 463c
00000070: ba98 5c3c 62b7 3b3c 8db1 e33b 30e5 be3a
00000080: 074e e83c 4645 25bd a6b4 0fbd 452c 0ebd
00000090: 601d 35bc 9c66 0ebc 6f63 8dba 254e bdbb
000000a0: 7004 fd3a fbb9 223d 0c15 cb3c 505b 493c
000000b0: 9a0b d83c 9911 8bbc ea4f cebc 1adf ce3c
000000c0: 7328 4c3c ac86 b3bb d6b7 33bc 8840 94bb
000000d0: d3e7 99bc 44de 15bc abe5 9abc 788a 393b
000000e0: 58ba 923c 000b 8ebc 1bce b53c acce 0c3d
000000f0: b96f ee3c 4900 04bb 11a4 cc39 4350 3e3c
00000100: 6f43 5b3c fe1b d7bc cfb9 2bbd 0e2f fd3b
00000110: 1ca5 7ebc 883f 09bc eada 143c 4db5 9a3b
00000120: fda6 1dbc 29bd e0bc b29d f7bb dcb8 f3bb
00000130: 2655 e5bc 127e a8bc cc3b e13b 8866 7dba
00000140: 8958 b9bc 159c c4bc e0cd aabc 9533 72bb
00000150: 3da2 1cbd 531d e33c b201 593c 538c f83c
00000160: 1fa3 97ba 3306 c33c 320d 78bc 01f9 40bc
00000170: 6a23 3f3c 76cc bb3b 45fb b43c f0ee 133d
00000180: 0a55 033c c182 023d 9832 173d 3be4 943c
00000190: c0bf 1d3d b490 853b ac7c c43c 79cb 953a
000001a0: 9438 4c3d 83fd 823c c988 333b 57c1 f23c
000001b0: af1f ecbc 9a40 e7bb cde4 ecbb 1e6c c7bc
000001c0: d71c df3a c983 7dbc 71be d83b 9d6a a4bc
000001d0: dba5 d13c 1018 29b9 3935 86bc 0be7 b03a
000001e0: 2445 7abc 714c 5fbc b1dc b6bb a049 1c3b
000001f0: 5723 1f3c 43ee aa3c b7b1 80bc f466 9a3b
00000200: 1c22 da3c 79b4 b8bc c930 7e3c aaf6 123c
00000210: f133 b73c 4f65 a9bc 604d 1c3d c458 17bc
00000220: 5ceb 64bc 6431 93bc 6584 8ebc dc5e e7bc
00000230: 683a a53b 8b14 473c 9bb1 21bc 0c8c 90bb
00000240: b850 743c e18e 80bd 56bb 06bd 270f 86bb
00000250: 8fb2 c4bc 77ff 803b a401 aabb 81b2 1abd
00000260: ab87 14bd f905 5b3d b372 f7bb e940 a03a
00000270: 2a9d 9b3b f22b 84bc a679 e4bc 9f45 b9bc
00000280: 08d8 473c d0f2 e0bb 87da 1b3d 4237 0fbd
00000290: 948e 993c 63af 333d 070f 9dbc de35 803c
000002a0: afdc bf3c 4b01 043c b023 c6ba a7af d1bc
000002b0: 0758 b83c 2af4 3bbd 5536 023c d20b babc
000002c0: aec8 dabc 0d45 5abd a716 513c 78ac dc39
000002d0: b815 563b c871 273d 8f76 ebbc 54cf 123d
000002e0: 81ba f3bb 5dcc a53c 6959 943c b0e6 f5bb
000002f0: e255 613c 10ca cb3c dcb0 06bd 2886 f73c
00000300: fb18 c2bb 23c3 38bb 09a3 31bd 4d4c 2c3c
00000310: 341a 5dbd f6fd 0ebd 8257 a93a dbf4 f4bb
00000320: 6860 a23c ab0c 4a3d 51ea fe3b 936f cdbb
00000330: 91d4 253c 82b1 723c 00df 323d 73f2 053c
00000340: e4b2 193d c5b3 bd3c 9f26 01bc 3cbe 063c
00000350: cba9 1dbc 75e5 0538 6290 28bc f3e3 a4ba
00000360: 7905 343c 1b22 1ebc 4f72 dd3c 0010 37bc
00000370: a674 09bd 2459 4739 29ba f0bc 0e5b 1dbd
00000380: bcaf ae3c ac52 5e3d 8cc2 1c3c 468d 1d3c
00000390: b823 883c cc25 343d 2755 353c 2c83 e1bc
000003a0: 77a4 1dbd 7b97 b43c 9aa8 de3b 6fdc 963c
000003b0: 4ab7 d03c 6a66 e6bc ec24 833c 57d8 443c
000003c0: ab76 833c 220e 383c 07cb 353d d5dc a2bb
000003d0: fcf5 73bb 373a 8abc cecb b43c b67d b63a
000003e0: a589 4cbc 6309 4bbc 1289 cd3c e55f 47bd
000003f0: dd8e fdba 14df 0b3c d58d 10bc 0f89 04bd
0.0061851162 -0.0027683342 -0.009717953 -0.0062294896 0.0008732078 -0.019536838 0.0015864079 0.009401953
0.035856374 -0.02075914 -0.015680078 0.016156878 0.0023672276 -0.04019773 -0.0058460073 0.011120914
0.014277629 -0.011518245 0.018950094 -0.005366436 0.030457895 -0.025049156 0.0073843314 -0.008750612
0.032584835 -0.034113985 -0.03923462 0.012102337 0.013464147 0.011457296 0.006948656 0.0014564153
0.028357519 -0.040349267 -0.03508439 -0.034710187 -0.011054367 -0.008691456 -0.001078708 -0.005777138
0.0019303691 0.039728146 0.02479031 0.012289837 0.02637272 -0.016976165 -0.02518459 0.025252867
0.012460816 -0.0054787006 -0.010969123 -0.0045242943 -0.0187873 -0.009147231 -0.018908342 0.0028311294
0.017911121 -0.01733923 0.022193005 0.034376785 0.029106008 -0.0020141772 0.0003903215 0.011615816
0.013382777 -0.026258465 -0.041925248 0.0077265566 -0.015542295 -0.008376963 0.009085396 0.00472132
-0.009622333 -0.027433949 -0.0075566405 -0.0074378084 -0.027994704 -0.020567928 0.0068735834 -0.00096664624
-0.022625225 -0.024000207 -0.020850122 -0.0036957015 -0.03824066 0.027723944 0.013245033 0.03034035
-0.0011569 0.023806667 -0.015139865 -0.011778117 0.011666158 0.0057311608 0.02209247 0.03611654
0.00801588 0.031862978 0.036913484 0.018175235 0.038512945 0.004076088 0.02398523 0.0011428437
0.049858645 0.015990024 0.0027394763 0.029633207 -0.028823702 -0.0070572617 -0.0072294236 -0.024343546
0.0017022145 -0.015473315 0.0066144993 -0.020070368 0.025591781 -0.0001612606 -0.0163828 0.001349659
-0.0152752735 -0.013629065 -0.0055805077 0.0023847595 0.0097130155 0.020865565 -0.015709741 0.00471198
0.026627593 -0.022546994 0.015514561 0.008969942 0.022363635 -0.02067819 0.038159728 -0.009237472
-0.01397213 -0.017967887 -0.017397115 -0.028243475 0.005042363 0.012150894 -0.009869005 -0.004411226
0.014911823 -0.06277252 -0.0328935 -0.004091162 -0.024010925 0.003936704 -0.005188184 -0.03776789
-0.036262196 0.053472493 -0.007551515 0.0012226376 0.00474896 -0.016134236 -0.027890038 -0.022616206
0.012197502 -0.006864883 0.0380502 -0.034964807 0.018744744 0.043868434 -0.019172205 0.015650686
0.02342066 0.008056949 -0.0015116837 -0.025596453 0.022502912 -0.04588715 0.007947524 -0.022710714
-0.02670702 -0.05328851 0.012761748 0.0004209017 0.0032666754 0.040879995 -0.028743057 0.035842255
-0.0074380045 0.02023905 0.01810904 -0.0075043067 0.013753386 0.024876624 -0.03288351 0.030215338
-0.005923388 -0.0028192482 -0.043368373 0.010516238 -0.053980067 -0.034910165 0.0012919756 -0.007475478
0.01982136 0.049328487 0.0077793975 -0.006269404 0.010121481 0.014812829 0.0436697 0.00817548
0.03752412 0.02315701 -0.007882743 0.008224066 -0.009623001 3.192337e-05 -0.01028833 -0.0012580141
0.010987633 -0.009651686 0.027032046 -0.011173248 -0.03355851 0.00019011326 -0.029385643 -0.038416915
0.021324031 0.05427806 0.009567868 0.009616202 0.016618595 0.04398136 0.011067665 -0.027528368
-0.038486924 0.022044888 0.006795001 0.018415658 0.025478024 -0.028125007 0.016008817 0.01201447
0.016047796 0.011233838 0.044383075 -0.004970173 -0.0037225476 -0.016873462 0.022069838 0.0013922963
-0.012483989 -0.012392375 0.025089774 -0.048675437 -0.0019344945 0.008537073 -0.008822878 -0.03235727

st_gcn_networks.1.tcn.2.bias f4 [8]
00000000: d22a bbb7 7356 0638 9007 79b7 347d 02b7
00000010: b761 f736 82c7 c4b6 8cc1 b1b7 9084 c536
-2.2312077e-05 3.20286e-05 -1.4843317e-05 -7.777755e-06 7.372549e-06 -5.864481e-06 -2.1190172e-05 5.88649e-06

st_gcn_networks.1.tcn.3.weight f4 [8]
00000000: 963a 683e 8388 8c3e 8224 a63e 59db a03e
00000010: a133 683e e9c1 b63e 11d9 963e 1424 433e
0.22678599 0.274479 0.32449728 0.3141735 0.22675945 0.35694817 0.29462484 0.19056731

st_gcn_networks.1.tcn.3.bias f4 [8]
00000000: 2c4b 263c c405 1cbc c77d 8bbc 4b57 b3bc
00000010: 5400 e1ba 63e1 87bb 3b98 4bba 396d 103c
0.010149758 -0.009522859 -0.017027749 -0.02189221 -0.0017166235 -0.0041467412 -0.00077665196 0.008815103

st_gcn_networks.1.tcn.3.running_mean f4 [8]
00000000: bbae cabb c99c 953c 40ab d9bb b262 033c
00000010: bc2b a0bb c718 ec3b c9e8 8dbc 6a0f 24bc
-0.0061853803 0.018263238 -0.006642729 0.008019136 -0.004888026 0.007205102 -0.017322915 -0.010013441

st_gcn_networks.1.tcn.3.running_var f4 [8]
00000000: 0af6 063a a613 0d3b 8799 a13a d350 643a
00000010: c85a cb39 ad75 e43a ba16 793a c8f4 823a
0.0005148357 0.0021526604 0.001232908 0.00087095535 0.00038786815 0.001743009 0.0009501983 0.0009991163

st_gcn_networks.1.residual.0.weight f4 [8, 8, 1, 1]
00000000: b40d 28bd a1a5 7abd 094a e0bd 0f97 4abc
00000010: 71f3 84bd 2a70 063d a529 623d efcf 98bc
00000020: 26c1 a2bd d336 4abd 81f6 8bbc 1dad afbb
00000030: 42be 05ba ad0a c63d 76b8 cf3d ef95 cdbd
00000040: 23b5 06be 6fdf 57bb 4c4b 953d af39 b0ba
00000050: 0326 2abd 6465 6d3d 1444 4bbc 6bac 7cbd
00000060: 48c9 a73d 61e0 7a3c 792c 76bd 51eb cabb
00000070: 946f a7bc 92cf 0bbc e162 893d 0d12 b03d
00000080: d224 1cbd 7b19 da3c 61cf c0bd 59bf 2b3c
00000090: 9f9e 1f3d 2994 16bd f11d d23d 9927 803d
000000a0: 3cd3 003e 4f46 e73c 2c01 dc3d 5c51 31bc
000000b0: 5ebc 80bd ac73 4bbd e5f9 09bd 8fad a6bd
000000c0: cd4b b63c 0855 a73c 56f1 a1bd a73c dd3c
000000d0: d777 74bc 53ad 01bd c186 78bd 1fa5 733c
000000e0: f99a 88bc eaa9 e63c 99af 883d c21d 12bb
000000f0: 9f72 823d f536 cc3d 2b31 d1bd f26d 1fbd
-0.041028693 -0.061193112 -0.10951621 -0.012365117 -0.06491745 0.03282181 0.055215497 -0.018653838
-0.079469964 -0.04936869 -0.017085316 -0.005361213 -0.0005101898 0.09670005 0.10142605 -0.10038363
-0.13155036 -0.0032939573 0.07289752 -0.0013444925 -0.041540157 0.05795802 -0.012406368 -0.061687868
0.08192688 0.015312285 -0.060101006 -0.0061926027 -0.020438947 -0.008533375 0.06708313 0.08597193
-0.038121052 0.026623478 -0.094145544 0.010482633 0.038969632 -0.03676239 0.10259617 0.06257553
0.1258058 0.028231768 0.10742411 -0.01082262 -0.06285928 -0.04967086 -0.033685584 -0.081385724
0.022252942 0.020426288 -0.07907359 0.02700646 -0.01492115 -0.031659435 -0.060675386 0.014870911
-0.01667546 0.028157193 0.066741176 -0.002229557 0.063695185 0.0997142 -0.10214456 -0.03892321

st_gcn_networks.1.residual.0.bias f4 [8]
00000000: acbe 84b7 d0b9 d637 b274 a6b7 a34d 9cb7
00000010: dbb6 4d37 fce1 3bb7 ae9d 26b8 58da 7c37
-1.5824415e-05 2.5597314e-05 -1.9843083e-05 -1.8632802e-05 1.22615265e-05 -1.1198685e-05 -3.9724335e-05 1.5071208e-05

st_gcn_networks.1.residual.1.weight f4 [8]
00000000: 5970 743e 65fc 673e 6303 933e 34ef 743e
00000010: ba87 6e3e 8683 883e 867d b93e 418c 2d3e
0.23870982 0.22654875 0.2871352 0.23919374 0.23293963 0.26662844 0.3622858 0.16948034

st_gcn_networks.1.residual.1.bias f4 [8]
00000000: 2c4b 263c c405 1cbc c77d 8bbc 4b57 b3bc
00000010: 5400 e1ba 63e1 87bb 3b98 4bba 396d 103c
0.010149758 -0.009522859 -0.017027749 -0.02189221 -0.0017166235 -0.0041467412 -0.00077665196 0.008815103

st_gcn_networks.1.residual.1.running_mean f4 [8]
00000000: 118f afbc b498 e3b9 74ec 27bc 68c5 ab3c
00000010: d96a 143c 4c51 dc3a 7472 7bbc 705d 343c
-0.021430524 -0.00043410587 -0.010249246 0.020968154 0.009058678 0.0016808896 -0.015347112 0.011008605

st_gcn_networks.1.residual.1.running_var f4 [8]
00000000: ec16 563a c45e ce3a 1bfe 7d3a 50ea 913a
00000010: 5499 a83a 2b75 ca3a ff57 493a 9c08 593a
0.0008166868 0.0015744795 0.0009689049 0.0011132453 0.0012863078 0.0015446296 0.0007680654 0.0008279176

st_gcn_networks.2.gcn.conv.weight f4 [48, 8, 1, 1]
00000000: 7439 ae3c 3d40 4dbd 0388 233c 5449 1dbd
00000010: 0456 713d 5873 ee3b 08b4 81bd 842d 81bc
00000020: dc75 a6bc bd83 94bc dc38 a4bb 067b d5bc
00000030: bef2 73bc 3a5d 5e3c 59c0 6d3c 30e6 57bb
00000040: 62e7 2f3c 68aa dcbc ed5e 043c d63c 13bd
00000050: c0d8 69bc ea8f f03b d97e 16bc 4004 903c
00000060: f7af 21bb 4866 1dbc 28e0 8bbc e056 8bbc
00000070: 0a02 d23c 3c80 3ebd 890c 88bb 5c42 6f3c
00000080: 2954 8dba 2173 963b 455c e9bb 0b12 48bb
00000090: d02b b6bc 7f39 103d c2d7 73bb 991b 62bc
000000a0: da4e 443d c2fa 973a f114 9ebd 673f bbbc
000000b0: 0203 c83d 3d7f 55bc c63c c9bd d4fb 9fbc
000000c0: 298e 14bd d162 8fbd 0432 89bd f63f c33b
000000d0: 20d6 19bd b536 763d 9776 b2bd 2c22 003d
000000e0: 8398 cbbc 0a53 0cbd dd68 0c3d 4ad4 963a
000000f0: dab4 073b e0d0 d3bc eed3 89ba 6916 3d3c
00000100: 9521 88b9 85bf 0fbd 71ee eebc de93 793b
00000110: 09fa 56bd bba8 5f3d 39bc 8dbc 6e20 dfbc
00000120: e9da bbbb 4c30 b7bc 50f5 cc3c a136 923c
00000130: ff63 be3c 9e6e 0cbd e09b 6a3b 1d8c 203c
00000140: e544 97bb cec4 f2bc f2f1 c53c 8a9a 1e3b
00000150: 7478 403d 4198 5d3d 86f1 303c 2c0c 69bb
00000160: 765d fc3c f947 62bd 4812 4bbd 76fd 1d3d
00000170: 40ad 32bc 142a 93bc 48a0 383c d324 2ebc
00000180: 5ee1 053d 66e3 2abd 7d34 9fbb 2fc9 973d
00000190: 4775 0ebd c55a 1b3c 0a43 fb3b 4a57 d5bb
000001a0: f8e5 27bb 67d0 01bd 40a8 8c3d 808d 90bc
000001b0: d870 d6bc 1f4b a23a 19e6 443b 6eb2 bb3c
000001c0: b98c a6bc b28f c13c 9cb6 053d 4f3f 35bd
000001d0: 3e46 c03c 3068 223d a0c3 983c f449 193c
000001e0: a37d c3bc ca40 293b 782d 74bc ddf0 8cbc
000001f0: 0449 a4bc 44df 0d3c 3420 adbb 2d3d 3abb
00000200: d4a2 f83c 8939 07bd 2600 093d 52d4 43bd
00000210: 4866 273d ba95 b73d 4713 b13d 3697 a4bc
00000220: bdd6 a7bc 86e6 17bd d0a0 89bc 140d ecbc
00000230: cbe6 96bc 4c33 843c 6a48 353d 962f 773c
00000240: ff42 313c d38b 203b f85c 753d bbcb 23bc
00000250: 74af 4b3d cce1 abbb 5fb2 503c b842 f9bc
00000260: cea5 df3c 9c2e 263d a59e ddbb 1a06 c4bc
00000270: ccce 203d 0cc3 27bd 1814 0abd 399e e4bc
00000280: 9c23 3cbc de1b 8dbc 6ada c33c 0af8 a9bc
00000290: e05b 5fbc 0f0c 2f3d 54b0 993c 07f2 3e3c
000002a0: d975 9a3c 6d44 3c3d c3cb b9bc 7564 26bd
000002b0: 09b3 bf3c d83a e5bd c28a a03c 7a7e 23bc
000002c0: bb0e 813d 03de 113d d809 88bd 0367 203d
000002d0: 8945 933d e169 13bd 2b60 bcbc cdef f2bc
000002e0: 798d 26bb 71f0 5dbd a2d1 0b3d db4e 963c
000002f0: 74e8 08bd 14c3 2a3d 0305 83bb 8f64 363d
00000300: 99ae ea3c cbcb 4a3d a64a 0cbd baf4 d13c
00000310: b3e2 6f3d 539d cf3b a9a6 293d 5c56 5dbc
00000320: 566a 3fbc becf 7fbc 92cc 68bc 976c 8e3c
00000330: 1c4b d9bc 2cf7 2d3d fe63 d53c 3c62 85bc
00000340: 4da5 a73c 0b4c 37bd 6f1f 203c 9076 023d
00000350: 4ff3 28bc 5f93 83bb e37a cd3b 86d6 0f3d
00000360: 3393 673d 6e69 a83d 506e 5b3c 30ac 593c
00000370: 391b 46bd 2a8a 74bc 6022 af3d e458 3c3d
00000380: cb6f ac3d d684 f6bb 75e7 8fbb 9b31 49bd
00000390: 1ce6 c3bc 6bdc 6ebc 7690 e03c bc39 a7ba
000003a0: b016 563c c867 513d 8799 89bd 1b97 a63d
000003b0: 26ec cebb 80a7 96bd 2c23 f83a 6a79 af3d
000003c0: debe debb df91 8abc 4440 1ebc 1098 2abc
000003d0: f5e6 853c e1ed 883c 3bcc 653b 6416 bcbc
000003e0: 20e5 b6bb d2e6 a6bc d896 a93c b8fe bc3c
000003f0: 9f2e 733c 4bfa 783c e6d3 c93c 4353 103a
0.02126763 -0.05011009 0.009981158 -0.03840001 0.05891992 0.0072769336 -0.06333166 -0.015768774
-0.020319872 -0.018129224 -0.005011661 -0.026059639 -0.014889417 0.013572032 0.014511191 -0.00329436
0.010736318 -0.026936725 0.008079273 -0.03594669 -0.014272869 0.0073413746 -0.009185516 0.017580152
-0.0024671534 -0.009606905 -0.01707466 -0.017009199 0.025635738 -0.046509013 -0.004151885 0.014603224
-0.0010782528 0.004591361 -0.007121595 -0.0030528333 -0.022237688 0.035211083 -0.003720746 -0.013800525
0.04792676 0.0011595117 -0.07718838 -0.022857381 0.09766199 -0.013030824 -0.09826045 -0.01952926
-0.036268387 -0.070012696 -0.06698993 0.0059585525 -0.03755772 0.060110766 -0.087140255 0.03128259
-0.024852997 -0.03425888 0.034279693 0.0011507359 0.0020707161 -0.025856435 -0.001051543 0.0115409875
-0.00025964962 -0.035094757 -0.029166432 0.003808252 -0.052484546 0.054604273 -0.017301666 -0.027237143
-0.0057328832 -0.022361897 0.025019318 0.017848315 0.023241041 -0.03428518 0.0035798475 0.009799031
-0.004616367 -0.02963486 0.02416322 0.0024201 0.046989873 0.05410028 0.010799771 -0.0035560234
0.030806284 -0.05524442 -0.04957798 0.038571797 -0.010905564 -0.0179644 0.011268683 -0.010628897
0.03268563 -0.04172077 -0.004858552 0.074114196 -0.034779813 0.00948209 0.007667904 -0.00651065
-0.002561925 -0.03169289 0.06868029 -0.017645597 -0.026176855 0.0012382007 0.0030044375 0.02291223
-0.020330774 0.02362809 0.032644853 -0.04424983 0.023470994 0.039650142 0.018647969 0.009356011
-0.02386362 0.002582597 -0.014903419 -0.017204696 -0.020054348 0.008659188 -0.00528338 -0.0028417811
0.03035108 -0.033013854 0.033447407 -0.047809906 0.040869027 0.08964105 0.08646255 -0.020091634
-0.020488137 -0.03708508 -0.016800314 -0.02881483 -0.018420598 0.016137742 0.044258513 0.015087029
0.010819196 0.0024497404 0.059903115 -0.009997304 0.049727872 -0.005245423 0.0127378395 -0.030427322
0.027300742 0.040571794 -0.0067632967 -0.02392869 0.039259717 -0.040957496 -0.03371057 -0.027907478
-0.011483099 -0.017225202 0.023907859 -0.020748157 -0.013632745 0.04273611 0.018760838 0.0116543835
0.018855022 0.045963693 -0.022680169 -0.040623147 0.0234008 -0.11192864 0.019597415 -0.009978885
0.06301638 0.035612117 -0.066425025 0.03916074 0.07190997 -0.035989646 -0.022995075 -0.029655362
-0.0025413914 -0.05418438 0.03413547 0.018348148 -0.03342481 0.041689947 -0.0039984 0.044529494
0.028647708 0.04951076 -0.034250878 0.02562939 0.058565807 0.006335893 0.041418705 -0.013509359
-0.011683067 -0.015613494 -0.01420893 0.017385764 -0.026525073 0.04247205 0.026048657 -0.016282193
0.020464564 -0.044750255 0.009773119 0.03185135 -0.010311916 -0.0040153707 0.0062707528 0.035116695
0.056536864 0.08223234 0.013393 0.013285682 -0.048365805 -0.014925519 0.085514784 0.04598321
0.0841976 -0.0075231595 -0.0043916055 -0.049119573 -0.023913436 -0.014578919 0.027412634 -0.0012758295
0.013066933 0.051124364 -0.06718736 0.0813429 -0.006314772 -0.07356167 0.001893138 0.0856808
-0.0067976555 -0.01691526 -0.009658877 -0.010412231 0.01634548 0.016714992 0.0035064358 -0.022959895
-0.005581513 -0.020373736 0.02070181 0.023070678 0.014842658 0.015196393 0.024637174 0.0005505571

st_gcn_networks.2.gcn.conv.bias f4 [48]
00000000: 60d1 11bc a44e 123c 8dd0 78bc d09c 343c
00000010: d702 00bc e37c 99bc 3bfc d13c ab89 80bc
00000020: 0c2b cfba 696b 6bbc f428 98bc ce12 1339
00000030: 4cfa 00bd a79c 58bc b113 96bb 258f 0d3c
00000040: d393 77bd 80ab 5bbc 9e49 b2bb c6f1 033c
00000050: 2599 3f3c 068c 81bc 04b2 6ebc b163 39bb
00000060: 2803 52bd efc7 62bc 55f7 a2bc 078f 3ebd
00000070: 7153 ec3c baaa 283c 9ff0 76bc 3dec e5bb
00000080: 33f0 d43a 782a 233c 2df1 91bb 167e aa3b
00000090: 0111 71bc 7154 333c 61e6 35bb a0d6 72ba
000000a0: 4cdf 20bc 0752 66ba 9ee1 8abb 8ce9 edbc
000000b0: e1bb fb3c b7a4 77bc 80f0 1b3c 8472 4d3b
-0.008900017 0.008929882 -0.015186441 0.011023715 -0.007813177 -0.018736308 0.025632968 -0.015690645
-0.0015805676 -0.01436887 -0.018574215 0.00014026018 -0.0314887 -0.013220943 -0.004579984 0.008640085
-0.06044371 -0.013407588 -0.0054409048 0.008053249 0.011694227 -0.015813839 -0.014568809 -0.002828818
-0.05127254 -0.013841613 -0.019893328 -0.04652312 0.028848382 0.010294611 -0.015072017 -0.007016687
0.0016245901 0.009958856 -0.004453799 0.005203019 -0.014713527 0.010945425 -0.0027755725 -0.0009263549
-0.009818863 -0.0008786027 -0.0042383214 -0.029042028 0.030729236 -0.015114955 0.009517789 0.0031348774

st_gcn_networks.2.tcn.0.weight f4 [16]
00000000: 4e2f 833e 1d47 ff3d e6d8 453e 47f8 1b3e
00000010: e90e 873d a68e 883e 9a31 4c3e 8c17 433e
00000020: bee2 2f3e 6ed4 eb3d 07d1 123e a481 433e
00000030: 8495 1e3e 9299 373e 2b99 be3d 73f5 b73d
0.25622028 0.12464736 0.19321021 0.15231429 0.06594641 0.26671332 0.19940796 0.19051951
0.17176339 0.11515127 0.1433755 0.19092423 0.15486723 0.17929676 0.09306558 0.089823626

st_gcn_networks.2.tcn.0.bias f4 [16]
00000000: 3289 a2bc baa6 68bb 95bd 08bd 5d4a bcbc
00000010: da8b 653c 6352 d5bc 0251 a9bc ed14 22bd
00000020: 78a7 09bd b0cd efbc dc8a 23bd a8f0 bdbc
00000030: 36f2 09bd afd9 6fbd ee41 9abb fbcb d1bc
-0.01984081 -0.0035499767 -0.033383925 -0.022984678 0.014010394 -0.026040262 -0.02066851 -0.039570738
-0.033606976 -0.029272884 -0.03992735 -0.023186043 -0.033678256 -0.05855721 -0.0047075665 -0.02560996

st_gcn_networks.2.tcn.0.running_mean f4 [16]
00000000: 2d58 12bb f99e 68ba ce36 24ba 97d2 c8b9
00000010: d087 b239 606f 80bb 2537 b0ba 5fc7 9bba
00000020: 0e14 fcba c258 74ba 78ee c6ba 46bf 1fbb
00000030: a69f 893a 2176 7cb9 51b2 9939 6997 903a
-0.002233039 -0.00088737864 -0.000626427 -0.00038303874 0.00034051994 -0.003919527 -0.0013444169 -0.0011884979
-0.0019232051 -0.0009321087 -0.001517727 -0.0024375482 0.001049985 -0.00024076599 0.0002931529 0.0011031452

st_gcn_networks.2.tcn.0.running_var f4 [16]
00000000: 9f7b fc36 593d d436 b846 8b36 0a2e 3137
00000010: d04a a336 3ccd 2138 eff6 1937 df3f 8a36
00000020: 76f1 0237 5304 4436 4564 6d36 ff70 b036
00000030: 2248 8836 e2b6 c236 3dd9 cd35 222c 1036
7.5245766e-06 6.325234e-06 4.1507556e-06 1.0560741e-05 4.866488e-06 3.857653e-05 9.177004e-06 4.120156e-06
7.804823e-06 2.9208793e-06 3.5374117e-06 5.258363e-06 4.061513e-06 5.802941e-06 1.5336915e-06 2.148336e-06

st_gcn_networks.2.tcn.2.weight f4 [16, 16, 9, 1]
00000000: 3ee4 54bc b206 c8bb 8d4e d8bc 5d99 7abc
00000010: 7976 82bc c1bb 213c a0a7 c7bb 41ca 77bc
00000020: 7d7c bebb 4e2e be3b 43d0 b13b 064f 0f3b
00000030: 340f c7ba f5dd 063c 28f2 ccbb 88b0 92bb
00000040: f7d8 05bc b9eb 85bc cfa9 2d3c 900e 563b
00000050: 92f7 5e3b a0ee 5b3b a35a 163c a85e 83bb
00000060: 3f2d 0d3b 35de c2bb 6f07 07bb 5cd7 5d3b
00000070: aaa5 bdba 8186 3aba 41d6 9e3b f2e4 173b
00000080: bcd8 953c ba36 adbb 18f6 adbb ce89 7ab9
00000090: 452a c2b9 0ecf 2b3c 6331 2bbc e228 99bb
000000a0: 0f4d 41bc fe29 e0bb b2ee 0fbc 6b32 77bc
000000b0: 6468 a0bc 4784 743c d9a7 35bc 61a7 5e3c
000000c0: 1b2b 283c 9b4c d83b 2d87 6f3c 86eb 053b
000000d0: 4cec d43a 7bef 5e3c 561e 933c 8eb2 23bb
000000e0: 791b 76bb 29f3 b73c d7a0 2d3c d7fa 943a
000000f0: 5418 ef3b 4a57 893c ec7d de3c 6c56 ccbb
00000100: cf20 8abb 8737 15bc ba44 34bb 1564 3b3b
00000110: e526 f3bb af61 f73b 8775 85bc bc91 9fbc
00000120: 9bc8 973c c09e 833c 93ef cc3b aa50 063c
00000130: 352b 0e3c 39be edbb f74c a1bb f3ab 543b
00000140: f95d febb 2b3d 98bb 1f1d 233b 88db 0fbb
00000150: adcc 723c 8147 533b 0010 54bb 725e 773c
00000160: e2f1 773c 42e6 5f3b dbdb f3ba f00e c33b
00000170: ac36 bfbb a50f 103c 91a9 b83b d7fa 49bb
00000180: 7c35 2b3c 1b23 4e3c f06f 12ba b637 af3b
00000190: ab8d e3bb 3567 17bc f6fc 33bc 1dd0 2abc
000001a0: 891c b6bb 949b c5bc 5350 c6bb 4ec4 693c
000001b0: 38b3 31ba ba37 e13a 8899 f0ba 7861 98bc
000001c0: 43e7 13bc ef57 11bc cac8 28bc c273 dfbb
000001d0: d978 1abc 6feb 633c 1fad 3bbc 033c 5abc
000001e0: 984d 763b 8ed6 49bb c49c e9ba ac6f 88bb
000001f0: 57d9 003b e083 bd3c deee 10bc aad6 723a
00000200: a319 64bc 9066 ccbb 6f96 04bc 67ed a3bb
00000210: c50e 89ba d5ad cabb 0868 c4bc cf21 113c
00000220: 0c15 f13b e40e 88bb 9e0b 2abb 32d0 1ebc
00000230: 1a25 84bc dd06 723b b447 f2bb f3d8 28bc
00000240: 0f26 133a 1655 1b3b d804 a43c 8d6d 663c
00000250: 98fd 153c c9b5 283c cf8f 8b3c 5d1d 84ba
00000260: 86ba 9d3c bad7 29bc 5e58 e93b c0e0 e7bb
00000270: cf28 04bc bdf7 97bc 620a 103b e6fd b7bc
00000280: 9885 503b ead1 86bb 3b10 29bc 658f 6a3c
00000290: 10f0 a8bc f006 c63c 8fff 33bc cc54 80bc
000002a0: 4c4d bebb 2397 e8bb ad5c d3bc cc27 70bc
000002b0: b476 0dbc ef29 96bc 5307 dbba 21dd 99bb
000002c0: 58e6 98bc a03c d0bb cf01 c0bc 03a7 08bc
000002d0: 6610 3d3b 41ad f3bc ec52 ecbb 3caa 83bc
000002e0: bd14 3ebb 75c1 87bc cbbc 5fbb b6e8 7f3a
000002f0: 4cd2 f93b 31fd 85bc 3946 23bc e36f 8dbc
00000300: 9d5c 19bc f571 babc 5d82 17bd 3f78 dfbc
00000310: e7dd 36bd 6b46 98bc 7fef ab3b 5a4d 443c
00000320: d26b c33c ec91 7a3c 653f 2e3d 95cc c33b
00000330: 4d7e b53c 714e 57bc 38a3 933c d96d 653c
00000340: 06d3 2fba 362b 19bb 70ce 68bb 812b 97bc
00000350: e16d 06bd 073b d8bb 8dbe 54bb 3cb7 d8bc
00000360: 2997 90bc 8841 babb 2fe6 1bbc ee44 02bd
00000370: fb50 65bc b806 aabc 3383 dcbc 355f d5bc
00000380: e86e dabc 73d9 75b8 383e 78ba 18e0 20bc
00000390: e821 87bc dcea e13b 3460 df3b 76bf 23bc
000003a0: be82 abbc 2e00 09bc d1de 93bc 8e40 a1bc
000003b0: ec79 c2bc 9238 11bd d518 803c 4627 06bd
000003c0: 0d0f 78bc cbb1 a7bc 8cee 09bd 5224 053c
000003d0: 1a2c 963c c2e6 d63a 2501 e53c 4030 a73a
000003e0: c5bb 503c 0d8e 843b 4a00 1fbb e37c 593c
000003f0: f947 553c 161c 983c d4e0 863c fa6a c2bb
-0.01299387 -0.006104314 -0.026404643 -0.015295354 -0.015925633 0.009871424 -0.0060929805 -0.015123905
-0.00581318 0.00580386 0.005426438 0.002186717 -0.0015187026 0.00823163 -0.006254453 -0.0044766106
-0.008169404 -0.016347753 0.010599568 0.0032662489 0.0034022075 0.003355898 0.009176883 -0.0040090866
0.0021541861 -0.0059468993 -0.0020603796 0.0033850288 -0.0014468927 -0.00071153796 0.0048473184 0.0023177234
0.018291824 -0.005286065 -0.0053088777 -0.00023893194 -0.00037034057 0.010486377 -0.010448786 -0.004674063
-0.011798157 -0.0068409434 -0.008784937 -0.015087704 -0.019581027 0.0149241155 -0.011087381 0.013589711
0.010264183 0.006600929 0.014619631 0.0020434572 0.0016244738 0.013606901 0.017958801 -0.0024978253
-0.0037552996 0.022454815 0.010597429 0.001136626 0.0072966013 0.016765255 0.027159654 -0.006235888
-0.004215337 -0.009107477 -0.0027506785 0.002859359 -0.007420408 0.0075494866 -0.016291393 -0.019478671
0.018528273 0.016066909 0.0062541454 0.008197943 0.008677294 -0.0072553423 -0.004922505 0.0032451123
-0.0077626673 -0.0046459637 0.0024889184 -0.002195092 0.014819306 0.0032238665 -0.003235817 0.015098201
0.015133353 0.0034164344 -0.0018604951 0.0059527084 -0.005835375 0.008792792 0.0056354483 -0.0030819678
0.010449763 0.012581612 -0.0005586138 0.0053472174 -0.0069443784 -0.009240915 -0.010985604 -0.010425595
-0.005557601 -0.024122037 -0.006052056 0.014267994 -0.000677872 0.0017182746 -0.0018356303 -0.018601164
-0.009027305 -0.008871063 -0.010301778 -0.0068192193 -0.009428226 0.013911112 -0.0114548495 -0.013319972
0.003758287 -0.003079805 -0.0017823209 -0.004163703 0.0019660795 0.023134172 -0.008846013 0.0009263555
-0.013922128 -0.0062378123 -0.008092507 -0.005002666 -0.0010456672 -0.006185273 -0.023975387 0.008858158
0.0073572453 -0.0041521657 -0.0025946866 -0.009693192 -0.016130973 0.003693036 -0.0073938016 -0.010305631
0.0005613276 0.0023701838 0.02002184 0.014064205 0.0091547 0.010297247 0.017036347 -0.0010079552
0.01925398 -0.010366375 0.00712113 -0.007076353 -0.00806637 -0.018550748 0.0021978845 -0.022459935
0.003181791 -0.004114379 -0.010318811 0.0143164145 -0.020622283 0.02417323 -0.010986223 -0.015665434
-0.0058075543 -0.007098095 -0.025801027 -0.014657926 -0.008634258 -0.018330542 -0.0016710557 -0.00469555
-0.018664524 -0.0063548833 -0.023438362 -0.0083406 0.0028848886 -0.0297457 -0.0072120335 -0.016072385
-0.002900406 -0.01657174 -0.003413963 0.00097621547 0.0076239463 -0.016356083 -0.009965473 -0.017265266
-0.00936046 -0.022759417 -0.03698956 -0.027279017 -0.044645216 -0.018588265 0.005247056 0.011981333
0.023855124 0.01529358 0.042540926 0.005975316 0.022154951 -0.0131412605 0.018022165 0.0140032405
-0.0006707165 -0.0023371703 -0.0035523437 -0.018453361 -0.032819632 -0.0065988335 -0.003246221 -0.02645456
-0.017650204 -0.0056840815 -0.009515329 -0.031804018 -0.013996358 -0.020755157 -0.02691803 -0.026046375
-0.026664212 -5.8615067e-05 -0.00094697205 -0.009819053 -0.01649566 0.0068944525 0.006816888 -0.009994378
-0.020936366 -0.008361859 -0.018050583 -0.019684102 -0.023739778 -0.03545434 0.01563684 -0.032752298
-0.015140307 -0.02047052 -0.03367476 0.008126335 0.018331576 0.0016395675 0.027954647 0.0012755468
0.01274008 0.004045254 -0.0024261647 0.013274404 0.013017648 0.01856808 0.016464628 -0.0059331628

st_gcn_networks.2.tcn.2.bias f4 [16]
00000000: 5ad8 3537 85ab 4eb8 0b0e d5b7 4ed4 b6af
00000010: 9c7e 1d36 77d8 3c37 ba02 c636 4849 fcb5
00000020: f18d 3037 5a30 0d38 5d22 92b6 345d cdb6
00000030: ef3b 9a36 f0b3 44b3 ec83 21b7 347a cd29
1.0838814e-05 -4.9273967e-05 -2.5398118e-05 -3.325646e-10 2.346852e-06 1.1256073e-05 5.9011772e-06 -1.8796791e-06
1.0523466e-05 3.366205e-05 -4.3551395e-06 -6.1203264e-06 4.596535e-06 -4.579846e-08 -9.627063e-06 9.125028e-14

st_gcn_networks.2.tcn.3.weight f4 [16]
00000000: dd5e e13d fd0a 613e 7c75 e93d 4369 211d
00000010: 7893 603e 4285 353e 957b 423e 390b 823d
00000020: df5f d03d fa17 9d3d 25ad 693e fe73 443d
00000030: 15c7 7a3e 8a3a c53c 9807 7a3d a300 0000
0.11004422 0.21976848 0.113993615 2.1362592e-21 0.21931255 0.17726615 0.18992455 0.06349797
0.10174536 0.07670589 0.22819956 0.04796218 0.24490006 0.024075765 0.0610424 2.28e-43
