weights_arm/8.pt (torch, 70926 bytes, 80 tensors)

A f4 [3, 9, 9]
0	0x3f000000	0.5
1	0x00000000	0.0
2	0x00000000	0.0
3	0x00000000	0.0
4	0x00000000	0.0
5	0x00000000	0.0
6	0x00000000	0.0
7	0x00000000	0.0
8	0x00000000	0.0
9	0x00000000	0.0
10	0x3e4ccccd	0.2
11	0x00000000	0.0
12	0x00000000	0.0
13	0x00000000	0.0
14	0x00000000	0.0
15	0x00000000	0.0
16	0x00000000	0.0
17	0x00000000	0.0
18	0x00000000	0.0
19	0x00000000	0.0
20	0x3eaaaaab	0.33333334
21	0x00000000	0.0
22	0x00000000	0.0
23	0x00000000	0.0
24	0x00000000	0.0
25	0x00000000	0.0
26	0x00000000	0.0
27	0x00000000	0.0
28	0x00000000	0.0
29	0x00000000	0.0
30	0x3eaaaaab	0.33333334
31	0x00000000	0.0
32	0x00000000	0.0
33	0x00000000	0.0
34	0x00000000	0.0
35	0x00000000	0.0
36	0x00000000	0.0
37	0x00000000	0.0
38	0x00000000	0.0
39	0x00000000	0.0
40	0x3f000000	0.5
41	0x00000000	0.0
42	0x00000000	0.0
43	0x00000000	0.0
44	0x00000000	0.0
45	0x00000000	0.0
46	0x00000000	0.0
47	0x00000000	0.0
48	0x00000000	0.0
49	0x00000000	0.0
50	0x3eaaaaab	0.33333334
51	0x00000000	0.0
52	0x00000000	0.0
53	0x00000000	0.0
54	0x00000000	0.0
55	0x00000000	0.0
56	0x00000000	0.0
57	0x00000000	0.0
58	0x00000000	0.0
59	0x00000000	0.0
60	0x3eaaaaab	0.33333334
61	0x00000000	0.0
62	0x00000000	0.0
63	0x00000000	0.0
64	0x00000000	0.0
65	0x00000000	0.0
66	0x00000000	0.0
67	0x00000000	0.0
68	0x00000000	0.0
69	0x00000000	0.0
70	0x3f000000	0.5
71	0x00000000	0.0
72	0x00000000	0.0
73	0x00000000	0.0
74	0x00000000	0.0
75	0x00000000	0.0
76	0x00000000	0.0
77	0x00000000	0.0
78	0x00000000	0.0
79	0x00000000	0.0
80	0x3f000000	0.5
81	0x00000000	0.0
82	0x3e4ccccd	0.2
83	0x00000000	0.0
84	0x00000000	0.0
85	0x00000000	0.0
86	0x00000000	0.0
87	0x00000000	0.0
88	0x00000000	0.0
89	0x00000000	0.0
90	0x00000000	0.0
91	0x00000000	0.0
92	0x00000000	0.0
93	0x00000000	0.0
94	0x00000000	0.0
95	0x00000000	0.0
96	0x00000000	0.0
97	0x00000000	0.0
98	0x00000000	0.0
99	0x00000000	0.0
100	0x3e4ccccd	0.2
101	0x00000000	0.0
102	0x00000000	0.0
103	0x00000000	0.0
104	0x00000000	0.0
105	0x00000000	0.0
106	0x00000000	0.0
107	0x00000000	0.0
108	0x00000000	0.0
109	0x00000000	0.0
110	0x3eaaaaab	0.33333334
111	0x00000000	0.0
112	0x3f000000	0.5
113	0x00000000	0.0
114	0x00000000	0.0
115	0x00000000	0.0
116	0x00000000	0.0
117	0x00000000	0.0
118	0x00000000	0.0
119	0x00000000	0.0
120	0x3eaaaaab	0.33333334
121	0x00000000	0.0
122	0x00000000	0.0
123	0x00000000	0.0
124	0x00000000	0.0
125	0x00000000	0.0
126	0x00000000	0.0
127	0x3e4ccccd	0.2
128	0x00000000	0.0
129	0x00000000	0.0
130	0x00000000	0.0
131	0x00000000	0.0
132	0x00000000	0.0
133	0x00000000	0.0
134	0x00000000	0.0
135	0x00000000	0.0
136	0x00000000	0.0
137	0x00000000	0.0
138	0x00000000	0.0
139	0x00000000	0.0
140	0x3eaaaaab	0.33333334
141	0x00000000	0.0
142	0x3f000000	0.5
143	0x00000000	0.0
144	0x00000000	0.0
145	0x00000000	0.0
146	0x00000000	0.0
147	0x00000000	0.0
148	0x00000000	0.0
149	0x00000000	0.0
150	0x3eaaaaab	0.33333334
151	0x00000000	0.0
152	0x00000000	0.0
153	0x00000000	0.0
154	0x3e4ccccd	0.2
155	0x00000000	0.0
156	0x00000000	0.0
157	0x00000000	0.0
158	0x00000000	0.0
159	0x00000000	0.0
160	0x00000000	0.0
161	0x00000000	0.0
162	0x00000000	0.0
163	0x00000000	0.0
164	0x00000000	0.0
165	0x00000000	0.0
166	0x00000000	0.0
167	0x00000000	0.0
168	0x00000000	0.0
169	0x00000000	0.0
170	0x00000000	0.0
171	0x3f000000	0.5
172	0x00000000	0.0
173	0x3eaaaaab	0.33333334
174	0x00000000	0.0
175	0x00000000	0.0
176	0x3eaaaaab	0.33333334
177	0x00000000	0.0
178	0x00000000	0.0
179	0x3f000000	0.5
180	0x00000000	0.0
181	0x00000000	0.0
182	0x00000000	0.0
183	0x3eaaaaab	0.33333334
184	0x00000000	0.0
185	0x00000000	0.0
186	0x00000000	0.0
187	0x00000000	0.0
188	0x00000000	0.0
189	0x00000000	0.0
190	0x00000000	0.0
191	0x00000000	0.0
192	0x00000000	0.0
193	0x00000000	0.0
194	0x00000000	0.0
195	0x00000000	0.0
196	0x00000000	0.0
197	0x00000000	0.0
198	0x00000000	0.0
199	0x00000000	0.0
200	0x00000000	0.0
201	0x00000000	0.0
202	0x00000000	0.0
203	0x00000000	0.0
204	0x00000000	0.0
205	0x00000000	0.0
206	0x00000000	0.0
207	0x00000000	0.0
208	0x00000000	0.0
209	0x00000000	0.0
210	0x00000000	0.0
211	0x00000000	0.0
212	0x00000000	0.0
213	0x3eaaaaab	0.33333334
214	0x00000000	0.0
215	0x00000000	0.0
216	0x00000000	0.0
217	0x00000000	0.0
218	0x00000000	0.0
219	0x00000000	0.0
220	0x00000000	0.0
221	0x00000000	0.0
222	0x00000000	0.0
223	0x00000000	0.0
224	0x00000000	0.0
225	0x00000000	0.0
226	0x00000000	0.0
227	0x00000000	0.0
228	0x00000000	0.0
229	0x00000000	0.0
230	0x00000000	0.0
231	0x00000000	0.0
232	0x00000000	0.0
233	0x00000000	0.0
234	0x00000000	0.0
235	0x00000000	0.0
236	0x00000000	0.0
237	0x00000000	0.0
238	0x00000000	0.0
239	0x00000000	0.0
240	0x00000000	0.0
241	0x00000000	0.0
242	0x00000000	0.0

data_bn.weight f4 [27]
0	0x3f0c5cf5	0.5482934
1	0x3f0b1612	0.5433055
2	0x3f080bf9	0.5314327
3	0x3f1abe83	0.6044695
4	0x3f187df1	0.5956717
5	0x3f144e3d	0.5793188
6	0x3f12a3b9	0.5728107
7	0x3f0dcf32	0.5539428
8	0x3f0ff114	0.5622723
9	0x3f2a4f1e	0.66526973
10	0x3f27ecad	0.65595514
11	0x3f26a01f	0.65088075
12	0x3f390e6c	0.7228763
13	0x3f286d36	0.6579164
14	0x3f23358e	0.6375359
15	0x3f132998	0.5748534
16	0x3f147420	0.5798969
17	0x3f0d8f7c	0.55297065
18	0x3f2d84b9	0.67780644
19	0x3f23eacf	0.64030164
20	0x3f25b7b5	0.6473344
21	0x3f3360bb	0.70069474
22	0x3f27d325	0.65556556
23	0x3f202279	0.625526
24	0x3f150b0d	0.5821999
25	0x3f0a6e62	0.5407468
26	0x3f0944ed	0.536208

data_bn.bias f4 [27]
0	0x3c22a207	0.009926326
1	0xbb970e84	-0.0046098847
2	0x3c06f2f9	0.00823664
3	0x3bd6978a	0.0065488266
4	0xbc4ec708	-0.012620695
5	0xbc13ec4e	-0.009028507
6	0x3bf3d705	0.007441404
7	0x3bdc99e2	0.0067322114
8	0xbc28484e	-0.010271145
9	0xbc62a887	-0.013834125
10	0xbcbf2ee5	-0.02333779
11	0x3cd1c8cf	0.025608448
12	0xbce6387d	-0.028103108
13	0x3c0a6006	0.008445745
14	0xbcf527bc	-0.029926173
15	0x3ca9f547	0.02074684
16	0x3b7fd306	0.0039035692
17	0x3d0f99ac	0.035058662
18	0x3c726979	0.014795654
19	0x3c921d37	0.017836196
20	0xbc438bbf	-0.0119351735
21	0x3c45848b	0.0120555265
22	0xbc500562	-0.012696596
23	0x3c399e0c	0.011329185
24	0x3c51fa2d	0.012815994
25	0xbb7a4004	-0.003818513
26	0x3c085c98	0.008322857

data_bn.running_mean f4 [27]
0	0x42b5e8ae	90.95445
1	0x42a42a63	82.08279
2	0x41dc2c4c	27.52163
3	0x42c65a97	99.17693
4	0x42b2f16d	89.471535
5	0x41ec4360	29.532898
6	0x42b25cfe	89.181625
7	0x42a8dffd	84.43748
8	0x41e17d05	28.186045
9	0x42c7e47b	99.94625
10	0x42ac73a8	86.22589
11	0x41e63622	28.776432
12	0x42d777f9	107.73432
13	0x42a49fe3	82.31228
14	0x41be6fd3	23.804602
15	0x42da00a9	109.00129
16	0x42bcf7c3	94.48391
17	0x41f6bf34	30.84336
18	0x4302a07e	130.62692
19	0x42ca1a96	101.051926
20	0x42022536	32.53634
21	0x43020f36	130.05942
22	0x42bd1d26	94.55693
23	0x41fd0c84	31.631111
24	0x42d1b42c	104.8519
25	0x42c96f51	100.717415
26	0x420271b2	32.61103

data_bn.running_var f4 [27]
0	0x4640ad92	12331.393
1	0x46abf72c	22011.586
2	0x460e26db	9097.714
3	0x4649b892	12910.143
4	0x46bcef9b	24183.803
5	0x461d0ac4	10050.691
6	0x461bde89	9975.634
7	0x46a51296	21129.293
8	0x460c85db	8993.464
9	0x464615ce	12677.451
10	0x4699d412	19690.035
11	0x4609c8e8	8818.227
12	0x46608179	14368.368
13	0x468cb830	18012.094
14	0x45dd4a2d	7081.272
15	0x46835457	16810.17
16	0x46d6cb60	27493.688
17	0x462e4eee	11155.732
18	0x46ae2a82	22293.254
19	0x46db981b	28108.053
20	0x4637b302	11756.752
21	0x46a7dea2	21487.316
22	0x46bce5e7	24178.951
23	0x46290bba	10818.932
24	0x468763a2	17329.816
25	0x46c867ad	25651.838
26	0x462df576	11133.365

st_gcn_networks.0.gcn.conv.weight f4 [24, 3, 1, 1]
0	0xbe17f56b	-0.14839713
1	0xbd17bec2	-0.037047155
2	0xbd4cf9de	-0.05004298
3	0x3e048c85	0.12944229
4	0xbdfeb906	-0.12437634
5	0x3d450154	0.04809697
6	0x3e3822d6	0.17982039
7	0xbc8efb0a	-0.01745369
8	0x3da56f52	0.08077873
9	0xbd124685	-0.035711784
10	0xbd11b4af	-0.035572704
11	0x3e7aacdd	0.24480005
12	0x3d44cf03	0.048048984
13	0xbd6ac5a1	-0.05731738
14	0xbebfb103	-0.37439737
15	0x3e82c4a4	0.2554065
16	0x3ed31b14	0.41231596
17	0x3ce99233	0.028512096
18	0xbe934086	-0.28760165
19	0x3ead18f3	0.33808097
20	0x3e26adaa	0.16277185
21	0xbe5b6dbd	-0.2142858
22	0x3da55cc3	0.080743335
23	0xbe19b474	-0.15010244
24	0xbda67b82	-0.08129026
25	0xbe5f4fa5	-0.21807726
26	0xbe480669	-0.19533695
27	0xbea29dba	-0.3176096
28	0xbe6096d0	-0.2193253
29	0x3d4e4284	0.050356403
30	0x3ea1036f	0.31447932
31	0xbd13e6be	-0.036108725
32	0x3b4b9cd1	0.0031068812
33	0xbe6383ad	-0.22218199
34	0xbe514217	-0.20435368
35	0x3d95734e	0.07297383
36	0x3bb1950b	0.0054193786
37	0xbce0fd41	-0.02746451
38	0x3eac699a	0.33674318
39	0xbd574d2b	-0.052563827
40	0xbe8859a4	-0.2663089
41	0xbe8c5af2	-0.27413136
42	0x3d17a208	0.03701976
43	0x3d520780	0.051276684
44	0x3dd8ce76	0.10586254
45	0x3e25a537	0.16176306
46	0xbe008e15	-0.125542
47	0x3e4611a9	0.19342674
48	0x3c411b3c	0.011786278
49	0x3db36654	0.08759752
50	0xbe049676	-0.12948021
51	0xbdaa7c80	-0.08324528
52	0xbd73124d	-0.059343625
53	0x3d2e307c	0.042526707
54	0x3e781475	0.24226554
55	0x3c9039fc	0.017605774
56	0x3e058e34	0.13042527
57	0xbe6c7ee0	-0.23095274
58	0x3bdc6ee1	0.006727085
59	0xbad5e5d5	-0.0016319106
60	0xbe7825c2	-0.24233153
61	0xbd8f81ad	-0.070071556
62	0x3d6995df	0.057027694
63	0xbba0f06f	-0.0049114744
64	0xbd839db1	-0.064265616
65	0x3e5b69cd	0.21427079
66	0x3e092926	0.13394603
67	0xbe5143f5	-0.2043608
68	0x3d70f73a	0.058829524
69	0xbe3daaf3	-0.18522243
70	0x3e59fca8	0.21287787
71	0x3d9637d5	0.07334868

st_gcn_networks.0.gcn.conv.bias f4 [24]
0	0xbc15c433	-0.009141016
1	0x3dc155cc	0.094401926
2	0x3e603bdb	0.21897833
3	0x3de9d5a8	0.11417705
4	0xbb0ebb3a	-0.0021779076
5	0xbe679f34	-0.22619325
6	0x3c495a70	0.012289628
7	0x3e80e68b	0.2517589
8	0xbe353381	-0.17695428
9	0x3cc894b5	0.024484972
10	0x3e085f9b	0.1331772
11	0xbdf52567	-0.119700246
12	0x3d6c003b	0.057617407
13	0x3e46bf98	0.19409025
14	0x3eadedf5	0.3397061
15	0x3d3a535e	0.04548966
16	0xbd10c1ad	-0.035340954
17	0xbe88fc90	-0.2675519
18	0x3d1c0090	0.038086474
19	0xbc14f6e1	-0.009092064
20	0x3db7f868	0.089829266
21	0x3ca89270	0.02057764
22	0x3c40f800	0.011777878
23	0xbd052583	-0.032506477

st_gcn_networks.0.tcn.0.weight f4 [8]
0	0x3f12052b	0.57039136
1	0x3f26902f	0.65063757
2	0x3f2afd18	0.6679244
3	0x3f29f5fb	0.6639096
4	0x3f14d707	0.58140606
5	0x3f276131	0.6538268
6	0x3f266e9c	0.65012527
7	0x3f1e75be	0.6189841

st_gcn_networks.0.tcn.0.bias f4 [8]
0	0x3c59831a	0.013275886
1	0x3c2c24f0	0.010506853
2	0xbbd43119	-0.0064755795
3	0xbc45edd4	-0.012080628
4	0x3bdb0cf6	0.0066848947
5	0x3b04ec0e	0.00202823
6	0x3c816074	0.015793063
7	0x3b8af903	0.0042411103

st_gcn_networks.0.tcn.0.running_mean f4 [8]
0	0xbd3b003c	-0.04565452
1	0xbc2d48e8	-0.010576464
2	0x3db5e811	0.08882154
3	0x3a98d524	0.00116602
4	0x3ccc0f9d	0.024909789
5	0xbc3a9e20	-0.011390239
6	0x3d9f4165	0.07776145
7	0x3d8856ff	0.06657218

st_gcn_networks.0.tcn.0.running_var f4 [8]
0	0x3bf65e82	0.0075185904
1	0x3bda1f5e	0.0066565713
2	0x3c24bfe0	0.010055512
3	0x3bcef886	0.0063162474
4	0x3b16ebef	0.002302881
5	0x3bc4c6b4	0.0060051326
6	0x3bd3c0ab	0.006462177
7	0x3b0434c1	0.0020173045

st_gcn_networks.0.tcn.2.weight f4 [8, 8, 9, 1]
0	0x3bc78066	0.0060883043
1	0x3d088b96	0.033336245
2	0xbc9f3404	-0.019433983
3	0x3aa20bc4	0.0012363126
4	0xbb168997	-0.0022970194
5	0xbd31cf38	-0.04341051
6	0xbaa63ed4	-0.0012683519
7	0x3bd823df	0.006596073
8	0x3baa6330	0.0051998124
9	0x3d8340bd	0.06408832
10	0xbd551a24	-0.052026883
11	0x3bf72f9d	0.0075435177
12	0x3aa41b52	0.0012520349
13	0xbd0fa21f	-0.03506672
14	0x3d8a0ef2	0.06741132
15	0x3cc2a140	0.02375853
16	0xbb728686	-0.0037006452
17	0xbd80cee6	-0.06289463
18	0x3d841897	0.06450003
19	0x3da00eae	0.078153
20	0x3cb076f6	0.0215411
21	0x3d5de021	0.054168824
22	0xbd05dba3	-0.032680165
23	0x3d9fbe5d	0.07799981
24	0xbd5ff698	-0.05467853
25	0x3d528ced	0.05140393
26	0xbd86bb1a	-0.065786555
27	0x3c18a324	0.0093162395
28	0xbd14c642	-0.036321886
29	0x3d85f46e	0.06540762
30	0xbd41bb5a	-0.047297813
31	0xbd17a31d	-0.03702079
32	0x3d701a47	0.05861881
33	0x3d00104d	0.031265546
34	0x3d25469d	0.040350545
35	0xbd269947	-0.04067352
36	0x3c972046	0.018448006
37	0xbc54acfa	-0.012980694
38	0x3c38cce5	0.011279319
39	0xbc889681	-0.016673328
40	0xbce7436a	-0.028230388
41	0x3ca68a67	0.020329667
42	0x3d218475	0.03943296
43	0xbd00e8ae	-0.0314719
44	0xbc58772b	-0.013212006
45	0xbd9ec73a	-0.07752843
46	0xbb4419e9	-0.002992267
47	0x3d3815c7	0.044942643
48	0xbc328b83	-0.01089752
49	0x3d49c5f4	0.04926105
50	0x3c8159b6	0.015789848
51	0x3d224f06	0.039626144
52	0x3bbcc574	0.005760843
53	0x3d55267f	0.052038666
54	0x3d0ed289	0.03486875
55	0x3d423431	0.047413055
56	0xba706779	-0.0009170692
57	0xbd34202d	-0.043975998
58	0xbd31770d	-0.043326426
59	0x3a7c7b0c	0.00096313725
60	0xbd4b6923	-0.049660813
61	0x3d45acc2	0.048260458
62	0xbd5405ae	-0.05176323
63	0xbc7a1fa4	-0.015266333
64	0xbd98655e	-0.07441209
65	0x3a44c979	0.00075068284
66	0xbd89aafb	-0.06722065
67	0xbbfb8fe0	-0.0076770633
68	0xbd69ea1e	-0.057108037
69	0xbc566811	-0.013086335
70	0x3c0acdb4	0.008471895
71	0x3ad6b6e5	0.0016381411
72	0xbcbb0e6e	-0.022834029
73	0xbbefa359	-0.0073131737
74	0x39d8b6f6	0.00041335047
75	0x3c865d1e	0.016401824
76	0x3d0097b7	0.031394687
77	0xbd0d4b78	-0.0344958
78	0x3ce041bf	0.0273751
79	0x3bdcf870	0.0067434832
80	0xbc99ede7	-0.018790198
81	0x3aad75c4	0.001323395
82	0x3cd55861	0.026043119
83	0x3d308df1	0.043104116
84	0x3cbd6d50	0.023123413
85	0x3be6ebf1	0.0070471694
86	0x3c61e89a	0.013788367
87	0x3d03a3f1	0.03213877
88	0xbaa62615	-0.0012676144
89	0x3b2a00f4	0.002594051
90	0x3d2e3f13	0.04254062
91	0x3d76de7f	0.060270783
92	0x3d869cd6	0.06572883
93	0xba6760d5	-0.000882638
94	0xbb962726	-0.0045823036
95	0xbd00a258	-0.031404823
96	0x3c825037	0.01590739
97	0x3cb1964f	0.021678118
98	0xbb29cc0e	-0.002590898
99	0x3d3c86dc	0.04602705
100	0xbce82302	-0.028337006
101	0x3ce3aacd	0.027791405
102	0x3ca7b31d	0.02047115
103	0x3d3cc9c2	0.04609085
104	0x3d0e978c	0.034812495
105	0x3d1bea09	0.03806499
106	0xbcc264b2	-0.023729656
107	0xbca68969	-0.020329194
108	0xbc39c3b0	-0.011338159
109	0xbcb2da8d	-0.021832729
110	0x3b901506	0.0043970374
111	0x3c3d8412	0.011567133
112	0x3d6ad133	0.057328414
113	0xbd79b203	-0.06096078
114	0x3d4c250f	0.04984003
115	0x3d5d0b27	0.053965714
116	0x3d8a6624	0.06757763
117	0xbca59a35	-0.020215133
118	0x3d43ba08	0.047784835
119	0x3bee1491	0.0072656353
120	0xbcf2d8a2	-0.029644314
121	0x3ce0477e	0.02737784
122	0xbb3b0c4f	-0.0028541272
123	0xbd3d981d	-0.046287645
124	0xbcb2719b	-0.021782687
125	0xbccfcfa4	-0.025367565
126	0xbd12063f	-0.035650488
127	0xbcf8a1c7	-0.030350579
128	0xbd199019	-0.037490938
129	0xbd833bd7	-0.06407898
130	0xbd79bfc1	-0.060973886
131	0x3d58e065	0.052948374
132	0x3c910f4d	0.017707491
133	0xbd14acf1	-0.036297742
134	0x3d9cfa16	0.076648876
135	0x3d33d825	0.043907303
136	0xbd905c13	-0.07048812
137	0x3bc91d23	0.0061375066
138	0x3ca1c38f	0.01974657
139	0x3d36ecbb	0.044659358
140	0xbd1c063e	-0.03809189
141	0x3d3ed5ce	0.04659062
142	0xbd1ef70f	-0.038809832
143	0xbd018220	-0.031618237
144	0xbcc156c9	-0.023600953
145	0xbc5306c5	-0.012880032
146	0xbd2d7d4f	-0.04235583
147	0xbca568a4	-0.020191498
148	0x3caba0ab	0.020950636
149	0xbd4ac39c	-0.049502954
150	0xbc5fe7b0	-0.013666078
151	0xbd1be96d	-0.03806441
152	0xbc96fca3	-0.018431013
153	0xbc872d13	-0.016500985
154	0xbcad03f5	-0.02112005
155	0xbc5bf403	-0.013424876
156	0x3d12ce51	0.03584129
157	0x3b1f8a65	0.0024343964
158	0xbbaf9a6e	-0.0053589856
159	0x3ce83918	0.028347537
160	0xbd2a0cb1	-0.04151601
161	0x3c23c8ce	0.009996606
162	0x3d3d3055	0.04618867
163	0x3bc9b523	0.0061556264
164	0xbc9dc389	-0.019258277
165	0xbda95f1c	-0.08270094
166	0x3d88c780	0.066786766
167	0xbd179632	-0.03700847
168	0x3daa9ad2	0.08330311
169	0xbd6bb8a6	-0.05754914
170	0x3d54f469	0.0519909
171	0x3cdac4bd	0.02670514
172	0xbd95e83e	-0.07319687
173	0xbd73c3bc	-0.05951284
174	0x3cc04867	0.023472024
175	0x3d38a853	0.0450824
176	0xbd75053f	-0.059819456
177	0x3ca6d20e	0.020363834
178	0xbd23d964	-0.04000224
179	0x3d1d89cb	0.038461488
180	0xbd0f7e1c	-0.035032377
181	0x3a287bc0	0.00064271316
182	0x3d17ee8f	0.03709274
183	0x3c8d71d4	0.017266192
184	0xbd8524ba	-0.06501146
185	0xbca67a23	-0.020321911
186	0xbccc1088	-0.024910226
187	0xbcca6f25	-0.024711201
188	0x3d368660	0.044561744
189	0xbd1bb338	-0.038012713
190	0xbd85e08a	-0.06536968
191	0x3db0408e	0.08606063
192	0xbca79e2f	-0.02046117
193	0xbd4aeb05	-0.04954054
194	0xbc689ae1	-0.014197082
195	0x3da05cee	0.07830225
196	0xbd1c08da	-0.03809438
197	0x3d9c3fb1	0.07629336
198	0x3d7179ea	0.058954157
199	0xbd004a99	-0.031321142
200	0xbdae3a4d	-0.08507214
201	0x3d745d6c	0.059659407
202	0x3d9b9af2	0.07597913
203	0x3cab54fa	0.020914543
204	0xbcd91cfd	-0.02650308
205	0x3d35b30e	0.044360213
206	0x3d86fab6	0.06590788
207	0xbd99deb9	-0.07513184
208	0xbc94e168	-0.018173888
209	0xbd45f67f	-0.04833078
210	0x3d5fc800	0.054634094
211	0xbc167bc5	-0.009184782
212	0x3d76c181	0.060243133
213	0xbd576de1	-0.052595023
214	0xbd879ed7	-0.06622093
215	0xbc84d4b0	-0.016214699
216	0xbbc6ee18	-0.0060708635
217	0x3b50333e	0.0031768824
218	0x3cd6f3b3	0.026239252
219	0x3c762d4a	0.015025446
220	0x3bef530a	0.0073036
221	0xbc3fff90	-0.011718646
222	0x39e7967c	0.00044171873
223	0x3b8886f2	0.0041664774
224	0x3a19fe3b	0.000587437
225	0x3c787d84	0.015166644
226	0x3cd42b03	0.025899416
227	0xbcfc4fb5	-0.030799726
228	0xbc68d427	-0.014210737
229	0x3c99023d	0.018677825
230	0x3cf0e5cd	0.029406453
231	0x3d283afb	0.041071873
232	0xbca1cee0	-0.019751966
233	0xbb2e9485	-0.0026638818
234	0xbcf0de1c	-0.029402785
235	0xbc138f38	-0.009006314
236	0xbc9c1916	-0.01905493
237	0xbcf9ab16	-0.030477088
238	0xbc5269cc	-0.012842607
239	0xbc8591ef	-0.016304938
240	0xbc47104c	-0.012149882
241	0xbd061333	-0.032733154
242	0xbcf13fc1	-0.029449346
243	0x3d194495	0.03741892
244	0xbd07c06e	-0.0331425
245	0xbd3f6a84	-0.04673244
246	0xbd1be398	-0.038058847
247	0xbd2200dd	-0.039551605
248	0xba397e1a	-0.00070759805
249	0xbc9d465f	-0.019198595
250	0x3b930b59	0.0044874367
251	0x3ca8ba6f	0.020596711
252	0x3c29b797	0.010358713
253	0xbd105e29	-0.035246048
254	0xbbeefb6f	-0.007293157
255	0x3cbc7e42	0.023009423

st_gcn_networks.0.tcn.2.bias f4 [8]
0	0xb3a268c0	-7.562767e-08
1	0xb3053d18	-3.102204e-08
2	0x35918721	1.084267e-06
3	0x342901e6	1.5740042e-07
4	0x34800e90	2.3852454e-07
5	0x340d9fb6	1.3189751e-07
6	0x32bf399b	2.2261522e-08
7	0xb630933a	-2.631174e-06

st_gcn_networks.0.tcn.3.weight f4 [8]
0	0x3f2225aa	0.6333872
1	0x3f18d2bb	0.5969655
2	0x3f1fbb04	0.6239474
3	0x3f0fd31e	0.56181514
4	0x3f103427	0.5632958
5	0x3f2425df	0.64120287
6	0x3f25fa43	0.64834994
7	0x3f1dcc94	0.61640286

st_gcn_networks.0.tcn.3.bias f4 [8]
0	0xbc0e7e46	-0.008697098
1	0xbc1e295a	-0.009653414
2	0x3b693b3a	0.003558828
3	0xb96a97c3	-0.00022372515
4	0x39900cd1	0.0002747537
5	0x3c1a833d	0.009430704
6	0x3c2e9263	0.0106550185
7	0x3b80e9ec	0.0039341357

st_gcn_networks.0.tcn.3.running_mean f4 [8]
0	0x3cdf0f07	0.027228845
1	0x3dda47f4	0.10658255
2	0xbd630d99	-0.05543289
3	0xbd8aee8f	-0.06783783
4	0xbd1a7d1b	-0.037716966
5	0x3c856eca	0.01628818
6	0xbd165062	-0.036697753
7	0x3d1eb451	0.038746182

st_gcn_networks.0.tcn.3.running_var f4 [8]
0	0x3c9157e3	0.017742103
1	0x3c2a46c6	0.01039285
2	0x3cb27874	0.021785952
3	0x3c3a77c2	0.011381092
4	0x3c80b3b5	0.015710691
5	0x3c2188a4	0.009859238
6	0x3cc75cae	0.024336185
7	0x3c8feb06	0.017568123

st_gcn_networks.1.gcn.conv.weight f4 [24, 8, 1, 1]
0	0x3b8fece6	0.004392254
1	0xbdc4a06d	-0.09600911
2	0x3da70916	0.0815603
3	0x3d29f212	0.041490622
4	0xbc2aecbb	-0.0104324175
5	0xbd931207	-0.07181173
6	0x3d54d25e	0.051958434
7	0x3de43e2c	0.11144671
8	0x3bb9095b	0.005646867
9	0xbbb2d8c5	-0.00545797
10	0x3dd67e82	0.10473348
11	0xbc16aee2	-0.009196969
12	0x3dadff6c	0.084959835
13	0x3a16eaa7	0.0005757012
14	0x3dd13626	0.10215406
15	0x3c138a01	0.009005071
16	0x3e09913d	0.1343431
17	0xbd8c7cee	-0.06859766
18	0xbc72b97b	-0.01481473
19	0x3d765ad5	0.060145218
20	0x3deb92d0	0.11502612
21	0x3e05f967	0.1308342
22	0xbd1d1ec6	-0.038359426
23	0xbd119482	-0.03554202
24	0x3d172333	0.036898803
25	0xbd63b038	-0.055587977
26	0xbd854e5a	-0.06509085
27	0xbd4a2442	-0.049350984
28	0xbdecdc2b	-0.11565431
29	0xbdd71d50	-0.10503638
30	0x3d25a6ab	0.04044215
31	0xbd8e6a0f	-0.06953823
32	0xbcad7470	-0.021173686
33	0xbd3c69e2	-0.045999415
34	0x3db05b2e	0.08611141
35	0xbd324e68	-0.043531805
36	0x3a92c4c7	0.001119756
37	0x3c9a0389	0.018800514
38	0x3dc50ef3	0.09621992
39	0xbcd155c2	-0.025553588
40	0x3c8f91f4	0.01752565
41	0xbe090811	-0.13381983
42	0x3da847f6	0.082168505
43	0x3b64b463	0.0034897558
44	0xba724105	-0.0009241256
45	0x3c7658b2	0.015035795
46	0xbe02834d	-0.127454
47	0x3ba0136d	0.0048851282
48	0xbd0f178c	-0.034934565
49	0xbdeab700	-0.11460686
50	0x3db32207	0.087467246
51	0x3b6400bc	0.0034790477
52	0x3dc9ce33	0.098537825
53	0xbc325b03	-0.010885957
54	0xbd3c273d	-0.045935858
55	0xbc14924c	-0.009068083
56	0xbc4b44a1	-0.012406499
57	0x3c84a69f	0.016192732
58	0x39963506	0.00028649735
59	0xbca46bc6	-0.020070922
60	0x3cb2bba7	0.021817995
61	0x3d564ac1	0.052317385
62	0x3cbb571f	0.022868691
63	0x3dcb0161	0.099123724
64	0xbc200f4e	-0.009769274
65	0x3e09cb9f	0.13456582
66	0xbd3058d5	-0.043053467
67	0x3ca90d73	0.020636296
68	0xbd2fe583	-0.04294349
69	0x3c444726	0.011979854
70	0x3d66d8e8	0.0563592
71	0x3e0d535d	0.13801332
72	0xbdbb343e	-0.09140824
73	0x3bd27cc3	0.006423564
74	0xbded4f85	-0.11587433
75	0x3cb52de3	0.022116607
76	0x3c5c2a91	0.013437883
77	0xbaec2541	-0.0018016474
78	0x3da72588	0.081614554
79	0x3ba8e54c	0.0051542874
80	0x3d9132c6	0.070897624
81	0x3b78a150	0.0037937947
82	0x3dcf1a01	0.10112382
83	0x3dd3aa5a	0.10335226
84	0xbd9d2ca0	-0.07674527
85	0xbdf825c1	-0.12116576
86	0x3e12debe	0.14342782
87	0xbd2fa3e2	-0.0428809
88	0xbc8ac33e	-0.016938802
89	0x3e14fead	0.14550276
90	0x3df38a84	0.11891654
91	0xbc875dfd	-0.01652431
92	0xbd971414	-0.073768765
93	0x3dd475fc	0.10374066
94	0xbd498570	-0.04919952
95	0xbe028333	-0.12745361
96	0xbd35555e	-0.044270866
97	0xbd09b943	-0.033623945
98	0x3df7ae9e	0.120938525
99	0x39710662	0.00022985929
100	0xbd82b960	-0.06383014
101	0x3d26ea49	0.040750775
102	0xbd897994	-0.06712642
103	0x3ccf1ea6	0.025283169
104	0x3e0c2fe1	0.1369014
105	0xbd69e3c1	-0.05710197
106	0xbc2a94f6	-0.010411492
107	0xbe092348	-0.13392365
108	0x3d671ce6	0.056424044
109	0xbe1f0cec	-0.15532273
110	0x3dc79624	0.09745434
111	0x3c2b2b36	0.010447314
112	0xbde871a7	-0.113498025
113	0xbdf711c7	-0.12063938
114	0x3d95b2b6	0.07309477
115	0xbc51701a	-0.012783075
116	0xbda509e7	-0.08058529
117	0xbd3bc124	-0.04583849
118	0x3cf9aacb	0.030476948
119	0x3df958df	0.12175154
120	0x3da365b2	0.07978381
121	0x3d076ae6	0.03306093
122	0x3ccd62c8	0.025071517
123	0x3cbab191	0.022789748
124	0xbc63048b	-0.013856064
125	0x3c9eb96e	0.01937553
126	0x3d64df76	0.05587717
127	0x3bfd2a90	0.007726021
128	0x3d07b7ca	0.03313426
129	0xbc3b5eb6	-0.011436155
130	0x3dceaa2e	0.10091053
131	0x3d85f804	0.06541446
132	0x3b07d3ed	0.0020725683
133	0x3d7ba1df	0.06143367
134	0x3b9ef907	0.0048514637
135	0xbcc10264	-0.02356071
136	0x3c65df56	0.014030298
137	0xbc41f764	-0.011838768
138	0x3b844fb6	0.0040378226
139	0xbc2ba8ff	-0.0104773035
140	0x3ca412fa	0.02002858
141	0x3db75c6a	0.089531735
142	0x3d87ab80	0.06624508
143	0x3e0b7037	0.13617025
144	0x3b6c024f	0.0036012118
145	0x3d440c85	0.047863502
146	0x3c6e3064	0.014537904
147	0xbb280eaa	-0.0025643506
148	0x381609a6	3.5771773e-05
149	0xbdcdba1e	-0.10045265
150	0x3e0737f3	0.13204937
151	0x3b836ee7	0.0040110233
152	0x3de18a69	0.11012728
153	0x3c1b8b10	0.009493604
154	0xbd015577	-0.031575646
155	0xbba17b0f	-0.004928
156	0x3bba574c	0.005686676
157	0xbd82f97f	-0.06395244
158	0x3e12cbda	0.14335576
159	0xbcda59de	-0.02665418
160	0x3d840dca	0.064479426
161	0x3c96d618	0.018412635
162	0x3de05cc4	0.10955194
163	0x3bdb5ca6	0.006694394
164	0xbb0b36a1	-0.0021242278
165	0xbacc8c37	-0.0015605752
166	0x3ccfef60	0.025382698
167	0xbd8d952f	-0.0691322
168	0x3a40fa24	0.00073614926
169	0x3bc5ac56	0.006032507
170	0xbd9c91ac	-0.07644972
171	0xbd270538	-0.04077646
172	0x3d4edc0e	0.05050283
173	0xbe0df7fe	-0.13864133
174	0xbdde7003	-0.10861208
175	0xbc49a35b	-0.012307013
176	0x3daf026e	0.08545385
177	0x3b020d59	0.0019844382
178	0x3d1efd29	0.03881565
179	0xbdb30b7f	-0.08742427
180	0x3d9e7c7c	0.07738587
181	0x3d17d804	0.037071243
182	0x3c6e8597	0.0145582175
183	0xbc421438	-0.011845641
184	0x3d15c1b2	0.036561675
185	0xbdf75e1e	-0.12078498
186	0x3d1a23a5	0.03763165
187	0xbd6e754f	-0.058217343
188	0x3b5b572f	0.0033468714
189	0xbd4ae40b	-0.049533885
190	0xbdbf33fe	-0.093360886
191	0x3e43d97c	0.19125932

st_gcn_networks.1.gcn.conv.bias f4 [24]
0	0xbb8e6ddb	-0.004346592
1	0x3d16725b	0.03673015
2	0x3c06edbd	0.008235392
3	0x3d3f1209	0.04664806
4	0xbc4fc5de	-0.012681453
5	0xbc492db6	-0.012278965
6	0x3c4008f2	0.011720883
7	0x3c0923b6	0.008370331
8	0xbe063716	-0.13106951
9	0xbb371dfb	-0.0027941454
10	0x3c335d07	0.010947472
11	0xbc29a9ba	-0.010355407
12	0xbdef34d0	-0.11679995
13	0x3c715a02	0.014730932
14	0x3df5d2e1	0.120031126
15	0x3d1f501f	0.03889477
16	0x3b85ca84	0.0040829796
17	0xbd9a3c23	-0.075310014
18	0x3c14b06b	0.009075264
19	0x3d38cd4d	0.045117665
20	0x3d139b69	0.036036883
21	0xbd4d3c2a	-0.050106205
22	0x3d577220	0.052599072
23	0xbd5ed8d6	-0.05440601

st_gcn_networks.1.tcn.0.weight f4 [8]
0	0x3f11bb53	0.5692646
1	0x3f0a0623	0.53915614
2	0x3f1d2116	0.6137861
3	0x3f149e86	0.5805439
4	0x3f0c1e4c	0.5473373
5	0x3f1a279f	0.60216707
6	0x3f18ca22	0.5968343
7	0x3f106b49	0.56413704

st_gcn_networks.1.tcn.0.bias f4 [8]
0	0xbb961024	-0.004579561
1	0x3b653dd1	0.0034979472
2	0xbac275ec	-0.0014836169
3	0x3c11aa4f	0.008890702
4	0xbb0fc902	-0.0021939878
5	0xbbd91e14	-0.0066259
6	0x3c10ec1a	0.0088453535
7	0xbade6f10	-0.0016970355

st_gcn_networks.1.tcn.0.running_mean f4 [8]
0	0x3ba887a4	0.0051431227
1	0x3cac9847	0.021068705
2	0x3cb8939b	0.022531321
3	0xba298afb	-0.0006467548
4	0xbc2f0aeb	-0.010683755
5	0xbd0aa707	-0.033850696
6	0x3cf41c9c	0.029798798
7	0x3c9bf7db	0.019039085

st_gcn_networks.1.tcn.0.running_var f4 [8]
0	0x3a77554a	0.00094350113
1	0x3a32efbc	0.00068258843
2	0x3ab8b244	0.0014091213
3	0x3a4a6849	0.0007721228
4	0x3aa969a0	0.0012925155
5	0x3ab6d016	0.0013947512
6	0x3a25038f	0.0006294781
7	0x3a930496	0.0011216577

st_gcn_networks.1.tcn.2.weight f4 [8, 8, 9, 1]
0	0x38b009a3	8.394129e-05
1	0x3b937e8e	0.0045011705
2	0xbc4bacbe	-0.012431322
3	0xbbff274a	-0.007786666
4	0xbc87e7ae	-0.016589966
5	0xb9f0ccec	-0.00045929046
6	0xbbdf8a14	-0.00682188
7	0x3c21f0fb	0.009884114
8	0xbb939129	-0.0045033884
9	0xbc428bc4	-0.011874143
10	0xbcbac13a	-0.022797216
11	0xbcac8780	-0.021060705
12	0xba5db923	-0.00084580685
13	0xbcb931ed	-0.022606814
14	0xbcec3212	-0.02883247
15	0xbcec5b94	-0.028852262
16	0xbc98ec92	-0.018667493
17	0xbc1cb484	-0.009564523
18	0x3d0eccd9	0.034863327
19	0xbc4eaeca	-0.012614915
20	0x3becf0e7	0.0072308662
21	0xbcdb20a2	-0.026748959
22	0x3c3aa421	0.01139167
23	0xbc24216c	-0.010017734
24	0x3d11a233	0.035555076
25	0xbc76995e	-0.015051214
26	0xbcdd4f75	-0.027015427
27	0xbcb4c823	-0.022068089
28	0xbcce6005	-0.02519227
29	0x3c8d735c	0.017266922
30	0x3cb58348	0.022157326
31	0xbc051772	-0.008123266
32	0x3c165608	0.009175785
33	0xbd32425b	-0.043520313
34	0xbced493b	-0.028965583
35	0xbd0e3f48	-0.03472832
36	0x3c833b09	0.016019361
37	0xbd103b8b	-0.035213035
38	0xbb9cc814	-0.0047845934
39	0xbca99316	-0.020700019
40	0x3cf6ffd4	0.030151285
41	0x3ca6a6ba	0.020343173
42	0x3cbd2fb2	0.023094032
43	0x3c258c20	0.010104209
44	0x3b0cae35	0.002146614
45	0x3c83fde4	0.016112275
46	0xb9705b40	-0.00022922177
47	0x3d0b184e	0.033958726
48	0x3d10810a	0.03527931
49	0x3ce4e6e6	0.027942132
50	0xbb450c96	-0.0030067316
51	0x3cfef03a	0.031120408
52	0xbcb37267	-0.021905137
53	0xbbd05dba	-0.0063588293
54	0xbca43a96	-0.020047467
55	0x3c7a7cfb	0.015288587
56	0x3c8037cc	0.015651606
57	0xbcc1d7be	-0.023662444
58	0xba81a772	-0.0009891822
59	0x3cbf41a9	0.023346739
60	0x3c7814f3	0.015141713
61	0x3ac0df0c	0.0014714911
62	0x3c181949	0.009283372
63	0x3c8976c9	0.016780274
64	0x3cb9eb37	0.022695167
65	0xbcfc6912	-0.03081182
66	0xbd06e3a3	-0.032931935
67	0x3a6e8e01	0.000910014
68	0xbbdcd77c	-0.006739555
69	0x3b2fdf44	0.0026835958
70	0x3cd23bd1	0.025663288
71	0xbb8389fe	-0.0040142527
72	0x3c644233	0.013931799
73	0xbc403cdd	-0.011733261
74	0xbc1e2051	-0.0096512595
75	0x3c71ce7f	0.014758705
76	0x39852a4c	0.0002539925
77	0x3ca936fe	0.020656105
78	0xbc861c78	-0.016370997
79	0x3c4a9a69	0.012365916
80	0xbb068a90	-0.0020529367
81	0xbcb51baf	-0.022107927
82	0xbc0decce	-0.008662416
83	0xbccbd793	-0.024883067
84	0xbc7baf5c	-0.015361633
85	0x3d0f5610	0.034994185
86	0x3d1f231f	0.038851853
87	0x3cdf65ef	0.027270285
88	0xbc9a2b49	-0.018819468
89	0xbc558673	-0.0130325435
90	0x3b94035a	0.004517001
91	0xbbdfd356	-0.006830613
92	0x3ce2d175	0.027687768
93	0x3d197b95	0.037471373
94	0x3cce3c3c	0.025175206
95	0x3d1a625c	0.03769146
96	0x3a9ced4a	0.0011972573
97	0x3cc41c73	0.023939347
98	0x3caa2424	0.020769186
99	0xbbdc381a	-0.006720555
100	0x3d471166	0.048600577
101	0xbc12725d	-0.008938399
102	0x3cadbfff	0.021209715
103	0x3ccb610d	0.02482655
104	0x3cda7702	0.026668075
105	0x3d5315b0	0.051534355
106	0x3b2af546	0.0026086136
107	0x3d0612ef	0.0327329
108	0xbc91118b	-0.01770856
109	0x3d04a684	0.032385364
110	0xbbfa930e	-0.007646925
111	0xbc9de167	-0.01927252
112	0x3c9e1e96	0.019301694
113	0xbcac4aea	-0.021031816
114	0x3c8076ba	0.015681613
115	0x3accceac	0.0015625558
116	0x3d50e79f	0.05100214
117	0x3cdedeaf	0.027205793
118	0xbb1512ca	-0.0022746795
119	0x3ca6450f	0.020296602
120	0xbc748f74	-0.01492678
121	0xbcc8d3fb	-0.024515143
122	0xbc9c0bf8	-0.019048676
123	0x3c7c8626	0.015412843
124	0x3ce43a96	0.027859967
125	0x3c844abe	0.016148921
126	0xbbfa072e	-0.0076302504
127	0xbbec9b1c	-0.007220639
128	0x3d06d39e	0.032916658
129	0xbcba167c	-0.0227158
130	0x3ba46269	0.005016614
131	0x3cbdb631	0.023158165
132	0x3cbfbbbd	0.02340495
133	0xbcc98eff	-0.024604319
134	0x3c97e4f8	0.018541798
135	0x3c2a1804	0.010381702
136	0xbb35b3ae	-0.0027725506
137	0xbc1856d5	-0.009298046
138	0xbbb709b2	-0.0055858726
139	0xbd16c079	-0.03680465
140	0x3c3b065b	0.0114150895
141	0x3cd73a7d	0.026273007
142	0xbc9cb429	-0.019128876
143	0xbc4f06b3	-0.012635875
144	0x3c7222c9	0.014778801
145	0xbd00dfeb	-0.031463545
146	0xbd0e2e53	-0.034712147
147	0xbcddd907	-0.027081026
148	0xbc0ea5e9	-0.008706548
149	0x3cde0151	0.027100237
150	0x3c00115f	0.007816642
151	0xbcf38dcb	-0.029730698
152	0xbcabf680	-0.020991564
153	0x3c9263ab	0.017869791
154	0x3d3e0253	0.046388935
155	0x3b4b4ce0	0.0031021163
156	0x3adaaa38	0.0016682809
157	0x3d021416	0.031757437
158	0xbbde0c71	-0.0067763855
159	0xbd06a7ca	-0.03287486
160	0xbbe1ca0f	-0.0068905423
161	0x3c7d6048	0.01546485
162	0x3cd42bda	0.025899816
163	0xbce201c0	-0.027588725
164	0x3c5d2282	0.013496997
165	0x3c9b4064	0.018951602
166	0x3c429138	0.011875443
167	0x3c090d0d	0.008364928
168	0x3a059cfc	0.000509694
169	0xbb8a0767	-0.004212308
170	0xbc8059db	-0.015667846
171	0xbcaa0431	-0.020753952
172	0xbb374397	-0.002796387
173	0xbd6ab0ac	-0.057297394
174	0xbaaf7628	-0.0013386654
175	0xbcaffd55	-0.021483103
176	0xbd680768	-0.05664769
177	0xbd27914a	-0.040910043
178	0x3c56de0f	0.013114466
179	0x3cdbdff2	0.026840184
180	0xbcaad2a1	-0.020852389
181	0x3d72291c	0.059121236
182	0xbd53815e	-0.051637046
183	0x3d3b58bf	0.04573893
184	0xbb86929b	-0.004106832
185	0x3cbfad4d	0.023398066
186	0x3d18c2cb	0.037295144
187	0xbcea7fcb	-0.02862539
188	0x3d0f9728	0.035056263
189	0x3be92e9b	0.0071161515
190	0xbd1fe073	-0.03903241
191	0x3d2d84c3	0.04236294
192	0xbbcd2476	-0.00626045
193	0x3b70d684	0.0036748955
194	0xbd1c7533	-0.038197707
195	0x3b2c81f1	0.0026322568
196	0xbd4b2a2e	-0.049600773
197	0xbd3ec886	-0.046577953
198	0xba8252b6	-0.0009942863
199	0x3b3c36b7	0.0028719136
200	0x3d1ad513	0.03780086
201	0x3d0b0bf9	0.033946965
202	0x3c64010d	0.013916266
203	0xbcf2a290	-0.029618531
204	0xbc0f9991	-0.00876464
205	0x3bd10b32	0.0063795084
206	0x3d49518b	0.04915003
207	0xbcf48b0f	-0.029851465
208	0x3d26a4b1	0.040684406
209	0x3c838fe4	0.016059823
210	0xbc81be0b	-0.01583769
211	0x3d1e88b9	0.038704608
212	0x3ca282df	0.019837795
213	0x3c1d271a	0.009591842
214	0x39eb9996	0.00044937123
215	0x3c00e226	0.007866418
216	0xbbb8699d	-0.0056278245
217	0xbc47f418	-0.012204193
218	0x3c9772ac	0.018487297
219	0xbd097ad4	-0.033564404
220	0xbbd539c3	-0.00650713
221	0x3b27600d	0.0025539428
222	0xbcb209ce	-0.02173319
223	0xbc8c3902	-0.017117027
224	0x3ca99f6c	0.020705901
225	0x3d246dc7	0.040143754
226	0xbbdb3119	-0.0066892025
227	0x3a752ba2	0.000935251
228	0x3cc7aa86	0.024373304
229	0x3d556554	0.052098587
230	0x3c0c1d6b	0.008551936
231	0xbc8a1fc5	-0.016860852
232	0xbd1076d1	-0.035269562
233	0x3d0b76be	0.03404879
234	0x3bd0877e	0.006363808
235	0x3d1844a9	0.037174854
236	0x3b6dc397	0.003627991
237	0xbcb5dac8	-0.02219905
238	0x3d15419d	0.036439527
239	0x3c9940a9	0.01870759
240	0x3ca7aad1	0.020467194
241	0x3cf7c6d3	0.030246174
242	0x3d20a232	0.03921718
243	0x3ab536e0	0.0013825558
244	0xbcd24c2d	-0.025671089
245	0xbcc03e71	-0.023467274
246	0x3b9f3e0f	0.004859693
247	0xbc9bd99b	-0.01902466
248	0xbd110ca3	-0.035412442
249	0xbc0f5e0c	-0.00875045
250	0x3d02a1e3	0.03189267
251	0xbd1cb67c	-0.03825997
252	0xbc1333d0	-0.008984521
253	0xbc42e50f	-0.011895432
254	0xbb875442	-0.0041299174
255	0x3a226453	0.0006194759

st_gcn_networks.1.tcn.2.bias f4 [8]
0	0xb4f97757	-4.6466695e-07
1	0xb42bbf4b	-1.5995208e-07
2	0x341e3565	1.4734321e-07
3	0x34ba350a	3.468379e-07
4	0xb31179d5	-3.387125e-08
5	0xb4f46173	-4.5519445e-07
6	0x34e65f0f	4.2910003e-07
7	0xb533822c	-6.687212e-07

st_gcn_networks.1.tcn.3.weight f4 [8]
0	0x3f09d539	0.53840977
1	0x3f157d39	0.583942
2	0x3f11b6c4	0.56919503
3	0x3f16216b	0.5864474
4	0x3f11ca84	0.5694964
5	0x3f25a9d1	0.64712244
6	0x3f11d0d4	0.5695927
7	0x3f0b8cb7	0.5451159

st_gcn_networks.1.tcn.3.bias f4 [8]
0	0xbc4c5c0e	-0.012473119
1	0x3b209c10	0.0024507083
2	0x3b790284	0.0037995884
3	0xbb2ff630	-0.002684962
4	0xbc4b7efb	-0.012420411
5	0x3a685f30	0.00088642817
6	0x3b17f225	0.00231851
7	0x3cac33c8	0.021020785

st_gcn_networks.1.tcn.3.running_mean f4 [8]
0	0xbca8191f	-0.020519791
1	0x3dd4def8	0.103940904
2	0xbbc097e8	-0.0058774836
3	0xbc0b7e5f	-0.008514016
4	0xba2a5fa0	-0.00064992346
5	0x3c7fb431	0.015606926
6	0xbd2a967d	-0.041647423
7	0xbd372f1a	-0.044722654

st_gcn_networks.1.tcn.3.running_var f4 [8]
0	0x3c1efe53	0.00970419
1	0x3c911295	0.017709056
2	0x3bf3093a	0.0074168714
3	0x3bf32044	0.007419618
4	0x3c2fb8e8	0.010725237
5	0x3c37cd24	0.011218343
6	0x3b378478	0.0028002542
7	0x3c2085ca	0.009797523

st_gcn_networks.1.residual.0.weight f4 [8, 8, 1, 1]
0	0xbd8544ad	-0.065072395
1	0xbdaffe48	-0.08593422
2	0xbe15faff	-0.14646529
3	0xbcc4ecb8	-0.024038658
4	0xbd912fe7	-0.07089215
5	0x3d950dbc	0.0727801
6	0x3df59428	0.11991149
7	0xbddb8919	-0.10719509
8	0xbe1435da	-0.14473668
9	0xbd91c554	-0.071177155
10	0xbd55bd7d	-0.052182663
11	0xbd3fa7b1	-0.046790782
12	0xbda36b12	-0.079794064
13	0x3e20a54f	0.1568806
14	0x3e0efd4e	0.13963816
15	0xbdf601c3	-0.12012055
16	0xbe3ea99f	-0.18619393
17	0xbb7313ed	-0.0037090734
18	0x3dc946a5	0.098279275
19	0xbbed99ab	-0.0072509847
20	0xbd2e0383	-0.042483818
21	0x3d87ee3e	0.06637238
22	0xbc1b7b36	-0.009489825
23	0xbdefa41f	-0.117012255
24	0x3da2efad	0.07955871
25	0xbcd40955	-0.025883356
26	0xbdeaebd9	-0.114707656
27	0xbd19b33a	-0.03752444
28	0xbd153ba6	-0.03643384
29	0xbd35a8e2	-0.044350512
30	0x3dfae725	0.122511186
31	0x3e10f031	0.14154126
32	0xbd21f314	-0.039538458
33	0x3dbc8b09	0.09206206
34	0xbe10bbbe	-0.14134118
35	0x3aa35c2f	0.0012463386
36	0x3d5b7381	0.05357695
37	0xbda051b5	-0.078280844
38	0x3e2fe425	0.17176874
39	0x3dc82a53	0.09773698
40	0x3e2aa66c	0.16665047
41	0x3d5e047e	0.054203503
42	0x3e221dd3	0.1583169
43	0x3c739c8b	0.014868866
44	0xbd989943	-0.07451107
45	0xbdaa430b	-0.08313569
46	0xbd8e1eeb	-0.06939491
47	0xbe0d6375	-0.13807471
48	0x3d4f1102	0.05055333
49	0x3bdb020a	0.0066835927
50	0xbdaaf82e	-0.08348118
51	0x3cd9fa87	0.026608719
52	0xbc90e27d	-0.017686123
53	0xbcc89af9	-0.02448796
54	0xbdb3dd13	-0.08782401
55	0xbc0ef2db	-0.008724893
56	0xbd0a136d	-0.033709932
57	0xbbd663cf	-0.00654266
58	0x3dff96af	0.124799125
59	0x3c34c0ec	0.011032324
60	0x3e04a4cb	0.12953489
61	0x3e2ef46d	0.17085429
62	0xbe2a5052	-0.16632202
63	0xbdfa8cd6	-0.122338936

st_gcn_networks.1.residual.0.bias f4 [8]
0	0xbb08744c	-0.0020821271
1	0x3916f689	0.00014396956
2	0x35b10871	1.3189984e-06
3	0x3c07451f	0.008256226
4	0x32bf620e	2.2279917e-08
5	0xb45ef162	-2.0763176e-07
6	0x33408964	4.482844e-08
7	0xbbafd977	-0.0053665

st_gcn_networks.1.residual.1.weight f4 [8]
0	0x3f0a74a8	0.54084253
1	0x3f1167a7	0.56798786
2	0x3f16cd16	0.58906686
3	0x3f1354d1	0.57551295
4	0x3f16005a	0.58594286
5	0x3f18c7cb	0.5967986
6	0x3f19d191	0.600854
7	0x3f105382	0.5637742

st_gcn_networks.1.residual.1.bias f4 [8]
0	0xbc4c5c0e	-0.012473119
1	0x3b209c10	0.0024507083
2	0x3b790284	0.0037995884
3	0xbb2ff630	-0.002684962
4	0xbc4b7efb	-0.012420411
5	0x3a685f30	0.00088642817
6	0x3b17f225	0.00231851
7	0x3cac33c8	0.021020785

st_gcn_networks.1.residual.1.running_mean f4 [8]
0	0xbd94b865	-0.07261733
1	0xbd3b3956	-0.045708977
2	0xbd1fa93e	-0.03897976
3	0x3cc5a987	0.024128688
4	0x3cfeab3e	0.031087514
5	0x3c6c99aa	0.014440933
6	0xbd106543	-0.03525282
7	0x3ca64afe	0.020299431

st_gcn_networks.1.residual.1.running_var f4 [8]
0	0x3bc49eb0	0.0060003623
1	0x3c10b3d6	0.008831939
2	0x3bf6574b	0.0075177304
3	0x3c0f44fb	0.008744474
4	0x3c551884	0.013006333
5	0x3c54d469	0.012990096
6	0x3af67da8	0.0018805759
7	0x3c51ec23	0.012812647

st_gcn_networks.2.gcn.conv.weight f4 [48, 8, 1, 1]
0	0x3bef11e4	0.007295834
1	0xbd446db6	-0.04795619
2	0x3c3f4751	0.011674718
3	0xbd6d3b5e	-0.057917945
4	0x3d624d88	0.05524972
5	0xbc99ffc8	-0.018798724
6	0xbdbe5da2	-0.09295203
7	0x3c50ef8e	0.012752427
8	0xbb6cf535	-0.0036156897
9	0xbd995419	-0.074867435
10	0xbd0741cd	-0.033021737
11	0xbc0af78c	-0.008481871
12	0xbb131b30	-0.0022446625
13	0x3c063aa3	0.008192691
14	0x3c036a48	0.008020945
15	0xbcad51ae	-0.021157112
16	0xbc08282b	-0.008310358
17	0xbd8548d4	-0.065080315
18	0x3c2df4a8	0.010617413
19	0xbd1edb01	-0.038783077
20	0x3c76364e	0.015027596
21	0x3cb70b17	0.022344155
22	0xbb1c9434	-0.0023892047
23	0x3da7b591	0.08188928
24	0xb81e6424	-3.77634e-05
25	0xbd287966	-0.0411314
26	0xbccb7fcc	-0.024841212
27	0xbbe0ca63	-0.006860064
28	0x3db9e6fb	0.09077259
29	0xbda04f80	-0.078276634
30	0x3ca04f48	0.019569054
31	0x3dc5de35	0.09661523
32	0xbac7c9eb	-0.0015242671
33	0xbc142403	-0.009041789
34	0xbb400c77	-0.0029304305
35	0xbda63f93	-0.081175946
36	0x3ca1eed4	0.019767202
37	0x3dd19381	0.10233212
38	0xbdab5045	-0.083649196
39	0xbcaee6cd	-0.021350289
40	0x3de75021	0.1129458
41	0x3c8b0be3	0.016973441
42	0xbdc97aea	-0.09837897
43	0xbca03753	-0.01955763
44	0x3e32bcc4	0.17454821
45	0xbb3b774b	-0.002860504
46	0xbe1ff0c6	-0.15619192
47	0xbcd55e61	-0.02604598
48	0xbdaae4f4	-0.083444506
49	0xbde02f78	-0.10946554
50	0xbdcc4930	-0.09974897
51	0xbc6f2139	-0.014595323
52	0xbd55601f	-0.05209362
53	0x3db4099a	0.08790894
54	0xbddc79ae	-0.10765396
55	0x3d8c9790	0.06864846
56	0xbd195457	-0.03743395
57	0xbb8ae5d3	-0.004238823
58	0x3d264ba9	0.0405995
59	0x3c3a6980	0.011377692
60	0x3bd745e8	0.006569613
61	0xbc149ad7	-0.00907012
62	0x3b121802	0.0022292142
63	0x3c326acd	0.010889721
64	0xbd28b0c8	-0.041184217
65	0xbcce7599	-0.02520256
66	0x3ca470c9	0.020073311
67	0x3b08c5e8	0.0020869914
68	0xbd812b39	-0.06307072
69	0x3d9d4e9e	0.07681011
70	0xbcccde1f	-0.02500826
71	0x3c4e16f1	0.012578712
72	0xbd7230b5	-0.059128482
73	0xbc6d4b78	-0.014483325
74	0xbc18f793	-0.00933637
75	0x3cee5ee7	0.029097987
76	0x3db14f6d	0.086577274
77	0x3c31902c	0.010837596
78	0xbcb51b99	-0.022107886
79	0xbce8a7b2	-0.028400276
80	0xbd249a3d	-0.040186156
81	0xbc2bf500	-0.010495424
82	0x3d8252eb	0.063634716
83	0x3c48ce81	0.012256266
84	0x3d93b1a5	0.072116174
85	0x3dd4b880	0.10386753
86	0x3d0458c7	0.032311227
87	0xbb8dda6b	-0.004329016
88	0xbb3c0982	-0.002869219
89	0xbdc383ca	-0.09546621
90	0xbd851be4	-0.0649946
91	0x3c92ce9b	0.017920783
92	0xbbbfc0fb	-0.0058518625
93	0xbc25bd0e	-0.010115875
94	0x3b6ecfae	0.0036439705
95	0x3cfd103e	0.030891534
96	0x3c8ccb15	0.01718668
97	0xbd4b7b04	-0.049677864
98	0x3c4892b4	0.012242008
99	0x3dbd6548	0.092478335
100	0xbd3662f3	-0.04452796
101	0x3c4a6677	0.012353531
102	0x3bf84393	0.007576415
103	0x3c8796f0	0.016551465
104	0xbd078037	-0.03308126
105	0xbd21c42d	-0.03949373
106	0x3dabe0fa	0.0839252
107	0xbc6d277d	-0.014474747
108	0xbc95db32	-0.018292997
109	0x3d1f0232	0.038820453
110	0xbc4155cd	-0.011800242
111	0xbc512965	-0.012766217
112	0xbd4f6454	-0.05063279
113	0x3bfb830c	0.007675534
114	0x3d6dfbc9	0.05810145
115	0xbdd59f88	-0.10430819
116	0xbc285798	-0.01027479
117	0x3da3645d	0.07978127
118	0xbbb772ad	-0.005598387
119	0x392c55cc	0.0001643516
120	0xbcb0277e	-0.021503206
121	0xbc467c08	-0.012114532
122	0xbd243784	-0.040092006
123	0xbd541f2d	-0.051787544
124	0xbbd82956	-0.0065967245
125	0x3a86c609	0.0010282408
126	0xbcd78fff	-0.02631378
127	0xba7d77e2	-0.0009669048
128	0xbd4db8a9	-0.050224934
129	0xbcdc8e03	-0.026923185
130	0x3c07782e	0.008268399
131	0xbca0b8bb	-0.019619336
132	0x3ce7eb03	0.028310305
133	0x3de31779	0.110884614
134	0x3dce729e	0.10080455
135	0xbc517b98	-0.012785815
136	0x3b4248a9	0.002964536
137	0xbd8b42f3	-0.06799879
138	0x3c5e303a	0.013561303
139	0xbcfd231e	-0.030900534
140	0xbc5ae70f	-0.013360753
141	0x3c43e988	0.011957534
142	0x3db8f462	0.09030987
143	0xbaf36b9f	-0.0018571502
144	0x3bab02bd	0.0052188323
145	0xbc7d6e55	-0.0154682
146	0x3dad6869	0.0846718
147	0xbc3396a5	-0.010961209
148	0x3d9463b8	0.07245582
149	0x3c147403	0.0090608625
150	0xbbb5d91e	-0.005549564
151	0xbca5ba11	-0.020230325
152	0x3d5e310f	0.054246005
153	0x3d7c5be2	0.061611064
154	0xbc3c8a03	-0.011507514
155	0xbd454428	-0.048160702
156	0x3de61e00	0.11236191
157	0xbd1d3ec6	-0.038389944
158	0xbc66688c	-0.014063012
159	0xbd01e7ae	-0.031715088
160	0x3d362b0e	0.044474654
161	0xbb293e6c	-0.002582456
162	0x3d992b25	0.07478932
163	0xbc8ac798	-0.016940877
164	0xbbcfdda1	-0.006343559
165	0x3da33d22	0.079706445
166	0x3dd03fd8	0.10168427
167	0x3cb396ff	0.021922586
168	0x3cbe4701	0.023227217
169	0x3d8f916e	0.070101604
170	0xbd719f3a	-0.05898974
171	0xbd4b7691	-0.04967362
172	0x3d0a2bf7	0.033733334
173	0xbe0f2c5a	-0.13981763
174	0x3d801c8f	0.06255447
175	0xbcb30cff	-0.021856783
176	0x3cccd8f2	0.025005791
177	0x3d6d3647	0.05791309
178	0xbd2384c2	-0.03992153
179	0x3d6944d4	0.056950405
180	0x3dcd79f5	0.10033027
181	0xbcf76d84	-0.030203588
182	0xbb2561ae	-0.0025235224
183	0xbb3d6969	-0.002890194
184	0xbd33211a	-0.04373274
185	0xbdb58747	-0.08863693
186	0x3d361071	0.044449273
187	0x3c2764c3	0.010216895
188	0xbcdbd9f3	-0.026837325
189	0x3d69d492	0.05708749
190	0xbd28929d	-0.041155446
191	0x3d998c70	0.074974895
192	0x3d915f95	0.07098309
193	0x3db643a4	0.0889962
194	0xbd15a93a	-0.03653834
195	0x3d150d94	0.036389902
196	0x3dc06207	0.09393697
197	0x3b909b48	0.004413042
198	0x3d2ebfa1	0.04266322
199	0x3b462c73	0.0030238896
200	0xbcc5003d	-0.024047965
201	0x3b92ce35	0.004480148
202	0xbcfd3a06	-0.030911457
203	0x3dc51074	0.09622279
204	0xbd3fc7d9	-0.04682145
205	0x3dd5eeed	0.10445962
206	0xbb51154a	-0.0031903558
207	0x3c8a1765	0.016856859
208	0xbcf0af6f	-0.029380528
209	0xbd85e353	-0.06537499
210	0x3cdba855	0.026813665
211	0x3d5ddce5	0.05416574
212	0xbb715987	-0.0036827044
213	0x3c74e91f	0.0149481585
214	0x3bea44b8	0.007149305
215	0x3d3eac82	0.046551235
216	0x3dc5b2bf	0.09653234
217	0x3de57a26	0.112049386
218	0x3d49ccc0	0.04926753
219	0x3bdf4035	0.006813074
220	0xbd49a6cb	-0.04923133
221	0xbc873268	-0.016503528
222	0x3dbfba8d	0.093617536
223	0x3d803b7a	0.06261344
224	0x3c519476	0.0127917435
225	0x392dbaf8	0.00016568217
226	0xbc6e6b62	-0.014551969
227	0xbd9016fd	-0.07035635
228	0xbd1332d9	-0.035937164
229	0x3abcbdb4	0.0014399798
230	0x3c695fb6	0.014244011
231	0x3c2fa14d	0.010719609
232	0x3c30480d	0.010759366
233	0x3d687886	0.056755565
234	0xbdb5782b	-0.08860811
235	0x3de88e14	0.11355224
236	0xbc9dad7f	-0.019247768
237	0xbdbe1453	-0.0928122
238	0x3a99006d	0.00116731
239	0x3e0c7118	0.13715017
240	0x3c4a2737	0.012338451
241	0xbc657df9	-0.014007085
242	0xbbbce65b	-0.005764765
243	0x3c3c21ef	0.0114827
244	0x3bc5448b	0.006020134
245	0x3d10936b	0.03529684
246	0xbc5a4066	-0.013321018
247	0xb9b48fbb	-0.00034439363
248	0x3bdf2a32	0.00681045
249	0xbd0d7db2	-0.0345437
250	0x3c536f53	0.01290496
251	0x3cd189d9	0.025578426
252	0xbae536d7	-0.0017487657
253	0x3c7d0e98	0.015445374
254	0xbd67cd86	-0.056592487
255	0x3c4a76e2	0.012357445

st_gcn_networks.2.gcn.conv.bias f4 [48]
0	0xbb518726	-0.0031971424
1	0x3c71cbd2	0.014758067
2	0x3bbaf1df	0.005705103
3	0xbc39829e	-0.0113226455
4	0x3b4f7fb1	0.0031661803
5	0xbd58e3c0	-0.052951574
6	0x3d64568f	0.05574661
7	0x3ab53ed0	0.0013827924
8	0x3be4aee1	0.006978855
9	0xbc2861cd	-0.010277224
10	0xbc28018d	-0.010254276
11	0x3ca943f8	0.020662293
12	0x3be1d951	0.006892361
13	0x3cabb146	0.020958554
14	0xbcb8597b	-0.022503605
15	0xbceedfa4	-0.029159375
16	0xbd95fbfe	-0.07323454
17	0xbc31c152	-0.010849314
18	0xb9f42024	-0.00046563253
19	0x3b94d28f	0.004541702
20	0x3aa6843b	0.0012704203
21	0xbd9f1c44	-0.07769063
22	0xbd0ce47c	-0.034397587
23	0x3a9d62d6	0.0012007605
24	0xbdcdf2c8	-0.100560725
25	0x3b665640	0.0035146624
26	0xbc523f39	-0.012832456
27	0xbca64d36	-0.020300489
28	0x3d76bf2f	0.06024092
29	0x3da8c7ba	0.0824122
30	0xbc958067	-0.018249704
31	0xbb6ea230	-0.003641259
32	0x3b4cba21	0.003123887
33	0x3b5d07d0	0.003372658
34	0xbb439795	-0.0029844989
35	0x3d473dfc	0.048643097
36	0xb984b88a	-0.00025314494
37	0xbbd3a1f1	-0.006458514
38	0xbbd71b20	-0.006564513
39	0xbcd582b1	-0.026063295
40	0xbd19a550	-0.03751117
41	0x3cf72854	0.030170597
42	0xbc03ab70	-0.008036479
43	0xbd329bb0	-0.043605506
44	0x3d56baab	0.052424114
45	0x3ba7333a	0.005102542
46	0x3c372591	0.01117839
47	0x3c19b4d6	0.009381494

st_gcn_networks.2.tcn.0.weight f4 [16]
0	0x3f06a751	0.52599055
1	0x3f0c2b4b	0.5475356
2	0x3f04642d	0.51715356
3	0x3f06d5cd	0.52669984
4	0x3f04d124	0.51881623
5	0x3f0c88af	0.5489606
6	0x3f083ab9	0.53214604
7	0x3f03b6fd	0.5145109
8	0x3f042997	0.5162596
9	0x3f0a4b6a	0.5402132
10	0x3f0532aa	0.5203043
11	0x3f070a4e	0.527501
12	0x3f038b57	0.5138449
13	0x3f09cd70	0.538291
14	0x3f04fa23	0.5194418
15	0x3f043d21	0.51655775

st_gcn_networks.2.tcn.0.bias f4 [16]
0	0xba68bfef	-0.0008878698
1	0x3bbc0501	0.005737901
2	0xbaf10a7c	-0.0018389965
3	0x3a468e97	0.0007574348
4	0x3b0ab1ba	0.0021163062
5	0xba97f159	-0.0011592313
6	0xbaf90073	-0.0018997326
7	0xbc1527aa	-0.009103695
8	0xbc10a163	-0.00882754
9	0x3b182939	0.002321793
10	0x3b90092d	0.004395625
11	0xbb6404b4	-0.0034792842
12	0xbbb6c59a	-0.005577755
13	0xbcb38926	-0.021915983
14	0x3b3333b3	0.0027344048
15	0xbb6df120	-0.0036307052

st_gcn_networks.2.tcn.0.running_mean f4 [16]
0	0xbc1e416c	-0.0096591525
1	0xbb4f1395	-0.0031597365
2	0x3b820a35	0.003968502
3	0x3c385ba8	0.011252321
4	0xbbb47d16	-0.0055080755
5	0xbd75edd7	-0.060041275
6	0xbc898693	-0.016787803
7	0x3be90c94	0.007112095
8	0x3bbcffc3	0.005767794
9	0x3c1190f7	0.00888466
10	0x3b9df92f	0.0048209648
11	0x38a00a63	7.631329e-05
12	0x3ce5996a	0.028027255
13	0x3ce881bf	0.02838218
14	0xbbf9c39d	-0.007622196
15	0xbb6f105f	-0.0036478264

st_gcn_networks.2.tcn.0.running_var f4 [16]
0	0x39cdb7bf	0.00039237548
1	0x3a665730	0.00087867957
2	0x39a37d93	0.00031183343
3	0x39fae417	0.00047853656
4	0x3aa8c849	0.0012877072
5	0x3aa8f852	0.0012891388
6	0x3a00c1ca	0.00049116893
7	0x3a330e6f	0.0006830459
8	0x3a5de643	0.00084647926
9	0x3a8e9a39	0.0010879702
10	0x3a4cf5c0	0.0007818602
11	0x3a8299ab	0.000996401
12	0x397c8cdc	0.00024085067
13	0x39ac6a4a	0.00032885588
14	0x39aba69e	0.000327398
15	0x3a07a70c	0.0005174733
