weights_arm/80.pt (torch, 70926 bytes, 80 tensors)

A f4 [3, 9, 9]
00000000: 0000 003f 0000 0000 0000 0000 0000 0000
00000010: 0000 0000 0000 0000 0000 0000 0000 0000
00000020: 0000 0000 0000 0000 cdcc 4c3e 0000 0000
00000030: 0000 0000 0000 0000 0000 0000 0000 0000
00000040: 0000 0000 0000 0000 0000 0000 0000 0000
00000050: abaa aa3e 0000 0000 0000 0000 0000 0000
00000060: 0000 0000 0000 0000 0000 0000 0000 0000
00000070: 0000 0000 0000 0000 abaa aa3e 0000 0000
00000080: 0000 0000 0000 0000 0000 0000 0000 0000
00000090: 0000 0000 0000 0000 0000 0000 0000 0000
000000a0: 0000 003f 0000 0000 0000 0000 0000 0000
000000b0: 0000 0000 0000 0000 0000 0000 0000 0000
000000c0: 0000 0000 0000 0000 abaa aa3e 0000 0000
000000d0: 0000 0000 0000 0000 0000 0000 0000 0000
000000e0: 0000 0000 0000 0000 0000 0000 0000 0000
000000f0: abaa aa3e 0000 0000 0000 0000 0000 0000
00000100: 0000 0000 0000 0000 0000 0000 0000 0000
00000110: 0000 0000 0000 0000 0000 003f 0000 0000
00000120: 0000 0000 0000 0000 0000 0000 0000 0000
00000130: 0000 0000 0000 0000 0000 0000 0000 0000
00000140: 0000 003f 0000 0000 cdcc 4c3e 0000 0000
00000150: 0000 0000 0000 0000 0000 0000 0000 0000
00000160: 0000 0000 0000 0000 0000 0000 0000 0000
00000170: 0000 0000 0000 0000 0000 0000 0000 0000
00000180: 0000 0000 0000 0000 0000 0000 0000 0000
00000190: cdcc 4c3e 0000 0000 0000 0000 0000 0000
000001a0: 0000 0000 0000 0000 0000 0000 0000 0000
000001b0: 0000 0000 0000 0000 abaa aa3e 0000 0000
000001c0: 0000 003f 0000 0000 0000 0000 0000 0000
000001d0: 0000 0000 0000 0000 0000 0000 0000 0000
000001e0: abaa aa3e 0000 0000 0000 0000 0000 0000
000001f0: 0000 0000 0000 0000 0000 0000 cdcc 4c3e
00000200: 0000 0000 0000 0000 0000 0000 0000 0000
00000210: 0000 0000 0000 0000 0000 0000 0000 0000
00000220: 0000 0000 0000 0000 0000 0000 0000 0000
00000230: abaa aa3e 0000 0000 0000 003f 0000 0000
00000240: 0000 0000 0000 0000 0000 0000 0000 0000
00000250: 0000 0000 0000 0000 abaa aa3e 0000 0000
00000260: 0000 0000 0000 0000 cdcc 4c3e 0000 0000
00000270: 0000 0000 0000 0000 0000 0000 0000 0000
00000280: 0000 0000 0000 0000 0000 0000 0000 0000
00000290: 0000 0000 0000 0000 0000 0000 0000 0000
000002a0: 0000 0000 0000 0000 0000 0000 0000 003f
000002b0: 0000 0000 abaa aa3e 0000 0000 0000 0000
000002c0: abaa aa3e 0000 0000 0000 0000 0000 003f
000002d0: 0000 0000 0000 0000 0000 0000 abaa aa3e
000002e0: 0000 0000 0000 0000 0000 0000 0000 0000
000002f0: 0000 0000 0000 0000 0000 0000 0000 0000
00000300: 0000 0000 0000 0000 0000 0000 0000 0000
00000310: 0000 0000 0000 0000 0000 0000 0000 0000
00000320: 0000 0000 0000 0000 0000 0000 0000 0000
00000330: 0000 0000 0000 0000 0000 0000 0000 0000
00000340: 0000 0000 0000 0000 0000 0000 0000 0000
00000350: 0000 0000 abaa aa3e 0000 0000 0000 0000
00000360: 0000 0000 0000 0000 0000 0000 0000 0000
00000370: 0000 0000 0000 0000 0000 0000 0000 0000
00000380: 0000 0000 0000 0000 0000 0000 0000 0000
00000390: 0000 0000 0000 0000 0000 0000 0000 0000
000003a0: 0000 0000 0000 0000 0000 0000 0000 0000
000003b0: 0000 0000 0000 0000 0000 0000 0000 0000
000003c0: 0000 0000 0000 0000 0000 0000
0.5 0.0 0.0 0.0 0.0 0.0 0.0 0.0
0.0 0.0 0.2 0.0 0.0 0.0 0.0 0.0
0.0 0.0 0.0 0.0 0.33333334 0.0 0.0 0.0
0.0 0.0 0.0 0.0 0.0 0.0 0.33333334 0.0
0.0 0.0 0.0 0.0 0.0 0.0 0.0 0.0
0.5 0.0 0.0 0.0 0.0 0.0 0.0 0.0
0.0 0.0 0.33333334 0.0 0.0 0.0 0.0 0.0
0.0 0.0 0.0 0.0 0.33333334 0.0 0.0 0.0
0.0 0.0 0.0 0.0 0.0 0.0 0.5 0.0
0.0 0.0 0.0 0.0 0.0 0.0 0.0 0.0
0.5 0.0 0.2 0.0 0.0 0.0 0.0 0.0
0.0 0.0 0.0 0.0 0.0 0.0 0.0 0.0
0.0 0.0 0.0 0.0 0.2 0.0 0.0 0.0
0.0 0.0 0.0 0.0 0.0 0.0 0.33333334 0.0
0.5 0.0 0.0 0.0 0.0 0.0 0.0 0.0
0.33333334 0.0 0.0 0.0 0.0 0.0 0.0 0.2
0.0 0.0 0.0 0.0 0.0 0.0 0.0 0.0
0.0 0.0 0.0 0.0 0.33333334 0.0 0.5 0.0
0.0 0.0 0.0 0.0 0.0 0.0 0.33333334 0.0
0.0 0.0 0.2 0.0 0.0 0.0 0.0 0.0
0.0 0.0 0.0 0.0 0.0 0.0 0.0 0.0
0.0 0.0 0.0 0.5 0.0 0.33333334 0.0 0.0
0.33333334 0.0 0.0 0.5 0.0 0.0 0.0 0.33333334
0.0 0.0 0.0 0.0 0.0 0.0 0.0 0.0
0.0 0.0 0.0 0.0 0.0 0.0 0.0 0.0
0.0 0.0 0.0 0.0 0.0 0.0 0.0 0.0
0.0 0.0 0.0 0.0 0.0 0.33333334 0.0 0.0
0.0 0.0 0.0 0.0 0.0 0.0 0.0 0.0
0.0 0.0 0.0 0.0 0.0 0.0 0.0 0.0
0.0 0.0 0.0 0.0 0.0 0.0 0.0 0.0
0.0 0.0 0.0

data_bn.weight f4 [27]
00000000: fe19 f03d d7ff c93d 3f05 a83d 2822 8e3e
00000010: 35ee 023e ba52 dc3d 862a 943e f4eb 4c3e
00000020: cdf5 7e3e 413d 003f f3ce 0d3f 7215 ce3e
00000030: 4651 0f3f 086a 073f ca56 cf3e 2905 8c3e
00000040: 6d02 673e cd66 6a3e 22e5 fb3e be33 df3e
00000050: 43f2 be3e a2c5 063f b201 ed3e 250b bd3e
00000060: e674 553e 7a64 703d c62b c83d
0.117237076 0.09863251 0.082041256 0.27760434 0.12786181 0.10757966 0.28938693 0.20011884
0.24898453 0.50093466 0.55393904 0.40250736 0.5598339 0.52896166 0.40495902 0.27347687
0.22559519 0.22890778 0.49198252 0.43594164 0.37294206 0.52645314 0.46290356 0.36922565
0.20845374 0.058689572 0.09773974

data_bn.bias f4 [27]
00000000: ad63 273b 6c53 573c 2ba5 51bc 5e17 8fbc
00000010: f20f bc3a 7205 963b 71ac 3d3d cc69 76bb
00000020: 0dcf bdbc 9fa1 dcbc fdeb 2bbb 0964 753c
00000030: 78be 6e3a 5549 9b3b ab7e 3cbc 79c8 c33c
00000040: 510d 253d 4cd1 cc3c b51b ab3b c421 d0bb
00000050: 1380 cdbb 5dc3 eabc 0639 afbc 0270 ab3b
00000060: 66f7 893c 5a09 8e39 18da a0bb
0.002554159 0.013142448 -0.012795727 -0.017467197 0.0014348014 0.004578286 0.04630703 -0.003759968
-0.023170019 -0.026932536 -0.002623319 0.0149774635 0.00091073615 0.0047389665 -0.011504809 0.023899304
0.040295903 0.025002144 0.005221809 -0.0063516814 -0.006271371 -0.02865761 -0.021389496 0.005231858
0.016841602 0.00027091318 -0.0049088113

data_bn.running_mean f4 [27]
00000000: 5e50 b242 a763 9b42 3bba 9041 8b65 c442
00000010: 6859 a942 367a 9b41 03a0 b042 0d99 9f42
00000020: e9fe 9441 703f c942 952a a442 2cdf 9641
00000030: 7aeb d642 d94e 9f42 1cbd 9141 06b8 d742
00000040: 1912 b342 ec27 a241 c688 0143 4568 c142
00000050: 4446 ac41 96be 0043 4b7a b842 c597 a441
00000060: 8cee cd42 2d8a bf42 42ad aa41
89.15697 77.69463 18.090933 98.198326 84.67462 19.434673 88.31252 79.79893
18.624468 100.6239 82.08317 18.85897 107.459915 79.654 18.217339 107.85942
89.53535 20.269493 129.53427 96.70365 21.53431 128.74448 92.23885 20.574106
102.96591 95.769875 21.334599

data_bn.running_var f4 [27]
00000000: fbfb 3f46 fcec a946 e010 b945 cc12 4a46
00000010: e68b ba46 8c03 cf45 d8f3 1b46 fa8b a246
00000020: 91ea bb45 1794 4d46 ea05 9946 152d b745
00000030: 8590 6846 4cc6 8c46 092a a945 13f7 8346
00000040: aba5 d446 30c8 e345 6777 b146 981a dc46
00000050: 473d f245 7d2d a846 37bb c046 119f d845
00000060: 1a06 8946 9dbc c846 841a e645
12286.995 21750.492 5922.1094 12932.699 23877.95 6624.4434 9980.961 20805.988
6013.321 13157.022 19586.957 5861.6353 14884.13 18019.148 5413.2544 16891.537
27218.834 7289.0234 22715.701 28173.297 7751.6597 21526.744 24669.607 6931.8833
17539.05 25694.307 7363.3145

st_gcn_networks.0.gcn.conv.weight f4 [24, 3, 1, 1]
00000000: 4aa8 aabd 4619 eebb ab36 303c e729 0c3e
00000010: 56f4 7dbd 2091 813d a0b0 d03d 088c c9ba
00000020: dfb3 463d 1a63 43bd 6c05 93bc ed42 183e
00000030: 6a85 093d e1a5 eabc 0de0 83be bafd 563e
00000040: a39b a13e 5947 833d 8b08 6abe a517 503e
00000050: 6f1c ba3d 7943 47be 04e9 8c3d c895 0abe
00000060: 2393 45bd 3b57 8abd 0b89 a5bc 0759 89be
00000070: 4b43 dabd 70cc 333d b936 373e a0a5 afbc
00000080: f789 b0bc 915d 1abe bb53 0bbe fe40 8c3c
00000090: 1184 6cbb 9ffc 37bc cfdc 613e 6b19 1fbd
000000a0: f7da 7abe abdc 0fbe 1a4c 4e3d d08c 833d
000000b0: 13fa 793d 82c9 2d3e 0b65 d2bd 9eda 313e
000000c0: 0ef5 cebc d83e 193c cc2d 04bc beda 6bbd
000000d0: 9273 bcbc 4f15 c7bc fbff 2b3e 1743 1cbb
000000e0: 623c 0b3d 5bd1 88bd 99b3 05bc 3d80 003c
000000f0: ec7b 48be 9600 3cbc 34b9 f8bb be12 433d
00000100: 2bda 3dbd 4771 083e 397b 923d 3045 01bd
00000110: 2534 bebb a7f9 e7bd 16c8 213e da6d 623d
-0.0833288 -0.0072661964 0.010755221 0.1368786 -0.062000595 0.063265085 0.101899385 -0.0015376816
0.048511382 -0.047701932 -0.017946921 0.1486928 0.0335745 -0.02864355 -0.25756875 0.20995227
0.31564054 0.06410093 -0.22854821 0.2032152 0.090874545 -0.19459333 0.06880382 -0.135337
-0.048236024 -0.06754919 -0.020206949 -0.26825735 -0.10657366 0.04389614 0.17891969 -0.02144128
-0.021550162 -0.15074755 -0.1360616 0.017120834 -0.003608946 -0.011229663 0.22056888 -0.0388426
-0.24497591 -0.14049022 0.050365545 0.06423342 0.061029505 0.169714 -0.10273179 0.17368552
-0.025263336 0.009353362 -0.008067559 -0.057581656 -0.023004327 -0.024302153 0.16796868 -0.00238437
0.033993132 -0.066805564 -0.008160495 0.007843074 -0.19578522 -0.011474749 -0.0075904373 0.047625296
-0.04635064 0.13324462 0.07152409 -0.031560123 -0.005804556 -0.11326914 0.15798983 0.055280544

st_gcn_networks.0.gcn.conv.bias f4 [24]
00000000: 515b 493c 07ce 723d 8fda 9a3d 4bb4 993d
00000010: 358c 94bc 7189 44be bffe 4a3b e9d4 0e3e
00000020: 845c b3bd c3e5 733c e9f6 b03d 6ca5 19bd
00000030: 8eba d13c 16d9 1a3e dbab 413e ab6c d3bb
00000040: bef7 97bc 57dd 33be dd25 403d 4e80 7cbd
00000050: 5fa6 483d 79eb b33c fc6d f6bb 3222 01bb
0.012289838 0.059278514 0.07561218 0.07505091 -0.018133262 -0.19193055 0.0030974594 0.13948406
-0.0875788 0.014886322 0.086408444 -0.037511274 0.025601652 0.15121874 0.18913214 -0.006452163
-0.01855075 -0.17564903 0.04691111 -0.0616458 0.04898679 0.021962868 -0.0075204354 -0.001970422

st_gcn_networks.0.tcn.0.weight f4 [8]
00000000: af22 553e 366f c33e 4ef4 d93e 2ea6 b03e
00000010: c6e1 873e 4633 c53e 64a7 c43e 865d c33e
0.20814012 0.38170785 0.42569202 0.34501785 0.2653944 0.3851568 0.3840896 0.3815729

st_gcn_networks.0.tcn.0.bias f4 [8]
00000000: ff44 de3c 67ef fe3c bf8d e23c ce2c 6c3c
00000010: e2d6 57bc 33c3 2b3d 2ba8 10bb e77d 15bd
0.02713251 0.031120015 0.02765548 0.014414979 -0.013173791 0.041934203 -0.0022072892 -0.036497023

st_gcn_networks.0.tcn.0.running_mean f4 [8]
00000000: f7fb 25bc d8e6 193a cd6c c53c 0c44 343b
00000010: 7811 613b f00f f3bb 7475 c03c 4876 9c3c
-0.010130874 0.0005870885 0.024099732 0.002750638 0.0034342688 -0.0074176714 0.023493506 0.01909937

st_gcn_networks.0.tcn.0.running_var f4 [8]
00000000: cf8f 5439 1b71 da39 5515 0c3a f47a ea39
00000010: c1fc 1338 79b1 c439 1878 2a3a 368c f838
0.00020271468 0.0004166447 0.0005343755 0.00044723565 3.5282927e-05 0.0003751626 0.0006502881 0.00011851678

st_gcn_networks.0.tcn.2.weight f4 [8, 8, 9, 1]
00000000: 4d8c 783b b62c b83b 3ff6 153c 7e8c 853b
00000010: d78f 583c 08b8 59bc 97e3 c73b 44f2 1dbb
00000020: 52d4 6f3c aca6 a93c 2e7a 69bd c3d0 8bbc
00000030: 1407 4ebc 0436 78bc 9022 033d cdfc 863c
00000040: 69ea 15bb 05f4 d3bc 6399 433d 5327 813d
00000050: d4b9 cf3c 645c 5c3d 66b8 bdbc 2e61 b53d
00000060: 0da3 3cbd 596d 1f3d a197 66bd a9fa a13b
00000070: a6c4 70bc 7998 823d 5bed 83bc 2467 073c
00000080: 5c80 373d 3c31 013d 5701 163d dcc3 3d3b
00000090: 556f 05bd 2cc0 12bd 2128 453c e494 aebc
000000a0: b83d fbbc 6a66 8d3c 4f97 a63c ff5e 2ebd
000000b0: 94b7 18bc 52d0 3cbd 8c19 293c cc6a b93c
000000c0: e08d a83c dd10 023d 14df 833c e9c7 db3c
000000d0: 9e0c a33b 56e4 d63c c856 c23c 686d 093d
000000e0: 071b 41ba 2dde 25bd e9da 04bd 688f dfbb
000000f0: 5ac4 0fbd a92c 4b3d 2bcc 08bd bc0e 09bd
00000100: 7402 b4bd c578 3cbc 1ab8 aabd eaab a7bb
00000110: 7c1a 85bd 0b81 89bc 09aa 5cbc 68c8 8c3b
00000120: 5bfb 973c 0d0b 20bc c67f bc39 5015 183c
00000130: f526 003d 1850 7d3a d152 103d 31f7 223c
00000140: 565b 5f3b 7d34 ed3c 8332 bb3c dfad e93c
00000150: b134 19ba 9cf9 9938 86cd 5e3c 3ab4 083d
00000160: 8ed7 90bb 7df9 e73c 922c 023d 4f23 8d3d
00000170: 00f5 983d 2772 d039 e02d 96bc f7fb 4dbd
00000180: 9103 5dbb 9d93 f43c 7033 34bc faf9 493d
00000190: 9868 f0bc faed 843c 1dd1 f13b 000e 043d
000001a0: d1f8 a53c 610a 153d a6fb aabc c771 21bc
000001b0: 9e0d 703c 8aef 14bc 1cda c33c b5b3 bf3c
000001c0: 9a18 013d d25a f8bc a534 ff3c ec66 6e3d
000001d0: 4a29 473d a99e 2abc b6b2 0d3d b9c0 473c
000001e0: 004a 1fbd 8a9e 8c3c dd8f adbc 92d6 12bd
000001f0: 7f68 abbc 61d1 12bd 0e2f 46bd ee00 07bd
00000200: 01d0 5cbd b9ca 61bd 2082 00bd f9f4 013d
00000210: e9a7 b53c f82d 2abd 31aa 503d 9d73 933c
00000220: dbb3 71bd 98d8 68bc 2031 a13b 23c9 e73c
00000230: 7f28 21bd 67c9 c93c ae65 f6bc a9c6 c6bc
00000240: 3536 b5bc d268 09bc 6e0b a6bc a8f7 9a3c
00000250: f4fb 60bc 5d57 b0bc 503c 13bb 2d61 03bd
00000260: eb2b eebc cf86 f0b8 f779 65bb 4264 353b
00000270: 936c 223d 993d 99bc 2eae 213a c30c b53c
00000280: 0cd2 0cbd a18e 2039 d255 843d f1d1 51bb
00000290: 5d93 a83b 1c01 94bd adbd 5d3d e147 0dbc
000002a0: 68f3 4d3d b5b6 82bd 9e00 1f3d 26a2 e63c
000002b0: 0448 3fbd 1cd9 12bd d5fc 173d 1377 e93c
000002c0: 25a8 22bd 72fc 2b3c fd1e 14bd 08c6 7f3c
000002d0: 3c91 d0bb afb0 57bb f4d1 213d 96cd 5e3c
000002e0: 120c 75bd 0ad6 78bc 441d 3abc d65a 14bc
000002f0: 8eee 8b3c bfa0 21bd e8e6 98bd 7d5f 6c3d
00000300: bac5 2fbd 1a37 34bd 4240 9ebb 658a 153d
00000310: ef91 18bd 972a 833d 7cfb 063d 6744 f9bc
00000320: 700b a5bd a175 453d 1980 9f3d caa2 9d3c
00000330: bd87 f9bc 638e 1a3d 8d20 583d 51eb 74bd
00000340: 4d46 dbbc 887d 92bd cb58 db3c 2f4e 77bb
00000350: ebfd 343d 80ac 3bbd 1648 17bd cad9 10b9
00000360: fb38 31bc 7e6b 183a 5c74 933c 30d0 053c
00000370: 72c0 953c 2bd6 bcbb 7360 b63b 6c31 1e3a
00000380: d031 3e3c 9ff8 b13a 7c0f 813c 0410 b4bc
00000390: 5013 49bc 15ab 0d3d 7dc7 ea3c 924f 0f3d
000003a0: 6f0d 2cbc ffe0 953c 78dd 503c 1e00 2d3c
000003b0: 674e 95bc d1f3 8cbc f08a 8cbb 487b c3bb
000003c0: ae4b 353c 5d18 fabb f750 2cbd 54fd b23c
000003d0: 2aec 03bd 20a9 1dbd 74ca 35bd 156d 08bd
000003e0: f491 82bb 429a 8ebc 8ba9 59bc 9888 933c
000003f0: 05a4 14bc 3936 0dbd f832 8d39 6dc1 793c
0.0037925423 0.0056205643 0.009152948 0.004075586 0.013217888 -0.013288505 0.006100129 -0.00241007
0.014638023 0.020709358 -0.057001285 -0.017067319 -0.01257493 -0.015149597 0.032015383 0.016477967
-0.0022875315 -0.025873194 0.047753703 0.063063286 0.025357164 0.053799048 -0.023159217 0.08856426
-0.046053935 0.03892264 -0.05629695 0.004943211 -0.014695322 0.06376738 -0.01610439 0.008264337
0.044800147 0.031541094 0.03662237 0.0028955853 -0.032576878 -0.0358278 0.012033493 -0.021311231
-0.030669078 0.017260749 0.020335821 -0.042571064 -0.009321112 -0.046097107 0.010321032 0.022633933
0.020575464 0.031754363 0.016097583 0.026828723 0.0049758693 0.026231926 0.023723021 0.033551604
-0.0007366393 -0.040495086 -0.03243533 -0.0068225153 -0.035099365 0.049603138 -0.033397835 -0.033461317
-0.087895304 -0.011503403 -0.08335896 -0.0051169293 -0.06499192 -0.016785165 -0.013468274 0.004296351
0.018552473 -0.00976826 0.00035953353 0.009282425 0.031287152 0.0009663119 0.03523523 0.00994663
0.003408154 0.028955692 0.022851234 0.028525291 -0.00058443384 7.342102e-05 0.013598805 0.033375002
-0.0044202274 0.028317207 0.031780787 0.068915 0.07468605 0.00039757902 -0.018332422 -0.05028912
-0.003372405 0.029855544 -0.010998592 0.04931066 -0.02934675 0.016226757 0.0073796646 0.032239914
0.020260246 0.03638685 -0.020871948 -0.009853787 0.014651684 -0.009090314 0.023907714 0.02340112
0.031517603 -0.030316744 0.031153033 0.058203623 0.04862336 -0.010413804 0.03459426 0.012191945
-0.03888893 0.017165441 -0.021186763 -0.03584916 -0.020923851 -0.03584421 -0.04838472 -0.03295987
-0.053909305 -0.055124972 -0.031374097 0.031727765 0.022174792 -0.041547745 0.050943557 0.017999465
-0.059009414 -0.014211796 0.0049191862 0.028294152 -0.03934526 0.024632169 -0.030077782 -0.02426465
-0.022120574 -0.0083868075 -0.020269122 0.01891692 -0.013731945 -0.021526033 -0.002246637 -0.032075096
-0.029073676 -0.00011469202 -0.0035015324 0.0027678167 0.039654326 -0.01870613 0.00061676174 0.022100812
-0.034380004 0.00015311922 0.064616814 -0.0032016004 0.00514452 -0.07226774 0.054135967 -0.008623094
0.05028096 -0.06382505 0.038818948 0.02815349 -0.04669954 -0.035851583 0.037106354 0.028499162
-0.039711136 0.010497199 -0.036162365 0.015611179 -0.0063649695 -0.0032911708 0.039506868 0.01359882
-0.059825964 -0.01518775 -0.0113595165 -0.00905486 0.017081525 -0.03945994 -0.07465917 0.057708252
-0.042913176 -0.04399786 -0.0048294375 0.036508936 -0.037248548 0.06404608 0.032954678 -0.030428125
-0.08058822 0.048207883 0.077881046 0.019242663 -0.030460233 0.037733447 0.052765418 -0.059794728
-0.02676692 -0.071528494 0.026775738 -0.003773581 0.044187468 -0.045818806 -0.03693398 -0.00013814043
-0.010816808 0.00058143574 0.01799982 0.008167312 0.018280242 -0.0057628355 0.005565697 0.0006034586
0.011608556 0.0013578123 0.015754454 -0.021980293 -0.012272671 0.034586985 0.028659577 0.034987994
-0.01050125 0.018295763 0.012748115 0.01055911 -0.018225862 -0.017206104 -0.0042890236 -0.005965624
0.011065407 -0.007632299 -0.0420694 0.021849312 -0.032207645 -0.03849137 -0.044382527 -0.033307154
-0.003984684 -0.01740754 -0.013285051 0.018009469 -0.009072308 -0.03447554 0.0002693159 0.01524387

st_gcn_networks.0.tcn.2.bias f4 [8]
00000000: d9c6 eab7 0e01 6cb6 7f47 2938 4d3a 88b6
00000010: 5b75 4037 f4a3 57b7 bf7d d236 564d da35
-2.798757e-05 -3.5167354e-06 4.0359326e-05 -4.059903e-06 1.1471416e-05 -1.2853172e-05 6.2731265e-06 1.6264773e-06

st_gcn_networks.0.tcn.3.weight f4 [8]
00000000: 067e c33e eb91 b43e 601a a13e 97ae 633e
00000010: 1480 6f3e b987 c03e 9520 cd3e cd4e a93e
0.38182086 0.35267577 0.31465435 0.2223457 0.23388702 0.37603548 0.4006392 0.33067933

st_gcn_networks.0.tcn.3.bias f4 [8]
00000000: 2c3d 10bd 165b a13b 0f68 973c 856b 743c
00000010: fd08 9d3b ec57 493c bb3d 023d b1f5 0ebb
-0.035214588 0.0049241884 0.018482236 0.014918213 0.0047923313 0.012289029 0.031797152 -0.0021813924

st_gcn_networks.0.tcn.3.running_mean f4 [8]
00000000: d7b2 643c 0bf3 f83c 3a7c dfbc f744 00bd
00000010: aa74 f63c 7085 0b3d d51a b1bc a856 7b3b
0.013958654 0.03038933 -0.027280916 -0.03131577 0.030084927 0.034062803 -0.02161924 0.0038351212

st_gcn_networks.0.tcn.3.running_var f4 [8]
00000000: 9051 113c 88f7 ae3b 7c5a 293b 93b7 8f3a
00000010: 9be7 3e3b b9a1 cf3b 19fd cc3b 22b1 893b
0.008869544 0.0053395666 0.0025841286 0.0010964744 0.0029129747 0.0063364175 0.0062557575 0.004202024

st_gcn_networks.1.gcn.conv.weight f4 [24, 8, 1, 1]
00000000: a1ce 5fbc 54b7 30bd 419e 4e3d 5b4a 5e3d
00000010: 3b0c b9bc 673c ccbb 5090 923b a1a3 2d3d
00000020: 70ce c03b ec7d a3bc a256 ac3d 1861 c0bc
00000030: c226 ff3c 1181 1bbd 5b46 8f3d c894 4b3c
00000040: 5448 8d3d 3469 81bd c84b 1ebd a17a 823d
00000050: b492 973d ae6d a13d f996 e1bc 4ae6 f8bb
00000060: 5112 433c 5106 fabc ffc5 19bd 2d7c eebc
00000070: 8dc4 a3bd 4632 c4bd 8713 083d 6a81 b5bd
00000080: c8c5 8bbc a67a b23b c8a5 8c3d b09d 02bd
00000090: 362d 903c 7535 983a 9761 cb3c 42ea 353c
000000a0: 28c7 773c 1250 c2bd ab62 0c3d 0e01 50bd
000000b0: 4968 90ba 2641 b13a 4347 aebd 50ce 9e3c
000000c0: 0d5f 13bd 9cb5 1bbd 9540 893d 12b5 8f3c
000000d0: 0649 ec3c a03a 9a3c 50c9 2bbd 5bd2 b2bc
000000e0: 90e7 76bc 533c 1ebc c07c 81bc 9a93 16bd
000000f0: ea2d 57bc 4bec 6d3d d8f5 3f3c 7020 723d
00000100: 0a7b 9cbc dea0 923d 1a3a 453c 3f3b 85bc
00000110: e507 1dbd 316e 603b f656 8a3d 353c e33d
00000120: 0fbb 64bd bda6 3ebb 9f3f 39bd dccd 40bd
00000130: e432 dabb 357c 7cbc b1b6 653d edd7 4cbb
00000140: 95ac 2c3c 536b a1bb 2ccd 783d 6a13 93bc
00000150: 80c9 3bbd 5d4c d7bd bb42 d53d e8f9 4cbd
00000160: 5c19 acbc ebc9 073e 1add a33d 6240 973c
00000170: 3db3 83bd 201b 9d3d da5f 23bd ccb7 c2bd
00000180: 7cdc 12bd 549a 9dbc 8907 963d ab93 323d
00000190: 0e7f 8dbb a732 9c3c 2492 05bd ebd1 153d
000001a0: 256f b53d 2240 32bd 1d67 593b e95e 72bd
000001b0: ec3b eb3c 4ea0 acbd ae71 9f3d 7c05 653d
000001c0: bac6 b8bd 339c fcbd ba71 193d 1a41 773d
000001d0: 2863 a2bd 6bf3 89bc da7b 043d 9307 923d
000001e0: 19ad 3f3d da72 d03c 5243 4ebc 1211 3f3b
000001f0: 0506 fa38 c587 093c 78f4 003d 6e59 1f3b
00000200: b29c 87bc dc55 3fbc 5881 62bc cc1d 233d
00000210: b8c5 20ba 6a2f 163d 326a 64bd b277 2fbc
00000220: b013 043d f856 cc3c 59f1 1d3c 15ce 5bbd
00000230: 7222 983b f806 4e3d 41b3 743d 8091 223d
00000240: f314 903b e712 be3b b7e5 07bc a1e1 bfbc
00000250: 6ec0 033b 42e9 6dbd e063 993d fc84 c33c
00000260: d0ac b63d 7cb6 babc 3600 ddbc 2923 13bd
00000270: 95c6 1abd f696 0abd 467f 163e 047a bcbb
00000280: 4833 be3c d06c febc 5971 e63b ec93 cfbc
00000290: 7b84 b83b 54a9 1b3c 6d9f a03b 2623 9fbc
000002a0: e918 3dbc a086 10bd 3e14 19bd 5258 543c
000002b0: a24f bebc 275d 67bd 9061 f2bc 5620 32bc
000002c0: 2ea5 953d 1015 c63c aa27 c63c 0b92 99bd
000002d0: 9e6a 163d 7396 4a3d 64e1 17bc 8840 d1bc
000002e0: 88cc 143c 567a 15bd 92e9 323d e3e1 87bc
000002f0: 4046 b8bb 1a32 04bd db80 2bbc 11ea a63d
-0.013660104 -0.043143585 0.05044389 0.05427013 -0.02258884 -0.0062327865 0.00447277 0.042392377
0.0058839843 -0.019957505 0.084149614 -0.023483798 0.03114641 -0.037964884 0.06995841 0.012425609
0.06898561 -0.06318894 -0.03864649 0.06371046 0.07401028 0.07882248 -0.02753781 -0.007595812
0.011906222 -0.03052059 -0.03754234 -0.029111946 -0.079964735 -0.095799014 0.033221748 -0.088625744
-0.017062083 0.0054467497 0.06867558 -0.031888664 0.017599683 0.0011612611 0.024826808 0.011103215
0.015123166 -0.094879285 0.034273785 -0.050782256 -0.0011017408 0.0013523444 -0.08509686 0.019385487
-0.03597932 -0.038014993 0.06701771 0.017542396 0.028843414 0.018826783 -0.041940033 -0.02182882
-0.015069857 -0.009657937 -0.015806556 -0.036761858 -0.013133505 0.058086675 0.011716329 0.059112966
-0.019101638 0.07159589 0.012037778 -0.016263602 -0.038337607 0.0034245367 0.06754868 0.11095468
-0.055842455 -0.0029091083 -0.04522669 -0.047071323 -0.0066588987 -0.015410473 0.05608243 -0.0031256631
0.010539194 -0.004926124 0.060742542 -0.017953593 -0.045846462 -0.10512612 0.104131185 -0.050043017
-0.021008186 0.1326062 0.08001156 0.018463317 -0.06430671 0.07671189 -0.039886333 -0.09507713
-0.0358548 -0.019238628 0.07325656 0.04359786 -0.0043181246 0.019067122 -0.032610074 0.036577147
0.0885909 -0.043518193 0.0033173033 -0.059172545 0.028715096 -0.08429013 0.077853546 0.055913433
-0.09022279 -0.1233448 0.037461974 0.06036482 -0.07929069 -0.016839704 0.032344677 0.07130351
0.04679594 0.02544539 -0.012589293 0.0029154462 0.0001192205 0.008394186 0.031483144 0.002431478
-0.01655421 -0.011678185 -0.013824783 0.03982334 -0.0006132978 0.03666631 -0.05576534 -0.01070969
0.032245338 0.024943814 0.009640061 -0.053663332 0.004642778 0.050299615 0.059741262 0.03968954
0.0043970286 0.005800593 -0.008294514 -0.023423018 0.002010371 -0.05808378 0.07489753 0.023867123
0.0891968 -0.022792093 -0.02697764 -0.035922203 -0.03778704 -0.033835374 0.14696988 -0.00575185
0.023217812 -0.031057745 0.007032555 -0.02533909 0.0056310273 0.00950082 0.0049018175 -0.01942594
-0.011541584 -0.03528464 -0.03737282 0.01296051 -0.023231331 -0.05648532 -0.029587537 -0.010871967
0.07306896 0.024179965 0.024188835 -0.074985586 0.03672277 0.049459886 -0.009270046 -0.025543466
0.009081967 -0.03649362 0.04367978 -0.016587203 -0.005623609 -0.032274343 -0.010467733 0.081501134

st_gcn_networks.1.gcn.conv.bias f4 [24]
00000000: 242e b43b 0608 5e3c c44a e6bb 5057 293d
00000010: 1fd7 eb3b 8501 8cbb 2ea6 d63b 14d5 393b
00000020: 2e5f 99bd 80a1 efbb 88b1 083c 19b9 773b
00000030: 1557 5abd 7623 973c ae77 6b3d 1c23 c13a
00000040: bca7 9cbc b479 33bd e6c9 b23b b928 af3c
00000050: c067 043c 22f0 e8bc 386e 903c ed82 77bc
0.0054986645 0.013551718 -0.0070279557 0.041343033 0.0071972753 -0.004272642 0.006550572 0.0028355764
-0.07488857 -0.0073129535 0.008343108 0.0037799536 -0.053305704 0.018449526 0.057487182 0.0014735195
-0.01912295 -0.043817237 0.005456197 0.021381723 0.008081377 -0.028434817 0.017630681 -0.015106899

st_gcn_networks.1.tcn.0.weight f4 [8]
00000000: e6e1 763e 37ea 5a3e 953f a23e 6c70 aa3e
00000010: 357d 2b3e ec0a 883e 7256 a03e 4821 853e
0.24109611 0.21378408 0.31689134 0.33288896 0.16746981 0.26570833 0.31315953 0.26001954

st_gcn_networks.1.tcn.0.bias f4 [8]
00000000: 509e 43bc 507f b7b6 3ffe cc3c a632 823c
00000010: de74 43bc 9f9e bfbb e7c3 05bd 2cc3 83bc
-0.0119396 -5.468646e-06 0.025023578 0.015893292 -0.011929719 -0.0058477665 -0.03265753 -0.016084276

st_gcn_networks.1.tcn.0.running_mean f4 [8]
00000000: db2f 0dbb 4152 acb7 9f5f 053a a3c5 183b
00000010: e461 ddba 961b 87ba 232c 443b 1045 c13a
-0.0021543417 -2.05423e-05 0.0005087796 0.002331116 -0.0016890136 -0.0010307904 0.0029933534 0.0014745314

st_gcn_networks.1.tcn.0.running_var f4 [8]
00000000: 4d15 d536 a2e3 0d37 6951 d237 aba2 8737
00000010: a463 2637 de39 2437 1799 da37 7fe2 7337
6.3503744e-06 8.457255e-06 2.507186e-05 1.6169002e-05 9.91757e-06 9.788635e-06 2.6058913e-05 1.4536664e-05

st_gcn_networks.1.tcn.2.weight f4 [8, 8, 9, 1]
00000000: c11d b13b 008c 63bb 72bc 0bbc 5c90 e8bb
00000010: fda5 0c3b a94d a8bc 3f14 cd3a 870c 313c
00000020: 2c47 183d 8456 a5bc e032 52bc 31e0 993c
00000030: 7b8a c63b 683e 1fbd ce5b e0bb c35d 4f3c
00000040: ec5a 8d3c 3286 2ebc 7b1e a13c 6c0e 99bb
00000050: bd8a 033d 8880 c5bc e5c3 133c 8b3a 1cbc
00000060: d01f 0d3d 8951 07bd df1d 1bbd e391 523c
00000070: b3f8 663c 980d 4b3c 2a92 da3b a9c9 373b
00000080: d6b0 ed3c 2f36 23bd 06c8 12bd 18ee 10bd
00000090: e4f7 30bc f06b 2abc e521 9239 f6f6 cdbb
000000a0: 035f cd3a 2dba 1c3d 952e c43c fad8 623c
000000b0: 1d25 e63c aaf1 89bc 1e89 cabc 8ce9 d83c
000000c0: d79b 503c 3ced acbb cc29 4abc b347 b4bb
000000d0: d91e 99bc dd39 eebb 0b5a 96bc fec9 7e3a
000000e0: ca2c 953c 381f 94bc f4eb c13c a8a8 093d
000000f0: 214f e93c bcc6 16bb b54c c138 f864 603c
00000100: 90c6 603c 8290 debc 864c 32bd b3e6 0d3c
00000110: 0758 89bc a1a2 19bc 1975 143c 9dd1 8a3b
00000120: 1bbd 32bc 63ed eebc 7712 0abc 7e32 f4bb
00000130: 2a7e f7bc 43fd d2bc d4f4 8d3b eca2 9eba
00000140: 6d67 e4bc 4e4f b4bc 2459 a6bc 574d 32bb
00000150: 1a3e 25bd ea5f e83c 09cf 583c 3093 fa3c
00000160: bb24 fb3a ed41 c83c 38e5 82bc 6bf5 48bc
00000170: bccd 3d3c 1ab1 bd3b e0bb b93c 9c24 183d
00000180: e7fe 0d3c bf2d 0e3d 42af 1a3d 1099 693c
00000190: c9b2 213d 4640 b13b 555f b83c 2433 53ba
000001a0: c70c 483d 94af 653c ea16 b13a b608 ea3c
000001b0: 0b4f f7bc 6357 b9bb 3de8 d1bb 8dfd c4bc
000001c0: 53f7 bc39 d746 5ebc 8d35 af3b 5653 a9bc
000001d0: 5592 be3c 4c12 9138 3e40 84bc 3c89 873a
000001e0: 4338 63bc d098 4cbc 2e63 b0bb 3297 6c3b
000001f0: 5b18 3e3c 287d b73c 8341 75bc d50a d93b
00000200: aae2 df3c 9242 adbc 16e9 813c 72a9 263c
00000210: 58bc 9f3c 3e69 a9bc 2763 173d df42 22bc
00000220: 7626 86bc e926 a1bc ced3 8ebc 1630 e5bc
00000230: 9ff1 b73b df62 423c fc9a 14bc 1af2 39bb
00000240: a1a9 533c 81dd 83bd 1593 09bd a3f9 09bc
00000250: 55c1 c5bc 1932 3d3b 768f 16bc 7b7f 21bd
00000260: de85 1fbd 6136 4e3d cdd7 1fbc d765 66ba
00000270: 0b79 203b 876c 81bc 2c70 e7bc d6a5 c7bc
00000280: 7966 253c 508b 05bc d423 253d 0703 09bd
00000290: b88a 9e3c 2c73 363d fefa 9fbc 6421 983c
000002a0: 621a d53c 67fe 263c 155e ee3a fe1b cfbc
000002b0: cc87 c03c f82f 34bd 761f 213c ea85 bfbc
000002c0: f9e8 c3bc 4315 56bd 609d 523c 1e7f af3a
000002d0: 085b cf3a b35f 263d 9a47 eebc 7122 063d
000002e0: 0584 e1bb beb7 a33c c8d1 943c 0fde 29bc
000002f0: 226f 583c 0619 d13c 3a13 fbbc 88ba 053d
00000300: 0024 06bc 211f 22bb fd09 30bd 5e53 1c3c
00000310: 2115 63bd 90ef 0cbd b977 4139 fdc5 ddbb
00000320: 07a5 a53c a723 453d e331 e43b 22d4 d3bb
00000330: 1350 3c3c 8dec 783c 5060 3a3d f75d 003c
00000340: d746 183d 9c74 ba3c b04c 10bc e8bb fd3b
00000350: 148b 3dbc e6fa 5eba 50ce 27bc 4226 39bb
00000360: 80f1 f63b aa05 50bc 6cb8 e93c a678 79bc
00000370: eb26 0dbd 4ac3 3b3a de77 04bd 3136 27bd
00000380: 9aac c23c 14d8 533d 45a7 ce3b 1857 1b3c
00000390: 8350 6f3c f8ef 2e3d fb28 0a3c cd26 f4bc
000003a0: 767c 20bd 7448 ab3c b719 9f3b 6953 783c
000003b0: d086 d63c 7a11 e4bc a14a 793c 20af 233c
000003c0: 71c8 613c d4a2 243c 878d 373d 481c cbbb
000003d0: 4747 b4bb 5290 93bc 76af b53c e8fa 303a
000003e0: a0eb 78bc 57b3 54bc 7431 c93c e04a 4cbd
000003f0: 5ba0 e1ba 1b73 993b 73b2 26bc bf8e 09bd
0.0054051583 -0.0034720898 -0.008528816 -0.007097287 0.0021461241 -0.020544844 0.0015646293 0.010806209
0.03717725 -0.020182855 -0.012829512 0.01878366 0.0060589886 -0.038877875 -0.0068468815 0.012656632
0.017255269 -0.010652112 0.019667855 -0.0046709087 0.032114733 -0.02410914 0.009018873 -0.009535442
0.034454167 -0.033036742 -0.037870284 0.012852165 0.01409738 0.012393378 0.006670256 0.0028043783
0.029014986 -0.039846595 -0.03583529 -0.035383314 -0.010801289 -0.010401711 0.00027872543 -0.0062855436
0.0015668574 0.03826349 0.023947993 0.013845677 0.028093869 -0.016838867 -0.024723586 0.026478551
0.012732468 -0.005277304 -0.012339067 -0.0055017113 -0.018691467 -0.0072700814 -0.018353483 0.000971943
0.018209834 -0.018081293 0.023672082 0.03360811 0.028480114 -0.0023006639 9.217245e-05 0.013695948
0.013719216 -0.027168516 -0.04353001 0.00866096 -0.016765608 -0.009377153 0.009061121 0.0042364136
-0.010909344 -0.02916593 -0.008427254 -0.007452308 -0.030211527 -0.02575553 0.0043321643 -0.0012102998
-0.027881349 -0.022010472 -0.020306177 -0.0027206743 -0.040342428 0.028366048 0.013232955 0.030587763
0.0019160727 0.024445498 -0.01597844 -0.012265543 0.011584695 0.0057889344 0.022672594 0.03714429
0.0086667305 0.034711596 0.037764795 0.014257684 0.039477143 0.0054092733 0.022506395 -0.0008056632
0.04884031 0.014018912 0.0013510857 0.028568607 -0.030189058 -0.0056561693 -0.006405859 -0.024046684
0.00036042425 -0.013566694 0.00534696 -0.02066962 0.023263136 6.917547e-05 -0.016143914 0.0010340582
-0.013868394 -0.012487605 -0.005382917 0.0036100862 0.0116024865 0.022398546 -0.0149692325 0.0066236057
0.027329762 -0.021149907 0.015858214 0.010172235 0.019498989 -0.020680066 0.036959793 -0.009903639
-0.016375761 -0.019671874 -0.01743498 -0.02797703 0.0056135203 0.011864393 -0.009070154 -0.0028373064
0.012918861 -0.06438733 -0.033587534 -0.008421334 -0.02414004 0.0028868972 -0.009189477 -0.039428215
-0.038946025 0.05034483 -0.009756041 -0.0008788979 0.002448621 -0.01579882 -0.02825173 -0.024371069
0.010095232 -0.0081508905 0.04031737 -0.033450153 0.019353256 0.04454343 -0.019528862 0.01857061
0.026013557 0.01019249 0.0018185998 -0.025281902 0.023502253 -0.04399106 0.009834161 -0.023379285
-0.023914801 -0.05226637 0.012854904 0.0013389324 0.0015819976 0.04061861 -0.029086877 0.03274769
-0.006882193 0.019985076 0.018166438 -0.010367884 0.01321009 0.025524627 -0.030648816 0.032648593
-0.008187294 -0.0024737793 -0.042978276 0.009541361 -0.055440072 -0.034408152 0.00018450514 -0.006767987
0.020220293 0.048129704 0.006963955 -0.006464497 0.011493701 0.015193117 0.045502007 0.007834903
0.037176933 0.022760682 -0.008807346 0.0077433474 -0.011568803 -0.0008506015 -0.01024206 -0.0028251563
0.0075361133 -0.012696663 0.028530322 -0.015226519 -0.034460943 0.0007162584 -0.032340877 -0.040823165
0.023763943 0.05171974 0.006306561 0.009481214 0.014606598 0.04270932 0.008432622 -0.029803658
-0.039181195 0.020908572 0.0048553604 0.015156605 0.02618733 -0.027840365 0.015215547 0.0099904835
0.013780699 0.010048587 0.044812705 -0.0061984397 -0.005501661 -0.018013153 0.022178393 0.0006751255
-0.015192896 -0.012982211 0.024559714 -0.049876094 -0.0017213927 0.004682911 -0.010174382 -0.0335834

st_gcn_networks.1.tcn.2.bias f4 [8]
00000000: bcf2 0938 cb03 9937 21a2 4f37 6e24 3bb6
00000010: f328 5ab8 47a2 ce37 07d2 cbb6 9cad 9037
3.288941e-05 1.8240788e-05 1.237591e-05 -2.7886376e-06 -5.2013387e-05 2.463268e-05 -6.074322e-06 1.724698e-05

st_gcn_networks.1.tcn.3.weight f4 [8]
00000000: 1161 683e 3f34 8a3e 5b83 a43e 01ca 9e3e
00000010: 9d3d 673e 2202 b53e 2d96 953e 6f2c 413e
0.22693278 0.26992986 0.32131466 0.31013492 0.22582097 0.3535319 0.29216138 0.18864606

st_gcn_networks.1.tcn.3.bias f4 [8]
00000000: b8bc 173c 8f4a 2abc 6655 98bc d5b0 c2bc
00000010: 395e 15bb ab17 92bb 2397 41ba e632 1a3c
0.009261303 -0.010393753 -0.018595409 -0.02376596 -0.0022791757 -0.004458388 -0.0007384887 0.009411549

st_gcn_networks.1.tcn.3.running_mean f4 [8]
00000000: 7e9f 81bb 44fb 903c 8a62 d2bb 1fde 3e3b
00000010: b499 56bb 3fac 583c c948 a4bc df87 83bc
-0.0039557805 0.017697938 -0.006420438 0.0029124094 -0.0032745423 0.01322466 -0.020054238 -0.016056

st_gcn_networks.1.tcn.3.running_var f4 [8]
00000000: ca26 e239 4755 173b 6a42 933a a6cf 303a
00000010: 6b49 c239 2243 f43a be5b 8c3a 0a2e 8d3a
0.0004313498 0.00230916 0.0011235003 0.0006744809 0.00037057264 0.001863573 0.0010708494 0.0010771167

st_gcn_networks.1.residual.0.weight f4 [8, 8, 1, 1]
00000000: ad2f 24bd cd56 7cbd d3cb debd 6d78 5bbc
00000010: f14e 85bd 54ba 023d 91bc 623d e30d 85bc
00000020: 15cc a4bd 2da1 52bd a8aa 8ebc e001 6bbb
00000030: 5cfb 03bb 7fb1 c13d 9b99 cb3d 5b42 cabd
00000040: b345 05be e75c a2bb 46ef 933d df07 a8ba
00000050: 1b8f 1abd 662a 6d3d e80a 4bbc 66b8 84bd
00000060: 58d5 a13d b48f 763c 9e40 7ebd 8f21 da3a
00000070: d769 a8bc f802 0abc 1da5 843d b743 b43d
00000080: 9bcb 2fbd cc99 db3c 0618 bebd 7ea8 453c
00000090: f729 153d 5a5d 13bd 0e13 d03d 162b 7f3d
000000a0: 517e 013e 190c f93c d279 d93d 358a 42bc
000000b0: b7f8 72bd e6b8 48bd 41f5 07bd 2970 a2bd
000000c0: 138e a73c 7f43 aa3c 1500 a3bd 31f6 d53c
000000d0: 051b 74bc de01 03bd 82f0 77bd 7273 853c
000000e0: bc98 b4bc 5b9c f23c 9724 853d 7138 c33b
000000f0: d5d6 833d 0853 c03d 9921 d8bd 3ecf 13bd
-0.04008453 -0.061606217 -0.1087872 -0.013395411 -0.065091975 0.031915978 0.055355612 -0.016241973
-0.08046738 -0.05142324 -0.01741536 -0.0035859272 -0.0020138836 0.09457683 0.09941407 -0.098759376
-0.1301487 -0.0049549225 0.07223372 -0.0012819729 -0.037734132 0.057901762 -0.012392737 -0.06480484
0.0790202 0.01504891 -0.062073343 0.0016642081 -0.02055828 -0.008423559 0.06476805 0.08801978
-0.042918783 0.026806735 -0.09281926 0.012064097 0.036416974 -0.0359777 0.101598844 0.06229695
0.12645842 0.030401276 0.106189385 -0.011873771 -0.059319224 -0.049004458 -0.033192877 -0.07931549
0.020453488 0.020784138 -0.07959 0.02611837 -0.01489902 -0.031984203 -0.0605321 0.0162904
-0.022045486 0.029615572 0.065011196 0.005957656 0.0643746 0.09390837 -0.10553283 -0.036086313

st_gcn_networks.1.residual.0.bias f4 [8]
00000000: 5378 d837 f57a ec37 f637 7a36 3ffa 1bb7
00000010: 3342 ba37 639e f737 b6c5 b9b7 aace 1237
2.5805237e-05 2.8190649e-05 3.7285477e-06 -9.296985e-06 2.2203754e-05 2.9518449e-05 -2.2145785e-05 8.750396e-06

st_gcn_networks.1.residual.1.weight f4 [8]
00000000: 14d6 703e 0d89 673e 9db0 903e 2cca 733e
00000010: cbd9 683e 6305 883e 0e1a b73e 01a4 283e
0.23519164 0.22610874 0.28259745 0.23807591 0.22739331 0.2656661 0.35762066 0.16468813

st_gcn_networks.1.residual.1.bias f4 [8]
00000000: b8bc 173c 8f4a 2abc 6655 98bc d5b0 c2bc
00000010: 395e 15bb ab17 92bb 2397 41ba e632 1a3c
0.009261303 -0.010393753 -0.018595409 -0.02376596 -0.0022791757 -0.004458388 -0.0007384887 0.009411549

st_gcn_networks.1.residual.1.running_mean f4 [8]
00000000: b75d aabc c2c3 16ba 847f 2cbc 6f91 ac3c
00000010: ac11 153c 6f6e 093b 200b 80bc 23e0 1f3c
-0.02079664 -0.0005751216 -0.010528449 0.021065442 0.009098452 0.0020970365 -0.015630305 0.009758028

st_gcn_networks.1.residual.1.running_var f4 [8]
00000000: 78a8 5e3a c543 d43a b6e0 763a 7596 853a
00000010: 7fff a13a 098d ce3a ae5e 593a f799 533a
0.0008493732 0.0016194513 0.000941764 0.0010191934 0.0012359469 0.0015758584 0.00082920014 0.0008071954

st_gcn_networks.2.gcn.conv.weight f4 [48, 8, 1, 1]
00000000: d09a 983c a6ec 4bbd 6410 523c 5dfc 17bd
00000010: 9f22 6d3d c2b5 223c 8983 82bd f98f 65bc
00000020: df44 9bbc 4b65 b1bc c5f6 4dbb 1b4a e7bc
00000030: b629 48bc ae08 623c af3c 543c 43c8 58b9
00000040: c9a1 563c f67a e0bc 3ae3 dc3b 2593 1cbd
00000050: 6507 85bc d82a f03b 6b13 32bc 6544 723c
00000060: 20ee a139 efd9 e8bb 2ade 88bc d960 93bc
00000070: e7b1 b43c 65c2 3fbd 4894 afbb daee 513c
00000080: 35c5 a93a 428d 933b 3f10 37bc daa5 fdb9
00000090: b5cd c4bc 484f 0e3d 45bc 5fbb dd91 8dbc
000000a0: 09c6 4f3d 78b9 db3a 9860 9bbd dbf8 b2bc
000000b0: dfd5 c53d 607c 62bc 6c02 cabd a1ec 8fbc
000000c0: 40e3 0cbd 11f5 8dbd f5fc 82bd b6e9 e33b
000000d0: 5ae8 27bd 3e25 753d 343a aabd c1ed f13c
000000e0: 6f6e cdbc 0bee 0cbd 487b 0f3d daf1 98b9
000000f0: 89f7 b83a d2c6 debc c4bc 6e3a 01b0 303c
00000100: cc03 6139 2c1d 12bd 0d72 09bd 06c4 483b
00000110: 653d 57bd 866d 5c3d 4061 9bbc 024f 00bd
00000120: 6b2e a6bb fd45 bbbc 3668 dd3c da6c 893c
00000130: 8946 bb3c e44d 14bd 4126 6b3b e9ee 393c
00000140: da22 7abb 2263 eebc 34f8 cb3c 5fc4 8d3b
00000150: 576c 423d c379 633d 58c9 283c d9c2 ecbb
00000160: 8be3 fd3c 17a0 5fbd 12a1 4abd 2d2d 253d
00000170: 55a9 01bc 30ca 92bc 1eb3 313c 7f77 4ebc
00000180: e012 043d 3bf1 2dbd a5cf a4bb 3858 943d
00000190: 1aee 08bd 6f6b 1a3c cd42 e73b 5844 01bc
000001a0: f396 97bb c16a 07bd 63eb 8b3d 6642 69bc
000001b0: 0884 d7bc eb1e 993a 31d0 da3b be33 c23c
000001c0: 6311 b8bc 68a0 b93c a46d fa3c 0372 35bd
000001d0: 2cd5 a83c 527c 1e3d 7ab8 9c3c 8560 d63b
000001e0: 78f4 e1bc 6407 213b 938c 87bc e2b4 83bc
000001f0: b703 9abc ac65 fa3b 9ce1 57bb 02c7 a4ba
00000200: 2f8c f93c c899 fabc 982b 033d 3233 49bd
00000210: c201 293d 9afd b83d 3569 af3d df8e b9bc
00000220: 787d 92bc 6ce6 1dbd 1785 9dbc e20d fabc
00000230: af6c 99bc dea8 9f3c 01d5 2c3d ba4c 3e3c
00000240: b1f2 1c3c 5afa 2f3b 307b 733d d1d4 cebb
00000250: 393e 493d 2180 a7bb d9ad 693c 527b f4bc
00000260: 63f0 d53c e457 273d 75d8 a8bb c84b d0bc
00000270: 5494 143d 4c03 37bd 9e1b 10bd d69a 02bd
00000280: 0500 2cbc 4b6e a3bc 7ad1 ab3c a0a0 b5bc
00000290: 5510 5ebc 69ab 293d 643b 993c f535 493c
000002a0: e473 a53c 8fab 3a3d c7e1 bbbc 3ef1 24bd
000002b0: 769c bf3c 9b0a e2bd 1748 923c fd66 3ebc
000002c0: 8b62 833d 1eac 123d 5743 90bd d1e3 1b3d
000002d0: e52f 913d 0549 12bd 4b8d b6bc 8969 fcbc
000002e0: 70e0 f9bb 94cb 63bd adf0 063d 99cf 963c
000002f0: 9f19 0ebd ff0e 263d dbd8 9dba c582 2f3d
00000300: 5239 fc3c 444f 443d 9ead 0abd 535d d63c
00000310: 48ae 743d 406c b83b 2913 2a3d d205 58bc
00000320: 0b81 7ebc 0976 8cbc d2d1 80bc 12e5 a33c
00000330: 5860 e0bc 7298 2d3d a14c d03c ea15 8abc
00000340: e50a 9d3c a1fc 40bd 31bb b63b e424 013d
00000350: 375d 09bc cd5a 3fbb 6fb6 463b 49df 0c3d
00000360: bab1 603d 1d4b a73d 37e8 673c 8003 2a3c
00000370: a6a4 44bd c77d 7ebc 583a af3d 6f7e 3d3d
00000380: ebba b03d b775 09bc 5199 b5bb f46d 4bbd
00000390: 4f42 cbbc ddc9 87bc 4309 ef3c 141d 943a
000003a0: fbd4 743c df8c 543d 6f63 88bd 2ec8 a83d
000003b0: 344b 84bb 0b1a 8fbd b0bf e7b8 3ef3 af3d
000003c0: 317c c3bb 6c94 98bc 83e9 57bc a1d8 5dbc
000003d0: 6a98 843c 6e2e 6e3c 2f5f 7a3a cfa6 c3bc
000003e0: 2fa3 04bc f1b2 9cbc 0dbe a33c 3304 ca3c
000003f0: 4257 813c a02f 643c cee3 f13c 02ba 76ba
0.018628508 -0.049786232 0.012821291 -0.037105907 0.057894345 0.00993103 -0.063727446 -0.014011377
-0.018953739 -0.021654746 -0.0031427604 -0.028233578 -0.012216976 0.013796015 0.012953921 -0.00020673969
0.013100096 -0.027402382 0.0067409547 -0.038226265 -0.016238878 0.007329326 -0.010868887 0.014786814
0.0003088573 -0.007106058 -0.016707499 -0.017990516 0.022057487 -0.04681625 -0.0053582527 0.012813294
0.0012952449 0.004502923 -0.011173307 -0.0004837949 -0.02402387 0.034743577 -0.0034139317 -0.017281467
0.05072597 0.0016763648 -0.07586783 -0.02184718 0.09659933 -0.013823599 -0.09863743 -0.017568888
-0.03439641 -0.06931508 -0.06395904 0.0069553507 -0.040993072 0.05984997 -0.083118826 0.029532315
-0.025077073 -0.034406703 0.03502968 -0.00029171893 0.0014111857 -0.027194414 0.0009107108 0.01078415
0.00021459087 -0.03567235 -0.033556033 0.0030634417 -0.052548785 0.053815387 -0.01896727 -0.031325348
-0.0050714514 -0.022860521 0.02702723 0.016775537 0.022860782 -0.036207095 0.0035880955 0.0113484645
-0.0038167746 -0.029100005 0.024898626 0.004326388 0.047466602 0.055536043 0.01030191 -0.007225376
0.03099229 -0.054596033 -0.049470015 0.040326286 -0.007913907 -0.017918676 0.0108459275 -0.012601732
0.032244563 -0.042466383 -0.005029636 0.07243389 -0.033430196 0.009425028 0.007057524 -0.00788983
-0.004626149 -0.033060793 0.06832006 -0.014237022 -0.026308075 0.0011682188 0.0066776504 0.023706313
-0.022469228 0.022659495 0.030569859 -0.044298183 0.02060946 0.03869278 0.019130934 0.0065422677
-0.027582392 0.0024571056 -0.016546523 -0.016077463 -0.0188006 0.0076415148 -0.003294087 -0.0012571516
0.030462353 -0.030590907 0.032023996 -0.04912109 0.041261442 0.09032746 0.085649885 -0.022651134
-0.017882094 -0.038549826 -0.019228501 -0.030524198 -0.018728582 0.019489702 0.042195324 0.011614973
0.0095793465 0.0026852102 0.059443653 -0.006311991 0.049131606 -0.0051117097 0.01426264 -0.02984396
0.026115602 0.040855303 -0.005152757 -0.02542676 0.03627427 -0.04468088 -0.035182588 -0.031885944
-0.0104980515 -0.019950053 0.02097391 -0.022171319 -0.013553699 0.041423235 0.018705077 0.012280931
0.020196863 0.045573767 -0.022934807 -0.04026913 0.023390036 -0.11037179 0.01785664 -0.011621234
0.0641528 0.035808675 -0.07044094 0.03805906 0.07089213 -0.035714168 -0.02228417 -0.030812042
-0.007625632 -0.05561407 0.03294437 0.018409537 -0.034692403 0.040541645 -0.0012042777 0.04284932
0.030789051 0.047927156 -0.03385698 0.026167547 0.05973652 0.005628139 0.04152218 -0.013184981
-0.015533696 -0.017146127 -0.01572505 0.02000669 -0.02738969 0.04238171 0.025427165 -0.016856153
0.019170234 -0.047115926 0.005576514 0.031529322 -0.008384041 -0.0029198409 0.0030321141 0.03439263
0.054856993 0.081686236 0.014154485 0.010376811 -0.048008583 -0.015532917 0.0855605 0.046263155
0.08629402 -0.008389882 -0.0055419584 -0.049665406 -0.024811892 -0.016575748 0.029179221 0.001130017
0.014943357 0.051892158 -0.066595905 0.08241306 -0.004037285 -0.06987389 -0.00011050643 0.08591317
-0.0059657325 -0.01862546 -0.013178232 -0.013540418 0.016185958 0.014537437 0.00095509266 -0.023883251
-0.008095547 -0.019128295 0.019988084 0.024660205 0.015788678 0.01392737 0.029527571 -0.00094118726

st_gcn_networks.2.gcn.conv.bias f4 [48]
00000000: a3ec 08bc 58ec 083c cb32 6fbc dba5 3e3c
00000010: d813 1bbc 1b4c 93bc 0c23 ce3c 9e86 81bc
00000020: 65aa 50bb cc79 83bc c8a4 8abc a525 8c37
00000030: 1f12 fdbc b8eb 3bbc 3de7 fbbb 875a ec3b
00000040: b5ab 75bd 000b 86bc 368b afbb 14e5 f63b
00000050: 0e08 383c e35e 76bc e3ae 51bc bcdd 31bb
00000060: b5bb 50bd a137 62bc 2280 95bc 1b3e 46bd
00000070: 2eac f03c da95 2a3c 319e 80bc 9349 15bc
00000080: dabc b43a 174b fd3b 53b3 cabb 546a c33b
00000090: a29e 72bc 6a94 363c 9b6c 9cba 3601 a8ba
000000a0: 53ca edbb 80f3 263b 2341 96bb 2c43 f4bc
000000b0: 2c27 033d 0539 6cbc 0203 303c 8141 dd3a
-0.0083572 0.00835713 -0.014599512 0.011636223 -0.00946518 -0.017980626 0.025163196 -0.01581126
-0.0031839844 -0.016049288 -0.016924277 1.670683e-05 -0.03089243 -0.011469774 -0.007687478 0.00721294
-0.059978206 -0.016362667 -0.0053571714 0.0075346325 0.011232389 -0.015037271 -0.012798044 -0.002714022
-0.05096026 -0.013807208 -0.018249575 -0.048399072 0.029378977 0.010411704 -0.015700432 -0.00911178
0.0013789192 0.0077298987 -0.006185928 0.005963603 -0.014808329 0.011143783 -0.0011934222 -0.0012817744
-0.007256785 0.0025474727 -0.0045854016 -0.029817186 0.03201978 -0.014417891 0.010742905 0.0016880484

st_gcn_networks.2.tcn.0.weight f4 [16]
00000000: 2af7 813e 1981 ff3d 96eb 423e f295 1a3e
00000010: fb15 843d d56b 873e 33cd 483e 3dc5 403e
00000020: af82 2d3e 822d f03d d73e 143e fe61 423e
00000030: 1c9e 1f3e 46cf 363e 37fb b83d 943a b53d
0.25383884 0.12475795 0.19035181 0.15096262 0.06449505 0.26449457 0.19609527 0.1882524
0.16944383 0.1172743 0.14477096 0.18982694 0.15587658 0.17852506 0.090322904 0.088490635

st_gcn_networks.2.tcn.0.bias f4 [16]
00000000: 8e06 a2bc 73bc aaba 4337 01bd 5eb7 bbbc
00000010: 8c47 643c d0fc d7bc a962 adbc a83e 2bbd
00000020: 421e 0dbd 53a5 d3bc 09ba 1bbd 94ef d7bc
00000030: 30e0 06bd 3431 6bbd 8a64 c2bb acb2 efbc
-0.019778516 -0.0013026133 -0.031546842 -0.022914585 0.013933074 -0.026365668 -0.021165209 -0.0418078
-0.034452684 -0.025835669 -0.038019214 -0.026359357 -0.032928646 -0.05741997 -0.0059323953 -0.029260002

st_gcn_networks.2.tcn.0.running_mean f4 [16]
00000000: a00a 05bb 5025 97ba 4ca2 31ba 2e1f 1fba
00000010: 5460 7f39 c198 82bb 07fb 9eba 8c1a 9aba
00000020: 564c f2ba 3c05 5cba b090 c7ba 3c89 2cbb
00000030: 78e2 943a 025e 0ab9 35ad 39b7 d8ea 713a
-0.0020300522 -0.0011531506 -0.0006776198 -0.0006070015 0.0002435458 -0.003985495 -0.0012129255 -0.0011757179
-0.0018485885 -0.0008393114 -0.0015225615 -0.0026326915 0.0011358997 -0.00013195726 -1.1067187e-05 0.0009228415

st_gcn_networks.2.tcn.0.running_var f4 [16]
00000000: da97 bd36 439c e036 2c02 9a36 f99f 3737
00000010: d6ad 9c36 942c 1738 8c6a 0d37 499c 8536
00000020: 74e8 0037 7822 3436 ec05 4c36 bd00 c636
00000030: 9e65 8836 8ba7 ad36 5b48 c535 1929 0536
5.650317e-06 6.6939115e-06 4.5898105e-06 1.09448965e-05 4.6693995e-06 3.6042722e-05 8.429062e-06 3.981903e-06
7.683517e-06 2.6842154e-06 3.0401816e-06 5.900946e-06 4.0649456e-06 5.1753063e-06 1.4698702e-06 1.9842466e-06

st_gcn_networks.2.tcn.2.weight f4 [16, 16, 9, 1]
00000000: 6638 6abc 000d 04bc 0a3b ebbc c386 49bc
00000010: 9576 94bc ff9f 113c 29fe 9bbb 4be5 84bc
00000020: ce45 f3bb 2af1 e93b 8b7e b93b ee15 333b
00000030: 7e14 5fbb a9dd 1e3c c1d2 f4bb 3404 48bb
00000040: 7570 19bc 1a85 93bc fed0 2f3c f4b7 303b
00000050: 44db 983b cf83 bd3a 4d6f ea3b 6268 c9bb
00000060: 47f1 923a b690 c3bb f233 a8ba ecc5 203a
00000070: d455 8dbb 1953 ebba 108c 463b 18e5 e13a
00000080: 0d97 923c ca83 e5bb c19e f3bb 7744 cbba
00000090: 8381 a13a 94d4 3d3c 014f 1dbc 791a 08bb
000000a0: b1f7 38bc 0b8d aabb b628 ccbb 4873 72bc
000000b0: 00f2 8fbc 923a 713c 707a 65bc 3d18 473c
000000c0: 3bd8 083c 0d4b 9b3b 142c 373c b4f4 7ab8
000000d0: db4a 14bb 5e13 593c 8d66 ad3c b47c 01bb
000000e0: 9992 2f3a 0b9f c73c 4eb4 593c 8f29 883a
000000f0: b245 073c e849 993c ac00 e73c 1c30 d4bb
00000100: 3262 63bb dc85 14bc fdc7 79b8 1a8a aeba
00000110: 4ea0 19bc 515d 313c 8692 6cbc 3c97 89bc
00000120: 2c14 a13c a5fe 7d3c fb0a d63b 3970 093c
00000130: 0f24 043c 1557 0fbc 8ad9 82bb 2791 9d3b
00000140: af85 dabb 3d7d d6bb 1eb9 033a 6d80 67bb
00000150: a695 833c 3dfb 90ba c0f4 27bc be90 3a3c
00000160: 14ad 3b3c 753b b2ba 7607 72ba 2bb5 cd3b
00000170: 23db a5bb 84de 233c e7e6 b33b b2cf 89bb
00000180: 9cfe 3f3c 4230 663c 4c57 f9ba b270 0c3c
00000190: 1117 c0bb 1053 56bc 6f63 50bc 8fb9 53bc
000001a0: b453 a1bb 507c c8bc e4d8 56bb 9488 7d3c
000001b0: 0f25 fcb9 c188 a23b 2252 06bb 649b a9bc
000001c0: 6a6c 34bc 6818 2bbc cc43 39bc 4e5c a2bb
000001d0: 69c8 37bc 6940 8a3c 2821 2cbc 2a04 7dbc
000001e0: 9cf6 4b3b fbbe 27bb 1634 25b9 e4fc 92bb
000001f0: a4b4 bc3b 6c87 ca3c e519 40bc a93c 2ebb
00000200: 3709 86bc 6882 02bc c806 31bc 028a e0bb
00000210: 0fd9 30bb 3209 34bc b877 eabc 97da 533c
00000220: 94f0 373c 015a 25ba 8e0a f0b9 6abe 23bc
00000230: 4b15 89bc 31c7 fc3b a818 c7bb 594c 06bc
00000240: 2950 a2ba 4c50 b4b8 6a7b 9b3c 5cb1 423c
00000250: a8e2 243c 719c 483c c7ea 843c d07d fdba
00000260: ebc4 973c a8db 48bc 6e86 193c 3611 efbb
00000270: c492 e4bb bdb0 8bbc 722e 823b 8e17 c7bc
00000280: 84c2 b43b 4c9d aabb 80e9 fabb e927 693c
00000290: 54a6 adbc 11e4 b93c a32d 50bc 07c8 96bc
000002a0: 457d c0bb 1b3d eabb 6442 cdbc ef5c 8bbc
000002b0: cd84 30bc f2ae abbc 4dd6 6cb9 70a3 d9bb
000002c0: fa01 97bc 10cb e9bb c8f7 cebc bacd 29bc
000002d0: 48a1 a73b 73eb e7bc 3ed4 b6bb 2e85 89bc
000002e0: 1e63 feba 9155 75bc 8193 93bb 576f 163b
000002f0: 9ed3 fd3b 9575 8fbc dd10 19bc 22bb 9bbc
00000300: fa8b fbbb fde8 c7bc ba42 1bbd 9494 e7bc
00000310: 193b 41bd ac81 9cbc dadc 283b 274d 333c
00000320: b6de b43c d41a 863c fe17 2c3d c8a0 d53b
00000330: bd1f b53c a1bc 71bc cc07 813c 88c8 873c
00000340: fdc5 67ba 89ea 0bbb febd 9dbb 58dc 9dbc
00000350: b9d1 05bd f212 e1bb fad1 7ebb 4e04 c3bc
00000360: 8bf7 9fbc fe61 95bb ecfb 3abc aafb f0bc
00000370: f37d 4ebc 5087 90bc c2c4 f2bc 0ea7 c3bc
00000380: 0295 f1bc b9fc f5ba 2366 28bb f611 3abc
00000390: 32c9 9bbc 0a99 083c ac01 073c 6817 46bc
000003a0: c459 99bc 3b32 10bc c9d0 b5bc 8b6b a3bc
000003b0: ec0d cdbc 89f0 14bd da3e 893c 912a 00bd
000003c0: 3d64 8dbc 4590 b4bc bf16 14bd 2e18 f83b
000003d0: 1903 a53c 5de8 d73a 4307 eb3c 3041 2d3b
000003e0: 77c6 3f3c 794d b23b d9fd 5bbb 61ac 5e3c
000003f0: 0769 373c cafb bb3c dd4d 863c 5394 d0bb
-0.014295673 -0.00805974 -0.028714675 -0.012300196 -0.01812295 0.008888244 -0.004760523 -0.016222617
-0.007424093 0.0071393447 0.005660837 0.0027326304 -0.0034039314 0.009696403 -0.007471413 -0.0030520083
-0.009365191 -0.018007804 0.01073098 0.0026965113 0.0046648104 0.0014458838 0.0071543814 -0.0061464766
0.0011210822 -0.0059681786 -0.0012832864 0.0006133008 -0.00431321 -0.0017953842 0.0030295886 0.0017234413
0.017894292 -0.007004236 -0.0074346964 -0.0015508075 0.0012321923 0.011586327 -0.0096013555 -0.0020767732
-0.011289523 -0.005204802 -0.006230439 -0.014797993 -0.01757145 0.014723437 -0.014006242 0.012151775
0.008352335 0.0047391714 0.011179943 -5.9832542e-05 -0.0022627625 0.013249246 0.021167064 -0.0019758167
0.0006697565 0.02436783 0.013287617 0.0010388362 0.008256363 0.018711999 0.028198563 -0.0064754616
-0.003469598 -0.009065118 -5.955248e-05 -0.0013316304 -0.0093765985 0.010825471 -0.014439231 -0.016795747
0.019662939 0.0155026065 0.0065320707 0.008388572 0.008065238 -0.008748789 -0.003993218 0.0048085633
-0.0066687684 -0.0065456913 0.0005024838 -0.003532435 0.016062569 -0.0011061203 -0.010251224 0.011387048
0.011454839 -0.0013598042 -0.0009232679 0.0062777004 -0.0050615235 0.010001782 0.005490172 -0.0042056674
0.011718418 0.0140495915 -0.0019023209 0.0085717905 -0.0058621247 -0.013081327 -0.012719019 -0.012922659
-0.0049233083 -0.02447334 -0.0032783085 0.015474457 -0.00048092796 0.00496015 -0.0020495732 -0.020703979
-0.011012176 -0.010442831 -0.011307668 -0.004954851 -0.011217215 0.016876416 -0.010505952 -0.015442887
0.0031122332 -0.002559601 -0.0001575503 -0.0044857133 0.0057588387 0.024722777 -0.011724924 -0.002658645
-0.016361816 -0.007965662 -0.010804839 -0.0068523893 -0.0026984846 -0.01098852 -0.02862154 0.012930534
0.011226792 -0.0006307662 -0.0004578423 -0.009994129 -0.016733786 0.007714175 -0.0060759373 -0.008196914
-0.0012383509 -8.598025e-05 0.018979747 0.011883106 0.010063805 0.01224433 0.016225232 -0.0019339863
0.018526515 -0.012259401 0.009370429 -0.007295753 -0.0069755036 -0.017052049 0.003972822 -0.024303224
0.005516352 -0.0052067395 -0.00765723 0.014230707 -0.021197475 0.022691758 -0.012706193 -0.018405927
-0.0058743083 -0.0071483976 -0.025056072 -0.017012088 -0.01077385 -0.020957444 -0.00022586547 -0.0066417977
-0.01843356 -0.0071348026 -0.025264636 -0.01036399 0.005115662 -0.028310513 -0.0055795005 -0.016787138
-0.0019408201 -0.014974014 -0.004503668 0.0022954547 0.007746174 -0.017512122 -0.009342399 -0.01901013
-0.0076765986 -0.02440309 -0.037905432 -0.02826909 -0.0471755 -0.019104801 0.0025766403 0.0109436875
0.022078853 0.016370215 0.04201507 0.0065194108 0.02210986 -0.014754445 0.015750788 0.016575113
-0.0008841453 -0.002134951 -0.0048139086 -0.019270107 -0.03267071 -0.0068687135 -0.003888248 -0.023805764
-0.019527217 -0.0045588007 -0.011412602 -0.029416878 -0.012603271 -0.017642647 -0.029634837 -0.023883369
-0.029489998 -0.0018767334 -0.0025695644 -0.011356821 -0.019016836 0.008337269 0.008240145 -0.012090541
-0.018719561 -0.008801038 -0.022194283 -0.019948741 -0.025031053 -0.036362205 0.016753603 -0.031290594
-0.017259711 -0.02204145 -0.036154505 0.007571242 0.020143079 0.0016472448 0.028689986 0.002643656
0.011705033 0.0054413644 -0.0033568053 0.013590903 0.011194474 0.02294721 0.01639455 -0.006365338

st_gcn_networks.2.tcn.2.bias f4 [16]
00000000: 82c8 5fb7 d60a 20b8 8543 3737 9ad7 62a7
00000010: a1ce 85b5 de04 d1b7 181f e3b7 7574 8736
00000020: 73ac 49b7 5d70 20b6 7ee9 ad36 7e6d 1ab6
00000030: 01f6 ce37 c18d 4f35 828d 8ab5 953f 0836
-1.333852e-05 -3.8157064e-05 1.0923371e-05 -3.1480678e-15 -9.969409e-07 -2.4917008e-05 -2.7074988e-05 4.036871e-06
-1.2020685e-05 -2.3907262e-06 5.182984e-06 -2.301152e-06 2.4671668e-05 7.731979e-07 -1.0322985e-06 2.0302589e-06

st_gcn_networks.2.tcn.3.weight f4 [16]
00000000: be7b f23d 7d0f 5e3e 747e f93d 68a5 0080
00000010: 9f0c 613e 9db0 333e 36ed 453e 144b 753d
00000020: 9c46 cf3d c375 9f3d 11f2 683e 69b4 513d
00000030: ce35 793e 2c9a af3c 68ab 803d 40b2 913a
0.11840008 0.21685596 0.12182322 -5.9337e-41 0.21977471 0.17547841 0.1932877 0.059886053
0.101208895 0.07786133 0.22748591 0.051197443 0.24336931 0.02143582 0.06282693 0.0011115745
