weights_arm/81.pt (torch, 70926 bytes, 80 tensors)

A f4 [3, 9, 9]
0	0x3f000000	0.5
1	0x00000000	0.0
2	0x00000000	0.0
3	0x00000000	0.0
4	0x00000000	0.0
5	0x00000000	0.0
6	0x00000000	0.0
7	0x00000000	0.0
8	0x00000000	0.0
9	0x00000000	0.0
10	0x3e4ccccd	0.2
11	0x00000000	0.0
12	0x00000000	0.0
13	0x00000000	0.0
14	0x00000000	0.0
15	0x00000000	0.0
16	0x00000000	0.0
17	0x00000000	0.0
18	0x00000000	0.0
19	0x00000000	0.0
20	0x3eaaaaab	0.33333334
21	0x00000000	0.0
22	0x00000000	0.0
23	0x00000000	0.0
24	0x00000000	0.0
25	0x00000000	0.0
26	0x00000000	0.0
27	0x00000000	0.0
28	0x00000000	0.0
29	0x00000000	0.0
30	0x3eaaaaab	0.33333334
31	0x00000000	0.0
32	0x00000000	0.0
33	0x00000000	0.0
34	0x00000000	0.0
35	0x00000000	0.0
36	0x00000000	0.0
37	0x00000000	0.0
38	0x00000000	0.0
39	0x00000000	0.0
40	0x3f000000	0.5
41	0x00000000	0.0
42	0x00000000	0.0
43	0x00000000	0.0
44	0x00000000	0.0
45	0x00000000	0.0
46	0x00000000	0.0
47	0x00000000	0.0
48	0x00000000	0.0
49	0x00000000	0.0
50	0x3eaaaaab	0.33333334
51	0x00000000	0.0
52	0x00000000	0.0
53	0x00000000	0.0
54	0x00000000	0.0
55	0x00000000	0.0
56	0x00000000	0.0
57	0x00000000	0.0
58	0x00000000	0.0
59	0x00000000	0.0
60	0x3eaaaaab	0.33333334
61	0x00000000	0.0
62	0x00000000	0.0
63	0x00000000	0.0
64	0x00000000	0.0
65	0x00000000	0.0
66	0x00000000	0.0
67	0x00000000	0.0
68	0x00000000	0.0
69	0x00000000	0.0
70	0x3f000000	0.5
71	0x00000000	0.0
72	0x00000000	0.0
73	0x00000000	0.0
74	0x00000000	0.0
75	0x00000000	0.0
76	0x00000000	0.0
77	0x00000000	0.0
78	0x00000000	0.0
79	0x00000000	0.0
80	0x3f000000	0.5
81	0x00000000	0.0
82	0x3e4ccccd	0.2
83	0x00000000	0.0
84	0x00000000	0.0
85	0x00000000	0.0
86	0x00000000	0.0
87	0x00000000	0.0
88	0x00000000	0.0
89	0x00000000	0.0
90	0x00000000	0.0
91	0x00000000	0.0
92	0x00000000	0.0
93	0x00000000	0.0
94	0x00000000	0.0
95	0x00000000	0.0
96	0x00000000	0.0
97	0x00000000	0.0
98	0x00000000	0.0
99	0x00000000	0.0
100	0x3e4ccccd	0.2
101	0x00000000	0.0
102	0x00000000	0.0
103	0x00000000	0.0
104	0x00000000	0.0
105	0x00000000	0.0
106	0x00000000	0.0
107	0x00000000	0.0
108	0x00000000	0.0
109	0x00000000	0.0
110	0x3eaaaaab	0.33333334
111	0x00000000	0.0
112	0x3f000000	0.5
113	0x00000000	0.0
114	0x00000000	0.0
115	0x00000000	0.0
116	0x00000000	0.0
117	0x00000000	0.0
118	0x00000000	0.0
119	0x00000000	0.0
120	0x3eaaaaab	0.33333334
121	0x00000000	0.0
122	0x00000000	0.0
123	0x00000000	0.0
124	0x00000000	0.0
125	0x00000000	0.0
126	0x00000000	0.0
127	0x3e4ccccd	0.2
128	0x00000000	0.0
129	0x00000000	0.0
130	0x00000000	0.0
131	0x00000000	0.0
132	0x00000000	0.0
133	0x00000000	0.0
134	0x00000000	0.0
135	0x00000000	0.0
136	0x00000000	0.0
137	0x00000000	0.0
138	0x00000000	0.0
139	0x00000000	0.0
140	0x3eaaaaab	0.33333334
141	0x00000000	0.0
142	0x3f000000	0.5
143	0x00000000	0.0
144	0x00000000	0.0
145	0x00000000	0.0
146	0x00000000	0.0
147	0x00000000	0.0
148	0x00000000	0.0
149	0x00000000	0.0
150	0x3eaaaaab	0.33333334
151	0x00000000	0.0
152	0x00000000	0.0
153	0x00000000	0.0
154	0x3e4ccccd	0.2
155	0x00000000	0.0
156	0x00000000	0.0
157	0x00000000	0.0
158	0x00000000	0.0
159	0x00000000	0.0
160	0x00000000	0.0
161	0x00000000	0.0
162	0x00000000	0.0
163	0x00000000	0.0
164	0x00000000	0.0
165	0x00000000	0.0
166	0x00000000	0.0
167	0x00000000	0.0
168	0x00000000	0.0
169	0x00000000	0.0
170	0x00000000	0.0
171	0x3f000000	0.5
172	0x00000000	0.0
173	0x3eaaaaab	0.33333334
174	0x00000000	0.0
175	0x00000000	0.0
176	0x3eaaaaab	0.33333334
177	0x00000000	0.0
178	0x00000000	0.0
179	0x3f000000	0.5
180	0x00000000	0.0
181	0x00000000	0.0
182	0x00000000	0.0
183	0x3eaaaaab	0.33333334
184	0x00000000	0.0
185	0x00000000	0.0
186	0x00000000	0.0
187	0x00000000	0.0
188	0x00000000	0.0
189	0x00000000	0.0
190	0x00000000	0.0
191	0x00000000	0.0
192	0x00000000	0.0
193	0x00000000	0.0
194	0x00000000	0.0
195	0x00000000	0.0
196	0x00000000	0.0
197	0x00000000	0.0
198	0x00000000	0.0
199	0x00000000	0.0
200	0x00000000	0.0
201	0x00000000	0.0
202	0x00000000	0.0
203	0x00000000	0.0
204	0x00000000	0.0
205	0x00000000	0.0
206	0x00000000	0.0
207	0x00000000	0.0
208	0x00000000	0.0
209	0x00000000	0.0
210	0x00000000	0.0
211	0x00000000	0.0
212	0x00000000	0.0
213	0x3eaaaaab	0.33333334
214	0x00000000	0.0
215	0x00000000	0.0
216	0x00000000	0.0
217	0x00000000	0.0
218	0x00000000	0.0
219	0x00000000	0.0
220	0x00000000	0.0
221	0x00000000	0.0
222	0x00000000	0.0
223	0x00000000	0.0
224	0x00000000	0.0
225	0x00000000	0.0
226	0x00000000	0.0
227	0x00000000	0.0
228	0x00000000	0.0
229	0x00000000	0.0
230	0x00000000	0.0
231	0x00000000	0.0
232	0x00000000	0.0
233	0x00000000	0.0
234	0x00000000	0.0
235	0x00000000	0.0
236	0x00000000	0.0
237	0x00000000	0.0
238	0x00000000	0.0
239	0x00000000	0.0
240	0x00000000	0.0
241	0x00000000	0.0
242	0x00000000	0.0

data_bn.weight f4 [27]
0	0x3dec9750	0.11552298
1	0x3dc9f877	0.09861844
2	0x3da7b64a	0.08189066
3	0x3e8e773f	0.27825353
4	0x3e002fde	0.1251826
5	0x3dd61fc1	0.10455275
6	0x3e93737a	0.2879904
7	0x3e4c3f59	0.1994604
8	0x3e80b0ec	0.2513498
9	0x3efe9151	0.49720243
10	0x3f0e2042	0.5551797
11	0x3ecf166e	0.404468
12	0x3f0f775d	0.5604151
13	0x3f06d303	0.5266573
14	0x3ecd00da	0.40039712
15	0x3e8b1f64	0.27172387
16	0x3e62e4bd	0.22157569
17	0x3e6dbad1	0.23215796
18	0x3efcc777	0.4937093
19	0x3edee277	0.43532154
20	0x3ebd3a0f	0.36958358
21	0x3f066419	0.52496487
22	0x3eec82a2	0.46193415
23	0x3ebccd8a	0.36875564
24	0x3e56ac83	0.20964245
25	0x3d76abc7	0.060222413
26	0x3dc8a697	0.097973995

data_bn.bias f4 [27]
0	0x3b06dd6a	0.002057875
1	0x3c62cf74	0.013843406
2	0xbc46ebc7	-0.012141175
3	0xbc89fddc	-0.016844682
4	0x39f0beec	0.00045918615
5	0x3b9e19ef	0.004824869
6	0x3d42c536	0.047551356
7	0xbb62b5db	-0.0034593258
8	0xbcad6e0c	-0.021170639
9	0xbcd2471b	-0.025668671
10	0xbb25da17	-0.0025306994
11	0x3c75ca84	0.015001897
12	0xb9ce08ad	-0.00039297846
13	0x3ba05f6e	0.0048941886
14	0xbc3f97bb	-0.01169389
15	0x3cbe2a28	0.023213461
16	0x3d2a8d9d	0.04163896
17	0x3ce447e5	0.027866313
18	0x3bc5da2f	0.0060379724
19	0xbba449da	-0.0050136866
20	0xbbd3440a	-0.00644732
21	0xbcf30fa8	-0.029670551
22	0xbcc47e65	-0.02398605
23	0x3b9afdd3	0.0047299652
24	0x3c8bac67	0.017049981
25	0x3a971550	0.0011526737
26	0xbb4ad5d5	-0.0030950208

data_bn.running_mean f4 [27]
0	0x42b1ceb4	88.90372
1	0x429f57e3	79.67165
2	0x41c2e423	24.361395
3	0x42c344b3	97.63418
4	0x42ad8054	86.75064
5	0x41d0d123	26.102118
6	0x42af47d4	87.64029
7	0x42a411cd	82.03477
8	0x41c7e2b6	24.985699
9	0x42c5214e	98.56505
10	0x42a71d42	83.557144
11	0x41c9cb6b	25.224325
12	0x42d4c7ab	106.38998
13	0x42a2258a	81.07332
14	0x41c69980	24.824951
15	0x42d6d736	107.420334
16	0x42b70f3a	91.52974
17	0x41d9fed8	27.249435
18	0x43007bdc	128.48383
19	0x42c515f2	98.54286
20	0x41e52f92	28.648228
21	0x43003c21	128.23488
22	0x42bdae08	94.839905
23	0x41dc2f83	27.5232
24	0x42d61a3f	107.05126
25	0x42c3c094	97.87613
26	0x41e61b54	28.763344

data_bn.running_var f4 [27]
0	0x463cf25b	12092.589
1	0x46aa6d33	21814.6
2	0x45f8cd4e	7961.663
3	0x4645f3ee	12668.982
4	0x46bb110c	23944.523
5	0x46094106	8784.256
6	0x46186bb2	9754.924
7	0x46a3d9ed	20972.963
8	0x45f82051	7940.0396
9	0x46445c61	12567.095
10	0x46993008	19608.016
11	0x45eeb47d	7638.561
12	0x465ed458	14261.086
13	0x468c4a7a	17957.238
14	0x45e4c3d7	7320.48
15	0x46816f4d	16567.65
16	0x46d48f88	27207.766
17	0x4617a4c6	9705.193
18	0x46ab07a1	21891.814
19	0x46dbb7c0	28123.875
20	0x461df1e0	10108.469
21	0x46a4670a	21043.52
22	0x46c19a1a	24781.05
23	0x460d990d	9062.263
24	0x468a3867	17692.201
25	0x46c78f85	25543.76
26	0x4617c4c0	9713.1875

st_gcn_networks.0.gcn.conv.weight f4 [24, 3, 1, 1]
0	0xbdab42da	-0.0836236
1	0xbc1d7609	-0.009610661
2	0x3c36813b	0.011139209
3	0x3e0d2378	0.13783062
4	0xbd825c30	-0.063652396
5	0x3d81f0a6	0.06344728
6	0x3dd269f2	0.10274114
7	0xbaf7428b	-0.0018864436
8	0x3d48362d	0.04887979
9	0xbd3fe1f3	-0.04684634
10	0xbc780d97	-0.015139959
11	0x3e198252	0.1499112
12	0x3d0bd533	0.03413887
13	0xbce954ec	-0.028482877
14	0xbe8519e4	-0.25996315
15	0x3e5682da	0.20948353
16	0x3ea1c832	0.3159805
17	0x3d8b75bf	0.06809568
18	0xbe6c4316	-0.23072466
19	0x3e4f58a7	0.20248662
20	0x3db1a22e	0.086735114
21	0xbe4728c3	-0.19449143
22	0x3d88b03f	0.06674241
23	0xbe0b2c6a	-0.13591161
24	0xbd465a67	-0.04842606
25	0xbd8cc6cf	-0.06873857
26	0xbca11191	-0.019661697
27	0xbe88a0d0	-0.2668519
28	0xbdddd912	-0.108324185
29	0x3d34cdd0	0.04414159
30	0x3e367840	0.17819309
31	0xbcb8a0e3	-0.022537654
32	0xbcaf0284	-0.021363504
33	0xbe19938f	-0.14997695
34	0xbe086231	-0.13318707
35	0x3c91ad40	0.017782807
36	0xbb4557cb	-0.0030112143
37	0xbc383f50	-0.011245564
38	0x3e5e16b7	0.21688353
39	0xbd1d7c7c	-0.038448796
40	0xbe7a8419	-0.24464454
41	0xbe0bce49	-0.1365291
42	0x3d424cfa	0.04743669
43	0x3d843683	0.0645571
44	0x3d6bc757	0.057563152
45	0x3e2e7c7f	0.17039679
46	0xbdd473ee	-0.10373674
47	0x3e30fd9b	0.17284243
48	0xbcca87e5	-0.024723003
49	0x3bf94d47	0.007608089
50	0xbbf151f6	-0.007364507
51	0xbd6483ec	-0.055789873
52	0xbcc67416	-0.024225276
53	0xbcc0d471	-0.0235388
54	0x3e2d236a	0.1690804
55	0xbb2baa50	-0.0026194043
56	0x3d0bdbb5	0.034145076
57	0xbd88194d	-0.06645451
58	0xbc0de2f5	-0.008660068
59	0x3c18c82d	0.009325069
60	0xbe48c19e	-0.19605109
61	0xbc2278de	-0.009916512
62	0xbc370211	-0.011169926
63	0x3d436bb5	0.04771014
64	0xbd31fc77	-0.04345366
65	0x3e0af031	0.13568188
66	0x3d8e42db	0.069463454
67	0xbd07e57c	-0.033177838
68	0xbc08bd85	-0.008345966
69	0xbde52412	-0.111885205
70	0x3e1f66b2	0.15566519
71	0x3d5c0a09	0.053720508

st_gcn_networks.0.gcn.conv.bias f4 [24]
0	0x3c510277	0.012756935
1	0x3d734bfc	0.059398636
2	0x3d977a02	0.07396318
3	0x3d9859ee	0.07439028
4	0xbc8f9915	-0.01752905
5	0xbe454131	-0.1926315
6	0x3b18c259	0.00233092
7	0x3e0f00d9	0.13965167
8	0xbdb0d073	-0.086335085
9	0x3c83ceff	0.016089914
10	0x3dae2084	0.085022956
11	0xbd1b2fc2	-0.037887342
12	0x3cd4f044	0.025993474
13	0x3e191063	0.14947657
14	0x3e41e556	0.18935141
15	0xbbc50a5c	-0.006013198
16	0xbc9253a9	-0.017862158
17	0xbe32d08b	-0.17462365
18	0x3d403ad6	0.04693111
19	0xbd7c7af8	-0.06164071
20	0x3d45b2a7	0.04826608
21	0x3cc0e9b2	0.023548935
22	0xbc26e5ba	-0.010186607
23	0xbb22173c	-0.0024733087

st_gcn_networks.0.tcn.0.weight f4 [8]
0	0x3e529664	0.20565182
1	0x3ec1dfe8	0.3786614
2	0x3ed96054	0.42456305
3	0x3eb04b66	0.34432524
4	0x3e86f24e	0.2635674
5	0x3ec4b48d	0.38419
6	0x3ec401f8	0.38282752
7	0x3ec33a89	0.38130596

st_gcn_networks.0.tcn.0.bias f4 [8]
0	0x3ce0faed	0.0274634
1	0x3d061014	0.032730177
2	0x3ce8f3c9	0.028436558
3	0x3c752e34	0.014964629
4	0xbc702f03	-0.014659646
5	0x3d2f64af	0.04282063
6	0xbb07499b	-0.0020643238
7	0xbd198d57	-0.037488308

st_gcn_networks.0.tcn.0.running_mean f4 [8]
0	0xbc20c790	-0.009813204
1	0x3a4acaa1	0.00077358825
2	0x3cc1a4a0	0.02363807
3	0x3b2c5d31	0.0026300664
4	0x3b5e3ae3	0.003390961
5	0xbbfe2264	-0.0077555645
6	0x3cbe6320	0.023240626
7	0x3c9cae68	0.019126132

st_gcn_networks.0.tcn.0.running_var f4 [8]
0	0x39591970	0.00020704209
1	0x39d42ba0	0.00040468294
2	0x3a0b6b03	0.0005318375
3	0x39db9b72	0.0004188675
4	0x381a9c01	3.686175e-05
5	0x39c29cbb	0.00037119337
6	0x3a28f285	0.00064448296
7	0x38f013da	0.000114477894

st_gcn_networks.0.tcn.2.weight f4 [8, 8, 9, 1]
0	0x3b74122b	0.0037242274
1	0x3ba73c2f	0.00510361
2	0x3c1b76e9	0.0094888
3	0x3b96755e	0.004591628
4	0x3c6af287	0.01434005
5	0xbc50a4e5	-0.012734626
6	0x3be8ae54	0.0071008597
7	0xbb030cb2	-0.001999658
8	0x3c8796a3	0.016551321
9	0x3cb00d3a	0.021490682
10	0xbd675eb6	-0.056486808
11	0xbc8cfde9	-0.017210918
12	0xbc4490cf	-0.011997416
13	0xbc6cfcc8	-0.014464565
14	0x3d04c99c	0.032418832
15	0x3c8a86b9	0.016909944
16	0xbb0a5714	-0.0021109032
17	0xbcca92ad	-0.024728144
18	0x3d3de4f7	0.046360936
19	0x3d7dc7c3	0.061958086
20	0x3cc572d9	0.024102615
21	0x3d54e67e	0.051977627
22	0xbccb9741	-0.024852397
23	0x3db2ee77	0.0873689
24	0xbd452019	-0.048126314
25	0x3d1a88ff	0.037728306
26	0xbd6e6c50	-0.058208764
27	0x3be328a8	0.006932337
28	0xbc594eff	-0.013263463
29	0x3d83e145	0.06439451
30	0xbc6488b3	-0.013948607
31	0x3c2a6824	0.010400806
32	0x3d3d45cb	0.046209138
33	0x3d0819b5	0.03322764
34	0x3d1c113a	0.038102366
35	0x3bbd8fa9	0.005784948
36	0xbd066e7e	-0.032820217
37	0xbd1125b6	-0.035436355
38	0x3c5a6789	0.013330349
39	0xbca85df2	-0.02055261
40	0xbcf1b154	-0.029503502
41	0x3c96406a	0.018341262
42	0x3cb12ffa	0.021629322
43	0xbd2b3381	-0.041797165
44	0xbc0767b3	-0.00826447
45	0xbd36741c	-0.044544324
46	0x3c4609b5	0.012087275
47	0x3cbd09b0	0.023075908
48	0x3ca8bca5	0.020597765
49	0x3cfb61d7	0.030686302
50	0x3c859e85	0.01631094
51	0x3cd49158	0.025948212
52	0x3bac48bf	0.0052576954
53	0x3cd03e67	0.02542038
54	0x3cbe7578	0.023249373
55	0x3d06dc1b	0.032924753
56	0xbaca30e3	-0.0015425946
57	0xbd27bf49	-0.040953908
58	0xbd06e7e5	-0.032935996
59	0xbbe90280	-0.0071108937
60	0xbd0f9500	-0.035054207
61	0x3d4aa266	0.04947128
62	0xbd08a6d0	-0.03336221
63	0xbd0b50b4	-0.03401251
64	0xbdb58512	-0.08863272
65	0xbc459ab7	-0.012060813
66	0xbdab6833	-0.08369484
67	0xbba329ca	-0.004979347
68	0xbd8692bf	-0.06570958
69	0xbc875ac6	-0.016522776
70	0xbc69ce7b	-0.01427042
71	0x3b9a4276	0.00470763
72	0x3c8cea4c	0.017201565
73	0xbc33b7df	-0.010969131
74	0xba2dabd3	-0.000662503
75	0x3c0807cd	0.008302641
76	0x3cf10589	0.029421585
77	0x394c11aa	0.00019461536
78	0x3d0c37fd	0.034233082
79	0x3c0a6553	0.008447009
80	0x3a04b1d0	0.00050618965
81	0x3ce1e909	0.02757694
82	0x3cb0d9e4	0.021588273
83	0x3ce271df	0.027642189
84	0xbae871b0	-0.0017734077
85	0xbac55357	-0.0015054744
86	0x3c467971	0.012113915
87	0x3d05fdf7	0.032712903
88	0xbbb0aea2	-0.0053919116
89	0x3cdb321e	0.026757296
90	0x3d0486d1	0.032355133
91	0x3d8dd01a	0.06924458
92	0x3d9aa8d1	0.075517304
93	0x3a44c178	0.0007505636
94	0xbc8fb361	-0.01754159
95	0xbd4c6bbd	-0.049907435
96	0xbb39c874	-0.002834824
97	0x3cfcbb38	0.030850992
98	0xbc118782	-0.008882405
99	0x3d48a187	0.04898217
100	0xbcf1af2d	-0.029502476
101	0x3c86c5ac	0.01645168
102	0x3bfb0f12	0.0076617086
103	0x3d012752	0.03153164
104	0x3ca218a3	0.019787138
105	0x3d158beb	0.03651039
106	0xbcad3ccd	-0.021147156
107	0xbc32716d	-0.010891301
108	0x3c7ae661	0.015313716
109	0xbc0eb296	-0.00870957
110	0x3ccfaeab	0.025351843
111	0x3ccc4ac7	0.024938
112	0x3d00a112	0.03140361
113	0xbcf42edd	-0.029807502
114	0x3cfee32f	0.031114189
115	0x3d740392	0.059573717
116	0x3d4420eb	0.047882956
117	0xbc2e8486	-0.010651713
118	0x3d0bd9be	0.034143202
119	0x3c4741c8	0.01216168
120	0xbd2252e7	-0.039629843
121	0x3c8fcecd	0.017554665
122	0xbcb16d01	-0.021658422
123	0xbd132f27	-0.03593364
124	0xbca923a3	-0.020646876
125	0xbd0cf9b9	-0.03441784
126	0xbd4d01f3	-0.050050687
127	0xbd0d5932	-0.03450889
128	0xbd625841	-0.055259947
129	0xbd65e26b	-0.056124132
130	0xbd050e5b	-0.032484394
131	0x3cf50987	0.02991177
132	0x3cad31e9	0.021141963
133	0xbd31d901	-0.04341984
134	0x3d4b51d7	0.049638595
135	0x3c97246b	0.018449983
136	0xbd6e82a7	-0.05823007
137	0xbc5ecb92	-0.01359834
138	0x3bb01cd8	0.005374532
139	0x3ce88b19	0.02838664
140	0xbd1eca06	-0.038766883
141	0x3cce427f	0.025178192
142	0xbcee1948	-0.02906479
143	0xbcc16b74	-0.023610808
144	0xbcaeb492	-0.021326337
145	0xbbf32439	-0.0074200896
146	0xbca334b4	-0.019922592
147	0x3cb1730b	0.021661302
148	0xbc40da1a	-0.011770749
149	0xbc9980a8	-0.018738106
150	0xba9c6b1c	-0.0011933777
151	0xbcfebcbe	-0.031095859
152	0xbce570d9	-0.028007912
153	0xb924421c	-0.00015664886
154	0xbb6faa30	-0.0036569946
155	0x3b0680db	0.0020523581
156	0x3d230c93	0.039806914
157	0xbc98ae61	-0.018637838
158	0x3a9ebc91	0.001211064
159	0x3cb1f2d6	0.021722239
160	0xbd0e8462	-0.03479422
161	0xb9209173	-0.00015312973
162	0x3d86fd7b	0.06591316
163	0xbaf9f843	-0.001907118
164	0x3bdb51ff	0.0066931243
165	0xbd93dc83	-0.07219794
166	0x3d5a7644	0.053335443
167	0xbc24dbd8	-0.01006218
168	0x3d4dfee2	0.050291903
169	0xbd80eb76	-0.062949106
170	0x3d21a094	0.03945978
171	0x3ce8e185	0.028427849
172	0xbd3e9399	-0.04652748
173	0xbd14dbf8	-0.03634259
174	0x3d1af607	0.037832286
175	0x3ceae824	0.028675146
176	0xbd1e390b	-0.03862862
177	0x3c2a416e	0.010391576
178	0xbd14bc80	-0.03631258
179	0x3c7b8d42	0.015353503
180	0xbb974262	-0.0046160677
181	0xbace7b91	-0.0015753378
182	0x3d2a03a0	0.041507363
183	0x3c7d2e08	0.015452869
184	0xbd6fc2d7	-0.058535423
185	0xbc6266cc	-0.013818454
186	0xbc30af35	-0.01078396
187	0xbc09a81a	-0.008401895
188	0x3c8aa12f	0.016922561
189	0xbd1a9ce0	-0.037747264
190	0xbd95e8ba	-0.0731978
191	0x3d72548d	0.059162665
192	0xbd2cfe6d	-0.042234827
193	0xbd31415a	-0.043275215
194	0xbb9008f0	-0.0043955967
195	0x3d1b21cd	0.03787403
196	0xbd122ce7	-0.035687353
197	0x3d870f76	0.06594746
198	0x3d05739f	0.032580968
199	0xbd011278	-0.031511754
200	0xbda66e21	-0.08126474
201	0x3d4255f9	0.04744527
202	0x3d9dfba0	0.07714009
203	0x3c9b8db5	0.01898847
204	0xbcf9d3d3	-0.030496513
205	0x3d1902b4	0.037356094
206	0x3d56c88e	0.052437358
207	0xbd72e51c	-0.059300527
208	0xbcdd76a2	-0.027034108
209	0xbd93de3a	-0.07220121
210	0x3cd95b24	0.026532717
211	0xbb8eea7e	-0.0043614497
212	0x3d348926	0.044076107
213	0xbd3eae2a	-0.046552815
214	0xbd188c09	-0.037242923
215	0xba163058	-0.00057292497
216	0xbc3e4d5a	-0.011615122
217	0xba81501a	-0.0009865791
218	0x3c83eb9a	0.016103555
219	0x3bc5c685	0.0060356283
220	0x3c8519b9	0.016247617
221	0xbbf0fb55	-0.00735418
222	0x3b929be3	0.0044741496
223	0xba188ea6	-0.0005819596
224	0x3c227178	0.009914748
225	0x3ad149a4	0.0015967381
226	0x3c809b34	0.015699007
227	0xbcb504ff	-0.022097109
228	0xbc4e7cf4	-0.012603033
229	0x3d0dde4a	0.03463582
230	0x3ce94a34	0.028477766
231	0x3d0f36c6	0.034964345
232	0xbc2820b4	-0.010261703
233	0x3c98c02b	0.01864632
234	0x3c31aff7	0.010845176
235	0x3c131a6d	0.008978468
236	0xbc9b1cfd	-0.018934721
237	0xbc8c0fa8	-0.01709731
238	0xbb8e33fd	-0.0043396936
239	0xbbd3a1a1	-0.0064584767
240	0x3c32952d	0.010899824
241	0xbbfd3c04	-0.0077281017
242	0xbd298bab	-0.041392963
243	0x3cb443bf	0.02200496
244	0xbd0663dc	-0.032810077
245	0xbd210c76	-0.039318524
246	0xbd3a42f8	-0.045474023
247	0xbd0bd343	-0.03413702
248	0xbb98df2d	-0.0046652765
249	0xbc90c1e5	-0.017670581
250	0xbc5e1c57	-0.013556561
251	0x3c90477c	0.017612211
252	0xbc184d31	-0.009295748
253	0xbd126d94	-0.035749033
254	0x38f3e95e	0.00011630611
255	0x3c82dc61	0.015974225

st_gcn_networks.0.tcn.2.bias f4 [8]
0	0x3823949a	3.9000624e-05
1	0x371f029c	9.477746e-06
2	0x3805c515	3.1893218e-05
3	0xb7b2db16	-2.1321273e-05
4	0x37794253	1.4856999e-05
5	0xb771f2b5	-1.4421229e-05
6	0x37434fc5	1.16414785e-05
7	0x38211d51	3.8412694e-05

st_gcn_networks.0.tcn.3.weight f4 [8]
0	0x3ec2d90b	0.38056216
1	0x3eb3c643	0.351122
2	0x3ea05b07	0.31319448
3	0x3e62f419	0.22163428
4	0x3e6e5ff0	0.23278785
5	0x3ec01e32	0.37523037
6	0x3ecc9358	0.39956164
7	0x3ea93814	0.33050597

st_gcn_networks.0.tcn.3.bias f4 [8]
0	0xbd148445	-0.036258955
1	0x3c0b5759	0.008504712
2	0x3c910dba	0.01770674
3	0x3c8629aa	0.016377289
4	0x3a9f9659	0.0012175544
5	0x3c507628	0.012723483
6	0x3d021dd4	0.031766728
7	0xbb007d4b	-0.001960593

st_gcn_networks.0.tcn.3.running_mean f4 [8]
0	0x3c84eae1	0.01622528
1	0x3cdb45d8	0.026766703
2	0xbcc3a8ff	-0.023884295
3	0xbd14e4c2	-0.036350973
4	0x3cd849ac	0.026402317
5	0x3d0ed83d	0.03487419
6	0xbca0e82f	-0.019641964
7	0x3a30cf0c	0.00067447196

st_gcn_networks.0.tcn.3.running_var f4 [8]
0	0x3bfdacb0	0.007741533
1	0x3bae4c5f	0.0053191627
2	0x3b32732e	0.0027229297
3	0x3a9c80c4	0.0011940231
4	0x3b3303f5	0.002731559
5	0x3bdf5cb1	0.0068164696
6	0x3bcec4e0	0.0063100904
7	0x3b7150ff	0.003682196

st_gcn_networks.1.gcn.conv.weight f4 [24, 8, 1, 1]
0	0xbc405482	-0.011738898
1	0xbd320172	-0.04345841
2	0x3d502caa	0.050823845
3	0x3d598b99	0.053111646
4	0xbcb88a06	-0.022526752
5	0xbba7ed83	-0.005124749
6	0x3b8af02a	0.0042400556
7	0x3d2ef9d7	0.042718735
8	0x3bba23f5	0.005680556
9	0xbc95bb88	-0.018277898
10	0x3dad2349	0.08453996
11	0xbcc361e8	-0.023850396
12	0x3cfcca62	0.030858222
13	0xbd132ce1	-0.03593147
14	0x3d90f866	0.07078628
15	0x3c53baa3	0.012922916
16	0x3d8a142f	0.06742131
17	0xbd8124b5	-0.063058294
18	0xbd1f9b05	-0.038966198
19	0x3d86b92f	0.0657829
20	0x3d97a63c	0.074047536
21	0x3da1cfa6	0.07900934
22	0xbce4577f	-0.027873753
23	0xbbc23c55	-0.0059276023
24	0x3c321999	0.010870361
25	0xbcdff48c	-0.027338289
26	0xbd1608fc	-0.036629662
27	0xbcdcf820	-0.026973784
28	0xbd9eeafe	-0.07759665
29	0xbdc78502	-0.09742166
30	0x3d059910	0.032616675
31	0xbdb9a626	-0.090648934
32	0xbc868d9f	-0.016424952
33	0x3bd981be	0.006637781
34	0x3d8b8ae2	0.06813599
35	0xbcfb9cda	-0.030714441
36	0x3c9791ec	0.018502198
37	0x3b13fea3	0.0022582195
38	0x3cce53ce	0.025186446
39	0x3c34c161	0.011032433
40	0x3c75436c	0.014969688
41	0xbdc419a2	-0.095752016
42	0x3d179d9f	0.037015554
43	0xbd5132ce	-0.05107384
44	0xbabcd870	-0.0014407765
45	0x3aaa536a	0.001299483
46	0xbdad2807	-0.084549
47	0x3c919641	0.017771842
48	0xbd169483	-0.036762726
49	0xbd0b0332	-0.033938594
50	0x3d8673e6	0.065650746
51	0x3c83ddf8	0.016097054
52	0x3d097186	0.03355553
53	0x3c9a2db5	0.018820623
54	0xbd2ac88f	-0.041695174
55	0xbcab2304	-0.02089072
56	0xbc81babb	-0.01583611
57	0xbc1a579b	-0.009420301
58	0xbc88d292	-0.01670197
59	0xbd17863e	-0.036993258
60	0xbc672c29	-0.01410965
61	0x3d65ef40	0.05613637
62	0x3c27f857	0.01025208
63	0x3d7530f5	0.059861142
64	0xbc990519	-0.018679189
65	0x3d92d540	0.071695805
66	0x3c5738b0	0.013136074
67	0xbc5fa260	-0.013649553
68	0xbd1f2826	-0.038856648
69	0x3b811626	0.003939408
70	0x3d8cad91	0.06869043
71	0x3de373a1	0.11106039
72	0xbd5fedca	-0.054670133
73	0xbac079f7	-0.0014684786
74	0xbd342a40	-0.043985605
75	0xbd3d002e	-0.04614275
76	0xbbf09fbf	-0.007343262
77	0xbc7c4f92	-0.01539983
78	0x3d6b7dad	0.0574929
79	0xbb033877	-0.002002267
80	0x3c3346e1	0.010942192
81	0xbba03970	-0.0048896596
82	0x3d7f16b8	0.062277526
83	0xbc872e00	-0.016501427
84	0xbd397a1a	-0.04528246
85	0xbdd4bf03	-0.10387995
86	0x3dd4a2bf	0.10382604
87	0xbd47ef6a	-0.048812307
88	0xbcb457b7	-0.022014482
89	0x3e08422b	0.13306491
90	0x3d9fe349	0.07807023
91	0x3c8dfd5a	0.017332722
92	0xbd82680c	-0.063675016
93	0x3d9ec37d	0.0775213
94	0xbd1f87b8	-0.03894779
95	0xbdc3e6fc	-0.09565541
96	0xbd152cda	-0.036419727
97	0xbca1afdf	-0.019737182
98	0x3d94e254	0.07269731
99	0x3d3cba98	0.046076387
100	0xbb8033a8	-0.003912408
101	0x3c9eef0b	0.019401094
102	0xbd092798	-0.033485025
103	0x3d175a10	0.036951125
104	0x3db277fe	0.08714293
105	0xbd339295	-0.043840963
106	0x3b6e945b	0.0036404345
107	0xbd75c3a7	-0.06000104
108	0x3ceb7f55	0.02874724
109	0xbdada54b	-0.08478793
110	0x3d9db6e9	0.07700903
111	0x3d670755	0.056403477
112	0xbdb6d7cc	-0.08927879
113	0xbdfba60f	-0.122875325
114	0x3d1db2fa	0.038500763
115	0x3d78716c	0.060655043
116	0xbda3275b	-0.07966491
117	0xbc91d654	-0.017802395
118	0x3d09cfe7	0.033645537
119	0x3d91ea35	0.071247496
120	0x3d3e18e9	0.046410475
121	0x3cdb07a6	0.026737045
122	0xbc6420ef	-0.013923868
123	0x3a7e187f	0.0009692981
124	0x3b036d74	0.0020054253
125	0x3c1d1c9d	0.0095893415
126	0x3cff24e7	0.031145526
127	0x3aecd86a	0.0018069868
128	0xbc623b57	-0.013808093
129	0xbc284d95	-0.010272403
130	0xbc76159f	-0.015019803
131	0x3d23afc4	0.039962545
132	0xbac532e7	-0.0015045077
133	0x3d238874	0.039925054
134	0xbd625ce3	-0.055264365
135	0xbc3354ae	-0.010945482
136	0x3d03dbed	0.03219216
137	0x3cd220e5	0.025650451
138	0x3c1e5039	0.009662681
139	0xbd6574fe	-0.056019776
140	0x3bb7ce0e	0.0056092804
141	0x3d4a1a37	0.049341407
142	0x3d7375a6	0.05943837
143	0x3d289e3b	0.041166525
144	0x3b665a09	0.003514888
145	0x3ba740c1	0.005104155
146	0xbbdd285b	-0.0067491955
147	0xbcc9bf41	-0.02462733
148	0x3984f602	0.00025360292
149	0xbd709a30	-0.058740795
150	0x3d9b2fa1	0.07577444
151	0x3cc8aa31	0.024495216
152	0x3db8718f	0.090060346
153	0xbcb1623e	-0.02165329
154	0xbce30c9b	-0.027715972
155	0xbd14d923	-0.03633989
156	0xbd149582	-0.036275394
157	0xbd05b79a	-0.0326458
158	0x3e16c198	0.14722288
159	0xbbb21bf6	-0.005435462
160	0x3cb489e3	0.022038406
161	0xbd0a5409	-0.03377155
162	0x3bf84f99	0.007577848
163	0xbccd2c4d	-0.025045538
164	0x3bb65354	0.0055641327
165	0x3c120c24	0.008914027
166	0x3b9fa95e	0.004872485
167	0xbcaa6624	-0.020800658
168	0xbc2b5613	-0.010457533
169	0xbd1451b6	-0.036210738
170	0xbd1148ce	-0.035469823
171	0x3c51ae65	0.012797927
172	0xbcba55b5	-0.022745946
173	0xbd63e72f	-0.055640396
174	0xbceae2d4	-0.028672613
175	0xbc52417d	-0.012832996
176	0x3d92ce91	0.07168306
177	0x3ccd8890	0.025089532
178	0x3cc47040	0.023979306
179	0xbd982f32	-0.07430877
180	0x3d195d21	0.03744233
181	0x3d4481bc	0.047975287
182	0xbc1c4853	-0.009538728
183	0xbcca4191	-0.024689468
184	0x3c0b31ca	0.008495757
185	0xbd0ffc4f	-0.03515273
186	0x3d2dd958	0.042443603
187	0xbc7b4e84	-0.015338544
188	0xbb9f9ca5	-0.0048709684
189	0xbd0422db	-0.032259803
190	0xbc2dac6f	-0.010600193
191	0x3da8bd45	0.08239225

st_gcn_networks.1.gcn.conv.bias f4 [24]
0	0x3bbce050	0.005764045
1	0x3c822ba5	0.015889952
2	0xbc0d5d75	-0.008628239
3	0x3d25eea6	0.040510796
4	0x3c02e53b	0.007989223
5	0xbbc4271f	-0.005986109
6	0x3c011b51	0.007880048
7	0x3b179900	0.0023131967
8	0xbd98c554	-0.07459512
9	0xbbb4349b	-0.005499435
10	0x3be6c9e9	0.0070431125
11	0x3b56553d	0.0032704615
12	0xbd5801f1	-0.052736226
13	0x3c85d1d6	0.01633541
14	0x3d710ed9	0.05885205
15	0x3a3c1043	0.0007174054
16	0xbc90062a	-0.017581064
17	0xbd369356	-0.044574104
18	0x3bb2f5fe	0.0054614535
19	0x3caea3cf	0.021318344
20	0x3c09acf9	0.008403056
21	0xbce58931	-0.02801952
22	0x3c93c101	0.018036367
23	0xbc74d6ae	-0.014943762

st_gcn_networks.1.tcn.0.weight f4 [8]
0	0x3e781f2a	0.24230638
1	0x3e5a1f55	0.21301015
2	0x3ea15255	0.31508127
3	0x3ea9dcda	0.3317631
4	0x3e2af867	0.1669632
5	0x3e871c3b	0.26388726
6	0x3ea05110	0.31311846
7	0x3e848f0e	0.25890392

st_gcn_networks.1.tcn.0.bias f4 [8]
0	0xbc365e31	-0.011130855
1	0x3b579232	0.0032893536
2	0x3cc1e3ed	0.023668254
3	0x3c76815c	0.01504549
4	0xbc361fa8	-0.011115946
5	0xbc02a388	-0.007973559
6	0xbcfcfb88	-0.030881658
7	0xbc8fb8d3	-0.017544186

st_gcn_networks.1.tcn.0.running_mean f4 [8]
0	0xbafbdb01	-0.0019215049
1	0x39a514cc	0.00031486747
2	0x39b2690d	0.00034029075
3	0x3b1c19c5	0.002381907
4	0xbacd291a	-0.0015652508
5	0xbaa6d46b	-0.00127281
6	0x3b591c95	0.0033128608
7	0x3ab9674f	0.0014145168

st_gcn_networks.1.tcn.0.running_var f4 [8]
0	0x36cb0129	6.0500065e-06
1	0x37182542	9.068581e-06
2	0x37b85458	2.1973785e-05
3	0x3783ac43	1.5696633e-05
4	0x371934d0	9.131807e-06
5	0x371d4309	9.373537e-06
6	0x37d25747	2.5074592e-05
7	0x376ec1f2	1.4231062e-05

st_gcn_networks.1.tcn.2.weight f4 [8, 8, 9, 1]
0	0x3b9c2288	0.0047648586
1	0xbb6f8faa	-0.0036554136
2	0xbc0585bb	-0.00814956
3	0xbbed71bf	-0.0072462256
4	0x3acd4aa5	0.0015662505
5	0xbca82918	-0.020527408
6	0x3adbc459	0.001676689
7	0x3c3b70e4	0.011440489
8	0x3d184837	0.037178244
9	0xbcab4e58	-0.02091138
10	0xbc54264e	-0.012948586
11	0x3c91dbf1	0.017805072
12	0x3ba60030	0.0050659403
13	0xbd1e3151	-0.03862125
14	0xbbe3c242	-0.0069506476
15	0x3c5cef58	0.013484798
16	0x3c8dea48	0.017323628
17	0xbc361b99	-0.011114978
18	0x3c9abb75	0.018888215
19	0xbbc0f5a1	-0.0058886562
20	0x3d009c8b	0.03139929
21	0xbcc770e7	-0.024345828
22	0x3c0f7a05	0.008757119
23	0xbc2adec6	-0.01042909
24	0x3d0e4023	0.034729134
25	0xbd06b934	-0.032891467
26	0xbd1a30ae	-0.03764408
27	0x3c4d5c32	0.012534188
28	0x3c4ef25a	0.012631023
29	0x3c428d81	0.0118745575
30	0x3bb7d3e0	0.0056099743
31	0x3b3029a2	0.0026880284
32	0x3ce1f39b	0.02758198
33	0xbd269c7f	-0.04067659
34	0xbd13a5d5	-0.03604682
35	0xbd12cb53	-0.035838436
36	0xbc2cfd21	-0.0105583975
37	0xbc492b5e	-0.012278406
38	0x3a48bbe2	0.0007657391
39	0xbbc91a55	-0.006137172
40	0x3a9fb065	0.0012183307
41	0x3d189870	0.03725475
42	0x3cc523f7	0.024065001
43	0x3c724f1e	0.014789371
44	0x3cf20381	0.029542686
45	0xbc932d0a	-0.017965812
46	0xbce1ae13	-0.027548825
47	0x3cc76eca	0.02434482
48	0x3c3435b6	0.010999134
49	0xbbf90860	-0.0075998753
50	0xbc683946	-0.014173811
51	0xbbe8e401	-0.0071072583
52	0xbca24eb7	-0.019812925
53	0xbc0a599b	-0.008444215
54	0xbc958e8f	-0.018256454
55	0xb96c4070	-0.00022530719
56	0x3c981bae	0.018567886
57	0xbc939677	-0.018016083
58	0x3cc9507a	0.024574507
59	0x3d0ac083	0.033875
60	0x3cea7091	0.028618129
61	0xbab63fd7	-0.0013904524
62	0x37d22df3	2.5055348e-05
63	0x3c5598b9	0.0130369
64	0x3c4d1d02	0.012519123
65	0xbced9aec	-0.029004537
66	0xbd395ccf	-0.045254525
67	0x3c01ea67	0.007929421
68	0xbc8ac0ac	-0.016937576
69	0xbc20a773	-0.009805548
70	0x3c130ff0	0.008975968
71	0x3b961ecc	0.004581308
72	0xbc4e2b05	-0.012583499
73	0xbcf71fe3	-0.030166572
74	0xbc0a5ca1	-0.008444936
75	0xbbf4649f	-0.007458284
76	0xbcef09da	-0.029179502
77	0xbccf7e18	-0.02532868
78	0x3b87dbf9	0.004146096
79	0x3a613082	0.0008590297
80	0xbce27311	-0.027642759
81	0xbcac1dbc	-0.021010272
82	0xbca4ca18	-0.020115897
83	0xbac5f3c7	-0.0015102559
84	0xbd24ca9c	-0.040232286
85	0x3ce6bd29	0.02816637
86	0x3c6dae4d	0.014506889
87	0x3cf5de7e	0.03001332
88	0x3b764811	0.0037579576
89	0x3cd480c1	0.0259403
90	0xbc8b5d2d	-0.017012203
91	0xbc4d8b84	-0.01254547
92	0x3c4a4b0b	0.012346993
93	0x3bc53f41	0.0060195033
94	0x3cbc6b4c	0.023000382
95	0x3d18fdce	0.037351422
96	0x3c04d8e8	0.008108355
97	0x3d10b2aa	0.035326637
98	0x3d1b0242	0.03784395
99	0x3c6e36fe	0.014539478
100	0x3d1f6987	0.038918998
101	0x3bb26f77	0.0054454166
102	0x3cae3cfd	0.021269316
103	0xbab63c44	-0.0013903459
104	0x3d480bb8	0.0488393
105	0x3c68bb25	0.014204775
106	0x3ac212c5	0.0014806619
107	0x3ce74b48	0.02823414
108	0xbd017675	-0.03160711
109	0xbbb9747a	-0.005659637
110	0xbbc8d5ae	-0.006128988
111	0xbcce5ad6	-0.025189798
112	0xb8137166	-3.515314e-05
113	0xbc46add2	-0.012126403
114	0x3b8a4841	0.004220039
115	0xbcad7c83	-0.021177536
116	0x3cc6b69b	0.024256995
117	0xbab214db	-0.0013586538
118	0xbc97b26e	-0.0185177
119	0x397e628a	0.00024260036
120	0xbc71bf3a	-0.014755065
121	0xbc5553af	-0.01302044
122	0xbbba2ec5	-0.005681845
123	0x3ad82d03	0.0016492907
124	0x3c22b1ad	0.0099300565
125	0x3caadd9b	0.020857623
126	0xbc886095	-0.016647616
127	0x3bbf6aa2	0.005841569
128	0x3ce369cb	0.027760407
129	0xbcb14729	-0.021640377
130	0x3c80cae7	0.015721751
131	0x3c1b9206	0.009495264
132	0x3c94ddbc	0.018172137
133	0xbcb52fc3	-0.022117501
134	0x3d1583a5	0.0365025
135	0xbc2ae947	-0.010431594
136	0xbc861c8f	-0.01637104
137	0xbc9f8cfd	-0.019476408
138	0xbc8e5b50	-0.017377526
139	0xbce231fb	-0.027611723
140	0x3bc15575	0.00590008
141	0x3c46998a	0.0121215675
142	0xbc08a31d	-0.0083396705
143	0xbb309d58	-0.0026949253
144	0x3c71c951	0.01475747
145	0xbd88f4a3	-0.06687286
146	0xbd0afd40	-0.033932924
147	0xbc0f1a5a	-0.00873431
148	0xbcc6a11c	-0.024246745
149	0x3ad43745	0.0016190788
150	0xbc2cc836	-0.010545781
151	0xbd25a935	-0.04044457
152	0xbd25532c	-0.040362522
153	0x3d4817c4	0.04885079
154	0xbc533e40	-0.0128932595
155	0xbb3ee062	-0.0029125442
156	0xb9dca047	-0.00042081086
157	0xbc88f39d	-0.016717726
158	0xbd021be7	-0.03176489
159	0xbcdf8847	-0.027286662
160	0x3c01b4c2	0.007916631
161	0xbc3904ec	-0.011292677
162	0x3d19b812	0.03752906
163	0xbd14ffa2	-0.036376603
164	0x3c87af56	0.016563099
165	0x3d2daf32	0.042403407
166	0xbcb37f91	-0.021911414
167	0x3c883749	0.016627925
168	0x3cd1d57b	0.02561449
169	0x3c1ab4e9	0.009442546
170	0x3a6bd487	0.00089962076
171	0xbcdffb32	-0.027341459
172	0x3cbc38bf	0.022976277
173	0xbd354657	-0.044256534
174	0x3c12e835	0.008966495
175	0xbcc1d0a3	-0.023659056
176	0xbcca5cbc	-0.024702422
177	0xbd5ce232	-0.053926654
178	0x3c44f2ed	0.012020809
179	0x3a19b631	0.00058636355
180	0x3ae2db51	0.0017307793
181	0x3d20a9f2	0.039224572
182	0xbceee3b5	-0.029161314
183	0x3d03e5b0	0.03220147
184	0xbbe48cd9	-0.006974798
185	0x3c8e78d4	0.0173916
186	0x3c85bf25	0.016326496
187	0xbc516e17	-0.012782595
188	0x3c3ed753	0.011648017
189	0x3cd20c2f	0.025640575
190	0xbcf68a9b	-0.03009539
191	0x3d04cdf2	0.032422967
192	0xbc055a77	-0.008139244
193	0xbb19485c	-0.0023389077
194	0xbd305531	-0.043049995
195	0x3c1fe7ec	0.009759884
196	0xbd658543	-0.05603529
197	0xbd0d3f00	-0.03448391
198	0xba08064b	-0.0005188926
199	0xbbfc3d9b	-0.0076977736
200	0x3c9dc1c2	0.01925743
201	0x3d436a9c	0.047709092
202	0x3bc743e4	0.0060810912
203	0xbbea978d	-0.0071591795
204	0x3c2fc2c8	0.010727592
205	0x3c6cecf1	0.014460788
206	0x3d36aa50	0.044596016
207	0x3c0a1156	0.008426985
208	0x3d16dcb8	0.036831588
209	0x3cbc65a4	0.022997685
210	0xbc0d37a7	-0.008619226
211	0x3bfb97b7	0.007677998
212	0xbc41540e	-0.011799825
213	0xb9635b35	-0.00021682384
214	0xbc1f85b0	-0.009736463
215	0xbb3925d8	-0.0028251316
216	0x3bde94bf	0.0067926343
217	0xbc36f418	-0.011166595
218	0x3ceb404b	0.02871718
219	0xbc8023ea	-0.015642125
220	0xbd0a25c0	-0.033727407
221	0x3a9fc2a9	0.001218875
222	0xbd089eeb	-0.03335468
223	0xbd265d5d	-0.040616382
224	0x3cd7d537	0.026346786
225	0x3d535254	0.051592186
226	0x3bc3a39c	0.0059704315
227	0x3c010992	0.007875817
228	0x3c751b0a	0.01496006
229	0x3d2b0bf9	0.041759465
230	0x3c0a634e	0.008446528
231	0xbcf4e304	-0.029893406
232	0xbd20501c	-0.0391389
233	0x3ca63ea7	0.020293547
234	0x3bd08b7b	0.0063642836
235	0x3c8389fe	0.01605701
236	0x3cdc812f	0.026917068
237	0xbcd5a7e8	-0.02608104
238	0x3c84d707	0.016215814
239	0x3c3654b8	0.011128597
240	0x3c74349d	0.014905122
241	0x3c3f8010	0.011688247
242	0x3d3efa87	0.04662564
243	0xbbd36a69	-0.006451894
244	0xbb86019b	-0.004089547
245	0xbc87cedd	-0.016578132
246	0x3cbc9e82	0.023024801
247	0x3b253776	0.002521006
248	0xbc6830d4	-0.014171798
249	0xbc40e9f7	-0.011774532
250	0x3ccfc2fd	0.025361532
251	0xbd487d56	-0.048947655
252	0xbae15a7e	-0.0017193106
253	0x3baa1b5d	0.0051912502
254	0xbc20cb1a	-0.009814048
255	0xbd0a252a	-0.03372685

st_gcn_networks.1.tcn.2.bias f4 [8]
0	0x3678a9d3	3.705373e-06
1	0xb877662d	-5.8984548e-05
2	0xb7bf944d	-2.2838032e-05
3	0x38820ae0	6.200909e-05
4	0xb7b71fdf	-2.1830141e-05
5	0x377a15af	1.490621e-05
6	0xb871a269	-5.7610134e-05
7	0x367c86ef	3.7629468e-06

st_gcn_networks.1.tcn.3.weight f4 [8]
0	0x3e67af9e	0.22625586
1	0x3e8ab9b5	0.27094808
2	0x3ea48457	0.32132217
3	0x3e9deacf	0.30843207
4	0x3e66bae7	0.22532235
5	0x3eb42401	0.3518372
6	0x3e95643c	0.29178035
7	0x3e41ae72	0.18914202

st_gcn_networks.1.tcn.3.bias f4 [8]
0	0x3c19e4e8	0.009392954
1	0xbc1a5c4b	-0.009421418
2	0xbc931c37	-0.01795779
3	0xbcc99cff	-0.024610994
4	0xbb508561	-0.0031817781
5	0xbbadae43	-0.0053003146
6	0x348eabfa	2.657469e-07
7	0x3c1cabbc	0.009562429

st_gcn_networks.1.tcn.3.running_mean f4 [8]
0	0xbbc4cc32	-0.0060057873
1	0x3c8495aa	0.016184647
2	0xbc28e7b3	-0.010309148
3	0x3b842903	0.0040332093
4	0xbba16e5e	-0.004926487
5	0x3bffb70a	0.0078038024
6	0xbc8df2d6	-0.017327707
7	0xbc3b9c43	-0.01145083

st_gcn_networks.1.tcn.3.running_var f4 [8]
0	0x39fe3f50	0.00048493827
1	0x3b061d96	0.0020464412
2	0x3a8393f2	0.0010038598
3	0x3a2b38f0	0.00065316167
4	0x39cb9283	0.00038828337
5	0x3acbcad2	0.0015548116
6	0x3a6de878	0.0009075473
7	0x3a712d6b	0.0009200188

st_gcn_networks.1.residual.0.weight f4 [8, 8, 1, 1]
0	0xbd246637	-0.040136542
1	0xbd7a0946	-0.061044
2	0xbdde598c	-0.108569235
3	0xbc63f65f	-0.01391372
4	0xbd840f70	-0.06448257
5	0x3d033dd0	0.03204137
6	0x3d630ab9	0.055430148
7	0xbc8b2648	-0.016986027
8	0xbda45862	-0.0802467
9	0xbd5225ce	-0.051305585
10	0xbc89a4bf	-0.01680219
11	0xbb385e88	-0.0028132517
12	0xbadbc742	-0.0016767757
13	0x3dc25835	0.094894804
14	0x3dca34b1	0.09873331
15	0xbdc98086	-0.09838967
16	0xbe07ab6f	-0.1324899
17	0xbb767681	-0.0037607255
18	0x3d931969	0.07182581
19	0xbaadd207	-0.0013261446
20	0xbd13b3d2	-0.036060162
21	0x3d65af8b	0.056075614
22	0xbc591a4d	-0.0132508995
23	0xbd7f8472	-0.06238217
24	0x3d9fda3e	0.07805298
25	0x3c7985c4	0.015229646
26	0xbd7bc23f	-0.061464544
27	0x3980a52c	0.00024537125
28	0xbcac097b	-0.021000614
29	0xbc02b5e9	-0.007977941
30	0x3d869204	0.06570819
31	0x3db54c33	0.088524245
32	0xbd374619	-0.044744585
33	0x3cd72d46	0.026266705
34	0xbdbe2e0d	-0.09286127
35	0x3c624378	0.013810031
36	0x3d14117b	0.036149483
37	0xbd11e67b	-0.035620194
38	0x3dcf382d	0.101181366
39	0x3d7c298e	0.061563067
40	0x3e013445	0.12617595
41	0x3cf4f4f4	0.029901959
42	0x3dd70494	0.1049892
43	0xbc0e48ea	-0.008684376
44	0xbd75c70d	-0.060004283
45	0xbd4971ad	-0.049180675
46	0xbd066af8	-0.032816857
47	0xbda40dff	-0.08010482
48	0x3ca78dfa	0.020453442
49	0x3ca178a1	0.01971084
50	0xbda5a868	-0.080887616
51	0x3cd3f35f	0.025872884
52	0xbc76cdfc	-0.015063759
53	0xbd03693a	-0.032082774
54	0xbd79c78d	-0.060981322
55	0x3c778858	0.0151081905
56	0xbca8406c	-0.020538531
57	0x3cf2f630	0.029658407
58	0x3d88e878	0.06684965
59	0x3b162ac2	0.002291367
60	0x3d81f4d4	0.063455254
61	0x3dc0feef	0.09423625
62	0xbdd2dfbb	-0.102965795
63	0xbd190b39	-0.03736422

st_gcn_networks.1.residual.0.bias f4 [8]
0	0x36dea4be	6.635294e-06
1	0xb856a75c	-5.117744e-05
2	0xb79f7e2f	-1.9013036e-05
3	0x36a83a83	5.013602e-06
4	0x3707288d	8.0560685e-06
5	0x32e3f400	2.6537236e-08
6	0xb88c3305	-6.685223e-05
7	0x35d84e34	1.6116014e-06

st_gcn_networks.1.residual.1.weight f4 [8]
0	0x3e713dfc	0.23558801
1	0x3e667b3b	0.22507946
2	0x3e8f1eee	0.27953285
3	0x3e72e9e1	0.2372203
4	0x3e67e94d	0.22647591
5	0x3e86a8de	0.2630071
6	0x3eb6cc8b	0.3570293
7	0x3e28af0e	0.16473028

st_gcn_networks.1.residual.1.bias f4 [8]
0	0x3c19e4e8	0.009392954
1	0xbc1a5c4b	-0.009421418
2	0xbc931c37	-0.01795779
3	0xbcc99cff	-0.024610994
4	0xbb508561	-0.0031817781
5	0xbbadae43	-0.0053003146
6	0x348eabfa	2.657469e-07
7	0x3c1cabbc	0.009562429

st_gcn_networks.1.residual.1.running_mean f4 [8]
0	0xbca4de3c	-0.0201255
1	0xb9772a09	-0.00023571415
2	0xbc2a6377	-0.010399691
3	0x3cadc230	0.02121076
4	0x3c0ef5b9	0.008725577
5	0x3b0da658	0.0021614041
6	0xbc828987	-0.015934719
7	0x3c1b68db	0.009485449

st_gcn_networks.1.residual.1.running_var f4 [8]
0	0x3a4c7851	0.0007799911
1	0x3acb1399	0.0015493511
2	0x3a631802	0.000866294
3	0x3a80bc43	0.0009821731
4	0x3a9f2814	0.0012142682
5	0x3ac34851	0.0014898871
6	0x3a598a8e	0.00082985393
7	0x3a4edc5c	0.00078911125

st_gcn_networks.2.gcn.conv.weight f4 [48, 8, 1, 1]
0	0x3c9302e9	0.017945724
1	0xbd4d4378	-0.05011317
2	0x3c6545e0	0.01399371
3	0xbd1628c9	-0.03665999
4	0x3d6dcbe8	0.05805579
5	0x3c23da9e	0.010000853
6	0xbd84a319	-0.06476421
7	0xbc6561b0	-0.014000341
8	0xbc8d9eca	-0.01728763
9	0xbc9ff1af	-0.019524423
10	0xbb4b3257	-0.0031005347
11	0xbce7f8f8	-0.02831696
12	0xbc42c95a	-0.011888826
13	0x3c7090b8	0.014682941
14	0x3c58a435	0.013222744
15	0xbb002995	-0.0019556035
16	0x3c75a670	0.014993295
17	0xbcddfe65	-0.027098844
18	0x3c00bf9f	0.007858186
19	0xbd19a15f	-0.03750741
20	0xbc76fc36	-0.01507478
21	0x3be26524	0.0069090296
22	0xbc2b287e	-0.010446666
23	0x3c6ba258	0.0143819675
24	0x3a6f6363	0.0009131936
25	0xbb82b0ce	-0.003988362
26	0xbc745911	-0.014913813
27	0xbc9f5f01	-0.019454481
28	0x3ca70158	0.020386383
29	0xbd3f7d43	-0.04675032
30	0xbbc83f32	-0.006111049
31	0x3c6bf1e3	0.014400932
32	0x3b0cdf68	0.0021495465
33	0x3ba0af3e	0.004903703
34	0xbc46b5c9	-0.012128302
35	0x3a7b1216	0.0009577585
36	0xbcc4aa1b	-0.024006894
37	0x3d0d1a8a	0.034449138
38	0xbb07d61c	-0.0020726984
39	0xbc9f89de	-0.01947492
40	0x3d4f3f3c	0.050597414
41	0x3b35b024	0.0027723396
42	0xbd9d9b91	-0.076956876
43	0xbcac5076	-0.02103446
44	0x3dc55841	0.09635974
45	0xbc4ab4eb	-0.012372236
46	0xbdc922e2	-0.098211065
47	0xbc819323	-0.01581723
48	0xbd0d0043	-0.034424078
49	0xbd8d1699	-0.06889076
50	0xbd88c841	-0.066788204
51	0x3bcbf69a	0.0062244656
52	0xbd2deaec	-0.042460367
53	0x3d73995a	0.05947242
54	0xbdaf332a	-0.08554681
55	0x3ce3f084	0.027824648
56	0xbcc8fc0c	-0.024534248
57	0xbd127084	-0.035751835
58	0x3d0c742b	0.034290474
59	0x39f8455f	0.00047353932
60	0x3ab92e20	0.0014128126
61	0xbce34e45	-0.027747283
62	0x3ab28287	0.0013619222
63	0x3c34a6cf	0.011026098
64	0xba25f377	-0.00063305296
65	0xbd115a5e	-0.03548657
66	0xbd0b8df9	-0.034070943
67	0x3b77137f	0.003770083
68	0xbd56927d	-0.052385796
69	0x3d5947bb	0.053046923
70	0xbca0d79d	-0.019634062
71	0xbd055825	-0.032554764
72	0xbbb8136e	-0.0056175506
73	0xbcbbba8a	-0.022916097
74	0x3ce4a916	0.027912658
75	0x3c9213d1	0.017831715
76	0x3cbaaf8f	0.022788791
77	0xbd167dd6	-0.0367411
78	0x3ba7acc3	0.0051170303
79	0x3c4e2aa5	0.012583409
80	0xbbb13009	-0.0054073376
81	0xbcf250ee	-0.029579606
82	0x3cc2efcb	0.023795983
83	0x3b93d5f7	0.0045115906
84	0x3d41b235	0.047289092
85	0x3d63232f	0.055453476
86	0x3c34ac1c	0.011027362
87	0xbbe57567	-0.007002521
88	0x3d001c90	0.03127724
89	0xbd5a56a3	-0.05330528
90	0xbd47d660	-0.04878843
91	0x3d2488c8	0.040169507
92	0xbc087bc4	-0.008330289
93	0xbc8d2b10	-0.017232448
94	0x3c1a8dc6	0.0094332155
95	0xbc7605f0	-0.015016064
96	0x3d013d3a	0.03155253
97	0xbd2ca47f	-0.042149063
98	0xbbc3aa32	-0.0059712166
99	0x3d92c8d8	0.07167214
100	0xbd05cb19	-0.032664392
101	0x3c29ffa4	0.010375891
102	0x3bd3be67	0.0064619067
103	0xbc0c946c	-0.008580308
104	0xbba41f8f	-0.005008645
105	0xbd080ec7	-0.033217218
106	0x3d898a2a	0.06715806
107	0xbc82c6e2	-0.015963975
108	0xbce86e87	-0.028373016
109	0x3b059a39	0.0020386113
110	0x3b95a84f	0.004567183
111	0x3cc5cf84	0.024146803
112	0xbcb5a238	-0.022172078
113	0x3cc8ba8a	0.024503011
114	0x3d0257a5	0.031821866
115	0xbd3086be	-0.04309725
116	0x3ca11823	0.01966483
117	0x3d24a1b1	0.040193263
118	0x3c98556f	0.018595425
119	0x3ba2fcd2	0.004973986
120	0xbcde17fa	-0.027111042
121	0x3b38daa6	0.0028206496
122	0xbc903b22	-0.017606322
123	0xbc816741	-0.015796306
124	0xbc9a7751	-0.018855723
125	0x3c094b66	0.008379793
126	0xbb822332	-0.0039714808
127	0xbaf1ae0b	-0.001843871
128	0x3cf469ef	0.02983567
129	0xbd016ed0	-0.03159982
130	0x3cf94324	0.030427523
131	0xbd4bbe7e	-0.049742214
132	0x3d29f192	0.041490145
133	0x3db783d2	0.089606896
134	0x3daf29e8	0.08552915
135	0xbcbe1d00	-0.023207188
136	0xbc82e249	-0.015977042
137	0xbd200da5	-0.039075512
138	0xbc92ccd5	-0.017919937
139	0xbcedce59	-0.029029058
140	0xbc98f82d	-0.018673027
141	0x3cadf271	0.02123377
142	0x3d307da0	0.043088555
143	0x3c4f6112	0.012657421
144	0x3c2ab73c	0.010419663
145	0x3b377030	0.0027990453
146	0x3d70b3f4	0.058765367
147	0xbbd8a5e4	-0.0066115726
148	0x3d4ce7fd	0.05002593
149	0xbb9a5f9c	-0.0047111046
150	0x3c81e8a7	0.015858008
151	0xbcf4212a	-0.02980097
152	0x3ccedf53	0.025252974
153	0x3d3026d6	0.043005787
154	0xbb91e87b	-0.0044527627
155	0xbcd131a8	-0.025536373
156	0x3d0f1119	0.034928415
157	0xbd2dcae6	-0.042429827
158	0xbd128be5	-0.035777945
159	0xbd07f6a4	-0.0331942
160	0xbc1c0097	-0.009521625
161	0xbcacf50b	-0.02111294
162	0x3cabc913	0.020969903
163	0xbcbdbe68	-0.023162082
164	0xbc4e1ac5	-0.012579625
165	0x3d2769e6	0.040872477
166	0x3c9e27d5	0.019306103
167	0x3c59001d	0.013244656
168	0x3ca1a429	0.019731598
169	0x3d3cb8f0	0.046074808
170	0xbcbcae7b	-0.023032418
171	0xbd229131	-0.039689247
172	0x3cc04652	0.023471031
173	0xbde11d9d	-0.109919764
174	0x3c8e8ac9	0.017400162
175	0xbc49b0ee	-0.01231025
176	0x3d81567b	0.06315323
177	0x3d141fab	0.036163013
178	0xbd90a7be	-0.07063244
179	0x3d1bbc24	0.03802122
180	0x3d8fd19c	0.07022402
181	0xbd12571e	-0.035727613
182	0xbcbefdd0	-0.023314387
183	0xbd00c5af	-0.031438526
184	0xbc182b2f	-0.0092876395
185	0xbd683a99	-0.056696508
186	0x3d07ab73	0.03312249
187	0x3c8fa486	0.017534506
188	0xbd11ab81	-0.03556395
189	0x3d23a1e8	0.039949328
190	0x38f5af13	0.000117151205
191	0x3d2dd683	0.042440902
192	0x3d04c8fc	0.032418236
193	0x3d431805	0.04763033
194	0xbd107d47	-0.035275724
195	0x3ccc457f	0.024935482
196	0x3d73f25d	0.059557308
197	0x3bbe7077	0.0058117467
198	0x3d2f42e7	0.042788412
199	0xbc593856	-0.01325806
200	0xbc585b55	-0.013205369
201	0xbc8eb8ef	-0.017422168
202	0xbc7c1229	-0.015385189
203	0x3c94c0db	0.018158367
204	0xbce2070f	-0.027591256
205	0x3d2b8c4f	0.041881856
206	0x3cdf56a5	0.027262995
207	0xbc8f923e	-0.017525788
208	0x3c997ef7	0.0187373
209	0xbd3a9c2b	-0.04555909
210	0x3b94005b	0.004516644
211	0x3d01e7d1	0.031715218
212	0xbc039a69	-0.00803242
213	0xbb251b90	-0.002519343
214	0x3ba7571f	0.005106821
215	0x3d115f00	0.03549099
216	0x3d5dfb3d	0.054194678
217	0x3da7ac89	0.08187205
218	0x3c6534d4	0.013989646
219	0x3c1eb7d7	0.0096873855
220	0xbd450e49	-0.048109327
221	0xbc84e4b9	-0.016222345
222	0x3dafc6e5	0.08582858
223	0x3d40e303	0.047091495
224	0x3db1b9a4	0.08677986
225	0xbc148043	-0.009063783
226	0xbbc70dff	-0.0060746665
227	0xbd4af907	-0.049553897
228	0xbcda6002	-0.026657108
229	0xbc86228c	-0.016373895
230	0x3cebbafe	0.028775688
231	0x3afe199a	0.0019386292
232	0x3c6d7ff5	0.014495839
233	0x3d56d63c	0.052450404
234	0xbd871b4f	-0.065970056
235	0x3da8f5ce	0.082500085
236	0xbb8d8023	-0.0043182536
237	0xbd89492b	-0.06703409
238	0xbb55bec8	-0.0032614935
239	0x3db2af1d	0.087248065
240	0xbb612426	-0.0034353822
241	0xbc85faef	-0.016355006
242	0xbc3154a5	-0.0108234035
243	0xbc47e2ac	-0.012200039
244	0x3c8a2fc6	0.016868483
245	0x3c83737c	0.016046278
246	0xbade79c9	-0.0016973551
247	0xbcb46c79	-0.02202438
248	0xbbe02705	-0.006840589
249	0xbc8b9247	-0.017037524
250	0x3ca9401b	0.02066045
251	0x3cdd32e7	0.027001811
252	0x3c96ec8f	0.018423347
253	0x3c791194	0.015201945
254	0x3cf02227	0.02931316
255	0xbacfc244	-0.0015850742

st_gcn_networks.2.gcn.conv.bias f4 [48]
0	0xbc0e574a	-0.0086878035
1	0x3c22dfee	0.009941084
2	0xbc74df3e	-0.014945803
3	0x3c4cfa2e	0.012510819
4	0xbc0ae043	-0.00847632
5	0xbc8ea9e2	-0.01741499
6	0x3ccba963	0.024861043
7	0xbc80d84d	-0.01572814
8	0xbb2f4380	-0.0026743114
9	0xbc821e3f	-0.015883563
10	0xbc8d5af9	-0.017255293
11	0xba5f51cf	-0.00085189653
12	0xbd085acf	-0.033289727
13	0xbc567789	-0.013090023
14	0xbbb48f71	-0.0055102636
15	0x3bfb9b2c	0.00767841
16	0xbd76e8ee	-0.060280733
17	0xbc6318e2	-0.013860913
18	0xbba46f4d	-0.005018151
19	0x3c0f5965	0.008749341
20	0x3c3853bc	0.011250433
21	0xbc677959	-0.014128053
22	0xbc5bf83b	-0.013425882
23	0xbb0a7d24	-0.0021131719
24	0xbd4dde56	-0.050260864
25	0xbc5d2f88	-0.013500102
26	0xbc8fc19f	-0.01754838
27	0xbd46718f	-0.04844814
28	0x3ce5ad29	0.02803667
29	0x3c1533e7	0.009106613
30	0xbc6d1b51	-0.014471845
31	0xbc0b224d	-0.008492065
32	0x3af4a88b	0.0018665952
33	0x3c110bed	0.008852941
34	0xbbd8bc48	-0.0066142417
35	0x3bc15c0c	0.0059008654
36	0xbc812189	-0.015763061
37	0x3c4bda77	0.012442223
38	0xbaea8e2d	-0.0017895155
39	0xba8d80f4	-0.0010795877
40	0xbc042eb8	-0.008067779
41	0x3b174bb8	0.0023085903
42	0xbb9ef779	-0.0048512784
43	0xbced71e0	-0.028984964
44	0x3d018316	0.031619154
45	0xbc68db6a	-0.014212469
46	0x3c404a69	0.011736491
47	0x3af9fac4	0.0019071926

st_gcn_networks.2.tcn.0.weight f4 [16]
0	0x3e81aa61	0.253253
1	0x3dfd5031	0.12368811
2	0x3e421072	0.18951586
3	0x3e1ae69d	0.15127034
4	0x3d848f12	0.06472601
5	0x3e86cfb7	0.2633035
6	0x3e489129	0.19586624
7	0x3e413ed2	0.1887162
8	0x3e2b675e	0.1673865
9	0x3defa42f	0.117012374
10	0x3e12e336	0.14344487
11	0x3e422a18	0.1896137
12	0x3e1e6436	0.15467915
13	0x3e355813	0.17709379
14	0x3dbcfba9	0.09227688
15	0x3db88ef0	0.09011638

st_gcn_networks.2.tcn.0.bias f4 [16]
0	0xbc98dfec	-0.018661462
1	0xbadb17dc	-0.0016715485
2	0xbd01227c	-0.031527027
3	0xbcac8841	-0.021061065
4	0x3c5d963f	0.013524591
5	0xbcdf645d	-0.027269537
6	0xbc9d7f8f	-0.019225864
7	0xbd2af15d	-0.04173409
8	0xbd150cec	-0.036389276
9	0xbcd3fb13	-0.025876557
10	0xbd1ad86d	-0.037804056
11	0xbcdc51bc	-0.026894443
12	0xbd0afa7a	-0.03393028
13	0xbd6e1574	-0.058125928
14	0xbb36141d	-0.0027782985
15	0xbceb94f4	-0.02875755

st_gcn_networks.2.tcn.0.running_mean f4 [16]
0	0xbb0b4539	-0.0021250977
1	0xba5961cf	-0.00082924677
2	0xba3458fb	-0.0006879714
3	0xb9d5f8e0	-0.00040811952
4	0x390e2fcf	0.00013559985
5	0xbb6ed1ac	-0.0036440892
6	0xbaa6b7fa	-0.0012719624
7	0xbaa3d1fd	-0.0012498494
8	0xbaf55855	-0.0018718342
9	0xba658f2c	-0.0008756991
10	0xbac753ef	-0.0015207509
11	0xbb27ff8e	-0.00256345
12	0x3a7e8fb8	0.0009710747
13	0xb9049da6	-0.0001264723
14	0x3989932a	0.00026240322
15	0x3a8c087c	0.0010683681

st_gcn_networks.2.tcn.0.running_var f4 [16]
0	0x36f03b0f	7.1594327e-06
1	0x36c23f62	5.7890293e-06
2	0x368d0cd8	4.2036227e-06
3	0x371fb3f9	9.519042e-06
4	0x3687e7f7	4.050318e-06
5	0x3804ee0f	3.169296e-05
6	0x370163e6	7.712259e-06
7	0x369076a2	4.305345e-06
8	0x3701a3af	7.72711e-06
9	0x364761c0	2.9710209e-06
10	0x36574d18	3.208237e-06
11	0x36b788d4	5.469754e-06
12	0x36835bb7	3.9147812e-06
13	0x36b5ae4a	5.4145103e-06
14	0x35d524a3	1.5880399e-06
15	0x360182ba	1.929859e-06
