weights_arm/86.pt (torch, 70926 bytes, 80 tensors)

A f4 [3, 9, 9]
0.5 0.0 0.0 0.0 0.0 0.0 0.0 0.0
0.0 0.0 0.2 0.0 0.0 0.0 0.0 0.0
0.0 0.0 0.0 0.0 0.33333334 0.0 0.0 0.0
0.0 0.0 0.0 0.0 0.0 0.0 0.33333334 0.0
0.0 0.0 0.0 0.0 0.0 0.0 0.0 0.0
0.5 0.0 0.0 0.0 0.0 0.0 0.0 0.0
0.0 0.0 0.33333334 0.0 0.0 0.0 0.0 0.0
0.0 0.0 0.0 0.0 0.33333334 0.0 0.0 0.0
0.0 0.0 0.0 0.0 0.0 0.0 0.5 0.0
0.0 0.0 0.0 0.0 0.0 0.0 0.0 0.0
0.5 0.0 0.2 0.0 0.0 0.0 0.0 0.0
0.0 0.0 0.0 0.0 0.0 0.0 0.0 0.0
0.0 0.0 0.0 0.0 0.2 0.0 0.0 0.0
0.0 0.0 0.0 0.0 0.0 0.0 0.33333334 0.0
0.5 0.0 0.0 0.0 0.0 0.0 0.0 0.0
0.33333334 0.0 0.0 0.0 0.0 0.0 0.0 0.2
0.0 0.0 0.0 0.0 0.0 0.0 0.0 0.0
0.0 0.0 0.0 0.0 0.33333334 0.0 0.5 0.0
0.0 0.0 0.0 0.0 0.0 0.0 0.33333334 0.0
0.0 0.0 0.2 0.0 0.0 0.0 0.0 0.0
0.0 0.0 0.0 0.0 0.0 0.0 0.0 0.0
0.0 0.0 0.0 0.5 0.0 0.33333334 0.0 0.0
0.33333334 0.0 0.0 0.5 0.0 0.0 0.0 0.33333334
0.0 0.0 0.0 0.0 0.0 0.0 0.0 0.0
0.0 0.0 0.0 0.0 0.0 0.0 0.0 0.0
0.0 0.0 0.0 0.0 0.0 0.0 0.0 0.0
0.0 0.0 0.0 0.0 0.0 0.33333334 0.0 0.0
0.0 0.0 0.0 0.0 0.0 0.0 0.0 0.0
0.0 0.0 0.0 0.0 0.0 0.0 0.0 0.0
0.0 0.0 0.0 0.0 0.0 0.0 0.0 0.0
0.0 0.0 0.0
00000000: 0000 003f 0000 0000 0000 0000 0000 0000
00000010: 0000 0000 0000 0000 0000 0000 0000 0000
00000020: 0000 0000 0000 0000 cdcc 4c3e 0000 0000
00000030: 0000 0000 0000 0000 0000 0000 0000 0000
00000040: 0000 0000 0000 0000 0000 0000 0000 0000
00000050: abaa aa3e 0000 0000 0000 0000 0000 0000
00000060: 0000 0000 0000 0000 0000 0000 0000 0000
00000070: 0000 0000 0000 0000 abaa aa3e 0000 0000
00000080: 0000 0000 0000 0000 0000 0000 0000 0000
00000090: 0000 0000 0000 0000 0000 0000 0000 0000
000000a0: 0000 003f 0000 0000 0000 0000 0000 0000
000000b0: 0000 0000 0000 0000 0000 0000 0000 0000
000000c0: 0000 0000 0000 0000 abaa aa3e 0000 0000
000000d0: 0000 0000 0000 0000 0000 0000 0000 0000
000000e0: 0000 0000 0000 0000 0000 0000 0000 0000
000000f0: abaa aa3e 0000 0000 0000 0000 0000 0000
00000100: 0000 0000 0000 0000 0000 0000 0000 0000
00000110: 0000 0000 0000 0000 0000 003f 0000 0000
00000120: 0000 0000 0000 0000 0000 0000 0000 0000
00000130: 0000 0000 0000 0000 0000 0000 0000 0000
00000140: 0000 003f 0000 0000 cdcc 4c3e 0000 0000
00000150: 0000 0000 0000 0000 0000 0000 0000 0000
00000160: 0000 0000 0000 0000 0000 0000 0000 0000
00000170: 0000 0000 0000 0000 0000 0000 0000 0000
00000180: 0000 0000 0000 0000 0000 0000 0000 0000
00000190: cdcc 4c3e 0000 0000 0000 0000 0000 0000
000001a0: 0000 0000 0000 0000 0000 0000 0000 0000
000001b0: 0000 0000 0000 0000 abaa aa3e 0000 0000
000001c0: 0000 003f 0000 0000 0000 0000 0000 0000
000001d0: 0000 0000 0000 0000 0000 0000 0000 0000
000001e0: abaa aa3e 0000 0000 0000 0000 0000 0000
000001f0: 0000 0000 0000 0000 0000 0000 cdcc 4c3e
00000200: 0000 0000 0000 0000 0000 0000 0000 0000
00000210: 0000 0000 0000 0000 0000 0000 0000 0000
00000220: 0000 0000 0000 0000 0000 0000 0000 0000
00000230: abaa aa3e 0000 0000 0000 003f 0000 0000
00000240: 0000 0000 0000 0000 0000 0000 0000 0000
00000250: 0000 0000 0000 0000 abaa aa3e 0000 0000
00000260: 0000 0000 0000 0000 cdcc 4c3e 0000 0000
00000270: 0000 0000 0000 0000 0000 0000 0000 0000
00000280: 0000 0000 0000 0000 0000 0000 0000 0000
00000290: 0000 0000 0000 0000 0000 0000 0000 0000
000002a0: 0000 0000 0000 0000 0000 0000 0000 003f
000002b0: 0000 0000 abaa aa3e 0000 0000 0000 0000
000002c0: abaa aa3e 0000 0000 0000 0000 0000 003f
000002d0: 0000 0000 0000 0000 0000 0000 abaa aa3e
000002e0: 0000 0000 0000 0000 0000 0000 0000 0000
000002f0: 0000 0000 0000 0000 0000 0000 0000 0000
00000300: 0000 0000 0000 0000 0000 0000 0000 0000
00000310: 0000 0000 0000 0000 0000 0000 0000 0000
00000320: 0000 0000 0000 0000 0000 0000 0000 0000
00000330: 0000 0000 0000 0000 0000 0000 0000 0000
00000340: 0000 0000 0000 0000 0000 0000 0000 0000
00000350: 0000 0000 abaa aa3e 0000 0000 0000 0000
00000360: 0000 0000 0000 0000 0000 0000 0000 0000
00000370: 0000 0000 0000 0000 0000 0000 0000 0000
00000380: 0000 0000 0000 0000 0000 0000 0000 0000
00000390: 0000 0000 0000 0000 0000 0000 0000 0000
000003a0: 0000 0000 0000 0000 0000 0000 0000 0000
000003b0: 0000 0000 0000 0000 0000 0000 0000 0000
000003c0: 0000 0000 0000 0000 0000 0000

data_bn.weight f4 [27]
0.109890215 0.08688989 0.0741567 0.2717863 0.11459584 0.10443927 0.28276622 0.19878395
0.24096942 0.4912911 0.5490621 0.3995445 0.55449885 0.5258132 0.3962398 0.27404815
0.2155831 0.22875948 0.49383616 0.42800462 0.36393136 0.5198194 0.45706597 0.36767232
0.2048704 0.052509967 0.08868706
00000000: 1f0e e13d 54f3 b13d 78df 973d 9327 8b3e
00000010: 39b1 ea3d 42e4 d53d bcc6 903e 058e 4b3e
00000020: b0c0 763e 828a fb3e 558f 0c3f 1991 cc3e
00000030: a3f3 0d3f b29b 063f f1df ca3e 0a50 8c3e
00000040: d1c1 5c3e ed3f 6a3e 18d8 fc3e 6c23 db3e
00000050: 3655 ba3e e212 053f 8d04 ea3e 8c3f bc3e
00000060: 8cc9 513e b114 573d 90a1 b53d

data_bn.bias f4 [27]
-0.0010285714 0.01509491 -0.014177302 -0.018891748 0.0011115131 0.0067284997 0.043182712 0.000792111
-0.022532335 -0.027555756 -0.0012001209 0.014133097 -0.002435568 0.0045363554 -0.009215834 0.027465058
0.0388765 0.02316235 0.007162994 -0.006611612 -0.0029105814 -0.026785666 -0.024835696 0.0011539193
0.015798353 0.0018854735 -0.004493398
00000000: 21d1 86ba a450 773c ea47 68bc dec2 9abc
00000010: 31b0 913a bf7a dc3b 5be0 303d aba5 4f3a
00000020: bb95 b8bc 9cbc e1bc 604d 9dba 818e 673c
00000030: 0d9e 1fbb b5a5 943b 02fe 16bc 67fe e03c
00000040: f73c 1f3d f8be bd3c 8cb7 ea3b 39a6 d8bb
00000050: 74bf 3ebb 9d6d dbbc 3b74 cbbc 1b3f 973a
00000060: 8c6b 813c fe21 f73a 5b3d 93bb

data_bn.running_mean f4 [27]
90.14312 77.442085 19.572878 99.293625 84.45053 21.046982 89.0562 79.710236
20.146627 100.07845 81.51406 20.349243 107.32489 78.3017 19.893167 109.281586
89.169395 21.985117 131.10529 95.88029 23.296259 129.92212 91.02756 22.269053
106.309975 95.20369 23.104979
00000000: 4749 b442 59e2 9a42 4195 9c41 5696 c642
00000010: ace6 a842 3860 a841 c61c b242 a46b 9f42
00000020: 4b2c a141 2b28 c842 3307 a342 40cb a241
00000030: 58a6 d642 789a 9c42 3525 9f41 2c90 da42
00000040: bb56 b242 85e1 af41 f41a 0343 b5c2 bf42
00000050: bd5e ba41 10ec 0143 1c0e b642 0527 b241
00000060: b59e d442 4a68 be42 ffd6 b841

data_bn.running_var f4 [27]
12391.279 21742.574 6417.0864 13028.077 23953.055 7153.7764 9991.579 20956.494
6484.2793 12832.151 19595.73 6299.975 14340.536 17811.26 5939.4824 17094.533
27192.588 7898.5483 22643.742 28112.473 8367.216 21383.604 24540.217 7508.883
17940.314 25599.271 7930.578
00000000: 1e9d 4146 26dd a946 b188 c845 4f90 4b46
00000010: 1c22 bb46 368e df45 511e 1c46 fdb8 a346
00000020: 3ca2 ca45 9b80 4846 7617 9946 cddf c445
00000030: 2512 6046 8526 8b46 dc9b b945 118d 8546
00000040: 2d71 d446 63d4 f645 7ce7 b046 f2a0 db46
00000050: ddbc 0246 350f a746 6fb8 bf46 10a7 ea45
00000060: a128 8c46 8bfe c746 a0d4 f745

st_gcn_networks.0.gcn.conv.weight f4 [24, 3, 1, 1]
-0.080357775 -0.010286661 0.009298877 0.13969447 -0.065310046 0.061806146 0.10104187 -0.00074671785
0.046132136 -0.046041843 -0.018820874 0.14508463 0.034244258 -0.027945135 -0.25488418 0.21355568
0.31468275 0.065969214 -0.23146091 0.19380443 0.0887583 -0.19258912 0.06692994 -0.1361496
-0.046955165 -0.06916388 -0.018855132 -0.26269203 -0.10768102 0.042651813 0.17451379 -0.024052236
-0.023159975 -0.14896582 -0.13796397 0.012861526 -0.00225457 -0.01179938 0.21442895 -0.03819725
-0.24100426 -0.13684501 0.049259048 0.06211829 0.05975763 0.17218535 -0.10226548 0.17217775
-0.0255443 0.006152593 -0.007216903 -0.05195563 -0.020497754 -0.021782387 0.16574281 -0.0028578676
0.028904278 -0.05765963 -0.015552543 0.0044969465 -0.19851369 -0.008139095 -0.013030804 0.048465416
-0.044786554 0.12802811 0.06921686 -0.032847922 -0.0040452518 -0.11168846 0.1509155 0.054400954
00000000: 9e92 a4bd 6289 28bc 515a 183c 110c 0f3e
00000010: 46c1 85bd 7128 7d3d 0aef ce3d 63bf 43ba
00000020: 0df5 3c3d 5f96 3cbd 3c2e 9abc 1191 143e
00000030: b543 0c3d 32ed e4bc 2e80 82be 57ae 5a3e
00000040: 191e a13e de1a 873d 1704 6dbe ab74 463e
00000050: e9c6 b53d 1536 45be 9012 893d cd6a 0bbe
00000060: 0f54 40bd cba5 8dbd 1476 9abc 927f 86be
00000070: de87 dcbd abb3 2e3d beb3 323e 3209 c5bc
00000080: fdb9 bdbc 7f8a 18be 6d46 0dbe 26b9 523c
00000090: 68c1 13bb 3052 41bc 4393 5b3e b874 1cbd
000000a0: d2c9 76be 1921 0cbe dbc3 493d c06f 7e3d
000000b0: 6bc4 743d 5b51 303e 9070 d1bd 5d4f 303e
000000c0: 4842 d1bc b19b c93b c57b ecbb 6dcf 54bd
000000d0: e8ea a7bc fa70 b2bc 7cb8 293e 104b 3bbb
000000e0: aac8 ec3c 812c 6cbd 18d0 7ebc 1f5b 933b
000000f0: 2c47 4bbe d759 05bc 277f 55bc ac83 463d
00000100: 1b72 37bd cd19 033e 92c1 8d3d 8b8b 06bd
00000110: 088e 84bb ebbc e4bd 9889 1a3e 89d3 5e3d

st_gcn_networks.0.gcn.conv.bias f4 [24]
0.01514445 0.060905617 0.07305697 0.07525934 -0.017370345 -0.19172403 0.0015065304 0.13812667
-0.08448982 0.019915102 0.086767755 -0.036602426 0.024193248 0.1478058 0.18549863 -0.006529212
-0.017482104 -0.17528962 0.045020707 -0.06133204 0.04601256 0.023404736 -0.008899502 -0.0006955253
00000000: 6d20 783c 2b78 793d e59e 953d 9221 9a3d
00000010: 414c 8ebc 4e53 44be c676 c53a 1471 0d3e
00000020: 0009 adbd ff24 a33c 4bb3 b13d 6dec 15bd
00000030: eb30 c63c 675a 173e 5af3 3d3e 00f3 d5bb
00000040: a136 8fbc 1f7f 33be a267 383d 4e37 7bbd
00000050: ab77 3c3d 4abb bf3c 38cf 11bc ea53 36ba

st_gcn_networks.0.tcn.0.weight f4 [8]
0.20208062 0.3714706 0.41928536 0.33517697 0.26202765 0.37891 0.3768945 0.37524933
00000000: 39ee 4e3e 6531 be3e 92ac d63e 519c ab3e
00000010: 7d28 863e 7e00 c23e 51f8 c03e ae20 c03e

st_gcn_networks.0.tcn.0.bias f4 [8]
0.03182483 0.03597529 0.030474486 0.014191075 -0.016456276 0.04443536 -0.0041243643 -0.036403846
00000000: c15a 023d d35a 133d a1a5 f93c af81 683c
00000010: 50cf 86bc da01 363d ad25 87bb 331c 15bd

st_gcn_networks.0.tcn.0.running_mean f4 [8]
-0.009054161 0.0015502425 0.023169544 0.002901734 0.0031394693 -0.0077016978 0.022338143 0.018757595
00000000: e757 14bc 8231 cb3a 0ece bd3c 052b 3e3b
00000010: 8ebf 4d3b 865e fcbb 7bfe b63c 87a9 993c

st_gcn_networks.0.tcn.0.running_var f4 [8]
0.00018957739 0.00039187795 0.00049510214 0.00042134945 3.185774e-05 0.0003657784 0.000588393 0.000108164495
00000000: 4bc9 4639 f874 cd39 bec9 013a 91e8 dc39
00000010: fd9e 0538 f2c5 bf39 633e 1a3a 5fd6 e238

st_gcn_networks.0.tcn.2.weight f4 [8, 8, 9, 1]
0.0031037985 0.0040356554 0.0076635466 -1.9463669e-05 0.010850328 -0.017974248 0.0044679423 -0.0061927764
0.012467304 0.02371906 -0.05333232 -0.016104871 -0.011625289 -0.0130667705 0.030704413 0.017347472
-0.002317623 -0.02428071 0.042881522 0.05998363 0.026245527 0.054343216 -0.024487918 0.09001737
-0.050170753 0.037088975 -0.05748315 0.00874344 -0.010850916 0.06524188 -0.013631773 0.010769313
0.042278152 0.032045934 0.036332875 0.0058064866 -0.035957843 -0.035737533 0.013875896 -0.020407196
-0.029314699 0.02031278 0.0199997 -0.042390767 -0.005406874 -0.045034233 0.0104365945 0.021984354
0.023179289 0.030049166 0.016120221 0.024060486 0.0062835314 0.024637273 0.023825184 0.032701325
-0.000102143305 -0.040382933 -0.032670915 -0.008704987 -0.033935208 0.050147504 -0.032718636 -0.033360314
-0.089634776 -0.008730074 -0.082771234 -0.003791399 -0.06721743 -0.015896723 -0.017099578 0.005240135
0.018730331 -0.012406309 0.00032963994 0.008909093 0.029731303 0.0027995154 0.036154054 0.01052125
0.0017782887 0.027031038 0.019463364 0.029192936 -0.00094262627 -0.0027285279 0.012527338 0.03329462
-0.0048671165 0.026097547 0.031801827 0.07032369 0.07394504 -0.0013487905 -0.019101173 -0.05131638
-0.0030925388 0.030057725 -0.010084775 0.049341064 -0.03118787 0.017086253 0.009509409 0.030671049
0.019913614 0.036991958 -0.019955035 -0.011628939 0.020104019 -0.0059918663 0.025190856 0.022819517
0.029407592 -0.02883407 0.030507935 0.06239773 0.045875717 -0.010908042 0.035439927 0.011374539
-0.040816143 0.018197121 -0.021255055 -0.03366892 -0.019635955 -0.033887446 -0.052433472 -0.03574806
-0.05668643 -0.05435864 -0.029845396 0.030779604 0.022873025 -0.042238437 0.05027428 0.018300053
-0.058009643 -0.014179644 0.004982432 0.026715979 -0.039881833 0.022731142 -0.029619973 -0.024175273
-0.02018533 -0.0066280426 -0.017354043 0.025637884 -0.013375106 -0.017098451 0.00029500894 -0.029673537
-0.026830543 -0.0009095806 -0.0055483226 0.0004963798 0.037693407 -0.021977436 0.0009903014 0.019416044
-0.036659386 -0.0014499769 0.066350944 -0.0036855054 0.0068634786 -0.07218877 0.052244317 -0.010682278
0.04866404 -0.06651798 0.034921333 0.02672316 -0.046652094 -0.037523776 0.03612537 0.025339013
-0.03870206 0.0070890863 -0.03792441 0.014516352 -0.004755757 -0.0022183068 0.042228267 0.011454416
-0.061951745 -0.01564966 -0.014613117 -0.011436048 0.010828223 -0.038792383 -0.07464134 0.057260204
-0.04332884 -0.04315374 -0.0035822324 0.038099695 -0.037059803 0.06575544 0.030661114 -0.030237423
-0.08044887 0.047536254 0.078939974 0.02044401 -0.032444134 0.036607757 0.052698594 -0.05708215
-0.024426866 -0.07199203 0.028135376 -0.0030755461 0.04708062 -0.04482676 -0.036321342 -0.0010103545
-0.009294629 0.0018319144 0.018071268 0.0075926622 0.019137794 -0.0080233095 0.0054262746 -0.0007688243
0.013307988 0.0013059801 0.016980318 -0.020290893 -0.011481681 0.03750316 0.0289754 0.035080563
-0.009002992 0.0234686 0.012167449 0.010006213 -0.01673471 -0.01580632 -0.005609823 -0.005701598
0.010986953 -0.00512947 -0.04300406 0.019391917 -0.03312075 -0.038560804 -0.04604162 -0.03326237
-0.0065124133 -0.01906217 -0.016148519 0.019807134 -0.0039835293 -0.03205722 0.005092987 0.019871974
00000000: 1969 4b3b 883d 843b 7d1e fb3b e945 a3b7
00000010: 93c5 313c bb3e 93bc d167 923b c6ec cabb
00000020: aa43 4c3c 794e c23c fe72 5abd 5dee 83bc
00000030: ff77 3ebc 0216 56bc d287 fb3c 491c 8e3c
00000040: 43e3 17bb 57e8 c6bc 89a4 2f3d 65b1 753d
00000050: dc00 d73c fe96 5e3d e39a c8bc 075b b83d
00000060: d97f 4dbd 9cea 173d 7473 6bbd a540 0f3c
00000070: 0ac8 31bc 899d 853d cd57 5fbc c671 303c
00000080: db2b 2d3d 9942 033d c8d1 143d 5744 be3b
00000090: 8848 13bd 8561 12bd ba57 633c fe2c a7bc
000000a0: 6125 f0bc fd66 a63c 69d6 a33c f1a1 2dbd
000000b0: 262c b1bb d175 38bd 40fe 2a3c 8818 b43c
000000c0: 7ee2 bd3c ab29 f63c 8e0e 843c 7f1a c53c
000000d0: 15e6 cd3b 1bd4 c93c 082d c33c d3f1 053d
000000e0: c535 d6b8 9368 25bd f0d1 05bd 5d9f 0ebc
000000f0: a5ff 0abd 7867 4d3d fa03 06bd d3a4 08bd
00000100: 7092 b7bd 9608 0fbc f783 a9bd 1f79 78bb
00000110: 4ba9 89bd d839 82bc 6a14 8cbc 70b5 ab3b
00000120: 5a70 993c d543 4bbc 86d3 ac39 72f7 113c
00000130: 108f f33c 1378 373b 4616 143d 5261 2c3c
00000140: 7815 e93a 3270 dd3c a271 9f3c 0626 ef3c
00000150: 941a 77ba 1ad1 32bb 773f 4d3c f15f 083d
00000160: 557c 9fbb 86ca d53c a242 023d de05 903d
00000170: 7f70 973d e6c9 b0ba 107a 9cbc 2031 52bd
00000180: 31ac 4abb 9e3b f63c 9d3a 25bc db19 4a3d
00000190: b47d ffbc 78f8 8b3c 5acd 1b3c da41 fb3c
000001a0: e021 a33c e184 173d be78 a3bc 4e87 3ebc
000001b0: 2fb1 a43c 6b57 c4bb 0e5d ce3c ffef ba3c
000001c0: 31e8 f03c 6d35 ecbc c7eb f93c c394 7f3d
000001d0: 2de8 3b3d a5b7 32bc 7529 113d 465c 3a3c
000001e0: d42e 27bd 2112 953c 151f aebc 6ce8 09bd
000001f0: 95db a0bc 90cd 0abd 7bc4 56bd 8f6c 12bd
00000200: 0830 68bd 2aa7 5ebd 557e f4bc 8225 fc3c
00000210: 3660 bb3c 3602 2dbd 67ec 4d3d fee9 953c
00000220: 859b 6dbd bd51 68bc ab43 a33b 78db da3c
00000230: 225b 23bd a936 ba3c 96a5 f2bc 390b c6bc
00000240: b55b a5bc 0d30 d9bb 112a 8ebc 8a06 d23c
00000250: 4323 5bbc 0d12 8cbc 6eab 9a39 eb15 f3bc
00000260: bacb dbbc ec70 6eba b4ce b5bb 7c1f 023a
00000270: 6764 1a3d 060a b4bc 00cd 813a 650e 9f3c
00000280: 2728 16bd 270d beba 01e3 873d 8588 71bb
00000290: 08e7 e03b b5d7 93bd 23fe 553d b904 2fbc
000002a0: f253 473d 943a 88bd ac09 0f3d 87ea da3c
000002b0: 4416 3fbd 88b2 19bd 32f8 133d c393 cf3c
000002c0: 0d86 1ebd 914b e83b a056 1bbd fed5 6d3c
000002d0: 2ed6 9bbb 0361 11bb 8cf7 2c3d 4eab 3b3c
000002e0: 1dc1 7dbd b733 80bc db6b 6fbc 435e 3bbc
000002f0: dc68 313c c3e4 1ebd 8fdd 98bd ad89 6a3d
00000300: 9579 31bd fac1 30bd e3c3 6abb 6d0e 1c3d
00000310: 05cc 17bd caaa 863d 042d fb3c 79b4 f7bc
00000320: 61c2 a4bd 60b5 423d 48ab a13d 327a a73c
00000330: 24e4 04bd 04f2 153d 7bda 573d f9ce 69bd
00000340: da1a c8bc 8f70 93bd 297c e63c 1a8f 49bb
00000350: 9cd7 403d 449c 37bd b0c5 14bd df6d 84ba
00000360: 8048 18bc d91c f03a 320a 943c decb f83b
00000370: ddc6 9c3c 3374 03bc e4ce b13b ed8a 49ba
00000380: bf09 5a3c 6c2d ab3a 4f1a 8b3c 1639 a6bc
00000390: a91d 3cbc ea9c 193d d15d ed3c a3b0 0f3d
000003a0: 4981 13bc 3941 c03c fb59 473c 19f1 233c
000003b0: 3b17 89bc 417c 81bc 9bd2 b7bb 78d4 babb
000003c0: 9f02 343c 1d15 a8bb 0625 30bd ccdb 9e3c
000003d0: a0a9 07bd eff1 1dbd 2396 3cbd 1f3e 08bd
000003e0: 1566 d5bb 4528 9cbc e649 84bc 9242 a23c
000003f0: 4488 82bb 6e4e 03bd 12e3 a63b 8dca a23c

st_gcn_networks.0.tcn.2.bias f4 [8]
-9.323624e-07 -1.3661132e-05 -3.5490353e-05 -3.5979225e-05 -1.0976281e-06 5.2856547e-05 1.7464412e-06 -3.511202e-05
00000000: 7547 7ab5 1d32 65b7 7adb 14b8 66e8 16b8
00000010: 3752 93b5 49b2 5d38 4367 ea35 3f45 13b8

st_gcn_networks.0.tcn.3.weight f4 [8]
0.37442613 0.3458006 0.3075994 0.22049274 0.23311485 0.36853343 0.3939455 0.328268
00000000: c8b4 bf3e c70c b13e ab7d 9d3e d9c8 613e
00000010: a9b5 6e3e 6ab0 bc3e 39b3 c93e be12 a83e

st_gcn_networks.0.tcn.3.bias f4 [8]
-0.035896774 0.006884426 0.02027718 0.015144997 8.8530505e-05 0.013628343 0.034185413 -0.0029334975
00000000: 7f08 13bd c096 e13b 541c a63c b922 783c
00000010: 74a9 b938 6a49 5f3c 0106 0c3d ec3f 40bb

st_gcn_networks.0.tcn.3.running_mean f4 [8]
0.01406067 0.027453676 -0.028706009 -0.029593905 0.038015198 0.032764316 -0.02095853 0.007869314
00000000: b95e 663c 88e6 e03c dd28 ebbc eb6e f2bc
00000010: d3b5 1b3d e033 063d 39b1 abbc 4cee 003c

st_gcn_networks.0.tcn.3.running_var f4 [8]
0.007320074 0.005189366 0.0024601342 0.0010917343 0.0024875843 0.0069095436 0.0072191013 0.003916263
00000000: 3bdd ef3b 8f0b aa3b 343a 213b 8618 8f3a
00000010: bd06 233b 7469 e23b 368e ec3b ff53 803b

st_gcn_networks.1.gcn.conv.weight f4 [24, 8, 1, 1]
-0.013121694 -0.04097736 0.04816548 0.054893423 -0.021966752 -0.0030976622 0.0034124672 0.04391087
0.0042515392 -0.017860347 0.08414327 -0.022258852 0.03173757 -0.035649505 0.0699976 0.013707613
0.06660274 -0.06438514 -0.03787834 0.06576304 0.07151316 0.0778779 -0.028251927 -0.0078803105
0.010778582 -0.023586193 -0.03578293 -0.028083207 -0.078128 -0.094902664 0.029939054 -0.096431635
-0.019436445 0.007320634 0.06979214 -0.03328123 0.019119907 0.004059666 0.03084872 0.012334422
0.012079674 -0.09520859 0.03685609 -0.054355096 -0.003105039 0.0010746398 -0.08418308 0.01885667
-0.033205774 -0.0325631 0.06504617 0.016114416 0.032024566 0.019841831 -0.040192705 -0.02310015
-0.016366316 -0.009986574 -0.019279622 -0.035306733 -0.015052991 0.056470614 0.011084817 0.0595818
-0.02044944 0.06946096 0.009902945 -0.016387524 -0.042385355 0.0015471221 0.06953306 0.10876676
-0.054649033 -0.0037721898 -0.0454859 -0.054155022 -0.005384844 -0.015751017 0.055495963 -0.0025886488
0.0070669213 -0.0072659384 0.059390314 -0.030926729 -0.048968226 -0.104499705 0.10348927 -0.04960971
-0.020397047 0.13100055 0.07912726 0.021100508 -0.06615876 0.076859854 -0.037737574 -0.096634224
-0.03731229 -0.022920998 0.07122967 0.044354044 -0.0018397246 0.019349586 -0.029927017 0.040420257
0.08761925 -0.044895343 0.005300663 -0.055772327 0.030096626 -0.083519936 0.07846468 0.05493621
-0.08789374 -0.1255176 0.03607293 0.05518792 -0.07972915 -0.015008112 0.032529816 0.07077012
0.045986183 0.025458628 -0.013521273 0.0006886684 0.00048521708 0.006843704 0.029855503 0.00021541228
-0.016114857 -0.009892212 -0.012646414 0.04618304 -0.003677678 0.039190404 -0.06070544 -0.012240645
0.031526856 0.027228309 0.007844344 -0.052822087 0.0071913786 0.049633417 0.06026569 0.042742588
0.002939267 0.0073544253 -0.008771325 -0.02253935 0.0018234934 -0.057848755 0.07552874 0.027747205
0.088148944 -0.01979041 -0.025623923 -0.037663773 -0.033455987 -0.03287116 0.14666337 -0.0040767384
0.01950515 -0.034169573 0.008181664 -0.02983269 0.008799685 0.007857843 0.006680996 -0.018355202
-0.009734698 -0.03746132 -0.036359917 0.011996895 -0.02163645 -0.05653323 -0.02739042 -0.014341112
0.07336031 0.0273418 0.024528058 -0.0782856 0.036308922 0.050848957 -0.0073016235 -0.022628576
0.0062467395 -0.03918411 0.043047726 -0.010635262 -0.011948332 -0.03471746 -0.010028418 0.078167565
00000000: 60fc 56bc e0d7 27bd 2b49 453d edd7 603d
00000010: 9ef3 b3bc 2602 4bbb b3a3 5f3b e2db 333d
00000020: 7f50 8b3b dd4f 92bc 4f53 ac3d 3258 b6bc
00000030: 41ff 013d 3705 12bd e75a 8f3d e595 603c
00000040: 0467 883d 5bdc 83bd 5126 1bbd c6ae 863d
00000050: 7e75 923d 737e 9f3d 9670 e7bc 6b1c 01bc
00000060: a698 303c d537 c1bc 1f91 12bd c10e e6bc
00000070: 9301 a0bd 545c c2bd bf42 f53c f37d c5bd
00000080: 2e39 9fbc eee1 ef3b 2eef 8e3d e651 08bd
00000090: 5aa1 9c3c f206 853b 74b6 fc3c 5116 4a3c
000000a0: d3e9 453c b9fc c2bd 69f6 163d 73a3 5ebd
000000b0: e97d 4bbb eeda 8c3a 2e68 acbd 4e79 9a3c
000000c0: c702 08bd e360 05bd ed36 853d 6102 843c
000000d0: 312c 033d 568b a23c 1ba1 24bd 873c bdbc
000000e0: a712 86bc ba9e 23bc 4cf0 9dbc cb9d 10bd
000000f0: d2a0 76bc bb4d 673d 189d 353c 0c0c 743d
00000100: 9685 a7bc 8c41 8e3d f63f 223c 213f 86bc
00000110: 449c 2dbd cec8 ca3a 5967 8e3d 1bc1 de3d
00000120: aad7 5fbd d836 77bb 6c4f 3abd a8d1 5dbd
00000130: 5873 b0bb 4708 81bc bc4f 633d 52a6 29bb
00000140: a291 e73b 1c17 eebb 4243 733d 0d5a fdbc
00000150: e892 48bd f103 d6bd 2ff2 d33d 8d33 4bbd
00000160: b517 a7bc 0225 063e 790d a23d f9da ac3c
00000170: 3e7e 87bd b368 9d3d b792 1abd 2ae8 c5bd
00000180: c6d4 18bd d1c4 bbbc dce0 913d 96ac 353d
00000190: ea22 f1ba 0683 9e3c 8129 f5bc b68f 253d
000001a0: b971 b33d 2ee4 37bd 2fb1 ad3b 8671 64bd
000001b0: 338d f63c 800c abbd 17b2 a03d cb04 613d
000001c0: a201 b4bd b087 00be 35c1 133d ba0c 623d
000001d0: 0949 a3bd 96e4 75bc fc3d 053d edef 903d
000001e0: 025c 3c3d 9d8e d03c 5488 5dbc c187 343a
000001f0: bc64 fe39 2641 e03b 8793 f43c 4be0 6139
00000200: 4e03 84bc f212 22bc e832 4fbc 6d2a 3d3d
00000210: 3305 71bb 1e86 203d 44a6 78bd fc8c 48bc
00000220: 4e22 013d e70d df3c 9085 003c f95b 58bd
00000230: a8a5 eb3b 694c 4b3d 28d9 763d da12 2f3d
00000240: b8a0 403b 64fd f03b 9bb5 0fbc 71a4 b8bc
00000250: 4902 ef3a d1f2 6cbd d0ae 9a3d 1b4e e33c
00000260: 6f87 b43d 7f1f a2bc 43e9 d1bc 5445 1abd
00000270: 2509 09bd e9a3 06bd ec2e 163e 2996 85bb
00000280: 44c9 9f3c 65f5 0bbd 630c 063c af63 f4bc
00000290: 8e2c 103c 2fbe 003c 42ec da3b a65d 96bc
000002a0: 487e 1fbc 0b71 19bd 23ee 14bd a08e 443c
000002b0: ed3e b1bc 638f 67bd e061 e0bc fcf6 6abc
000002c0: ee3d 963d e9fb df3c 11ef c83c 3354 a0bd
000002d0: aab8 143d ff46 503d 7542 efbb 905f b9bc
000002e0: 73b1 cc3b 847f 20bd d052 303d 863f 2ebc
000002f0: f0c2 43bc e533 0ebd 3c4e 24bc 5116 a03d

st_gcn_networks.1.gcn.conv.bias f4 [24]
0.0053438894 0.0127231 -0.005446961 0.042048074 0.010883129 -0.0034798435 0.0047896146 0.0037819482
-0.075772084 -0.00667814 0.009776451 0.0030112525 -0.04986631 0.018030243 0.05711437 0.0020165679
-0.017316356 -0.042743284 0.005639112 0.018685365 0.010162602 -0.028783161 0.020409577 -0.015689662
00000000: cb1b af3b 8d74 503c 6c7c b2bb 9a3a 2c3d
00000010: 274f 323c 160e 64bb 33f2 9c3b 90da 773b
00000020: 652e 9bbd 4cd4 dabb 682d 203c 6f58 453b
00000030: 9e40 4cbd 29b4 933c c2f0 693d 6528 043b
00000040: 08db 8dbc 9513 2fbd 4dc8 b83b 0d12 993c
00000050: 0b81 263c aaca ebbc fc31 a73c 9b87 80bc

st_gcn_networks.1.tcn.0.weight f4 [8]
0.23809083 0.20755918 0.31145817 0.32719973 0.16638708 0.26325297 0.30647206 0.25355968
00000000: 15ce 733e 658a 543e 7277 9f3e b986 a73e
00000010: 6061 2a3e 18c9 863e e8e9 9c3e 93d2 813e

st_gcn_networks.1.tcn.0.bias f4 [8]
-0.01301551 0.00029668995 0.023031535 0.013971207 -0.0057397727 -0.004318172 -0.031887345 -0.0182145
00000000: 013f 55bc 0d8d 9b39 a1ac bc3c 7de7 643c
00000010: b414 bcbb 747f 8dbb 4e9c 02bd 9336 95bc

st_gcn_networks.1.tcn.0.running_mean f4 [8]
-0.0021620535 -1.0283567e-05 0.00045917547 0.0020270962 -0.0011082363 -0.0009496616 0.0030892096 0.001468462
00000000: 3db1 0dbb 9587 2cb7 7dbd f039 08d9 043b
00000010: 3d42 91ba b6f2 78ba 5674 4a3b 6979 c03a

st_gcn_networks.1.tcn.0.running_var f4 [8]
6.1849937e-06 6.825781e-06 2.012658e-05 1.5985852e-05 8.014565e-06 8.685858e-06 2.3761637e-05 1.3542101e-05
00000000: b188 cf36 0309 e536 80d5 a837 5b19 8637
00000010: 4b76 0637 7ab9 1137 ba53 c737 e232 6337

st_gcn_networks.1.tcn.2.weight f4 [8, 8, 9, 1]
0.0044803643 -0.0015300534 -0.0072834212 -0.0076683206 0.0018290195 -0.02067261 0.0022893474 0.008685356
0.036444314 -0.019489495 -0.006684185 0.019981422 0.00836295 -0.036752995 -0.008913902 0.01736037
0.021749638 -0.012792999 0.021491025 -0.004905746 0.032048013 -0.021844838 0.008416505 -0.0107788
0.038054973 -0.030687323 -0.036163364 0.015785795 0.015728109 0.014133786 0.005958817 0.0048570368
0.030687654 -0.041301068 -0.03817139 -0.03473025 -0.0126502095 -0.010681798 -0.00036704424 -0.004240031
-0.0026747999 0.03815967 0.024861014 0.01761956 0.030960714 -0.016099043 -0.026567789 0.026842054
0.01441459 -0.008174687 -0.017217115 -0.0054986794 -0.018700872 -0.007008922 -0.018316718 0.00047678748
0.016793167 -0.017717663 0.024444874 0.03409501 0.029205954 -0.0008067137 -0.0004645093 0.015194061
0.009732979 -0.03187555 -0.04658487 0.0085489275 -0.018899515 -0.012032751 0.0064946897 0.0019928163
-0.0100120185 -0.030915353 -0.0061457884 -0.0086605875 -0.0275007 -0.027080562 0.009415271 0.004868597
-0.028618226 -0.01697321 -0.020231437 -0.0005327191 -0.043200288 0.030405628 0.012540146 0.03286601
0.0076248064 0.02693103 -0.01819035 -0.015017063 0.010631829 0.0027790363 0.023723884 0.03850999
0.010247072 0.039167915 0.038841948 0.012695417 0.039467607 0.0071573337 0.019295989 -0.0043649916
0.046880577 0.014934482 0.0014794559 0.02625727 -0.028465476 -0.0030290813 -0.0045925747 -0.026306126
0.0014345237 -0.009121375 0.008334982 -0.022171758 0.023977196 0.0023747832 -0.017767034 -0.0023131901
-0.013269653 -0.0133669665 -0.003021121 0.0026132115 0.010222719 0.024339361 -0.0134895 0.006485293
0.027691873 -0.025083583 0.015967838 0.008341687 0.01785581 -0.023891684 0.03629939 -0.009535855
-0.017869215 -0.018451128 -0.015369396 -0.024572039 0.010162852 0.014060627 -0.0058054286 0.00094922195
0.011349716 -0.06611054 -0.032302633 -0.008889966 -0.020509953 0.0036180592 -0.010528616 -0.040636152
-0.03889424 0.05067311 -0.011273807 -0.0012823665 0.0032181507 -0.012533956 -0.02752807 -0.023303311
0.010334884 -0.0058965576 0.038019218 -0.03599935 0.016408253 0.04281147 -0.026445607 0.01783532
0.026622782 0.010480581 0.0035897803 -0.02827876 0.025311306 -0.042012047 0.009334964 -0.023838392
-0.022843799 -0.05586629 0.012764952 -0.0010219763 -0.00085375743 0.035846706 -0.029931096 0.029040733
-0.008215299 0.011825975 0.01302516 -0.01821201 0.009032563 0.023351971 -0.029240368 0.03450613
-0.01168594 -0.0040366175 -0.043894537 0.006996837 -0.059593555 -0.037922073 -0.0017100556 -0.0073430017
0.020147853 0.047792364 0.005708463 -0.0087798005 0.010833347 0.014126677 0.04674257 0.008337237
0.03549406 0.022933248 -0.009339632 0.006787829 -0.015682593 -0.001048695 -0.010678069 -0.004852837
0.0034055915 -0.01230631 0.030187422 -0.015645135 -0.035253778 -0.0018368665 -0.032120492 -0.042613335
0.027292574 0.05200132 0.0055075604 0.008331589 0.016575173 0.041248817 0.006549128 -0.03067971
-0.03862032 0.016746566 0.006996846 0.016465172 0.027529351 -0.0241519 0.018007865 0.010763624
0.011520412 0.011288562 0.045903593 -0.0072949817 -0.0036158948 -0.015042252 0.026814187 0.0013140676
-0.014630883 -0.011964585 0.025169363 -0.04861408 -0.0017727815 0.002635565 -0.011111534 -0.033181895
00000000: 05d0 923b 138c c8ba c4a9 eebb 8946 fbbb
00000010: b6bb ef3a 9b59 a9bc e008 163b 064d 0e3c
00000020: a246 153d 6fa8 9fbc 0207 dbbb 14b0 a33c
00000030: c104 093c 4f8a 16bd 9d0b 12bc 5637 8e3c
00000040: 4c2c b23c ba99 51bc f20d b03c 61c0 a0bb
00000050: c744 033d f2f3 b2bc 61e5 093c 9099 30bc
00000060: 88df 1b3d fb63 fbbc 0920 14bd 3651 813c
00000070: 3cd8 803c 6591 673c 2e42 c33b c727 9f3b
00000080: ad64 fb3c 4f2b 29bd 9a59 1cbd 4e41 0ebd
00000090: d342 4fbc b502 2fbc d86f c0b9 f5ef 8abb
000000a0: b24b 2fbb 504d 1c3d 53a9 cb3c e556 903c
000000b0: 53a1 fd3c 24e2 83bc b1a4 d9bc dee3 db3c
000000c0: 2c2b 6c3c 1fef 05bc e80a 8dbc 442e b4bb
000000d0: 9232 99bc 19ab e5bb f10c 96bc 55f9 f939
000000e0: d391 893c a224 91bc 9e40 c83c 36a7 0b3d
000000f0: 5341 ef3c a479 53ba 6289 f3b9 83f0 783c
00000100: 1377 1f3c f08f 02bd c7cf 3ebd cd10 0c3c
00000110: 28d3 9abc 0425 45bc 68d1 d43b e999 023b
00000120: 7309 24bc 3242 fdbc 9c62 c9bb 23e5 0dbc
00000130: 2649 e1bc 0ed8 ddbc 8242 1a3c c088 9f3b
00000140: c570 eabc 670b 8bbc 66bc a5bc 2ca6 0bba
00000150: c9f2 30bd 3915 f93c 2f75 4d3c 829e 063d
00000160: 83d9 f93b 779e dc3c ee03 95bc 210a 76bc
00000170: 1f31 2e3c 7e20 363b 9758 c23c a7bc 1d3d
00000180: 56e3 273c 896e 203d bc18 1f3d 7000 503c
00000190: c9a8 213d 1188 ea3b 9f12 9e3c 3408 8fbb
000001a0: d905 403d c2af 743c 4dea c13a 7c19 d73c
000001b0: 6e30 e9bc 8d83 46bb 4f7d 96bb f27f d7bc
000001c0: a106 bc3a d271 15bc 738f 083c 8ca1 b5bc
000001d0: d36b c43c 40a2 1b3b 2c8c 91bc e498 17bb
000001e0: f568 59bc 1f01 5bbc 00fe 45bb 6a42 2b3b
000001f0: 317d 273c 5763 c73c 1003 5dbc 9582 d43b
00000200: 11da e23c 167c cdbc fcce 823c 92ab 083c
00000210: 5946 923c 7eb8 c3bc abae 143d 463c 1cbc
00000220: 7662 92bc d226 97bc ebcf 7bbc 4d4b c9bc
00000230: 1782 263c 8b5e 663c 773b bebb 35d5 783a
00000240: 29f4 393c f664 87bd c44f 04bd 38a7 11bc
00000250: 7d04 a8bc f61c 6d3b 3780 2cbc 1872 26bd
00000260: 914f 1fbd 9b8e 4f3d c6b5 38bc 1415 a8ba
00000270: 9ce7 523b 395b 4dbc 8c82 e1bc 96e6 bebc
00000280: a553 293c e937 c1bb 0aba 1b3d 0e74 13bd
00000290: 9a6a 863c 145b 2f3d 75a4 d8bc 611b 923c
000002a0: 0518 da3c beb6 2b3c 8542 6b3b dca8 e7bc
000002b0: a859 cf3c d314 2cbd adf1 183c bb48 c3bc
000002c0: eb22 bbbc 0dd4 64bd 1724 513c d6f3 85ba
000002d0: b1ce 5fba ffd3 123d 0f32 f5bc d5e6 ed3c
000002e0: 7699 06bc bcc1 413c 7b67 553c 5a31 95bc
000002f0: 51fd 133c a24c bf3c 7f89 efbc 4d56 0d3d
00000300: 6376 3fbc 9a45 84bb c2ca 33bd b945 e53b
00000310: 5f18 74bd 2d54 1bbd f223 e0ba 909d f0bb
00000320: 1c0d a53c edc1 433d 0f0e bb3b 27d9 0fbc
00000330: 5a7e 313c 9473 673c 2375 3f3d e898 083c
00000340: 3862 113d 82de bb3c 4105 19bc 706c de3b
00000350: c878 80bc 5d74 89ba 11f3 2ebc 8c04 9fbb
00000360: 5830 5f3b 68a0 49bc 9d4b f73c 3a2a 80bc
00000370: 4466 10bd 03c3 f0ba c790 03bd 528b 2ebd
00000380: ad94 df3c 56ff 543d c478 b43b 3881 083c
00000390: a8c8 873c 85f4 283d 119a d63b 0454 fbbc
000003a0: 5730 1ebd 1830 893c cc45 e53b f8e1 863c
000003b0: 3c85 e13c 35da c5bc 3b85 933c e959 303c
000003c0: 1cc0 3c3c a9f3 383c 6805 3c3d be0a efbb
000003d0: a6f8 6cbb c773 76bc 6da9 db3c cb3c ac3a
000003e0: 5fb6 6fbc 1b07 44bc fb2f ce3c 8f1f 47bd
000003f0: ad5c e8ba 71b9 2c3b 270d 36bc bde9 07bd

st_gcn_networks.1.tcn.2.bias f4 [8]
-1.3605682e-05 2.7648659e-05 1.49763455e-05 -7.440782e-06 3.688796e-06 -3.6712274e-05 -2.5124618e-05 -1.223368e-06
00000000: f643 64b7 0bef e737 ea42 7b37 d5ab f9b6
00000010: 088d 7736 81fb 19b8 b5c2 d2b7 9b32 a4b5

st_gcn_networks.1.tcn.3.weight f4 [8]
0.22635482 0.26549688 0.32221618 0.30684075 0.22134462 0.34500688 0.2888214 0.18649176
00000000: 8fc9 673e 35ef 873e 85f9 a43e 3b1a 9d3e
00000010: 2aa8 623e bea4 b03e 66e0 933e b2f7 3e3e

st_gcn_networks.1.tcn.3.bias f4 [8]
0.008566687 -0.009717509 -0.014979992 -0.023498094 -0.0018624584 -0.0037974261 -0.0010005641 0.0073787547
00000000: 4a5b 0c3c 3036 1fbc a46e 75bc 137f c0bc
00000010: bc1d f4ba 3dde 78bb 5c25 83ba 7bc9 f13b

st_gcn_networks.1.tcn.3.running_mean f4 [8]
-0.0037231396 0.017872019 -0.010635642 0.0045386455 -0.003627174 0.009963468 -0.016652893 -0.010382115
00000000: ebff 73bb 5768 923c 1e41 2ebc ebb8 943b
00000010: e2b5 6dbb d03d 233c a66b 88bc bf19 2abc

st_gcn_networks.1.tcn.3.running_var f4 [8]
0.00040912456 0.0020112633 0.000873695 0.00066855643 0.00033170305 0.0014417676 0.00069984543 0.0007877784
00000000: c57f d639 66cf 033b ae08 653a 1042 2f3a
00000010: 6ee8 ad39 b1f9 bc3a d575 373a ea82 4e3a

st_gcn_networks.1.residual.0.weight f4 [8, 8, 1, 1]
-0.038644746 -0.060285863 -0.106559604 -0.018168554 -0.06661622 0.030859059 0.054818455 -0.017460294
-0.07929603 -0.04850779 -0.016389908 -0.005073258 -0.00027988464 0.093465425 0.09899321 -0.096222565
-0.12973641 -0.0015443398 0.073984146 0.00092189625 -0.035468053 0.055552416 -0.012724484 -0.06344945
0.07958095 0.013995037 -0.058964614 0.0025617033 -0.021416696 -0.004994232 0.06785033 0.08505878
-0.043961577 0.027196601 -0.09015879 0.011676755 0.034774993 -0.034747526 0.100485735 0.06240701
0.12267949 0.029559996 0.104220755 -0.009973795 -0.06189017 -0.047414176 -0.033477448 -0.08154784
0.021334494 0.022881608 -0.081328526 0.02191809 -0.015242307 -0.029003005 -0.059755646 0.015882222
-0.019531794 0.03141175 0.06776907 0.0076015485 0.06351561 0.093568094 -0.09741972 -0.03422318
00000000: f449 1ebd 4fee 76bd ec3b dabd 38d6 94bc
00000010: 166e 88bd 23cc fc3c 5189 603d e408 8fbc
00000020: f565 a2bd 1bb0 46bd 2144 86bc 933d a6bb
00000030: 7bbd 92b9 cd6a bf3d f4bc ca3d 5610 c5bd
00000040: 9fd9 04be 726b caba 0085 973d 69ab 713a
00000050: f346 11bd ee8a 633d 5b7a 50bc c9f1 81bd
00000060: 56fb a23d 714b 653c e184 71bd 40e2 273b
00000070: 1172 afbc a8a6 a3bb 1df5 8a3d 4c33 ae3d
00000080: 0e11 34bd 68cb de3c 2ca5 b8bd dc4f 3f3c
00000090: 3970 0e3d 6c53 0ebd 77cb cd3d 7e9e 7f3d
000000a0: 623f fb3d ce27 f23c b171 d53d 2169 23bc
000000b0: 8c80 7dbd 5e35 42bd a61f 09bd 8e02 a7bd
000000c0: adc5 ae3c 3672 bb3c 928f a6bd 918d b33c
000000d0: dfba 79bc b697 edbc 56c2 74bd 6f1b 823c
000000e0: 2401 a0bc 9ba9 003d 83ca 8a3d 6916 f93b
000000f0: 7914 823d a1a0 bf3d fd83 c7bd 9b2d 0cbd

st_gcn_networks.1.residual.0.bias f4 [8]
-1.666435e-05 2.470412e-05 2.914372e-05 1.997429e-06 -1.0299303e-05 -7.270534e-06 -4.7601497e-05 -6.186786e-06
00000000: 6bca 8bb7 b23b cf37 aa79 f437 920b 0636
00000010: 2bcb 2cb7 69f5 f3b6 b8a7 47b8 1698 cfb6

st_gcn_networks.1.residual.1.weight f4 [8]
0.2287601 0.2210784 0.27213472 0.23487853 0.22095306 0.25608376 0.35106042 0.15886515
00000000: 1640 6a3e 6062 623e 3e55 8b3e ff83 703e
00000010: 8541 623e 691d 833e 31be b33e 8cad 223e

st_gcn_networks.1.residual.1.bias f4 [8]
0.008566687 -0.009717509 -0.014979992 -0.023498094 -0.0018624584 -0.0037974261 -0.0010005641 0.0073787547
00000000: 4a5b 0c3c 3036 1fbc a46e 75bc 137f c0bc
00000010: bc1d f4ba 3dde 78bb 5c25 83ba 7bc9 f13b

st_gcn_networks.1.residual.1.running_mean f4 [8]
-0.020443914 0.00021235898 -0.009486862 0.021961588 0.009117882 0.0007866505 -0.015055154 0.011733755
00000000: ff79 a7bc aeac 5e39 c96e 1bbc cae8 b33c
00000010: 2b63 153c 3937 4e3a e5a9 76bc ef3e 403c

st_gcn_networks.1.residual.1.running_var f4 [8]
0.0007193289 0.0015462625 0.0009216644 0.0009917428 0.0011395412 0.0013574605 0.0007418645 0.00068844773
00000000: 5891 3c3a f6ab ca3a da9b 713a 5efd 813a
00000010: a85c 953a d1ec b13a af79 423a f278 343a

st_gcn_networks.2.gcn.conv.weight f4 [48, 8, 1, 1]
0.015489138 -0.054470655 0.012810193 -0.039419793 0.057445034 0.009732343 -0.06566081 -0.01573975
-0.019616684 -0.020193893 -0.00088308693 -0.026896162 -0.00972403 0.015786802 0.01620485 0.0024346437
0.01814118 -0.025871165 0.0048114164 -0.036116023 -0.016382929 0.006315553 -0.0126216505 0.011948159
0.002013073 -0.0038747063 -0.019477723 -0.019348765 0.0181573 -0.04963196 -0.0066180173 0.011359973
0.0036055297 0.00726178 -0.017298156 0.0070754196 -0.022032619 0.035799973 -0.002420331 -0.022663746
0.050065257 0.0016519717 -0.08172134 -0.018893039 0.09610472 -0.01302671 -0.096969396 -0.014137672
-0.037945446 -0.06783115 -0.066913605 0.0064702053 -0.04462878 0.058592863 -0.08281628 0.022888439
-0.021731474 -0.0358 0.035566304 0.0010375216 0.0022032578 -0.026681395 0.0012120204 0.009530266
0.0013970305 -0.03447588 -0.036244098 0.007146625 -0.05431768 0.052110676 -0.02249552 -0.037259214
-0.0076262355 -0.02274898 0.028211104 0.019701779 0.021862702 -0.035586067 0.008204538 0.0135716945
-0.010169079 -0.029358488 0.023480674 0.005244901 0.043305222 0.056514166 0.011746291 -0.007940029
0.029990565 -0.049319487 -0.04525384 0.038239878 -0.010441716 -0.01721287 0.009206037 -0.018367209
0.033910457 -0.03934904 -0.0040305285 0.07465053 -0.03046529 0.011821163 0.0089706145 -0.006446938
-0.0039944453 -0.03518918 0.06965477 -0.01563046 -0.028673798 5.9727437e-05 0.006437827 0.02648007
-0.028845325 0.0243301 0.033572648 -0.039697323 0.020657856 0.04005721 0.02384763 0.008471332
-0.027551819 0.003497194 -0.014068711 -0.025107563 -0.023999957 0.007170595 -0.0036907485 -0.000932296
0.030311463 -0.03272963 0.028308611 -0.052524664 0.042930648 0.08773996 0.08528034 -0.026927376
-0.008058375 -0.043610565 -0.020101596 -0.027619844 -0.015142648 0.025016353 0.03943753 0.012909856
0.011842928 0.0038042772 0.05826619 -0.0022419426 0.04869663 -0.0043451525 0.017621944 -0.030053994
0.024422567 0.04106846 -0.005018618 -0.023984874 0.033999626 -0.045531254 -0.03407668 -0.0334695
-0.0060550785 -0.023199482 0.019929014 -0.023415547 -0.0063204654 0.038536023 0.019690514 0.0141726155
0.021853283 0.046115745 -0.021496264 -0.039481796 0.022733135 -0.10803836 0.018346647 -0.0112848515
0.0604177 0.036528073 -0.072335586 0.037749235 0.06967251 -0.03607506 -0.018682618 -0.037811507
-0.011442016 -0.055920318 0.035491668 0.02188208 -0.03615794 0.040780656 -0.0001820752 0.042770967
0.03673596 0.047075026 -0.033585813 0.024142794 0.05857431 0.0042795404 0.04300929 -0.016215643
-0.016958687 -0.017394597 -0.016989887 0.021970704 -0.029004222 0.04227838 0.029611677 -0.021784455
0.013768577 -0.045840193 -0.00219502 0.033315927 -0.011997873 -0.0015317623 0.0044908044 0.03597577
0.05094165 0.08026666 0.015682843 0.0086415475 -0.049445827 -0.016560504 0.088549756 0.04939419
0.08958725 -0.008743996 -0.008078906 -0.050004743 -0.025971787 -0.014541 0.02845619 -0.0002920146
0.012025585 0.05080031 -0.0704715 0.08105088 -0.0032928705 -0.06563901 -0.005511153 0.081520416
-0.00048423826 -0.01850789 -0.0135593945 -0.015407238 0.018109927 0.013757307 -0.0010330394 -0.01672926
-0.004603154 -0.014860773 0.021644361 0.027536564 0.018420765 0.015302836 0.03475491 -0.0017507189
00000000: 27c6 7d3c 9f1c 5fbd d8e1 513c a676 21bd
00000010: 7c4b 6b3d 6874 1f3c 2d79 86bd a6f0 80bc
00000020: 2bb3 a0bc aa6d a5bc f67e 67ba 5755 dcbc
00000030: 8a51 1fbc 5353 813c 09c0 843c 8b8e 1f3b
00000040: d09c 943c c4ef d3bc 16a9 9d3b 65ee 13bd
00000050: 7e35 86bc b3f2 ce3b 0acb 4ebc 36c2 433c
00000060: c3ed 033b c9ee 7dbb bf8f 9fbc 4d81 9ebc
00000070: 9ebe 943c e24a 4bbd f4db d8bb 2e1f 3a3c
00000080: c04a 6c3b 3af4 ed3b ddb4 8dbc ecd8 e73b
00000090: c07d b4bc fea2 123d 6a9e 1ebb 52a9 b9bc
000000a0: 3a11 4d3d f986 d83a 855d a7bd 93c5 9abc
000000b0: 8dd2 c43d fb6d 55bc e497 c6bd b2a1 67bc
000000c0: af6c 1bbd 0feb 8abd 000a 89bd 0404 d43b
000000d0: abcc 36bd 12ff 6f3d 959b a9bd 8980 bb3c
000000e0: 3406 b2bc 05a3 12bd f9ad 113d 73fd 873a
000000f0: 8864 103b f192 dabc a8dc 9e3a d524 1c3c
00000100: 911c b73a 9536 0dbd b174 14bd 3c2e ea3b
00000110: 377c 5ebd 0172 553d 8648 b8bc 1e9d 18bd
00000120: 80e5 f9bb 125c babc f91a e73c a065 a13c
00000130: 6919 b33c b2c2 11bd 546c 063c d05b 5e3c
00000140: 359c 26bc 3681 f0bc 8b5a c03c 6bdd ab3b
00000150: d160 313d 667b 673d 8473 403c e516 02bc
00000160: c6ae f53c 3b03 4abd 175c 39bd 6ba1 1c3d
00000170: bb13 2bbc 0102 8dbc ebd4 163c d476 96bc
00000180: b1e5 0a3d 752c 21bd 8612 84bb 61e2 983d
00000190: 5892 f9bc 8dad 413c 7cf9 123c d640 d3bb
000001a0: d6e3 82bb 8822 10bd 29a7 8e3d 730b 80bc
000001b0: 50e5 eabc d983 7a38 68f4 d23b bbec d83c
000001c0: 084d ecbc eb4f c73c 7983 093d a999 22bd
000001d0: aa3a a93c 0713 243d 1b5c c33c 57cb 0a3c
000001e0: 5ab4 e1bc 2e31 653b 7380 66bc 60ae cdbc
000001f0: 8f9b c4bc 50f7 ea3b 7ce0 71bb 5365 74ba
00000200: bf4f f83c 810f 06bd 76e7 e73c 1a24 57bd
00000210: 0cd8 2f3d 02b1 b33d 75a7 ae3d cd96 dcbc
00000220: 4607 04bc fea0 32bd 1aac a4bc 0343 e2bc
00000230: de18 78bc 18ef cc3c 3f89 213d dc83 533c
00000240: d708 423c 2e51 793b 87a8 6e3d 8eed 12bb
00000250: 1e76 473d c861 8ebb e55b 903c cb33 f6bc
00000260: d611 c83c 6737 283d 3873 a4bb ed7b c4bc
00000270: 3143 0b3d fb7e 3abd fd93 0bbd 5017 09bd
00000280: ae69 c6bb d70c bebc 2c42 a33c f6d1 bfbc
00000290: e81b cfbb f3d7 1d3d 004e a13c 4234 683c
000002a0: a805 b33c dde3 3c3d ef18 b0bc aab7 21bd
000002b0: d73a ba3c 3743 ddbd b54b 963c 19e4 38bc
000002c0: 8d78 773d 769e 153d ae24 94bd f19e 1a3d
000002d0: 76b0 8e3d 71c3 13bd 4a0c 99bc 3de0 1abd
000002e0: 4b77 3bbc b40c 65bd b65f 113d 0c42 b33c
000002f0: 591a 14bd 9e09 273d 70eb 3eb9 9c30 2f3d
00000300: 7278 163d bed1 403d 4791 09bd 1cc7 c53c
00000310: 9eeb 6f3d 633b 8c3b 822a 303d abd6 84bc
00000320: f2ec 8abc 1d7f 8ebc 602e 8bbc e8fb b33c
00000330: 439a edbc 182c 2d3d 3094 f23c 5075 b2bc
00000340: 9995 613c edc2 3bbd 53da 0fbb 4876 083d
00000350: ba92 44bc 6ac5 c8ba 9927 933b 545b 133d
00000360: 31a8 503d d962 a43d 4e79 803c 4795 0d3c
00000370: b587 4abd e5a9 87bc 9359 b53d 9051 4a3d
00000380: 8579 b73d fa42 0fbc 635d 04bc c6d1 4cbd
00000390: c9c2 d4bc 603d 6ebc f51c e93c 8919 99b9
000003a0: f606 453c fc13 503d 5d53 90bd 01fe a53d
000003b0: 33cd 57bb bf6d 86bd e796 b4bb 2df4 a63d
000003c0: 5ce1 fdb9 dc9d 97bc 3928 5ebc a46e 7cbc
000003d0: 455b 943c 5466 613c 0d67 87ba cd0b 89bc
000003e0: 0ed6 96bb 9a7a 73bc 844f b13c 5c94 e13c
000003f0: 25e7 963c bfb8 7a3c 2a5b 0e3d 6178 e5ba

st_gcn_networks.2.gcn.conv.bias f4 [48]
-0.008880374 0.009210167 -0.017640343 0.012175337 -0.005784914 -0.018386781 0.028054586 -0.015467045
-0.0039023117 -0.015779004 -0.01778788 -0.0035286 -0.028446497 -0.009159461 -0.004675763 0.008219456
-0.05898822 -0.015088642 -0.0047108484 0.0091446685 0.012522302 -0.015040443 -0.011413133 -0.0034709517
-0.051012337 -0.01198262 -0.017440157 -0.049233973 0.027288405 0.009247856 -0.012705523 -0.008710151
0.002446786 0.0075414516 -0.00476011 0.0061666197 -0.01652509 0.0111026475 6.691878e-06 -0.001378657
-0.0084217675 0.0043708477 -0.0012907906 -0.027293803 0.030037485 -0.014126184 0.010491687 0.002414392
00000000: fd7e 11bc 3ee6 163c 7b82 90bc 117b 473c
00000010: 608f bdbb e09f 96bc bbd2 e53c 7d69 7dbc
00000020: edbd 7fbb f842 81bc e3b7 91bc 1640 67bb
00000030: a108 e9bc 9011 16bc 2537 99bb e6aa 063c
00000040: a29d 71bd 5a36 77bc 765d 9abb 85d3 153c
00000050: 572a 4d3c 316c 76bc 26fe 3abc e878 63bb
00000060: 50f2 50bd c052 44bc a9de 8ebc 90a9 49bd
00000070: ef8b df3c 5284 173c d32a 50bc 05b5 0ebc
00000080: 425a 203b 481e f73b b2fa 9bbb 5b11 ca3b
00000090: a05f 87bc e1e7 353c cb8a e036 0db4 b4ba
000000a0: 74fb 09bc 5439 8f3b bf2f a9ba 4197 dfbc
000000b0: 2c11 f63c 8371 67bc 53e5 2b3c c73a 1e3b

st_gcn_networks.2.tcn.0.weight f4 [16]
0.25003642 0.120888494 0.18534423 0.14766158 0.06328991 0.26001012 0.19115064 0.18848668
0.16529246 0.11743627 0.14081687 0.18621138 0.15481733 0.17456721 0.09074795 0.09194686
00000000: c604 803e 6394 f73d e1ca 3d3e 9934 173e
00000010: 249e 813d 0c20 853e febc 433e a702 413e
00000020: 6d42 293e 6d82 f03d 4c32 103e 32ae 3e3e
00000030: 6f88 1e3e bfc1 323e 10da b93d a34e bc3d

st_gcn_networks.2.tcn.0.bias f4 [16]
-0.021482259 0.0008011713 -0.028633736 -0.021582898 0.013213787 -0.029081808 -0.018479481 -0.04020978
-0.036102537 -0.027554955 -0.036511708 -0.027656242 -0.03533674 -0.055755734 -0.0063930023 -0.029504513
00000000: 90fb afbc b205 523a 4c91 eabc 9ece b0bc
00000010: a47e 583c f93c eebc 4862 97bc 03b3 24bd
00000020: 41e0 13bd eeba e1bc 4d8d 15bd 588f e2bc
00000030: 42bd 10bd 2060 64bd 647c d1bb 73b3 f1bc

st_gcn_networks.2.tcn.0.running_mean f4 [16]
-0.002117298 -0.00089614827 -0.00059662684 -0.00047186078 0.00030899738 -0.0034703107 -0.0008766299 -0.001257748
-0.0020122668 -0.0006609376 -0.0013527733 -0.0024654502 0.0011429071 2.7218488e-05 0.00038271476 0.00107395
00000000: 5ec2 0abb 7eeb 6aba f366 1cba 1564 f7b9
00000010: ed00 a239 276e 63bb a3cd 65ba 05db a4ba
00000020: 3ce0 03bb c642 2dba 8a4f b1ba 6493 21bb
00000030: 99cd 953a 4253 e437 1ba7 c839 c8c3 8c3a

st_gcn_networks.2.tcn.0.running_var f4 [16]
7.684117e-06 5.5281525e-06 3.7187096e-06 9.640604e-06 3.800271e-06 2.852417e-05 6.785029e-06 4.056026e-06
7.2014445e-06 2.869831e-06 3.0130702e-06 5.405473e-06 3.518421e-06 4.8409265e-06 1.4902319e-06 2.2063205e-06
00000000: 08eb 0037 787e b936 f28e 7936 14be 2137
00000010: 2908 7f36 3047 ef37 f5aa e336 ff18 8836
00000020: f0a3 f136 5297 4036 2734 4a36 a960 b536
00000030: 031e 6c36 3e6f a236 fa03 c835 4c10 1436

st_gcn_networks.2.tcn.2.weight f4 [16, 16, 9, 1]
-0.012719779 -0.00633232 -0.019261789 -0.00878841 -0.018394554 0.010739143 -0.0042461217 -0.01608476
-0.012180148 0.012418498 0.0066829496 0.009779347 -0.0059217317 0.00867891 -0.007905509 0.001224453
-0.011943908 -0.019374788 0.006475509 0.0034031826 0.0053500156 -0.0017535596 0.0050002825 -0.010504015
0.001591052 -0.005638841 -0.0042306622 -0.0006526707 -0.002952379 0.0034518207 0.0057136025 0.0015677812
0.026388368 -0.0063579883 -0.0012442087 0.005311398 0.00015065109 0.01207262 -0.010069772 -0.0029837266
-0.010624557 -0.003482135 -0.0034953326 -0.016340362 -0.018133154 0.015399135 -0.013815768 0.015396039
0.012086837 0.0009806962 0.014504734 -0.0029765342 -0.00065454416 0.018021744 0.020482348 0.00024400749
9.353585e-06 0.028075881 0.009700874 -0.0032081439 0.004525556 0.015549233 0.025422204 -0.0033302803
0.0005341055 -0.009457602 -0.0038031098 -0.004996383 -0.007254828 0.012620181 -0.015321798 -0.016385604
0.0195396 0.017552698 0.00468744 0.011805671 0.005676904 -0.014024938 -0.00252237 0.0055193086
-0.00887842 -0.0019043704 0.008437208 -0.0003692404 0.02210146 -0.001027566 -0.013161602 0.015394732
0.008129908 -0.0042747757 -0.0011098429 0.007982108 -0.006227753 0.009025681 0.007654928 -0.0070660613
0.014182486 0.014601188 -0.0056493133 0.016861375 -0.0025023543 -0.016035331 -0.018791756 -0.015544548
-0.0044604135 -0.026017856 -0.00898124 0.01913124 -0.0030552454 0.008216273 -0.0019341469 -0.021914316
-0.007400258 -0.014208776 -0.0064636795 -0.0088216355 -0.011340831 0.020224191 -0.0122837145 -0.021703884
0.0003158465 -0.0042259465 -0.0032085488 -0.005745274 0.0016841469 0.027622182 -0.014787419 0.0004927938
-0.009828234 -0.004021292 -0.0134301325 -0.004477199 -0.0035228147 -0.015361979 -0.03773728 0.012261362
0.011249928 -0.0024891866 -0.0021198997 -0.011947724 -0.021464005 0.011197947 -0.007885302 -0.0111081395
-0.0042059007 -0.0019293651 0.018336168 0.009893003 0.0091213025 0.0137148015 0.01746602 -0.00060792314
0.020963455 -0.014859019 0.012154037 -0.0069752927 -0.008765007 -0.018011177 0.0033484658 -0.025299927
0.007188134 -0.009157399 -0.0046135457 0.011706923 -0.0261447 0.01925739 -0.012549309 -0.022414276
-0.0061014155 -0.010280866 -0.026719464 -0.018821435 -0.013210673 -0.019748453 0.0015659806 -0.0060455697
-0.015851319 -0.008737934 -0.026248144 -0.013997606 0.008642672 -0.028514717 -0.007509749 -0.017818216
-0.0039719003 -0.017658731 -0.006504921 0.0024739583 0.0072448743 -0.018469293 -0.01020737 -0.0144976
-0.0072496803 -0.024202242 -0.040870845 -0.03036776 -0.049218696 -0.018456686 0.004150237 0.012522664
0.025515866 0.015292656 0.042322572 0.005086294 0.025493588 -0.015494605 0.020520674 0.0196615
-0.000978043 -0.0056346464 -0.0021807046 -0.025424143 -0.03444275 -0.0064376434 -0.006631321 -0.0195929
-0.018157054 -0.0019123305 -0.0065841223 -0.031112706 -0.009565604 -0.019408217 -0.0278966 -0.023086041
-0.027170302 -0.007359316 -0.006930493 -0.015220208 -0.021646753 0.005074658 0.011367495 -0.011583172
-0.01694638 -0.0070183137 -0.022876061 -0.013992071 -0.021858644 -0.031373303 0.01648671 -0.029229805
-0.016611163 -0.021489874 -0.03799155 0.006086431 0.019499399 0.0022342904 0.029022614 0.0032508476
0.012802376 0.005045586 -0.001237254 0.015770726 0.009349095 0.023936378 0.014226791 -0.0066638123
00000000: 9f66 50bc 5a7f cfbb e6ca 9dbc 43fd 0fbc
00000010: 2db0 96bc 3bf3 2f3c 0d23 8bbb 30c4 83bc
00000020: 3e8f 47bc f576 4b3c a5fc da3b 8e39 203c
00000030: 160b c2bb fd31 0e3c 1c86 01bc d37d a03a
00000040: 62b0 43bc e0b7 9ebc 8230 d43b ee07 5f3b
00000050: 2f4f af3b b2d7 e5ba 69d9 a33b 0819 2cbc
00000060: d98a d03a 07c6 b8bb 5ea1 8abb fd17 2bba
00000070: b37c 41bb f137 623b 2c39 bb3b 027e cd3a
00000080: 6b2c d83c ac56 d0bb b714 a3ba 3c0b ae3b
00000090: 18f8 1d39 3dcc 453c affb 24bc a08a 43bb
000000a0: 9f12 2ebc 8834 64bb f311 65bb 39dc 85bc
000000b0: fb8b 94bc a74c 7c3c 885b 62bc ab3f 7c3c
000000c0: de07 463c b48a 803a 44a5 6d3c f511 43bb
000000d0: b795 2bba 56a2 933c 99ca a73c 43dc 7f39
000000e0: 57ed 1c37 64ff e53c 6af0 1e3c b93f 52bb
000000f0: 1e4b 943b 36c2 7e3c 3a42 d03c d540 5abb
00000100: 3703 0c3a 0ff4 1abc 983d 79bb b3b8 a3bb
00000110: e8b9 edbb e0c4 4e3c 4708 7bbc 1a3b 86bc
00000120: 8311 a03c adca 8f3c 1999 993b 936c 413c
00000130: 5305 ba3b dbc8 65bc 594e 25bb 51db b43b
00000140: cb76 11bc 119c f9ba 373c 0a3c 9c96 c1b9
00000150: 1f0e b53c 65af 86ba c3a3 57bc 303a 7c3c
00000160: 4e33 053c 6b13 8cbb 2678 91ba 63c7 023c
00000170: 2e12 ccbb 73e0 133c 31d6 fa3b 6b8a e7bb
00000180: a85d 683c d239 6f3c e01d b9bb de20 8a3c
00000190: 8afe 23bb 875c 83bc 2bf1 99bc 8fae 7ebc
000001a0: a928 92bb 6623 d5bc 0d26 13bc 1eb9 9c3c
000001b0: 833a 48bb 8c9d 063c 3383 fdba a785 b3bc
000001c0: dd7d f2bb edcb 68bc 46cd d3bb 9f88 10bc
000001d0: e5ce 39bc 34ad a53c a241 49bc 58cc b1bc
000001e0: 3398 a539 cf79 8abb 8446 52bb da42 bcbb
000001f0: 98be dc3a ea47 e23c ee46 72bc d52e 013a
00000200: 9a06 21bc 0bc5 83bb 0f0a 5cbc 78b5 92bb
00000210: 06df 66bb cfb0 7bbc 6892 1abd e1e3 483c
00000220: 9e51 383c 9f21 23bb 04ee 0abb 63c0 43bc
00000230: 48d5 afbc 9877 373c 5b31 01bc eafe 35bc
00000240: a7d1 89bb c0e2 fcba bb35 963c 4316 223c
00000250: 8471 153c 0cb4 603c e614 8f3c 085d 1fba
00000260: 8dbb ab3c 3e73 73bc ba21 473c ff90 e4bb
00000270: 1b9b 0fbc 2d8c 93bc ef71 5b3b cb41 cfbc
00000280: 708a eb3b ea08 16bc 3a2d 97bb 65ce 3f3c
00000290: 692d d6bc adc1 9d3c 9e9b 4dbc 259e b7bc
000002a0: 62ee c7bb 1471 28bc c7e2 dabc 692f 9abc
000002b0: 9471 58bc 82c7 a1bc 9741 cd3a ea19 c6bb
000002c0: a0da 81bc 8d29 0fbc 5906 d7bc 3756 65bc
000002d0: fe99 0d3c b297 e9bc 5714 f6bb 82f7 91bc
000002e0: b726 82bb 0ba9 90bc 3b27 d5bb 2222 223b
000002f0: 6966 ed3b ea4c 97bc d03c 27bc 5787 6dbc
00000300: ba8e edbb c843 c6bc 3068 27bd cfc5 f8bc
00000310: 8b99 49bd 7a32 97bc b6fe 873b dc2b 4d3c
00000320: a606 d13c 0c8e 7a3c 6f5a 2d3d edaa a63b
00000330: eed7 d03c 15dd 7dbc f91a a83c 2711 a13c
00000340: ad31 80ba d7a2 b8bb 27ea 0ebb 4b46 d0bc
00000350: d713 0dbd def2 d2bb 8d4b d9bb 4a81 a0bc
00000360: 1abe 94bc 2aa7 faba 9fbf d7bb 13e0 febc
00000370: 0db9 1cbc fbfd 9ebc 6987 e4bc f01e bdbc
00000380: 4194 debc 6b26 f1bb 3019 e3bb 2e5e 79bc
00000390: 8854 b1bc 5149 a63b bb3e 3a3c 58c7 3dbc
000003a0: 22d3 8abc e2f9 e5bb 9466 bbbc 003f 65bc
000003b0: e610 b3bc 4b81 00bd 230f 873c 5873 efbc
000003c0: 2214 88bc 880b b0bc 079d 1bbd af70 c73b
000003d0: 34bd 9f3c 2c6d 123b d5c0 ed3c 2c0c 553b
000003e0: 0fc1 513c 7155 a53b 5b2b a2ba 9c31 813c
000003f0: f22c 193c 3916 c43c 7d17 693c 1c5c dabb

st_gcn_networks.2.tcn.2.bias f4 [16]
3.6081667e-05 -2.0747475e-06 6.1676333e-06 1.1694028e-06 -9.060075e-06 -4.5883753e-06 -3.6661382e-05 -1.3594749e-05
-1.601059e-05 1.3856796e-05 4.9033784e-05 1.4244033e-06 -2.1532936e-05 3.0484089e-06 -2.4511069e-06 -2.7229765e-09
00000000: 6556 1738 e43b 0bb6 91f3 ce36 60f4 9c35
00000010: ba00 18b7 d8f5 99b6 dcc4 19b8 0115 64b7
00000020: 7b4e 86b7 7c7a 6837 a0a9 4d38 202e bf35
00000030: a1a1 b4b7 4493 4c36 b27d 24b6 1c1f 3bb1

st_gcn_networks.2.tcn.3.weight f4 [16]
0.12482476 0.21677707 0.12870468 -9.05704e-23 0.21721368 0.174669 0.19522828 0.063804805
0.10122664 0.084850915 0.22346246 0.056020517 0.24252331 0.021403082 0.066873536 4.5119467e-08
00000000: 20a4 ff3d cffa 5d3e 29cb 033e 5dfc da9a
00000010: 436d 5e3e 6edc 323e ece9 473e 18ac 823d
00000020: ea4f cf3d 51c6 ad3d 58d3 643e c575 653d
00000030: 0858 783e 8455 af3c fef4 883d 61c9 4133
