weights_arm/91.pt (torch, 70926 bytes, 80 tensors)

A f4 [3, 9, 9]
00000000: 0000 003f 0000 0000 0000 0000 0000 0000
00000010: 0000 0000 0000 0000 0000 0000 0000 0000
00000020: 0000 0000 0000 0000 cdcc 4c3e 0000 0000
00000030: 0000 0000 0000 0000 0000 0000 0000 0000
00000040: 0000 0000 0000 0000 0000 0000 0000 0000
00000050: abaa aa3e 0000 0000 0000 0000 0000 0000
00000060: 0000 0000 0000 0000 0000 0000 0000 0000
00000070: 0000 0000 0000 0000 abaa aa3e 0000 0000
00000080: 0000 0000 0000 0000 0000 0000 0000 0000
00000090: 0000 0000 0000 0000 0000 0000 0000 0000
000000a0: 0000 003f 0000 0000 0000 0000 0000 0000
000000b0: 0000 0000 0000 0000 0000 0000 0000 0000
000000c0: 0000 0000 0000 0000 abaa aa3e 0000 0000
000000d0: 0000 0000 0000 0000 0000 0000 0000 0000
000000e0: 0000 0000 0000 0000 0000 0000 0000 0000
000000f0: abaa aa3e 0000 0000 0000 0000 0000 0000
00000100: 0000 0000 0000 0000 0000 0000 0000 0000
00000110: 0000 0000 0000 0000 0000 003f 0000 0000
00000120: 0000 0000 0000 0000 0000 0000 0000 0000
00000130: 0000 0000 0000 0000 0000 0000 0000 0000
00000140: 0000 003f 0000 0000 cdcc 4c3e 0000 0000
00000150: 0000 0000 0000 0000 0000 0000 0000 0000
00000160: 0000 0000 0000 0000 0000 0000 0000 0000
00000170: 0000 0000 0000 0000 0000 0000 0000 0000
00000180: 0000 0000 0000 0000 0000 0000 0000 0000
00000190: cdcc 4c3e 0000 0000 0000 0000 0000 0000
000001a0: 0000 0000 0000 0000 0000 0000 0000 0000
000001b0: 0000 0000 0000 0000 abaa aa3e 0000 0000
000001c0: 0000 003f 0000 0000 0000 0000 0000 0000
000001d0: 0000 0000 0000 0000 0000 0000 0000 0000
000001e0: abaa aa3e 0000 0000 0000 0000 0000 0000
000001f0: 0000 0000 0000 0000 0000 0000 cdcc 4c3e
00000200: 0000 0000 0000 0000 0000 0000 0000 0000
00000210: 0000 0000 0000 0000 0000 0000 0000 0000
00000220: 0000 0000 0000 0000 0000 0000 0000 0000
00000230: abaa aa3e 0000 0000 0000 003f 0000 0000
00000240: 0000 0000 0000 0000 0000 0000 0000 0000
00000250: 0000 0000 0000 0000 abaa aa3e 0000 0000
00000260: 0000 0000 0000 0000 cdcc 4c3e 0000 0000
00000270: 0000 0000 0000 0000 0000 0000 0000 0000
00000280: 0000 0000 0000 0000 0000 0000 0000 0000
00000290: 0000 0000 0000 0000 0000 0000 0000 0000
000002a0: 0000 0000 0000 0000 0000 0000 0000 003f
000002b0: 0000 0000 abaa aa3e 0000 0000 0000 0000
000002c0: abaa aa3e 0000 0000 0000 0000 0000 003f
000002d0: 0000 0000 0000 0000 0000 0000 abaa aa3e
000002e0: 0000 0000 0000 0000 0000 0000 0000 0000
000002f0: 0000 0000 0000 0000 0000 0000 0000 0000
00000300: 0000 0000 0000 0000 0000 0000 0000 0000
00000310: 0000 0000 0000 0000 0000 0000 0000 0000
00000320: 0000 0000 0000 0000 0000 0000 0000 0000
00000330: 0000 0000 0000 0000 0000 0000 0000 0000
00000340: 0000 0000 0000 0000 0000 0000 0000 0000
00000350: 0000 0000 abaa aa3e 0000 0000 0000 0000
00000360: 0000 0000 0000 0000 0000 0000 0000 0000
00000370: 0000 0000 0000 0000 0000 0000 0000 0000
00000380: 0000 0000 0000 0000 0000 0000 0000 0000
00000390: 0000 0000 0000 0000 0000 0000 0000 0000
000003a0: 0000 0000 0000 0000 0000 0000 0000 0000
000003b0: 0000 0000 0000 0000 0000 0000 0000 0000
000003c0: 0000 0000 0000 0000 0000 0000
0.5 0.0 0.0 0.0 0.0 0.0 0.0 0.0
0.0 0.0 0.2 0.0 0.0 0.0 0.0 0.0
0.0 0.0 0.0 0.0 0.33333334 0.0 0.0 0.0
0.0 0.0 0.0 0.0 0.0 0.0 0.33333334 0.0
0.0 0.0 0.0 0.0 0.0 0.0 0.0 0.0
0.5 0.0 0.0 0.0 0.0 0.0 0.0 0.0
0.0 0.0 0.33333334 0.0 0.0 0.0 0.0 0.0
0.0 0.0 0.0 0.0 0.33333334 0.0 0.0 0.0
0.0 0.0 0.0 0.0 0.0 0.0 0.5 0.0
0.0 0.0 0.0 0.0 0.0 0.0 0.0 0.0
0.5 0.0 0.2 0.0 0.0 0.0 0.0 0.0
0.0 0.0 0.0 0.0 0.0 0.0 0.0 0.0
0.0 0.0 0.0 0.0 0.2 0.0 0.0 0.0
0.0 0.0 0.0 0.0 0.0 0.0 0.33333334 0.0
0.5 0.0 0.0 0.0 0.0 0.0 0.0 0.0
0.33333334 0.0 0.0 0.0 0.0 0.0 0.0 0.2
0.0 0.0 0.0 0.0 0.0 0.0 0.0 0.0
0.0 0.0 0.0 0.0 0.33333334 0.0 0.5 0.0
0.0 0.0 0.0 0.0 0.0 0.0 0.33333334 0.0
0.0 0.0 0.2 0.0 0.0 0.0 0.0 0.0
0.0 0.0 0.0 0.0 0.0 0.0 0.0 0.0
0.0 0.0 0.0 0.5 0.0 0.33333334 0.0 0.0
0.33333334 0.0 0.0 0.5 0.0 0.0 0.0 0.33333334
0.0 0.0 0.0 0.0 0.0 0.0 0.0 0.0
0.0 0.0 0.0 0.0 0.0 0.0 0.0 0.0
0.0 0.0 0.0 0.0 0.0 0.0 0.0 0.0
0.0 0.0 0.0 0.0 0.0 0.33333334 0.0 0.0
0.0 0.0 0.0 0.0 0.0 0.0 0.0 0.0
0.0 0.0 0.0 0.0 0.0 0.0 0.0 0.0
0.0 0.0 0.0 0.0 0.0 0.0 0.0 0.0
0.0 0.0 0.0

data_bn.weight f4 [27]
00000000: 310b e43d f685 9d3d c6c4 963d 3b65 8a3e
00000010: 011a e33d dac8 c63d e41c 8e3e da36 4a3e
00000020: 1c84 793e 01b3 f93e 647a 0c3f 85bd c93e
00000030: 1404 0c3f 5279 053f 78fd c73e f80d 8d3e
00000040: 1b98 573e 7097 693e 701e fc3e 07e4 d63e
00000050: c309 b93e de63 043f 7a96 e83e 440d ba3e
00000060: b9f9 4f3e b3da 463d e724 b13d
0.11134947 0.07691567 0.0736175 0.27030358 0.11088944 0.09706278 0.27756417 0.19747487
0.24366802 0.48769382 0.54874253 0.39402404 0.5469372 0.52138245 0.3906057 0.2754972
0.21054117 0.22811675 0.49241972 0.41970846 0.3614026 0.51714885 0.45427305 0.36338246
0.20310105 0.04854841 0.08649617

data_bn.bias f4 [27]
00000000: 24c9 53bb 7c6f 873c ac98 84bc 0690 bcbc
00000010: 68a9 6b3b 20d7 c73b 9db4 2d3d d73d 133b
00000020: a5f9 adbc 5bf3 e2bc f55f d3b8 93a6 733c
00000030: fc3b 34bb 3606 573b 5af1 15bc a8d9 ea3c
00000040: a51b 173d c836 ab3c 75ac 023c 0734 13bc
00000050: 95a1 a3bb f261 d2bc 7af4 b8bc e6be 293b
00000060: f2af 8d3c 4c5d 3d3b bd4a 69bb
-0.0032315934 0.016532652 -0.01618608 -0.023017894 0.0035959128 0.006098643 0.042408574 0.002246728
-0.021237204 -0.027703932 -0.000100791374 0.014871257 -0.0027501574 0.0032810098 -0.009151781 0.02866824
0.0368916 0.020900145 0.007975687 -0.008984572 -0.0049936273 -0.02568147 -0.022577513 0.0025901138
0.017295811 0.002889472 -0.0035597526

data_bn.running_mean f4 [27]
00000000: a248 b442 6d03 9742 9c48 af41 d12e c642
00000010: daf7 a442 aad2 bb41 61d6 b142 917e 9b42
00000020: becc b341 5feb c642 fdad 9f42 a561 b541
00000030: 9019 d642 efc6 9942 d95d b141 9910 da42
00000040: 9a72 ae42 efe4 c341 2eca 0243 acc3 bb42
00000050: 1005 cf41 b0bb 0243 dbdd b142 8ce6 c541
00000060: ee7f cc42 6593 ba42 0eec cd41
90.14186 75.50669 21.910454 99.09144 82.484085 23.477863 88.91871 77.7472
22.474972 99.45971 79.83982 22.672678 107.04993 76.88854 22.170824 109.03242
87.22383 24.486784 130.78976 93.88217 25.877472 130.73315 88.93331 24.737572
102.24986 93.28788 25.740261

data_bn.running_var f4 [27]
00000000: e31a 4446 de7d a546 f85f de45 ce7e 4d46
00000010: 27c0 b646 a03f f745 6227 1e46 c86f 9f46
00000020: bae2 df45 7a58 4946 642f 9646 5f9f d945
00000030: 50b8 6646 dabb 8846 9c02 cf45 cf7d 8646
00000040: 0227 d046 7f22 0846 3c4e b346 4c25 d646
00000050: 1603 1046 0ca5 ac46 dde8 b946 f7a9 0146
00000060: 666c 8946 2ec8 c346 6789 0946
12550.722 21182.934 7115.996 13151.701 23392.076 7911.953 10121.846 20407.89
7164.341 12886.119 19223.695 6963.9214 14766.078 17501.926 6624.326 17214.904
26643.504 8712.624 22951.117 27410.648 9216.771 22098.523 23796.432 8298.491
17590.2 25060.09 8802.351

st_gcn_networks.0.gcn.conv.weight f4 [24, 3, 1, 1]
00000000: 54aa a0bd d445 21bc 2ff5 1a3c 9319 103e
00000010: 7733 87bd eceb 7f3d b2b5 ce3d 8b10 233b
00000020: 255b 4a3d 8b2e 2ebd c21f 95bc 19a0 123e
00000030: f7de 063d 4a24 ebbc 50e6 80be 4bc3 5a3e
00000040: 6908 9f3e 8ac9 913d f4db 6cbe 212a 453e
00000050: 64fb ad3d b16a 46be 9c6c 883d 4994 0cbe
00000060: 81e5 39bd 730b 8ebd ccbd 8dbc 2d9f 85be
00000070: f8ae d3bd 8a11 333d 9b72 2d3e 5ca0 a7bc
00000080: 9f87 9bbc 4e24 15be 827e 0dbe c37f 393c
00000090: 8872 35bb be36 6ebc 5612 573e b217 26bd
000000a0: 6a23 79be da4e 06be d052 4e3d 25e4 843d
000000b0: d12d 6a3d 8e77 303e 5ac3 cbbd 6c61 2e3e
000000c0: b931 bdbc e89b bd3b 3b1d b0bb 7c89 41bd
000000d0: 2f11 cbbc f738 f4bc cd1f 273e 5685 52ba
000000e0: f19f e63c f021 68bd 3c25 77bc 8afb ca3b
000000f0: eb4c 4cbe d69f b1bb 3eba 8dbc d544 423d
00000100: 16f3 44bd 8d8f 023e 1e68 8e3d c824 06bd
00000110: 62f2 eebb a189 ebbd c273 1d3e 5487 563d
-0.078449875 -0.0098433085 0.00945787 0.14072256 -0.06601613 0.062480852 0.100932494 0.0024881687
0.04940333 -0.042524856 -0.01820362 0.14318885 0.03292748 -0.028703827 -0.25175714 0.21363561
0.31061104 0.07118519 -0.2313078 0.19254352 0.084952146 -0.19376637 0.066613406 -0.13728441
-0.045384888 -0.069357775 -0.017302416 -0.26098004 -0.10336107 0.0437179 0.1693825 -0.020462207
-0.018985568 -0.1456463 -0.1381779 0.011321965 -0.0027686674 -0.014539419 0.21003088 -0.04054994
-0.24329916 -0.13116017 0.050371945 0.064888276 0.0571726 0.17233106 -0.0994937 0.17029351
-0.023094999 0.0057864077 -0.0053745783 -0.047250256 -0.024788467 -0.02981232 0.16320725 -0.0008030733
0.028152438 -0.05667299 -0.015084561 0.0061945366 -0.19951217 -0.0054206653 -0.017300721 0.047428925
-0.048083387 0.12750073 0.069534525 -0.03274992 -0.007292078 -0.1150086 0.1537619 0.052375153

st_gcn_networks.0.gcn.conv.bias f4 [24]
00000000: 5226 823c 3f26 7a3d 98a4 913d 1737 9d3d
00000010: e946 98bc bc89 42be 9f0a e8ba 0730 083e
00000020: 4cb4 a9bd d95f 9b3c ef35 b73d a785 0ebd
00000030: 797c b33c 0d33 163e e2d9 363e 1428 1bbc
00000040: 12e0 8ebc cdf3 2ebe 643e 303d fa0c 87bd
00000050: 3f42 3d3d 48a2 be3c 7852 13bc ae4c 1a39
0.015887413 0.06107163 0.07111472 0.07676523 -0.0185885 -0.18997854 -0.0017703361 0.13299571
-0.08286342 0.018966602 0.08945834 -0.03479543 0.02190994 0.14667912 0.17856553 -0.009470005
-0.01744083 -0.1708519 0.04302825 -0.06594272 0.046205755 0.023270741 -0.00899183 0.0001471515

st_gcn_networks.0.tcn.0.weight f4 [8]
00000000: bbaf 483e 7caa ba3e 1af2 d23e 9f55 a83e
00000010: 9e6c 843e ec3c bf3e 3317 bf3e 126e be3e
0.19598286 0.36458194 0.41200334 0.32877824 0.25864118 0.37351167 0.37322387 0.37193352

st_gcn_networks.0.tcn.0.bias f4 [8]
00000000: 77c6 f53c 2771 0a3d 9021 093d 6fe5 913c
00000010: 895c 88bc b5b4 353d 0e99 afbb c30e 25bd
0.030001862 0.033799317 0.033479273 0.017809598 -0.016645687 0.04436179 -0.0053588217 -0.04029728

st_gcn_networks.0.tcn.0.running_mean f4 [8]
00000000: 92a9 0cbc c4db e23a 1043 bb3c 00a0 4e3b
00000010: 5cd5 273b aeae f7bb ce22 aa3c e934 903c
-0.008585351 0.0017307927 0.022859126 0.0031528473 0.002560935 -0.0075586652 0.02076855 0.017603355

st_gcn_networks.0.tcn.0.running_var f4 [8]
00000000: f3d5 3539 d105 bc39 aaf0 fa39 4376 ca39
00000010: 1ce2 0c38 917c b239 67ba 143a eb49 cd38
0.00017341207 0.00035862488 0.00047863025 0.00038616554 3.3589182e-05 0.00034043615 0.0005673528 9.78893e-05

st_gcn_networks.0.tcn.2.weight f4 [8, 8, 9, 1]
00000000: ea8a 5639 2ed3 95b9 eba7 6d3b b0a7 98bb
00000010: 1a53 d93b 522c a2bc 7fd3 463b 2e34 b3bb
00000020: 1cc7 4c3c 28d4 ba3c abcb 59bd dea1 93bc
00000030: 4901 36bc aa50 51bc 8456 ff3c 6ffd 8e3c
00000040: 21f9 e239 5ad1 b7bc 7691 2b3d 326b 703d
00000050: 51cf df3c c8b7 5a3d 1b41 c5bc 9b6e b43d
00000060: 3889 5dbd 1a44 073d 3687 70bd 012d 153c
00000070: 7632 2fbc 05d7 813d 322a 4cbc 7dac 393c
00000080: fd2a 2b3d 3e9c 013d c7d6 203d cb68 fe3b
00000090: e5dc 1abd e146 0ebd 0700 8b3c 94f2 acbc
000000a0: d7cc ebbc bd8b af3c 1633 ad3c df52 21bd
000000b0: 6233 92b9 11be 2dbd f47f 313c c657 ad3c
000000c0: 7c78 d13c 06ff f93c 1bc5 663c 05fc ad3c
000000d0: 02d1 bb3b df3a c33c 9f64 c93c aed5 0c3d
000000e0: b0dc 6b3a 79c2 21bd 6595 01bd 0a59 17bc
000000f0: fa0d 06bd dc00 593d bb0f fdbc 0b47 0dbd
00000100: 0c00 bdbd 33e8 f0bb f032 aabd 7e86 4cbb
00000110: 7380 8ebd aeb5 83bc f449 9dbc 99e8 3b3b
00000120: b793 933c a09b 5bbc 19de 5e3a 0dfc 0e3c
00000130: fbd3 e53c d21c 993b 74d3 1b3d aa15 173c
00000140: 2328 ccb9 c5da de3c 731d a03c 1755 013d
00000150: d3df d4b9 87a0 babb dc5b 443c 2de2 103d
00000160: e3af a5bb 3621 df3c f8d3 033d eb2d 8e3d
00000170: fa16 963d 93b6 23bb 9125 9dbc 850e 5dbd
00000180: 99f3 a7bb 65ff f23c 35b1 09bc 03ff 483d
00000190: 6c4f f7bc 4ede 9d3c 64e8 323c 7720 e73c
000001a0: 9264 a03c f79b 213d 54d2 adbc 1f3f 3bbc
000001b0: 4e0a b33c 0496 8abb ec6c de3c 2796 c03c
000001c0: b411 ec3c 2dfc d5bc c1d6 093d d74e 863d
000001d0: 8778 303d 53f1 46bc acc9 043d 4c8d 153c
000001e0: b431 30bd c450 893c f097 c5bc f758 13bd
000001f0: 14ce 9cbc 6081 fcbc aad5 60bd b5e1 15bd
00000200: 7f1e 6fbd 48b8 5cbd e73e ecbc 6348 fb3c
00000210: a92f c93c 7f56 2ebd 030f 493d 9470 9a3c
00000220: b254 69bd 1dd1 7cbc c12d 6a3b bc32 d13c
00000230: 6087 20bd fd3f b93c 2cfb e8bc 4c14 c6bc
00000240: 9f8a a6bc 46ef c8bb ed15 81bc 2331 e03c
00000250: 4922 87bc 9579 98bc 76b1 6639 cd02 f4bc
00000260: 4be4 e8bc df67 9c3a d1f8 aebb 1959 8b3a
00000270: 249b 123d 55bb c0bc c96f f53a ccd4 9a3c
00000280: fbeb 14bd 7086 82ba 7326 873d 9a92 9ebb
00000290: 7681 ea3b a251 91bd 1ded 583d fc04 f7bb
000002a0: 2686 473d 5f05 89bd 477a 0f3d 2219 f03c
000002b0: ef5d 37bd ace2 11bd 5b70 113d 8b74 bb3c
000002c0: 5dd8 22bd 1292 9a3b 035b 1dbd 0958 543c
000002d0: 29be 07bb 7ef7 50b9 0a8f 323d e4be 3a3c
000002e0: 45bf 7dbd 87e8 53bc 517a 9abc d570 3cbc
000002f0: a424 013c 852e 2bbd 6f31 9bbd e9df 6d3d
00000300: df50 30bd 05ca 2ebd b431 a1ba cbf0 1f3d
00000310: 0909 1abd 1853 8c3d aca2 ec3c 2c1f f7bc
00000320: 56e5 a0bd 9698 433d 7a6b a63d 99e3 a13c
00000330: 9ff7 09bd d4a2 113d f51c 543d efd5 61bd
00000340: 6833 b4bc 0f5d 92bd 282f e53c a054 37bb
00000350: 13b4 4a3d 2331 3abd 2777 15bd 7846 4fbb
00000360: 6ecc 17bc e6d8 f03a b063 833c d905 c23b
00000370: 1b8d 8f3c 78fb 52bc 153c 5a3a 53a1 b4bb
00000380: 5baf 433c 1d99 8039 2a26 973c 7a3d a0bc
00000390: 6143 2dbc 8be9 213d 9f70 e63c a937 083d
000003a0: c19e 10bc 1822 d63c 5246 683c c8b9 473c
000003b0: f991 42bc a1d7 68bc 4a91 a7bb 6469 46bb
000003c0: 74de 563c b1a5 1cbb a254 31bd d192 903c
000003d0: 2f09 05bd 21c7 1cbd 031f 3abd 26e3 05bd
000003e0: 31d1 0dbc 4d85 aebc b1c5 98bc cd41 aa3c
000003f0: b736 9dbb f651 02bd 8943 943b d793 933c
0.0002046038 -0.00028576836 0.0036263417 -0.004658662 0.006632221 -0.019796524 0.0030338464 -0.005468867
0.012498643 0.022806242 -0.05317275 -0.01802152 -0.011108705 -0.0127755795 0.031169184 0.01745483
0.00043291695 -0.022438694 0.04188677 0.05869598 0.027320536 0.053397924 -0.024078896 0.08810159
-0.05408594 0.03302393 -0.058722697 0.009104968 -0.010693183 0.0633984 -0.012461232 0.011332628
0.041789044 0.031643145 0.039267328 0.007763957 -0.037808318 -0.034735564 0.016967786 -0.021111764
-0.028784199 0.021428937 0.021142524 -0.039385673 -0.00027885573 -0.04241759 0.010833729 0.021160018
0.025570147 0.030517112 0.01408508 0.021238336 0.005731703 0.023831783 0.024584113 0.03438347
0.00089974236 -0.039492104 -0.031636614 -0.009237537 -0.032728173 0.052979335 -0.03089129 -0.03449158
-0.092285246 -0.007351899 -0.08310497 -0.0031208093 -0.069580935 -0.016077843 -0.019200303 0.0028672575
0.018014772 -0.013403803 0.0008501723 0.008727086 0.028055182 0.004672625 0.038043454 0.009221474
-0.00038939816 0.027203927 0.019545292 0.03157529 -0.00040602553 -0.005695406 0.011984792 0.035371948
-0.0050563677 0.027237516 0.03218457 0.06942352 0.07328601 -0.002498065 -0.019182952 -0.053968925
-0.0051254747 0.029662797 -0.008404066 0.049071323 -0.030189238 0.019271042 0.010919664 0.028213723
0.019579206 0.03945538 -0.021218456 -0.011428623 0.0218555 -0.004229309 0.027151547 0.023509098
0.028817035 -0.026121223 0.03365207 0.06558006 0.043083694 -0.012142497 0.03241889 0.009127926
-0.04301615 0.016762145 -0.024120301 -0.035973515 -0.019141234 -0.03082341 -0.054891266 -0.036592204
-0.058378693 -0.05388668 -0.028838588 0.030674165 0.024558859 -0.042562958 0.049086582 0.01885251
-0.056965537 -0.015430716 0.0035732838 0.025536887 -0.039191604 0.02261352 -0.02844008 -0.0241796
-0.020329772 -0.0061320392 -0.015757525 0.02736718 -0.01649584 -0.018612662 0.00022000619 -0.029786492
-0.028429171 0.0011932811 -0.00533972 0.0010631412 0.035792485 -0.023526827 0.0018725331 0.018900298
-0.03635786 -0.0009958278 0.065991305 -0.0048392536 0.007156546 -0.07095648 0.052960504 -0.007538436
0.04871192 -0.066904776 0.035028722 0.02930886 -0.044767316 -0.03561656 0.03550754 0.02288272
-0.03975712 0.00471712 -0.038416874 0.012960442 -0.002071271 -0.00019928624 0.043593444 0.011398051
-0.061949987 -0.012933857 -0.018857153 -0.011501511 0.007882271 -0.04179241 -0.07577788 0.058074865
-0.043045875 -0.04267313 -0.0012298138 0.039047997 -0.037606273 0.068517864 0.028886162 -0.030166231
-0.07856242 0.04775294 0.08125968 0.019761847 -0.033683416 0.035555676 0.051785428 -0.055135664
-0.021997169 -0.07146656 0.027976587 -0.0027974024 0.04948814 -0.045457017 -0.036490586 -0.0031627696
-0.009265048 0.0018375188 0.016038746 0.0059211073 0.017523339 -0.012877338 0.0008324993 -0.0055123954
0.0119436635 0.0002452814 0.018450815 -0.019560564 -0.010575146 0.039529365 0.028129874 0.033256207
-0.008826912 0.026139304 0.014176922 0.01219029 -0.011875623 -0.014211566 -0.0051137554 -0.003027522
0.01311456 -0.002390247 -0.043293603 0.017648133 -0.03247946 -0.03827584 -0.04543973 -0.03268733
-0.008655832 -0.021303797 -0.018648954 0.02078333 -0.0047977823 -0.031816445 0.0045246524 0.018014831

st_gcn_networks.0.tcn.2.bias f4 [8]
00000000: 109a f4b7 5556 57b8 6818 c8b7 157a 5eb7
00000010: c1fe b7b7 58a5 3e37 873c fab7 3294 79b7
-2.9158808e-05 -5.1340397e-05 -2.3853223e-05 -1.3260656e-05 -2.1933929e-05 1.136338e-05 -2.9830508e-05 -1.4876061e-05

st_gcn_networks.0.tcn.3.weight f4 [8]
00000000: 7a9d bd3e a88a ae3e cac9 9b3e 1662 623e
00000010: a85d 683e 93bc ba3e 6266 c63e 77b8 a63e
0.37034208 0.3409016 0.3042739 0.2210773 0.22691977 0.36471996 0.38749987 0.3256261

st_gcn_networks.0.tcn.3.bias f4 [8]
00000000: 7634 1dbd b02d e33b 300f ee3c d968 a53c
00000010: 72c9 eebb 4c7c 4a3c 4919 083d 0ef3 c6bb
-0.03838011 0.0069329366 0.029059976 0.020191597 -0.0072871977 0.012358736 0.03322724 -0.006071455

st_gcn_networks.0.tcn.3.running_mean f4 [8]
00000000: b396 5f3c f3ec c43c a44a e5bc 735e f1bc
00000010: f465 183d c94c 2b3d 4293 a4bc 1840 f13b
0.013646769 0.024038767 -0.027989693 -0.029463982 0.037206605 0.041821275 -0.02008975 0.007362377

st_gcn_networks.0.tcn.3.running_var f4 [8]
00000000: 2154 e23b 68c0 b03b 1b3d 203b 62c6 543a
00000010: 14c6 113b 6fe7 d13b abbc c23b 7ec4 7c3b
0.0069070016 0.0053940304 0.0024450484 0.00081167195 0.0022243308 0.006405763 0.005942901 0.0038569267

st_gcn_networks.1.gcn.conv.weight f4 [24, 8, 1, 1]
00000000: 4af2 41bc 7104 29bd 214c 5b3d c28d 633d
00000010: b6ab a1bc 3345 a8ba 6a30 893b e03e 2e3d
00000020: 59b6 0e3b 20e2 8bbc e200 a83d 740a adbc
00000030: b21b 023d e2fc 16bd 2ca7 923d c09d 693c
00000040: 6a0c 873d abf5 7fbd 8b75 17bd 0787 943d
00000050: 4cd6 923d 0d67 a23d 33bc dabc a7c6 36bc
00000060: 8640 2b3c 16f2 c8bc 7886 17bd cd2a ebbc
00000070: 7588 9abd 6ecc c2bd ac94 f13c 9a5a c0bd
00000080: 6fba b8bc 6244 d53b c887 8b3d 08c6 33bd
00000090: 0b58 a13c 5bdd 4b3b 8451 003d bef9 3d3c
000000a0: a951 5e3c 9d9d bebd eb37 0e3d 4880 68bd
000000b0: 42ee 86bb 5ca8 563a dd87 abbd 0045 863c
000000c0: 03cb 08bd c125 07bd e0f0 7c3d c298 803c
000000d0: 1c6e db3c 3fc6 923c 33e7 27bd 4952 a4bc
000000e0: b843 9fbc 5fc5 2dbc 8ee7 adbc e37b 14bd
000000f0: 71df 6fbc 5930 613d f543 0c3c a20e 7b3d
00000100: 680f abbc d79a 8b3d 49b7 303c 4569 4dbc
00000110: 936a 33bd 5a49 c43a 69c6 963d 0b5b de3d
00000120: fc5d 64bd d88a 62bb ac93 4dbd 4936 51bd
00000130: febf 85bb 8b20 96bc 87c0 653d 4b49 9eba
00000140: 60fc f13b ac01 ecbb 6dd9 713d d5d1 17bd
00000150: 79a3 4abd 4335 d2bd d40b d33d d1b4 49bd
00000160: 0cc0 abbc 69d7 053e d9e3 a03d a47d ad3c
00000170: f9ec 84bd b48f 9b3d 91fd 1bbd aaea c1bd
00000180: 56ee 1abd a1ba d1bc 55a3 8f3d 8d80 233d
00000190: 2a04 9bba e92f ad3c 9908 dabc 8ba7 243d
000001a0: 132a b63d 5376 45bd 71ef 733b ff2d 59bd
000001b0: 392c dc3c bf2d afbd 12e2 9f3d f302 673d
000001c0: 823e b1bd c926 febd 730c 183d f246 643d
000001d0: 5c1b a4bd 936c acbc ba9f 013d 1faa 903d
000001e0: f3b6 313d a8ea ca3c 13e8 81bc f6de 30bb
000001f0: 6170 b2ba ebeb d83b 2735 eb3c 25ea f4ba
00000200: 5309 60bc 740a 50bc 081e 2abc c1ff 393d
00000210: ef5b 91bb dac6 2d3d 346c 72bd 2e27 54bc
00000220: 39c9 063d 1026 d33c 3b4d 163c 4cb0 56bd
00000230: 5c58 ae3b cc4b 513d 6552 7a3d df5f 323d
00000240: d781 713a ca11 a23b a526 07bc 0d5e 9bbc
00000250: 45a0 18bb dc60 6cbd 67dd 963d 3551 c13c
00000260: d6be af3d 455b 7bbc 86a3 d8bc 6f01 16bd
00000270: 2523 e9bc f868 06bd 30f1 153e 4714 8fb8
00000280: 72a8 8e3c 3aaa 16bd 750a 093c 7338 11bd
00000290: 0cb2 2a3c e6f6 d23b 68a4 b93b e885 babc
000002a0: 59f3 2bbc 59b9 11bd ec5d 0dbd 9ee0 503c
000002b0: cd95 babc 076e 57bd 9417 bcbc 5d7f 02bc
000002c0: 772f 963d 14ed ce3c 647c c83c 22cd a1bd
000002d0: 11e8 073d fb6f 4d3d 612d 2bbc 3cb0 c4bc
000002e0: 8918 a23b 22c2 0cbd 7b72 293d f38f 47bc
000002f0: bc8e 85bc 0a4a 0abd 0e4d 0ebc 1ccb a83d
-0.011837551 -0.041264 0.0535394 0.055555113 -0.019735198 -0.0012838006 0.0041866796 0.04254043
0.0021776168 -0.017075598 0.082032934 -0.021123149 0.031764694 -0.03686226 0.07160792 0.014258802
0.06594165 -0.062490147 -0.036977332 0.07252317 0.0716978 0.079298116 -0.026701069 -0.011155761
0.010452395 -0.024529498 -0.036993474 -0.028706932 -0.07545558 -0.09511648 0.029489838 -0.09392281
-0.022549836 0.006508396 0.068130076 -0.04389003 0.019695302 0.003110728 0.03132774 0.011595188
0.013569274 -0.09307406 0.034721296 -0.056762964 -0.004117758 0.00081885397 -0.08375523 0.016390324
-0.033396732 -0.03299499 0.061753154 0.01569784 0.026785903 0.017916797 -0.040991973 -0.020058768
-0.01944147 -0.010606139 -0.021228578 -0.03625096 -0.014640675 0.05497775 0.008561124 0.06129325
-0.02088137 0.06816643 0.010785886 -0.012537305 -0.04380281 0.0014975474 0.073620625 0.10857209
-0.055753693 -0.003456762 -0.05018966 -0.05107716 -0.004081725 -0.018326065 0.05609181 -0.0012076286
0.007384822 -0.0072023477 0.059045244 -0.037065346 -0.049472306 -0.10264065 0.103049904 -0.049244706
-0.020965599 0.13070454 0.078559585 0.021178074 -0.064905114 0.075957686 -0.038083617 -0.09468587
-0.03782495 -0.025601687 0.07013575 0.039917517 -0.0011826803 0.02114101 -0.026615428 0.040198844
0.08894744 -0.048208546 0.0037221576 -0.05302238 0.026876556 -0.08553647 0.07806791 0.056399297
-0.086545005 -0.124097414 0.037121248 0.05573172 -0.08013031 -0.021047866 0.031646468 0.07063698
0.043387365 0.024770096 -0.015857732 -0.0026988364 -0.0013613814 0.0066199205 0.028711868 -0.0018685503
-0.013674098 -0.012697805 -0.010383137 0.04540992 -0.004436008 0.042425968 -0.05918522 -0.012948794
0.032906745 0.025774986 0.009173687 -0.052414224 0.005320592 0.051097676 0.061113734 0.04354846
0.0009212768 0.0049459683 -0.00824896 -0.018965745 -0.0023288887 -0.05770956 0.07366448 0.023598293
0.08581321 -0.015341585 -0.026445162 -0.03662246 -0.028459141 -0.03281495 0.14642787 -6.822548e-05
0.017414305 -0.036783434 0.00836431 -0.035454225 0.010418426 0.006438124 0.0056653507 -0.02276893
-0.01049503 -0.035577152 -0.0345134 0.012748865 -0.022776509 -0.052595165 -0.022960462 -0.007964936
0.07333272 0.025259532 0.024473377 -0.07900454 0.0331803 0.05015562 -0.010447831 -0.024009816
0.0049467725 -0.034364827 0.041368943 -0.012180316 -0.016303413 -0.033762015 -0.008685363 0.08241865

st_gcn_networks.1.gcn.conv.bias f4 [24]
00000000: 576c a63b 91ab 493c 67e6 e0bb 3284 213d
00000010: a80f 283c f51e f3bb 3b8e f23b 297b 283b
00000020: 2d06 99bd 5fa2 c1bb b7af 0c3c 8002 083b
00000030: 0be6 4ebd 668c 5e3c c3ad 733d 0f36 c9b9
00000040: ae11 61bc e49c 29bd 1e05 aa3b dcd7 a93c
00000050: 80a5 203c 7458 aebc 7882 8c3c f5cf 53bc
0.005078833 0.012308971 -0.0068634036 0.039432712 0.010257639 -0.007419462 0.007402209 0.0025708175
-0.07471881 -0.0059092487 0.008586816 0.0020753443 -0.050512355 0.013583278 0.059491884 -0.00038377984
-0.013737125 -0.04140939 0.0051885983 0.020732813 0.009805083 -0.021282412 0.017152056 -0.012927999

st_gcn_networks.1.tcn.0.weight f4 [8]
00000000: d31a 753e cf15 553e 0120 9d3e b3cb a33e
00000010: 09d9 273e 825e 843e 0c63 9b3e 0638 7e3e
0.23936014 0.208091 0.3068848 0.31991348 0.16391386 0.25853354 0.30349004 0.24826059

st_gcn_networks.1.tcn.0.bias f4 [8]
00000000: eb63 45bc e5c4 b73a 60fb 9d3c 67b7 433c
00000010: 17f3 07bc e621 a8bb 7e8e fbbc d694 97bc
-0.012047748 0.0014020471 0.019284904 0.011945582 -0.008297703 -0.005130994 -0.030707594 -0.018503588

st_gcn_networks.1.tcn.0.running_mean f4 [8]
00000000: 9209 fdba 81b3 4ab8 996f e739 6a07 083b
00000010: 2b7c b0ba 16c1 9aba 3ba2 513b 9284 843a
-0.001930522 -4.832773e-05 0.000441429 0.0020756372 -0.0013464739 -0.0011806812 0.0031987566 0.001011031

st_gcn_networks.1.tcn.0.running_var f4 [8]
00000000: d79f be36 e703 d636 272d ba37 b3ee 7e37
00000010: 03bf 0137 89ba ef36 b89e bc37 b5ac 2537
5.681049e-06 6.3781513e-06 2.2193954e-05 1.5195156e-05 7.733473e-06 7.1444706e-06 2.2485256e-05 9.874978e-06

st_gcn_networks.1.tcn.2.weight f4 [8, 8, 9, 1]
00000000: 9abf ec3a 13d3 20bb 9ee7 f0bb 7e1f 26bc
00000010: 3996 0239 2de5 a7bc 834c 243b 6bdf e43b
00000020: 6916 183d 3b33 a2bc d70a 96bb fc63 ba3c
00000030: 74af 233c 5851 13bd 7afe 00bc 3de3 853c
00000040: b2fb c63c d9d3 2cbc 2d02 af3c 9ee3 c5bb
00000050: 4440 113d 9088 9dbc 7915 313c 2fd1 1dbc
00000060: 82dd 1e3d ad39 f4bc 9c95 14bd 5fb9 6f3c
00000070: 5cd4 843c ebc5 8a3c d1a0 eb3b 35a9 e13b
00000080: 4c8f 093d dd53 23bd 5826 23bd c4bd 12bd
00000090: d753 5dbc 6381 37bc a0c1 5538 3f68 cebb
000000a0: 758e 06bc 31de 1d3d f5d3 d63c 23ac 943c
000000b0: 33ac 083d 3820 8ebc e0ab f5bc 29da e33c
000000c0: c9d6 613c 2d2d 08bc 4981 9cbc bd00 04bc
000000d0: 5b59 b2bc 984c dbbb 849b 9dbc 6675 01ba
000000e0: 5985 8b3c bcfa a1bc 9885 c73c 0222 053d
000000f0: bfa7 e63c 56bc f9ba 1e49 20bb 35a6 913c
00000100: c8ff 1f3c d44b 08bd d178 3ebd 7b41 3f3c
00000110: 80b2 94bc 94fb 44bc db4e ee3b d092 193b
00000120: a09b 3abc b2f9 07bd 25ea 07bc cc04 40bc
00000130: d448 02bd 9d25 fcbc 2a46 b83b 5982 223c
00000140: 0fdd e7bc 3481 8dbc a337 a3bc 765d 4fba
00000150: 9648 43bd 119b ee3c 4244 473c 959b 073d
00000160: 1763 3e3c 70c8 fd3c 5d3a 9fbc 84d0 84bc
00000170: 4f34 1f3c c7c4 c63a 955f c73c 6747 183d
00000180: 643e 073c b227 283d 742a 1b3d 7435 033c
00000190: 9318 233d 6226 153c bf78 a63c c22c 62bb
000001a0: 076a 353d 902c 633c cbe2 41ba 4d83 d83c
000001b0: 93a3 fcbc 8404 47bb b400 fcbb eff8 e7bc
000001c0: 1430 11bb 27c9 e0bb 7bef 133c 4d56 aebc
000001d0: 5cfa ce3c 4c14 c53b 6a45 8ebc c36f 7aba
000001e0: df29 42bc fe31 44bc 0f23 283a c4da 983b
000001f0: e7b7 333c 3c99 f73c 1a3f 5fbc 42f7 d63b
00000200: af1c d93c 281c d8bc c3b0 7b3c 2995 103c
00000210: b388 933c ad29 afbc 6a3e 1e3d ee00 1bbc
00000220: 6a42 a4bc 4372 a4bc 72a6 65bc e22f c3bc
00000230: 2f3e 3f3c 6479 423c 3d89 b0bb 066d 043b
00000240: 8f7c 2a3c 954a 8cbd 6705 f0bc bad1 a6bb
00000250: 7d5a 9bbc fda7 2e3b f96c 24bc 652e 31bd
00000260: f3db 21bd d640 4c3d 0a2a 57bc 4d0e a4bb
00000270: d54a 4c3b a8dd 43bc 881e e3bc 3646 adbc
00000280: 1fb3 4b3c cbb7 cdbb 60ae 1b3d feb6 13bd
00000290: 72d0 793c 832c 313d 975e fdbc 1879 993c
000002a0: 6869 ef3c 9e54 433c 4bdd 793b 06dc cebc
000002b0: 263b fb3c 8586 1fbd 0eff 503c e568 9cbc
000002c0: f60f a0bc 66f4 60bd 7d39 873c fe9d 16b9
000002d0: 14f9 a4ba f82e 0e3d 8c27 e9bc 96a4 e33c
000002e0: c831 1bbc 37de 183c 6d56 633c c103 cabc
000002f0: 2a5e b13b b520 b63c 865b e1bc a21c 1a3d
00000300: 82ef 20bc 4279 99bb b7b9 35bd 60ea b43b
00000310: b0f7 7abd 7fab 22bd ff64 23bb 9095 d8bb
00000320: e28d b13c 5bba 4b3d 4eff 643b 2b58 17bc
00000330: b3c9 343c 29a2 4d3c ce2b 443d 2b1a 183c
00000340: 0e96 113d 948f ca3c 38bb 0abc 7c69 fa3b
00000350: c10c 88bc 2652 0a3a 4250 03bc b65b 9dbb
00000360: b355 233a 99c2 0ebc 3cbd 043d cb2a 98bc
00000370: 4caa 12bd fab8 b7b9 c99c fdbc 6883 3ebd
00000380: 332b 063d 168f 513d c0d8 a23b 8317 043c
00000390: 218c 933c 2df4 2e3d a25e ec3b 034c f3bc
000003a0: d837 18bd 0d1e 913c 18f1 d93b c814 6b3c
000003b0: 857c db3c f750 ccbc 3493 913c 5333 f53b
000003c0: 5b76 053c fef0 1b3c b075 3d3d a93f 0fbc
000003d0: 1003 90bb 24a1 69bc 1991 dd3c 35a3 edb8
000003e0: 8173 92bc 39e1 20bc 1139 d93c 89b1 50bd
000003f0: a90d 85b9 9f30 8e3b bb96 31bc 8f7e fbbc
0.0018062473 -0.0024539873 -0.0073518297 -0.010139344 0.00012453728 -0.020495022 0.0025070019 0.0069846413
0.037130747 -0.01979982 -0.004578929 0.022752754 0.009990562 -0.035966247 -0.007873172 0.016343707
0.02428994 -0.010548555 0.021363342 -0.006039097 0.03546168 -0.019230157 0.010808342 -0.009632393
0.038785465 -0.029812658 -0.03627549 0.014631598 0.016214542 0.016940078 0.0071908017 0.006886626
0.033583924 -0.0398749 -0.03983149 -0.035825506 -0.0135087585 -0.011200282 5.0963485e-05 -0.006299048
-0.008212675 0.038541976 0.026224116 0.018148487 0.033367347 -0.017349347 -0.029989183 0.027813988
0.013784119 -0.008311552 -0.019104617 -0.008056817 -0.021771124 -0.0066924803 -0.019239195 -0.0004938453
0.017031359 -0.01977288 0.024355695 0.032503136 0.02815616 -0.0019053321 -0.0024457644 0.017779449
0.009765573 -0.03327544 -0.04650194 0.011673327 -0.018151522 -0.0120228715 0.007272584 0.0023433454
-0.011389643 -0.033197112 -0.0082955705 -0.011719894 -0.031807736 -0.030779654 0.0056235986 0.009918773
-0.028303651 -0.017273523 -0.01992399 -0.000791035 -0.047676645 0.029126676 0.01216227 0.03310736
0.011620305 0.030979365 -0.01943701 -0.01621271 0.009717061 0.0015164845 0.02433757 0.03717747
0.008254621 0.04105348 0.037882283 0.00800835 0.039818358 0.009103389 0.020321248 -0.003451154
0.04429057 0.013865605 -0.00073961605 0.026429797 -0.030839717 -0.0030367682 -0.0076905135 -0.028316943
-0.00221539 -0.0068599167 0.009029265 -0.021281386 0.025265865 0.0060143825 -0.017367084 -0.0009553397
-0.011850803 -0.01197481 0.00064139155 0.004664751 0.010969139 0.030224435 -0.013625884 0.006560237
0.026502935 -0.026380613 0.0153619675 0.008824625 0.01800952 -0.021382177 0.03863374 -0.009460671
-0.0200512 -0.020074015 -0.014016734 -0.023826543 0.011672541 0.011869762 -0.005387454 0.0020206585
0.010405674 -0.06850163 -0.029299451 -0.0050909193 -0.018964047 0.0026650422 -0.010035747 -0.043257136
-0.0395164 0.04986652 -0.0131325815 -0.0050065876 0.0031172533 -0.011954702 -0.02772452 -0.021151643
0.0124328425 -0.0062780133 0.038008094 -0.036063187 0.015247451 0.04325534 -0.030928893 0.0187345
0.029225066 0.01192203 0.0038126286 -0.0252514 0.030667853 -0.038946647 0.012756122 -0.019092986
-0.01953886 -0.054920577 0.016506905 -0.00014363971 -0.0012586438 0.03471276 -0.02846124 0.027788442
-0.009472318 0.009330324 0.013875586 -0.024659993 0.0054128366 0.022232393 -0.027509462 0.037624963
-0.009822728 -0.0046836445 -0.044366565 0.0055211037 -0.06127137 -0.039714333 -0.0024932025 -0.006609626
0.0216741 0.04973827 0.0034942213 -0.0092373295 0.011034417 0.012550869 0.047893338 0.009283583
0.035543494 0.024726667 -0.008467488 0.0076419692 -0.016607644 0.00052765233 -0.00801474 -0.0048021926
0.0006230727 -0.008713388 0.03240703 -0.018575093 -0.03580694 -0.00035042298 -0.03095855 -0.046512038
0.03275604 0.051161848 0.0049696863 0.008062246 0.018011155 0.042713333 0.0072134295 -0.029699331
-0.03716263 0.017714525 0.006651055 0.014348216 0.026792774 -0.02494095 0.017770387 0.007482925
0.008145894 0.009517906 0.046254814 -0.008743205 -0.0043948963 -0.01425961 0.027046727 -0.0001133144
-0.017877342 -0.009819322 0.02651647 -0.05095056 -0.00025377914 0.004339292 -0.01083916 -0.030699996

st_gcn_networks.1.tcn.2.bias f4 [8]
00000000: f90c 7b37 6015 02b8 5b6c 37b8 e6e4 3438
00000010: 6bca 56b8 9209 0437 e7d7 8ab8 e229 8237
1.4963786e-05 -3.1014322e-05 -4.3731514e-05 4.3128523e-05 -5.1210092e-05 7.870041e-06 -6.620568e-05 1.551671e-05

st_gcn_networks.1.tcn.3.weight f4 [8]
00000000: 7a8d 653e 0078 863e fa87 a23e 4c04 9a3e
00000010: e518 603e 7028 ae3e fc01 943e 74b9 3e3e
0.2241725 0.26263428 0.31744367 0.30081403 0.21884497 0.34015226 0.28907764 0.18625432

st_gcn_networks.1.tcn.3.bias f4 [8]
00000000: a01c e53b b1a2 25bc b63a 70bc 8b7a cfbc
00000010: 61e9 20bb f5b9 62bb abd2 1dbb bf6e b13b
0.0069919378 -0.010109589 -0.014662435 -0.025326988 -0.0024553167 -0.0034595702 -0.0024081867 0.0054148133

st_gcn_networks.1.tcn.3.running_mean f4 [8]
00000000: d943 25bb 1b96 853c 4004 eebb 1525 593b
00000010: e14f 56bb 986d d43b c46b 65bc 6c69 f8bb
-0.0025217442 0.016306927 -0.0072636902 0.0033133675 -0.003270142 0.006482791 -0.014002744 -0.0075809266

st_gcn_networks.1.tcn.3.running_var f4 [8]
00000000: 84d1 aa39 d006 ea3a 2687 623a 3bd8 203a
00000010: 3fa2 a039 8834 b33a 5852 273a 3e0e 333a
0.00032581028 0.0017854813 0.00086413545 0.00061357365 0.0003063846 0.0013672272 0.00063828146 0.00068304304

st_gcn_networks.1.residual.0.weight f4 [8, 8, 1, 1]
00000000: ab43 1cbd d049 6ebd f2a1 dcbd 9cd2 99bc
00000010: 23e5 84bd dda8 f73c 19c4 5e3d bf20 74bc
00000020: 14d3 9ebd 7478 47bd c8b2 8bbc 8373 843a
00000030: 6180 56bb daa7 bb3d 143e c83d cd1c c5bd
00000040: a1b6 03be 5d08 f1ba 7788 953d 967c 3e3a
00000050: 721e 0cbd 638a 653d ebb5 0ebc 5b6e 85bd
00000060: 5a2c 9e3d 0ea2 733c df9d 73bd c203 833b
00000070: 9c61 abbc 9d5f afbb a3bf 893d b87b ae3d
00000080: cd21 36bd d085 f33c 6e29 b7bd 8533 4e3c
00000090: 070b 113d c1aa 13bd f7fe c53d 9930 833d
000000a0: dfb5 fa3d 1436 ef3c 7795 d73d 2155 53bc
000000b0: d8bb 75bd 9562 35bd 6975 01bd c6fa a5bd
000000c0: 3265 b83c 1663 c83c 395c a0bd 560f b83c
000000d0: 6bb4 79bc f955 dabc 5e40 7ebd 536c 6f3c
000000e0: 914a 95bc 1f59 003d d507 8d3d c3b5 3a3c
000000f0: 1e67 833d 0ef2 be3d 5212 babd 727b 0dbd
-0.03815047 -0.05817586 -0.10773076 -0.018777184 -0.06489017 0.030231887 0.054386232 -0.014900385
-0.07755104 -0.048698857 -0.017053023 0.0010105226 -0.0032730328 0.091628745 0.097774655 -0.09624634
-0.12862636 -0.0018389333 0.07301419 0.00072664896 -0.034208722 0.05604018 -0.008710365 -0.06515189
0.07723303 0.01487018 -0.05947673 0.0039982507 -0.020920567 -0.005351974 0.06726005 0.08519691
-0.04446583 0.029726893 -0.08943449 0.012585525 0.035410907 -0.036051515 0.09667771 0.06405754
0.122417204 0.029200591 0.10526555 -0.012898714 -0.059993595 -0.04428347 -0.03160611 -0.08104472
0.022509191 0.02446131 -0.0783009 0.02246825 -0.015240769 -0.026652323 -0.062073104 0.014613229
-0.018224033 0.031334992 0.068862595 0.011395874 0.064161524 0.09323512 -0.090855256 -0.034541555

st_gcn_networks.1.residual.0.bias f4 [8]
00000000: 444b 32b7 61e8 2bb8 7067 ddb7 1d8c 7737
00000010: c070 88b7 9b21 9636 d9fa cd36 9cad 1237
-1.0627151e-05 -4.0985997e-05 -2.639342e-05 1.475497e-05 -1.6264967e-05 4.4742605e-06 6.1386786e-06 8.7427e-06

st_gcn_networks.1.residual.1.weight f4 [8]
00000000: 3f60 6a3e 6834 5d3e 5316 883e 18b3 6e3e
00000010: 1a12 5c3e 9421 803e 1799 b13e c457 1c3e
0.22888277 0.21602023 0.26579532 0.23310506 0.2149128 0.25025618 0.3468711 0.15267855

st_gcn_networks.1.residual.1.bias f4 [8]
00000000: a01c e53b b1a2 25bc b63a 70bc 8b7a cfbc
00000010: 61e9 20bb f5b9 62bb abd2 1dbb bf6e b13b
0.0069919378 -0.010109589 -0.014662435 -0.025326988 -0.0024553167 -0.0034595702 -0.0024081867 0.0054148133

st_gcn_networks.1.residual.1.running_mean f4 [8]
00000000: b47d a6bc df80 d4b9 fd99 0abc efaf ad3c
00000010: e526 0a3c 25af 343b 0eaa 6abc 5f87 553c
-0.020323612 -0.00040531807 -0.008459565 0.021202056 0.008432125 0.0027570215 -0.014322771 0.013032763

st_gcn_networks.1.residual.1.running_var f4 [8]
00000000: e4f2 3d3a 4ace c13a a428 5e3a fad5 6f3a
00000010: 6de0 923a b70d b43a 68f4 373a 9a9d 3b3a
0.00072459714 0.001478621 0.0008474684 0.00091490115 0.00112058 0.0013736997 0.00070173154 0.00071569683

st_gcn_networks.2.gcn.conv.weight f4 [48, 8, 1, 1]
00000000: e690 4b3c ef9a 5ebd 7f35 803c b20d 21bd
00000010: c8b6 643d a545 203c 92cf 84bd b1cb 7abc
00000020: a9e3 a1bc 0e04 7fbc 2ca6 39bb 43cb f5bc
00000030: 8634 2cbc c76a 8a3c 4a31 8f3c ad42 3dbb
00000040: d21e a93c def6 c8bc d800 253c 5537 1fbd
00000050: 64c0 86bc a3f8 aa3b 7f7a 47bc 63e8 593c
00000060: a1f3 0c3a 0aeb a6bb a267 8bbc e6d5 9abc
00000070: 7d18 7c3c 848e 51bd ccf8 08bc 18e0 4c3c
00000080: f9a7 073c ac30 033c cdc0 aabc 761a 0b3c
00000090: d711 b7bc d715 0c3d 84bb 9439 86ed adbc
000000a0: 5704 553d 5bcc cf3a ab59 9abd 2bf2 94bc
000000b0: f32d c53d 1f6b 58bc 8370 c6bd adc6 64bc
000000c0: fc99 2abd 829a 8dbd 1222 83bd 0889 963b
000000d0: 8791 41bd 0e46 703d eaa9 aabd 3208 ca3c
000000e0: 2db3 a7bc 0551 0cbd 14e2 0c3d 90a4 003b
000000f0: b8af 893a 2c20 d3bc 3c24 643b c177 943b
00000100: 3c70 b53b 0fd5 0fbd ebfd 1abd c40a a53b
00000110: 1a59 56bd 4c39 543d 3287 a7bc 4b3c 22bd
00000120: 162d 12bc bc92 c3bc 53a8 db3c 3417 aa3c
00000130: cc32 b13c a267 0abd 2cf5 273c 62fe 6b3c
00000140: 7a7e 48bb 2651 03bd 1ae9 c23c 92b2 983b
00000150: 14a1 313d 221b 603d 5ca6 5f3c f7ff 14bc
00000160: 5790 f43c d99a 33bd 8208 38bd a2f8 233d
00000170: d4ba 4dbc 9033 8bbc 8915 273c a799 a8bc
00000180: 1656 053d de68 27bd b7a4 bbbb 32be 923d
00000190: 3f02 e4bc e631 343c b50b 3d3c b068 c8bb
000001a0: a790 c4bb ec69 1bbd 08cb 823d d32e 3cbc
000001b0: d497 d5bc 5aac 91ba 2f04 163c a5e7 ae3c
000001c0: aec3 fabc a92e c23c 108d 103d 4a20 13bd
000001d0: b75d 8b3c 444d 1a3d 6c55 e53c ed8f 2e3c
000001e0: d7ae c2bc 13e8 313b e6fa 5cbc fc88 dabc
000001f0: a09b d4bc 8130 753b 1994 62bb ba03 5cba
00000200: c3a0 033d 51dd 01bd 3c27 e03c ea9f 5abd
00000210: 6902 2b3d 155f b03d 487a b43d 5167 02bd
00000220: ef85 42bb 4f8c 2cbd 0341 9bbc 1feb e8bc
00000230: c25b 83bc 9a5a d63c 2f8e 1f3d 6b6c 7d3c
00000240: 6bd1 223c 5fcf 463b 8f66 703d e8b1 7ebb
00000250: 33d6 3c3d 91a6 dabb 73fc a83c be9c f4bc
00000260: 026b e73c 90c6 213d de84 15bc ab6d c6bc
00000270: cb99 043d 8a9f 34bd 4879 f6bc 0620 0cbd
00000280: d71f 11bb 4f16 cabc 4eb6 9c3c 66ae d4bc
00000290: 0efa e8bb 2211 1a3d 36db ac3c e6fa 653c
000002a0: b547 b93c 5877 3b3d 2625 b8bc 2861 24bd
000002b0: 5132 ba3c 24ee ddbd b309 a13c 756d 32bc
000002c0: 8e87 653d fd20 163d 5b3e 93bd 368f 113d
000002d0: 9b25 903d 94ca 12bd e4ae 7ebc 3516 17bd
000002e0: d935 72bc 6051 61bd 5662 103d c402 d53c
000002f0: 4acf 1fbd 4d8f 2d3d 52d1 14bb c40f 273d
00000300: c004 103d 9584 3c3d 7a02 fdbc bdf9 c63c
00000310: 86e9 6f3d ad82 613b eb9c 453d 4a4f 5ebc
00000320: 44f7 b3bc 1969 88bc b34e 93bc 7e2a b93c
00000330: 3ca9 0bbd 20e4 373d 1cc2 ed3c 0256 e5bc
00000340: ad22 213c da26 50bd 4ab2 4abb 8de3 013d
00000350: fa4f 54bc 71e0 8bbb d7a7 633a fe04 213d
00000360: aef9 4f3d 37b4 a93d 2c9a 443c 391a 0c3c
00000370: 1d93 43bd 226d 87bc 98ed b43d 592f 483d
00000380: dbaa bf3d 05b5 27bc cce4 e2bb 092f 57bd
00000390: 11bd f7bc b83f 78bc de9a 013d 6a4d eaba
000003a0: 095a 2d3c 3cfd 493d d4ef 94bd cf24 a53d
000003b0: 4c58 f0b9 bc81 85bd b19d 81bb 024d a33d
000003c0: 0f57 99bb 627e b1bc bb08 85bc a2ea 9abc
000003d0: 9aba be3c aa6e 273c ef17 f0ba 23f4 93bc
000003e0: 6219 debb 96be 6cbc a62a c13c da48 e73c
000003f0: 4c09 a13c ed79 713c 20f2 233d 1407 6abb
0.012424683 -0.054346975 0.015650509 -0.0393197 0.055838376 0.00978223 -0.064849034 -0.015307353
-0.019761877 -0.015564932 -0.0028327806 -0.03000415 -0.010510569 0.016896619 0.017479558 -0.0028878853
0.02064458 -0.024531778 0.010071002 -0.038871128 -0.01644916 0.005217628 -0.012175201 0.013300034
0.00053768797 -0.005093937 -0.01701719 -0.018900823 0.015386698 -0.051161304 -0.008360099 0.0125046
0.008279794 0.00800721 -0.020843888 0.0084901955 -0.022347374 0.034200516 0.0002836847 -0.021231424
0.052006092 0.0015853749 -0.07536634 -0.018181881 0.09627905 -0.013209133 -0.09689429 -0.013963384
-0.041650757 -0.06914236 -0.06402983 0.004593972 -0.047257926 0.05866056 -0.0833319 0.024662111
-0.02047118 -0.034256954 0.034395292 0.0019629337 0.0010504639 -0.025772177 0.0034811636 0.0045308773
0.005537061 -0.035115298 -0.03783981 0.0050366838 -0.052331068 0.051812455 -0.020450208 -0.03960828
-0.008921882 -0.02387368 0.026813662 0.020763017 0.021630667 -0.03379024 0.010251325 0.014403911
-0.0030592964 -0.03205981 0.023792792 0.004659959 0.043366507 0.054713376 0.013650503 -0.00909423
0.029853983 -0.043848846 -0.04492999 0.040032037 -0.01255675 -0.01699236 0.0101980055 -0.02058108
0.0325528 -0.040871494 -0.0057264226 0.07165183 -0.027833102 0.010998225 0.011538436 -0.0061159953
-0.005998689 -0.03794281 0.063863814 -0.011485773 -0.026073374 -0.0011113987 0.009156271 0.021350691
-0.030610885 0.02370389 0.035290778 -0.035919465 0.01701246 0.037671342 0.027994834 0.010654432
-0.02376501 0.0027146384 -0.013487553 -0.026676647 -0.025953114 0.0037412944 -0.0034573136 -0.0008392889
0.032135736 -0.031705204 0.027362458 -0.053375162 0.041750345 0.086118855 0.08812386 -0.03183681
-0.0029681881 -0.042125996 -0.018951898 -0.028432427 -0.016034964 0.026166249 0.038953956 0.015467743
0.009937624 0.0030336005 0.058691557 -0.0038863365 0.046102714 -0.0066726883 0.02062819 -0.029859897
0.028249267 0.039496005 -0.009125916 -0.024222216 0.03237323 -0.04409746 -0.030087128 -0.034210227
-0.0022144222 -0.02466884 0.019129898 -0.025962066 -0.007109887 0.037613995 0.021100622 0.01403687
0.0226172 0.045768112 -0.022478651 -0.040131718 0.02272907 -0.10836437 0.019657945 -0.010890354
0.05603748 0.036652554 -0.07189628 0.035536967 0.07038423 -0.035837725 -0.015544627 -0.036886413
-0.014783346 -0.055009246 0.03525003 0.026002295 -0.039016046 0.04237299 -0.0022707772 0.04078652
0.03516078 0.046024878 -0.03088497 0.024289006 0.058572315 0.0034410164 0.04824535 -0.013568709
-0.021968491 -0.016651677 -0.017981863 0.02260327 -0.03409694 0.04489529 0.029023223 -0.027995113
0.0098349275 -0.0508183 -0.0030929022 0.03171115 -0.012958521 -0.004268699 0.0008684373 0.0393114
0.050775222 0.082863264 0.011999648 0.008551174 -0.04774772 -0.01653153 0.0883438 0.04887328
0.0935876 -0.0102360295 -0.0069242474 -0.05253509 -0.030241521 -0.0151519105 0.031641833 -0.0017875854
0.010580548 0.04931377 -0.07272306 0.08063661 -0.00045842153 -0.065188855 -0.003955566 0.079736724
-0.0046795676 -0.02166671 -0.016239515 -0.01891071 0.023282338 0.010219255 -0.001831768 -0.01806075
-0.006777928 -0.014449736 0.023579907 0.02823298 0.019657753 0.014738542 0.04002583 -0.0035709785

st_gcn_networks.2.gcn.conv.bias f4 [48]
00000000: 3512 2ebc 2942 1b3c 48d2 8cbc 592b 553c
00000010: 117d 94bb f31d 8dbc 852f e83c bd06 80bc
00000020: 8f18 6dbb 0269 81bc dba0 8cbc f7bd 9ebb
00000030: 41a2 f9bc 35dd 14bc 89d3 96bb ab4f c23b
00000040: a961 6ebd 9ce7 69bc 6bb8 9fbb f400 073c
00000050: f945 2b3c b94c 73bc 71d7 2fbc c8df 86bb
00000060: 07fe 4ebd 8357 22bc c0c9 92bc 572c 4dbd
00000070: c769 be3c e409 d43b bf7b f1bb ebf5 22bc
00000080: 4144 443b d64f 1b3c 088f 9cbb d3a7 9d3b
00000090: cefd a2bc fe5a 253c 0036 a2ba 42af 8137
000000a0: 9751 c1bb e9b0 e53b 0e22 63bb ac6c dfbc
000000b0: 0b1c e03c 2273 89bc 2613 663c cc15 1d3b
-0.010624458 0.009476223 -0.017190114 0.013010823 -0.0045315106 -0.017226195 0.028342972 -0.015628213
-0.0036177968 -0.015797142 -0.017166546 -0.004844423 -0.030472877 -0.009085943 -0.0046028537 0.0059299073
-0.058198605 -0.014276411 -0.0048742793 0.008239973 0.0104536945 -0.014849835 -0.010732518 -0.0041160323
-0.050535228 -0.00990856 -0.017918468 -0.050091114 0.023243798 0.0064709056 -0.007369488 -0.009946327
0.002994791 0.009479484 -0.004777793 0.004811266 -0.019896414 0.010092495 -0.0012375712 1.545961e-05
-0.005899619 0.0070096147 -0.003465775 -0.027273498 0.027357122 -0.016778532 0.014042651 0.002396929

st_gcn_networks.2.tcn.0.weight f4 [16]
00000000: ba7b 7a3e 9aec f43d 19fa 383e 0e70 113e
00000010: 0422 803d 51a6 833e e767 413e 12fe 3f3e
00000020: 7344 293e 2d7a f73d 311e 0f3e 9e8c 3f3e
00000030: afa9 1d3e dbfb 2c3e fb06 bf3d d312 be3d
0.2446126 0.11959191 0.18064155 0.14202902 0.06256488 0.25712827 0.18887292 0.18749264
0.16530018 0.1208385 0.13976361 0.18705985 0.1539676 0.1689295 0.09327503 0.09280934

st_gcn_networks.2.tcn.0.bias f4 [16]
00000000: 8985 cabc a033 bd3a 6939 f6bc 7765 c9bc
00000010: dca6 203c 5ec5 f0bc df07 90bc 905f 1ebd
00000020: aa68 12bd 1cd5 c0bc 58a0 1ebd df95 edbc
00000030: ae0d 23bd efbb 66bd 5cce a6bb 3311 fdbc
-0.024721878 0.0014434941 -0.030056672 -0.024584515 0.009805407 -0.029390987 -0.017581878 -0.038665354
-0.035744347 -0.023539118 -0.038727134 -0.029002128 -0.039807968 -0.05633157 -0.005090518 -0.03089199

st_gcn_networks.2.tcn.0.running_mean f4 [16]
00000000: ea88 13bb 2b18 28ba d46e 07ba 8c30 05ba
00000010: 611d 4d39 7863 53bb 3f71 89ba d4f4 8dba
00000020: ffb0 f5ba a1b7 06ba 54e5 cdba 9559 1cbb
00000030: 5084 453a 4c2a cab9 2a91 093a 974d 463a
-0.0022512027 -0.0006412293 -0.0005166356 -0.00050807814 0.00019561268 -0.0032255333 -0.001048602 -0.0010830411
-0.0018744766 -0.0005139057 -0.0015708604 -0.0023857106 0.000753467 -0.00038559956 0.00052477664 0.00075646624

st_gcn_networks.2.tcn.0.running_var f4 [16]
00000000: a0df 0b37 2a68 b036 fa85 8a36 757c 0a37
00000010: 5582 3d36 f470 cf37 78cb f036 18b7 6736
00000020: 95a3 e336 dc75 5436 3a74 3636 6d13 a836
00000030: 7b4b 8636 2908 a336 3ebc da35 9bb6 1336
8.337112e-06 5.257335e-06 4.1283174e-06 8.254418e-06 2.8239058e-06 2.472892e-05 7.1762443e-06 3.4528257e-06
6.7841706e-06 3.1659065e-06 2.7187766e-06 5.0090516e-06 4.0022983e-06 4.8587285e-06 1.6297051e-06 2.2010997e-06

st_gcn_networks.2.tcn.2.weight f4 [16, 16, 9, 1]
00000000: 3d09 d3bb c5e4 dbbb cb0e 8abc 7ec3 ebbb
00000010: 809f a9bc 614e 163c dd98 9dbb b305 97bc
00000020: 1675 98bc 3603 3a3c a382 f63b 3413 1c3c
00000030: 3bfa 09bc 0dfd 223c 2fc0 0dbc 9de0 b8ba
00000040: 8263 4ebc f726 a7bc b68f 183c 83ee 943b
00000050: 4755 0f3c 0ba8 19ba d068 d23b e152 55bc
00000060: 2e41 f23a f1c9 97bb 91a1 d0ba f021 2fbb
00000070: ba5d b5bb 266a 183b 00ed 55b8 aef4 c239
00000080: f89c bc3c 4a3c ecbb 200a 46bb 5f1e 1c3c
00000090: f8c8 c83a 70b4 643c c62e 0ebc f550 10bb
000000a0: 1a01 0cbc fba2 b6ba c070 a23a bbc4 65bc
000000b0: 8164 72bc 39a5 913c 3387 85bc ec5d 6d3c
000000c0: fc53 193c f19c 993a f192 033c 8c59 0ebc
000000d0: df38 5abb a4f9 a23c 3df0 a43c 3de4 a03b
000000e0: 3687 bc3a 84a7 e73c ca57 8d3c 9fe9 263b
000000f0: 9513 723b 09df 823c f65e e83c f8a9 06bb
00000100: 87b7 8b3b 68ab 10bc a2f8 17bb 967c 9cbb
00000110: a11c febb 5669 813c 4ab9 edbb ccc0 27bc
00000120: b96d 903c 813a 983c 931d 013b 8df6 363c
00000130: 0042 903b eed6 7bbc 1cbf 4cbb 74c2 f53b
00000140: 1173 36bc 149a e8bb a417 773c 3ac3 16ba
00000150: 2901 df3c e11b 14ba 52d6 8ebc 0399 913c
00000160: a089 eb3b d31c 27bc 536c a8bb a7b7 3d3c
00000170: bb6c 12bc 8062 f83b 5a29 f93b e369 1ebc
00000180: cd85 553c d835 803c 9a07 28bc d6b5 ab3c
00000190: 3c60 c3ba 0843 92bc a432 96bc 5703 84bc
000001a0: 0310 aabb a65b 05bd 0cee 97bb 60a3 cb3c
000001b0: 0acf f2bb 1fb5 ab3b 05a6 b33a 829d afbc
000001c0: 4419 4fbb ee32 98bc ff53 18bc 4983 54bc
000001d0: 14f3 6ebc eab7 8d3c 32f7 25bc dcb3 bebc
000001e0: 5177 233b efbe fdba 7c6f d8ba 642e 13bc
000001f0: ee66 b03b ed83 f23c 288c 95bc d21c 68bb
00000200: 1046 4dbc 7d34 1abc c234 6bbc d77c 11bc
00000210: 851b 51bb 2b54 9dbc 9cd6 18bd 8e0d 643c
00000220: 01d4 693c bbba a5ba 3326 d13a 8690 13bc
00000230: d731 b6bc e217 6f3c eb8f fbbb 7f4b 25bc
00000240: 7b24 89bb ab21 8bbb 1c43 8c3c a9cc 273c
00000250: 8fae 0f3c 1919 683c 3a05 953c c84f 53bb
00000260: b0ab af3c 2596 8cbc 9824 4f3c 39e8 a1bb
00000270: 5b7b 1cbc 807f 94bc 6145 7b3b f522 e0bc
00000280: dfe5 003c 9b26 33bc d61f 00bb 31b3 513c
00000290: 0033 dfbc b9d7 963c c830 51bc a596 c4bc
000002a0: 7e8f e8ba 6473 28bc a1b4 d3bc ab06 a2bc
000002b0: 01cb 6bbc 3ffc abbc abc7 643b a6c3 aebb
000002c0: 1165 63bc 5b9e 31bc 936b d6bc 3605 9abc
000002d0: b8ef 243c 9392 e7bc 4b6d 18bc ddc6 87bc
000002e0: 5e10 68bb 6565 92bc 30fb c5bb 10f4 613a
000002f0: 68a4 e43b 0c09 8fbc b82c 15bc 5fc7 5fbc
00000300: 11b6 fdbb 4485 b9bc 070b 27bd ce14 09bd
00000310: 40dd 51bd 6a64 acbc 2a27 833b e978 683c
00000320: 4e1b d23c b64d 793c 7a81 2f3d 710e af3b
00000330: d8b6 d83c 7554 92bc b73c 983c 8167 8f3c
00000340: 6943 a8ba 0fe8 1abc 4311 2ebb 0c76 e9bc
00000350: d230 12bd 891f 8abb 69ec 1bbc 8f7b 9fbc
00000360: 0ade 93bc f37a 92ba bddd 6cbb 34f7 e7bc
00000370: eee9 c1bb 6b95 a6bc 1807 edbc e44b d5bc
00000380: 9e67 e9bc a7c5 45bc c06c 37bc 7498 9bbc
00000390: b9c7 b0bc 4537 5a3b c16d 643c a280 21bc
000003a0: 9874 83bc 35a3 58bb 1c8c d1bc 7990 2fbc
000003b0: 656c b3bc 5c08 e3bc 5361 8b3c c8e1 f3bc
000003c0: 768d 98bc 2c3d f7bc 7089 34bd 1ff6 593b
000003d0: 220c aa3c 1392 ab3b 5cbb 003d 8ac8 ab3b
000003e0: 7030 4d3c 5915 d13b 6209 99ba b769 a13c
000003f0: d1a1 2f3c c622 e73c 53ee 683c 0643 90bb
-0.0064403103 -0.006710621 -0.016852757 -0.0071949353 -0.020705938 0.00917396 -0.0048094825 -0.018435335
-0.018610518 0.011353305 0.0075228973 0.009526063 -0.008421476 0.009948027 -0.008651777 -0.0014105026
-0.012596967 -0.020404322 0.009311607 0.0045450344 0.008748359 -0.0005861527 0.006421186 -0.013020248
0.001848256 -0.0046322276 -0.0015917291 -0.002672311 -0.0055348547 0.0023256629 -5.100388e-05 0.00037184864
0.023024067 -0.0072093355 -0.0030218437 0.009528725 0.0015318682 0.013959035 -0.008678144 -0.002202091
-0.0085451845 -0.001393407 0.0012393221 -0.014023955 -0.01479447 0.01777898 -0.01629982 0.014487725
0.009358402 0.0011719746 0.008030639 -0.008688342 -0.0033298058 0.019894429 0.020134086 0.0049100206
0.0014383558 0.02827812 0.017253775 0.002546884 0.0036937941 0.015975492 0.028365593 -0.0020548087
0.0042638215 -0.008829929 -0.0023188968 -0.004775594 -0.0077548777 0.015797298 -0.007254754 -0.010238837
0.017630445 0.018582584 0.0019701465 0.011167181 0.004402399 -0.015371067 -0.003124184 0.0074999873
-0.011135832 -0.0070984457 0.01508132 -0.0005751137 0.027222233 -0.0005649906 -0.01743618 0.017773157
0.007188037 -0.010199743 -0.0051398664 0.011579431 -0.008937056 0.0075801015 0.0076038064 -0.0096688
0.013032389 0.015650675 -0.010255719 0.02096073 -0.0014905999 -0.017854229 -0.018334694 -0.016114874
-0.005189897 -0.032558106 -0.0046365317 0.024858177 -0.007409935 0.005240097 0.0013706094 -0.02143741
-0.0031600753 -0.018578973 -0.00929737 -0.012970754 -0.0145843215 0.017299611 -0.010129737 -0.023279123
0.0024942944 -0.0019359271 -0.0016512717 -0.008983228 0.005383364 0.029603923 -0.018255308 -0.003541757
-0.012528911 -0.009411928 -0.01435584 -0.008879862 -0.0031907272 -0.019205173 -0.037314042 0.013919247
0.014271737 -0.0012644151 0.0015956819 -0.009006625 -0.022240562 0.014593096 -0.0076770685 -0.0100888
-0.004185257 -0.004245957 0.017121844 0.010241666 0.008769645 0.01416614 0.018190969 -0.0032243598
0.021444172 -0.017161438 0.012643002 -0.004941013 -0.009550895 -0.018127203 0.0038340914 -0.027360419
0.007867306 -0.010934497 -0.0019550226 0.01279907 -0.027245998 0.018413411 -0.012767978 -0.023997614
-0.0017742959 -0.0102814175 -0.025842967 -0.01977857 -0.014391662 -0.020994304 0.003490905 -0.0053333817
-0.013879077 -0.010840978 -0.026174342 -0.018801313 0.010066919 -0.028268134 -0.009303401 -0.016574318
-0.0035410146 -0.017870614 -0.006041907 0.0008619437 0.0069776066 -0.017460369 -0.0091049 -0.013658374
-0.0077426513 -0.022646554 -0.040782 -0.033467107 -0.05123639 -0.021043975 0.0040024715 0.0141889835
0.025647786 0.015216282 0.042848088 0.0053422977 0.026454374 -0.017862538 0.018583639 0.01750541
-0.0012837473 -0.009454741 -0.0026560582 -0.028498672 -0.03569109 -0.004215185 -0.009516814 -0.019468097
-0.018050212 -0.0011175558 -0.0036142909 -0.028316118 -0.005917779 -0.02033492 -0.028934047 -0.026037164
-0.028491791 -0.01207105 -0.011195362 -0.018993594 -0.02157961 0.0033297103 0.013942183 -0.009857329
-0.016046807 -0.0033056263 -0.025579505 -0.010715597 -0.021902272 -0.027713947 0.017014181 -0.029770747
-0.018622141 -0.030180536 -0.044076383 0.0033258272 0.020757739 0.0052359193 0.03142868 0.005242412
0.012523755 0.0063807187 -0.001167577 0.01970373 0.010719732 0.028214823 0.014216977 -0.004402521

st_gcn_networks.2.tcn.2.bias f4 [16]
00000000: 84f2 ef35 a047 c0b8 cfe7 7cb8 575b 9527
00000010: 407b b3b7 ef62 8db7 6760 4937 41e9 43b6
00000020: 3c31 cbb6 58cc b937 56bd 7738 503a 29b7
00000030: 7af3 16b8 459d d436 4f54 bf37 8477 f2a7
1.7877469e-06 -9.1686146e-05 -6.029737e-05 4.145484e-15 -2.1395856e-05 -1.685458e-05 1.2002979e-05 -2.9193036e-06
-6.055603e-06 2.2148874e-05 5.9065722e-05 -1.0086762e-05 -3.5989542e-05 6.336401e-06 2.2808234e-05 -6.729807e-15

st_gcn_networks.2.tcn.3.weight f4 [16]
00000000: aaf7 053e 8a1b 5e3e 7c20 053e 87de aa11
00000010: 1d0c 613e d874 313e adce 473e 8fb8 8e3d
00000020: c3fc d33d b848 c13d 4249 623e f48d 893d
00000030: ecf5 753e 22e2 b33c 43a7 963d 38c5 7412
0.13082758 0.21690193 0.13000673 2.6958414e-28 0.21977277 0.17329729 0.19512434 0.069687955
0.10350945 0.09437698 0.22098258 0.067165285 0.24019593 0.021958414 0.073561214 7.7235915e-28
